gtcrn_micro/models/tflite/gtcrn_micro_dynamic_range_quant.tflite (tflite, 78336 bytes, 48 tensors)

arith.constant9 f4 [16]
0	0x3f7fffab	0.99999493
1	0x3f7fffab	0.99999493
2	0x3f7fffab	0.99999493
3	0x3f7fffab	0.99999493
4	0x3f7fffab	0.99999493
5	0x3f7fffab	0.99999493
6	0x3f7fffab	0.99999493
7	0x3f7fffab	0.99999493
8	0x3f7fffab	0.99999493
9	0x3f7fffab	0.99999493
10	0x3f7fffab	0.99999493
11	0x3f7fffab	0.99999493
12	0x3f7fffab	0.99999493
13	0x3f7fffab	0.99999493
14	0x3f7fffab	0.99999493
15	0x3f7fffab	0.99999493

arith.constant10 f4 [2]
0	0x3f7fffac	0.999995
1	0x3f7fffac	0.999995

arith.constant27 f4 [16, 1, 5, 3]
0	0x3cc4722e	0.023980226
1	0xbcf7d4d5	-0.030252853
2	0xbe54a78f	-0.20767044
3	0xbe56f160	-0.20990515
4	0x3e166ce2	0.14689973
5	0x3db6e080	0.08929539
6	0xbe68839e	-0.22706458
7	0x3e6400f0	0.22265983
8	0xbdde659a	-0.10859223
9	0x3e6b623c	0.22986692
10	0xbdfd85ad	-0.12379012
11	0x3e2b0951	0.16702773
12	0xbd75fea6	-0.060057305
13	0x3e6a933a	0.22907725
14	0xbca71bfc	-0.020399086
15	0x3d88dd0b	0.066827856
16	0x3da8e4ff	0.082468025
17	0x3d16f024	0.03685011
18	0x3ce81c1c	0.028333716
19	0xbe503f5e	-0.20336673
20	0xbe3f1193	-0.18659048
21	0xbdc86260	-0.097843885
22	0xbdf5c13f	-0.119997494
23	0x3e629e48	0.22130692
24	0x3e1b6b71	0.15177704
25	0x3df85a4e	0.12126599
26	0x3e222cdc	0.15837425
27	0x3d47dee3	0.048796546
28	0xbe34a786	-0.1764203
29	0x3e4d3735	0.20040591
30	0xbe1a7b2c	-0.15086049
31	0xbe46f5c7	-0.19429694
32	0xbdd0b855	-0.101914085
33	0xbd85fdec	-0.065425724
34	0x3dafdb3c	0.085867375
35	0xbe466467	-0.19374238
36	0x3e7589c6	0.23978338
37	0xbdcd7c7c	-0.10033509
38	0xbe50309c	-0.20331043
39	0x3e0d4f95	0.1379989
40	0x3e5c274b	0.21499364
41	0x3e1a1844	0.15048319
42	0xbd907ca6	-0.07055025
43	0xbe5e1914	-0.21689254
44	0xbe621b11	-0.22080638
45	0x3e183c90	0.14866853
46	0xbd977b78	-0.07396597
47	0xbd9e37af	-0.077254646
48	0xbe154728	-0.14577925
49	0xbe40fb18	-0.18845785
50	0xbd8d45ea	-0.06898101
51	0xbe4d9900	-0.20077896
52	0x3d9d2d66	0.07674675
53	0x3e0fface	0.14060518
54	0x3e760e6d	0.2402894
55	0x3e3ed853	0.18637209
56	0x3e0b7be9	0.13621487
57	0xbe73c13e	-0.23804185
58	0x3e4e6d5d	0.20158906
59	0xbe222bd8	-0.15837038
60	0xbd67058c	-0.056401774
61	0xbda2adda	-0.07943316
62	0x3e24740e	0.16059896
63	0x3d8deeba	0.06930299
64	0xbe1dd56e	-0.15413448
65	0x3cf46292	0.029832158
66	0x3e2c6b2f	0.16837762
67	0xbe20d850	-0.15707517
68	0x3e7508b6	0.23929104
69	0xbe65d9e9	-0.22446407
70	0xbe4484de	-0.1919131
71	0x3dff0cf1	0.1245364
72	0xbe8067f8	-0.25079322
73	0xbd92c9e3	-0.07167413
74	0xbc081781	-0.008306385
75	0x3df24fd7	0.118316345
76	0xbe57147d	-0.2100391
77	0x3e32e99b	0.17471926
78	0xbe714be7	-0.2356411
79	0x3e2d1350	0.16901898
80	0xbdfc2630	-0.12311971
81	0xbdcc46a6	-0.099744126
82	0xbe4430dd	-0.19159265
83	0x3dea376f	0.11436354
84	0xbd9d049a	-0.07666893
85	0x3dc46bdf	0.09590887
86	0xbe820a69	-0.25398567
87	0xbc069204	-0.008213524
88	0xbe08d4c6	-0.13362417
89	0x3e690c95	0.22758706
90	0xbe29f4bf	-0.1659727
91	0x3d8fda0c	0.07024011
92	0x3d847890	0.06468308
93	0x3e76531f	0.24055146
94	0xbcc660c2	-0.02421606
95	0x3e4918f2	0.19638422
96	0xbe29585a	-0.1653761
97	0x3e307fbd	0.17236228
98	0xbd1fc14e	-0.03900271
99	0xbe197e79	-0.14989652
100	0x3e227dd0	0.15868306
101	0xbd7273fd	-0.059192646
102	0xbe674821	-0.22586109
103	0x3e7ae874	0.24502736
104	0xbe69e1b5	-0.22840007
105	0x3d1131d5	0.035447914
106	0xbe2f4a48	-0.1711818
107	0xbd327c21	-0.04357541
108	0xbe59c174	-0.21265203
109	0x3b653578	0.0034974497
110	0xbe239d7b	-0.15978043
111	0xbe70e13c	-0.2352342
112	0xbd372533	-0.04471321
113	0xbe2deb5e	-0.16984317
114	0x3df54f14	0.119779736
115	0x3e5caa5a	0.21549359
116	0xbe740e32	-0.2383354
117	0xbe45917f	-0.19293784
118	0x3e53e20d	0.206917
119	0x3e511e74	0.20421773
120	0xbd879b12	-0.06621374
121	0x3dfb1b81	0.12261105
122	0x3c8cdaa7	0.017194105
123	0xbe0a6fec	-0.13519257
124	0x3e3dc33a	0.18531504
125	0x3e80e850	0.2517724
126	0xbe35d982	-0.17758754
127	0x3e4dc4da	0.20094624
128	0xbe19715e	-0.14984652
129	0x3e051baf	0.12998842
130	0x3e6a65cc	0.22890395
131	0x3e4e5cba	0.2015256
132	0x3d62e5e8	0.055395037
133	0xbe6476ce	-0.22310945
134	0x3d99c088	0.075074255
135	0xbdd33e57	-0.10314625
136	0x3d5683a9	0.052371655
137	0x3dccdf11	0.10003484
138	0x3c3d51a0	0.011555105
139	0x3e82c9d8	0.2554462
140	0x3e7ce86d	0.24698038
141	0x3c1250fc	0.008930441
142	0xbd234140	-0.03985715
143	0xbd3b1aa0	-0.04567969
144	0xbdff9de8	-0.1248129
145	0x3e479394	0.1948989
146	0x3e0d4ad9	0.13798083
147	0x3e681d18	0.22667348
148	0x3d12e2ff	0.03586101
149	0x3e4b3925	0.19846018
150	0x3e197da2	0.14989331
151	0xbe6755f8	-0.22591388
152	0xbbef59a5	-0.0073043876
153	0xbd81f619	-0.063457675
154	0x3e6527c5	0.22378452
155	0x3e349ab2	0.17637137
156	0x3e816ad5	0.2527682
157	0x3e2be81f	0.16787766
158	0xbca21408	-0.019784942
159	0xbd99c1eb	-0.0750769
160	0x3e6689d4	0.22513515
161	0xbe2df2b8	-0.16987121
162	0x3e091fc3	0.13391022
163	0x3e2abd7d	0.16673847
164	0x3da178ce	0.0788437
165	0x3dfa974f	0.12235891
166	0x3d518452	0.05115158
167	0x3d31ee07	0.04343989
168	0xbd7ed88f	-0.062218245
169	0xbe472785	-0.19448669
170	0x3e16e281	0.14734842
171	0xbdc68a91	-0.09694398
172	0x3deb5a2f	0.114918105
173	0x3dcdf10f	0.10055744
174	0xbe4f2695	-0.20229562
175	0xbda9410a	-0.08264358
176	0x3d525513	0.051350664
177	0xbe43f0c0	-0.19134808
178	0x3da4a9e7	0.08040219
179	0xbe2922bf	-0.16517161
180	0xbbd75047	-0.006570849
181	0x3d853f6b	0.06506237
182	0xbdec24ef	-0.11530482
183	0x3e83ec2b	0.2576612
184	0xbd99fcb4	-0.075189024
185	0x3c9e1605	0.01929761
186	0xbd9ff952	-0.07811226
187	0xbdd1c3e3	-0.102424406
188	0x3d9d7146	0.07687621
189	0x3d846bdc	0.06465885
190	0x3e443fc4	0.1916495
191	0x3cb91c2a	0.022596437
192	0x3d015a7d	0.031580437
193	0x3e00fbaa	0.12596002
194	0xbd57a611	-0.052648608
195	0x3bb13b00	0.0054086447
196	0x3e58c350	0.21168256
197	0x3dca65a4	0.09882668
198	0xbe59424e	-0.212167
199	0xbdf439ba	-0.11925073
200	0xbe190846	-0.14944562
201	0x3e275e2c	0.16344517
202	0x3d2948da	0.041329242
203	0x3c81722e	0.015801515
204	0x3e51f196	0.20502314
205	0x3cebe763	0.028796857
206	0x3ccd92de	0.025094446
207	0x3e49ae8a	0.19695488
208	0x3d0d7cb4	0.034542754
209	0x3d944194	0.072390705
210	0xbe0756dc	-0.13216728
211	0x3e54e5ae	0.20790741
212	0x3de25434	0.11051217
213	0x3d37e7e9	0.0448989
214	0x3e3e16b0	0.18563342
215	0xbcf844a1	-0.030306162
216	0x3e3f8e8a	0.18706718
217	0xbe1f955f	-0.15584324
218	0xbbbcc1f0	-0.005760424
219	0x3d23e656	0.040014587
220	0xbd485bc2	-0.048915632
221	0xbe06c6c9	-0.13161768
222	0x3e316b44	0.17326075
223	0xbe827aaf	-0.25484225
224	0x3e03eab9	0.12882508
225	0xbd3af7dd	-0.045646537
226	0xbd0abeb1	-0.033873264
227	0x3d52fc8d	0.051510382
228	0x3e182b4c	0.14860266
229	0xbe361ffd	-0.1778564
230	0x3e10fefa	0.14159766
231	0x3e2047ec	0.15652436
232	0x3e484a99	0.19559707
233	0x3e0a94eb	0.1353337
234	0x3e4abe35	0.1979912
235	0xbe38ccf0	-0.18046927
236	0x3a5f86c9	0.00085268595
237	0x3ce5d8e9	0.028057532
238	0x3db1d773	0.08683672
239	0xbe6cfd7d	-0.23143573

arith.constant28 f4 [16, 1, 1, 8]
0	0x3e3dedde	0.1854777
1	0xbd3d34d6	-0.046192966
2	0x3e60a501	0.21937944
3	0xbe53b83a	-0.20675746
4	0xbeaf73d5	-0.3426806
5	0x3db730b9	0.0894484
6	0xbe4a3617	-0.19747196
7	0x3e7bcbce	0.24589464
8	0x3eabcc8d	0.33554497
9	0x3cd2f311	0.025750669
10	0xbda1c31a	-0.07898541
11	0xbdaea7c6	-0.08528094
12	0x3e114cf1	0.14189507
13	0xbe1d6bfa	-0.15373221
14	0xbda6e4db	-0.081491195
15	0xbe81e9f0	-0.25373793
16	0x3e3a99e0	0.18222761
17	0x3dd95485	0.10611824
18	0xbe418e36	-0.18901905
19	0xbe99d285	-0.30043426
20	0xbd98fd6f	-0.074702136
21	0x3d83c6a9	0.06434376
22	0xbdb34ecc	-0.08755264
23	0xbd7f651b	-0.06235228
24	0xbe8ab5ce	-0.2709183
25	0xbdf17ab9	-0.117909856
26	0x3e97431c	0.29543388
27	0x3e49b856	0.19699225
28	0xbe53cfae	-0.20684692
29	0x3e990bc0	0.29891777
30	0xbded9bd9	-0.11601991
31	0xbeb07b33	-0.34468994
32	0xbd28d58e	-0.041219287
33	0xbdea22ee	-0.114324436
34	0xbddd54e3	-0.108072065
35	0x3e942e34	0.289415
36	0x3e485f14	0.1956752
37	0x3e7d4b9c	0.24735874
38	0xbe7a75e7	-0.24459039
39	0x3e89dc73	0.26926002
40	0x3d593ed2	0.053038426
41	0xbe95f47b	-0.29288086
42	0xbe045735	-0.12923892
43	0xbe713c2d	-0.23558111
44	0xbe2851bf	-0.16437434
45	0xbc336ed7	-0.010951719
46	0x3e211286	0.15729722
47	0xbd845e9f	-0.0646336
48	0x3ea3ec2f	0.3201613
49	0xbc8c05a0	-0.017092526
50	0x3d1e8633	0.0387022
51	0x3df05518	0.1173498
52	0xbd726339	-0.059176657
53	0x3ceaa153	0.028641379
54	0x3ca858f8	0.020550236
55	0xbd884c35	-0.0665516
56	0x3e826d6b	0.25474104
57	0xbe7d124a	-0.24714008
58	0x3abda71f	0.0014469362
59	0xbe8ff539	-0.28116778
60	0x3dd14191	0.10217584
61	0x3b9fb620	0.004874006
62	0xbe3f600b	-0.18688981
63	0xbe75ea81	-0.24015237
64	0x3e5098f8	0.20370853
65	0xbe91509c	-0.28381813
66	0xbd9881d2	-0.07446636
67	0x399ff01b	0.00030505736
68	0xbe5ebdb0	-0.21752048
69	0x3db9cc18	0.09072131
70	0xbd7c6ca9	-0.061627064
71	0xbe83b0b5	-0.25720754
72	0x3e5ac5e9	0.21364559
73	0x3e110f89	0.14166082
74	0x3e13a8e4	0.14419895
75	0x3e655273	0.22394733
76	0xbc819712	-0.015819106
77	0x3e68f1c6	0.22748479
78	0x3e34c71a	0.17654076
79	0x3e484591	0.19557787
80	0x3e32b068	0.17450106
81	0xbe39edf8	-0.18157184
82	0xbea69b87	-0.32540533
83	0xbeab19c2	-0.3341809
84	0xbe9a6554	-0.30155432
85	0x3d88986b	0.066696964
86	0xbdd3d720	-0.10343766
87	0xbe93de76	-0.28880662
88	0x3be96c3b	0.007123498
89	0x3e58200e	0.21105978
90	0xbe71617a	-0.2357234
91	0x3e8366ad	0.25664273
92	0x3b841d1a	0.0040317895
93	0x3e1e9f67	0.15490495
94	0xbe43ee29	-0.1913382
95	0xbe8b9d5f	-0.27268502
96	0xbce1350b	-0.027491113
97	0x3e670f32	0.2256439
98	0x3d4535e3	0.048147094
99	0x3e64001a	0.22265664
100	0xbe4d30d8	-0.20038164
101	0xbe62da50	-0.22153592
102	0xbdf2f8c7	-0.11863857
103	0x3e7b8ad1	0.24564673
104	0xbd8c8c5a	-0.068627074
105	0x3ea22282	0.31666952
106	0xbda6bfab	-0.081420265
107	0x3e4df209	0.2011186
108	0x3d03161a	0.0320035
109	0xbe80e217	-0.25172493
110	0xbea9fde3	-0.33201513
111	0x3e94a9ff	0.29035947
112	0x3d9e59f1	0.07731999
113	0xbe9f6cd3	-0.31137714
114	0x3dadb307	0.084814124
115	0xbdf00017	-0.11718767
116	0x3d2ae01a	0.041717626
117	0xbea523e1	-0.32253936
118	0xbc58e575	-0.013238301
119	0xbde67eb4	-0.112546355
120	0xbe3549fb	-0.17704003
121	0xbe8c441e	-0.2739572
122	0xbcb2ef4c	-0.021842621
123	0xbd6194c4	-0.055073515
124	0x3db4a592	0.088206425
125	0x3e9f1127	0.31067774
126	0x3e4f49b3	0.20242958
127	0x3dba87be	0.09107922

arith.constant29 f4 [1, 3, 3, 16]
0	0xbe996b35	-0.29964605
1	0x3e21c3c9	0.15797342
2	0xbe9deb20	-0.3084345
3	0x3e0bc3a2	0.13648847
4	0xbe7cbc1d	-0.24681135
5	0x3e743b28	0.23850691
6	0x3e05d437	0.13069235
7	0x3d9e8a12	0.077411786
8	0xbb10f926	-0.002212116
9	0x3e98f09a	0.29871064
10	0x3e6051ee	0.21906254
11	0xbe049c1f	-0.1295018
12	0x3e8cb7c0	0.2748394
13	0x3d2a843e	0.041630022
14	0xbea9debb	-0.33177742
15	0xbe7e909c	-0.24859852
16	0xbd896a53	-0.06709733
17	0xbe9f2e54	-0.31090033
18	0xbe87eb85	-0.26546875
19	0xbd8fa71c	-0.070142955
20	0xbe5575ad	-0.20845671
21	0x3ea6282c	0.32452524
22	0xbe5aebeb	-0.21379058
23	0xbea1c82d	-0.31598035
24	0x3dcd70ad	0.10031257
25	0x3e918556	0.2842204
26	0xbbaf45c6	-0.005348894
27	0xbe8e2bf9	-0.27767923
28	0xbdb93963	-0.09044149
29	0xbd852f7f	-0.065032
30	0x3d10d71b	0.03536139
31	0xbe020753	-0.12698106
32	0x3d7bb278	0.061449498
33	0xbdd3a7bb	-0.103347264
34	0xbd92ddf6	-0.07171242
35	0x3e2d485f	0.16922139
36	0x3e5ad343	0.21369652
37	0xbe5ed96f	-0.21762632
38	0xbdd6e6df	-0.10493254
39	0xbe3840ac	-0.1799342
40	0xbe3b164b	-0.18270223
41	0x3e6244f9	0.22096623
42	0x3c7f6857	0.015588841
43	0x3aca77be	0.0015447063
44	0xbe479b2a	-0.19492784
45	0xbe4d069d	-0.20022054
46	0xbd2cacb2	-0.042156883
47	0x3e900313	0.28127345
48	0x3e1f928c	0.15583247
49	0xbe514e8e	-0.20440122
50	0xbe67f4e2	-0.22652009
51	0xbe593d57	-0.21214806
52	0xbe92a3e2	-0.28640658
53	0x3e9364fc	0.28787982
54	0xbea9a4f4	-0.33133662
55	0x3e053954	0.1301015
56	0x3e52c1a1	0.20581676
57	0x3db05bb6	0.086112425
58	0xbd392d4e	-0.04520922
59	0xbdcd7e93	-0.10033908
60	0x3e12b1e6	0.14325675
61	0x3e144c77	0.14482294
62	0xbdac8a02	-0.084247604
63	0x3e6a8433	0.22901992
64	0xbe75258e	-0.23940107
65	0xbe9bf7dc	-0.3046254
66	0xbd7a4264	-0.06109847
67	0xbe3cee70	-0.18450332
68	0x3c490abe	0.012270628
69	0x3e9d1daf	0.3068671
70	0x3e91e590	0.28495455
71	0xbe9c0609	-0.30473354
72	0xbe3db2b2	-0.18525198
73	0x3dee98dd	0.1165025
74	0xbe2a9bb3	-0.16660957
75	0x3de16266	0.11005096
76	0x3e1562fd	0.14588542
77	0xbe39f956	-0.1816152
78	0x3e8ecad9	0.27889135
79	0x3e1194cb	0.14216916
80	0x3ea7b658	0.32756305
81	0xbd3c03c2	-0.04590202
82	0x3e08c2ab	0.1335551
83	0x3ea5c2ce	0.32375187
84	0x3e4ccee5	0.20000799
85	0xbe715011	-0.23565699
86	0x3e2ea742	0.17055991
87	0xbe927a8e	-0.28609127
88	0x3e1d89ec	0.15384644
89	0xbe08eb1b	-0.13370936
90	0x3ea3f73d	0.32024565
91	0x3e5d0097	0.21582256
92	0x3e9552f7	0.2916486
93	0xbe1d8ff4	-0.15386945
94	0x3c9d9ba2	0.01923925
95	0x3e3c6b0d	0.18400212
96	0xbea07891	-0.31341985
97	0xbdbda3f8	-0.0925979
98	0x3dc6993a	0.096971944
99	0x3d3d7702	0.046256073
100	0x3e85adfb	0.261093
101	0xbde52595	-0.11188809
102	0xbea62930	-0.324533
103	0x3ea04671	0.31303743
104	0xbe6eb5da	-0.23311558
105	0x3ea2425b	0.3169125
106	0x3d597fef	0.053100523
107	0x3e63d5fb	0.22249596
108	0x3c815f41	0.01579249
109	0x3e19fd90	0.15038133
110	0x3d62b1e1	0.05534542
111	0x3e2cd235	0.16877063
112	0xbe70d301	-0.23517992
113	0xbe2e314f	-0.17010997
114	0x3d07643f	0.033054586
115	0xbe1eb38f	-0.15498184
116	0x3c189af9	0.009314292
117	0xbe8bf29e	-0.2733354
118	0x3da03b61	0.07823826
119	0xbc36781a	-0.011137033
120	0xbd84c26f	-0.06482398
121	0xbd9069f7	-0.07051461
122	0xbe6b30d6	-0.22967848
123	0xbe8f4383	-0.27981195
124	0xbe3d9a48	-0.18515885
125	0x3dea47de	0.11439489
126	0x3e25bb8d	0.16184826
127	0xbd308146	-0.043092035
128	0xbe9b8cd3	-0.30380878
129	0xbe5791fc	-0.21051782
130	0xbe80e4f6	-0.25174683
131	0xbe651495	-0.22371133
132	0x3da4c345	0.08045057
133	0xbe7a9541	-0.24470998
134	0x3ea7b8d7	0.3275821
135	0x3e79a72c	0.24380177
136	0x3dc2552b	0.09488901
137	0xbd82e860	-0.06391978
138	0x3df88a69	0.12135775
139	0xbd2c6bd2	-0.042095013
140	0x3e5e038f	0.21681045
141	0xbe812cc0	-0.25229454
142	0xbe99c044	-0.300295
143	0x3e5ee782	0.21768

arith.constant30 f4 [8, 1, 1, 16]
0	0x3b13e3cf	0.0022566204
1	0xbe665b96	-0.22495875
2	0x3e2ba140	0.1676073
3	0xbc4a5d3e	-0.012351332
4	0xbe6cb904	-0.23117453
5	0xbdb193a6	-0.0867074
6	0x3e0cbe18	0.1374439
7	0x3e46f2dd	0.19428582
8	0x3d978ca6	0.073998734
9	0xbe02641b	-0.127335
10	0xbe0bf3c4	-0.13667208
11	0xbb53163b	-0.0032209295
12	0x3d7abeae	0.061217003
13	0x3e19c708	0.1501733
14	0x3e48bf34	0.19604188
15	0xbdf8e0d6	-0.12152259
16	0x3d771d37	0.060330596
17	0x3d600f3e	0.054702036
18	0xbdf4cfc0	-0.11953688
19	0x3e7a1090	0.2442038
20	0x3e651b69	0.22373737
21	0xbddcefe4	-0.10787943
22	0xbd385844	-0.04500605
23	0xbb7cf52d	-0.0038598285
24	0xbe5544b8	-0.20826995
25	0x3e3ed0d7	0.18634354
26	0x3e71cb79	0.23612775
27	0xbe6994dd	-0.22810693
28	0xbe6cc2c6	-0.23121175
29	0xbde1beca	-0.11022718
30	0x3e3a4a91	0.18192507
31	0xbd833ee5	-0.064084806
32	0x3d82496d	0.06361661
33	0x3e34902b	0.1763312
34	0x3e0e3f83	0.13891415
35	0xbd645415	-0.05574425
36	0x3e583765	0.21114881
37	0x3dd97b0d	0.10619173
38	0x3e68d48c	0.2273733
39	0xbe174a9c	-0.14774555
40	0x3de03216	0.10947053
41	0x3e63bf33	0.22240905
42	0xbe57235b	-0.21009581
43	0xbdaf70fa	-0.085664704
44	0xbe350889	-0.17679037
45	0xbc298bc8	-0.010348268
46	0x3e6facc3	0.23405747
47	0x3e52324b	0.20526998
48	0x3e01caad	0.12674971
49	0xbd97294e	-0.07380925
50	0xbe39bf89	-0.18139471
51	0x3e3374b7	0.17524992
52	0xbe557af2	-0.20847681
53	0x3d825c85	0.06365303
54	0x3e1bd0f9	0.15216435
55	0xbe48a442	-0.1959391
56	0x3e5f9ecf	0.21837924
57	0x3e02e847	0.1278392
58	0xbe000308	-0.12501156
59	0x3e3ba308	0.1832391
60	0xbdf45f60	-0.11932254
61	0x3e5952af	0.21222948
62	0x3e1a7ab5	0.15085872
63	0x3dbaac03	0.0911484
64	0xbe6d7e18	-0.23192632
65	0x3e27ebf1	0.16398598
66	0xbe2d6279	-0.16932096
67	0x3da5c522	0.08094241
68	0xbe2a28e0	-0.16617155
69	0x3d5a03d0	0.053226292
70	0xbdad76db	-0.084699355
71	0x3ded4d0e	0.11586963
72	0x3da86551	0.082224496
73	0xbe52a03d	-0.20568939
74	0xbc1aa72d	-0.009439272
75	0x3e42e92c	0.1903426
76	0x3e4abf19	0.1979946
77	0x3ca1ca0b	0.019749662
78	0xbdca5c6a	-0.09880908
79	0x3e085baf	0.13316225
80	0x3e07f7a3	0.1327806
81	0x3d9b0ee9	0.07571203
82	0x3e29570a	0.16537109
83	0x3de28ae6	0.11061649
84	0xbcb38bb5	-0.021917203
85	0x3e0394e9	0.12849773
86	0xbe47e02e	-0.19519112
87	0xbe66231c	-0.2247433
88	0xbe2e073b	-0.16994946
89	0x3d46b787	0.04851487
90	0x3d82cf19	0.06387157
91	0x3d216273	0.03940053
92	0xbe4eb470	-0.20186019
93	0xbdc92752	-0.09821953
94	0x3d3839e4	0.044977084
95	0xbcac8077	-0.02105735
96	0x3c7ef52c	0.015561383
97	0x3e1b18bb	0.15146153
98	0x3d5e9e27	0.054350045
99	0xbe750476	-0.23927483
100	0xbde1a962	-0.11018635
101	0xbcda7138	-0.026665315
102	0x3e369f72	0.17834261
103	0xbe75a98d	-0.2399046
104	0x3de8f578	0.113749444
105	0xbe4cd95d	-0.20004793
106	0x3d42dfb0	0.047576606
107	0xbe485d1e	-0.19566771
108	0xbd9789aa	-0.07399304
109	0x3d92f6a0	0.07175946
110	0x3e5d984d	0.2164013
111	0xbd2a7fc8	-0.041625768
112	0xbca3738a	-0.019952554
113	0xbe22e96b	-0.15909354
114	0x3e5e5497	0.21711956
115	0x3e38d119	0.18048514
116	0xbd8c3302	-0.068456665
117	0xbcac42a7	-0.021027876
118	0xbe2979f0	-0.16550422
119	0xbe261576	-0.16219124
120	0x3e0515aa	0.12996545
121	0xbd2f0897	-0.0427328
122	0x3d65504d	0.055984784
123	0xbe3104a4	-0.17286927
124	0xbd82f315	-0.063940205
125	0x3d7d03cd	0.061771203
126	0xbdc18345	-0.09448866
127	0x3e01bcf3	0.12669735

arith.constant31 f4 [16, 1, 1, 16]
0	0x3e024121	0.12720157
1	0x3e45ab31	0.19303586
2	0xbd753698	-0.059866518
3	0xbe2a81f0	-0.1665113
4	0xbe6b764d	-0.22994347
5	0x3e28df8b	0.16491525
6	0x3df7ffc3	0.121093296
7	0xbe2853bd	-0.16438194
8	0x3e116858	0.1419996
9	0xbe5fb9d3	-0.2184823
10	0xbe20ebdf	-0.15714978
11	0x3e23a0fe	0.15979382
12	0x3bec3772	0.007208758
13	0xbe7deea9	-0.24798073
14	0x3e7c152b	0.2461745
15	0xbd366624	-0.044531003
16	0x3e20ed33	0.15715484
17	0xbe64bbfb	-0.22337334
18	0xbe7a7d32	-0.2446182
19	0xbde0efde	-0.10983251
20	0xbddc4bd0	-0.107566476
21	0xbd9b7ba5	-0.07591943
22	0x3c86e784	0.016467817
23	0xbe16eb04	-0.14738089
24	0x3cd62d3a	0.026144613
25	0x3e3e1e04	0.18566138
26	0xbd8d0dee	-0.068874225
27	0xbe199128	-0.14996779
28	0xbd90d7e8	-0.07072431
29	0xbc261929	-0.010137835
30	0x3d6bd903	0.057580005
31	0x3e1108a0	0.14163446
32	0xbe565912	-0.20932415
33	0xbdf75d9b	-0.12078401
34	0xbd0fe3d1	-0.035129372
35	0xbe7c2c3b	-0.24626248
36	0x3e756d45	0.23967464
37	0xbd28c4a9	-0.041203175
38	0xba8b51d2	-0.0010629243
39	0x3cd417ca	0.02589025
40	0x3ca0aeeb	0.019614657
41	0x3e0a58af	0.13510393
42	0xbbec99f2	-0.0072205
43	0xbe34ce49	-0.17656817
44	0x3c61e596	0.013787648
45	0xbdce9af4	-0.10088149
46	0x3cc7f3ce	0.024408247
47	0x3e723223	0.23651938
48	0xbe2326a4	-0.15932709
49	0x3e7d6d43	0.24748711
50	0xbdc55e67	-0.096371464
51	0xbd0c6122	-0.03427232
52	0xbe67f700	-0.22652817
53	0x3e5ce6dc	0.21572441
54	0xbe0de04d	-0.13855095
55	0x3b4242c0	0.0029641837
56	0xbd654795	-0.05597647
57	0x3e63c001	0.22241212
58	0x3e709519	0.23494376
59	0xbd5f0077	-0.054443803
60	0x3e007712	0.12545422
61	0x3da0c253	0.078495644
62	0x3d70e5a1	0.05881274
63	0x3e197c52	0.1498883
64	0xbe6a7989	-0.22897924
65	0x3e5572e2	0.20844606
66	0xbc8131f6	-0.015770894
67	0x3d400d91	0.046887938
68	0x3c58a6f9	0.013223403
69	0xbda6e3c1	-0.08148909
70	0x3e0098f8	0.12558353
71	0xbe68efb4	-0.2274769
72	0x3e49c9c6	0.19705877
73	0xbe524863	-0.20535426
74	0x3db0c2f2	0.08630933
75	0x3e76af4b	0.24090306
76	0x3e11d09a	0.14239731
77	0xbe401a99	-0.18760146
78	0xbe7dddcb	-0.24791639
79	0xbe0e436b	-0.13892905
80	0xbe461a23	-0.19345908
81	0x3e1a7f1b	0.1508755
82	0xbe6163ec	-0.22010773
83	0x3e788360	0.24268866
84	0x3e3411e9	0.17584957
85	0x3e7124ef	0.23549245
86	0xbd2d59d7	-0.042322006
87	0x3de717f4	0.112838656
88	0x3e1f1948	0.15536988
89	0xbe33e091	-0.17566134
90	0xbd3278bd	-0.043572176
91	0xbda40092	-0.08007921
92	0xbd09fb9b	-0.033687215
93	0x3dc99582	0.098429695
94	0x3d8b0f5a	0.067900375
95	0x3e77d959	0.24204005
96	0x3e3f04e1	0.18654205
97	0xbc4aeb7d	-0.012385246
98	0xbe3635e0	-0.17793989
99	0xbdb0e1aa	-0.08636792
100	0xbdc834aa	-0.0977567
101	0xbe26cedf	-0.16289853
102	0xbdffae00	-0.1248436
103	0x3d8fd7bd	0.07023571
104	0xbe38bb65	-0.18040235
105	0x3e6fc7df	0.23416089
106	0xbe0e7ff3	-0.13915996
107	0xbcb58c64	-0.02216167
108	0xbd9ffa94	-0.07811466
109	0xbe0f4bdf	-0.13993786
110	0x3e62415c	0.22095245
111	0x3e021cc7	0.1270629
112	0xbe631a19	-0.22177924
113	0xbe5cd6c6	-0.21566305
114	0x3e70b22f	0.23505472
115	0x3e39310f	0.1808512
116	0xbe4cab05	-0.19987114
117	0xbe44b99b	-0.19211428
118	0x3d864c68	0.06557542
119	0x3dfa80d2	0.12231602
120	0xbe47f6ba	-0.19527712
121	0x3c365d44	0.011130635
122	0x3d4d72bd	0.05015825
123	0x3db46f4d	0.088102914
124	0x3e2dff6b	0.16991965
125	0x3dde252b	0.10846933
126	0x3d03fcf5	0.03222366
127	0xbdd114c7	-0.10209041
128	0xbde4ede1	-0.11178184
129	0x3cb0a7b6	0.021564346
130	0xbe7caf1b	-0.24676172
131	0x3e15eff7	0.1464232
132	0xbe17c08c	-0.14819545
133	0xbe43a898	-0.19107282
134	0xbcb93c43	-0.022611743
135	0x3d451e6f	0.048124727
136	0x3e7db20b	0.24774949
137	0xbdc0c689	-0.094128676
138	0xbd9dfc38	-0.077141225
139	0x3e451b73	0.19248752
140	0xbdd24c43	-0.10268452
141	0xbd77663f	-0.060400244
142	0x3e62f488	0.22163594
143	0xb99c6bcd	-0.00029834957
144	0x3e76e165	0.24109419
145	0xbc5cccb8	-0.013476543
146	0x3e0cfbd6	0.13767943
147	0xbd950633	-0.07276573
148	0xbd9dbdf0	-0.07702243
149	0x3d9c3f1d	0.076292254
150	0x3d96b767	0.073592
151	0xbe3e1b00	-0.18564987
152	0x3e279953	0.16367082
153	0x3deacf3f	0.1146531
154	0x3e27b3eb	0.16377227
155	0x3e683674	0.22677022
156	0x3c3d81a2	0.011566551
157	0xbdb2fdb5	-0.08739797
158	0x3cba9e53	0.022780573
159	0x3dd077d8	0.101791084
160	0xbd6570bd	-0.05601572
161	0x3e0838cf	0.13302921
162	0xbdbef909	-0.093248434
163	0x3dbddcb2	0.0927061
164	0xbde1a6f2	-0.110181704
165	0x3e0896a7	0.1333872
166	0x3e2d08a3	0.16897826
167	0x3d466c2f	0.048443016
168	0xbd5aedf0	-0.05344957
169	0x3e345da7	0.1761385
170	0xbe744e30	-0.23857951
171	0x3e73a77c	0.23794359
172	0xbdfef480	-0.124489784
173	0xbc89eac3	-0.016835576
174	0x3b0495d4	0.0020230906
175	0xbae0b0b6	-0.0017142508
176	0x3bc00381	0.0058597927
177	0x3e569166	0.20953903
178	0xbc7ffc8c	-0.015624177
179	0xbe73c14c	-0.23804206
180	0xbe2a6f52	-0.16644028
181	0x3e0c986a	0.13730016
182	0xbe7c5b91	-0.24644305
183	0xbe6a7acf	-0.2289841
184	0x3e4fad4c	0.20280951
185	0xbd2ab450	-0.041675866
186	0xbe756ff9	-0.23968495
187	0x3d3b4633	0.045721244
188	0x3e540a06	0.20706949
189	0xbc4d205d	-0.012519923
190	0x3d79e6d6	0.061011158
191	0xbe0408f5	-0.12894042
192	0xbe56ecd7	-0.20988785
193	0xbe3574dc	-0.1772036
194	0xbded46da	-0.115857795
195	0xbdae5b3b	-0.085134946
196	0x3e76235b	0.24036925
197	0xbe20d0f3	-0.15704708
198	0x3db76a58	0.0895583
199	0x3de40ec5	0.111356296
200	0x3d1113d8	0.035419315
201	0xbe3dfa08	-0.1855241
202	0xbe503b9a	-0.20335236
203	0xbe2ac4f8	-0.166767
204	0xbdaf6166	-0.08563499
205	0xbe199112	-0.14996746
206	0xbc54e75a	-0.012994612
207	0xbd13b3c8	-0.036060125
208	0xbe7be09f	-0.24597405
209	0xbd02de95	-0.031950552
210	0xbcc5cc5f	-0.024145303
211	0xbde31565	-0.11088065
212	0x3e002160	0.12512732
213	0x3ce8aaf4	0.02840183
214	0xbdeaae0f	-0.1145898
215	0xbe5dea7d	-0.21671481
216	0x3dbdcd26	0.092676446
217	0xbe7d9031	-0.24762036
218	0x3dfcf371	0.1235112
219	0x3e3f7d95	0.1870025
220	0xbcfeb9dc	-0.031094484
221	0xbcd1e0db	-0.025619915
222	0x3e1700fa	0.14746466
223	0xbe176af6	-0.14786896
224	0xbdf6047b	-0.12012573
225	0xbe0e3daf	-0.13890718
226	0xbce8d804	-0.028423317
227	0xbe6cf6e6	-0.2314106
228	0x3c30ca26	0.010790383
229	0x3cd05f3c	0.025436036
230	0xbe09c551	-0.13454176
231	0x3dc0abf5	0.09407798
232	0xbd4c5cad	-0.04989307
233	0xbdd26f1b	-0.10275098
234	0xbddb972c	-0.10722193
235	0xbd5bd950	-0.053674042
236	0x3dc6584f	0.09684812
237	0xbd945b4f	-0.07243978
238	0xbe5dbf9d	-0.21655126
239	0x3c296548	0.010339089
240	0x3d0cc18a	0.03436426
241	0x3e7470f6	0.23871216
242	0x3de89518	0.113565624
243	0xbdc5dccb	-0.096612535
244	0x3e3f791d	0.18698545
245	0x3e519e95	0.2047065
246	0xbe53ebe8	-0.2069546
247	0xbdd1c373	-0.10242357
248	0x3cd38b8b	0.025823375
249	0xbe6d913e	-0.23199937
250	0x3d120580	0.035649776
251	0x3d469dd7	0.04849037
252	0xbe03b737	-0.1286286
253	0x3e53871d	0.2065701
254	0xbd93f557	-0.07224529
255	0xbe7b14ea	-0.24519697

arith.constant32 f4 [1, 3, 1, 16]
0	0x3ea41707	0.32048818
1	0x3eeacbb3	0.45858535
2	0xbf0ec656	-0.55771387
3	0x3e87a602	0.2649384
4	0xbd03c476	-0.03216978
5	0x3e0aa01f	0.13537644
6	0x3e12a840	0.14321995
7	0x3ecccc93	0.39999828
8	0x3e7be68b	0.24599664
9	0x3f0ec524	0.5576956
10	0xbd376b3b	-0.044779997
11	0xbef3bfd4	-0.4760729
12	0x3d830122	0.063967004
13	0xbecbd1c7	-0.39808485
14	0xbe5b05ab	-0.21388881
15	0x3e772972	0.24136904
16	0xbcc6bc6e	-0.024259772
17	0x3ebff212	0.37489372
18	0x3ee88ade	0.45418447
19	0xbe3c470d	-0.18386479
20	0x3ef34f05	0.47521225
21	0x3d78b603	0.060720455
22	0x3e8d1ee9	0.27562645
23	0x3b093381	0.002093524
24	0x3e3ba1e4	0.18323475
25	0xbead56d6	-0.33855313
26	0xbda4176f	-0.08012282
27	0x3ef23fc0	0.47314262
28	0x3f054ac9	0.5206724
29	0x3ec4ea2c	0.3845991
30	0xbe45c475	-0.19313224
31	0xbed3da4e	-0.4137749
32	0x3f07fa2f	0.53116125
33	0x3f0bc560	0.54598045
34	0x3f0c08a6	0.54700696
35	0x3eec2495	0.4612166
36	0x3df09d4c	0.11748752
37	0xbe2f6aa7	-0.17130528
38	0xbeea5128	-0.45765042
39	0x3ec73a54	0.38911688
40	0x3e765734	0.24056703
41	0xbf0e4d45	-0.55586654
42	0x3eee2549	0.4651282
43	0xbdb04b47	-0.08608108
44	0xbe94dcdc	-0.29074752
45	0x3df5f851	0.12010253
46	0xbea0acbe	-0.31381792
47	0x3edbc3b9	0.42922762

arith.constant33 f4 [16, 1, 1, 16]
0	0xbda0fd3f	-0.07860803
1	0x3e7ddf97	0.24792324
2	0xbe54919e	-0.20758674
3	0x3d8670c0	0.06564474
4	0xbcee1812	-0.029064212
5	0x3dc45100	0.09585762
6	0x3e4e81de	0.20166728
7	0xbccc23dd	-0.024919445
8	0xbe52e19d	-0.20593877
9	0x3e4a3728	0.19747603
10	0x3de50e31	0.111843474
11	0x3d5e1a07	0.05422404
12	0x3dc1384d	0.09434567
13	0x3d65774d	0.056021977
14	0xbdae101b	-0.084991656
15	0xbdbd758e	-0.092509374
16	0x3e2c8057	0.16845833
17	0x3e29f4cc	0.16597289
18	0xbd907671	-0.07053841
19	0x3da19597	0.0788986
20	0xbdf34c0c	-0.11879739
21	0xbd2e125f	-0.04249799
22	0x3e2b5ecc	0.16735381
23	0x3e4e57d2	0.20150688
24	0xbe6df838	-0.23239219
25	0xbe3a70b5	-0.18207057
26	0x3e461fe3	0.19348101
27	0x3dfb4592	0.12269129
28	0xbe064a5c	-0.13114303
29	0x3d20e643	0.039282095
30	0x3d85e4b4	0.06537762
31	0xbdad18c3	-0.084519885
32	0xbe1fa864	-0.1559158
33	0x3cd9a089	0.026565807
34	0x3e57dc89	0.21080221
35	0xbe4c9029	-0.19976868
36	0xbde2cc2a	-0.110740975
37	0xbe01740a	-0.12641922
38	0x3e7e5c8b	0.2483999
39	0xbdd9c5c1	-0.10633422
40	0x3de26f96	0.110564396
41	0xbe1bf6bb	-0.15230839
42	0xbdd12b0f	-0.10213291
43	0xbe3bc2b2	-0.18335989
44	0x3dc66083	0.09686377
45	0xbe65959f	-0.22420357
46	0x3d8744ec	0.06604943
47	0xbe223a27	-0.15842496
48	0xbe2cbbcf	-0.16868518
49	0x3cf20d81	0.029547455
50	0x3bf13cf1	0.007362001
51	0x3dc526ab	0.09626516
52	0x3e5638da	0.20920125
53	0x3d715b21	0.058924798
54	0x3d2293bb	0.039691668
55	0x3c4b4e1d	0.01240876
56	0xbe0b47c6	-0.13601598
57	0x3dbab6df	0.09116911
58	0x3dee4dea	0.11635955
59	0xbe2ea6e5	-0.17055853
60	0xbd86cb90	-0.06581795
61	0x3db1478e	0.08656226
62	0xbe26cffd	-0.16290279
63	0x3e21ed95	0.15813287
64	0xbe65db5b	-0.22446959
65	0xbd9f5d84	-0.077815086
66	0x3d21e0bb	0.03952096
67	0xbe4580c7	-0.19287406
68	0xbd9b6245	-0.07587103
69	0x3e21d3d7	0.15803467
70	0x3e380884	0.17971998
71	0x3e28b17f	0.1647396
72	0xbe581835	-0.21102984
73	0xbe108a07	-0.14115153
74	0xbbe7d7b4	-0.0070752744
75	0x3dd763b5	0.105170645
76	0xbda3d8ca	-0.080003336
77	0x3e47443f	0.19459628
78	0xbe4f2822	-0.20230153
79	0x3e7f75c0	0.24947262
80	0xbe619844	-0.22030741
81	0x3e21e7a9	0.15811028
82	0xbe6e5a9a	-0.23276749
83	0xbd5a9a48	-0.05336979
84	0x3b95530f	0.0045570205
85	0x3e31a040	0.17346287
86	0x3d1a31fd	0.03764533
87	0xbe3d56a2	-0.18490079
88	0xbd88b103	-0.06674387
89	0xbd3871c3	-0.045030367
90	0x3e4236d2	0.18966225
91	0xbbe4afb5	-0.0069789537
92	0xbe3a3bb1	-0.18186833
93	0xbde0bbca	-0.10973318
94	0x3d12fda0	0.035886407
95	0xbe3e6e4a	-0.1859676
96	0x3ddc84bc	0.107675046
97	0xbe1c637f	-0.1527233
98	0xbdb2ef95	-0.08737103
99	0xbd092213	-0.03347976
100	0xbd01e13d	-0.031708945
101	0xbdce3430	-0.10068548
102	0x3cfca0ed	0.030838454
103	0xbd182c8e	-0.037151866
104	0xbde8c940	-0.113665104
105	0xbe24d29e	-0.16095969
106	0x3da370b2	0.07980479
107	0x3e7bc94b	0.24588506
108	0xbd9b7cb9	-0.07592148
109	0xbe323220	-0.17401934
110	0x3e781e13	0.24230222
111	0xbd976272	-0.07391824
112	0xbe36b4f4	-0.17842466
113	0x3e37b888	0.17941487
114	0xbe73251c	-0.23744625
115	0x3e4f6b26	0.20255718
116	0x3e1067dd	0.1410212
117	0xbe3988af	-0.18118547
118	0x3e4cf9b3	0.20017128
119	0x3d717899	0.0589529
120	0x3e11a460	0.1422286
121	0xbd8f5615	-0.06998841
122	0x3d380b94	0.044932917
123	0xbe4eef52	-0.20208481
124	0xbc27ee09	-0.010249623
125	0x3c656455	0.014000972
126	0xbe2004bb	-0.15626805
127	0xbdf9672e	-0.12177883
128	0xbdda1518	-0.106485546
129	0xbdb015ca	-0.08597906
130	0xbe5b59d8	-0.21420991
131	0xbc467e5f	-0.01211509
132	0xbe77248f	-0.2413504
133	0xbded459e	-0.11585544
134	0x3c970dce	0.0184392
135	0x3d7ae4de	0.06125342
136	0x3e5c67b2	0.21523932
137	0x3deac223	0.1146281
138	0x3d770ab7	0.060312953
139	0x3d82b119	0.06381435
140	0x3e5e91a3	0.21735243
141	0xbe2b9060	-0.16754293
142	0x3daf145b	0.085488044
143	0x3e0096f6	0.12557587
144	0x3d596aa1	0.053080205
145	0x3cfb7d9d	0.030699546
146	0x3e5752e7	0.21027718
147	0xbe63d719	-0.22250022
148	0x3c000856	0.007814487
149	0x3de258d2	0.110520974
150	0x3e3e96fd	0.18612285
151	0x3e58babf	0.21164988
152	0x3c8d4702	0.017245773
153	0x3e52625b	0.20545332
154	0x3dd02810	0.10163891
155	0xbcd9aab9	-0.026570665
156	0xbd938c80	-0.072045326
157	0x3e542c5c	0.20720047
158	0x3e21670b	0.15761964
159	0x3da1700f	0.078827016
160	0xbe07cc67	-0.13261567
161	0x3c9d7c2c	0.019224249
162	0xbcc4e4af	-0.024034826
163	0x3e630b80	0.22172356
164	0xbda9dec8	-0.08294445
165	0xbdff6278	-0.12469953
166	0xbe381a6c	-0.17978829
167	0xbde45ca9	-0.11150486
168	0x3e2b71b2	0.1674259
169	0x3de76f3c	0.11300513
170	0x3e6d0846	0.23147687
171	0x3e092fe7	0.1339718
172	0xbd6e004a	-0.058105744
173	0x3d48b70e	0.0490027
174	0xbe6217a6	-0.22079334
175	0x3e46881d	0.1938786
176	0x3c0326f5	0.008004894
177	0x3d897bd3	0.06713071
178	0x3c9a39cd	0.01882639
179	0xbe69fc93	-0.22850256
180	0xbe73e95a	-0.23819485
181	0xbc8adcf2	-0.016951058
182	0x3e713263	0.23554377
183	0xbe6781b0	-0.22608066
184	0xbe62e3dc	-0.22157234
185	0xbdc67ccf	-0.09691774
186	0xbdb27edd	-0.087156035
187	0x3e08c277	0.13355432
188	0x3e747756	0.23873648
189	0x3e49a6a2	0.19692472
190	0xbd74f7b0	-0.059806526
191	0x3d7d286d	0.06180613
192	0xbe47e066	-0.19519195
193	0x3de70918	0.11281031
194	0x3d57cf21	0.052687768
195	0xbe55d77e	-0.20882985
196	0xbd23dbf2	-0.040004678
197	0xbe43218e	-0.19055769
198	0x3e17deda	0.14831105
199	0xbdcc9975	-0.09990207
200	0xbe4d91cd	-0.2007515
201	0x3d76ffe7	0.06030264
202	0x3d9f5e90	0.07781708
203	0xbd400c89	-0.046886954
204	0xbdcf2bfc	-0.10115811
205	0xbe510f35	-0.20415957
206	0xbcb41585	-0.021982918
207	0x3d549a8a	0.051905192
208	0x3e2aa328	0.16663802
209	0x3dc7776f	0.09739577
210	0xbe3dece2	-0.18547395
211	0xbe302f7e	-0.17205617
212	0xbe4cf7db	-0.20016424
213	0x3d8658d8	0.06559914
214	0xbe3185ae	-0.17336151
215	0xbe47f09e	-0.19525382
216	0x3e006168	0.12537158
217	0x3dd8e9fd	0.10591505
218	0xbe135316	-0.14387164
219	0x3e47b3e0	0.1950221
220	0x3d734e98	0.059401125
221	0x3e53b783	0.20675473
222	0x3e56e73f	0.20986651
223	0xbb16b6cf	-0.0022997146
224	0xbd479327	-0.04872432
225	0x3e6bf6ef	0.23043416
226	0xbe4dc070	-0.2009294
227	0x3e1f6ada	0.15568104
228	0x3e2a88b2	0.16653708
229	0xbca0720b	-0.01958563
230	0xbe697c45	-0.22801311
231	0xbe32e77f	-0.17471121
232	0xbe72be6a	-0.2370545
233	0x3d4253e0	0.04744327
234	0x3e51a3fb	0.2047271
235	0xbe0766d0	-0.13222814
236	0x3e4c773f	0.19967364
237	0xbd871350	-0.065954804
238	0x3e6db49e	0.23213431
239	0xbe459623	-0.19295554
240	0xbe3b56cf	-0.18294834
241	0xbe445e68	-0.19176638
242	0xbe26c675	-0.16286643
243	0xbda82005	-0.08209232
244	0xbd2ef37f	-0.042712685
245	0xbe3400c9	-0.17578425
246	0x3dab9de4	0.083797246
247	0x3d0eaea9	0.034834538
248	0xbe1b036d	-0.15138026
249	0xbe040c8b	-0.1289541
250	0xbd832f4d	-0.06405506
251	0x3d20ab53	0.039225888
252	0x3d8c6fa2	0.0685723
253	0x3da427ae	0.08015381
254	0xbe248b92	-0.16068867
255	0x3d4a3056	0.049362503

arith.constant34 f4 [16, 1, 1, 16]
0	0xbe4ed44a	-0.2019817
1	0xbdd4b7a2	-0.10386588
2	0xbe492bd8	-0.19645631
3	0xbd7a0a0e	-0.061044745
4	0x3d291fe1	0.041290168
5	0xbe3e1ade	-0.18564937
6	0xbe48e3b0	-0.19618106
7	0x3e5d564b	0.2161495
8	0xbdc86f5e	-0.097868666
9	0xbc1a812d	-0.009430212
10	0x3dbdcd1a	0.09267636
11	0x3e3d4464	0.1848312
12	0x3d087473	0.03331418
13	0xbe5a0a22	-0.21292928
14	0xbd44ebff	-0.048076626
15	0x3e17058c	0.1474821
16	0xbba32e4a	-0.0049798833
17	0xbd9faa34	-0.077961355
18	0xbe690522	-0.22755864
19	0xbe63ae0b	-0.22234361
20	0xbe25cd00	-0.16191483
21	0x3d93ab08	0.07210356
22	0xbe687ff6	-0.22705063
23	0xbdc062ed	-0.093938686
24	0xbe207987	-0.15671359
25	0x3e0d22c2	0.1378279
26	0xbdb75f34	-0.089537054
27	0x3db45d0d	0.088068105
28	0xbc8e1491	-0.017343791
29	0x3c943d9f	0.01809579
30	0xbdd645de	-0.10462545
31	0x3de2017e	0.11035441
32	0xbe20cd21	-0.1570325
33	0xbd1daa54	-0.038492516
34	0xbe7174a3	-0.2357965
35	0xbe022c85	-0.12712295
36	0x3e765385	0.24055298
37	0x3e611732	0.21981505
38	0xbcef0852	-0.029178772
39	0x3d79b49e	0.060963266
40	0xbd530e3b	-0.051527243
41	0xbdd0c184	-0.1019316
42	0x3e644579	0.22292127
43	0x3e59e0c7	0.21277152
44	0x3d1217e0	0.0356673
45	0xbe0d2d72	-0.13786867
46	0xbd20d5c3	-0.03926636
47	0xbe595831	-0.21225049
48	0xbcc2ba00	-0.023770332
49	0x3e620dd4	0.22075588
50	0xbe73635e	-0.23768374
51	0xbdbc2916	-0.09187524
52	0x3e03fe9d	0.12890096
53	0x3e7a175a	0.2442297
54	0xbc7c5a2d	-0.015402359
55	0xbe095d85	-0.13414581
56	0x3e4ce81b	0.20010416
57	0xbe38058e	-0.17970869
58	0x3ded9e4a	0.11602457
59	0xbba0c2cb	-0.0049060336
60	0xbe3704ea	-0.17872968
61	0xbe662cb0	-0.22477984
62	0xb9d66bba	-0.00040897523
63	0x3e1fd9d6	0.15610442
64	0x3e7d4eeb	0.24737136
65	0x3e7ff9de	0.2499766
66	0x3e48397a	0.19553176
67	0x3df324b8	0.11872238
68	0x3d33ffed	0.04394524
69	0xbe63fc27	-0.22264157
70	0x3e1c4ba5	0.15263231
71	0xbccbc6cd	-0.024875069
72	0xbe400f31	-0.18755795
73	0xbcd92809	-0.026508348
74	0x3d96a6d7	0.07356041
75	0xbd990862	-0.07472302
76	0x3c820fb5	0.01587663
77	0xbd90bd21	-0.070673235
78	0xbc669514	-0.014073629
79	0xbe11d012	-0.14239529
80	0x3d8c9a3e	0.06865357
81	0xbbe36875	-0.0069399425
82	0x3aa33dca	0.0012454328
83	0x3e6334f9	0.22188176
84	0xbe4b4a5f	-0.19852589
85	0xbd43d120	-0.04780686
86	0x3def5cfd	0.11687658
87	0xbcb30c15	-0.021856347
88	0x3e5b2dae	0.21404144
89	0x3e1571a1	0.14594127
90	0xbbdb9638	-0.006701257
91	0x3e01cbbd	0.12675376
92	0x3e262727	0.16225873
93	0x3d9e6fc4	0.07736161
94	0xbe170608	-0.14748394
95	0xbcede262	-0.029038612
96	0x3e07759c	0.13228458
97	0x3e0eb2ab	0.13935344
98	0x3e2e1913	0.17001753
99	0x3e350571	0.17677857
100	0xbce19eb6	-0.0275415
101	0xbd6f9541	-0.05849195
102	0x3dc9369a	0.098248675
103	0x3e2535b8	0.16133773
104	0xbca207fb	-0.019779196
105	0x3db63ec0	0.08898687
106	0x3d8cd846	0.068771884
107	0x3dea1bf7	0.11431115
108	0xbe010ac0	-0.12601757
109	0xbe6ed046	-0.23321638
110	0xbd02b3c5	-0.031909723
111	0x3e543e3e	0.20726869
112	0xbc4dae5d	-0.0125537785
113	0xbe26bc45	-0.16282757
114	0xbdd74a95	-0.10512272
115	0x3e3f81cb	0.18701856
116	0x3e2a5fd6	0.16638121
117	0x3c7b31ce	0.015331699
118	0xbd91af94	-0.07113567
119	0x3cd4420a	0.025910396
120	0xbd4ef8fc	-0.05053042
121	0x3d89eaa7	0.067342095
122	0xbe12683c	-0.14297575
123	0x3e5472b8	0.20746887
124	0xbad9deb9	-0.0016622163
125	0xbd83def9	-0.06439013
126	0x3dd0ea83	0.102009796
127	0x3e6762c0	0.22596264
128	0x3dcc2a99	0.09969062
129	0xbdaba0ec	-0.08380303
130	0xbe261a0f	-0.16220878
131	0x3e494756	0.19656119
132	0x3df11241	0.1177106
133	0x3e30df2a	0.1727263
134	0x3d542d2a	0.051800884
135	0xbe725bb0	-0.23667789
136	0xbe0613a0	-0.13093424
137	0xbd0429dd	-0.032266486
138	0x3e5e99e5	0.21738394
139	0xbe29470c	-0.16531008
140	0x3db1471a	0.0865614
141	0xbe7999d2	-0.24375084
142	0x3dfdb2f5	0.12387649
143	0x3e7fe47e	0.24989507
144	0x3dafc5de	0.08582662
145	0x3e276d99	0.16350402
146	0x3def103a	0.11673017
147	0x3d54da4a	0.05196599
148	0xbdc2a5b0	-0.09504259
149	0xbe177514	-0.14790756
150	0xbdb5ad4c	-0.088709444
151	0xbe3a4541	-0.18190481
152	0x3c95777f	0.018245457
153	0xbe3c69f8	-0.18399799
154	0x3e042327	0.12904035
155	0xbe30b964	-0.17258221
156	0xbd76b597	-0.06023177
157	0x3e1f6b9c	0.15568393
158	0xbe08714b	-0.13324468
159	0x3bb2ac05	0.005452635
160	0xbd942b83	-0.07234862
161	0x3e0c7842	0.1371775
162	0x3db0e35e	0.08637117
163	0x3e392d99	0.180838
164	0x3e517ed5	0.20458539
165	0xbe312ec8	-0.17303002
166	0xbe205ea7	-0.15661107
167	0x3e4c4b29	0.19950546
168	0x3e0fd88d	0.14047451
169	0x3e3bbe02	0.18334201
170	0xbc1af2ed	-0.009457332
171	0x3e5c67b0	0.21523929
172	0xbe6c8246	-0.2309657
173	0xbe7cfc03	-0.2470551
174	0x3e739db4	0.23790628
175	0xbdad0397	-0.0844795
176	0x3e41e942	0.18936637
177	0xbe31ff2c	-0.17382497
178	0x3e036a13	0.12833433
179	0xbd4b76a5	-0.049673695
180	0xbdc7b26e	-0.0975083
181	0x3c428d40	0.011874497
182	0xbe6c0c2f	-0.23051523
183	0x3e1aa493	0.15101843
184	0xbd4f5e2c	-0.05062692
185	0xbe13ed6d	-0.1444604
186	0x3e077e52	0.13231781
187	0x3e0a2341	0.13490011
188	0x3d7b74fd	0.061390866
189	0xbe3d10da	-0.1846346
190	0x3c372044	0.011177126
191	0x3e5205f3	0.20510082
192	0xbe414fa5	-0.18878038
193	0x3dd08aec	0.10182747
194	0x3e2b2de0	0.16716719
195	0xbe4d1d25	-0.20030649
196	0xbc09b273	-0.008404362
197	0x3e7539d2	0.23947838
198	0x3e591f87	0.21203433
199	0x3c7c70ed	0.015407783
200	0xbe7b0126	-0.24512157
201	0x3e683eae	0.2268016
202	0x3d426020	0.047454953
203	0xbda84d11	-0.08217824
204	0xbe7b57fe	-0.24545285
205	0xbdea3583	-0.11435988
206	0x3e70e2a9	0.23523964
207	0xbe4c7f6b	-0.19970481
208	0xbe62009a	-0.22070542
209	0x3e19787c	0.14987367
210	0xbdf09dd5	-0.11748854
211	0xbe6b66a5	-0.22988375
212	0x3d2dba17	0.042413797
213	0xbe787d7e	-0.24266621
214	0xbdfb0042	-0.122559085
215	0xbe21faab	-0.15818278
216	0xbe6a62dd	-0.22889276
217	0xbd90b401	-0.07065583
218	0xbe5206a7	-0.2051035
219	0xbc659315	-0.014012118
220	0xbe1192ee	-0.14216205
221	0x3dcd6ebd	0.10030887
222	0xbe7c8ca7	-0.2466303
223	0xbe68ab2e	-0.2272155
224	0x3e7d8ec5	0.24761494
225	0x3e1b6ab9	0.1517743
226	0xbe78c338	-0.2429322
227	0x3e4bf8f5	0.19919188
228	0x3e4e65da	0.20156041
229	0xbe54bd22	-0.20775273
230	0xbd21c733	-0.03949661
231	0xbe522507	-0.20521937
232	0x3e713a55	0.23557408
233	0x3b27a6c9	0.002558159
234	0x3d867bcc	0.06566581
235	0x3e70b069	0.23504795
236	0x3c4c061d	0.012452629
237	0xbd90feec	-0.070798725
238	0xbd9393ac	-0.072059005
239	0xbe4a985c	-0.19784683
240	0x3e68c71c	0.22732204
241	0x3bdc4e78	0.0067232214
242	0xbd8e4131	-0.06946028
243	0x3e1ced01	0.15324785
244	0xbdab7f44	-0.08373883
245	0xb9a0b3cb	-0.00030651534
246	0x3e339fb7	0.17541395
247	0x3e1feede	0.15618464
248	0xbdd420b6	-0.103578016
249	0x3b0e6251	0.0021726082
250	0x3e7ab722	0.24483922
251	0x3e4a7a26	0.19773158
252	0xbe32f60f	-0.17476676
253	0x3e4e7dc4	0.20165163
254	0xbda45fa2	-0.08026053
255	0xbdf82cef	-0.121179454

arith.constant35 f4 [1, 3, 1, 16]
0	0x3f0d337c	0.55156684
1	0x3d3434a7	0.043995526
2	0x3e42557b	0.1897792
3	0x3ee52a04	0.44758618
4	0x3dfde9b3	0.1239809
5	0xbebcde25	-0.36888233
6	0x3ede8d5e	0.4346723
7	0x3e79453b	0.24342816
8	0x3df48fbb	0.11941477
9	0xbead97f1	-0.33904985
10	0xbd5645a1	-0.052312497
11	0xbdc0a36d	-0.09406171
12	0xbf09595e	-0.5365199
13	0xbe8b0390	-0.27151155
14	0xbe103602	-0.14083102
15	0x3d3b70ff	0.04576206
16	0x3f051af0	0.5199423
17	0xbeb33f2a	-0.35009128
18	0x3e998541	0.29984477
19	0x3b9b723f	0.004743844
20	0xbe708700	-0.23488998
21	0xbd5b1902	-0.053490646
22	0xbeece9c8	-0.4627211
23	0xbde5656e	-0.11200987
24	0xbe002a05	-0.12516029
25	0x3ed037e0	0.4066763
26	0xbbca2c4e	-0.0061698323
27	0x3e8261dc	0.25465286
28	0xbeb1c5ae	-0.3472113
29	0x3e2d4247	0.16919814
30	0xbdd30b8e	-0.10304938
31	0xbe302384	-0.17201048
32	0xbeeb624e	-0.45973438
33	0xbe4368f3	-0.19083004
34	0xbe8b7629	-0.27238587
35	0x3eb5630e	0.35427135
36	0xbead4656	-0.33842725
37	0x3da94e30	0.08266866
38	0xbe7bbd71	-0.24583985
39	0xbe0a8f37	-0.13531195
40	0xbd9e4220	-0.07727456
41	0xbe903b29	-0.28170136
42	0x3e4c8c4e	0.19975397
43	0xbd98d64a	-0.074627474
44	0xbed32526	-0.4123928
45	0xbef36dd4	-0.4754473
46	0xbf077bf2	-0.529235
47	0x3e3de503	0.18544392

arith.constant36 f4 [16, 1, 1, 16]
0	0xbe384f9e	-0.17999122
1	0xbe45e401	-0.19325258
2	0xbe5d101d	-0.21588178
3	0x3decac7e	0.11556338
4	0xbd5bf0d0	-0.053696454
5	0x3e2851ad	0.16437407
6	0x3e22be83	0.15892987
7	0x3cd7cc99	0.026342677
8	0x3e30c79c	0.17263645
9	0xbe408a0d	-0.18802662
10	0x3e0e1081	0.13873483
11	0x3e0a704d	0.13519402
12	0xbddf7a13	-0.10911956
13	0x3e4e7e96	0.20165476
14	0xbe6852f4	-0.22687894
15	0xbe032c0f	-0.12809776
16	0xbd3d2fca	-0.046188153
17	0x3e3214d0	0.17390752
18	0x3e01f129	0.12689652
19	0xbc285d09	-0.010276088
20	0x3d9d72bc	0.076878995
21	0x3e0a6539	0.13515176
22	0x3dc3fdc4	0.09569886
23	0xbda2df5f	-0.07952761
24	0x3d1dd2fc	0.03853129
25	0xbd00efc6	-0.031478666
26	0x3e64cf4b	0.22344701
27	0xbe1b0fdf	-0.15142773
28	0xbe77ad91	-0.24187304
29	0xbe3f6dcb	-0.18694226
30	0xbe01e0a7	-0.12683354
31	0xbd52643b	-0.05136512
32	0xbe28311d	-0.16424985
33	0x3e1c750d	0.15279026
34	0xbe50c4fd	-0.20387645
35	0xbe1c6a63	-0.15274958
36	0x3c9cc81d	0.01913839
37	0x3cb9e183	0.02269054
38	0xbe0ad63e	-0.1355829
39	0xbe6d086c	-0.23147744
40	0xbdb17a9e	-0.086659655
41	0x3e260aa0	0.1621499
42	0x3d6b6913	0.057473253
43	0xbdd240f3	-0.10266294
44	0xbe132458	-0.14369333
45	0xbe3dae22	-0.18523458
46	0xbe3ab20f	-0.18231986
47	0x3e0efbfd	0.13963313
48	0xbd3d7412	-0.04625327
49	0xbe6b9e31	-0.23009564
50	0x3dca8086	0.09887795
51	0x3d68848c	0.05676703
52	0xbd701e89	-0.05862287
53	0xbda8e809	-0.08247382
54	0xbdb32c4d	-0.08748684
55	0xbd98a626	-0.07453565
56	0x3db5ee40	0.08883333
57	0x3d8e89e1	0.06959892
58	0xbdea673b	-0.11445471
59	0xbe2f20b1	-0.17102315
60	0x3e52138d	0.2051527
61	0x3e516063	0.20446925
62	0x3e05a0f8	0.13049686
63	0x3e701453	0.23445253
64	0xbe1d8d40	-0.15385914
65	0x3d39ee5b	0.04539333
66	0x3e7287c8	0.23684609
67	0x3e2ead39	0.17058267
68	0xbd401841	-0.04689813
69	0xbde94ae7	-0.113912396
70	0xbd1d49c4	-0.038400427
71	0x3e06e23a	0.13172236
72	0x3e60b504	0.21944052
73	0xbdb1c092	-0.08679308
74	0xbe55712a	-0.2084395
75	0xbe04d4f8	-0.12971866
76	0x3e036a27	0.12833463
77	0x3e664b8c	0.22489756
78	0xbe3297e9	-0.17440762
79	0x3e6e954e	0.23299143
80	0x3d870450	0.065926194
81	0x3dd8f3a9	0.105933495
82	0xbe53d30c	-0.20685977
83	0x3d84af1c	0.06478712
84	0x3c3dedc2	0.01159233
85	0x3e5d6a09	0.2162248
86	0xbe70a987	-0.2350217
87	0xbe69664b	-0.22792928
88	0xbd8c163e	-0.0684018
89	0x3ca0144b	0.019540926
90	0x3da4b46a	0.08042224
91	0xbe3dfe64	-0.18554074
92	0x3dd91119	0.10598964
93	0x3e48d7aa	0.1961352
94	0x3bbc29c2	0.0057422826
95	0xbd8ea365	-0.06964759
96	0xbdda2630	-0.10651815
97	0xbe7582e7	-0.23975717
98	0x3e3d5f88	0.18493474
99	0xbd9bf43d	-0.07614944
100	0xbd8affd6	-0.06787078
101	0x3e0fcd6d	0.14043207
102	0x3d5b20e8	0.05349818
103	0x3e79317e	0.24335286
104	0x3e28aa5b	0.16471235
105	0x3de02386	0.109442756
106	0x3e389689	0.18026175
107	0xbe78369d	-0.24239583
108	0x3ca59f1a	0.020217467
109	0x3bbcc7c2	0.0057611177
110	0xbd42ac00	-0.047527313
111	0x3e5b8e9a	0.21441117
112	0xbcc22b70	-0.023702353
113	0xbe3831a8	-0.17987692
114	0x3e76043d	0.24025054
115	0xbd0b46aa	-0.034002937
116	0x3e406419	0.18788184
117	0xbe021e09	-0.1270677
118	0xbe5faf15	-0.21844132
119	0xbdcd90b1	-0.10037363
120	0xbe58fde5	-0.21190603
121	0xbe1c8033	-0.15283279
122	0x3e17d406	0.14826974
123	0x3d2ea60f	0.042638835
124	0xbd8f5081	-0.06997777
125	0xbdb38191	-0.08764947
126	0xbd682c1c	-0.05668269
127	0x3c9ac25d	0.018891508
128	0xbe09737d	-0.13422962
129	0x3d80751e	0.06272338
130	0x3e046bd7	0.12931763
131	0xbe5158cf	-0.20444034
132	0xbd7bfb9d	-0.061519254
133	0x3e3577c6	0.17721471
134	0x3e456349	0.19276156
135	0xbd3ba3f2	-0.045810647
136	0xbda1b937	-0.07896655
137	0xbdebf1ef	-0.115207545
138	0x3c7a47ee	0.015275938
139	0x3e38444e	0.17994806
140	0xbd5e98ff	-0.054345127
141	0xbe7e9ea4	-0.24865204
142	0xbdceb380	-0.10092831
143	0xbd4ee50c	-0.050511405
144	0x3c96fdfe	0.01843166
145	0xbd549a12	-0.051904745
146	0x3e0bbe76	0.13646874
147	0xbd142ebf	-0.036177393
148	0xbd682d8c	-0.056684062
149	0x3e50e81b	0.20401041
150	0x3d710591	0.0588432
151	0xbd8cc94a	-0.0687433
152	0x3dd07e4c	0.10180339
153	0x3d17f916	0.03710278
154	0xbe529d35	-0.20567782
155	0xbe725cbe	-0.23668191
156	0x3d870c48	0.06594139
157	0xbd776bc7	-0.06040552
158	0xbe454e11	-0.19268061
159	0x3e6dd664	0.23226315
160	0xbe4e7666	-0.20162353
161	0xbd1a8185	-0.037721176
162	0x3e0a05a9	0.13478722
163	0xbe4da0f1	-0.20080926
164	0x3aeca7b2	0.0018055348
165	0x3e24dfe4	0.16101032
166	0x3e5354bb	0.20637791
167	0x3e441862	0.19149926
168	0x3e462ec3	0.19353776
169	0xbd90a2a5	-0.07062272
170	0xbca35d7a	-0.019942034
171	0xbe68bd8a	-0.22728553
172	0xbdc6a64f	-0.096996896
173	0x3e43c74a	0.19118991
174	0xbd8d04a6	-0.06885652
175	0x3c59ab99	0.013285541
176	0xbe771151	-0.241277
177	0xbe481c4a	-0.19542041
178	0x3e55a966	0.20865402
179	0x3e188a80	0.14896584
180	0x3dca6faa	0.098845795
181	0x3e65aa83	0.22428326
182	0x3e23c562	0.15993264
183	0x3d20a623	0.03922094
184	0x3e1b6303	0.15174489
185	0xbbd5e27a	-0.0065272423
186	0xbcbe29c2	-0.023213271
187	0xbe1344a8	-0.14381659
188	0x3df1ab99	0.11800308
189	0x3de772bc	0.11301181
190	0xbe30350a	-0.17207733
191	0xbe570a39	-0.20999993
192	0xbe7ea8f2	-0.24869135
193	0xbd2bec28	-0.041973263
194	0x3dfdf655	0.124005
195	0xbdfd9f9d	-0.123839594
196	0x3dcc5465	0.099770345
197	0x3c6913b4	0.014225889
198	0xbc198a8e	-0.009371413
199	0xbdfc2745	-0.123121776
200	0xbdaa2d98	-0.083094776
201	0x3e07a723	0.13247351
202	0x3e1ce377	0.15321146
203	0xbdae181b	-0.085006915
204	0x3d48a596	0.04898604
205	0xbdb1187a	-0.08647247
206	0x3e7cf7b1	0.24703862
207	0x3e06dc58	0.13169992
208	0xbe43bda0	-0.19115305
209	0xbd257ffa	-0.04040525
210	0xbd7eea9c	-0.06223546
211	0xbcc5272f	-0.024066536
212	0xbe59c2ab	-0.21265666
213	0x3dbab52b	0.09116586
214	0x3e73da62	0.23813775
215	0x3e5753fd	0.21028133
216	0xbd9ec8d8	-0.07753152
217	0x3e075062	0.13214257
218	0x3cc8c22e	0.024506655
219	0xbc51fe1b	-0.012816931
220	0x3e743c3a	0.238511
221	0x3e2a9498	0.16658247
222	0x3e5897f7	0.2115172
223	0x3c91b5a0	0.0177868
224	0x3e7de60d	0.24794789
225	0xbe44bb4d	-0.19212075
226	0x3e23209a	0.15930405
227	0x3e20f8b3	0.15719871
228	0xbde9fdbf	-0.11425351
229	0xbe03013b	-0.12793438
230	0x3e44cb1b	0.19218104
231	0xbe01b019	-0.12664832
232	0xbe7b397c	-0.24533647
233	0xbdf1c0cd	-0.11804352
234	0xbdfb98ad	-0.1228498
235	0x3e72b7ac	0.23702878
236	0xbe087629	-0.13326325
237	0x3d8d12a2	0.068883196
238	0x3e42ce64	0.19024044
239	0x3dc60b07	0.09670072
240	0xbdb76c64	-0.08956221
241	0xbe4aed83	-0.19817166
242	0xbdcd04a9	-0.100106545
243	0x3d8bfe06	0.068355605
244	0x3e5881bb	0.21143238
245	0xbd115640	-0.035482645
246	0x3c9993be	0.018747207
247	0xbdcec360	-0.100958586
248	0x3e6d77c0	0.23190212
249	0xbe4522e3	-0.1925159
250	0xbc747cf0	-0.014922366
251	0xbd4a8086	-0.049438976
252	0xbe3fac3b	-0.18718044
253	0x3e42e0d4	0.19031078
254	0x3dcd70a5	0.10031251
255	0xbd8d9d2e	-0.06914745
