gtcrn_micro/models/tflite/gtcrn_micro_float16.tflite (tflite, 102572 bytes, 46 tensors)

arith.constant9 f2 [16]
000000 00 3c 00 3c 00 3c 00 3c 00 3c 00 3c 00 3c 00 3c
       1.0 1.0 1.0 1.0 1.0 1.0 1.0 1.0
000010 00 3c 00 3c 00 3c 00 3c 00 3c 00 3c 00 3c 00 3c
       1.0 1.0 1.0 1.0 1.0 1.0 1.0 1.0

arith.constant27 f2 [16, 1, 5, 3]
000000 24 26 bf a7 a5 b2 b8 b2 b3 30 b7 2d 44 b3 20 33
       0.02399 -0.03026 -0.2076 -0.21 0.1469 0.0893 -0.227 0.2227
000010 f3 ae 5b 33 ec af 58 31 b0 ab 55 33 39 a5 47 2c
       -0.1086 0.2299 -0.1238 0.167 -0.06006 0.2291 -0.0204 0.06683
000020 47 2d b8 28 41 27 82 b2 f9 b1 43 ae ae af 15 33
       0.08246 0.03687 0.02834 -0.2034 -0.1866 -0.09784 -0.12 0.2213
000030 db 30 c3 2f 11 31 3f 2a a5 b1 6a 32 d4 b0 38 b2
       0.1517 0.1213 0.1583 0.0488 -0.1764 0.2004 -0.1509 -0.1943
000040 86 ae 30 ac 7f 2d 33 b2 ac 33 6c ae 82 b2 6a 30
       -0.1019 -0.0654 0.0859 -0.1937 0.2397 -0.10034 -0.2034 0.138
000050 e1 32 d1 30 84 ac f1 b2 11 b3 c2 30 bc ac f2 ac
       0.215 0.1505 -0.07056 -0.2169 -0.2208 0.1487 -0.074 -0.0773
000060 aa b0 08 b2 6a ac 6d b2 e9 2c 80 30 b0 33 f7 31
       -0.1458 -0.1885 -0.069 -0.2008 0.0767 0.1406 0.2402 0.1864
000070 5c 30 9e b3 73 32 11 b1 38 ab 15 ad 24 31 6f 2c
       0.1362 -0.238 0.2015 -0.1583 -0.0564 -0.0794 0.1606 0.0693
000080 ef b0 a3 27 63 31 07 b1 a8 33 2f b3 24 b2 f8 2f
       -0.1542 0.02983 0.1683 -0.1571 0.2393 -0.2245 -0.1919 0.1245
000090 03 b4 96 ac 41 a0 92 2f b9 b2 97 31 8a b3 69 31
       -0.2507 -0.07166 -0.00831 0.1183 -0.2101 0.1747 -0.2356 0.1691
0000a0 e1 af 62 ae 22 b2 52 2f e8 ac 23 2e 10 b4 35 a0
       -0.1231 -0.09973 -0.1917 0.1144 -0.07666 0.0959 -0.254 -0.00822
0000b0 47 b0 48 33 50 b1 7f 2c 24 2c b3 33 33 a6 49 32
       -0.1337 0.2275 -0.166 0.07025 0.0647 0.2406 -0.02422 0.1964
0000c0 4b b1 84 31 fe a8 cc b0 14 31 94 ab 3a b3 d7 33
       -0.1654 0.1724 -0.039 -0.1499 0.1587 -0.0592 -0.2258 0.245
0000d0 4f b3 8a 28 7a b1 94 a9 ce b2 2a 1b 1d b1 87 b3
       -0.2284 0.03546 -0.1711 -0.04358 -0.2126 0.003498 -0.1598 -0.2352
0000e0 b9 a9 6f b1 aa 2f e5 32 a0 b3 2d b2 9f 32 89 32
       -0.0447 -0.1698 0.11975 0.2155 -0.2383 -0.193 0.2069 0.2042
0000f0 3d ac d9 2f 67 24 53 b0 ee 31 07 34 af b1 6e 32
       -0.0662 0.1226 0.0172 -0.1351 0.1853 0.2517 -0.1776 0.2009
000100 cc b0 29 30 53 33 73 32 17 2b 24 b3 ce 2c 9a ae
       -0.1499 0.13 0.2289 0.2015 0.0554 -0.2231 0.0751 -0.10315
000110 b4 2a 67 2e eb 21 16 34 e7 33 93 20 1a a9 d9 a9
       0.05237 0.10004 0.01156 0.2554 0.247 0.008934 -0.03986 -0.0457
000120 fd af 3d 32 6a 30 41 33 97 28 5a 32 cc 30 3b b3
       -0.1248 0.195 0.138 0.2267 0.03586 0.1985 0.1499 -0.226
000130 7b 9f 10 ac 29 33 a5 31 0b 34 5f 31 11 a5 ce ac
       -0.007305 -0.0635 0.2238 0.1764 0.2527 0.1678 -0.01979 -0.0751
000140 34 33 70 b1 49 30 56 31 0c 2d d5 2f 8c 2a 8f 29
       0.2251 -0.1699 0.1339 0.1667 0.07886 0.1224 0.05115 0.04343
000150 f7 ab 39 b2 b7 30 34 ae 5b 2f 70 2e 79 b2 4a ad
       -0.06223 -0.1945 0.1473 -0.0969 0.1149 0.1006 -0.2023 -0.08264
000160 93 2a 20 b2 25 2d 49 b1 bb 9e 2a 2c 61 af 1f 34
       0.05136 -0.1914 0.0804 -0.1652 -0.006573 0.06506 -0.1153 0.2576
000170 d0 ac f1 24 00 ad 8e ae ec 2c 23 2c 22 32 c9 25
       -0.0752 0.0193 -0.0781 -0.1024 0.0769 0.06464 0.1917 0.0226
000180 0b 28 08 30 bd aa 8a 1d c6 32 53 2e ca b2 a2 af
       0.0316 0.126 -0.05264 0.00541 0.2117 0.0988 -0.2122 -0.11926
000190 c8 b0 3b 31 4a 29 0c 24 90 32 5f 27 6d 26 4d 32
       -0.1494 0.1635 0.04132 0.01581 0.2051 0.0288 0.0251 0.1969
0001a0 6c 28 a2 2c 3b b0 a7 32 13 2f bf 29 f1 31 c2 a7
       0.03455 0.0724 -0.1322 0.2079 0.11053 0.0449 0.1857 -0.0303
0001b0 fc 31 fd b0 e6 9d 1f 29 43 aa 36 b0 8b 31 14 b4
       0.187 -0.1559 -0.00576 0.04 -0.04892 -0.1316 0.1732 -0.255
0001c0 1f 30 d8 a9 56 a8 98 2a c1 30 b1 b1 88 30 02 31
       0.1288 -0.04565 -0.03387 0.0515 0.1486 -0.1779 0.1416 0.1565
0001d0 42 32 55 30 56 32 c6 b1 fc 12 2f 27 8f 2d 68 b3
       0.1956 0.1354 0.198 -0.1804 0.0008526 0.02806 0.08685 -0.2314

arith.constant28 f2 [16, 1, 5, 16]
000000 ec a1 72 ae f9 ac 74 25 ac 2e 2a 24 11 2f 32 ab
       -0.011566 -0.1007 -0.0777 0.0213 0.10425 0.01627 0.1104 -0.0562
000010 b2 ab 71 ac 37 a2 d3 ad a0 ae 69 9c f4 2e e6 2e
       -0.06012 -0.0694 -0.01214 -0.091 -0.1035 -0.004307 0.10864 0.1078
000020 d0 ad cd a2 09 27 8a 9a c5 27 e5 2c d7 28 01 2d
       -0.0908 -0.01328 0.02748 -0.003193 0.03035 0.0765 0.0378 0.0782
000030 7c 25 07 25 03 27 db a8 5f 29 68 a7 4b ad 22 ab
       0.02142 0.01964 0.02739 -0.03793 0.04196 -0.02893 -0.0827 -0.05573
000040 7b 20 09 af c3 ad 08 a6 a8 ad 3f ae ce 28 4f 2a
       0.00875 -0.1099 -0.09 -0.02356 -0.0884 -0.0976 0.03754 0.0493
000050 ec 2a 26 ac b4 a9 ef a8 ed ac 18 a5 c3 26 27 26
       0.05408 -0.0648 -0.04456 -0.03854 -0.07697 -0.0199 0.02641 0.02403
000060 cd 2d dd 2b 04 92 36 98 62 a8 e5 ab a6 a4 b4 2e
       0.09064 0.06143 -0.0007343 -0.002056 -0.03424 -0.06168 -0.01816 0.10474
000070 99 ad b8 aa 23 2c 66 2a 13 a5 11 9c 7d 24 9c ac
       -0.08746 -0.0525 0.06464 0.05 -0.01982 -0.00397 0.01753 -0.072
000080 f9 ab 1c 2c ad 25 1e 2e d4 2d 02 28 5d 2e 0f ac
       -0.0623 0.0642 0.02217 0.0956 0.09106 0.0313 0.0994 -0.0634
000090 eb 10 a0 ae c8 a6 eb a9 0c 1f 89 2e e5 ae 4a ac
       0.0006003 -0.1035 -0.02649 -0.04623 0.00688 0.1021 -0.1077 -0.067
0000a0 e4 25 1c 2f 66 2d 10 ae a4 2b 8d 2d 8e a8 c6 ad
       0.02301 0.1111 0.08435 -0.0947 0.0597 0.08673 -0.03558 -0.0902
0000b0 11 a6 45 a0 c5 a9 fc 2a 5d ad 13 a7 70 28 5b ac
       -0.0237 -0.00834 -0.04507 0.05457 -0.0838 -0.02763 0.03467 -0.06805
0000c0 67 ad 42 a5 95 24 1e ad 0f 2e 00 ac 1f ad 4a 19
       -0.0844 -0.02054 0.0179 -0.07996 0.09467 -0.0625 -0.08 0.002583
0000d0 bb 2e 01 2c 18 2b e9 2d 50 2d 18 2c 39 27 c0 2e
       0.10516 0.06256 0.05542 0.09235 0.083 0.06396 0.02821 0.10547
0000e0 7d 28 a6 2a 47 1f 0d aa f8 a2 05 25 bc 22 7e a7
       0.03506 0.05194 0.007107 -0.04727 -0.01361 0.0196 0.01315 -0.02927
0000f0 aa 25 c7 27 44 ac a2 aa ce a9 76 27 0c a8 1c ac
       0.02213 0.03038 -0.06665 -0.05182 -0.04535 0.02914 -0.03162 -0.0642
000100 d0 ac 78 a8 eb a9 7d 2c 01 21 fd a6 2e 2d e0 27
       -0.0752 -0.0349 -0.04623 0.0701 0.00977 -0.0273 0.08093 0.03076
000110 e4 a9 f3 ae e5 a5 a3 25 bb ae e2 2e 68 ac 3f 2d
       -0.04602 -0.1086 -0.02303 0.02202 -0.10516 0.10754 -0.06885 0.082
000120 97 a9 aa aa 90 1f 2b 20 b7 2a 16 28 86 a4 09 22
       -0.04367 -0.05206 0.007385 0.00814 0.05246 0.03192 -0.01767 0.01179
000130 8c ad 9b 2c 0e 28 f5 27 8b ac de 2d c7 a8 e4 ae
       -0.0867 0.07196 0.03168 0.03108 -0.071 0.0917 -0.03732 -0.10767
000140 dd ae e6 ac aa ac 87 a8 7d 2d fa 26 0c a9 84 ae
       -0.10724 -0.07654 -0.0729 -0.03537 0.08575 0.02725 -0.03943 -0.1018
000150 22 27 ca 24 d6 29 79 9e e5 19 b4 1a 17 ac 8a 26
       0.02786 0.0187 0.0456 -0.00632 0.002878 0.003273 -0.0639 0.02554
000160 f0 a9 19 aa 0d 29 7b 29 3e 28 d2 2e de 2c 80 ae
       -0.0464 -0.04764 0.03946 0.04282 0.03314 0.10657 0.07605 -0.10156
000170 88 a6 e9 29 56 2e 8e 29 7b a8 ed ad 56 a4 77 29
       -0.02551 0.04617 0.099 0.0434 -0.035 -0.0926 -0.01694 0.0427
000180 7a 27 72 ad 42 ae 19 2a d2 2b 16 af 18 af aa ac
       0.0292 -0.0851 -0.0978 0.04764 0.0611 -0.1107 -0.11084 -0.0729
000190 89 2d 1d 2a 91 2c 7d 29 7c 11 d3 2e 68 aa d0 ad
       0.0865 0.04776 0.07135 0.04288 0.0006695 0.1066 -0.05005 -0.0908
0001a0 f0 ab 23 ac e7 ab 1e a8 f2 2c 15 a1 93 ac 6b a9
       -0.062 -0.06464 -0.06174 -0.03217 0.0773 -0.009926 -0.0715 -0.04233
0001b0 b0 a8 0d a7 4f ae 91 ae 00 27 65 2b 5e 2b b5 2a
       -0.03662 -0.02754 -0.0986 -0.1026 0.02734 0.05777 0.05756 0.0524
0001c0 71 ad 4b a8 de ad a4 aa ac aa 4c 2d 75 26 63 28
       -0.085 -0.03354 -0.0917 -0.05188 -0.05212 0.08276 0.02522 0.03427
0001d0 67 2d 56 ae f8 ad 0e 2e 6f 28 27 2a ed 2a bb ac
       0.0844 -0.099 -0.09326 0.0946 0.03464 0.04807 0.0541 -0.0739
0001e0 9c a4 1b 25 e1 a9 90 a5 ac 27 9f 29 bf 2a 91 28
       -0.018 0.01994 -0.04593 -0.02173 0.02997 0.0439 0.0527 0.03568
0001f0 25 27 56 27 0a 99 0a 28 49 2b 71 29 0e ac e0 2e
       0.02791 0.02866 -0.00246 0.03156 0.05692 0.0425 -0.06335 0.1074

arith.constant29 f2 [16, 1, 1, 8]
000000 ef 31 ea a9 05 33 9e b2 7c b5 ba 2d 52 b2 de 33
       0.1854 -0.0462 0.2194 -0.2068 -0.3428 0.0895 -0.1975 0.2458
000010 5e 35 98 26 0e ad 75 ad 8a 30 eb b0 37 ad 0f b4
       0.3354 0.02576 -0.079 -0.08527 0.1418 -0.1537 -0.0815 -0.2537
000020 d5 31 cb 2e 0c b2 cf b4 c8 ac 1e 2c 9a ad fb ab
       0.1823 0.10614 -0.189 -0.3005 -0.0747 0.06433 -0.0875 -0.06235
000030 56 b4 8c af ba 34 4e 32 9e b2 c8 34 6d af 84 b5
       -0.271 -0.1179 0.2954 0.197 -0.2068 0.2988 -0.116 -0.3447
000040 47 a9 51 af eb ae a1 34 43 32 ea 33 d4 b3 4f 34
       -0.04123 -0.1143 -0.1081 0.2893 0.1957 0.2473 -0.2446 0.2693
000050 ca 2a b0 b4 23 b0 8a b3 43 b1 9b a1 09 31 23 ac
       0.05304 -0.293 -0.1293 -0.2356 -0.1644 -0.01095 0.1573 -0.06464
000060 1f 35 60 a4 f4 28 83 2f 93 ab 55 27 43 25 42 ac
       0.32 -0.01709 0.0387 0.1174 -0.05917 0.02864 0.02055 -0.0665
000070 13 34 e9 b3 ed 15 80 b4 8a 2e fe 1c fb b1 af b3
       0.2546 -0.2472 0.001447 -0.2812 0.1022 0.004875 -0.1869 -0.2401
000080 85 32 8b b4 c4 ac 00 0d f6 b2 ce 2d e3 ab 1e b4
       0.2037 -0.284 -0.07446 0.0003052 -0.2175 0.0907 -0.0616 -0.2573
000090 d6 32 88 30 9d 30 2b 33 0d a4 48 33 a6 31 42 32
       0.2136 0.1416 0.1442 0.224 -0.01582 0.2275 0.1765 0.1956
0000a0 96 31 cf b1 35 b5 59 b5 d3 b4 45 2c 9f ae 9f b4
       0.1746 -0.1815 -0.3254 -0.3342 -0.3015 0.0667 -0.10345 -0.2888
0000b0 4b 1f c1 32 8b b3 1b 34 21 1c f5 30 1f b2 5d b4
       0.007122 0.211 -0.2357 0.2566 0.004032 0.1549 -0.1913 -0.2727
0000c0 0a a7 38 33 2a 2a 20 33 6a b2 17 b3 98 af dc 33
       -0.0275 0.2256 0.04816 0.2227 -0.2004 -0.2216 -0.11865 0.2456
0000d0 64 ac 11 35 36 ad 70 32 19 28 07 b4 50 b5 a5 34
       -0.0686 0.3167 -0.0814 0.2012 0.032 -0.2517 -0.332 0.2903
0000e0 f3 2c fb b4 6e 2d 80 af 57 29 29 b5 c7 a2 34 af
       0.07733 -0.3113 0.08484 -0.1172 0.04172 -0.3225 -0.01324 -0.11255
0000f0 aa b1 62 b4 97 a5 0d ab a5 2d f9 34 7a 32 d4 2d
       -0.177 -0.274 -0.02184 -0.05508 0.0882 0.3108 0.2024 0.09106

arith.constant30 f2 [1, 3, 3, 16]
000000 cb b4 0e 31 ef b4 5e 30 e6 b3 a2 33 2f 30 f4 2c
       -0.2996 0.158 -0.3083 0.1365 -0.2468 0.2385 0.1307 0.0774
000010 88 98 c8 34 03 33 25 b0 66 34 54 29 4f b5 f5 b3
       -0.002213 0.2988 0.2191 -0.1295 0.275 0.04163 -0.3318 -0.2487
000020 4b ac f9 b4 3f b4 7d ac ac b2 31 35 d7 b2 0e b5
       -0.0671 -0.3108 -0.2654 -0.0701 -0.2085 0.3245 -0.2137 -0.316
000030 6c 2e 8c 34 7a 9d 71 b4 ca ad 29 ac 87 28 10 b0
       0.10034 0.2842 -0.00535 -0.2776 -0.09045 -0.065 0.03537 -0.127
000040 de 2b 9d ae 97 ac 6a 31 d7 32 f7 b2 b7 ae c2 b1
       0.06146 -0.10333 -0.0717 0.1692 0.2137 -0.2177 -0.1049 -0.1799
000050 d9 b1 12 33 fb 23 54 16 3d b2 68 b2 65 a9 80 34
       -0.1827 0.221 0.01559 0.001545 -0.195 -0.2002 -0.04214 0.2812
000060 fd 30 8a b2 40 b3 ca b2 95 b4 9b 34 4d b5 2a 30
       0.1559 -0.2043 -0.2266 -0.2122 -0.2864 0.2878 -0.3313 0.1301
000070 96 32 83 2d c9 a9 6c ae 96 30 a2 30 64 ad 54 33
       0.2058 0.0861 -0.0452 -0.10034 0.1433 0.1448 -0.0842 0.229
000080 a9 b3 e0 b4 d2 ab e7 b1 48 22 e9 34 8f 34 e0 b4
       -0.2394 -0.3047 -0.0611 -0.1844 0.01227 0.307 0.285 -0.3047
000090 ee b1 75 2f 55 b1 0b 2f ab 30 d0 b1 76 34 8d 30
       -0.1853 0.1165 -0.1666 0.11005 0.1459 -0.1816 0.2788 0.1422
0000a0 3e 35 e0 a9 46 30 2e 35 66 32 8b b3 75 31 94 b4
       0.3276 -0.0459 0.1335 0.3237 0.2 -0.2357 0.1705 -0.2861
0000b0 ec 30 47 b0 20 35 e8 32 ab 34 ec b0 ed 24 e3 31
       0.1538 -0.1337 0.3203 0.2158 0.2917 -0.1538 0.01924 0.184
0000c0 04 b5 ed ad 35 2e ec 29 2d 34 29 af 31 b5 02 35
       -0.3135 -0.0926 0.097 0.04626 0.261 -0.1119 -0.3245 0.313
0000d0 76 b3 12 35 cc 2a 1f 33 0b 24 d0 30 16 2b 67 31
       -0.2332 0.317 0.0531 0.2225 0.0158 0.1504 0.05536 0.1688
0000e0 87 b3 72 b1 3b 28 f6 b0 c5 20 60 b4 02 2d b4 a1
       -0.2352 -0.1702 0.03305 -0.155 0.009315 -0.2734 0.07825 -0.01114
0000f0 26 ac 83 ac 5a b3 7a b4 ed b1 52 2f 2e 31 84 a9
       -0.0648 -0.0705 -0.2297 -0.2798 -0.1852 0.1144 0.1619 -0.0431
000100 dc b4 bd b2 07 b4 29 b3 26 2d d5 b3 3e 35 cd 33
       -0.3037 -0.2106 -0.2517 -0.2238 0.08044 -0.2448 0.3276 0.2438
000110 13 2e 17 ac c4 2f 63 a9 f0 32 09 b4 ce b4 f7 32
       0.0949 -0.0639 0.12134 -0.04208 0.2168 -0.2522 -0.3003 0.2177

arith.constant31 f2 [8, 1, 1, 16]
000000 9f 18 33 b3 5d 31 53 a2 66 b3 8d ad 66 30 38 32
       0.002256 -0.225 0.1676 -0.01235 -0.2312 -0.08673 0.1375 0.1943
000010 bc 2c 13 b0 60 b0 99 9a d6 2b ce 30 46 32 c7 af
       0.074 -0.1273 -0.1367 -0.003222 0.06122 0.1501 0.196 -0.1215
000020 b9 2b 00 2b a6 af d1 33 29 33 e7 ae c3 a9 e8 9b
       0.06033 0.0547 -0.1195 0.2443 0.2238 -0.10785 -0.045 -0.00386
000030 aa b2 f7 31 8e 33 4d b3 66 b3 0e af d2 31 1a ac
       -0.2083 0.1864 0.2361 -0.2281 -0.2312 -0.1102 0.1819 -0.0641
000040 12 2c a5 31 72 30 23 ab c2 32 cc 2e 47 33 ba b0
       0.0636 0.1764 0.1389 -0.05576 0.2112 0.1062 0.2274 -0.1477
000050 02 2f 1e 33 b9 b2 7c ad a8 b1 4c a1 7d 33 92 32
       0.1095 0.2224 -0.2101 -0.0857 -0.1768 -0.010345 0.234 0.2053
000060 0e 30 b9 ac ce b1 9c 31 ac b2 13 2c df 30 45 b2
       0.1267 -0.0738 -0.1814 0.1753 -0.2085 0.06366 0.1522 -0.1959
000070 fd 32 17 30 00 b0 dd 31 a3 af cb 32 d4 30 d5 2d
       0.2184 0.1278 -0.125 0.1832 -0.1193 0.2123 0.1509 0.0911
000080 6c b3 3f 31 6b b1 2e 2d 51 b1 d0 2a 6c ad 6a 2f
       -0.2319 0.164 -0.1693 0.08093 -0.1661 0.05322 -0.0847 0.11584
000090 43 2d 95 b2 d5 a0 17 32 56 32 0e 25 53 ae 43 30
       0.0822 -0.2057 -0.00944 0.1903 0.198 0.01974 -0.0988 0.1332
0000a0 40 30 d8 2c 4b 31 14 2f 9c a5 1d 30 3f b2 31 b3
       0.1328 0.0757 0.1654 0.1106 -0.02191 0.1285 -0.1952 -0.2247
0000b0 70 b1 36 2a 16 2c 0b 29 76 b2 49 ae c2 29 64 a5
       -0.1699 0.04852 0.06384 0.0394 -0.2019 -0.0982 0.04498 -0.02106
0000c0 f8 23 d9 30 f5 2a a8 b3 0d af d4 a6 b5 31 ad b3
       0.015564 0.1515 0.05435 -0.2393 -0.11017 -0.02667 0.1783 -0.2399
0000d0 48 2f 67 b2 17 2a 43 b2 bc ac 98 2c ed 32 54 a9
       0.1138 -0.2001 0.04758 -0.1957 -0.074 0.0718 0.2164 -0.04163
0000e0 1c a5 17 b1 f3 32 c7 31 62 ac 62 a5 4c b1 31 b1
       -0.01996 -0.159 0.2172 0.1805 -0.0685 -0.02103 -0.1655 -0.1622
0000f0 29 30 78 a9 2b 2b 88 b1 18 ac e8 2b 0c ae 0e 30
       0.13 -0.04272 0.056 -0.1729 -0.06396 0.06177 -0.0945 0.1267

arith.constant32 f2 [16, 1, 1, 16]
000000 12 30 2d 32 aa ab 54 b1 5c b3 47 31 c0 2f 43 b1
       0.1272 0.193 -0.05988 -0.1665 -0.23 0.1649 0.1211 -0.1644
000010 8b 30 fe b2 07 b1 1d 31 62 1f ef b3 e1 33 b3 a9
       0.142 -0.2185 -0.1571 0.1598 0.00721 -0.2479 0.2462 -0.04453
000020 07 31 26 b3 d4 b3 07 af e2 ae dc ac 37 24 b7 b0
       0.1571 -0.2234 -0.2446 -0.1098 -0.10754 -0.0759 0.01646 -0.1473
000030 b1 26 f1 31 68 ac cd b0 87 ac 31 a1 5f 2b 88 30
       0.02614 0.1857 -0.06885 -0.15 -0.07074 -0.01014 0.0576 0.1416
000040 b3 b2 bb af 7f a8 e1 b3 ab 33 46 a9 5b 94 a1 26
       -0.2094 -0.1208 -0.03513 -0.2462 0.2396 -0.0412 -0.001063 0.0259
000050 05 25 53 30 65 9f a6 b1 0f 23 75 ae 40 26 92 33
       0.0196 0.1351 -0.00722 -0.1765 0.01379 -0.1009 0.02441 0.2366
000060 19 b1 eb 33 2b ae 63 a8 40 b3 e7 32 6f b0 12 1a
       -0.1593 0.2474 -0.0964 -0.03427 -0.2266 0.2157 -0.1385 0.002964
000070 2a ab 1e 33 85 33 f8 aa 04 30 06 2d 87 2b cc 30
       -0.05597 0.2224 0.235 -0.05444 0.1255 0.0785 0.0588 0.1499
000080 54 b3 ac 32 0a a4 00 2a c5 22 37 ad 05 30 47 b3
       -0.229 0.2085 -0.01578 0.04688 0.01322 -0.0815 0.1256 -0.2274
000090 4e 32 92 b2 86 2d b5 33 8f 30 01 b2 ef b3 72 b0
       0.197 -0.2053 0.0863 0.2408 0.1425 -0.1876 -0.2479 -0.1389
0000a0 31 b2 d4 30 0b b3 c4 33 a1 31 89 33 6b a9 39 2f
       -0.1935 0.1509 -0.2201 0.2427 0.1759 0.2355 -0.04233 0.11285
0000b0 f9 30 9f b1 94 a9 20 ad 50 a8 4d 2e 58 2c bf 33
       0.1554 -0.1757 -0.04358 -0.0801 -0.0337 0.09845 0.0679 0.2421
0000c0 f8 31 57 a2 b2 b1 87 ad 42 ae 36 b1 fd af 7f 2c
       0.1865 -0.01238 -0.178 -0.08636 -0.0978 -0.1628 -0.1248 0.07025
0000d0 c6 b1 7e 33 74 b0 ac a5 00 ad 7a b0 12 33 11 30
       -0.1804 0.2341 -0.1392 -0.02216 -0.0781 -0.1399 0.221 0.1271
0000e0 19 b3 e7 b2 86 33 ca 31 65 b2 26 b2 32 2c d4 2f
       -0.2218 -0.2157 0.2351 0.1809 -0.1998 -0.1921 0.06555 0.1223
0000f0 40 b2 b3 21 6c 2a a3 2d 70 31 f1 2e 20 28 89 ae
       -0.1953 0.01113 0.05017 0.0881 0.1699 0.10846 0.03223 -0.1021
000100 27 af 85 25 e5 b3 af 30 be b0 1d b2 ca a5 29 2a
       -0.11176 0.02156 -0.2467 0.1464 -0.1482 -0.191 -0.02261 0.04813
000110 ee 33 06 ae f0 ac 29 32 92 ae bb ab 18 33 e3 8c
       0.2478 -0.0941 -0.07715 0.1925 -0.10266 -0.0604 0.2217 -0.0002983
000120 b7 33 e6 a2 68 30 a8 ac ee ac e2 2c b6 2c f1 b1
       0.2411 -0.01347 0.1377 -0.07275 -0.077 0.0763 0.0736 -0.1857
000130 3d 31 56 2f 3e 31 42 33 ec 21 98 ad d5 25 84 2e
       0.1637 0.1146 0.1638 0.2268 0.011566 -0.0874 0.02278 0.1018
000140 2c ab 42 30 f8 ad ef 2d 0d af 45 30 68 31 33 2a
       -0.05603 0.133 -0.09326 0.0927 -0.11017 0.1334 0.169 0.04843
000150 d7 aa a3 31 a2 b3 9d 33 f8 af 4f a4 25 18 06 97
       -0.05344 0.1761 -0.2385 0.2379 -0.1245 -0.01683 0.002024 -0.001715
000160 00 1e b5 32 00 a4 9e b3 53 b1 65 30 e3 b3 54 b3
       0.00586 0.2096 -0.01563 -0.238 -0.1664 0.1373 -0.2465 -0.229
000170 7d 32 56 a9 ab b3 da 29 a0 32 69 a2 cf 2b 20 b0
       0.2028 -0.0417 -0.2396 0.04572 0.207 -0.01252 0.061 -0.1289
000180 b7 b2 ac b1 6a af 73 ad b1 33 07 b1 bb 2d 20 2f
       -0.2098 -0.1772 -0.11584 -0.08514 0.2404 -0.1571 0.08954 0.1113
000190 89 28 f0 b1 82 b2 56 b1 7b ad cd b0 a7 a2 9e a8
       0.03543 -0.1855 -0.2034 -0.1667 -0.08563 -0.15 -0.01299 -0.03607
0001a0 df b3 17 a8 2e a6 19 af 01 30 45 27 55 af ef b2
       -0.246 -0.03195 -0.02414 -0.1109 0.1251 0.0284 -0.11456 -0.2167
0001b0 ee 2d ed b3 e8 2f fc 31 f6 a7 8f a6 b8 30 bb b0
       0.09265 -0.2477 0.12354 0.187 -0.0311 -0.02562 0.1475 -0.1478
0001c0 b0 af 72 b0 47 a7 68 b3 86 21 83 26 4e b0 05 2e
       -0.1201 -0.1389 -0.02843 -0.2314 0.01079 0.02544 -0.1345 0.09406
0001d0 63 aa 93 ae dd ae df aa 33 2e a3 ac ee b2 4b 21
       -0.0499 -0.1027 -0.10724 -0.05368 0.09686 -0.07245 -0.2166 0.01034
0001e0 66 28 a4 33 45 2f 2f ae fc 31 8d 32 9f b2 8e ae
       0.03436 0.2388 0.1136 -0.0966 0.187 0.2047 -0.2069 -0.1024
0001f0 9c 26 6d b3 90 28 35 2a 1e b0 9c 32 a0 ac d9 b3
       0.02582 -0.232 0.03564 0.0485 -0.1287 0.2065 -0.07227 -0.2452

arith.constant33 f2 [1, 3, 1, 16]
000000 21 35 56 37 76 b8 3d 34 1e a8 55 30 95 30 66 36
       0.3206 0.4585 -0.5576 0.265 -0.03217 0.1354 0.1432 0.4
000010 df 33 76 38 bb a9 9e b7 18 2c 5f b6 d8 b2 b9 33
       0.246 0.5576 -0.04477 -0.476 0.06396 -0.3982 -0.2139 0.2413
000020 36 a6 00 36 44 37 e2 b1 9a 37 c6 2b 69 34 4a 18
       -0.02426 0.375 0.454 -0.1838 0.475 0.06073 0.2756 0.002094
000030 dd 31 6b b5 21 ad 92 37 2a 38 27 36 2e b2 9f b6
       0.1832 -0.3386 -0.08014 0.4731 0.5205 0.3845 -0.1931 -0.4138
000040 40 38 5e 38 60 38 61 37 85 2f 7b b1 53 b7 3a 36
       0.5312 0.546 0.547 0.4612 0.1175 -0.1713 -0.4578 0.3892
000050 b3 33 72 b8 71 37 82 ad a7 b4 b0 2f 05 b5 de 36
       0.2406 -0.5557 0.465 -0.08606 -0.2908 0.1201 -0.3137 0.4292

arith.constant34 f2 [16, 1, 1, 16]
000000 08 ad ef 33 a5 b2 34 2c 71 a7 23 2e 74 32 61 a6
       -0.0786 0.2479 -0.2076 0.0657 -0.02907 0.0959 0.2017 -0.02492
000010 97 b2 52 32 28 2f f1 2a 0a 2e 2c 2b 71 ad ec ad
       -0.2059 0.1975 0.1118 0.05423 0.09436 0.05603 -0.085 -0.0925
000020 64 31 50 31 84 ac 0d 2d 9a af 71 a9 5b 31 73 32
       0.1685 0.166 -0.07056 0.0789 -0.1188 -0.0425 0.1674 0.2015
000030 70 b3 d4 b1 31 32 da 2f 32 b0 07 29 2f 2c 69 ad
       -0.2324 -0.1821 0.1935 0.1227 -0.1311 0.03928 0.06537 -0.08453
000040 fd b0 cd 26 bf 32 65 b2 16 af 0c b0 f3 33 ce ae
       -0.1559 0.02657 0.2108 -0.1998 -0.1107 -0.1265 0.2484 -0.1063
000050 13 2f e0 b0 89 ae de b1 33 2e 2d b3 3a 2c 12 b1
       0.11053 -0.1523 -0.1021 -0.1833 0.09686 -0.2242 0.06604 -0.1584
000060 66 b1 90 27 8a 1f 29 2e b2 32 8b 2b 15 29 5a 22
       -0.1687 0.02954 0.007362 0.09625 0.2092 0.05893 0.0397 0.012405
000070 5a b0 d6 2d 72 2f 75 b1 36 ac 8a 2d 36 b1 0f 31
       -0.136 0.0912 0.11633 -0.1705 -0.0658 0.08655 -0.1628 0.1581
000080 2f b3 fb ac 0f 29 2c b2 db ac 0f 31 c0 31 46 31
       -0.2245 -0.0778 0.03952 -0.1929 -0.07587 0.1581 0.1797 0.1648
000090 c1 b2 84 b0 3f 9f bb 2e 1f ad 3a 32 79 b2 fc 33
       -0.211 -0.1411 -0.007076 0.10516 -0.08 0.1946 -0.2023 0.2495
0000a0 0d b3 0f 31 73 b3 d5 aa ab 1c 8d 31 d2 28 eb b1
       -0.2203 0.1581 -0.2328 -0.05338 0.00456 0.1735 0.03766 -0.1849
0000b0 46 ac c4 a9 12 32 25 9f d2 b1 06 af 98 28 f3 b1
       -0.0668 -0.04504 0.1897 -0.006977 -0.1819 -0.10974 0.0359 -0.1859
0000c0 e4 2e e3 b0 97 ad 49 a8 0f a8 72 ae e5 27 c1 a8
       0.10767 -0.1527 -0.08734 -0.03348 -0.0317 -0.1007 0.03084 -0.03714
0000d0 46 af 27 b1 1c 2d de 33 dc ac 92 b1 c1 33 bb ac
       -0.11365 -0.161 0.07983 0.2458 -0.0759 -0.1741 0.2423 -0.0739
0000e0 b6 b1 be 31 99 b3 7b 32 83 30 cc b1 68 32 8c 2b
       -0.1785 0.1794 -0.2374 0.2025 0.141 -0.1812 0.2002 0.05896
0000f0 8d 30 7b ac c0 29 77 b2 3f a1 2b 23 00 b1 cb af
       0.1422 -0.07 0.04492 -0.202 -0.01025 0.014 -0.1562 -0.12177
000100 d1 ae 81 ad db b2 34 a2 b9 b3 6a af b8 24 d7 2b
       -0.1065 -0.086 -0.2142 -0.012115 -0.2413 -0.11584 0.01843 0.06125
000110 e3 32 56 2f b8 2b 16 2c f5 32 5d b1 79 2d 05 30
       0.2152 0.1146 0.0603 0.06384 0.2174 -0.1676 0.0855 0.1256
000120 cb 2a dc 27 bb 32 1f b3 00 20 13 2f f5 31 c6 32
       0.05307 0.0307 0.2103 -0.2225 0.007812 0.11053 0.1862 0.2117
000130 6a 24 93 32 81 2e cd a6 9c ac a1 32 0b 31 0c 2d
       0.01724 0.2054 0.1016 -0.02657 -0.072 0.2072 0.1576 0.07886
000140 3e b0 ec 24 27 a6 18 33 4f ad fb af c1 b1 23 af
       -0.1326 0.01923 -0.02403 0.2217 -0.08295 -0.1247 -0.1798 -0.1115
000150 5c 31 3b 2f 68 33 49 30 70 ab 46 2a 11 b3 34 32
       0.1675 0.113 0.2314 0.1339 -0.0581 0.049 -0.2208 0.1938
000160 19 20 4c 2c d2 24 50 b3 9f b3 57 a4 8a 33 3c b3
       0.008 0.06714 0.01883 -0.2285 -0.2382 -0.01695 0.2356 -0.2261
000170 17 b3 34 ae 94 ad 46 30 a4 33 4d 32 a8 ab e9 2b
       -0.2216 -0.0969 -0.08716 0.1335 0.2388 0.1969 -0.0598 0.0618
000180 3f b2 38 2f be 2a af b2 1f a9 19 b2 bf 30 65 ae
       -0.1952 0.1128 0.05267 -0.2089 -0.04 -0.1906 0.1483 -0.0999
000190 6d b2 b8 2b fb 2c 00 aa 79 ae 88 b2 a1 a5 a5 2a
       -0.2008 0.0603 0.0778 -0.04688 -0.10114 -0.2041 -0.02199 0.0519
0001a0 55 31 3c 2e ef b1 81 b1 68 b2 33 2c 8c b1 40 b2
       0.1666 0.0974 -0.1854 -0.172 -0.2002 0.0656 -0.1733 -0.1953
0001b0 03 30 c7 2e 9b b0 3e 32 9a 2b 9e 32 b7 32 b6 98
       0.1254 0.1059 -0.1439 0.1951 0.0594 0.2068 0.2098 -0.0023
0001c0 3d aa 60 33 6e b2 fb 30 54 31 04 a5 4c b3 97 b1
       -0.04874 0.2305 -0.2009 0.1556 0.1665 -0.01959 -0.228 -0.1747
0001d0 96 b3 13 2a 8d 32 3b b0 64 32 39 ac 6e 33 2d b2
       -0.237 0.04745 0.2047 -0.1322 0.1997 -0.066 0.2322 -0.193
0001e0 db b1 23 b2 36 b1 41 ad 78 a9 a0 b1 5d 2d 75 28
       -0.183 -0.1918 -0.1628 -0.0821 -0.04272 -0.1758 0.0838 0.03482
0001f0 d8 b0 20 b0 19 ac 05 29 63 2c 21 2d 24 b1 52 2a
       -0.1514 -0.1289 -0.064 0.0392 0.06854 0.08014 -0.1606 0.04938

arith.constant35 f2 [16, 1, 1, 16]
000000 77 b2 a6 ae 49 b2 d0 ab 49 29 f1 b1 47 b2 eb 32
       -0.202 -0.1039 -0.1964 -0.06104 0.0413 -0.1857 -0.1962 0.2162
000010 43 ae d4 a0 ee 2d ea 31 44 28 d0 b2 27 aa b8 30
       -0.09784 -0.00943 0.09265 0.1848 0.03333 -0.2129 -0.04807 0.1475
000020 19 9d fd ac 48 b3 1d b3 2e b1 9d 2c 44 b3 03 ae
       -0.00498 -0.07794 -0.2275 -0.2223 -0.1619 0.0721 -0.227 -0.09393
000030 04 b1 69 30 bb ad a3 2d 71 a4 a2 24 b2 ae 10 2f
       -0.1567 0.1378 -0.08954 0.0881 -0.01735 0.0181 -0.1046 0.11035
000040 06 b1 ed a8 8c b3 11 b0 b3 33 09 33 78 a7 ce 2b
       -0.157 -0.03848 -0.2358 -0.1271 0.2406 0.2198 -0.02917 0.06097
000050 98 aa 86 ae 22 33 cf 32 91 28 69 b0 07 a9 cb b2
       -0.0515 -0.1019 0.2229 0.2128 0.03568 -0.1378 -0.03928 -0.2123
000060 16 a6 10 33 9b b3 e1 ad 20 30 d1 33 e3 a3 4b b0
       -0.02377 0.2207 -0.2377 -0.09186 0.1289 0.2443 -0.0154 -0.1342
000070 67 32 c0 b1 6d 2f 06 9d b8 b1 31 b3 b3 8e ff 30
       0.2001 -0.1797 0.116 -0.004906 -0.1787 -0.2247 -0.000409 0.1561
000080 ea 33 00 34 42 32 99 2f a0 29 20 b3 e2 30 5e a6
       0.2473 0.25 0.1956 0.1187 0.04395 -0.2227 0.1526 -0.02487
000090 00 b2 c9 a6 b5 2c c8 ac 10 24 86 ac 35 a3 8f b0
       -0.1875 -0.0265 0.07355 -0.0747 0.01587 -0.0707 -0.01408 -0.1425
0000a0 65 2c 1b 9f 1a 15 1a 33 5a b2 1f aa 7b 2f 98 a5
       0.06866 -0.00694 0.0012455 0.2219 -0.1985 -0.04782 0.1169 -0.02185
0000b0 d9 32 ac 30 dd 9e 0e 30 31 31 f3 2c b8 b0 6f a7
       0.214 0.146 -0.006702 0.1267 0.1622 0.07733 -0.1475 -0.02904
0000c0 3c 30 76 30 71 31 a8 31 0d a7 7d ab 4a 2e 2a 31
       0.1323 0.1394 0.17 0.1768 -0.02754 -0.0585 0.09827 0.1614
0000d0 10 a5 b2 2d 67 2c 51 2f 08 b0 77 b3 16 a8 a2 32
       -0.01978 0.089 0.0688 0.1143 -0.126 -0.2333 -0.03192 0.2073
0000e0 6d a2 36 b1 ba ae fc 31 53 31 da 23 8d ac a2 26
       -0.01255 -0.1628 -0.1051 0.187 0.1664 0.015335 -0.0711 0.02591
0000f0 78 aa 4f 2c 93 b0 a4 32 cf 96 1f ac 87 2e 3b 33
       -0.05054 0.0673 -0.143 0.2075 -0.001662 -0.0644 0.102 0.226
000100 61 2e 5d ad 31 b1 4a 32 89 2f 87 31 a1 2a 93 b3
       0.0997 -0.0838 -0.1622 0.1965 0.11774 0.1727 0.0518 -0.2367
000110 31 b0 21 a8 f5 32 4a b1 8a 2d cd b3 ee 2f ff 33
       -0.131 -0.03226 0.2174 -0.1653 0.08655 -0.2438 0.1239 0.2499
000120 7e 2d 3b 31 79 2f a7 2a 15 ae bc b0 ad ad d2 b1
       0.0858 0.1635 0.11676 0.05197 -0.09503 -0.148 -0.0887 -0.1819
000130 ac 24 e3 b1 21 30 86 b1 b6 ab fb 30 44 b0 95 1d
       0.01825 -0.184 0.129 -0.1726 -0.06024 0.1556 -0.1333 0.00545
000140 a1 ac 64 30 87 2d c9 31 8c 32 89 b1 03 b1 62 32
       -0.0723 0.1372 0.08636 0.1808 0.2046 -0.173 -0.1566 0.1995
000150 7f 30 de 31 d8 a0 e3 32 64 b3 e8 b3 9d 33 68 ad
       0.1405 0.1833 -0.00946 0.2152 -0.231 -0.2471 0.2379 -0.0845
000160 0f 32 90 b1 1b 30 5c aa 3e ae 14 22 60 b3 d5 30
       0.1893 -0.1738 0.1283 -0.04968 -0.09753 0.01187 -0.2305 0.151
000170 7b aa 9f b0 3c 30 51 30 dc 2b e9 b1 b9 21 90 32
       -0.05063 -0.1444 0.1323 0.1349 0.0614 -0.1847 0.01118 0.2051
000180 0a b2 84 2e 59 31 69 b2 4e a0 aa 33 c9 32 e4 23
       -0.1887 0.1018 0.1671 -0.2003 -0.00841 0.2395 0.212 0.01541
000190 d8 b3 42 33 13 2a 42 ad db b3 52 af 87 33 64 b2
       -0.2451 0.2268 0.04745 -0.08215 -0.2455 -0.1144 0.2352 -0.1997
0001a0 10 b3 cc 30 85 af 5b b3 6e 29 c4 b3 d8 af 10 b1
       -0.2207 0.1499 -0.1175 -0.2299 0.04242 -0.2427 -0.12256 -0.1582
0001b0 53 b3 86 ac 90 b2 2d a3 8d b0 6b 2e e4 b3 45 b3
       -0.2289 -0.0707 -0.2051 -0.014015 -0.1422 0.1003 -0.2466 -0.2272
0001c0 ec 33 db 30 c6 b3 60 32 73 32 a6 b2 0e a9 91 b2
       0.2476 0.1517 -0.2429 0.1992 0.2015 -0.2078 -0.0395 -0.2052
0001d0 8a 33 3d 19 34 2c 86 33 60 22 88 ac 9d ac 55 b2
       0.2356 0.002558 0.0657 0.2351 0.01245 -0.0708 -0.0721 -0.1979
0001e0 46 33 e2 1e 72 ac e7 30 5c ad 06 8d 9d 31 ff 30
       0.2273 0.00672 -0.06946 0.1532 -0.08374 -0.0003066 0.1754 0.1561
0001f0 a1 ae 73 18 d6 33 54 32 98 b1 74 32 23 ad c1 af
       -0.1036 0.002172 0.2449 0.1978 -0.1748 0.2017 -0.08026 -0.12115

arith.constant36 f2 [1, 3, 1, 16]
000000 6a 38 a2 29 13 32 29 37 ef 2f e7 b5 f4 36 ca 33
       0.552 0.044 0.1898 0.4475 0.12396 -0.369 0.4346 0.2434
000010 a4 2f 6d b5 b2 aa 05 ae 4b b8 58 b4 82 b0 dc 29
       0.1194 -0.339 -0.0523 -0.09406 -0.5366 -0.2715 -0.1409 0.04578
000020 29 38 9a b5 cc 34 dc 1c 84 b3 d9 aa 67 b7 2b af
       0.52 -0.35 0.2998 0.004745 -0.2349 -0.0535 -0.4626 -0.112
000030 01 b0 82 36 51 9e 13 34 8e b5 6a 31 98 ae 81 b1
       -0.1251 0.4067 -0.00617 0.2546 -0.3472 0.1692 -0.103 -0.172
000040 5b b7 1b b2 5c b4 ab 35 6a b5 4a 2d de b3 54 b0
       -0.4597 -0.1908 -0.2725 0.3542 -0.3384 0.08264 -0.2458 -0.1353
000050 f2 ac 82 b4 64 32 c7 ac 99 b6 9b b7 3c b8 ef 31
       -0.0773 -0.2817 0.1997 -0.07465 -0.4124 -0.4753 -0.5293 0.1854

arith.constant37 f2 [16, 1, 1, 16]
000000 c2 b1 2f b2 e9 b2 65 2f e0 aa 43 31 16 31 be 26
       -0.1799 -0.1932 -0.216 0.11554 -0.0537 0.1644 0.1589 0.02634
000010 86 31 04 b2 71 30 54 30 fc ae 74 32 43 b3 19 b0
       0.1726 -0.188 0.1388 0.1353 -0.10913 0.2017 -0.2269 -0.128
000020 e9 a9 91 31 10 30 43 a1 ec 2c 53 30 20 2e 17 ad
       -0.04617 0.174 0.127 -0.01028 0.0769 0.1351 0.0957 -0.0795
000030 ef 28 07 a8 26 33 d8 b0 bd b3 fb b1 0f b0 93 aa
       0.03854 -0.03146 0.2234 -0.1514 -0.2418 -0.1869 -0.1268 -0.05136
000040 42 b1 e4 30 86 b2 e3 b0 e6 24 cf 25 57 b0 68 b3
       -0.1643 0.1528 -0.2039 -0.1527 0.01913 0.02269 -0.1356 -0.2314
000050 8c ad 30 31 5b 2b 92 ae 99 b0 ed b1 d6 b1 78 30
       -0.0867 0.1621 0.05746 -0.10266 -0.1437 -0.1852 -0.1824 0.1396
000060 ec a9 5d b3 54 2e 44 2b 81 ab 47 ad 99 ad c5 ac
       -0.04626 -0.2301 0.0989 0.05676 -0.05862 -0.08246 -0.08746 -0.0745
000070 af 2d 74 2c 53 af 79 b1 91 32 8b 32 2d 30 81 33
       0.0888 0.0696 -0.11444 -0.171 0.2052 0.2045 0.1305 0.2345
000080 ec b0 cf 29 94 33 75 31 01 aa 4a af ea a8 37 30
       -0.1538 0.04538 0.2368 0.1705 -0.0469 -0.1139 -0.0384 0.1317
000090 06 33 8e ad ac b2 27 b0 1b 30 32 33 95 b1 75 33
       0.2195 -0.0868 -0.2085 -0.1298 0.1283 0.2249 -0.1744 0.233
0000a0 38 2c c8 2e 9f b2 25 2c ef 21 eb 32 85 b3 4b b3
       0.0659 0.10596 -0.2069 0.06476 0.01159 0.2162 -0.235 -0.2279
0000b0 61 ac 01 25 26 2d f0 b1 c9 2e 47 32 e1 1d 75 ac
       -0.0684 0.01955 0.08044 -0.1855 0.106 0.1962 0.00574 -0.06964
0000c0 d1 ae ac b3 eb 31 e0 ac 58 ac 7e 30 d9 2a ca 33
       -0.1065 -0.2397 0.1849 -0.0762 -0.0679 0.1404 0.0535 0.2434
0000d0 45 31 01 2f c5 31 c2 b3 2d 25 e6 1d 15 aa dc 32
       0.1647 0.10944 0.1803 -0.2424 0.02022 0.00576 -0.04752 0.2144
0000e0 11 a6 c2 b1 b0 33 5a a8 03 32 11 b0 fd b2 6d ae
       -0.0237 -0.1799 0.2402 -0.034 0.1879 -0.1271 -0.2184 -0.1004
0000f0 c8 b2 e4 b0 bf 30 75 29 7b ac 9c ad 41 ab d6 24
       -0.2119 -0.1528 0.1483 0.04263 -0.07 -0.08765 -0.05667 0.01889
000100 4c b0 04 2c 23 30 8b b2 e0 ab ac 31 2b 32 dd a9
       -0.1343 0.06274 0.1293 -0.2045 -0.06152 0.1772 0.1927 -0.0458
000110 0e ad 60 af d2 23 c2 31 f5 aa f5 b3 76 ae 77 aa
       -0.079 -0.11523 0.015274 0.1799 -0.05435 -0.2487 -0.10095 -0.0505
000120 b8 24 a5 aa 5e 30 a1 a8 41 ab 87 32 88 2b 66 ac
       0.01843 -0.0519 0.1365 -0.03616 -0.05667 0.204 0.05884 -0.0687
000130 84 2e c0 28 95 b2 93 b3 38 2c bb ab 2a b2 6f 33
       0.1018 0.0371 -0.2057 -0.2367 0.0659 -0.0604 -0.1926 0.2323
000140 74 b2 d4 a8 50 30 6d b2 65 17 27 31 9b 32 21 32
       -0.2017 -0.03772 0.1348 -0.2008 0.001805 0.161 0.2064 0.1915
000150 31 32 85 ac 1b a5 46 b3 35 ae 1e 32 68 ac cd 22
       0.1935 -0.0706 -0.01994 -0.2273 -0.097 0.1912 -0.06885 0.01328
000160 b9 b3 41 b2 ad 32 c4 30 53 2e 2d 33 1e 31 05 29
       -0.2413 -0.1954 0.2086 0.1489 0.0988 0.2242 0.1599 0.0392
000170 db 30 af 9e f1 a5 9a b0 8d 2f 3c 2f 82 b1 b8 b2
       0.1517 -0.006527 -0.02321 -0.1438 0.118 0.11304 -0.1721 -0.21
000180 f5 b3 5f a9 f0 2f ed af 63 2e 49 23 cc a0 e1 af
       -0.2487 -0.04196 0.124 -0.12384 0.0998 0.01423 -0.00937 -0.1231
000190 51 ad 3d 30 e7 30 71 ad 45 2a 89 ad e8 33 37 30
       -0.08307 0.1324 0.1532 -0.085 0.04898 -0.0865 0.2471 0.1317
0001a0 1e b2 2c a9 f7 ab 29 a6 ce b2 d6 2d 9f 33 bb 32
       -0.1912 -0.0404 -0.06223 -0.02406 -0.2126 0.0912 0.2382 0.2103
0001b0 f6 ac 3b 30 46 26 90 a2 a2 33 55 31 c5 32 8e 24
       -0.0775 0.1322 0.0245 -0.01282 0.2385 0.1666 0.2115 0.01779
0001c0 ef 33 26 b2 19 31 08 31 50 af 18 b0 26 32 0e b0
       0.2479 -0.1921 0.1593 0.1572 -0.11426 -0.1279 0.1921 -0.1267
0001d0 da b3 8e af dd af 96 33 44 b0 69 2c 16 32 30 2e
       -0.2454 -0.11804 -0.12286 0.237 -0.1333 0.0689 0.1902 0.0967
0001e0 bb ad 57 b2 68 ae 60 2c c4 32 8b a8 cd 24 76 ae
       -0.08954 -0.1981 -0.1001 0.06836 0.2114 -0.0355 0.01875 -0.10095
0001f0 6c 33 29 b2 a4 a3 54 aa fd b1 17 32 6c 2e 6d ac
       0.2319 -0.1925 -0.01492 -0.04944 -0.1871 0.1903 0.10034 -0.06915

arith.constant38 f2 [16, 1, 1, 16]
000000 36 2a 35 a9 07 33 2b b2 90 b1 ed ac 4f ad 17 32
       0.04852 -0.04068 0.2196 -0.1927 -0.1738 -0.07697 -0.08295 0.1903
000010 75 ac b4 2b 36 a4 ea b2 a9 2c 7d 2a 5d b0 81 2a
       -0.06964 0.06018 -0.01645 -0.2161 0.0728 0.0507 -0.1364 0.0508
000020 89 a6 4d ad ea 33 09 b1 70 32 b5 9e dc 24 cc b2
       -0.02553 -0.0828 0.2473 -0.1573 0.2012 -0.00655 0.01898 -0.2124
000030 81 b3 45 27 1c ae ec b1 8a 2b d1 2d 2d ae ee 32
       -0.2345 0.0284 -0.09546 -0.185 0.0589 0.0909 -0.0965 0.2166
000040 b5 32 19 9e 5f 23 1d 31 87 27 31 b1 84 32 7b b0
       0.2096 -0.005955 0.0144 0.1598 0.0294 -0.1622 0.2036 -0.14
000050 00 b3 55 b2 47 32 e0 ac b9 b2 57 2d 24 32 b8 98
       -0.2188 -0.1979 0.1962 -0.0762 -0.2101 0.08344 0.1919 -0.002304
000060 29 32 24 a4 82 b3 f6 2a a0 2d e6 b0 eb 2c 00 a8
       0.1925 -0.01617 -0.2346 0.05438 0.0879 -0.1531 0.07684 -0.03125
000070 4e a1 54 b3 8d 2a e5 a4 ec a8 47 2c a6 b0 03 1a
       -0.01036 -0.229 0.05118 -0.01912 -0.03845 0.06683 -0.1453 0.002935
000080 79 2f b9 9e 0f b3 9e 29 d3 30 cb b0 9d ae 1c 31
       0.11676 -0.006565 -0.2206 0.04388 0.1508 -0.1498 -0.10333 0.1597
000090 6c ad 10 a8 44 2e 5c 2c 7c 29 1a 25 97 26 da 2c
       -0.0847 -0.03174 0.0979 0.0681 0.04285 0.01993 0.02574 0.0758
0000a0 c1 a7 24 a0 4c 33 03 31 e2 b3 01 33 05 96 e0 b2
       -0.03029 -0.00809 0.228 0.1566 -0.2463 0.2189 -0.00147 -0.2148
0000b0 d0 b1 7b 31 ae 31 f8 1e 16 b2 47 33 1d b2 18 31
       -0.1816 0.1713 0.1775 0.006805 -0.1902 0.2274 -0.191 0.1592
0000c0 d1 aa 6a 30 87 af 3b 2d dc 31 8c 26 e8 b0 62 b2
       -0.05325 0.138 -0.1176 0.0817 0.1831 0.02557 -0.1533 -0.1995
0000d0 13 33 1c b1 7f b1 45 b0 3e b3 da a1 0b 29 f4 32
       0.2211 -0.1597 -0.1718 -0.1334 -0.2263 -0.01143 0.0394 0.2173
0000e0 62 29 72 b2 e4 25 24 2c b0 28 05 32 4e 13 3a 24
       0.04205 -0.2014 0.02301 0.0647 0.03662 0.1881 0.0008917 0.01651
0000f0 82 2e 72 b3 a7 33 bf ae 2b 33 78 af 81 a7 5a 33
       0.1017 -0.2327 0.2391 -0.1054 0.224 -0.1167 -0.02931 0.2297
000100 a1 32 05 2f ae b1 b4 28 bf 30 d9 af 64 30 1c b0
       0.2072 0.1097 -0.1775 0.03674 0.1483 -0.1226 0.1372 -0.1284
000110 91 b2 3a b0 a2 30 a4 28 30 32 15 33 47 b2 79 2f
       -0.2052 -0.1321 0.1448 0.03625 0.1934 0.2213 -0.1962 0.11676
000120 32 a9 3e a9 91 ad b6 b2 86 b1 f0 ab 88 ad fc 29
       -0.0406 -0.04095 -0.087 -0.2097 -0.1726 -0.062 -0.0864 0.04675
000130 c5 2f 3a 1c 7a 32 87 af 9b 2d d0 b3 b5 a0 fb 30
       0.1214 0.004128 0.2024 -0.1176 0.0876 -0.2441 -0.00919 0.1556
000140 2b b2 b8 27 eb b2 6e 30 af 30 6a 2c d4 31 e3 33
       -0.1927 0.03015 -0.2162 0.1384 0.1464 0.069 0.1821 0.2465
000150 d4 b0 d3 2e 1b 30 6a b1 67 a9 c8 33 e7 25 e1 a4
       -0.1509 0.1066 0.1283 -0.1692 -0.0422 0.2432 0.02306 -0.01906
000160 0b 2b cc b2 07 30 76 a9 9c ad 0c a5 59 31 0f 32
       0.05502 -0.2124 0.1259 -0.04266 -0.08765 -0.01971 0.1671 0.1893
000170 81 b3 8a af 4b 28 cf 2f 3d 31 18 2e e1 af fa 32
       -0.2345 -0.1178 0.03354 0.122 0.1637 0.0952 -0.1231 0.218
000180 b9 b1 ae a8 23 ad 31 2e 73 31 06 ac 7a 30 96 27
       -0.1788 -0.03656 -0.08026 0.09674 0.1703 -0.06287 0.1399 0.02963
000190 e8 32 6b b2 dd 32 83 b1 0f b0 0e 2b 6e af 5b b3
       0.2158 -0.2006 0.2145 -0.1722 -0.1268 0.0551 -0.1161 -0.2299
0001a0 db 28 85 33 46 2e 68 33 72 b0 29 b1 3e ab 9e b0
       0.03793 0.235 0.098 0.2314 -0.1389 -0.1613 -0.05658 -0.1443
0001b0 67 b2 00 b1 10 33 a5 30 24 24 e5 a9 ac 31 ba ad
       -0.2001 -0.1562 0.2207 0.1451 0.01617 -0.04605 0.1772 -0.0895
0001c0 84 2d d8 31 6b 30 b3 b0 18 33 2e b2 d2 ae 47 2f
       0.0862 0.1826 0.1381 -0.1469 0.2217 -0.1931 -0.10657 0.1137
0001d0 2e b0 03 2d 93 2d ae 30 09 a2 e9 2f 66 2f 41 b1
       -0.1306 0.0783 0.0871 0.1462 -0.01179 0.1236 0.1156 -0.1642
0001e0 e4 30 79 33 e7 32 e1 30 16 ac 59 99 31 30 9f b2
       0.1528 0.2335 0.2157 0.1525 -0.06384 -0.002611 0.131 -0.2069
0001f0 f7 31 e1 b1 f5 b1 24 28 fc 31 14 2a cb 33 47 32
       0.1864 -0.1837 -0.1862 0.03235 0.187 0.0475 0.2435 0.1962

arith.constant39 f2 [1, 3, 1, 16]
000000 99 b1 21 b8 aa 23 08 b8 0a b2 86 b0 d1 b7 70 b1
       -0.1749 -0.516 0.01497 -0.504 -0.1887 -0.1414 -0.4885 -0.1699
000010 e3 33 94 36 ca b4 da a2 cb 34 42 b7 c7 23 e6 b4
       0.2465 0.4111 -0.2993 -0.01338 0.2996 -0.4536 0.01519 -0.3062
000020 d4 aa 4c 38 42 30 6e 38 07 ae 62 38 4c b6 52 b8
       -0.05334 0.537 0.133 0.5537 -0.0942 0.548 -0.3936 -0.54
000030 03 37 8b 36 33 b5 59 32 00 38 c8 b7 96 ac 31 2a
       0.4382 0.409 -0.325 0.1984 0.5 -0.4863 -0.07166 0.04837
000040 b2 21 73 b5 d3 35 22 35 5d 35 64 32 02 29 82 34
       0.01112 -0.3406 0.364 0.3208 0.3352 0.1997 0.03912 0.2817
000050 e5 27 cb 34 e0 37 16 b7 4c 9e 97 b0 64 b1 3a b4
       0.03084 0.2996 0.4922 -0.4429 -0.00615 -0.1434 -0.1685 -0.2642

arith.constant40 f2 [16, 1, 1, 16]
000000 60 b1 92 b0 94 01 dc 2c e8 2e 2c 2e c0 a8 47 31
       -0.168 -0.1428 2.41e-05 0.0759 0.1079 0.09644 -0.0371 0.1649
000010 6c 33 eb b0 64 b3 a7 2d 60 ae 8a aa 51 28 78 b2
       0.2319 -0.1537 -0.231 0.0883 -0.0996 -0.0511 0.03372 -0.2021
000020 b9 a9 4e ad e3 2f 11 30 ef b0 88 33 89 33 72 b2
       -0.0447 -0.0829 0.1232 0.1271 -0.1542 0.2354 0.2355 -0.2014
000030 2e a2 bf 2e 9e a8 94 30 0e a1 0d 28 18 b1 e1 31
       -0.01207 0.1054 -0.03607 0.1431 -0.00987 0.03165 -0.1592 0.1837
000040 67 32 dd b1 a7 25 a7 b3 80 af 02 b3 3c a2 5e 22
       0.2001 -0.1832 0.02208 -0.2391 -0.1172 -0.219 -0.01218 0.012436
000050 40 31 80 a1 e9 ae ce a9 61 a8 81 ad e0 af 43 b1
       0.1641 -0.01074 -0.108 -0.04535 -0.0342 -0.086 -0.12305 -0.1644
000060 a4 b1 3f 29 96 33 d4 b0 5b b0 8f b2 26 33 72 2d
       -0.1763 0.041 0.237 -0.1509 -0.1361 -0.205 0.2234 0.0851
000070 a3 b1 e4 33 6c aa 79 b3 4c 2d d0 b2 e3 b0 0f 31
       -0.1761 0.2466 -0.05017 -0.2335 0.08276 -0.2129 -0.1527 0.1581
000080 bc b3 0c 2a ff b1 02 2b 30 28 61 b2 39 30 aa b3
       -0.2417 0.04724 -0.1874 0.05475 0.0327 -0.1993 0.132 -0.2395
000090 5a 2c 77 2c b8 32 0d b1 d7 ae a6 b1 cd b2 b9 29
       0.068 0.06976 0.21 -0.1578 -0.1069 -0.1765 -0.2125 0.0447
0000a0 e7 b2 5f 30 ae b1 46 2c 5e b3 6d 2c 00 2f 9e a4
       -0.2157 0.1366 -0.1775 0.0668 -0.2302 0.06915 0.1094 -0.01804
0000b0 7f 31 33 af 1a b0 59 24 b4 33 84 21 25 b3 41 29
       0.1718 -0.1125 -0.1282 0.01698 0.2407 0.01077 -0.2233 0.04105
0000c0 48 30 96 2b 25 2f dd 30 9d ac aa 24 e7 18 90 32
       0.1338 0.05927 0.11163 0.152 -0.0721 0.01822 0.002394 0.2051
0000d0 5a b2 a6 32 d9 33 86 31 eb b0 4a 2f 54 ae 58 2f
       -0.1985 0.2078 0.2452 0.1726 -0.1537 0.1139 -0.0989 0.11475
0000e0 3f 30 c0 2a 56 b3 8a b1 a1 ab d8 2a b8 21 40 b3
       0.1327 0.05273 -0.2292 -0.1731 -0.0596 0.05347 0.01117 -0.2266
0000f0 58 2c 7d b0 79 2a 28 2a b2 a4 0f b1 99 ab 3b 30
       0.0679 -0.1403 0.05057 0.0481 -0.01834 -0.1581 -0.05936 0.1322
000100 84 aa 52 33 79 ad 90 b2 bd aa ec 31 93 a9 11 2a
       -0.0509 0.2288 -0.0855 -0.2051 -0.05264 0.185 -0.04355 0.0474
000110 c7 ae 07 30 97 a8 27 2d 79 2e b8 30 be b2 58 aa
       -0.1059 0.1259 -0.03586 0.0805 0.10114 0.1475 -0.2107 -0.04956
000120 0b 26 3a b2 37 2d 48 ab 00 24 2d a4 73 33 bf ad
       0.0236 -0.1946 0.0815 -0.0569 0.01563 -0.01631 0.2328 -0.0898
000130 f7 2e 83 ab 45 31 33 2c 30 b3 e3 ac ab b0 5c 2f
       0.1088 -0.0587 0.1647 0.0656 -0.2246 -0.07635 -0.1459 0.115
000140 8e 2d 53 ac e0 ac 59 af df 33 28 2d 9f 2e 60 2c
       0.0868 -0.06757 -0.0762 -0.1148 0.246 0.08057 0.10345 0.06836
000150 f7 a8 21 af 0f b0 ef 2c 91 2b 7e 30 a7 27 4e 32
       -0.0388 -0.1114 -0.1268 0.0771 0.0591 0.1404 0.02989 0.197
000160 70 b3 ed 32 fe aa d7 2d 92 30 2a 29 c8 31 51 2c
       -0.2324 0.2164 -0.05463 0.09125 0.1428 0.04034 0.1807 0.06744
000170 2c 31 b5 20 21 ab 5d a4 36 b0 a1 b0 ad ae 61 1b
       0.1616 0.00919 -0.0557 -0.01704 -0.1316 -0.1447 -0.1043 0.003603
000180 ac 33 6f aa 3f 2e 14 33 0f ae 19 af 22 2f 69 b1
       0.2397 -0.05026 0.0976 0.2212 -0.09467 -0.1109 0.11145 -0.1691
000190 54 2e 99 31 f4 2a 6c a4 11 28 fb ac da a2 da 32
       0.0989 0.1749 0.05432 -0.01727 0.03177 -0.0778 -0.01338 0.2141
0001a0 d8 30 90 af fb a3 8c 29 be ae 1f 33 5f 2c 15 2f
       0.1514 -0.11816 -0.01559 0.04333 -0.10535 0.2225 0.0683 0.11066
0001b0 0a 30 32 30 fc ae 7c ae d0 b1 d1 b2 ad 26 ee 27
       0.1262 0.1311 -0.10913 -0.1013 -0.1816 -0.213 0.02608 0.03098
0001c0 43 2c 19 30 c7 33 7c 32 95 a8 4d 2f f3 30 68 30
       0.0666 0.128 0.243 0.2026 -0.0358 0.1141 0.1547 0.1377
0001d0 f9 b0 07 2f 49 b3 f3 a7 e9 31 b6 30 dc 2f 77 a5
       -0.1554 0.1098 -0.2277 -0.03105 0.1847 0.1472 0.1228 -0.02135
0001e0 99 b3 ee 31 7b 94 8e 32 ad 2a 6a 26 5d ac c4 2f
       -0.2374 0.1853 -0.001094 0.2048 0.05215 0.02505 -0.0682 0.12134
0001f0 e0 30 3a 30 e0 a4 ed 2b 4f 32 d1 a9 b1 a9 5a af
       0.1523 0.1321 -0.01904 0.06192 0.1971 -0.04544 -0.04446 -0.11487

arith.constant41 f2 [16, 1, 1, 16]
000000 04 2e f3 af e4 ad 07 b1 07 2c 4c b3 61 b1 95 aa
       0.094 -0.1242 -0.09204 -0.1571 0.0629 -0.228 -0.1681 -0.05142
000010 b5 31 84 2e 3b b0 cc 32 08 b2 cb 29 53 31 c6 b1
       0.1783 0.1018 -0.1322 0.2124 -0.1885 0.04526 0.1664 -0.1804
000020 47 b2 99 30 48 32 49 32 25 af 43 33 a3 29 61 9f
       -0.1962 0.1437 0.1963 0.1964 -0.11163 0.2269 0.04404 -0.007206
000030 d0 27 90 2a d0 b1 04 30 56 b1 2a 32 e8 33 24 ad
       0.03052 0.05127 -0.1816 0.1255 -0.1667 0.1926 0.2471 -0.0803
000040 e9 b3 fb 31 ed 2d eb 2e 04 b1 24 ad 0e b1 ba ab
       -0.2472 0.1869 0.0926 0.1081 -0.1567 -0.0803 -0.158 -0.06036
000050 5f ab d1 1f 9a b1 60 33 e5 b3 ba 32 32 a8 69 2e
       -0.0576 0.007633 -0.175 0.2305 -0.2467 0.2102 -0.03278 0.10016
000060 9e 32 82 32 44 ad 2a ac a2 2e b3 a8 72 30 e8 2a
       0.2068 0.2034 -0.0823 -0.06506 0.10364 -0.0367 0.1389 0.05396
000070 f6 b0 6b 2f 33 25 f2 b2 6e 2f b6 b3 b3 b3 d5 31
       -0.155 0.1159 0.02031 -0.217 0.1161 -0.241 -0.2406 0.1823
000080 06 a9 41 b0 ba 25 99 b1 86 b0 b6 2f 22 b1 1f aa
       -0.03925 -0.1329 0.02237 -0.1749 -0.1414 0.1205 -0.1604 -0.04782
000090 52 30 8d a6 be 33 db b2 3f a3 cf b1 72 b3 a7 2c
       0.135 -0.02559 0.242 -0.2142 -0.01415 -0.1815 -0.2327 0.0727
0000a0 bf b1 de ac 35 31 57 30 6a 30 bb b2 93 b0 52 30
       -0.1796 -0.07605 0.1627 0.1356 0.138 -0.2103 -0.143 0.135
0000b0 ea ac c4 b1 d3 a5 9f 2f 93 32 39 31 c0 b0 1f 33
       -0.0768 -0.1802 -0.02275 0.1191 0.2054 0.1632 -0.1484 0.2225
0000c0 58 31 e5 a2 81 2f 51 b1 e9 b2 84 33 ad 30 87 b1
       0.167 -0.013466 0.11725 -0.1661 -0.216 0.2349 0.1461 -0.1727
0000d0 19 b2 13 30 d8 ae ff b1 8d 32 75 b0 3a b0 df b2
       -0.1906 0.1273 -0.10693 -0.1874 0.2047 -0.1393 -0.1321 -0.2147
0000e0 14 aa 36 b2 99 a5 12 2e 48 28 f6 2d cb 33 c5 31
       -0.0475 -0.1941 -0.02187 0.09485 0.03345 0.09314 0.2435 0.1803
0000f0 14 ae da 32 82 2d 4e b1 09 ae a6 30 0e 28 b8 b2
       -0.095 0.2141 0.08606 -0.1658 -0.0943 0.1453 0.03168 -0.21
000100 81 33 fd ad 53 a0 7e ad 8e ad 16 29 35 32 a7 a7
       0.2345 -0.09357 -0.008446 -0.0858 -0.0868 0.03973 0.194 -0.02989
000110 8c b1 ca ac 37 2c 2b 31 9e 1f 6d 2e 15 b3 dd 33
       -0.1733 -0.0748 0.06586 0.1615 0.00744 0.1004 -0.2213 0.2457
000120 b6 ae 7d 1e 23 b2 9e b0 4c 30 50 af df 2f d0 ac
       -0.10486 0.006336 -0.1918 -0.1443 0.1343 -0.11426 0.123 -0.0752
000130 f1 b2 a8 a8 56 b1 ae b3 64 a4 b0 b3 16 b2 12 2e
       -0.2169 -0.03638 -0.1667 -0.24 -0.01715 -0.2402 -0.1902 0.09485
000140 16 ac da b0 33 a7 d0 30 76 ac d2 af 6b af 2e ab
       -0.06384 -0.1516 -0.02812 0.1504 -0.0697 -0.1222 -0.1159 -0.0561
000150 7f 94 14 32 0d ac 7a 32 80 a6 52 af 3e ae 24 b2
       -0.001098 0.19 -0.0633 0.2024 -0.02539 -0.1144 -0.09753 -0.1919
000160 4f b0 7f b3 84 ad 52 31 55 32 f8 18 84 ab 81 b1
       -0.1346 -0.2343 -0.0862 0.1663 0.1979 0.002426 -0.05872 -0.172
000170 11 b3 70 b0 ed b2 98 32 e6 aa 50 2b 15 ac b1 b0
       -0.2208 -0.1387 -0.2164 0.206 -0.0539 0.05713 -0.0638 -0.1466
000180 db 29 16 ae 99 a6 55 28 f7 a1 d2 ac 6f 32 16 b1
       0.04575 -0.0951 -0.02577 0.03384 -0.01165 -0.0753 0.201 -0.1589
000190 cc ab ba 32 9c 2c f8 af d4 31 5a a9 50 2a cf 25
       -0.0609 0.2102 0.072 -0.1245 0.1821 -0.0418 0.04932 0.02269
0001a0 17 30 d4 26 98 32 80 b1 d1 b3 18 33 ad ad 68 2f
       0.1278 0.02667 0.206 -0.1719 -0.2443 0.2217 -0.0887 0.1157
0001b0 b8 23 f2 b3 0f a4 71 ae 59 33 69 30 00 32 8f 31
       0.015076 -0.2483 -0.01585 -0.10065 0.2296 0.1378 0.1875 0.1737
0001c0 e6 a3 b4 b2 70 33 12 31 e0 a4 6e ae 6e ad 49 2c
       -0.01543 -0.2095 0.2324 0.1584 -0.01904 -0.10046 -0.08484 0.06696
0001d0 59 ae dc 33 70 a8 6b 2d 03 af a6 b1 79 af 56 25
       -0.0992 0.2456 -0.03467 0.08466 -0.10956 -0.1765 -0.11676 0.02084
0001e0 90 ab 69 33 96 b2 4a a1 e8 32 23 a7 87 32 4c b3
       -0.05908 0.2316 -0.2058 -0.01033 0.2158 -0.02788 0.204 -0.228
0001f0 da b2 7d b2 92 b0 aa b3 7d b1 26 a5 6a aa a6 33
       -0.2141 -0.2028 -0.1428 -0.2395 -0.1715 -0.02011 -0.0501 0.239

arith.constant42 f2 [1, 3, 1, 16]
000000 3f 38 d3 2d 22 30 74 2f 42 a5 a1 ae da 2b d0 b5
       0.531 0.091 0.1292 0.11646 -0.02054 -0.1036 0.06134 -0.3633
000010 6d 38 2a 2d 92 34 b9 31 b2 a8 6d b8 a8 b6 41 37
       0.553 0.0807 0.2856 0.1788 -0.03668 -0.553 -0.416 0.4534
000020 37 b8 f2 31 8e 31 b2 b4 dc 36 c3 2a 52 b3 7f b6
       -0.527 0.1858 0.1736 -0.2935 0.4287 0.05283 -0.2288 -0.406
000030 b0 b0 5f b5 c2 36 fd b7 6c b4 a6 34 a5 ae 77 b8
       -0.1465 -0.3357 0.4224 -0.4993 -0.2764 0.2905 -0.1038 -0.558
000040 57 30 c9 33 33 b5 c6 ad f6 31 c1 28 56 b8 e5 b1
       0.1356 0.2433 -0.325 -0.0902 0.1863 0.03714 -0.542 -0.1842
000050 34 b7 95 30 3c b5 cb 31 9c b7 20 b6 6a 38 1d 38
       -0.4502 0.1432 -0.3271 0.181 -0.4756 -0.3828 0.552 0.514

arith.constant43 f2 [16, 1, 1, 16]
000000 14 2f 4c b2 80 31 e0 b3 18 2e 51 ad d0 2d 28 a2
       0.1106 -0.1968 0.1719 -0.2461 0.0952 -0.08307 0.0908 -0.012024
000010 a2 b3 c9 a4 8d b3 4c 26 ce 29 2c a8 49 af e9 b0
       -0.2385 -0.01869 -0.236 0.0246 0.04535 -0.0326 -0.11383 -0.1534
000020 0e 33 a8 32 38 30 0a 16 4c b0 d3 b0 3f b1 bd a9
       0.2205 0.208 0.1318 0.001474 -0.1343 -0.1508 -0.164 -0.04483
000030 ae b3 0f a9 18 b0 46 ad 4c 2b 91 33 a7 2b 59 2a
       -0.24 -0.03952 -0.1279 -0.0824 0.057 0.2365 0.05978 0.0496
000040 f7 32 b6 b1 69 30 c0 20 25 2d fe a8 fc ad b4 29
       0.2177 -0.1785 0.1378 0.00928 0.0804 -0.039 -0.0935 0.04456
000050 34 28 71 2e 86 27 c7 b2 0e 2d 46 2f dd 33 bb 30
       0.03284 0.10065 0.02939 -0.2118 0.079 0.11365 0.2457 0.1478
000060 00 29 cc af f0 ad e1 32 da b1 85 b1 62 21 2f b0
       0.03906 -0.1218 -0.0928 0.215 -0.1829 -0.1725 0.01051 -0.1307
000070 75 b3 48 33 d9 33 a0 b2 bf 33 4d 2a d8 30 82 33
       -0.233 0.2275 0.2452 -0.207 0.2421 0.04922 0.1514 0.2346
000080 b3 22 7f ab 2d 30 90 b0 8f ae 31 2f cc af bd 30
       0.013084 -0.05856 0.1305 -0.1426 -0.1025 0.11237 -0.1218 0.1481
000090 94 33 27 b1 ef 31 53 b1 76 2c 15 b3 7f b1 70 af
       0.2368 -0.161 0.1854 -0.1664 0.0697 -0.2213 -0.1718 -0.1162
0000a0 bf 33 66 b1 3c b2 13 30 cb 30 37 32 b1 a9 d8 9c
       0.2421 -0.1687 -0.1948 0.1273 0.1498 0.1942 -0.04446 -0.00473
0000b0 8b b3 d2 32 2d 2f a6 ab 4c 28 4c 2f ca a6 18 ac
       -0.2357 0.2131 0.1121 -0.05975 0.03357 0.114 -0.02652 -0.06396
0000c0 f6 b0 e2 b2 58 b2 0a 31 18 2f e9 a8 c8 1d c8 29
       -0.155 -0.2151 -0.1982 0.1575 0.11084 -0.03836 0.005646 0.04517
0000d0 f6 2d d7 b1 23 2d 9f b1 d1 31 f6 a7 a4 b0 2b a7
       0.09314 -0.1825 0.08026 -0.1757 0.1818 -0.0311 -0.145 -0.028
0000e0 d4 b1 73 a5 bf 32 f5 2b 71 ae 0c 31 c1 30 91 a4
       -0.1821 -0.02129 0.2108 0.06216 -0.10065 0.1577 0.1486 -0.01784
0000f0 45 b1 62 b2 36 b1 8b 30 c6 2b 38 aa 03 a0 a1 b3
       -0.1647 -0.1995 -0.1628 0.142 0.06073 -0.04858 -0.007835 -0.2384
000100 c8 32 9e ac 88 30 40 b2 3e 33 4d b3 0d 24 d7 b1
       0.2119 -0.07214 0.1416 -0.1953 0.2263 -0.2281 0.01582 -0.1825
000110 82 2f 40 30 8c ab 18 b0 68 ad a9 b1 0a a9 0d b3
       0.1173 0.1328 -0.05896 -0.1279 -0.0845 -0.1769 -0.03937 -0.2203
000120 0f b0 44 29 10 b1 3f 29 d9 2c ee 2f 03 b2 c2 33
       -0.1268 0.04114 -0.1582 0.041 0.07574 0.1239 -0.1879 0.2424
000130 3c 33 c0 ae 68 b3 98 b0 03 ae fc b2 00 31 e0 28
       0.2261 -0.10547 -0.2314 -0.1436 -0.09393 -0.2183 0.1562 0.0381
000140 04 aa 4f a9 06 26 bc ae c8 a7 21 b0 79 2b b8 b0
       -0.047 -0.04147 0.02353 -0.1052 -0.0304 -0.129 0.05838 -0.1475
000150 3c b1 ac b0 c0 aa e2 b3 21 2b 1e 2a 29 32 68 ae
       -0.1636 -0.146 -0.05273 -0.2463 0.0557 0.0478 0.1925 -0.1001
000160 d3 29 79 b3 ba 31 b5 30 04 b3 00 af 29 a5 69 af
       0.0455 -0.2335 0.179 0.1471 -0.2192 -0.1094 -0.02016 -0.1158
000170 3f 2f df 31 f1 a6 a8 29 b2 b1 a8 b2 d1 af 62 30
       0.1132 0.1835 -0.02711 0.0442 -0.178 -0.208 -0.12213 0.137
000180 8e 32 33 2c f8 ae 6e b1 47 33 00 aa e4 b1 38 a7
       0.2048 0.0656 -0.1089 -0.1697 0.2274 -0.04688 -0.1841 -0.0282
000190 00 2c 3e 31 28 a8 88 b1 05 29 a1 ad 10 2e ae af
       0.0625 0.1638 -0.03247 -0.1729 0.0392 -0.08795 0.0947 -0.12
0001a0 4b b2 2c 31 f2 b1 c8 30 c6 a9 4f 32 77 b1 b4 9c
       -0.1967 0.1616 -0.1858 0.1494 -0.0451 0.1971 -0.1708 -0.004593
0001b0 d0 b1 dd a4 75 33 47 a4 db a9 b2 32 da 2f c3 a8
       -0.1816 -0.019 0.233 -0.01671 -0.04575 0.2092 0.1227 -0.0372
0001c0 0e ae eb 32 ca b2 98 a3 6c b1 d6 33 f7 a8 ff 2e
       -0.0946 0.2162 -0.2122 -0.01483 -0.1694 0.2449 -0.0388 0.1093
0001d0 b1 b3 33 b0 71 11 f6 29 ea 2a 0f a9 14 1f 9b 32
       -0.2404 -0.1312 0.000664 0.04657 0.05402 -0.03952 0.006912 0.2064
0001e0 32 32 90 ac e3 2e c8 32 6e ae cc b2 85 31 d4 a0
       0.1936 -0.0713 0.1076 0.2119 -0.10046 -0.2124 0.1725 -0.00943
0001f0 ab a5 64 b0 b9 2e 52 b1 58 a0 88 2b ab 30 42 29
       -0.02214 -0.1372 0.10504 -0.1663 -0.008484 0.05884 0.1459 0.04108
