gtcrn_micro/models/tflite/gtcrn_micro_dynamic_range_quant.tflite (tflite, 140288 bytes, 96 tensors)

arith.constant12 f4 [16]
0.99999493 0.99999493 0.99999493 0.99999493 0.99999493 0.99999493 0.99999493 0.99999493
0.99999493 0.99999493 0.99999493 0.99999493 0.99999493 0.99999493 0.99999493 0.99999493
00000000: abff 7f3f abff 7f3f abff 7f3f abff 7f3f
00000010: abff 7f3f abff 7f3f abff 7f3f abff 7f3f
00000020: abff 7f3f abff 7f3f abff 7f3f abff 7f3f
00000030: abff 7f3f abff 7f3f abff 7f3f abff 7f3f

arith.constant13 f4 [2]
0.999995 0.999995
00000000: acff 7f3f acff 7f3f

arith.constant30 f4 [16, 1, 5, 3]
0.16216922 0.06401888 0.20399058 -0.12450769 0.009534613 0.097993754 0.02236036 -0.10440338
0.06922112 -0.23192127 -0.23139353 -0.16630927 0.13569386 -0.19736987 0.03883927 0.11023672
0.07324071 0.09815476 0.13317333 -0.015765904 -0.0985975 0.005661806 -0.23118669 -0.066239744
-0.13076535 0.23001677 -0.03573112 0.007625511 -0.20153031 0.22088681 0.2094378 -0.1734799
0.1527033 -0.12803188 -0.19462967 0.0598272 -0.0186541 0.19721346 -0.14722137 -0.0443622
-0.038070306 -0.11750589 -0.2407401 -0.15499523 -0.16656183 0.022014244 -0.18523347 0.058255106
-0.11927723 0.14356011 0.17101301 0.11746733 -0.15967292 -0.10366876 -0.03648993 -0.09161167
-0.17833337 0.07221347 -0.003718262 -0.09648891 -0.1986819 0.15878321 0.19680788 -0.198126
-0.20458373 -0.22252332 -0.13182488 -0.22773534 0.19310577 0.20751247 0.090621464 -0.22257906
-0.14437532 -0.225858 -0.18678355 -0.11668242 -0.19635305 -0.02284994 0.04178198 0.114627145
0.041601058 -0.050681673 -0.21071509 0.14633003 0.11492377 0.19881575 -0.025142862 0.12003452
-0.1556712 0.21000195 0.222368 0.07925544 -0.048837543 0.03104835 -0.025452998 0.24342877
-0.17015992 0.040858407 -0.14876506 0.20067133 -0.17539999 0.11561575 0.2215962 -0.17995822
0.19747749 -0.23463634 0.19287135 -0.09890988 -0.008731112 -0.024048524 0.117261134 -0.11139683
0.14375027 -0.0065569063 -0.06256363 -0.07220762 0.08560052 -0.006307746 0.23037289 0.19841908
-0.002932768 -0.11990513 -0.16845036 -0.034635212 -0.21998921 -0.17181075 -0.048568718 -0.014169644
-0.21551543 0.15471141 -0.00671262 -0.15904745 0.08110131 0.2200368 0.093856275 -0.08700801
-0.002217882 -0.082339026 -0.021303482 0.13435893 -0.004010268 0.23573466 0.1031119 -0.18396768
0.24130978 -0.073885694 -0.07369258 -0.048170306 0.12371853 -0.22406317 -0.20488928 -0.10128846
-0.113055296 -0.23832595 -0.22024308 -0.084421165 -0.08908141 0.12941244 -0.052677017 0.13494948
0.24590383 0.010694941 -0.21483651 0.1530794 0.2411758 -0.16992956 0.17324634 -0.06858417
0.09623359 -0.08479668 -0.07652009 -0.0050525866 -0.22396725 0.13510808 -0.17148986 0.030421585
-0.23460875 -0.15581813 -0.13021603 -0.23208883 0.16720155 -0.07891542 -0.18743704 -0.14796306
0.14160785 -0.031527773 -0.03701284 -0.25003713 0.1933509 0.15386817 -0.12905636 -0.22722484
0.12050456 -0.17236511 -0.020778967 0.15699548 0.17797647 -0.08703362 -0.018376686 -0.1458128
0.21503322 -0.16578956 0.1430496 0.043639123 -0.086890556 0.18012765 -0.0050800107 0.22836833
-0.22500993 0.08019378 0.06372629 0.24199802 -0.09867854 0.22849707 -0.058021456 -0.03509617
-0.0038097082 -0.05409063 0.05525305 0.16800427 0.24318354 -0.047224946 -0.22708209 -0.2423973
0.20623107 -0.25414324 0.09517324 0.10492438 0.22570045 -0.19013554 -0.044994965 0.023110181
-0.0031373906 0.04390626 0.14246958 -0.25139457 -0.18988216 -0.1384325 0.19300121 -0.20759201
00000000: b00f 263e 551c 833d e8e2 503e e3fd febd
00000010: 1137 1c3c f3b0 c83d 132d b73c 70d1 d5bd
00000020: cdc3 8d3d c57c 6dbe 6df2 6cbe fa4c 2abe
00000030: 55f3 0a3e 541b 4abe ed15 1f3d cac3 e13d
00000040: 3aff 953d 5d05 c93d 975e 083e 7f27 81bc
00000050: 7ced c9bd ac86 b93b 34bc 6cbe b4a8 87bd
00000060: 5ae7 05be 8489 6b3e cb5a 12bd 6cdf f93b
00000070: f65d 4ebe 2730 623e dd76 563e b7a4 31be
00000080: 415e 1c3e ca1a 03be 004d 47be 5e0d 753d
00000090: 7cd0 98bc 53f2 493e 33c1 16be 23b5 35bd
000000a0: 9cef 1bbd eea6 f0bd 9384 76be 12b7 1ebe
000000b0: 2f8f 2abe 3757 b43c d8ad 3dbe e89c 6e3d
000000c0: 9f47 f4bd 6c01 133e 091e 2f3e b692 f03d
000000d0: 4c81 23be 4950 d4bd 7776 15bd e69e bbbd
000000e0: 069d 36be a8e4 933d 16ae 73bb fa9b c5bd
000000f0: 4573 4bbe 1198 223e 0188 493e 8be1 4abe
00000100: 667e 51be 27dd 63be 1afd 06be 7433 69be
00000110: 85bd 453e 267e 543e bf97 b93d c4eb 63be
00000120: 20d7 13be 5247 67be 3044 3fbe 31f7 eebd
00000130: c610 49be cc2f bbbc 9523 2b3d a3c1 ea3d
00000140: df65 2a3d 9697 4fbd b2c5 57be 8ad7 153e
00000150: 275d eb3d 5b96 4b3e 67f8 cdbc a9d4 f53d
00000160: 4568 1fbe c00a 573e 70b4 633e ad50 a23d
00000170: e009 48bd 1c59 fe3c ce82 d0bc 6445 793e
00000180: 673e 2ebe 255b 273d de55 18be c97c 4d3e
00000190: 0e9c 33be f3c7 ec3d 1dea 623e f846 38be
000001a0: 8a37 4a3e 8244 70be 1180 453e 4391 cabd
000001b0: f00c 0fbc 6901 c5bc 9b26 f03d 0524 e4bd
000001c0: 4533 133e 51db d6bb 5c21 80bd 97e1 93bd
000001d0: 534f af3d 35b1 cebb dfe6 6b3e 5f2e 4b3e
000001e0: af33 40bb d290 f5bd 407e 2cbe a7dd 0dbd
000001f0: da44 61be 28ef 2fbe feef 46bd cb27 68bc
00000200: 14b0 5cbe ab6c 1e3e 8af5 dbbb 56dd 22be
00000210: 7218 a63d 5451 613e b837 c03d 4131 b2bd
00000220: e359 11bb 5da1 a8bd a484 aebc 6395 093e
00000230: 9168 83bb 6d64 713e 552c d33d 0662 3cbe
00000240: e919 773e 6251 97bd 23ec 96bd 3a4e 45bd
00000250: 2460 fd3d d170 65be 7fce 51be 5370 cfbd
00000260: 8989 e7bd b80b 74be 6787 61be 01e5 acbd
00000270: 5070 b6bd b284 043e dbc3 57bd 3230 0a3e
00000280: 37ce 7b3e d539 2f3c 1afe 5bbe d9c0 1c3e
00000290: caf6 763e 0402 2ebe 7d67 313e db75 8cbd
000002a0: 1e16 c53d e2a9 adbd 91b6 9cbd 2b90 a5bb
000002b0: ac57 65be c659 0a3e 0a9b 2fbe b036 f93c
000002c0: 473d 70be ca8e 1fbe 5a57 05be b2a8 6dbe
000002d0: e236 2b3e 689e a1bd 7fef 3fbe a183 17be
000002e0: a601 113e 4423 01bd c79a 17bd de04 80be
000002f0: c7fd 453e 9e8f 1d3e 5a27 04be a1ad 68be
00000300: 18cb f63d 7b80 30be a738 aabc 6cc3 203e
00000310: 773f 363e af3e b2bd b48a 96bc f34f 15be
00000320: ab31 5c3e bdc4 29be 987b 123e f0be 323d
00000330: adf3 b1bd 6273 383e 3876 a6bb 63d9 693e
00000340: 0169 66be a33c a43d ee82 823d 54ce 773e
00000350: f917 cabd 23fb 693e e8a7 6dbd 00c1 0fbd
00000360: 4cac 79bb 238e 5dbd 0651 623d 5009 2c3e
00000370: 1b05 793e f26e 41bd 3588 68be ff36 78be
00000380: 3d2e 533e 101f 82be 30ea c23d 98e2 d63d
00000390: 051e 673e e4b2 42be a44c 38bd 9051 bd3c
000003a0: ae9c 4dbb 0dd7 333d 8ce3 113e cab6 80be
000003b0: 7870 42be 40c1 0dbe 1ca2 453e 0093 54be

arith.constant31 f4 [16, 1, 1, 8]
0.15189297 -0.2803154 -0.32107025 0.32257658 -0.06606465 0.20261292 -0.03729834 -0.11037281
-0.24068688 -0.26297134 -0.19944362 0.08111596 -0.35144514 -0.11271511 0.30301252 0.13881256
-0.051396094 -0.3230812 0.24934836 -0.2950467 -0.07461396 -0.11116858 -0.24904203 -0.3074931
0.14561689 -0.11115944 -0.27713847 -0.12104413 -0.16258352 -0.01181307 0.33869973 -0.27303383
-0.20492212 -0.07264483 0.23035777 -0.14808267 0.11607356 -0.122308955 0.30838838 0.2519708
0.21119191 -0.03749618 0.2972894 -0.024579791 -0.07502536 0.14372982 -0.32527947 0.15347975
0.31511077 0.18044943 0.30247548 -0.34495887 0.08902558 0.32457417 0.32414848 -0.06300842
-0.09985651 -0.31117332 0.08280073 0.25340644 0.2379331 0.35267293 0.019718304 -0.17012937
0.2725636 -0.12418203 0.33761692 0.21969166 0.22291659 -0.25148478 0.10326238 -0.24056423
-0.22786811 0.23432307 -0.15240426 -0.10144047 -0.32477254 -0.048733104 0.13589436 -0.14193356
0.07472013 0.13733554 0.21786031 -0.31287473 0.051639408 0.10196708 0.13650292 -0.20650765
-0.19869298 -0.08936174 -0.10004107 0.2640262 -0.27617124 0.277806 0.24936457 -0.23761721
-0.1199068 0.3237551 -0.009939653 0.3271239 -0.13913102 0.24710485 -0.32843944 0.22864753
-0.050586924 0.33164066 0.21281514 0.23610315 -0.21064939 -0.112332255 0.11186582 0.34111366
-0.21500167 0.11818764 -0.17929065 -0.2794527 -0.042983163 0.30667993 0.33122328 -0.18128942
-0.037126675 -0.22796951 -0.05513484 0.34149447 -0.3162506 -0.017833674 -0.07553836 0.11692299
00000000: d589 1b3e 8085 8fbe 5263 a4be c228 a53e
00000010: e74c 87bd c379 4f3e 25c6 18bd 240b e2bd
00000020: 9f76 76be 2ea4 86be f33a 4cbe 2020 a63d
00000030: 9ef0 b3be 2ed7 e6bd 7524 9b3e e124 0e3e
00000040: b684 52bd e66a a5be 2d55 7f3e 5c10 97be
00000050: 34cf 98bd 5aac e3bd e004 7fbe bc6f 9dbe
00000060: 981c 153e 8fa7 e3bd 18e5 8dbe fce5 f7bd
00000070: 4b7c 26be 9b8b 41bc 0d6a ad3e 17cb 8bbe
00000080: 1bd7 51be d0c6 94bd e8e2 6b3e fca2 17be
00000090: fab7 ed3d 1e7d fabd 15e5 9d3e 5102 813e
000000a0: b142 583e 9895 19bd 5136 983e 8f5b c9bc
000000b0: e5a6 99bd e92d 133e 088b a6be cc29 1d3e
000000c0: 3356 a13e bcc7 383e 11de 9a3e 739e b0be
000000d0: 0b53 b63d 962e a63e caf6 a53e 8f0a 81bd
000000e0: 9281 ccbd 1c52 9fbe 6e93 a93d 7dbe 813e
000000f0: bca4 733e 8c91 b43e 4888 a13c 6536 2ebe
00000100: 758d 8b3e 2653 febd 20dc ac3e daf6 603e
00000110: 3f44 643e 9dc2 80be 3a7b d33d 7856 76be
00000120: 4256 69be 63f2 6f3e dd0f 1cbe 05c0 cfbd
00000130: 9648 a6be 5d9c 47bd e427 0b3e 0857 11be
00000140: de06 993d b0a1 0c3e c616 5f3e 1e31 a0be
00000150: d883 533d 1ed4 d03d 6cc7 0b3e be76 53be
00000160: 2c76 4bbe 4a03 b7bd 55e2 ccbd 712e 873e
00000170: 5166 8dbe 973c 8e3e 6d59 7f3e ed51 73be
00000180: b291 f5bd 3ac3 a53e edd9 22bc c97c a73e
00000190: 5d78 0ebe 0e09 7d3e 3729 a8be 9422 6a3e
000001a0: 3c34 4fbd cecc a93e 36ec 593e 06c5 713e
000001b0: 79b4 57be 740e e6bd e819 e53d 73a6 ae3e
000001c0: 6629 5cbe 5d0c f23d f897 37be 6d14 8fbe
000001d0: 1d0f 30bd 2705 9d3e 1996 a93e efa3 39be
000001e0: 2412 18bd d770 69be 12d5 61bd 5dd8 ae3e
000001f0: 99eb a1be ed17 92bc dbb3 9abd 5275 ef3d

arith.constant32 f4 [1, 3, 3, 16]
-0.14588998 -0.2683579 0.06785971 -0.030021397 -0.29259065 -0.039050743 -0.15841207 0.08124875
-0.2026547 0.16130412 -0.10480614 -0.087047264 -0.16500245 -0.12842607 0.10756805 -0.0066841505
0.14314377 -0.32259566 -0.2569413 -0.0812586 0.28119913 -0.13738063 0.07883482 -0.25414276
0.22395118 0.3139588 -0.045731913 0.04260201 0.23800501 0.10727213 -0.11905329 -0.06811012
-0.31815305 0.27033427 0.051807225 -0.2720136 -0.021908611 0.09894994 0.11629945 -0.100051224
-0.21113712 -0.17714988 0.0029965094 -0.11708495 -0.14114688 0.27404177 0.29210916 -0.19340084
0.29113117 0.032185078 0.053494345 0.14316007 0.09789736 -0.29610828 -0.21028234 0.22629291
-0.17628212 -0.15195699 0.075693905 0.22482818 -0.25407112 -0.20462371 -0.124633126 0.285913
0.25499257 0.2536837 -0.2124498 -0.07895251 -0.092075564 -0.16420776 -0.22644125 0.31738147
-0.057292376 -0.29037243 0.20211059 -0.17916852 -0.13143784 -0.063740015 0.18756734 0.039353613
-0.13401906 0.12001871 0.13458194 -0.22081241 -0.2928793 0.081772 -0.14928967 -0.09016596
-0.16851635 0.024259526 -0.083986424 0.18756829 -0.12452071 0.025421176 -0.3031424 -0.16033995
-0.05300857 0.33139798 -0.08572722 -0.18799235 0.33308718 0.229445 0.06548237 0.045974143
0.13770755 0.006864593 0.12385664 0.031569246 0.20616087 -0.15535842 0.2554815 0.14669374
0.29921055 -0.15635316 0.29047054 0.06417278 -0.26282415 -0.09524544 0.24348634 0.20719698
0.12824781 -0.058192283 0.18304224 -0.018032422 0.14124022 -0.0041419854 -0.26459825 -0.1289367
-0.22196579 -0.1691203 0.2973515 0.10655751 0.3177534 0.2878846 0.037325516 -0.27884313
0.19520816 -0.050256595 -0.09801943 0.25214046 0.2522664 -0.09426194 0.2724134 0.26976126
00000000: 2f64 15be 3566 89be 08fa 8a3d 6fef f5bc
00000010: 71ce 95be acf3 1fbd c636 22be bf65 a63d
00000020: b784 4fbe e82c 253e 9aa4 d6bd d645 b2bd
00000030: 67f6 28be 2082 03be a34c dc3d b806 dbbb
00000040: 4894 123e 422b a5be cf8d 83be e96a a6bd
00000050: 55f9 8f3e 82ad 0cbe 2674 a13d 001f 82be
00000060: 7553 653e 35bf a03e 6351 3bbd 727f 2e3d
00000070: 96b7 733e 7eb1 db3d 36d2 f3bd 527d 8bbd
00000080: f5e4 a2be 4169 8a3e d033 543d 5e45 8bbe
00000090: b079 b3bc 44a6 ca3d 682e ee3d a8e7 ccbd
000000a0: 5434 58be c766 35be 1661 443b 3cca efbd
000000b0: cf88 10be 344f 8c3e 558f 953e df0a 46be
000000c0: 250f 953e 80d4 033d e31c 5b3d 8e98 123e
000000d0: 697e c83d 819b 97be 4154 57be 54b9 673e
000000e0: 4d83 34be 9d9a 1bbe 6805 9b3d 5c39 663e
000000f0: 9c15 82be e188 51be a73f ffbd 3063 923e
00000100: 638e 823e d4e2 813e 718c 59be dbb1 a1bd
00000110: 1d92 bcbd 1426 28be 37e0 67be d37f a23e
00000120: 69ab 6abd b2ab 94be 14f6 4e3e f477 37be
00000130: a497 06be 208a 82bd a711 403e 4131 213d
00000140: 4b3c 09be 5fcc f53d d9cf 093e a61c 62be
00000150: 47f4 95be 1478 a73d 64df 18be eea8 b8bd
00000160: 8d8f 2cbe eabb c63c 1301 acbd e711 403e
00000170: b704 ffbd 1240 d03c 7b35 9bbe 2830 24be
00000180: 841f 59bd ffac a93e c191 afbd 1181 40be
00000190: 678a aa3e a1f3 6a3e 9f1b 863d 624f 3c3d
000001a0: 3503 0d3e 61f0 e03b 8da8 fd3d c14e 013d
000001b0: d61b 533e 4716 1fbe 79ce 823e e236 163e
000001c0: 2032 993e 0b1b 20be 8eb8 943e 056d 833d
000001d0: e390 86be 0b10 c3bd 7c54 793e 722b 543e
000001e0: 6553 033e 085b 6ebd 6d6f 3b3e bbb8 93bc
000001f0: 47a1 103e 7eb9 87bb 6c79 87be fb07 04be
00000200: 004b 63be df2d 2dbe 753e 983e d33a da3d
00000210: 93b0 a23e 9c65 933e a4e2 183d 87c4 8ebe
00000220: a6e4 473e dcd9 4dbd 69be c8bd 8e18 813e
00000230: 1029 813e 670c c1bd c579 8b3e 261e 8a3e

arith.constant33 f4 [8, 1, 1, 16]
-0.12549415 0.101676315 -0.0358347 -0.1493159 -0.19493423 0.06657945 0.072546475 -0.21019004
-0.20121446 0.14444067 -0.041260336 -0.016304828 -0.2406828 -0.019418292 -0.12684698 0.16976155
0.08167259 -0.22860254 -0.13247 0.0038307118 0.10678044 0.21411732 -0.07728547 -0.17547734
0.070066996 0.060276415 -0.0614851 0.23066998 0.17182043 0.113447934 0.17339009 -0.019934792
0.16088104 -0.20806143 0.06377617 0.18143813 0.17138931 0.1715695 0.21200113 -0.16011381
0.024503287 -0.18113358 0.12376488 -0.041694075 -0.19318588 0.096502714 -0.043263964 -0.22930254
-0.02043076 -0.07776183 0.19946845 0.17203337 -0.11653663 -0.24324477 -0.19914253 0.23943034
-0.023324938 0.011197034 -0.13738692 0.04593835 -0.021550339 0.058083393 0.041368395 -0.1959598
-0.17421563 -0.19112507 0.24992573 -0.15658204 -0.21208175 0.24019401 -0.06832905 -0.021855155
0.2374892 -0.17133948 -0.18430278 -0.16303302 -0.18354616 -0.14605163 0.20420583 0.04363938
0.087573625 0.10735956 -0.09308667 0.11998569 -0.2309446 -0.088959575 -0.09512487 0.24680103
0.080837384 -0.12647226 0.088324405 0.008102853 -0.030321863 -0.2185912 -0.13001552 0.21178542
-0.03793298 -0.004939323 -0.20473005 0.041004453 0.015849778 -0.14603595 0.105301686 -0.028570956
-0.046486236 -0.024934733 -0.15023845 -0.064686604 -0.023673922 0.22188132 0.20145589 0.086427316
-0.12483305 0.19944663 -0.01562671 0.23006783 0.14205047 0.02018531 -0.06482941 -0.004432
-0.24026664 -0.018120913 -0.16076592 -0.15155606 -0.11475708 -0.19669342 -0.07120812 0.14947069
00000000: 8a81 00be ac3b d03d 68c7 12bd 44e6 18be
00000010: d79c 47be cf5a 883d 3f93 943d 0f3c 57be
00000020: 2a0b 4ebe 41e8 133e 9900 29bd b491 85bc
00000030: 8d75 76be 1c13 9fbc 2de4 01be f9d5 2d3e
00000040: f543 a73d c916 6abe 37a6 07be ae0c 7b3b
00000050: b4af da3d 9241 5b3e d847 9ebd 55b0 33be
00000060: 497f 8f3d 67e4 763d cdd7 7bbd c034 6c3e
00000070: b2f1 2f3e 6457 e83d 2c8d 313e 4a4e a3bc
00000080: 00be 243e 0e0e 55be 159d 823d ebca 393e
00000090: ae80 2f3e eaaf 2f3e d316 593e e0f4 23be
000000a0: 1ebb c83c 157b 39be 7178 fd3d 68c7 2abd
000000b0: 85d2 45be 37a3 c53d 8e35 31bd 49ce 6abe
000000c0: 695e a7bc 9841 9fbd 7541 4c3e 8429 303e
000000d0: c2aa eebd 2815 79be 05ec 4bbe 3a2d 753e
000000e0: f113 bfbc c473 373c 28af 0cbe da29 3c3d
000000f0: 568a b0bc dae8 6d3d e871 293d b0a9 48be
00000100: 9565 32be 4ab6 43be 88ec 7f3e 0b57 20be
00000110: f52b 59be 6bf5 753e 1af0 8bbd 9509 b3bc
00000120: 5e30 733e 9e73 2fbe deb9 3cbe 21f2 26be
00000130: 86f3 3bbe 8f8e 15be 551b 513e 35bf 323d
00000140: cd59 b33d 54df db3d 39a4 bebd 0fbb f53d
00000150: be7c 6cbe 7030 b6bd d4d0 c2bd 69b9 7c3e
00000160: 128e a53d f281 01be 6de3 b43d d4c1 043c
00000170: 8e65 f8bc 5fd6 5fbe ca22 05be 47de 583e
00000180: 9d5f 1bbd 0bda a1bb c1a4 51be 49f4 273d
00000190: 65d7 813c 738a 15be 69a8 d73d a30d eabc
000001a0: 5a68 3ebd ed43 ccbc 1cd8 19be 697a 84bd
000001b0: d0ef c1bc db34 633e 744a 4e3e ce00 b13d
000001c0: 78a8 ffbd bd3b 4c3e 9603 80bc e796 6b3e
000001d0: ae75 113e aa5b a53c 48c5 84bd 503a 91bb
000001e0: 7508 76be 4f72 94bc d29f 24be 8331 1bbe
000001f0: c305 ebbd 006a 49be 90d5 91bd d80e 193e

arith.constant34 f4 [16, 1, 1, 8]
-0.25203162 -0.15598424 0.09161933 -0.09379557 0.24195753 0.21473087 0.25229457 0.087671116
0.0633783 0.31065494 0.027281096 -0.31764302 -0.12255694 -0.19982205 0.22452883 0.040065393
0.15733331 0.04056407 0.22108196 0.020313371 -0.1858059 -0.047442615 0.30356216 0.02343724
-0.016693903 -0.00822302 0.10816534 0.15243794 0.21017954 -0.0844034 -0.22067271 0.3367098
-0.32700714 -0.31321368 -0.12524426 0.19171773 0.01757696 -0.34105718 -0.02752129 -0.13437453
-0.20455667 0.26853877 -0.1676425 -0.06760717 -0.11196646 -0.16689259 0.11125616 -0.051527973
-0.28290525 0.23951404 -0.11736216 0.001667068 0.26791984 0.3052195 0.21192972 -0.19048387
0.07650926 -0.08939023 0.25170416 0.2639616 -0.043343604 0.3396342 0.07860403 0.19409125
-0.17547427 0.047826275 -0.22407854 0.2976898 -0.20827746 -0.27728912 0.26403713 0.22228013
-0.07905925 0.04891075 -0.17819972 0.23282874 0.21976845 0.22578813 -0.30320248 0.011777035
0.26803 -0.08557171 -0.066098824 -0.209443 0.24720305 0.26291803 -0.25324273 0.23570587
0.02324012 0.2824447 0.28446972 -0.35267496 -0.062205106 0.19461139 -0.2809601 0.14977477
0.11257906 -0.21384773 0.0774613 0.054788057 0.11134598 0.2611258 0.21816461 -0.11491382
-0.1944234 -0.086968705 -0.3493331 0.0017607178 0.13116223 -0.11094815 -0.32409778 0.014798443
-0.10679089 0.31808376 -0.09213267 0.027848179 0.07277645 0.30581304 0.12319862 0.099155314
0.20825075 -0.29887837 0.29606837 -0.26596946 0.19295564 0.0918379 0.24810937 0.04529954
00000000: 4a0a 81be 55ba 1fbe eaa2 bb3d e417 c0bd
00000010: b7c3 773e 69e2 5b3e c12c 813e ea8c b33d
00000020: 7bcc 813d 2a0e 9f3e 9b7c df3c 1ba2 a2be
00000030: 22ff fabd 279e 4cbe e3ea 653e 9c1b 243d
00000040: fc1b 213e 8326 263d 4f63 623e 3a68 a63c
00000050: e743 3ebe 3053 42bd 806c 9b3e 74ff bf3c
00000060: a7c1 88bc d8b9 06bc ca85 dd3d b118 1c3e
00000070: 4e39 573e b1db acbd 07f8 61be 3a65 ac3e
00000080: 7b6d a7be 8b5d a0be 0840 00be a751 443e
00000090: 8ffd 8f3c 0c9f aebe 5474 e1bc 7a99 09be
000000a0: 4e77 51be ea7d 893e 7aaa 2bbe a175 8abd
000000b0: ac4e e5bd e4e5 2abe 45da e33d ff0e 53bd
000000c0: f5d8 90be 2b43 753e 925b f0bd 8581 da3a
000000d0: ca2c 893e bb45 9c3e 1b04 593e 340e 43be
000000e0: e3b0 9c3d 3a12 b7bd 5edf 803e fa25 873e
000000f0: 1089 31bd 89e4 ad3e 26fb a03d dbbf 463e
00000100: 87af 33be 7ce5 433d d874 65be cc6a 983e
00000110: b046 55be d7f8 8dbe e02f 873e 679d 633e
00000120: d1e9 a1bd a356 483d fd79 36be a86a 6e3e
00000130: fb0a 613e 0135 673e 5b3d 9bbe 77f4 403c
00000140: 3a3b 893e 3840 afbd d25e 87bd 3a78 56be
00000150: cc22 7d3e 319d 863e 08a9 81be e15c 713e
00000160: 1062 be3c 979c 903e 04a6 913e d091 b4be
00000170: c8ca 7ebd 3548 473e 01da 8fbe 8f5e 193e
00000180: da8f e63d e6fa 5abe 08a4 9e3d 7169 603d
00000190: 5c09 e43d 48b2 853e 8b66 5f3e f057 ebbd
000001a0: ee16 47be a61c b2bd cadb b2be e3c7 e63a
000001b0: 644f 063e c938 e3bd 25f0 a5be 2b75 723c
000001c0: 2fb5 dabd e0db a23e 0eb0 bcbd dd21 e43c
000001d0: d20b 953d 8793 9c3e 8f4f fc3d f111 cb3d
000001e0: af3f 553e 9606 99be 4696 973e 262d 88be
000001f0: 2a96 453e 8215 bc3d 6210 7e3e 038c 393d

arith.constant35 f4 [1, 3, 3, 16]
-0.11930915 0.247931 -0.2016694 -0.30861074 0.2439474 -0.006744192 0.23636068 -0.04952219
-0.03668179 -0.20075683 0.04306172 -0.037140183 0.23308563 -0.100725144 0.120718315 0.31273457
0.17479312 0.024525281 0.29712895 -0.27112594 0.2890763 -0.18632637 -0.32299164 0.2519641
-0.095230624 -0.08366098 -0.23681581 0.056625523 0.07418258 -0.1327311 0.17234176 0.27414668
0.032201808 0.25058785 -0.15765902 -0.09463465 0.033431284 0.020168165 0.2861424 0.19034061
0.10829716 0.116634384 0.25854525 0.19142139 -0.1593999 7.971088e-05 -0.09300492 0.11602292
0.28878182 0.24433579 0.23623349 0.104199566 0.0497349 -0.05460442 -0.3203408 -0.059039935
-0.015432757 -0.20683615 0.3272916 -0.040432848 0.025100186 0.27618793 -0.16120711 0.13114046
0.115076885 0.29520717 0.25215417 -0.03476189 -0.054185797 0.13347842 -0.24962643 -0.3326258
-0.19931062 -0.059891485 0.016694423 0.15869336 -0.10045256 -0.17785655 0.13530032 0.15429416
0.03425315 0.11431224 -0.05699431 0.22131862 -0.30389535 0.16791281 0.048116762 0.2335958
0.23175716 -0.16275388 -0.26914868 0.1904113 -0.06669854 -0.11716661 0.25649634 0.04560933
0.29400423 -0.11633557 0.024417993 -0.124718085 -0.19559182 0.29912022 -0.28426322 0.24263169
-0.32920435 0.1748087 -0.10832033 -0.2969507 -0.050143074 -0.12104646 0.12148622 0.05508936
0.1388743 -0.3136912 0.08880539 -0.010866191 0.02246774 0.2321188 -0.27369142 0.27800587
0.25101438 0.22673076 0.12127387 -0.092669025 -0.022824055 0.0063707116 0.11534617 -0.18802573
0.014807071 0.21253692 -0.017458351 0.32530388 -0.03321353 -0.13462989 0.20975108 -0.10021323
0.24492027 -0.08514215 0.2638701 0.1525995 -0.16292316 0.3138114 -0.1812608 0.16614132
00000000: 5b58 f4bd a0e1 7d3e 6c82 4ebe 3a02 9ebe
00000010: 59cd 793e 62fe dcbb 8908 723e c8d7 4abd
00000020: a53f 16bd 3393 4dbe 7c61 303d 4e20 18bd
00000030: 00ae 6e3e fc48 cebd 2a3b f73d bf1e a03e
00000040: f8fc 323e 3ee9 c83c 4921 983e 05d1 8abe
00000050: cf01 943e 57cc 3ebe 295f a5be 7001 813e
00000060: 4608 c3bd 7356 abbd d87f 72be 2af0 673d
00000070: 09ed 973d a9ea 07be 5c7a 303e f45c 8c3e
00000080: 0be6 033d 0d4d 803e 5e71 21be d0cf c1bd
00000090: 3eef 083d b537 a53c 4281 923e a6e8 423e
000000a0: e7ca dd3d 02de ee3d 0b60 843e f803 443e
000000b0: ba39 23be 742a a738 5d79 bebd 6d9d ed3d
000000c0: 36db 933e 2933 7a3e 31e7 713e 9566 d53d
000000d0: d3b6 4b3d e2a8 5fbd b603 a4be dcd3 71bd
000000e0: add9 7cbc dbcc 53be c492 a73e ea9c 25bd
000000f0: e89e cd3c 8168 8d3e 7a13 25be af49 063e
00000100: 6ead eb3d 6525 973e 5a1a 813e 7c62 0ebd
00000110: edf1 5dbd 91ae 083e 129e 7fbe ee4d aabe
00000120: 1518 4cbe c650 75bd bec2 883c 8380 223e
00000130: 12ba cdbd 0720 36be 2b8c 0a3e 4aff 1d3e
00000140: 084d 0c3d 891c ea3d de72 69bd 59a1 623e
00000150: 2c98 9bbe 56f1 2b3e 1516 453d bd33 6f3e
00000160: c051 6d3e f4a8 26be dbcd 89be 2efb 423e
00000170: 3e99 88bd 0cf5 efbd 7d53 833e d9d0 3a3d
00000180: b987 963e 5841 eebd 3e08 c83c 326c ffbd
00000190: 3949 48be 4926 993e f38a 91be 7174 783e
000001a0: 798d a8be 0d01 333e 0dd7 ddbd ec09 98be
000001b0: d362 4dbd 35e7 f7bd c4cd f83d 61a5 613d
000001c0: 1135 0e3e 229c a0be 9adf b53d 1c08 32bc
000001d0: 440e b83c 8db0 6d3e 4821 8cbe c956 8e3e
000001e0: f584 803e 1c2c 683e 6f5e f83d 42c9 bdbd
000001f0: 83f9 babc 67c1 d03b 9d3a ec3d d189 40be
00000200: 5b99 723c 47a3 593e d104 8fbc 3b8e a63e
00000210: e90a 08bd 6bdc 09be fdc8 563e 983c cdbd
00000220: 61cc 7a3e 025f aebd fb19 873e 0b43 1c3e
00000230: 54d5 26be e3ab a03e 6e9c 39be f320 2a3e

arith.constant36 f4 [8, 1, 1, 16]
-0.089505285 -0.12147872 0.062278345 -0.033395898 -0.068298146 0.24415231 0.1425206 -0.03644156
0.19700217 0.22979005 0.18321061 0.18805955 0.19101664 0.13471399 0.20345286 -0.2008789
0.24153705 0.1211014 -0.14846158 -0.12279136 -0.19965272 -0.18488732 -0.14243984 -0.20209959
0.078474306 0.17892554 0.20766628 -0.21763755 -0.08039899 -0.06842835 0.13368659 0.18502235
-0.003917615 -0.112620175 0.044917807 -0.055913854 0.22048274 -0.008337903 -0.14219296 -0.23921981
-0.060743622 0.24492082 0.16171968 -0.06959108 -0.066725396 0.18816791 -0.13505091 0.020908937
-0.08180342 -0.15519044 0.20493881 0.1924044 0.24273598 0.16720405 -0.07837822 -0.23908296
-0.06577921 0.19367297 -0.0600405 -0.21920007 0.13650343 0.079535626 -0.035046313 -0.1187723
-0.24576719 0.01476504 -0.24314234 -0.1890457 0.002892152 0.04815715 0.07737115 0.11057998
0.1202101 0.10443474 -0.15651862 0.1003033 -0.063438006 -0.03405977 -0.10920494 -0.15267389
-0.1255992 -0.22718379 -0.07466929 0.16179991 -0.0062881988 -0.12717618 0.0085588265 -0.22052056
0.026961342 -0.1285973 -0.21319884 -0.0994224 0.040640507 -0.012441126 -0.20606633 0.14049439
-0.19444554 -0.13325332 0.080863014 0.24856183 0.21534184 0.070202835 -0.0041961162 -0.12796901
0.076189406 -0.018453863 -0.1976051 -0.24303028 0.18617646 0.13227391 -0.18834443 0.11024015
0.08685912 0.2258555 -0.0986789 0.14156735 -0.21393135 0.21774082 -0.046508078 -0.22148669
0.08401513 0.02934173 -0.044669434 0.06111347 -0.040199168 -0.12736253 -0.1988257 -0.011869311
00000000: 8c4e b7bd d6c9 f8bd 9417 7f3d 23ca 08bd
00000010: e6df 8bbd 1003 7a3e ecf0 113e bf43 15bd
00000020: f0ba 493e 154e 6b3e 909b 3b3e af92 403e
00000030: de99 433e 77f2 093e f255 503e 33b3 4dbe
00000040: 7d55 773e 0304 f83d 5006 18be 097a fbbd
00000050: c371 4cbe 1a53 3dbe c0db 11be 32f3 4ebe
00000060: 23b7 a03d 4238 373e 78a6 543e 61dc 5ebe
00000070: 3aa8 a4bd 2a24 8cbd 23e5 083e 8076 3d3e
00000080: 565f 80bb 68a5 e6bd bcfb 373d ed05 65bd
00000090: 3ac6 613e b39b 08bc 089b 11be 0af6 74be
000000a0: 4ece 78bd 86cc 7a3e d899 253e c585 8ebd
000000b0: 53a7 88bd 17af 403e c94a 0abe 3849 ab3c
000000c0: 8d88 a7bd 3eea 1ebe 7bdb 513e a905 453e
000000d0: c88f 783e 8a37 2b3e c384 a0bd 2ad2 74be
000000e0: 40b7 86bd 3552 463e 07ed 75bd fc75 60be
000000f0: 8ec7 0b3e 93e3 a23d b98c 0fbd e43e f3bd
00000100: 65aa 7bbe 11e9 713c 4efa 78be 3295 41be
00000110: 428a 3d3b 6f40 453d c474 9e3d c277 e23d
00000120: b730 f63d e2e1 d53d 6b46 20be d16b cd3d
00000130: c9eb 81bd 4282 0bbd d7a6 dfbd 8b56 1cbe
00000140: 149d 00be dea2 68be 36ec 98bd e0ae 253e
00000150: 3c0d cebb 793a 02be 523a 0c3c 24d0 61be
00000160: 08de dc3c 03af 03be cc50 5abe f99d cbbd
00000170: a976 263d ddd5 4bbc 0d03 53be c3dd 0f3e
00000180: bb1c 47be 8f73 08be 829b a53d fe86 7e3e
00000190: 9282 5c3e 81c6 8f3d 937f 89bb 4f0a 03be
000001a0: 3109 9c3d 8e2c 97bc fe58 4abe eedc 78be
000001b0: 0ba5 3e3e d072 073e 5ddd 40be 96c5 e13d
000001c0: 32e3 b13d aa46 673e 2a18 cabd 08f7 103e
000001d0: d210 5bbe 73f7 5e3e 417f 3ebd 68cd 62be
000001e0: 2010 ac3d 115e f03c 4cf7 36bd 1e52 7a3d
000001f0: e2a7 24bd 536b 02be f798 4bbe 8077 42bc

arith.constant37 f4 [16, 1, 1, 8]
0.1076305 0.11929817 0.036874387 -0.02190251 -0.21244578 0.03750469 0.2896314 0.27356255
-0.23964122 -0.31403038 0.06568815 0.17692696 -0.03831235 0.32532617 -0.15052894 0.2692491
0.23203051 -0.224859 0.27592415 -0.14286563 -0.05007678 0.34740514 0.047362663 -0.039903928
0.19014366 -0.19053128 -0.020557655 -0.12795796 -0.04230751 -0.11111708 -0.09739224 0.15308869
-0.03324889 0.020345446 -0.16632394 0.017585937 -0.2896834 -0.2127652 -0.040577557 0.18680948
0.1792612 -0.02599832 -0.14227107 0.30216798 0.17104244 0.0593624 0.08307561 -0.14513333
-0.2727273 -0.3277726 0.071109295 -0.33113492 -0.26467133 0.10125544 -0.005589487 0.2415828
0.23105207 0.100331716 0.013686108 -0.0011183189 0.048452113 -0.01625992 -0.21446519 0.24393162
-0.122637905 0.049416218 0.35002524 0.18761335 0.042226885 -0.11585411 0.1499633 0.16916691
0.34122467 0.08481395 -0.32340834 -0.26263475 0.32787707 -0.068692826 0.2933897 -0.1984629
0.300269 -0.3228082 -0.07355495 0.30788404 0.2984637 0.0018869049 -0.24210626 -0.1906259
-0.092952855 0.19110087 -0.12743078 -0.2857009 -0.059057385 0.11478143 0.10711985 -0.24925049
-0.28529918 -0.30690262 0.06968335 0.22688694 -0.32008323 -0.22474921 -0.15807982 0.21022864
0.09309627 0.13401821 0.0041735284 0.105826326 0.045999806 0.24597539 -0.0039837845 0.101358026
-0.20301571 -0.14585342 -0.052369177 -0.11242754 -0.21149267 0.35135657 -0.1762373 -0.18236332
-0.33068213 0.0636195 -0.3149532 -0.18746217 0.28837368 0.087813616 0.33129075 -0.2831375
00000000: 616d dc3d 9952 f43d 9909 173d e56c b3bc
00000010: 638b 59be 859e 193d 914a 943e 6410 8c3e
00000020: 8264 75be 97c8 a0be 8287 863d 572c 353e
00000030: 69ed 1cbd 2791 a63e 4224 1abe 05db 893e
00000040: 6899 6d3e 7041 66be ee45 8d3e 5e4b 12be
00000050: 4f1d 4dbd 16df b13e 5aff 413d 4d72 23bd
00000060: 05b5 423e a21a 43be 8768 a8bc 6907 03be
00000070: a44a 2dbd 5a91 e3bd 9575 c7bd 48c3 1c3e
00000080: fd2f 08bd 7eab a63c d350 2abe 6210 903c
00000090: 6251 94be 1fdf 59be a734 26bd fc4a 3f3e
000000a0: 3f90 373e 6efa d4bc 82af 11be c3b5 9a3e
000000b0: c025 2f3e fd25 733d 8c23 aa3d d59d 14be
000000c0: eaa2 8bbe cfd1 a7be c0a1 913d 848a a9be
000000d0: 0083 87be 035f cf3d 0428 b7bb 7b61 773e
000000e0: ea98 6c3e b77a cd3d b33b 603c 8e94 92ba
000000f0: b975 463d 8633 85bc c39c 5bbe 36c9 793e
00000100: 9529 fbbd a968 4a3d 8236 b33e b71d 403e
00000110: 19f6 2c3d eb44 edbd fb8f 193e 173a 2d3e
00000120: 00b5 ae3e f0b2 ad3d c795 a5be 1078 86be
00000130: 81df a73e d3ae 8cbd 2d37 963e dc39 4bbe
00000140: dcbc 993e 1e47 a5be faa3 96bd faa2 9d3e
00000150: 3cd0 983e 0652 f73a b4ea 77be 7033 43be
00000160: 115e bebd f2af 433e 377d 02be 6347 92be
00000170: 28e6 71bd 8712 eb3d a761 db3d 853b 7fbe
00000180: bc12 92be 5722 9dbe 25b6 8e3d 0d55 683e
00000190: f3e1 a3be a824 66be addf 21be 2d46 573e
000001a0: 42a9 be3d 123c 093e 18c2 883b 79bb d83d
000001b0: 4b6a 3c3d f9e0 7b3e 688a 82bb cc94 cf3d
000001c0: 5ae3 4fbe 995a 15be 1081 56bd 6940 e6bd
000001d0: 8991 58be 02e5 b33e 8d77 34be 73bd 3abe
000001e0: 2b4f a9be f14a 823d 8c41 a1be 15f6 3fbe
000001f0: b7a5 933e a0d7 b33d f19e a93e 66f7 90be

arith.constant38 f4 [1, 3, 3, 16]
0.2468611 0.20578186 -0.26720962 -0.1705788 0.29136643 0.3237775 -0.060069498 0.28431973
-0.012213726 -0.07452149 0.19608678 0.2572861 0.18318152 -0.248894 -0.15613738 0.10294871
-0.02185306 0.19466422 -0.13728932 0.15135796 0.12801273 0.22388189 -0.30912483 -0.09391535
-0.27169493 0.15341812 -0.17029276 -0.06074581 0.1315441 -0.29357794 -0.1513801 -0.024866298
-0.027634325 -0.15004858 -0.15946054 -0.273214 0.31127247 -0.23053329 0.15970722 -0.25682124
-0.059201777 -0.095353566 0.30688184 0.24588788 0.24745591 0.055412773 -0.15471278 -0.11523341
-0.15624613 -0.24557388 0.04276175 0.32391396 -0.17826131 0.26685026 0.09469541 0.055113837
-0.14300668 0.12761438 -0.10116455 0.21878916 0.15796377 -0.15630187 0.1987946 0.2709395
-0.19208597 -0.095184326 0.08406963 0.0029911846 -0.28224978 0.16478127 -0.14457992 -0.27854303
0.04415518 -0.23991965 -0.2947504 0.26685163 0.30816144 -0.047750514 -0.029897343 -0.22049917
0.093584426 0.22584198 -0.14749445 0.31179887 -0.19161269 0.24164803 0.090624 -0.011453492
-0.20541696 -0.25478137 0.109507486 0.2773446 -0.1281225 -0.097864896 -0.25378135 0.19802737
0.12382835 0.051488858 -0.07073486 0.07443336 -0.12851687 0.27583373 0.13890618 0.17304935
0.2511685 0.2920865 -0.12228654 -0.17895232 -0.31076992 -0.08752239 -0.1768363 0.22271974
0.11671386 0.2303107 -0.1976847 -0.1094757 0.10780555 -0.0016650276 -0.0077672014 0.16516255
0.061507393 -0.18725727 0.29541814 -0.052774724 -0.16641617 0.25285447 0.28923625 -0.12357297
-0.33047542 -0.20769432 0.111753024 0.18196477 0.041663796 -0.08934056 -0.13048261 0.027613105
0.113573425 -0.059277594 0.065201834 0.08796159 0.3331729 0.2625434 -0.2182441 -0.0051293117
00000000: 28c9 7c3e 7bb8 523e b3cf 88be 35ac 2ebe
00000010: fb2d 953e 2ac6 a53e 6f0b 76bd 5b92 913e
00000020: 141c 48bc b99e 98bd f9ca 483e 01bb 833e
00000030: f093 3b3e 12de 7ebe 7ae2 1fbe c6d6 d23d
00000040: 3005 b3bc 0f56 473e 9295 0cbe 95fd 1a3e
00000050: c515 033e 4b41 653e 9c45 9ebe b156 c0bd
00000060: 991b 8bbe a419 1d3e 3a61 2ebe 99d0 78bd
00000070: 7fb3 063e d94f 96be 6303 1bbe 68b4 cbbc
00000080: 6161 e2bc 56a6 19be a049 23be b5e2 8bbe
00000090: 1b5f 9f3e eb10 6cbe 4a8a 233e 137e 83be
000000a0: 907d 72bd bb48 c3bd 9e1f 9d3e 08ca 7b3e
000000b0: 1565 7d3e 81f8 623d 076d 1ebe 7eff ebbd
000000c0: fcfe 1fbe b877 7bbe f226 2f3d 0dd8 a53e
000000d0: 228a 36be 99a0 883e abef c13d 0cbf 613d
000000e0: 5870 12be 58ad 023e 5c2f cfbd 440a 603e
000000f0: 41c1 213e 990d 20be d090 4b3e 95b8 8a3e
00000100: 2fb2 44be 00f0 c2bd b32c ac3d c007 443b
00000110: 0b83 90be 6cbc 283e c20c 14be 319d 8ebe
00000120: 10dc 343d 7fad 75be 86e9 96be c7a0 883e
00000130: 56c7 9d3e 0b96 43bd 46eb f4bc 89ca 61be
00000140: 31a9 bf3d 1f43 673e c908 17be 1aa4 9f3e
00000150: 1e36 44be 9572 773e 1399 b93d 6da7 3bbc
00000160: d358 52be b472 82be 7645 e03d 1d00 8e3e
00000170: 8b32 03be 646d c8bd a1ef 81be b0c7 4a3e
00000180: b899 fd3d fbe5 523d 70dd 90bd 8470 983d
00000190: ed99 03be 143a 8d3e 6c3d 0e3e d933 313e
000001a0: 2899 803e 5d8c 953e 5e71 fabd 473f 37be
000001b0: 3c1d 9fbe f03e b3bd 9314 35be a510 643e
000001c0: ad07 ef3d 91d6 6b3e dc6d 4abe cc34 e0bd
000001d0: 28c9 dc3d 0e3d daba 0284 febb 5f20 293e
000001e0: 2def 7b3d 5fc0 3fbe 0c41 973e 4f2a 58bd
000001f0: 0069 2abe 2476 813e c616 943e d313 fdbd
00000200: 1334 a9be d2ad 54be c5de e43d f954 3a3e
00000210: a8a7 2a3d 2ff8 b6bd 3c9d 05be e134 e23c
00000220: 2f99 e83d 10cd 72bd 8a88 853d 3525 b43d
00000230: a395 aa3e 176c 863e 627b 5fbe c913 a8bb

arith.constant39 f4 [8, 1, 1, 16]
0.0019456944 -0.0893684 -0.15749772 0.14224622 0.1438323 0.17878428 0.113636136 0.21760465
-0.16869457 -0.19039404 -0.07275426 0.02837903 0.10391112 0.08496248 -0.06797184 0.024223058
0.14659782 0.0028374947 0.17866713 0.1533331 0.1429426 -0.22675651 0.238655 -0.20217457
-0.24466139 0.2186658 0.19443713 0.16478486 -0.13464154 -0.23400898 -0.034216322 -0.16346239
-0.17132464 0.055335425 -0.032868907 0.24309728 0.04175207 0.21735384 0.24903968 0.12582782
0.09831776 0.029459896 -0.021865705 0.062177345 0.122886755 0.034466036 -0.10520709 0.030916894
0.22020864 0.09941638 0.107258976 -0.23813069 -0.2336439 0.030650523 -0.096953236 0.06956846
-0.13121086 -0.19732538 -0.12721594 0.1815031 0.16784212 -0.18155186 -0.17912388 -0.24051358
-0.035395652 0.19397725 -0.17163715 0.072648786 -0.18195592 0.046708766 0.2489084 0.15901561
0.10980521 -0.07163 0.1413195 0.16519031 0.21093078 0.22776113 -0.043351136 0.059435666
0.05089648 -0.24445924 0.13983838 0.11888689 -0.12586498 -0.026406037 0.16364698 -0.06149556
0.17187905 0.13995834 -0.054043736 -0.023809105 0.057800002 0.18688817 -0.18229346 -0.2126434
0.084458165 0.16911711 0.16711476 -0.17119214 0.07551027 0.19881122 -0.006499824 0.10504613
-0.23055054 0.01380091 0.2159435 -0.20735756 -0.21830632 -0.039567064 -0.18184565 0.06718313
-0.23829201 -0.20933387 0.112742335 -0.21066724 0.05916843 0.20317414 -0.010192492 -0.0024470862
0.18405303 -0.2474568 0.027419668 -0.13827592 0.007805964 0.20625322 0.033826154 0.10888543
00000000: ac06 ff3a c806 b7bd 1547 21be fea8 113e
00000010: c648 133e 3a13 373e 10ba e83d c1d3 5e3e
00000020: 45be 2cbe a8f6 42be 2f00 95bd 247b e83c
00000030: 5acf d43d cf00 ae3d d234 8bbd 6f6f c63c
00000040: bd1d 163e 43f5 393b 84f4 363e 5a03 1d3e
00000050: 8c5f 123e dc32 68be fa61 743e da06 4fbe
00000060: 8488 7abe ede9 5f3e 871a 473e 5dbd 283e
00000070: 79df 09be 0da0 6fbe 6a26 0cbd af62 27be
00000080: ba6f 2fbe 66a7 623d 8ca1 06bd 7eee 783e
00000090: 3804 2b3d 0192 5e3e 4204 7f3e 02d9 003e
000000a0: d25a c93d e155 f13c b51f b3bc acad 7e3d
000000b0: 0dac fb3d 422c 0d3d d176 d7bd 6d45 fd3c
000000c0: 607e 613e d19a cb3d 98aa db3d 88d8 73be
000000d0: 5940 6fbe ce16 fb3c 6b8f c6bd e979 8e3d
000000e0: 245c 06be aa0f 4abe e544 02be f3db 393e
000000f0: cede 2b3e bbe8 39be 406c 37be 3149 76be
00000100: 08fb 10bd f9a1 463e a6c1 2fbe e3c8 943d
00000110: a752 3abe b151 3f3d d8e1 7e3e fdd4 223e
00000120: 8ee1 e03d c0b2 92bd 0fb6 103e a627 293e
00000130: 3dfe 573e 373a 693e f690 31bd d072 733d
00000140: d478 503d 8653 7abe cb31 0f3e f87a f33d
00000150: c0e2 00be 7951 d8bc 1393 273e c5e2 7bbd
00000160: 1001 303e 3d51 0f3e f75c 5dbd 500b c3bc
00000170: b2bf 6c3d 9d5f 3f3e 23ab 3abe 31bf 59be
00000180: 67f8 ac3d 092d 2d3e 2220 2b3e fe4c 2fbe
00000190: 21a5 9a3d 2b95 4b3e 7afc d4bb 6d22 d73d
000001a0: 7115 6cbe 361d 623c 4b20 5d3e 8a55 54be
000001b0: b18b 5fbe 1311 22bd bf35 3abe 4f97 893d
000001c0: d202 74be 9e5b 56be 74e5 e63d 27b9 57be
000001d0: 985a 723d e20c 503e 69fe 26bc 4b5f 20bb
000001e0: 6678 3c3e 5165 7dbe 369f e03c 3498 0dbe
000001f0: 2cc9 ff3b 0b34 533e 4b8d 0a3d 53ff de3d

arith.constant40 f4 [16, 1, 1, 16]
0.23506604 -0.22960253 -0.018799389 0.14953268 -0.03615659 0.10966243 -0.07501103 0.13280846
-0.13829044 0.12164883 -0.005812169 0.1373601 0.06633424 -0.11221043 -0.22992016 0.049912203
-0.034947727 0.13135466 -0.109375015 -0.19476856 0.24303627 -0.23630877 -0.005046581 -0.03361867
-0.2004719 0.021340026 -0.051011097 -0.060439136 0.06373314 0.18737723 0.15570599 0.16689846
-0.19766977 -0.078124695 0.15873905 0.2477013 -0.021513741 -0.1375067 -0.18627678 0.07263001
-0.009155049 0.08259547 0.15163217 0.046144582 0.23430966 -0.1810442 -0.016757732 0.083886564
0.21539447 0.10345961 0.07135737 0.24199371 0.13628167 0.055740763 0.13181078 0.080371216
0.01459627 0.04096592 0.20576508 -0.09175195 -0.0859869 0.107500374 -0.082784325 0.14020185
-0.058779005 -0.023375215 0.012945557 -0.15895851 0.21152137 0.13872893 -0.048659947 0.091957495
-0.1568364 0.021801481 0.06770425 0.22079107 -0.09429694 0.2038898 -0.23882908 -0.15813531
0.018125026 -0.020556228 0.11372441 -0.17182046 -0.20224887 -0.14442371 -0.2168385 -0.08100058
0.13108203 0.05110995 -0.09505203 -0.03761326 -0.085765675 0.19166985 -0.1732713 -0.1382305
-0.17928869 0.07340073 0.057392757 0.019297026 0.17775229 0.11683077 -0.038760528 0.14915246
-0.2452864 -0.11842263 0.24723049 0.201931 -0.06532085 0.2342908 -0.22423519 0.16504975
0.10534898 0.18712772 0.07397799 -0.016949985 -0.19899867 -0.11121676 -0.13445576 -0.06526527
0.02410808 -0.24532285 0.17187452 0.03659713 0.10261964 -0.24795197 -0.004591025 -0.11660029
0.23310062 0.23618852 0.1754315 0.038085002 -0.23421688 -0.19132686 -0.01633475 -0.15003917
0.22958271 0.08331692 -0.04066101 -0.24783881 0.07786143 -0.043297373 -0.014759765 -0.21702845
-0.20059673 -0.17952627 -0.17804232 0.017936349 0.2181909 0.13491686 -0.020746216 -0.1878586
0.12060767 -0.04235431 0.07289966 0.14428115 0.22707415 -0.18232898 0.071074545 -0.08839438
0.0457112 0.118928224 -0.06951449 0.21082439 -0.20366743 -0.21530506 -0.009970913 -0.19355462
-0.1292262 -0.109320335 -0.071179 -0.049669523 -0.11846167 -0.11644097 0.06802578 0.095513195
0.123528756 0.1433883 0.11331725 -0.2393949 -0.14798552 0.1987711 -0.16691566 0.056982826
0.036886327 0.19901712 -0.19679514 -0.107577115 0.1071105 -0.02404472 -0.0025521687 -0.041363865
-0.21167468 -0.1217929 -0.16844703 -0.11041413 0.20828456 0.12740855 -0.07327982 0.11988398
0.11567281 -0.0748464 0.12580231 -0.012548682 -0.1765386 0.024891282 -0.23685107 -0.21386552
-0.19112068 -0.024382856 0.004633493 -0.137559 0.07896822 0.21403182 0.024732318 -0.07670358
0.15531215 -0.24238773 0.1346009 0.19619155 -0.017056558 0.09946234 0.20931432 -0.050776497
-0.23961411 -0.025407694 -0.14043812 -0.24884108 0.12548116 -0.028951202 0.20542507 -0.18312281
-0.24031089 -0.10333564 0.16110107 0.14318874 0.23046537 -0.14403364 0.17200217 0.13589919
-0.068070605 -0.1734677 0.07314589 0.06250884 -0.07076615 0.21996126 -0.14591388 0.20416413
-0.19028214 0.04559661 0.2396032 0.025997836 -0.012655165 0.045535278 0.111526646 -0.047451437
00000000: 27b5 703e ed1c 6bbe 2d01 9abc 181f 193e
00000010: ef18 14bd b296 e03d 629f 99bd f1fe 073e
00000020: 029c 0dbe 0623 f93d 0274 bebb 20a8 0c3e
00000030: 3fda 873d 95ce e5bd 3170 6bbe bd70 4c3d
00000040: 5925 0fbd d681 063e 0200 e0bd 6971 47be
00000050: 80de 783e edfa 71be ca5d a5bb bbb3 09bd
00000060: 8148 4dbe 47d1 ae3c 03f1 50bd 078f 77bd
00000070: 8586 823d d1df 3f3e 6471 1f3e 6ee7 2a3e
00000080: f269 4abe d7ff 9fbd 7d8c 223e 69a5 7d3e
00000090: 963d b0bc 8ece 0cbe 57bf 3ebe 0bbf 943d
000000a0: 0fff 15bc d027 a93d 7745 1b3e 1a02 3d3d
000000b0: dfee 6f3e a763 39be 8347 89bc b8cc ab3d
000000c0: 5e90 5c3e a2e2 d33d d023 923d 33cd 773e
000000d0: 6c8d 0b3e 6d50 643d 68f9 063e aa99 a43d
000000e0: 3225 6f3c e1cb 273d 15b4 523e 72e8 bbbd
000000f0: e619 b0bd 2829 dc3d d48a a9bd 1391 0f3e
00000100: 41c2 70bd 617d bfbc 9a19 543c 05c6 22be
00000110: 0f99 583e f50e 0e3e a74f 47bd 3654 bc3d
00000120: b999 20be 0599 b23c 87a8 8a3d 0e17 623e
00000130: c11e c1bd 7dc8 503e 9c8f 74be 39ee 21be
00000140: ef7a 943c 8965 a8bc 58e8 e83d b4f1 2fbe
00000150: 541a 4fbe cfe3 13be e90a 5ebe a2e3 a5bd
00000160: 5e3a 063e ab58 513d a4aa c2bd 5d10 1abd
00000170: eaa5 afbd 1a45 443e 086e 31be 4c8c 0dbe
00000180: 7497 37be 1f53 963d ab14 6b3d cc14 9e3c
00000190: b204 363e f944 ef3d 5cc3 1ebd 6cbb 183e
000001a0: 5c2c 7bbe 9087 f2bd fd29 7d3e 00c7 4e3e
000001b0: f0c6 85bd ede9 6f3e e99d 65be cd02 293e
000001c0: 35c1 d73d 699e 3f3e c681 973d b2da 8abc
000001d0: 4fc6 4bbe 9dc5 e3bd c5ae 09be cca9 85bd
000001e0: 4f7e c53c ea35 7bbe e0ff 2f3e dfe6 153d
000001f0: 3f2a d23d 1fe7 7dbe 4f70 96bb 22cc eebd
00000200: eeb1 6e3e 67db 713e 51a4 333e 05ff 1b3d
00000210: 8dd6 6fbe 30eb 43be 74d0 85bc dea3 19be
00000220: bb17 6b3e 10a2 aa3d 298c 26bd 75c9 7dbe
00000230: d075 9f3d 9658 31bd f1d2 71bc b53c 5ebe
00000240: 3b69 4dbe bcd5 37be ba50 36be 40ef 923c
00000250: 6f6d 5f3e a527 0a3e f8f3 a9bc 015e 40be
00000260: 2701 f73d b77b 2dbd 6b4c 953d 70be 133e
00000270: 2086 683e 73b4 3abe 888f 913d 1d08 b5bd
00000280: ab3b 3b3d a490 f33d 9d5d 8ebd 59e2 573e
00000290: 328e 50be ee78 5cbe 0a5d 23bc 2f33 46be
000002a0: df53 04be 57e3 dfbd 4cc6 91bd 4572 4bbd
000002b0: 089c f2bd 9a78 eebd 1a51 8b3d 6c9c c33d
000002c0: a5fc fc3d 62d4 123e e012 e83d f023 75be
000002d0: 8489 17be a78a 4b3e f0eb 2abe d366 693d
000002e0: 1e16 173d 25cb 4b3e aa84 49be 6451 dcbd
000002f0: c05c db3d 6ff9 c4bc 4942 27bb 286d 29bd
00000300: 3fc1 58be 8e6e f9bd 617d 2cbe ce20 e2bd
00000310: 8c48 553e 6377 023e bb13 96bd bb85 f53d
00000320: dee5 ec3d 1249 99bd 52d2 003e fd98 4dbc
00000330: 89c6 34be cde8 cb3c 1689 72be 90ff 5abe
00000340: 24b5 43be 8ebe c7bc 8ed4 973b 44dc 0cbe
00000350: 17ba a13d 282b 5b3e 6e9b ca3c c416 9dbd
00000360: 260a 1f3e 7d34 78be d1d4 093e 70e6 483e
00000370: 32ba 8bbc e9b2 cb3d 7e56 563e 04fb 4fbd
00000380: 675d 75be cc23 d0bc 03cf 0fbe 32d0 7ebe
00000390: 227e 003e 122b edbc f35a 523e 8c84 3bbe
000003a0: 0f14 76be a3a1 d3bd aef7 243e 12a0 123e
000003b0: 1dff 6b3e 8e7d 13be 5621 303e 2829 0b3e
000003c0: 9a68 8bbd 84a1 31be 83cd 953d a204 803d
000003d0: d8ed 90bd 863d 613e 736a 15be 6710 513e
000003e0: 52d9 42be 83c3 3a3d 8b5a 753e 6af9 d43c
000003f0: 9c57 4fbc 3383 3a3d 1568 e43d 705c 42bd

arith.constant41 f4 [1, 3, 1, 16]
-0.30984443 0.12603018 -0.086865485 -0.53654844 0.23716307 -0.21189143 0.23636642 0.1553689
0.35221604 0.15556045 0.3386174 0.3229079 0.07572179 0.3585315 -0.5261238 -0.1366583
-0.30079564 -0.032303922 0.27241766 0.09566313 -0.5337518 0.52358735 0.2979052 0.20334941
0.20269136 -0.1563785 -0.2898618 -0.16124512 -0.011681076 0.336477 0.5234656 -0.45932665
-0.23247223 0.20397907 0.49609706 -0.45996156 -0.053338267 0.20247938 0.42162105 0.24880739
0.3352324 -0.5267018 0.14102574 0.33459687 0.330139 -0.118989155 0.17516273 0.5654581
00000000: eea3 9ebe 0e0e 013e 88e6 b1bd 3d5b 09bf
00000010: e0da 723e 11fa 58be 0a0a 723e 0619 1f3e
00000020: a955 b43e 3d4b 1f3e 435f ad3e 2f54 a53e
00000030: 0714 9b3d 7191 b73e 0db0 06bf 27f0 0bbe
00000040: e301 9abe 1e51 04bd 547a 8b3e 08eb c33d
00000050: f5a3 08bf d209 063f 0887 983e d43a 503e
00000060: 538e 4f3e af21 20be c468 94be 711d 25be
00000070: fc61 3fbc b746 ac3e d701 063f dd2c ebbe
00000080: 330d 6ebe e4df 503e 6f00 fe3e 1580 ebbe
00000090: 3a79 5abd c156 4f3e b7de d73e 5dc7 7e3e
000000a0: 95a3 ab3e eed5 06bf 0d69 103e 4850 ab3e
000000b0: fb07 a93e 96b0 f3bd dc5d 333e ddc1 103f

arith.constant42 f4 [16, 1, 1, 16]
0.23060502 -0.112042494 -0.044943497 -0.15640341 0.030294029 0.19950078 -0.10361321 0.24826486
0.099816956 0.17331275 0.028325714 -0.15446922 0.14030285 -0.12752186 -0.021270586 0.18072079
-0.1775136 0.08036663 -0.11088578 -0.18991521 0.06132128 0.0409416 0.20430602 0.06114634
0.15006536 -0.064492114 0.22048488 0.24243934 -0.24013536 0.22585139 -0.041841805 -0.1832178
-0.024899328 0.20696133 -0.16995294 0.10586531 0.045855857 0.18168397 0.23602207 -0.15176256
0.16226055 -0.13399635 -0.154289 -0.1894581 -0.24471432 -0.13315542 0.07507549 0.12975428
-0.058530662 0.20834863 -0.11873627 -0.20416494 -0.13416193 0.11453479 0.18112941 0.08038838
-0.14137247 0.04146862 -0.19417001 -0.20109016 0.13280635 0.1970695 -0.18470979 -0.028333195
-0.13440807 0.07045732 -0.069286294 0.07694757 0.12020888 0.13138488 0.17005326 -0.061260693
-0.045759656 -0.2244489 -0.027963618 -0.108244024 0.000874515 -0.055781234 0.23399954 0.18634762
0.21134986 -0.19198392 0.12181188 -0.060172226 0.12821428 0.10131258 -0.03654417 -0.13733387
0.18275101 -0.24549767 0.18751122 -0.13117263 -0.21073715 0.07816859 0.13358022 0.079795316
-0.13090628 0.114993684 -0.044636622 -0.10759103 -0.24281353 -0.09030681 0.09277354 0.08377674
0.008650617 -0.058928464 -0.22758794 -0.070168026 -0.10973872 -0.18913019 0.18052025 -0.22536722
0.15232213 0.06404684 -0.24170612 -0.22278176 0.18851371 -0.018385498 0.0121812215 -0.24238603
-0.20763054 -0.037227444 -0.1668998 -0.16105941 -0.0757039 0.07060952 -0.05295754 -0.03869848
-0.11062963 0.0030394343 -0.15275683 -0.16212481 0.08016534 -0.22210817 0.19687381 0.02452406
-0.20690423 -0.022478797 -0.24857497 -0.21730365 0.17332354 -0.12262322 0.11090175 -0.10411094
0.0944467 -0.14030673 0.039206516 -0.120021366 -0.1360442 0.0010189065 -0.17397451 0.11550011
-0.19176254 -0.2172298 -0.1576568 -0.0007145071 0.23338592 -0.049456112 -0.12926717 0.1315355
-0.06665235 -0.10706544 0.12895347 0.24014817 -0.010635204 -0.18298541 0.16414686 -0.16427575
0.057994343 -0.05412781 -0.023207817 -0.229984 0.17628573 -0.16847564 -0.056478456 0.0051770546
-0.1169203 -0.22364114 -0.116373226 -0.13374333 0.059675574 0.12838827 -0.16651827 -0.093720414
0.24983248 -0.08428519 -0.14396825 0.24369267 -0.1437079 0.064366914 0.08487906 0.011902332
-0.11539684 -0.070674606 -0.1694993 0.0574121 -0.02565988 -0.049199544 -0.07658566 0.24839215
0.03837283 -0.21366215 -0.09659245 0.09439237 -0.1333033 -0.041882724 0.19394378 -0.12062716
-0.047436208 0.23369144 -0.032090623 -0.15773334 -0.08139492 0.1287433 0.12734099 -0.11460345
-0.009823958 -0.013280355 0.1319839 0.07404046 0.20816469 0.15848826 0.0020960167 -0.059455752
0.2045211 0.22843398 0.16072154 0.035823137 -0.024204342 -0.0854122 0.12316946 0.14928466
-0.09413052 -0.17623194 0.08145667 -0.12516606 -0.016244598 -0.053467453 -0.13680726 0.23361361
-0.19078004 -0.110597596 0.002289403 0.025952268 -0.12368307 -0.047298044 0.08840907 -0.24499255
0.1733822 -0.22700524 0.15612593 -0.19272457 -0.05211947 -0.18556052 -0.24338323 -0.054840945
00000000: b923 6c3e 8976 e5bd ac16 38bd 3728 20be
00000010: 2f2b f83c ef49 4c3e 2a33 d4bd 2539 7e3e
00000020: d56c cc3d e678 313e 540b e83c 2e2d 1ebe
00000030: 8dab 0f3e 1795 02be a73f aebc df0e 393e
00000040: 20c6 35be 4297 a43d 1518 e3bd 2279 42be
00000050: 062c 7b3d 61b2 273d 9935 513e 9674 7a3d
00000060: bcaa 193e 7114 84bd cac6 613e 0542 783e
00000070: 0be6 75be 9645 673e 5062 2bbd 729d 3bbe
00000080: adf9 cbbc aced 533e 2508 2ebe e9cf d83d
00000090: 5ad3 3b3d 5d0b 3a3e c5af 713e a567 1bbe
000000a0: a127 263e 5736 09be f0fd 1dbe 4e01 42be
000000b0: 6496 7abe e559 08be 2ec1 993d 4ede 043e
000000c0: d9bd 6fbd 5859 553e 002c f3bd 9d10 51be
000000d0: bf61 09be 3791 ea3d fd79 393e aaa2 a43d
000000e0: f2c3 10be 00db 293d 81d4 46be 94ea 4dbe
000000f0: 63fe 073e 96cc 493e 9024 3dbe 041b e8bc
00000100: 45a2 09be ed4b 903d f9e5 8dbd b096 9d3d
00000110: 1330 f63d c289 063e 7122 2e3e 7eec 7abd
00000120: 7a6e 3bbd efd5 65be f513 e5bc 0baf ddbd
00000130: b53f 653a dd7a 64bd 939d 6f3e e9d1 3e3e
00000140: 196c 583e 6f97 44be 8278 f93d 2777 76bd
00000150: 9b4a 033e f87c cf3d 57af 15bd 40a1 0cbe
00000160: 1523 3b3e be63 7bbe f102 403e 1e52 06be
00000170: 7bcb 57be db16 a03d 41c9 083e ba6b a33d
00000180: 4c0c 06be cf81 eb3d e4d4 36bd b058 dcbd
00000190: 1ca4 78be c7f2 b8bd 0e00 be3d 2493 ab3d
000001a0: 51bb 0d3c f95e 71bd d00c 69be 41b4 8fbd
000001b0: b2be e0bd 58ab 41be 4dda 383e aac6 66be
000001c0: 55fa 1b3e fd2a 833d cf81 77be e720 64be
000001d0: bd09 413e 2f9d 96bc bf93 473c 0b34 78be
000001e0: 1a9d 54be ce7b 18bd c8e7 2abe c2ec 24be
000001f0: a50a 9bbd b99b 903d 01ea 58bd 4c82 1ebd
00000200: ca91 e2bd 3f31 473b 496c 1cbe 0c04 26be
00000210: ba2d a43d 5370 63be 4a99 493e aee6 c83c
00000220: b4de 53be 7425 b8bc 708a 7ebe d984 5ebe
00000230: ba7b 313e e221 fbbd 7520 e33d 1e38 d5bd
00000240: 456d c13d 91ac 0fbe 0397 203d c3cd f5bd
00000250: 2c4f 0bbe d48c 853a 6026 32be 528b ec3d
00000260: 665d 44be 7d71 5ebe c970 21be c34d 3bba
00000270: b8fc 6e3e 7e92 4abd 9d5e 04be 3eb1 063e
00000280: 0781 88bd 2045 dbbd 610c 043e 67e9 753e
00000290: 473f 2ebc 8760 3bbe 1d16 283e e737 28be
000002a0: 7a8b 6d3d 1fb5 5dbd 521e bebc ed80 6bbe
000002b0: 3f84 343e e184 2cbe f455 67bd 48a4 a93b
000002c0: e973 efbd 2f02 65be 1655 eebd 03f4 08be
000002d0: 606e 743d 3778 033e c483 2abe 7df0 bfbd
000002e0: 16d4 7f3e b79d acbd 6a6c 13be 928a 793e
000002f0: 2a28 13be cdd2 833d 13d5 ad3d 0002 433c
00000300: 2e55 ecbd d9bd 90bd 3991 2dbe f328 6b3d
00000310: ab34 d2bc 7685 49bd f1d8 9cbd 835a 7e3e
00000320: d42c 1d3d 40ca 5abe 43d2 c5bd c950 c13d
00000330: a980 08be 388d 2bbd 3399 463e 5f0b f7bd
00000340: 784c 42bd cf4c 6f3e 7571 03bd d984 21be
00000350: 61b2 a6bd 49d5 033e ad65 023e 37b5 eabd
00000360: abf4 20bc d995 59bc ca26 073e 86a2 973d
00000370: 2029 553e bf4a 223e 535d 093b e087 73bd
00000380: fb6d 513e 99ea 693e 3094 243e 48bb 123d
00000390: 2f48 c6bc 97ec aebd 4540 fc3d 14de 183e
000003a0: 81c7 c0bd 2576 34be c1d2 a63d 882b 00be
000003b0: 6413 85bc b000 5bbd 3417 0cbe 6838 6f3e
000003c0: d85b 43be fe80 e2bd cf09 163b da99 d43c
000003d0: 8d4d fdbd 98bb 41bd d10f b53d 54df 7abe
000003e0: 1a8b 313e 1074 68be 7adf 1f3e 9759 45be
000003f0: 3a7b 55bd 9403 3ebe 7439 79be e6a0 60bd
