gtcrn_micro/models/tflite/gtcrn_micro_float32.tflite (tflite, 162880 bytes, 48 tensors)

arith.constant f4 [8]
00000000: ee33 473c e4d2 a6bd cd02 8fbc 4e8f 8d3c
00000010: 3e53 8c3e 5581 1b3d 599b 753d 85f7 b8bd
0.012158377 -0.08145693 -0.01745739 0.017280247 0.2740726 0.037965138 0.059962604 -0.090315856

arith.constant1 f4 [8, 1, 1, 16]
00000000: db38 8f3e 139f d13d d20c 363c 0805 523e
00000010: 035f d23c 053b bd3c 0b22 cf3d ae9d d2bb
00000020: 50a2 ffbc abcb a7be 8dc2 ad3e 3a1e 58bc
00000030: b198 c7bd 8c95 873e 8258 923e f886 ac3e
00000040: c8b3 f6bd 7a0a db3d 225d 12bd 8221 573e
00000050: 72bc 9a3e 5b4c 883e 8172 503e ab7d 573e
00000060: d491 b3be bc46 93be 79a7 673e 2af5 223e
00000070: 0e42 a5be ec2a 0e3e 0b57 763d f0ec ad3d
00000080: 1b33 81bd f043 f13d 27ca 643d 9ac6 b0bd
00000090: e4e0 ff3d a1db bfbd 60ec 2fbd 4aca 803e
000000a0: bb93 aabe 8444 d2bd a02b 8cbe 31f7 afbe
000000b0: 436e 5cbe 9551 913c 4222 833e 3ee1 d0bd
000000c0: 2726 b33e f7bb ffbd 8bed ac3e a141 023e
000000d0: 7b6c 83be 5de5 9a3e 3d08 fa3d 6d42 f9bd
000000e0: 3796 fd3d 0ff2 e4bd e0f6 97be c1cc 54be
000000f0: cd31 a53e 01ec 75be 5ae0 9b3e a068 98bc
00000100: fe27 91be 2e6b 93be e028 e33d 9b6e 163d
00000110: 499d 583e dc20 62be 5e5d dabd d764 7abe
00000120: 40e7 2fbe 3736 b13e 424a ddbd 9e1b 1fbd
00000130: 25f3 6ebc 0f44 9b3d db4f 09be 396b b3be
00000140: 341b 2c3d 138d 4dbe b233 2a3c c416 fc3d
00000150: ba52 f73d 8896 fc3d 4e51 7a3e 8fd0 09bc
00000160: 34f4 a7be dc77 abbe a5f6 9f3e 9d2f d93c
00000170: 7a07 8abe 14c8 51be 53a7 9cbe b43b 94be
00000180: 6a88 adbe 218c 2abd 8757 96be 36c0 a4be
00000190: e02a 39be e3c0 ac3e 9ce4 9cbd 31c9 f03c
000001a0: 13b4 803e 3081 64be f5f2 c03d 1a8f c03d
000001b0: 9361 903e 552f 2abe ff59 7c3e ec9e 003e
000001c0: 81a7 9abc b88f a8be 01bc 653e 762b 263e
000001d0: 1d82 a23e 1eb2 a1be 6375 d03d 0d8d 233e
000001e0: 902e 7cbe 8e02 ad3e c235 463e 123e cb3b
000001f0: 4b0c 963e ab95 87be 8705 5e3e 0b65 633e
0.27973065 0.10235419 0.011111455 0.20509732 0.02568007 0.023099432 0.10113915 -0.0064274883
-0.031205326 -0.32772574 0.33937493 -0.0131908 -0.097459204 0.26481283 0.2858315 0.33696723
-0.12046009 0.106953576 -0.03573335 0.21008876 0.30221897 0.26620755 0.2035618 0.21044032
-0.35072196 -0.28764904 0.2262248 0.15913835 -0.32276958 0.13883561 0.060141604 0.08492458
-0.06308576 0.11780536 0.05585685 -0.0863163 0.12494066 -0.09368063 -0.042950034 0.25154334
-0.33315834 -0.102669746 -0.27377033 -0.3436828 -0.21526437 0.017739097 0.25612074 -0.101992115
0.34990045 -0.12487023 0.3377498 0.12720348 -0.25668702 0.30253115 0.122086026 -0.12170873
0.12382167 -0.111789815 -0.29680538 -0.20781232 0.32264557 -0.2401581 0.30444604 -0.018604577
-0.28350824 -0.2879271 0.11091781 0.036726575 0.2115375 -0.22082847 -0.1066234 -0.2445253
-0.17178059 0.34611675 -0.10805179 -0.038844697 -0.014584337 0.075813405 -0.13409369 -0.35042742
0.04201813 -0.20073347 0.010388302 0.1230903 0.12076326 0.12333399 0.24445078 -0.008411541
-0.328035 -0.33489883 0.31242862 0.026511962 -0.2695883 -0.2048648 -0.30596408 -0.289518
-0.33893138 -0.041637544 -0.29363653 -0.32177895 -0.18082762 0.3374091 -0.07660791 0.02939281
0.25137386 -0.22314906 0.094213404 0.094022945 0.28199443 -0.16619618 0.24643706 0.12560624
-0.0188787 -0.3292215 0.22434999 0.16227517 0.31739894 -0.31581205 0.1017864 0.15971775
-0.24627137 0.33791012 0.19356444 0.0062024677 0.29306254 -0.26481375 0.21681796 0.22206514

arith.constant2 f4 [16]
00000000: a41a 60be 0f49 b7bd d5db e0bc f311 e9bb
00000010: 23b4 dcbd c8e8 643e c743 263e 4eb8 8b3d
00000020: ae90 5ebd fe2d 1bbe f268 043e 3778 2b3d
00000030: 3138 30be f838 03be 05ce 9a3d 7f36 ddbd
-0.21885163 -0.08949482 -0.027448574 -0.0071127354 -0.10776546 0.22354424 0.16236793 0.06822263
-0.054337196 -0.15154263 0.12930658 0.041862693 -0.17208935 -0.128147 0.07558826 -0.1080141

arith.constant3 f4 [16, 1, 1, 8]
00000000: a7ad 3dbe 021f 1b3e 2d4f 8dbd 1918 753e
00000010: b6ae de3d 3909 25be afdf 2c3e a3a9 54be
00000020: 9d82 1abd 49df 00be 3df0 e03d 81c7 55bd
00000030: 2838 5a3d 3ba1 683d f3e8 663c 38eb a8bd
00000040: 0e86 76be efa6 14bd 4864 72bd fe9a 1bbe
00000050: d5cb 3dbe 9ca4 83bd b8c9 4b3e 42c8 0f3e
00000060: 36ad 76be 2833 fe3d 03ed 4ebe 81ba a63d
00000070: d0e9 7bbe ab7a 373e 4ce3 333e a828 30be
00000080: b95f cabd 40b4 2f3e c23a b9bd 1157 80bd
00000090: 7e7b 33be 7af7 2f3e 7adb d1bc b6f6 713e
000000a0: 3511 55be 136a 5abe af4e 37be 8c3c 2fbe
000000b0: 9fa3 883d 2ad4 343e c3c4 363c d4f1 033a
000000c0: 92a2 1dbe 9550 2abe a0f6 16be d7a4 4fbe
000000d0: ea3e 483e fe85 c5bc a31e a0bd 5cc8 6b3e
000000e0: 03d1 483e 4d78 02be 5a40 6a3e b45c cd3d
000000f0: ac69 7ebe 61e4 f83d bac1 47be 0dee 6cbe
00000100: 85aa 4f3e f452 4d3e ad8e 98bd ac74 053e
00000110: 1844 70bd 2737 023e 8c3f f13d 7b18 86bd
00000120: fdbe 62bd 486b 46be 9c2e 643e 630a b73c
00000130: 0934 823d 32a7 233e c1d2 563d 9086 c0bc
00000140: 3b94 da3d a775 663e 1f7e 483e bcbd 4dbd
00000150: 1362 e83d df64 dcbd 7257 ec3d f4bb 77be
00000160: 53b7 1abe b4a8 35bd a5bd f93d 68bd 403d
00000170: 24c6 ccbd a9da a4bc 5140 243d 387e 593b
00000180: ead3 093e 4810 18be cfd5 123a 16de d2bd
00000190: 92ef 0abe f4ab 46be 2b69 07be ca8c 09bd
000001a0: f9b3 d4bb 9407 4c3d d675 75be 118b b03d
000001b0: 5c50 3a3e 47be 5b3d 44ed fc3d 430e 25be
000001c0: 74bb 5dbe bc0d 663e b20f 0a3d 6db5 9a3d
000001d0: 5042 90bd e6de 643e f3c0 883d 6870 593e
000001e0: 3473 833c 56b8 ddbd 1508 bfbd 7654 5fbe
000001f0: 1e13 16be 4ee3 643e 78c3 f03d 7a63 8b3d
-0.18523274 0.15148547 -0.06899867 0.23934974 0.10873167 -0.161168 0.16882204 -0.20767836
-0.03772222 -0.12585177 0.10983322 -0.052192215 0.05327621 0.056794386 0.014093625 -0.082479894
-0.24074575 -0.036292013 -0.059177667 -0.15195844 -0.18534787 -0.06427881 0.19901168 0.14041236
-0.24089512 0.12412101 -0.202076 0.081410415 -0.24600911 0.17917888 0.17567176 -0.17203009
-0.09881539 0.17158604 -0.0904441 -0.062666066 -0.17527577 0.17184249 -0.02561735 0.23629269
-0.20807345 -0.21329527 -0.17901109 -0.1711294 0.06671833 0.17659059 0.01115531 0.00050332886
-0.15394047 -0.16632302 -0.14742517 -0.20277725 0.1955525 -0.024111744 -0.078183435 0.2302565
0.19610982 -0.12741204 0.2287611 0.10027447 -0.24844998 0.12152935 -0.19507495 -0.23137684
0.20279892 0.20051175 -0.07449088 0.13032788 -0.05865869 0.12716351 0.11779699 -0.06547638
-0.055357922 -0.19376862 0.22283405 0.02234382 0.06357581 0.15981749 0.052447084 -0.023501664
0.10672804 0.22505818 0.19579361 -0.050229773 0.11346831 -0.10761427 0.11540116 -0.24192792
-0.15108995 -0.04435034 0.12194375 0.047055632 -0.0999873 -0.020123797 0.0401004 0.0033186805
0.13459745 -0.14849961 0.0005601318 -0.10296266 -0.13567951 -0.19401532 -0.13223712 -0.033581533
-0.006491181 0.049811915 -0.23970732 0.08620275 0.18194717 0.05364826 0.12349942 -0.16118722
-0.21653539 0.22466177 0.033706374 0.075541355 -0.07043898 0.22350654 0.06677427 0.21234286
0.016046144 -0.10826175 -0.093277134 -0.21809563 -0.1465573 0.22352335 0.11756033 0.06806083

arith.constant4 f4 [2]
00000000: 8a9d 7bbe 681e d33c
-0.24571815 0.025771335

arith.constant5 f4 [16]
00000000: ec7a 91bd da11 b9bd 6b40 9bbd 8121 b33d
00000010: ef15 42bc 69bf 4f3d 6620 aabc 7681 25bb
00000020: a69c 18bd 9df2 bf3d 93c7 883d c485 863d
00000030: 42a7 373d 84ba 8ebd db21 ca3b 51b7 9cbd
-0.071035236 -0.09036608 -0.07580646 0.08746625 -0.01184605 0.050719652 -0.020767402 -0.0025254167
-0.037258767 0.09372447 0.06678691 0.065684825 0.044837244 -0.06969169 0.0061685867 -0.07652152

arith.constant6 f4 [16]
00000000: 1e9e 4e3d 7b29 90bd 5607 67bd 268a 8dbd
00000010: 567a dbba 2768 923d d38e a53d 3844 5abd
00000020: 1653 5c3d 6420 a43d 98b3 753d 001e 063d
00000030: 6ed3 20bd 16f1 95bc 2b21 b3bc 30ab 8dbd
0.05044376 -0.07039162 -0.05640348 -0.06911115 -0.0016744833 0.07148772 0.08083882 -0.053287715
0.053790174 0.080139905 0.059985727 0.032743454 -0.039264135 -0.018303435 -0.021866402 -0.06917417

arith.constant7 f4 [16]
00000000: 4683 053e 6acb fabd 9ea8 af3d 45df 7d3e
00000010: c78f 013e 7536 63be 117d 103c 88f7 1ebe
00000020: 3d07 3fbe 9a61 56be cd12 e53d 0b15 59be
00000030: ade2 b23d 04e2 dbbd 57a6 583e e280 683e
0.13038358 -0.122458294 0.08577083 0.24792202 0.12652503 -0.22188742 0.008818881 -0.15524113
-0.18655105 -0.2093567 0.111852266 -0.21199434 0.08734641 -0.107364684 0.21157204 0.22705415

arith.constant8 f4 [16]
00000000: d924 0bbf b993 103e 4684 b73e 0c1f e03e
00000010: 6d67 533e b013 793e 2feb b6be 9499 a93e
00000020: 52dd ffbe 17df ce3e 224b 06bf 79eb 553e
00000030: cab9 90be 8ce8 fcbe 57c5 d7be 0d32 fcbe
-0.543531 0.14118852 0.35843104 0.43773687 0.20644923 0.24323916 -0.35726306 0.33124983
-0.49973541 0.4040458 -0.52458394 0.20890607 -0.28266746 -0.4939617 -0.42142746 -0.49256936

arith.constant9 f4 [16]
00000000: a13d e33d 09b9 463e daea 55bc 80b8 5cbe
00000010: 5365 dfbd d062 48be dec3 fa3d afc2 763e
00000020: 0891 f23d f265 803d 2f39 2c3e ed52 64bd
00000030: 438c a23d 8233 183e 3945 a7bd 4daa 7bbe
0.11095739 0.19406523 -0.013056481 -0.21554756 -0.10907998 -0.19568944 0.1224439 0.24097703
0.11844069 0.062694445 0.16818689 -0.055743147 0.07936909 0.14863399 -0.081675 -0.24576683

arith.constant10 f4 [16]
00000000: 158e 093e 2af0 3b3e bb47 c73d 5199 90bd
00000010: 1cf0 16be e105 153e 3777 ac3c 3e74 3d3e
00000020: 85a2 343d af46 a0bd 3f15 96bd 1e63 78be
00000030: 2163 023e c31b 473e cd76 a63d 3813 61be
0.13433106 0.18353334 0.097304784 -0.07060493 -0.14740032 0.14553024 0.02105294 0.18501374
0.044100303 -0.07825982 -0.07328271 -0.2425656 0.12733127 0.19444184 0.08128128 -0.21979988

arith.constant11 f4 [16]
00000000: 2844 883d 167a 263e 546a b3bd 9787 f5bd
00000010: 3568 853e df53 103e 600a ba3e 2557 753e
00000020: 92ad 813e f644 d53e 87d1 50be ed19 c33d
00000030: 0137 993e 4f2f 7e3d ce48 c6be 6100 fc3e
0.06653625 0.1625751 -0.08760515 -0.11988752 0.26056066 0.14094494 0.3633604 0.23959024
0.25327736 0.41654176 -0.20392428 0.09526429 0.29924777 0.062056836 -0.3872742 0.4921904

arith.constant12 f4 [16]
00000000: a785 16be b3ce 50be ccfd ce3d fdec 523e
00000010: 8ec9 043e 6f73 0ebe 58ff 2b3e 00fc 90bd
00000020: 0f47 7e3e 6101 6bbe c8b0 e6bd 43ce 3e3e
00000030: 9998 71bd e359 893d d281 81bd 94ac 85bc
-0.14699422 -0.2039135 0.10107002 0.20598216 0.12967512 -0.13911222 0.16796625 -0.07079315
0.24831794 -0.22949745 -0.11264187 0.1863337 -0.05898342 0.06706598 -0.063235894 -0.016317643

arith.constant13 f4 [16]
00000000: 2271 25bd 2d5c 1a3d 5d7e 1c3e 0751 713e
00000010: 4742 08be e8c6 91bd 10e3 0cbe c0be 74be
00000020: d10f f0bc 692f 1bbe ee65 b0bd 0f7c 71be
00000030: 0c61 cfbd 619c 523e eaaa 0abe c386 5e3e
-0.040391095 0.037685562 0.15282579 0.23566066 -0.13306533 -0.071180165 -0.13758492 -0.2390089
-0.029304417 -0.15154804 -0.086131915 -0.23582481 -0.10125932 0.20567466 -0.13541761 0.21731095

arith.constant14 f4 [16]
00000000: 09dd f83e a097 ff3e df34 b43e cc9d 38be
00000010: 2390 933e 3a72 353e 8fb6 cb3d 7ba6 96bd
00000020: 2124 9abe f8b7 e9be 7921 d4bd b213 4b3e
00000030: d8c4 35be bc47 e1be 9d49 be3d b36f 84be
0.48606136 0.49920368 0.35196587 -0.18028945 0.28820905 0.17719355 0.0994693 -0.073559724
-0.3010569 -0.4564817 -0.10357947 0.19831732 -0.17750871 -0.4400004 0.09291384 -0.2586647

arith.constant15 f4 [16]
00000000: bdfe 693e 988d dbbc 5693 793e 3b11 c7bd
00000010: 90c5 c3bd 61b7 3abe f770 753d c826 5a3e
00000020: c1c5 3f3e 4039 43bc 7332 4b3e 7437 aabd
00000030: f3a9 6abc 8d87 a8bd 8c04 ff3c 4f07 94bc
0.22851081 -0.026800916 0.2437261 -0.09720083 -0.095591664 -0.18234016 0.059922185 0.21303856
0.18727781 -0.011915505 0.19843464 -0.08311358 -0.014322746 -0.08228979 0.031130098 -0.018069891

arith.constant16 f4 [16]
00000000: 216b 343e 4a16 a5bd 8783 53be 0120 5f3e
00000010: f11b 353e 4875 ab3d 30d4 613e 1a6c eebd
00000020: 002e d0bd 4b7c 69bd a91a 41be ffd8 223e
00000030: b355 473e 43da f53d 93de c63d 7c09 79be
0.17618991 -0.08060892 -0.20655642 0.21789552 0.1768644 0.08371979 0.220536 -0.116417125
-0.10165024 -0.0570033 -0.18857826 0.1590309 0.19466285 0.12004521 0.097104214 -0.24320024

arith.constant17 f4 [16]
00000000: 3100 abbe 3d97 cb3e d58a b4be d3e5 1a3e
00000010: d4a1 f43e 3618 013e ffeb b63d 36a2 b93e
00000020: b6d0 e1be 4f05 ba3e 7871 3c3e b898 503e
00000030: 086a ecbe 3b2f f5be 1a7f 11bf bf24 f6be
-0.33398584 0.39763823 -0.3526217 0.15126733 0.47779715 0.12606892 0.089317314 0.3625657
-0.44104546 0.36332175 0.1840266 0.20370758 -0.46174645 -0.47887596 -0.56834567 -0.4807491

arith.constant18 f4 [16]
00000000: c986 a6ba cacf 24be 9cac 29be 7f76 6a3e
00000010: 0c9f 363d dd88 10be a4d1 5cbe 5d2b 213e
00000020: c124 033e 1ede 00bd 2a16 5a3e 7c2b 2c3e
00000030: 3257 7fbe 776c 16bd d928 843d 3084 73bc
-0.0012704964 -0.1609489 -0.16569752 0.22896765 0.044585273 -0.14114709 -0.21564347 0.15739198
0.12806989 -0.031461827 0.21297517 0.16813463 -0.24935606 -0.036724534 0.064531036 -0.014863059

arith.constant20 f4 [8]
00000000: 6a58 0c3d 02b3 73be 3722 5dbc 2b80 41be
00000010: 4885 1ebe 7cb1 cebc a66b 803c 755e 53be
0.034264006 -0.23798755 -0.013496927 -0.18896548 -0.1548053 -0.025231116 0.01567633 -0.20641501

arith.constant21 f4 [16]
00000000: f9f6 97be 4999 8c3e 2f00 573d 08b4 85be
00000010: 577c 0ebe 0cc6 3fbe b320 aa3d 9d3b 553e
00000020: 50a2 c1bd 3bc8 f4bd d81a 87be 0d33 a83e
00000030: 771e 953e 6deb 8d3e 0ccc 1dbe 88a8 973e
-0.29680613 0.27460697 0.05249041 -0.26113915 -0.1391462 -0.18727893 0.08307018 0.20823522
-0.09454787 -0.119522534 -0.26387668 0.3285145 0.29124805 0.27718678 -0.15409869 0.29620767

arith.constant22 f4 [16]
00000000: 7c47 7c3e 706c 663e 0e92 16be 950d b03e
00000010: ae07 3dbe 3b03 a3be 7e1a 3c3e c51d a5be
00000020: 7ba3 a5bd 494f 5d3e d21c 4fbe 8b53 0abe
00000030: bd55 af3d 873d 873e e05f 283e 96c2 613e
0.24636644 0.22502303 -0.14704153 0.34385362 -0.18459961 -0.31838402 0.18369481 -0.32249275
-0.08087822 0.21612276 -0.20225838 -0.13508432 0.08561275 0.2641413 0.16442823 0.22046885

arith.constant23 f4 [16]
00000000: 2b49 0f3b be31 38bb 1cff 9ebc 5e5d 78bd
00000010: 4151 aabd bb31 d93c b5d3 9e3d dd90 7bbd
00000020: 0af3 9d3d 69bf a03c f8b8 8bbc 185d ed3c
00000030: 5d1b 7f3d c94a 06bd 55e0 7dbc 42e7 0f3b
0.002186368 -0.002810582 -0.019408755 -0.060635917 -0.08316279 0.026512971 0.07755224 -0.06141745
0.07712372 0.019622521 -0.017055973 0.028975055 0.062281955 -0.032786164 -0.015495379 0.0021957909

arith.constant25 f4 [16]
00000000: d389 99bd b806 3e3e 53fc 55be 203f 50be
00000010: 4e80 173e 1306 023e d7e2 e7bd 7045 083e
00000020: 4382 66be e746 09be 4032 23be 318f 92bd
00000030: 8e37 823e 5f81 a63d eb04 e23d 1c33 593d
-0.07496991 0.1855725 -0.20897035 -0.2033658 0.14795038 0.1269763 -0.11322563 0.13307738
-0.22510628 -0.13405953 -0.15937138 -0.07156218 0.2543301 0.08130144 0.11036094 0.053027257

arith.constant26 f4 [192, 64]
00000000: 0000 803f ccbc 8c2b 0000 0000 0000 0000
00000010: 0000 0000 0000 0000 0000 0000 0000 0000
00000020: 0000 0000 0000 0000 0000 0000 0000 0000
00000030: 0000 0000 0000 0000 0000 0000 0000 0000
00000040: 0000 0000 0000 0000 0000 0000 0000 0000
00000050: 0000 0000 0000 0000 0000 0000 0000 0000
00000060: 0000 0000 0000 0000 0000 0000 0000 0000
00000070: 0000 0000 0000 0000 0000 0000 0000 0000
00000080: 0000 0000 0000 0000 0000 0000 0000 0000
00000090: 0000 0000 0000 0000 0000 0000 0000 0000
000000a0: 0000 0000 0000 0000 0000 0000 0000 0000
000000b0: 0000 0000 0000 0000 0000 0000 0000 0000
000000c0: 0000 0000 0000 0000 0000 0000 0000 0000
000000d0: 0000 0000 0000 0000 0000 0000 0000 0000
000000e0: 0000 0000 0000 0000 0000 0000 0000 0000
000000f0: 0000 0000 0000 0000 0000 0000 0000 0000
00000100: 0000 0000 0000 803f ccbc 0c2b 0000 0000
00000110: 0000 0000 0000 0000 0000 0000 0000 0000
00000120: 0000 0000 0000 0000 0000 0000 0000 0000
00000130: 0000 0000 0000 0000 0000 0000 0000 0000
00000140: 0000 0000 0000 0000 0000 0000 0000 0000
00000150: 0000 0000 0000 0000 0000 0000 0000 0000
00000160: 0000 0000 0000 0000 0000 0000 0000 0000
00000170: 0000 0000 0000 0000 0000 0000 0000 0000
00000180: 0000 0000 0000 0000 0000 0000 0000 0000
00000190: 0000 0000 0000 0000 0000 0000 0000 0000
000001a0: 0000 0000 0000 0000 0000 0000 0000 0000
000001b0: 0000 0000 0000 0000 0000 0000 0000 0000
000001c0: 0000 0000 0000 0000 0000 0000 0000 0000
000001d0: 0000 0000 0000 0000 0000 0000 0000 0000
000001e0: 0000 0000 0000 0000 0000 0000 0000 0000
000001f0: 0000 0000 0000 0000 0000 0000 0000 0000
00000200: 0000 0000 0000 003f 0000 003f 0000 0000
00000210: 0000 0000 0000 0000 0000 0000 0000 0000
00000220: 0000 0000 0000 0000 0000 0000 0000 0000
00000230: 0000 0000 0000 0000 0000 0000 0000 0000
00000240: 0000 0000 0000 0000 0000 0000 0000 0000
00000250: 0000 0000 0000 0000 0000 0000 0000 0000
00000260: 0000 0000 0000 0000 0000 0000 0000 0000
00000270: 0000 0000 0000 0000 0000 0000 0000 0000
00000280: 0000 0000 0000 0000 0000 0000 0000 0000
00000290: 0000 0000 0000 0000 0000 0000 0000 0000
000002a0: 0000 0000 0000 0000 0000 0000 0000 0000
000002b0: 0000 0000 0000 0000 0000 0000 0000 0000
000002c0: 0000 0000 0000 0000 0000 0000 0000 0000
000002d0: 0000 0000 0000 0000 0000 0000 0000 0000
000002e0: 0000 0000 0000 0000 0000 0000 0000 0000
000002f0: 0000 0000 0000 0000 0000 0000 0000 0000
00000300: 0000 0000 0000 0000 0000 803f ccbc 0c2b
00000310: 0000 0000 0000 0000 0000 0000 0000 0000
00000320: 0000 0000 0000 0000 0000 0000 0000 0000
00000330: 0000 0000 0000 0000 0000 0000 0000 0000
00000340: 0000 0000 0000 0000 0000 0000 0000 0000
00000350: 0000 0000 0000 0000 0000 0000 0000 0000
00000360: 0000 0000 0000 0000 0000 0000 0000 0000
00000370: 0000 0000 0000 0000 0000 0000 0000 0000
00000380: 0000 0000 0000 0000 0000 0000 0000 0000
00000390: 0000 0000 0000 0000 0000 0000 0000 0000
000003a0: 0000 0000 0000 0000 0000 0000 0000 0000
000003b0: 0000 0000 0000 0000 0000 0000 0000 0000
000003c0: 0000 0000 0000 0000 0000 0000 0000 0000
000003d0: 0000 0000 0000 0000 0000 0000 0000 0000
000003e0: 0000 0000 0000 0000 0000 0000 0000 0000
000003f0: 0000 0000 0000 0000 0000 0000 0000 0000
1.0 1e-12 0.0 0.0 0.0 0.0 0.0 0.0
0.0 0.0 0.0 0.0 0.0 0.0 0.0 0.0
0.0 0.0 0.0 0.0 0.0 0.0 0.0 0.0
0.0 0.0 0.0 0.0 0.0 0.0 0.0 0.0
0.0 0.0 0.0 0.0 0.0 0.0 0.0 0.0
0.0 0.0 0.0 0.0 0.0 0.0 0.0 0.0
0.0 0.0 0.0 0.0 0.0 0.0 0.0 0.0
0.0 0.0 0.0 0.0 0.0 0.0 0.0 0.0
0.0 1.0 5e-13 0.0 0.0 0.0 0.0 0.0
0.0 0.0 0.0 0.0 0.0 0.0 0.0 0.0
0.0 0.0 0.0 0.0 0.0 0.0 0.0 0.0
0.0 0.0 0.0 0.0 0.0 0.0 0.0 0.0
0.0 0.0 0.0 0.0 0.0 0.0 0.0 0.0
0.0 0.0 0.0 0.0 0.0 0.0 0.0 0.0
0.0 0.0 0.0 0.0 0.0 0.0 0.0 0.0
0.0 0.0 0.0 0.0 0.0 0.0 0.0 0.0
0.0 0.5 0.5 0.0 0.0 0.0 0.0 0.0
0.0 0.0 0.0 0.0 0.0 0.0 0.0 0.0
0.0 0.0 0.0 0.0 0.0 0.0 0.0 0.0
0.0 0.0 0.0 0.0 0.0 0.0 0.0 0.0
0.0 0.0 0.0 0.0 0.0 0.0 0.0 0.0
0.0 0.0 0.0 0.0 0.0 0.0 0.0 0.0
0.0 0.0 0.0 0.0 0.0 0.0 0.0 0.0
0.0 0.0 0.0 0.0 0.0 0.0 0.0 0.0
0.0 0.0 1.0 5e-13 0.0 0.0 0.0 0.0
0.0 0.0 0.0 0.0 0.0 0.0 0.0 0.0
0.0 0.0 0.0 0.0 0.0 0.0 0.0 0.0
0.0 0.0 0.0 0.0 0.0 0.0 0.0 0.0
0.0 0.0 0.0 0.0 0.0 0.0 0.0 0.0
0.0 0.0 0.0 0.0 0.0 0.0 0.0 0.0
0.0 0.0 0.0 0.0 0.0 0.0 0.0 0.0
0.0 0.0 0.0 0.0 0.0 0.0 0.0 0.0

arith.constant27 f4 [2, 1, 5, 16]
00000000: d96f d83c d7de 223e 1289 9e3e 368f 9cbe
00000010: 939a 22be ef25 983c e789 853e dbb4 09be
00000020: cf62 5c3e 47d0 133e a381 5dbe 3dbb b03d
00000030: a97c 69bd f02d 3dbe ee66 0abe cd47 fe3b
00000040: 56a6 463e bbde ccbd e06a 0fbd 9a29 893e
00000050: 4bd0 66be a316 423e 521f 753e 3322 afbd
00000060: b025 3a3e 6acc 913e 3ffb bb3d 1cb4 7bbe
00000070: 8d37 4dbb 455a ccbc 9c1b 86be 1d83 05be
00000080: c948 753e eaef 8abd 0b5e a1be d21d e7bd
00000090: b30d d23d c4f3 863d b059 7e3e 062c 763e
000000a0: 930d 97bd 7f1c dabc 9e7c 9bbc 235c f4bd
000000b0: 40ff 773e 61fa 793e 6f80 8d3e 585b bdbd
000000c0: d5f3 78bd 969a 093d 9aad 783e ce74 053e
000000d0: 6c18 eabd 5696 3cbd 2cf0 573d cb97 2b3e
000000e0: 23b1 26be 0aea 993d 98e4 3ebe 8589 21be
000000f0: de58 223e 43d9 5dbe f798 8f3e 154d 09be
00000100: de08 9e3e 05b5 193e 8d25 eebc 1d9a 0c3e
00000110: 6b41 313b 7496 f93a f507 48be 4f7b 1f3e
00000120: 8566 f5bd f80b 723e fdf2 443e b7e5 983e
00000130: 695a 0f3e e0ba 1bbd 109c 203e eab1 7e3e
00000140: 6462 8f3e b85a 393e 3ee9 98be 2fd6 9fbe
00000150: 86f3 f6bd d577 81bc e8a2 0cbe 6a55 603e
00000160: d920 1c3e 388e f4bc 1253 3bbe 0a26 33bc
00000170: 90d9 fbbd 9fe0 84bb 6167 933c d9e2 653e
00000180: 4778 9f3e 3557 85be 221e 6abd 6520 29be
00000190: 8c5a 543e ffa5 d4bd e5c6 6c3e 7454 f8bd
000001a0: 9f0f 99be 3ab7 9a3e e3fb b3bc 9388 a13e
000001b0: a3cf 7c3e 379c 8abe 80ce 523e c63f 4dbc
000001c0: bc80 8fbe 6713 5fbe a321 923e 8b2c 48be
000001d0: 1e93 fd3d 20cf 7fbe f984 c43d 5e19 393e
000001e0: 55e0 56bd 31ba 533d efa8 9fbe d238 053e
000001f0: a713 713e 9ef9 22be d432 7fbe 6c4a 8c3d
00000200: 2313 5fbd ec4f 003d 815f e8ba d9a5 d2bc
00000210: 14ac 58be 11ea 443e a05f 52be a411 263e
00000220: 5ded 813e 13f5 b4bd edb0 99be c78b 8cbe
00000230: b009 96be f6da 933d e0bd b4bd 6e35 afbd
00000240: 0fb4 9abe 1c0f 36bd cc35 21be 1ef1 48be
00000250: c449 a5bd e924 b93d fd1c 90bd 6e81 72be
00000260: 6f07 0bbc 3831 99be ab49 1fbe b716 423e
00000270: 81c8 2abe 9d7d d03d a329 c03d b477 b6bd
0.02642052 0.15905319 0.3096395 -0.3057801 -0.15879278 0.018572776 0.26081774 -0.13447897
0.21522067 0.1443492 -0.21631484 0.08629463 -0.05700365 -0.18474555 -0.13515827 0.007760024
0.1939939 -0.1000342 -0.035014033 0.26789552 -0.22540395 0.18953948 0.23937729 -0.08551445
0.18178439 0.28476268 0.09178781 -0.24580425 -0.0031313628 -0.024945388 -0.2619294 -0.13038297
0.23953547 -0.06784041 -0.31517062 -0.11284985 0.10256519 0.06589463 0.248389 0.24040231
-0.07375636 -0.026624916 -0.01898032 -0.11931636 0.24218464 0.24411918 0.2763705 -0.09245938
-0.06077941 0.03359469 0.24284974 0.13032839 -0.11430439 -0.04604181 0.05271928 0.16757123
-0.1627851 0.075153425 -0.18641889 -0.15775116 0.15854213 -0.2166491 0.2804639 -0.1340831
0.3086614 0.1501046 -0.02907064 0.13730665 0.0027047049 0.0019042031 -0.19534285 0.15574382
-0.11982445 0.23637378 0.19233318 0.2986276 0.13999332 -0.038020015 0.15684533 0.24872556
0.28004754 0.18101013 -0.2986545 -0.31218097 -0.12058167 -0.01580421 -0.13734019 0.21907583
0.15246905 -0.029852971 -0.18293408 -0.010934362 -0.12297356 -0.0040550972 0.01799363 0.22449817
0.31146452 -0.26043096 -0.057157643 -0.16516264 0.20737666 -0.10383224 0.23122747 -0.12125483
-0.2989473 0.30217916 -0.021970695 0.3154951 0.24688582 -0.27072307 0.20586586 -0.012527412
-0.28027904 -0.21784745 0.28541288 -0.19548242 0.12381576 -0.24981356 0.09595675 0.18076083
-0.052460033 0.051691238 -0.31183574 0.13009956 0.23542653 -0.15915534 -0.24921733 0.06850132
-0.05446161 0.03132622 -0.0017728658 -0.025713848 -0.21159393 0.19229914 -0.2054429 0.16217667
0.25376406 -0.08835807 -0.30017796 -0.27450392 -0.29304266 0.07219498 -0.08825278 -0.08555113
-0.302155 -0.044448003 -0.15743178 -0.19623229 -0.0807071 0.09040243 -0.07036779 -0.23682186
-0.008485659 -0.29920363 -0.15555446 0.18953978 -0.16678049 0.10180209 0.093829416 -0.0890955

arith.constant28 f4 [16, 1, 5, 16]
00000000: 5daa 9a3c 4764 1bbd 9924 bdbd 5670 c73d
00000010: 5a44 813d 4f27 9abd 50a8 053d dc25 e2bd
00000020: e523 783c 292d 78bd 8857 c03c f42d 2a3d
00000030: 6c4a 833c 3ae4 15bd 5686 60bd 2160 9dba
00000040: b601 71bd 6f0d 32bd 6c9c 0ebd d0cd 8fbd
00000050: a189 113d 6e2e 773c 7c23 29bd 83fd a03d
00000060: d06b a8bd 76ec 6a3d 9589 b5bd 6965 cd3d
00000070: e4dd 573d 5c29 c33d f955 87bd f5ff 7bbd
00000080: 0dcf 39bd f6e0 95bd 6cb1 bebd 71e5 9d3d
00000090: 41c8 383d b231 1fbd 50e4 8f3d c073 ca3c
000000a0: 1fd7 01bd 2365 90bd 2121 98bd 1b86 cabd
000000b0: 8d14 70bd e4e6 4f3d 1c5f a3bc 2b3f 563b
000000c0: 26b8 dabd 9425 95bd cae0 353d f422 d2bd
000000d0: 5618 a0bd 7881 e6bc d8b6 803d 65f8 883d
000000e0: 7da4 983d bd8b 26bd 65f6 cbbd 9fb7 4d3d
000000f0: 9646 b83d 0075 a2bd 3e5e 333d baa2 b53d
00000100: 83cd 83bd 810a c33a 08ec 57bd 45ed 153c
00000110: 2a0b dd3b cd5e aa3d 4a92 b9bd e9dc 12bd
00000120: d50b 1dbd e7e0 c1bd b79f 0bbc 188c 1a3c
00000130: 34d2 c53d a12b c13d 07c8 cdbd 31c5 6cbd
00000140: 23dc a2bd e3b1 2cbd 8d82 d53d 7005 74bd
00000150: 1174 e1bd 08d9 993d e79a bf3d 0ab9 0cbd
00000160: 9fe4 5d3c 4e0b 99bd 38e2 ce3c fabd 2cbd
00000170: 960b 82bb 2b0f 81bd d00a 71bc 4637 213d
00000180: b516 54bd ff8e d53d 67a8 973a 153d 1e3d
00000190: 3afa d0bd 7755 a0bd 920a b63d 87ef 1a3d
000001a0: 5ebc 8c3c 9f6f c3bd dba8 b33d acd7 133d
000001b0: f446 de3c a6e1 b0bd 6980 d7bc 1e71 6c3d
000001c0: a2ca 58bd c363 a83d 6619 a0bd 8310 533c
000001d0: 2a92 c8bd 6075 9dbb b00a 96bd 201f 193d
000001e0: ef9d 5d3d 7d97 003d 0ffa 53bd b35f 9dbd
000001f0: 7dc7 a93c 2fc4 aabd 6954 85bd cb6b 5dbd
00000200: eb10 43bd e2aa c1bc 7c61 b63d 2477 91bb
00000210: ee9e b9bc 412d b13d 5585 77bd 4c12 cfbd
00000220: 2102 b9bc 12c9 913d 4f21 943d 7f1c 6cbb
00000230: b3f5 be3d ceb2 8bbd e38f 79bd 8007 80bb
00000240: 7768 2fbd 79e6 0cbd 89ec ca3d 13d6 4e3d
00000250: 7eb4 0a3d 8355 d1bd 6959 443c 18ae fdbc
00000260: eadd a83d 7e83 ebbc 0fcf d63d 0df5 88bd
00000270: 9c6c ba3d f1a3 e23d 2123 d4bc 0ec2 f13c
00000280: c57e 4ebd a241 9f3d ec4f 963d b608 943d
00000290: fc9a d13d cc1a 1c3d 384a c13d 5e95 45bc
000002a0: 5ba2 7e3d c654 7c3d f715 34bc 385a 9abd
000002b0: 2a09 e03d 13f3 013d 5dc9 91bd 58bc aebd
000002c0: b871 e1bd b945 dd3d 5f57 97bd ecd0 b23c
000002d0: d2ce d23d ced0 01bd a82d d83d 23b0 c93d
000002e0: 79ca 90bd 2972 35bd 6e28 4e3d da15 623d
000002f0: 8eb9 963d b168 963d 7f4d 4f3d 7465 ca3d
00000300: a832 d03d 2169 dabd b294 d8bd 7ad0 2bbd
00000310: f54f 31bd 7b8f d6bd fb33 c3bd 36c4 6bbd
00000320: 488f baba 0306 b23d caba d93d 2bf0 a5bd
00000330: 6d72 a5bd 7204 b73d 7271 a43d 8d47 9e3d
00000340: 91e9 44bd cfbd 82bd b6b4 9e3d 2478 9d3d
00000350: 574b cd3c bf44 0abd a3e6 b039 3780 c5bd
00000360: 009f 5ebd b102 da3d f381 a43d 0669 bf3d
00000370: 4ca6 db3d 2aaa 283d b0d9 77bd ba26 913d
00000380: 1dd4 a5bc 7ad1 90bd f923 a8bb 2a7e 2dbd
00000390: d371 63bd 16f5 193d 8ef5 bbbc 571f 2c3d
000003a0: 6d48 3bbb b390 463d 1f97 2abd 2e7d fd3c
000003b0: fb64 87bd 1eb6 923c 113b 8dbd 1e51 9f3d
000003c0: 31b8 b93d 2854 643b 5b26 d3bd 3eec b9bd
000003d0: 21db 723d 9f0c b93d 116f 50bb 7c26 5b3d
000003e0: 1bc1 c73d 91f1 91bd 5090 2a3d 4847 b3bd
000003f0: 68e7 debd ffa3 8fbc 053f 1b3d 1c91 d03d
0.018880064 -0.03793743 -0.09235496 0.09738223 0.06311865 -0.07527029 0.03263122 -0.11042377
0.015145277 -0.060589943 0.023479238 0.04154773 0.016026698 -0.036594607 -0.054815613 -0.0012006798
-0.058839522 -0.043469843 -0.034817144 -0.070216775 0.035531644 0.015086753 -0.041293606 0.078608535
-0.082236886 0.057354413 -0.08864132 0.10029108 0.052701846 0.09529373 -0.06608195 -0.061523397
-0.045363475 -0.073182985 -0.09311184 0.07709778 0.045112852 -0.038865753 0.07025969 0.024713397
-0.031699296 -0.0705054 -0.07428194 -0.0988886 -0.05861335 0.050757304 -0.019942813 0.003269146
-0.10679655 -0.07282558 0.04440383 -0.10260573 -0.07817142 -0.028137907 0.06284875 0.066880025
0.07453249 -0.04066061 -0.099591054 0.050223943 0.08997838 -0.07932472 0.04379105 0.08868928
-0.064356826 0.001488045 -0.05271533 0.009150808 0.0067457156 0.08318863 -0.090611055 -0.035855208
-0.038341362 -0.09466725 -0.008521966 0.009432815 0.09659234 0.0943215 -0.10047918 -0.057805244
-0.07952144 -0.042161833 0.10425291 -0.059575498 -0.11008466 0.075120986 0.09355717 -0.034356155
0.013543277 -0.07472859 0.025254354 -0.042173363 -0.0039686663 -0.06301721 -0.014712051 0.039359353
-0.051779468 0.10427665 0.0011570574 0.03863247 -0.10203977 -0.07828801 0.08888735 0.037826087
0.017179664 -0.095427744 0.08772441 0.036094353 0.027133442 -0.08636789 -0.026306348 0.057725064
-0.05292762 0.08222153 -0.07817344 0.012882355 -0.097935036 -0.004805252 -0.07326257 0.0373832
0.054105695 0.03139447 -0.051752146 -0.07684269 0.020725006 -0.083382 -0.065102406 -0.054057878
-0.047623556 -0.023641054 0.089053124 -0.0044392515 -0.022658791 0.086512096 -0.06042989 -0.10110912
-0.022584023 0.07118429 0.072329156 -0.0036027727 0.09324207 -0.06821214 -0.060928237 -0.003907144
-0.042824235 -0.034399483 0.09908397 0.050497126 0.033863537 -0.10221388 0.011984208 -0.030966803
0.08245452 -0.028749224 0.10488712 -0.06687365 0.09102747 0.110664256 -0.025895657 0.029511478
-0.050413866 0.0777619 0.07339463 0.07228224 0.10234639 0.038111493 0.09437984 -0.012059538
0.062166553 0.061604284 -0.010991565 -0.07536739 0.10939248 0.031725954 -0.07118485 -0.085320175
-0.11008018 0.10804314 -0.073897116 0.021828137 0.10293354 -0.031693272 0.10555583 0.098480485
-0.070698686 -0.044298325 0.050331526 0.05519662 0.073596105 0.07344187 0.050611015 0.09882632
0.10165912 -0.10664583 -0.105752364 -0.041946866 -0.043289144 -0.104765855 -0.09531399 -0.05756017
-0.0014233375 0.08692553 0.1063133 -0.08102449 -0.080784656 0.08936395 0.080294505 0.07728491
-0.04807431 -0.06383859 0.077493116 0.07688931 0.025060339 -0.033756968 0.00033741174 -0.09643596
-0.054350853 0.106450446 0.08032598 0.093462035 0.10725078 0.041177906 -0.060510337 0.07087465
-0.020242745 -0.070712045 -0.0051312414 -0.042356648 -0.055528473 0.037587248 -0.022944238 0.042022076
-0.0028577105 0.04847784 -0.041648027 0.03094348 -0.06611057 0.017909106 -0.06896032 0.07779144
0.09068335 0.00348402 -0.1031005 -0.09078263 0.05929101 0.090356104 -0.0031804482 0.0535035
0.09753629 -0.07126153 0.041641533 -0.0875383 -0.10883981 -0.017534254 0.037901897 0.101839274

arith.constant29 f4 [16, 3, 3, 16]
00000000: 1657 2e3c 366b 943c 46fd f3bc d61c 773d
00000010: 9fb9 a5bd 2688 f0bc bbdd c4bc 40df 97bd
00000020: 72e3 92bd 0f6c 9dbd d397 a03d eb01 3a3c
00000030: c383 343d d418 98bd 2b58 9fbc 3830 373d
00000040: a8c0 803d 8091 533c 9879 693d eb30 a4bc
00000050: 96e6 7cbc 7021 083d 28ae 2a3d d861 a93d
00000060: 8bc6 913c 763c b73c c0b6 7cbc 06cb 89bd
00000070: 93d4 47bd d87f 01bd abae 6abd a8ac 783d
00000080: 887b 59bd 4b20 4e3c 5bfb 3c3d 08ce 8bbd
00000090: abe9 7bbb 5b72 2a3d 5677 0c3b 2fd5 95bd
000000a0: 2052 88bd acea a5bd db12 653d c63f a8bd
000000b0: f03a 0dbd 0058 9e3a 379a a23d 2b9c 0a3d
000000c0: 2c0f a1bd c0a7 2d3c 4361 2fbd ba12 8b3d
000000d0: d3ab 3b3d 7e4f a2bd 839d 69bd e253 9abd
000000e0: 9097 743d 8885 1cbd 56d5 96bb a0ce c2bc
000000f0: 6b04 993c 467a edbc eb91 d6bc 8640 47bd
00000100: d682 64bb 2bf1 5a3b de80 3fbd d0bb a23d
00000110: ae5e 86bd 46f0 fcbc e05c 7d3c fe93 11bd
00000120: fbab e93c 6844 aabd e68a 103d 524e a8bd
00000130: e097 a7bc e0c8 42bc 46ea 7fbd d0a9 1cbd
00000140: 0b07 b4bc 6eff 183d 0056 6e3a 7bd1 0b3d
00000150: 4e9f 5cbd 2722 93bd 865e 973d 2bb1 9b3d
00000160: 66aa 6abd dbf7 193d 68f7 143d b498 a1bd
00000170: eec9 4f3d 9bb9 083d 7073 af3c 000f efbc
00000180: bb51 d9bc e039 2abd 005f 8d3b cbb9 44bc
00000190: 86af a3bc 008c 1f3c 4e17 223d ab52 b4ba
000001a0: 56f1 d439 8635 eebc 1f26 a0bd 4495 8abd
000001b0: d69c fcbc 766a b73c 700e 7e3d 8f63 913d
000001c0: 76cb 30bc 1b35 b9bc 661e 81bc b6e7 613d
000001d0: b854 433d d68e 13bd 5cee 99bd 40fa 7cbc
000001e0: afef 8dbd 4446 8b3d 00c2 05bd 361d 523c
000001f0: cc6e 8f3d e88d 0bbd 6301 343d 50f3 a53c
00000200: 264b 93bd 26fe e9bc 1b4a 833c fa02 963d
00000210: abff b6bc 5613 7f3a 0b56 4e3c cbea 8e3c
00000220: 4b13 3f3c 8628 6d3d 0369 5c3d 0e95 13bd
00000230: f608 6cbc e8c3 a9bd 7697 413c a8b2 26bd
00000240: 1669 0b3d f0a6 123d 0e74 6ebd 9b5a cd3c
00000250: 467a 10bd 682b 063d 2b05 1f3c 6645 dbbc
00000260: 4605 c0bc a600 ea3c 1b15 2fbd e6a7 923c
00000270: 2c57 a8bd 90cb d93c bbcd 843c 20e1 6fbc
00000280: ebfe dd3c 7efb 463d ae68 043d a0c1 5abd
00000290: 26ff ecbc 88ea 88bd abb7 8c3d 5690 003d
000002a0: 6816 41bd 8044 f8bc 90a2 8dbd ab36 083c
000002b0: 1bd8 6c3d da5d 85bd 90ca 263d 3ba5 fabc
000002c0: 9325 43bd cb78 66bc ab45 af3a f2f0 a33d
000002d0: be56 53bd 2b6d 933c d649 ffbb b36d 903d
000002e0: d6ad 05bd 3b9a 0e3d 637d 2fbd 5058 80bc
000002f0: 2b09 04bc b6e0 4a3c 1abc 843d 10e5 e73c
00000300: d656 7fbb 9bea 213d 00f6 b7bb abce 48bc
00000310: 16b3 64bc dbed 853d 7602 5fbc 06ae 833c
00000320: 5bea 733d 4076 85bb 36f3 453d eb38 79bc
00000330: 70d3 913d 4b3c 60bd e090 71bc 3e50 a83d
00000340: 0314 713d 3801 47bd 9e35 5a3d 88f2 683d
00000350: ae24 5e3d a432 843d 202e 803c d661 2dbc
00000360: 301d a43d 4608 b9bc a04f 00bc feb8 18bd
00000370: 8688 343d e004 00bd f68e 523c 9bd4 a6bc
00000380: bce5 99bd 8e0b 61bd f66d 103d d8e2 25bd
00000390: db1b 3cbd fb31 5c3d d78d 97bd 6095 ef3c
000003a0: 2b6c 163d 7fd3 8e3d 5b09 a9bd f6dc 38bc
000003b0: 76a0 9e3d 2bc9 89bd 73cd 01bd 5e17 483d
000003c0: 3681 7e3c 1b49 923c e820 8d3d 4396 5cbd
000003d0: ebfb e63c 083f 19bd 0868 233d 18ca 18bd
000003e0: 1313 593d 969a 283d 50d7 f03c 836a 0b3d
000003f0: 203e 7f3d 763c 8dbc 625e 85bd e6eb 763d
0.01064088 0.018117528 -0.029783856 0.060330234 -0.08092045 -0.029361796 -0.02403151 -0.074156284
-0.07172288 -0.07686626 0.07841458 0.011352996 0.04407097 -0.074266106 -0.019451221 0.04472372
0.06286746 0.012913108 0.057000726 -0.020042857 -0.015435835 0.033235013 0.041669995 0.08270615
0.017794868 0.022367697 -0.01542443 -0.06728177 -0.04878671 -0.031616062 -0.057295483 0.060711533
-0.053096324 0.012580941 0.04613815 -0.06826407 -0.0038438838 0.041612964 0.0021433434 -0.07316052
-0.06656289 -0.08101401 0.055926185 -0.08215289 -0.034480035 0.0012080669 0.079395704 0.03384034
-0.07864222 0.010599077 -0.042817365 0.06790681 0.04581816 -0.07925318 -0.05703498 -0.075355306
0.059714854 -0.038213283 -0.0046030683 -0.023780167 0.018678864 -0.028988969 -0.026192626 -0.04864552
-0.0034868023 0.0033407907 -0.046753757 0.07945979 -0.065610275 -0.03087629 0.015464038 -0.035541527
0.02852439 -0.08313829 0.035288714 -0.082180634 -0.020458162 -0.011888713 -0.06247928 -0.038247883
-0.021976015 0.03735297 0.00090917945 0.034135323 -0.053862862 -0.071842484 0.07391076 0.076021515
-0.05729141 0.03758989 0.036368757 -0.07890454 0.050729685 0.033380132 0.02141735 -0.029181957
-0.02652823 -0.0415591 0.0043143034 -0.012007187 -0.019981157 0.009737968 0.039573006 -0.0013757547
0.000406156 -0.029078256 -0.07819771 -0.067667514 -0.030836504 0.022389632 0.062025487 0.070990674
-0.010790696 -0.02260833 -0.015761565 0.055152617 0.047688216 -0.03602489 -0.075161666 -0.015440524
-0.06930482 0.068005115 -0.032655716 0.012824347 0.07003555 -0.03407088 0.043946635 0.020257622
-0.07192068 -0.02856357 0.016026547 0.073247865 -0.022338709 0.00097303593 0.012593756 0.017445942
0.011662315 0.057899974 0.053811084 -0.03603082 -0.014406433 -0.08289319 0.011815896 -0.040697724
0.034035765 0.035803735 -0.058216147 0.025067618 -0.03527286 0.03275624 0.009705822 -0.02676649
-0.023440015 0.028564762 -0.042744737 0.017902326 -0.08219752 0.026586324 0.016211381 -0.014641076
0.027099093 0.048579685 0.032326393 -0.05340731 -0.028930258 -0.06685358 0.068709694 0.03138765
-0.04714051 -0.0303061 -0.06915772 0.008313815 0.05782328 -0.065120414 0.040720522 -0.030596366
-0.047643255 -0.014066885 0.0013372203 0.08004941 -0.051596396 0.017996391 -0.0077907844 0.070521735
-0.032636486 0.034815054 -0.042844187 -0.01566711 -0.008058826 0.012382677 0.0648119 0.028307468
-0.003896167 0.039530378 -0.0056140423 -0.012256305 -0.013958713 0.06539508 -0.013611427 0.016074192
0.05954967 -0.0040729344 0.048327647 -0.015211324 0.07120407 -0.054745 -0.014744014 0.0821843
0.058856975 -0.048585147 0.05327379 0.05687192 0.0542342 0.064549714 0.015646994 -0.010582408
0.080133796 -0.022586953 -0.007831484 -0.037285797 0.04407551 -0.03125465 0.012851467 -0.02036505
-0.075145215 -0.05494266 0.035261117 -0.04049954 -0.045925003 0.053758603 -0.07400101 0.029246032
0.03672425 0.069739334 -0.082537375 -0.01128315 0.07745449 -0.06727823 -0.031690072 0.04885041
0.015533736 0.017857125 0.06891042 -0.05385424 0.028196296 -0.037413627 0.039894134 -0.037302107
0.052996706 0.04116305 0.029399544 0.034037124 0.062315106 -0.017240744 -0.06512143 0.060283564

arith.constant30 f4 [64, 192]
00000000: 0000 803f 0000 0000 0000 0000 0000 0000
00000010: 0000 0000 0000 0000 0000 0000 0000 0000
00000020: 0000 0000 0000 0000 0000 0000 0000 0000
00000030: 0000 0000 0000 0000 0000 0000 0000 0000
00000040: 0000 0000 0000 0000 0000 0000 0000 0000
00000050: 0000 0000 0000 0000 0000 0000 0000 0000
00000060: 0000 0000 0000 0000 0000 0000 0000 0000
00000070: 0000 0000 0000 0000 0000 0000 0000 0000
00000080: 0000 0000 0000 0000 0000 0000 0000 0000
00000090: 0000 0000 0000 0000 0000 0000 0000 0000
000000a0: 0000 0000 0000 0000 0000 0000 0000 0000
000000b0: 0000 0000 0000 0000 0000 0000 0000 0000
000000c0: 0000 0000 0000 0000 0000 0000 0000 0000
000000d0: 0000 0000 0000 0000 0000 0000 0000 0000
000000e0: 0000 0000 0000 0000 0000 0000 0000 0000
000000f0: 0000 0000 0000 0000 0000 0000 0000 0000
00000100: 0000 0000 0000 0000 0000 0000 0000 0000
00000110: 0000 0000 0000 0000 0000 0000 0000 0000
00000120: 0000 0000 0000 0000 0000 0000 0000 0000
00000130: 0000 0000 0000 0000 0000 0000 0000 0000
00000140: 0000 0000 0000 0000 0000 0000 0000 0000
00000150: 0000 0000 0000 0000 0000 0000 0000 0000
00000160: 0000 0000 0000 0000 0000 0000 0000 0000
00000170: 0000 0000 0000 0000 0000 0000 0000 0000
00000180: 0000 0000 0000 0000 0000 0000 0000 0000
00000190: 0000 0000 0000 0000 0000 0000 0000 0000
000001a0: 0000 0000 0000 0000 0000 0000 0000 0000
000001b0: 0000 0000 0000 0000 0000 0000 0000 0000
000001c0: 0000 0000 0000 0000 0000 0000 0000 0000
000001d0: 0000 0000 0000 0000 0000 0000 0000 0000
000001e0: 0000 0000 0000 0000 0000 0000 0000 0000
000001f0: 0000 0000 0000 0000 0000 0000 0000 0000
00000200: 0000 0000 0000 0000 0000 0000 0000 0000
00000210: 0000 0000 0000 0000 0000 0000 0000 0000
00000220: 0000 0000 0000 0000 0000 0000 0000 0000
00000230: 0000 0000 0000 0000 0000 0000 0000 0000
00000240: 0000 0000 0000 0000 0000 0000 0000 0000
00000250: 0000 0000 0000 0000 0000 0000 0000 0000
00000260: 0000 0000 0000 0000 0000 0000 0000 0000
00000270: 0000 0000 0000 0000 0000 0000 0000 0000
00000280: 0000 0000 0000 0000 0000 0000 0000 0000
00000290: 0000 0000 0000 0000 0000 0000 0000 0000
000002a0: 0000 0000 0000 0000 0000 0000 0000 0000
000002b0: 0000 0000 0000 0000 0000 0000 0000 0000
000002c0: 0000 0000 0000 0000 0000 0000 0000 0000
000002d0: 0000 0000 0000 0000 0000 0000 0000 0000
000002e0: 0000 0000 0000 0000 0000 0000 0000 0000
000002f0: 0000 0000 0000 0000 0000 0000 0000 0000
00000300: ccbc 8c2b 0000 803f 0000 003f 0000 0000
00000310: 0000 0000 0000 0000 0000 0000 0000 0000
00000320: 0000 0000 0000 0000 0000 0000 0000 0000
00000330: 0000 0000 0000 0000 0000 0000 0000 0000
00000340: 0000 0000 0000 0000 0000 0000 0000 0000
00000350: 0000 0000 0000 0000 0000 0000 0000 0000
00000360: 0000 0000 0000 0000 0000 0000 0000 0000
00000370: 0000 0000 0000 0000 0000 0000 0000 0000
00000380: 0000 0000 0000 0000 0000 0000 0000 0000
00000390: 0000 0000 0000 0000 0000 0000 0000 0000
000003a0: 0000 0000 0000 0000 0000 0000 0000 0000
000003b0: 0000 0000 0000 0000 0000 0000 0000 0000
000003c0: 0000 0000 0000 0000 0000 0000 0000 0000
000003d0: 0000 0000 0000 0000 0000 0000 0000 0000
000003e0: 0000 0000 0000 0000 0000 0000 0000 0000
000003f0: 0000 0000 0000 0000 0000 0000 0000 0000
1.0 0.0 0.0 0.0 0.0 0.0 0.0 0.0
0.0 0.0 0.0 0.0 0.0 0.0 0.0 0.0
0.0 0.0 0.0 0.0 0.0 0.0 0.0 0.0
0.0 0.0 0.0 0.0 0.0 0.0 0.0 0.0
0.0 0.0 0.0 0.0 0.0 0.0 0.0 0.0
0.0 0.0 0.0 0.0 0.0 0.0 0.0 0.0
0.0 0.0 0.0 0.0 0.0 0.0 0.0 0.0
0.0 0.0 0.0 0.0 0.0 0.0 0.0 0.0
0.0 0.0 0.0 0.0 0.0 0.0 0.0 0.0
0.0 0.0 0.0 0.0 0.0 0.0 0.0 0.0
0.0 0.0 0.0 0.0 0.0 0.0 0.0 0.0
0.0 0.0 0.0 0.0 0.0 0.0 0.0 0.0
0.0 0.0 0.0 0.0 0.0 0.0 0.0 0.0
0.0 0.0 0.0 0.0 0.0 0.0 0.0 0.0
0.0 0.0 0.0 0.0 0.0 0.0 0.0 0.0
0.0 0.0 0.0 0.0 0.0 0.0 0.0 0.0
0.0 0.0 0.0 0.0 0.0 0.0 0.0 0.0
0.0 0.0 0.0 0.0 0.0 0.0 0.0 0.0
0.0 0.0 0.0 0.0 0.0 0.0 0.0 0.0
0.0 0.0 0.0 0.0 0.0 0.0 0.0 0.0
0.0 0.0 0.0 0.0 0.0 0.0 0.0 0.0
0.0 0.0 0.0 0.0 0.0 0.0 0.0 0.0
0.0 0.0 0.0 0.0 0.0 0.0 0.0 0.0
0.0 0.0 0.0 0.0 0.0 0.0 0.0 0.0
1e-12 1.0 0.5 0.0 0.0 0.0 0.0 0.0
0.0 0.0 0.0 0.0 0.0 0.0 0.0 0.0
0.0 0.0 0.0 0.0 0.0 0.0 0.0 0.0
0.0 0.0 0.0 0.0 0.0 0.0 0.0 0.0
0.0 0.0 0.0 0.0 0.0 0.0 0.0 0.0
0.0 0.0 0.0 0.0 0.0 0.0 0.0 0.0
0.0 0.0 0.0 0.0 0.0 0.0 0.0 0.0
0.0 0.0 0.0 0.0 0.0 0.0 0.0 0.0

arith.constant38 f4 [16, 1, 1, 16]
00000000: da7a e23d 6075 49be a8fc 2f3e 29ff 7bbe
00000010: a4f3 c23d b82a aabd 03f8 b93d 1f0d 45bc
00000020: a034 74be 9e24 99bc 6b98 71be fe86 c93c
00000030: f3bc 393d 648e 05bd 141e e9bd 9c2c 1dbe
00000040: c8ca 613e c6f2 543e 08f2 063e c142 c13a
00000050: 8582 09be fd62 1abe 1fe4 27be 7c99 37bd
00000060: 1fc8 75be 83ec 21bd 77f8 02be 0db4 a8bd
00000070: db8e 693d 431d 723e c8d2 743d 3d20 4b3d
00000080: dbe3 5e3e 3ccb 36be 882f 0d3e ee0f 183c
00000090: 029b a43d ecbb 1fbd dd70 bfbd 847c 363d
000000a0: 8c7a 063d b82b ce3d 91cb f03c 43e6 58be
000000b0: ebb5 a13d 40be e83d f1a4 7b3e 7068 173e
000000c0: a30b 203d 5671 f9bd 02f7 bdbd 941e 5c3e
000000d0: eb3a 3bbe 1c93 30be 8743 2c3c 86ec 05be
000000e0: 90a0 6ebe 5c04 693e 942d 7b3e 4cf9 53be
000000f0: edd4 773e 5ea5 493d 6b0c 1b3e ed39 703e
00000100: fa65 563c 11ef 6fbd 2495 053e 30fa 11be
00000110: d3da d1bd 7826 e63d 028b f9bd 22ab 173e
00000120: 8671 723e 92da 24be f0ea 3d3e ba55 2abe
00000130: f1c9 8e3d 72a3 62be d8ec 2fbe c20b eebd
00000140: d9d2 773e 4bc0 2cbe 3977 47be c95d 023e
00000150: d46e 193e 7bea 463e 9427 36bd 0df6 9abb
00000160: 7964 71be 8848 5a3e 8597 e53d f8cd 74bd
00000170: 2b77 093d 1f7b e93d 7940 d9bc 7902 83bd
00000180: 7ec2 1ebe 1e4a 5cbe 07f6 4abe 1542 213e
00000190: e2fd e23d 8c1e 1dbd 830e b93b 2bfb 383d
000001a0: 09b9 be3d 6dd7 3abe 8e6c a43d 0fd2 33be
000001b0: 472a 3a3e 6cbf febc dd73 14be d56d e5bc
000001c0: 9d86 3abe d75a aebc 9be9 573e 2c9f 7e3d
000001d0: 5824 cebd 4d7f 213e 5c26 183e c01a 92bc
000001e0: b1a0 28be e934 4cbe bfbf 26be a06b 113e
000001f0: 7eb4 783d 0ff4 46bd 1654 00bc b82c 74be
00000200: 1bf6 583e a0c6 93bd 28f2 103e cafd 47be
00000210: bcc3 673e 5ba8 69be 7592 813c c5e5 3abe
00000220: 1142 f03d 9309 083e 218f 71bd 31f1 02be
00000230: 1bf9 acbd 7d19 35be 734d 21bd 36a9 61be
00000240: ade4 01be 7184 283d 2701 22be a1e3 273d
00000250: 6928 9b3d edca fd3d cd60 40be 3d4f 783e
00000260: 8e8f 673e a9f3 d7bd 440d 6dbe 90f4 12be
00000270: 515a c0bd 7f87 5fbe 42fa 1f3e 2df5 1b3d
00000280: d985 40bd 58ed 29bd 51b7 c03c a170 d7bd
00000290: 4ef8 f8bc 6525 04be 2211 6f3d 0c06 17be
000002a0: 5d87 27be 5180 15be d10d 58bd b142 7cbe
000002b0: 9520 643d 28c5 433d 8323 453e 15ff ccbd
000002c0: 235f 3a3d 3421 6fbe 9c46 373e 2f9b 163e
000002d0: e88f 60be 87ff dfbd 9a22 a5bc 921f edbd
000002e0: d0ee e73d dedf 3b3e a721 debc 5505 353d
000002f0: fa39 36be cef7 54be 0610 fabd 163c 0c3e
00000300: 35bc 513e 506b 863d 1b00 dfbd 11c7 2dbe
00000310: 24ec 683e 490c 40bd f679 3cbe 34fd e6bc
00000320: d4f9 7f3d 61ca 273e f405 05bd fcfa 30be
00000330: db9a 203d 8917 b4bd 48f7 c13d 63b0 f5bd
00000340: 346e 49be f076 253e 0a3f 3ebe 50fd 183e
00000350: a3c3 38bd b8d3 493e f5d9 2ebe cf87 96bb
00000360: 9903 3abe 7d9a 9bbc 20a5 6e3e c3d4 88bc
00000370: 1b62 3bbd a046 563e 663b fb3d 0e58 18bd
00000380: 60ca c1bd 3565 5d3e 1d30 59be 90fb 72bc
00000390: 2588 2dbe 84c5 7a3e 84e7 1ebd 43e5 df3d
000003a0: 2f19 76be d65c 06be c725 2e3a a9ca 3e3d
000003b0: 473b 5d3d 0bdb 21bd f674 e23b 0367 533e
000003c0: c53c 463e 68fc 91bd 8c68 dc3d cdfc 583e
000003d0: 80bb cdbd 9377 59be 46a2 303e 0d71 1abc
000003e0: f45d b5bc 4a7e 0cbe 8923 d73d 8635 2abe
000003f0: b2f5 0abc 09fa 703d 9165 153e 7130 283d
0.11058588 -0.19673681 0.17186224 -0.24609055 0.09519127 -0.08308929 0.090805076 -0.012027054
-0.238482 -0.018694218 -0.23593299 0.024600502 0.04534621 -0.032606497 -0.1138269 -0.15349048
0.22050011 0.20795736 0.13178265 0.0014744626 -0.13428695 -0.15076824 -0.16395615 -0.04482411
-0.24002121 -0.039532196 -0.12790094 -0.08237467 0.057021003 0.23643975 0.05977133 0.04959129
0.21766607 -0.17850965 0.13787663 0.009281142 0.08037378 -0.038997576 -0.09347699 0.04455234
0.032831714 0.100669324 0.029393943 -0.21181588 0.07896026 0.11364412 0.24574639 0.14785933
0.039073598 -0.1217982 -0.092756286 0.2149604 -0.18284194 -0.17243618 0.010514147 -0.13078508
-0.23303437 0.22755569 0.24529105 -0.20700568 0.24202318 0.049229972 0.15141456 0.23459597
0.013085837 -0.0585776 0.13045174 -0.14255595 -0.102468155 0.11237806 -0.12184717 0.14811376
0.23676118 -0.16099003 0.18546653 -0.16634265 0.06972111 -0.22132662 -0.17180192 -0.116233364
0.24201526 -0.16870229 -0.19479074 0.12731089 0.14983684 0.19425385 -0.04447134 -0.0047290386
-0.23573484 0.21316731 0.11210541 -0.05976674 0.033560913 0.114004366 -0.02652 -0.06396956
-0.1550388 -0.21512648 -0.19820414 0.15747865 0.110835806 -0.03835921 0.005647482 0.045161407
0.093126364 -0.18246241 0.08028518 -0.175606 0.1818019 -0.031097136 -0.14497323 -0.028006474
-0.18215413 -0.02128355 0.21085207 0.062163517 -0.10065526 0.15771218 0.14858383 -0.017835021
-0.16467549 -0.19942059 -0.16284083 0.14201212 0.060719006 -0.048572596 -0.007832548 -0.23845184
0.21187632 -0.07215619 0.14154875 -0.19530407 0.2263326 -0.22818129 0.015816906 -0.18251713
0.11731351 0.13284902 -0.05897439 -0.1278732 -0.084459506 -0.17685504 -0.039380502 -0.22037205
-0.12684889 0.04114193 -0.15820752 0.04098857 0.07576067 0.12392221 -0.18786927 0.24248977
0.22613356 -0.10544521 -0.23149592 -0.14351106 -0.093922265 -0.21829031 0.1562281 0.038075615
-0.047002647 -0.041486114 0.023524912 -0.10519529 -0.030391838 -0.1290489 0.05836595 -0.147484
-0.1636023 -0.1459973 -0.05274755 -0.24634816 0.055695135 0.047795445 0.19251828 -0.100095905
0.045500886 -0.2335251 0.17898029 0.14707635 -0.21929896 -0.1093741 -0.0201581 -0.11578287
0.11324847 0.18347117 -0.027115656 0.04419454 -0.17795554 -0.20797655 -0.122100875 0.13694796
0.20481952 0.06563437 -0.10888692 -0.16970469 0.2274633 -0.046886716 -0.184059 -0.028196909
0.062494114 0.16385795 -0.03247638 -0.17283243 0.03921018 -0.087935515 0.09470993 -0.11996534
-0.19670945 0.16158652 -0.18578735 0.14940381 -0.04510845 0.1970967 -0.17075332 -0.0045938264
-0.18165435 -0.018994564 0.23305178 -0.016703015 -0.045747858 0.20925379 0.12267189 -0.03719335
-0.09462428 0.21620639 -0.2120976 -0.014830485 -0.16946466 0.24489409 -0.03879501 0.109324
-0.24033044 -0.13121352 0.00066432025 0.04657999 0.05401161 -0.039515536 0.0069109155 0.20644765
0.19359119 -0.07128221 0.10762128 0.21190186 -0.100455284 -0.2123702 0.17249402 -0.0094263675
-0.022139527 -0.1372005 0.10504825 -0.1662198 -0.00848143 0.058832202 0.14589526 0.041061822

arith.constant39 f4 [1, 3, 1, 16]
00000000: d8da 073f d963 ba3d 5433 043e 6077 ee3d
00000010: 1b3d a8bc 4812 d4bd 6841 7b3d 28f2 b9be
00000020: d49a 0d3f 3846 a53d cb36 923e 6325 373e
00000030: 494a 16bd 3ca7 0dbf 8afa d4be b316 e83e
00000040: 4fdb 06bf a24b 3e3e 85b9 313e f032 96be
00000050: 7177 db3e 8359 583d 3534 6abe 7ce3 cfbe
00000060: 3bff 15be e9ef abbe ed46 d83e ae9f ffbe
00000070: 8279 8dbe d3b6 943e 4aac d4bd 51de 0ebf
00000080: 65d0 0a3e c919 793e 326f a6be 3fb1 b8bd
00000090: 7bb1 3e3e ab18 183d 83cb 0abf faa4 3cbe
000000a0: 2171 e6be 5aa4 123e 0f74 a7be 456f 393e
000000b0: 8e71 f3be 380b c4be 4b41 0d3f 4a94 033f
0.53068304 0.09101076 0.12910205 0.11643863 -0.02053695 -0.10355049 0.061341673 -0.36317563
0.55314374 0.08070034 0.2855743 0.17885356 -0.036691938 -0.55333304 -0.41597396 0.45329818
-0.5267839 0.18583539 0.17355926 -0.29335737 0.42864564 0.05281974 -0.22871478 -0.40603244
-0.14648144 -0.33581474 0.42241612 -0.49926513 -0.27631766 0.29045734 -0.10384424 -0.5580798
0.13556059 0.24326243 -0.3250671 -0.09018182 0.18622391 0.0371329 -0.54216784 -0.18422309
-0.45008186 0.14320508 -0.32705733 0.18108852 -0.47547573 -0.3828981 0.55177754 0.51398146
