gtcrn_micro/models/tflite/gtcrn_s3_dynamic_range_quant.tflite (tflite, 85512 bytes, 48 tensors)

arith.constant10 f4 [16]
0.99999493 0.99999493 0.99999493 0.99999493 0.99999493 0.99999493 0.99999493 0.99999493
0.99999493 0.99999493 0.99999493 0.99999493 0.99999493 0.99999493 0.99999493 0.99999493
00000000: abff 7f3f abff 7f3f abff 7f3f abff 7f3f
00000010: abff 7f3f abff 7f3f abff 7f3f abff 7f3f
00000020: abff 7f3f abff 7f3f abff 7f3f abff 7f3f
00000030: abff 7f3f abff 7f3f abff 7f3f abff 7f3f

arith.constant11 f4 [2]
0.999995 0.999995
00000000: acff 7f3f acff 7f3f

arith.constant28 f4 [16, 1, 5, 3]
-0.17125803 0.037905447 0.06052125 -0.009159194 -0.17997876 0.2368673 -0.18867359 -0.03774709
-0.06592912 0.11252637 -0.09472099 -0.12724888 0.16141823 0.045247294 0.09180641 -0.056585774
0.059692726 0.15585199 0.16915128 -0.1766922 -0.16500439 0.2529912 -0.068207055 0.091758795
0.21918595 -0.21682726 0.00023607917 0.095858544 -0.040606692 0.2330215 -0.15958048 -0.252346
0.10326004 0.13713875 0.10370271 0.09934257 -0.066379055 -0.20628056 -0.19711103 -0.2296038
0.116544776 -0.03907147 -0.1664512 0.21081841 0.15082577 -0.21248591 -0.062545374 0.2459188
-0.24180663 -0.17266649 -0.036997944 -0.12577932 0.20634092 0.19289581 0.068310015 -0.23330519
-0.1777616 0.18468463 0.25704262 0.25365874 -0.032972444 0.20931703 0.19641669 -0.08924322
0.024855781 0.19651516 0.10732442 0.034033105 0.21621972 0.12045593 -0.07904722 -0.11003887
0.05819847 -0.14346164 -0.25466716 0.24810687 -0.051865574 0.090546146 -0.18029146 -0.25552484
0.02498764 0.13419387 -0.025632318 -0.1576111 -0.1354801 -0.09043565 -0.06371813 -0.12948513
-0.058064703 0.22017644 -0.14302972 -0.21891792 0.0829034 -0.05444324 -0.07155384 0.038273606
-0.17650005 0.12639754 -0.21808939 0.25618136 0.11678667 -0.029389702 0.24436077 -0.18933216
0.093408585 -0.21375743 0.059898052 0.0462368 0.075358406 0.08964862 -0.23830669 0.14417872
0.068367355 -0.045883816 0.06280349 0.058739513 -0.031643625 -0.06300753 -0.058926467 0.15920979
0.06531621 0.13739485 0.07276412 0.21525356 -0.030906579 0.10137938 -0.005194265 0.16244754
0.18786475 -0.01824424 0.18941422 0.060065616 -0.03130856 -0.22244622 -0.00893909 -0.22041044
-0.21842279 0.13791431 0.23284999 0.020079471 -0.2170168 -0.25032613 0.050570525 -0.1931959
-0.061554056 0.088068455 -0.1736405 -0.13366713 0.06815304 -0.08057905 0.047453787 0.2298122
-0.054401074 0.082702495 -0.20014755 0.059238262 -0.24319176 -0.12591034 0.16768469 0.044595137
-0.0994668 0.022873148 -0.13380487 -0.18550722 0.23873584 0.09990538 0.06322548 0.13008764
-0.00810564 0.15937248 -0.03471844 -0.18561748 -0.029085169 -0.053032767 -0.18406285 -0.021726795
-0.0293411 0.036697723 0.079188645 0.1155183 0.16070752 0.088561475 0.047103304 0.05776635
0.1676392 -0.08974074 0.080240324 -0.24109589 -0.096733116 0.111340225 0.037461672 -0.03829829
0.15793234 0.011183134 -0.19616123 0.10578926 0.2179999 0.18810911 -0.050681394 0.18699276
0.21066812 0.119624145 0.23216012 0.0108884815 -0.1762366 0.042333055 0.049137216 0.04117827
-0.15777385 -0.102953635 0.07105829 -0.2429265 0.0064567807 -0.058601834 -0.23349218 -0.20411712
-0.13125208 0.14968427 -0.121339425 -0.24697198 -0.037840597 -0.08365371 0.19272779 0.013494401
-0.20107672 -0.23476814 -0.04506308 -0.24023268 -0.22549863 0.04720943 0.07104136 -0.20879257
-0.03773973 -0.06442872 0.103183344 -0.22064519 -0.06416465 -0.19202054 -0.1719768 -0.17910735
00000000: 445e 2fbe be42 1b3d 21e5 773d 7210 16bc
00000010: 5a4c 38be 578d 723e a633 41be b19c 1abd
00000020: d905 87bd 3a74 e63d 14fd c1bd 884d 02be
00000030: d24a 253e 3a55 393d 0005 bc3d 7cc6 67bd
00000040: 5c80 743d aa97 1f3e fe35 2d3e cdee 34be
00000050: e9f6 28be 1088 813e 24b0 8bbd 09ec bb3d
00000060: 4872 603e f707 5ebe 058c 7739 7c51 c43d
00000070: 3453 26bd 309d 6e3e 1169 23be 7f33 81be
00000080: 007a d33d 1a6e 0c3e 1662 d43d 1e74 cb3d
00000090: bef1 87bd 363b 53be 79d7 49be 421d 6bbe
000000a0: 07af ee3d 6809 20bd 2f72 2abe c8e0 573e
000000b0: 1272 1a3e e895 59be ca17 80bd 23d2 7b3e
000000c0: 289c 77be 7ccf 30be 288b 17bd 4bcc 00be
000000d0: 094b 533e 7b86 453e 1fe6 8b3d 8ee7 6ebe
000000e0: 2307 36be f81d 3d3e 179b 833e 8fdf 813e
000000f0: 1d0e 07bd 3457 563e 7521 493e 26c5 b6bd
00000100: 5a9e cb3c 453b 493e e8cc db3d 4c66 0b3d
00000110: b468 5d3e 99b1 f63d 82e3 a1bd 0f5c e1bd
00000120: 8561 6e3d 9ce7 12be bc63 82be ba0f 7e3e
00000130: ff70 54bd 4270 b93d 539e 38be 27d4 82be
00000140: e1b2 cc3c 1e6a 093e defa d1bc ce64 21be
00000150: 4cbb 0abe 5336 b9bd a77e 82bd c097 04be
00000160: 41d5 6dbd ef75 613e 6276 12be 052c 60be
00000170: 42c9 a93d e0ff 5ebd d28a 92bd c9c4 1c3d
00000180: 6ebc 34be 5b6e 013e d352 5fbe 342a 833e
00000190: da2d ef3d acc2 f0bc b639 7a3e 4ae0 41be
000001a0: 004d bf3d 3ae3 5abe a957 753d cc62 3d3d
000001b0: 8255 9a3d b299 b73d ab06 74be 96a3 133e
000001c0: 2f04 8c3d abf0 3bbd 1e9f 803d d898 703d
000001d0: bf9c 01bd 180a 81bd e15c 71bd e407 233e
000001e0: 81c4 853d 3cb1 0c3e 5b05 953d 6e6b 5c3e
000001f0: cb2f fdbc fe9f cf3d a734 aabb a658 263e
00000200: 9e5f 403e f274 95bc cdf5 413e 5d07 763d
00000210: 683d 00bd f1c8 63be 4375 12bc 46b3 61be
00000220: 39aa 5fbe 6939 0d3e 3a70 6e3e b47d a43c
00000230: a739 5ebe bf2a 80be 0a23 4f3d 25d5 45be
00000240: 1b20 7cbd 3c5d b43d d1ce 31be 09e0 08be
00000250: d293 8b3d a106 a5bd e75e 423d e453 6b3e
00000260: a9d3 5ebd ed5f a93d 7bf3 4cbe d2a3 723d
00000270: 4307 79be a4ee 00be 89b5 2b3e 64a9 363d
00000280: 40b5 cbbd 7860 bb3c 2504 09be 9bf5 3dbe
00000290: 2b77 743e 319b cc3d 5c7c 813d b235 053e
000002a0: 85cd 04bc 8a32 233e ec34 0ebd 8212 3ebe
000002b0: 0544 eebc e338 59bd f97a 3cbe 64fc b1bc
000002c0: bf5c f0bc 5a50 163d a82d a23d dc94 ec3d
000002d0: 8390 243e b85f b53d 65ef 403d 699c 6c3d
000002e0: 9ca9 2b3e fec9 b7bd 0a55 a43d d7e1 76be
000002f0: 031c c6bd 5806 e43d 6971 193d abde 1cbd
00000300: 04b9 213e 7739 373c 7dde 48be 0aa8 d83d
00000310: 5e3b 5f3e ad9f 403e 4b97 4fbd 087b 3f3e
00000320: 62b9 573e 81fd f43d 62bb 6d3e 9a65 323c
00000330: 5e77 34be 6d65 2d3d 1b44 493d 8caa 283d
00000340: 788f 21be 5bd9 d2bd 0287 913d b9c1 78be
00000350: 6793 d33b 7a08 70bd 9318 6fbe 1404 51be
00000360: f266 06be d546 193e ce80 f8bd 39e6 7cbe
00000370: befe 1abd a352 abbd 6f5a 453e 9f17 5d3c
00000380: 0ee7 4dbe 0f67 70be 1094 38bd 8eff 75be
00000390: 1de9 66be ad5e 413d 227e 913d b8cd 55be
000003a0: fa94 1abd 34f3 83bd ca51 d33d d0f0 61be
000003b0: c268 83bd 08a1 44be b01a 30be eb67 37be

arith.constant29 f4 [16, 1, 1, 8]
0.21726523 -0.27808586 -0.28150308 0.028768241 0.19487679 -0.1570059 0.07858253 0.1520405
0.3486169 -0.03706548 -0.18921567 0.028288359 0.20527717 0.2589935 0.28304017 -0.30122656
0.17934503 0.28066903 0.10236904 0.31030813 0.116831735 0.3146595 0.0026890396 0.35191274
-0.15107618 0.11179855 0.23738942 0.23434217 -0.2597363 -0.23183158 0.03511502 0.33283707
0.034343526 -0.09813878 -0.27430284 0.030687094 0.17732611 0.07235772 0.14245617 0.087721646
-0.21893832 -0.17683925 0.30815092 -0.060630087 0.15789638 -0.10532031 0.29272154 -0.08074394
0.322018 0.09133113 -0.33594745 0.32579708 0.3039302 -0.14952013 0.16249622 0.09717683
0.1477498 0.0012544104 -0.14039074 -0.19466083 0.2676164 -0.18915494 -0.0798656 0.29536757
0.085100554 0.30698976 0.1347611 -0.32268244 0.1810276 -0.23891458 -0.29276368 0.15204526
-0.11061124 -0.16491608 -0.05846463 0.06108502 0.35078114 -0.28917733 -0.27959052 -0.16914448
-0.32435858 0.0609225 -0.32729658 0.19822516 -0.32658935 0.21979117 -0.12736149 0.07732555
-0.14046565 0.12407831 0.2500613 -0.28979227 0.015475276 -0.07994517 0.076132886 0.17251621
0.035383113 0.050867494 -0.19677018 0.30574793 -0.26564252 -0.24263021 -0.20409457 0.03965396
-0.3189278 -0.24450815 0.29021698 -0.22633393 -0.3105113 0.00493554 0.31542918 0.2804434
0.26437452 -0.26812008 0.21118416 0.34671488 0.0022049013 -0.3032963 0.094420314 0.34433854
-0.14215992 -0.27535963 -0.102580786 -0.25812012 -0.042733993 0.30828768 -0.12294996 -0.08096036
00000000: c77a 5e3e 4561 8ebe 2c21 90be 60ab eb3c
00000010: c88d 473e 28c6 20be e1ef a03d 81b0 1b3e
00000020: ea7d b23e f9d1 17bd c1c1 41be fdbc e73c
00000030: 2e34 523e cc9a 843e a4ea 903e 5e3a 9abe
00000040: 39a6 373e dab3 8f3e dca6 d13d b5e0 9e3e
00000050: 7a45 ef3d 0d1b a13e 993a 303b e82d b43e
00000060: b7b3 1abe a3f6 e43d 3616 733e 65f7 6f3e
00000070: 28fc 84be 4265 6dbe c4d4 0f3d 9f69 aa3e
00000080: ccab 0c3d fcfc c8bd 6c71 8cbe 8063 fb3c
00000090: fa94 353e 4930 943d 08e0 113e 68a7 b33d
000000a0: 5e31 60be 5915 35be f5c5 9d3e 4157 78bd
000000b0: 97af 213e 2db2 d7bd 99df 953e 145d a5bd
000000c0: 8bdf a43e d10b bb3d 4e01 acbe e0ce a63e
000000d0: bd9c 9b3e ce1b 19be 6965 263e a504 c73d
000000e0: b94b 173e 076b a43a 97c2 0fbe 2b55 47be
000000f0: 0405 893e d5b1 41be 9390 a3bd 6b3a 973e
00000100: 3349 ae3d c32d 9d3e d0fe 093e a236 a5be
00000110: 4d5f 393e 06a6 74be 1fe5 95be c1b1 1b3e
00000120: 2588 e2bd c3df 28be 9c78 6fbd 4934 7a3d
00000130: 9699 b33e 0d0f 94be 7d26 8fbe 3634 2dbe
00000140: 5412 a6be df89 793d 6b93 a7be 89fb 4a3e
00000150: b836 a7be f010 613e 0d6b 02be dc5c 9e3d
00000160: 3ad6 0fbe c51c fe3d 0908 803e a75f 94be
00000170: 038c 7d3c 4bba a3bd 8feb 9b3d 17a8 303e
00000180: e2ed 103d 6f5a 503d 1f7e 49be fe8a 9c3e
00000190: 4c02 88be 0e74 78be 2bfe 50be 316c 223d
000001a0: 814a a3be 5860 7abe 5297 943e 15c4 67be
000001b0: 56fb 9ebe 4fba a13b ef7f a13e 4796 8f3e
000001c0: 195c 873e 0947 89be a940 583e 9d84 b13e
000001d0: 1b80 103b a749 9bbe 705f c13d 244d b03e
000001e0: 5f92 11be f0fb 8cbe e015 d2bd 5228 84be
000001f0: d709 2fbd e2d7 9d3e 30cd fbbd 8cce a5bd

arith.constant30 f4 [1, 3, 3, 16]
-0.3223768 -0.063537516 0.1611419 -0.24465837 -0.2657298 0.1636257 -0.00045033073 -0.19051096
0.031636994 -0.10712081 -0.1870423 -0.3093382 -0.20560023 0.06398638 -0.064024925 -0.13126479
0.21177326 0.2988971 0.0577284 0.0150769595 -0.13479063 0.07280711 -0.30921525 0.13376416
0.11516009 -0.14775774 -0.2609181 -0.041198764 -0.13279824 0.29346374 -0.2826575 0.100561194
-0.056831874 0.18444136 -0.21021539 -0.051421784 0.052121855 0.20911904 -0.27712563 0.22111294
0.29618645 -0.09902241 0.27364457 0.30088925 0.1264152 -0.1160499 0.1479811 -0.17240705
-0.21516752 0.1943753 -0.22128786 -0.24284801 0.17183293 -0.15463665 -0.10863953 0.30549824
-0.19905047 0.15300675 0.0042315116 0.02233196 0.23678172 -0.18361259 -0.02125634 0.06148423
0.08520688 -0.1501432 -0.02633026 0.09102001 -0.06259049 -0.03656242 -0.18223004 0.089338094
-0.15162301 0.25638923 0.20926245 -0.33229908 0.112744406 -0.111736774 0.15665258 -0.15430366
-0.18720986 0.22458024 0.31661358 -0.14270076 -0.1564016 0.06304575 -0.30318603 -0.11382603
0.19812231 -0.31516236 -0.104597844 0.2842672 0.21617153 0.16665241 -0.31170237 -0.02582887
0.28507203 0.24862042 0.10276334 -0.27246422 -0.08427983 -0.22135359 -0.14689131 0.2775745
0.054492522 -0.20481083 -0.1670278 -0.12399497 -0.19897012 0.26612097 -0.30210137 -0.32370928
0.17401558 0.18887712 0.06208552 -0.2733764 -0.08055091 0.25338146 -0.26317653 0.27668396
-0.083556876 -0.11296943 -0.121456176 0.019232733 -0.08897129 0.049223892 0.25939545 0.25727832
0.19447008 -0.1246828 -0.21298966 0.29983404 -0.28415906 0.02446989 -0.009357367 -0.13809803
0.20630555 0.091971174 0.100334704 0.10868527 0.22722004 0.13993448 0.01731228 0.09919634
00000000: 920e a5be f51f 82bd 6202 253e b987 7abe
00000010: bd0d 88be 7f8d 273e 5e1a ecb9 4e15 43be
00000020: cb95 013d 2862 dbbd 0488 3fbe 9461 9ebe
00000030: de88 52be 4b0b 833d 801f 83bd 476a 06be
00000040: 17db 583e 0a09 993e 9d74 6c3d 5a05 773c
00000050: 8e06 0abe e51b 953d 7651 9ebe 79f9 083e
00000060: 0ed9 eb3d ce4d 17be 0f97 85be 09c0 28bd
00000070: 43fc 07be e140 963e 7cb8 90be 07f3 cd3d
00000080: 8ac8 68bd 32de 3c3e b442 57be a69f 52bd
00000090: ba7d 553d 4d23 563e 69e3 8dbe 6e6b 623e
000000a0: c0a5 973e 43cc cabd 241b 8c3e 280e 9a3e
000000b0: fc72 013e 92ab edbd 5c88 173e 798b 30be
000000c0: e054 5cbe 520a 473e 4999 62be 26ad 78be
000000d0: f9f4 2f3e 1259 1ebe 677e debd 446a 9c3e
000000e0: e3d3 4bbe cdad 1c3e 7ea8 8a3b 84f1 b63c
000000f0: e876 723e f004 3cbe c721 aebc e3d6 7b3d
00000100: f280 ae3d 24bf 19be 8fb2 d7bc b368 ba3d
00000110: 712f 80bd 7ac2 15bd 839a 3abe e4f6 b63d
00000120: 1043 1bbe 7345 833e e548 563e 1b23 aabe
00000130: 8ae6 e63d 40d6 e4bd 8969 203e c701 1ebe
00000140: f1b3 3fbe 5df8 653e 2d1b a23e 2620 12be
00000150: be27 20be 211e 813d 333b 9bbe 9f1d e9bd
00000160: 93e0 4a3e f65c a1be 6537 d6bd 788b 913e
00000170: 125c 5d3e eea6 2a3e 7497 9fbe 1197 d3bc
00000180: f6f4 913e 5a96 7e3e 9675 d23d 6e80 8bbe
00000190: e79a acbd 84aa 62be ad6a 16be 3f1e 8e3e
000001a0: 8d33 5f3d eeb9 51be 5609 2bbe 13f1 fdbd
000001b0: d3be 4bbe 0241 883e 08ad 9abe 39bd a5be
000001c0: 2431 323e 0169 413e 634d 7e3d fef7 8bbe
000001d0: e0f7 a4bd 37bb 813e 13bf 86be 85a9 8d3e
000001e0: de1f abbd 845c e7bd 04be f8bd f78d 9d3c
000001f0: 9436 b6bd fe9e 493d 7bcf 843e fcb9 833e
00000200: 2a23 473e b259 ffbd f619 5abe d983 993e
00000210: 4c7d 91be 1475 c83c a44f 19bc 9269 0dbe
00000220: c341 533e 625b bc3d 487c cd3d 6296 de3d
00000230: 5fac 683e fc4a 0f3e 7cd2 8d3c 7327 cb3d

arith.constant31 f4 [8, 1, 1, 16]
-0.10001043 0.015998105 -0.008088996 -0.00913675 -0.23151085 -0.019591978 0.16296764 -0.13918604
0.24910888 -0.13125432 -0.032453433 -0.0021080866 -0.14969912 0.10303765 -0.17772827 0.19259472
0.15793206 -0.08265546 -0.053798616 0.10779402 -0.116787806 0.047339827 -0.13389613 -0.057745524
0.14531656 -0.18331784 0.0020314949 -0.116258666 0.012298135 0.17151439 0.0039461358 0.052574042
0.2474687 0.01563571 -0.076432176 -0.21322677 0.067619346 0.23922583 0.16609997 0.19284628
0.096309744 0.00970773 -0.11919677 -0.12613949 0.08852435 -0.18965843 0.2413188 0.058585975
0.08724619 0.03181987 -0.23459543 0.06456534 0.15874697 -0.2446652 -0.2156646 0.21469781
0.054200765 -0.14063062 -0.22063735 0.023168925 0.23703972 0.14568616 -0.15615636 0.13267638
-0.08658312 0.036786314 -0.03851123 0.07102102 0.01676566 -0.036849223 -0.23311958 0.028987203
-0.049013726 -0.10740581 -0.2234943 -0.06371004 -0.19534579 -0.16332556 -0.11824901 -0.061784018
0.19521001 -0.028286256 0.05644472 -0.09488693 -0.0010509439 0.0035571577 -0.11581175 -0.011581482
-0.19069102 0.08415454 0.20097142 0.010680712 0.18458149 -0.2110049 -0.12861542 0.112938195
-0.1235301 -0.05435955 0.19395064 -0.045441967 0.13435824 -0.0117439935 0.024905497 0.18791248
-0.00032469467 -0.10387947 0.116029754 -0.10518513 0.08097534 0.22228415 -0.23716259 0.082560994
-0.14557396 0.0130317155 -0.14871255 0.20618542 -0.24825086 0.05580472 0.13534607 -0.17331061
0.13737896 0.078588955 0.08959019 0.04338222 -0.0735605 0.07378183 0.08825267 -0.097407185
00000000: 45d2 ccbd 750e 833c b587 04bc 4fb2 15bc
00000010: 2e11 6dbe 5b7f a0bc fde0 263e c986 0ebe
00000020: 6616 7f3e 8867 06be e4ed 04bd d327 0abb
00000030: ba4a 19be 6705 d33d 66fe 35be 8d37 453e
00000040: f1b8 213e 4447 a9bd f05b 5cbd 1cc3 dc3d
00000050: 722e efbd 68e7 413d 111c 09be 9286 6cbd
00000060: ddcd 143e acb7 3bbe d422 053b 0619 eebd
00000070: 1e7e 493c 78a1 2f3e 964e 813b e157 573d
00000080: 6f68 7d3e 7616 803c 7988 9cbd 1e58 5abe
00000090: 037c 8a3d 9ef7 743e 1c16 2a3e 7f79 453e
000000a0: 0b3e c53d 2c0d 1f3c 701d f4bd b62a 01be
000000b0: 414c b53d d235 42be 471c 773e d9f7 6f3d
000000c0: 21ae b23d 8d55 023d c939 70be d53a 843d
000000d0: 918e 223e 8489 7abe 2ed7 5cbe bed9 5b3e
000000e0: 9f01 5e3d 7901 10be c2ee 61be c2cc bd3c
000000f0: 8aba 723e c12e 153e 74e7 1fbe 51dc 073e
00000100: 7e52 b1bd 3fad 163d f4bd 1dbd 7873 913d
00000110: 2358 893c 36ef 16bd e6b6 6ebe 9276 ed3c
00000120: 9ec2 48bd 94f7 dbbd b1db 64be 697a 82bd
00000130: ba08 48be d13e 27be 892c f2bd 3d11 7dbd
00000140: 22e5 473e 94b8 e7bc 9432 673d 1454 c2bd
00000150: d3bf 89ba 341f 693b b62e edbd 42c0 3dbc
00000160: 8244 43be 3759 ac3d 74cb 4d3e 27fe 2e3c
00000170: ee02 3d3e ab11 58be c3b3 03be 244c e73d
00000180: 59fd fcbd 1fa8 5ebd ff9a 463e 5b21 3abd
00000190: 3595 093e e169 40bc 9d06 cc3c 216c 403e
000001a0: c83b aab9 c2be d4bd 02a1 ed3d 4d6b d7bd
000001b0: 66d6 a53d 759e 633e c0da 72be bd15 a93d
000001c0: 5711 15be fa82 553c 1a48 18be 4522 533e
000001d0: 7935 7ebe 7d93 643d 2998 0a3e 5678 31be
000001e0: 12ad 0c3e 3ff3 a03d 107b b73d 8eb1 313d
000001f0: e3a6 96bd ee1a 973d d1bd b43d 6b7d c7bd

arith.constant32 f4 [16, 1, 1, 8]
-0.29234833 0.10333104 -0.0403482 0.2733285 0.101621486 0.13968453 0.0438038 0.094299436
0.07236105 -0.19268309 0.14587566 0.1529757 -0.21286403 0.29569572 -0.04201847 -0.1127345
-0.3386704 0.042003214 0.31134614 0.26858845 0.042708665 0.15593565 -0.08288233 -0.083616614
0.3518532 -0.18787825 0.34669694 0.33210918 -0.095853046 -0.15141714 0.18529141 -0.13581833
0.2745953 0.14235519 -0.3387568 -0.29380843 -0.30517066 0.2677922 0.024288854 0.09731389
-0.014392824 0.2826494 -0.32406446 -0.23938198 -0.2365671 -0.0077806907 -0.031835165 -0.07503952
0.08367022 -0.27915192 0.16779993 0.3483671 0.21992575 -0.15385132 0.19205792 -0.22973166
0.14307587 0.0006630088 -0.09353569 0.20676795 0.13960887 0.053724065 0.2936027 -0.032401826
0.06821345 -0.14266223 0.123330206 -0.34665996 -0.22992407 0.23511977 -0.200848 -0.102965586
-0.1370341 -0.26750124 0.019981382 -0.33387482 0.31330582 0.052894577 -0.04467451 -0.32506242
-0.18438783 -0.29722163 -0.027039807 -0.015515569 0.09080367 0.2474166 -0.21248564 0.16089782
-0.21923934 0.0033805396 -0.015237948 -0.31413227 0.3203914 0.1831308 0.08783692 -0.16677044
0.07298436 -0.12785266 0.23967911 0.027825335 0.025937082 -0.068128265 0.102372155 0.16853154
-0.22991021 -0.073307715 0.08183541 0.00474196 -0.16471577 -0.14678177 -0.0520728 0.06983946
0.0038092972 -0.019559199 -0.0203151 0.19983888 0.16777211 -0.014574181 -0.342748 0.22445841
0.32064444 -0.20427324 -0.30980498 0.09910111 0.25769 0.18809871 0.13634475 0.33989775
00000000: aeae 95be 399f d33d 2744 25bd b7f1 8b3e
00000010: ed1e d03d 7609 0f3e 9d6b 333d 1020 c13d
00000020: 0832 943d b74e 45be 6e60 153e a9a5 1c3e
00000030: 07f9 59be 6e65 973e 8f1b 2cbd 58e1 e6bd
00000040: 3566 adbe 900b 2c3d c368 9f3e 6d84 893e
00000050: 48ef 2e3d 98ad 1f3e 36be a9bd 303f abbd
00000060: 1a26 b43e 2863 40be 4382 b13e 370a aa3e
00000070: 9a4e c4bd 180d 1bbe 08bd 3d3e f613 0bbe
00000080: c197 8c3e 8fc5 113e 8871 adbe 0f6e 96be
00000090: 543f 9cbe 0f1c 893e 6bf9 c63c 814c c73d
000000a0: e1cf 6bbc 6cb7 903e c7eb a5be 8d20 75be
000000b0: a53e 72be 2af5 febb 9765 02bd 52ae 99bd
000000c0: 4b5b ab3d 00ed 8ebe bfd3 2b3e 2c5d b23e
000000d0: 3734 613e 338b 1dbe d5aa 443e c73e 6bbe
000000e0: 7b82 123e c4cd 2d3a a48f bfbd faba 533e
000000f0: a1f5 0e3e c40d 5c3d 1853 963e c7b7 04bd
00000100: 7eb3 8b3d 0c16 12be 8c94 fc3d 6a7d b1be
00000110: 3771 6bbe 3dc3 703e 19ab 4dbe 9fdf d2bd
00000120: ab52 0cbe ecf5 88be ffaf a33c a4f1 aabe
00000130: 9f69 a03e fca7 583d 9efc 36bd 956e a6be
00000140: 2ad0 3cbe 6f2d 98be 9682 ddbc 0335 7ebc
00000150: 46f7 b93d c75a 7d3e d695 59be 66c2 243e
00000160: 4780 60be 0b8c 5d3b 96a8 79bc f2d5 a0be
00000170: 570a a43e a486 3b3e d8e3 b33d dfc5 2abe
00000180: d378 953d cfeb 02be 716e 753e f5f1 e33c
00000190: 017a d43c d586 8bbd 7ea8 d13d 8893 2c3e
000001a0: 956d 6bbe 5b22 96bd 5399 a73d 7262 9b3b
000001b0: 40ab 28be f64d 16be 4a4a 55bd fe07 8f3d
000001c0: 67a5 793b 9d3a a0bc da6b a6bc 90a2 4c3e
000001d0: 74cc 2b3e 8cc8 6ebc aa7c afbe 6dd8 653e
000001e0: 822b a43e 012d 51be c29e 9ebe 86f5 ca3d
000001f0: f2ef 833e f39c 403e f59d 0b3e 1407 ae3e

arith.constant33 f4 [1, 3, 3, 16]
-0.21209973 -0.14067565 -0.2229027 -0.047114536 -0.05071853 0.029624235 0.31084764 -0.2621152
0.27208936 0.17595582 -0.1429019 0.07017613 -0.077117816 0.22894253 0.19467016 -0.12247053
0.04576958 -0.020392872 -0.114054985 -0.2791249 0.33098137 -0.24023078 -0.17289537 -0.25169864
0.04927154 0.22991945 -0.24850349 -0.11088526 -0.05831459 0.17363638 -0.112743095 0.12785387
-0.15314059 0.15032764 -0.03716375 0.30658573 0.07058049 -0.035606526 0.267944 0.03896865
0.09026466 -0.09535166 0.035292372 0.026833123 -0.06947264 -0.26534596 -0.30223122 0.10665133
0.04799139 -0.09920806 0.12307856 -0.029814016 -0.10295995 -0.2259188 0.08521654 -0.18156771
-0.29768074 0.16336673 -0.18543747 0.023023292 -0.24588346 -0.27923405 0.111063994 0.030785764
0.10035529 -0.27268255 0.06850976 0.29055896 0.19552888 -0.17261511 -0.19314454 0.10330654
-0.22864744 -0.046419073 -0.004438895 0.1896908 0.21132408 0.32934448 -0.32513785 0.07796003
0.020973023 -0.26518932 0.29684013 -0.23754764 0.2144727 0.24456209 0.21589957 0.31044015
-0.15608488 0.10608084 -0.08355163 -0.010213324 0.090754256 0.040198404 -0.028890505 -0.1584708
-0.0058731344 -0.13444759 -0.16182458 0.25256968 -0.10359923 -0.2632856 -0.2825793 -0.15706699
-0.023306014 -0.15326774 -0.1161624 0.20006864 0.044687882 -0.20105618 0.2353711 -0.0374816
0.085041575 -0.2927584 0.15882613 0.27290443 -0.30358467 -0.17877203 -0.31299585 -0.27238113
0.19840749 -0.16092446 -0.18787609 -0.022739934 0.049081676 -0.058940116 -0.20544085 -0.099394344
-0.20042169 0.30839622 -0.109740265 0.083198175 0.0063807643 0.30461702 -0.16882613 -0.27598706
-0.18558088 0.064679064 -0.29864323 -0.27671567 0.06755788 0.33309406 0.13174799 0.23493554
00000000: ac30 59be 470d 10be 9b40 64be 2cfb 40bd
00000010: 3cbe 4fbd 86ae f23c 6c27 9f3e f733 86be
00000020: 4c4f 8b3e c32d 343e e054 12be 81b8 8f3d
00000030: f2ef 9dbd e96f 6a3e 9d57 473e d4d1 fabd
00000040: e278 3b3d f40e a7bc a995 e9bd 75e9 8ebe
00000050: 6476 a93e 0fff 75be 7c0b 31be a5de 80be
00000060: f4d0 493d 0170 6b3e b377 7ebe d017 e3bd
00000070: 48db 6ebd bccd 313e dae5 e6bd 20ec 023e
00000080: e3d0 1cbe 7def 193e 0439 18bd cef8 9c3e
00000090: 818c 903d 26d8 11bd f52f 893e 979d 1f3d
000000a0: aedc b83d bb47 c3bd bc8e 103d 23d1 db3c
000000b0: ac47 8ebd 6ddb 87be 0dbe 9abe 036c da3d
000000c0: 9f92 443d 982d cbbd 9d10 fc3d 863c f4bc
000000d0: abdc d2bd 4257 67be 0286 ae3d e3ec 39be
000000e0: 9c69 98be 9c49 273e 52e3 3dbe 589b bc3c
000000f0: e0c8 7bbe c4f7 8ebe 8575 e33d 6d32 fc3c
00000100: 1387 cd3d 0c9d 8bbe d84e 8c3d 25c4 943e
00000110: b938 483e 04c2 30be afc7 45be 6192 d33d
00000120: 8e22 6abe ed21 3ebd 2674 91bb 4e3e 423e
00000130: 5765 583e d79f a83e 7878 a6be 82a9 9f3d
00000140: 9ecf ab3c e5c6 87be 6efb 973e b03f 73be
00000150: bb9e 5b3e 7c6e 7a3e c714 5d3e 03f2 9e3e
00000160: b7d4 1fbe e940 d93d 1e1d abbd c955 27bc
00000170: 5edd b93d 15a7 243d c8ab ecbc 2b46 22be
00000180: 6c73 c0bb a1ac 09be 58b5 25be d050 813e
00000190: d52b d4bd 5fcd 86be 3cae 90be 2bd6 20be
000001a0: 41ec bebc 38f2 1cbe 8de6 edbd cbde 4c3e
000001b0: a40a 373d ace1 4dbe 1f05 713e 4e86 19bd
000001c0: 472a ae3d 6ee4 95be 51a3 223e 21ba 8b3e
000001d0: 736f 9bbe 0410 37be fe40 a0be 8a75 8bbe
000001e0: 552b 4b3e 62c9 24be 9762 40be 1949 babc
000001f0: de09 493d 316b 71bd 165f 52be 438f cbbd
00000200: 583b 4dbe 1ce6 9d3e 81bf e0bd ce63 aa3d
00000210: bb15 d13b c3f6 9b3e c2e0 2cbe 2d4e 8dbe
00000220: ea08 3ebe 7576 843d c4e7 98be adad 8dbe
00000230: c95b 8a3d 4e8b aa3e f2e8 063e f192 703e

arith.constant34 f4 [8, 1, 1, 16]
0.17301947 -0.038818255 -0.13939326 0.039668243 -0.1930766 -0.104793355 -0.14360765 -0.0042492235
0.07053865 0.15876906 0.057010036 0.13282396 0.023592623 -0.09694084 -0.20708555 -0.20295438
-0.2428006 -0.18652315 -0.095348954 -0.04116926 0.043547828 -0.06035846 0.112343855 0.13397263
0.17067562 -0.014132518 0.13590327 0.19286422 0.18492022 0.011693389 -0.24078037 0.20494162
0.0404853 -0.14043857 -0.15330198 0.12614536 0.19878651 0.17558806 0.18613426 -0.24817206
0.004887556 0.030937487 -0.039575618 0.19104502 0.1476335 -0.067517005 -0.2186976 0.029419484
0.04975887 0.20018779 -0.03315456 -0.21219017 0.171339 0.03714823 0.19195369 -0.07018999
0.12264572 0.05733041 -0.11639427 0.13057783 0.12550387 -0.16619053 -0.020727977 -0.21847238
0.11445894 -0.0048526283 0.053732216 0.15003839 -0.15359136 0.21337146 -0.20788959 0.21140994
0.051231038 -0.17898 0.08169628 -0.10965951 -0.048370656 -0.096259914 0.13525979 0.028383054
-0.008565323 -0.121035986 0.006208925 0.044732586 -0.15978158 0.18472773 -0.1437492 0.19122192
-0.10646492 0.21528968 0.14019449 0.1674574 0.15953642 -0.13579378 0.057453763 -0.022829836
0.23112077 0.011793972 -0.14738485 -0.064810544 -0.11858562 0.068925396 -0.11390691 0.04798317
-0.20094189 -0.18500385 0.17288154 0.16685635 -0.06257658 -0.08029799 -0.1442849 0.08744118
0.09760518 -0.23045678 -0.20607747 0.06865381 0.08478316 0.05611198 -0.23858845 0.11351967
0.18892355 -0.0045811306 0.02200512 -0.15653174 -0.04165402 0.013371907 -0.15517351 0.22770132
00000000: 042c 313e e4ff 1ebd 1bbd 0ebe 2b7b 223d
00000010: dfb5 45be e69d d6bd e20d 13be 123d 8bbb
00000020: 9176 903d 5b94 223e 5b83 693d 0103 083e
00000030: 5145 c13c eb88 c6bd 3c0e 54be 46d3 4fbe
00000040: b8a0 78be edff 3ebe 5046 c3bd 19a1 28bd
00000050: 355f 323d 6f3a 77bd 8914 e63d 1f30 093e
00000060: 97c5 2e3e 148c 67bc 3a2a 0b3e 337e 453e
00000070: ba5b 3d3e a195 3f3c 218f 76be 37dc 513e
00000080: ead3 253d 21cf 0fbe 32fb 1cbe 402c 013e
00000090: b18e 4b3e 5bcd 333e fb99 3e3e d120 7ebe
000000a0: cb27 a03b 9d70 fd3c 0b1a 22bd 4ea1 433e
000000b0: 3c2d 173e 5b46 8abd 43f2 5fbe 2101 f13c
000000c0: f5cf 4b3d 07fe 4c3e 13cd 07bd 6148 59be
000000d0: 7e73 2f3e be28 183d 828f 443e c5bf 8fbd
000000e0: ae2d fb3d 4bd3 6a3d 1e60 eebd 32b6 053e
000000f0: 1684 003e da2d 2abe b8cd a9bc 39b7 5fbe
00000100: 7369 ea3d cc02 9fbb 5016 5c3d aaa3 193e
00000110: 0e47 1dbe 0c7e 5a3e 02e1 54be d97b 583e
00000120: a3d7 513d 8846 37be 6150 a73d 2a95 e0bd
00000130: 4f20 46bd eb23 c5bd 8b81 0a3e 9483 e83c
00000140: 9255 0cbc b7e1 f7bd 3d74 cb3b 8439 373d
00000150: c89d 23be 4429 3d3e fe32 13be aecf 433e
00000160: 480a dabd e674 5c3e 258f 0f3e f479 2b3e
00000170: 845d 233e 860d 0bbe a354 6b3d a305 bbbc
00000180: ecaa 6c3e 813b 413c 0eec 16be 64bb 84bd
00000190: 04dd f2bd c228 8d3d 0748 e9bd 008a 443d
000001a0: b6c3 4dbe a671 3dbe dc07 313e 64dc 2a3e
000001b0: 2628 80bd 4673 a4bd 6cbf 13be 5d14 b33d
000001c0: 3ae5 c73d ddfc 6bbe f905 53be 5e9a 8c3d
000001d0: cba2 ad3d add5 653d 8850 74be 007d e83d
000001e0: 2d75 413e 4f1d 96bb 1544 b43c db49 20be
000001f0: 689d 2abd d815 5b3c cee5 1ebe 892a 693e

arith.constant35 f4 [16, 1, 1, 8]
-0.04204068 -0.31934527 0.20963249 -0.2999766 -0.10668805 -0.034770258 0.28642568 0.06919378
0.058924202 0.10324742 -0.053581316 -0.2973574 0.14277275 -0.078483485 0.27658466 0.0977753
-0.16884427 -0.05688498 -0.14218913 -0.29420713 0.27078786 -0.3478625 -0.04200098 0.076498844
0.1984097 0.16154094 0.055804253 -0.007537589 0.068306044 0.33862218 0.06530027 -0.007640932
-0.23388904 0.12593563 -0.31330693 0.12056231 -0.04521588 0.041263666 -0.28720987 -0.27382368
0.29605216 -0.25747848 -0.24673024 0.3503707 -0.15124434 0.21886006 0.22134428 0.12329834
-0.2382715 -0.31060618 -0.017462363 -0.27092525 -0.21327327 0.11130994 -0.0086902995 -0.008664337
0.2604332 -0.12231367 -0.26792225 -0.05249907 -0.24811497 0.27271327 -0.14649029 0.34426156
-0.2621207 0.019755604 0.11595467 -0.23062834 -0.19154522 0.28521258 0.07796003 0.035040207
0.05927996 0.271534 -0.27504745 -0.22225034 0.3018777 0.24631995 -0.10298834 -0.24058227
0.13030146 0.08041152 0.27764657 -0.2529793 0.21697237 0.06463941 -0.23542935 -0.19173509
0.20021752 0.02194765 -0.12143563 -0.27760586 -0.0743167 -0.31770986 -0.17885692 -0.15034877
-0.16472124 0.14681344 0.006946145 -0.2261521 0.3385569 0.13200837 0.1740038 0.13877581
0.24378057 0.09822017 0.09281617 0.057788685 0.16904409 0.31194353 -0.10961914 -0.03542353
-0.0011179396 0.08217499 -0.11883046 0.19869837 0.21057218 -0.15631415 0.1674204 -0.17496026
-0.02938809 -0.24951728 0.2043792 0.17017013 -0.03081387 0.29187858 0.060251947 -0.012298009
00000000: d932 2cbd 3981 a3be e6a9 563e 8896 99be
00000010: 447f dabd 426b 0ebd 63a6 923e 78b5 8d3d
00000020: 815a 713d 6273 d33d 1578 5bbd 3b3f 98be
00000030: 0533 123e f3bb a0bd 819c 8d3e 6b3e c83d
00000040: 83e5 2cbe 3a00 69bd 079a 11be 51a2 96be
00000050: b5a4 8a3e 091b b2be 3809 2cbd 6dab 9c3d
00000060: ea2b 4b3e fd6a 253e 0093 643d e1fd f6bb
00000070: 0ae4 8b3d e35f ad3e 26bc 853d c960 fabb
00000080: 9c80 6fbe 45f5 003e c469 a0be 5fe9 f63d
00000090: 4934 39bd 1704 293d 2c0d 93be 9e32 8cbe
000000a0: 2694 973e 38d4 83be daa6 7cbe ca63 b33e
000000b0: ccdf 1abe da1c 603e 13a8 623e d783 fc3d
000000c0: 72fd 73be c607 9fbe 3b0d 8fbc b7b6 8abe
000000d0: 4f64 5abe 77f6 e33d c261 0ebc ddf4 0dbc
000000e0: 8057 853e 977f fabd 1b2d 89be 4409 57bd
000000f0: da11 7ebe 13a1 8b3e 8d01 16be 0d43 b03e
00000100: af34 86be 81d6 a13c a479 ed3d d629 6cbe
00000110: 6e24 44be 6207 923e 82a9 9f3d 5286 0f3d
00000120: 8bcf 723d 8106 8b3e 05d3 8cbe 9895 63be
00000130: b78f 9a3e 4c3b 7c3e 8deb d2bd 335b 76be
00000140: bf6d 053e ccae a43d b127 8e3e 8186 81be
00000150: 012e 5e3e ab61 843d 6414 71be 3456 44be
00000160: d205 4d3e 8fcb b33c 3eb3 f8bd 5b22 8ebe
00000170: 5b33 98bd deaa a2be 4526 37be 07f5 19be
00000180: afac 28be 4356 163e 7d9c e33b 6b94 67be
00000190: 5457 ad3e 342d 073e 0d2e 323e 3f1b 0e3e
000001a0: 9da1 793e a827 c93d 6716 be3d d4b3 6c3d
000001b0: e519 2d3e 10b7 9f3e 0080 e0bd 4318 11bd
000001c0: d487 92ba 5c4b a83d 625d f3bd 9677 4b3e
000001d0: 3ca0 573e d110 20be 4170 2b3e c828 33be
000001e0: 4bbf f0bc 7581 7fbe c848 513e 1441 2e3e
000001f0: 5e6d fcbc 1c71 953e bfca 763d 977d 49bc

arith.constant36 f4 [1, 3, 3, 16]
-0.054207016 -0.02957663 0.2651219 -0.083928764 -0.15001608 0.20409434 -0.13533673 0.17027476
-0.02701706 -0.09987241 0.115117095 0.002256978 -0.11783013 0.14514373 0.28772688 -0.18239714
-0.22327097 0.0070643867 -0.14169952 -0.33179444 -0.1380204 -0.23234172 -0.28380817 0.19301815
-0.19693524 0.31675652 0.032464977 -0.111117005 -0.16098201 0.076776594 0.18214123 0.06720788
-0.25702572 -0.15925005 -0.24813366 0.18874763 -0.238942 0.19536835 0.26654834 0.03567201
0.28027543 -0.1629058 0.049699295 -0.22828326 0.16529417 0.1100725 -0.26630184 0.3233067
-0.14224982 -0.23038222 0.1316269 0.3195912 0.008776025 0.31754345 -0.062012803 -0.012654202
-0.25039124 -0.18969552 -0.16558664 0.06555187 0.11892693 0.03863053 -0.022335775 -0.19222644
0.14573728 -0.2791119 0.27145058 -0.2404444 0.10440409 -0.08575527 0.10511783 0.07307827
0.26976147 -0.022771882 0.16953257 0.13458166 0.20194033 0.26135337 0.147009 -0.102083765
0.1076995 -0.13684726 -0.2760586 0.12921219 -0.15094332 -0.21132773 0.17966059 0.14175817
-0.028611239 -0.18579975 -0.05099291 0.05790781 0.20640458 0.106190436 0.15247194 -0.29555207
-0.2065601 -0.25094688 -0.077927046 -0.09494424 0.1622466 0.24686293 -0.18688308 -0.21263772
-0.32991385 -0.09749443 0.1870473 -0.095855795 -0.09041761 -0.047005817 0.077446 -0.15010306
-0.19046268 -0.12470342 -0.20910311 -0.193027 -0.20066531 -0.22779395 0.114619955 0.2799076
-0.23271954 -0.12643625 0.027937988 -0.24923323 -0.0474811 -0.29427305 -0.24605472 -0.3123307
-0.26230094 -0.10719317 -0.11070518 0.23221977 0.094087966 -0.12404833 0.2015246 0.14178607
0.33205372 -0.15809652 -0.06035008 0.08862181 -0.09960923 -0.27954614 -0.10860317 -0.14514914
00000000: 2d08 5ebd b04a f2bc 0fbe 873e d8e2 abbd
00000010: d19d 19be 1bfe 503e b695 0abe 825c 2e3e
00000020: e252 ddbc e889 ccbd 83c2 eb3d cfe9 133b
00000030: ec50 f1bd 8fa0 143e f050 933e 51c6 3abe
00000040: 25a1 64be 5f7c e73b ae19 11be f6e0 a9be
00000050: 3855 0dbe fdea 6dbe 4e4f 91be 8da6 453e
00000060: 64a9 49be e92d a23e fff9 043d 5091 e3bd
00000070: 78d8 24be 0c3d 9d3d 3b83 3a3e 49a4 893d
00000080: e098 83be 7212 23be c016 7ebe 0f47 413e
00000090: 36ad 74be a40e 483e 0679 883e d01c 123d
000000a0: 4380 8f3e c7d0 26be 7d91 4b3d 16c3 69be
000000b0: e042 293e b16d e13d b758 88be 7588 a53e
000000c0: f0a9 11be 51e9 6bbe 34c9 063e 75a1 a33e
000000d0: 51c9 0f3c 0e95 a23e 2301 7ebd 9253 4fbc
000000e0: 4833 80be 8b3f 42be 8b8f 29be 0f40 863d
000000f0: f68f f33d 0c3b 1e3d 84f9 b6bc 02d7 44be
00000100: 273c 153e c1e7 8ebe 92fb 8a3e 0f37 76be
00000110: d0d1 d53d 76a0 afbd 0448 d73d 0faa 953d
00000120: 2d1e 8a3e 198c babc f299 2d3e c6cf 093e
00000130: 72c9 4e3e 1cd0 853e 8789 163e 4b11 d1bd
00000140: 8e91 dc3d b021 0cbe 8e57 8dbe 3350 043e
00000150: e390 1abe 4c66 58be f2f8 373e 0e29 113e
00000160: 1e62 eabc 4a42 3ebe f1dd 50bd bd30 6d3d
00000170: b95b 533e 5f7a d93d 9b21 1c3e 9a52 97be
00000180: 7e84 53be 1c7c 80be 3798 9fbd 2072 c2bd
00000190: f923 263e a3c9 7c3e 475e 3fbe b4bd 59be
000001a0: 78ea a8be 29ab c7bd 5489 3f3e 0b50 c4bd
000001b0: de2c b9bd 2c89 40bd 029c 9e3d 9eb4 19be
000001c0: a608 43be 8264 ffbd 201f 56be dfa8 45be
000001d0: 357b 4dbe d142 69be debd ea3d 0d50 8f3e
000001e0: 084e 6ebe 8178 01be 35de e43c ff36 7fbe
000001f0: 8b7b 42bd f5aa 96be c5f5 7bbe cfe9 9fbe
00000200: 4f4c 86be 1888 dbbd 66b9 e2bd 05cb 6d3e
00000210: 31b1 c03d 0d0d febd 775c 4e3e 5e30 113e
00000220: f202 aa3e 0ee4 21be a531 77bd 5a7f b53d
00000230: edff cbbd ac20 8fbe 576b debd faa1 14be

arith.constant37 f4 [8, 1, 1, 16]
0.22943063 -0.029338362 -0.074072644 -0.033165377 -0.24566852 -0.14241853 -0.0005384359 -0.24573524
0.038717583 0.099655785 -0.0042279153 -0.24719368 0.11203537 0.07023082 0.19532916 0.15376845
-0.079247706 0.21105184 -0.08358991 -0.14125608 -0.14937118 -0.21399513 0.24295276 0.12287385
-0.16746894 0.05068709 -0.08025171 0.07132003 -0.0011599304 -0.037122212 -0.11111838 -0.11894038
-0.15756868 0.20946288 -0.16927622 0.1924826 0.004671163 0.24350387 -0.12176813 -0.21518296
-0.2218322 0.059180737 -0.23903206 -0.16166326 0.02450281 -0.038593993 0.21073793 -0.16051513
0.048815392 -0.10983433 0.15560403 0.061955262 0.08344236 -0.0172523 -0.050193477 0.011702926
-0.19278161 -0.013938357 0.12873499 -0.23703611 -0.057930894 0.036423113 -0.055725444 0.2477995
-0.06759142 -0.21252878 0.019785127 0.1831446 0.14407295 0.09765221 -0.10023884 -0.18975872
-0.080740884 0.030771459 -0.006405113 -0.062706456 -0.19220911 0.14474623 0.02653067 -0.10677931
0.04933449 -0.15926304 0.041682452 0.20910364 -0.24709512 0.2280526 0.24160622 0.20828485
-0.0931401 0.0135597205 0.024857128 -0.24337864 0.072603755 -0.14171603 0.23620178 0.1630771
-0.19321094 0.06095051 -0.19102666 0.022119114 -0.06323917 0.22822998 -0.07271435 0.07250296
0.17616831 -0.13642636 0.23114774 -0.11954847 -0.20641203 -0.14914292 0.016109178 -0.113882
0.06963772 -0.15157609 0.06940324 -0.12842302 -0.06696751 -0.21226345 0.019412272 0.24072288
-0.03777917 0.09940339 0.051936187 -0.15574625 -0.017626377 0.1373313 0.21552125 0.21171208
00000000: ddef 6a3e 0157 f0bc 66b3 97bd 6bd8 07bd
00000010: 8790 7bbe 2ad6 11be d225 0dba 05a2 7bbe
00000020: 5496 1e3d 5518 cc3d 538a 8abb 5720 7dbe
00000030: cd72 e53d 2dd5 8f3d 5e04 483e 7a75 1d3e
00000040: 9f4c a2bd f91d 583e 3031 abbd 6fa5 10be
00000050: c2f4 18be 8a21 5bbe 9cc8 783e 49a5 fb3d
00000060: fa7c 2bbe 449d 4f3d 025b a4bd 3c10 923d
00000070: ce08 98ba 760d 18bd 0992 e3bd 0497 f3bd
00000080: af59 21be 707d 563e bf56 2dbe 291a 453e
00000090: 8e10 993b 1459 793e 9261 f9bd ec58 5cbe
000000a0: fb27 63be 8067 723d d2c4 74be 0e8b 25be
000000b0: 1eba c83c bc14 1ebd afcb 573e 145e 24be
000000c0: a6f2 473d d2f0 e0bd aa56 1f3e cdc4 7d3d
000000d0: d4e3 aa3d b254 8dbc ad97 4dbd a1bd 3f3c
000000e0: 8b68 45be b55d 64bc 1bd3 033e 98b9 72be
000000f0: f248 6dbd 6730 153d 5d40 64bd 27bf 7d3e
00000100: 5f6d 8abd 25a1 59be 6b14 a23c 428a 3b3e
00000110: dc87 133e e2fd c73d 054a cdbd 1c50 42be
00000120: 7a5b a5bd 6d14 fc3c fbe1 d1bb 3e6c 80bd
00000130: 77d2 44be 5b38 143e d956 d93c 1caf dabd
00000140: f612 4a3d da15 23be 38bb 2a3d 441f 563e
00000150: 8106 7dbe 9f86 693e 9f67 773e a048 553e
00000160: 3dc0 bebd 9729 5e3c 2da1 cb3c 4038 79be
00000170: 47b1 943d 021e 11be e1de 713e affd 263e
00000180: 17d9 45be 3ea7 793d 7e9c 43be 2533 b53c
00000190: 8a83 81bd 1fb5 693e 43eb 94bd 6f7c 943d
000001a0: 7765 343e 5ab3 0bbe feb1 6c3e d4d5 f4bd
000001b0: ad5d 53be ecb8 18be 65f7 833c f73a e9bd
000001c0: 399e 8e3d c336 1bbe 4923 8e3d 5381 03be
000001d0: 4326 89bd 975b 59be 7c06 9f3c 0f80 763e
000001e0: 55be 1abd 0194 cb3d 0abb 543d f27b 1fbe
000001f0: 3165 90bc 94a0 0c3e 9ab1 5c3e 0dcb 583e

arith.constant47 f4 [2, 1, 5, 16]
0.070543125 -0.21018122 -0.1595088 0.16891506 -0.27716908 -0.27963606 -0.03271457 0.1890038
-0.023166038 -0.029108187 -0.27145344 0.3148589 0.22036892 -0.26773903 0.21203785 -0.056465976
0.00032958738 0.10499931 -0.104867406 0.07695656 0.20544653 -0.017012447 -0.13606158 0.23754044
-0.26367107 -0.19916102 -0.21377675 -0.2839987 0.1481704 0.037356693 0.0061125397 -0.2478372
-0.22837812 -0.20049132 -0.27445173 -0.23209299 0.12155897 -0.24545786 0.13162644 0.19723587
-0.20381622 -0.18744038 0.2829204 0.21634446 -0.1714819 0.25125572 -0.19296767 -0.26749483
0.2113582 -0.2792261 0.07270653 0.30194837 -0.19115205 -0.21380955 -0.059636693 -0.24230874
0.15892747 0.043719314 0.1087039 -0.13838238 0.0370069 0.15246388 0.017765902 -0.17698918
0.15608233 0.14840415 -0.22693405 0.071171574 -0.31311074 0.12023474 0.07131211 0.19411407
-0.08261093 -0.076015145 0.27009827 -0.31528333 -0.27292773 0.021253202 -0.2754215 -0.022214483
0.20333204 -0.09131674 0.2013115 0.18031573 -0.21305214 0.10627035 0.13711321 -0.058484513
-0.21295427 -0.17403635 0.07828494 -0.18129733 0.2507247 0.24376015 0.2727354 -0.06697006
-0.028396877 -0.26034987 -0.07374947 -0.19474389 0.30503872 -0.04124132 -0.03472776 0.09991455
-0.097983204 0.25004598 -0.05371313 -0.27651605 0.3028902 0.26212794 0.23453465 -0.27400276
-0.17279762 0.23516789 -0.31254697 -0.21692576 -0.1577651 0.046882685 -0.10712773 -0.01903713
-0.27295905 -0.14405268 0.009155427 -0.08673588 0.10468254 0.059680462 -0.06714803 -0.22808506
0.071410045 0.29531562 0.13491136 -0.20441395 0.23710187 0.22478764 0.0077513917 -0.19882895
-0.28795674 0.06424134 -0.1985026 -0.24920814 -0.19896209 -0.014198683 -0.25076938 -0.1142483
-0.0756897 -0.28072003 0.021684347 0.24310099 -0.09484072 0.049633004 -0.06362805 -0.21922424
0.002868952 0.060426604 0.13912742 -0.061762407 0.3114054 0.13355026 -0.06539638 -0.2877227
00000000: ea78 903d bf39 57be 4656 23be 12f8 2c3e
00000010: 1be9 8dbe 752c 8fbe b7ff 05bd 368a 413e
00000020: b4c6 bdbc 4b74 eebc f2fb 8abe 3035 a13e
00000030: 64a8 613e 1715 89be 7320 593e de48 67bd
00000040: 78cc ac39 e109 d73d b9c4 d6bd 679b 9d3d
00000050: 9360 523e b05d 8bbc ba53 0bbe cd3d 733e
00000060: e5ff 86be def0 4bbe 4be8 5abe 4768 91be
00000070: fbb9 173e 5503 193d b34b c83b 09c9 7dbe
00000080: f4db 69be 994d 4dbe f084 8cbe c9a9 6dbe
00000090: e9f3 f83d 4e59 7bbe 15c9 063e 33f8 493e
000000a0: 33b5 50be 5ff0 3fbe f1da 903e 6789 5d3e
000000b0: f498 2fbe 97a4 803e 5199 45be 15f5 88be
000000c0: 496e 583e b9f6 8ebe 29e7 943d fa98 9a3e
000000d0: 5dbd 43be e4f0 5abe 9b45 74bd c81f 78be
000000e0: e2bd 223e 0613 333d 26a0 de3d 1cb4 0dbe
000000f0: 8c94 173d 7e1f 1c3e cc89 913c a73c 35be
00000100: 0cd4 1f3e 42f7 173e 6661 68be 67c2 913d
00000110: 0d50 a0be a23d f63d 150c 923d d7c5 463e
00000120: eb2f a9bd d4ad 9bbd 524a 8a3e d16c a1be
00000130: 2fbd 8bbe 321b ae3c 0c04 8dbe 26fb b5bc
00000140: 4636 503e 4504 bbbd 9a24 4e3e b0a4 383e
00000150: 572a 5abe 45a4 d93d 6867 0c3e 758d 6fbd
00000160: af10 5abe 9636 32be db53 a03d 02a6 39be
00000170: fd5e 803e 439c 793e f9a3 8b3e 9927 89bd
00000180: 91a0 e8bc 944c 85be f609 97bd f16a 47be
00000190: 092e 9c3e a9ec 28bd b23e 0ebd 00a0 cc3d
000001a0: 6bab c8bd 0706 803e 4d02 5cbd 8393 8dbe
000001b0: 6d14 9b3e a235 863e da29 703e 174a 8cbe
000001c0: dcf1 30be dacf 703e 2806 a0be c921 5ebe
000001d0: 2d8d 21be 0f08 403d c965 dbbd c1f3 9bbc
000001e0: 4ac1 8bbe 8c82 13be a500 163c 95a2 b1bd
000001f0: cd63 d63d 8073 743d e884 89bd 218f 69be
00000200: 6e3f 923d 9c33 973e 3426 0a3e e451 51be
00000210: d5ca 723e bb2e 663e 63ff fd3b d199 4bbe
00000220: 116f 93be f790 833d 4444 4bbe 6b30 7fbe
00000230: b8bc 4bbe 98a1 68bc d864 80be 03fb e9bd
00000240: 3403 9bbd 89ba 8fbe 5fa3 b13c 77ef 783e
00000250: da3b c2bd fa4b 4b3d 6c4f 82bd 527c 60be
00000260: 0705 3c3b e381 773d 6b77 0e3e 94fa 7cbd
00000270: 8770 9f3e 66c1 083e 8aee 85bd 6450 93be

arith.constant48 f4 [8]
0.082188256 -0.32339332 0.14219032 -0.07165513 -0.32688633 0.28757522 0.35336715 -0.21835068
00000000: 5152 a83d cf93 a5be 579a 113e edbf 92bd
00000010: a55d a7be 0f3d 933e 8aec b43e 5297 5fbe

arith.constant49 f4 [8, 1, 1, 16]
0.33461124 -0.11810128 -0.33994892 -0.067858905 0.26030293 -0.06530562 -0.06930976 0.18635249
-0.19634022 0.08381116 -0.34381524 -0.22293054 0.34418166 0.10044525 -0.09112853 -0.22978008
-0.31322664 -0.14250474 -0.33038038 -0.28113997 -0.2215013 -0.19910052 0.2941444 -0.31443322
-0.11407197 0.19006331 -0.32493597 0.20385447 0.28790554 0.25538978 -0.1539644 -0.23249875
-0.0029833915 -0.15274088 -0.01929865 -0.102131076 0.047706448 -0.08987614 -0.1088398 0.096481696
-0.2738772 -0.2911693 0.123712935 -0.10543684 -0.14261587 -0.26642662 0.14749762 -0.2200751
0.04077021 0.21067719 0.1973205 -0.1260331 0.16582054 -0.2977268 0.15588628 -0.3157044
0.025606567 -0.10496443 -0.051274415 -0.061055847 -0.11325176 -0.1673065 -0.34572896 0.19393079
0.09695913 0.0421208 -0.24620567 -0.08153317 0.18468158 -0.12877579 -0.17117552 0.009887053
-0.27937898 -0.1689748 -0.2303274 0.34305018 -0.29585811 0.28103477 -0.1492636 0.087794304
-0.10195393 -0.16849302 -0.05677333 0.18686566 -0.064101614 -0.16732019 0.28496036 -0.14206822
-0.26355678 -0.191966 0.2603867 0.2738244 0.16075046 0.23113479 0.19022916 -0.3180292
-0.16645421 0.05679356 0.22874942 0.22834076 -0.15174638 0.16123447 0.24422483 0.14498852
-0.07790679 -0.13895725 -0.019677842 -0.3033233 -0.20435795 -0.26297462 0.34182853 -0.23814163
-0.21832025 -0.11847617 0.2094136 -0.038659 -0.105050825 0.08755904 0.18664831 0.01749119
-0.29235125 -0.16585974 0.074345395 0.32631752 -0.28337708 0.20916262 0.05552604 0.16388975
00000000: 2a52 ab3e 15df f1bd c90d aebe 9cf9 8abd
00000010: 6d46 853e f4be 85bd 47f2 8dbd 30d3 3e3e
00000020: 690d 49be 2fa5 ab3d 8d08 b0be e747 64be
00000030: 9438 b03e 3db6 cd3d 98a1 babd 784b 6bbe
00000040: 3e5f a0be c3ec 11be 9e27 a9be 94f1 8fbe
00000050: 3dd1 62be 02e1 4bbe 189a 963e 64fd a0be
00000060: 919e e9bd f59f 423e 025e a6be 3abf 503e
00000070: 5b68 933e 73c2 823e d8a8 1dbe 2714 6ebe
00000080: 0185 43bb 1b68 1cbe 3418 9ebc 192a d1bd
00000090: d667 433d fb10 b8bd 67e7 debd 3298 c53d
000000a0: a239 8cbe 2414 95be 355d fd3d 45ef d7bd
000000b0: e509 12be 1269 88be 9e09 173e 5e5b 61be
000000c0: aafe 263d c3bb 573e 630e 4a3e d20e 01be
000000d0: dccc 293e a66f 98be a7a0 1f3e 02a4 a1be
000000e0: ddc4 d13c 97f7 d6bd 1f05 52bd b215 7abd
000000f0: 8af0 e7bd 6552 2bbe 6303 b1be cb95 463e
00000100: 8292 c63d dc86 2c3d 571d 7cbe ddfa a6bd
00000110: 2b1d 3d3e cddd 03be a348 2fbe 4efd 213c
00000120: c30a 8fbe bb07 2dbe f2da 6bbe 46a4 af3e
00000130: b77a 97be cae3 8f3e 8fd8 18be 80cd b33d
00000140: 39cd d0bd 6f89 2cbe 278b 68bd b659 3f3e
00000150: b547 83bd fc55 2bbe 53e6 913e 557a 11be
00000160: eaf0 86be bc92 44be 6851 853e b632 8c3e
00000170: c59b 243e 99ae 6c3e 6fcb 423e b9d4 a2be
00000180: f972 2abe 5da0 683d 4a3d 6a3e 29d2 693e
00000190: 6763 1bbe a61a 253e 1316 7a3e df77 143e
000001a0: 988d 9fbd cf4a 0ebe 6d33 a1bc 314d 9bbe
000001b0: 3643 51be 9ca4 86be 2604 af3e 66db 73be
000001c0: 588f 5fbe a2a3 f2bd 8570 563e e658 1ebd
000001d0: e324 d7bd 2752 b33d bc20 3f3e af49 8f3c
000001e0: 10af 95be 23d7 29be 6642 983d 1713 a73e
000001f0: cd16 91be ba2e 563e 466f 633d b7d2 273e

arith.constant50 f4 [16]
-0.1457898 -0.056789618 0.20861356 0.066253774 -0.19646631 0.1696598 -0.15406919 0.022805426
0.14027748 0.12516563 0.19281894 0.03414101 0.16183554 0.058171693 -0.22869185 -0.0975077
00000000: ec49 15be 3b9c 68bd cb9e 553e 0fb0 873d
00000010: 772e 49be 4cbb 2d3e 50c4 1dbe 72d2 ba3c
00000020: e6a4 0f3e 6b2b 003e 5472 453e 72d7 0b3d
00000030: 37b8 253e 7145 6e3d 322e 6abe 1eb2 c7bd

arith.constant51 f4 [16, 1, 1, 8]
0.03505051 0.0035899398 0.03102114 -0.21884483 0.11479987 0.14009148 0.0437852 0.05375671
0.03613892 0.097083375 0.01756993 -0.04649559 0.10079824 -0.22424224 0.039971597 -0.069129445
-0.192614 -0.029512674 -0.16497496 -0.10054177 0.054926235 -0.05786738 -0.059384312 -0.09016486
0.039519586 -0.009980956 0.031008743 -0.19913852 -0.06874967 -0.23321076 0.08817905 0.04864999
-0.21060815 0.02462026 0.07699743 0.24971978 0.19564702 0.24300952 0.151817 -0.12551121
0.13782917 -0.0760746 0.09872217 -0.19155408 0.24540804 -0.17950712 0.24889137 0.115710475
0.098826535 0.03804107 0.1351678 0.11655582 0.071824335 0.11599753 0.086536564 0.123500556
0.0012791986 -0.1384684 -0.131043 -0.16142432 -0.0430144 0.012226072 -0.026459947 -0.083301805
0.08446612 -0.23323415 0.19941947 0.117623985 0.17140722 -0.10821013 0.1012175 0.16638644
-0.12957859 0.19561078 -0.055723533 0.2106514 0.11670185 0.052250747 0.13194115 -0.03848128
0.2207499 0.06226508 0.21179485 -0.06831001 -0.20267813 -0.222633 0.14366214 0.054260693
0.021648237 -0.07219445 -0.12704094 -0.16431415 0.077292286 -0.15688787 -0.18339038 0.21902674
-0.0056526074 0.16685222 0.18558376 -0.10239373 0.095310025 0.07310386 0.17712969 -0.016988311
-0.052009825 -0.118495904 0.0014113415 -0.036245223 0.025369903 0.08300081 -0.0777851 0.08868414
0.10270263 0.12625252 0.0785506 -0.20364715 0.013784696 0.15785694 -0.1688285 -0.17404453
-0.054801006 -0.003680598 0.18323988 0.027344745 -0.23283271 0.088912874 0.011871546 -0.22247344
00000000: 2091 0f3d 3245 6b3b 0c20 fe3c dc18 60be
00000010: 321c eb3d 2474 0f3e 1c58 333d ff2f 5c3d
00000020: 6706 143d a6d3 c63d d0ee 8f3c 2972 3ebd
00000030: 4f6f ce3d c29f 65be 42b9 233d bd93 8dbd
00000040: 9b3c 45be 90c4 f1bc 32ef 28be d8e8 cdbd
00000050: 55fa 603d 5906 6dbd f73c 73bd 5ba8 b8bd
00000060: 4adf 213d 2a87 23bc 0c06 fe3c f8ea 4bbe
00000070: a1cc 8cbd cdce 6ebe 3897 b43d 3645 473d
00000080: aaa9 57be 6db0 c93c d4b0 9d3d 8bb6 7f3e
00000090: b157 483e 7dd7 783e ea75 1b3e 0386 00be
000000a0: 1723 0d3e 00cd 9bbd d92e ca3d c126 44be
000000b0: 3f4c 7b3e b7d0 37be 61dd 7e3e 9df9 ec3d
000000c0: 9165 ca3d f4d0 1b3d 6e69 0a3e d1b4 ee3d
000000d0: a318 933d 1d90 ed3d 153a b13d dced fc3d
000000e0: c8aa a73a a9ca 0dbe 2330 06be 6b4c 25be
000000f0: de2f 30bd dd4f 483c 88c2 d8bc 239a aabd
00000100: 93fc ac3d efd4 6ebe 9e34 4c3e d8e4 f03d
00000110: 6085 2f3e 469d ddbd 1f4b cf3d 3561 2a3e
00000120: 40b0 04be 314e 483e 5c3e 64bd 00b5 573e
00000130: 6101 ef3d e104 563d 951b 073e 8c9e 1dbd
00000140: 430c 623e ab09 7f3d c0e0 583e 1ee6 8bbd
00000150: db8a 4fbe e8f9 63be 2b1c 133e 7640 5e3d
00000160: a557 b13c afda 93bd 0517 02be f841 28be
00000170: 6b4b 9e3d 37a7 20be b0ca 3bbe 8c48 603e
00000180: 8239 b9bb 4fdb 2a3e ab09 3e3e ceb3 d1bd
00000190: e731 c33d 7ab7 953d 7c61 353e 122b 8bbc
000001a0: 4108 55bd fbad f2bd c3fc b83a df75 14bd
000001b0: 8bd4 cf3c 54fc a93d cb4d 9fbd 08a0 b53d
000001c0: c255 d23d 5748 013e 23df a03d e188 50be
000001d0: 35d9 613c 40a5 213e 61e1 2cbe bb38 32be
000001e0: 0577 60bd 3036 71bb 3ca3 3b3e 1602 e03c
000001f0: b36b 6ebe f417 b63d df80 423c 14d0 63be

arith.constant52 f4 [8]
-0.071317844 -0.17043905 0.086992085 0.29941985 0.11095991 -0.14939933 -0.17901172 -0.20937103
00000000: 170f 92bd 9387 2ebe e828 b23d 8f4d 993e
00000010: f33e e33d 23fc 18be d94e 37be 5c65 56be

arith.constant53 f4 [8, 1, 1, 16]
-0.08996835 -0.00395445 -0.09955292 -0.1422814 0.20648159 0.14862795 0.35168993 -0.16981237
0.2454478 0.18413088 0.27281126 -0.058516722 0.325552 -0.023458395 -0.12129123 -0.01979442
-0.13706881 -0.10988099 0.103587955 0.2716808 -0.19703467 -0.18480073 -0.14824687 -0.09523736
-0.27803954 0.0043250453 0.28918046 -0.29399493 -0.12266201 -0.02991585 -0.29536897 -0.24363174
0.17829749 0.06314737 0.12352803 0.009870404 -0.02303225 -0.100100026 0.16650656 0.32006016
-0.11386154 -0.18018791 0.29822814 0.28707078 -0.22558163 0.16495249 0.0043626404 0.21148098
0.3037142 0.012332737 0.32151332 -0.21069574 -0.3235107 -0.33914 0.018484967 -0.336711
-0.27754262 0.031022452 -0.01270582 -0.32822594 0.22616899 0.17607844 -0.16195409 0.228318
0.1404422 -0.058308057 0.16841218 -0.030381948 0.14401758 0.03414257 -0.24946521 -0.23952961
-0.27410746 0.34246054 -0.20539859 0.34200448 0.28051344 0.26532444 -0.1927347 0.010769308
0.26661143 -0.03617492 -0.29029122 -0.29091838 -0.19928728 0.23947571 0.003948929 -0.3482157
5.171392e-05 0.3102844 -0.31774408 -0.1738872 0.07970945 0.120943435 -0.15042724 -0.1691233
0.003909901 0.22945471 0.11851562 0.2628362 0.3373933 0.3122602 -0.002593999 -0.24661694
-0.16501744 0.33479285 0.225163 -0.011085029 0.063796945 -0.08189765 -0.35233605 0.18088627
-0.043318015 -0.058841255 -0.20672224 -0.047677748 0.12660685 0.17744593 -0.13544922 0.03890543
-0.32234454 0.29836583 0.10389933 0.13352236 0.06820021 0.3231943 0.07843531 0.16981873
00000000: 5441 b8bd 5594 81bb 67e2 cbbd 37b2 11be
00000010: e96f 533e ed31 183e b410 b43e 4be3 2dbe
00000020: ab56 7b3e ce8c 3c3e ebad 8b3e 3baf 6fbd
00000030: c0ae a63e d22b c0bc 8967 f8bd e827 a2bc
00000040: c45b 0cbe 4909 e1bd ec25 d43d bf19 8b3e
00000050: 75c3 49be 673c 3dbe 07ce 17be ce0b c3bd
00000060: 335b 8ebe 1cb9 8d3b 760f 943e 8186 96be
00000070: 3836 fbbd 1612 f5bc 9a3a 97be 997a 79be
00000080: 9e93 363e 6953 813d 44fc fc3d 7ab7 213c
00000090: 21ae bcbc 3e01 cdbd b280 2a3e edde a33e
000000a0: 3d30 e9bd 2e83 38be 5cb1 983e f1fa 923e
000000b0: dffe 66be 4ee9 283e 7bf4 8e3b 788e 583e
000000c0: 6d80 9b3e 400f 4a3c 659d a43e a0c0 57be
000000d0: 32a3 a5be c2a3 adbe c96d 973c 6265 acbe
000000e0: 111a 8ebe cc22 fe3c 122c 50bc 3b0d a8be
000000f0: d898 673e e84d 343e 4bd7 25be 32cc 693e
00000100: 14d0 0f3e 6ed4 6ebd 3e74 2c3e 90e3 f8bc
00000110: 5879 133e 14d9 0b3d cf73 7fbe 4047 75be
00000120: d057 8cbe fd56 af3e 0254 52be 361b af3e
00000130: 759f 8f3e 9bd8 873e 3f5c 45be c071 303c
00000140: 4b81 883e 272c 14bd 0da1 94be 41f3 94be
00000150: f711 4cbe 1f39 753e 0466 813b 5449 b2be
00000160: 66e7 5838 99dd 9e3e 5aaf a2be 7c0f 32be
00000170: b53e a33d 31b1 f73d 9909 1abe a92e 2dbe
00000180: a01e 803b 2df6 6a3e 51b8 f23d 7792 863e
00000190: d1be ac3e 92e0 9f3e 1500 2abb 2789 7cbe
000001a0: 55fa 28be f869 ab3e 2191 663e fb9d 35bc
000001b0: f9a7 823d f5b9 a7bd 6465 b4be 403a 393e
000001c0: 3b6e 31bd 8703 71bd ffae 53be be49 43bd
000001d0: 3aa5 013e 63b4 353e 33b3 0abe 4d5b 1f3d
000001e0: 580a a5be 68c3 983e 2cc9 d43d 16ba 083e
000001f0: 8dac 8b3d b979 a53e b1a2 a03d f6e4 2d3e

arith.constant54 f4 [16]
0.22853243 0.15626238 -0.030470902 0.11013157 0.16042943 0.22949171 0.2417419 0.04863455
-0.09565803 -0.044521224 -0.21383856 0.21629584 -0.07591748 -0.12633987 -0.059766468 -0.05965602
00000000: 6804 6a3e 3f03 203e 1d9e f9bc a98c e13d
00000010: 9d47 243e e0ff 6a3e 308b 773e 0635 473d
00000020: 5be8 c3bd e35b 36bd 7ff8 5abe a87c 5d3e
00000030: a07a 9bbd 3d5f 01be afcd 74bd df59 74bd
