gtcrn_micro/models/tflite/gtcrn_micro_integer_quant_with_int16_act.tflite (tflite, 102640 bytes, 24 tensors)

arith.constant1 i1 [8, 1, 1, 16]
105 38 4 77 10 9 38 -2
-12 -123 127 -5 -36 99 107 126
-44 39 -13 76 109 96 74 76
-127 -104 82 58 -117 50 22 31
-23 44 21 -32 46 -35 -16 93
-123 -38 -101 -127 -80 7 95 -38
127 -45 123 46 -93 110 44 -44
45 -41 -108 -75 117 -87 111 -7
-103 -104 40 13 77 -80 -39 -89
-62 125 -39 -14 -5 27 -49 -127
16 -76 4 47 46 47 93 -3
-124 -127 118 10 -102 -78 -116 -110
-127 -16 -110 -121 -68 126 -29 11
94 -84 35 35 106 -62 92 47
-7 -124 84 61 119 -119 38 60
-93 127 73 2 110 -100 81 83
00000000: 6926 044d 0a09 26fe f485 7ffb dc63 6b7e
00000010: d427 f34c 6d60 4a4c 8198 523a 8b32 161f
00000020: e92c 15e0 2edd f05d 85da 9b81 b007 5fda
00000030: 7fd3 7b2e a36e 2cd4 2dd7 94b5 75a9 6ff9
00000040: 9998 280d 4db0 d9a7 c27d d9f2 fb1b cf81
00000050: 10b4 042f 2e2f 5dfd 8481 760a 9ab2 8c92
00000060: 81f0 9287 bc7e e30b 5eac 2323 6ac2 5c2f
00000070: f984 543d 7789 263c a37f 4902 6e9c 5153

arith.constant3 i1 [16, 1, 1, 8]
-98 80 -37 127 58 -86 90 -110
-38 -127 111 -53 54 57 14 -83
-127 -19 -31 -80 -98 -34 105 74
-124 64 -104 42 -127 92 91 -89
-53 92 -49 -34 -94 92 -14 127
-124 -127 -107 -102 40 105 7 0
-85 -92 -81 -112 108 -13 -43 127
100 -65 117 51 -127 62 -100 -118
127 126 -47 82 -37 80 74 -41
-32 -110 127 13 36 91 30 -13
56 118 103 -26 60 -56 61 -127
-127 -37 103 40 -84 -17 34 3
88 -97 0 -67 -89 -127 -87 -22
-3 26 -127 46 96 28 65 -85
-122 127 19 43 -40 126 38 120
9 -62 -53 -124 -83 127 67 39
00000000: 9e50 db7f 3aaa 5a92 da81 6fcb 3639 0ead
00000010: 81ed e1b0 9ede 694a 8440 982a 815c 5ba7
00000020: cb5c cfde a25c f27f 8481 959a 2869 0700
00000030: aba4 af90 6cf3 d57f 64bf 7533 813e 9c8a
00000040: 7f7e d152 db50 4ad7 e092 7f0d 245b 1ef3
00000050: 3876 67e6 3cc8 3d81 81db 6728 acef 2203
00000060: 589f 00bd a781 a9ea fd1a 812e 601c 41ab
00000070: 867f 132b d87e 2678 09c2 cb84 ad7f 4327

arith.constant26 i1 [192, 64]
127 0 0 0 0 0 0 0
0 0 0 0 0 0 0 0
0 0 0 0 0 0 0 0
0 0 0 0 0 0 0 0
0 0 0 0 0 0 0 0
0 0 0 0 0 0 0 0
0 0 0 0 0 0 0 0
0 0 0 0 0 0 0 0
0 127 0 0 0 0 0 0
0 0 0 0 0 0 0 0
0 0 0 0 0 0 0 0
0 0 0 0 0 0 0 0
0 0 0 0 0 0 0 0
0 0 0 0 0 0 0 0
0 0 0 0 0 0 0 0
0 0 0 0 0 0 0 0
0 127 127 0 0 0 0 0
0 0 0 0 0 0 0 0
0 0 0 0 0 0 0 0
0 0 0 0 0 0 0 0
0 0 0 0 0 0 0 0
0 0 0 0 0 0 0 0
0 0 0 0 0 0 0 0
0 0 0 0 0 0 0 0
0 0 127 0 0 0 0 0
0 0 0 0 0 0 0 0
0 0 0 0 0 0 0 0
0 0 0 0 0 0 0 0
0 0 0 0 0 0 0 0
0 0 0 0 0 0 0 0
0 0 0 0 0 0 0 0
0 0 0 0 0 0 0 0
00000000: 7f00 0000 0000 0000 0000 0000 0000 0000
00000010: 0000 0000 0000 0000 0000 0000 0000 0000
00000020: 0000 0000 0000 0000 0000 0000 0000 0000
00000030: 0000 0000 0000 0000 0000 0000 0000 0000
00000040: 007f 0000 0000 0000 0000 0000 0000 0000
00000050: 0000 0000 0000 0000 0000 0000 0000 0000
00000060: 0000 0000 0000 0000 0000 0000 0000 0000
00000070: 0000 0000 0000 0000 0000 0000 0000 0000
00000080: 007f 7f00 0000 0000 0000 0000 0000 0000
00000090: 0000 0000 0000 0000 0000 0000 0000 0000
000000a0: 0000 0000 0000 0000 0000 0000 0000 0000
000000b0: 0000 0000 0000 0000 0000 0000 0000 0000
000000c0: 0000 7f00 0000 0000 0000 0000 0000 0000
000000d0: 0000 0000 0000 0000 0000 0000 0000 0000
000000e0: 0000 0000 0000 0000 0000 0000 0000 0000
000000f0: 0000 0000 0000 0000 0000 0000 0000 0000

arith.constant27 i1 [2, 1, 5, 16]
11 64 125 -123 -64 7 105 -54
87 58 -87 35 -23 -74 -54 3
78 -40 -14 108 -91 76 96 -34
73 115 37 -99 -1 -10 -106 -53
97 -27 -127 -45 41 27 100 97
-30 -11 -8 -48 98 98 111 -37
-24 14 98 53 -46 -19 21 68
-66 30 -75 -64 64 -87 113 -54
124 60 -12 55 1 1 -79 63
-48 95 78 120 56 -15 63 100
113 73 -120 -126 -49 -6 -55 88
61 -12 -74 -4 -50 -2 7 90
125 -105 -23 -66 83 -42 93 -49
-120 122 -9 127 99 -109 83 -5
-113 -88 115 -79 50 -101 39 73
-21 21 -126 52 95 -64 -100 28
-22 13 -1 -10 -85 77 -83 65
102 -36 -121 -110 -118 29 -36 -34
-122 -18 -63 -79 -32 36 -28 -95
-3 -120 -63 76 -67 41 38 -36
00000000: 0b40 7d85 c007 69ca 573a a923 e9b6 ca03
00000010: 4ed8 f26c a54c 60de 4973 259d fff6 96cb
00000020: 61e5 81d3 291b 6461 e2f5 f8d0 6262 6fdb
00000030: e80e 6235 d2ed 1544 be1e b5c0 40a9 71ca
00000040: 7c3c f437 0101 b13f d05f 4e78 38f1 3f64
00000050: 7149 8882 cffa c958 3df4 b6fc cefe 075a
00000060: 7d97 e9be 53d6 5dcf 887a f77f 6393 53fb
00000070: 8fa8 73b1 329b 2749 eb15 8234 5fc0 9c1c
00000080: ea0d fff6 ab4d ad41 66dc 8792 8a1d dcde
00000090: 86ee c1b1 e024 e4a1 fd88 c14c bd29 26dc

arith.constant28 i1 [16, 1, 5, 16]
22 -44 -106 112 73 -87 38 -127
17 -70 27 48 18 -42 -63 -1
-68 -50 -40 -81 41 17 -47 90
-95 66 -102 115 61 110 -76 -71
-52 -84 -107 89 52 -45 81 28
-36 -81 -85 -114 -67 58 -23 4
-123 -84 51 -118 -90 -32 72 77
86 -47 -115 58 103 -91 50 102
-74 2 -61 11 8 96 -104 -41
-44 -109 -10 11 111 108 -116 -66
-91 -48 120 -68 -126 86 107 -39
16 -86 29 -48 -5 -72 -17 45
-59 120 1 44 -117 -90 102 43
20 -110 101 41 31 -99 -30 66
-61 94 -90 15 -112 -6 -84 43
62 36 -59 -88 24 -96 -75 -62
-55 -27 102 -5 -26 99 -69 -116
-26 82 83 -4 107 -78 -70 -4
-49 -39 114 58 39 -117 14 -36
95 -33 120 -77 104 127 -30 34
-58 90 85 83 118 44 109 -14
72 71 -13 -87 126 37 -82 -98
-127 125 -85 25 119 -37 122 114
-82 -51 58 64 85 85 58 114
117 -123 -122 -48 -50 -121 -110 -66
-2 100 123 -93 -93 103 93 89
-55 -74 89 89 29 -39 0 -111
-63 123 93 108 124 48 -70 82
-23 -82 -6 -49 -64 43 -26 48
-3 56 -48 36 -76 21 -80 90
104 4 -119 -105 68 104 -4 62
112 -82 48 -101 -125 -20 44 117
00000000: 16d4 9670 49a9 2681 11ba 1b30 12d6 c1ff
00000010: bcce d8af 2911 d15a a142 9a73 3d6e b4b9
00000020: ccac 9559 34d3 511c dcaf ab8e bd3a e904
00000030: 85ac 338a a6e0 484d 56d1 8d3a 67a5 3266
00000040: b602 c30b 0860 98d7 d493 f60b 6f6c 8cbe
00000050: a5d0 78bc 8256 6bd9 10aa 1dd0 fbb8 ef2d
00000060: c578 012c 8ba6 662b 1492 6529 1f9d e242
00000070: c35e a60f 90fa ac2b 3e24 c5a8 18a0 b5c2
00000080: c9e5 66fb e663 bb8c e652 53fc 6bb2 bafc
00000090: cfd9 723a 278b 0edc 5fdf 78b3 687f e222
000000a0: c65a 5553 762c 6df2 4847 f3a9 7e25 ae9e
000000b0: 817d ab19 77db 7a72 aecd 3a40 5555 3a72
000000c0: 7585 86d0 ce87 92be fe64 7ba3 a367 5d59
000000d0: c9b6 5959 1dd9 0091 c17b 5d6c 7c30 ba52
000000e0: e9ae facf c02b e630 fd38 d024 b415 b05a
000000f0: 6804 8997 4468 fc3e 70ae 309b 83ec 2c75

arith.constant29 i1 [16, 3, 3, 16]
16 28 -45 92 -124 -45 -37 -113
-110 -117 120 17 67 -113 -30 68
96 20 87 -31 -24 51 64 126
27 34 -24 -103 -75 -48 -88 93
-81 19 70 -104 -6 64 3 -112
-102 -124 85 -125 -53 2 121 52
-120 16 -65 104 70 -121 -87 -115
91 -58 -7 -36 29 -44 -40 -74
-5 5 -71 121 -100 -47 24 -54
44 -127 54 -126 -31 -18 -95 -58
-34 57 1 52 -82 -110 113 116
-88 57 56 -121 77 51 33 -45
-41 -63 7 -18 -31 15 60 -2
1 -44 -119 -103 -47 34 95 108
-16 -35 -24 84 73 -55 -115 -24
-106 104 -50 20 107 -52 67 31
-110 -44 24 112 -34 1 19 27
18 88 82 -55 -22 -127 18 -62
52 55 -90 39 -54 50 15 -41
-36 44 -66 28 -126 41 25 -23
42 75 50 -82 -45 -103 106 48
-73 -47 -106 13 89 -100 63 -47
-73 -22 2 123 -79 28 -12 108
-50 54 -66 -24 -12 19 100 44
-6 61 -9 -19 -21 101 -21 25
92 -6 74 -23 110 -84 -23 126
91 -75 82 87 83 99 24 -16
123 -35 -12 -57 68 -48 20 -31
-116 -85 54 -62 -71 83 -114 45
56 107 -127 -17 119 -104 -49 75
24 27 106 -83 43 -58 61 -57
82 63 45 52 96 -27 -100 93
00000000: 101c d35c 84d3 db8f 928b 7811 438f e244
00000010: 6014 57e1 e833 407e 1b22 e899 b5d0 a85d
00000020: af13 4698 fa40 0390 9a84 5583 cb02 7934
00000030: 8810 bf68 4687 a98d 5bc6 f9dc 1dd4 d8b6
00000040: fb05 b979 9cd1 18ca 2c81 3682 e1ee a1c6
00000050: de39 0134 ae92 7174 a839 3887 4d33 21d3
00000060: d7c1 07ee e10f 3cfe 01d4 8999 d122 5f6c
00000070: f0dd e854 49c9 8de8 9668 ce14 6bcc 431f
00000080: 92d4 1870 de01 131b 1258 52c9 ea81 12c2
00000090: 3437 a627 ca32 0fd7 dc2c be1c 8229 19e9
000000a0: 2a4b 32ae d399 6a30 b7d1 960d 599c 3fd1
000000b0: b7ea 027b b11c f46c ce36 bee8 f413 642c
000000c0: fa3d f7ed eb65 eb19 5cfa 4ae9 6eac e97e
000000d0: 5bb5 5257 5363 18f0 7bdd f4c7 44d0 14e1
000000e0: 8cab 36c2 b953 8e2d 386b 81ef 7798 cf4b
000000f0: 181b 6aad 2bc6 3dc7 523f 2d34 60e5 9c5d

arith.constant30 i1 [64, 192]
127 0 0 0 0 0 0 0
0 0 0 0 0 0 0 0
0 0 0 0 0 0 0 0
0 0 0 0 0 0 0 0
0 0 0 0 0 0 0 0
0 0 0 0 0 0 0 0
0 0 0 0 0 0 0 0
0 0 0 0 0 0 0 0
0 0 0 0 0 0 0 0
0 0 0 0 0 0 0 0
0 0 0 0 0 0 0 0
0 0 0 0 0 0 0 0
0 0 0 0 0 0 0 0
0 0 0 0 0 0 0 0
0 0 0 0 0 0 0 0
0 0 0 0 0 0 0 0
0 0 0 0 0 0 0 0
0 0 0 0 0 0 0 0
0 0 0 0 0 0 0 0
0 0 0 0 0 0 0 0
0 0 0 0 0 0 0 0
0 0 0 0 0 0 0 0
0 0 0 0 0 0 0 0
0 0 0 0 0 0 0 0
0 127 64 0 0 0 0 0
0 0 0 0 0 0 0 0
0 0 0 0 0 0 0 0
0 0 0 0 0 0 0 0
0 0 0 0 0 0 0 0
0 0 0 0 0 0 0 0
0 0 0 0 0 0 0 0
0 0 0 0 0 0 0 0
00000000: 7f00 0000 0000 0000 0000 0000 0000 0000
00000010: 0000 0000 0000 0000 0000 0000 0000 0000
00000020: 0000 0000 0000 0000 0000 0000 0000 0000
00000030: 0000 0000 0000 0000 0000 0000 0000 0000
00000040: 0000 0000 0000 0000 0000 0000 0000 0000
00000050: 0000 0000 0000 0000 0000 0000 0000 0000
00000060: 0000 0000 0000 0000 0000 0000 0000 0000
00000070: 0000 0000 0000 0000 0000 0000 0000 0000
00000080: 0000 0000 0000 0000 0000 0000 0000 0000
00000090: 0000 0000 0000 0000 0000 0000 0000 0000
000000a0: 0000 0000 0000 0000 0000 0000 0000 0000
000000b0: 0000 0000 0000 0000 0000 0000 0000 0000
000000c0: 007f 4000 0000 0000 0000 0000 0000 0000
000000d0: 0000 0000 0000 0000 0000 0000 0000 0000
000000e0: 0000 0000 0000 0000 0000 0000 0000 0000
000000f0: 0000 0000 0000 0000 0000 0000 0000 0000

arith.constant38 i1 [16, 1, 1, 16]
57 -102 89 -127 49 -43 47 -6
-123 -10 -122 13 23 -17 -59 -79
117 110 70 1 -71 -80 -87 -24
-127 -21 -68 -44 30 125 32 26
112 -92 71 5 42 -20 -48 23
17 52 15 -109 41 59 127 76
20 -63 -48 111 -95 -89 5 -68
-121 118 127 -107 125 25 78 121
7 -31 70 -76 -55 60 -65 79
127 -86 99 -89 37 -119 -92 -62
127 -89 -102 67 79 102 -23 -2
-124 112 59 -31 18 60 -14 -34
-92 -127 -117 93 65 -23 3 27
55 -108 47 -104 107 -18 -86 -17
-97 -11 112 33 -54 84 79 -9
-88 -106 -87 76 32 -26 -4 -127
118 -40 79 -109 126 -127 9 -102
65 74 -33 -71 -47 -98 -22 -123
-66 22 -83 21 40 65 -98 127
118 -55 -121 -75 -49 -114 82 20
-24 -21 12 -54 -16 -67 30 -76
-84 -75 -27 -127 29 25 99 -52
25 -127 97 80 -119 -59 -11 -63
62 100 -15 24 -97 -113 -66 74
114 37 -61 -95 127 -26 -103 -16
35 91 -18 -96 22 -49 53 -67
-107 88 -101 81 -25 107 -93 -3
-99 -10 127 -9 -25 114 67 -20
-49 112 -110 -8 -88 127 -20 57
-125 -68 0 24 28 -20 4 107
116 -43 64 127 -60 -127 103 -6
-13 -82 63 -99 -5 35 87 25
00000000: 399a 5981 31d5 2ffa 85f6 860d 17ef c5b1
00000010: 756e 4601 b9b0 a9e8 81eb bcd4 1e7d 201a
00000020: 70a4 4705 2aec d017 1134 0f93 293b 7f4c
00000030: 14c1 d06f a1a7 05bc 8776 7f95 7d19 4e79
00000040: 07e1 46b4 c93c bf4f 7faa 63a7 2589 a4c2
00000050: 7fa7 9a43 4f66 e9fe 8470 3be1 123c f2de
00000060: a481 8b5d 41e9 031b 3794 2f98 6bee aaef
00000070: 9ff5 7021 ca54 4ff7 a896 a94c 20e6 fc81
00000080: 76d8 4f93 7e81 099a 414a dfb9 d19e ea85
00000090: be16 ad15 2841 9e7f 76c9 87b5 cf8e 5214
000000a0: e8eb 0cca f0bd 1eb4 acb5 e581 1d19 63cc
000000b0: 1981 6150 89c5 f5c1 3e64 f118 9f8f be4a
000000c0: 7225 c3a1 7fe6 99f0 235b eea0 16cf 35bd
000000d0: 9558 9b51 e76b a3fd 9df6 7ff7 e772 43ec
000000e0: cf70 92f8 a87f ec39 83bc 0018 1cec 046b
000000f0: 74d5 407f c481 67fa f3ae 3f9d fb23 5719

arith.constant39 i1 [1, 3, 1, 16]
127 48 50 50 -6 -127 14 -114
127 31 86 45 -10 -127 -96 103
-126 97 68 -127 127 65 -54 -127
-34 -127 127 -127 -74 67 -24 -127
32 127 -127 -39 55 46 -127 -58
-103 54 -98 46 -127 -88 127 117
00000000: 7f30 3232 fa81 0e8e 7f1f 562d f681 a067
00000010: 8261 4481 7f41 ca81 de81 7f81 b643 e881
00000020: 207f 81d9 372e 81c6 9936 9e2e 81a8 7f75

arith.constant40 i1 [16, 1, 1, 16]
52 -69 -51 -88 35 -127 -94 -29
99 57 -74 118 -105 25 93 -101
-101 74 101 101 -57 117 23 -4
16 26 -93 65 -86 99 127 -41
-127 96 48 56 -81 -41 -81 -31
-30 4 -90 118 -127 108 -17 51
109 107 -43 -34 55 -19 73 28
-82 61 11 -114 61 -127 -127 96
-21 -70 12 -92 -74 63 -84 -25
71 -13 127 -112 -7 -95 -122 38
-102 -43 93 77 79 -120 -82 77
-44 -103 -13 68 117 93 -85 127
90 -7 63 -90 -117 127 79 -93
-103 69 -58 -101 111 -75 -71 -116
-25 -101 -11 49 17 49 127 94
-50 112 45 -86 -49 76 17 -109
121 -48 -4 -44 -45 21 100 -15
-90 -39 34 84 4 52 -114 127
-55 3 -101 -76 71 -60 65 -40
-115 -19 -88 -127 -9 -127 -101 50
-40 -95 -18 94 -44 -77 -73 -35
-1 119 -40 127 -16 -72 -61 -120
-73 -127 -47 90 107 1 -32 -93
-120 -75 -117 112 -29 31 -35 -79
28 -57 -16 20 -7 -45 121 -96
-37 127 44 -75 110 -25 30 14
65 14 105 -88 -125 113 -45 59
8 -127 -8 -51 117 71 96 89
-8 -108 120 82 -10 -52 -44 35
-51 127 -18 44 -57 -91 -60 11
-31 123 -109 -5 114 -15 108 -121
-114 -108 -76 -127 -91 -11 -27 127
00000000: 34bb cda8 2381 a2e3 6339 b676 9719 5d9b
00000010: 9b4a 6565 c775 17fc 101a a341 aa63 7fd7
00000020: 8160 3038 afd7 afe1 e204 a676 816c ef33
00000030: 6d6b d5de 37ed 491c ae3d 0b8e 3d81 8160
00000040: ebba 0ca4 b63f ace7 47f3 7f90 f9a1 8626
00000050: 9ad5 5d4d 4f88 ae4d d499 f344 755d ab7f
00000060: 5af9 3fa6 8b7f 4fa3 9945 c69b 6fb5 b98c
00000070: e79b f531 1131 7f5e ce70 2daa cf4c 1193
00000080: 79d0 fcd4 d315 64f1 a6d9 2254 0434 8e7f
00000090: c903 9bb4 47c4 41d8 8ded a881 f781 9b32
000000a0: d8a1 ee5e d4b3 b7dd ff77 d87f f0b8 c388
000000b0: b781 d15a 6b01 e0a3 88b5 8b70 e31f ddb1
000000c0: 1cc7 f014 f9d3 79a0 db7f 2cb5 6ee7 1e0e
000000d0: 410e 69a8 8371 d33b 0881 f8cd 7547 6059
000000e0: f894 7852 f6cc d423 cd7f ee2c c7a5 c40b
000000f0: e17b 93fb 72f1 6c87 8e94 b481 a5f5 e57f

arith.constant41 i1 [16, 1, 1, 16]
-92 -78 0 42 59 53 -20 90
127 -84 -127 48 -55 -28 18 -111
-24 -45 66 69 -83 127 127 -109
-7 57 -19 77 -5 17 -86 99
106 -97 12 -127 -62 -116 -6 7
87 -6 -57 -24 -18 -46 -65 -87
-91 21 122 -78 -70 -106 115 44
-91 127 -26 -120 43 -110 -79 81
-127 25 -99 29 17 -105 69 -126
36 37 110 -83 -56 -93 -112 23
-114 72 -94 35 -121 37 58 -10
91 -59 -68 9 127 6 -118 22
69 31 58 79 -37 9 1 106
-103 108 127 89 -80 59 -51 59
73 29 -127 -96 -33 30 6 -125
38 -78 28 27 -10 -88 -33 73
-28 127 -47 -114 -29 103 -24 26
-59 70 -20 45 56 82 -117 -28
13 -106 44 -31 9 -9 127 -49
59 -32 90 36 -123 -42 -80 63
45 -35 -39 -59 127 42 53 35
-20 -58 -66 40 31 72 15 102
-127 118 -30 50 78 22 99 37
88 5 -30 -9 -72 -79 -57 2
127 -27 52 117 -50 -59 59 -90
52 93 29 -9 17 -41 -7 113
86 -67 -9 25 -60 127 39 63
72 75 -62 -58 -104 -122 15 18
35 67 127 106 -19 60 81 72
-81 57 -119 -16 97 77 64 -11
-127 99 -1 110 28 13 -36 65
81 71 -10 33 105 -24 -24 -61
00000000: a4b2 002a 3b35 ec5a 7fac 8130 c9e4 1291
00000010: e8d3 4245 ad7f 7f93 f939 ed4d fb11 aa63
00000020: 6a9f 0c81 c28c fa07 57fa c7e8 eed2 bfa9
00000030: a515 7ab2 ba96 732c a57f e688 2b92 b151
00000040: 8119 9d1d 1197 4582 2425 6ead c8a3 9017
00000050: 8e48 a223 8725 3af6 5bc5 bc09 7f06 8a16
00000060: 451f 3a4f db09 016a 996c 7f59 b03b cd3b
00000070: 491d 81a0 df1e 0683 26b2 1c1b f6a8 df49
00000080: e47f d18e e367 e81a c546 ec2d 3852 8be4
00000090: 0d96 2ce1 09f7 7fcf 3be0 5a24 85d6 b03f
000000a0: 2ddd d9c5 7f2a 3523 ecc6 be28 1f48 0f66
000000b0: 8176 e232 4e16 6325 5805 e2f7 b8b1 c702
000000c0: 7fe5 3475 cec5 3ba6 345d 1df7 11d7 f971
000000d0: 56bd f719 c47f 273f 484b c2c6 9886 0f12
000000e0: 2343 7f6a ed3c 5148 af39 89f0 614d 40f5
000000f0: 8163 ff6e 1c0d dc41 5147 f621 69e8 e8c3

arith.constant42 i1 [1, 3, 1, 16]
-127 -122 5 -116 -72 -33 -127 -40
71 127 -77 -4 76 -118 11 -127
-39 127 46 127 -36 127 -102 -127
127 126 -84 57 127 -127 -54 20
8 -81 127 74 127 46 10 66
9 93 127 -127 -2 -37 -127 -110
00000000: 8186 058c b8df 81d8 477f b3fc 4c8a 0b81
00000010: d97f 2e7f dc7f 9a81 7f7e ac39 7f81 ca14
00000020: 08af 7f4a 7f2e 0a42 095d 7f81 fedb 8192

arith.constant43 i1 [16, 1, 1, 16]
28 -24 127 -111 -101 -45 -48 110
-40 35 -10 -125 42 29 -79 29
-13 -43 127 -81 103 -3 10 -109
-120 15 -49 -95 30 47 -50 111
122 -3 8 93 17 -94 118 -81
-127 -115 114 -44 -122 48 111 -1
104 -9 -127 29 48 -83 42 -17
-6 -124 28 -10 -21 36 -79 2
67 -4 -127 25 87 -86 -60 92
-49 -18 56 39 25 11 15 44
-16 -4 118 81 -127 113 -1 -111
-94 88 92 4 -98 117 -99 82
-30 77 -66 46 103 14 -86 -112
124 -90 -96 -75 -127 -6 22 122
22 -107 12 34 19 100 0 9
54 -124 127 -56 119 -62 -16 122
119 63 -102 21 85 -70 79 -74
-118 -76 83 21 111 127 -113 67
-21 -21 -45 -109 -90 -32 -45 24
63 2 105 -61 46 -127 -5 81
-99 16 -111 71 75 36 94 127
-78 55 66 -87 -22 125 12 -10
30 -115 68 -23 -47 -11 91 102
-127 -64 18 66 89 52 -67 118
-99 -20 -44 53 94 -35 77 16
119 -111 119 -95 -70 30 -64 -127
21 127 53 125 -75 -87 -31 -78
-108 -84 119 78 9 -25 96 -48
49 105 79 -84 127 -111 -61 65
-75 45 50 84 -7 71 66 -94
80 122 113 80 -33 -1 68 -108
97 -96 -97 17 97 25 127 102
00000000: 1ce8 7f91 9bd3 d06e d823 f683 2a1d b11d
00000010: f3d5 7faf 67fd 0a93 880f cfa1 1e2f ce6f
00000020: 7afd 085d 11a2 76af 818d 72d4 8630 6fff
00000030: 68f7 811d 30ad 2aef fa84 1cf6 eb24 b102
00000040: 43fc 8119 57aa c45c cfee 3827 190b 0f2c
00000050: f0fc 7651 8171 ff91 a258 5c04 9e75 9d52
00000060: e24d be2e 670e aa90 7ca6 a0b5 81fa 167a
00000070: 1695 0c22 1364 0009 3684 7fc8 77c2 f07a
00000080: 773f 9a15 55ba 4fb6 8ab4 5315 6f7f 8f43
00000090: ebeb d393 a6e0 d318 3f02 69c3 2e81 fb51
000000a0: 9d10 9147 4b24 5e7f b237 42a9 ea7d 0cf6
000000b0: 1e8d 44e9 d1f5 5b66 81c0 1242 5934 bd76
000000c0: 9dec d435 5edd 4d10 7791 77a1 ba1e c081
000000d0: 157f 357d b5a9 e1b2 94ac 774e 09e7 60d0
000000e0: 3169 4fac 7f91 c341 b52d 3254 f947 42a2
000000f0: 507a 7150 dfff 4494 61a0 9f11 6119 7f66

arith.constant44 i1 [16, 1, 1, 16]
-101 -108 -121 65 -30 92 89 15
97 -105 78 76 -61 113 -127 -72
-24 91 67 -5 40 71 50 -42
20 -17 117 -80 -127 -98 -67 -27
-90 84 -112 -84 11 12 -74 -127
-48 89 32 -56 -79 -102 -100 77
-25 -125 54 31 -32 -45 -47 -40
48 38 -62 -93 111 111 71 127
-83 24 127 91 -25 -61 -21 71
118 -47 -112 -70 69 121 -94 125
36 57 -112 35 6 117 -127 -123
-37 11 43 -100 57 106 3 -38
-56 -125 97 -40 -35 73 28 127
86 57 94 -127 11 3 -25 112
-13 -95 127 -18 99 -67 -115 -53
-112 -81 78 23 -37 -46 -30 10
-69 32 66 -104 -31 91 98 -23
-40 -59 8 92 -28 -127 -52 -26
10 -28 73 -19 -30 109 32 -37
55 20 -110 -127 35 -32 -103 125
-113 -21 75 -112 1 90 115 107
108 -39 -11 -127 -54 107 -38 7
-127 -103 110 78 52 118 84 21
80 -3 -12 -76 62 59 -91 -111
-127 -21 63 -63 51 7 -5 -63
-42 68 78 -43 25 -44 126 67
-102 -22 -33 -13 -113 49 127 112
-41 70 13 -7 127 89 113 9
127 -98 82 81 -59 -66 98 -65
-126 -60 -63 121 -68 35 97 50
-49 -109 -55 37 116 -19 10 -55
127 -105 -8 -27 -103 104 55 -38
00000000: 9b94 8741 e25c 590f 6197 4e4c c371 81b8
00000010: e85b 43fb 2847 32d6 14ef 75b0 819e bde5
00000020: a654 90ac 0b0c b681 d059 20c8 b19a 9c4d
00000030: e783 361f e0d3 d1d8 3026 c2a3 6f6f 477f
00000040: ad18 7f5b e7c3 eb47 76d1 90ba 4579 a27d
00000050: 2439 9023 0675 8185 db0b 2b9c 396a 03da
00000060: c883 61d8 dd49 1c7f 5639 5e81 0b03 e770
00000070: f3a1 7fee 63bd 8dcb 90af 4e17 dbd2 e20a
00000080: bb20 4298 e15b 62e9 d8c5 085c e481 cce6
00000090: 0ae4 49ed e26d 20db 3714 9281 23e0 997d
000000a0: 8feb 4b90 015a 736b 6cd9 f581 ca6b da07
000000b0: 8199 6e4e 3476 5415 50fd f4b4 3e3b a591
000000c0: 81eb 3fc1 3307 fbc1 d644 4ed5 19d4 7e43
000000d0: 9aea dff3 8f31 7f70 d746 0df9 7f59 7109
000000e0: 7f9e 5251 c5be 62bf 82c4 c179 bc23 6132
000000f0: cf93 c925 74ed 0ac9 7f97 f8e5 9968 37da

arith.constant45 i1 [1, 3, 1, 16]
127 16 80 127 47 -127 119 127
121 -106 -33 -47 -127 -73 -34 31
120 -127 127 1 -88 -18 -127 -58
-127 127 -4 127 -82 45 -25 -118
-106 -69 -115 101 -127 28 -67 -71
-78 -88 127 -37 -98 -127 -127 127
00000000: 7f10 507f 2f81 777f 7996 dfd1 81b7 de1f
00000010: 7881 7f01 a8ee 81c6 817f fc7f ae2d e78a
00000020: 96bb 8d65 811c bdb9 b2a8 7fdb 9e81 817f

arith.constant46 i1 [16, 1, 1, 16]
-119 -61 -115 -36 24 -109 -115 127
-58 -6 54 109 20 -125 -28 87
-3 -44 -127 -124 -90 40 -127 -52
-87 77 -50 49 -10 10 -58 62
-83 -20 -124 -67 127 116 -15 32
-27 -54 118 112 19 -73 -21 -112
-12 115 -124 -48 67 127 -8 -70
104 -93 60 -3 -93 -117 0 81
126 127 99 60 22 -113 78 -13
-95 -13 37 -38 8 -36 -7 -72
39 -4 1 127 -114 -27 67 -13
123 84 -4 73 93 44 -84 -17
72 76 93 96 -15 -32 54 88
-11 48 37 62 -69 -127 -17 113
-7 -92 -59 105 94 9 -40 15
-28 38 -80 117 -1 -36 57 127
51 -43 -82 100 60 88 26 -120
-67 -16 110 -84 44 -124 63 127
59 113 81 36 -66 -102 -61 -126
13 -127 89 -119 -42 107 -92 4
-37 71 44 93 105 -89 -81 103
72 94 -5 111 -119 -127 122 -43
104 -96 71 -27 -54 7 -127 83
-28 -80 73 74 34 -102 6 113
-98 53 86 -104 -4 124 110 8
-127 117 25 -43 -127 -59 122 -103
-114 77 -60 -118 22 -125 -63 -81
-118 -36 -106 -7 -73 52 -127 -117
127 78 -125 102 103 -107 -20 -105
121 1 34 121 6 -36 -37 -101
118 3 -36 79 -43 0 91 81
-54 1 127 103 -91 105 -42 -63
00000000: 89c3 8ddc 1893 8d7f c6fa 366d 1483 e457
00000010: fdd4 8184 a628 81cc a94d ce31 f60a c63e
00000020: adec 84bd 7f74 f120 e5ca 7670 13b7 eb90
00000030: f473 84d0 437f f8ba 68a3 3cfd a38b 0051
00000040: 7e7f 633c 168f 4ef3 a1f3 25da 08dc f9b8
00000050: 27fc 017f 8ee5 43f3 7b54 fc49 5d2c acef
00000060: 484c 5d60 f1e0 3658 f530 253e bb81 ef71
00000070: f9a4 c569 5e09 d80f e426 b075 ffdc 397f
00000080: 33d5 ae64 3c58 1a88 bdf0 6eac 2c84 3f7f
00000090: 3b71 5124 be9a c382 0d81 5989 d66b a404
000000a0: db47 2c5d 69a7 af67 485e fb6f 8981 7ad5
000000b0: 68a0 47e5 ca07 8153 e4b0 494a 229a 0671
000000c0: 9e35 5698 fc7c 6e08 8175 19d5 81c5 7a99
000000d0: 8e4d c48a 1683 c1af 8adc 96f9 b734 818b
000000e0: 7f4e 8366 6795 ec97 7901 2279 06dc db9b
000000f0: 7603 dc4f d500 5b51 ca01 7f67 a569 d6c1

arith.constant47 i1 [16, 1, 1, 16]
-40 127 -106 34 -15 49 103 -13
-105 101 57 28 48 29 -44 -47
92 91 -39 43 -65 -23 91 110
-127 -99 106 67 -72 21 36 -46
-80 14 108 -102 -57 -65 127 -54
57 -78 -52 -94 50 -115 34 -81
-102 18 4 58 127 36 24 8
-83 55 71 -104 -40 53 -99 96
-114 -40 20 -98 -39 80 91 84
-107 -72 -4 54 -41 99 -103 127
-120 86 -127 -29 2 95 21 -101
-36 -25 103 -4 -99 -60 20 -101
56 -79 -45 -17 -16 -52 16 -19
-59 -83 41 127 -39 -90 125 -38
-95 96 -127 108 75 -97 107 32
76 -37 24 -108 -5 7 -84 -65
-56 -45 -113 -6 -127 -61 10 32
113 60 32 34 114 -88 45 66
30 18 120 -127 4 63 106 121
10 117 58 -15 -41 118 90 45
-73 11 -13 122 -46 -68 -99 -61
92 62 127 74 -32 27 -121 106
4 36 10 -122 -127 -9 125 -120
-118 -52 -46 71 127 105 -32 33
-119 69 32 -127 -24 -116 90 -61
-122 37 47 -29 -62 -124 -13 32
101 59 -112 -104 -121 40 -105 -118
76 64 -87 118 36 125 127 -1
-26 123 -108 83 89 -10 -122 -94
-127 25 110 -71 107 -35 124 -103
-121 -127 -108 -54 -28 -116 55 23
-100 -85 -42 26 45 53 -106 33
00000000: d87f 9622 f131 67f3 9765 391c 301d d4d1
00000010: 5c5b d92b bfe9 5b6e 819d 6a43 b815 24d2
00000020: b00e 6c9a c7bf 7fca 39b2 cca2 328d 22af
00000030: 9a12 043a 7f24 1808 ad37 4798 d835 9d60
00000040: 8ed8 149e d950 5b54 95b8 fc36 d763 997f
00000050: 8856 81e3 025f 159b dce7 67fc 9dc4 149b
00000060: 38b1 d3ef f0cc 10ed c5ad 297f d9a6 7dda
00000070: a160 816c 4b9f 6b20 4cdb 1894 fb07 acbf
00000080: c8d3 8ffa 81c3 0a20 713c 2022 72a8 2d42
00000090: 1e12 7881 043f 6a79 0a75 3af1 d776 5a2d
000000a0: b70b f37a d2bc 9dc3 5c3e 7f4a e01b 876a
000000b0: 0424 0a86 81f7 7d88 8acc d247 7f69 e021
000000c0: 8945 2081 e88c 5ac3 8625 2fe3 c284 f320
000000d0: 653b 9098 8728 978a 4c40 a976 247d 7fff
000000e0: e67b 9453 59f6 86a2 8119 6eb9 6bdd 7c99
000000f0: 8781 94ca e48c 3717 9cab d61a 2d35 9621

arith.constant48 i1 [1, 3, 1, 16]
77 107 -127 73 -9 100 40 127
127 127 -12 -127 16 -127 -87 71
-6 87 103 -51 127 45 76 1
95 -77 -22 126 127 123 -78 -122
127 127 125 127 31 -127 -127 124
124 -127 127 -23 -71 38 -127 127
00000000: 4d6b 8149 f764 287f 7f7f f481 1081 a947
00000010: fa57 67cd 7f2d 4c01 5fb3 ea7e 7f7b b286
00000020: 7f7f 7d7f 1f81 817c 7c81 7fe9 b926 817f

arith.constant49 i1 [16, 1, 1, 16]
65 99 -31 -85 -118 84 62 -84
73 -112 -80 82 4 -127 126 -23
82 -116 -127 -57 -56 -39 9 -77
14 96 -36 -78 -37 -5 30 74
-108 -62 -18 -127 124 -21 -1 13
10 70 -4 -91 7 -52 13 122
-82 127 -49 -18 -116 111 -71 2
-29 114 121 -28 64 40 30 77
-117 107 -8 24 7 -42 64 -117
101 -105 44 123 73 -96 -127 -71
-101 79 -115 127 92 123 -22 59
81 -92 -23 -42 -18 52 36 127
101 -7 -97 -47 -53 -88 -68 38
-98 127 -75 -12 -42 -76 120 69
-120 -117 127 98 -108 -104 35 66
-106 6 27 48 92 59 17 -55
-57 11 -126 75 -76 -98 -12 25
127 -48 -40 99 -53 -31 114 0
127 -7 73 -38 -41 40 39 -98
86 60 86 119 6 -46 12 54
-30 71 -50 49 -59 71 90 26
-28 94 -127 127 -66 -9 1 -1
3 108 -8 -123 -86 71 -127 -118
105 -21 -124 24 107 -6 31 -66
-111 -94 -61 -45 127 -83 47 59
19 -98 -107 -88 -45 -79 -7 -19
-126 -16 -12 -57 64 15 -59 -111
48 -127 63 96 -16 -13 76 -76
-66 -76 -16 -127 6 14 -74 52
-27 -56 -59 -29 53 -40 -119 6
18 124 59 -50 97 106 -107 -53
13 -120 18 25 -67 107 -37 -127
00000000: 4163 e1ab 8a54 3eac 4990 b052 0481 7ee9
00000010: 528c 81c7 c8d9 09b3 0e60 dcb2 dbfb 1e4a
00000020: 94c2 ee81 7ceb ff0d 0a46 fca5 07cc 0d7a
00000030: ae7f cfee 8c6f b902 e372 79e4 4028 1e4d
00000040: 8b6b f818 07d6 408b 6597 2c7b 49a0 81b9
00000050: 9b4f 8d7f 5c7b ea3b 51a4 e9d6 ee34 247f
00000060: 65f9 9fd1 cba8 bc26 9e7f b5f4 d6b4 7845
00000070: 888b 7f62 9498 2342 9606 1b30 5c3b 11c9
00000080: c70b 824b b49e f419 7fd0 d863 cbe1 7200
00000090: 7ff9 49da d728 279e 563c 5677 06d2 0c36
000000a0: e247 ce31 c547 5a1a e45e 817f bef7 01ff
000000b0: 036c f885 aa47 818a 69eb 8418 6bfa 1fbe
000000c0: 91a2 c3d3 7fad 2f3b 139e 95a8 d3b1 f9ed
000000d0: 82f0 f4c7 400f c591 3081 3f60 f0f3 4cb4
000000e0: beb4 f081 060e b634 e5c8 c5e3 35d8 8906
000000f0: 127c 3bce 616a 95cb 0d88 1219 bd6b db81

arith.constant50 i1 [8, 1, 1, 16]
1 -124 92 -7 -127 -48 76 107
41 -70 -75 -2 34 83 108 -67
31 28 -62 127 116 -56 -23 -2
-108 97 123 -119 -120 -57 95 -33
35 96 75 -30 115 58 123 -80
59 121 -114 -46 -96 -6 127 111
74 -43 -105 102 -121 37 88 -114
127 74 -73 107 -69 123 88 53
-127 90 -93 44 -91 29 -46 63
45 -113 -5 104 108 11 -54 73
75 43 93 63 -12 73 -110 -127
-96 27 36 22 -114 -56 25 -12
8 80 29 -127 -58 -14 94 -127
60 -106 25 -104 -39 38 115 -22
-12 -93 127 106 -40 -12 -97 -95
76 -25 33 -101 -37 36 -55 74
00000000: 0184 5cf9 81d0 4c6b 29ba b5fe 2253 6cbd
00000010: 1f1c c27f 74c8 e9fe 9461 7b89 88c7 5fdf
00000020: 2360 4be2 733a 7bb0 3b79 8ed2 a0fa 7f6f
00000030: 4ad5 9766 8725 588e 7f4a b76b bb7b 5835
00000040: 815a a32c a51d d23f 2d8f fb68 6c0b ca49
00000050: 4b2b 5d3f f449 9281 a01b 2416 8ec8 19f4
00000060: 0850 1d81 c6f2 5e81 3c96 1998 d926 73ea
00000070: f4a3 7f6a d8f4 9fa1 4ce7 219b db24 c94a

arith.constant51 i1 [1, 3, 3, 16]
-116 65 -127 54 -109 93 50 31
-1 120 87 -59 120 21 -127 -112
-26 -127 -109 -28 -92 127 -82 -127
55 114 -2 -126 -39 -33 14 -57
24 -42 -30 66 95 -85 -40 -72
-100 89 6 1 -85 -101 -16 127
60 -83 -93 -83 -127 113 -127 52
112 35 -18 -46 62 73 -32 103
-93 -124 -25 -72 5 120 109 -122
-101 47 -66 50 64 -91 107 64
127 -19 55 127 89 -92 65 -115
84 -54 127 98 127 -77 7 83
-122 -38 40 18 116 -44 -124 126
-127 127 21 101 7 76 21 76
-91 -69 14 -61 4 -107 30 -4
-35 -28 -91 -127 -81 58 62 -19
-118 -86 -104 -88 36 -96 126 98
52 -26 48 -19 94 -127 -115 98
00000000: 8c41 8136 935d 321f ff78 57c5 7815 8190
00000010: e681 93e4 a47f ae81 3772 fe82 d9df 0ec7
00000020: 18d6 e242 5fab d8b8 9c59 0601 ab9b f07f
00000030: 3cad a3ad 8171 8134 7023 eed2 3e49 e067
00000040: a384 e7b8 0578 6d86 9b2f be32 40a5 6b40
00000050: 7fed 377f 59a4 418d 54ca 7f62 7fb3 0753
00000060: 86da 2812 74d4 847e 817f 1565 074c 154c
00000070: a5bb 0ec3 0495 1efc dde4 a581 af3a 3eed
00000080: 8aaa 98a8 24a0 7e62 34e6 30ed 5e81 8d62

arith.constant52 i1 [16, 1, 1, 8]
69 -17 81 -77 -127 33 -73 91
127 10 -30 -32 54 -58 -31 -96
77 45 -80 -127 -32 27 -37 -26
-100 -43 109 73 -76 110 -43 -127
-18 -50 -47 127 86 109 -107 118
23 -127 -56 -102 -71 -5 68 -28
127 -7 15 47 -23 11 8 -26
115 -112 1 -127 46 2 -84 -108
91 -127 -33 0 -97 41 -28 -115
119 79 81 125 -9 127 99 109
66 -69 -124 -127 -115 25 -39 -110
3 98 -110 120 2 72 -89 -127
-14 117 25 115 -104 -115 -61 127
-26 121 -31 77 12 -96 -127 111
30 -123 33 -46 16 -127 -5 -44
-72 -112 -9 -23 36 127 83 37
00000000: 45ef 51b3 8121 b75b 7f0a e2e0 36c6 e1a0
00000010: 4d2d b081 e01b dbe6 9cd5 6d49 b46e d581
00000020: eece d17f 566d 9576 1781 c89a b9fb 44e4
00000030: 7ff9 0f2f e90b 08e6 7390 0181 2e02 ac94
00000040: 5b81 df00 9f29 e48d 774f 517d f77f 636d
00000050: 42bb 8481 8d19 d992 0362 9278 0248 a781
00000060: f275 1973 988d c37f e679 e14d 0ca0 816f
00000070: 1e85 21d2 1081 fbd4 b890 f7e9 247f 5325

arith.constant53 i1 [16, 1, 5, 16]
-13 -116 -89 25 120 19 127 -65
-69 -80 -14 -105 -119 -5 125 124
-104 -15 32 -4 35 88 43 90
25 23 32 -44 48 -33 -95 -64
10 -126 -104 -27 -102 -112 43 57
62 -75 -51 -44 -88 -23 30 28
104 71 -1 -2 -39 -71 -21 120
-101 -60 74 57 -23 -5 20 -83
-72 74 26 110 105 36 114 -73
1 -119 -30 -53 8 117 -124 -77
26 127 96 -108 68 99 -41 -103
-27 -10 -52 62 -96 -32 40 -78
-96 -23 20 -91 108 -71 -91 3
120 72 63 106 95 73 32 121
40 59 8 -54 -16 22 15 -33
25 35 -76 -59 -52 33 -36 -73
-86 -40 -53 80 11 -31 93 35
-53 -124 -26 25 -120 123 -79 94
-50 -60 8 9 60 36 -20 13
-99 82 36 36 -81 105 -43 -123
-123 -88 -84 -41 98 31 -45 -117
32 21 52 -7 3 4 -73 29
-53 -55 45 49 38 122 87 -116
-29 53 113 50 -40 -106 -19 49
33 -97 -112 55 70 -127 -127 -83
99 55 82 49 1 122 -57 -104
-71 -74 -71 -37 89 -11 -82 -49
-42 -32 -113 -118 31 66 66 60
-97 -38 -105 -59 -60 95 29 39
97 -113 -107 108 40 55 62 -85
-21 23 -53 -25 34 50 60 41
32 33 -3 36 65 49 -72 123
00000000: f38c a719 7813 7fbf bbb0 f297 89fb 7d7c
00000010: 98f1 20fc 2358 2b5a 1917 20d4 30df a1c0
00000020: 0a82 98e5 9a90 2b39 3eb5 cdd4 a8e9 1e1c
00000030: 6847 fffe d9b9 eb78 9bc4 4a39 e9fb 14ad
00000040: b84a 1a6e 6924 72b7 0189 e2cb 0875 84b3
00000050: 1a7f 6094 4463 d799 e5f6 cc3e a0e0 28b2
00000060: a0e9 14a5 6cb9 a503 7848 3f6a 5f49 2079
00000070: 283b 08ca f016 0fdf 1923 b4c5 cc21 dcb7
00000080: aad8 cb50 0be1 5d23 cb84 e619 887b b15e
00000090: cec4 0809 3c24 ec0d 9d52 2424 af69 d585
000000a0: 85a8 acd7 621f d38b 2015 34f9 0304 b71d
000000b0: cbc9 2d31 267a 578c e335 7132 d896 ed31
000000c0: 219f 9037 4681 81ad 6337 5231 017a c798
000000d0: b9b6 b9db 59f5 aecf d6e0 8f8a 1f42 423c
000000e0: 9fda 97c5 c45f 1d27 618f 956c 2837 3eab
000000f0: eb17 cbe7 2232 3c29 2021 fd24 4131 b87b

arith.constant54 i1 [16, 1, 5, 3]
13 -17 -115 -116 81 49 -125 123
-60 127 -68 92 -33 127 -11 38
47 21 16 -117 -107 -56 -69 127
87 70 91 28 -101 115 -80 -103
-54 -35 45 -103 127 -53 -108 73
114 80 -37 -115 -117 79 -39 -41
-77 -100 -36 -106 41 74 127 99
72 -126 107 -84 -29 -40 81 35
-78 15 85 -80 121 -114 -97 63
-127 -36 -4 59 -105 87 -118 85
-62 -50 -96 57 -38 48 -127 -4
-67 114 -86 36 34 125 -13 102
-86 89 -20 -78 82 -31 -117 127
-118 19 -91 -23 -113 2 -85 -125
-24 -91 64 115 -127 -103 110 109
-33 62 9 -68 93 127 -90 101
-76 66 115 102 28 -113 38 -51
26 50 6 127 123 4 -20 -23
-62 97 69 113 18 99 75 -114
-4 -32 112 89 127 84 -10 -38
113 -85 67 84 40 77 32 27
-39 -122 93 -61 72 63 -127 -52
32 -120 50 -104 -3 32 -57 127
-37 10 -39 -50 38 32 94 11
16 62 -26 3 127 59 -127 -71
-89 98 25 9 123 17 15 118
21 43 -66 104 55 22 93 -15
93 -78 -3 20 -24 -66 86 -127
64 -25 -19 28 82 -98 78 86
107 74 109 -99 0 15 48 -127
00000000: 0def 8d8c 5131 837b c47f bc5c df7f f526
00000010: 2f15 108b 95c8 bb7f 5746 5b1c 9b73 b099
00000020: cadd 2d99 7fcb 9449 7250 db8d 8b4f d9d7
00000030: b39c dc96 294a 7f63 4882 6bac e3d8 5123
00000040: b20f 55b0 798e 9f3f 81dc fc3b 9757 8a55
00000050: c2ce a039 da30 81fc bd72 aa24 227d f366
00000060: aa59 ecb2 52e1 8b7f 8a13 a5e9 8f02 ab83
00000070: e8a5 4073 8199 6e6d df3e 09bc 5d7f a665
00000080: b442 7366 1c8f 26cd 1a32 067f 7b04 ece9
00000090: c261 4571 1263 4b8e fce0 7059 7f54 f6da
000000a0: 71ab 4354 284d 201b d986 5dc3 483f 81cc
000000b0: 2088 3298 fd20 c77f db0a d9ce 2620 5e0b
000000c0: 103e e603 7f3b 81b9 a762 1909 7b11 0f76
000000d0: 152b be68 3716 5df1 5db2 fd14 e8be 5681
000000e0: 40e7 ed1c 529e 4e56 6b4a 6d9d 000f 3081
