gtcrn_micro/models/tflite/gtcrn_s3_full_integer_quant_with_int16_act.tflite (tflite, 110896 bytes, 24 tensors)

arith.constant1 i1 [8, 1, 1, 16]
000000 7b d4 83 e7 60 e8 e6 45 b8 1f 81 ae 7f 25 de ab
       123 -44 -125 -25 96 -24 -26 69 -72 31 -127 -82 127 37 -34 -85
000010 88 c9 81 94 ab b3 71 87 d4 49 83 4e 6f 62 c5 a7
       -120 -55 -127 -108 -85 -77 113 -121 -44 73 -125 78 111 98 -59 -89
000020 ff bd f8 d3 15 d9 d1 2a 89 81 36 d2 c2 8c 40 a0
       -1 -67 -8 -45 21 -39 -47 42 -119 -127 54 -46 -62 -116 64 -96
000030 0f 4d 48 d2 3d 93 39 8c 09 d9 ed ea d6 c3 81 47
       15 77 72 -46 61 -109 57 -116 9 -39 -19 -22 -42 -61 -127 71
000040 24 10 a5 e2 44 d0 c1 04 99 c1 ab 7f 92 68 c9 21
       36 16 -91 -30 68 -48 -63 4 -103 -63 -85 127 -110 104 -55 33
000050 d7 bd e9 4b e6 bd 72 c7 97 b3 68 6d 40 5c 4c 81
       -41 -67 -23 75 -26 -67 114 -57 -105 -77 104 109 64 92 76 -127
000060 c2 15 55 55 c8 3c 5b 36 e3 cc f9 8f b4 9e 7f a8
       -62 21 85 85 -56 60 91 54 -29 -52 -7 -113 -76 -98 127 -88
000070 ab d2 52 f1 d7 22 49 07 8e bf 1d 7f 92 51 16 40
       -85 -46 82 -15 -41 34 73 7 -114 -65 29 127 -110 81 22 64

arith.constant3 i1 [16, 1, 1, 8]
000000 14 02 12 81 43 51 19 1f 14 37 0a e6 39 81 17 d9
       20 2 18 -127 67 81 25 31 20 55 10 -26 57 -127 23 -39
000010 81 ed 93 be 24 da d9 c5 16 fb 11 94 db 81 30 1a
       -127 -19 -109 -66 36 -38 -39 -59 22 -5 17 -108 -37 -127 48 26
000020 95 0d 27 7f 64 7c 4d c0 46 d9 32 9e 7d a4 7f 3b
       -107 13 39 127 100 124 77 -64 70 -39 50 -98 125 -92 127 59
000030 5d 24 7f 6e 43 6d 51 74 01 93 99 81 de 0a eb be
       93 36 127 110 67 109 81 116 1 -109 -103 -127 -34 10 -21 -66
000040 2e 81 6d 40 5d c5 37 5b b2 76 de 7f 46 20 50 e9
       46 -127 109 64 93 -59 55 91 -78 118 -34 127 70 32 80 -23
000050 7e 24 79 d9 8c 81 52 1f 0d d6 b6 a1 2d a5 96 7f
       126 36 121 -39 -116 -127 82 31 13 -42 -74 -95 45 -91 -106 127
000060 fc 72 7f ba 41 32 79 f4 c8 81 02 d9 1b 59 ad 5f
       -4 114 127 -70 65 50 121 -12 -56 -127 2 -39 27 89 -83 95
000070 40 4f 31 81 09 62 97 93 e2 fe 64 0f 81 30 06 87
       64 79 49 -127 9 98 -105 -109 -30 -2 100 15 -127 48 6 -121

arith.constant5 i1 [8, 1, 1, 16]
000000 e0 ff dc cd 4b 36 7f c3 59 42 63 eb 76 f8 d4 f9
       -32 -1 -36 -51 75 54 127 -61 89 66 99 -21 118 -8 -44 -7
000010 c5 d1 2d 75 ab b1 c0 d7 88 02 7c 82 cb f3 81 97
       -59 -47 45 117 -85 -79 -64 -41 -120 2 124 -126 -53 -13 -127 -105
000020 47 19 31 04 f7 d8 42 7f d3 b9 76 72 a6 41 02 54
       71 25 49 4 -9 -40 66 127 -45 -71 118 114 -90 65 2 84
000030 72 05 78 b1 87 81 07 82 98 0c fb 85 55 42 c3 55
       114 5 120 -79 -121 -127 7 -126 -104 12 -5 -123 85 66 -61 85
000040 34 ea 3e f5 35 0d a3 a7 9a 7f b4 7f 68 62 b9 04
       52 -22 62 -11 53 13 -93 -89 -102 127 -76 127 104 98 -71 4
000050 61 f3 96 96 b7 57 01 81 00 71 8c c1 1d 2c c9 c2
       97 -13 -106 -106 -73 87 1 -127 0 113 -116 -63 29 44 -55 -62
000060 01 53 2b 5f 7a 71 ff a7 c5 79 51 fc 17 e2 81 41
       1 83 43 95 122 113 -1 -89 -59 121 81 -4 23 -30 -127 65
000070 ef e9 af ed 32 46 cb 0f 81 75 29 34 1b 7f 1f 43
       -17 -23 -81 -19 50 70 -53 15 -127 117 41 52 27 127 31 67

arith.constant7 i1 [16, 1, 1, 8]
000000 7f 44 ef 9b 35 73 9f 07 98 a5 b1 81 73 fe 15 f4
       127 68 -17 -101 53 115 -97 7 -104 -91 -79 -127 115 -2 21 -12
000010 6f 78 8d fa bc b7 77 7f 42 86 ed 7f 02 cc 83 3d
       111 120 -115 -6 -68 -73 119 127 66 -122 -19 127 2 -52 -125 61
000020 36 a6 48 82 ee 4f 37 7f b8 81 18 6d 32 d4 af be
       54 -90 72 -126 -18 79 55 127 -72 -127 24 109 50 -44 -81 -66
000030 6e 7f 62 8f da f5 23 92 ab 66 cb 3f 6b 7f ee be
       110 127 98 -113 -38 -11 35 -110 -85 102 -53 63 107 127 -18 -66
000040 2a 36 7f 71 f2 d1 76 3a 46 a3 60 5b 7f 14 91 44
       42 54 127 113 -14 -47 118 58 70 -93 96 91 127 20 -111 68
000050 d8 fe 81 67 37 cd 2b 6b 7f b1 07 2d f6 01 8b 6f
       -40 -2 -127 103 55 -51 43 107 127 -79 7 45 -10 1 -117 111
000060 6a b8 ca 81 27 69 0a d6 7f f8 be 82 4e 69 58 57
       106 -72 -54 -127 39 105 10 -42 127 -8 -66 -126 78 105 88 87
000070 8d ef 81 9c 69 fc 84 7a 29 2b 0f fc 43 9c dc 81
       -115 -17 -127 -100 105 -4 -124 122 41 43 15 -4 67 -100 -36 -127

arith.constant9 i1 [8, 1, 1, 16]
000000 81 02 95 de 0f 68 ad 2c f2 da a4 37 14 78 8b 53
       -127 2 -107 -34 15 104 -83 44 -14 -38 -92 55 20 120 -117 83
000010 79 ca 20 3e b6 7f 60 ce ac cc e9 e9 5d fd 29 5f
       121 -54 32 62 -74 127 96 -50 -84 -52 -23 -23 93 -3 41 95
000020 d5 7f b5 5c e7 64 8e 6a 2d c8 9d db 8e cf f3 9a
       -43 127 -75 92 -25 100 -114 106 45 -56 -99 -37 -114 -49 -13 -102
000030 8c e9 7e bf 6a 0d 06 b2 f2 8f ea 14 a5 06 8a 7f
       -116 -23 126 -65 106 13 6 -78 -14 -113 -22 20 -91 6 -118 127
000040 ee 7f 1a f6 a7 c0 d4 36 14 e2 67 b6 de b5 de 27
       -18 127 26 -10 -89 -64 -44 54 20 -30 103 -74 -34 -75 -34 39
000050 c5 a5 12 e6 10 04 30 7f d4 6c 55 4a 1c 2f dd 00
       -59 -91 18 -26 16 4 48 127 -44 108 85 74 28 47 -35 0
000060 51 ab 0e 3c ce 2a 81 95 88 9a af 3a a6 59 37 61
       81 -85 14 60 -50 42 -127 -107 -120 -102 -81 58 -90 89 55 97
000070 20 e5 37 81 34 d6 25 f0 4a 77 32 78 87 7e 7b c7
       32 -27 55 -127 52 -42 37 -16 74 119 50 120 -121 126 123 -57

arith.constant11 i1 [16, 1, 1, 8]
000000 56 9b be 57 bf a6 7f 6e 95 21 41 9e 91 d6 31 81
       86 -101 -66 87 -65 -90 127 110 -107 33 65 -98 -111 -42 49 -127
000010 9f 41 b7 e7 81 b8 10 76 81 bc c7 52 15 4a f9 57
       -97 65 -73 -25 -127 -72 16 118 -127 -68 -57 82 21 74 -7 87
000020 b9 57 7f 27 f3 a9 2e b2 1f 95 89 7f a9 6c 18 e7
       -71 87 127 39 -13 -87 46 -78 31 -107 -119 127 -87 108 24 -25
000030 ef a7 f2 f1 64 7f 40 ad af 7f 69 51 d7 af 1b f1
       -17 -89 -14 -15 100 127 64 -83 -81 127 105 81 -41 -81 27 -15
000040 8b 38 20 f5 b3 aa 7f 43 74 4c 29 5a 51 e4 d0 81
       -117 56 32 -11 -77 -86 127 67 116 76 41 90 81 -28 -48 -127
000050 64 30 74 d2 7f fc d2 20 81 f1 65 0e 8c a1 3d 42
       100 48 116 -46 127 -4 -46 32 -127 -15 101 14 -116 -95 61 66
000060 c0 47 f3 3b b1 cf e9 81 92 60 7f 5c 37 32 df e5
       -64 71 -13 59 -79 -49 -23 -127 -110 96 127 92 55 50 -33 -27
000070 e7 27 2f b3 f6 81 d3 10 df da 3c 5f 7f 57 0d 2a
       -25 39 47 -77 -10 -127 -45 16 -33 -38 60 95 127 87 13 42

arith.constant30 i1 [192, 64]
000000 7f 00 00 00 00 00 00 00 00 00 00 00 00 00 00 00
       127 0 0 0 0 0 0 0 0 0 0 0 0 0 0 0
000010 00 00 00 00 00 00 00 00 00 00 00 00 00 00 00 00
       0 0 0 0 0 0 0 0 0 0 0 0 0 0 0 0
000020 00 00 00 00 00 00 00 00 00 00 00 00 00 00 00 00
       0 0 0 0 0 0 0 0 0 0 0 0 0 0 0 0
000030 00 00 00 00 00 00 00 00 00 00 00 00 00 00 00 00
       0 0 0 0 0 0 0 0 0 0 0 0 0 0 0 0
000040 00 7f 00 00 00 00 00 00 00 00 00 00 00 00 00 00
       0 127 0 0 0 0 0 0 0 0 0 0 0 0 0 0
000050 00 00 00 00 00 00 00 00 00 00 00 00 00 00 00 00
       0 0 0 0 0 0 0 0 0 0 0 0 0 0 0 0
000060 00 00 00 00 00 00 00 00 00 00 00 00 00 00 00 00
       0 0 0 0 0 0 0 0 0 0 0 0 0 0 0 0
000070 00 00 00 00 00 00 00 00 00 00 00 00 00 00 00 00
       0 0 0 0 0 0 0 0 0 0 0 0 0 0 0 0
000080 00 7f 7f 00 00 00 00 00 00 00 00 00 00 00 00 00
       0 127 127 0 0 0 0 0 0 0 0 0 0 0 0 0
000090 00 00 00 00 00 00 00 00 00 00 00 00 00 00 00 00
       0 0 0 0 0 0 0 0 0 0 0 0 0 0 0 0
0000a0 00 00 00 00 00 00 00 00 00 00 00 00 00 00 00 00
       0 0 0 0 0 0 0 0 0 0 0 0 0 0 0 0
0000b0 00 00 00 00 00 00 00 00 00 00 00 00 00 00 00 00
       0 0 0 0 0 0 0 0 0 0 0 0 0 0 0 0
0000c0 00 00 7f 00 00 00 00 00 00 00 00 00 00 00 00 00
       0 0 127 0 0 0 0 0 0 0 0 0 0 0 0 0
0000d0 00 00 00 00 00 00 00 00 00 00 00 00 00 00 00 00
       0 0 0 0 0 0 0 0 0 0 0 0 0 0 0 0
0000e0 00 00 00 00 00 00 00 00 00 00 00 00 00 00 00 00
       0 0 0 0 0 0 0 0 0 0 0 0 0 0 0 0
0000f0 00 00 00 00 00 00 00 00 00 00 00 00 00 00 00 00
       0 0 0 0 0 0 0 0 0 0 0 0 0 0 0 0

arith.constant31 i1 [2, 1, 5, 16]
000000 1c ab c0 44 90 8f f3 4c f7 f4 93 7f 59 94 55 e9
       28 -85 -64 68 -112 -113 -13 76 -9 -12 -109 127 89 -108 85 -23
000010 00 2a d6 1f 53 f9 c9 60 96 b0 aa 8e 3c 0f 02 9c
       0 42 -42 31 83 -7 -55 96 -106 -80 -86 -114 60 15 2 -100
000020 a4 af 91 a3 31 9d 35 4f ae b4 72 57 bb 65 b2 94
       -92 -81 -111 -93 49 -99 53 79 -82 -76 114 87 -69 101 -78 -108
000030 55 90 1d 7a b3 aa e8 9e 40 12 2c c8 0f 3d 07 b9
       85 -112 29 122 -77 -86 -24 -98 64 18 44 -56 15 61 7 -71
000040 3f 3c a5 1d 82 30 1d 4e df e1 6d 81 92 09 91 f7
       63 60 -91 29 -126 48 29 78 -33 -31 109 -127 -110 9 -111 -9
000050 53 db 52 49 a9 2b 38 e8 a9 b9 20 b6 66 63 6f e5
       83 -37 82 73 -87 43 56 -24 -87 -71 32 -74 102 99 111 -27
000060 f4 96 e2 b1 7c ef f2 29 d8 66 ea 90 7b 6b 5f 91
       -12 -106 -30 -79 124 -17 -14 41 -40 102 -22 -112 123 107 95 -111
000070 ba 60 81 a8 c0 13 d4 f8 91 c5 04 dd 2b 18 e5 a3
       -70 96 -127 -88 -64 19 -44 -8 -111 -59 4 -35 43 24 -27 -93
000080 1d 78 37 ad 60 5b 03 af 8b 1a af 9b af fa 9a d2
       29 120 55 -83 96 91 3 -81 -117 26 -81 -101 -81 -6 -102 -46
000090 e1 8e 09 63 d9 14 e6 a7 01 19 39 e7 7f 36 e5 8b
       -31 -114 9 99 -39 20 -26 -89 1 25 57 -25 127 54 -27 -117

arith.constant32 i1 [16, 1, 5, 16]
000000 57 78 21 61 25 f7 c3 a0 38 ff ad 3a 35 e2 b7 e9
       87 120 33 97 37 -9 -61 -96 56 -1 -83 58 53 -30 -73 -23
000010 af 7a 89 94 40 86 7c c7 49 0f 6d 49 bc 33 18 fd
       -81 122 -119 -108 64 -122 124 -57 73 15 109 73 -68 51 24 -3
000020 8f 1c 7f d9 c4 a7 e3 c2 a8 89 6c 4b d3 b7 82 a1
       -113 28 127 -39 -60 -89 -29 -62 -88 -119 108 75 -45 -73 -126 -95
000030 91 d6 6a c6 70 72 af 90 00 30 38 7a c4 16 c7 00
       -111 -42 106 -58 112 114 -81 -112 0 48 56 122 -60 22 -57 0
000040 1d e2 32 24 a0 17 14 a6 85 fd 3c 88 52 b4 2d b4
       29 -30 50 36 -96 23 20 -90 -123 -3 60 -120 82 -76 45 -76
000050 2d 11 cf cb 1b cf 8a b8 0c d7 ce 04 4c e2 18 c5
       45 17 -49 -53 27 -49 -118 -72 12 -41 -50 4 76 -30 24 -59
000060 49 61 60 5c 0b 0e 26 de eb db 0c 54 eb 9b ac 5d
       73 97 96 92 11 14 38 -34 -21 -37 12 84 -21 -101 -84 93
000070 6b 49 a6 bc 66 e8 63 45 0e ce d5 62 4b 61 95 31
       107 73 -90 -68 102 -24 99 69 14 -50 -43 98 75 97 -107 49
000080 48 a3 4e b4 30 8a 51 bb 5e 8d b8 32 2d c6 96 57
       72 -93 78 -76 48 -118 81 -69 94 -115 -72 50 45 -58 -106 87
000090 0a 7f 2a cd 8d 62 b7 d4 bc ff 5b 5a ba bf ab e8
       10 127 42 -51 -115 98 -73 -44 -68 -1 91 90 -70 -65 -85 -24
0000a0 75 38 de 9f 53 74 43 cc 42 ae d6 df 6f b2 d8 f4
       117 56 -34 -97 83 116 67 -52 66 -82 -42 -33 111 -78 -40 -12
0000b0 4d 11 95 c5 b6 cb 23 35 9c 41 10 6c 2a cf 18 d4
       77 17 -107 -59 -74 -53 35 53 -100 65 16 108 42 -49 24 -44
0000c0 fb dd 95 5f dc 96 10 a6 4a 19 33 4f 7a cf ca 6c
       -5 -35 -107 95 -36 -106 16 -90 74 25 51 79 122 -49 -54 108
0000d0 a1 7e 8b 9d c3 2e 81 8e a0 76 12 4d 21 49 21 4a
       -95 126 -117 -99 -61 46 -127 -114 -96 118 18 77 33 73 33 74
0000e0 e6 66 a8 35 2f 3c 65 ef 93 e8 68 f5 10 f8 60 b4
       -26 102 -88 53 47 60 101 -17 -109 -24 104 -11 16 -8 96 -76
0000f0 e3 ad 51 21 55 6a 66 ae 46 08 bd 30 30 17 a7 62
       -29 -83 81 33 85 106 102 -82 70 8 -67 48 48 23 -89 98

arith.constant33 i1 [16, 3, 3, 16]
000000 bb af 36 81 9e f1 16 0a fa 38 40 e4 c1 ed 9f 7a
       -69 -81 54 -127 -98 -15 22 10 -6 56 64 -28 -63 -19 -97 122
000010 9c 7c 12 5b f5 d4 a9 e2 99 f6 83 01 51 56 b7 5f
       -100 124 18 91 -11 -44 -87 -30 -103 -10 -125 1 81 86 -73 95
000020 38 89 00 dc 00 e0 33 2a 9b a1 ee a9 5c 18 c6 ac
       56 -119 0 -36 0 -32 51 42 -101 -95 -18 -87 92 24 -58 -84
000030 c0 b2 64 e0 4b 10 ba 44 89 9f 9b c3 cb 18 e8 e4
       -64 -78 100 -32 75 16 -70 68 -119 -97 -101 -61 -53 24 -24 -28
000040 14 67 40 ae 4f 4f dc d6 cf 06 54 c2 5b 08 af 3c
       20 103 64 -82 79 79 -36 -42 -49 6 84 -62 91 8 -81 60
000050 40 a9 1c 42 e3 8a 08 18 fc a9 e9 61 0a c6 78 cb
       64 -87 28 66 -29 -118 8 24 -4 -87 -23 97 10 -58 120 -53
000060 e8 a1 ee b4 2f 97 e4 58 bf ed f0 07 0e e5 d5 f1
       -24 -95 -18 -76 47 -105 -28 88 -65 -19 -16 7 14 -27 -43 -15
000070 e3 a1 81 44 c6 9c 35 a5 b6 96 c9 95 1b e3 85 46
       -29 -95 -127 68 -58 -100 53 -91 -74 -106 -55 -107 27 -29 -123 70
000080 f6 5d 01 2c c3 44 c0 c2 25 19 6c 39 26 62 95 eb
       -10 93 1 44 -61 68 -64 -62 37 25 108 57 38 98 -107 -21
000090 4e 8c 4e 64 0d 6f f6 f6 64 c1 03 60 e2 8b 44 ff
       78 -116 78 100 13 111 -10 -10 100 -63 3 96 -30 -117 68 -1
0000a0 b6 0a 90 d0 86 fd 82 df 08 94 91 20 9d 03 a0 b3
       -74 10 -112 -48 -122 -3 -126 -33 8 -108 -111 32 -99 3 -96 -77
0000b0 f7 3c fb d9 88 26 f1 a2 8f 10 b8 1e d9 07 2c be
       -9 60 -5 -39 -120 38 -15 -94 -113 16 -72 30 -39 7 44 -66
0000c0 f9 57 e4 13 ee 96 95 5c 88 eb 99 2f 45 ba 0f 2d
       -7 87 -28 19 -18 -106 -107 92 -120 -21 -103 47 69 -70 15 45
0000d0 d5 c1 f2 81 e5 a7 ee 20 c5 9d bc 68 33 88 ba 92
       -43 -63 -14 -127 -27 -89 -18 32 -59 -99 -68 104 51 -120 -70 -110
0000e0 d1 cc ac 11 e4 cb 7e e2 20 17 c1 be 40 79 26 24
       -47 -52 -84 17 -28 -53 126 -30 32 23 -63 -66 64 121 38 36
0000f0 be 38 08 b1 05 43 cb 56 53 77 6d ef ba 1e e4 91
       -66 56 8 -79 5 67 -53 86 83 119 109 -17 -70 30 -28 -111

arith.constant34 i1 [16, 3, 3, 16]
000000 2d 2d 70 da ad a1 c6 cb d9 c8 fa 6f f1 99 6a 9e
       45 45 112 -38 -83 -95 -58 -53 -39 -56 -6 111 -15 -103 106 -98
000010 97 b0 d4 c7 b0 c9 3e 4d ed 6c 5e 79 c6 f8 e7 3d
       -105 -80 -44 -57 -80 -55 62 77 -19 108 94 121 -58 -8 -25 61
000020 a3 0f 21 75 9b f1 6b f5 bd ee 8d 07 c4 37 fb b5
       -93 15 33 117 -101 -15 107 -11 -67 -18 -115 7 -60 55 -5 -75
000030 bd fd 27 14 4a 92 f5 d1 35 e0 b0 ec b4 61 e0 d6
       -67 -3 39 20 74 -110 -11 -47 53 -32 -80 -20 -76 97 -32 -42
000040 3d 2a ae 6d c9 98 a4 79 a7 0d 9c 08 f6 1a 71 d9
       61 42 -82 109 -55 -104 -92 121 -89 13 -100 8 -10 26 113 -39
000050 62 33 0a f5 7a 35 74 cc bd e8 8b d3 c1 ed e9 57
       98 51 10 -11 122 53 116 -52 -67 -24 -117 -45 -63 -19 -23 87
000060 63 23 70 a6 e5 b0 7d d5 83 1d 2a ad c5 da 31 b5
       99 35 112 -90 -27 -80 125 -43 -125 29 42 -83 -59 -38 49 -75
000070 17 eb 81 c9 f4 54 19 a6 5c f4 8d 16 6e 7c dc 93
       23 -21 -127 -55 -12 84 25 -90 92 -12 -115 22 110 124 -36 -109
000080 84 90 72 e0 0f 20 1d 08 be 32 70 d2 a9 44 8d 0d
       -124 -112 114 -32 15 32 29 8 -66 50 112 -46 -87 68 -115 13
000090 ae 42 a8 c0 2a 9f 17 01 99 f0 fb 0e 4e b3 59 14
       -82 66 -88 -64 42 -97 23 1 -103 -16 -5 14 78 -77 89 20
0000a0 52 73 59 34 e2 c3 4d 64 7e 7c 73 28 90 df 86 d0
       82 115 89 52 -30 -61 77 100 126 124 115 40 -112 -33 -122 -48
0000b0 97 05 50 a3 2a ad 62 37 70 20 de 37 50 3a 24 6f
       -105 5 80 -93 42 -83 98 55 112 32 -34 55 80 58 36 111
0000c0 07 51 84 2f e9 2f aa 79 6c 13 f2 14 28 11 50 74
       7 81 -124 47 -23 47 -86 121 108 19 -14 20 40 17 80 116
0000d0 86 56 a6 7e dd 00 af 8a fc 44 bd 22 be 7f 87 3e
       -122 86 -90 126 -35 0 -81 -118 -4 68 -67 34 -66 127 -121 62
0000e0 31 c6 b7 49 06 66 be 3f 4d b5 c0 b8 41 f8 5c a2
       49 -58 -73 73 6 102 -66 63 77 -75 -64 -72 65 -8 92 -94
0000f0 2b e4 5b 64 73 bb dd d8 15 3f 0b e8 84 dd be 6c
       43 -28 91 100 115 -69 -35 -40 21 63 11 -24 -124 -35 -66 108

arith.constant35 i1 [16, 3, 3, 16]
000000 63 71 0a a1 d3 d3 b8 e6 bd c6 8f 44 61 c5 b9 60
       99 113 10 -95 -45 -45 -72 -26 -67 -58 -113 68 97 -59 -71 96
000010 db d0 11 55 04 8b 48 4b c9 8d 08 98 79 64 b3 6b
       -37 -48 17 85 4 -117 72 75 -55 -115 8 -104 121 100 -77 107
000020 57 e2 5d e6 49 17 5c c3 0a e8 4d a2 51 c5 1f d3
       87 -30 93 -26 73 23 92 -61 10 -24 77 -94 81 -59 31 -45
000030 cb 5e cd fb 54 36 06 9b cd 91 21 e4 e1 18 f6 a7
       -53 94 -51 -5 84 54 6 -101 -51 -111 33 -28 -31 24 -10 -89
000040 0e 3a 65 b8 10 bb a0 85 a1 f3 be 83 ab e5 33 9a
       14 58 101 -72 16 -69 -96 -123 -95 -13 -66 -125 -85 -27 51 -102
000050 19 46 d3 ee bf 13 a6 bc 38 78 1d ff 12 da cd b4
       25 70 -45 -18 -65 19 -90 -68 56 120 29 -1 18 -38 -51 -76
000060 b6 39 eb db 41 5a 44 2b 9d 47 2d a6 7a ff ed a8
       -74 57 -21 -37 65 90 68 43 -99 71 45 -90 122 -1 -19 -88
000070 da f6 56 1e 25 fd 8d a8 2d c5 22 e5 57 d4 36 9e
       -38 -10 86 30 37 -3 -115 -88 45 -59 34 -27 87 -44 54 -98
000080 cf 82 e2 ab 49 aa c9 1c 14 81 2c 2a 21 9f 79 e7
       -49 -126 -30 -85 73 -86 -55 28 20 -127 44 42 33 -97 121 -25
000090 b3 88 26 12 16 24 52 43 46 76 4a 2a cb 61 aa cd
       -77 -120 38 18 22 36 82 67 70 118 74 42 -53 97 -86 -51
0000a0 58 ce f8 6c ed 8a a3 82 14 63 74 af 31 fe d2 1b
       88 -50 -8 108 -19 -118 -93 -126 20 99 116 -81 49 -2 -46 27
0000b0 84 84 85 09 e4 8a be 43 44 40 9c 38 ff cf 31 b6
       -124 -124 -123 9 -28 -118 -66 67 68 64 -100 56 -1 -49 49 -74
0000c0 12 9e 78 a1 24 bf f9 25 3a 26 8f 1c 2a 7e c8 dd
       18 -98 120 -95 36 -65 -7 37 58 38 -113 28 42 126 -56 -35
0000d0 61 04 51 35 61 93 bb 00 54 41 23 8f 7d 34 18 a8
       97 4 81 53 97 -109 -69 0 84 65 35 -113 125 52 24 -88
0000e0 88 9a 11 a1 89 c7 a4 19 db a2 98 7f d1 d8 3d 3b
       -120 -102 17 -95 -119 -57 -92 25 -37 -94 -104 127 -47 -40 61 59
0000f0 7e d0 f7 db 76 1c e8 09 3a 5f 1a 55 1c 94 03 10
       126 -48 -9 -37 118 28 -24 9 58 95 26 85 28 -108 3 16

arith.constant36 i1 [64, 192]
000000 7f 00 00 00 00 00 00 00 00 00 00 00 00 00 00 00
       127 0 0 0 0 0 0 0 0 0 0 0 0 0 0 0
000010 00 00 00 00 00 00 00 00 00 00 00 00 00 00 00 00
       0 0 0 0 0 0 0 0 0 0 0 0 0 0 0 0
000020 00 00 00 00 00 00 00 00 00 00 00 00 00 00 00 00
       0 0 0 0 0 0 0 0 0 0 0 0 0 0 0 0
000030 00 00 00 00 00 00 00 00 00 00 00 00 00 00 00 00
       0 0 0 0 0 0 0 0 0 0 0 0 0 0 0 0
000040 00 00 00 00 00 00 00 00 00 00 00 00 00 00 00 00
       0 0 0 0 0 0 0 0 0 0 0 0 0 0 0 0
000050 00 00 00 00 00 00 00 00 00 00 00 00 00 00 00 00
       0 0 0 0 0 0 0 0 0 0 0 0 0 0 0 0
000060 00 00 00 00 00 00 00 00 00 00 00 00 00 00 00 00
       0 0 0 0 0 0 0 0 0 0 0 0 0 0 0 0
000070 00 00 00 00 00 00 00 00 00 00 00 00 00 00 00 00
       0 0 0 0 0 0 0 0 0 0 0 0 0 0 0 0
000080 00 00 00 00 00 00 00 00 00 00 00 00 00 00 00 00
       0 0 0 0 0 0 0 0 0 0 0 0 0 0 0 0
000090 00 00 00 00 00 00 00 00 00 00 00 00 00 00 00 00
       0 0 0 0 0 0 0 0 0 0 0 0 0 0 0 0
0000a0 00 00 00 00 00 00 00 00 00 00 00 00 00 00 00 00
       0 0 0 0 0 0 0 0 0 0 0 0 0 0 0 0
0000b0 00 00 00 00 00 00 00 00 00 00 00 00 00 00 00 00
       0 0 0 0 0 0 0 0 0 0 0 0 0 0 0 0
0000c0 00 7f 40 00 00 00 00 00 00 00 00 00 00 00 00 00
       0 127 64 0 0 0 0 0 0 0 0 0 0 0 0 0
0000d0 00 00 00 00 00 00 00 00 00 00 00 00 00 00 00 00
       0 0 0 0 0 0 0 0 0 0 0 0 0 0 0 0
0000e0 00 00 00 00 00 00 00 00 00 00 00 00 00 00 00 00
       0 0 0 0 0 0 0 0 0 0 0 0 0 0 0 0
0000f0 00 00 00 00 00 00 00 00 00 00 00 00 00 00 00 00
       0 0 0 0 0 0 0 0 0 0 0 0 0 0 0 0

arith.constant46 i1 [8, 1, 1, 16]
000000 76 f1 da ef 82 b7 00 82 14 33 fe 81 3a 24 64 4f
       118 -15 -38 -17 -126 -73 0 -126 20 51 -2 -127 58 36 100 79
000010 d7 6e d4 b6 b2 90 7f 40 a8 1a d6 25 ff ed c6 c2
       -41 110 -44 -74 -78 -112 127 64 -88 26 -42 37 -1 -19 -58 -62
000020 ae 6d a8 64 02 7f c0 90 8c 1f 83 ac 0d ec 6e ac
       -82 109 -88 100 2 127 -64 -112 -116 31 -125 -84 13 -20 110 -84
000030 19 c8 50 20 2b f7 e6 06 9d f9 42 87 e2 13 e3 7f
       25 -56 80 32 43 -9 -26 6 -99 -7 66 -121 -30 19 -29 127
000040 d8 81 0c 6d 56 3a c4 8f d0 12 fc db 8d 56 10 c0
       -40 -127 12 109 86 58 -60 -113 -48 18 -4 -37 -115 86 16 -64
000050 19 ae 15 6b 81 75 7c 6b d0 07 0d 83 25 b7 79 54
       25 -82 21 107 -127 117 124 107 -48 7 13 -125 37 -73 121 84
000060 96 21 97 0c dd 7d d8 28 61 b5 7f be 8f ae 09 c1
       -106 33 -105 12 -35 125 -40 40 97 -75 127 -66 -113 -82 9 -63
000070 25 b0 25 bc dd 90 0a 7f ec 34 1b ae f7 48 72 70
       37 -80 37 -68 -35 -112 10 127 -20 52 27 -82 -9 72 114 112

arith.constant47 i1 [1, 3, 3, 16]
000000 e6 f3 7a e0 b0 52 c3 4d f6 d8 4e 01 b7 3f 7f b8
       -26 -13 122 -32 -80 82 -61 77 -10 -40 78 1 -73 63 127 -72
000010 94 03 bf 81 b7 a3 81 58 b5 7f 16 c7 9d 21 50 1a
       -108 3 -65 -127 -73 -93 -127 88 -75 127 22 -57 -99 33 80 26
000020 84 b8 8e 48 81 4e 77 10 6b bf 22 8c 66 30 8a 7f
       -124 -72 -114 72 -127 78 119 16 107 -65 34 -116 102 48 -118 127
000030 bb 97 3d 7a 05 7f e4 fa a0 b4 90 21 49 11 f6 b4
       -69 -105 61 122 5 127 -28 -6 -96 -76 -112 33 73 17 -10 -76
000040 47 81 7d a4 37 de 2f 21 67 f7 73 45 7c 71 41 d8
       71 -127 125 -92 55 -34 47 33 103 -9 115 69 124 113 65 -40
000050 34 c2 81 31 b0 ab 50 40 f5 b6 dd 1e 7f 2e 43 8c
       52 -62 -127 49 -80 -85 80 64 -11 -74 -35 30 127 46 67 -116
000060 9c 8e dc dc 56 63 ac a0 82 d9 7f cf c8 ec 22 c5
       -100 -114 -36 -36 86 99 -84 -96 -126 -39 127 -49 -56 -20 34 -59
000070 a4 c7 a0 b6 95 a5 33 7f a7 cd 13 81 e3 81 93 85
       -92 -57 -96 -74 -107 -91 51 127 -89 -51 19 -127 -29 -127 -109 -123
000080 81 cf cd 59 32 ce 5a 40 7f c1 d7 2d c3 87 d0 c7
       -127 -49 -51 89 50 -50 90 64 127 -63 -41 45 -61 -121 -48 -57

arith.constant48 i1 [16, 1, 1, 8]
000000 ef 81 53 89 d6 f2 72 1c 19 2c e9 81 3d de 76 2a
       -17 -127 83 -119 -42 -14 114 28 25 44 -23 -127 61 -34 118 42
000010 c2 eb cc 95 63 81 f1 1c 4a 3d 15 fd 1a 7f 18 fd
       -62 -21 -52 -107 99 -127 -15 28 74 61 21 -3 26 127 24 -3
000020 a1 33 81 31 ee 11 8c 91 6b a3 a7 7f c9 4f 50 2d
       -95 51 -127 49 -18 17 -116 -111 107 -93 -89 127 -55 79 80 45
000030 9f 81 f9 91 a9 2e fc fc 60 d3 9d ed a4 65 ca 7f
       -97 -127 -7 -111 -87 46 -4 -4 96 -45 -99 -19 -92 101 -54 127
000040 8b 09 34 99 ab 7f 23 10 19 72 8c a2 7f 68 d5 9b
       -117 9 52 -103 -85 127 35 16 25 114 -116 -94 127 104 -43 -101
000050 3c 25 7f 8c 63 1e 94 a8 50 09 cf 91 e2 81 b9 c4
       60 37 127 -116 99 30 -108 -88 80 9 -49 -111 -30 -127 -71 -60
000060 c2 37 03 ab 7f 32 41 34 63 28 26 18 45 7f d3 f2
       -62 55 3 -85 127 50 65 52 99 40 38 24 69 127 -45 -14
000070 ff 32 b8 78 7f a2 65 96 f3 93 59 4a f3 7f 1a fb
       -1 50 -72 120 127 -94 101 -106 -13 -109 89 74 -13 127 26 -5

arith.constant49 i1 [8, 1, 1, 16]
000000 6a e8 ab 18 8a c0 a8 fd 2b 61 23 51 0e c5 81 84
       106 -24 -85 24 -118 -64 -88 -3 43 97 35 81 14 -59 -127 -124
000010 81 9e ce ea 17 e0 3b 46 59 f9 47 65 61 06 82 6b
       -127 -98 -50 -22 23 -32 59 70 89 -7 71 101 97 6 -126 107
000020 15 b8 b2 41 66 5a 5f 81 03 10 ec 62 4c dd 90 0f
       21 -72 -78 65 102 90 95 -127 3 16 -20 98 76 -35 -112 15
000030 1d 74 ed 85 64 16 70 d7 47 21 bc 4c 49 9f f4 81
       29 116 -19 -123 100 22 112 -41 71 33 -68 76 73 -97 -12 -127
000040 44 fd 20 59 a5 7f 84 7e 1e 95 31 bf e3 c7 51 11
       68 -3 32 89 -91 127 -124 126 30 -107 49 -65 -29 -57 81 17
000050 fb b9 04 1a a2 6d ab 71 c1 7f 53 63 5e b0 22 f3
       -5 -71 4 26 -94 109 -85 113 -63 127 83 99 94 -80 34 -13
000060 7f 06 af dc bf 26 c1 1a 92 9a 5f 5c de d4 b1 30
       127 6 -81 -36 -65 38 -63 26 -110 -102 95 92 -34 -44 -79 48
000070 34 85 92 25 2d 1e 81 3c 65 fe 0c ad ea 07 ad 79
       52 -123 -110 37 45 30 -127 60 101 -2 12 -83 -22 7 -83 121

arith.constant50 i1 [1, 3, 3, 16]
000000 81 c6 a1 ec ed 0c 7e 95 74 61 c3 20 d8 57 4c be
       -127 -58 -95 -20 -19 12 126 -107 116 97 -61 32 -40 87 76 -66
000010 1b f8 cf 8c 7f 9c ba 99 15 7f 96 cd e2 42 d4 45
       27 -8 -49 -116 127 -100 -70 -103 21 127 -106 -51 -30 66 -44 69
000020 a4 3e f0 7f 1b f1 6d 10 27 cb 0f 0c dc 9b 8a 3a
       -92 62 -16 127 27 -15 109 16 39 -53 15 12 -36 -101 -118 58
000030 1d d7 35 f4 d8 a2 23 b6 81 5a b1 0b 81 96 2b 11
       29 -41 53 -12 -40 -94 35 -74 -127 90 -79 11 -127 -106 43 17
000040 3c 90 1d 78 4b b8 b2 2a 9e e6 fe 57 6d 7e 81 2a
       60 -112 29 120 75 -72 -78 42 -98 -26 -2 87 109 126 -127 42
000050 0d 93 7f 9e 52 66 58 7f bd 3b dc fb 2f 0f f5 aa
       13 -109 127 -98 82 102 88 127 -67 59 -36 -5 47 15 -11 -86
000060 fc c9 bb 69 d8 92 8d c0 f6 ab cf 5c 17 b3 5c ec
       -4 -55 -69 105 -40 -110 -115 -64 -10 -85 -49 92 23 -77 92 -20
000070 33 87 44 71 8c b5 81 91 55 a7 b0 f6 19 ea b0 ca
       51 -121 68 113 -116 -75 -127 -111 85 -89 -80 -10 25 -22 -80 -54
000080 88 7f d1 22 02 7f bb 8f b1 24 81 81 23 7f 33 7f
       -120 127 -47 34 2 127 -69 -113 -79 36 -127 -127 35 127 51 127

arith.constant51 i1 [16, 1, 1, 8]
000000 81 2d ee 77 2c 3d 13 29 1f ad 3f 42 a5 7f ee d0
       -127 45 -18 119 44 61 19 41 31 -83 63 66 -91 127 -18 -48
000010 81 10 75 65 10 3a e1 e1 7f bc 7d 78 dd c9 43 cf
       -127 16 117 101 16 58 -31 -31 127 -68 125 120 -35 -55 67 -49
000020 67 35 81 92 8e 64 09 24 fa 6f 81 a2 a3 fd f4 e3
       103 53 -127 -110 -114 100 9 36 -6 111 -127 -94 -93 -3 -12 -29
000030 1f 9a 3d 7f 50 c8 46 ac 3e 00 d8 59 3c 17 7f f2
       31 -102 61 127 80 -56 70 -84 62 0 -40 89 60 23 127 -14
000040 19 cc 2d 81 ac 56 b6 da cc 9a 08 81 77 14 ef 84
       25 -52 45 -127 -84 86 -74 -38 -52 -102 8 -127 119 20 -17 -124
000050 b1 81 f4 f9 27 6a a5 45 a9 01 fa 83 7f 49 23 be
       -79 -127 -12 -7 39 106 -91 69 -87 1 -6 -125 127 73 35 -66
000060 27 bc 7f 0f 0e dc 36 59 81 d8 2d 03 a5 af e3 27
       39 -68 127 15 14 -36 54 89 -127 -40 45 3 -91 -81 -29 39
000070 01 f9 f8 4a 3e fb 81 53 78 b4 8c 25 60 46 33 7f
       1 -7 -8 74 62 -5 -127 83 120 -76 -116 37 96 70 51 127

arith.constant52 i1 [8, 1, 1, 16]
000000 cd 08 fc fb 8a f6 53 b9 7f bd ef ff b4 35 a5 62
       -51 8 -4 -5 -118 -10 83 -71 127 -67 -17 -1 -76 53 -91 98
000010 6d c7 db 4b af 21 a3 d8 65 81 01 af 09 77 03 24
       109 -57 -37 75 -81 33 -93 -40 101 -127 1 -81 9 119 3 36
000020 7f 08 d9 93 23 7b 55 63 31 05 c3 bf 2d 9f 7c 1e
       127 8 -39 -109 35 123 85 99 49 5 -61 -65 45 -97 124 30
000030 2d 11 86 22 52 81 90 6f 1c b7 8d 0c 7b 4c af 45
       45 17 -122 34 82 -127 -112 111 28 -73 -115 12 123 76 -81 69
000040 d1 14 eb 27 09 ec 81 10 e5 c5 86 dd 96 a7 c0 de
       -47 20 -21 39 9 -20 -127 16 -27 -59 -122 -35 -106 -89 -64 -34
000050 75 ef 22 c7 ff 02 ba f9 8d 33 79 06 6f 81 b3 44
       117 -17 34 -57 -1 2 -70 -7 -115 51 121 6 111 -127 -77 68
000060 be e3 68 e8 48 fa 0d 65 00 c8 3e c8 2b 77 81 2c
       -66 -29 104 -24 72 -6 13 101 0 -56 62 -56 43 119 -127 44
000070 b6 07 b4 69 81 1d 45 a7 46 28 2e 16 da 26 2d ce
       -74 7 -76 105 -127 29 69 -89 70 40 46 22 -38 38 45 -50

arith.constant53 i1 [1, 3, 3, 16]
000000 81 e5 41 98 89 52 00 b1 0e d5 a9 8a 92 1c e6 cd
       -127 -27 65 -104 -119 82 0 -79 14 -43 -87 -118 -110 28 -26 -51
000010 53 7f 17 06 c4 24 81 38 31 c4 87 f0 b9 7f 8d 27
       83 127 23 6 -60 36 -127 56 49 -60 -121 -16 -71 127 -115 39
000020 ea 4e ac ea 17 69 8e 5c 7f d8 7f 73 44 ce 3c bc
       -22 78 -84 -22 23 105 -114 92 127 -40 127 115 68 -50 60 -68
000030 ab 53 a7 99 4d b2 d3 7f ab 3e 02 09 7f b1 f7 18
       -85 83 -89 -103 77 -78 -45 127 -85 62 2 9 127 -79 -9 24
000040 22 c0 f5 27 e4 ee b5 25 bf 67 61 81 3c d0 40 c3
       34 -64 -11 39 -28 -18 -75 37 -65 103 97 -127 60 -48 64 -61
000050 b6 5f 7f c4 ba 20 83 d1 55 81 cf 6d 74 48 81 f6
       -74 95 127 -60 -70 32 -125 -47 85 -127 -49 109 116 72 -127 -10
000060 70 6a 29 8d da 91 c4 73 17 ad b2 d1 95 73 85 81
       112 106 41 -115 -38 -111 -60 115 23 -83 -78 -47 -107 115 -123 -127
000070 45 50 19 8c dc 7f 94 73 dc d2 c8 07 d0 15 6a 65
       69 80 25 -116 -36 127 -108 115 -36 -46 -56 7 -48 21 106 101
000080 4d cb ab 7f 81 0c fc c7 58 25 2f 2a 7a 3d 07 27
       77 -53 -85 127 -127 12 -4 -57 88 37 47 42 122 61 7 39

arith.constant54 i1 [16, 1, 1, 8]
000000 62 83 81 0d 58 b9 23 45 7f f2 bb 0a 4b 5e 67 92
       98 -125 -127 13 88 -71 35 69 127 -14 -69 10 75 94 103 -110
000010 41 65 25 70 2a 72 01 7f c6 2b 5b 59 9d a8 0d 7f
       65 101 37 112 42 114 1 127 -58 43 91 89 -99 -88 13 127
000020 10 d3 81 0e 52 22 42 29 a6 b7 7f e7 41 d5 79 df
       16 -45 -127 14 82 34 66 41 -90 -73 127 -25 65 -43 121 -33
000030 7a 23 81 7b 73 c7 3d 25 40 01 c4 ac 73 af de 7f
       122 35 -127 123 115 -57 61 37 64 1 -60 -84 115 -81 -34 127
000040 21 79 35 81 47 a2 8d 3c d8 c4 eb 16 7f 97 9b c3
       33 121 53 -127 71 -94 -115 60 -40 -60 -21 22 127 -105 -101 -61
000050 82 18 81 4d 81 55 cf 1e c2 36 6e 81 07 dd 21 4c
       -126 24 -127 77 -127 85 -49 30 -62 54 110 -127 7 -35 33 76
000060 0f 15 ae 7f 92 9b ab 10 81 9f 74 a6 84 02 7e 70
       15 21 -82 127 -110 -101 -85 16 -127 -97 116 -90 -124 2 126 112
000070 61 9e 4d 7f 01 91 23 7e c5 8f d6 96 ee 7f cd df
       97 -98 77 127 1 -111 35 126 -59 -113 -42 -106 -18 127 -51 -33

arith.constant55 i1 [16, 1, 5, 16]
000000 01 fd 8f f2 fa 21 fb 7c cd 90 f1 dc 2c 7f 00 9f
       1 -3 -113 -14 -6 33 -5 124 -51 -112 -15 -36 44 127 0 -97
000010 2f 8f 5e 4d 22 d5 39 f1 3a d4 de b9 0c 6d 6e 9c
       47 -113 94 77 34 -43 57 -15 58 -44 -34 -71 12 109 110 -100
000020 e5 88 26 6d 4b 85 82 ed 1a 93 4d 8d f6 39 73 1a
       -27 -120 38 109 75 -123 -126 -19 26 -109 77 -115 -10 57 115 26
000030 d4 82 15 ae 1b 8c 0d 8a cb 00 ba e1 c3 0d b0 0b
       -44 -126 21 -82 27 -116 13 -118 -53 0 -70 -31 -61 13 -80 11
000040 aa 82 f5 cf 18 e6 16 a7 f3 30 a6 da 82 e6 7c 87
       -86 -126 -11 -49 24 -26 22 -89 -13 48 -90 -38 -126 -26 124 -121
000050 aa 14 fb 81 5a b3 b5 53 dd f7 f8 97 7b 36 ba e5
       -86 20 -5 -127 90 -77 -75 83 -35 -9 -8 -105 123 54 -70 -27
000060 63 f9 8a 68 fe 9c 33 7c 6c 4a a9 96 0e 1c 1e 5d
       99 -7 -118 104 -2 -100 51 124 108 74 -87 -106 14 28 30 93
000070 cc 23 5b 4e c1 00 de 24 73 a6 3f 1e 33 62 f5 3b
       -52 35 91 78 -63 0 -34 36 115 -90 63 30 51 98 -11 59
000080 d8 17 1a be 12 78 73 0a dc 5c 63 ac f6 c4 49 b8
       -40 23 26 -66 18 120 115 10 -36 92 99 -84 -10 -60 73 -72
000090 1c e8 ba 85 96 03 1c 91 17 bc 57 54 6f 0d 97 ce
       28 -24 -70 -123 -106 3 28 -111 23 -68 87 84 111 13 -105 -50
0000a0 d0 de 19 4e 4b c1 4e 12 40 4c 83 5c 9a 87 1e 38
       -48 -34 25 78 75 -63 78 18 64 76 -125 92 -102 -121 30 56
0000b0 f5 91 cf fa 36 67 99 1d 95 64 42 dd 7f a7 dd 62
       -11 -111 -49 -6 54 103 -103 29 -107 100 66 -35 127 -89 -35 98
0000c0 da 3c f7 d3 59 3f b3 40 cb 9f c3 d5 d3 18 e2 7b
       -38 60 -9 -45 89 63 -77 64 -53 -97 -61 -43 -45 24 -30 123
0000d0 b9 32 d5 6e 89 7e 97 12 79 52 9a b9 08 22 1d 18
       -71 50 -43 110 -119 126 -105 18 121 82 -102 -71 8 34 29 24
0000e0 8f a8 b4 45 d3 11 2e b9 6b 04 3a 09 a7 ba 36 f2
       -113 -88 -76 69 -45 17 46 -71 107 4 58 9 -89 -70 54 -14
0000f0 58 85 43 b4 a3 af 3b d8 c2 3d 06 9b d8 7f 47 56
       88 -123 67 -76 -93 -81 59 -40 -62 61 6 -101 -40 127 71 86

arith.constant56 i1 [16, 1, 5, 3]
000000 a4 14 20 fb a0 7f 9b ec dd 3c cd bc 57 18 31 e4
       -92 20 32 -5 -96 127 -101 -20 -35 60 -51 -68 87 24 49 -28
000010 1e 4e 55 a7 ad 7f de 2e 6e 93 00 30 ec 75 b0 81
       30 78 85 -89 -83 127 -34 46 110 -109 0 48 -20 117 -80 -127
000020 34 45 34 32 df 98 9d 8c 3b ec ac 6a 4c 97 e1 7a
       52 69 52 50 -33 -104 -99 -116 59 -20 -84 106 76 -105 -31 122
000030 89 ab ee c2 66 5f 22 8d a8 5b 7f 7d f0 68 62 d3
       -119 -85 -18 -62 102 95 34 -115 -88 91 127 125 -16 104 98 -45
000040 0c 62 36 11 6c 3c d9 c9 1d b8 81 7b e6 2d a6 81
       12 98 54 17 108 60 -39 -55 29 -72 -127 123 -26 45 -90 -127
000050 0c 43 f3 b2 bd d3 e0 c0 e3 6d b9 93 29 e5 dd 13
       12 67 -13 -78 -67 -45 -32 -64 -29 109 -71 -109 41 -27 -35 19
000060 a9 3f 94 7f 3a f1 79 a2 2e 8e 20 19 28 30 81 4d
       -87 63 -108 127 58 -15 121 -94 46 -114 32 25 40 48 -127 77
000070 24 e8 21 1f ef de e1 55 25 4e 2a 7b ee 3a fd 5d
       36 -24 33 31 -17 -34 -31 85 37 78 42 123 -18 58 -3 93
000080 6b f6 6c 22 ee 81 fb 90 91 46 76 0a 92 81 1a 9e
       107 -10 108 34 -18 -127 -5 -112 -111 70 118 10 -110 -127 26 -98
000090 e1 2d a8 bc 23 d7 19 78 e4 2b 97 1f 81 be 58 17
       -31 45 -88 -68 35 -41 25 120 -28 43 -105 31 -127 -66 88 23
0000a0 cc 0c ba 9f 7d 44 2b 59 fa 6d e8 81 ec dc 82 f1
       -52 12 -70 -97 125 68 43 89 -6 109 -24 -127 -20 -36 -126 -15
0000b0 ec 19 36 4f 55 2f 19 1e 58 d1 2a 81 cd 3b 14 ec
       -20 25 54 79 85 47 25 30 88 -47 42 -127 -51 59 20 -20
0000c0 53 06 99 3a 77 67 e4 66 73 41 7f 06 a0 17 1b 17
       83 6 -103 58 119 103 -28 102 115 65 127 6 -96 23 27 23
0000d0 aa c8 25 83 03 e2 88 97 bd 4d c2 81 ed d5 63 07
       -86 -56 37 -125 3 -30 -120 -105 -67 77 -62 -127 -19 -43 99 7
0000e0 99 84 e8 81 89 19 26 92 ec de 37 8b de 9a a5 a1
       -103 -124 -24 -127 -119 25 38 -110 -20 -34 55 -117 -34 -102 -91 -95
