gtcrn_micro/models/tflite/gtcrn_micro_float16.tflite (tflite, 143956 bytes, 70 tensors)

arith.constant11 f2 [16]
1.0 1.0 1.0 1.0 1.0 1.0 1.0 1.0
1.0 1.0 1.0 1.0 1.0 1.0 1.0 1.0
00000000: 003c 003c 003c 003c 003c 003c 003c 003c
00000010: 003c 003c 003c 003c 003c 003c 003c 003c

arith.constant29 f2 [16, 1, 5, 3]
-0.1277 -0.04483 -0.04147 0.0478 0.2373 0.2134 0.10474 0.2344
-0.07446 -0.1252 0.2244 -0.10614 0.1304 0.14 0.04398 0.2245
0.256 -0.2478 -0.07306 -0.004974 -0.1603 0.2113 -0.1484 0.05002
-0.1888 0.05927 0.02235 -0.2156 -0.1226 0.01692 0.0888 -0.001205
-0.2551 -0.1213 0.0973 -0.02333 0.01147 -0.1827 0.169 0.03076
-0.07916 0.1232 -0.10376 0.2303 0.1384 -0.1765 0.10065 -0.02672
-0.1301 0.2365 0.02 0.1272 -0.0546 -0.08813 -0.1653 0.08307
-0.07874 0.0981 -0.1475 0.02042 0.03888 -0.0753 0.2023 0.05768
0.2029 0.2568 0.1428 -0.2493 -0.10187 0.2257 0.1718 -0.1681
0.06168 -0.1425 0.05563 0.189 -0.02417 0.1844 -0.00078 0.08984
0.1721 -0.2537 -0.1876 -0.1555 0.0696 0.2491 0.004696 0.2007
-0.0919 0.2554 0.19 -0.05573 0.0346 0.0723 0.03111 -0.0917
0.1854 -0.00434 0.1588 0.0688 0.2273 -0.1572 0.2026 -0.18
-0.02046 0.2004 0.0561 -0.1464 0.00925 -0.1459 0.02399 0.1808
-0.03406 0.244 0.00375 0.1934 -0.2039 -0.2404 -0.1531 0.1426
-0.01457 -0.2507 0.202 -0.2 -0.2046 -0.1954 0.00949 -0.08594
0.011314 -0.1538 0.13 -0.00756 -0.05786 0.2074 0.2476 -0.1512
0.1901 -0.2229 0.1512 -0.1324 -0.1888 -0.2288 -0.1603 -0.05182
-0.06216 0.2527 -0.212 -0.2578 -0.01862 0.06696 -0.1526 -0.012245
-0.2028 -0.0672 0.1208 -0.1066 0.2301 0.10736 0.02843 0.059
-0.2418 -0.1388 0.1937 -0.03366 0.2576 0.1589 -0.0895 -0.07166
-0.0961 0.2169 0.02155 -0.0672 0.03043 -0.08734 -0.05246 0.2156
0.10516 -0.1521 0.2502 0.0647 -0.1454 0.1602 0.0937 -0.06198
0.0843 -0.1638 0.2148 0.2001 0.1643 0.10187 -0.006325 -0.1569
0.0644 -0.09674 0.1812 0.06866 0.166 0.148 0.006184 0.2079
0.05133 -0.05676 0.129 -0.2358 0.02498 0.09595 0.08386 -0.2477
0.2045 -0.06088 0.2378 0.09717 -0.1736 0.03903 0.1704 -0.049
0.11707 0.2007 -0.1868 0.206 -0.2505 -0.1328 -0.03247 -0.227
0.0966 -0.201 -0.1708 0.2045 0.1218 0.1624 -0.1487 0.0547
-0.177 0.1594 -0.0809 -0.1935 0.2517 0.0433 0.1564 0.227
00000000: 16b0 bda9 4fa9 1e2a 9833 d432 b42e 8033
00000010: c4ac 02b0 2e33 cbae 2c30 7b30 a129 2f33
00000020: 1934 eeb3 adac 189d 21b1 c332 c0b0 672a
00000030: 0bb2 962b b925 e6b2 d9af 5524 af2d f094
00000040: 15b4 c3af 3a2e f9a5 df21 d9b1 6831 e027
00000050: 11ad e32f a4ae 5f33 6e30 a6b1 712e d7a6
00000060: 2ab0 9133 1f25 1230 fdaa a4ad 4ab1 512d
00000070: 0aad 472e b8b0 3a25 fa28 d2ac 7932 622b
00000080: 7e32 1c34 9230 fab3 85ae 3933 7f31 61b1
00000090: e52b 8fb0 1f2b 0c32 30a6 e731 6492 c02d
000000a0: 8231 0fb4 01b2 fab0 742c f933 cf1c 6c32
000000b0: e2ad 1634 1432 22ab 6e28 a12c f727 dead
000000c0: ef31 729c 1531 672c 4633 08b1 7c32 c3b1
000000d0: 3da5 6a32 2e2b afb0 bc20 abb0 2426 c931
000000e0: 5ca8 cf33 ae1b 3032 86b2 b1b3 e6b0 9030
000000f0: 76a3 03b4 7732 66b2 8cb2 41b2 dc20 80ad
00000100: cb21 ecb0 2930 be9f 68ab a332 ec33 d7b0
00000110: 1532 22b3 d730 3db0 0bb2 52b3 21b1 a2aa
00000120: f5ab 0b34 c9b2 20b4 c4a4 492c e2b0 45a2
00000130: 7db2 4dac bb2f d3ae 5d33 df2e 4727 8d2b
00000140: bdb3 71b0 3332 4fa8 1f34 1631 baad 96ac
00000150: 27ae f132 8425 4dac ca27 97ad b7aa e632
00000160: bb2e deb0 0134 242c a7b0 2031 ff2d efab
00000170: 652d 3eb1 e032 6732 4231 852e 7a9e 05b1
00000180: 1f2c 31ae cc31 652c 5031 bc30 551e a732
00000190: 922a 44ab 2130 8cb3 6526 242e 5e2d edb3
000001a0: 8b32 cbab 9c33 382e 8eb1 ff28 7431 46aa
000001b0: 7e2f 6c32 fab1 9832 02b4 40b0 28a8 44b3
000001c0: 2f2e 6fb2 77b1 8b32 cc2f 3231 c2b0 002b
000001d0: aab1 1a31 2dad 31b2 0734 8b29 0131 4433

arith.constant30 f2 [16, 1, 5, 16]
0.05212 0.06647 0.03062 -0.05817 0.1114 -0.0569 0.03098 0.0268
0.0677 -0.01971 -0.1 -0.0721 0.00714 0.014534 0.08026 0.10004
-0.07007 -0.0834 -0.0242 0.07996 0.0705 0.00615 0.0341 0.0418
0.0492 -0.0864 -0.1025 -0.0505 -0.0766 0.0901 -0.0202 0.01656
0.05518 0.01706 0.007336 0.0861 -0.07245 -0.04498 0.04272 -0.03522
0.02805 0.010056 0.05698 0.01176 -0.01277 -0.07306 0.04895 0.0861
0.005424 -0.0017605 0.01395 -0.0424 0.02763 -0.012215 -0.03056 -0.001991
-0.0983 0.0673 -0.0879 -0.05954 -0.0397 0.01452 0.10846 0.04633
-0.05453 0.00723 -0.09863 -0.05283 0.0454 -0.01692 0.00624 0.02061
0.09314 0.07916 0.0673 -0.02516 -0.01117 0.0941 -0.105 -0.067
0.0852 0.04556 0.0674 -0.0976 0.0691 0.06137 0.0211 -0.0666
-0.02446 -0.06836 -0.0833 0.08215 -0.0728 0.10297 -0.04376 0.09924
-0.0341 0.0685 0.1075 0.014626 -0.0585 0.09845 0.04715 0.05038
-0.07184 -0.00961 0.0693 -0.0956 0.0967 0.05023 -0.01779 -0.0977
0.001313 0.003717 0.0948 0.04736 0.07855 0.04718 -0.00768 -0.06433
0.03888 0.10547 -0.04575 -0.05917 -0.0841 0.0924 -0.05804 -0.0576
-0.04047 0.03038 -0.0872 -0.02289 0.0734 0.094 -0.08997 0.03674
-0.0241 -0.0758 -0.01344 -0.04245 0.02295 0.0871 0.01578 0.04803
-0.10974 -0.05093 -0.10693 -0.09894 0.0709 -0.03044 -0.05124 0.07074
0.0735 -0.00757 -0.10333 0.0683 -0.08844 -0.0486 0.0734 0.00896
-0.0502 0.08466 0.067 -0.07556 -0.02597 -0.06836 -0.06793 -0.1032
-0.01493 0.0415 0.03482 0.04703 -0.05478 0.07355 -0.0345 0.10754
0.0874 0.01855 0.0653 -0.03632 0.0698 0.08356 0.0519 -0.0763
-0.087 0.0199 -0.02339 -0.03078 0.03577 -0.0151 0.0691 0.03928
0.00936 0.0757 -0.01814 -0.0765 -0.0756 0.03726 -0.0449 -0.0988
-0.02202 -0.05905 -0.0591 -0.08136 0.001917 -0.07104 -0.0778 -0.03412
0.01559 -0.06775 0.0919 -0.0748 0.1103 -0.00358 -0.092 0.02141
-0.06113 -0.02702 -0.0341 -0.1096 0.1039 -0.0649 0.01927 -0.05435
-0.05365 0.04926 -0.00999 -0.03494 0.106 0.0184 -0.02469 0.0773
-0.00468 0.04437 0.07916 0.00181 0.0907 -0.096 -0.04663 0.02301
0.05215 0.0926 0.0454 -0.00444 0.0707 -0.1032 -0.03287 -0.01569
-0.05798 -0.006157 -0.06726 0.04318 -0.01979 0.05038 -0.03976 -0.01859
00000000: ac2a 412c d727 72ab 212f 48ab ee27 dc26
00000010: 552c 0ca5 66ae 9dac 501f 7123 232d 672e
00000020: 7cac 56ad 32a6 1e2d 832c 4c1e 5d28 5a29
00000030: 4c2a 88ad 8fae 77aa e7ac c42d 2ca5 3d24
00000040: 102b 5e24 831f 832d a3ac c2a9 7829 82a8
00000050: 2e27 2621 4b2b 0522 8aa2 adac 442a 832d
00000060: 8e1d 3697 2423 6da9 1327 41a2 d3a7 1498
00000070: 4bae 4f2c a0ad 9fab 15a9 6f23 f12e ee29
00000080: fbaa 671f 50ae c3aa d029 55a4 641e 4725
00000090: f62d 112d 4f2c 71a6 b8a1 062e b8ae 4aac
000000a0: 742d d529 502c 3fae 6c2c db2b 6725 43ac
000000b0: 43a6 60ac 55ad 422d a9ac 972e 9aa9 5a2e
000000c0: 5da8 622c e12e 7d23 7dab 4d2e 092a 732a
000000d0: 99ac eca0 6f2c 1eae 302e 6e2a 8ea4 41ae
000000e0: 6115 9d1b 112e 102a 072d 0a2a dd9f 1eac
000000f0: fa28 c02e dba9 93ab 62ad ea2d 6eab 5fab
00000100: 2ea9 c727 95ad dca5 b32c 042e c2ad b428
00000110: 2ba6 daac e2a2 6fa9 e025 932d 0a24 262a
00000120: 06af 85aa d8ae 55ae 8a2c cba7 8faa 872c
00000130: b42c c09f 9dae 5f2c a9ad 39aa b32c 9620
00000140: 6daa 6b2d 4a2c d6ac a6a6 60ac 59ac 9bae
00000150: a5a3 5029 7528 052a 03ab b52c 6aa8 e22e
00000160: 982d c024 2e2c a6a8 782c 592d a52a e2ac
00000170: 91ad 1825 fda5 e1a7 9428 bba3 6c2c 0729
00000180: cb20 d82c a5a4 e5ac d7ac c528 bfa9 53ae
00000190: a3a5 8fab 91ab 35ad da17 8cac fbac 5ea8
000001a0: fb23 56ac e22d caac 0f2f 559b e3ad 7b25
000001b0: d3ab eba6 5da8 04af a62e 27ac ef24 f5aa
000001c0: deaa 4e2a 1da1 79a8 c92e b624 52a6 f22c
000001d0: cb9c ae29 112d 6a17 ce2d 25ae f8a9 e425
000001e0: ad2a ed2d d029 8c9c 862c 9bae 35a8 04a4
000001f0: 6cab 4e9e 4eac 8729 11a5 732a 17a9 c2a4

arith.constant31 f2 [16, 1, 1, 8]
0.2434 0.2017 0.2822 -0.2935 0.2847 0.1458 0.11957 -0.0436
0.3223 -0.01608 -0.266 0.01729 0.05438 -0.007755 -0.1367 -0.04837
-0.3232 -0.2607 0.0654 0.3274 0.335 -0.0739 -0.3528 0.3528
0.1255 -0.1113 0.023 0.1843 -0.234 -0.05676 -0.01585 0.2827
0.2229 -0.2001 -0.2057 0.1835 -0.2937 -0.1766 -0.12 -0.1641
-0.1656 -0.2986 -0.0227 -0.2874 0.2374 -0.1104 -0.1396 -0.134
0.04196 0.01689 0.02441 0.1509 0.3071 0.04733 0.01206 -0.2069
-0.2428 0.2769 0.2446 -0.1087 0.1334 -0.2098 -0.1653 -0.11273
-0.0955 -0.2432 0.3025 0.1642 -0.1338 0.3293 0.2673 0.1255
-0.10425 0.03366 0.07794 -0.298 -0.1345 0.35 0.3086 -0.2068
-0.07513 -0.2644 0.1532 -0.038 -0.09296 0.2067 0.2397 -0.01197
0.2295 0.03137 -0.3337 0.1652 0.2312 0.2223 -0.2878 0.0559
-0.1595 0.1499 0.2664 0.02611 0.0705 -0.0519 -0.0788 0.01208
0.122 -0.2056 -0.0903 0.05328 0.2996 0.11273 -0.201 -0.311
0.297 -0.1298 0.1971 -0.02173 0.1334 0.3389 0.2673 -0.2281
-0.148 -0.3057 -0.307 -0.1718 0.1769 -0.1337 -0.3135 0.01173
00000000: ca33 7432 8434 b2b4 8e34 aa30 a72f 95a9
00000010: 2835 1ea4 42b4 6d24 f62a f19f 60b0 31aa
00000020: 2cb5 2cb4 302c 3d35 5c35 bbac a5b5 a535
00000030: 0430 20af e325 e631 7db3 44ab 0fa4 8634
00000040: 2233 67b2 95b2 df31 b3b4 a7b1 aeaf 40b1
00000050: 4db1 c7b4 d0a5 99b4 9933 11af 78b0 4ab0
00000060: 5f29 5324 4026 d430 ea34 0f2a 2d22 9fb2
00000070: c5b3 6e34 d433 f5ae 4530 b7b2 4ab1 37af
00000080: 1dae c8b3 d734 4131 48b0 4535 4734 0430
00000090: acae 4f28 fd2c c5b4 4eb0 9a35 f034 9eb2
000000a0: cfac 3bb4 e730 dda8 f3ad 9d32 ac33 21a2
000000b0: 5833 0428 57b5 4931 6633 1d33 9bb4 282b
000000c0: 1bb1 cc30 4334 af26 832c a5aa 0bad 2f22
000000d0: cf2f 94b2 c7ad d22a cb34 372f 6fb2 fab4
000000e0: c134 27b0 4f32 90a5 4530 6c35 4734 4db3
000000f0: bcb0 e4b4 e9b4 7fb1 a931 47b0 04b5 0122

arith.constant32 f2 [1, 3, 3, 16]
0.3174 0.3076 -0.1617 -0.1051 -0.012825 0.05716 0.2084 0.32
0.085 -0.2766 0.02477 -0.039 0.1349 -0.3208 -0.2432 0.1257
0.2617 0.001757 -0.2323 0.155 0.1906 -0.2428 -0.1403 -0.04922
-0.0401 0.04733 -0.3052 0.11786 0.1478 0.3333 0.2537 0.173
0.3289 -0.1816 -0.002136 -0.1808 0.3135 0.2421 -0.1123 0.1472
-0.05933 0.1812 0.1816 -0.1748 -0.01692 0.2751 -0.03123 -0.1962
-0.3025 -0.1635 -0.1672 0.02954 -0.1669 0.0702 0.1913 -0.2708
-0.1783 0.09924 0.2812 -0.012596 -0.288 0.2534 0.1844 0.04294
0.09235 -0.01614 -0.1333 0.2598 0.004005 0.3254 -0.2832 0.3284
0.156 -0.1522 0.1301 -0.1617 0.2786 -0.2974 0.3281 0.1498
-0.2747 -0.2437 0.1997 0.1975 0.1288 0.327 0.0968 0.04282
0.05334 0.2993 -0.2522 -0.2876 0.1428 -0.013504 -0.2815 0.1368
-0.331 0.323 0.1381 0.1238 0.2101 0.1641 0.2512 0.0968
0.2659 -0.1165 0.01767 0.01223 0.26 -0.2876 -0.02869 -0.05472
0.2979 -0.09235 0.2351 -0.1997 0.301 0.071 0.2769 -0.314
0.0714 -0.209 -0.2769 -0.2114 -0.3113 -0.05243 0.2147 0.2283
0.3076 -0.1423 0.1539 -0.1294 -0.3076 -0.08826 0.1829 0.3167
-0.2505 0.003199 -0.1807 0.2725 0.2246 0.2698 -0.1251 0.1159
00000000: 1435 ec34 2db1 baae 91a2 512b ab32 1f35
00000010: 712d 6db4 5726 fea8 5130 22b5 c8b3 0630
00000020: 3034 3217 6fb3 f630 1932 c5b3 7db0 4daa
00000030: 22a9 0f2a e2b4 8b2f bb30 5535 0f34 8931
00000040: 4335 d0b1 6098 c9b1 0435 bf33 30af b630
00000050: 98ab cc31 d031 98b1 55a4 6734 ffa7 47b2
00000060: d7b4 3bb1 5ab1 9027 57b1 7e2c 1f32 55b4
00000070: b5b1 5a2e 8034 73a2 9cb4 0e34 e731 7f29
00000080: e92d 22a4 44b0 2834 1a1c 3535 88b4 4135
00000090: fe30 dfb0 2a30 2db1 7534 c2b4 4035 cb30
000000a0: 65b4 ccb3 6432 5232 1f30 3b35 322e 7b29
000000b0: d42a ca34 09b4 9ab4 9230 eaa2 81b4 6130
000000c0: 4cb5 2b35 6b30 ec2f b932 4031 0534 322e
000000d0: 4134 75af 8624 4322 2934 9ab4 58a7 01ab
000000e0: c434 e9ad 8633 64b2 d134 8b2c 6e34 06b5
000000f0: 922c b0b2 6eb4 c4b2 fbb4 b6aa df32 4e33
00000100: ec34 8eb0 ed30 24b0 ecb4 a6ad da31 1135
00000110: 02b4 8d1a c8b1 5c34 3033 5134 01b0 6b2f

arith.constant33 f2 [8, 1, 1, 16]
0.02696 -0.11255 -0.14 0.0376 0.08093 -0.00549 0.07446 -0.12494
-0.161 0.0972 -0.08527 -0.1998 0.01566 -0.0961 -0.1342 -0.1405
0.0716 -0.2092 -0.04712 -0.02635 0.1138 0.1636 0.1998 0.1826
-0.2142 0.2008 -0.1309 0.2068 0.1592 -0.135 0.02911 0.2373
-0.1915 -0.05188 -0.0139 0.2238 -0.1077 0.1433 -0.1018 0.1936
-0.2203 -0.1008 -0.03424 -0.1175 -0.2277 0.1691 -0.0324 -0.1891
0.002218 0.1632 -0.04422 -0.08276 0.2316 -0.1943 0.221 -0.2032
0.1282 -0.03696 0.05682 -0.1765 0.001571 -0.10645 -0.1268 0.004585
-0.00902 0.1754 -0.03226 0.1327 -0.2031 0.1393 -0.1454 -0.1558
-0.2008 0.1387 0.2057 0.2118 0.01569 0.1759 -0.1503 -0.1549
0.09357 0.1436 -0.182 -0.04968 0.01643 -0.021 -0.1858 -0.0673
-0.06714 -0.2036 0.00661 -0.2147 0.04697 -0.0649 0.2102 -0.2107
0.0383 0.01158 0.0687 0.2225 -0.2472 -0.2329 -0.2185 0.08966
-0.11505 0.01205 -0.0766 -0.2052 -0.2278 0.2169 0.06274 -0.0394
-0.02551 0.07214 0.02428 0.2354 -0.2302 -0.11884 -0.1737 0.01157
0.2239 -0.04553 0.1798 -0.0968 0.1217 0.1404 -0.006386 0.2494
00000000: e726 34af 7bb0 d028 2e2d 9f9d c42c ffaf
00000010: 27b1 392e 75ad 65b2 0224 27ae 4bb0 7fb0
00000020: 952c b2b2 08aa bfa6 482f 3c31 6532 d831
00000030: dbb2 6d32 30b0 9e32 1831 52b0 7427 9833
00000040: 21b2 a4aa 1ea3 2933 e5ae 9630 84ae 3232
00000050: 0db3 74ae 62a8 85af 49b3 6931 26a8 0db2
00000060: 8b18 3931 a9a9 4cad 6933 38b2 1233 81b2
00000070: 1a30 bba8 462b a6b1 6f16 d0ae 0fb0 b21c
00000080: 9ea0 9d31 21a8 3f30 80b2 7530 a7b0 fcb0
00000090: 6db2 7030 9532 c732 0424 a131 cfb0 f5b0
000000a0: fd2d 9830 d3b1 5caa 3524 60a5 f2b1 4fac
000000b0: 4cac 84b2 c51e dfb2 032a 27ac ba32 beb2
000000c0: e728 ee21 662c 1f33 e9b3 74b3 feb2 bd2d
000000d0: 5daf 2b22 e7ac 91b2 4ab3 f132 042c 0ba9
000000e0: 88a6 9e2c 3726 8833 5eb3 9baf 8fb1 ed21
000000f0: 2a33 d4a9 c131 32ae ca2f 7e30 8a9e fb33

arith.constant34 f2 [16, 1, 1, 8]
0.01422 -0.353 0.245 -0.1749 0.1108 0.324 -0.2878 0.2747
-0.2292 0.3242 0.1703 -0.2634 0.02666 0.2015 -0.2036 -0.04495
-0.3125 0.1425 0.2217 -0.3372 0.3484 0.1187 0.1337 0.1095
0.02676 -0.1628 -0.2568 -0.1282 -0.01933 -0.1119 0.2573 -0.071
-0.1685 0.00853 -0.2822 -0.02757 -0.3364 -0.05667 0.2487 -0.3137
0.04562 -0.02295 0.3037 0.3367 -0.0868 -0.06903 -0.339 0.2742
0.1486 -0.2357 0.1581 0.3357 0.07324 0.1797 0.052 0.0924
0.06396 -0.11914 -0.03906 -0.1736 0.1115 0.2864 -0.228 0.2087
0.2854 -0.1705 0.2174 -0.03708 -0.011284 -0.1265 0.2966 -0.1293
0.3208 -0.1826 0.03214 0.1606 0.264 0.1599 -0.2222 -0.09644
0.03653 -0.1681 0.346 -0.2205 -0.2656 0.2394 -0.259 -0.01541
-0.06335 0.2854 -0.1926 -0.2693 0.0758 -0.0908 -0.1771 -0.07465
0.07086 -0.0861 0.2434 0.04807 0.3286 -0.05878 -0.0966 0.3276
0.1171 -0.2439 0.1885 0.1349 -0.3376 -0.09436 -0.2805 -0.01035
-0.1719 -0.2622 -0.2122 -0.1912 -0.003983 -0.07227 -0.2346 0.0311
0.1577 -0.2502 -0.1688 -0.3467 -0.05228 0.1263 -0.0458 -0.154
00000000: 4823 a6b5 d733 99b1 172f 2f35 9bb4 6534
00000010: 56b3 3035 7331 37b4 d326 7332 84b2 c1a9
00000020: 00b5 8f30 1833 65b5 9335 992f 4730 022f
00000030: da26 36b1 1cb4 1ab0 f3a4 29af 1e34 8bac
00000040: 64b1 5e20 84b4 0fa7 62b5 41ab f533 05b5
00000050: d729 e0a5 dc34 6335 8ead 6bac 6db5 6334
00000060: c130 8bb3 0f31 5f35 b02c c031 a82a ea2d
00000070: 182c a0af 00a9 8eb1 232f 9534 4cb3 ae32
00000080: 9134 75b1 f532 bfa8 c7a1 0cb0 bf34 23b0
00000090: 2235 d8b1 1d28 2431 3934 1e31 1cb3 2cae
000000a0: ad28 61b1 8935 0eb3 40b4 a933 25b4 e4a3
000000b0: 0eac 9134 2ab2 4fb4 da2c d0ad abb1 c7ac
000000c0: 892c 83ad ca33 272a 4235 86ab 2fae 3e35
000000d0: 7f2f ceb3 0832 5130 67b5 0aae 7db4 4da1
000000e0: 80b1 32b4 cab2 1eb2 149c a0ac 82b3 f627
000000f0: 0c31 01b4 67b1 8cb5 b1aa 0b30 dda9 eeb0

arith.constant35 f2 [1, 3, 3, 16]
0.1628 -0.0789 0.1827 -0.226 0.2937 0.1885 -0.0565 -0.03035
0.3225 0.258 -0.08093 0.1941 0.241 -0.292 -0.0712 -0.1247
0.1217 -0.2734 0.2927 0.2554 -0.2922 0.2534 0.1405 -0.2866
-0.1702 -0.15 -0.2476 0.06964 -0.1895 -0.11383 -0.27 -0.0972
0.06726 -0.305 -0.2472 0.3254 -0.03745 -0.08417 -0.1992 0.0644
0.0625 -0.08234 0.1647 0.32 -0.2732 -0.1627 0.1475 -0.2183
-0.1438 0.2068 0.1559 -0.00564 -0.02701 0.1917 0.3 -0.06934
-0.2491 0.262 -0.3235 0.03873 0.05154 0.0949 -0.0875 -0.03677
-0.003014 0.3267 0.10876 -0.1177 0.3225 -0.1217 -0.1738 0.2783
0.09436 0.2642 0.2578 -0.12244 -0.12396 0.1511 -0.2 -0.3164
-0.02626 0.2345 -0.2686 0.014465 -0.05682 0.3257 0.1854 0.2119
-0.2441 -0.1615 0.3179 -0.0517 0.2316 -0.1295 -0.0358 -0.1259
-0.1559 0.133 -0.0776 0.272 -0.3076 -0.3313 0.2057 -0.2086
0.2705 0.2915 -0.2354 -0.3145 -0.1915 -0.0819 0.0705 -0.1566
0.042 -0.1121 -0.1571 0.08484 0.305 -0.1504 0.1466 0.0656
-0.00221 -0.1791 0.05154 0.10815 -0.3271 0.2874 0.1212 0.08154
0.05307 0.183 -0.2494 0.251 -0.1663 0.302 0.3252 -0.2131
0.11334 -0.25 0.00607 -0.1081 0.04492 0.08466 0.1288 -0.145
00000000: 3631 0dad d931 3bb3 b334 0832 3bab c5a7
00000010: 2935 2134 2ead 3632 b633 acb4 8fac fbaf
00000020: ca2f 60b4 af34 1634 adb4 0e34 7f30 96b4
00000030: 72b1 cdb0 ecb3 752c 10b2 49af 52b4 39ae
00000040: 4e2c e1b4 e9b3 3535 cba8 63ad 60b2 1f2c
00000050: 002c 45ad 4531 1f35 5fb4 35b1 b830 fcb2
00000060: 9ab0 9e32 fd30 c69d eaa6 2232 cd34 70ac
00000070: f9b3 3134 2db5 f528 992a 132e 9aad b5a8
00000080: 2c9a 3a35 f62e 88af 2935 caaf 90b1 7434
00000090: 0a2e 3a34 2034 d6af efaf d630 66b2 10b5
000000a0: b9a6 8133 4cb4 6823 46ab 3635 ef31 c832
000000b0: d0b3 2bb1 1635 9eaa 6933 25b0 95a8 07b0
000000c0: fdb0 4230 f7ac 5a34 ecb4 4db5 9532 adb2
000000d0: 5434 aa34 88b3 08b5 21b2 3ead 832c 03b1
000000e0: 6029 2daf 07b1 6e2d e134 d0b0 b130 332c
000000f0: 8798 bbb1 992a ec2e 3cb5 9934 c22f 382d
00000100: cb2a db31 fbb3 0434 52b1 d534 3435 d2b2
00000110: 412f 00b4 371e ebae c029 6b2d 1f30 a4b0

arith.constant36 f2 [8, 1, 1, 16]
0.231 0.1967 0.1206 -0.2035 0.1553 -0.10004 -0.1344 0.236
-0.0455 0.1622 0.0996 0.0775 0.0987 0.01077 -0.1974 0.02538
-0.02583 0.0922 -0.2457 -0.03424 -0.08923 0.01846 0.06683 -0.1183
-0.10645 -0.0837 0.003498 -0.1646 0.003586 -0.1884 -0.2139 -0.03976
-0.02586 0.0708 0.2062 0.0644 0.223 0.0835 -0.1895 -0.0752
-0.03934 0.1759 0.02875 -0.1274 -0.1744 0.1389 0.1566 0.05548
-0.1902 0.09045 -0.014824 0.2078 -0.2318 0.0729 -0.1547 0.0676
-0.08136 -0.0652 0.137 -0.0885 -0.2146 0.063 -0.1459 0.2308
-0.01721 -0.2166 -0.1744 0.0964 -0.1733 -0.01682 0.0373 0.2202
0.0757 0.1129 0.1487 0.0426 0.11786 0.178 -0.08685 -0.1451
0.0505 0.2001 -0.1659 -0.2186 0.097 -0.08093 -0.03323 -0.1552
-0.2334 -0.0581 -0.0784 -0.07965 0.1995 0.1266 -0.05063 0.1505
-0.1044 0.1343 0.04178 0.1278 -0.1727 0.1492 -0.1967 0.1942
0.05307 0.06964 -0.0915 0.2495 0.2279 0.1897 0.1259 -0.07135
-0.2115 -0.2483 0.2086 0.2422 -0.1846 -0.1915 0.2097 -0.08514
0.1748 0.2102 0.1638 -0.0772 0.194 0.1624 0.09717 -0.01952
00000000: 6433 4b32 b82f 83b2 f830 67ae 4db0 8d33
00000010: d3a9 3131 602e f62c 512e 8421 51b2 7f26
00000020: 9da6 e72d ddb3 62a8 b6ad ba24 472c 92af
00000030: d0ae 5bad 2a1b 44b1 581b 07b2 d8b2 17a9
00000040: 9fa6 882c 9932 1f2c 2333 582d 10b2 d0ac
00000050: 09a9 a131 5c27 14b0 95b1 7230 0331 1a2b
00000060: 16b2 ca2d 97a3 a632 6bb3 aa2c f3b0 542c
00000070: 35ad 2cac 6230 aaad deb2 082c abb0 6333
00000080: 68a4 eeb2 95b1 2b2e 8cb1 4ea4 c628 0c33
00000090: d82c 3a2f c230 7429 8b2f b231 8fad a5b0
000000a0: 772a 6732 4fb1 ffb2 352e 2ead 41a8 f7b0
000000b0: 78b3 70ab 05ad 19ad 6232 0d30 7baa d130
000000c0: aeae 4c30 5929 1730 87b1 c630 4bb2 3732
000000d0: cb2a 752c dbad fc33 4b33 1232 0730 91ac
000000e0: c5b2 f2b3 ad32 c033 e8b1 21b2 b632 73ad
000000f0: 9831 ba32 3e31 f1ac 3532 3231 382e ffa4

arith.constant37 f2 [16, 1, 1, 8]
0.1686 0.1945 -0.2532 0.2014 -0.03723 -0.04446 -0.0842 -0.281
0.2664 -0.02908 0.0979 -0.0545 0.067 -0.02477 0.1376 -0.2214
-0.0863 -0.2164 0.05322 -0.1698 -0.3425 0.353 -0.2686 0.099
-0.225 -0.315 -0.001647 0.229 0.1326 -0.3523 0.314 -0.04507
0.3167 -0.1848 0.2007 0.04996 0.1509 -0.2952 0.266 -0.3157
0.11285 0.05347 0.1483 -0.0891 0.1697 -0.2317 -0.002413 0.273
0.1121 -0.1914 -0.1814 0.2292 -0.00956 0.09314 -0.253 0.1913
0.1737 -0.2418 -0.2822 0.01828 -0.2411 0.332 0.1272 0.334
0.0503 0.1869 0.2402 -0.3486 -0.1316 0.2499 -0.0792 0.00865
-0.1512 -0.0436 0.2656 0.272 0.1954 0.1372 0.3425 -0.0065
-0.01639 0.1124 -0.0283 0.0756 -0.2435 0.18 0.1884 -0.06665
0.1346 0.01118 0.1918 -0.1158 0.2249 0.1165 0.1538 -0.2876
0.3455 0.0678 -0.3137 0.1351 0.334 0.264 0.2245 0.331
-0.02141 -0.3516 -0.2896 -0.2084 -0.3005 -0.0632 0.2734 0.2113
0.2698 -0.0696 0.03268 -0.2686 -0.1505 0.0731 0.2725 -0.343
-0.2742 -0.1917 -0.2167 0.1738 -0.0993 -0.3333 0.1742 0.2235
00000000: 6531 3932 0db4 7232 c4a8 b1a9 64ad 7fb4
00000010: 4334 72a7 442e faaa 4a2c 57a6 6730 16b3
00000020: 86ad edb2 d02a 6fb1 7bb5 a635 4cb4 562e
00000030: 33b3 0ab5 bf96 5433 3e30 a3b5 0635 c5a9
00000040: 1135 eab1 6c32 652a d430 b9b4 4234 0db5
00000050: 392f d82a bf30 b4ad 6e31 6ab3 f198 5e34
00000060: 2d2f 20b2 ceb1 5633 e5a0 f62d 0cb4 1f32
00000070: 8f31 bdb3 84b4 ae24 b7b3 5035 1230 5835
00000080: 702a fb31 b033 94b5 36b0 ff33 12ad 6e20
00000090: d7b0 95a9 4034 5a34 4132 6430 7b35 a89e
000000a0: 32a4 322f 3fa7 d72c cbb3 c331 0732 44ac
000000b0: 4f30 b921 2332 69af 3233 752f ec30 9ab4
000000c0: 8735 572c 05b5 5330 5835 3934 2f33 4c35
000000d0: 7ba5 a0b5 a2b4 abb2 cfb4 0bac 6034 c332
000000e0: 5134 74ac 2f28 4cb4 d1b0 ae2c 5c34 7db5
000000f0: 63b4 22b2 efb2 9031 5bae 55b5 9331 2733

arith.constant38 f2 [1, 3, 3, 16]
0.001551 0.299 0.1807 -0.3142 0.1715 0.1176 -0.2744 -0.06354
-0.2964 -0.1838 0.2294 -0.05823 0.2072 0.3281 -0.04926 0.0878
-0.0614 -0.0698 0.321 -0.03488 -0.2595 -0.02925 0.03802 0.2122
0.2081 0.1621 0.069 -0.1193 -0.0517 0.2028 -0.2194 0.3215
-0.005962 0.1409 0.08417 0.11115 0.10425 -0.2333 -0.2285 -0.1884
-0.0241 0.10175 -0.3289 -0.02908 0.02544 0.1658 -0.294 0.2032
-0.2722 -0.2344 0.3057 0.1348 0.10834 -0.2135 -0.0796 0.05112
0.1923 0.2367 -0.157 -0.0718 -0.2057 -0.1415 -0.0746 0.1976
-0.06046 0.156 -0.02005 -0.2253 0.08514 -0.1545 0.3235 -0.1592
0.2554 -0.02109 -0.0867 0.1464 -0.279 0.1882 -0.1266 -0.0584
0.319 0.2067 0.02527 -0.02219 0.105 -0.2832 -0.1462 0.2905
-0.266 -0.2412 0.2517 -0.064 0.269 -0.0758 0.2546 0.0416
0.3328 0.3066 -0.2832 0.0175 -0.1115 0.04233 0.3013 -0.1957
0.2114 -0.1294 -0.03903 0.01456 0.2725 0.2007 -0.1168 -0.2642
0.2401 -0.1184 0.3325 -0.2313 0.1917 0.2612 -0.1316 0.1691
0.09265 -0.0378 0.1732 0.1414 0.205 -0.2294 0.0643 0.289
0.085 -0.1663 -0.2976 0.274 -0.0697 0.02849 0.2047 0.2155
-0.2908 -0.05344 0.2479 0.3142 -0.01465 0.011826 0.2751 0.0856
00000000: 5a16 c934 c831 07b5 7d31 872f 64b4 11ac
00000010: beb4 e2b1 5733 74ab a132 4035 4eaa 9f2d
00000020: dcab 78ac 2335 77a8 27b4 7da7 de28 ca32
00000030: a932 3031 6a2c a3af 9eaa 7d32 05b3 2535
00000040: 1b9e 8230 632d 1d2f ac2e 77b3 50b3 07b2
00000050: 2ba6 832e 43b5 72a7 8326 4e31 b4b4 8132
00000060: 5bb4 80b3 e434 5030 ef2e d5b2 18ad 8b2a
00000070: 2732 9333 06b1 98ac 95b2 87b0 c6ac 5332
00000080: bdab fe30 22a5 36b3 732d f2b0 2d35 18b1
00000090: 1634 66a5 8cad af30 77b4 0632 0db0 7aab
000000a0: 1b35 9d32 7826 aea5 b82e 88b4 aeb0 a634
000000b0: 42b4 b8b3 0734 19ac 4e34 daac 1334 5329
000000c0: 5335 e834 88b4 7b24 23af 6b29 d234 43b2
000000d0: c432 24b0 ffa8 7423 5c34 6c32 7aaf 3ab4
000000e0: af33 94af 5235 67b3 2232 2e34 36b0 6931
000000f0: ee2d d7a8 8b31 8630 8f32 57b3 1d2c a034
00000100: 712d 52b1 c3b4 6234 76ac 4b27 8d32 e532
00000110: a7b4 d7aa ef33 0735 80a3 0e22 6734 7a2d

arith.constant39 f2 [8, 1, 1, 16]
-0.1495 -0.07117 0.2078 0.12115 0.11914 -0.186 0.04965 0.01889
0.2404 0.00896 -0.05817 0.19 0.1796 0.0737 -0.2377 -0.2352
0.1356 -0.06067 -0.006454 -0.2482 0.07355 -0.2383 0.1927 -0.01956
-0.122 -0.05322 0.1395 -0.05853 -0.03394 0.1231 -0.2363 0.1581
-0.02327 0.1356 -0.0937 0.03638 -0.2408 0.10394 -0.1538 0.2438
-0.06033 -0.1393 -0.1272 0.208 -0.1825 -0.04337 0.06287 0.1087
-0.2451 -0.07263 0.00805 0.1122 -0.0922 0.2213 -0.2006 -0.175
-0.2161 -0.2178 0.1306 0.143 0.167 -0.0793 0.2335 0.1981
0.1829 -0.2417 -0.1218 0.173 -0.11426 -0.04962 -0.1831 0.02507
-0.1866 0.1853 0.0594 -0.196 0.2047 -0.04205 -0.1066 0.1451
-0.051 0.01039 -0.2139 -0.1265 -0.2174 -0.003689 -0.0825 -0.0816
-0.1573 -0.0684 0.1233 0.05673 -0.00811 -0.02504 -0.0132 0.2477
0.2406 -0.005146 0.2162 0.1708 0.1456 0.01588 0.0516 -0.0653
-0.1016 0.07404 0.1064 -0.06854 -0.1355 -0.197 -0.0524 0.2208
-0.1833 0.1616 0.10376 -0.2362 0.1638 -0.002207 -0.2249 0.0722
-0.2094 -0.1439 -0.1813 -0.129 -0.2489 0.2018 -0.0636 0.1105
00000000: c9b0 8eac a632 c12f a02f f4b1 5b2a d624
00000010: b133 9620 72ab 1432 bf31 b82c 9bb3 87b3
00000020: 5730 c4ab 9c9e f1b3 b52c a0b3 2b32 02a5
00000030: cfaf d0aa 7730 7eab 58a8 e12f 90b3 0f31
00000040: f5a5 5730 ffad a828 b5b3 a72e ecb0 cd33
00000050: b9ab 75b0 12b0 a832 d7b1 8da9 062c f52e
00000060: d8b3 a6ac 1f20 2e2f e7ad 1533 6bb2 9ab1
00000070: eab2 f8b2 2e30 9330 5831 13ad 7933 5732
00000080: da31 bcb3 ccaf 8931 50af 5aaa dcb1 6b26
00000090: f9b1 ee31 9a2b 46b2 8d32 62a9 d3ae a530
000000a0: 87aa 5221 d8b2 0cb0 f5b2 8e9b 48ad 39ad
000000b0: 09b1 61ac e42f 432b 27a0 69a6 c2a2 ed33
000000c0: b333 459d eb32 7731 a930 1124 9b2a 2eac
000000d0: 81ae bd2c cf2e 63ac 56b0 4eb2 b5aa 1133
000000e0: deb1 2c31 a42e 8fb3 3e31 8598 32b3 9f2c
000000f0: b3b2 9bb0 cdb1 21b0 f7b3 7532 12ac 122f

arith.constant40 f2 [16, 1, 1, 16]
-0.11993 -0.11176 0.0677 0.06836 0.0498 -0.1769 -0.1231 0.01287
-0.1779 0.0728 -0.06903 -0.1062 -0.05832 -0.013405 0.1576 -0.1775
-0.1017 -0.2206 -0.202 0.02095 -0.0457 -0.1022 0.1147 0.1332
-0.1418 0.1084 0.1522 -0.05185 -0.2383 -0.06125 -0.2296 0.149
-0.1748 0.2264 -0.1688 0.1514 -0.1359 -0.2015 -0.01918 -0.2065
-0.0676 -0.2037 0.135 0.1249 0.03119 0.05536 -0.10254 -0.10114
0.2065 -0.05948 0.0651 -0.2339 0.1617 -0.01978 -0.121 0.1378
-0.01587 0.02623 0.1992 -0.2069 0.1244 0.0505 -0.1758 -0.1309
-0.1655 -0.1674 -0.1062 0.08875 -0.10284 0.0843 -0.227 0.0666
-0.006542 0.2238 0.1451 -0.003859 0.1794 -0.0339 -0.06836 -0.03522
0.01243 0.11865 -0.1262 0.02068 -0.0836 -0.2457 0.1683 0.02057
0.1175 0.0732 0.012344 0.04868 0.11255 -0.2145 -0.2065 -0.0929
0.2163 -0.1721 -0.11176 0.05597 -0.2026 -0.1239 -0.0997 0.07806
-0.1829 0.0928 0.07513 -0.094 0.2434 -0.2152 0.1787 -0.0214
-0.1439 -0.10394 0.006508 -0.006504 -0.136 -0.234 -0.05203 0.1525
0.0466 0.1189 0.02039 -0.06366 -0.1315 0.2291 0.2246 0.2397
0.054 0.0543 -0.1913 0.2406 0.0303 0.1691 0.2141 0.2292
0.1744 0.03096 0.09357 0.04846 0.09064 -0.04053 -0.248 0.0748
-0.2195 -0.1228 -0.05383 -0.0364 0.1387 0.173 -0.03143 0.2365
0.1553 0.1935 0.1614 0.11176 -0.08093 -0.238 -0.0211 0.1562
0.144 -0.1229 0.0235 0.0647 -0.1549 -0.1366 0.1257 -0.05997
0.2036 -0.1207 0.1294 0.00951 0.1079 -0.0665 -0.2183 -0.189
-0.11096 -0.1874 0.2471 0.2107 -0.06143 -0.05588 0.2175 -0.2426
0.1807 0.1124 0.1711 -0.2014 0.2086 -0.0483 0.1776 -0.2305
0.1283 0.1584 -0.1459 0.1617 -0.1302 -0.1812 -0.2318 0.111
-0.2399 -0.1986 -0.03165 0.1306 -0.06207 -0.239 -0.1986 0.04477
-0.1516 0.148 -0.1235 0.2234 0.1973 0.1414 0.1947 -0.01285
-0.05222 -0.01304 -0.229 -0.1869 -0.1935 0.11383 0.1346 -0.1881
0.11945 0.2396 -0.11584 0.1537 -0.1825 -0.05673 -0.03198 0.08307
-0.2009 -0.01695 0.2407 0.2301 0.1777 -0.07526 -0.1796 0.05646
-0.0699 -0.006397 0.243 0.2338 0.002981 0.1207 0.1454 0.04642
0.1215 0.1254 -0.2417 0.1405 -0.03278 -0.0131 -0.168 -0.12286
00000000: adaf 27af 552c 602c 602a a9b1 e1af 9722
00000010: b1b1 a92c 6bac ccae 77ab dda2 0b31 aeb1
00000020: 82ae 0fb3 77b2 5d25 d9a9 8aae 572f 4330
00000030: 8ab0 f02e df30 a3aa a0b3 d7ab 59b3 c530
00000040: 98b1 3f33 67b1 d830 59b0 73b2 e9a4 9cb2
00000050: 54ac 85b2 5230 fe2f fc27 162b 90ae 79ae
00000060: 9c32 9dab 2b2c 7cb3 2d31 10a5 beaf 6930
00000070: 10a4 b726 6032 9fb2 f62f 772a a0b1 30b0
00000080: 4cb1 5bb1 ccae ae2d 95ae 652d 44b3 432c
00000090: b39e 2933 a530 e79b be31 57a8 60ac 82a8
000000a0: 5d22 982f 0ab0 4b25 5aad ddb3 6331 4425
000000b0: 852f af2c 5222 3b2a 342f ddb2 9cb2 f2ad
000000c0: ec32 82b1 27af 2a2b 7cb2 eeaf 61ae ff2c
000000d0: dab1 f02d cf2c 04ae ca33 e3b2 b831 7aa5
000000e0: 9bb0 a7ae aa1e a99e 5ab0 7db3 a9aa e130
000000f0: f729 9c2f 3825 13ac 35b0 5533 3033 ac33
00000100: e92a f32a 1fb2 b333 c227 6931 da32 5633
00000110: 9531 ed27 fd2d 342a cd2d 30a9 f0b3 ca2c
00000120: 06b3 dcaf e4aa a9a8 7030 8931 06a8 9133
00000130: f830 3132 2a31 272f 2ead 9eb3 67a5 0031
00000140: 9c30 deaf 0426 242c f5b0 5fb0 0630 adab
00000150: 8432 baaf 2430 de20 e82e 42ac fcb2 0cb2
00000160: 1aaf ffb1 e833 be32 ddab 27ab f632 c3b3
00000170: c831 322f 7a31 72b2 ad32 2faa af31 60b3
00000180: 1b30 1231 abb0 2d31 2bb0 ccb1 6bb3 1b2f
00000190: adb3 5bb2 0da8 2e30 f2ab a6b3 5bb2 bb29
000001a0: dab0 bc30 e7af 2633 5032 8630 3b32 94a2
000001b0: afaa ada2 54b3 fbb1 31b2 492f 4f30 05b2
000001c0: a52f ab33 6aaf eb30 d7b1 43ab 18a8 512d
000001d0: 6eb2 57a4 b433 5d33 b031 d1ac bfb1 3a2b
000001e0: 79ac 8d9e c733 7b33 1b1a ba2f a730 f129
000001f0: c72f 0330 bcb3 7f30 32a8 b5a2 60b1 ddaf

arith.constant41 f2 [1, 3, 1, 16]
-0.3782 0.0869 -0.06696 0.0648 -0.02988 0.391 0.4658 0.3367
-0.2147 -0.2468 -0.1597 -0.273 0.06445 -0.306 0.521 -0.381
0.3586 0.422 -0.5522 0.05875 -0.2223 -0.3206 0.2668 -0.515
0.4043 0.1458 -0.0882 -0.2085 0.1216 0.262 0.568 0.4336
0.2734 -0.03506 -0.1656 0.2303 0.06964 -0.2164 -0.5234 0.3074
0.06256 -0.3118 0.003183 0.236 0.3086 0.3477 0.1392 -0.02649
00000000: 0db6 902d 49ac 262c a6a7 4236 7437 6335
00000010: dfb2 e6b3 1cb1 5eb4 202c e5b4 2b38 19b6
00000020: bd35 c136 6bb8 852b 1db3 21b5 4534 1fb8
00000030: 7836 aa30 a5ad acb2 c82f 3134 8b38 f036
00000040: 6034 7da8 4db1 5f33 752c edb2 30b8 eb34
00000050: 012c fdb4 851a 8d33 f034 9035 7430 c8a6

arith.constant42 f2 [16, 1, 1, 16]
-0.2361 -0.003387 0.01415 0.1301 0.2322 0.2476 -0.1854 0.1316
-0.03525 -0.0393 -0.1735 -0.2456 0.1438 -0.00336 -0.2281 -0.2446
0.0686 0.1383 -0.001207 -0.167 0.1765 -0.1624 0.01672 0.2418
0.1757 0.1844 -0.179 0.2023 -0.145 0.157 -0.11786 -0.032
0.2288 0.1544 -0.04333 0.1459 0.1096 0.23 -0.201 0.01345
0.0512 -0.1548 0.1329 -0.04175 0.1606 0.14 0.09546 -0.2301
-0.03787 0.116 0.004192 0.05804 0.1754 -0.001935 -0.0816 0.0764
0.00347 0.09204 0.1676 -0.075 0.03455 0.02779 0.2104 0.01115
0.1412 0.09375 -0.1902 -0.08813 0.2277 0.1792 0.2057 0.1581
0.01634 -0.1655 0.1494 -0.0956 0.03625 -0.1531 0.2214 0.1276
0.1721 -0.1071 0.03558 -0.2255 -0.01315 -0.0435 -0.1329 -0.2416
-0.232 -0.2184 0.2272 0.0988 0.173 -0.174 0.2347 0.0527
-0.06946 -0.01011 0.008835 -0.1186 0.2338 -0.2296 -0.2493 -0.1412
-0.02849 -0.11224 -0.1482 0.1935 0.12085 -0.0556 0.0734 -0.2346
-0.249 -0.1517 0.1957 0.01935 -0.1392 -0.2307 0.10187 -0.2274
0.1321 -0.2065 0.2284 0.02003 -0.01097 -0.103 0.1702 -0.05676
-0.2462 -0.0439 0.0281 -0.11694 -0.09436 -0.02893 -0.07605 -0.1724
0.191 0.0721 -0.1688 0.0458 0.12146 0.1813 0.0778 -0.2094
0.0892 0.0956 -0.0902 0.2048 -0.2178 0.1682 -0.225 -0.1616
-0.132 0.2377 0.06064 0.1857 -0.1475 -0.191 -0.1348 -0.177
-0.1672 0.1954 0.1421 0.215 -0.0732 -0.0875 -0.0959 -0.0988
0.1827 -0.2042 -0.1804 -0.08057 -0.1345 -0.05255 0.0665 -0.2089
-0.02397 0.1964 -0.0703 0.1375 -0.03326 -0.1602 -0.03174 -0.1277
0.06476 -0.1727 0.04837 0.1562 0.006405 0.09766 0.2468 -0.1748
-0.00434 -0.2463 -0.01694 0.1514 0.03055 -0.1827 -0.2073 0.1901
-0.0772 -0.2007 0.1187 0.071 0.2454 0.0734 0.0875 -0.2222
-0.01295 -0.1116 0.031 0.1909 0.02306 -0.1561 -0.0391 -0.00958
0.1265 -0.005337 0.0312 -0.1498 0.1573 0.143 0.0502 -0.05768
0.02585 -0.1247 0.08795 -0.1287 -0.0429 -0.1619 -0.11725 0.02092
0.2201 -0.02199 0.10547 -0.05814 -0.1217 -0.01881 0.11456 0.1989
0.0736 0.1304 -0.2394 0.014275 -0.01035 -0.2164 -0.08563 -0.04083
-0.1436 -0.2264 0.2498 -0.2223 -0.0923 -0.1534 0.1456 0.03024
00000000: 8eb3 f09a 3f23 2a30 6e33 ec33 efb1 3630
00000010: 83a8 08a9 8db1 dcb3 9a30 e29a 4db3 d4b3
00000020: 642c 6d30 f294 58b1 a631 32b1 4824 bd33
00000030: 9f31 e731 bab1 7932 a4b0 0631 8baf 19a8
00000040: 5233 f130 8ca9 ab30 042f 5c33 6fb2 e322
00000050: 8e2a f4b0 4130 58a9 2431 7b30 1c2e 5db3
00000060: d9a8 6d2f 4b1c 6e2b 9d31 ed97 39ad e42c
00000070: 1b1b e42d 5d31 cdac 6c28 1d27 bc32 b521
00000080: 8530 002e 16b2 a4ad 4933 bc31 9532 0f31
00000090: 2f24 4cb1 c830 1eae a428 e6b0 1633 1530
000000a0: 8231 dbae 8e28 37b3 bca2 91a9 41b0 bbb3
000000b0: 6db3 fdb2 4533 532e 8931 91b1 8333 bf2a
000000c0: 72ac 2da1 8620 97af 7b33 59b3 fab3 85b0
000000d0: 4ba7 2faf beb0 3132 bc2f 1eab b32c 82b3
000000e0: f8b3 dbb0 4332 f424 74b0 62b3 852e 47b3
000000f0: 3a30 9cb2 4f33 2125 9ea1 98ae 7231 44ab
00000100: e1b3 9fa9 3227 7caf 0aae 68a7 deac 84b1
00000110: 1d32 9d2c 67b1 dd29 c62f cd31 fb2c b3b2
00000120: b52d 1e2e c6ad 8e32 f8b2 6231 33b3 2cb1
00000130: 39b0 9b33 c32b f131 b8b0 1db2 50b0 aab1
00000140: 5ab1 4132 8c30 e132 afac 9aad 23ae 53ae
00000150: d931 89b2 c6b1 28ad 4eb0 baaa 422c afb2
00000160: 23a6 4932 80ac 6630 42a8 20b1 10a8 16b0
00000170: 252c 87b1 312a 0031 8f1e 402e e633 98b1
00000180: 729c e2b3 56a4 d830 d227 d9b1 a2b2 1532
00000190: f1ac 6cb2 992f 8b2c da33 b32c 9a2d 1cb3
000001a0: a1a2 24af f027 1c32 e725 ffb0 01a9 e8a0
000001b0: 0c30 779d fd27 cbb0 0931 9330 6d2a 62ab
000001c0: 9e26 fbaf a12d 1eb0 7ea9 2eb1 81af 5b25
000001d0: 0b33 a1a5 c02e 71ab caaf d1a4 552f 5d32
000001e0: b62c 2c30 a9b3 4f23 4da1 edb2 7bad 3aa9
000001f0: 98b0 3fb3 fe33 1db3 e8ad e9b0 a930 be27

arith.constant43 f2 [16, 1, 1, 16]
0.1818 0.09503 0.05212 0.229 -0.0761 0.07623 0.05423 -0.2076
0.05096 0.05035 -0.05768 -0.1235 0.229 -0.1255 0.0752 -0.02441
0.1814 -0.1106 0.189 0.03806 -0.1847 0.1667 -0.1499 0.04623
-0.2023 0.166 0.11835 -0.1416 -0.1247 0.01553 0.08624 -0.01895
-0.10187 -0.1659 -0.2428 0.01955 0.1838 0.2345 -0.0778 0.10693
-0.03023 -0.002161 -0.1975 -0.2224 0.1699 -0.1996 -0.215 -0.10065
-0.0822 -0.216 0.04062 0.2002 -0.131 0.2485 0.11145 0.219
-0.05276 -0.04037 0.177 -0.2446 0.0712 0.1863 0.09625 0.2198
0.003578 -0.0663 0.06216 -0.10706 0.0771 -0.2198 -0.1748 -0.07056
0.10547 -0.1296 -0.1846 0.0693 0.048 -0.07996 -0.01155 0.05527
0.1447 -0.05682 -0.1912 0.0807 -0.1562 0.03946 0.032 0.02695
-0.2384 -0.1595 -0.2137 0.1252 -0.04468 0.08795 -0.1729 -0.0193
0.1322 -0.11945 0.0648 -0.10205 0.09125 -0.1503 0.1854 0.09937
0.1219 -0.2131 0.1223 0.2272 0.1975 -0.2433 0.09094 0.175
-0.1472 0.1564 0.2177 -0.1307 -0.1554 0.1537 0.229 0.2397
-0.1248 0.01205 -0.2479 -0.1383 0.2181 0.0666 0.2444 0.2177
0.00782 0.2472 0.04565 0.01926 0.0873 0.07104 -0.05597 0.1343
0.0353 -0.1956 -0.12195 0.093 -0.1274 0.03375 0.1669 0.2185
0.0804 0.2042 -0.2062 0.1326 0.1373 -0.2177 -0.0161 0.0467
0.2087 -0.1499 0.2168 0.03275 0.04233 -0.19 0.1366 -0.0617
0.02234 -0.1415 -0.1942 -0.2123 0.2177 0.1467 0.169 -0.1578
-0.2214 -0.1622 -0.2418 -0.1304 0.1186 -0.1848 -0.2218 0.03168
0.2454 0.2211 0.0643 -0.1053 -0.2231 0.06287 -0.2217 -0.2172
0.1788 -0.03564 -0.03864 -0.0489 0.1049 -0.0577 -0.2122 -0.123
0.1465 -0.1721 -0.09674 -0.07874 -0.1453 -0.1595 -0.02148 0.06107
0.2208 -0.07935 -0.08496 -0.0352 0.06573 -0.1686 -0.03497 -0.1697
0.174 -0.1102 -0.2023 -0.04584 -0.2307 0.2139 0.1187 0.006886
0.014885 -0.2494 0.0423 0.2299 0.208 -0.12354 -0.1398 0.1058
0.2451 -0.0534 0.2444 -0.11554 0.1929 0.2482 -0.1957 0.02887
-0.19 0.1193 -0.1499 0.05087 0.2277 -0.1584 -0.076 -0.05386
0.0812 -0.2102 0.04453 -0.1626 0.0703 0.1375 -0.0451 -0.005783
-0.0845 0.0933 0.1659 -0.2131 0.1522 0.0584 -0.06183 0.2118
00000000: d131 152e ac2a 5433 dfac e12c f12a a5b2
00000010: 862a 722a 62ab e7af 5433 04b0 d02c 40a6
00000020: ce31 14af 0c32 df28 e9b1 5631 ccb0 eb29
00000030: 79b2 5031 932f 88b0 fbaf f423 852d daa4
00000040: 85ae 4fb1 c5b3 0125 e231 8133 fbac d82e
00000050: bda7 6d98 52b2 1eb3 7031 63b2 e1b2 71ae
00000060: 43ad e9b2 3329 6832 31b0 f433 222f 0233
00000070: c1aa 2ba9 aa31 d4b3 8f2c f631 292e 0933
00000080: 541b 3eac f52b daae ef2c 09b3 98b1 84ac
00000090: c02e 26b0 e8b1 6f2c 252a 1ead eaa1 132b
000000a0: a130 46ab 1eb2 2a2d 00b1 0d29 1928 e626
000000b0: a1b3 1bb1 d7b2 0230 b8a9 a12d 88b1 f1a4
000000c0: 3b30 a5af 262c 88ae d72d cfb0 ef31 5c2e
000000d0: cd2f d2b2 d42f 4533 5232 c9b3 d22d 9a31
000000e0: b6b0 0131 f732 2fb0 f9b0 eb30 5433 ac33
000000f0: fdaf 2b22 efb3 6db0 fb32 432c d233 f732
00000100: 0120 e933 d829 ee24 962d 8c2c 2aab 4c30
00000110: 8528 42b2 ceaf f42d 14b0 5228 5731 fe32
00000120: 252d 8932 99b2 3e30 6530 f7b2 1fa4 fa29
00000130: ae32 ccb0 f032 3128 6b29 14b2 5f30 e6ab
00000140: b825 87b0 37b2 cbb2 f732 b230 6831 0db1
00000150: 16b3 31b1 bdb3 2cb0 972f eab1 19b3 0e28
00000160: da33 1333 1d2c bdae 24b3 062c 18b3 f3b2
00000170: b931 90a8 f2a8 42aa b72e 63ab cab2 dfaf
00000180: b030 82b1 31ae 0aad a6b0 1bb1 80a5 d12b
00000190: 1133 14ad 70ad 81a8 352c 65b1 7aa8 6eb1
000001a0: 9131 0eaf 79b2 dea9 62b3 d832 992f 0d1f
000001b0: 9f23 fbb3 6a29 5b33 a832 e8af 79b0 c52e
000001c0: d833 d6aa d233 65af 2c32 f133 43b2 6427
000001d0: 14b2 a32f ccb0 832a 4933 12b1 ddac e5aa
000001e0: 322d bab2 b329 34b1 802c 6630 c6a9 ec9d
000001f0: 68ad f92d 4f31 d2b2 df30 7a2b eaab c732

arith.constant44 f2 [1, 3, 1, 16]
0.0411 0.44 -0.08307 0.259 0.3262 -0.553 0.161 0.5454
0.431 0.533 0.02141 -0.0909 0.1327 0.2698 0.2246 -0.0821
0.2325 -0.3066 0.2476 0.06158 0.4348 -0.4158 0.4187 0.4495
-0.5703 0.3542 -0.352 -0.3745 0.3726 0.3457 0.4375 -0.4792
-0.4436 -0.4797 -0.3008 -0.492 -0.0695 -0.3013 -0.3835 0.5703
0.1309 -0.5063 0.3801 0.2886 0.3057 -0.4592 -0.5337 -0.5645
00000000: 4329 0a37 51ad 2534 3835 6db8 2731 5d38
00000010: e536 4438 7b25 d1ad 3f30 5134 3033 41ad
00000020: 7133 e8b4 ec33 e22b f536 a7b6 b336 3137
00000030: 90b8 ab35 a2b5 feb5 f635 8835 0037 abb7
00000040: 19b7 adb7 d0b4 dfb7 73ac d2b4 23b6 9038
00000050: 3030 0db8 1536 9e34 e434 59b7 45b8 84b8

arith.constant45 f2 [16, 1, 1, 16]
-0.04474 -0.2156 -0.2314 0.1956 -0.03003 -0.1768 0.01372 0.02107
0.1744 -0.1702 -0.06152 -0.11304 -0.1609 0.0378 -0.10956 -0.171
0.1666 0.2289 -0.11694 0.01052 -0.2 0.2412 -0.2069 -0.11163
0.1398 0.1506 -0.2245 -0.2241 -0.1656 -0.03964 -0.1307 -0.1428
0.1931 -0.1392 -0.227 -0.05417 -0.1266 0.1508 -0.0498 0.1231
0.245 0.00754 0.0416 -0.1236 -0.1638 0.0668 -0.134 -0.03946
-0.2017 0.05432 0.03418 0.223 0.2423 -0.03717 0.09564 0.1168
-0.0899 -0.2211 -0.1766 -0.2495 0.1537 0.03049 -0.2402 0.1547
-0.09106 0.0687 0.1343 0.04626 -0.0761 -0.004913 0.04358 0.12
0.2068 0.1685 -0.1647 -0.12476 -0.06915 -0.2318 -0.1181 0.01764
-0.19 0.1222 -0.2319 -0.1368 0.1104 -0.2457 0.1713 0.1115
0.09534 -0.1382 -0.2457 0.1772 0.07245 -0.02736 0.1624 0.0326
0.0655 -0.1736 -0.2356 0.1522 -0.0884 0.05344 -0.0181 -0.05533
-0.163 0.007706 0.1666 0.002972 0.07715 -0.2263 0.04752 -0.1757
0.04327 0.1542 -0.0756 -0.1332 -0.03998 0.11316 -0.0877 0.1205
-0.1913 -0.0855 0.2294 -0.0999 0.0837 -0.11896 -0.2021 -0.05173
-0.234 0.1554 0.03032 0.2104 -0.1401 -0.183 -0.1699 -0.09045
0.2428 -0.097 0.1233 -0.223 -0.1666 -0.2457 -0.02469 -0.05002
0.01403 0.08685 0.2313 0.0867 0.04105 -0.02696 0.02043 -0.1812
-0.07556 -0.096 0.1262 0.1838 0.092 0.1357 -0.06683 -0.1997
-0.0691 -0.0767 0.1669 0.2146 -0.1683 0.01767 -0.0934 -0.1177
0.0689 -0.0725 0.004993 0.2144 -0.1871 0.1284 -0.1111 0.1138
-0.001963 0.03513 -0.10803 0.1724 -0.1783 0.11633 0.2253 0.07666
-0.1903 0.2032 0.1454 0.2349 -0.1835 0.158 -0.1084 0.152
0.010994 -0.04016 0.2493 -0.1827 -0.2266 0.06033 0.1243 -0.1761
0.1185 0.05484 -0.0999 0.09576 0.2177 -0.1923 0.09283 0.1736
0.05453 0.1772 0.0971 -0.1284 0.0342 -0.2174 0.1382 -0.1754
0.0472 -0.1481 -0.1315 -0.1273 0.12225 0.10364 0.2443 -0.01613
0.1576 -0.0656 -0.1538 0.2439 0.1361 -0.1769 0.2432 -0.06192
0.01688 0.2297 -0.1975 -0.2216 0.0721 0.02766 0.05115 -0.04263
0.0991 0.0947 0.09515 0.1793 -0.10895 -0.1837 0.2051 0.07117
-0.01515 -0.0664 -0.1426 0.1704 -0.09235 -0.1357 0.0142 0.1597
00000000: baa9 e6b2 68b3 4232 b0a7 a8b1 0623 6525
00000010: 9531 72b1 e0ab 3caf 26b1 d728 03af 79b1
00000020: 5531 5333 7caf 6321 66b2 b833 9fb2 25af
00000030: 7930 d230 2fb3 2cb3 4db1 13a9 2fb0 92b0
00000040: 2e32 74b0 44b3 efaa 0db0 d330 60aa e12f
00000050: d733 b91f 5329 e9af 3eb1 462c 4ab0 0da9
00000060: 74b2 f42a 6028 2333 c133 c2a8 1f2e 7a2f
00000070: c1ad 13b3 a7b1 fcb3 eb30 ce27 b0b3 f330
00000080: d4ad 662c 4c30 ec29 dfac 089d 9429 ae2f
00000090: 9e32 6431 45b1 fcaf 6dac 6bb3 8faf 8424
000000a0: 14b2 d22f 6cb3 61b0 112f ddb3 7b31 232f
000000b0: 1a2e 6cb0 ddb3 ac31 a32c 01a7 3231 2c28
000000c0: 312c 8eb1 8ab3 df30 a8ad d72a a2a4 15ab
000000d0: 37b1 e41f 5531 161a f02c 3eb3 152a 9fb1
000000e0: 8a29 ef30 d7ac 43b0 1ea9 3e2f 9dad b62f
000000f0: 1fb2 79ad 5733 65ae 5b2d 9daf 78b2 9faa
00000100: 7db3 f930 c327 bc32 7cb0 dbb1 70b1 caad
00000110: c533 35ae e42f 23b3 55b1 ddb3 52a6 67aa
00000120: 2f23 8f2d 6733 8c2d 4129 e7a6 3b25 ccb1
00000130: d6ac 25ae 0a30 e231 e32d 5830 47ac 64b2
00000140: 6cac e9ac 5731 de32 63b1 8624 faad 88af
00000150: 692c a4ac 1d1d dc32 fdb1 1c30 1caf 482f
00000160: 0598 7f28 eaae 8431 b5b1 722f 3633 e82c
00000170: 17b2 8132 a730 8433 dfb1 0e31 f0ae dd30
00000180: a121 24a9 fa33 d9b1 40b3 b92b f52f a3b1
00000190: 962f 052b 65ae 212e f732 27b2 f12d 8e31
000001a0: fb2a ac31 372e 1cb0 6128 f5b2 6c30 9db1
000001b0: 0b2a bdb0 35b0 13b0 d32f a22e d133 21a4
000001c0: 0b31 33ac ecb0 ce33 5b30 a9b1 c833 edab
000001d0: 5224 5a33 52b2 17b3 9d2c 1527 8c2a 75a9
000001e0: 582e 102e 172e bd31 f9ae e1b1 9032 8e2c
000001f0: c2a3 40ac 90b0 7431 e9ad 58b0 4523 1c31

arith.constant46 f2 [16, 1, 1, 16]
-0.2233 -0.1494 -0.1117 -0.1032 -0.2349 0.1304 -0.1444 0.1686
0.148 0.1071 -0.1956 -0.04697 0.0391 -0.2296 0.08887 0.06635
-0.2378 -0.001968 -0.00442 -0.12366 -0.02034 -0.1757 -0.2438 -0.10315
-0.01308 -0.0915 -0.1675 0.0414 0.2266 0.2275 0.2263 0.24
0.1133 0.07574 -0.1342 0.0002041 -0.1158 -0.1927 0.12317 -0.2203
0.2484 -0.1573 0.2341 0.07623 -0.2211 0.1908 0.1744 -0.0801
-0.1965 -0.1979 0.01044 -0.1398 0.0829 -0.0665 0.0787 -0.1385
-0.1748 -0.07416 0.02641 0.2118 0.0645 -0.2023 -0.10925 -0.03107
-0.01941 0.02536 0.2079 -0.02422 -0.0189 0.06226 0.06018 0.1055
-0.0399 0.2021 -0.0137 -0.002329 0.01396 -0.1804 -0.2358 -0.2266
-0.1558 -0.06384 0.1631 0.2256 -0.1838 0.227 -0.09564 0.06042
0.10535 -0.006268 0.2042 -0.2489 -0.08777 -0.00433 0.06396 -0.04034
-0.02707 0.0893 0.2137 -0.214 -0.0838 0.2155 -0.2377 0.02628
0.1621 0.0995 -0.1466 0.10046 0.09045 -0.1398 -0.1687 -0.03503
0.1776 0.0805 -0.2058 -0.131 -0.1973 -0.2449 0.1038 0.1323
0.2322 0.003832 0.0532 -0.1963 -0.1239 -0.1548 -0.0003526 -0.05737
-0.04684 0.1708 0.11725 -0.1838 0.1945 0.1755 -0.1411 0.1897
-0.02734 -0.02278 -0.1403 0.00394 0.1067 -0.02269 -0.02766 -0.02199
0.1439 -0.1678 -0.05847 0.02533 -0.2015 -0.0953 -0.1807 0.11414
0.207 0.1447 -0.012085 -0.053 -0.11273 -0.1483 0.07025 0.1448
-0.2399 0.1962 -0.05365 0.2249 0.1644 0.1453 0.2211 -9.006e-05
-0.11237 0.121 -0.2448 0.1886 -0.1439 0.0974 -0.0814 0.2017
0.1973 0.014885 -0.216 0.0693 -0.2144 -0.1367 -0.0005746 -0.0941
0.0623 0.2432 0.2369 0.04767 0.1893 0.207 -0.00445 -0.1903
-0.2372 -0.2153 0.03787 0.1544 -0.1631 0.001835 0.05615 0.1129
0.1212 0.03665 -0.03625 0.07544 -0.01478 -0.2448 -0.1564 0.1982
-0.05798 0.1945 -0.07837 -0.05365 -0.04324 0.1505 0.1099 -0.1935
-0.0799 0.1805 -0.008995 -0.1338 0.1395 0.2437 -0.1576 -0.1808
-0.02635 -0.2004 0.0354 -0.1702 0.04422 0.227 -0.11664 -0.1987
-0.0777 0.1759 0.1459 0.2004 -0.1304 0.1649 0.1671 -0.1522
-0.1417 -0.1918 0.07733 0.013176 0.08234 -0.1803 -0.1031 0.02214
-0.0872 -0.05692 -0.02563 0.1947 0.1328 0.03214 -0.2357 -0.0809
00000000: 25b3 c8b0 26af 9bae 84b3 2c30 9fb0 6531
00000010: bc30 db2e 42b2 03aa 0129 59b3 b02d 3f2c
00000020: 9cb3 0898 879c eaaf 35a5 9fb1 cdb3 9aae
00000030: b2a2 dbad 5cb1 4d29 4033 4833 3e33 ae33
00000040: 402f d92c 4bb0 b00a 69af 2bb2 e22f 0db3
00000050: f333 09b1 7e33 e12c 13b3 1b32 9531 20ad
00000060: 4ab2 55b2 5821 79b0 4e2d 42ac 092d 6fb0
00000070: 98b1 bfac c326 c732 212c 79b2 feae f4a7
00000080: f8a4 7e26 a732 33a6 d7a4 f82b b42b c12e
00000090: 1ba9 7832 04a3 c598 2623 c6b1 8cb3 40b3
000000a0: fcb0 16ac 3831 3833 e2b1 4433 1fae bc2b
000000b0: be2e 6b9e 8932 f7b3 9ead 6f9c 182c 2aa9
000000c0: eea6 b72d d732 d9b2 5dad e532 9bb3 ba26
000000d0: 3031 5e2e b1b0 6e2e ca2d 79b0 66b1 7ca8
000000e0: af31 272d 96b2 31b0 50b2 d6b3 a52e 3c30
000000f0: 6e33 d91b cf2a 48b2 eeaf f4b0 c78d 58ab
00000100: ffa9 7731 812f e2b1 3932 9e31 84b0 1232
00000110: 00a7 d5a5 7db0 091c d42e cfa5 15a7 a1a5
00000120: 9b30 5fb1 7cab 7c26 73b2 19ae c8b1 4e2f
00000130: a032 a130 30a2 c9aa 37af bfb0 7f2c a230
00000140: adb3 4732 deaa 3233 4331 a630 1333 e785
00000150: 31af be2f d5b3 0932 9bb0 3c2e 36ad 7432
00000160: 5032 9f23 e9b2 6f2c dcb2 60b0 b590 06ae
00000170: f92b c833 9533 1a2a 0f32 a032 8f9c 17b2
00000180: 97b3 e4b2 d928 f130 38b1 8417 302b 3a2f
00000190: c22f b128 a4a8 d42c 91a3 d5b3 01b1 5832
000001a0: 6cab 3932 04ad deaa 89a9 d130 092f 31b2
000001b0: 1dad c731 9ba0 48b0 7730 cc33 0bb1 c9b1
000001c0: bfa6 6ab2 8828 72b1 a929 4433 77af 5cb2
000001d0: f9ac a131 ab30 6a32 2cb0 4731 5931 dfb0
000001e0: 89b0 23b2 f32c bf22 452d c5b1 99ae ab25
000001f0: 95ad 49ab 90a6 3b32 4030 1d28 8bb3 2dad

arith.constant47 f2 [1, 3, 1, 16]
-0.441 -0.153 -0.00635 0.0854 0.1456 0.04715 -0.3398 0.222
0.0758 0.4263 0.0995 -0.513 -0.376 -0.4912 -0.06934 -0.3806
0.2588 -0.1656 -0.5103 0.4985 -0.357 -0.343 -0.0824 0.1166
0.2834 0.1782 -0.2886 -0.5044 0.2102 0.4683 -0.2725 0.4758
-0.2944 0.554 -0.1251 0.3396 0.0565 -0.502 -0.0476 0.3066
-0.2319 -0.571 -0.4392 0.2361 0.5044 -0.1962 0.285 0.4902
00000000: 0eb7 e5b0 819e 772d a930 092a 70b5 1b33
00000010: da2c d236 5e2e 1bb8 04b6 dcb7 70ac 17b6
00000020: 2434 4db1 15b8 fa37 b6b5 7db5 46ad 762f
00000030: 8934 b431 9eb4 09b8 ba32 7e37 5cb4 9d37
00000040: b6b4 6f38 01b0 6f35 3b2b 04b8 18aa e834
00000050: 6cb3 91b8 07b7 8e33 0938 47b2 8f34 d837

arith.constant48 f2 [16, 1, 1, 16]
0.1322 -0.0825 -0.01284 -0.04282 -0.0381 0.1567 -0.2372 0.2212
-0.02162 0.1572 0.1814 0.02759 -0.1125 0.2144 -0.1439 0.0933
0.2072 0.1448 0.1665 0.0586 -0.1454 0.2156 -0.03162 0.07965
0.0428 -0.04596 0.01037 -0.02399 -0.03445 0.0294 0.1742 -0.0887
0.1792 0.002623 0.0294 0.03053 -0.1841 0.10504 0.11536 0.1523
-0.1515 -0.1891 -0.09125 -0.1602 0.0379 -0.1052 0.11316 -0.0848
-0.227 0.0783 0.11206 0.1993 -0.2462 -0.08716 0.009605 -0.1248
-0.02838 0.1356 -0.1367 -0.0762 -0.2109 -0.06085 0.07513 0.09143
-0.04153 -0.01883 -0.0161 -0.1948 -0.1633 -0.0132 -0.0443 -0.09705
0.06076 -0.0943 0.15 0.2153 -0.1642 -0.2218 0.08057 0.2246
0.171 -0.1975 0.1339 -0.01136 -0.2058 0.02345 -0.04297 0.05618
0.193 -0.00365 -0.01572 0.07544 -0.1766 -0.128 -0.2361 0.0869
-0.1868 0.058 -0.04022 0.09735 -0.01953 0.05173 0.03827 0.1865
-0.1462 0.1565 0.1517 -0.1683 -0.1749 0.095 -0.1575 0.2051
-0.0856 0.1204 -0.0913 0.0915 0.1742 -0.1509 -0.06696 0.11993
-0.1709 0.223 -0.2303 -0.1675 0.145 0.1227 -0.11725 0.2311
0.04056 0.2063 -0.1807 0.02443 -0.0645 0.007 -0.223 0.04385
0.1686 -0.1118 0.0937 0.04282 0.1736 -0.1499 -0.02959 0.2052
0.01617 0.01956 0.1729 -0.2067 -0.0859 0.1355 -0.0422 0.2477
0.1932 -0.1595 -0.004498 0.04803 0.00888 0.1924 -0.05222 0.0434
0.1309 0.07495 -0.04083 -0.03705 0.1517 -0.02657 0.05396 -0.1947
0.07855 -0.1246 -0.1085 0.1117 -0.1885 -0.011246 0.08716 -0.04144
0.09607 0.01915 -0.1193 0.00549 -0.014885 0.1571 -0.004833 0.1302
-0.1902 0.1864 -0.05432 0.219 -0.1814 0.1962 -0.1548 0.1809
0.1307 -0.1554 -0.1946 0.01968 0.1895 0.2144 -0.174 -0.2322
-0.1223 0.005623 -0.2191 0.0553 -0.2487 0.006943 -0.1152 0.09125
-0.197 -0.2273 0.2368 0.0997 0.2463 0.08374 -0.1329 -0.1821
-0.09076 0.1125 -0.09985 -0.1798 -0.2125 -0.1516 -0.1292 0.0785
-0.1425 0.1805 -0.1094 -0.2467 -0.2244 -0.05383 -0.1057 0.0318
0.1993 0.2485 -0.1293 0.1459 -0.1069 0.1578 0.229 -0.10144
-0.1991 0.05164 -0.2043 -0.04617 -0.02426 -0.06113 -0.2467 -0.0816
-0.07526 0.1425 0.0231 0.1637 -0.166 0.2202 -0.1827 0.2292
00000000: 3b30 48ad 93a2 7ba9 e0a8 0431 97b3 1433
00000010: 89a5 0831 ce31 1027 33af dc32 9bb0 f92d
00000020: a132 a230 5431 802b a7b0 e632 0ca8 192d
00000030: 7a29 e2a9 4f21 24a6 69a8 8727 9331 adad
00000040: bc31 5f19 8727 d127 e4b1 b92e 622f e030
00000050: d9b0 0db2 d7ad 20b1 da28 bcae 3e2f 6dad
00000060: 44b3 032d 2c2f 6132 e1b3 94ad eb20 fdaf
00000070: 44a7 5730 60b0 e0ac c0b2 caab cf2c da2d
00000080: 51a9 d2a4 1fa4 3cb2 3ab1 c2a2 aca9 36ae
00000090: c72b 09ae cd30 e432 41b1 19b3 282d 3033
000000a0: 7931 52b2 4930 d1a1 96b2 0126 80a9 312b
000000b0: 2d32 7a9b 06a4 d42c a7b1 19b0 8eb3 902d
000000c0: fab1 6d2b 26a9 3b2e 00a5 9f2a e628 f831
000000d0: aeb0 0231 db30 63b1 99b1 142e 0ab1 9032
000000e0: 7aad b52f d8ad db2d 9331 d4b0 49ac ad2f
000000f0: 78b1 2333 5fb3 5cb1 a430 da2f 81af 6533
00000100: 3129 9a32 c8b1 4126 21ac 2b1f 23b3 9d29
00000110: 6531 28af ff2d 7b29 8e31 ccb0 93a7 9132
00000120: 2424 0225 8831 9db2 7fad 5630 67a9 ed33
00000130: 2f32 1bb1 9b9c 262a 8c20 2832 afaa 8e29
00000140: 3030 cc2c 3aa9 bea8 db30 cda6 e82a 3bb2
00000150: 072d f9af f2ae 262f 08b2 c2a1 942d 4ea9
00000160: 262e e724 a3af 9f1d 9fa3 0731 f39c 2b30
00000170: 16b2 f731 f4aa 0233 ceb1 4732 f4b0 ca31
00000180: 2f30 f9b0 3ab2 0a25 1032 dc32 91b1 6eb3
00000190: d4af c21d 03b3 142b f5b3 1c1f 5faf d72d
000001a0: 4eb2 46b3 9433 612e e233 5c2d 41b0 d4b1
000001b0: cfad 332f 64ae c1b1 cdb2 dab0 22b0 062d
000001c0: 8fb0 c731 00af e5b3 2eb3 e4aa c4ae 1228
000001d0: 6132 f433 23b0 ab30 d7ae 0d31 5433 7eae
000001e0: 5fb2 9c2a 8ab2 e9a9 36a6 d3ab e5b3 39ad
000001f0: d1ac 8f30 ea25 3d31 50b1 0c33 d9b1 5633
