gtcrn_micro/models/tflite/gtcrn_micro_float32.tflite (tflite, 238220 bytes, 96 tensors)

arith.constant f4 [8]
00000000: a83f f7bd 2543 99bd 133c 30be a771 973e
00000010: b184 6e3e 14bf 873e 62d7 6a3e 9363 65be
-0.12072688 -0.0748351 -0.17210416 0.29578897 0.23292805 0.2651297 0.22933725 -0.22401266

arith.constant1 f4 [8, 1, 1, 16]
00000000: 22bb 853e e61c 5cbe 086f 4d3e 899f 883d
00000010: a110 d3bd 5985 793e 95c1 f13d 4bc5 45bd
00000020: 2db0 84be 23d5 473e 1e48 34be 2ad1 92bd
00000030: 61c3 32be 40c1 b03e b86c dbbd e4d1 fbbd
00000040: d4be 5f3e 157a 093e 8eb3 9cbe b9e1 8a3e
00000050: 5122 5abe 1bf0 993e bfa9 983d 6e99 133e
00000060: 64fc 9e3e d3e9 853d 8571 a4be f574 733d
00000070: 6faa d13b 4290 1a3e 384d d33d 40fb 503e
00000080: 52d9 953c 6b41 9dbe 96bf a13d 5e26 173e
00000090: 0975 18be 7427 1dbe eb82 013d a104 b8ba
000000a0: 90a0 acbe c474 8cbe 0008 1d3e 5043 373e
000000b0: 1ed1 cc39 a525 78be 86bf a0be 2655 5a3e
000000c0: 7b2f e03d 5b04 0abd b763 843e cb03 8c3d
000000d0: 1e9d 3f3e 0229 08bc 2829 8bbe e1ff 91be
000000e0: 20de 973e 17f8 903d 3b45 9c3e 553a 183e
000000f0: 48b8 f1bc 461b 9b3e bbb3 febd 961e b93c
00000100: 5169 5ebe aaf7 8eba f48a 1abd bcb1 5c3e
00000110: 7d50 2c3e 78ba d9bb 94b7 5c3e 228d 803d
00000120: 7885 8d3e 22ec d73d 38a1 7a3e 6bcf a8be
00000130: 5960 aebe 9edc 913e 2147 94be f741 30be
00000140: 4be2 1a3e 00bb b43e 7419 573e 46a8 8fbe
00000150: 7fca 363d 04bf 893e 2196 83bc 5398 363e
00000160: 13d6 0bbe e5db 32be 4fb5 8abb 3deb a83e
00000170: 5fd1 76bd 952f e83d 38d1 1e3e 5046 f6bd
00000180: 306a 623e e27c b43e add4 a4be 56f0 913e
00000190: 0462 1c3d accd 98be 8a4c 8a3e 846b a6be
000001a0: 34c9 933b 0e52 8cbd 48fe 35bd 8a99 a73e
000001b0: 59a3 3a3e 5da0 af3c 67c5 0cbe 602e 52be
000001c0: 0f23 92be 1ac0 813e 45d7 76be 4875 9dbe
000001d0: 7a38 d5bb d4e3 0bbe e45f 75be 07f3 853e
000001e0: 96d6 b43e ad80 a73e f3ca 49be dc5a 843e
000001f0: eeff 0abe 9eb7 4f3d 4e0b 903e 2e04 8d3d
0.26119334 -0.21495399 0.20061886 0.06671054 -0.10305906 0.24367274 0.11804501 -0.048283856
-0.2591566 0.19514899 -0.17605636 -0.07168801 -0.17457344 0.34522438 -0.10714096 -0.12295893
0.21850139 0.13425477 -0.3060574 0.27125338 -0.21302153 0.30065998 0.074542515 0.14413998
0.31051934 0.06538739 -0.3211786 0.05943771 0.006398491 0.15094092 0.10317463 0.20408344
0.018292103 -0.30713972 0.0789787 0.1476073 -0.14888395 -0.15347081 0.031618994 -0.0014039465
-0.3371625 -0.27432835 0.15335083 0.17896771 0.00039065717 -0.2423311 -0.3139612 0.21321544
0.10946556 -0.03369556 0.25857326 0.06836661 0.18712279 -0.008310558 -0.27179837 -0.28515533
0.29661655 0.070785694 0.3052157 0.14866002 -0.029506817 0.30294245 -0.124366246 0.022597592
-0.21719863 -0.001090755 -0.037730172 0.21552175 0.16827579 -0.0066445433 0.21554404 0.06276919
0.2764089 0.10543086 0.24475563 -0.32970747 -0.34057882 0.2848863 -0.28960517 -0.17212664
0.15125386 0.3529892 0.21005803 -0.2805807 0.04462671 0.26903546 -0.016062798 0.17831545
-0.13655882 -0.17466696 -0.0042330394 0.32991973 -0.060258266 0.113372006 0.15509498 -0.1202513
0.2211082 0.35251528 -0.3219351 0.28503674 0.038179412 -0.29844415 0.2701152 -0.32503903
0.0045100693 -0.06851588 -0.044431955 0.32734329 0.18226375 0.021438772 -0.13747178 -0.20525503
-0.28542373 0.25341874 -0.24105556 -0.3075354 -0.0065069767 -0.13661128 -0.2396236 0.26161978
0.35319966 0.3271536 -0.19706325 0.2585057 -0.13574192 0.05071222 0.28133625 0.06885563

arith.constant2 f4 [16]
00000000: c8a0 113d 8ca8 35bd c039 8f3d 5648 283e
00000010: 40db 4cbe aaed 5ebe f7c0 da3b a1a9 ed3d
00000020: 7b91 123e 3803 3abe 4b41 6fbe 1fb7 72bd
00000030: dc7a 773e 81b6 433e 5ab3 5dbe 95d3 e0bd
0.035553724 -0.044350192 0.06993437 0.16433844 -0.20005512 -0.21770349 0.0066758352 0.1160462
0.14313309 -0.1816529 -0.23364751 -0.05925667 0.24167961 0.19112588 -0.21650448 -0.10977856

arith.constant3 f4 [16, 1, 1, 8]
00000000: aba2 32be 5f5f 26be 3e6e 2fbd b7a6 2c3e
00000010: 342f 22be 2c12 da3d 7aa7 a1bd a5c2 203e
00000020: a16f 2cbe d146 25bd 473d 6ebe 2784 44be
00000030: b700 dc3c 0f53 5b3e ec73 9b3c 8b95 243e
00000040: 3b49 243e 77f7 ac3c f7f9 86bd 6396 e7bd
00000050: ef5c 74be a1e6 133e daf8 7b3e 1753 383e
00000060: 8a9c 2ebe 3c10 c13d c032 42bb aa65 2d3e
00000070: b918 2dbe 7d92 5abe 3b98 1f3d 9d5f 50be
00000080: 6abf 46be 4a0c 093d 3dad ca3c 1532 623c
00000090: d959 8cbd c078 653e 745b 053c a46e fdbd
000000a0: f533 fabd 80df 763e 4198 6d3e 8a2f 893d
000000b0: d958 493e 045e 33bd ae4d 7c3e 49fe 4a3e
000000c0: b5d5 62be f7a1 2a3d 7f88 a03d 690d 503e
000000d0: 4132 cabd 0370 2a3e 3c82 efbd e697 5ebe
000000e0: 7916 d63b 9240 893b cedf 15b8 23b7 e63c
000000f0: a4af 9d3d 65d2 62be 126f ea3d 9ccb e3bd
00000100: 6b3a 62be 2bf4 f43d 0cab a9bd 5a85 e9bd
00000110: 4673 8bbd 694e a43d 4c63 663e b362 f4bd
00000120: 4819 2abd 362d 293e ccdc 093e 034e 7fbd
00000130: 24b1 9cbd 4497 33bb 0d4e 50be 38bd 6f3d
00000140: f68d 273e c91c 563d e311 06bd 3a96 513b
00000150: ecfe 45be acfa 4d3e e325 493e 87d1 14bd
00000160: 1bff 4e3c 5fca 6ebe 4c25 f1bd 3652 60be
00000170: 388a b5bd 31a5 823d eb5a a03c d56f 4abe
00000180: 7395 08bc aef0 7dbe e3f4 b6bd 0065 283e
00000190: cf5e 063e 9108 153e 7e04 df3d 2a4b 72be
000001a0: 2810 30be 8b2a 1e3d d46b 6b3e d34c 743e
000001b0: 73ae 6cbe b350 f3bd 8282 10be bcfc 84bd
000001c0: 304b 90bc 19ef 2bbe 059a 49be 78f3 33be
000001d0: 5fc6 6d3e 0b04 dd3d 3eda 41be f1d4 143e
000001e0: d346 4a3e 617c 4ebe a744 4b3e 6919 9bbd
000001f0: 7179 4a3e e4c7 1b3e 2563 7b3d f0f0 28be
-0.17444865 -0.16247319 -0.042829745 0.16860472 -0.15838319 0.10647997 -0.07893272 0.15699251
-0.16839458 -0.04035074 -0.23265563 -0.19191037 0.02685581 0.21418403 0.018976174 0.16072671
0.1604356 0.021114094 -0.06590646 -0.11307981 -0.23863576 0.14443447 0.24606648 0.18000446
-0.17051902 0.094269246 -0.00296323 0.16933313 -0.16903962 -0.21344943 0.038963538 -0.20348974
-0.19408956 0.033458985 0.02474081 0.013805886 -0.068530746 0.22409344 0.00813948 -0.12374619
-0.12216941 0.24108696 0.23202612 0.066985205 0.19662799 -0.043790832 0.24639007 0.19823565
-0.22151835 0.041658368 0.078385346 0.20317616 -0.098728664 0.16644292 -0.11694762 -0.21737632
0.0065334407 0.0041886056 -3.5732803e-05 0.028163498 0.076995164 -0.22150572 0.11446966 -0.1112282
-0.22092597 0.11960634 -0.08284578 -0.11402388 -0.06809096 0.08022768 0.22498816 -0.11932888
-0.041528016 0.16521153 0.13463134 -0.062330257 -0.076509744 -0.0027403394 -0.20342274 0.058530062
0.16362748 0.052273545 -0.0327319 0.003198041 -0.19335526 0.20115155 0.19643359 -0.036332633
0.012634064 -0.23319386 -0.11774692 -0.21906361 -0.08864254 0.06379164 0.019574603 -0.19769223
-0.008336413 -0.24798843 -0.08933427 0.16444778 0.13122104 0.14554049 0.10889529 -0.23661485
-0.17193663 0.03861479 0.22990352 0.23857431 -0.23113422 -0.118806265 -0.14112285 -0.06493518
-0.017613977 -0.16790427 -0.1968766 -0.17573345 0.23220204 0.10791787 -0.18930909 0.14534356
0.1975358 -0.20164634 0.19850408 -0.07573206 0.19772889 0.15212971 0.06137385 -0.1649816

arith.constant4 f4 [8]
00000000: 621f 943d 1db5 e13c 386f 3c3e a878 9ebe
00000010: b6de 233e 8c2b 54be 9d1c 753e 4d37 423e
0.07232548 0.027552182 0.18401802 -0.30951428 0.16002926 -0.20719737 0.23936696 0.18966408

arith.constant5 f4 [8, 1, 1, 16]
00000000: be46 7abe 935d 4d3e 5d3a 79be b55e 58be
00000010: 4e0a 9a3d 60b1 c33d 4ecb 003e 4700 9c3e
00000020: 193e 77be ece4 413e 63e0 3b3e fdfa 82bd
00000030: da6d 6bbd fc58 5f3d 4801 b03d 097e aabe
00000040: 3558 b4be c7d2 373e 5eb3 5e3e cee5 753e
00000050: b363 0b3d 4c5e 9f3e aab1 8e3e 9b4d dbbd
00000060: cad8 babd bffd 573d 8f4f 673e ad44 29be
00000070: 7974 9a3e ef83 193e c1eb 733e 300a 6c3e
00000080: 01c1 1f3e 7b35 2b3d 02d3 943d 31a0 b5bd
00000090: 949d 2dbe 01ff 5e3e 38f5 853e 1862 793d
000000a0: 5953 333e f046 a6be 127f d3bc d44a 9fbe
000000b0: eae6 513e 92fd 9dbe 9146 1b3e ed0f 903e
000000c0: c619 e4bd 4dde 08be a307 05bd 457d 31be
000000d0: ab73 6f3e ead9 6d3e 4b3f 613e 4737 853d
000000e0: c4b1 773e 3c5a 903e 9b93 41be 951a 00be
000000f0: 060a 0abe 52de 793e b9bd a23d a9a0 013e
00000100: 1a71 18be b889 31bd af5f 343e 33e3 70be
00000110: 7268 6c3e 4cec ea3d 672d 143e ced1 b4bd
00000120: 71f6 6abd 2f7f 813e 78de 66bd d02b a9be
00000130: 1604 22be d90d 6fbe 9ccb 2e3d 9853 c0ba
00000140: 3a77 393e 5a46 8fbe 3bbf 033e 23f4 8bbe
00000150: 1409 12be 9fb1 f23b 9ce7 993e eeb7 9bbe
00000160: 3ec9 86be 6f39 a2be 6e5d d7bd 3573 953e
00000170: 6061 59bc 5df2 6fbd 067f 8c3e b6db ac3d
00000180: 4a94 b73d 5edc 79be 680b 8d3d 552c 10be
00000190: f1d2 a2be c8a8 153e 791c 1dbe 860d 0cbe
000001a0: 599a 393e f6f5 18bd 6a59 1abd 32f7 37bb
000001b0: d609 af3c d1a2 10be a846 b03e 362e 89bd
000001c0: d7ad 0f3e caf5 57be 9648 a23e cc83 1d3c
000001d0: adca 053e 05cf a3bc 70c6 0dbe d6e0 fabd
000001e0: 9729 9cbe d4d0 8cbe 6673 a7be 42ab 80be
000001f0: e233 38be 57d0 423c a09b b2be 141a 5ebd
-0.24441049 0.20055227 -0.2433867 -0.21129878 0.07521497 0.09555316 0.12577555 0.30468962
-0.24144782 0.18934983 0.18347315 -0.063955285 -0.05747781 0.05452822 0.085939944 -0.33299282
-0.35223547 0.17951499 0.2174811 0.24013445 0.034030627 0.3112663 0.27869922 -0.107081614
-0.091233805 0.052732226 0.22588943 -0.16530104 0.30166987 0.14991735 0.23820402 0.23050761
0.15600969 0.04179905 0.07266809 -0.08868445 -0.16954643 0.21776964 0.2616365 0.060884565
0.17512263 -0.32475996 -0.025817428 -0.31111777 0.20498243 -0.3085752 0.15163638 0.2813715
-0.111377284 -0.13366051 -0.032477986 -0.17332943 0.23383968 0.23227659 0.219968 0.06504684
0.24188906 0.28193843 -0.18903963 -0.1251014 -0.13480386 0.24401215 0.07946343 0.12658943
-0.14886895 -0.04334423 0.17614625 -0.2352417 0.23086718 0.11470851 0.14470445 -0.088290796
-0.05736393 0.25292346 -0.056364506 -0.3304124 -0.15821871 -0.23345126 0.042674646 -0.001467335
0.18111888 -0.2798336 0.12865917 -0.273347 -0.14261276 0.007406428 0.30059516 -0.30413765
-0.2632541 -0.31684443 -0.10515867 0.29189458 -0.013267845 -0.058580745 0.2744066 0.08440344
0.08963831 -0.2440047 0.06886941 -0.14079411 -0.3180156 0.14615166 -0.15342893 -0.13677034
0.18125285 -0.03734394 -0.03768293 -0.0028070924 0.021366995 -0.1412461 0.34428906 -0.06698267
0.14031158 -0.21089855 0.31696004 0.009613942 0.13065596 -0.019996176 -0.13845229 -0.12249915
-0.3050048 -0.27503073 -0.3270523 -0.2513066 -0.17988542 0.011890492 -0.34884357 -0.05422409

arith.constant6 f4 [16]
00000000: 52c2 353e 00e6 9bbd 4620 d23d e434 35bc
00000010: 3866 573d 7d9d 6cbe 79e5 3ebe 52bc 3a3d
00000020: 4165 4a3e 98cd cbbd 26f8 28be 5bda 0d3e
00000030: e69a bb3d f72f 88bd 1b45 ddbd d5e0 bcbd
0.17749909 -0.076122284 0.10260062 -0.011059973 0.052587718 -0.23106952 -0.18642224 0.045589752
0.19765188 -0.09951323 -0.16500911 0.13852827 0.09160404 -0.066497736 -0.108041964 -0.09222571

arith.constant7 f4 [16, 1, 1, 8]
00000000: b27c 51be a329 68be 356e 823d 5028 0b3e
00000010: fcfd 163e 471a dc3c bbf5 50bb 4696 0bbe
00000020: 7f54 753d d997 81bd e8df a83c fd3c 1a3d
00000030: 7b22 f33d 3584 813c 82f2 233d 945d 9d3d
00000040: d52e 573e 043b d8bd a9f9 503e eb96 443e
00000050: b8e2 403d 818e 603e fb0a 9f3d 0b20 393e
00000060: c7d9 ce3d 2ecc 2fbe 7f2f e8bd 9104 683e
00000070: ff9e abbd d2b2 3b3d 8cde f0bd f694 eabd
00000080: 578e 673e 11fb f9bd dcfd fd3c 5166 6fbd
00000090: c9c7 26be e63c f7bd 3cc2 9bbc 24fa 213e
000000a0: 5ef9 643e 93b3 673e 918f 003e 189b 1b3e
000000b0: 5fe3 0c3e 1367 2a3e ce77 6bbe 2821 c1bd
000000c0: ac3f b4bd 733f 08bc 8d12 a5bd 856d b0bd
000000d0: 2bd2 ff3b 138f f3bd e9be a63c 3e37 6cbe
000000e0: 2fef e63d 338c 5b3e 8949 563d 4062 283d
000000f0: df9d 3dbe 0578 3e3e 9128 56be 6998 3ebd
00000100: c2d6 59be a48e b43d dc84 7c3e da9d 3a3e
00000110: a8a0 fbbd e838 403d 8a74 4c3e d1a2 3d3d
00000120: 47ed 723d e890 413e b02f 473e 5b4e 183e
00000130: 4405 2abe 63e0 5abe 2de0 44be 68a2 d7bd
00000140: 10a0 6fbd de60 ecbd d175 993d a54e 62bd
00000150: 0c5b 043d 66a3 40be a984 243e cce2 1d3b
00000160: 80ee d83d 1fad e7bd 361b 09be ca3c 60be
00000170: d274 963d c136 3fbd 879e 433d 2fb9 87bd
00000180: 11c8 cabd 01ad eebd f6cd 153d 3694 8a3d
00000190: 0690 23be 201b 593d 5bdf 3c3e 369b 283e
000001a0: f017 5abe e448 053d 6074 2e3e 5f47 923c
000001b0: 54a9 f13d db4c 623e ec5e fd3c 4cf3 4c3d
000001c0: e46f 83bd b4de 59be ca1e 4c3e 2cef 5f3e
000001d0: 5a6d 463e 14bc 83bc 1117 25bd 7b28 2cbe
000001e0: af71 f33d eda0 55be 4a50 59be efda 143d
000001f0: 5cf5 45be 3a9c e9bd 2a34 33be a303 563e
-0.20457724 -0.22672133 0.063686766 0.13589597 0.14745325 0.026867999 -0.0031884748 -0.13631544
0.059895035 -0.06327791 0.02061458 0.03765582 0.11871811 0.015810112 0.040026195 0.07683864
0.21013959 -0.10558131 0.20407738 0.19198196 0.047091216 0.21929361 0.07765766 0.1807863
0.101001315 -0.17167732 -0.11337184 0.22657992 -0.083799355 0.045824833 -0.117611974 -0.11454193
0.22612892 -0.1220609 0.031004839 -0.058447186 -0.1628715 -0.12072162 -0.019013517 0.15818077
0.22360751 0.22627096 0.12554766 0.15195882 0.1375861 0.16640882 -0.2299492 -0.09430152
-0.08801207 -0.008315909 -0.08060179 -0.08614639 0.0078070364 -0.118925236 0.020354705 -0.23067948
0.112760894 0.214402 0.052316222 0.041109324 -0.18517254 0.18600471 -0.20913912 -0.04653207
-0.2127333 0.08816269 0.24660057 0.18224278 -0.12286502 0.04692927 0.19966331 0.046297852
0.059308317 0.18902934 0.19451785 0.1487364 -0.16603571 -0.21374659 -0.19226141 -0.105290234
-0.058502257 -0.115419134 0.07493175 -0.055250783 0.03231339 -0.18812332 0.16066231 0.002409148
0.10592365 -0.11312317 -0.13389286 -0.21898189 0.073465005 -0.046683077 0.047758605 -0.06627118
-0.09901441 -0.116540916 0.036573373 0.0676655 -0.1597291 0.053004384 0.18444578 0.16465458
-0.21298194 0.032540217 0.17036581 0.017856298 0.11799875 0.2209963 0.030929051 0.050036713
-0.06417826 -0.21276361 0.1993362 0.2186858 0.19377652 -0.016080894 -0.0403052 -0.16812317
0.11886918 -0.2086217 -0.21222034 0.036341604 -0.19331878 -0.11406751 -0.17500368 0.20899825

arith.constant8 f4 [8]
00000000: 0099 a9bd 794f 393e efe9 853d 4460 39be
00000010: 18e2 92be dbbd 99be 7700 9cbe 03d1 18bd
-0.082811356 0.18096723 0.0653876 -0.18103129 -0.2868812 -0.3002766 -0.30469105 -0.037308704

arith.constant9 f4 [8, 1, 1, 16]
00000000: 1b17 60bd f9be 31be 6e94 99be efe0 ebbd
00000010: b87d 733e de3c a5be f74c a53e c316 02be
00000020: a1be 1a3e 09bf 903a 0d1a 1fbe 72fc 643e
00000030: 20fc 7fbe ea68 8a3e 71df 553d b2a9 88be
00000040: 2a67 b43d b7b8 a3be 51d7 1ebe c6c6 9dbd
00000050: 5b71 58be 2509 a1be c84d db3c 15a0 29be
00000060: 54a6 43be a919 08be b2f0 edb7 df20 b03e
00000070: f6e0 e3bd 85b6 1fbd 2d83 97bc 4008 b5bc
00000080: 7c61 033e a67e 493c 2c93 c3bd f33e a1be
00000090: 6fc9 abbe 9e82 0abe db68 a1be b954 983e
000000a0: 2ccc 813e a6d6 b43e 505f 8b3e 208b e5bd
000000b0: 4b16 353e 1be2 eb3d 5da6 413e 6aef e6bd
000000c0: a7f9 6cbd 54d8 8e3e d1b1 00be 1408 dd3c
000000d0: 0ff2 2bbd b348 903e 8c86 9fbe 9323 a73e
000000e0: b88a 523d 27cd de3d fc7f 9d3e daae 9bbe
000000f0: 56ae 713e cf4c 27be 52ea 3c3b c326 983e
00000100: e6f9 72be d930 93be e80e b4bd 1292 a33e
00000110: 31b3 1f3e 3a32 73bd f959 e33d efae 96bd
00000120: d054 28be ae36 033e 487e a43e 70f9 8abe
00000130: 196e ac3e e342 2a3e 6890 053e 99af 59be
00000140: 90c0 5f3e fb5e 7e3e 1a5d a33e 195a 3dbe
00000150: aec3 02bd 2ca9 1a3e 5927 9d3e b335 9a3e
00000160: a033 2bbd a348 54be 441b 00bc 7084 9bbe
00000170: 7c9c 943e 69d6 76bd e1e7 0d3e 6c0d 9f3e
00000180: b7d9 1e3e 834c 0f3d 7722 80be 3268 553e
00000190: b082 a33e 7095 b2be ba29 e13d dccb a63e
000001a0: ea4b 3d3e 9281 19be bb97 313d 64b2 483e
000001b0: bcb7 22be e75a 153e 7a4c 1dbe 8e25 20be
000001c0: d796 5ebd c54b 0ebe 1423 90be 7a85 1a3d
000001d0: eb42 44be 5e80 b1be 94a5 af3c 8221 3cbb
000001e0: 06d7 3d3c 9c5e 76be f95f a4bd ae42 82bd
000001f0: 126c 61be 0814 813e 36f7 22be a9d3 4bbe
-0.054709535 -0.17358007 -0.29996055 -0.11517512 0.23778427 -0.32273 0.32285282 -0.12703995
0.15111782 0.0011043261 -0.15537281 0.22361925 -0.24998522 0.27033168 0.052215043 -0.26691967
0.088087395 -0.31976864 -0.15511824 -0.07703929 -0.21136992 -0.3145229 0.026770487 -0.16564973
-0.19106418 -0.13291039 -2.8364684e-05 0.3440008 -0.11126892 -0.038992424 -0.018495167 -0.02209866
0.12830156 0.012298262 -0.09549555 -0.3149334 -0.3355212 -0.13526389 -0.3152531 0.29752138
0.25351083 0.35320014 0.27221155 -0.112081766 0.17684285 0.115177356 0.18911119 -0.11276133
-0.057855275 0.2789942 -0.12567832 0.026981391 -0.041978892 0.28180465 -0.3115734 0.32644328
0.051401824 0.108789735 0.30761707 -0.3040684 0.2360166 -0.16337894 0.002882619 0.29717073
-0.23728141 -0.28748205 -0.08791906 0.3194738 0.155957 -0.05937407 0.11101145 -0.07357585
-0.16438603 0.12813827 0.32127595 -0.2714343 0.33677748 0.16627078 0.13043368 -0.21258391
0.218508 0.2484092 0.31906968 -0.18491401 -0.031924896 0.15103596 0.30694082 0.30119094
-0.04179728 -0.20730834 -0.007819001 -0.3037448 0.29025638 -0.06026307 0.13857986 0.31064928
0.15512739 0.034985077 -0.25026295 0.20840529 0.31935644 -0.34879637 0.10994287 0.32577407
0.1848599 -0.14990833 0.043357592 0.195993 -0.15890402 0.14585458 -0.15361205 -0.15639326
-0.05434307 -0.13896091 -0.28151762 0.03772495 -0.19166152 -0.3466825 0.021441258 -0.0028706496
0.01158691 -0.24059528 -0.08026118 -0.063603744 -0.22013882 0.25210595 -0.15914616 -0.1990496

arith.constant10 f4 [16]
00000000: 9d33 56be aebf 77b9 6036 9cbd dc92 413e
00000010: f305 453e a0e3 053e 9627 2fbd 485f c13d
00000020: 2460 093e b06b bfbd bf8e 663e caec 033e
00000030: 4224 343e fa65 77be 3ae2 64be 4fb6 543e
-0.20918126 -0.00023627162 -0.07627559 0.18903679 0.1924055 0.13075113 -0.04276236 0.094420016
0.13415581 -0.09346712 0.22515391 0.12883297 0.17591956 -0.24159995 -0.22351924 0.2077267

arith.constant11 f4 [16, 1, 1, 8]
00000000: 33ab 0cbe 417e 25bd 208e 2ebe b5d8 ca3d
00000010: 164b 76be af48 503e a1d2 073e 98d5 5ebe
00000020: ad07 62be 52b8 0b3c 7552 2a3e 82de 53be
00000030: bc14 f2bd 4a6d 96bd 97f2 5c3c 5ccb 6f3e
00000040: 9c77 04be 449b 1bbd f911 99bd 6cee d83d
00000050: 5dfc 4ebe 2434 033e ba13 c73d 337d 3c3e
00000060: e801 16be e749 5dbe 52bf 273e 54d7 57be
00000070: db83 06be bb1c 503b 8a04 ae3d a020 293e
00000080: 6ccb 9c3c 19b2 783e be96 583e fa1e a33d
00000090: c464 5fbe d804 593e 5af6 53bc 6cb5 1cbe
000000a0: c39e 50be 5820 40bd 0d0a 07be bb83 493e
000000b0: af2b 753c e52a 6f3e c7a4 2a3e 10ae 583d
000000c0: 4fde abbd b3f5 da3d bcd6 1c3d c94a 75be
000000d0: bbc5 e7bd 56e7 463e b361 07bc 951e 7abe
000000e0: 6483 283e 4ea9 f53c cb30 1a3e 0a95 df3d
000000f0: f2ac 0f3e 75d0 493d 85de b0bd 0679 63be
00000100: 084a 1b3e b8ee a83d 1995 253d 7ed4 043e
00000110: 3d88 0ebe 34a3 b4bc 1e92 f73d 7036 0b3e
00000120: ecc9 03be 0318 2b3e 2a35 65be 1b5c 7abe
00000130: 95eb 813d 5c83 52be ec35 9bbc 63dc cf3d
00000140: 32f3 e93d 20ad 10be adaf 793c f147 75be
00000150: fa7e 70be 8b82 5abe 652e 4b3e 9f47 4bbe
00000160: 1635 8abd 81f1 013e ab6c e63d 257c d5bd
00000170: 12a1 22be 6dc5 bdbd 7c32 22be 55ba 013b
00000180: 6b1b ddbd 1de2 a5bd 2ae4 703e fc2f 3c3e
00000190: 346a e53c b77b 66be 97c3 f23d b746 ac3d
000001a0: 2602 47bd bf7c 443e c1e8 5c3e ee22 173c
000001b0: 6978 e23d bed0 403e cd77 d6bd 8bd5 ac3d
000001c0: 5fbe 253e 6376 b73d 7513 003e 2d04 8dbd
000001d0: 6351 0ebe 6875 58bd 136e b6bd a23a 223d
000001e0: 3459 783e 1b63 d03d 4971 eebd aa01 22bc
000001f0: ebe6 5cbe 41a2 6d3d f131 e23d 1a3f 46be
-0.13737182 -0.04040361 -0.17046404 0.09904615 -0.2405208 0.20340227 0.13263942 -0.21761167
-0.2207324 0.008527832 0.16633017 -0.20690349 -0.11820361 -0.07345064 0.013485572 0.23417419
-0.12936252 -0.03798987 -0.07474131 0.1059235 -0.20213456 0.12812859 0.097205594 0.18407135
-0.14649165 -0.21610223 0.16381577 -0.21078235 -0.13136236 0.0031755406 0.084969595 0.16516352
0.019139968 0.24286689 0.21151254 0.07964893 -0.21815783 0.21193254 -0.012937153 -0.15303582
-0.20373063 -0.046905845 -0.13187428 0.19679157 0.014964028 0.23356207 0.1666442 0.052900374
-0.083920114 0.10691395 0.038290724 -0.2395431 -0.11317011 0.19424185 -0.008263039 -0.24425729
0.16456372 0.029987957 0.15057676 0.10917099 0.14030817 0.049271066 -0.08636192 -0.22214136
0.1516496 0.08248657 0.040425394 0.12971684 -0.13919158 -0.022050478 0.120884165 0.13594985
-0.12869996 0.16708378 -0.22383562 -0.24449198 0.06343762 -0.20557922 -0.01894661 0.10149457
0.11423339 -0.14128542 0.015239638 -0.23953225 -0.23485938 -0.2133886 0.19841917 -0.1985154
-0.067484066 0.12689783 0.112511955 -0.10424069 -0.15881756 -0.092661716 -0.15839571 0.00197949
-0.10796245 -0.08099768 0.23524538 0.1837768 0.028004743 -0.22508131 0.11853712 0.08411925
-0.048586033 0.19188212 0.21573164 0.0092246365 0.11058123 0.18829629 -0.10472069 0.084391676
0.16185902 0.08958127 0.12507422 -0.06885562 -0.13898234 -0.052846342 -0.08907714 0.039606698
0.24252778 0.10175153 -0.11642701 -0.009888092 -0.21572463 0.058016066 0.11044682 -0.19360009

arith.constant12 f4 [2]
00000000: 5904 17be 58f7 d73d
-0.14747752 0.10545224

arith.constant13 f4 [16]
00000000: 9884 c8bd 899e d0bd 89cf 573d 83e5 e13d
00000010: 2630 48bd 611f c5bd 1bc5 453c a58e 4c3d
00000020: d468 2f3d 3a3c 98bd 0204 083d 20b5 883d
00000030: b8da a73d 2b69 e3bd 6013 893d 563c 6f3c
-0.09790915 -0.10186488 0.052688155 0.11030104 -0.048874043 -0.09625126 0.012070919 0.049940724
0.04282458 -0.07433362 0.033206947 0.06675172 0.08196014 -0.111040436 0.066931486 0.014601788

arith.constant14 f4 [16]
00000000: 1495 873d 90d2 10bd 0840 453d 80eb c9bc
00000010: 26c9 a1bc c6d5 943c 56c6 033c b09d b93c
00000020: 8078 78bd 5755 a4bd eea5 09bd 580e 543d
00000030: 4e9b 513d a038 553d 401f 65bd b691 173c
0.06620231 -0.035357058 0.048156768 -0.024648428 -0.019749235 0.018168341 0.008042892 0.0226582
-0.060661793 -0.0802409 -0.03360551 0.05177149 0.0511735 0.052055955 -0.055938005 0.009251049

arith.constant15 f4 [16]
00000000: 00d4 0c3d 4e5d 5cbd db19 5a3d 0b33 863d
00000010: 3725 9c3d 2017 21bd 6e90 823d 3bcb 503d
00000020: 0602 e1bc 769c 1a3c a8b8 1b3d 3e76 a53d
00000030: 0b28 243d 3bae a9bd aafa a6bd a3ed 743d
0.034381866 -0.05379992 0.053247314 0.065527044 0.07624286 -0.039328694 0.06375204 0.050975066
-0.027466785 0.009436717 0.0380179 0.080791935 0.04007725 -0.08285185 -0.08153279 0.05979694

arith.constant16 f4 [16]
00000000: 967c a53b 0adf 86bd fc21 803d 0ee1 a0bd
00000010: be4b 323d cb08 43bd ce7d 73bd 903a a83c
00000020: 701f 083d 5626 e13b 40dd 543c db44 453d
00000030: 30a9 813c 888e 30bd a828 1ebd c301 203d
0.005050252 -0.0658551 0.06256482 -0.07855426 0.043529265 -0.047615808 -0.05944615 0.020535737
0.033233106 0.006871025 0.012992203 0.04816137 0.015827745 -0.04310468 -0.03861299 0.03906418

arith.constant17 f4 [16]
00000000: 4600 b0bb c1da 0e3e 9d72 fe3d ee9e 13be
00000010: a98c 343e 4236 6d3e c965 6fbe 747f 5c3e
00000020: 4aa1 50be d6f2 afbc 9cc2 0a3e 32c8 97bd
00000030: fcac febc bb7a 75be 6bf8 07bd 1765 3bbe
-0.0053711263 0.13950635 0.124242045 -0.14416096 0.17631783 0.23165229 -0.23378672 0.21532995
-0.20374027 -0.021478098 0.135508 -0.07411231 -0.031088345 -0.23972599 -0.033195894 -0.18300281

arith.constant18 f4 [16]
00000000: 65a5 ca3e 3392 94be 48d0 f9be e695 1cbe
00000010: 0dec a0be 1eac 86be 4140 16bd 2269 de3d
00000020: 04a8 d53c 526a a43e 9d7d d7be 17f6 84bd
00000030: 599c 64be 400e 06bd 50b5 ecbe 0407 29be
0.3957931 -0.2901779 -0.48791718 -0.15291557 -0.31430092 -0.2630319 -0.03668237 0.10859896
0.026081093 0.32112366 -0.42088023 -0.064922504 -0.22325267 -0.032728434 -0.4623208 -0.16506582

arith.constant19 f4 [16]
00000000: ab40 eabd a620 983d 1a26 553e 98b4 92bd
00000010: 16c4 bbbd d512 823c 3c4e 79be 12d9 043e
00000020: a296 d53d f699 eebd 3a35 23be acc2 37bd
00000030: 5a4a 75be 0d09 4dbe 9e7e 2f3e fcf3 4fbc
-0.11438116 0.07428102 0.20815316 -0.07163352 -0.0916826 0.01587812 -0.2434625 0.12973431
0.104291216 -0.116504595 -0.15938273 -0.044863388 -0.23954144 -0.20022984 0.17138144 -0.012692448

arith.constant20 f4 [16]
00000000: c651 123e 1770 77be 6549 e4bd a6ae 603e
00000010: 24b3 85bd de98 c93c 9c7e 7f3d 04d0 1e3d
00000020: e68a 7fbe 4aee 2fbe 9423 253e d322 34be
00000030: e157 6fbe c2b2 bcbc 2964 20be 6cca 853d
0.14289007 -0.24163853 -0.111468114 0.21941623 -0.06528309 0.024609026 0.062376603 0.038772598
-0.2495533 -0.17180744 0.16126853 -0.1759141 -0.23373367 -0.023034457 -0.15663208 0.065327495

arith.constant21 f4 [16]
00000000: 53bb c8be a633 11bf 5865 1a3d 550d 01be
00000010: df91 443e 1b4a c3be 2339 86be 1234 08bf
00000020: 9df3 f4bd 09f3 71be edaf e43e 5dfb c03e
00000030: 7c62 483e b382 1fbd 621b 633e 2a66 8bbe
-0.39205417 -0.56719434 0.037694305 -0.12602742 0.1919627 -0.38142475 -0.26215467 -0.53204453
-0.11960528 -0.23627867 0.4466547 0.37691775 0.19568819 -0.038943004 0.22178414 -0.27226382

arith.constant22 f4 [16]
00000000: 55b1 39be e3c4 e9bc 1cb3 35be 64c1 723e
00000010: 760c 2a3e bc9a 4f3b 7434 673c c999 26bd
00000020: a255 243e bcd8 663d 05f3 d6bd 4621 12be
00000030: 2813 c43d 7add 053e 3ede 73be d81e 2bbd
-0.18134053 -0.028536266 -0.17744106 0.23706585 0.16606316 0.0031677922 0.014111627 -0.040674005
0.16048291 0.056359038 -0.10495571 -0.14270505 0.09573966 0.13072768 -0.23815247 -0.04177746

arith.constant23 f4 [16]
00000000: f3b2 88bd 16c3 80bc 48a5 c3bd e6cd bb3d
00000010: e8f6 42bd 940f 05bd c17e f03c 3201 81bd
00000020: 123d a4bd 88d3 dbbd d46a e6bd c5a6 1c3d
00000030: ada5 7c3c 013d 6a3e ac89 9dbc f214 d63d
-0.06674757 -0.015718024 -0.09553009 0.091701314 -0.04759875 -0.03248556 0.029357316 -0.06299056
-0.08019461 -0.10733706 -0.112508446 0.03824498 0.01542036 0.22874834 -0.019230686 0.10453214

arith.constant24 f4 [16]
00000000: f650 0f3f 6dce 77be 2a69 033e d849 06bf
00000010: 9b8d c9be 9efe 073f 3eb4 df3c 5562 aa3e
00000020: a59a a43e 5a38 c2be d170 f13e 7f16 8ebe
00000030: ca64 51be 0150 a3be cd86 f4be fb88 77be
0.5598291 -0.24199839 0.12833086 -0.52456427 -0.3936585 0.5312289 0.027307626 0.33278146
0.32149234 -0.37933618 0.47156385 -0.27751538 -0.20448604 -0.31896976 -0.47759095 -0.24173348

arith.constant25 f4 [16]
00000000: 70b9 553e 8457 7a3e c452 423e 779f ad3d
00000010: 543e 07bd fb8e 7cbe 78d3 5bbe 6fd4 463e
00000020: 0f8e f63c f262 063e 26c5 17be 110b 7d3e
00000030: dd17 f23d 0b05 c6bd 4c5e aa3d 573a 14be
0.2087152 0.24447447 0.18976885 0.08477681 -0.033018425 -0.24663918 -0.21467388 0.19416974
0.030097036 0.13123682 -0.148213 0.24711253 0.11820958 -0.096689306 0.08318767 -0.1447538

arith.constant26 f4 [16]
00000000: 1e9f f83d ce02 433e f13b 78be 9bba 64be
00000010: 78d1 563e 7675 d53d 7473 353e 9708 c63d
00000020: 5253 8c3b 1978 a8bd f7eb a23d d393 88bc
00000030: 9f94 0f3e 913d 3fbe 06fc 16bd e8ad 36be
0.12139724 0.19044039 -0.24241616 -0.2233681 0.20978343 0.104227945 0.17719823 0.09669607
0.0042823935 -0.08226032 0.07955163 -0.01667205 0.14021538 -0.1867583 -0.036861442 -0.17839777

arith.constant27 f4 [16]
00000000: 30cc f7be 2cb3 243e 4cff df3b fb69 00be
00000010: 45b7 3f3e 374c e8be b997 343e 282c c1be
00000020: 0513 5bbe 7afa afbe 522b d73e d577 073e
00000030: 81d4 943e 0f40 eabd df50 943e 8650 3ebe
-0.4839797 0.16083974 0.0068358537 -0.12540428 0.18722256 -0.45370647 0.17636003 -0.37729
-0.21393974 -0.34370786 0.42025238 0.13229306 0.29068378 -0.114379995 0.2896795 -0.18585405

arith.constant28 f4 [16]
00000000: 90ba 0bbe 35a2 16be 8562 473e fa97 50be
00000010: 5ed4 353e 6e1f c8bd c28d 7f3e 21de 4cbe
00000020: 5a31 25bd 6419 5abe 1eb0 193d e783 adbc
00000030: 03d2 ebbd 05aa 10be 4531 353e d980 8fbd
-0.13645387 -0.14710315 0.19471176 -0.20370474 0.17756793 -0.0977162 0.2495642 -0.2000661
-0.04033027 -0.21298748 0.037521474 -0.02118106 -0.11514666 -0.14127357 0.17694576 -0.070069976

arith.constant29 f4 [16]
00000000: 6a65 003e a4c6 853c c848 133d 9185 533e
00000010: 2ab4 23be 5e66 253e 9327 1cbe aff9 6b3e
00000020: 1054 443e 6e79 5a3e 2e28 bc3d bff3 453a
00000030: d35b b9bd 99a0 573d e933 8ebd fb34 03be
0.12538686 0.01633007 0.03595808 0.2065642 -0.15986696 0.16152331 -0.15249471 0.23044465
0.19172692 0.21335384 0.09187351 0.00075512746 -0.09050717 0.052643392 -0.06943495 -0.12813179

arith.constant30 f4 [16]
00000000: 9e6f 133f e026 d83e 5a31 f0be 0517 433e
00000010: 04e9 5e3e e081 91bb 0f93 c7bc 1534 0a3f
00000020: dbe8 b63d 2c4d 533e deed a13e 1504 953c
00000030: e87f c63e b00a 343e 7276 bcbe ac81 f7be
0.5759219 0.4221716 -0.46912652 0.1905175 0.21768576 -0.004440531 -0.024362115 0.5398572
0.089311324 0.20634907 0.3162679 0.018190423 0.3876946 0.17582202 -0.36809117 -0.4834112

arith.constant31 f4 [16]
00000000: 4cf5 4f3d ee6e 19bc 5fd8 583e ab7f 26be
00000010: 361c 07be 5385 52bd 013d 7dbe c321 f73d
00000020: b112 2fbe 180c 93bd 5f74 393e 449c 36bb
00000030: f111 723c f3d6 6bbd 1c4b 063e 809b 5a3d
0.050771043 -0.009364827 0.21176289 -0.16259639 -0.13194355 -0.05139668 -0.24730302 0.120669864
-0.17096974 -0.07180041 0.18110798 -0.0027864138 0.014774785 -0.05757804 0.1311459 0.053370953

arith.constant32 f4 [16]
00000000: 33bd e9bb 9975 0fbe e057 b63d 3b84 c53d
00000010: d88c 5bbd 2429 373e 3ca2 743e c156 8f3c
00000020: 0005 2abe d6ca 60be 9e59 293e c080 30be
00000030: cf16 023e 10b2 c33c 1503 1c3d a65a 7a3d
-0.00713315 -0.14009704 0.089034796 0.096443616 -0.053601116 0.17886788 0.23890013 0.017497422
-0.1660347 -0.21952376 0.16538092 -0.17236614 0.12704013 0.023888618 0.038088877 0.061121605

arith.constant33 f4 [16]
00000000: 69a0 62bd dae5 643e 1475 b83e f508 c03e
00000010: 3586 8fbe 3461 97be e113 043f 802d f03e
00000020: b325 0c3e 8551 d13d 75f4 0ebf d98d 223e
00000030: 6de0 833d cbe2 17be 89aa 7cbd 9993 c1bc
-0.05532876 0.22353306 0.36026824 0.37506834 -0.2803208 -0.29566348 0.5159283 0.46909714
0.13686256 0.10220627 -0.5584176 0.15874423 0.0643929 -0.14832608 -0.061686072 -0.02362995

arith.constant34 f4 [16]
00000000: ff9c 5fbe 57bf ad3c 211b e4bd 163f 42be
00000010: 1187 ef3c 38a9 36be 5562 cb3d 45ea e53d
00000020: e5a0 64bd 9152 703e 059c 013d b429 e7ba
00000030: e833 ce3d 3771 41be e612 05be b994 09be
-0.21837233 0.021209402 -0.11137987 -0.18969378 0.02923921 -0.1783799 0.09930865 0.11226324
-0.055817503 0.23468997 0.031642932 -0.001763633 0.10068494 -0.18890844 -0.1299549 -0.1343564

arith.constant35 f4 [16]
00000000: 2baf d2bd 5c2e 853d 465d 3ebe eabc d5bc
00000010: 03ca 95bd d0fd 91bd cd3b 4b3d 3def bf3d
00000020: abd7 39bd 976c 1cbe 8dda fc3c 12eb 0c3c
00000030: 2ebf 733e 25d1 a6bd 24ab 7ebe 783c a9bd
-0.10287317 0.06502983 -0.18590268 -0.026091058 -0.07313921 -0.07128489 0.049617577 0.09371803
-0.045371693 -0.15275799 0.030865932 0.008600967 0.23803398 -0.0814536 -0.24869972 -0.082634866

arith.constant36 f4 [16]
00000000: a978 e3be a2fb 3bbd c60d 963d 3119 b3be
00000010: 77bb d3be 747b aebe 6648 a33e 4270 ff3e
00000020: 07dc 9c3d 1985 a93e d5cc 08bf 567c 33bd
00000030: ca71 62bd 95e8 01bf 79f3 06bf 1555 033f
-0.44427994 -0.045894273 0.07326846 -0.34980157 -0.41353962 -0.34078562 0.31891173 0.49890333
0.076591544 0.33109358 -0.5343755 -0.043819748 -0.0552843 -0.50745517 -0.5271526 0.513017

arith.constant37 f4 [16]
00000000: a823 ab3c d406 19be 37f8 38be 6e62 8d3d
00000010: de92 4a3c 2c2e 2abe 5d06 4bbe f124 5e3e
00000020: 6810 19be 2c47 32be a6d7 43be 20e1 3d3e
00000030: d5b9 51be a420 b83d 53d6 7d3e 3cc7 7e3d
0.020891026 -0.14944011 -0.18063436 0.069035396 0.012364117 -0.16619176 -0.19826646 0.2169378
-0.14947665 -0.17409962 -0.19125232 0.1854291 -0.20481046 0.08990601 0.2478879 0.062201723

arith.constant38 f4 [16]
00000000: f421 da3d e882 48be 2d03 2fbe ae13 803d
00000010: dad5 55bd d1ed 8ebd adba fb3c 44e9 063e
00000020: 2bfb 15be ab06 023e 3a7f d63b 28f4 d9bc
00000030: d7f8 713e 6b4e d33d 989c 92bd c3de 523e
0.10651007 -0.19581187 -0.17091055 0.062537536 -0.052205898 -0.06978954 0.030728662 0.13174921
-0.14646594 0.12697856 0.0065459283 -0.02660568 0.23630081 0.103176914 -0.07158774 0.2059279

arith.constant39 f4 [16]
00000000: 3798 9fbe 3311 b63e 6f2c 0fbf 5fbe 4a3e
00000010: 839d e6be 98ad bdbe 5897 02bf 47a7 d23c
00000020: b2b7 a03e c766 df3e e629 583e b4f3 51be
00000030: 66fb a1be 0e11 b33d 9873 623d 8e1c fa3e
-0.31170818 0.35559997 -0.55927175 0.19799183 -0.45042047 -0.37046504 -0.5101218 0.02571453
0.31390148 0.436331 0.21109733 -0.20503122 -0.31637114 0.08743487 0.05528602 0.4884991

arith.constant40 f4 [16]
00000000: e622 67be fad3 6ebe 3340 c7bd ef6a 643e
00000010: b016 00be 0a10 623e 62a7 ed3c be28 543e
00000020: dd18 4b3d 2739 f83d 2dbb 40be 5e18 bc3d
00000030: 825f 1fbe 605b 61be d791 753d 170d f73d
-0.22571906 -0.2332305 -0.09729042 0.22306417 -0.12508655 0.22076431 0.029010478 0.20718667
0.04958426 0.12120276 -0.18821402 0.09184335 -0.15563777 -0.22007513 0.059953537 0.120630436

arith.constant41 f4 [8]
00000000: b677 60bd a029 01be d01d 2cbe d3b2 0e3e
00000010: 4c2e 373e 26f0 163e 83d9 523e bcb6 4e3d
-0.054801665 -0.12613535 -0.16808248 0.13935404 0.17888755 0.14740047 0.20590787 0.050467238

arith.constant42 f4 [16]
00000000: bd65 a83e 4f0d 8f3e 85c8 34be a6c5 e2bd
00000010: 354d 7cbe 8a31 a03e 6aeb 24be 517a a13d
00000020: 5837 9fbe 2bd7 d1bd 701c 64be e9b7 97bd
00000030: bc83 353e 3a6e 94bd 0ded dd3b d566 96bd
0.3289012 0.2793984 -0.17654617 -0.11072855 -0.24638827 0.31287795 -0.16105428 0.07884658
-0.3109691 -0.10246118 -0.22276473 -0.07408125 0.17726034 -0.072475865 0.0067726434 -0.073438324

arith.constant43 f4 [16]
00000000: fd9f a5bd 43b4 eebd 26de 903b 7e97 633e
00000010: 0faa 903e 8a31 373e 4032 70be c37b 8bbe
00000020: 9683 09be 2ed8 9bbb 8817 863e 5376 b0be
00000030: 1f20 d33d 139e dd3c 4e94 7c3d ff36 01bb
-0.08087156 -0.11655476 0.0044210134 0.22225758 0.28254744 0.17889991 -0.23456669 -0.2724286
-0.13429102 -0.0047559952 0.26189828 -0.34465274 0.10308861 0.027052915 0.061664872 -0.0019716618

arith.constant44 f4 [8]
00000000: b34b 583e 7819 863d cef4 98ba 2bf5 6b3e
00000010: 2e38 c83c 9e10 2cbe 5353 b93c 1b0b 95bd
0.21122627 0.065478265 -0.0011669637 0.23042743 0.024440851 -0.16803214 0.02262274 -0.07277509

arith.constant45 f4 [16]
00000000: 45b3 88be 7c26 a83e 23d4 2abe c0fd 0bbe
00000010: 3bc6 64be 3afb 45be af70 573e abba c2bc
00000020: 4ca8 a6be bb5e e5bd 1e3e 113e d574 643e
00000030: bf79 94bd ab07 8ebe 243d 00be afcb 9abe
-0.26699272 0.3284186 -0.16682486 -0.13671017 -0.22341244 -0.19334117 0.21039079 -0.02377065
-0.32550275 -0.11199709 0.14183852 0.22310193 -0.07249784 -0.27740225 -0.12523323 -0.30233523

arith.constant46 f4 [16]
00000000: 33bf b0be 63ef 213d 2d29 dabd fddf a03e
00000010: 9c49 f33d 3282 043e 04dd 8a3e 689a 85bd
00000020: 27aa 5b3d ff39 67be c760 603d d4d4 153e
00000030: 4d89 24bd 8292 4fbe 9e13 783e 828d 06be
-0.34520873 0.039534938 -0.10652385 0.3142089 0.11879274 0.1294029 0.27121747 -0.06523591
0.053629067 -0.22580718 0.054779794 0.14631969 -0.040170003 -0.20270732 0.24226233 -0.13139918

arith.constant48 f4 [8]
00000000: 24fa f3bd a37b a2bd 17da 5e3c e56d 39be
00000010: 86c6 623e 6376 163e 99bd 903d 9fd7 5dbe
-0.11912945 -0.07933738 0.013601801 -0.18108328 0.22146043 0.14693598 0.07067413 -0.21664284

arith.constant49 f4 [16]
00000000: dafb 1c3e e88a 4d3c 5a10 b63c 642f 593d
00000010: 6cd0 c0bd fbb9 02be c3da 643e fb9e 33be
00000020: 1d09 163e 2aed 1e3e 0b9c 86be d252 9f3e
00000030: 8950 a5be 8f15 783d f08f b3bc 2dee 1bbd
0.15330449 0.012545325 0.022224594 0.05302371 -0.09414753 -0.12766258 0.22349076 -0.17541115
0.14651914 0.15520158 -0.26290926 0.31117874 -0.32288006 0.060567435 -0.02191922 -0.03806894

arith.constant50 f4 [16]
00000000: 8dd1 45be dc61 963e 9fdd 553e de42 b63d
00000010: 1cef 303e 3abf 9c3c fe50 a6be 1fdd 04bd
00000020: f557 80be c11f 5c3e 2778 02bd 4163 aabc
00000030: 22a6 ad3e 4c55 b3be 1f68 aa3e ba4c 9fbe
-0.19318219 0.29371536 0.20885323 0.08899473 0.17278713 0.019134153 -0.32483667 -0.03243744
-0.25067106 0.21496488 -0.031852867 -0.020799281 0.33915812 -0.35026014 0.33282563 -0.31113225

arith.constant51 f4 [16]
00000000: 1a46 813d 254b 89bd 488f 3a3d e775 9fbb
00000010: 95f2 863d 3899 bfbc 85f3 a23d bff4 a9ba
00000020: 6e24 a1bd d007 bdbd 241f d7bd 9a7e 95bd
00000030: 8910 c43d 2cce 70bd fa32 cdbd bd33 203b
0.06312199 -0.06703786 0.0455468 -0.00486635 0.065892376 -0.02338849 0.07956604 -0.0012966617
-0.078682765 -0.09230006 -0.105039865 -0.07299538 0.09573466 -0.05879037 -0.10019489 0.00244449

arith.constant52 f4 [16]
00000000: 4d2a e5bd a95f 7cbe 8338 26be f2d1 bc3c
00000010: c205 15bd 9b03 07be fa0d 6abe bd0c 8cbd
00000020: 1bce 763e d75e fe3d c918 5fbe b553 34be
00000030: e375 46be ec68 153e 26cb e13c 45c6 573e
-0.11189709 -0.24645866 -0.16232495 0.023049328 -0.036382444 -0.13184969 -0.22856894 -0.06838367
0.2410206 0.12420433 -0.21786799 -0.17610057 -0.19380908 0.14590806 0.027562689 0.21071728

arith.constant53 f4 [192, 64]
00000000: 0000 803f ccbc 8c2b 0000 0000 0000 0000
00000010: 0000 0000 0000 0000 0000 0000 0000 0000
00000020: 0000 0000 0000 0000 0000 0000 0000 0000
00000030: 0000 0000 0000 0000 0000 0000 0000 0000
00000040: 0000 0000 0000 0000 0000 0000 0000 0000
00000050: 0000 0000 0000 0000 0000 0000 0000 0000
00000060: 0000 0000 0000 0000 0000 0000 0000 0000
00000070: 0000 0000 0000 0000 0000 0000 0000 0000
00000080: 0000 0000 0000 0000 0000 0000 0000 0000
00000090: 0000 0000 0000 0000 0000 0000 0000 0000
000000a0: 0000 0000 0000 0000 0000 0000 0000 0000
000000b0: 0000 0000 0000 0000 0000 0000 0000 0000
000000c0: 0000 0000 0000 0000 0000 0000 0000 0000
000000d0: 0000 0000 0000 0000 0000 0000 0000 0000
000000e0: 0000 0000 0000 0000 0000 0000 0000 0000
000000f0: 0000 0000 0000 0000 0000 0000 0000 0000
00000100: 0000 0000 0000 803f ccbc 0c2b 0000 0000
00000110: 0000 0000 0000 0000 0000 0000 0000 0000
00000120: 0000 0000 0000 0000 0000 0000 0000 0000
00000130: 0000 0000 0000 0000 0000 0000 0000 0000
00000140: 0000 0000 0000 0000 0000 0000 0000 0000
00000150: 0000 0000 0000 0000 0000 0000 0000 0000
00000160: 0000 0000 0000 0000 0000 0000 0000 0000
00000170: 0000 0000 0000 0000 0000 0000 0000 0000
00000180: 0000 0000 0000 0000 0000 0000 0000 0000
00000190: 0000 0000 0000 0000 0000 0000 0000 0000
000001a0: 0000 0000 0000 0000 0000 0000 0000 0000
000001b0: 0000 0000 0000 0000 0000 0000 0000 0000
000001c0: 0000 0000 0000 0000 0000 0000 0000 0000
000001d0: 0000 0000 0000 0000 0000 0000 0000 0000
000001e0: 0000 0000 0000 0000 0000 0000 0000 0000
000001f0: 0000 0000 0000 0000 0000 0000 0000 0000
00000200: 0000 0000 0000 003f 0000 003f 0000 0000
00000210: 0000 0000 0000 0000 0000 0000 0000 0000
00000220: 0000 0000 0000 0000 0000 0000 0000 0000
00000230: 0000 0000 0000 0000 0000 0000 0000 0000
00000240: 0000 0000 0000 0000 0000 0000 0000 0000
00000250: 0000 0000 0000 0000 0000 0000 0000 0000
00000260: 0000 0000 0000 0000 0000 0000 0000 0000
00000270: 0000 0000 0000 0000 0000 0000 0000 0000
00000280: 0000 0000 0000 0000 0000 0000 0000 0000
00000290: 0000 0000 0000 0000 0000 0000 0000 0000
000002a0: 0000 0000 0000 0000 0000 0000 0000 0000
000002b0: 0000 0000 0000 0000 0000 0000 0000 0000
000002c0: 0000 0000 0000 0000 0000 0000 0000 0000
000002d0: 0000 0000 0000 0000 0000 0000 0000 0000
000002e0: 0000 0000 0000 0000 0000 0000 0000 0000
000002f0: 0000 0000 0000 0000 0000 0000 0000 0000
00000300: 0000 0000 0000 0000 0000 803f ccbc 0c2b
00000310: 0000 0000 0000 0000 0000 0000 0000 0000
00000320: 0000 0000 0000 0000 0000 0000 0000 0000
00000330: 0000 0000 0000 0000 0000 0000 0000 0000
00000340: 0000 0000 0000 0000 0000 0000 0000 0000
00000350: 0000 0000 0000 0000 0000 0000 0000 0000
00000360: 0000 0000 0000 0000 0000 0000 0000 0000
00000370: 0000 0000 0000 0000 0000 0000 0000 0000
00000380: 0000 0000 0000 0000 0000 0000 0000 0000
00000390: 0000 0000 0000 0000 0000 0000 0000 0000
000003a0: 0000 0000 0000 0000 0000 0000 0000 0000
000003b0: 0000 0000 0000 0000 0000 0000 0000 0000
000003c0: 0000 0000 0000 0000 0000 0000 0000 0000
000003d0: 0000 0000 0000 0000 0000 0000 0000 0000
000003e0: 0000 0000 0000 0000 0000 0000 0000 0000
000003f0: 0000 0000 0000 0000 0000 0000 0000 0000
1.0 1e-12 0.0 0.0 0.0 0.0 0.0 0.0
0.0 0.0 0.0 0.0 0.0 0.0 0.0 0.0
0.0 0.0 0.0 0.0 0.0 0.0 0.0 0.0
0.0 0.0 0.0 0.0 0.0 0.0 0.0 0.0
0.0 0.0 0.0 0.0 0.0 0.0 0.0 0.0
0.0 0.0 0.0 0.0 0.0 0.0 0.0 0.0
0.0 0.0 0.0 0.0 0.0 0.0 0.0 0.0
0.0 0.0 0.0 0.0 0.0 0.0 0.0 0.0
0.0 1.0 5e-13 0.0 0.0 0.0 0.0 0.0
0.0 0.0 0.0 0.0 0.0 0.0 0.0 0.0
0.0 0.0 0.0 0.0 0.0 0.0 0.0 0.0
0.0 0.0 0.0 0.0 0.0 0.0 0.0 0.0
0.0 0.0 0.0 0.0 0.0 0.0 0.0 0.0
0.0 0.0 0.0 0.0 0.0 0.0 0.0 0.0
0.0 0.0 0.0 0.0 0.0 0.0 0.0 0.0
0.0 0.0 0.0 0.0 0.0 0.0 0.0 0.0
0.0 0.5 0.5 0.0 0.0 0.0 0.0 0.0
0.0 0.0 0.0 0.0 0.0 0.0 0.0 0.0
0.0 0.0 0.0 0.0 0.0 0.0 0.0 0.0
0.0 0.0 0.0 0.0 0.0 0.0 0.0 0.0
0.0 0.0 0.0 0.0 0.0 0.0 0.0 0.0
0.0 0.0 0.0 0.0 0.0 0.0 0.0 0.0
0.0 0.0 0.0 0.0 0.0 0.0 0.0 0.0
0.0 0.0 0.0 0.0 0.0 0.0 0.0 0.0
0.0 0.0 1.0 5e-13 0.0 0.0 0.0 0.0
0.0 0.0 0.0 0.0 0.0 0.0 0.0 0.0
0.0 0.0 0.0 0.0 0.0 0.0 0.0 0.0
0.0 0.0 0.0 0.0 0.0 0.0 0.0 0.0
0.0 0.0 0.0 0.0 0.0 0.0 0.0 0.0
0.0 0.0 0.0 0.0 0.0 0.0 0.0 0.0
0.0 0.0 0.0 0.0 0.0 0.0 0.0 0.0
0.0 0.0 0.0 0.0 0.0 0.0 0.0 0.0

arith.constant54 f4 [2, 1, 5, 16]
00000000: c279 73be 7e26 e0bd 9ac2 83be 03f1 3fbd
00000010: 08c1 c0bd a66b 653e dad6 b0bb ff3e 923c
00000020: 64d0 083e 502c 95be 14b7 a1bd 20df 153e
00000030: 7fe4 5b3c 7b21 603e 35a9 713e 6ec7 e6bd
00000040: daef 333e 08b5 09be 69ba 91be 8699 8f3e
00000050: e86b 83be 3157 26be 38b4 0c3e 4d2a 953e
00000060: 7d2f 9b3e d565 a23c cfa3 4d3e 8a94 c3bd
00000070: 5b87 2e3e 9bd3 703c b55b 843d d440 9b3d
00000080: 9837 593e 5411 3f3e 65d9 873e 06bc f63d
00000090: 3ed4 42be db1c 913d 39fd 433e d7ab 703e
000000a0: 862b 923e 706e da3d 76ab ccbc e10b 263e
000000b0: 14fa 9bbe 3825 bb3c b519 c03d a543 ed3d
000000c0: 45d6 18be 50ba 93bd 6354 6d3e 4e0b a13d
000000d0: 5dab fc3d 7961 9abd ad40 e6bd 6170 81be
000000e0: ee4e 6bbe dd37 6e3e 8a6c 7fbe 85ef 71be
000000f0: 29c5 23bc d359 2dbd 5291 903c 1c48 9d3e
00000100: f685 02be 5d62 2a3d 22cc 92be 340e 603e
00000110: 578d 95bd ad21 8b3e d7ac 99be 866d 68be
00000120: 932e 24be e881 443e 8045 e63d d315 c53b
00000130: 3f4f 7d3c 5b9a c4bd 36dd 563d 8f51 813e
00000140: 51bf 84bd dfb2 553e d713 8e3e ebbc 3bbe
00000150: cf1c fa3d e2af 86be ed69 8fbd dfd8 d43d
00000160: 7a16 6f3e 085b 1abd e103 a8bc 5d51 edbc
00000170: e283 79be 5821 8d3e bc0d 443e 1a0d 873e
00000180: ac79 48be 5cc7 86be 6060 cfbd e9eb 30be
00000190: ab4e 273e e5b2 8cbd 9bfc 24be 9025 5ebe
000001a0: 7e4e 4c3c 73f2 f53c 8e3b 35be c51a 8bbe
000001b0: 2696 19be 96dc 0dbe 2131 e4bd c9cd db3d
000001c0: 85f1 cbbc 70bf 31bd b58a 1ebe ba8e 4c3e
000001d0: d773 6dbe bc78 1bbe 96a4 d93d 4e50 583e
000001e0: 27e9 d0bc 2de1 50be f253 123d 7ff9 263d
000001f0: 49f3 92bd 95c0 a7bd a26b 99be 5741 943c
00000200: 563e 5e3e c739 37be 9b35 a1be 32f2 65bd
00000210: 3cdc 993e 3d66 76be 7ec6 58be 64fd 523e
00000220: 5bca 3c3b 3630 9bbe d22b 903e 7663 47be
00000230: 140a 4c3e 67c2 4b3d da9c f5bd c411 593e
00000240: 91c0 9ebe 2995 80be eea8 98be ac15 2cbe
00000250: bba8 08be ce9e 4cbe fa8d 96bd 08eb e7bd
00000260: 8d2a 59be 0ddb 963e c900 423e 5faa 8ebe
00000270: 3f84 9a3e 0fce 713e 7fbb 9f3e 2113 853e
-0.23776916 -0.10944842 -0.25734407 -0.046860706 -0.09411818 0.22404346 -0.005396706 0.017852305
0.13360745 -0.2913537 -0.078962475 0.14635897 0.013421177 0.21887772 0.23599704 -0.11268507
0.17571965 -0.13447964 -0.28462532 0.28046817 -0.25668263 -0.16244198 0.13740623 0.29133835
0.30309668 0.019823948 0.2008202 -0.09549816 0.17043822 0.014698888 0.06462804 0.07580724
0.21212614 0.18658954 0.26533046 0.120475814 -0.19026276 0.07085582 0.19139566 0.23503052
0.2854883 0.106655955 -0.024984103 0.16215469 -0.30464232 0.022844896 0.09379903 0.11585168
-0.14925487 -0.07213271 0.23176722 0.07863484 0.123373725 -0.07538123 -0.11242805 -0.2528105
-0.22979328 0.23263498 -0.24943748 -0.23626526 -0.009995737 -0.04232199 0.01764742 0.30719078
-0.12746415 0.041597713 -0.28671366 0.21880418 -0.07302349 0.2717413 -0.3001468 -0.2269803
-0.16033392 0.1919018 0.11243725 0.0060145645 0.015460788 -0.095997535 0.052457057 0.25257537
-0.06481803 0.20869015 0.27749512 -0.18333785 0.12212526 -0.26306063 -0.070026256 0.103929274
0.23348418 -0.03768447 -0.020509662 -0.028969461 -0.24366716 0.27564502 0.19145864 0.26377183
-0.19577664 -0.26323974 -0.10125804 -0.17277493 0.16338603 -0.06870059 -0.16111986 -0.21694016
0.012469886 0.030022835 -0.176985 -0.2716886 -0.14998683 -0.13853678 -0.11142183 0.1073261
-0.024895439 -0.04339546 -0.154826 0.19976321 -0.2318872 -0.15182775 0.106270954 0.21124384
-0.0255018 -0.20398398 0.035724588 0.04076528 -0.07175309 -0.08191029 -0.2996493 0.018097563
0.21703467 -0.17893134 -0.3148621 -0.05613918 0.30050838 -0.24062438 -0.21169469 0.20604473
0.0028807137 -0.3031022 0.28158432 -0.19471535 0.1992572 0.049745943 -0.11992808 0.21198183
-0.31006292 -0.251138 -0.29816383 -0.16805142 -0.13345616 -0.19982454 -0.07351299 -0.113241255
-0.21207638 0.29463997 0.18945612 -0.27864358 0.3017902 0.23613761 0.31197736 0.25991157

arith.constant55 f4 [16, 1, 5, 16]
00000000: 4694 b53a fbf5 5dbd a68c e43c fd10 96bd
00000010: 402e 80bd 87f6 8ebd e979 c03d 3f8b debd
00000020: f035 95bd 6eb3 d63d 6407 cc3c 1eda 293d
00000030: 14a3 c3bd 9e2b 023d 63eb 3ebd 7c56 c9bd
00000040: 8ed1 c23d 7e6e b8bc 26d4 7cbd dd76 c03d
00000050: 07e9 ccbd 954e 943d c4ab 953d d8c2 ab3d
00000060: 394f 963d 5ff9 253c 681c 073d 06d6 583d
00000070: 983c e33c 5ed4 553d ff93 453d a4bb e93c
00000080: 7829 e0bd 6392 4b3d 366d d6bd d806 0ebd
00000090: e7f1 313c c7bc a73c ed11 c4bd 7efa d53d
000000a0: fa10 3d3c b772 0bbc 4823 8d3a 8ef5 b73d
000000b0: 2138 9abd 56b2 3dbd 297d 9e3d 3d6c 45bd
000000c0: 1684 933c bed4 163d 12b6 093b 472d b63d
000000d0: 4e14 c23d 5bbb 0b3d 68f0 83bd ba46 babd
000000e0: 9f2c 36bd 7a10 d23d a5d0 bfbd 0fa9 913d
000000f0: 9f8d b5bd 7edc c8bd 8960 69bd b61f ddbd
00000100: 5a77 483d baf7 9b3d a870 403c 86ee e3bd
00000110: 3674 d4bd 457c 65bc e7ac 9f3d 606e e3bc
00000120: 6cdb bc3d 882b 8fbd e49a 7dba d6ef e0bd
00000130: 48f8 b53d f9c5 d0bd d034 283d 8154 cb3d
00000140: 9b85 1abb 7500 733d b13c 90bc 41d6 d53d
00000150: 40d6 683c 625e 34bd b4ff 523d 31a5 9dbd
00000160: 84ce de3c e667 3a3d 4949 94bd 8e8c efbc
00000170: 7f47 09bd 7c4c ba3d 7c27 b1bc 3444 a5bd
00000180: 252a 443d 389f 3d3d baa2 94bd 06e2 e1bd
00000190: e557 66bd d95b 86bd 5751 cc3d 3b8b 2b3d
000001a0: eb30 133d 2fdf 173c 8b21 92bd 9758 023d
000001b0: 95f7 c23c 72d8 a0bd 10cb a13d 2eb2 91bd
000001c0: 7b8a 733d 3d2c e1bc 0ef6 683c 57d4 1e3d
000001d0: 67d5 f33c 7e7f e33d 905e 813d 5fd8 b13d
000001e0: 770d 94bd 4b62 883d 620c d73c edb6 a63d
000001f0: 15f9 8f3d 265b 92bd b95a 34bc e204 953d
00000200: 0804 0cbd f30c 3c3d 457a bbbd bf71 56bd
00000210: dd3d c03d 250e e53c 1a04 b33c 1b1e ad3d
00000220: 5f63 0c3d 7683 b53d 142b 23bd 42d5 d3bc
00000230: c533 bd3d d0d1 28bd e1ad b9bd 6213 82bc
00000240: f9e9 2e3d 36e6 06bd aad3 c3bd d47a a6bd
00000250: 7dcf bc3c a9f5 ce3d 468f aabd 1059 be3c
00000260: 3001 813c 4f87 733c 212b b83d 5c4b d1bd
00000270: 3bbf b3bd 2a37 5f38 e71d e33c 204b 053d
00000280: 813b b13d 432d c13d 1ba9 38bc 3714 d9bb
00000290: 8c6b 1bbd 3f0a 56bd 2e76 abbd 3c4f dd3d
000002a0: 959c 283d aeab d13d 1ea6 333d 9aea cd3d
000002b0: f7dc 01bb 0194 76bd c4be 6dbd 6f2d 91bd
000002c0: 14ad 3a3d a914 d83d 8aba 623d 0d15 c23d
000002d0: f83d 31bd 41d0 233d 4ade 92bd d851 e43d
000002e0: 7a24 debd 9e39 ebbc 8d9a 5c3d 24cd ad3d
000002f0: 9fb8 0c3b 3296 9e3d dc9d a4bd 7793 54bc
00000300: 9d82 893c d607 973d 5415 0abb da04 a23c
00000310: 897b 71bd 04f3 813d c1b6 8fbd fe96 5ebd
00000320: 6ff1 72bc 830c 9a3d 44e0 c13d fc7e 8bbc
00000330: b484 713d b7b3 84bc 0d40 123c af2d cd3a
00000340: db06 db3c 297a 8dbd f0cb a23d db2e 97bd
00000350: 28cf 7b3a 16c1 a9bc 8634 d53d a466 ae3d
00000360: c833 0bbd c74b e3bd c1b2 b73d c614 a8bd
00000370: d28c 493c 950b aabd 9ca4 1d3c 2fef db3d
00000380: 0e68 d63d b6cf b53d a481 8c3c 0627 0cbd
00000390: 2411 95bd 101d c4bc 7550 6e3d 3979 cbbd
000003a0: fc81 303d bf0d 523d 72a2 d0bd 529f 7d3d
000003b0: 1d11 923d 4a15 043d a271 e1bd 744b e1bd
000003c0: e165 263d 1464 813c 3462 7b3c 7628 b03b
000003d0: 887c 2e3d 3afb 68bd b6cc 013d f31e bbbb
000003e0: bc0f 89bc ac36 c03d c17b 753d 3461 853c
000003f0: 5b9e 02bd b01a 43bd c544 bd3d f8b4 82bb
0.0013853393 -0.054189663 0.027899098 -0.07327459 -0.062588215 -0.06980615 0.093982525 -0.10866403
-0.072856784 0.10483442 0.024905868 0.04146778 -0.09552589 0.031779878 -0.0466112 -0.09830949
0.09512626 -0.022513624 -0.061725758 0.09397671 -0.10005384 0.07241551 0.07308152 0.08386773
0.07339329 0.0101302555 0.032986075 0.052938484 0.027738854 0.052204482 0.048236843 0.028531857
-0.109454095 0.049700152 -0.10470049 -0.034674495 0.010860897 0.020475758 -0.095737316 0.10448168
0.011539692 -0.008511237 0.0010767961 0.08982383 -0.07530237 -0.046312653 0.07738716 -0.048198927
0.01800732 0.03682398 0.0021013063 0.08895355 0.09476529 0.034114223 -0.06442338 -0.09095521
-0.044476148 0.10257049 -0.09365968 0.071123235 -0.08864903 -0.098076805 -0.05697683 -0.10797064
0.048941948 0.076156095 0.011745609 -0.11129479 -0.10373728 -0.014006679 0.077966504 -0.027762592
0.09221539 -0.06990725 -0.00096742646 -0.10983245 0.088852465 -0.1019401 0.04106599 0.09928227
-0.002357817 0.059326608 -0.017607065 0.10441256 0.014211237 -0.044035323 0.05151339 -0.076975234
0.027198084 0.04550924 -0.072405405 -0.029241826 -0.03351545 0.090966195 -0.021625273 -0.08069649
0.047891755 0.04629442 -0.072576 -0.11029439 -0.056236167 -0.06560487 0.09976452 0.041880827
0.035935324 0.00926952 -0.07135304 0.031822767 0.023799697 -0.07853784 0.07900059 -0.07114063
0.059458237 -0.027486915 0.01421882 0.03877672 0.029764844 0.111083016 0.063168645 0.08683848
-0.07229131 0.06659373 0.026251022 0.08140359 0.070299305 -0.071462914 -0.011007958 0.07276322
-0.034183532 0.045910787 -0.091541804 -0.05235457 0.093867995 0.027960846 0.021852542 0.08453008
0.034274455 0.08862965 -0.039836004 -0.025858525 0.0923839 -0.041215718 -0.09066368 -0.015878383
0.042703602 -0.03293439 -0.09561856 -0.08128896 0.023048157 0.1010545 -0.083281085 0.023235828
0.015747637 0.014863803 0.08992601 -0.10219452 -0.08776709 5.321872e-05 0.02772422 0.032542348
0.086539276 0.09432461 -0.011270787 -0.0066247243 -0.03794436 -0.052255865 -0.0837215 0.108061284
0.041164953 0.102378234 0.043859594 0.10054512 -0.0019815543 -0.06019974 -0.058043256 -0.07088744
0.045575216 0.105508156 0.05535368 0.09476671 -0.04327199 0.03999353 -0.071713045 0.11148423
-0.10846801 -0.028713997 0.05385833 0.08486393 0.0021472347 0.07743491 -0.08037922 -0.0129746115
0.016785914 0.073745415 -0.0021069841 0.019777704 -0.058955703 0.0634518 -0.070172794 -0.054343216
-0.01482807 0.07521918 0.094666034 -0.017028324 0.058964446 -0.016198976 0.008926404 0.0015653874
0.026736667 -0.06908066 0.07949054 -0.07381984 0.0009605759 -0.020721953 0.10410409 0.08515671
-0.03398493 -0.11098438 0.089696415 -0.08207087 0.012301641 -0.0830299 0.009621765 0.1073898
0.104690656 0.08877508 0.017151661 -0.034216903 -0.0727866 -0.02393964 0.0581822 -0.09935231
0.043092713 0.05128264 -0.10187234 0.061919518 0.0713217 0.032246865 -0.11008002 -0.1100072
0.040624503 0.015794791 0.015343238 0.005375917 0.04259923 -0.056880213 0.03168937 -0.0057104765
-0.016731136 0.09385428 0.059932474 0.016281702 -0.0318893 -0.047632873 0.09241632 -0.0039888583
