gtcrn_micro/models/tflite/gtcrn_micro_float32.tflite (tflite, 213788 bytes, 72 tensors)

arith.constant f4 [8]
00000000: d851 cebd b964 a13d 5951 9ebe 7318 b3be
00000010: 7ee1 c83b 0f15 80be 8953 703e d44f 99be
-0.10074204 0.078805394 -0.30921438 -0.3497959 0.0061303964 -0.25016066 0.23469366 -0.29943717

arith.constant1 f4 [8, 1, 1, 16]
00000000: 184c 59be cc0f 64be 75b8 e0bd 9cff 803e
00000010: 0f18 c53c 5dfd 33bd 6641 eabd b5d3 a3bc
00000020: 9ce8 2fbe 3658 2ebe cd4c 12be e388 8bbd
00000030: 2c5e fb3d 8dcb 9a3e 1447 a03d b888 853e
00000040: 4dd8 8dbe c95e 383d 728d 9fbe e6b3 26be
00000050: 00d1 5c3e 09ae c4bd acbd d63d 5ede e1bd
00000060: 20c7 0bbe 71a1 6f3b d5f0 a6bd a89b 993e
00000070: 17e0 6dbe 15cf 6fbe 3915 bc3d 14a0 963e
00000080: ddb8 313e bf58 debb ec85 3cbe 73fb 833e
00000090: e1ec 6cbd a70a 9b3e 6043 9b3d 1474 783e
000000a0: 2142 923e 283f 6cbd ce73 b73d a1bc a63e
000000b0: 491b acbe 5520 b23e 1184 f4bd 8ac2 913e
000000c0: b1cf 0f3e 72e7 5bbe 9f4b cd3c 995a 8a3d
000000d0: 51f9 c1bd e60c 0dbe e2dc 843e bd8d 85be
000000e0: 885d 80be 4c4b 4f3d 7561 87be 7342 30be
000000f0: 54fc 833e 8147 1abe b31a 82be 9c9e 18be
00000100: cb31 a73e 13ac afbd dc3e 6c3e 26e3 053d
00000110: 9b20 24bc 27e7 9cbd 764f 073e 8374 153d
00000120: 761a f83d 8f92 903e ecd4 6d3e 559a bfb9
00000130: ef7f 40be 01d5 803e 1824 4b3e 8ca7 c93d
00000140: 21db 05be a71c 42bd 1ad6 9b3e 576d 57be
00000150: f704 88be d12a 19bd 1cdb d23c 365f 263d
00000160: cff2 bc3d b178 0bbe 66b6 6bbe 2a7b 4bbe
00000170: 10da 7f3e abfb aa3e d922 b1be fd69 f53d
00000180: ecee a9be 0419 b4be d4d3 a1bd 22c3 7cbe
00000190: a2c0 25be 28c7 a33c 1d1a 963e b84a 5fbe
000001a0: 68d3 4f3e 5a00 a9be b3f0 81bc c968 e9bd
000001b0: 6a74 ac3e 0d03 9f3e c964 0e3e 182d 5e3e
000001c0: a18f ae3e b0a8 ad3e ee44 eb3d cdef 86bd
000001d0: ca04 a3bc d9db af3e f4e4 af3e a106 953e
000001e0: 0e64 473d c087 e43d 98bc 5c3e 689e a93e
000001f0: b32d b63a 75e7 febc ef06 77be 92a3 093e
-0.21220434 -0.22271651 -0.109726824 0.25195014 0.024059324 -0.043942798 -0.11438255 -0.01999841
-0.17178577 -0.17025837 -0.1428711 -0.068132184 0.12273821 0.30233422 0.07826057 0.2608087
-0.27704087 0.04501227 -0.31162602 -0.16279563 0.21564102 -0.09603507 0.10485396 -0.11028741
-0.13650179 0.0036564732 -0.08151404 0.3000157 -0.23230015 -0.2341884 0.091837354 0.29419005
0.17355676 -0.0067854817 -0.18410462 0.25777778 -0.057843093 0.30281565 0.0758121 0.2426303
0.28566077 -0.057677418 0.08957635 0.32565787 -0.33614567 0.34790292 -0.11939252 0.28468734
0.14044072 -0.21475008 0.025060473 0.067555614 -0.094713815 -0.13774452 0.2594977 -0.260847
-0.2507136 0.050608918 -0.2644154 -0.17212848 0.2577845 -0.15066339 -0.25410995 -0.14904255
0.32655177 -0.085777424 0.23070854 0.03268733 -0.010017539 -0.07661276 0.13213906 0.036488067
0.12114422 0.28236815 0.23225754 -0.00036545345 -0.18798803 0.2516251 0.19837987 0.0984641
-0.13071872 -0.047390606 0.30436784 -0.21037804 -0.26566288 -0.03739435 0.025739245 0.040618144
0.092259996 -0.13620259 -0.23018798 -0.19871202 0.24985528 0.33395132 -0.345969 0.11983106
-0.33190095 -0.35175335 -0.07901731 -0.24683812 -0.16186765 0.019992426 0.29316798 -0.21805847
0.20295489 -0.3300808 -0.015861845 -0.11396939 0.33682567 0.31057015 0.13905634 0.2169689
0.34093955 0.3391776 0.11487757 -0.06588707 -0.019899745 0.34347418 0.34354365 0.2910662
0.048679404 0.11158705 0.21556318 0.33128667 0.0013899117 -0.031116227 -0.24123739 0.13441303

arith.constant2 f4 [16]
00000000: 4c6b fd3c e8ee 283c 28a7 85bd 57b2 3ebe
00000010: d283 153e 8df4 6e3e 241a e43c 61c0 08be
00000020: 8d5e 3d3e 1049 c03c 3ef2 dfbd 910d 1fbe
00000030: 1455 3abe ace2 293e b70c c33d eec7 653e
0.030934952 0.010310866 -0.06526023 -0.18622719 0.14601067 0.23335476 0.027844496 -0.13354637
0.184931 0.023472339 -0.10934876 -0.15532519 -0.18196517 0.16590375 0.095239095 0.22439548

arith.constant3 f4 [16, 1, 1, 8]
00000000: f078 ef3b d42d 64bd 9c61 4d3c 1164 543d
00000010: 9f0c b73d e2e8 7bbe 5385 0c3e d0a6 cb3d
00000020: 98af 8fbd 59b1 f93d 03f3 433e 4986 3dbe
00000030: 272f 863d b2f3 e93c ba14 1d3e 76a6 5ebd
00000040: b49a 2ebe d0f3 bf3c 60c8 11be a9b6 44be
00000050: 3aed c63d 73a5 38be e6a8 1d3e 2986 543e
00000060: 0e1f 463d 797c b03d 2fb5 49be a0b9 403e
00000070: 5bfd 78be 9eea 1cbe e960 623e e27b 35be
00000080: b565 a43d 59ee d53d ae11 98bc 5119 e1bd
00000090: e7bd acbd 8f54 423d 0f76 7a3e 2d95 683e
000000a0: f63c 0bbe 5844 c13d 1b3e 673e 466f 6fbe
000000b0: 77f9 acbc a56e eebd e107 b33d 9186 1e3e
000000c0: 9d56 25be be46 483c deae f63d ef98 0c3e
000000d0: 05bb 62be ed04 3ebe a329 4abe ac06 fe3b
000000e0: ea5b 053e 03d6 f23d 02e1 09bd 1171 ec3c
000000f0: 5c76 e43d a606 df3d 927f e9bc ef49 62be
00000100: 448b 70be eb74 f5bd 4240 353e 9cca 103e
00000110: 1d6f 683e 6956 02be 7710 b73d 2d61 253e
00000120: cc64 473e 412d ca3d 5291 5d3e 4990 25bc
00000130: e980 8dbd 046d a9bd ebd9 c33d f95b 633e
00000140: 3baa 78be 02ff 7dbe 4c34 b53d b753 1fbe
00000150: e937 553d 1b6c 31be 7463 4bbd fe86 283e
00000160: 1cfa 053d 9315 073c fe6f f83c 96bb c6bd
00000170: 501f 0fbd 5fd7 5a3d bad6 52bd 9be1 5bbe
00000180: 56ca dd3d 8db7 553e 73d4 50bd ebf4 503d
00000190: bf6e 563e c66f 2f3c 6543 25be 9ce0 0fbe
000001a0: c0fe 343e 201a 70be 84fa d8bd 9850 603e
000001b0: fab4 633e 6ef2 2dbe b3e8 883c bd5f 303d
000001c0: 157a 1abe bbfd 4f3c 08c4 213e 410f b13d
000001d0: c749 f53d 7042 353e 4aa9 23bc b204 2e3e
000001e0: a423 763e 6308 203e f81c 54be 9dba a4bd
000001f0: 4518 673e d3db 373e 8785 60be 11be b03d
0.007308118 -0.055707768 0.012535479 0.051853243 0.08937954 -0.24600556 0.13722734 0.09943926
-0.07015914 0.121920295 0.1913567 -0.18508257 0.06551962 0.028558586 0.15339938 -0.05435797
-0.17051202 0.023431689 -0.14236593 -0.19210304 0.09713216 -0.18031864 0.15396461 0.20754303
0.04836946 0.08617491 -0.19698022 0.1882081 -0.24315397 -0.15323874 0.22107281 -0.17723039
0.080272116 0.10445852 -0.018563118 -0.10991157 -0.084346585 0.047443923 0.24459098 0.22713156
-0.13597474 0.09436864 0.22582285 -0.23382291 -0.021115048 -0.116421975 0.08741737 0.1548102
-0.16146322 0.0122238975 0.12045072 0.13730215 -0.22141655 -0.18556567 -0.19742446 0.00775226
0.13023344 0.11857226 -0.03366185 0.028862508 0.11155388 0.1088994 -0.028503213 -0.22098516
-0.23490626 -0.11985191 0.17700294 0.1413979 0.22698636 -0.12728275 0.08938687 0.16150351
0.19472045 0.09871913 0.21637467 -0.010105201 -0.06909353 -0.08272746 0.09563049 0.22203054
-0.24283688 -0.24804309 0.088478655 -0.15559278 0.052055273 -0.17326395 -0.049655393 0.16457745
0.032709226 0.00824489 0.03032684 -0.09703748 -0.03494197 0.05342805 -0.05147431 -0.2147278
0.10829608 0.208708 -0.050983857 0.051014822 0.20940684 0.010707801 -0.1613899 -0.14050525
0.17675304 -0.23447466 -0.10594657 0.21905744 0.22237006 -0.16987011 0.016712522 0.043060053
-0.15085633 0.012694771 0.15797436 0.086454876 0.119769625 0.17701125 -0.009989092 0.16993979
0.24037033 0.156282 -0.20714176 -0.08043406 0.22567852 0.1795495 -0.21925937 0.08630002

arith.constant4 f4 [8]
00000000: bfab 173c 5316 15be df31 b03e d9b2 43be
00000010: 35ab b0be 5ddd 9fbd dc1a 0abe fd18 dc3d
0.009257256 -0.14559297 0.3441305 -0.19111194 -0.3450562 -0.078058936 -0.13486809 0.10746954

arith.constant5 f4 [8, 1, 1, 16]
00000000: dcc0 a53e 44bc b4be a9d2 35bc 3f10 7b3e
00000010: d45b a33d 663f 4ebb d568 de3c 9443 a13d
00000020: 731d 373d 2c19 993e a433 913d 0e59 9e3d
00000030: ceb5 1d3e 16b0 69be aaba 9d3d e394 17be
00000040: 264a aebe 4497 60bb e6e8 d23c 07e8 893e
00000050: 0612 6a3e 6e3f da3d 65ae 94bd 2903 833d
00000060: 8886 9bbe 2df5 6ebd 19b7 ca3c 896c 24be
00000070: 8bad 8d3e e47c 3abe 2088 2e3d 7050 083e
00000080: 677f 3b3d cab0 b03e 110a 273b 8e8c 703e
00000090: a748 36bd d864 92bd 08f2 39be 8a4b 8bbe
000000a0: 7082 a2be 18f4 29be 21bc a33e efff afbd
000000b0: 0c10 323e 86cc af3e 0df4 9cbe f19a 5d3e
000000c0: 312d af3c a5b4 a53d 1388 84be b52d a93e
000000d0: 36e0 71be 2f4d 9dbe 7e69 47be 10d4 243e
000000e0: 87cb 43be dc21 883e 6cc2 60be 30b1 0fbd
000000f0: e051 68be f37c a0bd f105 ba3d 2fae 833e
00000100: 75d1 73be 43ea 8c3e 2f9d 89be 0d75 9fbe
00000110: 2863 95be 3218 e93d 9df7 edbd a533 513c
00000120: 5cb4 12be bf14 8b3d 035d 90bd 3cef ab3e
00000130: 7704 6cbe 2667 003d bb1b b03d 95ae 233d
00000140: 2322 84be 5840 8b3d f8a1 98bd 135b 16be
00000150: b216 2c3e 0457 9f3b adbd d23c b0c2 b1bb
00000160: f99b a1be 182e a1be 5237 203e d2ef 76be
00000170: 3909 133d d7f6 48bd c0ba 7fbe 62b8 9c3e
00000180: 4080 a73e cb26 853e a92c 34be 7910 ab3e
00000190: 39bd 893e 3bfa 56be 572f 90be 84b5 8f3b
000001a0: a9f3 8bbe 9d54 a8be 16e0 54be dcf2 85be
000001b0: afb9 4a3e b553 37be 843a 51be bb8c a4be
000001c0: 39d0 b43e 5d7e 6a3d 44d6 82be 2c1e 1f3e
000001d0: 1b84 31be 29fe 473c 285e 83be d245 7c3e
000001e0: 80a3 b03e 934d 063e 25bf debd 3ee8 123e
000001f0: f7c8 92bd 16e9 3ebe a132 acbe 6003 9d3e
0.32373703 -0.35299885 -0.011097589 0.24517916 0.07976499 -0.0031470894 0.027149597 0.07874218
0.04470582 0.29902017 0.07089928 0.077318296 0.15401384 -0.22821078 0.07701619 -0.1480289
-0.34040946 -0.003426985 0.02574582 0.26934835 0.22858438 0.106566295 -0.072598256 0.06397087
-0.30376077 -0.058339287 0.02474551 -0.16057028 0.27671465 -0.18211704 0.042610288 0.13311934
0.045775797 0.3450988 0.0025488178 0.23491117 -0.04450288 -0.07148141 -0.18158734 -0.2720607
-0.3174014 -0.1659702 0.31979468 -0.08593737 0.17388934 0.34335726 -0.30654946 0.21641137
0.021383854 0.08091096 -0.25885066 0.33042684 -0.23620686 -0.3072295 -0.19473836 0.1609652
-0.19120608 0.26588333 -0.21949166 -0.03508109 -0.22687483 -0.07836332 0.090831645 0.2571883
-0.2381037 0.27522478 -0.26877734 -0.3114399 -0.29177213 0.11381568 -0.11619494 0.012768661
-0.14326614 0.067910664 -0.070489906 0.3358096 -0.23048578 0.03134837 0.08599039 0.039961416
-0.25807294 0.06799382 -0.07452768 -0.1468318 0.16805533 0.004862668 0.02572521 -0.00542482
-0.3156431 -0.3148048 0.15646103 -0.24114922 0.035897467 -0.04906353 -0.24973583 0.30609423
0.32715034 0.2600616 -0.17595161 0.33411005 0.26902178 -0.20993893 -0.28161117 0.004385652
-0.27334335 -0.32877055 -0.20788607 -0.2616185 0.19797395 -0.17903025 -0.20432478 -0.3213862
0.3531511 0.057249416 -0.25554097 0.15538853 -0.1733555 0.012206593 -0.25657773 0.2463601
0.3449974 0.1311553 -0.10876302 0.14346406 -0.07167237 -0.18643603 -0.33632377 0.30666637

arith.constant6 f4 [16]
00000000: 91d0 6dbd 0078 cd3d 21fa 3ebc 7794 06be
00000010: 453d 323d 9390 4fbe c2e9 29be 7446 2fbe
00000020: 3655 353e 2f19 753e a9d9 13be bc72 91bd
00000030: b497 513e d71e 5b3e 2a84 76be 001e 763e
-0.058060233 0.10032654 -0.011656315 -0.13142572 0.043515462 -0.20269994 -0.16593078 -0.1711672
0.17708287 0.23935388 -0.144385 -0.07101962 0.20468026 0.21398483 -0.24073854 0.24034882

arith.constant7 f4 [16, 1, 1, 8]
00000000: 09c4 55bd 457d b2bb dd97 493e 9c98 04bd
00000010: f328 87bc 75ee bcbd cf96 5a3d ae94 d3bd
00000020: 76ea 693e 949b efbd 3ad8 10be e841 223e
00000030: b20c d33d e893 523e 97ca 193e 0b67 363d
00000040: 3c27 9d3c b3cd 603e 5f11 f33d e99a bd3d
00000050: 3b28 dbbd eda7 99bd 2de9 f8bc cada 23bb
00000060: b165 5a3e d9b7 8c3d c04b c13a f892 833d
00000070: 4e1e f7bd 6a03 05be 4ef9 8bbd 222c 6c3d
00000080: 3c7d 0a3e d446 403e 5f37 443d 1b99 4ebd
00000090: 8453 1c3d f2a1 d13d e86e b53d d0d7 573d
000000a0: eb83 443e 0b94 20be d82e 763e 2b14 1fbe
000000b0: db22 503c 7a56 963d b42b c13d a503 a73d
000000c0: 0571 b2bc dc68 9d3d d4c3 58be 7089 5d3e
000000d0: ef4e 56be b998 373e b923 813d 41f0 f8bd
000000e0: 0864 213e e234 09be c09b c13c 9620 463d
000000f0: 4d9c 183e 17f7 7e3e 5fbd 5cbe 0ccf 9b3b
00000100: 66e5 693e f94a 43be 4eda 1d3e a506 4fbe
00000110: af3d 0d3e 2a0c 7ebe bfba 66be 4310 383e
00000120: 5a52 703e 5d17 bd3d a3a8 0e3e 3007 d8bd
00000130: 5678 bb3d 104e 4d3e bc81 63bd f904 4a3e
00000140: 70e3 113d 1d40 6f3e 4652 70be 0c47 043d
00000150: ccb1 fb3d 58de ef3d f9de 6cbe 5164 61be
00000160: 4525 313c 97a2 553e 44cb 7c3e 286a ccbd
00000170: db48 793e 13f8 fe3d 6df9 823d 5c30 6b3e
00000180: 9fe8 003e ff19 f4bd 21eb 603e 29af f83d
00000190: 5f87 c23c 0317 37be cbe9 083e 519a 4ebe
000001a0: 39d3 9a3d b503 75be 5e46 15bd 3235 0bbc
000001b0: 8ca6 6f3e b675 41be cc5f 7c3d e917 213e
000001c0: cf1f b9bd 57e8 143d d206 523d 21b3 d6bd
000001d0: 9cf4 7dbd 4ce4 1cbd 9e63 babd 3ed2 523e
000001e0: 51b5 6d3d f0d4 0f3c d936 1ebe 4bac 943d
000001f0: 4814 1ebe 1d72 803d 02f5 b93c fde2 1ebe
-0.052188907 -0.005447062 0.19686837 -0.032372102 -0.016499018 -0.092251696 0.05336648 -0.10331093
0.22843346 -0.11699596 -0.14144984 0.15845454 0.10305156 0.20564234 0.15018688 0.044531863
0.019183747 0.21953468 0.11868548 0.092580624 -0.10701033 -0.075027324 -0.030384624 -0.0025002235
0.21327855 0.06871004 0.0014747307 0.064245164 -0.12066327 -0.12989584 -0.068346605 0.057659276
0.13524336 0.18777019 0.04790437 -0.05043898 0.038165584 0.10235967 0.08859044 0.05269605
0.19190948 -0.15681474 0.24041307 -0.15535037 0.012703623 0.07340713 0.09432164 0.08154992
-0.021782408 0.07686016 -0.21168453 0.2163446 -0.20928548 0.17929353 0.06305642 -0.121552
0.15760815 -0.1339908 0.023633838 0.04837092 0.14903374 0.24898945 -0.21556614 0.0047549065
0.22841415 -0.19071569 0.15415308 -0.20217378 0.13793062 -0.24809328 -0.22532175 0.17974953
0.23468915 0.09232972 0.13931517 -0.10548246 0.09153812 0.2004931 -0.055543646 0.1972846
0.035617292 0.23364301 -0.23468885 0.032294318 0.122897714 0.117123306 -0.23131932 -0.22010924
0.010812108 0.20862804 0.24686915 -0.09981185 0.24344198 0.1244966 0.063952304 0.22967666
0.12588738 -0.11919021 0.21964695 0.12142784 0.02374619 -0.17879872 0.13370435 -0.20176055
0.07559819 -0.23927195 -0.03644406 -0.0084965695 0.23403376 -0.1889256 0.061614797 0.15731777
-0.0903927 0.03635439 0.051276036 -0.10483385 -0.062000856 -0.03830366 -0.09101032 0.20588014
0.058034245 0.008778796 -0.1545061 0.07259425 -0.15437424 0.062717654 0.022699837 -0.15516277

arith.constant8 f4 [8]
00000000: d85d 4e3d cf20 f0bd 9d1b 863e 2d9b aa3d
00000010: 91f9 a4be 3b87 443d b63e 3dbe 64fd 343e
0.050382465 -0.11725008 0.26192942 0.08330379 -0.32221654 0.04798053 -0.18480954 0.17674786

arith.constant9 f4 [8, 1, 1, 16]
00000000: 4bce acbe 2725 353d 41e8 ad3d 667f 9f3e
00000010: 7950 59be 8004 563e fd66 9cbd 2429 96be
00000020: 4e28 90be b351 ef3d b9fa 8d3e dcb5 6c3d
00000030: 5ef3 f1bd 48e4 9fbe 46f5 adbe a253 263c
00000040: dc82 bdbd 49bf 34be 21c8 493e 5c3c 79be
00000050: dcd6 aebd fe63 d43a 776f 133e 20ac 22be
00000060: 0549 973e 536a c8bd c5fc 56be c0f3 3a3c
00000070: 3d8e b63d 719c 373e a51b 953e c598 3b3d
00000080: bc47 3abe 0d8b bebd d8f7 92be 5cd8 5dbe
00000090: e326 4d3e a4d4 1ebe 0973 a6bd a847 183d
000000a0: a615 b73d 9ffe 903e 61b4 073e 450a 8b3e
000000b0: 6577 5ebe 003f 92be ccea e33d 0292 eabd
000000c0: c0ec 79be 5055 3abe 2978 9a3e 7bd5 0abe
000000d0: 31c2 db3c 4b0a 6b3e 566b 023d f4a5 723c
000000e0: ed3a 95bc da98 10bc bbc7 89be e1e4 6e3e
000000f0: 643d 243e 3a5b 823e 0c2c ac3e 0a47 8abe
00000100: 3f7a 8ebe d8d1 1bbe 4869 543e e155 44be
00000110: 10b1 2a3e 813a 473e 8277 64bc 0486 b4be
00000120: 90ff 42be cdb7 ec3c 89ff f9bd 9471 87bd
00000130: dc1a 533e 58d3 5abe 74a4 2e3d c4eb 193e
00000140: 09fc 8b3d 65d2 1abe d7ab a63e 564f b53d
00000150: 6326 ec3d e379 a9bd cfe2 97be d615 b63c
00000160: 1dbb 1c3d f30e 87be afa5 113d 65f4 763e
00000170: 0f9c 9dbd 1779 33bc 2027 94be 34b2 2abe
00000180: 3853 9fbe 1079 d2bd 1194 59bd 0d3e 393c
00000190: 588b 803d 8ca5 aa3e 0278 67be d3ec 2abe
000001a0: 0244 b2be 850b c9bd fa9a 923e 5ce3 debd
000001b0: 82aa ddbd 32aa 9f3e 39fd 11be f7a0 e7bb
000001c0: b532 ed3d 58f5 c03d c99e 66bd 45d2 15be
000001d0: 7b30 a83e 2dab 9dbe 8a8c 113e efef 4abd
000001e0: 1445 afbe 55bd f2bd 58d4 9f3e 8585 3dbe
000001f0: c3b7 5b3c 670b 47be bcf1 05be 0227 55be
-0.3375114 0.044224884 0.084915645 0.31151885 -0.21222104 0.20900154 -0.07636831 -0.29328263
-0.2815575 0.11685505 0.2773035 0.057790622 -0.11813997 -0.31228852 -0.3397619 0.010151776
-0.09253475 -0.17651094 0.1970525 -0.24339432 -0.08537075 0.0016204116 0.14397989 -0.15885973
0.29547897 -0.09785905 -0.20994861 0.011410654 0.089138485 0.17930771 0.29122654 0.04579999
-0.18191427 -0.093038656 -0.28704715 -0.21664566 0.20034365 -0.15510803 -0.0812741 0.03717771
0.08939676 0.2831926 0.13252403 0.27156273 -0.21725233 -0.2856369 0.11128768 -0.1145363
-0.24406719 -0.18196607 0.301698 -0.13557999 0.026825996 0.22953145 0.031840645 0.014810074
-0.018216575 -0.008825505 -0.26910195 0.23329498 0.16039044 0.25460225 0.33627355 -0.27007324
-0.2782764 -0.15216768 0.20743287 -0.19173385 0.16669106 0.19455911 -0.0139445085 -0.35258496
-0.19042802 0.028896237 -0.122069426 -0.0661346 0.20615715 -0.21369684 0.042637303 0.15031344
0.06835181 -0.15119322 0.32552978 0.08853023 0.11530759 -0.08275201 -0.2966523 0.022227209
0.038264383 -0.26378593 0.0355584 0.24116667 -0.076957814 -0.010954163 -0.289361 -0.16669542
-0.31118178 -0.10276997 -0.053119723 0.011306298 0.06276578 0.33329427 -0.22604373 -0.16691904
-0.3481751 -0.0981665 0.28633863 -0.10883209 -0.108235374 0.31184536 -0.14256753 -0.007068749
0.11581937 0.094217956 -0.056303773 -0.14630993 0.32849488 -0.3079466 0.14213768 -0.049545225
-0.3423239 -0.118525185 0.31216693 -0.18507965 0.013410511 -0.19437943 -0.13080496 -0.20815662

arith.constant10 f4 [16]
00000000: 9b5b 30be dc66 cbbc a76a 3cbe b6a4 e9bd
00000010: 33ef 873d 9b6b e7bd 2ac6 23bc 22b9 17be
00000020: 872d 5c3e 3090 593e eb0e 203c 1c64 763e
00000030: ba50 3b3e faf9 f5bd 3181 2c3e 4c29 35be
-0.17222445 -0.02482932 -0.1840006 -0.11408369 0.066374205 -0.11299821 -0.009995976 -0.14816716
0.21501742 0.2124641 0.009769182 0.24061626 0.18292513 -0.1201057 0.16846158 -0.17691535

arith.constant11 f4 [16, 1, 1, 8]
00000000: 2da4 f9bd d145 6fbe 2a88 d13c 5ca1 4b3d
00000010: 8291 3abd 1d6a 7b3d 90be a7bd cdea fabd
00000020: 54a3 583e 70a2 cb3d 79c4 253e 0de9 8c3d
00000030: dfae 44bd f465 703e 1ae7 dfbd e78e ab3c
00000040: 1bff c2bd 3812 58be a080 ef3c d96a b13d
00000050: 6242 54bd 0373 383d bd65 b0bd 6ea3 f63c
00000060: 42c9 ea3c c613 783e 4213 f73d 61f3 0ebd
00000070: 3907 1fbe aca7 7c3d 1a3b ad3d 1577 80bb
00000080: eae0 75be 9013 293d da41 0f3e 0579 67be
00000090: 00a6 473e 3a0f 6bbe 188b 403d c5c1 6cbe
000000a0: ef0a 263e 4533 50be 2d83 8e3d 6c61 a8bd
000000b0: 4331 123e 3ee0 47be 62de 2fbe 1a3c 72be
000000c0: 60cf 84bd 7c8e d83d 887d 9b3d 2f8e 66be
000000d0: a1fb 7e3e bc30 4e3c f434 653c fbf4 da3d
000000e0: c5fe 66be 530b 073e 90db 753e d07a d7bd
000000f0: cd4e ef3d 3938 d63d 724d 77be d245 1dbe
00000100: 9c07 303e f45a 903d b7ee 003e 7128 a5bd
00000110: b099 3b3e 4f3f 2bbd e244 22be bc40 e5bd
00000120: ad80 c9bd a9c4 013e 90f1 4d3e f963 a63c
00000130: 4f9e 49be 19d1 d5bd d1ef 8d3c f404 303e
00000140: 2ce7 d8bd 7da6 78bd 3a37 7c3e bf65 92bd
00000150: 9fad 083e 1bae 373e 12e4 533d 54c8 cc3d
00000160: 923e 7c3e 2ea5 f6bb ce38 0a3e 9aa5 6bbe
00000170: 4022 41bb d832 0f3e 05ab 19bd 9639 273e
00000180: ca6e babd 9dc1 2cbe a44b 9c3d 850a 06be
00000190: 78f2 233e 42b7 533d 077a dabc c2ca b93b
000001a0: 4283 393c 5084 903d ae50 97bd 7cc0 fbbc
000001b0: 0738 5c3d 1462 0f3e 5393 423e 2c9f 1b3d
000001c0: d5e4 b03c c324 b7bd db56 f5bd a906 273c
000001d0: 95b3 793d 8897 523e 8752 acbd 9093 23be
000001e0: 357e 9abd 9a75 223d c2d6 4cbe 20cc 57bd
000001f0: 2311 c53d 63b1 e83d 5beb 2abe 3516 cbbd
-0.12189517 -0.23366477 0.025577623 0.04971443 -0.045548923 0.061380494 -0.08190644 -0.12251816
0.21156055 0.09943092 0.1618823 0.068803884 -0.048018333 0.23476392 -0.10932751 0.020942165
-0.09521314 -0.211007 0.029236138 0.08662958 -0.05182112 0.04503156 -0.08613155 0.030107226
0.02866042 0.24226293 0.1206422 -0.034900073 -0.15530099 0.06168334 0.08458538 -0.0039204457
-0.24011579 0.041278422 0.13989964 -0.22604759 0.19496918 -0.22955027 0.04700765 -0.23120792
0.16215108 -0.20332058 0.069586135 -0.08221707 0.14276604 -0.19519135 -0.17174676 -0.2365574
-0.06484866 0.10574052 0.075923026 -0.22515176 0.24900676 0.012584861 0.013989676 0.106912576
-0.22558124 0.13187914 0.24009538 -0.105214715 0.11684952 0.10459942 -0.24150637 -0.15358666
0.17190403 0.07048598 0.12591062 -0.08064354 0.18320346 -0.041808423 -0.15846589 -0.11193988
-0.09838996 0.12672676 0.2011168 0.020311343 -0.19689296 -0.10440273 0.017326267 0.1718939
-0.105909675 -0.06070565 0.24630442 -0.07148313 0.13347481 0.1793751 0.051731177 0.09999147
0.24633244 -0.007527015 0.13498232 -0.2301239 -0.0029469877 0.13984239 -0.037516613 0.16330561
-0.091031626 -0.16870733 0.07631615 -0.1308995 0.16010463 0.05168844 -0.026669515 0.0056699226
0.011322798 0.070564866 -0.07388435 -0.030731432 0.05376437 0.14002258 0.19001512 0.037993595
0.02159349 -0.089425586 -0.11979457 0.010194459 0.06096228 0.20565617 -0.08414178 -0.1597426
-0.07543603 0.039662935 -0.20003799 -0.052684903 0.09622409 0.11361959 -0.16691343 -0.09916345

arith.constant12 f4 [2]
00000000: b78c b03d 407f 9c3e
0.08620589 0.30565834

arith.constant13 f4 [16]
00000000: 9d40 e3bd 0892 8fbd cace bdbd 0311 a9bd
00000010: f35b d5bd 89c8 b83d 28a2 a83d c7e9 f3bc
00000020: e9e4 70bd 0a65 aabd 81eb 7fbc 6bc1 d03d
00000030: 2125 d7bd 5188 b33d f9ab 59bd 7189 ab3c
-0.110963084 -0.07010275 -0.092679575 -0.08255198 -0.104179285 0.09022624 0.08234054 -0.02977456
-0.058812056 -0.08320053 -0.015620113 0.101931415 -0.10505129 0.08766235 -0.05314252 0.02093956

arith.constant14 f4 [16]
00000000: cb5f e1bc c031 bbbc d60f 75bb 0e65 1a3d
00000010: a8cb 6a3d 0670 ec3c eb84 e1bc bf4f a6bd
00000020: c6fe c13c b0c3 8e3c 7857 493d d036 c63c
00000030: 0073 54bd 70a0 5dbd 0e7a 4cbd fc39 93bd
-0.027511498 -0.022850871 -0.0037393472 0.03769403 0.057323128 0.02886201 -0.0275292 -0.08120679
0.023681056 0.017427295 0.049155682 0.024196059 -0.051867485 -0.054108083 -0.049921088 -0.07188794

arith.constant15 f4 [16]
00000000: a049 42bd 16f0 a9bc c0d1 3dbc c2ae 98bd
00000010: eb85 febb d34e 223d 08a3 79bd 1a58 913d
00000020: 4ef6 18bd 2bb6 80bd 40a5 3c3d 767a 0d3d
00000030: 006e 7fba eb49 2dbc 1362 46bd d0ed 84bc
-0.047433496 -0.020744365 -0.011585653 -0.074552074 -0.007767429 0.039625954 -0.060946494 0.07096882
-0.03734427 -0.06284746 0.046056032 0.034540616 -0.00097438693 -0.010576705 -0.048433375 -0.01622668

arith.constant16 f4 [16]
00000000: 2056 933d ea36 a6bd 461d f8bc 7621 6dbd
00000010: abd8 133a 8bbf 58bd eb21 d2bb 2ee3 823d
00000020: 0649 95bd 6b70 ebbc 18ee 7bbd 63ef 38bd
00000030: d6f4 8f3d b063 62bd 8b85 053d e8e4 0dbd
0.071941614 -0.08115943 -0.030287396 -0.05789324 0.0005639891 -0.052917045 -0.0064127347 0.06390987
-0.07289319 -0.028740129 -0.06150636 -0.045150172 0.070291206 -0.05527085 0.03259806 -0.03464213

arith.constant17 f4 [16]
00000000: 9e63 1fbe ca08 973d fe3d 7abe aa7b 6cbd
00000010: 8604 26be 986b 2a3d 7644 983d c406 38bb
00000020: 037d 6abe 303f 013e 2d20 cdbc 6887 613e
00000030: 4b67 5dbe a7ea b9bd 2ff9 0ebe f8b2 2bbe
-0.15565345 0.07374723 -0.2443771 -0.057735123 -0.16212663 0.041606516 0.07434933 -0.0028080205
-0.2289925 0.1262176 -0.025039757 0.2202431 -0.21621434 -0.090779595 -0.13962243 -0.1676749

arith.constant18 f4 [16]
00000000: 1e4d b33e 45ba 3a3e 5a55 b53e e015 f03d
00000010: cbc0 10bf b56a b43e 6c11 ba3e c004 d93e
00000020: 65d6 bbbd 8f0f f5be 3169 f2bd 2bd8 d8be
00000030: dbc0 bdbc 7d5e 8fbe dd0e e53b ad44 31be
0.35019773 0.18235119 0.3541668 0.11722922 -0.5654418 0.3523766 0.36341417 0.42386436
-0.09171752 -0.47863433 -0.1183647 -0.42352423 -0.02316325 -0.28001776 0.006990297 -0.17311354

arith.constant19 f4 [16]
00000000: d968 0f3d e1ea 513e 76a2 a4bd b895 f33d
00000010: 7667 f83d 132f 2ebe b46e 7f3d 67c3 f63d
00000020: 8488 abbd 4d80 a63d ee9d c93d a8f7 5a3e
00000030: 879f c4bd 3c9c 543e 32f9 8c3c 6b83 713e
0.0350121 0.20499755 -0.080387995 0.11893791 0.121291086 -0.17010145 0.062361434 0.12048989
-0.08375648 0.0812994 0.09844576 0.21383536 -0.0960074 0.20762724 0.01720867 0.23585288

arith.constant20 f4 [16]
00000000: 31ee f03d 3829 dbbb 5bbc 943d ae48 7a3c
00000010: 774b 323e cd57 1b39 13c0 1abe 4a47 fb3d
00000020: aaf6 6e3d 89aa 6a3e 1509 1a3d 9305 093e
00000030: 7fe8 c4bc a5b9 6fbe 1aa2 563d a3e5 39bc
0.117641814 -0.0066882633 0.072624885 0.015276117 0.174116 0.0001481466 -0.15112333 0.12269457
0.058340706 0.22916616 0.037606318 0.13381033 -0.024036644 -0.23410662 0.052400686 -0.011346254

arith.constant21 f4 [16]
00000000: d2e2 0dbf 9da7 9b3d 6da5 e0be f4b1 11bf
00000010: e467 c8be b28e 7f3b d2de 0a3f 8f34 13bf
00000020: a152 093f 1d6a 84be 2ec1 d0be 60df c1be
00000030: 82b9 3fbe 6209 7ebe c5d3 2dbd 69c6 393c
-0.55424225 0.07600329 -0.4387621 -0.5691216 -0.39141762 0.0038994965 0.54246247 -0.57502073
0.53641707 -0.25862208 -0.40772384 -0.37865734 -0.1872311 -0.24808267 -0.042438287 0.011338809

arith.constant22 f4 [16]
00000000: c44a dcbd 8fdb d03d a11c f2bc 1129 c1bc
00000010: 845c 3ebe e927 76be 79e9 a8bd e8bb 783e
00000020: ccc8 373d f73d 1abe 4335 6b3e b430 9f3d
00000030: d588 16be 50b5 553e cae9 f9bd b581 7cbd
-0.10756448 0.101981275 -0.029554667 -0.023579152 -0.1858998 -0.24038662 -0.082476564 0.2429043
0.04486923 -0.150627 0.22969536 0.07772961 -0.14700635 0.20869946 -0.12202795 -0.061647136

arith.constant23 f4 [16]
00000000: 2961 d73d 7ded 1cbd cf60 7dbe 60ca febd
00000010: 2c1d 1d3d 2eb9 7a3d 5c12 1f3d fc1f 9fbd
00000020: f758 1c3e 1719 3a3e d373 08ba 71a7 0abe
00000030: 962f c9bd 3c44 19be 1af3 d5bd 73ed 2dbe
0.10516579 -0.038312424 -0.24743961 -0.12440944 0.0383579 0.061211757 0.03883587 -0.077697724
0.15268312 0.18173634 -0.00052052474 -0.13540436 -0.098235294 -0.14967436 -0.104467586 -0.16985111

arith.constant24 f4 [16]
00000000: 3076 893c 08a3 8abe a37b 483e 87c4 0c3e
00000010: 6a6b a9bd 15af 5dbd 85e0 783e 032c 8ebe
00000020: f770 9cbe 4641 053f 14c2 d03e de2f bcbe
00000030: 0389 a13e 10b5 0abe 58e2 efbd 900b c43e
0.016779989 -0.27077508 0.19578414 0.13746844 -0.08272441 -0.05412205 0.24304397 -0.27767953
-0.30554935 0.52052724 0.4077307 -0.3675527 0.31549844 -0.13545632 -0.117130935 0.3829007

arith.constant25 f4 [16]
00000000: f577 d9bd 038d c73d ea4e cabd ba15 a33c
00000010: 506d c43d 36bf f93d f8ab 78be 9849 2abe
00000020: 3e80 313d 520a 56be 9167 4c3e 54fe 72be
00000030: 44c8 66be 9b16 eabd 9d12 40be d1d5 83bd
-0.10618583 0.09743693 -0.09878333 0.019907821 0.09591162 0.12194674 -0.24284351 -0.16629636
0.043335192 -0.20902374 0.19961382 -0.23729831 -0.22537333 -0.11430093 -0.187571 -0.064372666

arith.constant26 f4 [16]
00000000: 5797 c7bd e99d 2cbe 9425 1e3e 8538 77be
00000010: 6966 b2bd 5cd1 353d 5090 603e 3c7b b6bd
00000020: d470 853c e32f 633e 0370 27be 404d 753e
00000030: c48f f23d fa13 60be 4337 94bd bd81 333d
-0.09745663 -0.16857113 0.15444022 -0.24142654 -0.087109394 0.044389114 0.21930051 -0.08910224
0.016289152 0.22186236 -0.16351323 0.2395525 0.11843827 -0.2188262 -0.07237103 0.0438249

arith.constant27 f4 [16]
00000000: d675 f7be 42e9 a9be 8063 403e d81f b0be
00000010: 5bb0 2bbe 7bc9 08bf 9d10 023e 4113 b73e
00000020: 29f7 c0be 4d2c 8e3d 8682 91bd 8955 c2be
00000030: a492 88be cc98 e53e 98fa 103f 4ec5 68be
-0.4833209 -0.33185774 0.18787956 -0.34399295 -0.16766493 -0.53432435 0.1270165 0.35756877
-0.37688568 0.069420435 -0.071049735 -0.37955883 -0.26674378 0.44843137 0.56632376 -0.22731516

arith.constant28 f4 [16]
00000000: f4f4 6cbe d665 19bd 622c bc3d f2c3 8cbc
00000010: bce2 4e3b 1f6a 21be b1f1 2cbe 3b3d 643e
00000020: c10b d8bd 5b9b 1c3e 4d94 22be d411 673c
00000030: 6526 7d3d eca1 68bd 1ff5 d0bd 7d5c cdbb
-0.23140317 -0.037450634 0.09188153 -0.017183278 0.003156825 -0.15763138 -0.16889073 0.22288983
-0.10549117 0.15293638 -0.15876885 0.014103372 0.061804194 -0.056795046 -0.10203003 -0.006267129

arith.constant29 f4 [8]
00000000: e09d 37be 45e1 573e 3876 dcbd cba3 203e
00000010: 7950 283e bd87 cdbd b2fd e23d 329d 243d
-0.17931318 0.21082027 -0.10764736 0.15687482 0.16436948 -0.10035656 0.11083545 0.040188976

arith.constant30 f4 [16]
00000000: 3d12 8b3e 4b39 843e b7ee 763e 8d92 953e
00000010: c02e 7dbe 7e15 53be bb19 a8be a0e1 a8be
00000020: d044 aabe 93f2 a13e 25fb 7c3e a79c 96be
00000030: d489 e7bd ca34 053d 186b dbbd 1f4b 663e
0.27162352 0.2582496 0.241145 0.29213372 -0.24724865 -0.20613667 -0.3283213 -0.32984638
-0.33255625 0.31630382 0.24705179 -0.2941639 -0.113055855 0.032521047 -0.10713786 0.22489594

arith.constant31 f4 [16]
00000000: 4f60 24be 568c 15bc b72d cbbc 3ba7 b1be
00000010: cd63 013e 6325 303e 6d59 353e d8f6 2bbe
00000020: e8a3 02bd 1bb5 a0be 8880 ab3e c684 783e
00000030: 9a0f 203e 7ef7 14bc c249 fb3d a696 0cbe
-0.16052364 -0.009127697 -0.024802072 -0.346979 0.12635727 0.17201762 0.17709894 -0.16793382
-0.031894594 -0.31388173 0.334965 0.24269399 0.15630952 -0.00909221 0.122699276 -0.13729343

arith.constant32 f4 [8]
00000000: a8ee 4d3e 738d 52be a49a a93d cc67 67bd
00000010: 6d13 c1bd cf2b 76bc 228b a53d 3020 363e
0.20110571 -0.20561771 0.082814485 -0.056495473 -0.09427533 -0.015025093 0.08083178 0.17785716

arith.constant33 f4 [16]
00000000: f747 933e 8e93 a1be 751a 47bd caed d5bd
00000010: 9010 7c3e 0290 ad3d 54cf 37be 78bb 9cbd
00000020: 028d a1be dde2 24be a8f7 9b3d d9e4 0fbe
00000030: d02d 3ebe a987 26bd 7d34 803e bd35 993e
0.28765842 -0.31557888 -0.048609216 -0.10445745 0.24615693 0.08474733 -0.17950183 -0.07652944
-0.31552893 -0.16102166 0.07615596 -0.14052142 -0.18572164 -0.04065672 0.25040045 0.29923812

arith.constant34 f4 [16]
00000000: a0a4 423e e02f b4be 9fb3 fb3d a6ad a5be
00000010: 48ec 6dbc 0a26 b13e 4d34 953c 559e b23c
00000020: c828 9dbd 1acf d7bd 1e12 0ebe 619b 853c
00000030: 5ddf 97ba a0ef 96be 6622 b3be 85ab 93be
0.19008112 -0.35192776 0.122901194 -0.32359046 -0.014521666 0.34599334 0.018213416 0.021804014
-0.07673794 -0.10537548 -0.13874099 0.016309442 -0.0011586953 -0.29479694 -0.3498718 -0.28841797

arith.constant36 f4 [8]
00000000: 13b5 4d3e fdf9 15be c599 013e eeca 793c
00000010: 0e58 fa3c a542 7dbe af5c 393e 5b09 6abd
0.20088606 -0.14646144 0.12656315 0.015246136 0.030559566 -0.24732454 0.18101762 -0.05713783

arith.constant37 f4 [16]
00000000: c8c4 8abd f8d5 7c3d a77d 9f3d c9c9 a6bb
00000010: 9f2a 163e fb01 34bd 22fc 04be 206b d5bd
00000020: e41d 41be 315c 6f3e ae59 113e d760 7fbe
00000030: ae81 173e 93fb ca3c 0e18 433e 8821 1c3e
-0.06775814 0.061727494 0.07787638 -0.0050899726 0.14664696 -0.0439472 -0.12986806 -0.10420823
-0.18859059 0.23375012 0.14194366 -0.24939285 0.14795563 0.024778163 0.19052145 0.15247166

arith.constant38 f4 [16]
00000000: 0229 ed3d 2bb0 09bd c9d2 dfbc dcc6 bcbd
00000010: ae17 003e c853 c63d 541d 2abe 1810 74be
00000020: 7d9d 6b3e 178a 323d fb08 1cbe 40d0 413e
00000030: 306d 3bbe 6c92 9a3e ec0b 35bd d3e1 2a3d
0.11580087 -0.033615272 -0.02732219 -0.09217617 0.12509033 0.09683949 -0.1661275 -0.23834264
0.23009296 0.043588724 -0.15237801 0.18927097 -0.1830337 0.30189836 -0.044200823 0.04171927

arith.constant39 f4 [16]
00000000: a2ed c5bd 6c84 08bd 1f9b bbbd 15dc fe3c
00000010: bdce 9a3d 76d8 5e3d 9e32 c9bc 20cc 16bd
00000020: 2c07 94bd 3f68 c33d 80a0 bf3d 2f33 563d
00000030: f46f 63bc d457 bbbd 2678 4a3d 7a8e 5cbd
-0.096644655 -0.033329412 -0.091604464 0.031110803 0.075589634 0.054405652 -0.024560269 -0.036815763
-0.072279304 0.09541368 0.09356785 0.052294906 -0.013881672 -0.09147611 0.04943099 -0.053846814

arith.constant40 f4 [16]
00000000: 2261 b1bd 07be 013e e22b 66bd 7422 4bbe
00000010: 1592 5c3e b6b2 33be 5d64 f0bd 1478 63bc
00000020: 0960 353e 2149 6fbe f984 32ba 713e 813e
00000030: 7f2e dabd 43dc 7b3d 8b65 253e a309 b73c
-0.08661105 0.12670146 -0.056194194 -0.19837362 0.21540101 -0.17548642 -0.11737893 -0.013883609
0.17712416 -0.2336774 -0.00068099756 0.25242952 -0.106534 0.061489355 0.16152017 0.022343462

arith.constant41 f4 [192, 64]
00000000: 0000 803f ccbc 8c2b 0000 0000 0000 0000
00000010: 0000 0000 0000 0000 0000 0000 0000 0000
00000020: 0000 0000 0000 0000 0000 0000 0000 0000
00000030: 0000 0000 0000 0000 0000 0000 0000 0000
00000040: 0000 0000 0000 0000 0000 0000 0000 0000
00000050: 0000 0000 0000 0000 0000 0000 0000 0000
00000060: 0000 0000 0000 0000 0000 0000 0000 0000
00000070: 0000 0000 0000 0000 0000 0000 0000 0000
00000080: 0000 0000 0000 0000 0000 0000 0000 0000
00000090: 0000 0000 0000 0000 0000 0000 0000 0000
000000a0: 0000 0000 0000 0000 0000 0000 0000 0000
000000b0: 0000 0000 0000 0000 0000 0000 0000 0000
000000c0: 0000 0000 0000 0000 0000 0000 0000 0000
000000d0: 0000 0000 0000 0000 0000 0000 0000 0000
000000e0: 0000 0000 0000 0000 0000 0000 0000 0000
000000f0: 0000 0000 0000 0000 0000 0000 0000 0000
00000100: 0000 0000 0000 803f ccbc 0c2b 0000 0000
00000110: 0000 0000 0000 0000 0000 0000 0000 0000
00000120: 0000 0000 0000 0000 0000 0000 0000 0000
00000130: 0000 0000 0000 0000 0000 0000 0000 0000
00000140: 0000 0000 0000 0000 0000 0000 0000 0000
00000150: 0000 0000 0000 0000 0000 0000 0000 0000
00000160: 0000 0000 0000 0000 0000 0000 0000 0000
00000170: 0000 0000 0000 0000 0000 0000 0000 0000
00000180: 0000 0000 0000 0000 0000 0000 0000 0000
00000190: 0000 0000 0000 0000 0000 0000 0000 0000
000001a0: 0000 0000 0000 0000 0000 0000 0000 0000
000001b0: 0000 0000 0000 0000 0000 0000 0000 0000
000001c0: 0000 0000 0000 0000 0000 0000 0000 0000
000001d0: 0000 0000 0000 0000 0000 0000 0000 0000
000001e0: 0000 0000 0000 0000 0000 0000 0000 0000
000001f0: 0000 0000 0000 0000 0000 0000 0000 0000
00000200: 0000 0000 0000 003f 0000 003f 0000 0000
00000210: 0000 0000 0000 0000 0000 0000 0000 0000
00000220: 0000 0000 0000 0000 0000 0000 0000 0000
00000230: 0000 0000 0000 0000 0000 0000 0000 0000
00000240: 0000 0000 0000 0000 0000 0000 0000 0000
00000250: 0000 0000 0000 0000 0000 0000 0000 0000
00000260: 0000 0000 0000 0000 0000 0000 0000 0000
00000270: 0000 0000 0000 0000 0000 0000 0000 0000
00000280: 0000 0000 0000 0000 0000 0000 0000 0000
00000290: 0000 0000 0000 0000 0000 0000 0000 0000
000002a0: 0000 0000 0000 0000 0000 0000 0000 0000
000002b0: 0000 0000 0000 0000 0000 0000 0000 0000
000002c0: 0000 0000 0000 0000 0000 0000 0000 0000
000002d0: 0000 0000 0000 0000 0000 0000 0000 0000
000002e0: 0000 0000 0000 0000 0000 0000 0000 0000
000002f0: 0000 0000 0000 0000 0000 0000 0000 0000
00000300: 0000 0000 0000 0000 0000 803f ccbc 0c2b
00000310: 0000 0000 0000 0000 0000 0000 0000 0000
00000320: 0000 0000 0000 0000 0000 0000 0000 0000
00000330: 0000 0000 0000 0000 0000 0000 0000 0000
00000340: 0000 0000 0000 0000 0000 0000 0000 0000
00000350: 0000 0000 0000 0000 0000 0000 0000 0000
00000360: 0000 0000 0000 0000 0000 0000 0000 0000
00000370: 0000 0000 0000 0000 0000 0000 0000 0000
00000380: 0000 0000 0000 0000 0000 0000 0000 0000
00000390: 0000 0000 0000 0000 0000 0000 0000 0000
000003a0: 0000 0000 0000 0000 0000 0000 0000 0000
000003b0: 0000 0000 0000 0000 0000 0000 0000 0000
000003c0: 0000 0000 0000 0000 0000 0000 0000 0000
000003d0: 0000 0000 0000 0000 0000 0000 0000 0000
000003e0: 0000 0000 0000 0000 0000 0000 0000 0000
000003f0: 0000 0000 0000 0000 0000 0000 0000 0000
1.0 1e-12 0.0 0.0 0.0 0.0 0.0 0.0
0.0 0.0 0.0 0.0 0.0 0.0 0.0 0.0
0.0 0.0 0.0 0.0 0.0 0.0 0.0 0.0
0.0 0.0 0.0 0.0 0.0 0.0 0.0 0.0
0.0 0.0 0.0 0.0 0.0 0.0 0.0 0.0
0.0 0.0 0.0 0.0 0.0 0.0 0.0 0.0
0.0 0.0 0.0 0.0 0.0 0.0 0.0 0.0
0.0 0.0 0.0 0.0 0.0 0.0 0.0 0.0
0.0 1.0 5e-13 0.0 0.0 0.0 0.0 0.0
0.0 0.0 0.0 0.0 0.0 0.0 0.0 0.0
0.0 0.0 0.0 0.0 0.0 0.0 0.0 0.0
0.0 0.0 0.0 0.0 0.0 0.0 0.0 0.0
0.0 0.0 0.0 0.0 0.0 0.0 0.0 0.0
0.0 0.0 0.0 0.0 0.0 0.0 0.0 0.0
0.0 0.0 0.0 0.0 0.0 0.0 0.0 0.0
0.0 0.0 0.0 0.0 0.0 0.0 0.0 0.0
0.0 0.5 0.5 0.0 0.0 0.0 0.0 0.0
0.0 0.0 0.0 0.0 0.0 0.0 0.0 0.0
0.0 0.0 0.0 0.0 0.0 0.0 0.0 0.0
0.0 0.0 0.0 0.0 0.0 0.0 0.0 0.0
0.0 0.0 0.0 0.0 0.0 0.0 0.0 0.0
0.0 0.0 0.0 0.0 0.0 0.0 0.0 0.0
0.0 0.0 0.0 0.0 0.0 0.0 0.0 0.0
0.0 0.0 0.0 0.0 0.0 0.0 0.0 0.0
0.0 0.0 1.0 5e-13 0.0 0.0 0.0 0.0
0.0 0.0 0.0 0.0 0.0 0.0 0.0 0.0
0.0 0.0 0.0 0.0 0.0 0.0 0.0 0.0
0.0 0.0 0.0 0.0 0.0 0.0 0.0 0.0
0.0 0.0 0.0 0.0 0.0 0.0 0.0 0.0
0.0 0.0 0.0 0.0 0.0 0.0 0.0 0.0
0.0 0.0 0.0 0.0 0.0 0.0 0.0 0.0
0.0 0.0 0.0 0.0 0.0 0.0 0.0 0.0

arith.constant42 f4 [2, 1, 5, 16]
00000000: 012c 7bbe 33d8 7e3e 010a 9cbe b520 c7bc
00000010: 8269 fc3d 5d84 aebd 4249 dd3d 4f1e 993d
00000020: 030d 7c3b bd78 d1bd 2d55 6b3e e910 3ebe
00000030: 3439 a53c 1365 cebd a8f3 0ebe c992 323e
00000040: a0b8 79be e271 2b3d 0ea3 83be 7194 dd3d
00000050: f173 223e 3ea0 55be 3517 b83d f665 2a3e
00000060: ca74 16be f9c1 0d3e 6a3c 9c3e 9c16 5b3e
00000070: ccc8 893e 46f1 50be d533 a1be c846 dc3d
00000080: 1a78 7fbe 1ade 33be 872f edba 3b9a 29bc
00000090: 1a33 043e 34df 20be 48c4 ff3d bbb2 9ebe
000000a0: a6b1 9a3e 6d77 533e 7ec4 54bc 55e4 033e
000000b0: 81ac 9dbe 68c0 823e 8c7c 863e 99fc 89bd
000000c0: ed7f 843e be80 e13d 9d86 5bbe 90fa 113e
000000d0: ad45 9f3d 7a49 fa3d 957b 9a3e 90d2 80be
000000e0: b113 003e 84fa ffbd 6698 473c e0db 0d3d
000000f0: 12b1 8b3d a68a 97be e40f 92be c4c8 41be
00000100: f3ca 993d 4aab 363e 4eec 303e e21a 033e
00000110: 5115 9dbe e2af 823e eeb1 863d 094a 1c3e
00000120: a93b 8bbe b494 813e dd43 683e f234 a1be
00000130: 7af2 bcbd dbe9 8b3d 383f ad3d be2b 903e
00000140: 7eb6 8ebe f188 95be 72c5 fbbd c01c 6dbd
00000150: 5f8a 8d3e adaf 043e 8c56 14be 2aad 4bbe
00000160: 3d49 8f3e bc36 66ba 2a18 9dbe f9de 09be
00000170: 8cac 3abe 34ef 573e 979b 62be 1dda c73d
00000180: d804 9bbe 0259 9c3e 7484 553e 1162 8e3e
00000190: 08ad 6a3d f722 193e b6df bebd 426a 8cbe
000001a0: 3957 a83d bd65 eabd 7afc 763c c76e 213d
000001b0: f8bc 403e 44a9 1abe 55fb 1c3c 0458 4f3e
000001c0: 789f 04be 6b88 79bd 9338 84be da90 043e
000001d0: 4ef0 8abe 2021 9ebd 79f8 22be b30c 2ebe
000001e0: d0e2 46be 1d80 8f3e 0e04 94be 8156 0abd
000001f0: 7858 8ebe 1232 7ebe 75e5 10be 8a67 803d
00000200: bb6b 91be ce07 543e 5124 683e 5d0f 923e
00000210: 0d42 4ebe bb1c 873e 251a 9dbe 28cc a1be
00000220: 8e7f e7bd 41bc 61be 0200 90be 7b22 8a3e
00000230: e9c9 fbbd 0cd9 2a3e b81d 583e 562c 83be
00000240: 7a25 943e 8042 a3bd ef92 1dbe 2adc 09bd
00000250: 97c5 593e fce8 623d 060f 7abe aca6 9e3d
00000260: 78ec 8f3e eff9 3dbb e53a 9d3d d778 95be
00000270: c783 87be 5990 8c3e 2e7d 93bd 3035 0b3e
-0.24528505 0.24887161 -0.30476382 -0.024307588 0.123248115 -0.0852134 0.108049884 0.07476484
0.0038459904 -0.10228107 0.2298171 -0.18561138 0.020168878 -0.10077872 -0.13960135 0.17438807
-0.24386835 0.041856654 -0.25710338 0.108193286 0.1586454 -0.20861909 0.089888014 0.16640458
-0.14692989 0.13843526 0.30514842 0.21395344 0.26911008 -0.20404539 -0.31484857 0.10755688
-0.24948159 -0.17565194 -0.0018095829 -0.010351713 0.12910119 -0.15710145 0.124886096 -0.30995736
0.3021366 0.20651026 -0.0129863005 0.1288007 -0.30795673 0.2553742 0.26266897 -0.06737632
0.2587885 0.11010884 -0.2143807 0.14255738 0.077769615 0.12221046 0.3017241 -0.25160646
0.12507512 -0.12498954 0.012182331 0.034633517 0.06820883 -0.29597968 -0.2852775 -0.18924242
0.075094126 0.17838779 0.17277643 0.12803224 -0.30680326 0.25524813 0.06576906 0.15262617
-0.27193955 0.25308764 0.22682138 -0.31485707 -0.09225936 0.06831714 0.08459324 0.28158373
-0.27873605 -0.2920604 -0.12293519 -0.057888746 0.2764463 0.1295764 -0.1448614 -0.19890276
0.27985564 -0.000878196 -0.30682498 -0.13463964 -0.18229884 0.21087343 -0.22129665 0.09758399
-0.30277133 0.30536658 0.20851308 0.27809194 0.05729392 0.14954744 -0.09320013 -0.27424818
0.082197614 -0.11445186 0.015074844 0.039412286 0.18822086 -0.15103632 0.009581407 0.20248419
-0.12951458 -0.060921114 -0.25824413 0.12945881 -0.27136463 -0.07721162 -0.15915097 -0.16997032
-0.1942246 0.2802743 -0.28909343 -0.033773903 -0.2780187 -0.24823788 -0.14150031 0.062697485
-0.28402504 0.20706102 0.22670104 0.28527346 -0.20142384 0.26389107 -0.3068401 -0.3160107
-0.11303626 -0.2204447 -0.28125006 0.26979432 -0.12294371 0.1668436 0.21105087 -0.25619763
0.28934842 -0.07971668 -0.15388082 -0.03365723 0.21266781 0.055397972 -0.24419793 0.07746634
0.281101 -0.0028988083 0.07677249 -0.29193756 -0.26467726 0.2745388 -0.072016105 0.13594508

arith.constant43 f4 [16, 1, 5, 16]
00000000: 6a36 9ebd ebe4 d93d 5476 90bb 8308 a8bd
00000010: ed5f d23d d7a7 e23b 718b 62bc 88fe d9bd
00000020: 4df6 7bbd 97bd a1bd d69c c03d 29aa 253c
00000030: 8234 02bd 0fa1 dabc 4be4 32bd 93b7 a53c
00000040: c158 87bd 4d60 9f3c 65f5 963d 19a5 da3d
00000050: af09 6bbb 9fb9 8abc d019 6d3d 8a00 8ebc
00000060: e7e8 30bd 4ed0 4fbd c075 a93d c7b0 2abd
00000070: 4c18 dbbb 5e64 a63d e74c 1dba 44ee 94bd
00000080: a27c ab3d 9257 d53c 87fb c93d 7d42 e1bd
00000090: dc12 71bc 39cf 43bd 454b d13d a835 ca3d
000000a0: 5aa5 b53d 7ef3 b2bd 6b5d 7f3d a437 b3ba
000000b0: 864f 66bb 4bbf c63d 0fcf 85bd 2147 43bd
000000c0: 2d19 863c f37f 7f3d 50b2 c6bd 07c9 583c
000000d0: 0a5c 35bd f9d4 cebd 41e6 4cbd 7def 8d3c
000000e0: 050a 913d 4173 ec3a b0e8 8f3d 56ad 2ebd
000000f0: 5cfc a43d d8de a03d 9193 c23d a470 e03d
00000100: bcf1 d0bd af6f dcbd 3392 99bd f134 4f3d
00000110: f9c7 3e3d aba4 a13d 3f52 1a3d ae89 cfbd
00000120: dd64 b6bd fae6 c53d e106 583c e4ac ce3d
00000130: 5415 8b3c b980 79bc 0b3f a03d 25ce a1bd
00000140: 3b23 be3c 514e 4d3d ee25 afbd 7cff 913c
00000150: 7918 c0bd 91ba 8abd 14e2 2fbd 7556 cabc
00000160: d2ea cdbd 5808 99bd 2ade 453d 7131 083b
00000170: a481 c9bc f7a8 193d 6908 44bc ec2b d13d
00000180: 5bd1 813d 7706 e2bd f941 e2bd baa6 c6bd
00000190: 912a 55bc 8d0b d6bd 17a3 d13d b485 ddbc
000001a0: 349c 4fbc ac16 7ebd c9f7 823d ed86 c63d
000001b0: e3fd 4cbc 6e24 53bd 0e36 55bd 5901 f83b
000001c0: 91e1 32bd c58e ba3d 8cba c1bd c567 2a3d
000001d0: 98ea d03d 4d58 a6bd 51cd dfbb 5a10 c73d
000001e0: 3892 8bbd 8389 16bd 391b 98bb d084 b1bd
000001f0: 1929 c8bd aa87 14bb e751 7f3d 7375 b0bd
00000200: c09a 92bd 650b babd 845e 823d cc0a 613d
00000210: 6c5d d03d 2f7e 30bd c2ac a5bd f1f0 323d
00000220: 38b6 f93c 961d 383d 28cb a53d ed34 d63d
00000230: 7c7d 73bd d575 843d 2589 60bc 7ad7 dbbd
00000240: a25d b7bd 37c5 b0bd bc3f cd3d 0d45 973d
00000250: f39b 983d 80e7 003d 0e53 cebb a11a b0bd
00000260: 2fb2 17bc 73dc 3fbd 1c7b 11bd cf61 cfbd
00000270: 8bfd ddbd 8b09 c93d f31f b0bd 37fe 9abd
00000280: 6cc6 abbd ee5c 15bc d428 853c ca9f 06bc
00000290: e87e 733d fb60 7e3d eff9 973c ece2 ad3d
000002a0: 0176 87bc 0f00 c53d a323 5e3d 167e 01bd
000002b0: f14a 143d 0408 3bbd 4da3 be3b 252a bbbd
000002c0: 0ee4 98bd 4cf7 ee3c c452 88bd c7e1 aabd
000002d0: b634 1f3d 11fa febb 263d 433d 19e3 b5bb
000002e0: 493f 613d dcfe 0cbd b5c8 883d 08cb 2e3d
000002f0: 5e32 b8bc dcd6 ad3d d39d 09bd ebba 7b3c
00000300: ea2c 463c 9539 323d aea3 9d3d 72fb 09bc
00000310: 71db a03d 0f95 883d e2c9 b53d d18d 6a3d
00000320: 74d2 d0bd 648d c43d df8f cbbd 1fc2 dabd
00000330: c2df 0fbd 82ee 48bc 91a9 40bc 8d85 7e3d
00000340: b843 33bd 7374 ac3c 67bc 81bc fdd9 8e3d
00000350: 81a6 e5bc 8cd0 8cbc 0239 803d 32ed e03d
00000360: 0e22 d53d a46b 7ebd 4ad7 4c3d c1b6 183d
00000370: 76d3 473d fee3 b6bc f50f 97bd 4ae5 d03d
00000380: 100f 463d 5546 da3c 62f0 2bbd 8627 8e3d
00000390: de8c 1dbd 30ab aebd 5b67 a93d 8592 96bd
000003a0: 85be a4bd 0a85 a4bd 101d cfbd 5de2 043d
000003b0: 8546 993c 92bf d43d db42 b13d c4e4 1abd
000003c0: 0eaa 9aba dd90 52bd e92a dabd 0c40 983d
000003d0: 544c a13d 9ee7 da3d 03e5 003d 3e42 093c
000003e0: 5706 d6bd 2ecb e7bc 3e75 b13d 4f2b 813b
000003f0: 833c 91bd fe58 54bd fa79 65b8 e561 10bd
-0.077252224 0.10639366 -0.004408637 -0.082047485 0.10272203 0.0069169807 -0.013827191 -0.10644251
-0.061514188 -0.078974895 0.09404914 0.01011137 -0.031788357 -0.026688127 -0.04367475 0.020229137
-0.06608725 0.0194551 0.07371024 0.10676021 -0.0035863926 -0.016934214 0.057885945 -0.017334241
-0.043190863 -0.050735764 0.08274412 -0.041672494 -0.006686246 0.08124612 -0.0006000534 -0.07272008
0.08373381 0.026042733 0.09862428 -0.1099901 -0.014713969 -0.047805045 0.10219435 0.09873515
0.08869429 -0.08737849 0.06234495 -0.0013673198 -0.0035142615 0.09704455 -0.06533634 -0.047675256
0.016369427 0.06237788 -0.09701979 0.013231522 -0.04427723 -0.10099215 -0.050024275 0.017326111
0.07081989 0.001803972 0.070268035 -0.042645775 0.08055946 0.07855004 0.09500802 0.109589845
-0.10202357 -0.107634895 -0.074985884 0.0505876 0.046577428 0.07892736 0.037676092 -0.10133682
-0.08905957 0.09663196 0.013185234 0.1009157 0.016977943 -0.015228444 0.078245245 -0.07900647
0.023210159 0.050123516 -0.085521564 0.01782202 -0.09379668 -0.06773866 -0.042940214 -0.024699429
-0.10054554 -0.074722946 0.048307575 0.0020781422 -0.02459795 0.037514653 -0.011964896 0.102134556
0.063387595 -0.11036389 -0.110477395 -0.09699769 -0.013010637 -0.10451422 0.10236185 -0.027041294
-0.012671519 -0.06203334 0.063949175 0.09693704 -0.012511703 -0.051548414 -0.052053504 0.00756852
-0.04367215 0.091092624 -0.09459409 0.04160287 0.10200995 -0.08122311 -0.0068298955 0.09719916
-0.068149984 -0.036752235 -0.004641917 -0.0866791 -0.09773464 -0.002266387 0.062333968 -0.08616152
-0.071584225 -0.090842046 0.06365684 0.054941937 0.10174069 -0.043089088 -0.080895916 0.04368681
0.030482396 0.04495009 0.080953896 0.104593135 -0.059445843 0.06467787 -0.013704573 -0.10734458
-0.08953406 -0.08631366 0.10021922 0.07386217 0.0745162 0.031470776 -0.006296522 -0.08598829
-0.009258791 -0.046841096 -0.035517797 -0.101260774 -0.10839375 0.09816273 -0.08599844 -0.07568019
-0.08387455 -0.009116394 0.01625482 -0.008216808 0.0594472 0.062104207 0.018551795 0.084905475
-0.01653576 0.09619152 0.054233205 -0.031614386 0.036204282 -0.04566194 0.005817807 -0.09138898
-0.07465373 0.029170655 -0.06656411 -0.08343845 0.03886863 -0.007781275 0.047665738 -0.005550754
0.054991994 -0.03442274 0.06678907 0.042674094 -0.022484954 0.08488247 -0.03359778 0.015364389
0.012095669 0.043511946 0.07697235 -0.008421766 0.07854355 0.06669056 0.08876397 0.057264153
-0.10196391 0.095972806 -0.099395506 -0.10681557 -0.0351255 -0.012263896 -0.011759178 0.062139083
-0.043765754 0.021051621 -0.015836908 0.06975172 -0.028033497 -0.017189287 0.062608734 0.109827414
0.10406886 -0.062114373 0.050010003 0.037283663 0.04878565 -0.022325512 -0.073760904 0.101999834
0.04835421 0.026644865 -0.041977294 0.06941132 -0.03846442 -0.08528745 0.082716666 -0.07352165
-0.08044151 -0.08033188 -0.10112965 0.03244244 0.018710384 0.10388102 0.0865533 -0.037815824
-0.0011799948 -0.051407684 -0.10652716 0.07434091 0.078758866 0.10688709 0.031468403 0.00837761
-0.10450428 -0.028295126 0.0866494 0.0039419304 -0.0709162 -0.051842682 -5.4711454e-05 -0.03524961
