gtcrn_micro/models/tflite/gtcrn_micro_full_integer_quant.tflite (tflite, 124728 bytes, 37 tensors)

tfl.pseudo_qconst i1 [192, 64]
000000 7f 00 00 00 00 00 00 00 00 00 00 00 00 00 00 00
       127 0 0 0 0 0 0 0 0 0 0 0 0 0 0 0
000010 00 00 00 00 00 00 00 00 00 00 00 00 00 00 00 00
       0 0 0 0 0 0 0 0 0 0 0 0 0 0 0 0
000020 00 00 00 00 00 00 00 00 00 00 00 00 00 00 00 00
       0 0 0 0 0 0 0 0 0 0 0 0 0 0 0 0
000030 00 00 00 00 00 00 00 00 00 00 00 00 00 00 00 00
       0 0 0 0 0 0 0 0 0 0 0 0 0 0 0 0
000040 00 7f 00 00 00 00 00 00 00 00 00 00 00 00 00 00
       0 127 0 0 0 0 0 0 0 0 0 0 0 0 0 0
000050 00 00 00 00 00 00 00 00 00 00 00 00 00 00 00 00
       0 0 0 0 0 0 0 0 0 0 0 0 0 0 0 0
000060 00 00 00 00 00 00 00 00 00 00 00 00 00 00 00 00
       0 0 0 0 0 0 0 0 0 0 0 0 0 0 0 0
000070 00 00 00 00 00 00 00 00 00 00 00 00 00 00 00 00
       0 0 0 0 0 0 0 0 0 0 0 0 0 0 0 0
000080 00 7f 7f 00 00 00 00 00 00 00 00 00 00 00 00 00
       0 127 127 0 0 0 0 0 0 0 0 0 0 0 0 0
000090 00 00 00 00 00 00 00 00 00 00 00 00 00 00 00 00
       0 0 0 0 0 0 0 0 0 0 0 0 0 0 0 0
0000a0 00 00 00 00 00 00 00 00 00 00 00 00 00 00 00 00
       0 0 0 0 0 0 0 0 0 0 0 0 0 0 0 0
0000b0 00 00 00 00 00 00 00 00 00 00 00 00 00 00 00 00
       0 0 0 0 0 0 0 0 0 0 0 0 0 0 0 0
0000c0 00 00 7f 00 00 00 00 00 00 00 00 00 00 00 00 00
       0 0 127 0 0 0 0 0 0 0 0 0 0 0 0 0
0000d0 00 00 00 00 00 00 00 00 00 00 00 00 00 00 00 00
       0 0 0 0 0 0 0 0 0 0 0 0 0 0 0 0
0000e0 00 00 00 00 00 00 00 00 00 00 00 00 00 00 00 00
       0 0 0 0 0 0 0 0 0 0 0 0 0 0 0 0
0000f0 00 00 00 00 00 00 00 00 00 00 00 00 00 00 00 00
       0 0 0 0 0 0 0 0 0 0 0 0 0 0 0 0

tfl.pseudo_qconst3 i1 [2, 1, 5, 16]
000000 9d 64 85 f6 32 de 2c 1e 02 d7 5d b5 08 d7 c8 46
       -99 100 -123 -10 50 -34 44 30 2 -41 93 -75 8 -41 -56 70
000010 9e 11 98 2c 40 ac 24 43 c5 38 7b 56 6d ae 81 2b
       -98 17 -104 44 64 -84 36 67 -59 56 123 86 109 -82 -127 43
000020 9b b9 ff fc 34 c1 32 83 7a 53 fb 34 84 67 6a e5
       -101 -71 -1 -4 52 -63 50 -125 122 83 -5 52 -124 103 106 -27
000030 68 2c aa 3a 1f 31 7a 9b 32 ce 05 0e 1c 89 8d b4
       104 44 -86 58 31 49 122 -101 50 -50 5 14 28 -119 -115 -76
000040 1e 48 46 34 84 67 1b 3e 92 66 5b 81 db 1c 22 72
       30 72 70 52 -124 103 27 62 -110 102 91 -127 -37 28 34 114
000050 90 8b cf e9 6f 34 c6 b0 70 00 85 ca b7 55 a7 27
       -112 -117 -49 -23 111 52 -58 -80 112 0 -123 -54 -73 85 -89 39
000060 86 7b 54 70 17 3c db 92 21 d2 06 10 4c c3 04 51
       -122 123 84 112 23 60 -37 -110 33 -46 6 16 76 -61 4 81
000070 cc e8 98 34 93 e1 c0 bc b2 71 8c f2 90 9c c7 19
       -52 -24 -104 52 -109 -31 -64 -68 -78 113 -116 -14 -112 -100 -57 25
000080 8e 53 5b 73 af 6a 85 81 d3 a7 8f 6c cf 43 55 99
       -114 83 91 115 -81 106 -123 -127 -45 -89 -113 108 -49 67 85 -103
000090 74 e0 c2 f2 55 16 9e 1f 71 ff 1f 8b 96 6e e3 37
       116 -32 -62 -14 85 22 -98 31 113 -1 31 -117 -106 110 -29 55

tfl.pseudo_qconst5 i1 [16, 1, 5, 16]
000000 a7 7b fb a1 77 08 f0 85 b9 a5 6d 0c db e1 ce 17
       -89 123 -5 -95 119 8 -16 -123 -71 -91 109 12 -37 -31 -50 23
000010 b4 16 55 7b fc ec 43 ec ce c5 60 d0 f8 5e ff ac
       -76 22 85 123 -4 -20 67 -20 -50 -59 96 -48 -8 94 -1 -84
000020 61 1e 72 81 ef c9 76 72 66 9b 48 fe fc 70 b5 c9
       97 30 114 -127 -17 -55 118 114 102 -101 72 -2 -4 112 -75 -55
000030 13 48 90 0f cd 8b c6 14 52 02 51 cf 5d 5b 6e 7f
       19 72 -112 15 -51 -117 -58 20 82 2 81 -49 93 91 110 127
000040 8a 84 a9 3a 36 5b 2c 8b 99 70 0f 75 14 ee 5a a5
       -118 -124 -87 58 54 91 44 -117 -103 112 15 117 20 -18 90 -91
000050 1b 3a 9e 14 94 b2 cf e4 8c aa 38 02 e4 2b f2 75
       27 58 -98 20 -108 -78 -49 -28 -116 -86 56 2 -28 43 -14 117
000060 49 81 81 90 f1 88 76 e1 f1 b9 4a 6f f2 c5 c4 09
       73 -127 -127 -112 -15 -120 118 -31 -15 -71 74 111 -14 -59 -60 9
000070 ce 69 93 30 75 a3 f8 70 b2 d6 fb 9c 90 fd 48 9d
       -50 105 -109 48 117 -93 -8 112 -78 -42 -5 -100 -112 -3 72 -99
000080 ae 98 49 3f 75 ce a3 32 23 34 5d 78 bc 4a f0 85
       -82 -104 73 63 117 -50 -93 50 35 52 93 120 -68 74 -16 -123
000090 99 9d 73 55 56 24 f9 9d f5 ca d7 8c 83 71 9d a9
       -103 -99 115 85 86 36 -7 -99 -11 -54 -41 -116 -125 113 -99 -87
0000a0 9f f5 13 f6 45 48 15 62 ed 6f 3f db 2a cb 07 96
       -97 -11 19 -10 69 72 21 98 -19 111 63 -37 42 -53 7 -106
0000b0 aa 22 b3 a0 2d f7 37 fa 40 d8 4d 31 e6 62 d9 12
       -86 34 -77 -96 45 -9 55 -6 64 -40 77 49 -26 98 -39 18
0000c0 0e 32 59 f6 5b 4d 67 42 8a 6f 8d 84 d7 f2 f2 48
       14 50 89 -10 91 77 103 66 -118 111 -115 -124 -41 -14 -14 72
0000d0 cd 18 ee 51 e0 ec 48 7f 78 b8 3a 2b 38 e6 ab 76
       -51 24 -18 81 -32 -20 72 127 120 -72 58 43 56 -26 -85 118
0000e0 38 1f cf 50 d4 9d 60 ab a3 a3 8b 26 16 78 64 d4
       56 31 -49 80 -44 -99 96 -85 -93 -93 -117 38 22 120 100 -44
0000f0 ff c5 87 55 5a 7a 24 0a 89 e0 63 04 af c5 00 d8
       -1 -59 -121 85 90 122 36 10 -119 -32 99 4 -81 -59 0 -40

tfl.pseudo_qconst7 i1 [8, 1, 1, 16]
000000 a7 a2 d2 6a 0a ee d0 f8 b8 b8 c4 e3 34 7f 21 6e
       -89 -94 -46 106 10 -18 -48 -8 -72 -72 -60 -29 52 127 33 110
000010 8f 12 81 be 58 d9 2b d3 c8 01 df 7a a1 a1 25 78
       -113 18 -127 -66 88 -39 43 -45 -56 1 -33 122 -95 -95 37 120
000020 3f fe bd 5e eb 6f 1c 59 68 eb 21 77 85 7f d4 68
       63 -2 -67 94 -21 111 28 89 104 -21 33 119 -123 127 -44 104
000030 43 99 0c 20 d3 be 7d 83 88 18 81 ad 7c b8 86 b8
       67 -103 12 32 -45 -66 125 -125 -120 24 -127 -83 124 -72 -122 -72
000040 7f df 5a 0d fc e2 33 0e 2f 6e 5a 00 b7 62 4d 26
       127 -33 90 13 -4 -30 51 14 47 110 90 0 -73 98 77 38
000050 d0 ef 70 b3 9e f2 09 0f 22 ce ac b7 5c 7b 81 2c
       -48 -17 112 -77 -98 -14 9 15 34 -50 -84 -73 92 123 -127 44
000060 88 81 e3 a7 c6 07 6a b1 49 89 fa d7 7a 70 32 4e
       -120 -127 -29 -89 -58 7 106 -79 73 -119 -6 -41 122 112 50 78
000070 7e 7d 2a e8 f9 7f 7f 6c 12 29 50 7a 01 f4 a7 32
       126 125 42 -24 -7 127 127 108 18 41 80 122 1 -12 -89 50

tfl.pseudo_qconst9 i1 [16, 3, 3, 16]
000000 93 25 bf 1e c1 da 63 0c da 33 2c 4f a3 40 7c 96
       -109 37 -65 30 -63 -38 99 12 -38 51 44 79 -93 64 124 -106
000010 8c b5 9b 5e 76 6d 1f f2 03 46 24 1c d5 f4 89 97
       -116 -75 -101 94 118 109 31 -14 3 70 36 28 -43 -12 -119 -105
000020 7c 0c ae a5 57 10 32 05 52 7c 07 96 2a 44 e6 b7
       124 12 -82 -91 87 16 50 5 82 124 7 -106 42 68 -26 -73
000030 cc 21 7b 7f 45 f5 9b 2b 6e 1c 91 04 7c 6b 13 ad
       -52 33 123 127 69 -11 -101 43 110 28 -111 4 124 107 19 -83
000040 aa 15 8d 60 1d 10 6d b6 a7 c0 1d 3d 75 27 7a 75
       -86 21 -115 96 29 16 109 -74 -89 -64 29 61 117 39 122 117
000050 e5 99 3b f3 56 f3 e8 bc 62 52 b4 41 d2 bd 59 d8
       -27 -103 59 -13 86 -13 -24 -68 98 82 -76 65 -46 -67 89 -40
000060 86 b7 af 85 73 77 31 72 af ff 82 2d 4e da 1f 07
       -122 -73 -81 -123 115 119 49 114 -81 -1 -126 45 78 -38 31 7
000070 3e 64 36 4e c1 ef 5d a9 77 54 05 59 bf a1 64 a1
       62 100 54 78 -63 -17 93 -87 119 84 5 89 -65 -95 100 -95
000080 33 96 30 1c 1a 31 b4 fb 35 70 4f 72 c1 27 5e 78
       51 -106 48 28 26 49 -76 -5 53 112 79 114 -63 39 94 120
000090 79 57 06 bf f2 be 2c ac 5f 84 ff 55 66 07 28 4f
       121 87 6 -65 -14 -66 44 -84 95 -124 -1 85 102 7 40 79
0000a0 11 f8 8b 26 12 e2 a3 c0 66 09 ec 3a b7 3b c6 eb
       17 -8 -117 38 18 -30 -93 -64 102 9 -20 58 -73 59 -58 -21
0000b0 b4 3c a0 9e 7a 43 71 67 7a 8a 86 8f 5a 9d 50 55
       -76 60 -96 -98 122 67 113 103 122 -118 -122 -113 90 -99 80 85
0000c0 75 6a 3d 04 d1 15 3f c6 e0 af b4 8b c5 1e 37 a3
       117 106 61 4 -47 21 63 -58 -32 -81 -76 -117 -59 30 55 -93
0000d0 dd 3a 4c 26 95 b7 01 96 f0 79 8b d2 4f f5 07 ab
       -35 58 76 38 -107 -73 1 -106 -16 121 -117 -46 79 -11 7 -85
0000e0 ff 93 e9 c3 cb 3f 23 c5 c4 ec 59 66 fd 3f c3 c1
       -1 -109 -23 -61 -53 63 35 -59 -60 -20 89 102 -3 63 -61 -63
0000f0 ab 24 1a 7d 16 a9 e4 09 67 c7 08 a0 bd 0b ac 42
       -85 36 26 125 22 -87 -28 9 103 -57 8 -96 -67 11 -84 66

tfl.pseudo_qconst11 i1 [16, 1, 1, 8]
000000 04 e3 06 1b 2e 81 47 33 d1 51 7f 85 2b 13 66 dc
       4 -29 6 27 46 -127 71 51 -47 81 127 -123 43 19 102 -36
000010 98 0e a9 8a 3b 92 5e 7f 19 2d 99 62 81 b0 73 a3
       -104 14 -87 -118 59 -110 94 127 25 45 -103 98 -127 -80 115 -93
000020 2a 36 f6 c7 d4 19 7f 76 b6 33 7b 81 f5 c1 2f 54
       42 54 -10 -57 -44 25 127 118 -74 51 123 -127 -11 -63 47 84
000030 a3 07 45 4f 81 96 8f 04 4b 44 ed 11 40 3f f0 81
       -93 7 69 79 -127 -106 -113 4 75 68 -19 17 64 63 -16 -127
000040 81 bf 60 4c 7b bb 30 57 6f 38 7c fa d8 d1 37 7f
       -127 -65 96 76 123 -69 48 87 111 56 124 -6 -40 -47 55 127
000050 84 81 2d b0 1b a7 e7 54 13 05 12 c7 eb 20 e2 81
       -124 -127 45 -80 27 -89 -25 84 19 5 18 -57 -21 32 -30 -127
000060 42 7f e1 1f 7f 06 9e ab 60 81 c7 77 78 a4 09 17
       66 127 -31 31 127 6 -98 -85 96 -127 -57 119 120 -92 9 23
000070 94 09 71 3e 56 7f f9 7a 7f 53 93 d6 77 5f 8c 2e
       -108 9 113 62 86 127 -7 122 127 83 -109 -42 119 95 -116 46

tfl.pseudo_qconst13 i1 [8, 1, 1, 16]
000000 74 81 fc 58 1d ff 0a 1c 10 6c 1a 1c 37 ae 1c cb
       116 -127 -4 88 29 -1 10 28 16 108 26 28 55 -82 28 -53
000010 81 ff 0a 64 55 28 e5 18 8f ea 09 c4 67 bc 10 32
       -127 -1 10 100 85 40 -27 24 -113 -22 9 -60 103 -68 16 50
000020 11 7f 01 56 f0 e6 bd 9c 8b c3 76 e0 40 7e 8f 50
       17 127 1 86 -16 -26 -67 -100 -117 -61 118 -32 64 126 -113 80
000030 08 1f 9d 7f a5 8a b5 3e b7 66 ac f3 a9 e2 23 63
       8 31 -99 127 -91 -118 -75 62 -73 102 -84 -13 -87 -30 35 99
000040 a6 68 9a 8a 92 2b d4 05 ca 1a e5 7f a9 0c 21 0f
       -90 104 -102 -118 -110 43 -44 5 -54 26 -27 127 -87 12 33 15
000050 98 1b e2 c5 44 02 0a fe 81 81 3f 9f 0e ec 9c 7b
       -104 27 -30 -59 68 2 10 -2 -127 -127 63 -97 14 -20 -100 123
000060 7c 63 bd 7f 66 b0 95 02 98 83 b1 9d 4b bc b2 86
       124 99 -67 127 102 -80 -107 2 -104 -125 -79 -99 75 -68 -78 -122
000070 7f 15 a4 38 c2 04 a4 59 7c 2f d9 34 e6 bd 87 6e
       127 21 -92 56 -62 4 -92 89 124 47 -39 52 -26 -67 -121 110

tfl.pseudo_qconst15 i1 [16, 3, 3, 16]
000000 00 14 ec 26 34 f9 a0 72 45 6a c8 cf 3e 70 b4 91
       0 20 -20 38 52 -7 -96 114 69 106 -56 -49 62 112 -76 -111
000010 13 0b 06 22 32 c3 fe bf de 67 a4 53 27 10 e8 28
       19 11 6 34 50 -61 -2 -65 -34 103 -92 83 39 16 -24 40
000020 7a a6 41 cf 78 18 0b 7f 66 b7 b4 48 53 9f 0e 75
       122 -90 65 -49 120 24 11 127 102 -73 -76 72 83 -97 14 117
000030 c0 e2 1b 22 27 d6 90 b4 83 37 07 29 fb 23 7f 95
       -64 -30 27 34 39 -42 -112 -76 -125 55 7 41 -5 35 127 -107
000040 c5 ae 8a c0 5e 0e c3 f3 1d d6 1d b7 1d 9b 67 2f
       -59 -82 -118 -64 94 14 -61 -13 29 -42 29 -73 29 -101 103 47
000050 f0 e1 14 4a 01 da b3 b2 47 a2 21 9c 1e c8 a8 f7
       -16 -31 20 74 1 -38 -77 -78 71 -94 33 -100 30 -56 -88 -9
000060 a4 f9 0a b6 3e a8 cf 4b 1e df 4f d6 ee fd 30 dc
       -92 -7 10 -74 62 -88 -49 75 30 -33 79 -42 -18 -3 48 -36
000070 05 0f 63 8a eb 58 bc 06 04 09 3a de 96 6e 55 a3
       5 15 99 -118 -21 88 -68 6 4 9 58 -34 -106 110 85 -93
000080 3a a7 48 93 07 10 7e 62 34 46 c3 0d 3d 5f b2 c5
       58 -89 72 -109 7 16 126 98 52 70 -61 13 61 95 -78 -59
000090 8b ad 36 a3 da 8d f4 2d 2b 28 91 e8 3d 38 6d 66
       -117 -83 54 -93 -38 -115 -12 45 43 40 -111 -24 61 56 109 102
0000a0 e3 cb bf 27 1a a9 12 45 5b 67 39 97 e5 1a ef 81
       -29 -53 -65 39 26 -87 18 69 91 103 57 -105 -27 26 -17 -127
0000b0 5c ba f4 1a 70 55 03 b3 16 1d 9f e8 fd fc e9 b4
       92 -70 -12 26 112 85 3 -77 22 29 -97 -24 -3 -4 -23 -76
0000c0 d1 c3 7f a4 87 73 6b e6 00 14 d7 b9 6b 22 de 2d
       -47 -61 127 -92 -121 115 107 -26 0 20 -41 -71 107 34 -34 45
0000d0 71 c6 8b e4 63 02 8a 12 f3 9f 6b 8c 7f ce ad ae
       113 -58 -117 -28 99 2 -118 18 -13 -97 107 -116 127 -50 -83 -82
0000e0 38 26 4e 31 ca 42 53 28 db 3a 64 db 1d 39 8d d2
       56 38 78 49 -54 66 83 40 -37 58 100 -37 29 57 -115 -46
0000f0 5d ee 77 4a 65 1d 68 b6 af aa 10 70 40 48 78 78
       93 -18 119 74 101 29 104 -74 -81 -86 16 112 64 72 120 120

tfl.pseudo_qconst17 i1 [16, 1, 1, 8]
000000 de fc 7f eb f5 c4 22 bd 7f bf b1 58 39 72 53 19
       -34 -4 127 -21 -11 -60 34 -67 127 -65 -79 88 57 114 83 25
000010 0b 7f 45 36 c2 d5 ee ff 7f 29 01 26 b8 b3 d7 22
       11 127 69 54 -62 -43 -18 -1 127 41 1 38 -72 -77 -41 34
000020 5b 7f 20 de 1a 45 3c 24 65 ad 7f ae 07 27 32 2b
       91 127 32 -34 26 69 60 36 101 -83 127 -82 7 39 50 43
000030 f3 2d 84 7f 85 69 25 b9 50 bc 0c 19 4c 7f 92 02
       -13 45 -124 127 -123 105 37 -71 80 -68 12 25 76 127 -110 2
000040 75 9e 4f 99 47 81 8d 5c 7f 32 4b c7 32 6c e2 6b
       117 -98 79 -103 71 -127 -115 92 127 50 75 -57 50 108 -30 107
000050 13 7e 81 11 43 3f 83 89 06 6b 7f cd 7d 40 21 76
       19 126 -127 17 67 63 -125 -119 6 107 127 -51 125 64 33 118
000060 49 bb 7f 46 0e 99 4d 8b 28 81 ed fb 7c 9c 21 54
       73 -69 127 70 14 -103 77 -117 40 -127 -19 -5 124 -100 33 84
000070 c8 16 20 bf da e8 c8 7f 30 07 82 3b 82 33 13 81
       -56 22 32 -65 -38 -24 -56 127 48 7 -126 59 -126 51 19 -127

tfl.pseudo_qconst19 i1 [8, 1, 1, 16]
000000 82 11 20 74 b1 4e e3 92 97 2c 68 16 d4 8b 81 04
       -126 17 32 116 -79 78 -29 -110 -105 44 104 22 -44 -117 -127 4
000010 d8 b4 55 97 db 01 3e bc 7f d6 a6 05 26 4d 7d 14
       -40 -76 85 -105 -37 1 62 -68 127 -42 -90 5 38 77 125 20
000020 b0 d7 81 a0 59 bb dc 10 28 7d 3b 78 a0 82 31 cd
       -80 -41 -127 -96 89 -69 -36 16 40 125 59 120 -96 -126 49 -51
000030 a4 bb 72 cd 0a 57 0c 06 f9 fd 9a 58 3d 60 7f 9a
       -92 -69 114 -51 10 87 12 6 -7 -3 -102 88 61 96 127 -102
000040 9c c9 4b bb 3c 46 fb 81 bb 0a d4 e8 4a b3 0f 36
       -100 -55 75 -69 60 70 -5 -127 -69 10 -44 -24 74 -77 15 54
000050 1b c5 7f 23 2d e0 8c 09 0f 99 0e 5e e2 fc 8f bf
       27 -59 127 35 45 -32 -116 9 15 -103 14 94 -30 -4 -113 -65
000060 8e db ed 04 17 7a ae c3 81 dc 68 d8 d9 72 cc fd
       -114 -37 -19 4 23 122 -82 -61 -127 -36 104 -40 -39 114 -52 -3
000070 2b 23 eb ca 7a 8e 35 ee 81 d4 74 bb 05 b8 cf b3
       43 35 -21 -54 122 -114 53 -18 -127 -44 116 -69 5 -72 -49 -77

tfl.pseudo_qconst20 i1 [16] scale=0.003921549 zero_point=-128
000000 7f 7f 7f 7f 7f 7f 7f 7f 7f 7f 7f 7f 7f 7f 7f 7f
       0.99999493 0.99999493 0.99999493 0.99999493 0.99999493 0.99999493 0.99999493 0.99999493 0.99999493 0.99999493 0.99999493 0.99999493 0.99999493 0.99999493 0.99999493 0.99999493

tfl.pseudo_qconst22 i1 [16, 3, 3, 16]
000000 0e 51 1f 1b 63 03 b9 83 2a bd 88 1d f0 96 7f c9
       14 81 31 27 99 3 -71 -125 42 -67 -120 29 -16 -106 127 -55
000010 24 64 a9 0d 25 8a 6a ea 6b 64 ee b4 af 9b 4a 48
       36 100 -87 13 37 -118 106 -22 107 100 -18 -76 -81 -101 74 72
000020 8e be 9e 5d 96 b0 4e a9 bc 03 44 f9 fa 85 f3 73
       -114 -66 -98 93 -106 -80 78 -87 -68 3 68 -7 -6 -123 -13 115
000030 1e dc 42 67 64 67 3f 49 67 df 73 93 27 f9 f5 84
       30 -36 66 103 100 103 63 73 103 -33 115 -109 39 -7 -11 -124
000040 45 a7 b8 8f 84 dd 55 56 d4 42 ce fd 62 62 52 ec
       69 -89 -72 -113 -124 -35 85 86 -44 66 -50 -3 98 98 82 -20
000050 3c f4 ef 2b d1 4a dc 47 f1 62 55 a5 de bf bb d7
       60 -12 -17 43 -47 74 -36 71 -15 98 85 -91 -34 -65 -69 -41
000060 66 78 4a 00 5c 24 5b ef 0c 4c 74 ae ce 04 7a 09
       102 120 74 0 92 36 91 -17 12 76 116 -82 -50 4 122 9
000070 3c 07 0d 7b ee ec b8 4a 74 eb 27 05 86 40 df 7d
       60 7 13 123 -18 -20 -72 74 116 -21 39 5 -122 64 -33 125
000080 26 7b 58 6a 1a 6d 75 e4 21 b9 1e 34 12 32 ed fa
       38 123 88 106 26 109 117 -28 33 -71 30 52 18 50 -19 -6
000090 e5 b0 83 ab ea 6d 8b c2 ef 78 e9 e6 ca ab 4e 5b
       -27 -80 -125 -85 -22 109 -117 -62 -17 120 -23 -26 -54 -85 78 91
0000a0 c9 a2 8b 9b a9 76 85 11 04 b7 8a 50 8a 6d ac 1d
       -55 -94 -117 -101 -87 118 -123 17 4 -73 -118 80 -118 109 -84 29
0000b0 a0 92 b3 7c 5b e8 8f 1f 49 69 da 19 a9 1e 3c ac
       -96 -110 -77 124 91 -24 -113 31 73 105 -38 25 -87 30 60 -84
0000c0 ad be 5f 25 a4 d4 15 28 31 86 aa 86 39 9a 2a 7e
       -83 -66 95 37 -92 -44 21 40 49 -122 -86 -122 57 -102 42 126
0000d0 48 a7 32 a5 6f 09 fe 43 16 68 7d f2 91 b9 46 56
       72 -89 50 -91 111 9 -2 67 22 104 125 -14 -111 -71 70 86
0000e0 9e d9 1f ff 99 06 0d 8d 6c 14 31 79 fa 9e 74 30
       -98 -39 31 -1 -103 6 13 -115 108 20 49 121 -6 -98 116 48
0000f0 13 41 ae 98 81 06 34 bf 0f ab a7 a7 51 af f0 28
       19 65 -82 -104 -127 6 52 -65 15 -85 -89 -89 81 -81 -16 40

tfl.pseudo_qconst24 i1 [16, 1, 1, 8]
000000 be 81 0e 1b e7 21 d3 bd 72 36 58 25 e6 7f c5 0b
       -66 -127 14 27 -25 33 -45 -67 114 54 88 37 -26 127 -59 11
000010 c7 81 12 34 e1 1b cc 12 0f 7f 3f ee af 20 2c fe
       -57 -127 18 52 -31 27 -52 18 15 127 63 -18 -81 32 44 -2
000020 81 16 4a 88 67 87 19 86 57 93 25 d4 4d 97 a4 81
       -127 22 74 -120 103 -121 25 -122 87 -109 37 -44 77 -105 -92 -127
000030 df 36 27 8d 7f 06 07 37 89 45 7e c9 3d 37 81 af
       -33 54 39 -115 127 6 7 55 -119 69 126 -55 61 55 -127 -81
000040 77 31 57 c8 7f e3 92 b2 c2 50 7f 0d 84 be 0b 6d
       119 49 87 -56 127 -29 -110 -78 -62 80 127 13 -124 -66 11 109
000050 c9 e1 7f db 45 5c 1b 34 7f fc 46 89 fe 48 ed 54
       -55 -31 127 -37 69 92 27 52 127 -4 70 -119 -2 72 -19 84
000060 bb 81 39 9d 79 27 ec 04 08 2f cf eb 24 5e 7f 19
       -69 -127 57 -99 121 39 -20 4 8 47 -49 -21 36 94 127 25
000070 0d c9 b6 06 26 7f cc 9d d0 19 81 df 3d 48 96 c1
       13 -55 -74 6 38 127 -52 -99 -48 25 -127 -33 61 72 -106 -63

tfl.pseudo_qconst26 i1 [16, 1, 1, 16]
000000 c5 06 6b 36 5f 75 c7 2c 7f d4 9d 2b db 06 e2 29
       -59 6 107 54 95 117 -57 44 127 -44 -99 43 -37 6 -30 41
000010 44 26 78 25 fe 94 4c b3 51 89 ff 63 d1 7f d7 18
       68 38 120 37 -2 -108 76 -77 81 -119 -1 99 -47 127 -41 24
000020 76 bb d0 3d 02 81 75 13 04 e4 3b 6b ae 50 52 34
       118 -69 -48 61 2 -127 117 19 4 -28 59 107 -82 80 82 52
000030 83 18 4a ae f6 f5 38 a1 d6 59 a9 5a e7 4e 7f 31
       -125 24 74 -82 -10 -11 56 -95 -42 89 -87 90 -25 78 127 49
000040 7f 57 a6 44 71 0b 31 f3 41 2f 6a 00 c3 f4 cc 6b
       127 87 -90 68 113 11 49 -13 65 47 106 0 -61 -12 -52 107
000050 7e aa 5e 0d ca 84 c8 5b b3 dd 2e e2 37 31 0a 7f
       126 -86 94 13 -54 -124 -56 91 -77 -35 46 -30 55 49 10 127
000060 de 81 20 e7 a6 3c d2 2b 15 c9 8d 62 f9 9e 63 6d
       -34 -127 32 -25 -90 60 -46 43 21 -55 -115 98 -7 -98 99 109
000070 0e b5 97 91 7f 2f 25 51 5f 38 1b a6 e0 52 fe 46
       14 -75 -105 -111 127 47 37 81 95 56 27 -90 -32 82 -2 70
000080 21 a8 66 9a 93 56 78 3f b0 64 d7 6d f0 81 65 30
       33 -88 102 -102 -109 86 120 63 -80 100 -41 109 -16 -127 101 48
000090 f6 fc d9 0a 93 5a cd 27 52 81 bd 37 e8 10 c0 cd
       -10 -4 -39 10 -109 90 -51 39 82 -127 -67 55 -24 16 -64 -51
0000a0 21 c2 eb 58 7f 6c 44 d0 a9 a9 5c dc 53 a2 7d 2d
       33 -62 -21 88 127 108 68 -48 -87 -87 92 -36 83 -94 125 45
0000b0 52 af 44 5d a3 d5 95 f5 01 d3 53 5e 81 ee 20 fe
       82 -81 68 93 -93 -43 -107 -11 1 -45 83 94 -127 -18 32 -2
0000c0 ca a6 cb e8 81 3d 78 44 60 c0 69 82 dd 22 b7 6c
       -54 -90 -53 -24 -127 61 120 68 96 -64 105 -126 -35 34 -73 108
0000d0 b3 aa 93 b4 66 f0 67 8a 5e 81 a1 a2 8c 87 6c 91
       -77 -86 -109 -76 102 -16 103 -118 94 -127 -95 -94 -116 -121 108 -111
0000e0 92 18 ed 70 95 12 34 ef 03 98 62 9a 7e 7f 4e 8c
       -110 24 -19 112 -107 18 52 -17 3 -104 98 -102 126 127 78 -116
0000f0 b8 d6 c6 ee 46 e6 10 1a 31 6b 8d 63 f5 81 bc dd
       -72 -42 -58 -18 70 -26 16 26 49 107 -115 99 -11 -127 -68 -35

tfl.pseudo_qconst28 i1 [1, 3, 1, 16]
000000 81 1a 37 d0 c2 7f 21 ca e3 b1 81 1a 7f 7f 81 58
       -127 26 55 -48 -62 127 33 -54 -29 -79 -127 26 127 127 -127 88
000010 48 81 77 e5 7f b2 ec 81 81 74 70 b6 55 b9 58 56
       72 -127 119 -27 127 -78 -20 -127 -127 116 112 -74 85 -71 88 86
000020 c8 85 81 7f af 73 81 2d 8d 7f 14 81 ae d9 2a 7f
       -56 -123 -127 127 -81 115 -127 45 -115 127 20 -127 -82 -39 42 127

tfl.pseudo_qconst30 i1 [16, 1, 1, 16]
000000 7d fa ba 5b bb 42 1f a3 1c 9d 94 d8 7c 7f cc b2
       125 -6 -70 91 -69 66 31 -93 28 -99 -108 -40 124 127 -52 -78
000010 e5 36 16 a5 4f eb f6 7f 03 b8 8b 0e bc b0 a8 8c
       -27 54 22 -91 79 -21 -10 127 3 -72 -117 14 -68 -80 -88 -116
000020 b2 44 a4 64 7f 4e 76 74 7a fc 07 aa 8c d7 5c 38
       -78 68 -92 100 127 78 118 116 122 -4 7 -86 -116 -41 92 56
000030 4b 4e 41 19 0e ff 94 e9 fd 9a 67 dc d1 7f 9c 3a
       75 78 65 25 14 -1 -108 -23 -3 -102 103 -36 -47 127 -100 58
000040 43 fe 69 fc 77 f3 d1 1f 47 94 7f d9 1b cf 2a 26
       67 -2 105 -4 119 -13 -47 31 71 -108 127 -39 27 -49 42 38
000050 08 f3 d5 cf 1e 0e 5e ca 96 d5 7f a8 41 91 b6 6f
       8 -13 -43 -49 30 14 94 -54 -106 -43 127 -88 65 -111 -74 111
000060 8d d9 63 4d e7 62 8f 3e 8a 7f 19 50 26 45 4a 44
       -115 -39 99 77 -25 98 -113 62 -118 127 25 80 38 69 74 68
000070 07 e5 01 f9 6e 5e f3 51 88 7f 73 3e 70 15 c7 90
       7 -27 1 -7 110 94 -13 81 -120 127 115 62 112 21 -57 -112
000080 00 ba c4 20 30 a4 b4 be 8e e8 81 25 21 5b 66 c3
       0 -70 -60 32 48 -92 -76 -66 -114 -24 -127 37 33 91 102 -61
000090 3e 84 f3 79 73 78 d4 23 00 5d 20 13 ec f0 81 e3
       62 -124 -13 121 115 120 -44 35 0 93 32 19 -20 -16 -127 -29
0000a0 b4 57 cd 02 d6 58 97 7f 70 4d 38 2c 4f 58 bf 15
       -76 87 -51 2 -42 88 -105 127 112 77 56 44 79 88 -65 21
0000b0 c3 7f 57 37 c0 ae e0 97 3d b1 d0 86 bf 27 d9 c3
       -61 127 87 55 -64 -82 -32 -105 61 -79 -48 -122 -65 39 -39 -61
0000c0 9b d2 ee 7f 2f b5 7d 65 bc ee 58 71 b1 5e 09 b5
       -101 -46 -18 127 47 -75 125 101 -68 -18 88 113 -79 94 9 -75
0000d0 ec 81 1d 7b 90 ab 0a 32 2b 75 dc 64 0f 1c 5e 69
       -20 -127 29 123 -112 -85 10 50 43 117 -36 100 15 28 94 105
0000e0 ef 66 79 1f 97 22 e6 79 18 6a 2a 34 79 81 cd 7b
       -17 102 121 31 -105 34 -26 121 24 106 42 52 121 -127 -51 123
0000f0 0a ec 3e 82 a8 dc dd 71 58 8d 19 81 b0 d7 05 9f
       10 -20 62 -126 -88 -36 -35 113 88 -115 25 -127 -80 -41 5 -97

tfl.pseudo_qconst32 i1 [16, 1, 1, 16]
000000 47 d4 f9 e9 ec 54 81 76 f4 54 61 0f c4 73 b3 32
       71 -44 -7 -23 -20 84 -127 118 -12 84 97 15 -60 115 -77 50
000010 7a 55 62 23 aa 7f ed 2f 19 e5 06 f2 ec 11 67 cc
       122 85 98 35 -86 127 -19 47 25 -27 6 -14 -20 17 103 -52
000020 78 02 14 15 84 47 4d 66 9a 81 c3 94 19 b9 4c c7
       120 2 20 21 -124 71 77 102 -102 -127 -61 -108 25 -71 76 -57
000030 8b 28 3a 67 81 d3 05 c0 f1 46 b9 d9 93 e1 27 2f
       -117 40 58 103 -127 -45 5 -64 -15 70 -71 -39 -109 -31 39 47
000040 e9 f5 f7 92 a4 f9 e7 c9 22 cb 55 7a a3 83 2e 7f
       -23 -11 -9 -110 -92 -7 -25 -55 34 -53 85 122 -93 -125 46 127
000050 5c 96 48 fa 91 0d e9 1e 68 fe f8 29 a1 bb 81 2f
       92 -106 72 -6 -111 13 -23 30 104 -2 -8 41 -95 -69 -127 47
000060 8c 24 e7 3c f4 20 18 74 a5 61 5e 98 94 3b 9e 7f
       -116 36 -25 60 -12 32 24 116 -91 97 94 -104 -108 59 -98 127
000070 d1 42 ce 32 60 ad db 42 a2 7b 81 a4 50 43 c0 7f
       -47 66 -50 50 96 -83 -37 66 -94 123 -127 -92 80 67 -64 127
000080 17 75 99 0e db 04 81 19 60 c0 35 18 63 ab ef 75
       23 117 -103 14 -37 4 -127 25 96 -64 53 24 99 -85 -17 117
000090 08 0a 59 96 d4 46 ea 7f 63 ae fe 19 05 63 e5 16
       8 10 89 -106 -44 70 -22 127 99 -82 -2 25 5 99 -27 22
0000a0 55 31 e5 e8 63 ef 23 81 33 af b9 49 85 f9 39 e5
       85 49 -27 -24 99 -17 35 -127 51 -81 -71 73 -123 -7 57 -27
0000b0 38 0b bb 03 f7 5b fd 4c 92 6c e1 7f 97 72 a6 69
       56 11 -69 3 -9 91 -3 76 -110 108 -31 127 -105 114 -90 105
0000c0 43 b1 9d 0a 61 6d a7 89 c2 03 90 1c 81 04 c5 2f
       67 -79 -99 10 97 109 -89 -119 -62 3 -112 28 -127 4 -59 47
0000d0 9a 8b 7a 33 7f 2b bb a2 d1 3a cd a3 92 b2 bd 28
       -102 -117 122 51 127 43 -69 -94 -47 58 -51 -93 -110 -78 -67 40
0000e0 b7 5c c8 82 8d e4 ca 10 66 7f be 4b c9 51 75 cc
       -73 92 -56 -126 -115 -28 -54 16 102 127 -66 75 -55 81 117 -52
0000f0 9a 1b 97 e8 f4 e1 81 d6 d9 49 0c 54 ab 71 a2 76
       -102 27 -105 -24 -12 -31 -127 -42 -39 73 12 84 -85 113 -94 118

tfl.pseudo_qconst34 i1 [1, 3, 1, 16]
000000 81 dd fe 16 34 0c 81 5c 22 5f 1d 81 a1 81 e1 9d
       -127 -35 -2 22 52 12 -127 92 34 95 29 -127 -95 -127 -31 -99
000010 4b da 81 7f 81 a9 e1 30 7f 28 ad 83 35 79 87 7b
       75 -38 -127 127 -127 -87 -31 48 127 40 -83 -125 53 121 -121 123
000020 ab 7f e1 57 14 81 ee 7f 98 81 81 3a 7f cd 7f 7f
       -85 127 -31 87 20 -127 -18 127 -104 -127 -127 58 127 -51 127 127

tfl.pseudo_qconst36 i1 [16, 1, 1, 16]
000000 87 af c4 c8 81 46 b2 5b 50 3a 96 e7 15 84 30 24
       -121 -81 -60 -56 -127 70 -78 91 80 58 -106 -25 21 -124 48 36
000010 84 ff fe c0 f5 a4 81 ca f9 d0 a9 16 76 77 76 7d
       -124 -1 -2 -64 -11 -92 -127 -54 -7 -48 -87 22 118 119 118 125
000020 3a 27 bb 00 c5 9d 3f 8f 7f b0 78 27 8f 62 59 d7
       58 39 -69 0 -59 -99 63 -113 127 -80 120 39 -113 98 89 -41
000030 8a 89 06 ac 32 d8 2f ad 97 d4 10 7f 27 87 be ed
       -118 -119 6 -84 50 -40 47 -83 -105 -44 16 127 39 -121 -66 -19
000040 f6 0e 70 f3 f6 22 20 39 eb 6d f9 ff 08 9f 81 86
       -10 14 112 -13 -10 34 32 57 -21 109 -7 -1 8 -97 -127 -122
000050 b0 df 53 73 a2 74 cf 1f 36 fd 68 81 d3 fe 21 eb
       -80 -33 83 115 -94 116 -49 31 54 -3 104 -127 -45 -2 33 -21
000060 f2 30 72 8e d3 73 81 0e 57 35 b2 36 30 b5 a6 ed
       -14 48 114 -114 -45 115 -127 14 87 53 -78 54 48 -75 -90 -19
000070 5c 2a 95 bc 9a 81 36 45 78 02 1c 9a c0 b0 00 e2
       92 42 -107 -68 -102 -127 54 69 120 2 28 -102 -64 -80 0 -30
000080 e1 70 4d 88 7f 73 a4 7c ee f1 a4 03 46 f1 ee f2
       -31 112 77 -120 127 115 -92 124 -18 -15 -92 3 70 -15 -18 -14
000090 58 99 dc 10 84 c6 91 46 7f 59 f9 df bb a5 2b 59
       88 -103 -36 16 -124 -58 -111 70 127 89 -7 -33 -69 -91 43 89
0000a0 84 66 e4 75 55 4b 73 00 c6 3f 81 62 b5 33 d6 69
       -124 102 -28 117 85 75 115 0 -58 63 -127 98 -75 51 -42 105
0000b0 67 08 8f 24 90 b9 00 cf 21 7f 7c 19 63 6c fe 9d
       103 8 -113 36 -112 -71 0 -49 33 127 124 25 99 108 -2 -99
0000c0 85 90 14 50 ab 01 1d 3b 3f 13 ed 27 f8 81 af 67
       -123 -112 20 80 -85 1 29 59 63 19 -19 39 -8 -127 -81 103
0000d0 e2 65 d7 e4 e9 4e 39 9b d6 5e fb ba 49 7f ae a2
       -30 101 -41 -28 -23 78 57 -101 -42 94 -5 -70 73 127 -82 -94
0000e0 f1 90 14 a1 19 7f bf 91 d5 62 52 70 b7 5c 5d ab
       -15 -112 20 -95 25 127 -65 -111 -43 98 82 112 -73 92 93 -85
0000f0 b4 99 2a 07 2c 9f c8 0c d1 e1 f2 69 48 11 81 d4
       -76 -103 42 7 44 -97 -56 12 -47 -31 -14 105 72 17 -127 -44

tfl.pseudo_qconst38 i1 [16, 1, 1, 16]
000000 e7 8a 81 6b f0 9f 08 0c 60 a3 de c2 a8 15 c4 a2
       -25 -118 -127 107 -16 -97 8 12 96 -93 -34 -62 -88 21 -60 -94
000010 58 79 c2 06 97 7f 93 c5 4a 4f 8a 8a a9 eb bb b5
       88 121 -62 6 -105 127 -109 -59 74 79 -118 -118 -87 -21 -69 -75
000020 64 b8 8a e4 be 4e e6 40 7f 04 16 c0 ab 23 bb ec
       100 -72 -118 -28 -66 78 -26 64 127 4 22 -64 -85 35 -69 -20
000030 99 1c 11 71 7b ed 31 3b d2 8f a6 81 4e 10 86 4f
       -103 28 17 113 123 -19 49 59 -46 -113 -90 -127 78 16 -122 79
000040 ce 26 4a 19 d6 fd 18 42 71 5c a6 bc da 81 bf 0a
       -50 38 74 25 -42 -3 24 66 113 92 -90 -68 -38 -127 -65 10
000050 9e 3f 88 b9 39 81 59 3a 31 b9 81 5c 25 f2 54 11
       -98 63 -120 -71 57 -127 89 58 49 -71 -127 92 37 -14 84 17
000060 23 a2 81 52 d0 1d f6 e2 a8 04 5a 02 2a 86 1a a1
       35 -94 -127 82 -48 29 -10 -30 -88 4 90 2 42 -122 26 -95
000070 18 55 d6 b6 ea 3f cf 43 96 d1 7f c9 2e be 90 e3
       24 85 -42 -74 -22 63 -49 67 -106 -47 127 -55 46 -66 -112 -29
000080 87 50 10 6d b8 a1 a8 d1 7d ce 40 8d aa 81 f3 e6
       -121 80 16 109 -72 -95 -88 -47 125 -50 64 -115 -86 -127 -13 -26
000090 08 30 7f 30 17 f1 0b 9d d7 cb 45 65 33 4b db 92
       8 48 127 48 23 -15 11 -99 -41 -53 69 101 51 75 -37 -110
0000a0 d7 d3 63 7f 9c 0a c9 ba 29 d5 03 7f 91 4c be 43
       -41 -45 99 127 -100 10 -55 -70 41 -43 3 127 -111 76 -66 67
0000b0 ff 13 c6 5d a0 3f 7a 29 99 6e 4f 7f 9d 55 c5 52
       -1 19 -58 93 -96 63 122 41 -103 110 79 127 -99 85 -59 82
0000c0 06 ec 7f a3 8d 1f 3f a6 3c 1c cd 31 6f 9e 2f 58
       6 -20 127 -93 -115 31 63 -90 60 28 -51 49 111 -98 47 88
0000d0 1c 5c 32 bd 12 8f 48 a5 19 b3 bc be 40 36 7f f8
       28 92 50 -67 18 -113 72 -91 25 -77 -68 -66 64 54 127 -8
0000e0 52 de b0 7f 47 a4 7f e0 09 78 99 8d 26 0e 1b ea
       82 -34 -80 127 71 -92 127 -32 9 120 -103 -115 38 14 27 -22
0000f0 3d 3b 3b 6f bd 8e 7f 2c f7 d7 a8 69 c7 ac 09 63
       61 59 59 111 -67 -114 127 44 -9 -41 -88 105 -57 -84 9 99

tfl.pseudo_qconst40 i1 [1, 3, 1, 16]
000000 0c 74 dd 43 5f 81 31 79 60 7f 07 e1 2d 4b 35 ee
       12 116 -35 67 95 -127 49 121 96 127 7 -31 45 75 53 -18
000010 43 af 68 10 7f a1 7f 64 81 54 8a 81 7f 60 68 94
       67 -81 104 16 127 -95 127 100 -127 84 -118 -127 127 96 104 -108
000020 81 81 81 81 ec bb 8c 7f 1d 87 7f 62 68 81 81 81
       -127 -127 -127 -127 -20 -69 -116 127 29 -121 127 98 104 -127 -127 -127

tfl.pseudo_qconst42 i1 [16, 1, 1, 16]
000000 65 35 1d 7f d6 2a 1e 8d 1c 1c e0 bc 7f ba 2a f2
       101 53 29 127 -42 42 30 -115 28 28 -32 -68 127 -70 42 -14
000010 72 bb 77 18 8c 69 a2 1d 81 68 4a a7 b2 0a 36 f4
       114 -69 119 24 -116 105 -94 29 -127 104 74 -89 -78 10 54 -12
000020 cb a9 81 0a 60 7b d7 38 f0 ff 99 8c 59 98 90 cb
       -53 -87 -127 10 96 123 -41 56 -16 -1 -103 -116 89 -104 -112 -53
000030 d6 92 15 66 bd 7f 39 70 e5 eb 5a 83 24 5f 31 70
       -42 -110 21 102 -67 127 57 112 -27 -21 90 -125 36 95 49 112
000040 02 da 24 c2 2d 81 9b d7 3d b5 95 28 1c d2 f9 20
       2 -38 36 -62 45 -127 -101 -41 61 -75 -107 40 28 -46 -7 32
000050 4d e2 9a 2b ad 15 11 0e 81 ab 8e 43 e8 2f a4 f6
       77 -30 -102 43 -83 21 17 14 -127 -85 -114 67 -24 47 -92 -10
000060 45 c2 22 cb 30 b2 61 34 40 91 40 77 67 81 2f 5b
       69 -62 34 -53 48 -78 97 52 64 -111 64 119 103 -127 47 91
000070 b5 50 6f bd b0 4f 75 7b c0 06 81 b9 70 22 7d 70
       -75 80 111 -67 -80 79 117 123 -64 6 -127 -71 112 34 125 112
000080 04 7f 17 0a 2d 25 e3 45 12 9c c1 30 bf 11 56 70
       4 127 23 10 45 37 -29 69 18 -100 -63 48 -65 17 86 112
000090 2f 77 88 4d 50 81 f7 1b 7a a9 7e 13 19 91 50 dc
       47 119 -120 77 80 -127 -9 27 122 -87 126 19 25 -111 80 -36
0000a0 0c b6 9a 91 72 4d 59 ad 8c ab 81 bc 3e 9f 8c 11
       12 -74 -102 -111 114 77 89 -83 -116 -85 -127 -68 62 -97 -116 17
0000b0 7f 72 21 c9 8c 21 8d 90 5d ee ec e7 36 e2 92 c0
       127 114 33 -55 -116 33 -115 -112 93 -18 -20 -25 54 -30 -110 -64
0000c0 54 9d c8 d3 ac a4 f4 23 7f d2 cf ec 26 9f ec 9e
       84 -99 -56 -45 -84 -92 -12 35 127 -46 -49 -20 38 -97 -20 -98
0000d0 59 c8 99 e9 8a 6d 3c 04 08 81 16 75 6a c1 b9 36
       89 -56 -103 -23 -118 109 60 4 8 -127 22 117 106 -63 -71 54
0000e0 7d e5 7d c5 63 7f 9c 0f 9f 3d b3 1a 74 af d9 e4
       125 -27 125 -59 99 127 -100 15 -97 61 -77 26 116 -81 -39 -28
0000f0 30 83 1b 9f 2a 52 e5 fd ce 38 63 81 5b 23 db 7e
       48 -125 27 -97 42 82 -27 -3 -50 56 99 -127 91 35 -37 126

tfl.pseudo_qconst44 i1 [16, 1, 1, 16]
000000 87 fe 07 43 77 7f a1 44 ee ec a7 82 4a fe 8b 82
       -121 -2 7 67 119 127 -95 68 -18 -20 -89 -126 74 -2 -117 -126
000010 24 49 ff a8 5d ab 09 7f 5c 61 a2 6a b4 52 c2 ef
       36 73 -1 -88 93 -85 9 127 92 97 -94 106 -76 82 -62 -17
000020 7e 55 e8 51 3d 7f 91 07 1c ab 49 e9 59 4d 35 81
       126 85 -24 81 61 127 -111 7 28 -85 73 -23 89 77 53 -127
000030 e9 46 03 23 6a ff cf 2e 02 38 65 d3 15 11 7f 07
       -23 70 3 35 106 -1 -49 46 2 56 101 -45 21 17 127 7
000040 4f 34 96 cf 7f 64 73 58 09 a4 53 cb 14 ab 7c 47
       79 52 -106 -49 127 100 115 88 9 -92 83 -53 20 -85 124 71
000050 5b c8 13 89 f9 e9 ba 81 86 8d 77 34 5b a5 7b 1c
       91 -56 19 -119 -7 -23 -70 -127 -122 -115 119 52 91 -91 123 28
000060 dd fb 05 c4 77 8b 81 b8 f1 c7 b5 63 3e e4 25 88
       -35 -5 5 -60 119 -117 -127 -72 -15 -57 -75 99 62 -28 37 -120
000070 81 b3 64 0a b9 8a 34 8c 43 97 74 0a fa cb 57 e3
       -127 -77 100 10 -71 -118 52 -116 67 -105 116 10 -6 -53 87 -29
000080 81 e9 0e c4 cf f1 d9 a7 63 25 a9 18 3f 5d 28 94
       -127 -23 14 -60 -49 -15 -39 -89 99 37 -87 24 63 93 40 -108
000090 30 33 d0 6d 8c 5a 88 aa ba 7f 20 63 b1 9a b8 a1
       48 51 -48 109 -116 90 -120 -86 -70 127 32 99 -79 -102 -72 -95
0000a0 9d 73 54 7f d5 cc c7 c6 6c 87 95 d0 b0 e1 27 85
       -99 115 84 127 -43 -52 -57 -58 108 -121 -107 -48 -80 -31 39 -123
0000b0 f4 65 dc 47 ef ae f0 be 21 a7 19 50 03 32 7f a6
       -12 101 -36 71 -17 -82 -16 -66 33 -89 25 80 3 50 127 -90
0000c0 fe 81 f7 4e 10 a2 95 62 d8 99 3d 25 7f 26 2d 8d
       -2 -127 -9 78 16 -94 -107 98 -40 -103 61 37 127 38 45 -115
0000d0 f7 b6 15 7f 0f 98 e6 fa 54 fc 15 9c 69 5f 21 da
       -9 -74 21 127 15 -104 -26 -6 84 -4 21 -100 105 95 33 -38
0000e0 0f b8 33 b6 e7 a3 bc 0c 7f f3 3d de ba f5 42 73
       15 -72 51 -74 -25 -93 -68 12 127 -13 61 -34 -70 -11 66 115
0000f0 25 42 86 07 fb 92 d4 eb b7 8d 7f 8f d1 b2 4a 0f
       37 66 -122 7 -5 -110 -44 -21 -73 -115 127 -113 -47 -78 74 15

tfl.pseudo_qconst46 i1 [1, 3, 1, 16]
000000 81 1a f1 24 ef 7f 71 53 bd 9b 81 81 1b 90 75 90
       -127 26 -15 36 -17 127 113 83 -67 -101 -127 -127 27 -112 117 -112
000010 78 7f 81 20 81 98 41 81 7f 3b ba 9f 32 60 7f 7f
       120 127 -127 32 -127 -104 65 -127 127 59 -70 -97 50 96 127 127
000020 5c f5 da 7f 28 ba 81 4c 14 81 03 6e 7f 7f 1f f8
       92 -11 -38 127 40 -70 -127 76 20 -127 3 110 127 127 31 -8

tfl.pseudo_qconst48 i1 [16, 1, 1, 16]
000000 aa b0 30 31 24 82 a8 09 81 34 cf b4 d6 f6 71 81
       -86 -80 48 49 36 -126 -88 9 -127 52 -49 -76 -42 -10 113 -127
000010 ca 8a 94 0b e8 ca 3d 47 b4 3a 51 e4 81 df 86 4f
       -54 -118 -108 11 -24 -54 61 71 -76 58 81 -28 -127 -33 -122 79
000020 9e 7f a1 55 b4 8f f5 8c da 8e 4c 46 11 1f c6 c7
       -98 127 -95 85 -76 -113 -11 -116 -38 -114 76 70 17 31 -58 -57
000030 70 e0 23 81 58 f5 be 4b f7 0e 6c 90 44 1b a1 b9
       112 -32 35 -127 88 -11 -66 75 -9 14 108 -112 68 27 -95 -71
000040 a3 a2 c5 32 c6 2f 81 25 fc 7d 51 fe 64 ed da ec
       -93 -94 -59 50 -58 47 -127 37 -4 125 81 -2 100 -19 -38 -20
000050 06 3d bf 0b d5 81 57 0b 3d 26 06 19 3a 91 95 d0
       6 61 -65 11 -43 -127 87 11 61 38 6 25 58 -111 -107 -48
000060 71 a6 c6 1d 96 bf cc 29 a1 30 27 cf 7f 90 5d f5
       113 -90 -58 29 -106 -65 -52 41 -95 48 39 -49 127 -112 93 -11
000070 b4 c9 03 fd b8 84 e4 51 19 3f 0b de ba 79 77 7f
       -76 -55 3 -3 -72 -124 -28 81 25 63 11 -34 -70 121 119 127
000080 1c 1c 9e 7b 10 57 6e 75 59 10 30 19 2e eb 81 26
       28 28 -98 123 16 87 110 117 89 16 48 25 46 -21 -127 38
000090 8b be e3 ed 4a 5c ef 7e 53 67 56 3c d5 81 f5 53
       -117 -66 -29 -19 74 92 -17 126 83 103 86 60 -43 -127 -11 83
0000a0 54 b8 0e 26 a6 b0 49 dd 77 ba 4b 06 3f d9 81 92
       84 -72 14 38 -90 -80 73 -35 119 -70 75 6 63 -39 -127 -110
0000b0 c7 a0 7f 6c e0 e3 70 83 5d 3a 58 98 6b e7 5b 8a
       -57 -96 127 108 -32 -29 112 -125 93 58 88 -104 107 -25 91 -118
0000c0 44 54 b3 56 bb a0 85 3b 81 97 ef 45 df 81 97 18
       68 84 -77 86 -69 -96 -123 59 -127 -105 -17 69 -33 -127 -105 24
0000d0 ac 52 bc 7c 6d 4e 6c f9 e3 f9 81 98 95 3f 4b 98
       -84 82 -68 124 109 78 108 -7 -29 -7 -127 -104 -107 63 75 -104
0000e0 3f 7e c3 51 a0 e2 ef 2c 96 f7 7f 79 5e d8 a1 1e
       63 126 -61 81 -96 -30 -17 44 -106 -9 127 121 94 -40 -95 30
0000f0 db fd 7f 7a 02 3f 4c 18 40 42 82 49 ef f9 a8 c0
       -37 -3 127 122 2 63 76 24 64 66 -126 73 -17 -7 -88 -64

tfl.pseudo_qconst50 i1 [8, 1, 1, 16]
000000 b1 da 6e 40 3f 9e 1a 0a 7f 05 e1 64 5f 27 82 84
       -79 -38 110 64 63 -98 26 10 127 5 -31 100 95 39 -126 -124
000010 45 e1 fd 81 26 86 63 f6 c2 e5 47 e2 ef 3f 87 51
       69 -31 -3 -127 38 -122 99 -10 -62 -27 71 -30 -17 63 -121 81
000020 f4 47 cf 13 83 36 b0 7f e1 b7 be 6c a1 e9 21 39
       -12 71 -49 19 -125 54 -80 127 -31 -73 -66 108 -95 -23 33 57
000030 81 da 04 3a d0 73 98 a5 90 8f 44 4a 57 d7 79 67
       -127 -38 4 58 -48 115 -104 -91 -112 -113 68 74 87 -41 121 103
000040 60 81 c0 5b c4 e6 a0 0d 9e 61 1f 99 6c ea c8 4c
       96 -127 -64 91 -60 -26 -96 13 -98 97 31 -103 108 -22 -56 76
000050 e6 05 92 bf 91 fe d6 d6 af dd 3f 1d fc f3 f9 7f
       -26 5 -110 -65 -111 -2 -42 -42 -81 -35 63 29 -4 -13 -7 127
000060 7f fd 72 5a 4d 08 1b de ca 27 38 dc b8 98 e4 75
       127 -3 114 90 77 8 27 -34 -54 39 56 -36 -72 -104 -28 117
000070 a2 52 35 87 54 ff 8d 25 95 b7 a3 be 81 67 e0 38
       -94 82 53 -121 84 -1 -115 37 -107 -73 -93 -66 -127 103 -32 56

tfl.pseudo_qconst52 i1 [1, 3, 3, 16]
000000 01 7c 45 81 54 35 94 e4 81 9f 59 e8 5e 7f eb 23
       1 124 69 -127 84 53 -108 -28 -127 -97 89 -24 94 127 -21 35
000010 e9 e3 7b f2 81 f3 0f 5d 59 55 1b d0 e8 4f a1 7f
       -23 -29 123 -14 -127 -13 15 93 89 85 27 -48 -24 79 -95 127
000020 fe 3a 20 2d 33 97 a6 ae f6 36 81 f4 0c 40 81 50
       -2 58 32 45 51 -105 -90 -82 -10 54 -127 -12 12 64 -127 80
000030 98 9f 75 37 35 a0 e1 16 52 7d c3 e3 a2 c9 e0 4e
       -104 -97 117 55 53 -96 -31 22 82 125 -61 -29 -94 -55 -32 78
000040 e9 41 f8 a5 2a bb 7f ba 6d f5 df 3b 81 49 c9 e9
       -23 65 -8 -91 42 -69 127 -70 109 -11 -33 59 -127 73 -55 -23
000050 7a 56 0a f7 33 81 c7 7f 8e 81 61 e6 7a e3 6e 10
       122 86 10 -9 51 -127 -57 127 -114 -127 97 -26 122 -29 110 16
000060 7f 7f 94 07 c9 13 76 aa 5b bc f1 06 7c 4e ce 98
       127 127 -108 7 -55 19 118 -86 91 -68 -15 6 124 78 -50 -104
000070 5c cf 7f a2 5e 75 cc 4a 28 ec 43 39 5d a7 1c 72
       92 -49 127 -94 94 117 -52 74 40 -20 67 57 93 -89 28 114
000080 20 bb 8e 6f de 0d 50 5e 83 e4 60 7f f9 05 77 22
       32 -69 -114 111 -34 13 80 94 -125 -28 96 127 -7 5 119 34

tfl.pseudo_qconst54 i1 [16, 1, 1, 8]
000000 4c 58 8e 5b ef ec da 81 7f f2 2f e6 20 f4 42 96
       76 88 -114 91 -17 -20 -38 -127 127 -14 47 -26 32 -12 66 -106
000010 e1 b2 13 c3 85 7f 9f 24 af 8e ff 53 30 81 71 f0
       -31 -78 19 -61 -123 127 -97 36 -81 -114 -1 83 48 -127 113 -16
000020 7f b6 51 14 3d 8a 6b 81 35 19 45 d7 4f 94 ff 7f
       127 -74 81 20 61 -118 107 -127 53 25 69 -41 79 -108 -1 127
000030 38 a0 a5 73 fb 2f 81 60 42 a4 95 07 a4 7e 30 7f
       56 -96 -91 115 -5 47 -127 96 66 -92 -107 7 -92 126 48 127
000040 12 44 58 81 d0 5b e3 03 c8 f0 63 65 48 33 7f fe
       18 68 88 -127 -48 91 -29 3 -56 -16 99 101 72 51 127 -2
000050 f7 3b f1 27 81 5e 62 dd 3b 05 55 cd 63 33 44 81
       -9 59 -15 39 -127 94 98 -35 59 5 85 -51 99 51 68 -127
000060 7f 19 8d 32 7b 61 53 7a f8 81 97 b5 93 e9 63 4c
       127 25 -115 50 123 97 83 122 -8 -127 -105 -75 -109 -23 99 76
000070 64 e6 0c 9d c8 1b 65 81 98 b7 ad 42 da 81 42 55
       100 -26 12 -99 -56 27 101 -127 -104 -73 -83 66 -38 -127 66 85

tfl.pseudo_qconst56 i1 [8, 1, 1, 16]
000000 7c 6a 41 92 54 ca b8 7f e8 57 36 2a 35 06 96 0e
       124 106 65 -110 84 -54 -72 127 -24 87 54 42 53 6 -106 14
000010 f3 30 81 ee d2 0a 23 c3 c9 d5 02 ab 02 9f 91 eb
       -13 48 -127 -18 -46 10 35 -61 -55 -43 2 -85 2 -97 -111 -21
000020 f1 28 75 25 7f 30 94 d5 ea 64 10 b7 9d 4f 59 20
       -15 40 117 37 127 48 -108 -43 -22 100 16 -73 -99 79 89 32
000030 98 32 f8 72 81 28 ab 25 d3 dc 4b d0 8a 22 b0 7e
       -104 50 -8 114 -127 40 -85 37 -45 -36 75 -48 -118 34 -80 126
000040 f6 83 9b 38 9c f6 16 7f 2c 41 56 19 44 67 ce ac
       -10 -125 -101 56 -100 -10 22 127 44 65 86 25 68 103 -50 -84
000050 1b 6d a6 89 35 d4 ee ac 81 e0 d5 d5 6d 45 e4 52
       27 109 -90 -119 53 -44 -18 -84 -127 -32 -43 -43 109 69 -28 82
000060 cb 44 15 41 a8 4c 9c 63 1b 23 d1 7f 74 61 40 dc
       -53 68 21 65 -88 76 -100 99 27 35 -47 127 116 97 64 -36
000070 94 81 6b 7c a2 9e 6b d4 59 6b 54 d8 63 53 32 f6
       -108 -127 107 124 -94 -98 107 -44 89 107 84 -40 99 83 50 -10

tfl.pseudo_qconst58 i1 [1, 3, 3, 16]
000000 7f e1 4f a8 74 48 ea f3 7f 70 e0 4d 5e 81 df ce
       127 -31 79 -88 116 72 -22 -13 127 112 -32 77 94 -127 -33 -50
000010 5f 96 7f 64 8d 61 37 81 bd bf 9f 1c b6 cf 81 d9
       95 -106 127 100 -115 97 55 -127 -67 -65 -97 28 -74 -49 -127 -39
000020 34 89 95 7f f1 e0 b2 1d 19 dc 41 7f 96 b9 45 a8
       52 -119 -107 127 -15 -32 -78 29 25 -36 65 127 -106 -71 69 -88
000030 90 50 44 fe f5 49 75 e1 9e 72 81 0f 14 29 d7 f1
       -112 80 68 -2 -11 73 117 -31 -98 114 -127 15 20 41 -41 -15
000040 fe 7f 2f d2 7f d1 bc 7b 25 73 65 cf d0 42 a2 81
       -2 127 47 -46 127 -47 -68 123 37 115 101 -49 -48 66 -94 -127
000050 ec 5b 8b 06 ea 7d 48 5e a0 ba 7d eb 5a c8 ef cd
       -20 91 -117 6 -22 125 72 94 -96 -70 125 -21 90 -56 -17 -51
000060 86 34 de 6a 87 81 50 a4 6b 7f a4 83 b6 dc 21 c1
       -122 52 -34 106 -121 -127 80 -92 107 127 -92 -125 -74 -36 33 -63
000070 21 d4 bc 21 78 c6 39 1d ff b2 14 2b 81 7d 39 21
       33 -44 -68 33 120 -58 57 29 -1 -78 20 43 -127 125 57 33
000080 29 47 94 62 bf 74 7f a2 2d 93 02 d5 11 25 3d c6
       41 71 -108 98 -65 116 127 -94 45 -109 2 -43 17 37 61 -58

tfl.pseudo_qconst60 i1 [16, 1, 1, 8]
000000 05 81 58 c1 28 75 98 63 a6 7f 43 99 0a 4f b0 ee
       5 -127 88 -63 40 117 -104 99 -90 127 67 -103 10 79 -80 -18
000010 8e 34 51 85 7f 2b 31 28 0d b0 81 c1 f6 c9 7f dd
       -114 52 81 -123 127 43 49 40 13 -80 -127 -63 -10 -55 127 -35
000020 c0 03 95 f6 81 eb 5e 8a 11 f7 72 7e df e6 81 67
       -64 3 -107 -10 -127 -21 94 -118 17 -9 114 126 -33 -26 -127 103
000030 38 a7 3c 7f 1c 44 14 23 1c cb ef b3 31 7f 9b 5d
       56 -89 60 127 28 68 20 35 28 -53 -17 -77 49 127 -101 93
000040 7a b7 5d f0 fb ca 7f c9 7f b8 0d 40 69 3f a8 da
       122 -73 93 -16 -5 -54 127 -55 127 -72 13 64 105 63 -88 -38
000050 0d c2 7f af 9e 58 a1 fa e4 7f aa 88 22 d8 b1 df
       13 -62 127 -81 -98 88 -95 -6 -28 127 -86 -120 34 -40 -79 -33
000060 1b df 5e 13 7f e9 db 7f 2c a4 47 33 81 dc 97 fc
       27 -33 94 19 127 -23 -37 127 44 -92 71 51 -127 -36 -105 -4
000070 ad 81 99 a3 fe dd 8e 0f 3a a4 c2 81 ed 2e ef c8
       -83 -127 -103 -93 -2 -35 -114 15 58 -92 -62 -127 -19 46 -17 -56

tfl.pseudo_qconst62 i1 [8, 1, 1, 16]
000000 11 b8 a7 18 33 fd 2f b1 9a 3e ca 81 0a c3 ab a7
       17 -72 -89 24 51 -3 47 -79 -102 62 -54 -127 10 -61 -85 -89
000010 26 90 e7 f2 3d 58 6b 62 8d 6b ba 6f 55 b8 10 7f
       38 -112 -25 -14 61 88 107 98 -115 107 -70 111 85 -72 16 127
000020 95 e3 f8 7d c4 50 c7 6c 85 c8 ed be 81 5e ee 97
       -107 -29 -8 125 -60 80 -57 108 -123 -56 -19 -66 -127 94 -18 -105
000030 01 5a e8 d3 7f 95 79 91 46 ec 1f 9f 01 c6 ba 03
       1 90 -24 -45 127 -107 121 -111 70 -20 31 -97 1 -58 -70 3
000040 fb 69 ed 50 86 54 a9 a3 88 53 7b 7f 09 6a a6 a3
       -5 105 -19 80 -122 84 -87 -93 -120 83 123 127 9 106 -90 -93
000050 37 55 94 e3 0a f4 92 d8 d8 88 04 81 1c da 7c 83
       55 85 -108 -29 10 -12 -110 -40 -40 -120 4 -127 28 -38 124 -125
000060 14 06 23 72 81 88 90 2e c5 06 d9 97 8b 6f 20 ec
       20 6 35 114 -127 -120 -112 46 -59 6 -39 -105 -117 111 32 -20
000070 f3 25 0c 78 8b c3 a8 06 72 e9 5c cf 3e 47 fd 7f
       -13 37 12 120 -117 -61 -88 6 114 -23 92 -49 62 71 -3 127

tfl.pseudo_qconst64 i1 [1, 3, 3, 16]
000000 7a 79 a9 cd fb 16 5d 7c 29 8b 0a ef 37 86 a2 46
       122 121 -87 -51 -5 22 93 124 41 -117 10 -17 55 -122 -94 70
000010 64 01 83 4c 4d a2 c1 ed ed 14 81 34 3c 7f 62 60
       100 1 -125 76 77 -94 -63 -19 -19 20 -127 52 60 127 98 96
000020 7e b9 ff a8 7f 5e ce 39 e4 4d 4c b3 f9 69 f4 93
       126 -71 -1 -88 127 94 -50 57 -28 77 76 -77 -7 105 -12 -109
000030 8c c0 a6 0e bc 1b 56 97 ab 2a 75 fa 8a 61 47 18
       -116 -64 -90 14 -68 27 86 -105 -85 42 117 -6 -118 97 71 24
000040 23 fa b8 7f 02 7e 81 7f 4b bf 36 b9 72 8f 7f 53
       35 -6 -72 127 2 126 -127 127 75 -65 54 -71 114 -113 127 83
000050 97 a0 6c 61 34 7f 2b 11 19 7f 97 81 3a fb 93 4c
       -105 -96 108 97 52 127 43 17 25 127 -105 -127 58 -5 -109 76
000060 81 7f 4b 3d 55 40 71 25 7f cf 07 05 6a 92 f5 e2
       -127 127 75 61 85 64 113 37 127 -49 7 5 106 -110 -11 -30
000070 72 dc 7f 9e 7a 1c 7c 87 22 a7 8d a3 81 ec 53 7f
       114 -36 127 -98 122 28 124 -121 34 -89 -115 -93 -127 -20 83 127
000080 76 c8 53 c1 83 de 52 7a 88 01 b5 78 5c 67 d0 41
       118 -56 83 -63 -125 -34 82 122 -120 1 -75 120 92 103 -48 65

tfl.pseudo_qconst66 i1 [16, 1, 1, 8]
000000 69 57 7a 81 7b 3f 34 ed 7f fa 97 07 15 fd ca ed
       105 87 122 -127 123 63 52 -19 127 -6 -105 7 21 -3 -54 -19
000010 8c a2 18 76 79 e5 81 7f 38 ce 0a 53 97 e6 f9 7f
       -116 -94 24 118 121 -27 -127 127 56 -50 10 83 -105 -26 -7 127
000020 60 aa a7 4f 81 b4 cc b9 ba 81 f6 86 65 d1 c5 c7
       96 -86 -89 79 -127 -76 -52 -71 -70 -127 -10 -122 101 -47 -59 -57
000030 11 07 0a 3e 7f 14 05 aa 91 7f 70 ce 3d a0 b4 cc
       17 7 10 62 127 20 5 -86 -111 127 112 -50 61 -96 -76 -52
000040 db a2 75 3f cc 7f 67 30 da 0c 1c 94 cf 7f 70 b5
       -37 -94 117 63 -52 127 103 48 -38 12 28 -108 -49 127 112 -75
000050 dc 81 4a ee d3 63 73 fa 57 0c 81 3f 58 55 92 15
       -36 -127 74 -18 -45 99 115 -6 87 12 -127 63 88 85 -110 21
000060 b4 47 7f 0c 22 e7 da 06 32 ac db 16 7a 2e ae 81
       -76 71 127 12 34 -25 -38 6 50 -84 -37 22 122 46 -82 -127
000070 6f cf 4a f8 32 7f 64 aa c4 84 84 ba 48 ca 81 05
       111 -49 74 -8 50 127 100 -86 -60 -124 -124 -70 72 -54 -127 5

tfl.pseudo_qconst68 i1 [16, 1, 5, 16]
000000 3b 4c 23 be 7f bf 23 1f 4d ea 8e ae 08 11 5c 72
       59 76 35 -66 127 -65 35 31 77 -22 -114 -82 8 17 92 114
000010 b0 a1 e4 5b 50 07 27 30 38 9e 8b c6 a9 67 e9 13
       -80 -95 -28 91 80 7 39 48 56 -98 -117 -58 -87 103 -23 19
000020 3f 13 08 62 ad cd 31 d8 20 0b 41 0d f1 ad 38 62
       63 19 8 98 -83 -51 49 -40 32 11 65 13 -15 -83 56 98
000030 06 fe 10 d0 20 f2 dd fe 90 4d 9c bc d3 11 7c 35
       6 -2 16 -48 32 -14 -35 -2 -112 77 -100 -68 -45 17 124 53
000040 c2 08 90 c4 34 ed 07 18 6a 5a 4d e3 f3 6b 88 b4
       -62 8 -112 -60 52 -19 7 24 106 90 77 -29 -13 107 -120 -76
000050 63 35 4e 8f 50 47 18 b3 e4 b1 a0 5f ac 77 cd 73
       99 53 78 -113 80 71 24 -77 -28 -79 -96 95 -84 119 -51 115
000060 d9 4f 7c 11 bc 72 37 3a ad f5 50 91 70 3a eb 8f
       -39 79 124 17 -68 114 55 58 -83 -11 80 -111 112 58 -21 -113
000070 02 04 6e 37 5b 37 f7 b6 2d 7a cb bb 9f 6b bd bd
       2 4 110 55 91 55 -9 -74 45 122 -53 -69 -97 107 -67 -67
000080 d1 23 9b e5 55 6d 98 2b e4 a8 f0 cf 1b 65 12 38
       -47 35 -101 -27 85 109 -104 43 -28 -88 -16 -49 27 101 18 56
000090 81 c5 84 8d 52 dd c5 52 55 f7 88 4f 9a c8 55 0a
       -127 -59 -124 -115 82 -35 -59 82 85 -9 -120 79 -102 -56 85 10
0000a0 c6 62 4d a9 e2 b1 b2 89 ef 30 28 36 c1 55 d8 7c
       -58 98 77 -87 -30 -79 -78 -119 -17 48 40 54 -63 85 -40 124
0000b0 65 15 4b d6 50 60 3c a8 9c 17 e5 dd 29 ef 50 2d
       101 21 75 -42 80 96 60 -88 -100 23 -27 -35 41 -17 80 45
0000c0 0b 57 eb a8 a9 2b cc 8e e7 bc bc a2 02 ae a6 d9
       11 87 -21 -88 -87 43 -52 -114 -25 -68 -68 -94 2 -82 -90 -39
0000d0 12 b2 6a aa 7f fc 96 19 ba e1 d9 82 78 b5 16 c1
       18 -78 106 -86 127 -4 -106 25 -70 -31 -39 -126 120 -75 22 -63
0000e0 c2 39 f5 d8 7a 15 e4 59 fb 33 5b 02 68 91 ca 1b
       -62 57 -11 -40 122 21 -28 89 -5 51 91 2 104 -111 -54 27
0000f0 3c 6b 35 fb 52 89 da ee bd f9 b2 32 e9 3a d2 ea
       60 107 53 -5 82 -119 -38 -18 -67 -7 -78 50 -23 58 -46 -22

tfl.pseudo_qconst71 i1 [16, 1, 5, 3]
000000 bc e8 ea 1a 7f 72 38 7d d8 bd 78 c7 46 4b 18 6f
       -68 -24 -22 26 127 114 56 125 -40 -67 120 -57 70 75 24 111
000010 7f 85 dc fe b0 69 b6 19 a2 1d 0b 95 c3 08 2c ff
       127 -123 -36 -2 -80 105 -74 25 -94 29 11 -107 -61 8 44 -1
000020 81 c4 30 f4 06 a5 54 0f d9 3d cc 73 45 a1 36 f2
       -127 -60 48 -12 6 -91 84 15 -39 61 -52 115 69 -95 54 -14
000030 ba 7f 0b 44 e3 d1 a7 2d d6 35 b1 0b 13 db 64 1d
       -70 127 11 68 -29 -47 -89 45 -42 53 -79 11 19 -37 100 29
000040 64 7f 47 85 ce 70 55 ad 1e ba 1c 5e f4 5c 00 2d
       100 127 71 -123 -50 112 85 -83 30 -70 28 94 -12 92 0 45
000050 56 82 a3 b3 23 7c 02 64 d2 7f 6a e1 13 28 11 cd
       86 -126 -93 -77 35 124 2 100 -46 127 106 -31 19 40 17 -51
000060 68 fe 59 26 7f a8 71 9b f5 68 1d b4 05 b4 0c 5e
       104 -2 89 38 127 -88 113 -101 -11 104 29 -76 5 -76 12 94
000070 ee 7f 02 65 96 83 b0 4a f9 81 66 9b 98 9d 05 d4
       -18 127 2 101 -106 -125 -80 74 -7 -127 102 -101 -104 -99 5 -44
000080 06 b2 42 fc e3 69 7d b5 5e 92 4b bf a3 8f b1 e6
       6 -78 66 -4 -29 105 125 -75 94 -110 75 -65 -93 -113 -79 -26
000090 e1 7c 97 81 f7 21 b5 fa 9c df 3c cb 71 35 0e 1d
       -31 124 -105 -127 -9 33 -75 -6 -100 -33 60 -53 113 53 14 29
0000a0 89 bc 60 ef 7f 51 d3 dc cf 6e 0b de 0f d4 e5 6d
       -119 -68 96 -17 127 81 -45 -36 -49 110 11 -34 15 -44 -27 109
0000b0 35 b3 7f 21 aa 5f 37 db 32 9f 7f 76 61 3c fc a3
       53 -77 127 33 -86 95 55 -37 50 -97 127 118 97 60 -4 -93
0000c0 26 c7 6b 23 55 4c 03 6b 1a e3 42 87 0d 31 2b 81
       38 -57 107 35 85 76 3 107 26 -29 66 -121 13 49 43 -127
0000d0 69 e1 79 31 a8 14 56 e7 3b 66 a1 68 81 bd f0 8d
       105 -31 121 49 -88 20 86 -25 59 102 -95 104 -127 -67 -16 -115
0000e0 31 9b aa 67 3d 52 b5 1c a7 50 d7 9e 7f 16 4f 73
       49 -101 -86 103 61 82 -75 28 -89 80 -41 -98 127 22 79 115

tfl.pseudo_qconst72 i1 [64, 192]
000000 7f 00 00 00 00 00 00 00 00 00 00 00 00 00 00 00
       127 0 0 0 0 0 0 0 0 0 0 0 0 0 0 0
000010 00 00 00 00 00 00 00 00 00 00 00 00 00 00 00 00
       0 0 0 0 0 0 0 0 0 0 0 0 0 0 0 0
000020 00 00 00 00 00 00 00 00 00 00 00 00 00 00 00 00
       0 0 0 0 0 0 0 0 0 0 0 0 0 0 0 0
000030 00 00 00 00 00 00 00 00 00 00 00 00 00 00 00 00
       0 0 0 0 0 0 0 0 0 0 0 0 0 0 0 0
000040 00 00 00 00 00 00 00 00 00 00 00 00 00 00 00 00
       0 0 0 0 0 0 0 0 0 0 0 0 0 0 0 0
000050 00 00 00 00 00 00 00 00 00 00 00 00 00 00 00 00
       0 0 0 0 0 0 0 0 0 0 0 0 0 0 0 0
000060 00 00 00 00 00 00 00 00 00 00 00 00 00 00 00 00
       0 0 0 0 0 0 0 0 0 0 0 0 0 0 0 0
000070 00 00 00 00 00 00 00 00 00 00 00 00 00 00 00 00
       0 0 0 0 0 0 0 0 0 0 0 0 0 0 0 0
000080 00 00 00 00 00 00 00 00 00 00 00 00 00 00 00 00
       0 0 0 0 0 0 0 0 0 0 0 0 0 0 0 0
000090 00 00 00 00 00 00 00 00 00 00 00 00 00 00 00 00
       0 0 0 0 0 0 0 0 0 0 0 0 0 0 0 0
0000a0 00 00 00 00 00 00 00 00 00 00 00 00 00 00 00 00
       0 0 0 0 0 0 0 0 0 0 0 0 0 0 0 0
0000b0 00 00 00 00 00 00 00 00 00 00 00 00 00 00 00 00
       0 0 0 0 0 0 0 0 0 0 0 0 0 0 0 0
0000c0 00 7f 40 00 00 00 00 00 00 00 00 00 00 00 00 00
       0 127 64 0 0 0 0 0 0 0 0 0 0 0 0 0
0000d0 00 00 00 00 00 00 00 00 00 00 00 00 00 00 00 00
       0 0 0 0 0 0 0 0 0 0 0 0 0 0 0 0
0000e0 00 00 00 00 00 00 00 00 00 00 00 00 00 00 00 00
       0 0 0 0 0 0 0 0 0 0 0 0 0 0 0 0
0000f0 00 00 00 00 00 00 00 00 00 00 00 00 00 00 00 00
       0 0 0 0 0 0 0 0 0 0 0 0 0 0 0 0
