gtcrn_micro/models/tflite/gtcrn_micro_full_integer_quant_with_int16_act.tflite (tflite, 173200 bytes, 48 tensors)

arith.constant1 i1 [8, 1, 1, 16]
000000 60 b1 4a 19 da 5a 2b ee a1 48 bf e6 c0 7f d9 d3
       96 -79 74 25 -38 90 43 -18 -95 72 -65 -26 -64 127 -39 -45
000010 56 35 87 6b ac 77 1d 39 7b 1a 81 18 03 3c 29 51
       86 53 -121 107 -84 119 29 57 123 26 -127 24 3 60 41 81
000020 07 8c 1e 38 c8 c6 0c ff 81 99 3a 43 00 a5 8a 50
       7 -116 30 56 -56 -58 12 -1 -127 -103 58 67 0 -91 -118 80
000030 2e f2 6c 1c 4e fd 8f 89 7b 1d 7f 3e f4 7e cc 09
       46 -14 108 28 78 -3 -113 -119 123 29 127 62 -12 126 -52 9
000040 af 00 f2 50 3f fe 50 17 67 27 5b 85 81 6a 94 c0
       -81 0 -14 80 63 -2 80 23 103 39 91 -123 -127 106 -108 -64
000050 36 7f 4c 9b 10 61 fa 40 cf c1 fe 77 ea 29 38 d5
       54 127 76 -101 16 97 -6 64 -49 -63 -2 119 -22 41 56 -43
000060 50 7f 8c 67 0e 94 61 8b 02 e7 f0 76 42 08 ce b6
       80 127 -116 103 14 -108 97 -117 2 -25 -16 118 66 8 -50 -74
000070 99 5b a9 91 fe cf aa 5e 7f 76 b9 5d cf 12 65 19
       -103 91 -87 -111 -2 -49 -86 94 127 118 -71 93 -49 18 101 25

arith.constant3 i1 [16, 1, 1, 8]
000000 81 8a e1 7b 8d 4e c7 72 a4 ea 81 97 0f 75 0a 58
       -127 -118 -31 123 -115 78 -57 114 -92 -22 -127 -105 15 117 10 88
000010 53 0b de c6 85 4b 7f 5d 9b 38 fe 65 9b 81 17 87
       83 11 -34 -58 -123 75 127 93 -101 56 -2 101 -101 -127 23 -121
000020 92 13 0e 08 d9 7f 05 ba c1 7c 78 23 65 e9 7f 66
       -110 19 14 8 -39 127 5 -70 -63 124 120 35 101 -23 127 102
000030 81 18 2d 74 c7 5f bd 83 04 02 00 10 2c 81 42 c0
       -127 24 45 116 -57 95 -67 -125 4 2 0 16 44 -127 66 -64
000040 83 44 d1 c0 da 2d 7f bd e6 67 54 d9 d0 fe 81 25
       -125 68 -47 -64 -38 45 127 -67 -26 103 84 -39 -48 -2 -127 37
000050 67 21 eb 02 86 7f 7c e9 07 81 c0 89 d0 23 0b 94
       103 33 -21 2 -122 127 124 -23 7 -127 -64 -119 -48 35 11 -108
000060 fc 81 d2 54 43 4b 38 87 a4 15 7a 7f 85 c1 b5 dd
       -4 -127 -46 84 67 75 56 -121 -92 21 122 127 -123 -63 -75 -35
000070 f6 a4 94 a0 7f 3b 98 4f 7c 81 7d d0 7d 60 27 98
       -10 -92 -108 -96 127 59 -104 79 124 -127 125 -48 125 96 39 -104

arith.constant5 i1 [8, 1, 1, 16]
000000 a3 4c a3 af 1d 24 30 74 a4 48 46 e8 ea 15 21 81
       -93 76 -93 -81 29 36 48 116 -92 72 70 -24 -22 21 33 -127
000010 81 41 4e 57 0c 70 64 d9 df 13 51 c4 6d 36 56 53
       -127 65 78 87 12 112 100 -39 -33 19 81 -60 109 54 86 83
000020 3d 10 1c dd be 55 66 18 44 81 f6 86 50 87 3b 6e
       61 16 28 -35 -66 85 102 24 68 -127 -10 -122 80 -121 59 110
000030 ce c4 f1 b2 69 69 63 1d 6d 7f ab c8 c3 6e 24 39
       -50 -60 -15 -78 105 105 99 29 109 127 -85 -56 -61 110 36 57
000040 c7 ef 44 a6 59 2c 38 de ea 61 ea 81 c3 a6 10 ff
       -57 -17 68 -90 89 44 56 -34 -22 97 -22 -127 -61 -90 16 -1
000050 49 90 34 92 c7 03 78 86 96 81 d6 75 fb e9 6e 22
       73 -112 52 -110 -57 3 120 -122 -106 -127 -42 117 -5 -23 110 34
000060 21 a6 19 cc 8b 36 c7 ce 43 f2 f2 ff 08 cc 7f e7
       33 -90 25 -52 -117 54 -57 -50 67 -14 -14 -1 8 -52 127 -25
000070 33 b3 73 04 30 f9 ce d3 91 9c 89 a5 bf 04 81 ec
       51 -77 115 4 48 -7 -50 -45 -111 -100 -119 -91 -65 4 -127 -20

arith.constant7 i1 [16, 1, 1, 8]
000000 8d 81 24 4c 53 0f fe b4 40 bc 16 28 7f 11 2b 52
       -115 -127 36 76 83 15 -2 -76 64 -68 22 40 127 17 43 82
000010 7a c3 76 6f 1b 7f 2d 69 39 a0 c0 7f d1 1a be c0
       122 -61 118 111 27 127 45 105 57 -96 -64 127 -47 26 -66 -64
000020 7f bb 11 df a5 bc f5 59 7b 7d 45 54 4c 5c 81 cc
       127 -69 17 -33 -91 -68 -11 89 123 125 69 84 76 92 -127 -52
000030 d0 fb d4 d1 04 bf 0b 81 43 7f 1f 18 92 6e 84 e4
       -48 -5 -44 -47 4 -65 11 -127 67 127 31 24 -110 110 -124 -28
000040 92 2d 7f 5e c1 18 67 18 23 70 74 58 9d 81 8e c1
       -110 45 127 94 -63 24 103 24 35 112 116 88 -99 -127 -114 -63
000050 d9 b2 33 db 16 81 6c 02 3d be b2 81 2b e5 1c da
       -39 -78 51 -37 22 -127 108 2 61 -66 -78 -127 43 -27 28 -38
000060 bc b0 19 2f 92 24 7f 71 86 13 62 0a 44 7f 12 1d
       -68 -80 25 47 -110 36 127 113 -122 19 98 10 68 127 18 29
000070 db 84 74 7f 71 f7 e9 9e 47 83 81 16 8c bc 97 7d
       -37 -124 116 127 113 -9 -23 -98 71 -125 -127 22 -116 -68 -105 125

arith.constant9 i1 [8, 1, 1, 16]
000000 ea bc 8a d3 5e 81 7f ce 3b 00 c3 58 9e 6a 15 97
       -22 -68 -118 -45 94 -127 127 -50 59 0 -61 88 -98 106 21 -105
000010 21 8a c7 e4 b2 8c 0a c3 b9 cf 00 7f d7 f2 f9 f8
       33 -118 -57 -28 -78 -116 10 -61 -71 -49 0 127 -41 -14 -7 -8
000020 2e 04 de 8f 87 cf 8f 6b 5b 7f 62 d8 40 29 44 d7
       46 4 -34 -113 -121 -49 -113 107 91 127 98 -40 64 41 68 -41
000030 e9 6d cf 0a f0 6e 87 7f 14 2a 78 8a 5c c0 01 74
       -23 109 -49 10 -16 110 -121 127 20 42 120 -118 92 -64 1 116
000040 a7 94 df 78 3b ea 2a e4 c2 30 79 9a 7f 3f 31 b0
       -89 -108 -33 120 59 -22 42 -28 -62 48 121 -102 127 63 49 -80
000050 57 63 7f b6 f3 3c 7a 78 ef ad fd 87 74 e8 37 7c
       87 99 127 -74 -13 60 122 120 -17 -83 -3 -121 116 -24 55 124
000060 38 0d a5 4c 74 81 28 77 43 c9 10 47 c6 35 c8 c7
       56 13 -91 76 116 -127 40 119 67 -55 16 71 -58 53 -56 -57
000070 ec cd 99 0e ba 81 08 ff 04 a8 e3 e9 af 5c c6 b7
       -20 -51 -103 14 -70 -127 8 -1 4 -88 -29 -23 -81 92 -58 -73

arith.constant11 i1 [16, 1, 1, 8]
000000 b7 eb a6 34 81 6b 46 8d 88 05 5a 90 c0 d8 07 7f
       -73 -21 -90 52 -127 107 70 -115 -120 5 90 -112 -64 -40 7 127
000010 af e8 d1 43 81 51 3d 74 aa 81 60 84 b3 02 32 61
       -81 -24 -47 67 -127 81 61 116 -86 -127 96 -124 -77 2 50 97
000020 0a 7f 6f 2a 8e 6f f9 b0 91 e6 b8 6b 08 7f 5b 1d
       10 127 111 42 -114 111 -7 -80 -111 -26 -72 107 8 127 91 29
000030 d4 38 14 83 c5 65 fc 81 5e 11 56 3e 50 1c cf 81
       -44 56 20 -125 -59 101 -4 -127 94 17 86 62 80 28 -49 -127
000040 7f 45 22 6d 8b ee 65 72 bd 57 8c 81 21 95 f6 35
       127 69 34 109 -117 -18 101 114 -67 87 -116 -127 33 -107 -10 53
000050 3d b5 08 81 83 8f 69 97 ca 65 5a ad 81 b6 81 02
       61 -75 8 -127 -125 -113 105 -105 -54 101 90 -83 -127 -74 -127 2
000060 c6 d4 7f 63 0f 86 40 2d e3 71 7f 05 41 6f c2 32
       -58 -44 127 99 15 -122 64 45 -29 113 127 5 65 111 -62 50
000070 7f 46 62 ca 93 d7 ba 1f 7f 35 c3 fb 8f 1e 3a 9b
       127 70 98 -54 -109 -41 -70 31 127 53 -61 -5 -113 30 58 -101

arith.constant53 i1 [192, 64]
000000 7f 00 00 00 00 00 00 00 00 00 00 00 00 00 00 00
       127 0 0 0 0 0 0 0 0 0 0 0 0 0 0 0
000010 00 00 00 00 00 00 00 00 00 00 00 00 00 00 00 00
       0 0 0 0 0 0 0 0 0 0 0 0 0 0 0 0
000020 00 00 00 00 00 00 00 00 00 00 00 00 00 00 00 00
       0 0 0 0 0 0 0 0 0 0 0 0 0 0 0 0
000030 00 00 00 00 00 00 00 00 00 00 00 00 00 00 00 00
       0 0 0 0 0 0 0 0 0 0 0 0 0 0 0 0
000040 00 7f 00 00 00 00 00 00 00 00 00 00 00 00 00 00
       0 127 0 0 0 0 0 0 0 0 0 0 0 0 0 0
000050 00 00 00 00 00 00 00 00 00 00 00 00 00 00 00 00
       0 0 0 0 0 0 0 0 0 0 0 0 0 0 0 0
000060 00 00 00 00 00 00 00 00 00 00 00 00 00 00 00 00
       0 0 0 0 0 0 0 0 0 0 0 0 0 0 0 0
000070 00 00 00 00 00 00 00 00 00 00 00 00 00 00 00 00
       0 0 0 0 0 0 0 0 0 0 0 0 0 0 0 0
000080 00 7f 7f 00 00 00 00 00 00 00 00 00 00 00 00 00
       0 127 127 0 0 0 0 0 0 0 0 0 0 0 0 0
000090 00 00 00 00 00 00 00 00 00 00 00 00 00 00 00 00
       0 0 0 0 0 0 0 0 0 0 0 0 0 0 0 0
0000a0 00 00 00 00 00 00 00 00 00 00 00 00 00 00 00 00
       0 0 0 0 0 0 0 0 0 0 0 0 0 0 0 0
0000b0 00 00 00 00 00 00 00 00 00 00 00 00 00 00 00 00
       0 0 0 0 0 0 0 0 0 0 0 0 0 0 0 0
0000c0 00 00 7f 00 00 00 00 00 00 00 00 00 00 00 00 00
       0 0 127 0 0 0 0 0 0 0 0 0 0 0 0 0
0000d0 00 00 00 00 00 00 00 00 00 00 00 00 00 00 00 00
       0 0 0 0 0 0 0 0 0 0 0 0 0 0 0 0
0000e0 00 00 00 00 00 00 00 00 00 00 00 00 00 00 00 00
       0 0 0 0 0 0 0 0 0 0 0 0 0 0 0 0
0000f0 00 00 00 00 00 00 00 00 00 00 00 00 00 00 00 00
       0 0 0 0 0 0 0 0 0 0 0 0 0 0 0 0

arith.constant54 i1 [2, 1, 5, 16]
000000 9e d3 96 ed d9 5d fe 07 37 88 df 3d 06 5a 62 d1
       -98 -45 -106 -19 -39 93 -2 7 55 -120 -33 61 6 90 98 -47
000010 49 c8 8a 74 96 bd 39 78 7d 08 53 d9 46 06 1b 1f
       73 -56 -118 116 -106 -67 57 120 125 8 83 -39 70 6 27 31
000020 58 4d 6e 32 b1 1d 4f 61 76 2c f6 43 82 09 27 30
       88 77 110 50 -79 29 79 97 118 44 -10 67 -126 9 39 48
000030 c2 e2 60 21 33 e1 d2 97 a1 60 99 9e fc ef 07 7f
       -62 -30 96 33 51 -31 -46 -105 -95 96 -103 -98 -4 -17 7 127
000040 cb 11 89 5a e2 70 84 a2 be 4f 2e 02 06 d8 16 68
       -53 17 -119 90 -30 112 -124 -94 -66 79 46 2 6 -40 22 104
000050 e6 54 70 b6 31 96 e4 2a 5e f1 f8 f4 9e 6f 4d 6a
       -26 84 112 -74 49 -106 -28 42 94 -15 -8 -12 -98 111 77 106
000060 b1 96 d7 ba 42 e4 bf a8 05 0c b9 92 c4 c8 d3 2b
       -79 -106 -41 -70 66 -28 -65 -88 5 12 -71 -110 -60 -56 -45 43
000070 f6 ee c2 51 a2 c3 2b 55 f6 ae 0e 10 e3 df 87 07
       -10 -18 -62 81 -94 -61 43 85 -10 -82 14 16 -29 -33 -121 7
000080 58 b8 81 e9 79 9f ab 53 01 86 72 b1 50 14 d0 56
       88 -72 -127 -23 121 -97 -85 83 1 -122 114 -79 80 20 -48 86
000090 83 9b 88 bc ca af e2 d2 aa 77 4c 90 7a 5f 7e 69
       -125 -101 -120 -68 -54 -81 -30 -46 -86 119 76 -112 122 95 126 105

arith.constant55 i1 [16, 1, 5, 16]
000000 02 c2 20 ac b9 b0 6b 84 ad 78 1c 2f 93 24 cb 90
       2 -62 32 -84 -71 -80 107 -124 -83 120 28 47 -109 36 -53 -112
000010 6d e6 ba 6b 8e 53 53 60 54 0c 26 3c 20 3c 37 21
       109 -26 -70 107 -114 83 83 96 84 12 38 60 32 60 55 33
000020 83 39 89 d8 0c 17 93 77 0d f6 01 66 aa cb 58 c9
       -125 57 -119 -40 12 23 -109 119 13 -10 1 102 -86 -53 88 -55
000030 15 2a 02 66 6c 27 b6 98 cd 75 95 51 9b 90 bf 85
       21 42 2 102 108 39 -74 -104 -51 117 -107 81 -101 -112 -65 -123
000040 38 57 0d 81 8a f0 59 e0 69 b0 ff 83 65 8c 2f 71
       56 87 13 -127 -118 -16 89 -32 105 -80 -1 -125 101 -116 47 113
000050 fd 44 ec 77 10 ce 3b a8 1f 34 ad df da 68 e7 a4
       -3 68 -20 119 16 -50 59 -88 31 52 -83 -33 -38 104 -25 -92
000060 37 35 ad 82 c0 b5 72 30 29 0b ae 24 1b a6 5a af
       55 53 -83 -126 -64 -75 114 48 41 11 -82 36 27 -90 90 -81
000070 44 e1 10 2c 22 7f 48 63 ad 4c 1e 5d 50 ae f3 53
       68 -31 16 44 34 127 72 99 -83 76 30 93 80 -82 -13 83
000080 d9 34 97 c4 6b 20 19 61 27 65 d2 e2 6a d1 98 ee
       -39 52 -105 -60 107 32 25 97 39 101 -46 -30 106 -47 -104 -18
000090 31 da 93 a3 1a 74 a1 1b 12 11 67 8b 9c 00 20 25
       49 -38 -109 -93 26 116 -95 27 18 17 103 -117 -100 0 32 37
0000a0 63 6b f3 f8 d5 c4 a1 7b 2f 75 32 73 fe bb be af
       99 107 -13 -8 -43 -60 -95 123 47 117 50 115 -2 -69 -66 -81
0000b0 34 78 3f 6c cf 2e ae 7f 84 df 3d 61 02 58 a4 f1
       52 120 63 108 -49 46 -82 127 -124 -33 61 97 2 88 -92 -15
0000c0 13 54 fe 17 bd 48 b0 c2 ef 56 6c ed 43 ee 0a 02
       19 84 -2 23 -67 72 -80 -62 -17 86 108 -19 67 -18 10 2
0000d0 1e b1 5b ac 01 e8 77 61 d9 82 66 a3 0e a1 0b 7a
       30 -79 91 -84 1 -24 119 97 -39 -126 102 -93 14 -95 11 122
0000e0 77 65 14 d9 ad e5 42 8f 31 3a 8c 47 51 25 83 83
       119 101 20 -39 -83 -27 66 -113 49 58 -116 71 81 37 -125 -125
0000f0 2f 12 12 06 31 be 25 f9 ed 6d 45 13 db c9 6b fb
       47 18 18 6 49 -66 37 -7 -19 109 69 19 -37 -55 107 -5

arith.constant56 i1 [16, 3, 3, 16]
000000 ac 67 29 9e 9d 2b 11 e6 ec 22 72 53 3d 9c f4 e0
       -84 103 41 -98 -99 43 17 -26 -20 34 114 83 61 -100 -12 -32
000010 e4 9f 47 8f fc 81 16 ec cc bb 39 dc 8a 58 b7 93
       -28 -97 71 -113 -4 -127 22 -20 -52 -69 57 -36 -118 88 -73 -109
000020 73 4e 9f 25 2b 52 e4 33 01 f3 b1 35 84 cb 7e 1c
       115 78 -97 37 43 82 -28 51 1 -13 -79 53 -124 -53 126 28
000030 7a 87 4e 79 bf 9a 08 9f 6c fb 69 a7 11 3e 81 cf
       122 -121 78 121 -65 -102 8 -97 108 -5 105 -89 17 62 -127 -49
000040 ea e2 fd 65 d7 1b b3 2f 63 e2 8e 8a 34 c0 48 3a
       -22 -30 -3 101 -41 27 -77 47 99 -30 -114 -118 52 -64 72 58
000050 9b a9 48 0b b0 ab 2e 36 a7 b5 a1 87 05 f5 3b 15
       -101 -87 72 11 -80 -85 46 54 -89 -75 -95 -121 5 -11 59 21
000060 b8 27 c2 0c e9 18 40 3d 84 b7 c0 ef ea 44 b8 0d
       -72 39 -62 12 -23 24 64 61 -124 -73 -64 -17 -22 68 -72 13
000070 35 73 78 23 cc c5 b8 38 45 06 9b 72 95 6f a3 58
       53 115 120 35 -52 -59 -72 56 69 6 -101 114 -107 111 -93 88
000080 db 45 60 e7 e1 f8 9c a0 9c a9 f5 50 5e c5 ba 75
       -37 69 96 -25 -31 -8 -100 -96 -100 -87 -11 80 94 -59 -70 117
000090 c7 8f 30 24 2b 9d f4 e9 0b c0 9e af fc 94 c6 ae
       -57 -113 48 36 43 -99 -12 -23 11 -64 -98 -81 -4 -108 -58 -82
0000a0 89 1f ac 28 83 f9 90 83 eb 9a 07 bf 5b 74 71 2b
       -119 31 -84 40 -125 -7 -112 -125 -21 -102 7 -65 91 116 113 43
0000b0 c2 7f d6 e7 f5 29 1b c4 9a af 91 33 fc 40 12 97
       -62 127 -42 -25 -11 41 27 -60 -102 -81 -111 51 -4 64 18 -105
0000c0 66 04 2f 1b 7c e2 f1 90 bd c5 f5 29 43 1f d2 86
       102 4 47 27 124 -30 -15 -112 -67 -59 -11 41 67 31 -46 -122
0000d0 eb 1a 95 35 89 d5 c3 7d 62 77 90 f5 4f a3 e2 2b
       -21 26 -107 53 -119 -43 -61 125 98 119 -112 -11 79 -93 -30 43
0000e0 d8 0d 33 92 8d 89 85 b0 c0 20 a1 bc bf 3e 67 b9
       -40 13 51 -110 -115 -119 -123 -80 -64 32 -95 -68 -65 62 103 -71
0000f0 d2 de 74 b6 20 06 19 2b 14 22 8d 39 a9 78 87 15
       -46 -34 116 -74 32 6 25 43 20 34 -115 57 -87 120 -121 21

arith.constant57 i1 [16, 3, 3, 16]
000000 21 0d 31 03 9c f2 e9 db 06 d2 06 11 8a 27 10 a8
       33 13 49 3 -100 -14 -23 -37 6 -46 6 17 -118 39 16 -88
000010 7e 22 fc c8 54 39 16 55 d2 bc 19 be b7 95 9d e1
       126 34 -4 -56 84 57 22 85 -46 -68 25 -66 -73 -107 -99 -31
000020 99 a7 99 f9 0a 12 fd 47 af 57 75 8d af 34 7b a9
       -103 -89 -103 -7 10 18 -3 71 -81 87 117 -115 -81 52 123 -87
000030 0b 41 06 4d 4b 9c 0a e6 6a 8c e4 24 81 6e 82 e7
       11 65 6 77 75 -100 10 -26 106 -116 -28 36 -127 110 -126 -25
000040 6a f3 fc b2 75 f5 57 d8 f0 8c 2e 46 38 a9 8b 42
       106 -13 -4 -78 117 -11 87 -40 -16 -116 46 70 56 -87 -117 66
000050 6f 87 67 f0 02 67 a9 cd 94 a4 f5 81 c6 6a c9 74
       111 -121 103 -16 2 103 -87 -51 -108 -92 -11 -127 -58 106 -55 116
000060 d2 8e cd 61 f1 46 92 ba 30 d3 cc 2b 2f ad b5 c3
       -46 -114 -51 97 -15 70 -110 -70 48 -45 -52 43 47 -83 -75 -61
000070 e3 18 1f 1e 53 8a 54 19 ff 3c 76 08 b1 e8 6d 98
       -29 24 31 30 83 -118 84 25 -1 60 118 8 -79 -24 109 -104
000080 96 25 7e 0a 75 07 cb 42 00 76 74 5e 37 99 4f c4
       -106 37 126 10 117 7 -53 66 0 118 116 94 55 -103 79 -60
000090 69 65 ce 71 47 d0 2d 53 4e 5d a1 3f cc dc 45 7c
       105 101 -50 113 71 -48 45 83 78 93 -95 63 -52 -36 69 124
0000a0 29 74 13 f7 9c 97 87 6c 02 7e f4 f5 68 a7 94 db
       41 116 19 -9 -100 -105 -121 108 2 126 -12 -11 104 -89 -108 -37
0000b0 33 33 8d 10 d5 9b 85 ea 9a 9a c7 b5 bb 35 e9 e1
       51 51 -115 16 -43 -101 -123 -22 -102 -102 -57 -75 -69 53 -23 -31
0000c0 37 92 17 93 3a fd fe 9e 43 fc 04 f9 39 34 4b bb
       55 -110 23 -109 58 -3 -2 -98 67 -4 4 -7 57 52 75 -69
0000d0 fc 3a c2 c6 22 50 59 8c 40 be 3a 57 da 25 aa 57
       -4 58 -62 -58 34 80 89 -116 64 -66 58 87 -38 37 -86 87
0000e0 02 38 35 a3 d8 e0 a0 b0 18 57 3a ee 5b a9 6a 97
       2 56 53 -93 -40 -32 -96 -80 24 87 58 -18 91 -87 106 -105
0000f0 63 5e 2e 1b 48 f3 cb 3d 89 46 8f 1d f6 14 d6 ce
       99 94 46 27 72 -13 -53 61 -119 70 -113 29 -10 20 -42 -50

arith.constant58 i1 [16, 3, 3, 16]
000000 f4 78 8a f8 1f f4 02 3f 3d d6 7b b8 4e 2d 88 a2
       -12 120 -118 -8 31 -12 2 63 61 -42 123 -72 78 45 -120 -94
000010 6a f0 77 83 2f cf 28 60 27 f1 e5 b0 b5 71 45 62
       106 -16 119 -125 47 -49 40 96 39 -15 -27 -80 -75 113 69 98
000020 d0 4d aa f6 a5 11 6f db 75 73 81 37 e1 f9 6e 55
       -48 77 -86 -10 -91 17 111 -37 117 115 -127 55 -31 -7 110 85
000030 e8 82 02 12 38 4b ac 68 ea bd ff 1f 27 5e b0 8e
       -24 -126 2 18 56 75 -84 104 -22 -67 -1 31 39 94 -80 -114
000040 5b 07 f1 dd 0e 01 8b aa f1 9f 78 bd e9 2d 41 8f
       91 7 -15 -35 14 1 -117 -86 -15 -97 120 -67 -23 45 65 -113
000050 23 3c 2d 82 9a 1d 12 2f a3 e2 d5 88 07 78 99 af
       35 60 45 -126 -102 29 18 47 -93 -30 -43 -120 7 120 -103 -81
000060 cd e7 8c 6e 83 ea 1f 27 12 55 b5 1b 45 c7 6d d7
       -51 -25 -116 110 -125 -22 31 39 18 85 -75 27 69 -57 109 -41
000070 78 39 1c 73 b8 9e 8e f0 11 6d ba 78 53 ca dd 7c
       120 57 28 115 -72 -98 -114 -16 17 109 -70 120 83 -54 -35 124
000080 72 dc 79 7a 76 e4 85 d8 42 8d f9 26 d0 b0 52 92
       114 -36 121 122 118 -28 -123 -40 66 -115 -7 38 -48 -80 82 -110
000090 c9 ca 55 db 1b 19 83 bf 4a 91 f5 47 ef ed 8b 83
       -55 -54 85 -37 27 25 -125 -65 74 -111 -11 71 -17 -19 -117 -125
0000a0 8c 21 5d 55 e1 4e be 5e a8 e2 5f 09 12 72 86 ec
       -116 33 93 85 -31 78 -66 94 -88 -30 95 9 18 114 -122 -20
0000b0 3f 46 cc 23 f5 27 3f 03 b4 7e 9d a1 bc 43 70 64
       63 70 -52 35 -11 39 63 3 -76 126 -99 -95 -68 67 112 100
0000c0 d5 94 2f 4c 64 19 00 60 05 f2 a4 93 c9 81 e3 7d
       -43 -108 47 76 100 25 0 96 5 -14 -92 -109 -55 -127 -29 125
0000d0 24 d2 53 08 ff 50 a7 57 b9 a0 be ee 6d 60 f7 5f
       36 -46 83 8 -1 80 -89 87 -71 -96 -66 -18 109 96 -9 95
0000e0 ca f0 8b 8e b9 b8 c1 0a e9 01 94 35 70 34 50 17
       -54 -16 -117 -114 -71 -72 -63 10 -23 1 -108 53 112 52 80 23
0000f0 d9 3e 4a 9a 12 9b 0e 8a fd e9 83 76 71 03 10 3a
       -39 62 74 -102 18 -101 14 -118 -3 -23 -125 118 113 3 16 58

arith.constant59 i1 [64, 192]
000000 7f 00 00 00 00 00 00 00 00 00 00 00 00 00 00 00
       127 0 0 0 0 0 0 0 0 0 0 0 0 0 0 0
000010 00 00 00 00 00 00 00 00 00 00 00 00 00 00 00 00
       0 0 0 0 0 0 0 0 0 0 0 0 0 0 0 0
000020 00 00 00 00 00 00 00 00 00 00 00 00 00 00 00 00
       0 0 0 0 0 0 0 0 0 0 0 0 0 0 0 0
000030 00 00 00 00 00 00 00 00 00 00 00 00 00 00 00 00
       0 0 0 0 0 0 0 0 0 0 0 0 0 0 0 0
000040 00 00 00 00 00 00 00 00 00 00 00 00 00 00 00 00
       0 0 0 0 0 0 0 0 0 0 0 0 0 0 0 0
000050 00 00 00 00 00 00 00 00 00 00 00 00 00 00 00 00
       0 0 0 0 0 0 0 0 0 0 0 0 0 0 0 0
000060 00 00 00 00 00 00 00 00 00 00 00 00 00 00 00 00
       0 0 0 0 0 0 0 0 0 0 0 0 0 0 0 0
000070 00 00 00 00 00 00 00 00 00 00 00 00 00 00 00 00
       0 0 0 0 0 0 0 0 0 0 0 0 0 0 0 0
000080 00 00 00 00 00 00 00 00 00 00 00 00 00 00 00 00
       0 0 0 0 0 0 0 0 0 0 0 0 0 0 0 0
000090 00 00 00 00 00 00 00 00 00 00 00 00 00 00 00 00
       0 0 0 0 0 0 0 0 0 0 0 0 0 0 0 0
0000a0 00 00 00 00 00 00 00 00 00 00 00 00 00 00 00 00
       0 0 0 0 0 0 0 0 0 0 0 0 0 0 0 0
0000b0 00 00 00 00 00 00 00 00 00 00 00 00 00 00 00 00
       0 0 0 0 0 0 0 0 0 0 0 0 0 0 0 0
0000c0 00 7f 40 00 00 00 00 00 00 00 00 00 00 00 00 00
       0 127 64 0 0 0 0 0 0 0 0 0 0 0 0 0
0000d0 00 00 00 00 00 00 00 00 00 00 00 00 00 00 00 00
       0 0 0 0 0 0 0 0 0 0 0 0 0 0 0 0
0000e0 00 00 00 00 00 00 00 00 00 00 00 00 00 00 00 00
       0 0 0 0 0 0 0 0 0 0 0 0 0 0 0 0
0000f0 00 00 00 00 00 00 00 00 00 00 00 00 00 00 00 00
       0 0 0 0 0 0 0 0 0 0 0 0 0 0 0 0

arith.constant69 i1 [16, 1, 1, 16]
000000 7f fe e7 62 28 9e 12 d8 fa c4 fd 13 29 19 fa bc
       127 -2 -25 98 40 -98 18 -40 -6 -60 -3 19 41 25 -6 -68
000010 5c 81 3d ba b9 09 c2 de 75 6f 32 33 a2 ee 9e 8a
       92 -127 61 -70 -71 9 -62 -34 117 111 50 51 -94 -18 -98 -118
000020 6c 00 ff 26 5a c1 7f 16 9c b6 94 43 c9 a2 a8 76
       108 0 -1 38 90 -63 127 22 -100 -74 -108 67 -55 -94 -88 118
000030 c4 f9 57 d7 8c 7b e1 81 01 7e 85 df a2 5e e4 b8
       -60 -7 87 -41 -116 123 -31 -127 1 126 -123 -33 -94 94 -28 -72
000040 35 21 66 e8 77 c1 81 f1 60 52 f2 99 4c f8 f0 cb
       53 33 102 -24 119 -63 -127 -15 96 82 -14 -103 76 -8 -16 -53
000050 64 bd ba 3c 29 4f 79 f1 3d 59 de a5 58 7f 12 f6
       100 -67 -70 60 41 79 121 -15 61 89 -34 -91 88 127 18 -10
000060 a3 b4 7f d3 14 da 38 00 d7 8e 6f 4d 1d 28 c9 d3
       -93 -76 127 -45 20 -38 56 0 -41 -114 111 77 29 40 -55 -45
000070 d5 62 32 4c 40 19 3d ce 00 a5 22 a4 81 47 b5 59
       -43 98 50 76 64 25 61 -50 0 -91 34 -92 -127 71 -75 89
000080 da 91 0f d5 18 52 b2 b1 df f3 16 33 7f 07 3b d7
       -38 -111 15 -43 24 82 -78 -79 -33 -13 22 51 127 7 59 -41
000090 67 01 54 81 bd 11 ae 28 4c 07 b5 be 39 a2 a0 db
       103 1 84 -127 -67 17 -82 40 76 7 -75 -66 57 -94 -96 -37
0000a0 81 68 87 2f c0 f0 52 88 d8 3e b1 5e 2f ce 26 fd
       -127 104 -121 47 -64 -16 82 -120 -40 62 -79 94 47 -50 38 -3
0000b0 9b d6 f3 10 41 63 3f b9 2c aa ab 92 d1 59 7f 0f
       -101 -42 -13 16 65 99 63 -71 44 -86 -85 -110 -47 89 127 15
0000c0 53 b6 a5 ec 37 2c 46 22 42 6b 37 b9 2f 1e 7f 11
       83 -74 -91 -20 55 44 70 34 66 107 55 -71 47 30 127 17
0000d0 4d 40 15 a6 ab f8 bf ed 81 57 bf 41 61 d2 b3 e2
       77 64 21 -90 -85 -8 -65 -19 -127 87 -65 65 97 -46 -77 -30
0000e0 cd 33 c7 57 28 66 b8 7f d8 1e c9 25 ac 1d db 8c
       -51 51 -57 87 40 102 -72 127 -40 30 -55 37 -84 29 -37 -116
0000f0 47 7f b2 d4 05 f8 15 55 b5 ed 4b 40 64 8e e5 34
       71 127 -78 -44 5 -8 21 85 -75 -19 75 64 100 -114 -27 52

arith.constant70 i1 [1, 3, 1, 16]
000000 cc 81 7f 62 7f 03 7f 2f 7f f0 81 81 81 61 7f 4d
       -52 -127 127 98 127 3 127 47 127 -16 -127 -127 -127 97 127 77
000010 9c 2b a4 89 0e 6e a1 7f 56 81 60 25 c3 81 53 4f
       -100 43 -92 -119 14 110 -95 127 86 -127 96 37 -61 -127 83 79
000020 81 ac 32 7f e7 81 f5 a1 50 50 90 07 5f 3b 75 81
       -127 -84 50 127 -25 -127 -11 -95 80 80 -112 7 95 59 117 -127

arith.constant71 i1 [16, 1, 1, 16]
000000 ef 91 77 b6 68 2f f4 a4 21 44 d4 7f 5d c5 0a 94
       -17 -111 119 -74 104 47 -12 -92 33 68 -44 127 93 -59 10 -108
000010 f2 03 9a 99 c0 6b 7b c2 f0 89 9f 7b 82 31 81 75
       -14 3 -102 -103 -64 107 123 -62 -16 -119 -97 123 -126 49 -127 117
000020 29 81 31 31 b6 04 32 9e 25 8d ac 2b 11 43 31 49
       41 -127 49 49 -74 4 50 -98 37 -115 -84 43 17 67 49 73
000030 11 92 8a 95 c0 2e 49 93 ea 8a 2e 53 f2 0c 81 cd
       17 -110 -118 -107 -64 46 73 -109 -22 -118 46 83 -14 12 -127 -51
000040 cf e8 96 f0 cb e6 81 e5 61 33 6f 94 b9 c4 b6 8e
       -49 -24 -106 -16 -53 -26 -127 -27 97 51 111 -108 -71 -60 -74 -114
000050 f8 ae 59 d7 8a 1b b5 86 d5 c7 07 11 a7 d2 f9 7f
       -8 -82 89 -41 -118 27 -75 -122 -43 -57 7 17 -89 -46 -7 127
000060 d7 7f 0c 1a 4c d1 74 34 e7 c0 ca 3b 6d 8b 48 da
       -41 127 12 26 76 -47 116 52 -25 -64 -54 59 109 -117 72 -38
000070 88 82 5d 81 38 2b 01 2a a3 48 4c ed 09 d3 8a e1
       -120 -126 93 -127 56 43 1 42 -93 72 76 -19 9 -45 -118 -31
000080 48 2a 29 a5 cd 9c e6 a2 c3 8e 7b 27 7f 0e 8f e7
       72 42 41 -91 -51 -100 -26 -94 -61 -114 123 39 127 14 -113 -25
000090 3c ed 13 8e c1 81 2c d8 90 1e 17 3a 21 2b 25 f4
       60 -19 19 -114 -63 -127 44 -40 -112 30 23 58 33 43 37 -12
0000a0 b8 60 d3 b9 87 a6 40 19 a6 9d 7f ad 53 de d2 c6
       -72 96 -45 -71 -121 -90 64 25 -90 -99 127 -83 83 -34 -46 -58
0000b0 be 7f 29 d5 20 74 6f 08 83 15 a3 ac 1a 44 40 d9
       -66 127 41 -43 32 116 111 8 -125 21 -93 -84 26 68 64 -39
0000c0 f8 67 ea d5 1a b8 8d 38 5a 42 7f 0f 31 de b5 12
       -8 103 -22 -43 26 -72 -115 56 90 66 127 15 49 -34 -75 18
0000d0 98 3a 37 9b 30 7d aa f2 e8 3e d2 7f 27 1e 25 49
       -104 58 55 -101 48 125 -86 -14 -24 62 -46 127 39 30 37 73
0000e0 99 76 3c 1e 70 07 00 a0 79 29 50 81 df 9d 46 67
       -103 118 60 30 112 7 0 -96 121 41 80 -127 -33 -99 70 103
0000f0 e0 cb a3 65 05 81 bb a4 8d 07 8e db 56 e9 79 d2
       -32 -53 -93 101 5 -127 -69 -92 -115 7 -114 -37 86 -23 121 -46

arith.constant72 i1 [16, 1, 1, 16]
000000 95 c9 50 25 9d 13 b5 a7 ca 22 81 10 2e fc 83 66
       -107 -55 80 37 -99 19 -75 -89 -54 34 -127 16 46 -4 -125 102
000010 53 e8 d1 83 ca b0 41 87 7f e6 95 5d 25 cb 68 9b
       83 -24 -47 -125 -54 -80 65 -121 127 -26 -107 93 37 -53 104 -101
000020 76 ca 58 3b 57 05 c4 92 f6 62 81 ec 77 50 34 7e
       118 -54 88 59 87 5 -60 -110 -10 98 -127 -20 119 80 52 126
000030 ee 81 27 23 db 66 55 fe 37 57 2a a0 b0 93 4a 36
       -18 -127 39 35 -37 102 85 -2 55 87 42 -96 -80 -109 74 54
000040 e2 b4 82 b1 a3 f2 f5 7f 83 11 08 4d 95 ff b0 c6
       -30 -76 -126 -79 -93 -14 -11 127 -125 17 8 77 -107 -1 -80 -58
000050 bf 84 73 81 91 db ee 2a c1 d2 3e 7b a6 51 87 ac
       -65 -124 115 -127 -111 -37 -18 42 -63 -46 62 123 -90 81 -121 -84
000060 e0 ce 73 71 e8 1b bc c8 05 2c 81 25 26 e7 5d 66
       -32 -50 115 113 -24 27 -68 -56 5 44 -127 37 38 -25 93 102
000070 63 0b d3 d1 7f eb 43 dd c4 33 64 89 81 2a 79 8e
       99 11 -45 -47 127 -21 67 -35 -60 51 100 -119 -127 42 121 -114
000080 1c a8 d3 a6 8e 81 fb b6 cd 3d c6 19 b0 bd b3 31
       28 -88 -45 -90 -114 -127 -5 -74 -51 61 -58 25 -80 -67 -77 49
000090 b5 eb 7f 56 2d 88 ee 70 a2 8a f7 4e a2 62 e5 1b
       -75 -21 127 86 45 -120 -18 112 -94 -118 -9 78 -94 98 -27 27
0000a0 fd b6 c9 bc 81 12 0d 71 1b 15 9d 59 f4 28 14 aa
       -3 -74 -55 -68 -127 18 13 113 27 21 -99 89 -12 40 20 -86
0000b0 1f e2 04 13 c2 8e f8 7f aa 8d ef 97 53 47 af 5e
       31 -30 4 19 -62 -114 -8 127 -86 -115 -17 -105 83 71 -81 94
0000c0 5b 93 92 3e a8 44 42 81 00 83 90 69 1f f4 a1 86
       91 -109 -110 62 -88 68 66 -127 0 -125 -112 105 31 -12 -95 -122
0000d0 fb 20 65 e4 3f e3 85 e2 17 02 7f 1c 5f 24 c3 4c
       -5 32 101 -28 63 -29 -123 -30 23 2 127 28 95 36 -61 76
0000e0 8c c1 d5 2d 15 c9 6f 5d 88 a4 ba f3 81 c7 64 b7
       -116 -63 -43 45 21 -55 111 93 -120 -92 -70 -13 -127 -57 100 -73
0000f0 16 7f 57 ef 94 1b 11 f7 c1 b3 0a a4 7d 02 a1 28
       22 127 87 -17 -108 27 17 -9 -63 -77 10 -92 125 2 -95 40

arith.constant73 i1 [1, 3, 1, 16]
000000 7f 39 1d 82 97 b4 7f 7f 32 97 81 c5 7f 81 fa a8
       127 57 29 -126 -105 -76 127 127 50 -105 -127 -59 127 -127 -6 -88
000010 41 45 89 7f 85 81 43 af 53 b8 7e 1d 16 1b 7f b6
       65 69 -119 127 -123 -127 67 -81 83 -72 126 29 22 27 127 -74
000020 07 7f 7f 2c 7f dc b9 53 81 81 1a 7f 9d 2a c5 7f
       7 127 127 44 127 -36 -71 83 -127 -127 26 127 -99 42 -59 127

arith.constant74 i1 [16, 1, 1, 16]
000000 2c 81 52 f6 4e f6 b2 2c ef 1a 42 19 87 34 41 84
       44 -127 82 -10 78 -10 -78 44 -17 26 66 25 -121 52 65 -124
000010 1d 35 9c d1 95 18 6b 1d 8a 81 35 73 88 1d db 5d
       29 53 -100 -47 -107 24 107 29 -118 -127 53 115 -120 29 -37 93
000020 5d 22 b7 db 57 04 7a b8 87 ab b8 a2 39 81 81 90
       93 34 -73 -37 87 4 122 -72 -121 -85 -72 -94 57 -127 -127 -112
000030 f4 ba e7 e0 43 e2 b8 98 fd 70 18 4b 81 00 85 1e
       -12 -70 -25 -32 67 -30 -72 -104 -3 112 24 75 -127 0 -123 30
000040 70 3a 82 17 7f ad 24 05 35 77 cd bc b4 5b ad 3e
       112 58 -126 23 127 -83 36 5 53 119 -51 -68 -76 91 -83 62
000050 d8 59 44 32 60 6a a9 75 97 4a c6 d1 85 8e 90 7f
       -40 89 68 50 96 106 -87 117 -105 74 -58 -47 -123 -114 -112 127
000060 b6 32 14 9d 00 ba b8 e4 49 4a d9 ea 8e 7f e8 78
       -74 50 20 -99 0 -70 -72 -28 73 74 -39 -22 -114 127 -24 120
000070 c2 0a c2 81 6d a6 d2 97 59 9b 82 77 ca 50 15 da
       -62 10 -62 -127 109 -90 -46 -105 89 -101 -126 119 -54 80 21 -38
000080 0f a2 0c 6a 81 81 2e ab a1 99 66 e8 3f ea 58 cb
       15 -94 12 106 -127 -127 46 -85 -95 -103 102 -24 63 -22 88 -53
000090 5c 90 21 75 41 83 8d 25 b4 bf 94 1c a9 3a 98 81
       92 -112 33 117 65 -125 -115 37 -76 -65 -108 28 -87 58 -104 -127
0000a0 b2 d4 b7 dc e0 f0 d4 7f 29 f4 1e c9 88 9b e1 ae
       -78 -44 -73 -36 -32 -16 -44 127 41 -12 30 -55 -120 -101 -31 -82
0000b0 71 25 60 2b f5 62 03 cf 1b 2a 7f 90 ba b5 17 00
       113 37 96 43 -11 98 3 -49 27 42 127 -112 -70 -75 23 0
0000c0 09 79 7f e5 c7 2b 83 ff 66 29 87 7b 9a f8 db 7c
       9 121 127 -27 -57 43 -125 -1 102 41 -121 123 -102 -8 -37 124
0000d0 ff 1e 10 bc cc 3a b6 53 96 82 a4 e8 00 c9 c6 7f
       -1 30 16 -68 -52 58 -74 83 -106 -126 -92 -24 0 -55 -58 127
0000e0 5b 31 92 24 1f db 8e 95 bc 65 3c ca 7f 55 91 a1
       91 49 -110 36 31 -37 -114 -107 -68 101 60 -54 127 85 -111 -95
0000f0 b3 69 74 1b 31 f2 6b c1 c3 9e b9 fa 8c 7f 47 38
       -77 105 116 27 49 -14 107 -63 -61 -98 -71 -6 -116 127 71 56

arith.constant75 i1 [16, 1, 1, 16]
000000 7f d3 cc 1c 3c 79 2e 06 71 f5 d2 99 2c 40 9d fe
       127 -45 -52 28 60 121 46 6 113 -11 -46 -103 44 64 -99 -2
000010 87 81 3d fc 45 5b 86 3d 8e 37 08 e0 c1 ac 34 a1
       -121 -127 61 -4 69 91 -122 61 -114 55 8 -32 -63 -84 52 -95
000020 ae 0c f0 b3 7f b9 7f 6c 33 30 21 e2 25 00 fe 45
       -82 12 -16 -77 127 -71 127 108 51 48 33 -30 37 0 -2 69
000030 26 74 65 2f 98 61 63 cd 3e b5 7f 42 e1 24 56 db
       38 116 101 47 -104 97 99 -51 62 -75 127 66 -31 36 86 -37
000040 46 f8 e6 cc b7 7f b2 14 60 eb 28 cf ff 37 e5 08
       70 -8 -26 -52 -73 127 -78 20 96 -21 40 -49 -1 55 -27 8
000050 e9 73 62 44 45 7d 03 76 35 86 d1 74 44 7f cf 1a
       -23 115 98 68 69 125 3 118 53 -122 -47 116 68 127 -49 26
000060 24 d6 44 af b7 7f 84 f3 02 c0 5f dc f1 96 7e ab
       36 -42 68 -81 -73 127 -124 -13 2 -64 95 -36 -15 -106 126 -85
000070 7f 42 1c c8 51 5a a4 da 8e 52 b8 79 15 fa 99 be
       127 66 28 -56 81 90 -92 -38 -114 82 -72 121 21 -6 -103 -66
000080 1e aa 7f 0f f1 01 44 47 43 fd 74 dd 81 8f a4 df
       30 -86 127 15 -15 1 68 71 67 -3 116 -35 -127 -113 -92 -33
000090 5d ef 21 33 c2 63 46 df 0e 70 39 7f fd 24 95 d3
       93 -17 33 51 -62 99 70 -33 14 112 57 127 -3 36 -107 -45
0000a0 4c 81 be da 7a ed df 8c c0 7f 1a 42 eb 98 d1 bc
       76 -127 -66 -38 122 -19 -33 -116 -64 127 26 66 -21 -104 -47 -68
0000b0 45 fa 7d 81 e1 56 db eb 78 b3 d3 f1 14 68 21 44
       69 -6 125 -127 -31 86 -37 -21 120 -77 -45 -15 20 104 33 68
0000c0 24 7f 87 95 37 bd 5d 1f c6 38 93 15 21 42 89 19
       36 127 -121 -107 55 -67 93 31 -58 56 -109 21 33 66 -119 25
0000d0 be 18 a0 7a de 81 82 bf c8 61 4f 74 c4 36 41 c8
       -66 24 -96 122 -34 -127 -126 -65 -56 97 79 116 -60 54 65 -56
0000e0 bc a3 81 98 6c 2a 88 fe ee 9f 18 4f db 73 68 7f
       -68 -93 -127 -104 108 42 -120 -2 -18 -97 24 79 -37 115 104 127
0000f0 3c d8 05 71 58 2d 76 53 6d 7f 8b fd 61 5d 39 b1
       60 -40 5 113 88 45 118 83 109 127 -117 -3 97 93 57 -79

arith.constant76 i1 [1, 3, 1, 16]
000000 7f aa 7f 12 61 7f 7f 7f 7f de 3a 77 7f 81 d9 44
       127 -86 127 18 97 127 127 127 127 -34 58 119 127 -127 -39 68
000010 c1 01 e2 7f 61 54 ea 85 26 7f 7f 7f 9f 8f 85 8a
       -63 1 -30 127 97 84 -22 -123 38 127 127 127 -97 -113 -123 -118
000020 a8 7f 98 bd 7f 88 8d ac 47 ba d5 57 ec 1a 7f 7f
       -88 127 -104 -67 127 -120 -115 -84 71 -70 -43 87 -20 26 127 127

arith.constant77 i1 [16, 1, 1, 16]
000000 83 88 81 2e 5f 02 41 f7 dd 69 7a 23 4b 53 31 08
       -125 -120 -127 46 95 2 65 -9 -35 105 122 35 75 83 49 8
000010 2d 0a 5c 06 57 4f fb 7f 46 d7 59 d9 c2 03 48 17
       45 10 92 6 87 79 -5 127 70 -41 89 -39 -62 3 72 23
000020 13 20 2b 59 b7 ad 97 21 a6 9c 38 9b bc 81 50 4e
       19 32 43 89 -73 -83 -105 33 -90 -100 56 -101 -68 -127 80 78
000030 bd f5 82 f8 df 4b 8d 3e ee 90 64 e4 81 41 79 63
       -67 -11 -126 -8 -33 75 -115 62 -18 -112 100 -28 -127 65 121 99
000040 4f 50 96 03 38 82 1a 7f 4a 57 db fc 6e 8f 15 28
       79 80 -106 3 56 -126 26 127 74 87 -37 -4 110 -113 21 40
000050 9d 7f 19 68 f5 b9 c5 4d 7a 3d 46 26 95 2c 5e 33
       -99 127 25 104 -11 -71 -59 77 122 61 70 38 -107 44 94 51
000060 f8 26 cb ee 99 5e 0b 1c 81 13 5a c5 d1 88 4f 2b
       -8 38 -53 -18 -103 94 11 28 -127 19 90 -59 -47 -120 79 43
000070 c5 d1 6e b9 82 7f 98 fc be bb 3c 93 62 61 3a 70
       -59 -47 110 -71 -126 127 -104 -4 -66 -69 60 -109 98 97 58 112
000080 55 9f 34 ab 57 d1 fa d5 56 86 98 5e 87 ce 7f 20
       85 -97 52 -85 87 -47 -6 -43 86 -122 -104 94 -121 -50 127 32
000090 72 fd 96 81 5a ba 39 66 fc 56 bf e1 c6 62 7c 0f
       114 -3 -106 -127 90 -70 57 102 -4 86 -65 -31 -58 98 124 15
0000a0 a4 38 03 4b a9 9e 5e d8 91 eb 7b a0 8b 90 7f e3
       -92 56 3 75 -87 -98 94 -40 -111 -21 123 -96 -117 -112 127 -29
0000b0 29 db 9c b7 fb 83 d8 63 81 96 9f f9 b5 2a 21 89
       41 -37 -100 -73 -5 -125 -40 99 -127 -106 -97 -7 -75 42 33 -119
0000c0 77 ad 99 c0 a0 0d ad b4 e6 7f 4f 65 e2 42 2b 74
       119 -83 -103 -64 -96 13 -83 -76 -26 127 79 101 -30 66 43 116
0000d0 7e 7f f9 4d 90 38 f6 30 9d 0f 5b 21 1c 2e a1 3b
       126 127 -7 77 -112 56 -10 48 -99 15 91 33 28 46 -95 59
0000e0 b5 ae 1f f5 9f c2 a7 28 bb 7f 72 5d 54 4f 9e 62
       -75 -82 31 -11 -97 -62 -89 40 -69 127 114 93 84 79 -98 98
0000f0 81 d2 0d e8 79 31 a2 da 2e 54 9c b5 c1 9b 56 a9
       -127 -46 13 -24 121 49 -94 -38 46 84 -100 -75 -63 -101 86 -87

arith.constant78 i1 [16, 1, 1, 16]
000000 8c 4f f7 52 a6 ec 4c 2f 8d d1 7f 3f e6 44 0a 41
       -116 79 -9 82 -90 -20 76 47 -115 -47 127 63 -26 68 10 65
000010 6c fb 17 18 43 81 c5 cd ea 05 2f 7f 95 84 b5 cf
       108 -5 23 24 67 -127 -59 -51 -22 5 47 127 -107 -124 -75 -49
000020 c1 84 22 d0 0d 6a a6 7f 94 71 01 72 b8 97 1e e2
       -63 -124 34 -48 13 106 -90 127 -108 113 1 114 -72 -105 30 -30
000030 7e 78 82 be 20 15 2c 6d 81 cd 74 bc be 42 4d b9
       126 120 -126 -66 32 21 44 109 -127 -51 116 -68 -66 66 77 -71
000040 8c 76 43 97 77 6c df b4 7f 8f c1 79 5d 28 5c d5
       -116 118 67 -105 119 108 -33 -76 127 -113 -63 121 93 40 92 -43
000050 01 0f 27 f2 c4 7f b5 45 ae 29 ee ef df 62 71 26
       1 15 39 -14 -60 127 -75 69 -82 41 -18 -17 -33 98 113 38
000060 ca 04 77 81 65 30 02 6d 48 55 4e 21 90 36 90 25
       -54 4 119 -127 101 48 2 109 72 85 78 33 -112 54 -112 37
000070 09 0e 4f 7f 3e ad cf 40 c2 34 8a 57 ea 56 0c 50
       9 14 79 127 62 -83 -49 64 -62 52 -118 87 -22 86 12 80
000080 b0 c0 51 f4 ec 4d e1 50 2d 82 99 a8 bf 4b 7f 60
       -80 -64 81 -12 -20 77 -31 80 45 -126 -103 -88 -65 75 127 96
000090 73 7f 39 a0 a0 23 e7 fa 18 49 76 41 ed fe 54 65
       115 127 57 -96 -96 35 -25 -6 24 73 118 65 -19 -2 84 101
0000a0 79 71 ac f0 7f 4a 05 cf 48 b4 9a 36 44 86 51 88
       121 113 -84 -16 127 74 5 -49 72 -76 -102 54 68 -122 81 -120
0000b0 ca 0b c8 87 8b 1f 3b 62 5f e0 da e9 81 13 9d c3
       -54 11 -56 -121 -117 31 59 98 95 -32 -38 -23 -127 19 -99 -61
0000c0 ce 54 ae 74 9a 91 3f 57 43 54 a6 16 81 e8 30 9a
       -50 84 -82 116 -102 -111 63 87 67 84 -90 22 -127 -24 48 -102
0000d0 6e 94 39 ff 56 c4 e9 ec 7e 19 06 24 01 c9 7f 84
       110 -108 57 -1 86 -60 -23 -20 126 25 6 36 1 -55 127 -124
0000e0 1e 58 76 74 93 4a aa d6 9a 57 f5 81 70 cb 9c b9
       30 88 118 116 -109 74 -86 -42 -102 87 -11 -127 112 -53 -100 -71
0000f0 5a 4d d6 23 b2 fc 65 c8 e8 24 4c c5 0e 43 1d 81
       90 77 -42 35 -78 -4 101 -56 -24 36 76 -59 14 67 29 -127

arith.constant79 i1 [1, 3, 1, 16]
000000 9e d2 7f 7f f6 9f 35 a9 9e bf 2a c6 81 77 5b 7f
       -98 -46 127 127 -10 -97 53 -87 -98 -65 42 -58 -127 119 91 127
000010 81 81 07 ba 10 a8 81 f7 7f 2f b4 f2 e3 7f 81 d4
       -127 -127 7 -70 16 -88 -127 -9 127 47 -76 -14 -29 127 -127 -44
000020 14 f1 f1 23 81 81 ba 7f 06 7f 81 81 ef e4 40 8c
       20 -15 -15 35 -127 -127 -70 127 6 127 -127 -127 -17 -28 64 -116

arith.constant80 i1 [16, 1, 1, 16]
000000 50 1e 44 5f 7b 71 a2 65 82 97 8c 41 7f e1 1b aa
       80 30 68 95 123 113 -94 101 -126 -105 -116 65 127 -31 27 -86
000010 35 f2 24 49 3b b8 0e 3a ed 65 99 74 68 ee 81 97
       53 -14 36 73 59 -72 14 58 -19 101 -103 116 104 -18 -127 -105
000020 b8 d2 6e 1a e3 18 b7 7a d7 1f 63 4e 97 d0 81 9b
       -72 -46 110 26 -29 24 -73 122 -41 31 99 78 -105 -48 -127 -101
000030 5a 82 1e c3 3e c9 cf 48 16 6b f4 96 7f fd 46 33
       90 -126 30 -61 62 -55 -49 72 22 107 -12 -106 127 -3 70 51
000040 6f 3c a7 af 31 7f 27 01 8e e5 98 1c 26 5d 1e 12
       111 60 -89 -81 49 127 39 1 -114 -27 -104 28 38 93 30 18
000050 60 64 73 3b 68 ea 5f 9b 7f 5d 9b 2c b0 b3 10 a6
       96 100 115 59 104 -22 95 -101 127 93 -101 44 -80 -77 16 -90
000060 83 c8 69 70 2c 08 08 ae 30 7f fa cc 00 f1 b0 c8
       -125 -56 105 112 44 8 8 -82 48 127 -6 -52 0 -15 -80 -56
000070 1a ce ad 81 ad d4 95 4d 9a 7e e1 a5 08 a7 0b fa
       26 -50 -83 -127 -83 -44 -107 77 -102 126 -31 -91 8 -89 11 -6
000080 4f a6 c7 c6 a6 a8 96 c1 04 a2 81 f3 5a e7 fc 39
       79 -90 -57 -58 -90 -88 -106 -63 4 -94 -127 -13 90 -25 -4 57
000090 9f 4b be 79 81 a5 70 4f c7 eb c8 c0 11 0f 73 e6
       -97 75 -66 121 -127 -91 112 79 -57 -21 -56 -64 17 15 115 -26
0000a0 87 1f 05 e8 21 33 44 7f 93 a6 9d 7c 6d a3 14 fd
       -121 31 5 -24 33 51 68 127 -109 -90 -99 124 109 -93 20 -3
0000b0 7f 7f 15 f8 8b de 96 e7 3b 78 43 c1 9e 47 ee 8d
       127 127 21 -8 -117 -34 -106 -25 59 120 67 -63 -98 71 -18 -115
0000c0 77 25 f4 9a d0 1a 7f 60 59 68 74 dd 79 09 cc 25
       119 37 -12 -102 -48 26 127 96 89 104 116 -35 121 9 -52 37
0000d0 31 3b 35 9b 0d 2e fd df 81 92 aa 7b e2 a9 3e 9c
       49 59 53 -101 13 46 -3 -33 -127 -110 -86 123 -30 -87 62 -100
0000e0 fc e5 09 b6 81 38 97 db 4c 8b b4 28 77 c4 ef 6e
       -4 -27 9 -74 -127 56 -105 -37 76 -117 -76 40 119 -60 -17 110
0000f0 a8 81 6b 9f c7 05 42 73 f5 55 c2 89 5d 62 a3 61
       -88 -127 107 -97 -57 5 66 115 -11 85 -62 -119 93 98 -93 97

arith.constant81 i1 [16, 1, 1, 16]
000000 d0 f7 21 61 3c 7f 6a e5 07 a2 17 90 7d a7 02 77
       -48 -9 33 97 60 127 106 -27 7 -94 23 -112 125 -89 2 119
000010 b9 3e f2 f1 b8 1f 7f 9c fe 75 6f 59 20 81 fa e9
       -71 62 -14 -15 -72 31 127 -100 -2 117 111 89 32 -127 -6 -23
000020 3e 7f dd ca 28 aa 1f ea c5 43 45 2c 06 16 c0 fb
       62 127 -35 -54 40 -86 31 -22 -59 67 69 44 6 22 -64 -5
000030 d6 d0 81 68 ba c5 a4 f5 51 c7 90 f3 d2 2e b1 01
       -42 -48 -127 104 -70 -59 -92 -11 81 -57 -112 -13 -46 46 -79 1
000040 20 52 01 43 00 9f e7 1d f0 61 90 41 a0 9d e9 7f
       32 82 1 67 0 -97 -25 29 -16 97 -112 65 -96 -99 -23 127
000050 8f 75 2d 81 84 32 c9 e8 2d a9 a8 a7 4c 17 3a 47
       -113 117 45 -127 -124 50 -55 -24 45 -87 -88 -89 76 23 58 71
000060 df 62 1c 34 89 e2 ac 77 2b 73 81 c8 93 15 38 18
       -33 98 28 52 -119 -30 -84 119 43 115 -127 -56 -109 21 56 24
000070 f5 16 d1 28 16 15 7c 69 54 1b 7f d2 34 13 18 36
       -11 22 -47 40 22 21 124 105 84 27 127 -46 52 19 24 54
000080 60 9d 27 c6 0a df 7f b3 bf 09 53 c3 05 d1 c9 53
       96 -99 39 -58 10 -33 127 -77 -65 9 83 -61 5 -47 -55 83
000090 2f 96 b3 9f 85 49 ce 21 7f 3f e1 11 79 38 36 23
       47 -106 -77 -97 -123 73 -50 33 127 63 -31 17 121 56 54 35
0000a0 51 bd 91 e2 13 81 e9 c2 de a2 cf f4 91 38 cf fe
       81 -67 -111 -30 19 -127 -23 -62 -34 -94 -49 -12 -111 56 -49 -2
0000b0 6d 48 1c e8 84 50 b4 25 55 11 fe ae 61 0e 81 bd
       109 72 28 -24 -124 80 -76 37 85 17 -2 -82 97 14 -127 -67
0000c0 c7 ff 81 62 be 47 b3 14 66 72 2c 57 2a 48 50 2d
       -57 -1 -127 98 -66 71 -77 20 102 114 44 87 42 72 80 45
0000d0 5e a6 42 98 1f 04 1b 7f 3c 52 9f ff bc 79 f7 6c
       94 -90 66 -104 31 4 27 127 60 82 -97 -1 -68 121 -9 108
0000e0 16 4f da f1 a1 9f 15 7f f8 d7 69 22 22 7c 07 41
       22 79 -38 -15 -95 -97 21 127 -8 -41 105 34 34 124 7 65
0000f0 45 8e df 55 90 06 e2 c6 34 49 28 49 af c7 62 81
       69 -114 -33 85 -112 6 -30 -58 52 73 40 73 -81 -57 98 -127

arith.constant82 i1 [1, 3, 1, 16]
000000 8d 7f a1 1f 81 57 78 59 3e fe 0d 98 14 81 81 2a
       -115 127 -95 31 -127 87 120 89 62 -2 13 -104 20 -127 -127 42
000010 81 21 7f 2a bf 39 5d c5 7f fc 7c 7f d7 f1 99 81
       -127 33 127 42 -65 57 93 -59 127 -4 124 127 -41 -15 -103 -127
000020 e1 c6 29 81 5f 7f 81 7f d2 7f 81 c4 81 35 f7 2b
       -31 -58 41 -127 95 127 -127 127 -46 127 -127 -60 -127 53 -9 43

arith.constant83 i1 [16, 1, 1, 16]
000000 fc 26 81 b4 ba e0 54 dc 16 10 86 d2 5d 05 02 91
       -4 38 -127 -76 -70 -32 84 -36 22 16 -122 -46 93 5 2 -111
000010 3a a8 c2 bf 68 e8 c5 a0 63 81 37 34 ac 56 ac 97
       58 -88 -62 -65 104 -24 -59 -96 99 -127 55 52 -84 86 -84 -105
000020 d4 ea 62 83 3b 21 55 88 89 4c 26 7f 03 32 12 16
       -44 -22 98 -125 59 33 85 -120 -119 76 38 127 3 50 18 22
000030 90 ed 4a 2b 29 25 14 81 16 5d 60 79 68 a6 ae ee
       -112 -19 74 43 41 37 20 -127 22 93 96 121 104 -90 -82 -18
000040 bf 7f b5 00 11 9a 93 ff 63 9d 57 4d bb f7 3f b8
       -65 127 -75 0 17 -102 -109 -1 99 -99 87 77 -69 -9 63 -72
000050 f1 71 7a 42 be 51 00 38 7c 81 aa 60 d5 77 a0 4f
       -15 113 122 66 -66 81 0 56 124 -127 -86 96 -43 119 -96 79
000060 b4 a9 79 c0 7f 5d 93 0e 78 ed c3 3e b7 43 1e 5d
       -76 -87 121 -64 127 93 -109 14 120 -19 -61 62 -73 67 30 93
000070 fb c4 81 a4 03 54 2f 4c 85 78 41 b7 5d 6d 7b 49
       -5 -60 -127 -92 3 84 47 76 -123 120 65 -73 93 109 123 73
000080 1d b6 c0 81 53 7d 25 35 de b4 ac 97 5f 76 aa 94
       29 -74 -64 -127 83 125 37 53 -34 -76 -84 -105 95 118 -86 -108
000090 7f 07 ee ec 34 03 be c5 67 3c 94 ea e0 5e ba 04
       127 7 -18 -20 52 3 -66 -59 103 60 -108 -22 -32 94 -70 4
0000a0 d2 83 be 4b 45 db f1 db 57 1e 7f b1 b4 56 8b 74
       -46 -125 -66 75 69 -37 -15 -37 87 30 127 -79 -76 86 -117 116
0000b0 ee 83 e5 7d 26 af a7 3c b5 81 d3 48 f9 bc fc 6a
       -18 -125 -27 125 38 -81 -89 60 -75 -127 -45 72 -7 -68 -4 106
0000c0 c4 b3 2c 85 9b e9 f4 89 8b ab b2 01 50 35 e9 7f
       -60 -77 44 -123 -101 -23 -12 -119 -117 -85 -78 1 80 53 -23 127
0000d0 9f ee e6 81 cd ad e8 d2 84 f2 42 2c 4b 9a de db
       -97 -18 -26 -127 -51 -83 -24 -46 -124 -14 66 44 75 -102 -34 -37
0000e0 60 71 17 e0 39 5e 90 64 a0 d2 81 89 98 0a ed 2f
       96 113 23 -32 57 94 -112 100 -96 -46 -127 -119 -104 10 -19 47
0000f0 2b 38 79 bb 27 92 3d b1 bc dc a6 af a5 c2 7f a3
       43 56 121 -69 39 -110 61 -79 -68 -36 -90 -81 -91 -62 127 -93

arith.constant84 i1 [16, 1, 1, 16]
000000 f7 e7 a0 1f 4b 12 65 88 12 81 72 82 08 d0 d7 9c
       -9 -25 -96 31 75 18 101 -120 18 -127 114 -126 8 -48 -41 -100
000010 84 61 15 4a c2 81 25 87 e4 17 16 f7 7d 66 78 66
       -124 97 21 74 -62 -127 37 -121 -28 23 22 -9 125 102 120 102
000020 6f 19 73 81 83 6b c5 66 9a 42 d7 c1 4f c2 60 0c
       111 25 115 -127 -125 107 -59 102 -102 66 -41 -63 79 -62 96 12
000030 19 b1 34 b5 69 ed fd a5 86 69 0e 8a 4b 6b c7 81
       25 -79 52 -75 105 -19 -3 -91 -122 105 14 -118 75 107 -57 -127
000040 8f 3e b4 c0 74 f9 10 7f a0 25 d2 06 5d 40 48 5e
       -113 62 -76 -64 116 -7 16 127 -96 37 -46 6 93 64 72 94
000050 d8 36 7f ba 77 7f a2 1c 1e 44 ff fa 57 a2 73 0b
       -40 54 127 -70 119 127 -94 28 30 68 -1 -6 87 -94 115 11
000060 f1 0e 4c bf 43 d1 74 20 cb 17 c2 11 c7 25 7f d2
       -15 14 76 -65 67 -47 116 32 -53 23 -62 17 -57 37 127 -46
000070 52 45 4c ea 64 8b 8b 22 76 81 9f 97 7f cf b2 8e
       82 69 76 -22 100 -117 -117 34 118 -127 -97 -105 127 -49 -78 -114
000080 7f 39 84 60 d3 d6 37 6c 8e a6 43 eb c2 2f cd c2
       127 57 -124 96 -45 -42 55 108 -114 -90 67 -21 -62 47 -51 -62
000090 5d 81 e6 2d 50 4c e3 eb 5a 1c 34 ba 99 59 dc e2
       93 -127 -26 45 80 76 -29 -21 90 28 52 -70 -103 89 -36 -30
0000a0 87 d8 63 ac 51 71 fb b8 08 db c7 26 7f 62 b5 d9
       -121 -40 99 -84 81 113 -5 -72 8 -37 -57 38 127 98 -75 -39
0000b0 da 2f 48 28 08 bb b6 d1 2f 6e 78 81 e7 74 b4 40
       -38 47 72 40 8 -69 -74 -47 47 110 120 -127 -25 116 -76 64
0000c0 b7 45 15 50 05 ca f7 45 8c ff c3 09 3b 9f 81 de
       -73 69 21 80 5 -54 -9 69 -116 -1 -61 9 59 -97 -127 -34
0000d0 3e 55 25 dc 34 b2 9c 04 29 a7 7c dd 77 81 88 93
       62 85 37 -36 52 -78 -100 4 41 -89 124 -35 119 -127 -120 -109
0000e0 7e 39 2e 7f 8b 27 da 4d 0d 57 5e 91 f9 55 52 e3
       126 57 46 127 -117 39 -38 77 13 87 94 -111 -7 85 82 -29
0000f0 75 e4 94 e3 98 04 dd ed 61 4d 2d 11 cb 01 4a 7f
       117 -28 -108 -29 -104 4 -35 -19 97 77 45 17 -53 1 74 127

arith.constant85 i1 [1, 3, 1, 16]
000000 7f 9b 7f b4 c1 f7 a0 39 81 c7 77 7f d5 cc 88 f6
       127 -101 127 -76 -63 -9 -96 57 -127 -57 119 127 -43 -52 -120 -10
000010 ee 7f bd 81 7f 7f c1 c2 f6 7f 29 0e 81 7f 4f c8
       -18 127 -67 -127 127 127 -63 -62 -10 127 41 14 -127 127 79 -56
000020 73 91 6a 06 2f c7 81 7f 6e cf 81 db 1e a2 81 81
       115 -111 106 6 47 -57 -127 127 110 -49 -127 -37 30 -94 -127 -127

arith.constant86 i1 [16, 1, 1, 16]
000000 c3 97 b7 c2 2f 24 3e 3a 7f f0 eb 0f eb fb 77 c5
       -61 -105 -73 -62 47 36 62 58 127 -16 -21 15 -21 -5 119 -59
000010 55 d3 c8 f1 f0 21 7f ae b9 df aa d2 b1 a8 50 ee
       85 -45 -56 -15 -16 33 127 -82 -71 -33 -86 -46 -79 -88 80 -18
000020 9f 7f 19 36 77 ef 15 f5 d3 ab e2 17 be ab 9a 58
       -97 127 25 54 119 -17 21 -11 -45 -85 -30 23 -66 -85 -102 88
000030 ee 51 d7 fd 09 81 47 e6 e5 64 2d 58 7a 1b d2 71
       -18 81 -41 -3 9 -127 71 -26 -27 100 45 88 122 27 -46 113
000040 c3 ed 56 8f fc 44 73 f3 ad b1 73 62 3e 81 a0 1f
       -61 -19 86 -113 -4 68 115 -13 -83 -79 115 98 62 -127 -96 31
000050 6d 9a 55 48 38 f7 95 a0 0a 7f 3d 6e 71 23 79 4e
       109 -102 85 72 56 -9 -107 -96 10 127 61 110 113 35 121 78
000060 c9 e1 42 83 df 7f 85 db 66 e5 ba 7c 8c 74 42 cf
       -55 -31 66 -125 -33 127 -123 -37 102 -27 -70 124 -116 116 66 -49
000070 17 53 30 a4 1e cb 1b a4 7f 88 32 ff d3 f3 96 50
       23 83 48 -92 30 -53 27 -92 127 -120 50 -1 -45 -13 -106 80
000080 09 1d 39 29 a2 bf fd 70 2e 7f 1b 2c 2b 87 69 10
       9 29 57 41 -94 -65 -3 112 46 127 27 44 43 -121 105 16
000090 de e5 4e 57 53 f4 30 7b 66 bc 60 db ca 54 7f 2f
       -34 -27 78 87 83 -12 48 123 102 -68 96 -37 -54 84 127 47
0000a0 3b 82 da 52 15 79 84 d3 8f 94 e7 7f 6a ef 87 f2
       59 -126 -38 82 21 121 -124 -45 -113 -108 -25 127 106 -17 -121 -14
0000b0 29 2e 94 9f 81 87 15 e2 b0 a0 e8 f5 9f 35 f2 56
       41 46 -108 -97 -127 -121 21 -30 -80 -96 -24 -11 -97 53 -14 86
0000c0 23 3b 83 30 92 c8 f5 7f 79 42 86 af 8a 90 58 c3
       35 59 -125 48 -110 -56 -11 127 121 66 -122 -81 -118 -112 88 -61
0000d0 d1 cc dc 21 cf 55 f1 81 f8 9e c6 b4 ba 65 8d d6
       -47 -52 -36 33 -49 85 -15 -127 -8 -98 -58 -76 -70 101 -115 -42
0000e0 2f 1d e7 30 9d 7f 25 11 c4 9f ba c7 0e 34 77 ef
       47 29 -25 48 -99 127 37 17 -60 -97 -70 -57 14 52 119 -17
0000f0 e7 f3 3a ab ba 5a b7 d4 63 ce 93 d0 05 7f ff a8
       -25 -13 58 -85 -70 90 -73 -44 99 -50 -109 -48 5 127 -1 -88

arith.constant87 i1 [16, 1, 1, 16]
000000 2a 8a c1 5a 55 df 4f fe 3b b7 56 60 63 7f 63 5f
       42 -118 -63 90 85 -33 79 -2 59 -73 86 96 99 127 99 95
000010 37 ae ba 2b 91 9f 7f 5a f6 57 e4 46 8f 34 bc 55
       55 -82 -70 43 -111 -97 127 90 -10 87 -28 70 -113 52 -68 85
000020 7f de 87 19 48 79 ca e0 05 85 cc 7b e6 75 f5 9e
       127 -34 -121 25 72 121 -54 -32 5 -123 -52 123 -26 117 -11 -98
000030 72 63 9f 7f 77 51 ec 77 f5 b4 ef ff 6f bc 36 9a
       114 99 -97 127 119 81 -20 119 -11 -76 -17 -1 111 -68 54 -102
000040 bb f7 7f e1 e4 d7 f4 27 71 43 06 c0 9c b2 00 cc
       -69 -9 127 -31 -28 -41 -12 39 113 67 6 -64 -100 -78 0 -52
000050 2e be cc 7f 65 25 fd 4f c2 a5 e9 e5 d8 29 d3 3d
       46 -66 -52 127 101 37 -3 79 -62 -91 -23 -27 -40 41 -45 61
000060 0a 00 58 16 2f 0f 52 9b 7f 93 ad 32 91 de c2 88
       10 0 88 22 47 15 82 -101 127 -109 -83 50 -111 -34 -62 -120
000070 e3 84 6e f5 86 36 4c 6d f7 ef 3b 5f ec ca a3 81
       -29 -124 110 -11 -122 54 76 109 -9 -17 59 95 -20 -54 -93 -127
000080 89 d5 43 7f 6d 58 28 8c 8d e9 8d 5d 34 b6 b7 02
       -119 -43 67 127 109 88 40 -116 -115 -23 -115 93 52 -74 -73 2
000090 c5 b2 b1 86 7f b4 cb c4 0f cc 33 f4 de 0d e9 cc
       -59 -78 -79 -122 127 -76 -53 -60 15 -52 51 -12 -34 13 -23 -52
0000a0 c1 e1 e1 82 78 81 12 d7 37 ff c7 1a 7d 14 5c 36
       -63 -31 -31 -126 120 -127 18 -41 55 -1 -57 26 125 20 92 54
0000b0 3c 71 b0 2b 38 95 7f aa a0 9a 7f 3c f7 d1 81 13
       60 113 -80 43 56 -107 127 -86 -96 -102 127 60 -9 -47 -127 19
0000c0 75 7f 6d 42 2c 17 6e 55 8a 02 05 d3 c8 b2 53 a4
       117 127 109 66 44 23 110 85 -118 2 5 -45 -56 -78 83 -92
0000d0 7f 0f 4b 14 da 94 da d9 87 b4 66 ee aa 14 a7 a8
       127 15 75 20 -38 -108 -38 -39 -121 -76 102 -18 -86 20 -89 -88
0000e0 44 fb 0f 4c b5 08 45 46 67 ea ea 4a a4 4d 81 f0
       68 -5 15 76 -75 8 69 70 103 -22 -22 74 -92 77 -127 -16
0000f0 c3 47 7f 8b af af e5 dd 3f 42 df af e9 6e 2a 6b
       -61 71 127 -117 -81 -81 -27 -35 63 66 -33 -81 -23 110 42 107

arith.constant88 i1 [1, 3, 1, 16]
000000 81 81 03 44 8b 8b 65 79 96 b8 81 d3 d3 dd 7f 81
       -127 -127 3 68 -117 -117 101 121 -106 -72 -127 -45 -45 -35 127 -127
000010 9a 15 a8 5e 81 5b 81 7f 7f 49 ac 9c 57 3c f3 2e
       -102 21 -88 94 -127 91 -127 127 127 73 -84 -100 87 60 -13 46
000020 7d 3d 81 81 59 7f 1d 74 d0 7f e6 7f 7f 7f 2f 7f
       125 61 -127 -127 89 127 29 116 -48 127 -26 127 127 127 47 127

arith.constant89 i1 [16, 1, 1, 16]
000000 6d 26 77 64 6a d0 a4 91 23 11 7a 07 9f 81 a9 0e
       109 38 119 100 106 -48 -92 -111 35 17 122 7 -97 -127 -87 14
000010 7f 76 d5 ce 7d c5 0d 58 14 65 e5 7a 2b 2f 5e 99
       127 118 -43 -50 125 -59 13 88 20 101 -27 122 43 47 94 -103
000020 1c d9 bf 6c c4 63 53 e3 81 b8 8c b8 28 e7 23 a0
       28 -39 -65 108 -60 99 83 -29 -127 -72 -116 -72 40 -25 35 -96
000030 ae a9 49 47 81 60 cc a4 8f 0f 82 8b 9d 3e d2 12
       -82 -87 73 71 -127 96 -52 -92 -113 15 -126 -117 -99 62 -46 18
000040 33 32 d4 14 cf 18 1a 13 7f b3 8f 27 87 10 50 1b
       51 50 -44 20 -49 24 26 19 127 -77 -113 39 -121 16 80 27
000050 c2 76 ce 88 b2 da b6 44 92 1b d5 e2 7f ca fd af
       -62 118 -50 -120 -78 -38 -74 68 -110 27 -43 -30 127 -54 -3 -81
000060 54 88 a4 7f 34 c8 a8 63 5b 30 90 c3 d0 fc bd 54
       84 -120 -92 127 52 -56 -88 99 91 48 -112 -61 -48 -4 -67 84
000070 0c 7e 7f a6 2b 64 1f c2 93 e3 30 cb 6d d2 b9 e0
       12 126 127 -90 43 100 31 -62 -109 -29 48 -53 109 -46 -71 -32
000080 30 72 5c f8 45 7f 97 91 24 22 f0 bc b2 86 d2 24
       48 114 92 -8 69 127 -105 -111 36 34 -16 -68 -78 -122 -46 36
000090 7f f9 bb 6b 11 e0 02 94 a7 16 d2 f8 89 dc 8b 4c
       127 -7 -69 107 17 -32 2 -108 -89 22 -46 -8 -119 -36 -117 76
0000a0 7f d3 b1 df 2c f5 eb 81 e9 75 62 d2 bc 55 60 87
       127 -45 -79 -33 44 -11 -21 -127 -23 117 98 -46 -68 85 96 -121
0000b0 d7 e1 6a e0 bb f1 e7 e7 37 d9 ac 91 75 b5 95 81
       -41 -31 106 -32 -69 -15 -25 -25 55 -39 -84 -111 117 -75 -107 -127
0000c0 e6 65 da 2e 19 c1 51 7b a8 13 5d c6 36 7f 6c f2
       -26 101 -38 46 25 -63 81 123 -88 19 93 -58 54 127 108 -14
0000d0 02 04 1e 10 bb 6f 73 91 7f 3d f0 d8 63 21 65 60
       2 4 30 16 -69 111 115 -111 127 61 -16 -40 99 33 101 96
0000e0 63 ee 7f a5 0c 15 5a e5 c9 08 dc 58 a0 a7 7f 26
       99 -18 127 -91 12 21 90 -27 -55 8 -36 88 -96 -89 127 38
0000f0 4a aa 1c 52 bd d2 3a 6e 7f b6 5e db 71 cd e1 a8
       74 -86 28 82 -67 -46 58 110 127 -74 94 -37 113 -51 -31 -88

arith.constant90 i1 [16, 1, 1, 16]
000000 76 c7 e9 b0 0f 66 cb 7f 33 59 0e b1 48 bf f5 5c
       118 -57 -23 -80 15 102 -53 127 51 89 14 -79 72 -65 -11 92
000010 a3 2a c6 9d 20 15 6b 20 4f de 73 7f 82 76 ea a0
       -93 42 -58 -99 32 21 107 32 79 -34 115 127 -126 118 -22 -96
000020 f3 6b a8 37 18 5e 7a b1 54 ba b0 9e 81 bb 27 43
       -13 107 -88 55 24 94 122 -79 84 -70 -80 -98 -127 -69 39 67
000030 dc 7f b8 84 ae 46 6e 31 aa 19 8a 85 51 78 8f ef
       -36 127 -72 -124 -82 70 110 49 -86 25 -118 -123 81 120 -113 -17
000040 b7 26 da 2a 41 47 5c df e7 86 f1 c5 00 e2 7f 65
       -73 38 -38 42 65 71 92 -33 -25 -122 -15 -59 0 -30 127 101
000050 6d 9d 3f e1 42 34 ed b9 5f 81 61 bc 93 28 45 29
       109 -99 63 -31 66 52 -19 -71 95 -127 97 -68 -109 40 69 41
000060 bc 3c e9 c8 81 d1 31 2c 05 e1 89 db c7 9d 5e 8a
       -68 60 -23 -56 -127 -47 49 44 5 -31 -119 -37 -57 -99 94 -118
000070 50 22 81 8b 63 f6 06 81 93 ec a9 ac d8 25 e4 ec
       80 34 -127 -117 99 -10 6 -127 -109 -20 -87 -84 -40 37 -28 -20
000080 c7 02 b2 ad 29 8f 65 0d 96 f5 81 91 59 c1 39 cb
       -57 2 -78 -83 41 -113 101 13 -106 -11 -127 -111 89 -63 57 -53
000090 33 b4 15 bf b6 01 a1 3f 98 8a aa 00 7f e5 ba 48
       51 -76 21 -65 -74 1 -95 63 -104 -118 -86 0 127 -27 -70 72
0000a0 dd c7 44 7f fa 9f 57 a9 1f e3 f4 86 5d a7 e2 03
       -35 -57 68 127 -6 -97 87 -87 31 -29 -12 -122 93 -89 -30 3
0000b0 c5 8e c5 bc 1e 41 ab d0 7f d5 b7 7c b7 21 2b 06
       -59 -114 -59 -68 30 65 -85 -48 127 -43 -73 124 -73 33 43 6
0000c0 c5 dc a9 1d f3 e7 d9 7f 14 93 cf 30 bc eb 63 c2
       -59 -36 -87 29 -13 -25 -39 127 20 -109 -49 48 -68 -21 99 -62
0000d0 e6 7f ef aa d4 46 45 c2 fb f9 48 28 71 56 01 e0
       -26 127 -17 -86 -44 70 69 -62 -5 -7 72 40 113 86 1 -32
0000e0 6f 7c 57 13 f3 d2 43 51 cd a0 2c bc f7 e3 b6 7f
       111 124 87 19 -13 -46 67 81 -51 -96 44 -68 -9 -29 -74 127
0000f0 9d c7 01 0d c0 e7 2e 81 5a 8a 51 9c e5 a0 82 e4
       -99 -57 1 13 -64 -25 46 -127 90 -118 81 -100 -27 -96 -126 -28

arith.constant91 i1 [1, 3, 1, 16]
000000 81 4e ea 81 38 cd 47 4f 7f 26 7f 7b 1d 7f 81 e1
       -127 78 -22 -127 56 -51 71 79 127 38 127 123 29 127 -127 -31
000010 85 ec 46 17 81 7f 5a 68 49 da 93 c3 fc 77 7e 99
       -123 -20 70 23 -127 127 90 104 73 -38 -109 -61 -4 119 126 -103
000020 a1 7f 7f 93 f3 31 7f 7f 79 81 35 7f 7f d6 2a 7f
       -95 127 127 -109 -13 49 127 127 121 -127 53 127 127 -42 42 127
