gtcrn_micro/models/tflite/gtcrn_s3_float32.tflite (tflite, 183460 bytes, 48 tensors)

arith.constant f4 [8]
0.082188256 -0.32339332 0.14219032 -0.07165513 -0.32688633 0.28757522 0.35336715 -0.21835068
00000000: 5152 a83d cf93 a5be 579a 113e edbf 92bd
00000010: a55d a7be 0f3d 933e 8aec b43e 5297 5fbe

arith.constant1 f4 [8, 1, 1, 16]
0.33461124 -0.11810128 -0.33994892 -0.067858905 0.26030293 -0.06530562 -0.06930976 0.18635249
-0.19634022 0.08381116 -0.34381524 -0.22293054 0.34418166 0.10044525 -0.09112853 -0.22978008
-0.31322664 -0.14250474 -0.33038038 -0.28113997 -0.2215013 -0.19910052 0.2941444 -0.31443322
-0.11407197 0.19006331 -0.32493597 0.20385447 0.28790554 0.25538978 -0.1539644 -0.23249875
-0.0029833915 -0.15274088 -0.01929865 -0.102131076 0.047706448 -0.08987614 -0.1088398 0.096481696
-0.2738772 -0.2911693 0.123712935 -0.10543684 -0.14261587 -0.26642662 0.14749762 -0.2200751
0.04077021 0.21067719 0.1973205 -0.1260331 0.16582054 -0.2977268 0.15588628 -0.3157044
0.025606567 -0.10496443 -0.051274415 -0.061055847 -0.11325176 -0.1673065 -0.34572896 0.19393079
0.09695913 0.0421208 -0.24620567 -0.08153317 0.18468158 -0.12877579 -0.17117552 0.009887053
-0.27937898 -0.1689748 -0.2303274 0.34305018 -0.29585811 0.28103477 -0.1492636 0.087794304
-0.10195393 -0.16849302 -0.05677333 0.18686566 -0.064101614 -0.16732019 0.28496036 -0.14206822
-0.26355678 -0.191966 0.2603867 0.2738244 0.16075046 0.23113479 0.19022916 -0.3180292
-0.16645421 0.05679356 0.22874942 0.22834076 -0.15174638 0.16123447 0.24422483 0.14498852
-0.07790679 -0.13895725 -0.019677842 -0.3033233 -0.20435795 -0.26297462 0.34182853 -0.23814163
-0.21832025 -0.11847617 0.2094136 -0.038659 -0.105050825 0.08755904 0.18664831 0.01749119
-0.29235125 -0.16585974 0.074345395 0.32631752 -0.28337708 0.20916262 0.05552604 0.16388975
00000000: 2a52 ab3e 15df f1bd c90d aebe 9cf9 8abd
00000010: 6d46 853e f4be 85bd 47f2 8dbd 30d3 3e3e
00000020: 690d 49be 2fa5 ab3d 8d08 b0be e747 64be
00000030: 9438 b03e 3db6 cd3d 98a1 babd 784b 6bbe
00000040: 3e5f a0be c3ec 11be 9e27 a9be 94f1 8fbe
00000050: 3dd1 62be 02e1 4bbe 189a 963e 64fd a0be
00000060: 919e e9bd f59f 423e 025e a6be 3abf 503e
00000070: 5b68 933e 73c2 823e d8a8 1dbe 2714 6ebe
00000080: 0185 43bb 1b68 1cbe 3418 9ebc 192a d1bd
00000090: d667 433d fb10 b8bd 67e7 debd 3298 c53d
000000a0: a239 8cbe 2414 95be 355d fd3d 45ef d7bd
000000b0: e509 12be 1269 88be 9e09 173e 5e5b 61be
000000c0: aafe 263d c3bb 573e 630e 4a3e d20e 01be
000000d0: dccc 293e a66f 98be a7a0 1f3e 02a4 a1be
000000e0: ddc4 d13c 97f7 d6bd 1f05 52bd b215 7abd
000000f0: 8af0 e7bd 6552 2bbe 6303 b1be cb95 463e
00000100: 8292 c63d dc86 2c3d 571d 7cbe ddfa a6bd
00000110: 2b1d 3d3e cddd 03be a348 2fbe 4efd 213c
00000120: c30a 8fbe bb07 2dbe f2da 6bbe 46a4 af3e
00000130: b77a 97be cae3 8f3e 8fd8 18be 80cd b33d
00000140: 39cd d0bd 6f89 2cbe 278b 68bd b659 3f3e
00000150: b547 83bd fc55 2bbe 53e6 913e 557a 11be
00000160: eaf0 86be bc92 44be 6851 853e b632 8c3e
00000170: c59b 243e 99ae 6c3e 6fcb 423e b9d4 a2be
00000180: f972 2abe 5da0 683d 4a3d 6a3e 29d2 693e
00000190: 6763 1bbe a61a 253e 1316 7a3e df77 143e
000001a0: 988d 9fbd cf4a 0ebe 6d33 a1bc 314d 9bbe
000001b0: 3643 51be 9ca4 86be 2604 af3e 66db 73be
000001c0: 588f 5fbe a2a3 f2bd 8570 563e e658 1ebd
000001d0: e324 d7bd 2752 b33d bc20 3f3e af49 8f3c
000001e0: 10af 95be 23d7 29be 6642 983d 1713 a73e
000001f0: cd16 91be ba2e 563e 466f 633d b7d2 273e

arith.constant2 f4 [16]
-0.1457898 -0.056789618 0.20861356 0.066253774 -0.19646631 0.1696598 -0.15406919 0.022805426
0.14027748 0.12516563 0.19281894 0.03414101 0.16183554 0.058171693 -0.22869185 -0.0975077
00000000: ec49 15be 3b9c 68bd cb9e 553e 0fb0 873d
00000010: 772e 49be 4cbb 2d3e 50c4 1dbe 72d2 ba3c
00000020: e6a4 0f3e 6b2b 003e 5472 453e 72d7 0b3d
00000030: 37b8 253e 7145 6e3d 322e 6abe 1eb2 c7bd

arith.constant3 f4 [16, 1, 1, 8]
0.03505051 0.0035899398 0.03102114 -0.21884483 0.11479987 0.14009148 0.0437852 0.05375671
0.03613892 0.097083375 0.01756993 -0.04649559 0.10079824 -0.22424224 0.039971597 -0.069129445
-0.192614 -0.029512674 -0.16497496 -0.10054177 0.054926235 -0.05786738 -0.059384312 -0.09016486
0.039519586 -0.009980956 0.031008743 -0.19913852 -0.06874967 -0.23321076 0.08817905 0.04864999
-0.21060815 0.02462026 0.07699743 0.24971978 0.19564702 0.24300952 0.151817 -0.12551121
0.13782917 -0.0760746 0.09872217 -0.19155408 0.24540804 -0.17950712 0.24889137 0.115710475
0.098826535 0.03804107 0.1351678 0.11655582 0.071824335 0.11599753 0.086536564 0.123500556
0.0012791986 -0.1384684 -0.131043 -0.16142432 -0.0430144 0.012226072 -0.026459947 -0.083301805
0.08446612 -0.23323415 0.19941947 0.117623985 0.17140722 -0.10821013 0.1012175 0.16638644
-0.12957859 0.19561078 -0.055723533 0.2106514 0.11670185 0.052250747 0.13194115 -0.03848128
0.2207499 0.06226508 0.21179485 -0.06831001 -0.20267813 -0.222633 0.14366214 0.054260693
0.021648237 -0.07219445 -0.12704094 -0.16431415 0.077292286 -0.15688787 -0.18339038 0.21902674
-0.0056526074 0.16685222 0.18558376 -0.10239373 0.095310025 0.07310386 0.17712969 -0.016988311
-0.052009825 -0.118495904 0.0014113415 -0.036245223 0.025369903 0.08300081 -0.0777851 0.08868414
0.10270263 0.12625252 0.0785506 -0.20364715 0.013784696 0.15785694 -0.1688285 -0.17404453
-0.054801006 -0.003680598 0.18323988 0.027344745 -0.23283271 0.088912874 0.011871546 -0.22247344
00000000: 2091 0f3d 3245 6b3b 0c20 fe3c dc18 60be
00000010: 321c eb3d 2474 0f3e 1c58 333d ff2f 5c3d
00000020: 6706 143d a6d3 c63d d0ee 8f3c 2972 3ebd
00000030: 4f6f ce3d c29f 65be 42b9 233d bd93 8dbd
00000040: 9b3c 45be 90c4 f1bc 32ef 28be d8e8 cdbd
00000050: 55fa 603d 5906 6dbd f73c 73bd 5ba8 b8bd
00000060: 4adf 213d 2a87 23bc 0c06 fe3c f8ea 4bbe
00000070: a1cc 8cbd cdce 6ebe 3897 b43d 3645 473d
00000080: aaa9 57be 6db0 c93c d4b0 9d3d 8bb6 7f3e
00000090: b157 483e 7dd7 783e ea75 1b3e 0386 00be
000000a0: 1723 0d3e 00cd 9bbd d92e ca3d c126 44be
000000b0: 3f4c 7b3e b7d0 37be 61dd 7e3e 9df9 ec3d
000000c0: 9165 ca3d f4d0 1b3d 6e69 0a3e d1b4 ee3d
000000d0: a318 933d 1d90 ed3d 153a b13d dced fc3d
000000e0: c8aa a73a a9ca 0dbe 2330 06be 6b4c 25be
000000f0: de2f 30bd dd4f 483c 88c2 d8bc 239a aabd
00000100: 93fc ac3d efd4 6ebe 9e34 4c3e d8e4 f03d
00000110: 6085 2f3e 469d ddbd 1f4b cf3d 3561 2a3e
00000120: 40b0 04be 314e 483e 5c3e 64bd 00b5 573e
00000130: 6101 ef3d e104 563d 951b 073e 8c9e 1dbd
00000140: 430c 623e ab09 7f3d c0e0 583e 1ee6 8bbd
00000150: db8a 4fbe e8f9 63be 2b1c 133e 7640 5e3d
00000160: a557 b13c afda 93bd 0517 02be f841 28be
00000170: 6b4b 9e3d 37a7 20be b0ca 3bbe 8c48 603e
00000180: 8239 b9bb 4fdb 2a3e ab09 3e3e ceb3 d1bd
00000190: e731 c33d 7ab7 953d 7c61 353e 122b 8bbc
000001a0: 4108 55bd fbad f2bd c3fc b83a df75 14bd
000001b0: 8bd4 cf3c 54fc a93d cb4d 9fbd 08a0 b53d
000001c0: c255 d23d 5748 013e 23df a03d e188 50be
000001d0: 35d9 613c 40a5 213e 61e1 2cbe bb38 32be
000001e0: 0577 60bd 3036 71bb 3ca3 3b3e 1602 e03c
000001f0: b36b 6ebe f417 b63d df80 423c 14d0 63be

arith.constant4 f4 [8]
-0.071317844 -0.17043905 0.086992085 0.29941985 0.11095991 -0.14939933 -0.17901172 -0.20937103
00000000: 170f 92bd 9387 2ebe e828 b23d 8f4d 993e
00000010: f33e e33d 23fc 18be d94e 37be 5c65 56be

arith.constant5 f4 [8, 1, 1, 16]
-0.08996835 -0.00395445 -0.09955292 -0.1422814 0.20648159 0.14862795 0.35168993 -0.16981237
0.2454478 0.18413088 0.27281126 -0.058516722 0.325552 -0.023458395 -0.12129123 -0.01979442
-0.13706881 -0.10988099 0.103587955 0.2716808 -0.19703467 -0.18480073 -0.14824687 -0.09523736
-0.27803954 0.0043250453 0.28918046 -0.29399493 -0.12266201 -0.02991585 -0.29536897 -0.24363174
0.17829749 0.06314737 0.12352803 0.009870404 -0.02303225 -0.100100026 0.16650656 0.32006016
-0.11386154 -0.18018791 0.29822814 0.28707078 -0.22558163 0.16495249 0.0043626404 0.21148098
0.3037142 0.012332737 0.32151332 -0.21069574 -0.3235107 -0.33914 0.018484967 -0.336711
-0.27754262 0.031022452 -0.01270582 -0.32822594 0.22616899 0.17607844 -0.16195409 0.228318
0.1404422 -0.058308057 0.16841218 -0.030381948 0.14401758 0.03414257 -0.24946521 -0.23952961
-0.27410746 0.34246054 -0.20539859 0.34200448 0.28051344 0.26532444 -0.1927347 0.010769308
0.26661143 -0.03617492 -0.29029122 -0.29091838 -0.19928728 0.23947571 0.003948929 -0.3482157
5.171392e-05 0.3102844 -0.31774408 -0.1738872 0.07970945 0.120943435 -0.15042724 -0.1691233
0.003909901 0.22945471 0.11851562 0.2628362 0.3373933 0.3122602 -0.002593999 -0.24661694
-0.16501744 0.33479285 0.225163 -0.011085029 0.063796945 -0.08189765 -0.35233605 0.18088627
-0.043318015 -0.058841255 -0.20672224 -0.047677748 0.12660685 0.17744593 -0.13544922 0.03890543
-0.32234454 0.29836583 0.10389933 0.13352236 0.06820021 0.3231943 0.07843531 0.16981873
00000000: 5441 b8bd 5594 81bb 67e2 cbbd 37b2 11be
00000010: e96f 533e ed31 183e b410 b43e 4be3 2dbe
00000020: ab56 7b3e ce8c 3c3e ebad 8b3e 3baf 6fbd
00000030: c0ae a63e d22b c0bc 8967 f8bd e827 a2bc
00000040: c45b 0cbe 4909 e1bd ec25 d43d bf19 8b3e
00000050: 75c3 49be 673c 3dbe 07ce 17be ce0b c3bd
00000060: 335b 8ebe 1cb9 8d3b 760f 943e 8186 96be
00000070: 3836 fbbd 1612 f5bc 9a3a 97be 997a 79be
00000080: 9e93 363e 6953 813d 44fc fc3d 7ab7 213c
00000090: 21ae bcbc 3e01 cdbd b280 2a3e edde a33e
000000a0: 3d30 e9bd 2e83 38be 5cb1 983e f1fa 923e
000000b0: dffe 66be 4ee9 283e 7bf4 8e3b 788e 583e
000000c0: 6d80 9b3e 400f 4a3c 659d a43e a0c0 57be
000000d0: 32a3 a5be c2a3 adbe c96d 973c 6265 acbe
000000e0: 111a 8ebe cc22 fe3c 122c 50bc 3b0d a8be
000000f0: d898 673e e84d 343e 4bd7 25be 32cc 693e
00000100: 14d0 0f3e 6ed4 6ebd 3e74 2c3e 90e3 f8bc
00000110: 5879 133e 14d9 0b3d cf73 7fbe 4047 75be
00000120: d057 8cbe fd56 af3e 0254 52be 361b af3e
00000130: 759f 8f3e 9bd8 873e 3f5c 45be c071 303c
00000140: 4b81 883e 272c 14bd 0da1 94be 41f3 94be
00000150: f711 4cbe 1f39 753e 0466 813b 5449 b2be
00000160: 66e7 5838 99dd 9e3e 5aaf a2be 7c0f 32be
00000170: b53e a33d 31b1 f73d 9909 1abe a92e 2dbe
00000180: a01e 803b 2df6 6a3e 51b8 f23d 7792 863e
00000190: d1be ac3e 92e0 9f3e 1500 2abb 2789 7cbe
000001a0: 55fa 28be f869 ab3e 2191 663e fb9d 35bc
000001b0: f9a7 823d f5b9 a7bd 6465 b4be 403a 393e
000001c0: 3b6e 31bd 8703 71bd ffae 53be be49 43bd
000001d0: 3aa5 013e 63b4 353e 33b3 0abe 4d5b 1f3d
000001e0: 580a a5be 68c3 983e 2cc9 d43d 16ba 083e
000001f0: 8dac 8b3d b979 a53e b1a2 a03d f6e4 2d3e

arith.constant6 f4 [16]
0.22853243 0.15626238 -0.030470902 0.11013157 0.16042943 0.22949171 0.2417419 0.04863455
-0.09565803 -0.044521224 -0.21383856 0.21629584 -0.07591748 -0.12633987 -0.059766468 -0.05965602
00000000: 6804 6a3e 3f03 203e 1d9e f9bc a98c e13d
00000010: 9d47 243e e0ff 6a3e 308b 773e 0635 473d
00000020: 5be8 c3bd e35b 36bd 7ff8 5abe a87c 5d3e
00000030: a07a 9bbd 3d5f 01be afcd 74bd df59 74bd

arith.constant7 f4 [16, 1, 1, 8]
0.24545829 0.13088149 -0.033141356 -0.19467434 0.1022083 0.22195111 -0.18693927 0.013826092
-0.19689755 -0.17066187 -0.14941098 -0.23946466 0.21613748 -0.0044715176 0.038852286 -0.023545384
0.1778073 0.1934148 -0.18466099 -0.009717534 -0.10953586 -0.11708942 0.19104995 0.20430593
0.113698475 -0.21121198 -0.032102928 0.21957864 0.0036506767 -0.089858375 -0.21613301 0.10628793
0.09765445 -0.16224901 0.1302549 -0.2264532 -0.032913636 0.14253017 0.099309206 0.22884747
-0.07395984 -0.13115801 0.024754101 0.112240076 0.051585086 -0.04517735 -0.08380925 -0.068597
0.21218729 0.24601474 0.19055776 -0.21977226 -0.0737939 -0.021639744 0.06765272 -0.21334095
-0.15205243 0.18117651 -0.095249824 0.111664295 0.19108613 0.2262929 -0.03189065 -0.1170167
0.0800138 0.10271044 0.24180728 0.21420078 -0.026900573 -0.08890253 0.22509326 0.11123514
0.13051572 -0.17362072 0.17827581 0.17025104 0.23646146 0.037546445 -0.20612472 0.12588952
-0.06943641 -0.0028712307 -0.22306275 0.18090835 0.09707497 -0.08927538 0.07549558 0.18755633
0.22047646 -0.1366517 0.011511774 0.077498786 -0.017489046 0.0016011216 -0.20347841 0.19279057
0.20719579 -0.14178324 -0.10567525 -0.24903683 0.07681179 0.20675471 0.019147955 -0.083267145
0.22348428 -0.014769718 -0.11604709 -0.22152545 0.13765429 0.18393494 0.15453567 0.15358365
-0.22012506 -0.03331084 -0.24204767 -0.19050162 0.19995812 -0.00733196 -0.23628849 0.23195241
0.07806408 0.08267331 0.029298097 -0.0075902254 0.12768634 -0.19012792 -0.068901755 -0.24182594
00000000: 6b59 7b3e cc05 063e 3bbf 07bd b658 47be
00000010: 9652 d13d 2747 633e 026d 3fbe d586 623c
00000020: 839f 49be fcc1 2ebe 31ff 18be 3936 75be
00000030: 2553 5d3e cf85 92bb 9323 1f3d 40e2 c0bc
00000040: 1e13 363e 880e 463e c517 3dbe 4b36 1fbc
00000050: 5654 e0bd 94cc efbd 99a2 433e 9335 513e
00000060: bfda e83d f447 58be 5c7e 03bd 39d9 603e
00000070: 3140 6f3b ab07 b8bd f951 5dbe 7cad d93d
00000080: 0eff c73d 9b24 26be 8a61 053e 59e3 67be
00000090: 73d0 06bd 6ef3 113e a062 cb3d fe56 6a3e
000000a0: 4278 97bd 494e 06be 1dc9 ca3c 20de e53d
000000b0: e24a 533d e30b 39bd 2fa4 abbd 957c 8cbd
000000c0: a047 593e 4aeb 7b3e 9321 433e fb0b 61be
000000d0: 4221 97bd d545 b1bc 828d 8a3d 0d76 5abe
000000e0: a2b3 1bbe 5686 393e 5712 c3bd 40b0 e43d
000000f0: 15ac 433e 53b9 673e c59f 02bd 74a6 efbd
00000100: 46de a33d da59 d23d 549c 773e 7357 5b3e
00000110: 975e dcbc 8812 b6bd d97e 663e 40cf e33d
00000120: eaa5 053e a1c9 31be ef8d 363e 4a56 2e3e
00000130: f422 723e 4dca 193d 5c12 53be 2fe9 003e
00000140: ad34 8ebd 422b 3cbb 906a 64be 0a40 393e
00000150: 3ecf c63d 03d6 b6bd 6d9d 9a3d c40e 403e
00000160: 95c4 613e 6cee 0bbe e19b 3c3c afb7 9e3d
00000170: 3045 8fbc badc d13a a55c 50be e46a 453e
00000180: 222b 543e a02f 11be 446c d8bd 8303 7fbe
00000190: 804f 9d3d 82b7 533e 2cdc 9c3c f787 aabd
000001a0: 10d9 643e b0fc 71bc 19aa edbd 91d7 62be
000001b0: 3ff5 0c3e 7159 3c3e 993e 1e3e 0845 1d3e
000001c0: 7768 61be f370 08bd 58db 77be db12 43be
000001d0: d2c1 4c3e f040 f0bb 9cf5 71be ef84 6d3e
000001e0: 0fe0 9f3d a050 a93d 9002 f03c 6db7 f8bb
000001f0: 35c0 023e e5b0 42be 5d1c 8dbd 38a1 77be

arith.constant8 f4 [8]
-0.3041368 0.3284139 -0.053893365 0.20810588 -0.05478232 0.19397807 -0.284917 0.04480288
00000000: d2b7 9bbe de25 a83e 4abf 5cbd b519 553e
00000010: 6d63 60bd 30a2 463e a4e0 91be 3a83 373d

arith.constant9 f4 [8, 1, 1, 16]
-0.34934682 0.005409731 -0.2956392 -0.092458084 0.041410755 0.28561226 -0.22928499 0.12075883
-0.039762948 -0.10555203 -0.25189164 0.1508485 0.054645095 0.33061785 -0.32204735 0.22950098
0.3140196 -0.14132302 0.084180236 0.16214725 -0.19132541 0.32995674 0.24913368 -0.13101187
-0.21723694 -0.13514356 -0.059205018 -0.058833204 0.24220778 -0.008307059 0.107357085 0.24629523
-0.11886657 0.35330027 -0.20904094 0.2571101 -0.069395825 0.27800706 -0.31697497 0.2941615
0.12626517 -0.15614654 -0.27488676 -0.102946565 -0.3170371 -0.13571073 -0.035375357 -0.2825345
-0.31930873 -0.061998036 0.34591967 -0.17943184 0.29139253 0.035642695 0.015315708 -0.21428491
-0.038339276 -0.3113774 -0.05976591 0.056094557 -0.2509824 0.016922211 -0.3226442 0.3486941
-0.049193002 0.34496298 0.069895595 -0.026374858 -0.24050543 -0.17459501 -0.12034453 0.14770672
0.055357583 -0.08158544 0.28089282 -0.20204358 -0.091811135 -0.20265947 -0.0911308 0.10593978
-0.15832223 -0.24401835 0.049361717 -0.0696423 0.042090412 0.009509503 0.12854496 0.34059027
-0.11703981 0.29095155 0.22855937 0.19811691 0.074902914 0.12551136 -0.0945218 -0.0008593699
0.22198747 -0.2314642 0.038999375 0.1635355 -0.137312 0.115424 -0.3466582 -0.29338625
-0.32873282 -0.2772677 -0.22000171 0.1589772 -0.24628587 0.24414445 0.15034409 0.2659341
0.07703187 -0.06617312 0.13271247 -0.30771816 0.12614007 -0.10165191 0.089480884 -0.03874544
0.17910574 0.28831545 0.12112884 0.2912422 -0.29389194 0.3062707 0.29687968 -0.13739006
00000000: 96dd b2be 1d44 b13b 055e 97be aa5a bdbd
00000010: 539e 293d c53b 923e afc9 6abe 6850 f73d
00000020: 79de 22bd aa2b d8bd f1f7 80be 0778 1a3e
00000030: 89d3 5f3d be46 a93e 64e3 a4be 4e02 6b3e
00000040: 2dc7 a03e fbb6 10be b066 ac3d ee09 263e
00000050: cfea 43be 17f0 a83e e61c 7f3e fa27 06be
00000060: 5c73 5ebe 1363 0abe f680 72bd 16fb 70bd
00000070: 5105 783e 551a 08bc 08de db3d d134 7c3e
00000080: 5170 f3bd c6e3 b43e d40e 56be efa3 833e
00000090: 661f 8ebd f156 8e3e 8b4a a2be 569c 963e
000000a0: a84b 013e e1e4 1fbe f5bd 8cbe a6d5 d2bd
000000b0: b052 a2be c1f7 0abe c0e5 10bd 5da8 90be
000000c0: 6f7c a3be a7f1 7dbd 621c b13e fbbc 37be
000000d0: 6731 953e 13fe 113d bcee 7a3c 816d 5bbe
000000e0: a509 1dbd dc6c 9fbe 19cd 74bd 68c3 653d
000000f0: c480 80be 73a0 8a3c 9f31 a5be 0888 b23e
00000100: 9a7e 49bd fd9e b03e 6c25 8f3d 1610 d8bc
00000110: 0e47 76be 09c9 32be 3177 f6bd 6e40 173e
00000120: a2be 623d 4416 a7bd 2fd1 8f3e 83e4 4ebe
00000130: 7a07 bcbd f785 4fbe c9a2 babd f5f6 d83d
00000140: 391f 22be f2df 79be 832f 4a3d 9fa0 8ebd
00000150: ff66 2c3d bfcd 1b3c 4aa1 033e d961 ae3e
00000160: 91b2 efbd 9af7 943e 780b 6a3e 29df 4a3e
00000170: b366 993d 0d86 003e a594 c1bd 5647 61ba
00000180: af50 633e f404 6dbe cfbd 1f3d da75 273e
00000190: 849b 0cbe 6b63 ec3d 2f7d b1be b936 96be
000001a0: ab4f a8be 08f6 8dbe 2148 61be ebca 223e
000001b0: 5d32 7cbe 0101 7a3e cdf3 193e 8428 883e
000001c0: e3c2 9d3d c685 87bd c7e5 073e 3c8d 9dbe
000001d0: dd2a 013e e02e d0bd c141 b73d 8ab3 1ebd
000001e0: 7f67 373e 159e 933e 6612 f83d b31d 953e
000001f0: 0179 96be 83cf 9c3e 9d00 983e fbaf 0cbe

arith.constant10 f4 [16]
0.043954566 -0.054906595 -0.020245897 0.14992641 0.00748866 0.015451264 0.02927339 -0.009734224
0.10902096 0.14840788 -0.23938249 0.1679494 -0.013980735 0.036838733 -0.0214764 0.1483255
00000000: b409 343d bde5 60bd b9da a5bc 4f86 193e
00000010: 6f63 f53b 4c27 7d3c c0ce ef3c 4b7c 1fbc
00000020: 6246 df3d 3cf8 173e af20 75be edfa 2b3e
00000030: 740f 65bc 36e4 163d 46ef afbc a4e2 173e

arith.constant11 f4 [16, 1, 1, 8]
0.12813127 -0.15130223 -0.09932032 0.13053179 -0.09723841 -0.134401 0.1901953 0.16505882
-0.1793545 0.055046577 0.1096086 -0.16469532 -0.1855991 -0.07022712 0.08276495 -0.21258345
-0.16746648 0.111543685 -0.12605698 -0.042440824 -0.21871701 -0.124118894 0.027578512 0.20395906
-0.20214443 -0.10784789 -0.09091793 0.13080576 0.032646522 0.11758858 -0.010752654 0.13849251
-0.077250086 0.094337314 0.13758509 0.04211643 -0.013932366 -0.09419623 0.049592484 -0.08495851
0.053818878 -0.18374595 -0.20443937 0.21808666 -0.14999022 0.1855004 0.04133326 -0.04235386
-0.032334313 -0.16645865 -0.025928425 -0.027532617 0.18845919 0.23858367 0.12078436 -0.15502436
-0.14691803 0.22949994 0.18997009 0.14617825 -0.073945746 -0.14622289 0.048805468 -0.027913429
-0.19755898 0.09496307 0.054031517 -0.018208798 -0.12943381 -0.14493947 0.21387012 0.11239439
0.21901157 0.14290337 0.07685804 0.16947848 0.15330249 -0.051952723 -0.09089117 -0.2398034
0.13997951 0.067107186 0.16199331 -0.064621836 0.17806406 -0.00495929 -0.0643816 0.04451559
-0.24668133 -0.029790102 0.19635598 0.027841546 -0.22540669 -0.18360707 0.11909186 0.12882781
-0.10536376 0.11622343 -0.022162832 0.09630468 -0.13026106 -0.08118857 -0.03852068 -0.20894258
-0.21235248 0.18406095 0.24466564 0.1780103 0.10516915 0.095599346 -0.06437594 -0.051793553
-0.04777577 0.07595742 0.090703204 -0.14823574 -0.019993711 -0.24526171 -0.086084254 0.03024399
-0.060452126 -0.069174536 0.10912435 0.17233016 0.23126243 0.1586276 0.022764299 0.07606503
00000000: d834 033e f9ee 1abe 7468 cbbd 20aa 053e
00000010: ee24 c7bd 6aa0 09be 8fc2 423e 2e05 293e
00000020: b5a8 37be 8578 613d 797a e03d e4a5 28be
00000030: b10d 3ebe 3cd3 8fbd ac80 a93d 7aaf 59be
00000040: 557c 2bbe 0471 e43d 1515 01be 6ed6 2dbd
00000050: 5af7 5fbe 0c32 febd 55ec e13c a5da 503e
00000060: f3fe 4ebe 5bdf dcbd 2e33 babd f2f1 053e
00000070: 5cb8 053d 48d2 f03d e62b 30bc fbd0 0d3e
00000080: 4b35 9ebd ec33 c13d 1be3 0c3e 4782 2c3d
00000090: 9444 64bc f4e9 c0bd 7d21 4b3d bafe adbd
000000a0: 2f71 5c3d e627 3cbe 8e58 51be 1c52 5f3e
000000b0: 0997 19be d1f3 3d3e 104d 293d 3e7b 2dbd
000000c0: fc70 04bd 2374 2abe d967 d4bc 158c e1bc
000000d0: 72fb 403e 474f 743e ca5d f73d b5be 1ebe
000000e0: ae71 16be 0802 6b3e 8587 423e c0af 153e
000000f0: de70 97bd 74bb 15be 3ee8 473d b4aa e4bc
00000100: e74c 4abe ff7b c23d 2750 5d3d 9e2a 95bc
00000110: 4c8a 04be 036b 14be c500 5b3e 082f e63d
00000120: 9244 603e 4355 123e c067 9d3d c48b 2d3e
00000130: 54fb 1c3e 61cc 54bd 2625 babd 068f 75be
00000140: ca56 0f3e 7e6f 893d 93e1 253e 7458 84bd
00000150: 6d56 363e 8a81 a2bb 80da 83bd fb55 363d
00000160: 089a 7cbe 5f0a f4bc 8b11 493e f413 e43c
00000170: 03d1 66be 7e03 3cbe 6fe6 f33d 70eb 033e
00000180: f4c8 d7bd 8d06 ee3d d48e b5bc 633b c53d
00000190: 2863 05be 3146 a6bd dcc7 1dbd 0bf5 55be
000001a0: ee72 59be 797a 3c3e a189 7a3e 5548 363e
000001b0: ec62 d73d 97c9 c33d 88d7 83bd 7a25 54bd
000001c0: 87b0 43bd 908f 9b3d 9ac2 b93d 1ccb 17be
000001d0: dac9 a3bc e325 7bbe f14c b0bd 3ec2 f73c
000001e0: a69c 77bd 61ab 8dbd 967c df3d 5177 303e
000001f0: 0fd0 6c3e 466f 223e 327c ba3c fcc7 9b3d

arith.constant12 f4 [2]
0.1168418 -0.0077283587
00000000: c14a ef3d 2c3e fdbb

arith.constant13 f4 [16]
-0.02199555 -0.057155304 0.047562554 -0.09376448 -0.09236457 0.034339014 -0.08221017 -0.10373252
0.022263683 -0.050645627 0.024537401 -0.091942795 0.0020121287 -0.07579036 0.057833806 0.08773767
00000000: 0330 b4bc ae1b 6abd f4d0 423d 9707 c0bd
00000010: a329 bdbd 11a7 0c3d ce5d a8bd b771 d4bd
00000020: 5462 b63c ca71 4fbd a902 c93c 814c bcbd
00000030: ebdd 033b fa37 9bbd 24e3 6c3d cfaf b33d

arith.constant14 f4 [16]
-0.03580309 -0.0063598356 0.025957108 -0.08017722 -0.049121402 -0.041306436 0.03427286 -0.07382728
-0.026161164 -0.023911824 -0.04975606 -0.0676163 0.019219577 -0.033935707 -0.016817829 -0.07133429
00000000: 43a6 12bd 2b66 d0bb 00a4 d43c f433 a4bd
00000010: 8633 49bd f030 29bd b361 0c3d c232 97bd
00000020: f04f d6bc bbe2 c3bc 03cd 4bbd 6a7a 8abd
00000030: 6072 9d3c 2b00 0bbd 8bc5 89bc b617 92bd

arith.constant15 f4 [16]
-0.068377845 0.08274178 0.040492415 -0.07109236 0.0024106405 0.017695338 -0.046863787 0.07808037
-0.045430988 0.05966265 0.0008620819 -0.06833796 -0.07591751 0.056924365 0.053983063 -0.013673425
00000000: af09 8cbd 8674 a93d 60db 253d df98 91bd
00000010: d6fb 1d3b d0f5 903c 3ef4 3fbd 9ae8 9f3d
00000020: d815 3abd d360 743d 56fd 613a c6f4 8bbd
00000030: a47a 9bbd 8629 693d 581d 5d3d 8006 60bc

arith.constant16 f4 [16]
-0.07246618 -0.050261706 -0.07541515 -0.06609884 0.028089982 0.07929389 -0.05996132 0.07515401
-0.00042705736 0.034254514 -0.0054453216 -0.010592769 0.03687375 0.0817038 0.038838983 -0.062000047
00000000: 2669 94bd 38df 4dbd 4273 9abd d45e 87bd
00000010: f61c e63c d664 a23d 009a 75bd 58ea 993d
00000020: abe6 dfb9 764e 0c3d ab6e b2bb 4b8d 2dbc
00000030: ee08 173d 5254 a73d a015 1f3d c3f3 7dbd

arith.constant17 f4 [8]
-0.23550557 0.19214348 0.24585234 -0.1222309 0.04540057 0.044583008 0.026797459 -0.17096965
00000000: 5f28 71be 43c1 443e b7c0 7b3e 3254 fabd
00000010: f3f5 393d ac9c 363d 5886 db3c ab12 2fbe

arith.constant18 f4 [16]
-0.24598992 -0.22605287 -0.03855535 0.13277163 -0.17666106 0.22917344 0.30982876 0.16392802
0.1329713 0.13661456 -0.07488015 0.058965113 -0.01052124 -0.070635885 -0.21071897 -0.14837696
00000000: c8e4 7bbe 677a 67be 37ec 1dbd 49f5 073e
00000010: a3e6 34be 71ac 6a3e e0a1 9e3e bfdc 273e
00000020: a129 083e b0e4 0b3e c45a 99bd 6785 713d
00000030: 4761 2cbc 8ca9 90bd b7c6 57be 21f0 17be

arith.constant19 f4 [16]
-0.26582438 -0.14007097 -0.2913163 0.18299864 0.04371015 -0.2576975 -0.3447646 0.3296284
-0.060711343 0.3101527 0.03360499 0.21626964 -0.20018575 0.12331912 0.027162116 0.31237596
00000000: 221a 88be c46e 0fbe 6927 95be ff63 3b3e
00000010: 6a09 333d edf0 83be fc84 b0be 0ec5 a83e
00000020: 75ac 78bd 56cc 9e3e 63a5 093d ca75 5d3e
00000030: 7efd 4cbe bc8e fc3d 1683 de3c beef 9f3e

arith.constant20 f4 [8]
-0.19195437 -0.20095989 0.016265728 0.23325306 -0.22762448 0.08891612 0.067675225 0.24016626
00000000: b08f 44be 6ec8 4dbe b43f 853c e4d9 6e3e
00000010: 6416 69be a819 b63d 4f99 8a3d 25ee 753e

arith.constant21 f4 [16]
0.08188064 -0.17234987 0.21753083 0.2140501 0.09647707 -0.0032857491 -0.15469137 0.1872955
-0.1410589 0.09931848 -0.2844389 0.20804551 0.027648153 -0.08931517 -0.17940754 0.14250335
00000000: 09b1 a73d 7c7c 30be 67c0 5e3e f32f 5b3e
00000010: c595 c53d b955 57bb 6a67 1ebe 64ca 3f3e
00000020: bf71 10be 7d67 cb3d faa1 91be e209 553e
00000030: 617e e23c dfea b6bd 9cb6 37be 66ec 113e

arith.constant22 f4 [16]
0.026571052 -0.043280214 0.21555696 -0.25895622 0.11897684 -0.017512813 0.28960618 -0.2448235
-0.24011588 0.34831712 -0.0010644555 -0.06561464 -0.027263395 -0.31970656 -0.046746437 -0.3036512
00000000: 89ab d93c 9846 31bd f7ba 5c3e e995 84be
00000010: 21aa f33d 0877 8fbc 4347 943e 03b3 7abe
00000020: f0e0 75be 9f56 b23e 3385 8bba f860 86bd
00000030: 7c57 dfbc 94b0 a3be 3179 3fbd 2c78 9bbe

arith.constant24 f4 [8]
-0.02818758 -0.14370853 0.07741937 0.15295805 0.07519225 0.06480944 0.14142978 -0.17849207
00000000: a4e9 e6bc 5428 13be 0c8e 9e3d 09a1 1c3e
00000010: 65fe 993d d0ba 843d f8d2 103e a0c6 36be

arith.constant25 f4 [16]
-0.110707015 -0.23609994 -0.05889565 -0.33119315 0.2101654 0.12958935 -0.16593806 -0.23834586
-0.1759247 -0.061866492 0.29877132 0.18332846 0.19007401 0.12938504 0.18424022 0.13135801
00000000: 5cba e2bd 2fc4 71be 913c 71bd 2692 a9be
00000010: 9935 573e 12b3 043e abeb 29be f010 74be
00000020: 9b25 34be b867 7dbd 8ef8 983e 75ba 3b3e
00000030: c3a2 423e 837d 043e 78a9 3c3e b782 063e

arith.constant26 f4 [16]
-0.19969368 -0.32734329 -0.2888401 0.047439158 -0.21067004 -0.11071075 0.31378078 0.31351408
0.1492109 -0.03150651 -0.07374599 0.32553822 -0.16794463 -0.26075795 -0.3167995 0.3277327
00000000: 807c 4cbe 8a99 a7be d9e2 93be 904f 423d
00000010: e3b9 57be 51bc e2bd e0a7 a03e eb84 a03e
00000020: beca 183e f80c 01bd 2308 97bd f2ac a63e
00000030: adf9 2bbe 1182 85be 8b33 a2be 95cc a73e

arith.constant27 f4 [16]
-0.091370925 -0.027676648 0.064814046 0.086733244 -0.082602 -0.08105338 -0.010227072 0.018662125
0.05842001 0.00987884 0.03207984 -0.0795092 0.026814649 -0.03869828 0.011380512 -0.00081152475
00000000: ae20 bbbd 23ba e2bc 3abd 843d 33a1 b13d
00000010: 3d2b a9bd 51ff a5bd 738f 27bc 50e1 983c
00000020: d249 6f3d dcda 213c 2666 033d b8d5 a2bd
00000030: 65aa db3c 1682 1ebd 5475 3a3c 81bc 54ba

arith.constant29 f4 [16]
-0.010223366 -0.24500899 0.12135266 -0.17498803 0.038202904 -0.12421092 0.24521743 0.20012394
-0.2249954 -0.038442858 0.027486293 -0.16819365 -0.08887755 -0.17721027 0.2227373 0.22520363
00000000: e87f 27bc a3e3 7abe be87 f83d 1030 33be
00000010: a67a 1c3d 4b62 febd 471a 7b3e 4aed 4c3e
00000020: 3265 66be 4276 1dbd ef2a e13c f53a 2cbe
00000030: 6f05 b6bd 9c76 35be 3f15 643e c89b 663e

arith.constant30 f4 [192, 64]
1.0 1e-12 0.0 0.0 0.0 0.0 0.0 0.0
0.0 0.0 0.0 0.0 0.0 0.0 0.0 0.0
0.0 0.0 0.0 0.0 0.0 0.0 0.0 0.0
0.0 0.0 0.0 0.0 0.0 0.0 0.0 0.0
0.0 0.0 0.0 0.0 0.0 0.0 0.0 0.0
0.0 0.0 0.0 0.0 0.0 0.0 0.0 0.0
0.0 0.0 0.0 0.0 0.0 0.0 0.0 0.0
0.0 0.0 0.0 0.0 0.0 0.0 0.0 0.0
0.0 1.0 5e-13 0.0 0.0 0.0 0.0 0.0
0.0 0.0 0.0 0.0 0.0 0.0 0.0 0.0
0.0 0.0 0.0 0.0 0.0 0.0 0.0 0.0
0.0 0.0 0.0 0.0 0.0 0.0 0.0 0.0
0.0 0.0 0.0 0.0 0.0 0.0 0.0 0.0
0.0 0.0 0.0 0.0 0.0 0.0 0.0 0.0
0.0 0.0 0.0 0.0 0.0 0.0 0.0 0.0
0.0 0.0 0.0 0.0 0.0 0.0 0.0 0.0
0.0 0.5 0.5 0.0 0.0 0.0 0.0 0.0
0.0 0.0 0.0 0.0 0.0 0.0 0.0 0.0
0.0 0.0 0.0 0.0 0.0 0.0 0.0 0.0
0.0 0.0 0.0 0.0 0.0 0.0 0.0 0.0
0.0 0.0 0.0 0.0 0.0 0.0 0.0 0.0
0.0 0.0 0.0 0.0 0.0 0.0 0.0 0.0
0.0 0.0 0.0 0.0 0.0 0.0 0.0 0.0
0.0 0.0 0.0 0.0 0.0 0.0 0.0 0.0
0.0 0.0 1.0 5e-13 0.0 0.0 0.0 0.0
0.0 0.0 0.0 0.0 0.0 0.0 0.0 0.0
0.0 0.0 0.0 0.0 0.0 0.0 0.0 0.0
0.0 0.0 0.0 0.0 0.0 0.0 0.0 0.0
0.0 0.0 0.0 0.0 0.0 0.0 0.0 0.0
0.0 0.0 0.0 0.0 0.0 0.0 0.0 0.0
0.0 0.0 0.0 0.0 0.0 0.0 0.0 0.0
0.0 0.0 0.0 0.0 0.0 0.0 0.0 0.0
00000000: 0000 803f ccbc 8c2b 0000 0000 0000 0000
00000010: 0000 0000 0000 0000 0000 0000 0000 0000
00000020: 0000 0000 0000 0000 0000 0000 0000 0000
00000030: 0000 0000 0000 0000 0000 0000 0000 0000
00000040: 0000 0000 0000 0000 0000 0000 0000 0000
00000050: 0000 0000 0000 0000 0000 0000 0000 0000
00000060: 0000 0000 0000 0000 0000 0000 0000 0000
00000070: 0000 0000 0000 0000 0000 0000 0000 0000
00000080: 0000 0000 0000 0000 0000 0000 0000 0000
00000090: 0000 0000 0000 0000 0000 0000 0000 0000
000000a0: 0000 0000 0000 0000 0000 0000 0000 0000
000000b0: 0000 0000 0000 0000 0000 0000 0000 0000
000000c0: 0000 0000 0000 0000 0000 0000 0000 0000
000000d0: 0000 0000 0000 0000 0000 0000 0000 0000
000000e0: 0000 0000 0000 0000 0000 0000 0000 0000
000000f0: 0000 0000 0000 0000 0000 0000 0000 0000
00000100: 0000 0000 0000 803f ccbc 0c2b 0000 0000
00000110: 0000 0000 0000 0000 0000 0000 0000 0000
00000120: 0000 0000 0000 0000 0000 0000 0000 0000
00000130: 0000 0000 0000 0000 0000 0000 0000 0000
00000140: 0000 0000 0000 0000 0000 0000 0000 0000
00000150: 0000 0000 0000 0000 0000 0000 0000 0000
00000160: 0000 0000 0000 0000 0000 0000 0000 0000
00000170: 0000 0000 0000 0000 0000 0000 0000 0000
00000180: 0000 0000 0000 0000 0000 0000 0000 0000
00000190: 0000 0000 0000 0000 0000 0000 0000 0000
000001a0: 0000 0000 0000 0000 0000 0000 0000 0000
000001b0: 0000 0000 0000 0000 0000 0000 0000 0000
000001c0: 0000 0000 0000 0000 0000 0000 0000 0000
000001d0: 0000 0000 0000 0000 0000 0000 0000 0000
000001e0: 0000 0000 0000 0000 0000 0000 0000 0000
000001f0: 0000 0000 0000 0000 0000 0000 0000 0000
00000200: 0000 0000 0000 003f 0000 003f 0000 0000
00000210: 0000 0000 0000 0000 0000 0000 0000 0000
00000220: 0000 0000 0000 0000 0000 0000 0000 0000
00000230: 0000 0000 0000 0000 0000 0000 0000 0000
00000240: 0000 0000 0000 0000 0000 0000 0000 0000
00000250: 0000 0000 0000 0000 0000 0000 0000 0000
00000260: 0000 0000 0000 0000 0000 0000 0000 0000
00000270: 0000 0000 0000 0000 0000 0000 0000 0000
00000280: 0000 0000 0000 0000 0000 0000 0000 0000
00000290: 0000 0000 0000 0000 0000 0000 0000 0000
000002a0: 0000 0000 0000 0000 0000 0000 0000 0000
000002b0: 0000 0000 0000 0000 0000 0000 0000 0000
000002c0: 0000 0000 0000 0000 0000 0000 0000 0000
000002d0: 0000 0000 0000 0000 0000 0000 0000 0000
000002e0: 0000 0000 0000 0000 0000 0000 0000 0000
000002f0: 0000 0000 0000 0000 0000 0000 0000 0000
00000300: 0000 0000 0000 0000 0000 803f ccbc 0c2b
00000310: 0000 0000 0000 0000 0000 0000 0000 0000
00000320: 0000 0000 0000 0000 0000 0000 0000 0000
00000330: 0000 0000 0000 0000 0000 0000 0000 0000
00000340: 0000 0000 0000 0000 0000 0000 0000 0000
00000350: 0000 0000 0000 0000 0000 0000 0000 0000
00000360: 0000 0000 0000 0000 0000 0000 0000 0000
00000370: 0000 0000 0000 0000 0000 0000 0000 0000
00000380: 0000 0000 0000 0000 0000 0000 0000 0000
00000390: 0000 0000 0000 0000 0000 0000 0000 0000
000003a0: 0000 0000 0000 0000 0000 0000 0000 0000
000003b0: 0000 0000 0000 0000 0000 0000 0000 0000
000003c0: 0000 0000 0000 0000 0000 0000 0000 0000
000003d0: 0000 0000 0000 0000 0000 0000 0000 0000
000003e0: 0000 0000 0000 0000 0000 0000 0000 0000
000003f0: 0000 0000 0000 0000 0000 0000 0000 0000

arith.constant31 f4 [2, 1, 5, 16]
0.070543125 -0.21018122 -0.1595088 0.16891506 -0.27716908 -0.27963606 -0.03271457 0.1890038
-0.023166038 -0.029108187 -0.27145344 0.3148589 0.22036892 -0.26773903 0.21203785 -0.056465976
0.00032958738 0.10499931 -0.104867406 0.07695656 0.20544653 -0.017012447 -0.13606158 0.23754044
-0.26367107 -0.19916102 -0.21377675 -0.2839987 0.1481704 0.037356693 0.0061125397 -0.2478372
-0.22837812 -0.20049132 -0.27445173 -0.23209299 0.12155897 -0.24545786 0.13162644 0.19723587
-0.20381622 -0.18744038 0.2829204 0.21634446 -0.1714819 0.25125572 -0.19296767 -0.26749483
0.2113582 -0.2792261 0.07270653 0.30194837 -0.19115205 -0.21380955 -0.059636693 -0.24230874
0.15892747 0.043719314 0.1087039 -0.13838238 0.0370069 0.15246388 0.017765902 -0.17698918
0.15608233 0.14840415 -0.22693405 0.071171574 -0.31311074 0.12023474 0.07131211 0.19411407
-0.08261093 -0.076015145 0.27009827 -0.31528333 -0.27292773 0.021253202 -0.2754215 -0.022214483
0.20333204 -0.09131674 0.2013115 0.18031573 -0.21305214 0.10627035 0.13711321 -0.058484513
-0.21295427 -0.17403635 0.07828494 -0.18129733 0.2507247 0.24376015 0.2727354 -0.06697006
-0.028396877 -0.26034987 -0.07374947 -0.19474389 0.30503872 -0.04124132 -0.03472776 0.09991455
-0.097983204 0.25004598 -0.05371313 -0.27651605 0.3028902 0.26212794 0.23453465 -0.27400276
-0.17279762 0.23516789 -0.31254697 -0.21692576 -0.1577651 0.046882685 -0.10712773 -0.01903713
-0.27295905 -0.14405268 0.009155427 -0.08673588 0.10468254 0.059680462 -0.06714803 -0.22808506
0.071410045 0.29531562 0.13491136 -0.20441395 0.23710187 0.22478764 0.0077513917 -0.19882895
-0.28795674 0.06424134 -0.1985026 -0.24920814 -0.19896209 -0.014198683 -0.25076938 -0.1142483
-0.0756897 -0.28072003 0.021684347 0.24310099 -0.09484072 0.049633004 -0.06362805 -0.21922424
0.002868952 0.060426604 0.13912742 -0.061762407 0.3114054 0.13355026 -0.06539638 -0.2877227
00000000: ea78 903d bf39 57be 4656 23be 12f8 2c3e
00000010: 1be9 8dbe 752c 8fbe b7ff 05bd 368a 413e
00000020: b4c6 bdbc 4b74 eebc f2fb 8abe 3035 a13e
00000030: 64a8 613e 1715 89be 7320 593e de48 67bd
00000040: 78cc ac39 e109 d73d b9c4 d6bd 679b 9d3d
00000050: 9360 523e b05d 8bbc ba53 0bbe cd3d 733e
00000060: e5ff 86be def0 4bbe 4be8 5abe 4768 91be
00000070: fbb9 173e 5503 193d b34b c83b 09c9 7dbe
00000080: f4db 69be 994d 4dbe f084 8cbe c9a9 6dbe
00000090: e9f3 f83d 4e59 7bbe 15c9 063e 33f8 493e
000000a0: 33b5 50be 5ff0 3fbe f1da 903e 6789 5d3e
000000b0: f498 2fbe 97a4 803e 5199 45be 15f5 88be
000000c0: 496e 583e b9f6 8ebe 29e7 943d fa98 9a3e
000000d0: 5dbd 43be e4f0 5abe 9b45 74bd c81f 78be
000000e0: e2bd 223e 0613 333d 26a0 de3d 1cb4 0dbe
000000f0: 8c94 173d 7e1f 1c3e cc89 913c a73c 35be
00000100: 0cd4 1f3e 42f7 173e 6661 68be 67c2 913d
00000110: 0d50 a0be a23d f63d 150c 923d d7c5 463e
00000120: eb2f a9bd d4ad 9bbd 524a 8a3e d16c a1be
00000130: 2fbd 8bbe 321b ae3c 0c04 8dbe 26fb b5bc
00000140: 4636 503e 4504 bbbd 9a24 4e3e b0a4 383e
00000150: 572a 5abe 45a4 d93d 6867 0c3e 758d 6fbd
00000160: af10 5abe 9636 32be db53 a03d 02a6 39be
00000170: fd5e 803e 439c 793e f9a3 8b3e 9927 89bd
00000180: 91a0 e8bc 944c 85be f609 97bd f16a 47be
00000190: 092e 9c3e a9ec 28bd b23e 0ebd 00a0 cc3d
000001a0: 6bab c8bd 0706 803e 4d02 5cbd 8393 8dbe
000001b0: 6d14 9b3e a235 863e da29 703e 174a 8cbe
000001c0: dcf1 30be dacf 703e 2806 a0be c921 5ebe
000001d0: 2d8d 21be 0f08 403d c965 dbbd c1f3 9bbc
000001e0: 4ac1 8bbe 8c82 13be a500 163c 95a2 b1bd
000001f0: cd63 d63d 8073 743d e884 89bd 218f 69be
00000200: 6e3f 923d 9c33 973e 3426 0a3e e451 51be
00000210: d5ca 723e bb2e 663e 63ff fd3b d199 4bbe
00000220: 116f 93be f790 833d 4444 4bbe 6b30 7fbe
00000230: b8bc 4bbe 98a1 68bc d864 80be 03fb e9bd
00000240: 3403 9bbd 89ba 8fbe 5fa3 b13c 77ef 783e
00000250: da3b c2bd fa4b 4b3d 6c4f 82bd 527c 60be
00000260: 0705 3c3b e381 773d 6b77 0e3e 94fa 7cbd
00000270: 8770 9f3e 66c1 083e 8aee 85bd 6450 93be

arith.constant32 f4 [16, 1, 5, 16]
0.07699701 0.105921604 0.029464697 0.08549739 0.032825526 -0.0075169005 -0.053697046 -0.084817365
0.04920327 -0.0007013995 -0.072880894 0.050801497 0.0466325 -0.02679855 -0.06408672 -0.020410705
-0.0711051 0.10696793 -0.10431531 -0.09475343 0.05612181 -0.10780549 0.108736746 -0.05018593
0.06431343 0.013045623 0.09552163 0.06461376 -0.05982878 0.044850517 0.020878064 -0.002912582
-0.09926942 0.024897471 0.111772865 -0.034223046 -0.05292974 -0.07837367 -0.02562546 -0.054957315
-0.07762265 -0.10483216 0.09519298 0.0663498 -0.03950664 -0.06402826 -0.11120336 -0.0836812
-0.09732156 -0.03655521 0.0933986 -0.05119702 0.09831258 0.10016996 -0.07098067 -0.09892872
0.00024676797 0.04210936 0.04935861 0.10697882 -0.05303085 0.01978049 -0.05033399 0.00023809145
0.025933629 -0.026062485 0.04429434 0.031604134 -0.08445479 0.020144291 0.017332109 -0.07918812
-0.10856065 -0.003062069 0.05296899 -0.10578291 0.07216237 -0.06694611 0.03922153 -0.067050524
0.03856798 0.014656126 -0.041809093 -0.045889262 0.023136562 -0.042104963 -0.10184287 -0.062063463
0.010130882 -0.03488862 -0.042686425 0.003210876 0.06519491 -0.025993286 0.020812877 -0.050867926
0.06251633 0.083643995 0.082345374 0.07932223 0.009259591 0.011888206 0.03240476 -0.029370895
-0.017901229 -0.032060366 0.01031109 0.072359614 -0.018044157 -0.087284125 -0.07239913 0.08035261
0.0923741 0.06258736 -0.07714727 -0.05824215 0.08778986 -0.02108878 0.08525696 0.059058744
0.012166454 -0.042969365 -0.037043467 0.08456919 0.06430185 0.083709314 -0.09179485 0.042126354
0.062301047 -0.08013678 0.06728615 -0.06578604 0.041420024 -0.10123036 0.07006021 -0.059637498
0.08087954 -0.099155776 -0.062027715 0.04326539 0.038471136 -0.050100084 -0.091514245 0.07453833
0.008481368 0.109318845 0.035943814 -0.044203416 -0.09858411 0.084021784 -0.062969565 -0.03791249
-0.058147706 -0.00076586707 0.0783498 0.07738215 -0.06060606 -0.056347106 -0.073002994 -0.020542212
0.10099099 0.048162755 -0.02936739 -0.08389257 0.07176473 0.0999791 0.058124423 -0.04475241
0.056762327 -0.07077544 -0.03621621 -0.028780997 0.09583189 -0.06757229 -0.034849755 -0.010385394
0.06704176 0.014371679 -0.09286574 -0.050744362 -0.06439706 -0.04612709 0.030670641 0.04617788
-0.08652584 0.056226794 0.01422158 0.093121044 0.036571134 -0.042800672 0.02064088 -0.03842154
-0.0039481013 -0.029863605 -0.092179246 0.08178505 -0.031577732 -0.091889575 0.014118488 -0.078286
0.06402597 0.021677304 0.04377988 0.06839248 0.1055117 -0.042610373 -0.04671728 0.093755
-0.08179051 0.10941883 -0.10152647 -0.08608263 -0.052556384 0.039965283 -0.109896 -0.09872709
-0.08348785 0.10241885 0.015766002 0.06642092 0.028293153 0.063487224 0.02894633 0.06381288
-0.022870228 0.08800242 -0.07626328 0.045493156 0.040452197 0.05156113 0.08746974 -0.014568867
-0.09447761 -0.020927338 0.090034075 -0.009165228 0.01411357 -0.006695722 0.083064385 -0.06608722
-0.023748944 -0.067258626 0.065006375 0.026566964 0.06841844 0.08533609 0.08184716 -0.065965004
0.056711134 0.0061008534 -0.05433883 0.038704015 0.038453598 0.01843952 -0.07177158 0.07881411
00000000: 9cb0 9d3d 6ded d83d f35f f13c 4119 af3d
00000010: 0f74 063d 5550 f6bb 6ff1 5bbd bab4 adbd
00000020: 5e89 493d 20de 37ba 9442 95bd 3b15 503d
00000030: b801 3f3d a288 dbbc e63f 83bd 5a34 a7bc
00000040: 8d9f 91bd 0112 db3d 44a3 d5bd 160e c2bd
00000050: fcdf 653d 20c9 dcbd 5fb1 de3d c38f 4dbd
00000060: c2b6 833d 4fbd 553c d8a0 c33d 3854 843d
00000070: 060f 75bd 2db5 373d 7908 ab3c 04e1 3ebb
00000080: c44d cbbd c8f5 cb3c 2ce9 e43d 772d 0cbd
00000090: dbcc 58bd 6082 a0bd 7cec d1bc ec1a 61bd
000000a0: a0f8 9ebd 3eb2 d6bd 89f4 c23d 67e2 873d
000000b0: b7d1 21bd 4021 83bd 96be e3bd 0d61 abbd
000000c0: 8750 c7bd eaba 15bd c447 bf3d f7b3 51bd
000000d0: 1b58 c93d e825 cd3d 505e 91bd 249b cabd
000000e0: a360 8139 dd7a 2c3d 412c 4a3d b617 db3d
000000f0: e036 59bd b20a a23c 042b 4ebd 30a8 7939
00000100: c372 d43c fe80 d5bc fb6d 353d 5673 013d
00000110: a2f6 acbd a405 a53c 11fc 8d3c 622d a2bd
00000120: 0c55 debd feac 48bb 03f6 583d b6a4 d8bd
00000130: ddc9 933d 0b1b 89bd c1a6 203d c951 89bd
00000140: 75f9 1d3d 3f20 703c 0340 2bbd 61f6 3bbd
00000150: e388 bd3c 4176 2cbd ff92 d0bd 4236 7ebd
00000160: 00fc 253c 5fe7 0ebd f6d7 2ebd 8f6d 523b
00000170: e984 853d dfef d4bc c47f aa3c e35a 50bd
00000180: 9008 803d 8b4d ab3d b1a4 a83d b173 a23d
00000190: 8ab5 173c c0c6 423c dbba 043d 3b9b f0bc
000001a0: 99a5 92bc bb51 03bd d9ef 283c 4731 943d
000001b0: 57d1 93bc 05c2 b2bd ff45 94bd e98f a43d
000001c0: a22e bd3d cd2d 803d 63ff 9dbd 528f 6ebd
000001d0: 2ccb b33d 61c2 acbc 339b ae3d 95e7 713d
000001e0: cf55 473c a500 30bd e4ba 17bd 9d32 ad3d
000001f0: b0b0 833d ca6f ab3d f0fe bbbd af8c 2c3d
00000200: 622f 7f3d c11e a4bd 52cd 893d d5ba 86bd
00000210: 0ba8 293d dd51 cfbd ba7b 8f3d 7346 74bd
00000220: 2ca4 a53d 2f12 cbbd c610 7ebd 0d37 313d
00000230: e993 1d3d bf35 4dbd d26b bbbd 8da7 983d
00000240: 70f5 0a3c 8fe2 df3d d239 133d a40e 35bd
00000250: 77e6 c9bd 9d13 ac3d 30f6 80bd 214a 1bbd
00000260: 4a2c 6ebd 78c4 48ba dc75 a03d 887a 9e3d
00000270: 0f3e 78bd 39cc 66bd 9882 95bd 2448 a8bc
00000280: 5dd4 ce3d 4f46 453d e193 f0bc decf abbd
00000290: 63f9 923d d8c1 cc3d e013 6e3d 4e4e 37bd
000002a0: 9d7f 683d b7f2 90bd 7357 14bd 20c6 ebbc
000002b0: 8343 c43d 5763 8abd 9ebe 0ebd 8027 2abc
000002c0: 314d 893d 3177 6b3c 6530 bebd 52d9 4fbd
000002d0: 9be2 83bd c2ef 3cbd ff40 fb3c 0425 3d3d
000002e0: 7634 b1bd 114e 663d a101 693c 3fb6 be3d
000002f0: 9dcb 153d c24f 2fbd 1017 a93c e85f 1dbd
00000300: 135f 81bb 85a4 f4bc 79c8 bcbd ec7e a73d
00000310: a757 01bd 9a30 bcbd 3b51 673c 6954 a0bd
00000320: 0c20 833d 9a94 b13c 8852 333d 5b11 8c3d
00000330: 8516 d83d 3788 2ebd 9e5a 3fbd 9f02 c03d
00000340: c881 a7bd fb16 e03d 1ced cfbd 174c b0bd
00000350: 5d45 57bd a3b2 233d 2711 e1bd 6e31 cabd
00000360: aefb aabd f9c0 d13d b427 813c b107 883d
00000370: 0bc7 e73c 9705 823d db20 ed3c 54b0 823d
00000380: 585a bbbc 9d3a b43d ec2f 9cbd 0857 3a3d
00000390: 34b1 253d c331 533d 5623 b33d 42b2 6ebc
000003a0: 7a7d c1bd cf6f abbc c963 b83d c129 16bc
000003b0: 9a3c 673c ca67 dbbb a91d aa3d bd58 87bd
000003c0: 258d c2bc e4be 89bd 1022 853d f6a2 d93c
000003d0: f81e 8c3d b0c4 ae3d 7c9f a73d a918 87bd
000003e0: ef49 683d abe9 c73b 6592 5ebd 1a88 1e3d
000003f0: 8581 1d3d 7a0e 973c fafc 92bd 4b69 a13d

arith.constant33 f4 [16, 3, 3, 16]
-0.045033645 -0.053258758 0.03520778 -0.08301457 -0.06411351 -0.009870172 0.014199138 0.00649032
-0.0036114058 0.0364547 0.04191805 -0.01861937 -0.04126684 -0.01273788 -0.06310701 0.079823196
-0.06521115 0.08109602 0.011621585 0.059732616 -0.0074306726 -0.028451135 -0.057029855 -0.01943498
-0.06711277 -0.006582707 -0.08186351 0.0007275641 0.05274933 0.05636272 -0.047743767 0.062215507
0.03670342 -0.07805607 -0.00028784078 -0.023215424 -0.00022209685 -0.02066208 0.03359717 0.027375996
-0.06610149 -0.062103134 -0.011461983 -0.057074945 0.060385525 0.01571694 -0.03784793 -0.055124544
-0.042080384 -0.050707065 0.065643564 -0.021155596 0.049300224 0.010648003 -0.045599632 0.044438712
-0.07767275 -0.06336399 -0.066155545 -0.03969295 -0.034382246 0.01540793 -0.015791506 -0.017979017
0.013038933 0.06721398 0.04166522 -0.05383309 0.05151893 0.051663868 -0.023501944 -0.02741459
-0.0321639 0.0036362808 0.055076182 -0.040672153 0.05937643 0.0053676865 -0.053041868 0.039215207
0.042098414 -0.05663827 0.018133592 0.042958647 -0.01911219 -0.077419154 0.0054470203 0.015681356
-0.002715697 -0.0566824 -0.015188376 0.06335074 0.006579618 -0.037751686 0.07832879 -0.034561776
-0.015370965 -0.061981987 -0.0116655035 -0.049410455 0.03093652 -0.068459615 -0.01817283 0.05778742
-0.042243958 -0.012397945 -0.010285169 0.0045697493 0.009388636 -0.017391345 -0.028279275 -0.009756575
-0.01871875 -0.06201177 -0.083015166 0.04464076 -0.03811264 -0.06546281 0.034726948 -0.059544556
-0.048473738 -0.06910923 -0.03572484 -0.07002452 0.017754674 -0.018802356 -0.08017387 0.045852613
-0.006673207 0.06083733 0.00082237524 0.028823137 -0.04013283 0.0444898 -0.041635882 -0.04035318
0.024070352 0.016414743 0.07069596 0.03731261 0.025095403 0.06378507 -0.07004742 -0.013915609
0.05122621 -0.07570857 0.050931197 0.06546398 0.0084422035 0.072705775 -0.006598115 -0.0064453087
0.06546421 -0.041267388 0.0019103389 0.06291189 -0.019891184 -0.07674046 0.044424117 -0.00089110935
-0.04861049 0.0064708493 -0.073088124 -0.031175386 -0.0800684 -0.0017058551 -0.08251718 -0.02168117
0.0055028005 -0.07084211 -0.07234793 0.021161836 -0.065070316 0.002235969 -0.06254366 -0.05009384
-0.0056089563 0.03905823 -0.003576408 -0.025440168 -0.0783931 0.02480801 -0.00993075 -0.06159739
-0.074077085 0.010793259 -0.047305506 0.019430082 -0.025542658 0.004332334 0.02870813 -0.042877853
-0.004463365 0.057215445 -0.018501898 0.012557249 -0.012094906 -0.06955599 -0.07029626 0.06003375
-0.078247756 -0.013882379 -0.067200705 0.03073598 0.045205276 -0.04599165 0.009519041 0.029251784
-0.028277984 -0.04109644 -0.00908803 -0.08310154 -0.017506659 -0.058548927 -0.012033354 0.021113615
-0.038308572 -0.06477519 -0.04444036 0.068348914 0.033300005 -0.07842713 -0.04611843 -0.07179204
-0.030539503 -0.03400799 -0.055166274 0.011196634 -0.018094977 -0.03470254 0.082585834 -0.019434711
0.02087326 0.015092215 -0.04153055 -0.04338383 0.04181975 0.07941395 0.025176775 0.02346149
-0.043492526 0.036319934 0.0049218438 -0.051639438 0.0031437874 0.044100106 -0.03498122 0.05608674
0.054165006 0.07774475 0.07121154 -0.011033803 -0.045823418 0.019387951 -0.018243205 -0.0725272
00000000: 3375 38bd db25 5abd 0836 103d 8b03 aabd
00000010: f24d 83bd 80b6 21bc 80a3 683c c0ac d43b
00000020: 56ad 6cbb 8651 153d 43b2 2b3d a687 98bc
00000030: 6b07 29bd 8bb2 50bc 403e 81bd 587a a33d
00000040: 6c8d 85bd ac15 a63d 7668 3e3c 30aa 743d
00000050: 007d f3bb 5b12 e9bc 2398 69bd 1b36 9fbc
00000060: 6c72 89bd c0b3 d7bb 0ea8 a7bd 00ba 3e3a
00000070: ae0f 583d 98dc 663d f88e 43bd b0d5 7e3d
00000080: 5356 163d dcdb 9fbd 56e9 96b9 462e bebc
00000090: abe2 68b9 8643 a9bc 309d 093d a043 e03c
000000a0: 3860 87bd db5f 7ebd 0bcb 3bbc 6bc7 69bd
000000b0: d056 773d d0c0 803c 6e06 1bbd 46ca 61bd
000000c0: 7b5c 2cbd 36b2 4fbd 2270 863d 804e adbc
000000d0: 08ef 493d f674 2e3c aec6 3abd 5e05 363d
000000e0: e412 9fbd fbc4 81bd 8f7c 87bd 1395 22bd
000000f0: 66d4 0cbd 8b71 7c3c 305d 81bc bb48 93bc
00000100: 40a1 553c 7ca7 893d 26a9 2a3d 1680 5cbd
00000110: 8305 533d 7e9d 533d 2687 c0bc 9094 e0bc
00000120: 4bbe 03bd ab4e 6e3b 9097 613d d897 26bd
00000130: b334 733d 6be3 af3b 6e42 59bd 20a0 203d
00000140: 636f 2c3d 88fd 67bd e68c 943c 68f5 2f3d
00000150: 2b91 9cbc ef8d 9ebd eb7c b23b 3076 803c
00000160: d6f9 31bb ce2b 68bd abd8 78bc 08be 813d
00000170: d699 d73b 83a1 1abd d86a a03d a690 0dbd
00000180: 80d6 7bbc d3e0 7dbd ab20 3fbc 9e62 4abd
00000190: 966e fd3c 8e34 8cbd 30df 94bc 80b2 6c3d
000001a0: 0008 2dbd c020 4bbc 2083 28bc d6bd 953b
000001b0: cbd2 193c 4b78 8ebc f0a9 e7bc 0bda 1fbc
000001c0: 1058 99bc 0e00 7ebd db03 aabd 3bd9 363d
000001d0: 001c 1cbd 5e11 86bd d83d 0e3d fee4 73bd
000001e0: 668c 46bd 2489 8dbd 3654 12bd 0469 8fbd
000001f0: 4072 913c 6607 9abc 3332 a4bd f3cf 3b3d
00000200: ebaa dabb 9030 793d ab94 573a 801e ec3c
00000210: 5362 24bd f03a 363d 638a 2abd 6049 25bd
00000220: 302f c53c 3678 863c 0bc9 903d 1bd5 183d
00000230: e094 cd3c bfa1 823d 0675 8fbd 4bfe 63bc
00000240: 93d2 513d 180d 9bbd 3b9d 503d fb11 863d
00000250: 2b51 0a3c c4e6 943d 0035 d8bb 2b33 d3bb
00000260: 1a12 863d fe07 29bd 5664 fa3a f3d7 803d
00000270: d6f2 a2bc 1a2a 9dbd 10f6 353d 5699 69ba
00000280: cb1b 47bd 6b09 d43b 3aaf 95bd 8663 ffbc
00000290: e7fa a3bd 0097 dfba c4fe a8bd b69c b1bc
000002a0: d650 b43b ab15 91bd 272b 94bd 965b ad3c
000002b0: 9643 85bd 5689 123b e416 80bd 332f 4dbd
000002c0: 56cb b7bb 86fb 1f3d 2b62 6abb e667 d0bc
000002d0: 908c a0bd 2b3a cb3c 96b4 22bc 8b4d 7cbd
000002e0: bab5 97bd 36d6 303c 6bc3 41bd d62b 9f3c
000002f0: d63e d1bc 40f6 8d3b 502d eb3c b0a0 2fbd
00000300: 6b41 92bb be5a 6a3d 4b91 97bc ebbc 4d3c
00000310: b629 46bc 5f73 8ebd 7cf7 8fbd f3e5 753d
00000320: 5c40 a0bd eb72 63bc 86a0 89bd 06ca fb3c
00000330: 2b29 393d be61 3cbd c0f5 1b3c 70a1 ef3c
00000340: 3ba7 e7bc be54 28bd f6e5 14bc 2431 aabd
00000350: 206a 8fbc 00d1 6fbd 8b27 45bc 76f6 ac3c
00000360: 73e9 1cbd dba8 84bd 1807 36bd 84fa 8b3d
00000370: 9665 083d 679e a0bd aee6 3cbd b407 93bd
00000380: fb2d fabc f64b 0bbd 08f6 61bd 1672 373c
00000390: eb3b 94bc 4024 0ebd c322 a93d 8b35 9fbc
000003a0: 66fe aa3c 5645 773c f01b 2abd 3eb3 31bd
000003b0: 304b 2b3d c8a3 a23d 863f ce3c 5032 c03c
000003c0: 3825 32bd 36c4 143d 6b47 a13b e083 53bd
000003d0: 0008 4e3b 50a2 343d 7848 0fbd 36bb 653d
000003e0: 20dc 5d3d a438 9f3d 5bd7 913d 20c7 34bc
000003f0: 56b1 3bbd 7bd3 9e3c c672 95bc 2489 94bd
