gtcrn_micro/models/tflite/gtcrn_s3_float16.tflite (tflite, 115844 bytes, 46 tensors)

arith.constant10 f2 [16]
00000000: 003c 003c 003c 003c 003c 003c 003c 003c
00000010: 003c 003c 003c 003c 003c 003c 003c 003c
1.0 1.0 1.0 1.0 1.0 1.0 1.0 1.0
1.0 1.0 1.0 1.0 1.0 1.0 1.0 1.0

arith.constant28 f2 [16, 1, 5, 3]
00000000: 7bb1 da28 bf2b b1a0 c2b1 9433 0ab2 d5a8
00000010: 38ac 342f 10ae 12b0 2a31 cb29 e02d 3eab
00000020: a42b fd30 6a31 a7b1 48b1 0c34 5eac df2d
00000030: 0433 f0b2 bc0b 232e 33a9 7533 1bb1 0ab4
00000040: 9c2e 6330 a32e 5c2e 40ac 9ab2 4fb2 59b3
00000050: 752f 00a9 54b1 bf32 d430 cdb2 01ac df33
00000060: bdb3 86b1 bca8 06b0 9a32 2c32 5f2c 77b3
00000070: b0b1 e931 1d34 0f34 38a8 b332 4932 b6ad
00000080: 5d26 4a32 de2e 5b28 eb32 b62f 0fad 0baf
00000090: 732b 97b0 13b4 f033 a4aa cc2d c5b1 17b4
000000a0: 6626 4b30 90a6 0bb1 56b0 caad 14ac 25b0
000000b0: 6fab 0c33 94b0 01b3 4e2d f8aa 94ac e628
000000c0: a6b1 0b30 fbb2 1934 792f 86a7 d233 0fb2
000000d0: fa2d d7b2 ab2b eb29 d32c bd2d a0b3 9d30
000000e0: 602c e0a9 052c 852b 0da8 08ac 8bab 1831
000000f0: 2e2c 6630 a82c e332 e9a7 7d2e 529d 3331
00000100: 0332 aca4 1032 b02b 02a8 1eb3 94a0 0eb3
00000110: fdb2 6a30 7433 2425 f2b2 01b4 792a 2fb2
00000120: e1ab a32d 8eb1 47b0 5d2c 28ad 132a 5b33
00000130: f7aa 4b2d 68b2 952b c8b3 07b0 5e31 b529
00000140: 5eae db25 48b0 f0b1 a433 652e 0c2c 2a30
00000150: 26a0 1a31 72a8 f1b1 72a7 caaa e4b1 90a5
00000160: 83a7 b328 112d 652f 2531 ab2d 072a 652b
00000170: 5d31 bead 232d b7b3 31ae 202f cc28 e7a8
00000180: 0e31 ba21 47b2 c52e fa32 0532 7daa fc31
00000190: be32 a82f 6e33 9321 a4b1 6b29 4a2a 4529
000001a0: 0cb1 97ae 8c2c c6b3 9d1e 80ab 79b3 88b2
000001b0: 33b0 ca30 c4af e7b3 d8a8 5bad 2b32 e922
000001c0: 6fb2 83b3 c5a9 b0b3 37b3 0b2a 8c2c aeb2
000001d0: d5a8 20ac 9b2e 10b3 1bac 25b2 81b1 bbb1
-0.1713 0.0379 0.06052 -0.00916 -0.1799 0.2368 -0.1887 -0.03775
-0.0659 0.11255 -0.0947 -0.1272 0.1614 0.04526 0.0918 -0.05658
0.0597 0.1559 0.1692 -0.1766 -0.165 0.253 -0.06824 0.09174
0.2192 -0.2168 0.000236 0.0959 -0.04062 0.233 -0.1595 -0.2524
0.1033 0.1371 0.1037 0.09937 -0.0664 -0.2063 -0.1971 -0.2296
0.1165 -0.03906 -0.1665 0.2108 0.1509 -0.2125 -0.06256 0.246
-0.2418 -0.1726 -0.037 -0.1257 0.2063 0.1929 0.0683 -0.2333
-0.1777 0.1847 0.257 0.2537 -0.03296 0.2094 0.1964 -0.08923
0.02486 0.1965 0.1073 0.03403 0.2162 0.1205 -0.07904 -0.11005
0.0582 -0.1434 -0.2546 0.248 -0.05188 0.0906 -0.1803 -0.2556
0.025 0.1342 -0.02563 -0.1576 -0.1355 -0.09045 -0.0637 -0.1295
-0.05807 0.2202 -0.1431 -0.2189 0.0829 -0.05444 -0.07153 0.03827
-0.1765 0.1263 -0.2181 0.256 0.11676 -0.02939 0.2444 -0.1893
0.0934 -0.2137 0.0599 0.04623 0.0754 0.08966 -0.2383 0.1442
0.06836 -0.0459 0.0628 0.05875 -0.03165 -0.063 -0.05893 0.1592
0.0653 0.1375 0.07275 0.2152 -0.0309 0.1014 -0.005196 0.1625
0.1879 -0.01825 0.1895 0.06006 -0.0313 -0.2224 -0.00894 -0.2205
-0.2184 0.138 0.2329 0.02008 -0.217 -0.2502 0.05057 -0.1932
-0.06155 0.0881 -0.1736 -0.1337 0.0682 -0.08057 0.04745 0.2299
-0.0544 0.0827 -0.2002 0.05923 -0.2432 -0.1259 0.1677 0.0446
-0.0995 0.02287 -0.1338 -0.1855 0.2388 0.0999 0.06323 0.1301
-0.0081 0.1594 -0.03473 -0.1857 -0.02908 -0.05304 -0.1841 -0.02173
-0.02934 0.0367 0.07916 0.11554 0.1608 0.08856 0.0471 0.05777
0.1676 -0.0897 0.08026 -0.2411 -0.09674 0.1113 0.03748 -0.0383
0.158 0.011185 -0.1962 0.1058 0.218 0.1881 -0.0507 0.187
0.2107 0.1196 0.2322 0.01089 -0.1763 0.04233 0.04913 0.04117
-0.1577 -0.10297 0.07104 -0.2429 0.00646 -0.0586 -0.2335 -0.2041
-0.1312 0.1497 -0.12134 -0.247 -0.03784 -0.0837 0.1927 0.0135
-0.201 -0.2347 -0.04507 -0.2402 -0.2255 0.0472 0.07104 -0.2087
-0.03775 -0.06445 0.1032 -0.2207 -0.06415 -0.192 -0.172 -0.1791

arith.constant29 f2 [16, 1, 5, 16]
00000000: 0a15 fd99 39ae 15a2 1d9d 4627 4e9c dd2e
00000010: aea9 33ae c3a2 07a8 dd28 052f 3306 5fad
00000020: 2729 3eae 2d2d 452c 9c27 c9a8 482a 7da2
00000030: 6f2a dda8 96a7 cfab 5121 062e 172e 82ad
00000040: 0fa6 a9ae 3828 032e 202c d1ae f2ae 1ea4
00000050: c725 00ae 422c 55ae 75a0 592a 542e b125
00000060: d7a8 f9ae 9d24 8cac f525 66ae 8821 8aae
00000070: d1a9 350c c2ab c9a6 b3aa cd21 68ac 0521
00000080: c2ac fdae eda0 60a9 4d25 bca5 ea24 f2ac
00000090: f7a1 5529 f9ac 3ea8 f4ae d8a5 d92e b7ae
000000a0: d2ac 5d24 5c9c 19af 0a2d 54ac 36ac a02c
000000b0: dda7 9f9f ca9e ddad da2e 082a c8ab f7a5
000000c0: 832d 9f9e 9dae d62d dd97 8fad b029 ea2e
000000d0: 102e 262c e3ac eead 2f22 4d26 c526 312d
000000e0: c9a9 e127 172d 592c 04ab 9f80 ada7 0f28
000000f0: 672e 08ad 072b b826 b829 742d c2a0 992a
00000100: 73a8 1425 d925 58ab 0124 b52e 702e 6420
00000110: 11a8 1e2d 8a2d b0ac 62a0 b4aa 0f2c 0aac
00000120: 2826 66a5 e0ab e0ae e9ad 9e18 3426 34ae
00000130: 4025 99ab dc2c b42c 312e 9f21 ddad 99a9
00000140: 5da9 76a7 9d25 522c 2b2c f5aa 5a2c 1a24
00000150: 222b 3c2c edae 1b2d a8ad baae ba26 2c2a
00000160: 18a1 2bae 72a9 b69d 062a bb2d b4ad 6726
00000170: ecad 8c2d 582b afa7 0f2f efac dea7 742d
00000180: 34a8 ae2a e09f f7a8 f02c f52a 45ac 222b
00000190: e3a9 63ad c7aa bda8 02a9 6a25 a0a6 d22e
000001a0: edab 9a29 bda8 172e 97ae fc2e dcad 0224
000001b0: bc2e 922c a9ad efab d01e 7a27 5826 7225
000001c0: 48ae e5ac 40ac a02b 0aa9 c423 2329 f0ab
000001d0: ec2d df1b 682a c31f f0ac d1ab fc29 1aa2
000001e0: e82c e8ae 812b 41ac 35ad 82ac a32a 77a8
000001f0: e2aa c52a 5c1d a0ad 79a8 1b2f f52b d22c
0.00123 -0.002924 -0.0972 -0.01188 -0.004993 0.02841 -0.004204 0.10724
-0.04437 -0.09686 -0.01321 -0.03146 0.038 0.1097 9.46e-05 -0.0839
0.04025 -0.09753 0.0809 0.0667 0.02972 -0.03738 0.04907 -0.01267
0.05026 -0.038 -0.02963 -0.061 0.01038 0.0941 0.09515 -0.08606
-0.02367 -0.10406 0.03296 0.09393 0.06445 -0.1065 -0.1085 -0.01608
0.02257 -0.09375 0.0665 -0.09894 -0.008705 0.0496 0.0989 0.02223
-0.0378 -0.10895 0.01802 -0.07104 0.02327 -0.1 0.0108 -0.1022
-0.04544 0.0002568 -0.0606 -0.0265 -0.05234 0.01133 -0.06885 0.0098
-0.07434 -0.1092 -0.00962 -0.042 0.0207 -0.0224 0.0192 -0.0773
-0.01165 0.04166 -0.0777 -0.03314 -0.10864 -0.02283 0.107 -0.1049
-0.0753 0.01704 -0.004257 -0.1109 0.07874 -0.0676 -0.0658 0.07227
-0.03072 -0.007442 -0.00663 -0.0916 0.10706 0.04712 -0.0608 -0.0233
0.0861 -0.006466 -0.10333 0.0912 -0.00192 -0.08685 0.04443 0.10803
0.0947 0.0648 -0.07635 -0.09265 0.01208 0.02461 0.02644 0.0811
-0.0452 0.03078 0.0795 0.06793 -0.0548 -9.5e-06 -0.02998 0.0317
0.10004 -0.0786 0.0549 0.02625 0.04468 0.0852 -0.00929 0.05154
-0.03476 0.01984 0.02284 -0.05737 0.01564 0.1048 0.1006 0.008575
-0.03177 0.07996 0.08655 -0.07324 -0.00856 -0.05237 0.0634 -0.0631
0.02405 -0.02109 -0.06152 -0.1074 -0.09235 0.002254 0.02423 -0.0969
0.02051 -0.05936 0.0759 0.0735 0.09674 0.01098 -0.0916 -0.04373
-0.0419 -0.02914 0.02193 0.0675 0.0651 -0.05435 0.068 0.01602
0.05573 0.06616 -0.1082 0.0798 -0.0884 -0.1051 0.02628 0.04822
-0.00995 -0.0964 -0.04254 -0.005577 0.04706 0.08954 -0.0891 0.02501
-0.0925 0.0867 0.05737 -0.03001 0.1103 -0.0771 -0.03073 0.0852
-0.03284 0.0522 -0.00769 -0.0388 0.07715 0.05435 -0.0667 0.05573
-0.046 -0.08417 -0.05295 -0.03702 -0.03912 0.02115 -0.02588 0.10657
-0.06192 0.04376 -0.03702 0.09515 -0.10297 0.10913 -0.09155 0.01566
0.1052 0.0714 -0.08844 -0.06198 0.006653 0.0292 0.02478 0.02127
-0.09814 -0.0765 -0.0664 0.05957 -0.03937 0.01517 0.04013 -0.062
0.0925 0.003843 0.05005 0.00758 -0.07715 -0.06107 0.04675 -0.01192
0.07666 -0.1079 0.05862 -0.06647 -0.08136 -0.07043 0.05185 -0.03488
-0.05377 0.0529 0.005234 -0.0879 -0.03494 0.111 0.06216 0.0753

arith.constant30 f2 [16, 1, 1, 8]
00000000: f432 73b4 81b4 5d27 3c32 06b1 072d de30
00000010: 9435 bfa8 0eb2 3e27 9232 2534 8734 d2b4
00000020: bd31 7e34 8d2e f734 7a2f 0935 8219 a135
00000030: d6b0 282f 9933 8033 28b4 6bb3 7f28 5335
00000040: 6528 48ae 64b4 db27 ad31 a22c 8f30 9d2d
00000050: 02b3 a9b1 ee34 c3ab 0d31 beae af34 2bad
00000060: 2735 d82d 60b5 3635 dd34 c9b0 3331 382e
00000070: ba30 2315 7eb0 3bb2 4834 0eb2 1dad ba34
00000080: 722d e934 5030 2ab5 cb31 a5b3 afb4 de30
00000090: 14af 47b1 7cab d22b 9d35 a0b4 79b4 6ab1
000000a0: 31b5 cc2b 3db5 5832 3ab5 0933 13b0 f32c
000000b0: 7fb0 f12f 0034 a3b4 ec23 1ead df2c 8531
000000c0: 8728 832a 4cb2 e434 40b4 c4b3 88b2 1329
000000d0: 1ab5 d3b3 a534 3eb3 f8b4 0e1d 0c35 7d34
000000e0: 3b34 4ab4 c232 8c35 8418 dab4 0b2e 8235
000000f0: 8db0 68b4 91ae 21b4 78a9 ef34 deaf 2ead
0.2173 -0.278 -0.2815 0.02876 0.1948 -0.157 0.07855 0.1521
0.3486 -0.03708 -0.1892 0.02829 0.2053 0.259 0.283 -0.3013
0.1793 0.2808 0.10236 0.3103 0.1168 0.3147 0.00269 0.3518
-0.1511 0.1118 0.2374 0.2344 -0.2598 -0.2318 0.03513 0.3328
0.03433 -0.09814 -0.2744 0.03069 0.1774 0.0724 0.1425 0.0877
-0.219 -0.1769 0.308 -0.06064 0.1578 -0.10535 0.2927 -0.08075
0.322 0.0913 -0.336 0.3257 0.304 -0.1495 0.1625 0.09717
0.1477 0.001254 -0.1404 -0.1947 0.2676 -0.1892 -0.0799 0.2954
0.0851 0.307 0.1348 -0.3228 0.181 -0.2389 -0.2927 0.1521
-0.1106 -0.1649 -0.05847 0.0611 0.3508 -0.289 -0.2795 -0.1692
-0.3245 0.0609 -0.3274 0.1982 -0.3267 0.2198 -0.1273 0.07733
-0.1405 0.1241 0.25 -0.2898 0.01547 -0.07996 0.0761 0.1725
0.03537 0.05087 -0.1968 0.3057 -0.2656 -0.2427 -0.2041 0.03964
-0.3188 -0.2445 0.2903 -0.2263 -0.3105 0.004936 0.3154 0.2805
0.2644 -0.268 0.2112 0.3467 0.002205 -0.3032 0.0944 0.3442
-0.1422 -0.2754 -0.1026 -0.258 -0.04272 0.3083 -0.1229 -0.08093

arith.constant31 f2 [1, 3, 3, 16]
00000000: 28b5 11ac 2831 d4b3 40b4 3c31 618f 19b2
00000010: 0d28 dbae fcb1 f3b4 94b2 182c 19ac 33b0
00000020: c732 c834 642b b823 50b0 a92c f3b4 4830
00000030: 5f2f bab0 2db4 46a9 40b0 b234 86b4 702e
00000040: 46ab e731 bab2 95aa ac2a b132 6fb4 1333
00000050: bd34 56ae 6134 d034 0c30 6daf bc30 84b1
00000060: e3b2 3832 15b3 c5b3 8031 f3b0 f4ae e334
00000070: 5fb2 e530 551c b825 9433 e0b1 71a5 df2b
00000080: 742d ceb0 bea6 d32d 01ac aea8 d5b1 b82d
00000090: dab0 1a34 b232 51b5 372f 27af 0331 f0b0
000000a0: feb1 3033 1135 91b0 01b1 092c dab4 49af
000000b0: 5732 0bb5 b2ae 8c34 eb32 5531 fdb4 9da6
000000c0: 9034 f533 942e 5cb4 65ad 15b3 b3b0 7134
000000d0: fa2a 8eb2 58b1 f0af 5eb2 4234 d5b4 2eb5
000000e0: 9231 0b32 f22b 60b4 28ad 0e34 36b4 6d34
000000f0: 59ad 3baf c6af ec24 b2ad 4d2a 2634 1e34
00000100: 3932 fbaf d1b2 cc34 8cb4 4426 caa0 6bb0
00000110: 9a32 e32d 6c2e f52e 4533 7a30 6f24 592e
-0.3223 -0.06354 0.1611 -0.2446 -0.2656 0.1636 -0.0004504 -0.1906
0.03165 -0.1071 -0.187 -0.3093 -0.2056 0.06396 -0.064 -0.1312
0.2118 0.2988 0.05774 0.015076 -0.1348 0.0728 -0.3093 0.1338
0.1152 -0.1477 -0.261 -0.0412 -0.1328 0.2935 -0.2827 0.1006
-0.05682 0.1844 -0.2102 -0.05142 0.05212 0.2091 -0.277 0.2211
0.2961 -0.099 0.2737 0.3008 0.1265 -0.116 0.148 -0.1724
-0.2152 0.1943 -0.2213 -0.2428 0.1719 -0.1547 -0.10864 0.3054
-0.1991 0.153 0.00423 0.02234 0.2368 -0.1836 -0.02126 0.0615
0.0852 -0.1501 -0.02634 0.091 -0.06256 -0.03656 -0.1823 0.08936
-0.1516 0.2563 0.2092 -0.3323 0.11273 -0.11176 0.1566 -0.1543
-0.1873 0.2246 0.3167 -0.1427 -0.1564 0.06305 -0.3032 -0.11383
0.1981 -0.3152 -0.1046 0.2842 0.2162 0.1666 -0.3118 -0.02583
0.2852 0.2487 0.1028 -0.2725 -0.0843 -0.2213 -0.1469 0.2776
0.0545 -0.2048 -0.167 -0.124 -0.199 0.266 -0.302 -0.3237
0.1741 0.1888 0.06207 -0.2734 -0.08057 0.2534 -0.2632 0.2766
-0.08356 -0.113 -0.12146 0.01923 -0.089 0.04922 0.2593 0.2573
0.1945 -0.1247 -0.213 0.2998 -0.2842 0.02448 -0.00935 -0.1381
0.2063 0.092 0.10034 0.1087 0.2272 0.1399 0.01732 0.0992

arith.constant32 f2 [8, 1, 1, 16]
00000000: 67ae 1824 24a0 aea0 69b3 04a5 3731 74b0
00000010: f933 33b0 27a8 5198 cab0 982e b0b1 2a32
00000020: 0e31 4aad e3aa e62e 79af 0f2a 49b0 64ab
00000030: a630 deb1 2918 71af 4c22 7d31 0a1c bb2a
00000040: eb33 0124 e4ac d3b2 542c a833 5131 2c32
00000050: 2a2e f820 a1af 09b0 aa2d 12b2 b933 802b
00000060: 952d 1328 82b3 222c 1431 d4b3 e7b2 df32
00000070: f02a 80b0 0fb3 ee25 9633 a930 ffb0 3f30
00000080: 8bad b528 eea8 8c2c 4b24 b7a8 76b3 6c27
00000090: 46aa e0ae 27b3 14ac 40b2 3ab1 91af e9ab
000000a0: 3f32 3ea7 3a2b 13ae 4e94 491b 69af eea1
000000b0: 1ab2 632d 6e32 7821 e831 c1b2 1eb0 3a2f
000000c0: e8af f5aa 3532 d1a9 4d30 03a2 6026 0332
000000d0: 528d a6ae 6d2f bbae 2f2d 1d33 97b3 492d
000000e0: a9b0 ac22 c2b0 9932 f2b3 252b 5530 8cb1
000000f0: 6530 082d bc2d 8e29 b5ac b92c a62d 3cae
-0.10004 0.01599 -0.00809 -0.00914 -0.2316 -0.01959 0.163 -0.1392
0.2491 -0.1312 -0.03244 -0.002108 -0.1497 0.103 -0.1777 0.1926
0.158 -0.08264 -0.0538 0.1078 -0.11676 0.04733 -0.1339 -0.05774
0.1453 -0.1833 0.002031 -0.1163 0.0123 0.1715 0.003944 0.05258
0.2474 0.01564 -0.0764 -0.2133 0.0676 0.2393 0.1661 0.1929
0.0963 0.009705 -0.1192 -0.1261 0.0885 -0.1897 0.2413 0.0586
0.0872 0.03183 -0.2346 0.0646 0.1587 -0.2446 -0.2157 0.2147
0.0542 -0.1406 -0.2206 0.02316 0.237 0.1456 -0.1561 0.1327
-0.0866 0.03677 -0.0385 0.07104 0.01677 -0.03683 -0.2332 0.02899
-0.049 -0.1074 -0.2235 -0.0637 -0.1953 -0.1633 -0.1182 -0.0618
0.1952 -0.02829 0.05646 -0.0949 -0.001051 0.003557 -0.1158 -0.01158
-0.1907 0.08417 0.2009 0.01068 0.1846 -0.211 -0.1287 0.1129
-0.12354 -0.05435 0.194 -0.04544 0.1344 -0.01174 0.0249 0.1879
-0.0003247 -0.1039 0.116 -0.10516 0.081 0.2223 -0.2372 0.0826
-0.1456 0.01303 -0.1487 0.2062 -0.2483 0.05582 0.1354 -0.1733
0.1373 0.0786 0.0896 0.0434 -0.07355 0.0738 0.08826 -0.0974

arith.constant33 f2 [16, 1, 1, 8]
00000000: adb4 9d2e 2aa9 6034 812e 7830 9b29 092e
00000010: a22c 2ab2 ab30 e530 d0b2 bb34 61a9 37af
00000020: 6bb5 6029 fb34 4c34 7729 fd30 4ead 5aad
00000030: a135 03b2 8c35 5035 22ae d8b0 ee31 59b0
00000040: 6534 8e30 6cb5 b3b4 e2b4 4934 3826 3a2e
00000050: 5ea3 8634 2fb5 a9b3 92b3 f89f 13a8 cdac
00000060: 5b2d 77b4 5f31 9335 0a33 ecb0 2532 5ab3
00000070: 9430 6e11 fcad 9e32 7830 e02a b334 26a8
00000080: 5e2c 91b0 e52f 8cb5 5cb3 8633 6db2 97ae
00000090: 63b0 48b4 1d25 58b5 0335 c52a b8a9 33b5
000000a0: e7b1 c1b4 eca6 f2a3 d02d eb33 cdb2 2631
000000b0: 04b3 ec1a cda3 07b5 2035 dc31 9f2d 56b1
000000c0: ac2c 17b0 ab33 2027 a426 5cac 8d2e 6531
000000d0: 5bb3 b1ac 3d2d db1c 45b1 b2b0 aaaa 782c
000000e0: cd1b 02a5 33a5 6532 5e31 76a3 7cb5 2f33
000000f0: 2135 89b2 f5b4 582e 1f34 0532 5d30 7035
-0.2922 0.10333 -0.04034 0.2734 0.1016 0.1396 0.0438 0.0943
0.0724 -0.1926 0.1459 0.153 -0.2129 0.2957 -0.04202 -0.11273
-0.3386 0.042 0.3113 0.2686 0.0427 0.1559 -0.0829 -0.0836
0.3518 -0.1879 0.3467 0.332 -0.0958 -0.1514 0.1853 -0.1359
0.2747 0.1423 -0.3389 -0.2937 -0.3052 0.2678 0.02429 0.0973
-0.01439 0.2827 -0.324 -0.2394 -0.2366 -0.007782 -0.03183 -0.075
0.0837 -0.279 0.1678 0.3484 0.22 -0.1538 0.192 -0.2297
0.1431 0.000663 -0.0935 0.2068 0.1396 0.0537 0.2937 -0.0324
0.06824 -0.1427 0.12335 -0.3467 -0.23 0.2351 -0.2008 -0.10297
-0.1371 -0.2676 0.01997 -0.334 0.3132 0.0529 -0.04468 -0.325
-0.1844 -0.297 -0.02704 -0.01552 0.0908 0.2474 -0.2125 0.1609
-0.2192 0.00338 -0.015236 -0.3142 0.3203 0.1831 0.0878 -0.1667
0.073 -0.1278 0.2396 0.02783 0.02594 -0.0681 0.10236 0.1686
-0.2299 -0.0733 0.08185 0.00474 -0.1647 -0.1467 -0.05206 0.0698
0.003809 -0.01956 -0.02031 0.1998 0.1677 -0.01457 -0.3428 0.2245
0.3206 -0.2042 -0.3098 0.0991 0.2576 0.1881 0.1364 0.3398

arith.constant34 f2 [1, 3, 3, 16]
00000000: cab2 80b0 22b3 08aa 7eaa 9527 f934 32b4
00000010: 5a34 a131 93b0 7e2c efac 5333 3b32 d7af
00000020: dc29 38a5 4daf 77b4 4c35 b0b3 88b1 07b4
00000030: 4f2a 5c33 f4b3 19af 77ab 8e31 37af 1730
00000040: e7b0 cf30 c2a8 e834 842c 8fa8 4934 fd28
00000050: c72d 1aae 8428 df26 72ac 3fb4 d6b4 d32e
00000060: 252a 59ae e12f a2a7 97ae 3bb3 742d cfb1
00000070: c3b4 3a31 efb1 e525 deb3 78b4 1c2f e227
00000080: 6c2e 5db4 622c a634 4232 86b1 2eb2 9d2e
00000090: 51b3 f1a9 8c9c 1232 c332 4535 34b5 fd2c
000000a0: 5e25 3eb4 c034 9ab3 dd32 d333 e932 f834
000000b0: ffb0 ca2e 59ad 3ba1 cf2d 2529 65a7 12b1
000000c0: 049e 4db0 2eb1 0b34 a1ae 36b4 85b4 07b1
000000d0: f7a5 e8b0 6faf 6732 b829 6fb2 8833 cca8
000000e0: 712d afb4 1531 5e34 dbb4 b9b1 02b5 5cb4
000000f0: 5932 26b1 03b2 d2a5 482a 8bab 93b2 5cae
00000100: 6ab2 ef34 06af 532d 891e e034 67b1 6ab4
00000110: f0b1 242c c7b4 6db4 532c 5435 3730 8533
-0.2122 -0.1406 -0.2229 -0.04712 -0.05072 0.02962 0.3108 -0.2622
0.272 0.1759 -0.143 0.0702 -0.0771 0.2289 0.1947 -0.1225
0.04578 -0.02039 -0.1141 -0.279 0.331 -0.2402 -0.1729 -0.2517
0.0493 0.23 -0.2485 -0.1109 -0.05832 0.1736 -0.11273 0.1278
-0.1532 0.1503 -0.03717 0.3066 0.07056 -0.0356 0.2678 0.03897
0.0903 -0.09534 0.03528 0.02684 -0.06946 -0.2654 -0.3022 0.1066
0.048 -0.0992 0.1231 -0.02982 -0.10297 -0.226 0.0852 -0.1815
-0.2976 0.1633 -0.1854 0.02303 -0.2458 -0.2793 0.1111 0.03079
0.10034 -0.2727 0.0685 0.2905 0.1956 -0.1726 -0.1931 0.10333
-0.2286 -0.04642 -0.00444 0.1897 0.2113 0.3293 -0.3252 0.07794
0.02097 -0.2651 0.2969 -0.2375 0.2145 0.2445 0.216 0.3105
-0.1561 0.1061 -0.08356 -0.010216 0.09076 0.0402 -0.02888 -0.1584
-0.005875 -0.1344 -0.1619 0.2527 -0.1036 -0.2632 -0.2825 -0.1571
-0.0233 -0.1533 -0.11615 0.2001 0.04468 -0.201 0.2354 -0.03748
0.085 -0.2927 0.1588 0.273 -0.3035 -0.1788 -0.313 -0.2725
0.1984 -0.1609 -0.1879 -0.02274 0.04907 -0.05893 -0.2054 -0.09937
-0.2004 0.3083 -0.10974 0.0832 0.006382 0.3047 -0.1688 -0.276
-0.1855 0.0647 -0.2986 -0.2766 0.06757 0.333 0.1317 0.235

arith.constant35 f2 [8, 1, 1, 16]
00000000: 8931 f8a8 76b0 1429 2eb2 b5ae 98b0 5a9c
00000010: 842c 1531 4c2b 4030 0a26 34ae a0b2 7fb2
00000020: c5b3 f8b1 1aae 45a9 9329 baab 312f 4a30
00000030: 7631 3ca3 5930 2c32 eb31 fd21 b4b3 8f32
00000040: 2f29 7eb0 e8b0 0930 5c32 9e31 f531 f1b3
00000050: 011d ec27 11a9 1d32 b930 52ac 00b3 8827
00000060: 5e2a 6832 3ea8 cab2 7c31 c128 2432 7eac
00000070: d92f 572b 73af 2e30 0430 51b1 4ea5 feb2
00000080: 532f f89c e12a cd30 eab0 d432 a7b2 c432
00000090: 8f2a bab1 3b2d 05af 31aa 29ae 5430 4427
000000a0: 63a0 bfaf 5c1e ba29 1db1 e931 9ab0 1e32
000000b0: d0ae e432 7c30 5c31 1b31 58b0 5b2b d8a5
000000c0: 6533 0a22 b7b0 26ac 97af 692c 4aaf 242a
000000d0: 6eb2 ecb1 8831 5731 01ac 24ad 9eb0 992d
000000e0: 3f2e 60b3 98b2 652c 6d2d 2f2b a3b3 442f
000000f0: 0c32 b19c a225 02b1 55a9 d922 f7b0 4933
0.173 -0.03882 -0.1394 0.03967 -0.1931 -0.1048 -0.1436 -0.00425
0.07056 0.1588 0.057 0.1328 0.02359 -0.0969 -0.207 -0.203
-0.2428 -0.1865 -0.09534 -0.04117 0.04355 -0.06036 0.11237 0.134
0.1707 -0.01413 0.1359 0.1929 0.1849 0.011696 -0.2407 0.205
0.0405 -0.1404 -0.1533 0.1261 0.1987 0.1755 0.1862 -0.2482
0.004887 0.03094 -0.03958 0.191 0.1476 -0.0675 -0.2188 0.02942
0.04974 0.2002 -0.03314 -0.2122 0.1714 0.03714 0.1919 -0.0702
0.1226 0.05734 -0.1164 0.1306 0.1255 -0.1661 -0.02072 -0.2185
0.11444 -0.004852 0.05374 0.15 -0.1536 0.2134 -0.2079 0.2114
0.05124 -0.179 0.0817 -0.1097 -0.04837 -0.09625 0.1353 0.02838
-0.00857 -0.12103 0.00621 0.04474 -0.1598 0.1847 -0.1438 0.1912
-0.10645 0.2153 0.1401 0.1675 0.1595 -0.1357 0.05746 -0.02283
0.2311 0.011795 -0.1473 -0.0648 -0.1186 0.0689 -0.1139 0.04797
-0.2009 -0.185 0.1729 0.1669 -0.06256 -0.0803 -0.1443 0.08746
0.0976 -0.2305 -0.206 0.06866 0.0848 0.05612 -0.2386 0.1135
0.189 -0.00458 0.022 -0.1565 -0.04166 0.013374 -0.1552 0.2277

arith.constant36 f2 [16, 1, 1, 8]
00000000: 62a9 1cb5 b532 cdb4 d4ae 73a8 9534 6e2c
00000010: 8b2b 9c2e dcaa c2b4 9230 06ad 6d34 422e
00000020: 67b1 48ab 8db0 b5b4 5534 91b5 60a9 e52c
00000030: 5932 2b31 252b b89f 5f2c 6b35 2e2c d39f
00000040: 7cb3 0830 03b5 b72f caa9 4829 98b4 62b4
00000050: bd34 1fb4 e5b3 9b35 d7b0 0133 1533 e42f
00000060: a0b3 f8b4 78a4 56b4 d3b2 202f 73a0 70a0
00000070: 2b34 d4af 49b4 b8aa f1b3 5d34 b0b0 8235
00000080: 32b4 0f25 6c2f 61b3 21b2 9034 fd2c 7c28
00000090: 962b 5834 67b4 1db3 d434 e233 97ae b3b3
000000a0: 2b30 252d 7134 0cb4 f132 232c 89b3 23b2
000000b0: 6832 9e25 c6af 71b4 c2ac 15b5 b9b1 d0b0
000000c0: 45b1 b330 1d1f 3db3 6b35 3930 9131 7130
000000d0: cd33 492e f12d 662b 6931 fe34 04af 89a8
000000e0: 9494 422d 9baf 5c32 bd32 01b1 5c31 99b1
000000f0: 86a7 fcb3 8a32 7231 e3a7 ac34 b62b 4ca2
-0.04205 -0.3193 0.2096 -0.3 -0.1067 -0.03476 0.2864 0.0692
0.05893 0.1033 -0.0536 -0.2974 0.1428 -0.0785 0.2766 0.0978
-0.1688 -0.0569 -0.1422 -0.2942 0.2708 -0.348 -0.042 0.0765
0.1984 0.1615 0.05582 -0.007538 0.0683 0.3386 0.0653 -0.00764
-0.2339 0.126 -0.3132 0.12054 -0.04523 0.04126 -0.287 -0.274
0.2961 -0.2576 -0.2467 0.3503 -0.1512 0.2189 0.2213 0.1233
-0.2383 -0.3105 -0.01746 -0.271 -0.2133 0.1113 -0.00869 -0.00867
0.2605 -0.1223 -0.2678 -0.0525 -0.2482 0.2727 -0.1465 0.3442
-0.2622 0.01976 0.11597 -0.2306 -0.1915 0.2852 0.07794 0.03503
0.05927 0.2715 -0.2751 -0.2223 0.3018 0.2463 -0.10297 -0.2406
0.1302 0.0804 0.2776 -0.253 0.2169 0.06464 -0.2355 -0.1918
0.2002 0.02194 -0.12146 -0.2776 -0.07434 -0.3176 -0.1788 -0.1504
-0.1647 0.1469 0.006947 -0.2262 0.3386 0.132 0.174 0.1388
0.2438 0.0982 0.09283 0.0578 0.1691 0.312 -0.1096 -0.03543
-0.001118 0.08215 -0.11884 0.1987 0.2106 -0.1564 0.1675 -0.1749
-0.02939 -0.2495 0.2043 0.1702 -0.0308 0.292 0.06024 -0.0123

arith.constant37 f2 [1, 3, 3, 16]
00000000: f0aa 92a7 3e34 5fad cdb0 8832 55b0 7331
00000010: eba6 64ae 5e2f 9f18 8baf a530 9b34 d6b1
00000020: 25b3 3c1f 89b0 4fb5 6bb0 6fb3 8ab4 2d32
00000030: 4db2 1135 2828 1daf 27b1 ea2c d431 4d2c
00000040: 1db4 19b1 f1b3 0a32 a5b3 4032 4434 9128
00000050: 7c34 37b1 5d2a 4eb3 4a31 0b2f 43b4 2c35
00000060: 8db0 5fb3 3630 1d35 7e20 1535 f0ab 7ba2
00000070: 02b4 12b2 4cb1 322c 9c2f f228 b8a5 27b2
00000080: aa30 77b4 5834 b2b3 af2e 7dad ba2e ad2c
00000090: 5134 d4a5 6d31 4e30 7632 2f34 b430 89ae
000000a0: e52e 61b0 6bb4 2330 d5b0 c3b2 c031 8930
000000b0: 53a7 f2b1 87aa 6a2b 9b32 cc2e e130 bbb4
000000c0: 9cb2 04b4 fdac 14ae 3131 e633 fbb1 ceb2
000000d0: 47b5 3dae fc31 23ae c9ad 04aa f52c ceb0
000000e0: 18b2 fbaf b1b2 2db2 6cb2 4ab3 562f 7b34
000000f0: 72b3 0cb0 2727 fab3 14aa b5b4 e0b3 ffb4
00000100: 32b4 dcae 16af 6e33 062e f0af 7332 8a30
00000110: 5035 0fb1 baab ac2d 60ae 79b4 f3ae a5b0
-0.0542 -0.02957 0.2651 -0.0839 -0.15 0.2041 -0.1354 0.1703
-0.02702 -0.09985 0.1151 0.002256 -0.11786 0.1451 0.2878 -0.1824
-0.2233 0.007065 -0.1417 -0.3318 -0.1381 -0.2323 -0.2837 0.193
-0.1969 0.3167 0.03247 -0.11115 -0.161 0.0768 0.1821 0.0672
-0.257 -0.1593 -0.2482 0.1887 -0.2389 0.1953 0.2666 0.03568
0.2803 -0.163 0.0497 -0.2283 0.1653 0.11005 -0.2664 0.3232
-0.1422 -0.2303 0.1316 0.3196 0.00877 0.3176 -0.062 -0.01266
-0.2505 -0.1897 -0.1655 0.06555 0.1189 0.03864 -0.02234 -0.1923
0.1458 -0.279 0.2715 -0.2405 0.10443 -0.08575 0.1051 0.07306
0.2698 -0.02277 0.1696 0.1345 0.2019 0.2615 0.147 -0.1021
0.1077 -0.1368 -0.2761 0.1293 -0.151 -0.2113 0.1797 0.1417
-0.02861 -0.1858 -0.051 0.05792 0.2064 0.1062 0.1525 -0.2957
-0.2065 -0.251 -0.07794 -0.095 0.1622 0.2468 -0.1869 -0.2126
-0.3298 -0.0975 0.187 -0.0959 -0.0904 -0.047 0.07745 -0.1501
-0.1904 -0.1247 -0.2091 -0.193 -0.2007 -0.2278 0.1146 0.28
-0.2327 -0.1265 0.02794 -0.2493 -0.0475 -0.2942 -0.2461 -0.3123
-0.2622 -0.1072 -0.1107 0.2322 0.0941 -0.124 0.2015 0.1418
0.332 -0.1581 -0.06036 0.0886 -0.0996 -0.2795 -0.1086 -0.1451

arith.constant38 f2 [8, 1, 1, 16]
00000000: 5733 83a7 beac 3fa8 ddb3 8fb0 6990 ddb3
00000010: f528 612e 549c e9b3 2c2f 7f2c 4032 ec30
00000020: 12ad c132 5aad 85b0 c8b0 d9b2 c633 dd2f
00000030: 5cb1 7d2a 23ad 912c c094 c0a8 1daf 9daf
00000040: 0bb1 b432 6bb1 2932 c91c cb33 cbaf e3b2
00000050: 19b3 932b a6b3 2cb1 4626 f1a8 be32 23b1
00000060: 402a 08af fb30 ee2b 572d 6ba4 6daa fe21
00000070: 2bb2 23a3 1f30 96b3 6aab aa28 22ab ee33
00000080: 53ac cdb2 1125 dc31 9c30 402e 6aae 13b2
00000090: 2bad e127 8f9e 03ac 27b2 a230 cb26 d5ae
000000a0: 512a 19b1 5629 b132 e8b3 4c33 bb33 aa32
000000b0: f6ad f122 5d26 cab3 a62c 89b0 8f33 3831
000000c0: 2fb2 cd2b 1db2 aa25 0cac 4e33 a7ac a42c
000000d0: a331 5eb0 6633 a7af 9bb2 c6b0 2024 4aaf
000000e0: 752c dab0 712c 1cb0 49ac cbb2 f824 b433
000000f0: d6a8 5d2e a62a fcb0 83a4 6530 e632 c632
0.2294 -0.02934 -0.0741 -0.03317 -0.2457 -0.1425 -0.0005383 -0.2457
0.03873 0.0997 -0.004227 -0.2472 0.11206 0.07025 0.1953 0.1538
-0.0792 0.211 -0.0836 -0.1412 -0.1494 -0.214 0.2429 0.12286
-0.1675 0.0507 -0.08026 0.07135 -0.00116 -0.0371 -0.11115 -0.11896
-0.1576 0.2095 -0.1693 0.1925 0.004673 0.2435 -0.12177 -0.2152
-0.2218 0.05917 -0.239 -0.1616 0.0245 -0.0386 0.2107 -0.1605
0.04883 -0.10986 0.1556 0.06195 0.08344 -0.01726 -0.0502 0.0117
-0.1927 -0.01394 0.1288 -0.237 -0.05792 0.03644 -0.05573 0.2478
-0.06757 -0.2125 0.01979 0.1831 0.144 0.09766 -0.1002 -0.1898
-0.08075 0.03078 -0.006405 -0.0627 -0.1923 0.1448 0.02654 -0.10675
0.04935 -0.1593 0.0417 0.2091 -0.2471 0.228 0.2416 0.2083
-0.09314 0.01356 0.02486 -0.2434 0.07263 -0.1417 0.2362 0.1631
-0.1932 0.06094 -0.191 0.02213 -0.06323 0.2283 -0.0727 0.0725
0.1761 -0.1365 0.2312 -0.11957 -0.2064 -0.1492 0.01611 -0.1139
0.06964 -0.1516 0.0694 -0.1284 -0.06696 -0.2123 0.01941 0.2407
-0.03778 0.0994 0.05194 -0.1558 -0.01762 0.1373 0.2156 0.2117

arith.constant48 f2 [64, 192]
00000000: 003c 0000 0000 0000 0000 0000 0000 0000
00000010: 0000 0000 0000 0000 0000 0000 0000 0000
00000020: 0000 0000 0000 0000 0000 0000 0000 0000
00000030: 0000 0000 0000 0000 0000 0000 0000 0000
00000040: 0000 0000 0000 0000 0000 0000 0000 0000
00000050: 0000 0000 0000 0000 0000 0000 0000 0000
00000060: 0000 0000 0000 0000 0000 0000 0000 0000
00000070: 0000 0000 0000 0000 0000 0000 0000 0000
00000080: 0000 0000 0000 0000 0000 0000 0000 0000
00000090: 0000 0000 0000 0000 0000 0000 0000 0000
000000a0: 0000 0000 0000 0000 0000 0000 0000 0000
000000b0: 0000 0000 0000 0000 0000 0000 0000 0000
000000c0: 0000 0000 0000 0000 0000 0000 0000 0000
000000d0: 0000 0000 0000 0000 0000 0000 0000 0000
000000e0: 0000 0000 0000 0000 0000 0000 0000 0000
000000f0: 0000 0000 0000 0000 0000 0000 0000 0000
00000100: 0000 0000 0000 0000 0000 0000 0000 0000
00000110: 0000 0000 0000 0000 0000 0000 0000 0000
00000120: 0000 0000 0000 0000 0000 0000 0000 0000
00000130: 0000 0000 0000 0000 0000 0000 0000 0000
00000140: 0000 0000 0000 0000 0000 0000 0000 0000
00000150: 0000 0000 0000 0000 0000 0000 0000 0000
00000160: 0000 0000 0000 0000 0000 0000 0000 0000
00000170: 0000 0000 0000 0000 0000 0000 0000 0000
00000180: 0000 003c 0038 0000 0000 0000 0000 0000
00000190: 0000 0000 0000 0000 0000 0000 0000 0000
000001a0: 0000 0000 0000 0000 0000 0000 0000 0000
000001b0: 0000 0000 0000 0000 0000 0000 0000 0000
000001c0: 0000 0000 0000 0000 0000 0000 0000 0000
000001d0: 0000 0000 0000 0000 0000 0000 0000 0000
000001e0: 0000 0000 0000 0000 0000 0000 0000 0000
000001f0: 0000 0000 0000 0000 0000 0000 0000 0000
1.0 0.0 0.0 0.0 0.0 0.0 0.0 0.0
0.0 0.0 0.0 0.0 0.0 0.0 0.0 0.0
0.0 0.0 0.0 0.0 0.0 0.0 0.0 0.0
0.0 0.0 0.0 0.0 0.0 0.0 0.0 0.0
0.0 0.0 0.0 0.0 0.0 0.0 0.0 0.0
0.0 0.0 0.0 0.0 0.0 0.0 0.0 0.0
0.0 0.0 0.0 0.0 0.0 0.0 0.0 0.0
0.0 0.0 0.0 0.0 0.0 0.0 0.0 0.0
0.0 0.0 0.0 0.0 0.0 0.0 0.0 0.0
0.0 0.0 0.0 0.0 0.0 0.0 0.0 0.0
0.0 0.0 0.0 0.0 0.0 0.0 0.0 0.0
0.0 0.0 0.0 0.0 0.0 0.0 0.0 0.0
0.0 0.0 0.0 0.0 0.0 0.0 0.0 0.0
0.0 0.0 0.0 0.0 0.0 0.0 0.0 0.0
0.0 0.0 0.0 0.0 0.0 0.0 0.0 0.0
0.0 0.0 0.0 0.0 0.0 0.0 0.0 0.0
0.0 0.0 0.0 0.0 0.0 0.0 0.0 0.0
0.0 0.0 0.0 0.0 0.0 0.0 0.0 0.0
0.0 0.0 0.0 0.0 0.0 0.0 0.0 0.0
0.0 0.0 0.0 0.0 0.0 0.0 0.0 0.0
0.0 0.0 0.0 0.0 0.0 0.0 0.0 0.0
0.0 0.0 0.0 0.0 0.0 0.0 0.0 0.0
0.0 0.0 0.0 0.0 0.0 0.0 0.0 0.0
0.0 0.0 0.0 0.0 0.0 0.0 0.0 0.0
0.0 1.0 0.5 0.0 0.0 0.0 0.0 0.0
0.0 0.0 0.0 0.0 0.0 0.0 0.0 0.0
0.0 0.0 0.0 0.0 0.0 0.0 0.0 0.0
0.0 0.0 0.0 0.0 0.0 0.0 0.0 0.0
0.0 0.0 0.0 0.0 0.0 0.0 0.0 0.0
0.0 0.0 0.0 0.0 0.0 0.0 0.0 0.0
0.0 0.0 0.0 0.0 0.0 0.0 0.0 0.0
0.0 0.0 0.0 0.0 0.0 0.0 0.0 0.0

arith.constant49 f2 [16, 3, 3, 16]
00000000: 222c bb2c f51e f3ab 93a7 70a7 02aa 62a4
00000010: 8fa9 d6a8 b8ac a429 0a2c f4a8 e8a9 022c
00000020: 2ea6 fba7 b121 1b2b f918 e0ac fa29 472a
00000030: 9da8 c8ac 0e1d 5aac 072d 2f2c 69aa 742c
00000040: 432b 03a5 c52b 57a4 0f2a 9f23 a52b 14a9
00000050: d31e 11a4 6f2a deab bb2a eca8 1725 80a7
00000060: 72a8 db2b 3ca8 469a 002b 7928 a41b 36ac
00000070: 45a8 a6ac 6d25 b7a4 39a5 f923 f29e 74ab
00000080: cf20 d628 322c f8a9 7d21 cba9 fcab 23ad
00000090: e4ab 34a0 84a9 3aad 1aab 87a4 4a28 41ac
000000a0: 2224 df29 90a7 22a2 63a9 5522 84ab afa9
000000b0: b228 062d d024 7393 e521 47a6 4ca8 54aa
000000c0: 23aa c328 08a3 21a6 6c29 7d2b ae29 3b27
000000d0: 20ac ea29 8a27 84ab 1b2d 0194 3ca2 4dab
000000e0: 43a6 ef9e 232b 0a25 4026 7a97 c7ac 50ab
000000f0: 8227 e7a8 a725 89a4 3c2b 62a7 8828 1cac
00000100: 1aa8 3ead f5a4 20ab 0e2a 35ab 91a8 bd24
00000110: ca22 4cad 5f27 f226 8225 11ac 112d 17a4
00000120: 77aa 06ad 5926 f721 8b23 1326 e12a a029
00000130: d929 ee2c 352a 1127 78a8 142c 37ab 45a8
00000140: 5d2b 3ba8 5d9d 8c2c 7da2 efac ccab 4dad
00000150: 8d22 242c db2c cdaa 2728 2094 c5a7 9324
00000160: 32ad 37ad 2ead d51d c5a4 f0ac 88a9 a029
00000170: b829 5429 32ac b828 ef8e 27a8 1928 36aa
00000180: 2e22 20ac 052d f6ab 1426 6aa9 cc9c 4326
00000190: e328 7526 c0ac bf24 0027 4a2d b2a8 e7a5
000001a0: 132c 0319 c22a 7a28 132c 8fac c3a9 f50a
000001b0: 0f2b 7f29 cc25 baac 3e2d 5d28 1b24 68ab
000001c0: 07ad 44ac ce21 f3ab 00ad c1a8 bbab 4624
000001d0: 44a6 e1ab 58ac 542d e1a7 b4a6 1c29 e928
000001e0: 4c2d 03a8 049e 32a6 f12c c824 11a4 441e
000001f0: de28 f72b 5f24 252b c424 8dac 6318 5a21
0.0646 0.0739 0.006794 -0.0621 -0.02959 -0.02905 -0.04694 -0.01712
-0.04343 -0.03778 -0.0737 0.04407 0.0631 -0.0387 -0.04614 0.0626
-0.02414 -0.03117 0.011116 0.0555 0.002428 -0.0762 0.0467 0.04904
-0.03604 -0.0747 0.004936 -0.068 0.07855 0.06537 -0.05008 0.0696
0.05673 -0.01958 0.0607 -0.01695 0.04733 0.014885 0.05972 -0.03967
0.006664 -0.01588 0.05026 -0.06146 0.05258 -0.03845 0.01988 -0.0293
-0.03473 0.06137 -0.03308 -0.003063 0.0547 0.03494 0.00373 -0.0658
-0.03336 -0.07263 0.0212 -0.01842 -0.0204 0.01557 -0.006783 -0.05823
0.00939 0.03778 0.06555 -0.04663 0.01072 -0.04526 -0.06238 -0.08026
-0.06165 -0.00821 -0.0431 -0.08167 -0.05548 -0.01768 0.0335 -0.06647
0.01614 0.04587 -0.02954 -0.01198 -0.04208 0.01237 -0.05872 -0.0444
0.03668 0.0785 0.0188 -0.0009093 0.01151 -0.02452 -0.03357 -0.04944
-0.04794 0.0372 -0.01373 -0.02394 0.04236 0.0585 0.04437 0.02824
-0.06445 0.0462 0.02945 -0.05872 0.0798 -0.0009775 -0.01218 -0.05704
-0.02446 -0.00677 0.05576 0.01968 0.02441 -0.001825 -0.07465 -0.05713
0.02933 -0.0383 0.02208 -0.01772 0.05652 -0.02884 0.0354 -0.0642
-0.03204 -0.0819 -0.01936 -0.05566 0.0473 -0.0563 -0.03568 0.01851
0.01326 -0.08276 0.0288 0.02713 0.02151 -0.06354 0.07916 -0.01598
-0.0505 -0.0785 0.0248 0.01165 0.01473 0.02373 0.05374 0.04395
0.0457 0.077 0.0485 0.0276 -0.0349 0.0637 -0.05637 -0.03336
0.05753 -0.03305 -0.005238 0.07104 -0.01267 -0.0771 -0.0609 -0.0828
0.012794 0.0647 0.07587 -0.05313 0.03244 -0.001007 -0.03035 0.01787
-0.0812 -0.0815 -0.08093 0.005695 -0.01863 -0.07715 -0.0432 0.04395
0.04468 0.04163 -0.06555 0.03687 -0.0004232 -0.03244 0.032 -0.04852
0.01207 -0.06445 0.0784 -0.0622 0.02374 -0.0423 -0.004684 0.02446
0.03818 0.02522 -0.0742 0.01854 0.02734 0.08264 -0.03668 -0.02306
0.06366 0.002447 0.0528 0.03497 0.06366 -0.0712 -0.045 0.0002123
0.05515 0.04294 0.02264 -0.07385 0.0819 0.0341 0.01604 -0.05786
-0.07855 -0.06665 0.01134 -0.0621 -0.0781 -0.03714 -0.0604 0.0167
-0.02448 -0.06155 -0.0679 0.08325 -0.03078 -0.02618 0.03992 0.03836
0.08276 -0.03134 -0.005875 -0.0242 0.0772 0.01868 -0.01588 0.00612
0.03802 0.06223 0.01707 0.05582 0.01862 -0.0711 0.002142 0.01045

arith.constant50 f2 [16, 3, 3, 16]
00000000: 7227 7127 a62c 4da6 e9aa e5ab cfa8 6da8
00000010: 76a6 a9a8 cb9b a22c 0ba1 45ac 672c 14ac
00000020: 5bac a5aa 3ea7 b4a8 a4aa 9aa8 1f29 6f2a
00000030: 32a2 822c d02b 0a2d d0a8 659d 15a4 1b29
00000040: b2ab 0f21 7225 df2c 32ac 0aa1 732c 959f
00000050: 91a9 e3a1 c7ac 7a1c 04a9 9828 e09a 47aa
00000060: 9ca9 ba97 6f26 7f22 242a 97ac 649f cba7
00000070: 7228 58a5 a4aa c7a2 57aa 052c 57a5 0ea7
00000080: 1229 f326 dbaa 892c 91a8 56ac a3ab 0c2d
00000090: 6eab 6520 29ac 441d e09e 4124 b72c 7ca6
000000a0: 182c 4128 e11e 409f 122d 6128 d42c 54a8
000000b0: 96a9 f4a3 e2ac 8da7 3ea9 63a2 b0a3 3c2b
000000c0: 212c be25 a52c 7bab 89a4 a8aa 352d 26a7
000000d0: 35ad dc24 0c27 ebaa e6a8 4ca6 1e28 48aa
000000e0: a623 f3a2 48ad 90a8 ba9f fe2a 2f24 74ab
000000f0: a32b 26a0 cbac 2d23 962c 252d faa5 8bac
00000100: 2aad a5ac be2c 3fa5 f820 5225 d624 241d
00000110: 7fa9 2528 a82c b5a7 3cab a629 c4ac 6620
00000120: d3aa 8229 5cab 4aa9 ed26 05ac a923 2c12
00000130: 48ac 3ea1 ce9a bb20 872a 6aaa 6e2b 8222
00000140: cc2a c52c 5f2b 5928 0fa5 16a9 702a 262c
00000150: 392d 2b2d c42c bc26 a4ac 80a5 11ad fea7
00000160: 5cac 9a1a a62a b9ab fb26 e3aa 182c 9528
00000170: ac2c 6225 95a5 8f28 a62a d928 0426 a32c
00000180: 541c c32a 2bad e427 b1a3 d227 20ab 072d
00000190: 832c 3222 b9a0 c222 b826 c021 a92a d42c
000001a0: 17ad 2c2b 81ab 422d e0a5 1089 b5aa e9ac
000001b0: 9899 ae29 99a9 b225 82a9 482d 0dad 2d29
000001c0: 1528 caa8 0caa 102a 1d1c 432c 83a9 4029
000001d0: 6c2a 45aa 57a9 f4a9 6129 069d 9d2b cdab
000001e0: 1227 9ca4 982b 2c2c cc2c c2a9 c4a5 9ca6
000001f0: ea22 3629 8e1f eea3 26ad dba5 80a9 7d2c
0.02908 0.02907 0.07263 -0.02461 -0.054 -0.06168 -0.03757 -0.03458
-0.02524 -0.0364 -0.003805 0.0724 -0.00985 -0.0667 0.0688 -0.0637
-0.06805 -0.0519 -0.02829 -0.03674 -0.05188 -0.03595 0.04 0.05026
-0.0121 0.07043 0.06104 0.07874 -0.0376 -0.00527 -0.01595 0.0399
-0.06012 0.00988 0.02127 0.0761 -0.06555 -0.00984 0.0695 -0.007404
-0.0435 -0.0115 -0.07465 0.00437 -0.03918 0.0359 -0.003357 -0.04904
-0.04382 -0.001886 0.02513 0.01269 0.04797 -0.0717 -0.007217 -0.03044
0.03473 -0.02087 -0.05188 -0.01324 -0.04953 0.0628 -0.02086 -0.02756
0.0396 0.02715 -0.05356 0.07086 -0.03568 -0.06775 -0.05966 0.07886
-0.05804 0.00858 -0.065 0.005142 -0.006714 0.01662 0.07367 -0.02533
0.06396 0.03323 0.006718 -0.00708 0.0792 0.0342 0.07544 -0.0338
-0.04364 -0.01553 -0.0763 -0.0295 -0.04095 -0.012474 -0.015015 0.05652
0.0645 0.02243 0.0726 -0.05844 -0.01772 -0.052 0.08136 -0.02792
-0.08136 0.01898 0.02753 -0.05405 -0.03827 -0.0246 0.03217 -0.04907
0.01494 -0.01357 -0.0825 -0.03564 -0.007545 0.05463 0.01634 -0.05823
0.05966 -0.0081 -0.0749 0.014015 0.07166 0.0804 -0.02335 -0.071
-0.0807 -0.0726 0.0741 -0.0205 0.009705 0.02078 0.01889 0.00502
-0.04294 0.03238 0.07275 -0.0301 -0.05652 0.04413 -0.07446 0.00859
-0.0533 0.04303 -0.0575 -0.04132 0.02705 -0.0628 0.01496 0.0007534
-0.0669 -0.01024 -0.003323 0.00924 0.051 -0.0501 0.05804 0.01271
0.0531 0.0745 0.0576 0.03397 -0.01976 -0.03973 0.0503 0.0648
0.0816 0.08075 0.07446 0.0263 -0.0725 -0.02148 -0.07916 -0.03122
-0.0681 0.003223 0.05194 -0.06033 0.02727 -0.0538 0.06396 0.0358
0.073 0.02103 -0.0218 0.0356 0.05194 0.03787 0.0235 0.07245
0.004227 0.05283 -0.08075 0.03082 -0.01502 0.03055 -0.05566 0.07855
0.0705 0.0121 -0.009224 0.0132 0.02625 0.01123 0.05203 0.07544
-0.0795 0.05603 -0.05862 0.08215 -0.02295 -0.0001545 -0.0524 -0.0767
-0.002731 0.04437 -0.04373 0.02225 -0.04303 0.0825 -0.0789 0.04044
0.0319 -0.0374 -0.04724 0.04736 0.004017 0.0666 -0.04306 0.04102
0.05017 -0.04898 -0.04172 -0.0465 0.04202 -0.004906 0.05948 -0.06094
0.02762 -0.018 0.05933 0.0652 0.07495 -0.04498 -0.02252 -0.02582
0.013504 0.0407 0.007378 -0.01549 -0.08044 -0.02287 -0.04297 0.0701

arith.constant51 f2 [16, 3, 3, 16]
00000000: c4a9 d1aa 8228 50ad 1aac 0ea1 4523 a51e
00000010: 659b ab28 5e29 c4a4 48a9 86a2 0aac 1c2d
00000020: 2cac 312d f321 a52b 9c9f 49a7 4dab faa4
00000030: 4cac be9e 3dad f611 c02a 372b 1caa f72b
00000040: b328 ffac b78c f1a5 478b 4aa5 4d28 0227
00000050: 3bac f3ab dea1 4eab bb2b 0624 d8a8 0eab
00000060: 63a9 7eaa 342c 6aa5 4f2a 7421 d6a9 b029
00000070: f9ac 0eac 3cac 15a9 67a8 e423 0ba4 9aa4
00000080: ad22 4d2c 5529 e4aa 982a 9d2a 04a6 05a7
00000090: 1ea8 721b 0d2b 35a9 9a2b 7f1d caaa 0529
000000a0: 6329 40ab a424 8029 e5a4 f4ac 941d 0424
000000b0: 9099 41ab c7a3 0e2c bd1e d5a8 032d 6da8
000000c0: dfa3 efab f9a1 53aa eb27 62ac a7a4 662b
000000d0: 68a9 59a2 44a1 ae1c cf20 74a4 3da7 ffa0
000000e0: cba4 f0ab 50ad b729 e1a8 31ac 7228 9fab
000000f0: 34aa 6cac 93a8 7bac 8c24 d0a4 22ad de29
00000100: d59e ca2b bd12 6127 23a9 b229 54a9 2aa9
00000110: 2926 3424 862c c728 6d26 152c 7cac 20a3
00000120: 8f2a d8ac 852a 312c 5320 a72c c29e 9a9e
00000130: 312c 48a9 d317 072c 18a5 e9ac b029 4d93
00000140: 39aa a01e adac fba7 20ad fd96 48ad 8da5
00000150: a31d 89ac a1ac 6b25 2aac 9418 01ac 69aa
00000160: be9d 0029 539b 83a6 04ad 5a26 16a1 e2ab
00000170: beac 8721 0eaa f924 8aa6 701c 5927 7da9
00000180: 929c 532b bda4 6e22 31a2 74ac 80ac af2b
00000190: 02ad 1ca3 4dac de27 c929 e3a9 e020 7d27
000001a0: 3da7 43a9 a7a0 52ad 7ba4 7fab 29a2 6825
000001b0: e7a8 25ac b0a9 602c 4328 05ad e7a9 98ac
000001c0: d1a7 5aa8 10ab bc21 a2a4 71a8 492d faa4
000001d0: 5825 ba23 51a9 8ea9 5a29 152d 7226 0226
000001e0: 91a9 a628 0a1d 9caa 701a a529 7aa8 2e2b
000001f0: ef2a fa2c 8f2c a6a1 dea9 f724 aca4 a4ac
-0.04504 -0.05325 0.03522 -0.083 -0.0641 -0.00987 0.0142 0.00649
-0.00361 0.03647 0.04193 -0.01862 -0.04126 -0.01274 -0.0631 0.07983
-0.0652 0.0811 0.01162 0.05972 -0.00743 -0.02846 -0.05704 -0.01944
-0.06714 -0.006584 -0.08185 0.0007277 0.05273 0.05637 -0.04773 0.06223
0.0367 -0.07806 -0.0002878 -0.02321 -0.0002221 -0.02066 0.0336 0.02737
-0.0661 -0.0621 -0.01146 -0.05707 0.0604 0.01572 -0.03784 -0.0551
-0.04208 -0.05072 0.0657 -0.02115 0.0493 0.01065 -0.0456 0.04443
-0.0777 -0.06335 -0.06616 -0.0397 -0.0344 0.01541 -0.0158 -0.01797
0.01304 0.0672 0.04166 -0.05383 0.0515 0.05167 -0.0235 -0.02742
-0.03217 0.003635 0.05508 -0.04068 0.0594 0.005367 -0.05304 0.0392
0.04208 -0.05664 0.01813 0.04297 -0.01912 -0.0774 0.005447 0.01569
-0.002716 -0.05667 -0.01519 0.06335 0.00658 -0.03775 0.0783 -0.03458
-0.01537 -0.06198 -0.011665 -0.0494 0.03093 -0.0685 -0.01817 0.0578
-0.04224 -0.0124 -0.010284 0.00457 0.00939 -0.0174 -0.02827 -0.00976
-0.01872 -0.062 -0.083 0.04465 -0.03812 -0.0655 0.03473 -0.05954
-0.04846 -0.0691 -0.03574 -0.07 0.01776 -0.0188 -0.0802 0.04584
-0.00667 0.06085 0.0008225 0.02882 -0.04013 0.0445 -0.04163 -0.04034
0.02406 0.01642 0.0707 0.03732 0.0251 0.0638 -0.07007 -0.013916
0.05124 -0.0757 0.05093 0.0655 0.008446 0.0727 -0.0066 -0.006447
0.0655 -0.04126 0.00191 0.0629 -0.0199 -0.0767 0.04443 -0.000891
-0.0486 0.00647 -0.07306 -0.03117 -0.0801 -0.001706 -0.0825 -0.02168
0.005505 -0.07086 -0.0723 0.02116 -0.06506 0.002235 -0.06256 -0.05008
-0.005608 0.03906 -0.003576 -0.02544 -0.07837 0.02481 -0.00993 -0.06158
-0.0741 0.010796 -0.0473 0.01942 -0.02554 0.004333 0.0287 -0.04288
-0.004463 0.05722 -0.01851 0.01256 -0.01209 -0.0696 -0.0703 0.06003
-0.07825 -0.013885 -0.0672 0.03073 0.0452 -0.046 0.00952 0.02925
-0.02827 -0.0411 -0.00909 -0.0831 -0.0175 -0.05856 -0.01203 0.02112
-0.0383 -0.06476 -0.04443 0.06836 0.0333 -0.0784 -0.0461 -0.0718
-0.03053 -0.034 -0.05518 0.0112 -0.0181 -0.0347 0.0826 -0.01944
0.02087 0.01509 -0.04153 -0.0434 0.0418 0.0794 0.02518 0.02347
-0.0435 0.03632 0.00492 -0.05164 0.003143 0.0441 -0.03497 0.0561
0.05417 0.07776 0.0712 -0.01103 -0.04584 0.0194 -0.01825 -0.0725

arith.constant52 f2 [16, 1, 5, 16]
00000000: ee2c c72e 8b27 792d 3428 b39f e0aa 6ead
00000010: 4c2a bf91 aaac 812a f829 dca6 1aac 3aa5
00000020: 8dac d92e adae 10ae 2f2b e6ae f62e 6caa
00000030: 1e2c ae22 1d2e 232c a8ab be29 5825 f799
00000040: 5aae 6026 272f 61a8 c6aa 04ad 8fa6 09ab
00000050: f8ac b6ae 182e 3f2c 0fa9 19ac 1eaf 5bad
00000060: 3bae aea8 fa2d 8eaa 4b2e 692e 8bac 55ae
00000070: 0b0c 6429 512a d92e caaa 1025 71aa cd0b
00000080: a426 aca6 ab29 0c28 68ad 2825 7024 11ad
00000090: f3ae 459a c82a c5ae 9e2c 49ac 0529 4bac
000000a0: f028 8123 5aa9 e0a9 ec25 64a9 85ae f2ab
000000b0: 3021 77a8 77a9 931a 2c2c a7a6 5425 83aa
000000c0: 002c 5a2d 452d 142d be20 1622 2628 85a7
000000d0: 95a4 1ba8 4721 a22c 9fa4 96ad a2ac 242d
000000e0: e92d 012c f0ac 74ab 9e2d 66a5 752d 8f2b
000000f0: 3b22 80a9 bea8 6a2d 1e2c 5b2d e0ad 6429
00000100: f92b 21ad 4e2c 36ac 4d29 7bae 7c2c a2ab
00000110: 2d2d 59ae f1ab 8a29 ed28 6aaa dbad c52c
00000120: 5820 ff2e 9a28 a8a9 4fae 612d 08ac daa8
00000130: 71ab 4692 042d f42c c2ab 36ab acac 42a5
00000140: 772e 2a2a 85a7 5ead 982c 662e 712b baa9
00000150: 442b 88ac a3a8 5ea7 222e 53ac 76a8 51a1
00000160: 4a2c 5c23 f2ad 7faa 1fac e7a9 da27 e929
00000170: 8aad 322b 4823 f62d ae28 7aa9 4925 eba8
00000180: 0b9c a5a7 e6ad 3c2d 0ba8 e2ad 3b23 03ad
00000190: 192c 8d25 9b29 612c c12e 74a9 fba9 002e
000001a0: 3cad 012f 7fae 82ad baaa 1e29 09af 52ae
000001b0: 58ad 8e2e 0924 402c 3e27 102c 6927 162c
000001c0: dba5 a22d e1ac d329 2e29 9a2a 992d 76a3
000001d0: 0cae 5ba5 c32d b1a0 3a23 db9e 512d 3bac
000001e0: 14a6 4eac 292c cd26 612c 762d 3d2d 39ac
000001f0: 422b 3f1e f5aa f428 ec28 b824 98ac 0b2d
0.077 0.1059 0.02946 0.0855 0.03284 -0.00752 -0.0537 -0.08484
0.0492 -0.0007014 -0.0729 0.0508 0.04663 -0.0268 -0.0641 -0.02042
-0.0711 0.107 -0.1043 -0.0947 0.05612 -0.1078 0.10876 -0.05017
0.06433 0.01305 0.0955 0.06464 -0.0598 0.04486 0.02087 -0.002913
-0.09924 0.0249 0.11176 -0.0342 -0.05292 -0.07837 -0.02562 -0.05496
-0.07764 -0.10486 0.0952 0.06635 -0.03952 -0.064 -0.1112 -0.0837
-0.09735 -0.03656 0.0934 -0.0512 0.0983 0.10016 -0.071 -0.09894
0.0002468 0.0421 0.04935 0.107 -0.05304 0.01978 -0.05032 0.0002381
0.02594 -0.02606 0.04428 0.03162 -0.0845 0.02014 0.01733 -0.07916
-0.1086 -0.003061 0.05298 -0.1058 0.07214 -0.06696 0.0392 -0.0671
0.03857 0.014656 -0.0418 -0.0459 0.02313 -0.0421 -0.10187 -0.06207
0.01013 -0.03488 -0.0427 0.00321 0.0652 -0.02599 0.02081 -0.05087
0.0625 0.0836 0.08234 0.07935 0.00926 0.01189 0.0324 -0.02937
-0.0179 -0.03207 0.01031 0.0724 -0.01805 -0.0873 -0.0724 0.0803
0.09235 0.06256 -0.07715 -0.05823 0.08777 -0.02109 0.08527 0.05905
0.01217 -0.04297 -0.03705 0.0846 0.06433 0.0837 -0.0918 0.0421
0.0623 -0.08014 0.06726 -0.0658 0.0414 -0.10126 0.07007 -0.05963
0.0809 -0.0992 -0.06204 0.04327 0.03848 -0.0501 -0.0915 0.0745
0.008484 0.1093 0.03595 -0.0442 -0.0986 0.08405 -0.063 -0.0379
-0.05814 -0.000766 0.07837 0.0774 -0.0606 -0.05634 -0.073 -0.02054
0.101 0.04816 -0.02937 -0.08386 0.0718 0.1 0.05814 -0.04474
0.05676 -0.0708 -0.03622 -0.02878 0.0958 -0.06757 -0.03485 -0.01038
0.067 0.01437 -0.0929 -0.05075 -0.0644 -0.0461 0.03067 0.04617
-0.08655 0.0562 0.01422 0.09314 0.03656 -0.0428 0.02065 -0.03842
-0.00395 -0.02986 -0.09216 0.0818 -0.0316 -0.0919 0.01412 -0.0783
0.064 0.02168 0.0438 0.0684 0.1055 -0.0426 -0.04672 0.09375
-0.0818 0.10944 -0.1015 -0.08606 -0.05255 0.03998 -0.1099 -0.09875
-0.0835 0.1024 0.01576 0.0664 0.02829 0.0635 0.02895 0.06384
-0.02287 0.088 -0.07623 0.0455 0.04047 0.05157 0.08746 -0.01457
-0.0945 -0.02092 0.09 -0.00916 0.014114 -0.006695 0.08307 -0.0661
-0.02374 -0.06726 0.065 0.02657 0.0684 0.0853 0.08185 -0.066
0.0567 0.0061 -0.05435 0.0387 0.03845 0.01843 -0.0718 0.0788

arith.constant53 f2 [2, 1, 5, 16]
00000000: 842c bab2 1bb1 6831 6fb4 79b4 30a8 0c32
00000010: eea5 74a7 58b4 0a35 0d33 49b4 c932 3aab
00000020: 660d b82e b6ae ed2c 9332 5ba4 5bb0 9a33
00000030: 38b4 60b2 d7b2 8bb4 be30 c828 421e eeb3
00000040: 4fb3 6ab2 64b4 6db3 c82f dbb3 3630 5032
00000050: 86b2 00b2 8734 ec32 7db1 0534 2db2 48b4
00000060: c332 78b4 a72c d534 1eb2 d8b2 a2ab c1b3
00000070: 1631 9929 f52e 6eb0 bd28 e130 8c24 aab1
00000080: ff30 c030 43b3 8e2c 03b5 b22f 902c 3632
00000090: 49ad ddac 5234 0bb5 5eb4 7125 68b4 b0a5
000000a0: 8232 d8ad 7132 c531 d1b2 cd2e 6330 7cab
000000b0: d1b2 92b1 032d cdb1 0334 cd33 5d34 49ac
000000c0: 45a7 2ab4 b8ac 3bb2 e134 47a9 72a8 652e
000000d0: 45ae 0034 e0aa 6db4 d934 3234 8133 62b4
000000e0: 88b1 8633 00b5 f1b2 0cb1 002a dbae e0a4
000000f0: 5eb4 9cb0 b020 8dad b32e a42b 4cac 4cb3
00000100: 922c ba34 5130 8bb2 9633 3133 f01f 5db2
00000110: 9bb4 1d2c 5ab2 fab3 5eb2 45a3 03b4 50af
00000120: d8ac 7eb4 8d25 c733 12ae 5a2a 12ac 04b3
00000130: e019 bc2b 7430 e8ab fc34 4630 2fac 9bb4
0.07056 -0.2102 -0.1595 0.169 -0.277 -0.2795 -0.0327 0.189
-0.02316 -0.02911 -0.2715 0.315 0.2203 -0.2678 0.212 -0.05646
0.0003295 0.105 -0.10486 0.07697 0.2054 -0.01701 -0.1361 0.2375
-0.2637 -0.1992 -0.2137 -0.284 0.1482 0.03735 0.00611 -0.2478
-0.2284 -0.2004 -0.2744 -0.232 0.1216 -0.2455 0.1316 0.1973
-0.2039 -0.1875 0.283 0.2163 -0.1715 0.2512 -0.193 -0.2676
0.2113 -0.2793 0.0727 0.302 -0.1912 -0.2139 -0.05963 -0.2423
0.1589 0.04373 0.1087 -0.1384 0.03702 0.1525 0.01776 -0.177
0.1561 0.1484 -0.2269 0.07117 -0.3132 0.12024 0.0713 0.1941
-0.0826 -0.076 0.27 -0.3152 -0.273 0.02126 -0.2754 -0.02222
0.2034 -0.0913 0.2013 0.1803 -0.213 0.10626 0.1371 -0.05847
-0.213 -0.1741 0.0783 -0.1813 0.2507 0.2438 0.2727 -0.06696
-0.0284 -0.2603 -0.0737 -0.1947 0.305 -0.04123 -0.03473 0.0999
-0.09796 0.25 -0.0537 -0.2766 0.303 0.2622 0.2345 -0.274
-0.1729 0.2351 -0.3125 -0.2169 -0.1577 0.04688 -0.1071 -0.01904
-0.273 -0.144 0.009155 -0.08673 0.1047 0.0597 -0.06714 -0.228
0.0714 0.2954 0.1349 -0.2045 0.237 0.2247 0.00775 -0.1989
-0.2878 0.0643 -0.1985 -0.2493 -0.199 -0.0142 -0.2507 -0.11426
-0.0757 -0.2808 0.02168 0.243 -0.09485 0.04962 -0.0636 -0.2192
0.002869 0.06042 0.1392 -0.06177 0.3115 0.1335 -0.06537 -0.2878

arith.constant54 f2 [192, 64]
00000000: 003c 0000 0000 0000 0000 0000 0000 0000
00000010: 0000 0000 0000 0000 0000 0000 0000 0000
00000020: 0000 0000 0000 0000 0000 0000 0000 0000
00000030: 0000 0000 0000 0000 0000 0000 0000 0000
00000040: 0000 0000 0000 0000 0000 0000 0000 0000
00000050: 0000 0000 0000 0000 0000 0000 0000 0000
00000060: 0000 0000 0000 0000 0000 0000 0000 0000
00000070: 0000 0000 0000 0000 0000 0000 0000 0000
00000080: 0000 003c 0000 0000 0000 0000 0000 0000
00000090: 0000 0000 0000 0000 0000 0000 0000 0000
000000a0: 0000 0000 0000 0000 0000 0000 0000 0000
000000b0: 0000 0000 0000 0000 0000 0000 0000 0000
000000c0: 0000 0000 0000 0000 0000 0000 0000 0000
000000d0: 0000 0000 0000 0000 0000 0000 0000 0000
000000e0: 0000 0000 0000 0000 0000 0000 0000 0000
000000f0: 0000 0000 0000 0000 0000 0000 0000 0000
00000100: 0000 0038 0038 0000 0000 0000 0000 0000
00000110: 0000 0000 0000 0000 0000 0000 0000 0000
00000120: 0000 0000 0000 0000 0000 0000 0000 0000
00000130: 0000 0000 0000 0000 0000 0000 0000 0000
00000140: 0000 0000 0000 0000 0000 0000 0000 0000
00000150: 0000 0000 0000 0000 0000 0000 0000 0000
00000160: 0000 0000 0000 0000 0000 0000 0000 0000
00000170: 0000 0000 0000 0000 0000 0000 0000 0000
00000180: 0000 0000 003c 0000 0000 0000 0000 0000
00000190: 0000 0000 0000 0000 0000 0000 0000 0000
000001a0: 0000 0000 0000 0000 0000 0000 0000 0000
000001b0: 0000 0000 0000 0000 0000 0000 0000 0000
000001c0: 0000 0000 0000 0000 0000 0000 0000 0000
000001d0: 0000 0000 0000 0000 0000 0000 0000 0000
000001e0: 0000 0000 0000 0000 0000 0000 0000 0000
000001f0: 0000 0000 0000 0000 0000 0000 0000 0000
1.0 0.0 0.0 0.0 0.0 0.0 0.0 0.0
0.0 0.0 0.0 0.0 0.0 0.0 0.0 0.0
0.0 0.0 0.0 0.0 0.0 0.0 0.0 0.0
0.0 0.0 0.0 0.0 0.0 0.0 0.0 0.0
0.0 0.0 0.0 0.0 0.0 0.0 0.0 0.0
0.0 0.0 0.0 0.0 0.0 0.0 0.0 0.0
0.0 0.0 0.0 0.0 0.0 0.0 0.0 0.0
0.0 0.0 0.0 0.0 0.0 0.0 0.0 0.0
0.0 1.0 0.0 0.0 0.0 0.0 0.0 0.0
0.0 0.0 0.0 0.0 0.0 0.0 0.0 0.0
0.0 0.0 0.0 0.0 0.0 0.0 0.0 0.0
0.0 0.0 0.0 0.0 0.0 0.0 0.0 0.0
0.0 0.0 0.0 0.0 0.0 0.0 0.0 0.0
0.0 0.0 0.0 0.0 0.0 0.0 0.0 0.0
0.0 0.0 0.0 0.0 0.0 0.0 0.0 0.0
0.0 0.0 0.0 0.0 0.0 0.0 0.0 0.0
0.0 0.5 0.5 0.0 0.0 0.0 0.0 0.0
0.0 0.0 0.0 0.0 0.0 0.0 0.0 0.0
0.0 0.0 0.0 0.0 0.0 0.0 0.0 0.0
0.0 0.0 0.0 0.0 0.0 0.0 0.0 0.0
0.0 0.0 0.0 0.0 0.0 0.0 0.0 0.0
0.0 0.0 0.0 0.0 0.0 0.0 0.0 0.0
0.0 0.0 0.0 0.0 0.0 0.0 0.0 0.0
0.0 0.0 0.0 0.0 0.0 0.0 0.0 0.0
0.0 0.0 1.0 0.0 0.0 0.0 0.0 0.0
0.0 0.0 0.0 0.0 0.0 0.0 0.0 0.0
0.0 0.0 0.0 0.0 0.0 0.0 0.0 0.0
0.0 0.0 0.0 0.0 0.0 0.0 0.0 0.0
0.0 0.0 0.0 0.0 0.0 0.0 0.0 0.0
0.0 0.0 0.0 0.0 0.0 0.0 0.0 0.0
0.0 0.0 0.0 0.0 0.0 0.0 0.0 0.0
0.0 0.0 0.0 0.0 0.0 0.0 0.0 0.0

arith.constant55 f2 [16]
00000000: 3ca1 d7b3 c42f 9ab1 e428 f3af d933 6732
00000010: 33b3 eca8 0927 62b1 b0ad acb1 2133 3533
-0.01022 -0.245 0.12134 -0.175 0.0382 -0.1242 0.2452 0.2001
-0.225 -0.03845 0.02748 -0.1682 -0.08887 -0.1772 0.2228 0.2252

arith.constant57 f2 [16]
00000000: d9ad 16a7 262c 8d2d 49ad 30ad 3ca1 c724
00000010: 7a2b 0f21 1b28 17ad dd26 f4a8 d421 a692
-0.0914 -0.02768 0.0648 0.08673 -0.0826 -0.08105 -0.01022 0.01866
0.0584 0.00988 0.03207 -0.0795 0.02681 -0.0387 0.01138 -0.0008116

arith.constant58 f2 [16]
00000000: 64b2 3db5 9fb4 122a beb2 16af 0535 0435
00000010: c630 08a8 b8ac 3535 60b1 2cb4 12b5 3e35
-0.1997 -0.3274 -0.2888 0.04742 -0.2107 -0.1107 0.3137 0.3135
0.1492 -0.0315 -0.0737 0.3254 -0.168 -0.2607 -0.317 0.3276

arith.constant59 f2 [16]
00000000: 16af 8eb3 8aab 4db5 ba32 2630 4fb1 a1b3
00000010: a1b1 ebab c834 de31 1532 2430 e531 3430
-0.1107 -0.2361 -0.0589 -0.3313 0.2102 0.1296 -0.1659 -0.2384
-0.1759 -0.06186 0.2988 0.1833 0.1901 0.1294 0.1842 0.1313

arith.constant60 f2 [8]
00000000: 37a7 99b0 f42c e530 d02c 262c 8730 b6b1
-0.02818 -0.1437 0.0774 0.153 0.0752 0.0648 0.1415 -0.1785

arith.constant62 f2 [16]
00000000: cd26 8aa9 e632 25b4 9d2f 7ca4 a234 d6b3
00000010: afb3 9335 5c94 33ac fba6 1eb5 fca9 dcb4
0.02657 -0.04327 0.2156 -0.259 0.11896 -0.01752 0.2896 -0.2449
-0.2401 0.3484 -0.001064 -0.0656 -0.02727 -0.3198 -0.04675 -0.3037

arith.constant63 f2 [16]
00000000: 3e2d 84b1 f632 d932 2d2e bb9a f3b0 fe31
00000010: 84b0 5b2e 8db4 a832 1427 b7ad beb1 8f30
0.0819 -0.1724 0.2175 0.214 0.0965 -0.003286 -0.1547 0.1873
-0.1411 0.0993 -0.2844 0.208 0.02765 -0.0893 -0.1794 0.1425

arith.constant64 f2 [8]
00000000: 24b2 6eb2 2a24 7733 49b3 b12d 552c af33
-0.1919 -0.2009 0.01627 0.2333 -0.2277 0.0889 0.0677 0.2401

arith.constant65 f2 [16]
00000000: 41b4 7bb0 a9b4 db31 9829 20b4 84b5 4635
00000010: c5ab f634 4d28 ec32 68b2 e42f f426 ff34
-0.2659 -0.14 -0.2913 0.183 0.0437 -0.2578 -0.3447 0.3296
-0.0607 0.31 0.0336 0.2163 -0.2002 0.1233 0.02716 0.3123

arith.constant66 f2 [16]
00000000: dfb3 3cb3 efa8 4030 a7b1 5533 f534 3f31
00000010: 4130 5f30 cbac 8c2b 63a1 85ac beb2 c0b0
-0.246 -0.2261 -0.03854 0.1328 -0.1766 0.2291 0.3098 0.164
0.1329 0.1366 -0.0749 0.05896 -0.01052 -0.0706 -0.2107 -0.1484

arith.constant67 f2 [8]
00000000: 89b3 2632 de33 d3af d029 b529 dc26 79b1
-0.2355 0.1921 0.2458 -0.12225 0.0454 0.0446 0.0268 -0.171

arith.constant68 f2 [16]
00000000: a3ac 6faa d4ac 3bac 3127 132d adab cf2c
00000010: ff8e 6228 939d 6ca1 b828 3b2d f928 f0ab
-0.07245 -0.05026 -0.07544 -0.0661 0.02809 0.0793 -0.05997 0.07513
-0.000427 0.03424 -0.005444 -0.01059 0.03687 0.0817 0.03885 -0.062

arith.constant69 f2 [16]
00000000: 60ac 4c2d 2f29 8dac f018 8824 00aa ff2c
00000010: d1a9 a32b 1013 60ac dcac 492b e92a 00a3
-0.06836 0.08276 0.0405 -0.0711 0.00241 0.0177 -0.04688 0.07806
-0.04544 0.05966 0.000862 -0.06836 -0.0759 0.05692 0.054 -0.01367

arith.constant70 f2 [16]
00000000: 95a8 839e a526 22ad 4aaa 4aa9 6328 baac
00000010: b2a6 1fa6 5eaa 54ac ec24 58a8 4ea4 91ac
-0.0358 -0.00636 0.02596 -0.0802 -0.04913 -0.04132 0.03427 -0.07385
-0.02615 -0.02391 -0.04974 -0.0676 0.01923 -0.03394 -0.01682 -0.07135

arith.constant71 f2 [16]
00000000: a2a5 51ab 172a 00ae e9ad 6528 43ad a4ae
00000010: b325 7caa 4826 e2ad 1f18 daac 672b 9d2d
-0.022 -0.05716 0.04758 -0.09375 -0.09235 0.03433 -0.0822 -0.10376
0.02226 -0.05066 0.02454 -0.0919 0.002012 -0.0758 0.05783 0.0877
