gtcrn_micro/models/tflite/gtcrn_micro_float16.tflite (tflite, 166364 bytes, 94 tensors)

arith.constant12 f2 [16]
000000 00 3c 00 3c 00 3c 00 3c 00 3c 00 3c 00 3c 00 3c
       1.0 1.0 1.0 1.0 1.0 1.0 1.0 1.0
000010 00 3c 00 3c 00 3c 00 3c 00 3c 00 3c 00 3c 00 3c
       1.0 1.0 1.0 1.0 1.0 1.0 1.0 1.0

arith.constant30 f2 [16, 1, 5, 3]
000000 30 31 19 2c 87 32 f8 af e2 20 46 2e b9 25 af ae
       0.1621 0.064 0.204 -0.1245 0.00954 0.098 0.02235 -0.10443
000010 6e 2c 6c b3 68 b3 52 b1 58 30 51 b2 f9 28 0e 2f
       0.0692 -0.2319 -0.2314 -0.1663 0.1357 -0.1974 0.03885 0.1102
000020 b0 2c 48 2e 43 30 09 a4 4f ae cc 1d 66 b3 3d ac
       0.07324 0.09814 0.1332 -0.01576 -0.0986 0.00566 -0.2312 -0.0662
000030 2f b0 5c 33 93 a8 cf 1f 73 b2 12 33 b4 32 8d b1
       -0.1307 0.23 -0.03574 0.007626 -0.2015 0.221 0.2095 -0.1735
000040 e3 30 19 b0 3a b2 a8 2b c7 a4 50 32 b6 b0 ae a9
       0.1527 -0.128 -0.1946 0.0598 -0.01866 0.1973 -0.1472 -0.04437
000050 df a8 85 af b4 b3 f6 b0 54 b1 a3 25 ed b1 75 2b
       -0.03806 -0.1175 -0.2407 -0.155 -0.1665 0.02202 -0.1852 0.05826
000060 a2 af 98 30 79 31 85 2f 1c b1 a3 ae ac a8 dd ad
       -0.11926 0.1436 0.171 0.1175 -0.1597 -0.1037 -0.0365 -0.0916
000070 b5 b1 9f 2c 9d 9b 2d ae 5c b2 15 31 4c 32 57 b2
       -0.1783 0.0722 -0.003717 -0.0965 -0.1987 0.1588 0.1968 -0.1981
000080 8c b2 1f b3 38 b0 4a b3 2e 32 a4 32 cd 2d 1f b3
       -0.2046 -0.2225 -0.1318 -0.2278 0.1931 0.2075 0.09064 -0.2225
000090 9f b0 3a b3 fa b1 78 af 49 b2 d9 a5 59 29 56 2f
       -0.1444 -0.2258 -0.1868 -0.1167 -0.1964 -0.02284 0.04178 0.1146
0000a0 53 29 7d aa be b2 af 30 5b 2f 5d 32 70 a6 af 2f
       0.0416 -0.0507 -0.2107 0.1464 0.1149 0.1989 -0.02515 0.12006
0000b0 fb b0 b8 32 1e 33 13 2d 40 aa f3 27 84 a6 ca 33
       -0.1556 0.21 0.2224 0.0793 -0.04883 0.03105 -0.02545 0.2434
0000c0 72 b1 3b 29 c3 b0 6c 32 9d b1 66 2f 17 33 c2 b1
       -0.1702 0.04086 -0.1488 0.2007 -0.1754 0.1156 0.2216 -0.1799
0000d0 52 32 82 b3 2c 32 55 ae 78 a0 28 a6 81 2f 21 af
       0.1975 -0.2346 0.1929 -0.09894 -0.00873 -0.02405 0.11725 -0.1114
0000e0 9a 30 b7 9e 01 ac 9f ac 7a 2d 76 9e 5f 33 59 32
       0.1438 -0.006557 -0.06256 -0.0722 0.0856 -0.00631 0.2303 0.1984
0000f0 02 9a ad af 64 b1 6f a8 0a b3 7f b1 37 aa 41 a3
       -0.002934 -0.11993 -0.1685 -0.03464 -0.22 -0.1718 -0.04855 -0.01417
000100 e6 b2 f3 30 e0 9e 17 b1 31 2d 0b 33 02 2e 92 ad
       -0.2156 0.1547 -0.006714 -0.159 0.0811 0.2201 0.0939 -0.08704
000110 8b 98 45 ad 74 a5 4d 30 1b 9c 8b 33 99 2e e3 b1
       -0.002218 -0.08234 -0.0213 0.1344 -0.00401 0.2357 0.1031 -0.184
000120 b9 33 bb ac b7 ac 2a aa eb 2f 2c b3 8e b2 7c ae
       0.2413 -0.0739 -0.07367 -0.04816 0.1237 -0.2241 -0.2048 -0.1013
000130 3c af a0 b3 0c b3 67 ad b4 ad 24 30 be aa 52 30
       -0.11304 -0.2383 -0.2202 -0.0844 -0.0891 0.1294 -0.05267 0.135
000140 de 33 7a 21 e0 b2 e6 30 b8 33 70 b1 8b 31 64 ac
       0.2458 0.0107 -0.2148 0.1531 0.2412 -0.1699 0.1732 -0.0686
000150 29 2e 6d ad e6 ac 2d 9d 2b b3 53 30 7d b1 ca 27
       0.09625 -0.0848 -0.07654 -0.005054 -0.224 0.1351 -0.1715 0.03043
000160 82 b3 fc b0 2b b0 6d b3 5a 31 0d ad ff b1 bc b0
       -0.2346 -0.1558 -0.1302 -0.232 0.1672 -0.0789 -0.1874 -0.148
000170 88 30 09 a8 bd a8 00 b4 30 32 ec 30 21 b0 45 b3
       0.1416 -0.03152 -0.03702 -0.25 0.1934 0.1538 -0.129 -0.2272
000180 b6 2f 84 b1 52 a5 06 31 b2 31 92 ad b4 a4 aa b0
       0.1205 -0.1724 -0.02078 0.157 0.178 -0.08704 -0.01837 -0.1458
000190 e2 32 4e b1 94 30 96 29 90 ad c4 31 34 9d 4f 33
       0.2151 -0.1658 0.1431 0.04364 -0.0869 0.1802 -0.00508 0.2284
0001a0 33 b3 22 2d 14 2c be 33 51 ae 50 33 6d ab 7e a8
       -0.225 0.0802 0.0637 0.242 -0.0987 0.2285 -0.058 -0.0351
0001b0 cd 9b ec aa 13 2b 60 31 c8 33 0b aa 44 b3 c2 b3
       -0.003809 -0.05408 0.05527 0.168 0.2432 -0.0472 -0.227 -0.2424
0001c0 99 32 11 b4 17 2e b7 2e 39 33 16 b2 c2 a9 eb 25
       0.2062 -0.2542 0.09515 0.1049 0.2257 -0.1902 -0.04498 0.02312
0001d0 6d 9a 9f 29 8f 30 06 b4 14 b2 6e b0 2d 32 a5 b2
       -0.003138 0.0439 0.1425 -0.2515 -0.19 -0.1384 0.193 -0.2076

arith.constant31 f2 [16, 1, 5, 16]
000000 92 ac c2 ac 21 95 e3 a9 9c 2b 82 2d 63 a9 8f a6
       -0.0714 -0.07434 -0.001252 -0.046 0.05945 0.08606 -0.04208 -0.02562
000010 25 af 6c 22 ce 2b c6 a6 bd 2c c1 28 b4 ab e6 2a
       -0.11163 0.01254 0.06097 -0.02646 0.07404 0.03714 -0.06018 0.0539
000020 f6 a5 d9 2c 51 26 25 a0 14 2d 03 a8 7f aa f9 a1
       -0.02328 0.07574 0.02467 -0.008095 0.07935 -0.03134 -0.05075 -0.011665
000030 5c 2d 7b 2c c2 aa a8 2c 86 ac 03 a2 dc ab d0 29
       0.08374 0.07 -0.0528 0.07275 -0.0707 -0.01174 -0.0614 0.0454
000040 e8 2c a1 a8 b5 ae 0b 29 5a 29 0a 1d c2 2e a3 ab
       0.07666 -0.03616 -0.1048 0.0394 0.0418 0.00492 0.1056 -0.05966
000050 d2 2c 26 af 2f a8 05 ad 83 2c 80 ac 0e ac 80 2e
       0.0753 -0.1117 -0.03268 -0.0784 0.0705 -0.0703 -0.06335 0.10156
000060 6c ab 91 2c 5d 28 a1 2e 50 2c 95 2c f2 9a b2 26
       -0.05798 0.07135 0.0341 0.1036 0.0674 0.0716 -0.003391 0.02615
000070 36 ab ac ad e1 ac e0 ac 99 2b 08 a4 d1 ac d5 ac
       -0.05634 -0.0886 -0.07623 -0.0762 0.05936 -0.01575 -0.07526 -0.0755
000080 c3 26 c9 ae a5 29 93 2e 25 2f e3 a5 5a 2d 58 29
       0.02641 -0.106 0.0441 0.1027 0.11163 -0.023 0.0836 0.04175
000090 69 ad 40 25 61 9d 32 ac e2 12 09 ac 27 22 e2 2b
       -0.08453 0.02051 -0.005253 -0.06555 0.00084 -0.06305 0.01202 0.06158
0000a0 5d ac 71 a4 02 2b b5 2e d2 2d ad aa 65 a8 cd 2c
       -0.0682 -0.01735 0.05475 0.1048 0.09094 -0.05215 -0.03433 0.075
0000b0 fb 24 7c 2b dd 27 60 a8 74 8c 6a 23 53 2e ae ac
       0.01945 0.05847 0.03072 -0.03418 -0.0002718 0.01448 0.0988 -0.0731
0000c0 86 2e 00 94 ea 25 e8 2d ce a4 ea 2d 09 a9 4b 2d
       0.1019 -0.000977 0.0231 0.0923 -0.01877 0.0924 -0.03934 0.0827
0000d0 ba 2e 17 2e 87 a8 0e 2e 72 ad f8 9a be ad ee 2b
       0.1051 0.09515 -0.03537 0.0946 -0.0851 -0.003403 -0.0897 0.06195
0000e0 ea ab 01 2f d8 98 f1 2b 47 ac 1e 2e 13 2e 44 9f
       -0.06183 0.10944 -0.002365 0.06204 -0.06683 0.0956 0.0949 -0.007095
0000f0 07 ac 4b ac 0f 2f 1b 2e 1d 2d 85 2c 0f a5 67 aa
       -0.0629 -0.0671 0.1103 0.0954 0.0799 0.0706 -0.01976 -0.05002
000100 62 2c b5 a0 a3 28 40 24 23 2d 0a 2f 03 a8 ad 2c
       0.0685 -0.00919 0.03622 0.0166 0.08026 0.11 -0.03134 0.07306
000110 f7 2e c3 25 bf 9e 96 a8 bd 27 fe 2d d9 a4 8c 24
       0.1088 0.0225 -0.006588 -0.03583 0.03023 0.0936 -0.01894 0.01776
000120 52 28 a1 19 5c 2c cb 1d 41 a4 81 ae b1 2e 00 ac
       0.03375 0.002748 0.0681 0.005657 -0.01662 -0.1016 0.10455 -0.0625
000130 e0 9f fe a0 06 1f 36 ac d2 2e 28 2e 90 2b a5 2c
       -0.00769 -0.00975 0.00686 -0.0658 0.10657 0.0962 0.05908 0.0726
000140 fe ae 59 17 ae 26 fd ab bc ae b6 a9 55 27 51 2c
       -0.10925 0.001794 0.0261 -0.0624 -0.1052 -0.04462 0.02864 0.06744
000150 8e a6 18 2d d5 29 43 a0 09 2e 42 2b c7 2c 4d 29
       -0.0256 0.0796 0.04556 -0.00832 0.0943 0.0567 0.07465 0.0414
000160 2a 2c 00 aa 5e ae a9 2c a4 ad 03 aa 13 2e e1 24
       0.06506 -0.04688 -0.0995 0.0728 -0.08813 -0.04697 0.0949 0.01906
000170 73 a9 34 ad 09 2e 1b 2a e8 ad 5b 28 22 2f 14 a5
       -0.04257 -0.0813 0.0943 0.0477 -0.0923 0.03403 0.11145 -0.01984
000180 37 ac 94 2d b5 ae 21 2c 70 9c fd 29 85 2e 6d ad
       -0.06586 0.08716 -0.1048 0.0645 -0.004333 0.04678 0.10187 -0.0848
000190 cd 29 06 a2 d5 ab 40 ac 9c 28 40 a5 e6 a1 f2 2b
       0.04532 -0.011765 -0.0612 -0.0664 0.036 -0.02051 -0.01152 0.06207
0001a0 2f ae bd 24 b9 23 5d a9 d6 a2 70 ae 6f 2e c7 a6
       -0.0966 0.01851 0.01508 -0.0419 -0.01335 -0.1006 0.1005 -0.02647
0001b0 21 ac e3 a6 48 2e ac 2e a0 a3 25 21 98 2a 9b a6
       -0.0645 -0.0269 0.09814 0.10425 -0.01489 0.01005 0.0515 -0.0258
0001c0 73 ae e7 2e d8 2d d4 aa 63 a3 58 ae 53 aa 26 2a
       -0.10077 0.10785 0.0913 -0.05334 -0.01443 -0.0991 -0.0494 0.04803
0001d0 bc 2a 26 a4 84 ad 5f 2d dd 26 de 2c 67 21 9b 2d
       0.0526 -0.0162 -0.0862 0.0839 0.02681 0.07605 0.01055 0.0876
0001e0 2a 2e ca 23 13 2e b3 29 2a 2d 94 93 4c 2c af 23
       0.0963 0.01521 0.0949 0.04453 0.0807 -0.000925 0.06714 0.01501
0001f0 58 a1 d1 ac 6d 9e ed 2b 50 2d b2 9b 92 22 4d 25
       -0.01044 -0.07526 -0.006275 0.06192 0.083 -0.003757 0.01283 0.0207

arith.constant32 f2 [16, 1, 1, 8]
000000 dc 30 7c b4 23 b5 29 35 3a ac 7c 32 c6 a8 10 af
       0.1519 -0.2803 -0.321 0.3225 -0.06604 0.2026 -0.0373 -0.11035
000010 b4 b3 35 b4 62 b2 31 2d a0 b5 37 af d9 34 71 30
       -0.2407 -0.263 -0.1995 0.0811 -0.3516 -0.11273 0.303 0.1388
000020 94 aa 2b b5 fb 33 b9 b4 c6 ac 1d af f8 b3 eb b4
       -0.0514 -0.323 0.2494 -0.2952 -0.0746 -0.11115 -0.249 -0.3074
000030 a9 30 1d af 6f b4 bf af 34 b1 0c a2 6b 35 5e b4
       0.1456 -0.11115 -0.277 -0.12103 -0.1626 -0.01181 0.3386 -0.273
000040 8f b2 a6 ac 5f 33 bd b0 6e 2f d4 af ef 34 08 34
       -0.205 -0.07263 0.2303 -0.1481 0.1161 -0.1223 0.3083 0.252
000050 c2 32 cd a8 c2 34 4b a6 cd ac 99 30 34 b5 e9 30
       0.2112 -0.0375 0.2974 -0.02458 -0.075 0.1437 -0.3252 0.1534
000060 0b 35 c6 31 d7 34 85 b5 b3 2d 31 35 30 35 08 ac
       0.3152 0.1804 0.3025 -0.345 0.08905 0.3245 0.3242 -0.063
000070 64 ae fb b4 4d 2d 0e 34 9d 33 a5 35 0c 25 72 b1
       -0.09985 -0.3113 0.0828 0.2534 0.2379 0.3528 0.01971 -0.1702
000080 5c 34 f3 af 67 35 08 33 22 33 06 b4 9c 2e b3 b3
       0.2725 -0.1242 0.3376 0.2197 0.2229 -0.2515 0.1033 -0.2406
000090 4b b3 80 33 e0 b0 7e ae 32 b5 3d aa 59 30 8b b0
       -0.2279 0.2344 -0.1523 -0.10144 -0.3247 -0.04874 0.1359 -0.142
0000a0 c8 2c 65 30 f9 32 02 b5 9c 2a 87 2e 5e 30 9c b2
       0.0747 0.1373 0.2179 -0.313 0.05164 0.102 0.1365 -0.2065
0000b0 5c b2 b8 ad 67 ae 39 34 6b b4 72 34 fb 33 9b b3
       -0.1987 -0.08936 -0.10004 0.264 -0.2761 0.2778 0.2494 -0.2377
0000c0 ad af 2e 35 17 a1 3c 35 74 b0 e8 33 41 b5 51 33
       -0.11993 0.3237 -0.00994 0.3271 -0.1392 0.2471 -0.3284 0.2286
0000d0 7a aa 4e 35 cf 32 8e 33 be b2 30 af 29 2f 75 35
       -0.0506 0.3315 0.2128 0.2361 -0.2107 -0.1123 0.1119 0.341
0000e0 e1 b2 90 2f bd b1 79 b4 80 a9 e8 34 4d 35 cd b1
       -0.215 0.11816 -0.1793 -0.2795 -0.04297 0.3066 0.3313 -0.1813
0000f0 c1 a8 4c b3 0f ab 77 35 0f b5 91 a4 d6 ac 7c 2f
       -0.03714 -0.228 -0.05515 0.3416 -0.3162 -0.01784 -0.07556 0.11694

arith.constant33 f2 [1, 3, 3, 16]
000000 ab b0 4b b4 58 2c af a7 ae b4 00 a9 12 b1 33 2d
       -0.1459 -0.2683 0.0679 -0.03001 -0.2925 -0.03906 -0.1584 0.08124
000010 7c b2 29 31 b5 ae 92 ad 48 b1 1c b0 e2 2e d8 9e
       -0.2026 0.1613 -0.1048 -0.08704 -0.165 -0.1284 0.10754 -0.006683
000020 95 30 29 b5 1c b4 33 ad 80 34 65 b0 0c 2d 11 b4
       0.1432 -0.3225 -0.2568 -0.08124 0.2812 -0.1373 0.07886 -0.2542
000030 2b 33 06 35 db a9 74 29 9e 33 de 2e 9f af 5c ac
       0.224 0.314 -0.04575 0.0426 0.238 0.1073 -0.1191 -0.0681
000040 17 b5 53 34 a2 2a 5a b4 9c a5 55 2e 71 2f 67 ae
       -0.318 0.2703 0.05182 -0.272 -0.02191 0.09894 0.1163 -0.10004
000050 c2 b2 ab b1 23 1a 7e af 84 b0 62 34 ac 34 30 b2
       -0.2112 -0.1771 0.002996 -0.11707 -0.1411 0.274 0.292 -0.1934
000060 a8 34 1f 28 d9 2a 95 30 44 2e bd b4 bb b2 3e 33
       0.291 0.0322 0.0535 0.1432 0.0979 -0.2961 -0.2103 0.2263
000070 a4 b1 dd b0 d8 2c 32 33 11 b4 8c b2 fa af 93 34
       -0.1763 -0.152 0.0757 0.2249 -0.2542 -0.2046 -0.12463 0.286
000080 14 34 0f 34 cc b2 0e ad e5 ad 41 b1 3f b3 14 35
       0.255 0.2537 -0.2124 -0.079 -0.0921 -0.1642 -0.2264 0.3174
000090 55 ab a5 b4 78 32 bc b1 35 b0 14 ac 01 32 0a 29
       -0.05728 -0.2903 0.2021 -0.1792 -0.1315 -0.0637 0.1876 0.03937
0000a0 4a b0 ae 2f 4e 30 11 b3 b0 b4 3c 2d c7 b0 c5 ad
       -0.134 0.12 0.1345 -0.2208 -0.293 0.0818 -0.1493 -0.09015
0000b0 64 b1 36 26 60 ad 01 32 f8 af 82 26 da b4 22 b1
       -0.1685 0.02426 -0.084 0.1876 -0.1245 0.02542 -0.3032 -0.1604
0000c0 c9 aa 4d 35 7d ad 04 b2 54 35 58 33 31 2c e2 29
       -0.053 0.3313 -0.08575 -0.188 0.333 0.2295 0.0655 0.04596
0000d0 68 30 08 1f ed 2f 0a 28 99 32 f9 b0 16 34 b2 30
       0.1377 0.006866 0.12384 0.03156 0.2062 -0.1554 0.2554 0.1467
0000e0 ca 34 01 b1 a6 34 1b 2c 35 b4 19 ae cb 33 a1 32
       0.2993 -0.1564 0.2905 0.06415 -0.263 -0.0953 0.2435 0.2072
0000f0 1b 30 73 ab db 31 9e a4 85 30 3e 9c 3c b4 20 b0
       0.1283 -0.0582 0.183 -0.01804 0.1412 -0.004143 -0.2646 -0.1289
000100 1a b3 69 b1 c2 34 d2 2e 16 35 9b 34 c7 28 76 b4
       -0.2219 -0.1691 0.2974 0.10657 0.3179 0.2878 0.03732 -0.2788
000110 3f 32 6f aa 46 ae 09 34 09 34 08 ae 5c 34 51 34
       0.1952 -0.05026 -0.098 0.2522 0.2522 -0.09424 0.2725 0.2698

arith.constant34 f2 [8, 1, 1, 16]
000000 04 b0 82 2e 96 a8 c7 b0 3d b2 43 2c a5 2c ba b2
       -0.1255 0.1017 -0.03583 -0.1493 -0.195 0.0666 0.0726 -0.2102
000010 70 b2 9f 30 48 a9 2d a4 b4 b3 f9 a4 0f b0 6f 31
       -0.2012 0.1444 -0.04126 -0.01631 -0.2407 -0.01942 -0.1268 0.1698
000020 3a 2d 51 b3 3d b0 d8 1b d5 2e da 32 f2 ac 9e b1
       0.08167 -0.2286 -0.1324 0.00383 0.10675 0.2141 -0.0773 -0.1755
000030 7c 2c b7 2b df ab 62 33 80 31 43 2f 8c 31 1a a5
       0.07007 0.06027 -0.0615 0.2307 0.1719 0.11346 0.1733 -0.01993
000040 26 31 a8 b2 15 2c ce 31 7c 31 7d 31 c9 32 20 b1
       0.1609 -0.208 0.0638 0.1814 0.1714 0.1715 0.212 -0.1602
000050 46 26 cc b1 ec 2f 56 a9 2f b2 2d 2e 8a a9 56 b3
       0.0245 -0.1812 0.1238 -0.0417 -0.1932 0.0965 -0.04327 -0.2292
000060 3b a5 fa ac 62 32 81 31 75 af c9 b3 5f b2 a9 33
       -0.02043 -0.07776 0.1995 0.172 -0.1165 -0.2433 -0.1991 0.2394
000070 f9 a5 bc 21 65 b0 e1 29 84 a5 6f 2b 4c 29 45 b2
       -0.02333 0.0112 -0.1373 0.04593 -0.02155 0.05807 0.04138 -0.1959
000080 93 b1 1e b2 ff 33 03 b1 c9 b2 b0 33 60 ac 98 a5
       -0.1742 -0.1912 0.2499 -0.1566 -0.212 0.2402 -0.06836 -0.02185
000090 9a 33 7c b1 e6 b1 38 b1 e0 b1 ac b0 89 32 96 29
       0.2375 -0.1714 -0.1843 -0.1631 -0.1836 -0.146 0.2042 0.04364
0000a0 9b 2d df 2e f5 ad ae 2f 64 b3 b2 ad 17 ae e6 33
       0.0876 0.10736 -0.0931 0.12 -0.231 -0.089 -0.09515 0.2468
0000b0 2c 2d 0c b0 a7 2d 26 20 c3 a7 ff b2 29 b0 c7 32
       0.0808 -0.1265 0.0883 0.0081 -0.03032 -0.2186 -0.13 0.2118
0000c0 db a8 0f 9d 8d b2 40 29 0f 24 ac b0 bd 2e 50 a7
       -0.03793 -0.00494 -0.2047 0.04102 0.01585 -0.146 0.1053 -0.02856
0000d0 f3 a9 62 a6 cf b0 24 ac 0f a6 1a 33 72 32 88 2d
       -0.04648 -0.02493 -0.1503 -0.0647 -0.02367 0.2219 0.2014 0.0864
0000e0 fd af 62 32 00 a4 5d 33 8c 30 2b 25 26 ac 8a 9c
       -0.1248 0.1995 -0.01563 0.2301 0.1421 0.02019 -0.0648 -0.004433
0000f0 b0 b3 a4 a4 25 b1 da b0 58 af 4b b2 8f ac c8 30
       -0.2402 -0.01813 -0.1608 -0.1516 -0.11475 -0.1967 -0.0712 0.1494

arith.constant35 f2 [16, 1, 1, 8]
000000 08 b4 fe b0 dd 2d 01 ae be 33 df 32 09 34 9c 2d
       -0.252 -0.156 0.0916 -0.0938 0.242 0.2147 0.2522 0.08765
000010 0e 2c f8 34 fc 26 15 b5 d8 af 65 b2 2f 33 21 29
       0.06335 0.3105 0.02728 -0.3176 -0.12256 -0.1998 0.2245 0.04007
000020 09 31 31 29 13 33 33 25 f2 b1 13 aa db 34 00 26
       0.1573 0.04056 0.2211 0.02031 -0.1858 -0.04745 0.3035 0.02344
000030 46 a4 36 a0 ec 2e e1 30 ba 32 67 ad 10 b3 63 35
       -0.0167 -0.008224 0.10815 0.1525 0.2102 -0.0844 -0.2207 0.3367
000040 3b b5 03 b5 02 b0 23 32 80 24 75 b5 0c a7 4d b0
       -0.327 -0.3132 -0.1252 0.1918 0.01758 -0.341 -0.02753 -0.1344
000050 8c b2 4c 34 5d b1 54 ac 2a af 57 b1 1f 2f 98 aa
       -0.2046 0.2686 -0.1676 -0.0676 -0.11194 -0.1669 0.11127 -0.0515
000060 87 b4 aa 33 83 af d4 16 49 34 e2 34 c8 32 18 b2
       -0.283 0.2395 -0.1174 0.001667 0.2678 0.3052 0.2119 -0.1904
000070 e6 2c b9 ad 07 34 39 34 8c a9 6f 35 08 2d 36 32
       0.07654 -0.0894 0.2517 0.264 -0.04333 0.3396 0.0786 0.1941
000080 9d b1 1f 2a 2c b3 c3 34 aa b2 70 b4 39 34 1d 33
       -0.1754 0.04782 -0.2241 0.2976 -0.2083 -0.2773 0.264 0.2223
000090 0f ad 43 2a b4 b1 73 33 08 33 3a 33 da b4 08 22
       -0.07904 0.04892 -0.1782 0.2328 0.2197 0.2258 -0.3032 0.01178
0000a0 4a 34 7a ad 3b ac b4 b2 e9 33 35 34 0d b4 8b 33
       0.268 -0.0856 -0.0661 -0.2095 0.2472 0.263 -0.2532 0.2357
0000b0 f3 25 85 34 8d 34 a5 b5 f6 ab 3a 32 7f b4 cb 30
       0.02324 0.2825 0.2844 -0.3528 -0.0622 0.1946 -0.281 0.1498
0000c0 34 2f d8 b2 f5 2c 03 2b 20 2f 2e 34 fb 32 5b af
       0.11255 -0.2139 0.07745 0.05478 0.1113 0.2612 0.2181 -0.1149
0000d0 39 b2 91 ad 97 b5 36 17 32 30 1a af 30 b5 94 23
       -0.1945 -0.087 -0.3494 0.0017605 0.1311 -0.11096 -0.3242 0.0148
0000e0 d6 ae 17 35 e6 ad 21 27 a8 2c e5 34 e2 2f 59 2e
       -0.1068 0.318 -0.09216 0.02785 0.07275 0.306 0.12317 0.0992
0000f0 aa 32 c8 b4 bd 34 41 b4 2d 32 e1 2d f1 33 cc 29
       0.2083 -0.2988 0.2961 -0.2659 0.193 0.09186 0.2482 0.0453

arith.constant36 f2 [1, 3, 3, 16]
000000 a3 af ef 33 74 b2 f0 b4 ce 33 e8 9e 90 33 57 aa
       -0.1193 0.2479 -0.2017 -0.3086 0.2439 -0.006744 0.2363 -0.04953
000010 b2 a8 6d b2 83 29 c1 a8 75 33 72 ae ba 2f 01 35
       -0.03668 -0.2008 0.04306 -0.03714 0.233 -0.1007 0.1207 0.3127
000020 98 31 47 26 c1 34 57 b4 a0 34 f6 b1 2b b5 08 34
       0.1748 0.02452 0.297 -0.2712 0.289 -0.1863 -0.323 0.252
000030 18 ae 5b ad 94 b3 40 2b bf 2c 3f b0 84 31 63 34
       -0.0952 -0.0837 -0.2368 0.05664 0.07416 -0.1327 0.1724 0.2742
000040 1f 28 02 34 0c b1 0e ae 47 28 2a 25 94 34 17 32
       0.0322 0.2505 -0.1577 -0.0946 0.03342 0.02017 0.2861 0.1903
000050 ee 2e 77 2f 23 34 20 32 1a b1 39 05 f4 ad 6d 2f
       0.1083 0.11664 0.2585 0.1914 -0.1594 7.97e-05 -0.093 0.116
000060 9f 34 d2 33 8f 33 ab 2e 5e 2a fd aa 20 b5 8f ab
       0.2888 0.2444 0.2362 0.1042 0.04974 -0.0546 -0.3203 -0.05905
000070 e7 a3 9e b2 3d 35 2d a9 6d 26 6b 34 29 b1 32 30
       -0.015434 -0.2068 0.3274 -0.04044 0.0251 0.2761 -0.1613 0.1311
000080 5d 2f b9 34 09 34 73 a8 f0 aa 45 30 fd b3 52 b5
       0.11505 0.2952 0.2522 -0.03476 -0.0542 0.1334 -0.2496 -0.3325
000090 61 b2 ab ab 46 24 14 31 6e ae b1 b1 54 30 f0 30
       -0.1993 -0.0599 0.0167 0.1587 -0.10046 -0.1779 0.1353 0.1543
0000a0 62 28 51 2f 4c ab 15 33 dd b4 60 31 29 2a 7a 33
       0.03424 0.1143 -0.057 0.2213 -0.304 0.168 0.04813 0.2336
0000b0 6b 33 35 b1 4e b4 18 32 45 ac 80 af 1b 34 d7 29
       0.2318 -0.1627 -0.269 0.1904 -0.0667 -0.1172 0.2566 0.04562
0000c0 b4 34 72 af 40 26 fb af 42 b2 c9 34 8c b4 c4 33
       0.294 -0.11633 0.02441 -0.1247 -0.1956 0.299 -0.2842 0.2427
0000d0 44 b5 98 31 ef ae c0 b4 6b aa bf af c6 2f 0d 2b
       -0.329 0.1748 -0.10834 -0.2969 -0.05014 -0.12103 0.12146 0.05508
0000e0 72 30 05 b5 af 2d 90 a1 c0 25 6e 33 61 b4 73 34
       0.1389 -0.3137 0.0888 -0.010864 0.02246 0.2322 -0.2737 0.278
0000f0 04 34 41 33 c3 2f ee ad d8 a5 86 1e 62 2f 04 b2
       0.251 0.2267 0.1213 -0.09265 -0.02283 0.00637 0.11536 -0.188
000100 95 23 cd 32 78 a4 34 35 40 a8 4f b0 b6 32 6a ae
       0.01481 0.2125 -0.01746 0.3252 -0.0332 -0.1346 0.2097 -0.1002
000110 d6 33 73 ad 39 34 e2 30 37 b1 05 35 cd b1 51 31
       0.2449 -0.08514 0.264 0.1526 -0.163 0.3137 -0.1813 0.1661

arith.constant37 f2 [8, 1, 1, 16]
000000 ba ad c6 af f9 2b 46 a8 5f ac d0 33 90 30 aa a8
       -0.0895 -0.12146 0.0623 -0.0334 -0.0683 0.2441 0.1426 -0.03644
000010 4e 32 5a 33 dd 31 05 32 1d 32 50 30 83 32 6e b2
       0.197 0.2297 0.1832 0.1881 0.191 0.1348 0.2035 -0.2009
000020 bb 33 c0 2f c0 b0 dc af 64 b2 eb b1 8f b0 78 b2
       0.2416 0.1211 -0.1484 -0.1228 -0.1997 -0.1849 -0.1425 -0.2021
000030 06 2d ba 31 a5 32 f7 b2 25 ad 61 ac 47 30 ec 31
       0.0785 0.179 0.2076 -0.2177 -0.0804 -0.0684 0.1337 0.185
000040 03 9c 35 af c0 29 28 ab 0e 33 45 a0 8d b0 a8 b3
       -0.003918 -0.1126 0.04492 -0.0559 0.2205 -0.00834 -0.1422 -0.2393
000050 c6 ab d6 33 2d 31 74 ac 45 ac 05 32 52 b0 5a 25
       -0.06073 0.2449 0.1617 -0.0696 -0.0667 0.1881 -0.135 0.0209
000060 3c ad f7 b0 8f 32 28 32 c4 33 5a 31 04 ad a7 b3
       -0.0818 -0.1552 0.205 0.1924 0.2427 0.1672 -0.07837 -0.2391
000070 36 ac 33 32 af ab 04 b3 5e 30 17 2d 7c a8 9a af
       -0.0658 0.1937 -0.06003 -0.2192 0.1365 0.0795 -0.03503 -0.1188
000080 dd b3 8f 23 c8 b3 0d b2 ec 19 2a 2a f4 2c 14 2f
       -0.2457 0.01476 -0.2432 -0.1891 0.002892 0.04816 0.0774 0.1106
000090 b2 2f af 2e 02 b1 6b 2e 0f ac 5c a8 fd ae e3 b0
       0.12024 0.10443 -0.1565 0.1003 -0.0634 -0.03406 -0.1092 -0.1527
0000a0 05 b0 45 b3 c7 ac 2d 31 70 9e 12 b0 62 20 0f b3
       -0.1256 -0.2272 -0.07465 0.1617 -0.006287 -0.1272 0.00856 -0.2206
0000b0 e7 26 1d b0 d3 b2 5d ae 34 29 5f a2 98 b2 7f 30
       0.02696 -0.1285 -0.2133 -0.0994 0.04065 -0.01244 -0.206 0.1405
0000c0 39 b2 44 b0 2d 2d f4 33 e4 32 7e 2c 4c 9c 18 b0
       -0.1945 -0.1333 0.0809 0.2485 0.2153 0.0702 -0.004196 -0.1279
0000d0 e0 2c b9 a4 53 b2 c7 b3 f5 31 3c 30 07 b2 0e 2f
       0.0762 -0.01845 -0.1976 -0.243 0.1862 0.1323 -0.1884 0.1102
0000e0 8f 2d 3a 33 51 ae 88 30 d9 b2 f8 32 f4 a9 16 b3
       0.08685 0.2258 -0.0987 0.1416 -0.214 0.2178 -0.0465 -0.2214
0000f0 61 2d 83 27 b8 a9 d3 2b 25 a9 13 b0 5d b2 14 a2
       0.08405 0.02934 -0.04468 0.06113 -0.0402 -0.1273 -0.1989 -0.01187

arith.constant38 f2 [16, 1, 1, 8]
000000 e3 2e a3 2f b8 28 9b a5 cc b2 cd 28 a2 34 61 34
       0.1076 0.1193 0.03687 -0.0219 -0.2124 0.0375 0.2896 0.2737
000010 ab b3 06 b5 34 2c a9 31 e7 a8 35 35 d1 b0 4f 34
       -0.2396 -0.314 0.0657 0.1769 -0.0383 0.3254 -0.1505 0.2693
000020 6d 33 32 b3 6a 34 92 b0 69 aa 8f 35 10 2a 1c a9
       0.232 -0.2249 0.276 -0.1428 -0.05008 0.3474 0.04736 -0.03992
000030 16 32 19 b2 43 a5 18 b0 6a a9 1d af 3c ae e6 30
       0.1902 -0.1906 -0.02055 -0.1279 -0.0423 -0.11115 -0.0974 0.1531
000040 41 a8 35 25 53 b1 81 24 a3 b4 cf b2 32 a9 fa 31
       -0.03323 0.02034 -0.1664 0.0176 -0.2898 -0.2128 -0.0406 0.1868
000050 bd 31 a8 a6 8d b0 d6 34 79 31 99 2b 51 2d a5 b0
       0.1793 -0.026 -0.1422 0.3022 0.171 0.05936 0.08307 -0.1451
000060 5d b4 3f b5 8d 2c 4c b5 3c b4 7b 2e b9 9d bb 33
       -0.2727 -0.328 0.0711 -0.331 -0.2646 0.10126 -0.00559 0.2416
000070 65 33 6c 2e 02 23 95 94 34 2a 2a a4 dd b2 ce 33
       0.2311 0.10034 0.01369 -0.001119 0.04846 -0.01627 -0.2145 0.2439
000080 d9 af 53 2a 9a 35 01 32 68 29 6a af cc 30 6a 31
       -0.1226 0.0494 0.35 0.1876 0.04224 -0.11584 0.1499 0.1692
000090 76 35 6e 2d 2d b5 34 b4 3f 35 65 ac b2 34 5a b2
       0.3413 0.08484 -0.3235 -0.2627 0.328 -0.06866 0.2935 -0.1985
0000a0 ce 34 2a b5 b5 ac ed 34 c7 34 bb 17 bf b3 1a b2
       0.3003 -0.3228 -0.07355 0.3079 0.2986 0.001887 -0.2421 -0.1907
0000b0 f3 ad 1d 32 14 b0 92 b4 8f ab 59 2f db 2e fa b3
       -0.09296 0.191 -0.1274 -0.2856 -0.05905 0.1148 0.1071 -0.2493
0000c0 91 b4 e9 b4 76 2c 43 33 1f b5 31 b3 0f b1 ba 32
       -0.2854 -0.307 0.0697 0.2269 -0.32 -0.2247 -0.1581 0.2102
0000d0 f5 2d 4a 30 46 1c c6 2e e3 29 df 33 14 9c 7d 2e
       0.0931 0.134 0.004173 0.10583 0.046 0.246 -0.003983 0.1014
0000e0 7f b2 ab b0 b4 aa 32 af c5 b2 9f 35 a4 b1 d6 b1
       -0.203 -0.1459 -0.05237 -0.1124 -0.2115 0.3513 -0.1763 -0.1824
0000f0 4a b5 12 2c 0a b5 00 b2 9d 34 9f 2d 4d 35 88 b4
       -0.3306 0.0636 -0.315 -0.1875 0.2883 0.0878 0.3313 -0.2832

arith.constant39 f2 [1, 3, 3, 16]
000000 e6 33 96 32 46 b4 75 b1 a9 34 2e 35 b0 ab 8d 34
       0.2468 0.2058 -0.267 -0.1705 0.2913 0.3237 -0.06006 0.2844
000010 41 a2 c5 ac 46 32 1e 34 dd 31 f7 b3 ff b0 97 2e
       -0.012215 -0.0745 0.196 0.2573 0.1832 -0.2489 -0.1561 0.10297
000020 98 a5 3b 32 65 b0 d8 30 19 30 2a 33 f2 b4 03 ae
       -0.02185 0.1947 -0.1373 0.1514 0.128 0.2239 -0.309 -0.09393
000030 59 b4 e9 30 73 b1 c7 ab 36 30 b2 b4 d8 b0 5e a6
       -0.2717 0.1534 -0.1703 -0.06076 0.1316 -0.2935 -0.1514 -0.02487
000040 13 a7 cd b0 1a b1 5f b4 fb 34 61 b3 1c 31 1c b4
       -0.02763 -0.15 -0.1594 -0.2732 0.3113 -0.2306 0.1597 -0.2568
000050 94 ab 1a ae e9 34 de 33 eb 33 18 2b f3 b0 60 af
       -0.0592 -0.09534 0.307 0.2458 0.2474 0.05542 -0.1547 -0.11523
000060 00 b1 dc b3 79 29 2f 35 b4 b1 45 34 0f 2e 0e 2b
       -0.1562 -0.2456 0.04276 0.324 -0.1782 0.2668 0.09467 0.0551
000070 94 b0 15 30 79 ae 00 33 0e 31 00 b1 5d 32 56 34
       -0.1431 0.1276 -0.10114 0.2188 0.158 -0.1562 0.1989 0.271
000080 26 b2 18 ae 61 2d 20 1a 84 b4 46 31 a0 b0 75 b4
       -0.1921 -0.0952 0.08405 0.00299 -0.2822 0.1648 -0.1445 -0.2786
000090 a7 29 ad b3 b7 b4 45 34 ee 34 1d aa a7 a7 0e b3
       0.04416 -0.2399 -0.2947 0.2668 0.308 -0.04776 -0.02989 -0.2205
0000a0 fd 2d 3a 33 b8 b0 fd 34 22 b2 bc 33 cd 2d dd a1
       0.09357 0.2258 -0.1475 0.3118 -0.1917 0.2417 0.09064 -0.01145
0000b0 93 b2 14 b4 02 2f 70 34 1a b0 43 ae 0f b4 56 32
       -0.2054 -0.255 0.1095 0.2773 -0.1282 -0.09784 -0.2537 0.198
0000c0 ed 2f 97 2a 87 ac c4 2c 1d b0 6a 34 72 30 8a 31
       0.12384 0.05148 -0.07074 0.07446 -0.1285 0.276 0.1389 0.1731
0000d0 05 34 ac 34 d4 af ba b1 f9 b4 9a ad a9 b1 21 33
       0.2512 0.292 -0.1223 -0.179 -0.3108 -0.0875 -0.1769 0.2228
0000e0 78 2f 5f 33 53 b2 02 af e6 2e d2 96 f4 9f 49 31
       0.1167 0.2303 -0.1976 -0.1095 0.1078 -0.001665 -0.007767 0.1652
0000f0 df 2b fe b1 ba 34 c1 aa 53 b1 0c 34 a1 34 e9 af
       0.0615 -0.1873 0.2954 -0.05276 -0.1664 0.253 0.2893 -0.1236
000100 4a b5 a5 b2 27 2f d3 31 55 29 b8 ad 2d b0 12 27
       -0.3306 -0.2076 0.11176 0.182 0.04166 -0.08936 -0.1305 0.02762
000110 45 2f 96 ab 2c 2c a1 2d 55 35 33 34 fc b2 41 9d
       0.1136 -0.05927 0.0652 0.08795 0.3333 0.2625 -0.2183 -0.00513

arith.constant40 f2 [8, 1, 1, 16]
000000 f8 17 b8 ad 0a b1 8d 30 9a 30 b9 31 46 2f f7 32
       0.0019455 -0.08936 -0.1575 0.1422 0.1438 0.1788 0.11365 0.2177
000010 66 b1 18 b2 a8 ac 44 27 a6 2e 70 2d 5a ac 33 26
       -0.1687 -0.1904 -0.07275 0.02838 0.1039 0.08496 -0.068 0.02422
000020 b1 30 d0 19 b8 31 e8 30 93 30 42 b3 a3 33 78 b2
       0.1466 0.002838 0.1787 0.1533 0.143 -0.2268 0.2386 -0.2021
000030 d4 b3 ff 32 39 32 46 31 4f b0 7d b3 61 a8 3b b1
       -0.2446 0.2186 0.1945 0.1648 -0.1346 -0.234 -0.0342 -0.1635
000040 7b b1 15 2b 35 a8 c7 33 58 29 f5 32 f8 33 07 30
       -0.1713 0.05533 -0.03287 0.243 0.04175 0.2174 0.249 0.1259
000050 4b 2e 8b 27 99 a5 f5 2b dd 2f 69 28 bc ae ea 27
       0.0983 0.02946 -0.02187 0.06216 0.12286 0.03445 -0.1052 0.03091
000060 0c 33 5d 2e dd 2e 9f b3 7a b3 d9 27 34 ae 74 2c
       0.2202 0.0994 0.10724 -0.2382 -0.2336 0.03065 -0.0969 0.0696
000070 33 b0 50 b2 12 b0 cf 31 5f 31 cf b1 bb b1 b2 b3
       -0.1312 -0.1973 -0.1272 0.1815 0.1678 -0.1815 -0.1791 -0.2405
000080 88 a8 35 32 7e b1 a6 2c d3 b1 fb 29 f7 33 17 31
       -0.0354 0.194 -0.1716 0.07263 -0.182 0.04672 0.2489 0.159
000090 07 2f 96 ac 86 30 49 31 c0 32 4a 33 8d a9 9c 2b
       0.1098 -0.07166 0.1414 0.1652 0.2109 0.2278 -0.04337 0.05945
0000a0 84 2a d3 b3 7a 30 9c 2f 07 b0 c3 a6 3d 31 df ab
       0.0509 -0.2445 0.1399 0.1189 -0.1259 -0.02641 0.1637 -0.0615
0000b0 80 31 7b 30 eb aa 18 a6 66 2b fb 31 d5 b1 ce b2
       0.1719 0.14 -0.05405 -0.0238 0.0578 0.1869 -0.1823 -0.2126
0000c0 68 2d 69 31 59 31 7a b1 d5 2c 5d 32 a8 9e b9 2e
       0.0845 0.1691 0.1671 -0.1711 0.0755 0.1989 -0.0065 0.10504
0000d0 61 b3 11 23 e9 32 a3 b2 fc b2 11 a9 d2 b1 4d 2c
       -0.2306 0.0138 0.216 -0.2074 -0.2183 -0.03958 -0.1819 0.0672
0000e0 a0 b3 b3 b2 37 2f be b2 93 2b 80 32 38 a1 03 99
       -0.2383 -0.2094 0.11273 -0.2107 0.05917 0.2031 -0.01019 -0.002447
0000f0 e4 31 eb b3 05 27 6d b0 fe 1f 9a 32 54 28 f8 2e
       0.1841 -0.2474 0.02742 -0.1383 0.007805 0.2063 0.0338 0.1089

arith.constant41 f2 [16, 1, 1, 16]
000000 86 33 59 b3 d0 a4 c9 30 a1 a8 05 2f cd ac 40 30
       0.2351 -0.2296 -0.0188 0.1495 -0.03616 0.1097 -0.075 0.1328
000010 6d b0 c9 2f f4 9d 65 30 3f 2c 2e af 5c b3 64 2a
       -0.1383 0.12164 -0.005814 0.1373 0.06635 -0.1122 -0.23 0.04993
000020 79 a8 34 30 00 af 3c b2 c7 33 90 b3 2b 9d 4e a8
       -0.03494 0.1313 -0.1094 -0.1948 0.243 -0.2363 -0.005047 -0.03363
000030 6a b2 77 25 88 aa bc ab 14 2c ff 31 fc 30 57 31
       -0.2004 0.02135 -0.05103 -0.06042 0.0637 0.1874 0.1558 0.1669
000040 53 b2 00 ad 14 31 ed 33 82 a5 66 b0 f6 b1 a6 2c
       -0.1976 -0.0781 0.1587 0.2477 -0.02151 -0.1375 -0.1863 0.07263
000050 b0 a0 49 2d da 30 e8 29 7f 33 cb b1 4a a4 5e 2d
       -0.009155 0.0826 0.1516 0.04614 0.2343 -0.181 -0.01675 0.08386
000060 e5 32 9f 2e 91 2c be 33 5c 30 23 2b 38 30 25 2d
       0.2155 0.10345 0.07135 0.242 0.1362 0.05576 0.1318 0.0804
000070 79 23 3e 29 96 32 df ad 81 ad e1 2e 4c ad 7d 30
       0.014595 0.04095 0.2058 -0.09174 -0.086 0.1075 -0.08276 0.1403
000080 86 ab fc a5 a1 22 16 b1 c5 32 70 30 3a aa e3 2d
       -0.05878 -0.02338 0.01295 -0.1589 0.2115 0.1387 -0.04865 0.092
000090 05 b1 95 25 55 2c 11 33 09 ae 86 32 a4 b3 0f b1
       -0.1569 0.0218 0.0677 0.2208 -0.0943 0.2039 -0.2388 -0.1581
0000a0 a4 24 43 a5 47 2f 80 b1 79 b2 9f b0 f0 b2 2f ad
       0.01813 -0.02055 0.1137 -0.1719 -0.2023 -0.1444 -0.2168 -0.081
0000b0 32 30 8b 2a 15 ae d1 a8 7d ad 22 32 8b b1 6c b0
       0.1311 0.05112 -0.09503 -0.03763 -0.08575 0.1917 -0.1732 -0.1382
0000c0 bd b1 b3 2c 59 2b f1 24 b0 31 7a 2f f6 a8 c6 30
       -0.1793 0.0734 0.0574 0.0193 0.1777 0.1168 -0.03876 0.1492
0000d0 d9 b3 94 af e9 33 76 32 2e ac 7f 33 2d b3 48 31
       -0.2452 -0.1184 0.2472 0.2019 -0.0653 0.2343 -0.2242 0.165
0000e0 be 2e fd 31 bc 2c 57 a4 5e b2 1e af 4d b0 2d ac
       0.10535 0.1871 0.074 -0.01695 -0.199 -0.1112 -0.1344 -0.06525
0000f0 2c 26 da b3 80 31 af 28 91 2e ef b3 b4 9c 76 af
       0.02411 -0.2454 0.1719 0.0366 0.1026 -0.2479 -0.004593 -0.1166
000100 76 33 8f 33 9d 31 e0 28 7f b3 1f b2 2f a4 cd b0
       0.2332 0.2362 0.1754 0.0381 -0.2343 -0.1913 -0.01634 -0.15
000110 59 33 55 2d 34 a9 ee b3 fc 2c 8b a9 8f a3 f2 b2
       0.2296 0.0833 -0.04065 -0.2478 0.0779 -0.0433 -0.01476 -0.217
000120 6b b2 bf b1 b3 b1 97 24 fb 32 51 30 50 a5 03 b2
       -0.2006 -0.1796 -0.1781 0.01793 0.2181 0.1349 -0.02075 -0.1879
000130 b8 2f 6c a9 aa 2c 9e 30 44 33 d6 b1 8c 2c a8 ad
       0.1206 -0.04236 0.0729 0.1443 0.227 -0.1824 0.07104 -0.0884
000140 da 29 9d 2f 73 ac bf 32 84 b2 e4 b2 1b a1 32 b2
       0.04572 0.11896 -0.0695 0.2108 -0.2036 -0.2153 -0.00997 -0.1936
000150 23 b0 ff ae 8e ac 5c aa 95 af 74 af 5b 2c 1d 2e
       -0.1293 -0.1093 -0.07117 -0.04968 -0.11847 -0.11646 0.06805 0.0955
000160 e8 2f 97 30 41 2f a9 b3 bc b0 5c 32 57 b1 4b 2b
       0.12354 0.1434 0.11334 -0.2394 -0.148 0.1987 -0.1669 0.05698
000170 b9 28 5e 32 4c b2 e3 ae db 2e 28 a6 3a 99 4b a9
       0.0369 0.199 -0.1968 -0.1076 0.1071 -0.02405 -0.002552 -0.04135
000180 c6 b2 cb af 64 b1 11 af aa 32 14 30 b1 ac ac 2f
       -0.2117 -0.12177 -0.1685 -0.1104 0.2083 0.1274 -0.0733 0.1199
000190 67 2f ca ac 07 30 6d a2 a6 b1 5f 26 94 b3 d8 b2
       0.11566 -0.0748 0.1259 -0.01255 -0.1765 0.02489 -0.2368 -0.2139
0001a0 1e b2 3e a6 bf 1c 67 b0 0e 2d d9 32 55 26 e9 ac
       -0.1912 -0.02438 0.004635 -0.1376 0.079 0.214 0.02473 -0.0767
0001b0 f8 30 c2 b3 4f 30 47 32 5e a4 5e 2e b3 32 80 aa
       0.1553 -0.2424 0.1346 0.1962 -0.01706 0.0995 0.2094 -0.05078
0001c0 ab b3 81 a6 7e b0 f7 b3 04 30 69 a7 93 32 dc b1
       -0.2396 -0.0254 -0.1404 -0.2489 0.1255 -0.02895 0.2054 -0.1831
0001d0 b1 b3 9d ae 28 31 95 30 60 33 9c b0 81 31 59 30
       -0.2404 -0.10333 0.1611 0.1432 0.2305 -0.144 0.172 0.1359
0001e0 5b ac 8d b1 ae 2c 00 2c 87 ac 0a 33 ab b0 89 32
       -0.06805 -0.1735 0.0731 0.0625 -0.07074 0.22 -0.1459 0.2042
0001f0 17 b2 d6 29 ab 33 a8 26 7b a2 d4 29 23 2f 13 aa
       -0.1903 0.0456 0.2396 0.026 -0.01266 0.04553 0.1115 -0.04745

arith.constant42 f2 [1, 3, 1, 16]
000000 f5 b4 08 30 8f ad 4b b8 97 33 c8 b2 90 33 f9 30
       -0.3098 0.126 -0.08685 -0.5366 0.2372 -0.2119 0.2363 0.1554
000010 a3 35 fa 30 6b 35 2b 35 d9 2c bd 35 36 b8 60 b0
       0.3523 0.1555 0.3386 0.323 0.07574 0.3586 -0.5264 -0.1367
000020 d0 b4 23 a8 5c 34 1f 2e 45 b8 30 38 c4 34 82 32
       -0.3008 -0.03232 0.2725 0.09564 -0.5337 0.5234 0.2979 0.2034
000030 7c 32 01 b1 a3 b4 29 b1 fb a1 62 35 30 38 59 b7
       0.2026 -0.1564 -0.2898 -0.1613 -0.01168 0.3364 0.5234 -0.4592
000040 70 b3 87 32 f0 37 5c b7 d4 aa 7b 32 bf 36 f6 33
       -0.2324 0.204 0.496 -0.46 -0.05334 0.2025 0.4216 0.2488
000050 5d 35 37 b8 83 30 5b 35 48 35 9e af 9b 31 86 38
       0.3352 -0.527 0.141 0.3347 0.33 -0.119 0.1752 0.5654

arith.constant43 f2 [16, 1, 1, 16]
000000 61 33 2c af c1 a9 01 b1 c1 27 62 32 a2 ae f2 33
       0.2306 -0.11206 -0.04495 -0.1564 0.03029 0.1995 -0.10364 0.2483
000010 63 2e 8c 31 40 27 f1 b0 7d 30 15 b0 72 a5 c8 31
       0.0998 0.1733 0.02832 -0.1544 0.1403 -0.1276 -0.02127 0.1807
000020 ae b1 25 2d 19 af 14 b2 d9 2b 3e 29 8a 32 d4 2b
       -0.1775 0.0804 -0.1109 -0.19 0.0613 0.04095 0.2043 0.06116
000030 cd 30 21 ac 0e 33 c2 33 af b3 3a 33 5b a9 dd b1
       0.15 -0.0645 0.2205 0.2424 -0.2401 0.2258 -0.04184 -0.1832
000040 60 a6 9f 32 70 b1 c6 2e df 29 d0 31 8d 33 db b0
       -0.0249 0.2069 -0.1699 0.10583 0.04587 0.1816 0.236 -0.1517
000050 31 31 4a b0 f0 b0 10 b2 d5 b3 43 b0 ce 2c 27 30
       0.1622 -0.134 -0.1543 -0.1895 -0.2448 -0.1332 0.0751 0.1298
000060 7e ab ab 32 99 af 89 b2 4b b0 55 2f cc 31 25 2d
       -0.05853 0.2084 -0.1187 -0.2042 -0.1342 0.11456 0.1812 0.0804
000070 86 b0 4f 29 37 b2 6f b2 40 30 4e 32 e9 b1 41 a7
       -0.1414 0.04147 -0.1942 -0.201 0.1328 0.197 -0.1847 -0.02834
000080 4d b0 82 2c 6f ac ed 2c b2 2f 34 30 71 31 d7 ab
       -0.1344 0.07043 -0.0693 0.07697 0.12024 0.1313 0.17 -0.06125
000090 db a9 2f b3 29 a7 ed ae 2a 13 24 ab 7d 33 f7 31
       -0.04575 -0.2245 -0.02797 -0.1082 0.0008745 -0.0558 0.234 0.1864
0000a0 c3 32 25 b2 cc 2f b4 ab 1a 30 7c 2e ad a8 65 b0
       0.2113 -0.192 0.1218 -0.06018 0.1282 0.1013 -0.03653 -0.1373
0000b0 d9 31 db b3 00 32 33 b0 be b2 01 2d 46 30 1b 2d
       0.1827 -0.2455 0.1875 -0.1312 -0.2107 0.0782 0.1335 0.0798
0000c0 30 b0 5c 2f b7 a9 e3 ae c5 b3 c8 ad f0 2d 5d 2d
       -0.1309 0.115 -0.04465 -0.1076 -0.2428 -0.09033 0.0928 0.0838
0000d0 6e 20 8b ab 48 b3 7e ac 06 af 0d b2 c7 31 36 b3
       0.00865 -0.05893 -0.2275 -0.0702 -0.10974 -0.1891 0.1805 -0.2253
0000e0 e0 30 19 2c bc b3 21 b3 08 32 b5 a4 3d 22 c2 b3
       0.1523 0.064 -0.2417 -0.2228 0.1885 -0.01839 0.012184 -0.2424
0000f0 a5 b2 c4 a8 57 b1 27 b1 d8 ac 85 2c c7 aa f4 a8
       -0.2076 -0.03723 -0.1669 -0.161 -0.0757 0.0706 -0.05295 -0.0387
000100 15 af 3a 1a e3 b0 30 b1 21 2d 1c b3 4d 32 47 26
       -0.11066 0.00304 -0.1527 -0.1621 0.08014 -0.2222 0.1969 0.02452
000110 9f b2 c1 a5 f4 b3 f4 b2 8c 31 d9 af 19 2f aa ae
       -0.2069 -0.02248 -0.2485 -0.2173 0.1733 -0.1226 0.1109 -0.1041
000120 0b 2e 7d b0 05 29 ae af 5a b0 2c 14 91 b1 64 2f
       0.0944 -0.1403 0.0392 -0.12 -0.136 0.001019 -0.174 0.1155
000130 23 b2 f4 b2 0c b1 da 91 78 33 55 aa 23 b0 36 30
       -0.1918 -0.2173 -0.1577 -0.0007143 0.2334 -0.04947 -0.1293 0.1316
000140 44 ac da ae 20 30 af 33 72 a1 db b1 41 31 42 b1
       -0.06665 -0.10706 0.1289 0.2401 -0.010635 -0.183 0.1642 -0.1643
000150 6c 2b ee aa f1 a5 5c b3 a4 31 64 b1 3b ab 4d 1d
       0.05798 -0.05414 -0.02321 -0.23 0.1763 -0.1685 -0.0565 0.005177
000160 7c af 28 b3 73 af 48 b0 a3 2b 1c 30 54 b1 00 ae
       -0.11694 -0.2236 -0.1164 -0.1338 0.05966 0.1284 -0.1665 -0.09375
000170 ff 33 65 ad 9b b0 cc 33 99 b0 1f 2c 6f 2d 18 22
       0.2499 -0.0843 -0.1439 0.2437 -0.1437 0.0644 0.0849 0.0119
000180 63 af 86 ac 6d b1 59 2b 92 a6 4c aa e7 ac f3 33
       -0.1154 -0.0707 -0.1696 0.0574 -0.02567 -0.0492 -0.0766 0.2484
000190 e9 28 d6 b2 2f ae 0b 2e 44 b0 5c a9 35 32 b8 af
       0.03836 -0.2136 -0.0966 0.0944 -0.1333 -0.04187 0.194 -0.1206
0001a0 12 aa 7a 33 1c a8 0c b1 36 ad 1f 30 13 30 56 af
       -0.04742 0.2336 -0.0321 -0.1577 -0.0814 0.1288 0.1273 -0.1146
0001b0 08 a1 cd a2 39 30 bd 2c a9 32 12 31 4b 18 9c ab
       -0.00983 -0.01328 0.132 0.07404 0.2081 0.1584 0.002096 -0.05945
0001c0 8b 32 4f 33 25 31 96 28 32 a6 77 ad e2 2f c7 30
       0.2045 0.2284 0.1608 0.03583 -0.0242 -0.0854 0.12317 0.1493
0001d0 06 ae a4 b1 37 2d 01 b0 29 a4 d8 aa 61 b0 7a 33
       -0.0941 -0.1763 0.0815 -0.1251 -0.01625 -0.05347 -0.1368 0.2336
0001e0 1b b2 14 af b0 18 a5 26 ea af 0e aa a8 2d d7 b3
       -0.1908 -0.1106 0.002289 0.02596 -0.12366 -0.0473 0.0884 -0.245
0001f0 8c 31 44 b3 ff 30 2b b2 ac aa f0 b1 ca b3 05 ab
       0.1733 -0.227 0.1561 -0.1927 -0.05212 -0.1855 -0.2434 -0.05484

arith.constant44 f2 [16, 1, 1, 16]
000000 27 32 53 2c b3 32 ac 31 fc 31 72 ad 34 b1 4d b2
       0.1923 0.06757 0.2094 0.1772 0.187 -0.0851 -0.1626 -0.1969
000010 fb 2b ae 27 eb 32 04 22 81 b1 2d b3 ea b0 64 26
       0.06235 0.03 0.2162 0.01175 -0.172 -0.2242 -0.1536 0.02496
000020 62 33 d6 32 05 ad da ad 3e 33 d6 ae 2d 26 24 31
       0.2307 0.2136 -0.0784 -0.09143 0.2263 -0.1068 0.02412 0.1606
000030 9b 28 dc 31 5d aa 1b 33 0d 2d 6a 2d 74 31 00 b2
       0.03598 0.1831 -0.0497 0.222 0.0789 0.0846 0.1704 -0.1875
000040 d8 2a db ac f7 af a9 32 73 af 21 32 22 31 23 ab
       0.05347 -0.07587 -0.12445 0.2081 -0.1164 0.1915 0.1604 -0.05576
000050 d7 b3 6f b0 26 b3 6c b0 e9 2c 23 aa 58 2c ee b1
       -0.245 -0.1385 -0.2234 -0.1382 0.0767 -0.04794 0.0679 -0.1853
000060 e6 b0 27 b1 59 30 3d 30 90 b3 bf 31 2e ae 7b b1
       -0.1531 -0.161 0.1359 0.1324 -0.2363 0.1796 -0.09656 -0.1713
000070 b6 b2 fc 26 7c b3 fb b2 ec b1 69 2f 86 ad 33 28
       -0.2097 0.02728 -0.2339 -0.2181 -0.185 0.1158 -0.0863 0.0328
000080 48 2d 34 2d 8f ac 1b 28 1a ad 03 29 56 29 c5 27
       0.0825 0.0813 -0.0712 0.03207 -0.0797 0.03915 0.0417 0.03035
000090 a3 32 07 b0 ea b1 13 2c 4f b2 d2 26 28 30 a2 29
       0.2074 -0.1259 -0.1848 0.06366 -0.1971 0.02664 0.1299 0.044
0000a0 b4 af 4c 33 2a ae 71 b3 dd b0 c4 ac 98 b0 34 30
       -0.12036 0.228 -0.0963 -0.2325 -0.152 -0.07446 -0.1436 0.1313
0000b0 ce b2 d0 2a 48 ad 6a ab e2 33 bd ae 78 9d 04 b1
       -0.2126 0.05322 -0.0825 -0.05792 0.2463 -0.1053 -0.00534 -0.1567
0000c0 da 30 ed b2 4d b1 5a 33 02 2e 7e ae 12 b1 b6 31
       0.1516 -0.2164 -0.1656 0.2297 0.0939 -0.10144 -0.1584 0.1785
0000d0 47 31 86 2d 82 b2 0b af 9d ad 8b 9f b4 af d8 30
       0.1649 0.0863 -0.2034 -0.11005 -0.0877 -0.007366 -0.12036 0.1514
0000e0 b5 25 b0 33 b8 33 80 b1 31 2d 18 32 99 2b 83 af
       0.0223 0.2402 0.2412 -0.1719 0.0811 0.1904 0.05936 -0.1174
0000f0 a6 b2 f9 aa ca 2d 73 ae a2 32 88 ad 51 b0 bf ab
       -0.2078 -0.05447 0.09045 -0.10077 0.2073 -0.0864 -0.1349 -0.06052
000100 c3 2d cf 32 7d 31 78 a3 1e 30 99 33 41 b2 ab b2
       0.09 0.2128 0.1715 -0.01459 0.1287 0.2374 -0.1954 -0.2084
000110 5c 2c 1f 2c c9 a7 17 b0 a9 b0 51 b3 8d ad 49 2c
       0.0681 0.0644 -0.03041 -0.1278 -0.1456 -0.2286 -0.08673 0.06696
000120 5d 33 6c a2 03 b0 32 32 fc 27 5c ab 52 1a 45 b2
       0.2301 -0.01254 -0.1254 0.1936 0.03119 -0.0575 0.003086 -0.1959
000130 26 b1 08 29 5e ad ab a3 ee b2 22 ac ce b2 67 30
       -0.1609 0.0393 -0.08386 -0.01498 -0.2166 -0.0646 -0.2126 0.1376
000140 66 33 43 ad 9c b0 ba ab 23 2d 4e a5 e4 a8 6a b3
       0.2312 -0.0822 -0.144 -0.06036 0.08026 -0.02072 -0.0382 -0.2317
000150 5d a9 d7 32 ba 31 53 ad f1 af f8 30 9b 31 0d b3
       -0.0419 0.2137 0.179 -0.0832 -0.1241 0.1553 0.1752 -0.2203
000160 68 ac c5 aa c0 31 d6 aa 84 af b1 a6 53 a9 73 a9
       -0.06885 -0.0529 0.1797 -0.0534 -0.11743 -0.02614 -0.0416 -0.04257
000170 fe 2d 43 ac 86 b0 07 b2 56 32 12 b0 c9 b1 e0 b2
       0.0936 -0.0666 -0.1414 -0.1884 0.198 -0.1272 -0.1808 -0.2148
000180 17 a9 de 30 57 ab 7a 2c d2 28 11 ae cb 2f f2 31
       -0.03976 0.1521 -0.05734 0.06995 0.03766 -0.0948 0.12177 0.1858
000190 3e b0 30 27 7c 30 a2 ad 3f 2d 1e 32 36 31 41 a5
       -0.1326 0.02808 0.1401 -0.088 0.082 0.1912 0.1628 -0.02052
0001a0 c1 1b 7e 1f 76 2b 0e 28 45 b0 ec 32 25 33 e4 b2
       0.003786 0.007317 0.0583 0.03168 -0.1334 0.2163 0.2233 -0.2153
0001b0 ea 33 94 2f 08 a8 f0 ac 31 32 2c 2c 51 32 fd 31
       0.2473 0.1184 -0.0315 -0.07715 0.1935 0.0652 0.1974 0.1871
0001c0 1d 32 7c a8 de 33 a6 b1 e0 25 24 29 9a 31 aa aa
       0.191 -0.03503 0.2458 -0.1765 0.02295 0.04016 0.175 -0.05206
0001d0 cd ae fb 23 6e ac 78 31 f3 b1 8a b1 e1 33 c1 2c
       -0.10626 0.01559 -0.0692 0.1709 -0.1859 -0.1731 0.2462 0.0743
0001e0 99 30 53 b1 09 2b 17 31 2b b0 be ad 3f 2f d9 32
       0.1437 -0.1664 0.05496 0.159 -0.1302 -0.0897 0.1132 0.214
0001f0 e1 33 9a b0 d3 31 a2 ac 01 33 46 ae cb ab 71 b1
       0.2462 -0.1438 0.182 -0.0724 0.2189 -0.098 -0.06088 -0.17

arith.constant45 f2 [1, 3, 1, 16]
000000 1a b8 16 b8 62 22 a5 34 eb b7 92 b6 99 33 0a 38
       -0.5127 -0.5107 0.01247 0.2903 -0.4949 -0.4106 0.2374 0.505
000010 e9 b6 e9 b4 1f b8 dd b0 f4 ae 78 b0 ed 37 53 b1
       -0.432 -0.307 -0.515 -0.152 -0.10864 -0.1396 0.4954 -0.1664
000020 9d b6 4d 2d 75 b5 74 36 4f b8 1a 35 ca b4 40 38
       -0.4133 0.0828 -0.341 0.4033 -0.5386 0.3188 -0.2993 0.5312
000030 25 38 03 35 74 b5 60 b5 b5 32 91 33 80 aa b4 2b
       0.518 0.3132 -0.3408 -0.336 0.2096 0.2365 -0.05078 0.06018
000040 07 38 e6 33 e3 b7 5e b8 0f 36 20 37 4f 2c bf 37
       0.5034 0.2468 -0.493 -0.546 0.3787 0.4453 0.0673 0.4841
000050 43 b2 55 38 db ae d6 36 ea 34 08 38 dd 31 51 31
       -0.1957 0.5415 -0.1071 0.4272 0.3071 0.504 0.1832 0.1661

arith.constant46 f2 [16, 1, 1, 16]
000000 d1 2c b0 b2 20 af 19 31 d0 30 88 ab 78 30 3d 9c
       0.07526 -0.209 -0.1113 0.1593 0.1504 -0.05884 0.1396 -0.00414
000010 b1 2e 2c b0 e5 30 7c 31 9f 31 38 33 a2 31 65 31
       0.10455 -0.1304 0.153 0.1714 0.1757 0.2256 0.176 0.1686
000020 21 2e 8f b0 d2 af bd 2c 26 b2 5d b1 0e 33 03 31
       0.09576 -0.1425 -0.1222 0.07404 -0.1921 -0.1676 0.2205 0.1566
000030 9f a4 d4 30 32 aa bb 2f 48 b2 bb 2d 98 af ba 30
       -0.01805 0.1509 -0.0484 0.1208 -0.1963 0.08954 -0.11865 0.1477
000040 ce 33 34 ac 74 b3 44 2a 6c 30 68 33 b0 ae d2 ab
       0.2439 -0.0657 -0.2329 0.04895 0.1382 0.2314 -0.1045 -0.0611
000050 94 20 90 b3 5e ae 91 33 56 aa 2a 33 85 a5 06 b2
       0.00894 -0.2363 -0.0995 0.2365 -0.0495 0.2239 -0.02156 -0.1882
000060 04 33 17 32 f6 b1 d2 33 54 33 f6 30 ee a8 50 33
       0.2192 0.1903 -0.1863 0.2444 0.229 0.155 -0.0385 0.2285
000070 a6 a5 b2 b0 46 a8 62 96 ce 32 36 b0 a6 2e 4a b2
       -0.02206 -0.1467 -0.0334 -0.001558 0.2126 -0.1316 0.1039 -0.1965
000080 2e b0 7c a4 b1 33 7c ab b4 aa f4 ac f5 a5 b3 2c
       -0.1306 -0.01752 0.2404 -0.05847 -0.05237 -0.0774 -0.02327 0.0734
000090 da 32 0a 30 6c 21 b9 af 0b b2 b4 b0 0b 87 58 ae
       0.2141 0.1262 0.01059 -0.12067 -0.1888 -0.147 -0.00010747 -0.0991
0000a0 be 2d 2c b0 90 ae f9 33 56 32 9e 2c 7a 9e ef 30
       0.0897 -0.1304 -0.10254 0.2491 0.198 0.07214 -0.006325 0.1542
0000b0 c3 af b8 b1 dc a9 e1 aa fb ac 1e 2d a7 ad b5 2f
       -0.1213 -0.1787 -0.04578 -0.05374 -0.0778 0.07996 -0.0883 0.1204
0000c0 db 24 fb 92 5a 31 5b 29 b1 2d 28 27 01 31 21 b2
       0.01897 -0.000852 0.1672 0.04184 0.0889 0.02795 0.1564 -0.1915
0000d0 bd 33 a5 b2 0f b1 11 2e c8 b2 2b ac 87 af 52 b3
       0.2418 -0.2076 -0.1581 0.0948 -0.2119 -0.0651 -0.1176 -0.2288
0000e0 f2 aa 88 b3 a5 32 38 a5 69 b3 89 2e a1 30 98 32
       -0.05426 -0.2354 0.2076 -0.02039 -0.2316 0.1021 0.1447 0.206
0000f0 5a a4 0e a8 1e 2f c0 31 ea a8 98 ae a5 b1 b1 b3
       -0.017 -0.03168 0.1112 0.1797 -0.0384 -0.103 -0.1764 -0.2404
000100 d7 b2 f7 ac c4 2f 52 33 49 32 0e 31 98 2c a9 b2
       -0.2137 -0.0776 0.12134 0.2288 0.1964 0.158 0.0718 -0.2081
000110 a6 b2 3a a9 a1 b2 5b 31 f5 2d 43 b0 34 b0 64 1b
       -0.2078 -0.04083 -0.2072 0.1674 0.0931 -0.1332 -0.1313 0.003609
000120 51 af cd b0 e4 b0 90 b3 d9 33 b3 b0 7e ae 70 af
       -0.1143 -0.15 -0.1528 -0.2363 0.2452 -0.1469 -0.10144 -0.1162
000130 5a 27 5e ae 57 2e cc a5 33 ac ab 26 ba a9 76 ae
       0.02872 -0.0995 0.09906 -0.02264 -0.0656 0.02605 -0.04474 -0.10095
000140 d5 af b0 ab a8 ab e0 b3 88 33 f3 b3 86 28 2d ad
       -0.1224 -0.06006 -0.0598 -0.2461 0.2354 -0.2484 0.03534 -0.0809
000150 e3 2e e9 94 1e af 64 2a d7 33 ff 28 c6 31 bb 2e
       0.1076 -0.001199 -0.1112 0.04993 0.245 0.03903 0.1804 0.10516
000160 d9 2e 82 32 9b b0 f2 2c 68 2e 20 b2 43 33 f6 b0
       0.107 0.2034 -0.1439 0.0773 0.1001 -0.1914 0.2269 -0.155
000170 7c b1 db b1 43 33 ea 2e 25 a4 5c ad 4a b3 3f 28
       -0.1714 -0.183 0.2269 0.10803 -0.01619 -0.08374 -0.2278 0.03317
000180 eb 32 88 33 70 32 dd 2f 2d 2d 5d 29 7f 32 07 31
       0.2162 0.2354 0.2012 0.12286 0.0809 0.0419 0.203 0.1571
000190 00 b3 96 1c 69 20 49 ad a8 ae 9c b0 e5 30 6e b1
       -0.2188 0.00448 0.00861 -0.0826 -0.104 -0.144 0.153 -0.1697
0001a0 96 31 4c 25 9e 2e e0 26 c0 aa c4 b0 b5 aa db aa
       0.1746 0.02069 0.1034 0.02686 -0.05273 -0.1489 -0.0524 -0.05356
0001b0 4f b1 a8 ae 82 30 4b a6 89 af e6 26 cf af c7 af
       -0.1659 -0.104 0.1409 -0.02458 -0.11774 0.02695 -0.122 -0.1215
0001c0 ab 2f 49 a0 f1 26 4b 30 3c b0 0f 23 bd 2f e7 2f
       0.1198 -0.00837 0.02711 0.1342 -0.1323 0.01379 0.1209 0.1235
0001d0 cd 31 f7 a8 0c a9 29 30 33 b1 53 30 2c b3 21 a7
       0.1813 -0.0388 -0.03943 0.13 -0.1625 0.1351 -0.2241 -0.02785
0001e0 ed ae 04 30 2b 33 9f b2 93 b0 93 b0 17 aa eb ab
       -0.1082 0.1255 0.224 -0.2069 -0.143 -0.143 -0.04758 -0.06186
0001f0 29 2f 6e 2f 78 ab 90 b0 3f a9 3c 32 b0 2c 10 32
       0.1119 0.1161 -0.05835 -0.1426 -0.041 0.1948 0.07324 0.1895

arith.constant47 f2 [16, 1, 1, 16]
000000 75 af 62 b2 74 b0 89 af be 2d 63 2c 91 2f 1d 2f
       -0.1165 -0.1995 -0.1392 -0.11774 0.0897 0.06854 0.1182 0.11115
000010 ba 33 af a7 2c a9 22 27 35 a9 3a a1 37 33 30 af
       0.2415 -0.03001 -0.0404 0.02786 -0.04068 -0.01021 0.2255 -0.1123
000020 f3 30 30 ad 71 ae c3 a6 4b a7 9d 2b 5a 33 c0 b0
       0.1547 -0.08105 -0.10065 -0.02641 -0.02849 0.05948 0.2297 -0.1484
000030 1d b0 be ab f7 b0 58 ad 95 b0 18 b1 a2 30 26 a8
       -0.1285 -0.0605 -0.1552 -0.0835 -0.1432 -0.1592 0.1448 -0.0324
000040 81 b0 ed 31 98 28 14 2d 89 31 7a a6 e3 27 34 a4
       -0.1407 0.1852 0.0359 0.07935 0.173 -0.0253 0.0308 -0.01642
000050 3a ac ec af 94 a9 47 28 21 ae e4 af c5 b0 19 30
       -0.06604 -0.1238 -0.04358 0.03342 -0.09576 -0.1233 -0.149 0.128
000060 90 a8 06 31 1d ad aa 9e 65 24 db b3 60 30 70 aa
       -0.03564 0.157 -0.0799 -0.006508 0.01717 -0.2455 0.1367 -0.0503
000070 c2 aa 31 32 89 2d 70 31 90 33 a6 2a be ad f6 32
       -0.0528 0.1935 0.0865 0.1699 0.2363 0.05194 -0.0897 0.2175
000080 8d ae f9 a7 9d 30 0e b2 ec 9e 5a 2f 2e 32 c7 a5
       -0.10236 -0.03114 0.1442 -0.1892 -0.00676 0.11487 0.1931 -0.02257
000090 75 b0 3e b0 31 32 4b 31 ae 2e d5 b2 2b b1 be 2a
       -0.1393 -0.1326 0.1935 0.1654 0.1044 -0.2135 -0.1615 0.05267
0000a0 50 32 e0 b1 ed 30 2b 30 6c 2e 26 a4 2e b2 8a b1
       0.1973 -0.1836 0.1539 0.1302 0.10034 -0.0162 -0.1931 -0.1731
0000b0 6f 24 58 33 16 2f 5d 32 8f 32 04 2c 07 33 85 30
       0.01732 0.2295 0.1107 0.1989 0.205 0.06274 0.2196 0.1412
0000c0 bc ae b0 ab 07 30 a6 b3 03 ac c4 33 87 b3 84 ac
       -0.1052 -0.06006 0.1259 -0.239 -0.0627 0.2427 -0.2352 -0.07056
0000d0 42 32 9d aa 47 b0 96 33 19 b3 1f 33 08 30 f9 ad
       0.1956 -0.05167 -0.1337 0.237 -0.2218 0.2225 0.126 -0.0933
0000e0 5f 29 c4 30 8d 2d 4e b1 cf 2a 10 ae 36 2a 4a b1
       0.04196 0.1489 0.08673 -0.1658 0.0532 -0.0947 0.04852 -0.1653
0000f0 54 33 eb b2 d0 2d 0e 97 2f ad e5 a5 1b b2 99 30
       0.229 -0.2162 0.0908 -0.001722 -0.081 -0.02303 -0.1908 0.1437
000100 1c 24 c4 2a ac 2e bd 2c 7b b1 80 af 00 9d 7e 32
       0.01605 0.05286 0.10425 0.07404 -0.1713 -0.1172 -0.004883 0.2029
000110 65 2d 61 33 44 2a 22 2d 0a 2d 0d b3 18 32 a3 27
       0.0843 0.2306 0.04895 0.0802 0.07874 -0.2203 0.1904 0.02983
000120 24 ac 9d aa ae 30 42 31 03 31 ea a5 d3 2d 68 33
       -0.0647 -0.05167 0.1462 0.1643 0.1566 -0.0231 0.091 0.2314
000130 20 32 13 b0 c4 31 68 ac 79 ae 0f 31 a3 33 9b 2d
       0.1914 -0.1273 0.1802 -0.06885 -0.10114 0.1581 0.2386 0.0876
000140 5d 2f df b3 d2 ac 25 31 63 29 94 33 c7 b3 ae ad
       0.11505 -0.246 -0.0753 0.1608 0.04208 0.2368 -0.243 -0.08875
000150 17 b3 c1 b2 54 aa f6 33 9d 32 38 a8 9b b3 32 a7
       -0.2216 -0.211 -0.04944 0.2488 0.2067 -0.03296 -0.2377 -0.0281
000160 34 2d c9 2d cb b2 14 b2 fa b3 9d b3 51 29 77 ab
       0.0813 0.0904 -0.2123 -0.19 -0.2493 -0.2379 0.04153 -0.05832
000170 05 b1 0d b2 1d aa b3 a5 1f b2 9e 2e 40 a7 63 31
       -0.1569 -0.1891 -0.04776 -0.02226 -0.1913 0.1034 -0.02832 0.1683
000180 00 2c c3 2e 21 b3 71 2d 50 b2 6b ae f6 a4 41 33
       0.0625 0.10565 -0.2228 0.085 -0.1973 -0.1003 -0.01938 0.2267
000190 e5 32 7d 2f f5 b2 a3 b0 c4 b2 61 b2 05 31 07 af
       0.2155 0.117 -0.2174 -0.1449 -0.2114 -0.1993 0.1569 -0.1098
0001a0 92 ad 28 ae 41 ac b9 2b b4 ad fe 30 2c a7 76 b3
       -0.08704 -0.0962 -0.06647 0.06033 -0.0891 0.156 -0.02802 -0.2332
0001b0 91 a3 c4 b1 d3 ae 73 b0 1a b0 eb 31 c1 b2 e3 ac
       -0.01478 -0.1802 -0.1066 -0.139 -0.1282 0.1849 -0.211 -0.07635
0001c0 b4 2d 25 2b 14 aa d6 2d 04 b2 be 33 82 2c 2b 28
       0.0891 0.05582 -0.0475 0.0912 -0.188 0.242 0.07043 0.03256
0001d0 4d af e6 b1 45 b0 f9 ae 05 27 51 2e 3e 33 2e a8
       -0.1141 -0.1843 -0.1334 -0.10895 0.02742 0.0987 0.2263 -0.03265
0001e0 09 aa 20 a6 fd 2e 25 b1 42 b0 76 31 6c b0 53 ad
       -0.04715 -0.02393 0.1092 -0.1608 -0.133 0.1707 -0.1382 -0.0832
0001f0 fb 31 01 ae 92 b2 cd ad 5e 20 ab 33 53 98 4c b1
       0.1869 -0.0938 -0.2053 -0.09064 0.00853 0.2396 -0.002111 -0.1655

arith.constant48 f2 [1, 3, 1, 16]
000000 4e 37 22 b7 a3 34 f6 b4 36 b4 70 a8 82 b0 5b 31
       0.4565 -0.4458 0.2898 -0.31 -0.2632 -0.03467 -0.1409 0.1674
000010 db b3 f8 b1 f8 37 67 35 05 af 22 b2 fa b6 fa a8
       -0.2455 -0.1865 0.498 0.3376 -0.1097 -0.1917 -0.436 -0.03888
000020 37 ac 7d 38 e3 b0 25 b8 3e 38 8a 37 f0 ad c9 b1
       -0.06586 0.561 -0.1527 -0.518 0.5303 0.4712 -0.0928 -0.1808
000030 2e a5 a8 36 75 31 b0 28 2a b5 6d 37 9c 34 ab b2
       -0.02023 0.416 0.1705 0.03662 -0.3228 0.464 0.288 -0.2084
000040 97 36 df b7 bc 33 b8 26 52 32 b5 b2 f7 b1 f2 35
       0.4119 -0.492 0.2417 0.02625 0.1975 -0.2096 -0.1864 0.3716
000050 c9 32 15 b1 42 b8 3a ae e6 2c 84 b5 5e b7 94 b7
       0.212 -0.1588 -0.532 -0.0973 0.07654 -0.3447 -0.4604 -0.4736
