gtcrn_micro/models/tflite/gtcrn_micro_dynamic_range_quant.tflite (tflite, 115856 bytes, 72 tensors)

arith.constant11 f4 [16]
00000000: abff 7f3f abff 7f3f abff 7f3f abff 7f3f
00000010: abff 7f3f abff 7f3f abff 7f3f abff 7f3f
00000020: abff 7f3f abff 7f3f abff 7f3f abff 7f3f
00000030: abff 7f3f abff 7f3f abff 7f3f abff 7f3f
0.99999493 0.99999493 0.99999493 0.99999493 0.99999493 0.99999493 0.99999493 0.99999493
0.99999493 0.99999493 0.99999493 0.99999493 0.99999493 0.99999493 0.99999493 0.99999493

arith.constant12 f4 [2]
00000000: acff 7f3f acff 7f3f
0.999995 0.999995

arith.constant29 f4 [16, 1, 5, 3]
00000000: dec7 02be d1ac 37bd 70d0 29bd b1b1 433d
00000010: 5eff 723e e18e 5a3e e089 d63d 260b 703e
00000020: ee7f 98bd d749 00be 12c9 653e 6f51 d9bd
00000030: 0183 053e 4c61 0f3e 212a 343d c8e8 653e
00000040: 6818 833e bab7 7dbe eca2 95bd ff04 a3bb
00000050: 592d 24be 1160 583e a4fb 17be 2ae3 4c3d
00000060: c868 41be ddb6 723d b515 b73c 6fcf 5cbe
00000070: af1a fbbd 7b92 8a3c ecee b53d bef1 9dba
00000080: 299d 82be f35a f8bd e73e c73d 1725 bfbc
00000090: 36ea 3b3c 0214 3bbe f4f9 2c3e 210f fc3c
000000a0: be12 a2bd 996c fc3d aa7b d4bd 64d4 6b3e
000000b0: afba 0d3e b7b3 34be f315 ce3d 2ce4 dabc
000000c0: fb35 05be 6219 723e 54da a33c 3b3c 023e
000000d0: 4f94 5fbd a274 b4bd 4c4d 29be d51e aa3d
000000e0: 0148 a1bd 95d7 c83d 61f9 16be 3c4d a73c
000000f0: 8f3c 1f3d 453c 9abd 5317 4f3e d93e 6c3d
00000100: 02b0 4f3e 0686 833e 7434 123e aa33 7fbe
00000110: b097 d0bd c22a 673e b6d9 2f3e c817 2cbe
00000120: 78ac 7c3d 75d4 11be c6d9 633d 9e76 413e
00000130: 8302 c6bc 7de6 3c3e 9b8e 4cba da0e b83d
00000140: e148 303e 06eb 81be 9b2c 40be 6144 1fbe
00000150: 708a 8e3d d22a 7f3e d3e4 993b cc73 4d3e
00000160: 9736 bcbd 4fca 823e 8575 423e 0437 64bd
00000170: d5c0 0d3d 6f23 943d 68e4 fe3c 11c6 bbbd
00000180: 7cd7 3d3e f430 8ebb 5198 223e afdd 8c3d
00000190: 87c4 683e 100b 21be 827c 4f3e 2f5d 38be
000001a0: c4a4 a7bc de40 4d3e 2fbc 653d bcdb 15be
000001b0: a388 173c 4957 15be 7979 c43c da1c 393e
000001c0: fe88 0bbd b9e6 793e f7b1 753b e109 463e
000001d0: 80c9 50be c72a 76be 29be 1cbe 0ffd 113e
000001e0: 45b0 6ebc e45e 80be 16d2 4e3e c7c7 4cbe
000001f0: e67a 51be 9e28 48be 138e 1b3c cb0d b0bd
00000200: fa60 393c f781 1dbe 8e2f 053e 57c5 f7bb
00000210: 2e0a 6dbd 286f 543e d37a 7d3e 6ad5 1abe
00000220: 17ad 423e f63d 64be 2fe0 1a3e 9cab 07be
00000230: 3e50 41be 2c4c 6abe ba20 24be 8438 54bd
00000240: af93 7ebd c550 813e ae2d 59be aef7 83be
00000250: 9c87 98bc 6912 893d aa3f 1cbe 7792 48bc
00000260: 0a9f 4fbe 4fa9 89bd f25a f73d 0052 dabd
00000270: 1ea1 6b3e d2e6 db3d 93eb e83c 349b 713d
00000280: 8695 77be 3316 0ebe 2e6c 463e 61d1 09bd
00000290: feec 833e feb3 223e a033 b7bd d5c3 92bd
000002a0: eae6 c4bd 8e1b 5e3e 3182 b03c f0a8 89bd
000002b0: fd47 f93c d4e1 b2bd fedd 56bd 2dbb 5c3e
000002c0: f657 d73d afb8 1bbe 5d29 803e ad7d 843d
000002d0: ebd3 14be 58f9 233e 30e1 bf3d 36e3 7dbd
000002e0: b99a ac3d d4b2 27be 030d 5c3e 9ad9 4c3e
000002f0: 3632 283e fca6 d03d 7837 cfbb 359b 20be
00000300: 08e3 833d ad24 c6bd a370 393e e5a0 8c3d
00000310: d3f1 293e 0b8d 173e 08ac ca3b 63de 543e
00000320: be40 523d 6b78 68bd b217 043e 7888 71be
00000330: cfa0 cc3c 4773 c43d 44cd ab3d d5a5 7dbe
00000340: da5f 513e e75c 79bd ff79 733e 87f6 c63d
00000350: beb7 31be 28d4 1f3d 5c85 2e3e c7bd 48bd
00000360: 39b0 ef3d 1e84 4d3e 2838 3fbe 8cf9 523e
00000370: 8f44 80be 5703 08be af0b 05bd a78c 68be
00000380: cbeb c53d a5de 4dbe 9dd9 2ebe d65f 513e
00000390: 5e7b f93d 2132 263e 1744 18be 6cf6 5f3d
000003a0: d430 35be b142 233e 80a1 a5bd 5810 46be
000003b0: 22dd 803e 8750 313d 5213 203e e37f 683e
-0.12771556 -0.044842545 -0.041458547 0.04777688 0.23730227 0.21343566 0.10475516 0.23441753
-0.07446276 -0.12528168 0.22439983 -0.10611235 0.13038255 0.1400196 0.04398549 0.2245208
0.25604558 -0.24777117 -0.073064655 -0.004974961 -0.16032924 0.21130396 -0.14842087 0.050021328
-0.18887627 0.059256423 0.022349218 -0.21563505 -0.12260949 0.01691555 0.08883461 -0.0012050194
-0.2551053 -0.12126722 0.097287945 -0.023333116 0.011469414 -0.18269351 0.16892225 0.030768933
-0.07913731 0.12325401 -0.103751495 0.2303024 0.13840745 -0.17646681 0.1006278 -0.026720129
-0.13008873 0.23642495 0.020001568 0.12718289 -0.054584797 -0.088113084 -0.16533393 0.08306662
-0.07875062 0.09806744 -0.14743568 0.02042257 0.038876113 -0.07531027 0.20223741 0.057677124
0.20281985 0.2568819 0.14277822 -0.24922052 -0.10185182 0.22574905 0.17172894 -0.16805947
0.061687917 -0.14241202 0.055627607 0.18892905 -0.02417112 0.184473 -0.00078032323 0.08987208
0.17215301 -0.2537462 -0.18767016 -0.15553428 0.069599986 0.24918678 0.0046964674 0.20063704
-0.091901 0.25544974 0.18990143 -0.05571653 0.034607727 0.07233321 0.031114772 -0.091686375
0.18539232 -0.0043393318 0.15878417 0.0687822 0.22731219 -0.15726876 0.2026234 -0.18004297
-0.020464309 0.20044276 0.05608767 -0.14634603 0.009248885 -0.14584078 0.023983704 0.18077412
-0.034066193 0.2440442 0.0037490109 0.19339706 -0.20389366 -0.24039756 -0.15306915 0.1425669
-0.014568393 -0.25072396 0.20197329 -0.19998084 -0.20457038 -0.19546744 0.009494322 -0.08596381
0.011314625 -0.15381609 0.13006422 -0.0075613665 -0.057871036 0.20745528 0.24753885 -0.15120474
0.19011341 -0.22289261 0.15124582 -0.13249058 -0.18878266 -0.2288062 -0.16028109 -0.05181171
-0.06215256 0.25256935 -0.21208832 -0.25774902 -0.018619351 0.066929646 -0.15258661 -0.012241951
-0.20275512 -0.06721746 0.12077893 -0.106601715 0.2301068 0.10737385 0.028432643 0.058985904
-0.24178132 -0.13875656 0.19377205 -0.033646945 0.25766748 0.15888974 -0.089453936 -0.07166258
-0.09614356 0.21690199 0.021546455 -0.067216754 0.030429834 -0.087344795 -0.052457802 0.21555777
0.10514824 -0.1520717 0.25031558 0.06469283 -0.14533965 0.16013086 0.09369123 -0.061984263
0.084279485 -0.16376811 0.21489339 0.20004883 0.16425404 0.101881 -0.006323751 -0.15684207
0.06439787 -0.09674964 0.18109374 0.06866626 0.16596155 0.14799897 0.0061850585 0.20787959
0.051331274 -0.056755465 0.12899664 -0.23587215 0.024979023 0.095923 0.08388761 -0.24770291
0.2044672 -0.060879614 0.23777007 0.0971499 -0.17355248 0.039020687 0.1704306 -0.04900911
0.11703534 0.2006993 -0.18673766 0.20603007 -0.25052306 -0.13282524 -0.032481845 -0.22709905
0.096641146 -0.20104463 -0.170752 0.20446715 0.121817335 0.1623006 -0.14869724 0.054678366
-0.17694408 0.1594341 -0.08087444 -0.19342172 0.2516871 0.043289687 0.1563237 0.22705035

arith.constant30 f4 [16, 1, 1, 8]
00000000: 9432 793e c17f 4e3e 4d77 903e c247 96be
00000010: 9cc2 913e b93a 153e 08e9 f43d 8797 32bd
00000020: 3af0 a43e 21c6 83bc 2149 88be 03a0 8d3c
00000030: 04b7 5e3d 5420 febb 2905 0cbe e01b 46bd
00000040: 9470 a5be b97e 85be d60a 863d 519e a73e
00000050: 3281 ab3e c459 97bd 559f b4be 7199 b43e
00000060: 9575 003e a7f4 e3bd 6b54 bc3c 69c7 3c3e
00000070: 1a90 6fbe 1088 68bd 2fe9 81bc f9b7 903e
00000080: fd3c 643e fada 4cbe 2e98 52be 18d5 3b3e
00000090: 6a64 96be bed5 34be 4bb1 f5bd b108 28be
000000a0: fbad 29be aedc 98be d704 babc 3b14 93be
000000b0: 6a1d 733e 4212 e2bd 350b 0fbe 6847 09be
000000c0: 3dea 2b3d 4b56 8a3c fff3 c73c ae78 1a3e
000000d0: 5f36 9d3e bde1 413d 2da0 453c 12d7 53be
000000e0: e691 78be fbcc 8d3e a48a 7a3e 7a98 debd
000000f0: 5598 083e ffe0 56be db30 29be 1ae9 e6bd
00000100: d4ac c3bd 6800 79be 74dc 9a3e f827 283e
00000110: 0e00 09be 2c99 a83e 87e6 883e a385 003e
00000120: bc75 d5bd e6ef 093d de98 9f3d 73a2 98be
00000130: 15b0 09be f44a b33e d506 9e3e 64c0 53be
00000140: 64e4 99bd 846e 87be a8ee 1c3e fa95 1bbd
00000150: 7553 bebd 3aa8 533e ce78 753e c52c 44bc
00000160: f70d 6b3e c587 003d 4ae3 aabe 8527 293e
00000170: 08bb 6c3e cfa0 633e 3c66 93be fbfc 643d
00000180: 6a60 23be 967d 193e 8561 883e aae7 d53c
00000190: 8159 903d 2197 54bd 9b56 a1bd e1e3 453c
000001a0: aad1 f93d 2277 52be 41ef b8bd 2a4b 5a3d
000001b0: b860 993e 28df e63d 88d5 4dbe bf30 9fbe
000001c0: b628 983e c2d2 04be dedf 493e 4807 b2bc
000001d0: 8695 083e 4f72 ad3e 47ed 883e 6c93 69be
000001e0: 3b73 17be de89 9cbe 7018 9dbe 06e8 2fbe
000001f0: e021 353e 92e1 08be f985 a0be 0618 403c
0.243357 0.20165922 0.2821602 -0.29351622 0.28468788 0.14573182 0.1195851 -0.04360154
0.32214528 -0.016085686 -0.26618293 0.017288214 0.054373756 -0.0077553187 -0.13673843 -0.048366427
-0.32312453 -0.26073244 0.065450355 0.32737973 0.33497006 -0.07390168 -0.3527781 0.35273317
0.12544854 -0.11130648 0.022989472 0.18435444 -0.23394814 -0.056770384 -0.01585826 0.2826536
0.2228889 -0.20005408 -0.20565864 0.18343008 -0.29373485 -0.17659661 -0.119967066 -0.16409566
-0.16570275 -0.29855865 -0.022707386 -0.28726372 0.2374169 -0.11038639 -0.13969119 -0.13406146
0.041971434 0.01688685 0.024408339 0.15085098 0.30705544 0.04733442 0.012062115 -0.20687512
-0.24274406 0.2769545 0.2446695 -0.10868926 0.1333936 -0.20984267 -0.16522543 -0.11274929
-0.09554449 -0.24316561 0.30246317 0.16421497 -0.13378927 0.3292936 0.26738378 0.12550978
-0.10422847 0.03367605 0.07792829 -0.2981144 -0.13446076 0.35018122 0.30864587 -0.2067886
-0.07514265 -0.26451504 0.15325415 -0.037984826 -0.09293262 0.20669642 0.23971865 -0.0119735645
0.22954546 0.03137948 -0.33376533 0.16518982 0.23118222 0.22229312 -0.28788936 0.055905323
-0.15954748 0.14989313 0.26636901 0.026111443 0.070483215 -0.05190194 -0.07877847 0.012078256
0.12198193 -0.20553258 -0.09030009 0.05329434 0.29956603 0.112730324 -0.20100987 -0.31091878
0.2971856 -0.12971023 0.19714305 -0.021731988 0.13338289 0.33876273 0.26743528 -0.22810143
-0.1479005 -0.30573934 -0.30682707 -0.17178354 0.17688704 -0.13367298 -0.31352213 0.011724478

arith.constant31 f4 [1, 3, 3, 16]
00000000: c188 a23e df7b 9d3e 059d 25be 2436 d7bd
00000010: bb20 52bc d313 6a3d 5a57 553e 5ae0 a33e
00000020: 9713 ae3d d6aa 8dbe e8d4 ca3c 62c0 1fbd
00000030: 4112 0a3e 8640 a4be 44f2 78be 11bf 003e
00000040: e2fd 853e b443 e63a e5d2 6dbe e4bf 1e3e
00000050: 2826 433e 3c91 78be 7c92 0fbe d495 49bd
00000060: 404b 24bd 20d1 413d 6b32 9cbe a759 f13d
00000070: d45f 173e e799 aa3e d0d2 813e 4c2f 313e
00000080: 9f65 a83e d3f8 39be 7df0 0bbb bb1b 39be
00000090: b58e a03e ead2 773e 50f2 e5bd 9dca 163e
000000a0: 3bf5 72bd 337a 393e d30f 3a3e 33f1 32be
000000b0: 9396 8abc 06ec 8c3e 17e0 ffbc e9d0 48be
000000c0: 07e9 9abe c16f 27be 3843 2bbe b100 f23c
000000d0: 83e6 2abe 7cc8 8f3d 48d1 433e ed92 8abe
000000e0: baa2 36be 5d46 cb3d 8ff9 8f3e 126f 4ebc
000000f0: 6c87 93be 48c9 813e 00dd 3c3e 71e7 2f3d
00000100: a228 bd3d d538 84bc b688 08be 6308 853e
00000110: d544 833b 93ae a63e f408 91be 6817 a83e
00000120: 94be 1f3e 63db 1bbe df4d 053e 58a0 25be
00000130: ac91 8e3e c93b 98be ad09 a83e b169 193e
00000140: 8694 8cbe 2483 79be 2d78 4c3e 4636 4a3e
00000150: abe1 033e ec5b a73e df38 c63d 915f 2f3d
00000160: 9879 5a3d fe48 993e e626 81be 8b42 93be
00000170: b630 123e 0d30 5dbc b92f 90be 552b 0c3e
00000180: b080 a9be 3166 a53e b555 0d3e 488d fd3d
00000190: f710 573e c402 283e d1a4 803e e54e c63d
000001a0: 9520 883e 2da5 eebd 51c0 903c be65 483c
000001b0: 4f20 853e 4c3f 93be 89f6 eabc cc2e 60bd
000001c0: 9179 983e 1d22 bdbd 27b0 703e 8385 4cbe
000001d0: 251f 9a3e 3b50 913d d9c9 8d3e b7bf a0be
000001e0: 863e 923d eaf8 55be 6bb8 8dbe d773 58be
000001f0: 336f 9fbe 10bb 56bd 16d2 5b3e d9b4 693e
00000200: d782 9d3e 13cf 11be e7ab 1d3e f583 04be
00000210: ef8a 9dbe 45c8 b4bd de39 3b3e 331c a23e
00000220: 6448 80be 6698 513b a6f1 38be a074 8b3e
00000230: b0ff 653e 0518 8a3e 062d 00be 786f ed3d
0.3174496 0.3075857 -0.1617318 -0.105083734 -0.012825186 0.057147812 0.20834103 0.32007104
0.0849983 -0.276694 0.024759725 -0.03900183 0.13483526 -0.32080477 -0.24311167 0.12572886
0.2617026 0.0017567785 -0.23224981 0.15502888 0.19057524 -0.24274153 -0.14020723 -0.049215153
-0.040110826 0.047318578 -0.30507216 0.11784678 0.1478265 0.33320543 0.2535615 0.17303199
0.3289003 -0.18161325 -0.002135306 -0.18076985 0.31358877 0.24201551 -0.11227858 0.14725728
-0.0593159 0.18113022 0.18170099 -0.17474823 -0.016917503 0.27523822 -0.031234784 -0.19610943
-0.3025591 -0.16351224 -0.1672486 0.029541345 -0.16689496 0.07020661 0.19122803 -0.2706522
-0.17835513 0.0992553 0.28120086 -0.012599723 -0.28814256 0.25348878 0.1844368 0.04294533
0.09236266 -0.01614038 -0.13333401 0.2598296 0.004006008 0.32555065 -0.28327143 0.32830358
0.15600044 -0.15220408 0.13017987 -0.16174448 0.27845514 -0.29733112 0.32819882 0.14981724
-0.27457064 -0.24366432 0.19967718 0.19747266 0.12879054 0.32687318 0.09678816 0.04281575
0.053338617 0.299385 -0.2522499 -0.28761706 0.14276394 -0.013500226 -0.2816141 0.13688405
-0.33105993 0.32304528 0.13802226 0.12380463 0.21002565 0.16407305 0.25125745 0.09683017
0.26587358 -0.116525985 0.017669829 0.0122312885 0.26001212 -0.2875923 -0.02868201 -0.05473213
0.29780248 -0.09235022 0.23504697 -0.19972806 0.30101886 0.07095381 0.2769306 -0.31396267
0.07140832 -0.20895734 -0.27679762 -0.2113794 -0.31139526 -0.05242449 0.2146686 0.22822894
0.30763885 -0.14239149 0.15397607 -0.12940963 -0.3077006 -0.08827261 0.18283793 0.3166214
-0.2505523 0.0031981706 -0.18060932 0.27237415 0.22460818 0.2697145 -0.12517175 0.115935266

arith.constant32 f4 [8, 1, 1, 16]
00000000: 28d3 dc3c 9483 e6bd 716b 0fbe adf5 193d
00000010: 72ca a53d 85d2 b3bb 7e86 983d b4e7 ffbd
00000020: f4ec 24be 1728 c73d ff9b aebd 879e 4cbe
00000030: d64f 803c 9bdb c4bd 1156 09be 39d3 0fbe
00000040: 14a8 923d 6a43 56be 0906 41bd 79da d7bc
00000050: b005 e93d b189 273e 599b 4c3e a1f7 3a3e
00000060: 9c50 5bbe 019a 4d3e 2cf5 05be 23cd 533e
00000070: c107 233e e13e 0abe e274 ee3c 72f3 723e
00000080: 6229 44be 2282 54bd f5cf 63bc 411f 653e
00000090: aca0 dcbd 7eb0 123e b885 d0bd 253c 463e
000000a0: bc95 61be ec82 cebd 2a4b 0cbd ada8 f0bd
000000b0: 1e16 69be 6b2a 2d3e fcb5 04bd b29b 41be
000000c0: d05d 113b 8529 273e 552d 35bd ac7d a9bd
000000d0: 9423 6d3e b30f 47be 1040 623e d616 50be
000000e0: 0738 033e 2657 17bd fccd 683d edb2 34be
000000f0: bcd7 cd3a 9c02 dabd c5dd 01be 4f42 963b
00000100: f0b9 13bc 51ad 333e f517 04bd fde2 073e
00000110: d006 50be 9d96 0e3e 8fe0 14be c876 1fbe
00000120: b790 4dbe 45fb 0d3e b5ad 523e ffd1 583e
00000130: 7676 803c db26 343e e9e8 19be 74a6 1ebe
00000140: 1595 bf3d e4f1 123e 5561 3abe 9580 4bbd
00000150: 04a0 863c 28ff abbc 0a4d 3ebe dfe9 89bd
00000160: 137d 89bd 9a88 50be f9af d83b bae4 5bbe
00000170: 5166 403d bce8 84bd f345 573e 7bc7 57be
00000180: 0de1 1c3d 82bf 3d3c 82cd 8c3d ede7 633e
00000190: f92d 7dbe 5c81 6ebe a5b9 5fbe a4a9 b73d
000001a0: 57a1 ebbd ff62 453c bde4 9cbd e316 52be
000001b0: 2b32 69be ff19 5e3e 2e85 803d 8360 21bd
000001c0: dbf8 d0bc d8ca 933d afe7 c63c 7905 713e
000001d0: bbcc 6bbe f05c f3bd ccd6 31be 429e 3d3c
000001e0: a935 653e 7b8e 3abd fe2b 383e a343 c6bd
000001f0: 824f f93d efc1 0f3e fb4f d1bb 4669 7f3e
0.026956156 -0.11255565 -0.1400583 0.03758781 0.08095254 -0.0054877424 0.07447527 -0.12495366
-0.16106015 0.097244434 -0.08525848 -0.19982348 0.015663069 -0.09612199 -0.13411738 -0.14045419
0.071609646 -0.20924154 -0.047124896 -0.026349293 0.11378038 0.16361119 0.19981135 0.18258525
-0.21417469 0.20078279 -0.13081807 0.20683722 0.15920927 -0.13500549 0.029108468 0.2372568
-0.19156411 -0.051881917 -0.013904561 0.22375204 -0.10772833 0.14325139 -0.10181755 0.19358881
-0.22029775 -0.10083565 -0.03425137 -0.11750922 -0.22762343 0.16910712 -0.032400116 -0.1890705
0.002218116 0.16324432 -0.044232685 -0.08275923 0.23158103 -0.19439583 0.2209475 -0.20321211
0.12814341 -0.036948346 0.056837067 -0.1764638 0.0015704553 -0.10645029 -0.12682255 0.0045855413
-0.009016499 0.17546584 -0.03224941 0.13270183 -0.20315099 0.13924642 -0.14538787 -0.15572655
-0.20074736 0.13865383 0.20574076 0.21173857 0.015681487 0.17592947 -0.15030254 -0.15493184
0.09354607 0.14350086 -0.18201192 -0.049683172 0.016433723 -0.020995691 -0.18584076 -0.067340605
-0.06713309 -0.2036461 0.0066127745 -0.21473971 0.046972577 -0.06489703 0.21022777 -0.2107219
0.038300563 0.011581304 0.06875135 0.22256441 -0.24724568 -0.23291534 -0.21848162 0.08967903
-0.115053825 0.012047528 -0.07660816 -0.20516543 -0.22773044 0.21689604 0.06275402 -0.03939868
-0.025509289 0.07216424 0.024280397 0.23537244 -0.23027317 -0.11882961 -0.17367095 0.011573376
0.22383751 -0.045546036 0.17985532 -0.096808694 0.12173368 0.14038824 -0.0063877082 0.24942502

arith.constant33 f4 [16, 1, 1, 8]
00000000: 990c 693c 3fc0 b4be 0cd0 7a3e fe22 33be
00000010: dbda e23d 0ed6 a53e 2a5f 93be fe9b 8c3e
00000020: aec6 6abe 9ff9 a53e 4256 2e3e 8cd8 86be
00000030: 7051 da3c 5c61 4e3e 0c85 50be 3217 38bd
00000040: 1709 a0be 92ee 113e 6105 633e 7ba5 acbe
00000050: d86c b23e 4d25 f33d 79dd 083e 1b46 e03d
00000060: 5647 db3c d9ba 26be 0e73 83be b83a 03be
00000070: b855 9ebc 9f2c e5bd 21bc 833e 5264 91bd
00000080: 2681 2cbe c9c9 0b3c ea89 90be 3cd7 e1bc
00000090: 473d acbe 2c2e 68bd 1798 7e3e 6795 a0be
000000a0: 97d9 3a3d b9f3 bbbc c97d 9b3e 575f ac3e
000000b0: 64c0 b1bd 8c6c 8dbd dd95 adbe b16f 8c3e
000000c0: 6826 183e d354 71be 28db 213e 16e8 ab3e
000000d0: ce0d 963d 2300 383e 4ff8 543d dd3b bd3d
000000e0: 33f5 823d 75f9 f3bd f1fd 1fbd 81be 31be
000000f0: cb5d e43d 879a 923e 7c7e 69be d6b3 553e
00000100: c026 923e 5fa4 2ebe 66ae 5e3e b6d4 17bd
00000110: daeb 38bc 9986 01be 9ce7 973e 7c6c 04be
00000120: 4132 a43e db06 3bbe 50a9 033d b075 243e
00000130: d029 873e 59bc 233e 4c87 63be 6e73 c5bd
00000140: ddac 153d 131f 2cbe da1d b13e 36c4 61be
00000150: c0ff 87be 8d1a 753e cda6 84be 8f86 7cbc
00000160: bab0 81bd 8427 923e 2e49 45be 30da 89be
00000170: 213c 9b3d 9df5 b9bd 7a6b 35be 40ee 98bd
00000180: 2124 913d f25f b0bd c23b 793e b7d2 443d
00000190: c535 a83e f3cc 70bd 43e7 c5bd 73c5 a73e
000001a0: b8ea ef3d afc4 79be e0fa 403e 582a 0a3e
000001b0: ebd7 acbe 9049 c1bd 3a93 8fbe 1497 29bc
000001c0: ba0e 30be 1a3b 86be 7a32 59be aab0 43be
000001d0: 8e7b 82bb 2bfa 93bd ac3b 70be 80b9 fe3c
000001e0: f085 213e 3718 80be 13e2 2cbe 037d b1be
000001f0: 0d1d 56bd e858 013e 3ca5 3bbd c4b6 1dbe
0.014224195 -0.35302922 0.24493426 -0.17493817 0.110768996 0.32389873 -0.28783542 0.27462763
-0.22927353 0.32417008 0.17025092 -0.26337087 0.02665016 0.20154327 -0.20363253 -0.044943996
-0.31256935 0.14251164 0.2217002 -0.33720002 0.34848666 0.11872349 0.13365735 0.109508716
0.026767414 -0.16282214 -0.25673717 -0.12815368 -0.019327983 -0.111901514 0.25729468 -0.07099213
-0.16846141 0.008531996 -0.2823022 -0.027568452 -0.336405 -0.056684658 0.24862705 -0.31363985
0.045617666 -0.022943364 0.30369404 0.3366649 -0.08679274 -0.06905469 -0.339034 0.27428964
0.14858401 -0.23567514 0.15806258 0.33575505 0.07326852 0.17968802 0.051994618 0.09239934
0.06394424 -0.119128145 -0.039060537 -0.17357828 0.11150702 0.2863352 -0.22802156 0.20869383
0.2854519 -0.1705489 0.21746215 -0.03706809 -0.0112867 -0.12649001 0.2966889 -0.12932009
0.3206959 -0.18264334 0.03214389 0.16060519 0.26399088 0.15989818 -0.2221958 -0.09641157
0.03654181 -0.16808729 0.34593087 -0.22047505 -0.2656231 0.2393591 -0.2590851 -0.015412941
-0.06332536 0.28545773 -0.19266197 -0.26924276 0.07579828 -0.0908005 -0.1771678 -0.074673176
0.07086969 -0.0861205 0.24339202 0.048052516 0.32853523 -0.058789205 -0.0966325 0.3276783
0.11714691 -0.24391435 0.18845701 0.13492715 -0.33758482 -0.09437859 -0.28042012 -0.010350961
-0.17193118 -0.26216966 -0.21210662 -0.1911036 -0.003982014 -0.0722545 -0.23460263 0.031094313
0.1577375 -0.25018474 -0.16883115 -0.3466569 -0.0522738 0.12631571 -0.045811877 -0.15401751

arith.constant34 f4 [1, 3, 3, 16]
00000000: 81bf 263e 469b a1bd 661d 3b3e f459 67be
00000010: d26c 963e 0ffc 403e 3f5c 67bd ae9b f8bc
00000020: dc18 a53e 5729 843e c5c1 a5bd dfc9 463e
00000030: 07b8 763e 1f8f 95be 5bd6 91bd 526a ffbd
00000040: 6e3e f93d 1c03 8cbe a9d8 953e 21b9 823e
00000050: 3a9f 95be 39c4 813e 49de 0f3e 4cb8 92be
00000060: 5a48 2ebe d991 19be a388 7dbe 579a 8e3d
00000070: 5bf2 41be ba12 e9bd b948 8abe e510 c7bd
00000080: 53b3 893d 642a 9cbe 8819 7dbe c4a5 a63e
00000090: 196b 19bd 6764 acbd edfb 4bbe a0dd 833d
000000a0: 6600 803d 19a6 a8bd b4af 283e edda a33e
000000b0: 99ee 8bbe 5c94 26be 2109 173e bf88 5fbe
000000c0: d64f 13be f6b2 533e 4496 1f3e c3c9 b8bb
000000d0: b739 ddbc 263b 443e 95ae 993e f70c 8ebd
000000e0: a411 7fbe d413 863e 4594 a5be ccad 1e3d
000000f0: 4623 533d 065c c23d 6049 b3bd 8f97 16bd
00000100: 6a7e 45bb 1747 a73e ddbf de3d 71fe f0bd
00000110: 9e12 a53e de39 f9bd 1901 32be a878 8e3e
00000120: a734 c13d a344 873e 25f0 833e 7eb3 fabd
00000130: f8db fdbd 30ca 1a3e 45b6 4cbe 7f08 a2be
00000140: 2426 d7bc 112a 703e 8680 89be b20c 6d3c
00000150: eabd 68bd 45cd a63e 4dd5 3d3e 0103 593e
00000160: 74f5 79be 255f 25be 7bb4 a23e 86b4 53bd
00000170: 5a19 6d3e 879b 04be 869d 12bd 79dc 00be
00000180: df9c 1fbe 2344 083e 2ce8 9ebd 6d4b 8b3e
00000190: 1a72 9dbe 66a8 a9be aeae 523e 1d9c 55be
000001a0: 478a 8a3e bf44 953e 54f5 70be 0201 a1be
000001b0: 7e15 44be 4fc0 a7bd c76b 903d 7b63 20be
000001c0: 08f4 2b3d 0b95 e5bd 29e7 20be 77b2 ad3d
000001d0: 3128 9c3e f80b 1abe ea2c 163e 746b 863d
000001e0: d0ef 10bb 7453 37be 5119 533d 6273 dd3d
000001f0: 958e a7be ee2d 933e c54d f83d 89f0 a63d
00000200: 446e 593d 0351 3b3e 8f55 7fbe 0476 803e
00000210: ee3f 2abe 2b93 9a3e a08e a63e 5842 5abe
00000220: f416 e83d 1ffc 7fbe 15e6 c63b 225c ddbd
00000230: ba09 383d 0d54 ad3d 88d4 033e 8f7c 14be
0.1628399 -0.07890944 0.18272933 -0.22592908 0.29379898 0.18846153 -0.056484457 -0.030347671
0.3224553 0.2581279 -0.08093599 0.19412945 0.24093638 -0.29210755 -0.07120963 -0.12471451
0.12170111 -0.27346122 0.2926686 0.25531867 -0.29223043 0.25345019 0.14049639 -0.28656232
-0.17019787 -0.14997043 -0.24759154 0.06963032 -0.18940108 -0.11380525 -0.27008608 -0.09720019
0.067236565 -0.3050109 -0.2471677 0.32548344 -0.037455652 -0.08417588 -0.19920321 0.06438756
0.06250076 -0.082348056 0.16473275 0.32002965 -0.27330473 -0.16267532 0.14749576 -0.21829508
-0.14385924 0.20673737 0.15584666 -0.0056392862 -0.02700506 0.19163188 0.30016008 -0.069360666
-0.24909073 0.26187003 -0.32339683 0.038739964 0.05154731 0.09490208 -0.087542295 -0.03676563
-0.0030135163 0.32671425 0.10876439 -0.11767281 0.32240766 -0.121692404 -0.17383231 0.27826428
0.09433871 0.26419553 0.25769153 -0.12241267 -0.12395471 0.15116191 -0.19991405 -0.31647107
-0.026263304 0.23453547 -0.26855868 0.014468359 -0.05682174 0.32578483 0.18538399 0.21192552
-0.24410039 -0.16149576 0.3177832 -0.051685832 0.23154202 -0.12949954 -0.035794757 -0.12584104
-0.15587185 0.13307242 -0.07759127 0.27205983 -0.30751115 -0.3313629 0.20574448 -0.20860334
0.27058622 0.29154012 -0.23531085 -0.3144608 -0.19148824 -0.08190977 0.07051807 -0.15662949
0.041980773 -0.11210068 -0.1571318 0.08481305 0.30499414 -0.15043628 0.14665571 0.06563464
-0.0022115596 -0.17902929 0.051537815 0.10813023 -0.3272597 0.2874598 0.12124208 0.08151347
0.053083673 0.18292622 -0.24934982 0.2509004 -0.1662595 0.30190405 0.3253069 -0.2131437
0.11332503 -0.2499852 0.0060699084 -0.108085886 0.04493115 0.08463297 0.12874043 -0.1450064

arith.constant35 f4 [8, 1, 1, 16]
00000000: 3688 6c3e d45f 493e ef0d f73d 8c6d 50be
00000010: 520a 1f3e e5de ccbd 1d9c 09be 5193 713e
00000020: 6352 3abd 5924 263e 9100 cc3d ecca 9e3d
00000030: 7a24 ca3d e675 303c 5620 4abe dce8 cf3c
00000040: 0b95 d3bc 02ec bc3d afa5 7bbe aa45 0cbd
00000050: 38b2 b6bd 4e31 973c 37dd 883d 2943 f2bd
00000060: bc04 dabd 8062 abbd 354f 653b 9f84 28be
00000070: b3f2 6a3b dded 40be 36f6 5abe 1bd1 22bd
00000080: 4ae0 d3bc e80c 913d 7b12 533e c1e3 833d
00000090: 8352 643e 580d ab3d 30f7 41be 5d03 9abd
000000a0: 8b1d 21bd c710 343e a388 eb3c 2375 02be
000000b0: db9b 32be 9134 0e3e 8551 203e 9d46 633d
000000c0: 88c6 42be df4c b93d 70db 72bc e0c8 543e
000000d0: 1a69 6dbe 373a 953d ea5b 1ebe 6b7d 8a3d
000000e0: 1dae a6bd 4c81 85bd 384f 0c3e c534 b5bd
000000f0: 4ebe 5bbe 1ef7 803d 315e 15be 846d 6c3e
00000100: 32f8 8cbc e7bb 5dbe 7da8 32be 8f5b c53d
00000110: 7c8a 31be 23cf 89bc d6bd 183d 7a89 613e
00000120: 3504 9b3d 0437 e73d 0e42 183e e786 2e3d
00000130: 9165 f13d d23e 363e 06d1 b1bd bb9a 14be
00000140: 54db 4e3d 21ee 4c3e ccea 29be c3d5 5fbe
00000150: 87ac c63d 16ca a5bd b325 08bd ecd0 1ebe
00000160: 0007 6fbe 6a06 6ebd 97ab a0bd 9a17 a3bd
00000170: d349 4c3e 3d9a 013e 6c5c 4fbd c72f 1a3e
00000180: 96c3 d5bd 3d8d 093e 8827 2b3d afea 023e
00000190: 72ed 30be dcb6 183e b050 49be 1bd5 463e
000001a0: 016b 593d ed9f 8e3d 1359 bbbd 9689 7f3e
000001b0: 1352 693e b240 423e 48d9 003e d42c 92bd
000001c0: 67af 58be b342 7ebe 50a8 553e cf0c 783e
000001d0: a0f8 3cbe de28 44be 8cb4 563e ab68 aebd
000001e0: 55f8 323e 2930 573e 1dba 273e 9429 9ebd
000001f0: 99ae 463e 2547 263e 4f00 c73d 8ce3 9fbc
0.23098835 0.19665462 0.120632045 -0.20354289 0.1553128 -0.10003451 -0.13438459 0.23591353
-0.045488726 0.16224803 0.099610455 0.07753548 0.098702386 0.010770297 -0.19738898 0.02537959
-0.025827905 0.092247024 -0.24574922 -0.034246124 -0.08920711 0.018456127 0.066828184 -0.11829216
-0.10645434 -0.08368397 0.0034989838 -0.16456841 0.0035850226 -0.18840738 -0.21382985 -0.0397502
-0.025863785 0.0708254 0.20612518 0.06439925 0.222971 0.083521545 -0.18941951 -0.07520173
-0.039334815 0.17584525 0.028751677 -0.12739997 -0.17442267 0.1388724 0.15656097 0.055487264
-0.19021046 0.09047865 -0.014822826 0.20779753 -0.23184624 0.07286494 -0.1546475 0.06762203
-0.08138678 -0.06518802 0.13702095 -0.088479556 -0.21459314 0.06297134 -0.14586712 0.23088652
-0.017208192 -0.2165371 -0.17447086 0.09636604 -0.17337984 -0.016822403 0.037290417 0.220251
0.07569162 0.1128979 0.14868948 0.04260912 0.117869504 0.17797402 -0.08682446 -0.1451215
0.050502136 0.20012714 -0.16593474 -0.21858887 0.09700876 -0.080951855 -0.033239078 -0.15509385
-0.23342514 -0.058111586 -0.07845228 -0.07963486 0.19950037 0.12656493 -0.05062525 0.15057288
-0.10437696 0.13432784 0.041785747 0.12784837 -0.17278078 0.14913505 -0.19659686 0.19417231
0.053080563 0.06964097 -0.09147849 0.24954829 0.22785215 0.18969992 0.12582886 -0.071374565
-0.2116066 -0.24830131 0.20864987 0.24223636 -0.18454218 -0.19156215 0.2096731 -0.085160576
0.17477544 0.21014465 0.1637959 -0.07722774 0.19402541 0.16238077 0.09716856 -0.019517682

arith.constant36 f4 [16, 1, 1, 8]
00000000: 0a90 2c3e 3f10 473e aba5 81be 4036 4e3e
00000010: b973 18bd d525 36bd 9c83 acbd 57e3 8fbe
00000020: 5a65 883e be4b eebc 427e c83d 5646 5fbd
00000030: a431 893d 3fd8 cabc 91d6 0c3e 6bcf 62be
00000040: d1b8 b0bd 9f97 5dbe 3e02 5a3d 44df 2dbe
00000050: 8d58 afbe 5fc1 b43e 4277 89be 0bb5 ca3d
00000060: 2a5e 66be dd3b a1be 76d6 d7ba b37a 6a3e
00000070: 70b3 073e 6752 b4be 0db7 a03e f095 38bd
00000080: 1124 a23e 9c3b 3dbe c08d 4d3e 70ac 4c3d
00000090: 4584 1a3e 5125 97be 2530 883e a394 a1be
000000a0: 7122 e73d 2a0f 5b3d a4d5 173e d18e b6bd
000000b0: d7b4 2d3e 7d38 6dbe 1323 1ebb 6db8 8b3e
000000c0: 1490 e53d e00e 44be 31ce 39be dcb4 6a3e
000000d0: c099 1cbc bcca be3d 0887 81be f8d4 433e
000000e0: afd5 313e 13ad 77be 478b 90be 92bd 953c
000000f0: 6ce0 76be 89f3 a93e e64c 023e 8606 ab3e
00000100: d0fd 4d3d 3b6e 3f3e 5a03 763e c580 b2be
00000110: 37c5 06be 24e4 7f3e ab42 a2bd d4bf 0d3c
00000120: 2ad0 1abe 50ad 32bd 8dfb 873e c241 8b3e
00000130: 1619 483e 417c 0c3e 7753 af3e 1d0f d5bb
00000140: 833c 86bc c831 e63d 56ed e7bc 69db 9a3d
00000150: f860 79be 4959 383e 69ea 403e e970 88bd
00000160: e0e5 093e 9e2f 373c e956 443e 3913 edbd
00000170: c434 663e c8aa ee3d 797c 1d3e a749 93be
00000180: 21d7 b03e 44d4 8a3d dea6 a0be 3957 0a3e
00000190: fdfa aa3e 5413 873e cdd4 653e 687f a93e
000001a0: 9a5e afbc 1909 b4be d434 94be da68 55be
000001b0: aedc 99be 1f50 81bd c5f5 8b3e ca52 583e
000001c0: 3b11 8a3e 087c 8ebd cce2 053d e77d 89be
000001d0: 0720 1abe a4c0 953d 3385 8b3e 54a5 afbe
000001e0: 625c 8cbe 6240 44be b1d9 5dbe ce04 323e
000001f0: e66b cbbd 99af aabe a95e 323e f4ed 643e
0.16851822 0.19439791 -0.25321707 0.20137882 -0.037219737 -0.044469673 -0.0842354 -0.28103134
0.26639825 -0.029088851 0.09789707 -0.054510437 0.06698921 -0.024761317 0.13753726 -0.22149436
-0.08629001 -0.2163987 0.053224795 -0.169797 -0.34247246 0.3530378 -0.268488 0.098978125
-0.22496858 -0.31490985 -0.0016467113 0.22898369 0.13252044 -0.35219118 0.31389657 -0.045064867
0.3166814 -0.1847977 0.20073605 0.049969137 0.1508952 -0.29520658 0.2659923 -0.31558713
0.11285866 0.05348126 0.14827591 -0.08913959 0.16963516 -0.2316608 -0.0024129793 0.27289143
0.11209121 -0.191463 -0.18145062 0.22920555 -0.009558141 0.09316012 -0.25298333 0.1912421
0.1736667 -0.24187116 -0.2823126 0.01827887 -0.24109048 0.33193615 0.12724647 0.33403414
0.050290883 0.18694393 0.24024716 -0.34863868 -0.13161169 0.24989372 -0.07922872 0.008651692
-0.15118471 -0.043622315 0.26559106 0.27198607 0.1954082 0.13719274 0.34243366 -0.006502046
-0.016386276 0.11239964 -0.028311413 0.075613804 -0.24353397 0.1800281 0.1883942 -0.06662161
0.13466597 0.011180786 0.19173779 -0.11575932 0.22481066 0.11653668 0.15379514 -0.2876713
0.3453913 0.06778768 -0.3137731 0.13509835 0.33394614 0.26381934 0.22444458 0.33105016
-0.021407414 -0.3516319 -0.28946555 -0.20840779 -0.30051178 -0.0631411 0.27335945 0.21125332
0.2696627 -0.06957251 0.032686993 -0.26853868 -0.1505128 0.07312134 0.2725006 -0.34305823
-0.27414232 -0.19165185 -0.21665074 0.17384645 -0.09932689 -0.33337095 0.17418922 0.22356397

arith.constant37 f4 [1, 3, 3, 16]
00000000: bd4f cb3a 4c12 993e e1f0 383e 0bd1 a0be
00000010: 7995 2f3e c1dd f03d 617c 8cbe 051e 82bd
00000020: ccba 97be f839 3cbe ebee 6a3e a872 6ebd
00000030: b520 543e 9dfd a73e 69ce 49bd d5ed b33d
00000040: cd80 7bbd a10e 8fbd c459 a43e 7cd7 0ebd
00000050: 62da 84be 4799 efbc adbe 1b3d 2c41 593e
00000060: a828 553e 3af0 253e a84d 8d3d 5b6b f4bd
00000070: 46b1 53bd ecac 4f3e 7ea9 60be 06a9 a43e
00000080: 6b52 c3bb 2735 103e d255 ac3d dbaf e33d
00000090: 458c d53d 75da 6ebe 69f1 69be b4e0 40be
000000a0: 5566 c5bc 576d d03d 6550 a8be dd46 eebc
000000b0: 3c61 d03c ebbb 293e 668a 96be 0227 503e
000000c0: 2967 8bbe 54f3 6fbe 498d 9c3e 460a 0a3e
000000d0: 6ddc dd3d ebab 5abe 1604 a3bd c66e 513d
000000e0: cde9 443e 7b69 723e 61bd 20be 30f9 92bd
000000f0: e19e 52be 4be6 10be 34b0 98bd b154 4a3e
00000100: 3a95 77bd 17ce 1f3e b538 a4bc d4cb 66be
00000110: f762 ae3d bc36 1ebe 499b a53e f6fa 22be
00000120: 7dc9 823e 07c7 acbc 5678 b1bd 25ea 153e
00000130: 79d8 8ebe 2cb6 403e 2895 01be 9c4c 6fbd
00000140: 3959 a33e 03a0 533e fc0c cf3c dabd b5bc
00000150: 3ff3 d63d a2f1 90be 5fb0 15be 4fb9 943e
00000160: 774a 88be 95f3 76be 46de 803e 6015 83bd
00000170: 3dc1 893e 1342 9bbd 7b59 823e 7e66 2a3d
00000180: 2c51 aa3e cef4 9c3e c0fc 90be fc69 8f3c
00000190: d069 e4bd e765 2d3d f438 9a3e d95c 48be
000001a0: 0c7c 583e f38d 04be 97d8 1fbd 887c 6e3c
000001b0: 4d89 8b3e 3871 4d3e 573e efbd 603b 87be
000001c0: cfef 753e 6688 f2bd b03f aa3e f2ed 6cbe
000001d0: 504e 443e 08be 853e 64c5 06be df2c 2d3e
000001e0: 38c7 bd3d cdd5 1abd 1966 313e 73c4 103e
000001f0: 43ee 513e d3e3 6abe db9f 833d b50c 943e
00000200: 3d29 ae3d 804e 2abe 3c66 98be a031 8c3e
00000210: 47b9 8ebd 5e6c e93c 2e92 513e 1b9d 5c3e
00000220: 1edf 94be 78ef 5abd 98e8 7d3e 26ea a03e
00000230: 870c 70bc 16c1 413c 4ddf 8c3e ed31 af3d
0.0015511435 0.29896772 0.18060638 -0.31409487 0.17146863 0.11761046 -0.27438644 -0.06353382
-0.29634702 -0.18381488 0.22942702 -0.058214813 0.20715602 0.3281068 -0.049269114 0.08785597
-0.06140213 -0.06985212 0.32099736 -0.03487347 -0.25947863 -0.029247893 0.03802364 0.21216267
0.2081629 0.1620492 0.068995774 -0.11934539 -0.051682733 0.20280808 -0.21939656 0.32160205
-0.0059607527 0.14082776 0.084148064 0.11117526 0.10427145 -0.23325522 -0.22845997 -0.18835717
-0.024096647 0.10177105 -0.32873836 -0.029086525 0.02543699 0.16575591 -0.29402465 0.2032738
-0.27227142 -0.23432666 0.30576542 0.13480482 0.108330585 -0.21354644 -0.07959764 0.051131032
0.19229813 0.2367305 -0.15697242 -0.07176435 -0.2056842 -0.1415035 -0.07455483 0.1975887
-0.060445048 0.15605961 -0.020046571 -0.22538692 0.0851497 -0.15450567 0.32345036 -0.15916047
0.25544348 -0.021090997 -0.086655304 0.146401 -0.2789953 0.18819493 -0.12654555 -0.05842267
0.3190401 0.20666508 0.025274746 -0.022185255 0.10495614 -0.2830935 -0.14618061 0.2904763
-0.26619312 -0.24116357 0.2516958 -0.06400561 0.26905242 -0.07580962 0.25458893 0.04160165
0.33265054 0.3065552 -0.28317833 0.017506592 -0.11152995 0.04233351 0.30121577 -0.19566669
0.2114107 -0.12944774 -0.039024916 0.014556058 0.2725319 0.20062721 -0.11681812 -0.26412487
0.24017261 -0.11842422 0.33251715 -0.23137644 0.19170499 0.26121545 -0.13161236 0.16911648
0.092665136 -0.037801553 0.17324103 0.1413744 0.20501046 -0.2293847 0.064269744 0.28915945
0.08503959 -0.16631508 -0.297655 0.2738161 -0.069689326 0.028494056 0.2046592 0.21544306
-0.29076475 -0.05345103 0.24795759 0.3142864 -0.014651424 0.01182582 0.27514115 0.085544445

arith.constant38 f4 [8, 1, 1, 16]
00000000: 5c1b 19be 68c7 91bd 96c8 543e 6b15 f83d
00000010: f0f4 f33d 0383 3ebe a55f 4b3d 0dc3 9a3c
00000020: ef17 763e 70c3 123c d239 6ebd ae77 423e
00000030: 30e3 373e ca09 973d a468 73be 0bed 70be
00000040: 86df 0a3e ee7b 78bd 7b78 d3bb 8b1a 7ebe
00000050: 4ba1 963d b00e 74be 3753 453e fb40 a0bc
00000060: d6d5 f9bd 9807 5abd f1dd 0e3e a9b4 6fbd
00000070: 8afd 0abd 4d17 fc3d db00 72be 7de5 213e
00000080: b1a1 bebc 8ae8 0a3e 71d2 bfbd 370f 153d
00000090: 1fa0 76be 6ee4 d43d ca78 1dbe 6093 793e
000000a0: 072d 77bd 9190 0ebe 3b48 02be ba02 553e
000000b0: 65ec 3abe 9ea0 31bd 16c4 803d efac de3d
000000c0: baff 7abe 7fbe 94bd 55de 033c a5c3 e53d
000000d0: 12d6 bcbd b4a1 623e 8b6b 4dbe 0132 33be
000000e0: 1f4a 5dbe 510a 5fbe 8acb 053e 8e61 123e
000000f0: 400b 2b3e 9752 a2bd 3017 6f3e 45d7 4a3e
00000100: 0330 3b3e 9374 77be 0679 f9bd fc23 313e
00000110: cf04 eabd cd4a 4bbd 808f 3bbe cd5e cd3c
00000120: b927 3fbe 38cf 3d3e 784a 733d 0eb7 48be
00000130: d39b 513e d743 2cbd 6056 dabd cf9d 143e
00000140: 0beb 50bd a84c 2a3c 32ff 5abe f38e 01be
00000150: 6fa6 5ebe b1ca 71bb 8d0a a9bd b52a a7bd
00000160: a514 21be 8221 8cbd 0582 fc3d bc6c 683d
00000170: 14e6 04bc 6d24 cdbc b932 58bc a39c 7d3e
00000180: a15f 763e 099c a8bb 0966 5d3e c3e0 2e3e
00000190: 9b14 153e a515 823c 1b58 533d 7cb6 85bd
000001a0: 0028 d0bd e6a6 973d 59d7 d93d 6a5f 8cbd
000001b0: 5abf 0abe 52b9 49be eaa2 56bd b218 623e
000001c0: 26c3 3bbe 7a82 253e 4e86 d43d 59db 71be
000001d0: b9b6 273e 51a6 10bb b440 66be d7ed 933d
000001e0: cc63 56be 9655 13be 13a8 39be 5719 04be
000001f0: 8ad9 7ebe bc90 4e3e a946 82bd c639 e23d
-0.14951843 -0.07118112 0.20779642 0.1211346 0.119119525 -0.18604665 0.04965176 0.018891836
0.24032567 0.008957729 -0.05816061 0.18990967 0.17957759 0.07374914 -0.23770386 -0.23527925
0.1356183 -0.060665064 -0.0064535714 -0.24814813 0.07354983 -0.23833728 0.19270025 -0.019562235
-0.12198989 -0.0532299 0.13951851 -0.0585219 -0.0339332 0.12309132 -0.23633139 0.15810199
-0.02327046 0.13565269 -0.093663104 0.036391463 -0.24084519 0.10395132 -0.15378109 0.24372625
-0.060345676 -0.13922335 -0.12722866 0.20801821 -0.1825424 -0.043366067 0.062874004 0.10872828
-0.24511614 -0.07262897 0.008048614 0.11218957 -0.09220518 0.22131997 -0.20060556 -0.17499544
-0.21610306 -0.21781279 0.13065925 0.14295027 0.1670351 -0.07925909 0.23348689 0.19808681
0.18280034 -0.24165563 -0.121812865 0.17298883 -0.114266984 -0.049631882 -0.1831646 0.025069619
-0.18667497 0.18536079 0.05939719 -0.1960108 0.20469598 -0.042056885 -0.10661006 0.14513324
-0.051005404 0.010394253 -0.21386412 -0.12652187 -0.21743177 -0.0036894495 -0.082539655 -0.081624426
-0.15730532 -0.068423286 0.12329487 0.056744322 -0.0081114955 -0.025041783 -0.013195687 0.24766783
0.24059917 -0.005145554 0.21620955 0.17077927 0.14558642 0.015879462 0.051597696 -0.06528947
-0.101638794 0.0740488 0.106367774 -0.06854136 -0.13549557 -0.196996 -0.05240146 0.22079733
-0.18336162 0.16163054 0.10377179 -0.2361883 0.16378297 -0.0022071789 -0.2248562 0.07223099
-0.20936507 -0.14388117 -0.18130521 -0.12900291 -0.24887672 0.201724 -0.063611336 0.11046176

arith.constant39 f4 [16, 1, 1, 16]
00000000: 33a7 f5bd 2dd6 e4bd fba5 8a3d e60d 8c3d
00000010: 35f5 4b3d 6329 35be a514 fcbd 3bd7 523c
00000020: 262c 36be 6312 953d ba6a 8dbd 8986 d9bd
00000030: 72ed 6ebd 389d 5bbc 6b68 213e 60ba 35be
00000040: 6c49 d0bd a6d7 61be c4e5 4ebe e893 ab3c
00000050: 832b 3bbd a33d d1bd 7fed ea3d cb68 083e
00000060: a231 11be a309 de3d d3da 1b3e 7257 54bd
00000070: b00b 74be fee7 7abd 7920 6bbe 16ab 183e
00000080: 33f3 32be 46e9 673e 87e4 2cbe d506 1b3e
00000090: 1e2b 0bbe 3460 4ebe 2c2d 9dbc 2778 53be
000000a0: 8789 8abd 9693 50be a34f 0a3e f4b2 ff3d
000000b0: dc70 ff3c 06c6 623d 4b0c d2bd 3812 cfbd
000000c0: 418e 533e 38a7 73bd 6457 853d 7d7b 6fbe
000000d0: 74a5 253e 7b00 a2bc c7c3 f7bd 401a 0d3e
000000e0: a5fd 81bc 89eb d63c 3bff 4b3e eada 53be
000000f0: 74b2 fe3d dcdb 4e3d 0dff 33be 92f3 05be
00000100: e87a 29be 5450 2bbe e175 d9bd 50bb b53d
00000110: 7fae d2bd 8f94 ac3d b07f 68be c351 883d
00000120: ba6e d6bb 9d12 653e 7395 143e 2dd0 7cbb
00000130: dcc0 373e 6aec 0abd c605 8cbd 2146 10bd
00000140: 3da0 4b3c b0f4 f23d e43c 01be 886d a93c
00000150: 603a abbd f390 7bbe 0f66 2c3e 9976 a83c
00000160: b1a2 f03d 43dc 953d 9e3a 4a3c df6d 473d
00000170: 408a e63d b094 5bbe 0b86 53be 864f bebd
00000180: 6b81 5d3e 3c3a 30be 69d7 e4bd a548 653d
00000190: b688 4fbe 21bf fdbd 7529 ccbd a4d1 9f3d
000001a0: 6946 3bbe 76f7 bd3d aed6 993d 9d7b c0bd
000001b0: 3232 793e 1c5f 5cbe 0cfa 363e 464e afbc
000001c0: dc55 13be bae6 d4bd ba46 d53b 3a26 d5bb
000001d0: e231 0bbe c194 6fbe 4217 55bd ef23 1c3e
000001e0: b9da 3e3d 6071 f33d b902 a73c d564 82bd
000001f0: e0aa 06be bfa8 6a3e a107 663e 5786 753e
00000200: 0717 5d3d 3f6a 5e3d 92dc 43be 9969 763e
00000210: bf4a f83c 7729 2d3e 3632 5b3e afb8 6a3e
00000220: 359c 323e 1dab fd3c f5ae bf3d 1f8d 463d
00000230: 4ba9 b93d 1a0c 26bd b5f5 7dbe a244 993d
00000240: 20b2 60be 8d7c fbbd 1082 5cbd 771f 15bd
00000250: fbfa 0d3e ee20 313e eebb 00bd 112d 723e
00000260: c403 1f3e 0b27 463e e23d 253e 0dd2 e43d
00000270: e2c2 a5bd 84be 73be 87e9 acbc 110f 203e
00000280: a687 133e 29b3 fbbd b170 c03c 5971 843d
00000290: e8a9 1ebe 72ec 0bbe 72ba 003e 27a0 75bd
000002a0: 288f 503e 673e f7bd f17b 043e 6dbd 1b3c
000002b0: 7300 dd3d df3d 88bd cb7e 5fbe 2f71 41be
000002c0: 653f e3bd 97ec 3fbe 6707 7d3e fbca 573e
000002d0: d5a6 7bbd 05e3 64bd 9fb2 5e3e 3867 78be
000002e0: 11f1 383e dc35 e63d 5a42 2f3e 8e38 4ebe
000002f0: 769a 553e 77db 45bd f8e2 353e c9fa 6bbe
00000300: cd68 033e 9d42 223e c76e 15be 96aa 253e
00000310: 0866 05be e187 39be fe62 6dbe d561 e33d
00000320: 9b97 75be 0169 4bbe 55a5 01bd fcc9 053e
00000330: d538 7ebd 90bb 74be d358 4bbe a459 373d
00000340: 233a 1bbe 1c8e 173e a9de fcbd 2dca 643e
00000350: 14f2 493e 17bf 103e cf67 473e 3b70 52bc
00000360: 42d4 55bd 5a9f 55bc fd8c 6abe 696c 3fbe
00000370: d12e 46be 7021 e93d 7dd7 093e d390 40be
00000380: e0a3 f43d 6054 753e 6e35 edbd 4066 1d3e
00000390: 67e7 3abe 246c 68bd dd00 03bd 8418 aa3d
000003a0: 4cc5 4dbe 12e6 8abc df88 763e bb98 6b3e
000003b0: 0603 363e 552a 9abd 6ae8 37be c434 673d
000003c0: d522 8fbd bba0 d1bb b6d5 783e c757 6f3e
000003d0: 4056 433b af44 f73d a9ee 143e 3a17 3e3d
000003e0: 0ae9 f83d 265e 003e 538d 77be 8bed 0f3e
000003f0: d430 06bd ba95 56bc c008 2cbe ddaa fbbd
-0.11994781 -0.11173663 0.067699395 0.068385884 0.049794395 -0.17691569 -0.12308625 0.012868698
-0.17790279 0.072788976 -0.06905122 -0.10621364 -0.058331914 -0.013404183 0.15762489 -0.17746878
-0.10170254 -0.2205492 -0.20204836 0.02094455 -0.045695793 -0.102168344 0.1147108 0.13321225
-0.1417909 0.10841682 0.15220194 -0.051841207 -0.23832583 -0.0612564 -0.22961606 0.14909014
-0.17475586 0.2264758 -0.16884051 0.15139325 -0.13590667 -0.20153886 -0.019186579 -0.20651303
-0.067645125 -0.203688 0.13506941 0.124853045 0.031181745 0.05536463 -0.10256251 -0.10110897
0.20659734 -0.059485644 0.06510809 -0.23386951 0.16176397 -0.01977562 -0.120978884 0.13779545
-0.015868017 0.026235359 0.19921581 -0.20688978 0.12436381 0.050502643 -0.17577763 -0.13081196
-0.16550791 -0.16729861 -0.10618187 0.08873618 -0.10287189 0.08426773 -0.22704959 0.0665622
-0.0065439614 0.22370382 0.14510135 -0.003857623 0.17944664 -0.03391687 -0.06837039 -0.03522313
0.0124283405 0.11863077 -0.12620884 0.020682111 -0.083607435 -0.24567012 0.16835807 0.020564364
0.11749781 0.07317402 0.012343077 0.048688766 0.11256838 -0.21443439 -0.20656602 -0.09292512
0.216314 -0.17209715 -0.11173899 0.055977482 -0.20266995 -0.123899706 -0.09968845 0.07803658
-0.18288578 0.09275715 0.0751165 -0.09398577 0.24335554 -0.21520656 0.17868823 -0.021399628
-0.14388222 -0.1039557 0.0065086754 -0.006504801 -0.13593248 -0.23396589 -0.052024134 0.15248083
0.04659531 0.11886859 0.02038704 -0.063668884 -0.13151121 0.22915934 0.22463848 0.23977028
0.05397704 0.054300543 -0.1912711 0.2406372 0.03030908 0.16910349 0.21405873 0.22922014
0.17442401 0.030965382 0.09359542 0.048474427 0.09065493 -0.040538885 -0.24800761 0.07483794
-0.2194295 -0.122796156 -0.053834975 -0.03640696 0.13865273 0.17297718 -0.031429224 0.23650004
0.1552878 0.19350831 0.16136888 0.111728765 -0.080938116 -0.23803145 -0.021107448 0.15630747
0.14407215 -0.122900315 0.023491235 0.06466932 -0.15494502 -0.13664415 0.12571123 -0.059967186
0.2036711 -0.12072449 0.12937905 0.009505612 0.10791101 -0.06652426 -0.21825711 -0.18890832
-0.11096076 -0.18742596 0.24709855 0.21073525 -0.0614384 -0.055880565 0.21747826 -0.24258125
0.1806071 0.112407416 0.17115155 -0.20138761 0.20859703 -0.048305 0.17762363 -0.23044886
0.12832947 0.15845723 -0.1459304 0.16178355 -0.13027203 -0.1811824 -0.23182294 0.11102644
-0.23983614 -0.19864275 -0.031651814 0.13065332 -0.062065918 -0.23899674 -0.19858103 0.044763222
-0.15158896 0.14800304 -0.123471566 0.22342749 0.19721252 0.14135395 0.19473194 -0.012844141
-0.052204378 -0.013038481 -0.22905345 -0.18693699 -0.19353797 0.11383331 0.13461109 -0.18805246
0.11945319 0.23957968 -0.115824565 0.15371037 -0.18252335 -0.056743756 -0.031983245 0.08305457
-0.20094794 -0.01695541 0.2407565 0.23007481 0.17774591 -0.075276054 -0.17959753 0.056446806
-0.069890656 -0.0063973344 0.24300274 0.23373328 0.0029806048 0.12073647 0.14544167 0.04640887
0.12153824 0.12535915 -0.24175005 0.14055459 -0.03276141 -0.013097221 -0.16800213 -0.12288449

arith.constant40 f4 [1, 3, 1, 16]
00000000: bb98 c1be b2f9 b13d 3f2f 89bd 09ce 843d
00000010: 36c2 f4bc 1548 c83e 3770 ee3e b169 ac3e
00000020: a1db 5bbe 71c9 7cbe ca71 23be f9b5 8bbe
00000030: 24f9 833d ddac 9cbe 126f 053f 561f c3be
00000040: 2695 b73e af1e d83e fa68 0dbf f1a0 703d
00000050: f392 63be ce13 a4be 0b96 883e 58ea 03bf
00000060: da02 cf3e 7f4d 153e d6a7 b4bd 5e73 55be
00000070: 1a01 f93d 9f17 863e cd66 113f 7600 de3e
00000080: 63f1 8b3e b89f 0fbd 69a9 29be 59ee 6b3e
00000090: 289f 8e3d 529e 5dbe 66f6 05bf d457 9d3e
000000a0: 0316 803d 43ae 9fbe b7a4 503b fa9e 713e
000000b0: ec07 9e3e 8b09 b23e 5c8e 0e3e 9ffd d8bc
-0.37811837 0.08690204 -0.066984646 0.064846106 -0.029877763 0.39117494 0.46569988 0.33674386
-0.214705 -0.24686219 -0.15961376 -0.27287272 0.06444004 -0.30600634 0.52122605 -0.38109845
0.3585598 0.4221091 -0.55238307 0.058747236 -0.22224025 -0.3204636 0.26676974 -0.51529455
0.40431863 0.14580344 -0.08821075 -0.2084479 0.12158413 0.26189896 0.56797487 0.43359727
0.273326 -0.03506443 -0.16568531 0.23040141 0.069639504 -0.21642426 -0.523291 0.3073107
0.062541984 -0.3118764 0.003183646 0.23595801 0.3086542 0.34772906 0.13921493 -0.026488123

arith.constant41 f4 [16, 1, 1, 16]
00000000: cbc3 71be b7f5 5dbb f4ed 673c ca47 053e
00000010: b0c0 6d3e 9b75 7d3e 24da 3dbe 1ab8 063e
00000020: e95f 10bd c3fa 20bd 0698 31be 4175 7bbe
00000030: 6034 133e 3834 5cbb 6f90 69be fe7e 7abe
00000040: 9a85 8c3d aca4 0d3e cc42 9eba be0d 2bbe
00000050: 81c7 343e 1936 26be 330d 893c 6fa4 773e
00000060: 71d3 333e 48dc 3c3e de30 37be 3821 4f3e
00000070: 6d8a 14be d1ce 203e d55e f1bd bd25 03bd
00000080: 133e 6a3e 4e22 1e3e a67d 31bd 1367 153e
00000090: a283 e03d 9371 6b3e aae3 4dbe 9863 5c3c
000000a0: 6bbc 513d 6c88 1ebe 1b13 083e f8f3 2abd
000000b0: 7886 243e 936d 0f3e b87f c33d 55a1 6bbe
000000c0: 051f 1bbd 4ead ed3d 9364 893b eacd 6d3d
000000d0: 7b93 333e ada0 fdba 8114 a7bd 6d75 9c3d
000000e0: b564 633b aa78 bc3d f2ab 2b3e 72a9 99bd
000000f0: e28c 0d3d c59e e33c 558f 573e 04a9 363c
00000100: 2ba8 103e 59ff bf3d dcba 42be 5973 b4bd
00000110: 352c 693e 1476 373e 07a5 523e f9de 213e
00000120: 14df 853c ba70 29be 340e 193e 88c4 c3bd
00000130: 6778 143d 17be 1cbe 64bf 623e 1992 023e
00000140: 4848 303e e063 dbbd 30b6 113d aee4 66be
00000150: f984 57bc ae12 32bd 3f10 08be fd56 77be
00000160: 5aac 6dbe f391 5fbe 489b 683e 6e52 ca3d
00000170: 3e1a 313e a425 32be 5963 703e 49ee 573d
00000180: 514d 8ebd 4a9a 25bc 70c8 103c d8eb f2bd
00000190: c150 6f3e 1d25 6bbe 6030 7fbe d994 10be
000001a0: c36b e9bc 6deb e5bd f0b4 17be 6f19 463e
000001b0: 3770 f73d 75c9 63bd 3f57 963d 013a 70be
000001c0: 1400 7fbe 4553 1bbe ac54 483e bc71 9e3c
000001d0: 1989 0ebe c646 6cbe 68a1 d03d ded4 68be
000001e0: 6637 073e eb76 53be 59e9 693e ba11 a43c
000001f0: 45b6 33bc 0306 d3bd d942 2e3e 847e 68bd
00000200: a31b 7cbe 75d8 33bd 9440 e63c ed7b efbd
00000210: e149 c1bd 62f7 ecbc 95c2 9bbd 247d 30be
00000220: 5c9d 433e 2497 933d 55d2 2cbe a2ac 3b3d
00000230: 16b6 f83d bd98 393e 5862 9f3d 2668 56be
00000240: 0896 b63d 3ccd c33d cbc6 b8bd 3bb8 513e
00000250: f10e 5fbe ad35 2c3e 066b 66be 5c7f 25be
00000260: 1a19 07be da69 733e 6f5a 783d 1c18 3e3e
00000270: 18f3 16be 0490 43be 5bf8 09be d94e 35be
00000280: 103a 2bbe 2c10 483e 6c84 113e 9414 5c3e
00000290: 6bd8 95bd d548 b3bd 245f c4bd e66e cabd
000002a0: a52e 3b3e df23 51be 83cc 38be 4afe a4bd
000002b0: 37cd 09be d931 57bd 633d 883d 3ae3 55be
000002c0: c067 c4bc 622c 493e 41f2 8fbd 5cb9 0c3e
000002d0: 2b39 08bd a0fb 23be fd02 02bd 5fb2 02be
000002e0: 80a8 843d b0eb 30be af29 463d 1aff 1f3e
000002f0: fbd5 d13b cefa c73d 0fc9 7c3e df05 33be
00000300: 9148 8ebb 5f3b 7cbe 22c8 8abc 3dff 1a3e
00000310: 2e30 fa3c f52e 3bbe 2830 54be f094 423e
00000320: 582c 9ebd 4b72 4dbe 6426 f33d 6067 913d
00000330: 863f 7b3e a36c 963d 0145 b33d db83 63be
00000340: 7a29 54bc d58b e4bd 2dfc fd3c 8875 433e
00000350: 52e4 bc3c 60e5 1fbe 7b2f 20bd 0cf8 1cbc
00000360: e38b 013e 07e9 aebb 1c99 ff3c a65c 19be
00000370: 7314 213e 585e 123e 5598 4d3d 423f 6cbd
00000380: 2bcc d33c 286d ffbd 7d16 b43d 09c9 03be
00000390: aebf 2fbd 64cb 25be a92a f0bd a858 ab3c
000003a0: 326c 613e c52c b4bc d908 d83d 7a25 6ebd
000003b0: ea4a f9bd cd2c 9abc 1794 ea3d 499f 4b3e
000003c0: 73b7 963d 6c84 053e fc11 75be f3e2 693c
000003d0: e8a7 29bc cfa0 5dbe 6650 afbd 0934 27bd
000003e0: 240c 13be 06da 67be 46b9 7f3e 75a6 63be
000003f0: 6afd bcbd c621 1dbe b923 153e bfb1 f73c
-0.23609845 -0.0033868381 0.014155854 0.13015667 0.23218036 0.24751894 -0.18540245 0.13156167
-0.035247717 -0.039301645 -0.17343149 -0.24556448 0.14375448 -0.003360046 -0.22809003 -0.24462506
0.0686142 0.13832349 -0.001207435 -0.16704461 0.1765423 -0.16231574 0.016729927 0.2418382
0.17561127 0.18443406 -0.17889735 0.20227516 -0.1450593 0.15703894 -0.11785666 -0.032018412
0.22875242 0.15442774 -0.04333272 0.14590101 0.10962607 0.22992544 -0.20106378 0.013451479
0.05120508 -0.15481728 0.13288538 -0.041736573 0.16066921 0.14006643 0.09545845 -0.23010762
-0.03787138 0.11605321 0.0041928976 0.058057703 0.17536728 -0.0019350253 -0.08158208 0.07639585
0.0034697477 0.09202702 0.1676481 -0.07503022 0.034558184 0.027785668 0.2105077 0.011148695
0.14126651 0.093748756 -0.19016594 -0.08811063 0.2277077 0.17916137 0.20570765 0.15807714
0.016341724 -0.16546908 0.14946824 -0.0955897 0.036247637 -0.15306889 0.22143322 0.12751044
0.17215073 -0.10712409 0.03557414 -0.22548172 -0.013154262 -0.043474846 -0.13287447 -0.24154277
-0.23210278 -0.21833019 0.22715485 0.098790035 0.17295167 -0.17397171 0.23475398 0.05271748
-0.06948341 -0.010107586 0.0088368505 -0.1186139 0.23370649 -0.22963376 -0.24920797 -0.14119281
-0.028493768 -0.112265445 -0.14815116 0.1934564 0.1208195 -0.055612046 0.073408596 -0.23459627
-0.24902374 -0.15168484 0.1956355 0.019341342 -0.13919486 -0.23073873 0.10187036 -0.22737452
0.13204727 -0.20650832 0.22842921 0.020027984 -0.010968749 -0.10303881 0.17017688 -0.05676128
-0.24619918 -0.0439076 0.028106965 -0.11693559 -0.094379194 -0.028926555 -0.07605473 -0.17235237
0.19102997 0.07206562 -0.1687711 0.045818932 0.12144105 0.18124671 0.077824295 -0.20938167
0.08915335 0.0956063 -0.09022292 0.20480435 -0.21783043 0.1681735 -0.22501764 -0.16161865
-0.13193169 0.23770848 0.06063312 0.18563884 -0.1474117 -0.19097906 -0.13473646 -0.17705859
-0.16721368 0.19537419 0.14210671 0.21492225 -0.07316669 -0.08754126 -0.09588459 -0.098844334
0.18279512 -0.2042384 -0.18046765 -0.08056314 -0.1345719 -0.052537773 0.066523336 -0.20887461
-0.023975253 0.19645837 -0.07028628 0.13742584 -0.033257645 -0.16013956 -0.03174113 -0.12763356
0.06477451 -0.17277408 0.048379596 0.15624657 0.0064036823 0.09764634 0.24686073 -0.17482708
-0.0043421467 -0.24632023 -0.016941134 0.15136428 0.030540552 -0.18279631 -0.20721495 0.19002128
-0.07723302 -0.2006313 0.11872557 0.07099795 0.24535951 0.073449396 0.08753396 -0.22218268
-0.012949342 -0.11159483 0.031004036 0.19087803 0.02305809 -0.15614843 -0.03910778 -0.009580623
0.12651019 -0.0053378376 0.031200938 -0.14976749 0.15730457 0.14293802 0.050194103 -0.057677515
0.02585419 -0.12471992 0.08793352 -0.12869658 -0.04290741 -0.16190869 -0.11726887 0.020916298
0.2201393 -0.021994004 0.105485626 -0.05814121 -0.12172492 -0.01882019 0.11454027 0.19884981
0.07359209 0.13038796 -0.23932642 0.0142753 -0.010354973 -0.21643375 -0.08560257 -0.04082111
-0.143601 -0.22641763 0.2497302 -0.22231467 -0.092280224 -0.15344915 0.14564408 0.030236123
