gtcrn_micro.onnx (onnx, 280036 bytes, 100 tensors)

decoder.de_convs.0.point_conv1.weight f4 [8, 16, 1, 1]
000000 bc d6 42 3e 74 af 56 be d8 51 07 bd ce c4 1c be
       0.19027227 -0.20965368 -0.033037037 -0.1530945
000010 e0 7b 7f 3c 08 8c b4 bd 00 e9 a5 bd 02 0b 0d be
       0.015593499 -0.08815771 -0.08101082 -0.1377373
000020 f8 0c 53 3d 00 c2 e1 ba a8 6f 4f 3e a0 81 61 be
       0.05152604 -0.0017223954 0.20257437 -0.22022104
000030 10 16 99 3d 60 a3 48 be f6 86 07 3e 48 ca 38 3d
       0.07474911 -0.19593573 0.13235077 0.045114785
000040 e8 61 1b be c2 1a 1a be 3c 52 4a be f8 34 14 3e
       -0.15174067 -0.1504927 -0.19757932 0.14473331
000050 70 be c6 3d 38 9c 2c bd 90 6a 48 3d 90 80 d2 bd
       0.09704292 -0.04214117 0.04892975 -0.102784276
000060 90 a9 2d 3d 18 f8 18 be ee d3 27 be d0 ae c5 bc
       0.042398036 -0.1493839 -0.16389439 -0.024131209
000070 76 e5 6e 3e d4 f6 3f 3e 88 dd 4a bd 34 ec e6 3d
       0.2332972 0.18746501 -0.049527675 0.11275521
000080 e0 0f c9 bd 48 70 68 bd 00 2f d8 bc 40 a9 e6 3b
       -0.09817481 -0.056747705 -0.026389599 0.007039219
000090 40 58 ec bb f4 90 4c be 08 f5 e4 3d 48 78 53 bd
       -0.0072126687 -0.1997717 0.111795485 -0.05162838
0000a0 ec 2f 3f be 00 28 57 bb d6 29 53 3e a4 86 41 be
       -0.18670624 -0.0032830238 0.20621428 -0.18899018
0000b0 44 dc 02 be bc 1f 56 3e f0 e6 3a be 58 b8 4c be
       -0.12779337 0.20910543 -0.18252158 -0.19992197
0000c0 ca 5d 75 3e d0 d8 af 3c da 7b 1e be 50 f3 02 bd
       0.23961559 0.021465689 -0.15476933 -0.031970322
0000d0 ec 4e 3a 3e 98 11 3b 3e f0 cb 1c 3d 06 e1 68 3e
       0.18194169 0.1826843 0.038280427 0.2274209
0000e0 a0 90 fd bc e4 4f f7 bd 56 72 2b be 68 ba 96 bd
       -0.030952752 -0.12075785 -0.16742834 -0.07359773
0000f0 9c 6a 6d 3e f8 48 95 3d 30 29 cb bc b0 e8 34 bd
       0.231852 0.07289308 -0.024799913 -0.04416722
000100 80 d7 0f be ec 11 7e 3e c8 bb 4d be e0 96 bc 3d
       -0.1404705 0.24811524 -0.20091164 0.092084646
000110 80 95 69 be 1c 21 f2 3d a8 bf 09 3d 90 b7 4f 3e
       -0.22810936 0.11822721 0.033630043 0.20284867
000120 3c a7 ba bd be 7c 1c 3e 68 26 65 3d 74 82 39 be
       -0.09113929 0.1528196 0.05594483 -0.1811617
000130 b8 26 05 be 28 ca 69 3d 3a e7 59 be 70 be 5c bd
       -0.13003051 0.057077557 -0.21279612 -0.053892553
000140 d8 a3 50 bd 80 40 04 3c 10 85 17 be e0 66 56 3c
       -0.050937504 0.008072019 -0.14796853 0.013086051
000150 f0 98 8d 3d 5a b8 33 be 72 ab 74 be 50 71 2e be
       0.06913936 -0.17550793 -0.23893526 -0.17035413
000160 2c 80 44 3e f0 ec c6 bc 00 fe 0b be 00 0c e1 bc
       0.19189519 -0.024282902 -0.13671112 -0.027471542
000170 9e 8f 7f 3e e0 df 4c 3c b8 62 51 3d 50 95 fb bd
       0.2495713 0.012504548 0.051119536 -0.122843385
000180 16 78 2b 3e 66 4a 36 3e 00 c4 74 bb b0 83 eb bd
       0.16745028 0.17801818 -0.003734827 -0.11499727
000190 28 6d b7 bd de 7b 01 be 5a b0 64 be 9a da 6f be
       -0.08956367 -0.12644908 -0.22332898 -0.23423234
0001a0 d4 e1 60 be 3c 7a e6 bd 4c fe 76 3e ba 2a 43 be
       -0.21961147 -0.11253783 0.24120444 -0.19059268
0001b0 90 69 9b 3d b4 c4 86 3d a4 79 da bd 7e 02 7c 3e
       0.07588494 0.06580487 -0.10667732 0.24610326
0001c0 30 8a 32 bd f8 76 00 3d e0 3d 28 3e d0 82 6f 3d
       -0.043588817 0.031363457 0.16429853 0.058474362
0001d0 a8 ed ab bd 00 ee 18 3a 52 45 0f 3e 8a d1 70 3e
       -0.08394939 0.00058338046 0.13991287 0.23517433
0001e0 e8 2d 7a be bc ff 98 bd 5c 2c 4a be c8 b0 69 3d
       -0.24431574 -0.074706525 -0.19743484 0.057053357
0001f0 e4 cf 65 3e a0 27 41 bc 10 03 06 3d 24 70 b6 bd
       0.22442585 -0.0117892325 0.032717764 -0.08908108

decoder.de_convs.0.point_conv1.bias f4 [16]
000000 7c 87 48 3e 90 f1 30 bd 62 7d 3e be 58 ed b5 bd
       0.19582933 -0.043199122 -0.18602517 -0.0888316
000010 88 c3 51 be 7e 06 1c 3e a0 48 93 3c 84 ba 36 3e
       -0.20484746 0.15236852 0.017978966 0.17844588
000020 86 ef 30 3e 9a 25 16 be 1e 0f 13 3e ec 21 57 be
       0.17278871 -0.14662781 0.14361235 -0.21009034
000030 18 20 17 3e 98 78 50 bd b4 90 30 3e c0 88 dd 3c
       0.14758337 -0.050896257 0.172427 0.027042747

decoder.de_convs.0.point_bn1.weight f4 [16]
000000 00 00 80 3f 00 00 80 3f 00 00 80 3f 00 00 80 3f
       1.0 1.0 1.0 1.0
000010 00 00 80 3f 00 00 80 3f 00 00 80 3f 00 00 80 3f
       1.0 1.0 1.0 1.0
000020 00 00 80 3f 00 00 80 3f 00 00 80 3f 00 00 80 3f
       1.0 1.0 1.0 1.0
000030 00 00 80 3f 00 00 80 3f 00 00 80 3f 00 00 80 3f
       1.0 1.0 1.0 1.0

decoder.de_convs.0.point_bn1.bias f4 [16]
000000 00 00 00 00 00 00 00 00 00 00 00 00 00 00 00 00
       0.0 0.0 0.0 0.0
000010 00 00 00 00 00 00 00 00 00 00 00 00 00 00 00 00
       0.0 0.0 0.0 0.0
000020 00 00 00 00 00 00 00 00 00 00 00 00 00 00 00 00
       0.0 0.0 0.0 0.0
000030 00 00 00 00 00 00 00 00 00 00 00 00 00 00 00 00
       0.0 0.0 0.0 0.0

decoder.de_convs.0.depth_conv.weight f4 [16, 16, 3, 3]
000000 77 0c 9d 3d de cc a8 3d 93 5a 49 bd 86 9c aa bc
       0.07668393 0.082422 -0.049158644 -0.02082659
000010 c6 64 45 3d 6b 80 4a 3d a0 1a 3d 3c 3e 0b 9c 3d
       0.04819181 0.049438875 0.011541992 0.07619332
000020 13 ad 47 3d 06 ac 73 bd 00 aa 4d 3b 3b 13 29 bd
       0.04874904 -0.059490226 0.0031381845 -0.041278105
000030 a0 60 c8 bc db 53 4a 3d 40 2c 63 3c b7 94 89 bd
       -0.024460137 0.049396377 0.0138655305 -0.06717818
000040 38 dc 92 bd f3 e3 a9 3d 04 74 92 bd 53 08 8e 3d
       -0.0717091 0.08295431 -0.071510345 0.069351815
000050 04 f7 a6 3d 3b bf 74 3d b8 8e 7b bd f3 27 21 3d
       0.08152583 0.059752684 -0.061415404 0.03934474
000060 ef d3 85 bd eb bb 65 bc 0b 1b 28 3c 16 d5 9b 3d
       -0.06534564 -0.014021854 0.010260354 0.07609002
000070 b6 37 84 bc 2f 46 9f 3d 13 ea 29 bd e0 eb 53 3d
       -0.016139846 0.07777058 -0.041482996 0.05173862
000080 47 32 aa bd 56 9f 8b 3c f6 6e 05 3d 76 50 a5 3c
       -0.08310371 0.01704375 0.032576524 0.020179968
000090 4e 6c 3d 3d 1b fd 47 3d d0 76 15 bd ab b6 15 ba
       0.046245866 0.048825365 -0.03649026 -0.00057111186
0000a0 6b e3 2f bc 60 99 02 3d 16 c4 b6 3c f6 65 9d 3d
       -0.010735373 0.03188455 0.022310298 0.07685463
0000b0 f0 58 36 3d be f7 49 bd 10 4c a0 3d ab fb 54 3b
       0.04451841 -0.04930853 0.07827008 0.0032498639
0000c0 00 e3 cd bc cb f6 0e bc cb 6d 5e 3c 82 e3 a7 3d
       -0.025132656 -0.008725832 0.013575981 0.081976905
0000d0 6b e9 83 3c eb 23 d7 3b 57 af 9c bd 40 de b2 3c
       0.016102513 0.006565561 -0.07650631 0.021834493
0000e0 bb d5 c9 bc 00 b7 ad 3b 28 7a 8d 3d ab b1 0a 3c
       -0.024638047 0.0053013563 0.06908065 0.008465211
0000f0 6b 35 b4 3c f6 d1 0b 3c e6 f9 f5 bc 83 dc 3c bd
       0.021998128 0.008533945 -0.030026387 -0.046108734
000100 84 f0 93 bd ab 02 c6 bb c0 b7 7a 3c 2b 0a df 3b
       -0.07223609 -0.0060427985 0.0153025985 0.006806632
000110 66 32 97 3d 08 3c a4 3d 56 15 bd b7 56 dd 7a bd
       0.073826596 0.080192626 -2.2540491e-05 -0.06124624
000120 43 df 2c 3d 00 84 1b 3d b8 32 00 3d ce 5c 57 bd
       0.042205106 0.037967682 0.03129837 -0.05257874
000130 80 d5 54 bb c6 bd e1 bc b0 14 80 bd 88 ab 1d bd
       -0.0032475889 -0.027556311 -0.06253946 -0.038493663
000140 2b e0 42 3c b0 2b 82 3c ff 36 94 3d b2 0d 80 3d
       0.011894266 0.015889972 0.07237052 0.06252612
000150 20 ca 09 bd 2b 38 1e 3c fb 17 60 3d 3b 2d 99 3c
       -0.033640027 0.009656946 0.05471037 0.018698325
000160 fb d7 4b bd e3 d2 1f 3d eb 21 5f bd 7e 28 51 3d
       -0.049766522 0.039019477 -0.054475706 0.051064007
000170 13 3b 2e bd 2e 31 3b bd 68 b4 35 3d eb 62 ca 3c
       -0.042536806 -0.0457012 0.044361502 0.02470537
000180 df ed 9b 3d 26 7f cb 3c 2e 59 76 3d d8 2c 02 3d
       0.0761373 0.024840903 0.060143642 0.031781048
000190 1e 23 67 3d 96 a2 08 3c a0 78 08 bc 06 10 eb bc
       0.056429975 0.008339545 -0.0083295405 -0.028694164
0001a0 c0 6b c1 3b 3e d5 94 bd b3 4c 62 3d 16 29 6d bc
       0.0059027374 -0.07267235 0.055248927 -0.014475128
0001b0 40 23 a2 3b fa 00 a1 3d 76 96 83 bc e8 2b 1d 3d
       0.00494805 0.078615144 -0.016062956 0.03837195
0001c0 78 48 a9 3d d0 85 f2 bc 00 68 1e 3d 93 ae 3d 3d
       0.082657754 -0.029604822 0.0386734 0.046309065
0001d0 80 01 b1 bb 6b 06 24 3d 86 4b 81 3c 30 53 50 3d
       -0.00540179 0.040045183 0.015783083 0.050860584
0001e0 ab ea 17 bb d3 05 6f bd 60 8c 14 bd ab e2 6a ba
       -0.0023180644 -0.058355164 -0.036266685 -0.0008960168
0001f0 f6 be c6 3c 30 47 1c 3d 4b 6e 9a 3c e0 eb c6 3c
       0.02426098 0.038153827 0.01885142 0.024282396
000200 80 53 34 bb c8 d0 58 bd e6 7f bf 3c e6 c6 11 bd
       -0.002751559 -0.052933484 0.023376416 -0.035590075
000210 ab 9d 2b 3b 23 45 6b 3d 30 6c 6d 3d b6 ff 98 bd
       0.0026186507 0.05743898 0.057964504 -0.07470648
000220 96 37 36 bd da f3 8e bd bb 62 67 3d c0 08 fa bc
       -0.044486605 -0.06980105 0.05649064 -0.03052175
000230 d6 10 87 3c 2b 47 1c 3b 33 51 8d bd 80 11 fd bc
       0.01648752 0.002384613 -0.06900253 -0.030892134
000240 00 83 2c 3b 0b dc 2b bd 63 b1 63 3d 40 d3 88 3d
       0.00263232 -0.041957896 0.05558909 0.06680918
000250 5f e6 82 3d 23 a0 1b bd 38 27 a5 3d 1b ed 80 bc
       0.06391596 -0.037994515 0.08064121 -0.01573806
000260 ab db 9b 3d 16 90 b4 bb 46 f7 a1 3d 64 7b 83 3d
       0.07610258 -0.0055103404 0.07908492 0.06420019
000270 50 a2 8c bd 5a a1 9c 3d fe ef 49 3d e6 65 df 3c
       -0.06866896 0.07647963 0.04930114 0.027270269
000280 46 eb 86 bc 4b 83 dd bc 08 1a aa 3d 78 3a 13 3d
       -0.016469609 -0.027040144 0.08305746 0.035944432
000290 bf 6f 87 bd 0b 43 62 bc 7b a7 6e bd 20 11 1c bc
       -0.06613111 -0.01380993 -0.05826519 -0.009525567
0002a0 b3 e4 a2 3d 3b f9 27 3d ab 31 2f bc 66 f2 83 3d
       0.07953777 0.04100917 -0.010692994 0.06442718
0002b0 60 e0 99 3c 16 3a 23 3d 73 08 67 bd f6 78 fa 3c
       0.018783748 0.039850317 -0.056404542 0.030575257
0002c0 1e 4a 6f 3d ab 17 17 bb 5e 2b a9 3d d6 c7 4d bd
       0.058420293 -0.0023054879 0.08260225 -0.050239407
0002d0 33 37 2b bd 66 61 83 bc d0 0a 71 3d 4e b8 6e bd
       -0.04180069 -0.016037654 0.058848202 -0.058281235
0002e0 24 02 92 bd a3 19 33 bd a8 63 41 3d e7 f1 96 3d
       -0.071293145 -0.04372562 0.04721418 0.07370358
0002f0 ce 41 29 bd 14 a9 95 3d 8b 58 a2 bd 63 06 39 bd
       -0.041322522 0.0730764 -0.079270445 -0.045172106
000300 b2 82 93 bd 23 aa 27 bd a0 75 b2 bc 56 7b 44 3a
       -0.072026625 -0.04093374 -0.021784604 0.0007495185
000310 e6 6c 84 3c 16 d3 50 3d f3 cc 98 3d e0 45 02 bd
       0.016165208 0.050982557 0.07460966 -0.03180492
000320 30 2e a2 bd 20 94 ab bc 33 59 30 3d b2 4d 83 bd
       -0.07918966 -0.020944655 0.043053817 -0.064113036
000330 33 93 45 bd 16 5d 2d bd b0 1a 8e 3c 1e 87 5e 3d
       -0.048236083 -0.0423251 0.01734671 0.054328077
000340 1b db 40 3d 7b 3a 83 3d 73 f4 77 bd 80 c8 9e 3c
       0.047083955 0.06407639 -0.06053586 0.019382715
000350 56 10 81 bc 2b 9a cc bc 46 ce c8 3c ee 21 31 bd
       -0.01575486 -0.024975857 0.024512421 -0.04324525
000360 70 40 1f 3d 8e 27 1f bd 56 48 76 bd 3e fa 53 3d
       0.03887981 -0.03885608 -0.06012758 0.05175232
000370 4b 80 18 bc 96 5e e2 bb f3 9f 78 3d 86 3a 2b 3d
       -0.009307931 -0.006908248 0.060699414 0.04180386
000380 70 f0 27 3d eb 0d 35 3d 2b 21 d8 bc 56 e4 1d bb
       0.041000783 0.044202726 -0.026383003 -0.0024092398
000390 d2 06 8a 3d 5b 64 9b 3d b0 ec 29 bd 76 3b 49 3d
       0.06739582 0.07587501 -0.04148549 0.049128972
0003a0 76 f2 8e 3d c8 d5 90 3d 7b ea 92 bc 2e 26 08 bd
       0.069798395 0.070720255 -0.017934075 -0.033239536
0003b0 96 c4 33 3d f8 da a7 3d 00 e6 7c ba ea d1 83 bd
       0.04388865 0.08196062 -0.000964731 -0.06436522
0003c0 43 ab 3d bd 00 dd 2e 3c 9e 99 45 bd 08 13 a1 3d
       -0.046305906 0.010672808 -0.048242204 0.07864958
0003d0 3b f3 68 3d a0 34 91 3c 40 85 f0 bc a8 39 36 bd
       0.056872588 0.017725289 -0.029360414 -0.04448858
0003e0 c6 8d 53 bd 2b ca 05 3b e0 0f 87 bc 00 ec da 39
       -0.051648878 0.002041469 -0.016487062 0.00041756034
0003f0 eb 7c 25 3d 66 86 69 3d 30 11 cc 3c 06 b5 ba 3c
       0.040402334 0.057012938 0.02491054 0.022791397

decoder.de_convs.0.depth_conv.bias f4 [16]
000000 d6 2f 28 3b c0 9b 82 bc ff fa 8f 3d bf 8c 8a 3d
       0.0025663278 -0.015943408 0.070302956 0.067651264
000010 de c9 62 bd 00 40 94 38 2f 4f 8e bd fb 08 72 3d
       -0.055368297 7.069111e-05 -0.06948697 0.059090596
000020 f4 e7 a1 3d ec 45 96 bd b6 23 0d bd 38 97 87 3d
       0.0790557 -0.07337555 -0.034457885 0.066206396
000030 2b b9 04 3c 3e 66 6a 3d 00 f0 fb b8 fe 1c 1d bd
       0.008100788 0.057226412 -0.00012013316 -0.038357727

decoder.de_convs.0.point_conv2.weight f4 [16, 8, 1, 1]
000000 3e 1f ba 3d 7c dd 92 3c 98 19 77 3c c8 ad a5 be
       0.0908799 0.017927878 0.015081786 -0.32359147
000010 46 4e 77 bd d8 a0 9a 3e d1 a3 f6 3d 4a 06 fa bd
       -0.06037738 0.3020084 0.12042964 -0.12208231
000020 e0 be 7c 3d 35 01 c3 3c bf a2 a4 be 7d cb 55 3e
       0.06170547 0.023804286 -0.32155415 0.20878406
000030 c6 d8 a0 3e 6e 7d 81 bd 59 5b 57 3d e2 08 09 be
       0.31415385 -0.06322752 0.05257735 -0.13382295
000040 cb 2c 9b be d8 c3 1c bb 75 54 92 be 69 1e a0 3e
       -0.30307612 -0.0023920443 -0.2858006 0.312732
000050 aa 1f 0f bd 3d 67 82 be 42 dd a8 be f5 41 44 3e
       -0.034942307 -0.2546939 -0.32981306 0.19165786
000060 e5 c2 2d 3d 11 7b 98 3e c6 67 f3 3d 40 df 96 3e
       0.042422194 0.29781392 0.118850276 0.294672
000070 ef fe 1a be bd 2b b3 3d a5 0d e5 bd 49 d9 a4 3e
       -0.15136312 0.08748577 -0.11184243 0.32197025
000080 d3 cf 4c 3e 32 72 a0 3d 34 99 41 3d 24 f4 26 3d
       0.20001154 0.07834281 0.047265247 0.040760174
000090 72 05 72 be 56 b4 9b be f6 b3 e3 3d 62 da 81 be
       -0.2363489 -0.30411023 0.11118309 -0.25361925
0000a0 b2 3c 5a 3e 47 6d 87 3e 61 fd d8 3d 6b d6 a2 3b
       0.21312216 0.2645056 0.10595203 0.0049694083
0000b0 2f 9b 83 bd a5 52 96 be 14 9b 3d bd 62 b2 0c 3e
       -0.06426083 -0.29359928 -0.046290472 0.13739923
0000c0 32 fd a1 be c8 34 a8 be b4 2f 62 3e 21 92 24 bb
       -0.31638485 -0.3285277 0.2208851 -0.0025111514
0000d0 e8 59 34 be 80 ef 8c be 8d dd 92 3d 7a 54 86 3e
       -0.17612422 -0.27526474 0.07171164 0.26236326
0000e0 85 22 1b 3d 06 07 84 be ac b7 97 3e 1f c3 a3 bd
       0.037874717 -0.25786608 0.29632318 -0.07996201
0000f0 1a ad 7c be 98 7b 12 3d 0d 6f 67 3e bf c9 92 3e
       -0.24675408 0.0357624 0.22600956 0.28669545
000100 1c b2 a7 3d cf 8c 8e bc 99 cf 34 3e 82 3d 4c 3d
       0.081882685 -0.017401127 0.17657317 0.049863346
000110 e2 c7 d8 bd b0 16 19 be 49 fd b3 3d 83 37 de bd
       -0.105849996 -0.14950061 0.08788545 -0.10850432
000120 21 20 9c be 3d 6d 39 3e c4 d9 ad be fb 4f 74 3e
       -0.30493262 0.18108077 -0.33955204 0.23858635
000130 29 54 43 bd 22 f5 9a be 71 72 a6 3e 65 b3 9b 3e
       -0.047687683 -0.30265146 0.32509187 0.30410305
000140 5d d9 60 3d 37 ad 3e bd 0c 17 a8 3e 10 a0 52 be
       0.054894794 -0.04655191 0.32830083 -0.20568871
000150 04 9a ca bd 43 77 36 be 89 88 83 3d d6 ad 98 3d
       -0.098926574 -0.17818932 0.064225264 0.074550316
000160 53 0e 9e 3e 42 c5 97 3e 5b 54 87 be 19 a5 f6 3b
       0.30870304 0.29642683 -0.26431546 0.0075270054
000170 8a 30 d0 bd bf 20 86 3e 52 fa 62 bc e0 42 2f 3e
       -0.10165508 0.26196858 -0.013853626 0.17115355
000180 86 52 15 be f0 50 62 3e 48 f4 97 3e b2 4d 28 3d
       -0.14582261 0.22101188 0.2967856 0.04108972
000190 69 96 98 be 5a 5e a6 3e 4f 13 83 3e 95 1a a2 3e
       -0.29802254 0.3249386 0.2560067 0.31660905
0001a0 1e b7 b0 be 6e f4 88 be 8e d9 a9 be 0f 35 34 3d
       -0.34514707 -0.26748985 -0.33173794 0.043995913
0001b0 f1 1d a0 3d 72 32 48 be 80 bf b4 be de 8a ea bd
       0.07818211 -0.19550493 -0.35302353 -0.11452268
0001c0 44 f3 22 3e 2a d5 0c 3e c0 38 a3 3e 82 39 f2 bd
       0.15913111 0.1375319 0.31879234 -0.11827375
0001d0 31 bc 04 3e 26 86 80 be 04 5c 9f be 8d e2 a9 3e
       0.12962414 -0.25102347 -0.3112489 0.33180657
0001e0 88 2f 70 3e c1 87 50 be 3e 21 ac 3e 96 75 53 be
       0.23455632 -0.20364286 0.33619112 -0.20650324
0001f0 ff d0 bd bc ee af b6 3d 2c 73 78 be ed 27 ab be
       -0.023170946 0.08920275 -0.24262685 -0.33428898

decoder.de_convs.0.point_conv2.bias f4 [8]
000000 4c 7b 93 be a6 c4 e6 bb 9a 34 70 be 9d b2 d2 bd
       -0.28805006 -0.0070424853 -0.23457566 -0.10287974
000010 7e 6d a8 bd 6a 95 9d 3d 82 db 16 3e 4b 2f 51 be
       -0.08224009 0.07694514 0.14732173 -0.20428197

decoder.de_convs.0.point_bn2.weight f4 [8]
000000 00 00 80 3f 00 00 80 3f 00 00 80 3f 00 00 80 3f
       1.0 1.0 1.0 1.0
000010 00 00 80 3f 00 00 80 3f 00 00 80 3f 00 00 80 3f
       1.0 1.0 1.0 1.0

decoder.de_convs.0.point_bn2.bias f4 [8]
000000 00 00 00 00 00 00 00 00 00 00 00 00 00 00 00 00
       0.0 0.0 0.0 0.0
000010 00 00 00 00 00 00 00 00 00 00 00 00 00 00 00 00
       0.0 0.0 0.0 0.0

decoder.de_convs.1.point_conv1.weight f4 [8, 16, 1, 1]
000000 04 fa 38 3e 90 12 d0 bc 9a c0 49 be e0 6e 88 3c
       0.18064123 -0.025399476 -0.19702378 0.016654432
000010 d4 f5 ad 3d d0 f1 c6 3d 78 ff 93 3d a4 1f 34 be
       0.084941536 0.09714091 0.07226461 -0.17590195
000020 42 26 5c be a0 c5 f8 3d 24 de be bd 00 d4 01 3c
       -0.21498969 0.12147069 -0.09319714 0.00792408
000030 f2 05 07 3e e0 63 02 be 14 12 f7 3d 5c 9d 07 3e
       0.13185862 -0.12733412 0.12063995 0.13243622
000040 4e da 55 3e d0 74 05 3d c0 b5 8d bc 74 68 d6 3d
       0.20884058 0.032582104 -0.01729858 0.104691416
000050 38 49 34 be 3e 6c 2e be 08 01 10 3d ae ca 0c 3e
       -0.17606056 -0.17033479 0.035157233 0.13749191
000060 b6 17 66 be 3a a3 07 3e 78 88 2c be 80 6d 11 be
       -0.22469983 0.1324586 -0.16848934 -0.14201927
000070 a0 2f 72 bd b8 88 07 3d 38 12 50 3e f0 40 08 3e
       -0.05912745 0.03308937 0.2031945 0.13306022
000080 cc 80 fc 3d 00 ee 62 ba 96 38 6e be c2 8e 1e 3e
       0.123292536 -0.00086566806 -0.23263773 0.15484145
000090 04 4e f9 bd ac a1 07 be 2a 9c 77 be c4 eb e2 bd
       -0.121730834 -0.13245267 -0.24180666 -0.11080125
0000a0 d2 4d 21 3e 04 ee 6a be a0 96 4c be b4 a6 ec bd
       0.15752342 -0.22942358 -0.19979334 -0.115552336
0000b0 6e 9f 71 be 24 ef 00 be 00 05 d2 bb d6 7d 53 3e
       -0.23595974 -0.12591225 -0.0064092875 0.20653471
0000c0 9c 47 81 3d 6c 97 25 3e 4c f4 33 be c4 5a 67 be
       0.063124865 0.16171044 -0.1757366 -0.22593218
0000d0 72 bb 2d 3e a2 a8 05 3e d4 fb 24 be 3c 5c f7 3d
       0.16966036 0.1305261 -0.1611169 0.12078139
0000e0 70 ed 35 be 96 b0 2a 3e 94 d0 ce bd a0 bc a2 3c
       -0.17766356 0.16668925 -0.10098377 0.019865334
0000f0 10 35 f6 bc 4c 98 5f 3e f4 a1 4a be d0 4f 34 be
       -0.030054599 0.2183544 -0.19788343 -0.17608571
000100 a0 8d 19 3e ac b5 72 be 34 7e d9 3d 8c a9 36 3e
       0.14995432 -0.23702115 0.106197745 0.17838115
000110 74 de 1e 3e 28 42 14 3e 2c c4 f2 3d 6c df 27 3e
       0.15514547 0.14478362 0.11853823 0.16393822
000120 2e dd 71 be 30 4e a8 3c 60 0f 89 bc 18 19 5b bd
       -0.2361953 0.020545095 -0.016730964 -0.05349073
000130 90 f3 4c be 26 e2 29 be 74 e3 6d 3e 2c 49 25 be
       -0.20014787 -0.16590175 0.23231298 -0.16141194
000140 9e 0b 3f 3e a8 bc b1 3d 90 fd a4 bc e4 c7 f2 bd
       0.18656775 0.086785614 -0.02014044 -0.11854532
000150 b0 35 bf 3d 1c 14 00 3e 08 c3 54 bd 60 e5 05 3e
       0.09336412 0.12507671 -0.05194381 0.13075781
000160 82 07 2c be c0 6a c5 bb 00 94 db 39 68 ea 2a be
       -0.16799739 -0.0060246885 0.00041881204 -0.16690981
000170 00 3c 49 bb 40 50 24 bc f2 b0 58 be a2 b8 77 3e
       -0.0030705929 -0.010028899 -0.2116125 0.24191526
000180 90 69 3e 3d 00 4f 44 3d 60 b6 46 be ce b2 39 3e
       0.04648739 0.047926903 -0.19405508 0.18134615
000190 9c d2 a9 bd 94 be c0 3d de f1 4a 3e 02 83 33 3e
       -0.08292124 0.0941135 0.19818828 0.17530444
0001a0 34 35 5b be 74 48 a4 3d 28 0e 57 3d 98 77 90 bd
       -0.21407014 0.08021632 0.052503735 -0.07054061
0001b0 80 08 09 3c 60 35 31 3e 90 96 41 bd 64 53 5d 3e
       0.008363843 0.17305517 -0.04726273 0.21613842
0001c0 c4 a9 3f 3e b2 55 27 be aa d9 73 be 0c 7e 57 3e
       0.18717104 -0.16341284 -0.23813501 0.21044177
0001d0 60 94 f3 bd 6e c8 71 3e 08 f6 1a be e0 0e 3c bd
       -0.11893535 0.23611614 -0.15132916 -0.045912623
0001e0 5c 4b 0e 3e d0 5e f2 3c 22 6e 5c be a0 2a 43 3e
       0.13895935 0.029586226 -0.21526387 0.19059229
0001f0 bc be 72 3e 34 5f 84 3d 70 b3 da 3c 10 5c d0 bd
       0.23705572 0.06463471 0.02669689 -0.101738095

decoder.de_convs.1.point_conv1.bias f4 [16]
000000 88 0c 54 be 40 45 0d 3c 48 6c df 3d 8e 94 4d be
       -0.20707905 0.0086224675 0.10909325 -0.200762
000010 70 cf 8b bc 00 5d ae 3a 64 02 bd bd 08 e8 64 3d
       -0.017066687 0.0013302863 -0.092289716 0.055885345
000020 96 e0 17 be da 67 27 3e e4 37 88 3d 52 df 7f be
       -0.14831766 0.1634821 0.06651285 -0.24987534
000030 d2 f7 13 be 44 d1 45 3e c0 27 56 bc 30 c5 8f bc
       -0.14450005 0.1931811 -0.013071001 -0.017550081

decoder.de_convs.1.depth_conv.weight f4 [16, 16, 3, 3]
000000 70 3d ee bc ea 7f 80 bd 58 fa 76 3d a3 fe 42 bd
       -0.02908203 -0.06274398 0.06029734 -0.04760612
000010 a6 1c 6b 3d 03 f7 59 bd cb eb 98 bd ab 29 e1 bb
       0.05740037 -0.053214084 -0.07466849 -0.0068714223
000020 8b 61 87 bd eb f3 23 bd cb 45 97 3d a4 f2 9f 3d
       -0.06610402 -0.04002754 0.07386359 0.07809952
000030 66 ae d3 3c 1e 8f 49 3d 40 13 a5 3c a0 1a 19 bc
       0.025839996 0.049208753 0.02015078 -0.009344727
000040 a3 be a2 3d 2e ce 13 3d 0e 54 01 3d 76 df 35 bc
       0.07946517 0.0360853 0.0315743 -0.0111006405
000050 24 0a 84 3d 2a 6f 83 bd 60 3d df bc 90 1b d5 3c
       0.06447247 -0.06417687 -0.027250946 0.02601412
000060 23 91 6b bd d6 53 71 bd ea 02 a4 3d 90 3a 80 bd
       -0.05751146 -0.058917843 0.08008368 -0.0626117
000070 f6 a5 9e 3c 46 dc 26 bd d6 d1 51 bb cb 0e b1 3c
       0.019366246 -0.040737413 -0.003201594 0.0216135
000080 9b 81 88 bc 10 31 9e 3c eb f3 ce bb 36 a4 db bc
       -0.016663363 0.019310504 -0.0063156984 -0.0268117
000090 cb 29 42 3d 30 12 2f bd 64 58 a0 3d 56 2e 25 3d
       0.047403138 -0.042741954 0.07829359 0.040327393
0000a0 36 55 8a bc 8e 0e 5e 3d 43 23 23 3d 2b 32 02 bd
       -0.016886335 0.0542131 0.03982855 -0.031786125
0000b0 10 32 78 3d f8 5a 4b 3d e8 6b 91 3d 9b 9a 59 3d
       0.06059462 0.0496473 0.071006596 0.05312596
0000c0 66 81 aa 3c b0 ec 9c bd 04 62 83 3d d6 a0 70 bd
       0.020813655 -0.07662332 0.06415179 -0.058747135
0000d0 20 52 a7 bd 6e be 7f 3d 70 62 e4 bc 3f 6b 80 3d
       -0.08169961 0.062437467 -0.02787897 0.062704556
0000e0 9b d3 97 bc 60 07 b0 bc b2 6a a4 bd 86 ba fa bc
       -0.018533519 -0.021487892 -0.08028163 -0.03060652
0000f0 fb 0d e2 3c 2b 1a 2e 3b 36 23 43 bc 00 cb e6 3b
       0.027594557 0.002656589 -0.01191025 0.0070432425
000100 26 5b 47 3d 6c d5 8f 3d 2b a7 44 3d 8b 29 49 bc
       0.04867091 0.07023129 0.048010986 -0.012277971
000110 77 fb 96 3d e8 d9 79 3d 5b 3b 1b bd 70 d7 98 bc
       0.07372182 0.060998827 -0.037898403 -0.018657416
000120 2b 62 ed 3b 7b a7 8b 3c 6b 9e e1 3b 56 23 52 bc
       0.0072443685 0.017047634 0.00688534 -0.012825808
000130 93 bb 9a bd 9b b3 bb 3c fe c7 20 bd de ff 4e 3d
       -0.07555308 0.022912791 -0.039253227 0.050536983
000140 96 f7 b4 3c a3 ae a7 3d 38 e6 8f bd 8f 8f 8d bd
       0.022090714 0.08187606 -0.070263326 -0.06912147
000150 d0 d1 eb 3c a0 c8 1e bd a6 40 5d 3d db c7 7c bd
       0.02878657 -0.03876555 0.05401673 -0.061714035
000160 90 ec 35 bd f6 a0 03 3c 16 8f c5 3b 0b b4 d5 bc
       -0.044415057 0.008033982 0.00602902 -0.026086828
000170 8b 1b 31 3d 5f d2 86 bd 5e 55 15 3d 30 39 88 bd
       0.043239158 -0.06583094 0.036458366 -0.06651533
000180 78 6b 12 bd f6 a4 27 3d 50 b1 1f 3d 0b a4 9c 3c
       -0.03574702 0.040928803 0.038987458 0.01912119
000190 1e 8c 03 bd 16 33 d9 bb e6 50 90 bd 0b f8 a0 bd
       -0.032116048 -0.0066284044 -0.0704668 -0.078598104
0001a0 0b cc 2d bd 7b 04 34 bd 08 a0 71 3d 2f f0 83 3d
       -0.04243092 -0.043949585 0.05899051 0.06442296
0001b0 d0 4e e5 3c 50 b2 09 bd f3 9a 72 3d 97 7a 84 3d
       0.027991682 -0.033617318 0.059229802 0.06468695
0001c0 ab 06 04 bc d0 ca fe 3c d0 99 4c 3d 5e 88 0d bd
       -0.00805823 0.031102568 0.049951375 -0.034553878
0001d0 58 3f 6b 3d c0 1f a5 bd d6 0b 03 3d 84 af a8 3d
       0.057433456 -0.080626965 0.03199371 0.08236602
0001e0 08 ea 9e 3d ab 7e 87 3c ac 45 8b bd c4 1e a5 3d
       0.07759482 0.016539892 -0.06800398 0.08062509
0001f0 cb 5a e5 3c 66 34 37 3d bb 8d f2 3c e0 17 8d 3d
       0.027997395 0.044727705 0.029608598 0.068893194
000200 9c 19 88 bd f3 b8 4a bd 6b 1c 93 bd eb 8e 12 3c
       -0.066455096 -0.049492788 -0.07183155 0.008945207
000210 53 2a 9a 3d 2b 44 cb bb a3 36 a1 3d 34 cc 8e 3d
       0.07527604 -0.0062031946 0.07871749 0.069725424
000220 66 2d d1 bc 3b 50 f2 3c bb 09 1f bd 00 5c e9 ba
       -0.025534343 0.029579272 -0.03882764 -0.0017803907
000230 de bb 72 bd 6e 47 9b 3d 16 99 fa bc 5f 88 92 bd
       -0.059261195 0.075819835 -0.030590575 -0.07154917
000240 9c dc 9e 3d 60 1e 01 3c eb 34 0f 3c 16 a6 a9 3c
       0.07756922 0.007880777 0.008740644 0.020709079
000250 53 71 46 3d 08 59 9c bd f6 fc c8 3c 3a 2d 95 3d
       0.04844792 -0.07634169 0.024534684 0.07284017
000260 a0 4f 5b 3c 30 52 9c bd ab e0 57 3c 7c 3d 87 3d
       0.013385683 -0.076328635 0.013176124 0.06603524
000270 8b f8 67 3d 0b 49 47 bd 0a 2b 95 bd 43 10 7f 3d
       0.056633513 -0.048653644 -0.072836 0.062271368
000280 e0 6c 7b 3d b6 7b 6f 3c 36 b6 79 3c db fc ae 3c
       0.06138313 0.014616897 0.015241196 0.021360805
000290 16 f0 fb bb 80 6c 71 3c 83 98 42 bd 6e 92 59 3d
       -0.0076885326 0.014735341 -0.047508728 0.05311816
0002a0 56 ab 6f bd ab 36 20 3c 00 4a 26 bc 87 ac 81 3d
       -0.058513008 0.009778659 -0.010149479 0.06331735
0002b0 7f b7 93 bd 2b 66 27 bc b7 41 96 3d 58 2a 95 bd
       -0.072127335 -0.01021723 0.07336753 -0.07283467
0002c0 fe e7 37 3d 76 8d 3d 3d b3 b4 55 3d 6b 7a d3 3b
       0.04489898 0.046277486 0.05217428 0.0064538023
0002d0 80 bb 41 3d e8 d5 74 3d 2b 4f 46 3c 6a c4 87 bd
       0.047297955 0.05977431 0.012103836 -0.0662926
0002e0 6b c8 8f bb 50 33 58 bd d8 c8 43 3d 00 3f b6 3c
       -0.0043879054 -0.05278331 0.04779896 0.022246838
0002f0 f6 3b 83 3d 07 35 8e 3d ab af 85 bb fb 6a e9 bc
       0.06407921 0.06943708 -0.004079779 -0.028493395
000300 48 af 93 bd c0 11 45 3d 66 af 2f bd 6b 6b 85 bc
       -0.072111666 0.04811263 -0.042891882 -0.016286572
000310 18 0a 75 3d 08 1e 1e 3d 6b 61 d4 bc 5f ec 92 bd
       0.05982408 0.03860286 -0.025925359 -0.071739905
000320 7b 1e 6b 3d 30 ea b3 3c 60 5a d6 bc 00 d3 03 bd
       0.057402115 0.021962255 -0.026166141 -0.032183647
000330 eb d3 8c 3d b3 b7 37 bd 26 49 40 bd f0 87 87 bd
       0.06876358 -0.044852924 -0.04694476 -0.06617725
000340 06 da 10 bd 00 31 85 bb 60 10 3f bc 13 16 2e bd
       -0.035364173 -0.004064679 -0.011661619 -0.04250152
000350 d0 9a 17 bd b0 55 80 3d 40 a0 c4 bb 96 25 a9 3b
       -0.037012875 0.062663436 -0.0060005486 0.0051619513
000360 76 63 26 3d b6 7f 72 3c f6 6e 36 bd c0 10 06 bc
       0.040622197 0.0148009565 -0.044539414 -0.008182704
000370 d3 28 0e bd 76 79 b4 bc a0 65 2c bd e6 ef 4a 3d
       -0.0347069 -0.022030573 -0.042089105 0.04954519
000380 16 58 ac 3c 06 3b c8 bc 00 fe 06 3b af f9 8f 3d
       0.021038096 -0.024442207 0.0020598173 0.07030045
000390 d2 5a 87 3d 04 f3 a6 3d 26 96 b9 3c d6 02 f5 3c
       0.066091195 0.0815182 0.022654604 0.029908579
0003a0 00 fc 82 3b a6 9e 35 3d 70 0e c8 bc 43 75 a8 bd
       0.003997326 0.044340752 -0.024420947 -0.08225491
0003b0 fb d8 e5 3c a6 6b 4e bd 76 26 ce 3c ce d9 3e 3d
       0.028057566 -0.05039563 0.025164824 0.046594433
0003c0 53 c0 39 3d 20 89 0e 3d 5a 3c a4 3d 88 db a7 bd
       0.04534943 0.03479874 0.08019324 -0.08196169
0003d0 66 95 f3 bc 73 ec 82 bd 60 ef 4a 3c 34 2d 9f 3d
       -0.029734325 -0.06392755 0.012386173 0.07772294
0003e0 56 b0 84 ba de 1d 7f 3d e2 02 93 bd 9c 0a 9d bd
       -0.0010123353 0.062284343 -0.07178284 -0.07668039
0003f0 58 cd 67 3d b6 40 78 bc ab a1 d8 ba ff 2b 9a bd
       0.056592315 -0.015152147 -0.0016527673 -0.07527923

decoder.de_convs.1.depth_conv.bias f4 [16]
000000 2b 17 31 bd 96 41 c7 bc 6b 58 7f 3c ab 57 20 3c
       -0.043234985 -0.024323266 0.015585045 0.009786527
000010 00 d7 a3 bb 1e 5c 85 bd ab 43 91 bb ab cc 62 3a
       -0.004999995 -0.065117106 -0.0044331155 0.0008651714
000020 be 05 7c 3d f0 7e f9 3c 90 e8 d2 bc 3c 3a a2 bd
       0.061528914 0.030456036 -0.02574566 -0.079212636
000030 ab b8 56 bc 66 70 d7 bc 46 6d 4c 3d 5e dd a9 3d
       -0.013105552 -0.026298713 0.0499089 0.082941756

decoder.de_convs.1.point_conv2.weight f4 [16, 8, 1, 1]
000000 75 87 30 bd e3 da 2c 3e 04 23 88 be e2 99 42 be
       -0.043097932 0.16880374 -0.26589215 -0.19004014
000010 96 5f e4 bb 9a a3 b1 3e 3f ca 04 be a6 0e aa 3e
       -0.0069694025 0.3469513 -0.12967776 0.332143
000020 7d 27 78 bd a0 19 80 3d ac 24 6b 3e 29 79 a7 be
       -0.060584534 0.062548876 0.22963208 -0.32709625
000030 b4 1b ae 3e da f9 b5 bd 51 02 a7 3e 1d bf 94 ba
       0.3400551 -0.08885546 0.32618955 -0.001134846
000040 27 79 1f 3e ee 31 fa 3d 6b fa 47 be a1 ce 9c 3e
       0.1557356 0.122165546 -0.1952912 0.30626395
000050 df 2e 15 3e 73 ed 6b 3e 37 5b 4a 3d c2 a7 64 3d
       0.14568661 0.23039798 0.049403396 0.05582405
000060 b5 ad 81 3e 7b d5 0d be 95 7f fe 3c 44 92 12 bd
       0.2532784 -0.13850968 0.031066695 -0.03578402
000070 7e 18 9b 3e 6a b5 7f 3e 1c eb 3a bd ba 53 b5 3d
       0.30292124 0.24971548 -0.045634374 0.0885386
000080 1c f5 a0 be cc 11 14 3e b8 0b 3c be 45 ef 69 be
       -0.31437004 0.14459914 -0.18363845 -0.2284518
000090 2a bf 99 3e 3e c3 67 3e c0 77 a3 3e e0 8b 93 be
       0.3002866 0.22633073 0.319273 -0.28817654
0000a0 51 7c d7 3d 91 aa 33 3e ec b6 41 be 3d db 76 bd
       0.10521758 0.17545535 -0.18917435 -0.060267676
0000b0 45 36 6a 3e 79 5e 97 3e 7a ee 9b be 55 01 94 be
       0.22872265 0.29564264 -0.3045538 -0.28907266
0000c0 2a 9a ad be 3e 10 5d be 13 ab 1a be 0a cf 8e be
       -0.3390668 -0.21588227 -0.15104322 -0.27892333
0000d0 0e 0f b8 bd 05 90 97 be a9 ca 01 be 4b 1e 6c be
       -0.089872465 -0.29602066 -0.12674965 -0.23058431
0000e0 43 57 78 bb 1d 4f 62 be ae be 97 bb aa 8c a5 be
       -0.003789381 -0.22100492 -0.004630885 -0.3233388
0000f0 a4 bc b3 be d7 44 4f 3e 5d 9c b4 3d 4e 22 6c be
       -0.3510486 0.20241104 0.088188864 -0.23059961
000100 8a b1 63 3e be 09 a9 3e 40 06 68 3d ad ca 3d bd
       0.22235695 0.33015245 0.056646585 -0.046335865
000110 b2 c0 94 be 80 df b3 bb 11 6f b8 3d 95 da c2 3c
       -0.29053265 -0.0054892898 0.09005559 0.023785869
000120 6f b9 f1 bd 14 75 62 bd da 57 92 be 7a cd 29 3d
       -0.11802947 -0.055287436 -0.2858265 0.041455723
000130 41 a2 4f 3e 40 39 85 3e 3c 46 98 be 85 52 b1 be
       0.20276739 0.2602024 -0.29741085 -0.3463327
000140 8c 23 5a 3e 4a de 96 be f1 b0 9e 3e f5 41 14 bc
       0.21302623 -0.29466468 0.3099437 -0.0090489285
000150 69 f2 79 3e ad de 49 bd 81 ce 51 be 82 98 ba bd
       0.24408878 -0.049284626 -0.20488931 -0.0911112
000160 8f 2c 9e 3e 9e 2c 71 be 4e 8a 37 3e 8f 48 3f be
       0.3089337 -0.23552176 0.17923853 -0.18680023
000170 4d 0a 73 3e 39 bc 3b 3e af ed a4 be 2e 59 27 be
       0.23734398 0.1833352 -0.32212588 -0.16342613
000180 32 52 e4 bd ea bf ac bd 89 2c ad 3e b4 bb 89 bc
       -0.1114849 -0.08435042 0.3382304 -0.016813137
000190 be a2 be 3d cf a7 82 be 07 c9 8d bd 8b de 8a be
       0.09308384 -0.25518653 -0.069231085 -0.27122912
0001a0 89 b6 9a be f0 de 31 3e db a2 db 3d 8d c0 2f be
       -0.30217388 0.173702 0.107244216 -0.17163296
0001b0 a2 5e 3d be 24 9e a8 3e b5 aa fb 3c 96 88 9c 3e
       -0.18493131 0.32933152 0.030721048 0.30572957
0001c0 f2 e2 b1 be 26 da 8a bd d0 c6 8a 3d 47 3f 32 3e
       -0.34743458 -0.0677989 0.06776202 0.17406951
0001d0 fd 51 05 3e db fa 9e bd 79 79 27 3c 2c bb 98 3e
       0.13019557 -0.07762691 0.010221832 0.298303
0001e0 10 40 7a 3e 8c a7 ea 3a 2f 78 9c 39 5f 1f 75 3e
       0.244385 0.0017902716 0.00029844182 0.23937748
0001f0 c4 75 ad be a1 07 f7 3d 4f 9c 0c be 27 68 7b 3b
       -0.3387891 0.12062002 -0.13731502 0.003836164

decoder.de_convs.1.point_conv2.bias f4 [8]
000000 6c 80 41 3e b6 9b 8e 3e 45 9c 24 be 70 fc 0b 3d
       0.18896645 0.27853173 -0.16075237 0.03417629
000010 df cf d6 bc e7 d2 96 3e ea b7 a4 3e d2 a1 aa 3e
       -0.026222168 0.2945778 0.32171565 0.33326584

decoder.de_convs.2.point_conv1.weight f4 [8, 16, 1, 1]
000000 90 1f 13 3e d8 71 54 be 3c bf 3a 3e c4 33 15 be
       0.14367509 -0.20746553 0.18237013 -0.14570528
000010 78 d8 f4 bd 4e f5 73 3e 30 08 52 be ae 13 70 be
       -0.11955351 0.23824045 -0.20510936 -0.23445007
000020 3c 7d 7a be 14 a3 b3 3d 62 b1 3e be 3a 61 71 be
       -0.24461836 0.08771339 -0.18622354 -0.23572245
000030 64 0b ab 3d 44 21 9a 3d 10 5c 93 3d 34 3f 2e be
       0.08351782 0.07525876 0.07195294 -0.17016298
000040 8e 43 35 be f0 ca b0 bc 78 16 70 3d 40 b8 c6 3d
       -0.17701551 -0.021581143 0.058615178 0.09703112
000050 ce ec 0d be 18 23 84 3d d4 65 4c be 38 e5 d9 3d
       -0.13859865 0.06452006 -0.1996072 0.10639423
000060 5e d7 3d be d8 c5 52 be 88 a8 0c 3e 00 5d 70 bc
       -0.18539187 -0.20583284 0.13736165 -0.01467061
000070 26 c4 21 3e b2 d7 3d be 10 f7 91 bd 1a d2 64 be
       0.15797481 -0.18539312 -0.071272016 -0.22345772
000080 46 9c 22 3e 58 a8 61 3d 2c e3 af bd 00 c6 2a 3e
       0.15879926 0.055092186 -0.085882515 0.16677094
000090 24 cd 87 3d a8 e0 44 bd 60 15 0d bc 00 d0 5b be
       0.06630924 -0.04806581 -0.008611053 -0.21466064
0000a0 7a 28 32 3e f4 4f dd bd c0 b5 d7 bb 1a 1a 50 3e
       0.17398253 -0.108062655 -0.0065829456 0.20322457
0000b0 58 39 25 3d 10 d4 7c bd 7e a2 23 3e 50 77 14 bd
       0.04033789 -0.061725676 0.15979955 -0.036246598
0000c0 c0 96 51 bc fe 4f 18 3e 0c c2 a8 bd 1c 80 d0 bd
       -0.012792289 0.14874265 -0.082401365 -0.10180685
0000d0 d0 10 c6 3c 88 79 13 be 46 be 58 3e c8 b0 ab 3d
       0.024177939 -0.14401829 0.21166334 0.08383328
0000e0 50 b0 3e 3d 94 c0 52 3e 08 15 35 be 60 66 20 3d
       0.046554863 0.20581275 -0.17683804 0.039160132
0000f0 d6 ea 3e 3e fc 28 a0 3d 50 7e 4b be 54 32 1b 3e
       0.1864427 0.07820317 -0.19872403 0.15155917
000100 c0 9e d7 bc b8 b0 e0 bd 78 a0 23 3e 74 04 6d be
       -0.026320815 -0.109712064 0.15979183 -0.2314623
000110 30 04 7f bd 78 84 14 3d 60 1f 2c be 88 a0 57 3e
       -0.062259853 0.036259145 -0.16808844 0.21057332
000120 64 64 16 3e ba be 30 3e a0 75 56 3c d4 02 eb bd
       0.14686733 0.17260256 0.013089567 -0.11475149
000130 68 38 1b 3d 40 05 4f bd fc 15 25 be da 28 1c 3e
       0.03789559 -0.050542116 -0.16121668 0.15249959
000140 8c e2 c4 3d 90 b3 34 3d 5a c2 33 be 12 ac 55 be
       0.09613523 0.044116557 -0.17554608 -0.20866421
000150 18 47 13 3d 98 af c0 bd bc 52 fd bd ec 3e 81 3d
       0.035956472 -0.09408492 -0.12369296 0.063108295
000160 38 fa 7e 3e cc 23 6e 3e bc f2 8c 3d 54 e0 06 be
       0.24900138 0.23255843 0.068822354 -0.13171512
000170 84 80 b6 3d a0 6c 44 be 9e d0 61 be 70 3a 9c 3c
       0.08911231 -0.19182062 -0.22052237 0.019070834
000180 b8 f9 a2 3d 10 db 0c bd 48 1c 60 3e 00 00 cb b7
       0.07957786 -0.0343886 0.21885788 -2.4199486e-05
000190 04 c0 b8 bd 36 ec 5b 3e c8 ef 37 3d c0 ac e4 bb
       -0.09020999 0.21476826 0.044906408 -0.006978601
0001a0 c0 9d 25 bd 60 e8 7c bd a4 55 f3 bd 00 c8 d3 39
       -0.040433645 -0.061745048 -0.11881569 0.00040394068
0001b0 18 ef 5d bd 64 cc 73 be f8 b1 09 bd 40 d7 29 3c
       -0.054183096 -0.23808438 -0.03361699 0.010366261
0001c0 40 de 14 3e bc 3c 15 3e f2 9b 1d 3e 4c db b0 bd
       0.14537907 0.1457395 0.1539152 -0.086355776
0001d0 32 49 35 be 20 99 04 3d ee f8 2e 3e 42 8b 4c 3e
       -0.17703703 0.032372594 0.17087147 0.19974998
0001e0 52 ad 54 3e 62 d3 2b 3e 14 88 4b 3e 50 3c ac bc
       0.20769241 0.16779855 0.19876128 -0.021024853
0001f0 68 69 1d bd d0 56 b4 bc d6 2c 79 be ea 60 08 be
       -0.0384306 -0.022014052 -0.2433351 -0.1331822

decoder.de_convs.2.point_conv1.bias f4 [16]
000000 5c 2f 9a bd 88 a6 2b be 1a 99 00 be 74 c5 d7 bd
       -0.07528564 -0.16762745 -0.12558404 -0.10535708
000010 3c f9 cd bd b0 a7 21 3d 10 4d 12 3d 04 4f fa bd
       -0.10057303 0.03946656 0.035718024 -0.12222102
000020 e2 1c 55 3e 48 e0 da 3d 00 21 08 bd 4a 1c 65 be
       0.20811799 0.106873095 -0.033234596 -0.22374073
000030 04 c7 1f 3e b0 e3 f2 bd 38 1e 36 bd e8 19 0b 3e
       0.15603262 -0.11859834 -0.044462413 0.13584101

decoder.de_convs.2.depth_conv.weight f4 [16, 16, 3, 3]
000000 23 c1 8a 3d 66 77 94 3d 90 c6 dc bc cc b1 9f 3d
       0.06775119 0.07249336 -0.02695015 0.07797584
000010 80 ae 84 bc 2e eb 07 bd 48 a4 57 bd ab 20 77 3a
       -0.01619649 -0.03318327 -0.052646905 0.000942717
000020 08 e1 1d bd 0b 6a 60 bd 6b ec 70 bd b2 e3 a2 3d
       -0.038544685 -0.05478863 -0.058819216 0.07953586
000030 6c 6f aa bd ab 96 0e ba 8b 8c 1b bd e8 03 81 3d
       -0.08322033 -0.00054393214 -0.03797583 0.06299573
000040 53 2b 26 bd ce 72 32 bd 16 92 fb bb 16 37 fa bb
       -0.04056866 -0.043566518 -0.007677327 -0.0076359613
000050 0f 72 81 bd d6 5a 98 bb 7a 2a 8b 3d b6 2e 2a bc
       -0.06320583 -0.0046495004 0.06795211 -0.010387113
000060 76 a2 83 bd 56 fc de bc f6 ea 6d 3d ab 3a 02 3a
       -0.06427471 -0.027219933 0.058085404 0.00049678487
000070 53 5f 3e bd 8c d9 96 3d 87 fd 9d bd 00 de 90 bb
       -0.046477627 0.073657125 -0.07714372 -0.0044209957
000080 54 50 aa 3d 90 41 64 3d 6a 47 a3 bd f6 04 cb 3c
       0.083161026 0.055726588 -0.079726055 0.024782639
000090 60 d9 45 bc b4 82 aa bd 2b a9 73 bb e0 aa 79 3c
       -0.012075752 -0.08325711 -0.003717969 0.015238494
0000a0 56 99 05 ba 9b 5e d6 bc 8c b7 93 bd db 38 6f 3d
       -0.0005096396 -0.026168158 -0.07212743 0.05840383
0000b0 3e 99 83 3d 2e a8 0e bd 83 dd 2f 3d 23 8e 7a bd
       0.06425713 -0.034828357 0.04293586 -0.06117071
0000c0 0b 16 4a bd d8 37 4b bd 9b c8 91 bc c6 24 6c bd
       -0.049337428 -0.049613804 -0.017795851 -0.057652257
0000d0 03 89 8a bd 2e 03 9c bd eb c1 2b bc 1b 09 91 3d
       -0.06764414 -0.07617794 -0.010483245 0.07081815
0000e0 cb 9b 1d bc 16 0a 2b 3d 56 a5 62 39 33 b0 2e bd
       -0.0096196635 0.041757666 0.00021614632 -0.042648505
0000f0 ce e0 87 3d 73 44 90 bd 90 ed 37 bd ab d0 93 3d
       0.06634675 -0.07044306 -0.04490429 0.07217535
000100 40 f3 7d 3c 43 1b a7 bd 06 45 8c bc 5b 25 46 bd
       0.01549989 -0.08159497 -0.017122757 -0.04837547
000110 0b da 75 bc e3 8f 78 bd 1e 7e 2e 3d 00 7a bb 3a
       -0.015005599 -0.060684096 0.042600743 0.0014303327
000120 bc cf a9 bd ca b0 9f 3d 73 1f 0a 3d b6 3f 2f 3c
       -0.08291575 0.07797392 0.0337214 0.010696342
000130 ab dc 15 3b 40 ce 68 bc 3f 49 92 bd 10 6c 9e 3d
       0.0022867124 -0.01420933 -0.07142877 0.07735455
000140 eb de 11 3d 4b 3f 19 3d 56 e0 a2 bb 56 4a f4 bc
       0.03561298 0.037413877 -0.0049705906 -0.029820602
000150 e8 cd 71 bd 93 c1 22 bd ee 87 3b bd 8b 15 1e bc
       -0.059034258 -0.039735388 -0.04578393 -0.009648691
000160 66 eb 32 bd eb cf f6 3c fb 8c d8 3c 96 6a ab bb
       -0.043681525 0.03012844 0.026434412 -0.005231212
000170 ba 23 95 3d a2 9c 85 bd 36 95 ea bc db 2f 85 bc
       0.07282205 -0.06524016 -0.028635602 -0.01625817
000180 32 62 83 bd 56 28 c0 bc fa ca 83 3d d6 9d 27 3d
       -0.06415214 -0.023456734 0.06435199 0.04092201
000190 02 09 aa 3d fc 2a a4 bd 76 f8 06 3c eb 82 54 bd
       0.08302499 -0.08016011 0.008237949 -0.051882666
0001a0 ab e5 f7 3a 28 d4 a7 bd 33 4a 9a bd 4a cf 94 bd
       0.0018913051 -0.081947625 -0.07533684 -0.072661
0001b0 10 42 e0 3c 90 c9 9b 3d 26 5c 7a 3d 9b 49 87 3d
       0.027375251 0.07606804 0.061123036 0.06605836
0001c0 2e 74 03 3d 20 eb 7c bc 36 a7 5b bd 42 5d 9f bd
       0.03209322 -0.015436918 -0.05362626 -0.077814594
0001d0 23 48 3f 3d 2b 2e 40 3c 60 12 6e 3c e6 0f c7 3c
       0.046699654 0.011729757 0.014530748 0.024299573
0001e0 4e 14 a0 3d 78 a3 4c bd a6 95 e1 bc aa 66 81 3d
       0.07816373 -0.049960583 -0.027537178 0.0631841
0001f0 a0 3a 04 3d 30 14 5d bd c6 dd ab 3c e6 85 5b 3d
       0.03228247 -0.05397433 0.020979773 0.053594492
000200 f8 57 53 3d 4b 58 9a bd 3b ec 97 bd 70 ad 50 3d
       0.051597565 -0.07536372 -0.07418104 0.050946653
000210 30 0a ee bc 3c 60 93 3d 33 91 64 3d e6 4d a6 3c
       -0.029057592 0.071960896 0.055802535 0.020300817
000220 54 6f a7 3d 2e 80 83 3d f6 e7 a1 3d 9b 2e 85 3d
       0.08175531 0.06420933 0.07905571 0.0650303
000230 be b0 95 3d d6 c3 4f bc 9e 56 50 bd 80 46 d0 bb
       0.073091015 -0.012680968 -0.050863855 -0.0063560605
000240 40 6d 7d 3d 1b df 79 bd ce 4d 76 bd ab 3c 50 bc
       0.061871767 -0.061003786 -0.060132794 -0.012709777
000250 d4 44 93 3d a0 fd 75 bd af 5d a5 bd 58 b8 62 3d
       0.07190862 -0.06005633 -0.08074509 0.055351585
000260 7b 02 0f bd 6b f8 93 3d bb 20 81 bc 60 cf 91 3c
       -0.034914475 0.07225116 -0.015762677 0.01779908
000270 ab d7 6b 3b 0b 7e c1 3c 8b 0c a6 bc d8 18 1e bd
       0.0035986702 0.023619672 -0.020269653 -0.03859791
000280 63 99 8c 3d 22 5e a6 3d 5a f1 94 3d ab 14 3d 3c
       0.06865194 0.08123423 0.07272597 0.011540572
000290 f3 d0 10 3d 46 1a ae 3c 0b a7 5d bc 6b c1 c4 bb
       0.03535552 0.021252763 -0.013528596 -0.0060045025
0002a0 bc a3 87 3d d0 63 ee bc 2b c4 68 3c 38 64 92 3d
       0.06623027 -0.029100329 0.014206926 0.071480215
0002b0 56 dd 0e 3d db 82 93 bd c0 7d 1c 3d fc 62 88 3d
       0.03487905 -0.07202693 0.038205862 0.06659505
0002c0 00 5d 45 bd c3 24 96 bd f6 a9 06 3d 93 a0 97 3d
       -0.048184395 -0.073312305 0.03287693 0.07403674
0002d0 76 ad 73 3d 9b 5a 65 bd 4b 45 9c 3c ee 16 0e 3d
       0.059491597 -0.05599461 0.01907601 0.034689836
0002e0 e0 f0 be 3c f6 da 5c 3d db e1 65 3d f8 1a 0a bd
       0.023308218 0.053919755 0.056123596 -0.033717126
0002f0 60 12 4e bc e6 21 9e 3c 2f 6a 9c bd 10 e0 a9 3d
       -0.012577623 0.019303273 -0.076374404 0.0829469
000300 3b 93 ef bc ee d5 87 3d 50 03 29 3d d3 f0 3c 3d
       -0.02924501 0.06632601 0.041262925 0.046128105
000310 00 eb 96 ba f0 85 66 3d be d7 80 3d a8 04 7b bd
       -0.0011514127 0.056280077 0.062911496 -0.061283737
000320 e0 24 20 3c 36 a6 92 3c 88 1b 3f 3d a0 e9 8e bd
       0.009774417 0.017901521 0.046657115 -0.06978154
000330 ab e8 9b 3d d0 80 94 bc d6 d6 2e bb e0 eb b3 3c
       0.07612737 -0.018127829 -0.0026678345 0.02196306
000340 86 1f b3 bc 8b 3b 9a 3d eb b0 71 bd 38 18 94 3d
       -0.021865617 0.07530888 -0.059006613 0.07231182
000350 38 3e 9c 3d bb 2c a8 3d ae bf 2e 3d 7f 27 82 3d
       0.07629055 0.08211657 0.04266327 0.063551895
000360 5b 94 49 3d 5f 65 92 3d 7e 1f 9f 3d de 93 48 3d
       0.04921375 0.07148241 0.077696785 0.048969142
000370 bc fb 87 3d 03 17 89 bd b3 29 3f bd 5b 01 6b 3d
       0.066398114 -0.06693842 -0.046670627 0.05737434
000380 f3 91 2b bd 6e 43 45 bd 36 33 d4 bc 36 c3 a7 bc
       -0.041887235 -0.04816001 -0.025903326 -0.020478826
000390 26 48 0a 3d 56 37 1b 3a 20 f8 9c bc 30 a5 75 bd
       0.033760212 0.00059210265 -0.019161284 -0.05997199
0003a0 83 aa 69 3d e0 46 da bc 8e b8 50 bd c6 4c 80 bd
       0.05704738 -0.026645124 -0.050957255 -0.06264643
0003b0 c4 39 a2 3d a0 ba 5f bd c4 6c a5 3d 97 dd 89 3d
       0.07921174 -0.05462134 0.08077386 0.06731718
0003c0 c6 19 c1 bc 17 e7 99 3d ab 7d c3 ba e6 a9 b9 3c
       -0.02357186 0.0751478 -0.0014914771 0.022664022
0003d0 ee 56 61 3d 2c 54 9e bd f0 73 4f 3d 13 35 86 bd
       0.055014543 -0.07730898 0.050647676 -0.06553092
0003e0 d0 6e 44 3d 67 33 98 bd e3 05 64 bd 0b 0f 6b 3c
       0.04795724 -0.07431679 -0.055669677 0.014346848
0003f0 36 d7 36 bd ef fc 94 bd 33 40 3c 3d a0 0e f1 bc
       -0.044638835 -0.07274806 0.045959663 -0.029425919

decoder.de_convs.2.depth_conv.bias f4 [16]
000000 ab e2 fe bc 86 de 4f bd 16 95 84 3d 3e d9 1d bd
       -0.031113943 -0.050749324 0.064737484 -0.038537256
000010 36 9c fc bc ce 14 1c bd 26 17 e6 bc 94 7b 88 bd
       -0.030836206 -0.03810578 -0.02808721 -0.06664196
000020 d3 e0 a5 3d 90 ef 29 bd 43 b2 13 3d 76 d8 28 3c
       0.080995224 -0.04148823 0.036058675 0.010305515
000030 60 ca 86 bc 40 e2 64 3c 7b 1c 9d bc e6 6e ae bc
       -0.016453922 0.013969958 -0.01917862 -0.021293115

decoder.de_convs.2.point_conv2.weight f4 [16, 8, 1, 1]
000000 0a 5e 1b 3e 06 bf b1 3e f8 63 ac 3d c3 a1 89 3d
       0.15172592 0.34716052 0.08417505 0.06720307
000010 15 64 9c 3e b5 f8 47 3e 1a d8 3d 3e b4 b0 c7 bd
       0.30545107 0.19528468 0.18539467 -0.097505
000020 6a d7 1e 3c 58 ec e9 bc a6 2c 61 be 83 2c 2b bd
       0.009694913 -0.02855508 -0.21989688 -0.041790497
000030 bd 13 51 be c7 de 21 be d0 e8 01 be 78 6b 59 3d
       -0.20417686 -0.15807639 -0.12686467 0.053081006
000040 71 45 5f 3e 40 36 2a be 41 f7 8d bc c3 08 91 bc
       0.21803834 -0.16622257 -0.017329814 -0.017704373
000050 e4 d6 9a be e1 31 81 bd c1 78 0c be 07 2d 3a be
       -0.30242074 -0.06308342 -0.13717939 -0.18181239
000060 b4 31 38 be 13 2d f9 bd af 2e af be a2 ad 8b be
       -0.1798771 -0.121668 -0.34215304 -0.2728091
000070 f9 cc 20 3d 39 2a a7 be c8 08 05 3d 7a 71 29 be
       0.039257977 -0.326494 0.032479078 -0.16547194
000080 e9 d0 c5 3d 71 6c e1 3d 6e 57 88 bd 7a a1 4e be
       0.09658987 0.11007012 -0.06657301 -0.20178786
000090 38 ee 90 be 39 f5 95 be 12 79 a3 3e cb 3d 4c 3e
       -0.28306746 -0.29288653 0.31928307 0.19945447
0000a0 ca 90 ae 3e 4a f9 ab be b7 74 be 3d 09 bd a4 3e
       0.3409484 -0.3358863 0.09299605 0.32175472
0000b0 31 6e a2 3e b6 7e b3 3e e8 08 80 be 70 28 93 bc
       0.31724694 0.3505761 -0.25006795 -0.017963618
0000c0 5b 95 0f 3d de 64 8c 3d 93 43 74 bc 6f 13 4e be
       0.035054546 0.068551764 -0.014908689 -0.20124601
0000d0 b3 a9 32 bd 42 c4 93 3e 69 b7 9f be a5 66 4b 3e
       -0.04361887 0.2886067 -0.31194618 0.19863375
0000e0 3c af b4 3d 93 9b a1 3e b8 13 70 3e fd b2 a5 3e
       0.08822486 0.31564006 0.23445022 0.3236312
0000f0 c9 7b 55 be 55 37 aa be a8 f0 e8 bd 5d bd e9 3d
       -0.20848002 -0.3324534 -0.113740265 0.11413071
000100 4b 66 a3 3e ac be 14 3d 61 b1 21 be 2d 04 0f bd
       0.3191398 0.03631465 -0.15790321 -0.03491609
000110 23 40 09 be 80 5d 55 3e 94 2d 00 3e cb 41 6c be
       -0.13403372 0.20836449 0.12517387 -0.23071973
000120 b7 de 99 3e 5d 56 77 be 66 ae ae 3e 4d 6e 69 3e
       0.3005273 -0.24154039 0.3411743 0.22795983
000130 1b e4 64 be b6 40 e1 bd ff 7a 45 be 26 d6 51 3e
       -0.2235264 -0.10998671 -0.192852 0.20491847
000140 88 70 15 3e d2 7a 30 bd e4 3c 86 be 89 1f 8a bd
       0.14593709 -0.04308588 -0.2621833 -0.06744296
000150 86 21 eb 3c c1 9a 7f be 66 86 47 3e 8b 4f 4b 3e
       0.028702509 -0.24961378 0.19484863 0.19854562
000160 32 d1 96 be 0c 5f 66 3e 17 4c a0 3e 6f a5 04 be
       -0.29456478 0.22497195 0.31308052 -0.12953733
000170 fc e5 ad be d4 9d 70 3e b2 0a 31 be 15 a4 76 be
       -0.33964527 0.23497707 -0.17289236 -0.2408603
000180 cf 42 ab bd 05 76 87 3c ac 6f 1b 3e 3e 0c 11 be
       -0.08362352 0.016535768 0.15179318 -0.14164826
000190 c2 4d 0b be 19 a0 25 be aa d8 a8 bd 47 a8 81 be
       -0.13603881 -0.16174354 -0.082444504 -0.25323698
0001a0 f7 64 81 3e 95 47 2f be 92 41 ee 3d ba 6c d5 3a
       0.25272343 -0.1711715 0.116336 0.0016283013
0001b0 d7 00 8a be d5 04 6d 3c 18 48 82 be 9d dd e7 3d
       -0.26953766 0.014466484 -0.25445628 0.11321566
0001c0 9b 51 b5 bd df b1 3d 3e 8d 8e 2e 3e f4 cc 65 3e
       -0.08853456 0.18524884 0.17046566 0.22441465
0001d0 86 c4 af be de 3f b4 3e 34 7d e7 38 c0 8b 95 be
       -0.34329623 0.35204977 0.00011038259 -0.29208183
0001e0 a1 ec a5 be b1 71 08 be df 51 6b 3e 60 63 9c be
       -0.32407096 -0.1332462 0.2298045 -0.30544567
0001f0 1c 87 b2 be d6 3d 7f bd e2 b1 4c 3e 2b a0 ab 3e
       -0.34868705 -0.06231483 0.19989732 0.33520636

decoder.de_convs.2.point_conv2.bias f4 [8]
000000 a5 90 87 be d4 bc 86 3e 38 d1 86 be a9 df 36 3e
       -0.26477543 0.2631594 -0.26331496 0.17858757
000010 14 cc 0d bd 30 48 a6 3e 68 e3 23 3e 67 c4 86 be
       -0.034618452 0.3247695 0.16004717 -0.26321718
