gtcrn_micro.onnx (onnx, 475668 bytes, 116 tensors)

encoder.en_convs.2.tra.att_fc.bias f4 [8]
-0.15948251 -0.08839983 -0.0122692585 0.22875008 0.20318535 -0.10495591 0.052170604 -0.07904738
00000000: 624f 23be f80a b5bd 0005 49bc 763d 6a3e
00000010: d20f 503e 20f3 d6bd d8b0 553d 98e3 a1bd

encoder.en_convs.3.tra.att_fc.bias f4 [8]
-0.005578041 -0.02657026 -0.15908533 -0.19743341 0.10445389 0.2450665 -0.22706345 -0.17729127
00000000: 00c8 b6bb e0a9 d9bc 44e7 22be fc2b 4abe
00000010: eceb d53d b6f2 7a3e 5283 68be d88b 35be

encoder.en_convs.4.tra.att_fc.bias f4 [8]
-0.24576807 -0.074549824 -0.15416318 -0.09628534 -0.034885883 -0.056434423 -0.20285803 0.17407
00000000: a0aa 7bbe 94ad 98bd f4dc 1dbe 4031 c5bd
00000010: 80e4 0ebd c827 67bd 04ba 4fbe 683f 323e

dpgrnn1.intra_fc.bias f4 [16]
-0.14598039 -0.15284926 -0.23042476 0.086440146 0.08903837 -0.19312397 -0.1640259 0.039622426
-0.19695315 0.14626989 -0.1204474 -0.04872912 -0.07684201 0.13441554 0.21220449 0.036673814
00000000: e27b 15be 8484 1cbe 78f4 6bbe 8807 b13d
00000010: c059 b63d 4ac2 45be 68f6 27be 204b 223d
00000020: 16ae 49be c6c7 153e 20ad f6bd 3098 47bd
00000030: 585f 9dbd 3aa4 093e 224c 593e 4837 163d

dpgrnn1.intra_ln.weight f4 [33, 16]
1.0 1.0 1.0 1.0 1.0 1.0 1.0 1.0
1.0 1.0 1.0 1.0 1.0 1.0 1.0 1.0
1.0 1.0 1.0 1.0 1.0 1.0 1.0 1.0
1.0 1.0 1.0 1.0 1.0 1.0 1.0 1.0
1.0 1.0 1.0 1.0 1.0 1.0 1.0 1.0
1.0 1.0 1.0 1.0 1.0 1.0 1.0 1.0
1.0 1.0 1.0 1.0 1.0 1.0 1.0 1.0
1.0 1.0 1.0 1.0 1.0 1.0 1.0 1.0
1.0 1.0 1.0 1.0 1.0 1.0 1.0 1.0
1.0 1.0 1.0 1.0 1.0 1.0 1.0 1.0
1.0 1.0 1.0 1.0 1.0 1.0 1.0 1.0
1.0 1.0 1.0 1.0 1.0 1.0 1.0 1.0
1.0 1.0 1.0 1.0 1.0 1.0 1.0 1.0
1.0 1.0 1.0 1.0 1.0 1.0 1.0 1.0
1.0 1.0 1.0 1.0 1.0 1.0 1.0 1.0
1.0 1.0 1.0 1.0 1.0 1.0 1.0 1.0
1.0 1.0 1.0 1.0 1.0 1.0 1.0 1.0
1.0 1.0 1.0 1.0 1.0 1.0 1.0 1.0
1.0 1.0 1.0 1.0 1.0 1.0 1.0 1.0
1.0 1.0 1.0 1.0 1.0 1.0 1.0 1.0
1.0 1.0 1.0 1.0 1.0 1.0 1.0 1.0
1.0 1.0 1.0 1.0 1.0 1.0 1.0 1.0
1.0 1.0 1.0 1.0 1.0 1.0 1.0 1.0
1.0 1.0 1.0 1.0 1.0 1.0 1.0 1.0
1.0 1.0 1.0 1.0 1.0 1.0 1.0 1.0
1.0 1.0 1.0 1.0 1.0 1.0 1.0 1.0
1.0 1.0 1.0 1.0 1.0 1.0 1.0 1.0
1.0 1.0 1.0 1.0 1.0 1.0 1.0 1.0
1.0 1.0 1.0 1.0 1.0 1.0 1.0 1.0
1.0 1.0 1.0 1.0 1.0 1.0 1.0 1.0
1.0 1.0 1.0 1.0 1.0 1.0 1.0 1.0
1.0 1.0 1.0 1.0 1.0 1.0 1.0 1.0
00000000: 0000 803f 0000 803f 0000 803f 0000 803f
00000010: 0000 803f 0000 803f 0000 803f 0000 803f
00000020: 0000 803f 0000 803f 0000 803f 0000 803f
00000030: 0000 803f 0000 803f 0000 803f 0000 803f
00000040: 0000 803f 0000 803f 0000 803f 0000 803f
00000050: 0000 803f 0000 803f 0000 803f 0000 803f
00000060: 0000 803f 0000 803f 0000 803f 0000 803f
00000070: 0000 803f 0000 803f 0000 803f 0000 803f
00000080: 0000 803f 0000 803f 0000 803f 0000 803f
00000090: 0000 803f 0000 803f 0000 803f 0000 803f
000000a0: 0000 803f 0000 803f 0000 803f 0000 803f
000000b0: 0000 803f 0000 803f 0000 803f 0000 803f
000000c0: 0000 803f 0000 803f 0000 803f 0000 803f
000000d0: 0000 803f 0000 803f 0000 803f 0000 803f
000000e0: 0000 803f 0000 803f 0000 803f 0000 803f
000000f0: 0000 803f 0000 803f 0000 803f 0000 803f
00000100: 0000 803f 0000 803f 0000 803f 0000 803f
00000110: 0000 803f 0000 803f 0000 803f 0000 803f
00000120: 0000 803f 0000 803f 0000 803f 0000 803f
00000130: 0000 803f 0000 803f 0000 803f 0000 803f
00000140: 0000 803f 0000 803f 0000 803f 0000 803f
00000150: 0000 803f 0000 803f 0000 803f 0000 803f
00000160: 0000 803f 0000 803f 0000 803f 0000 803f
00000170: 0000 803f 0000 803f 0000 803f 0000 803f
00000180: 0000 803f 0000 803f 0000 803f 0000 803f
00000190: 0000 803f 0000 803f 0000 803f 0000 803f
000001a0: 0000 803f 0000 803f 0000 803f 0000 803f
000001b0: 0000 803f 0000 803f 0000 803f 0000 803f
000001c0: 0000 803f 0000 803f 0000 803f 0000 803f
000001d0: 0000 803f 0000 803f 0000 803f 0000 803f
000001e0: 0000 803f 0000 803f 0000 803f 0000 803f
000001f0: 0000 803f 0000 803f 0000 803f 0000 803f
00000200: 0000 803f 0000 803f 0000 803f 0000 803f
00000210: 0000 803f 0000 803f 0000 803f 0000 803f
00000220: 0000 803f 0000 803f 0000 803f 0000 803f
00000230: 0000 803f 0000 803f 0000 803f 0000 803f
00000240: 0000 803f 0000 803f 0000 803f 0000 803f
00000250: 0000 803f 0000 803f 0000 803f 0000 803f
00000260: 0000 803f 0000 803f 0000 803f 0000 803f
00000270: 0000 803f 0000 803f 0000 803f 0000 803f
00000280: 0000 803f 0000 803f 0000 803f 0000 803f
00000290: 0000 803f 0000 803f 0000 803f 0000 803f
000002a0: 0000 803f 0000 803f 0000 803f 0000 803f
000002b0: 0000 803f 0000 803f 0000 803f 0000 803f
000002c0: 0000 803f 0000 803f 0000 803f 0000 803f
000002d0: 0000 803f 0000 803f 0000 803f 0000 803f
000002e0: 0000 803f 0000 803f 0000 803f 0000 803f
000002f0: 0000 803f 0000 803f 0000 803f 0000 803f
00000300: 0000 803f 0000 803f 0000 803f 0000 803f
00000310: 0000 803f 0000 803f 0000 803f 0000 803f
00000320: 0000 803f 0000 803f 0000 803f 0000 803f
00000330: 0000 803f 0000 803f 0000 803f 0000 803f
00000340: 0000 803f 0000 803f 0000 803f 0000 803f
00000350: 0000 803f 0000 803f 0000 803f 0000 803f
00000360: 0000 803f 0000 803f 0000 803f 0000 803f
00000370: 0000 803f 0000 803f 0000 803f 0000 803f
00000380: 0000 803f 0000 803f 0000 803f 0000 803f
00000390: 0000 803f 0000 803f 0000 803f 0000 803f
000003a0: 0000 803f 0000 803f 0000 803f 0000 803f
000003b0: 0000 803f 0000 803f 0000 803f 0000 803f
000003c0: 0000 803f 0000 803f 0000 803f 0000 803f
000003d0: 0000 803f 0000 803f 0000 803f 0000 803f
000003e0: 0000 803f 0000 803f 0000 803f 0000 803f
000003f0: 0000 803f 0000 803f 0000 803f 0000 803f

dpgrnn1.intra_ln.bias f4 [33, 16]
0.0 0.0 0.0 0.0 0.0 0.0 0.0 0.0
0.0 0.0 0.0 0.0 0.0 0.0 0.0 0.0
0.0 0.0 0.0 0.0 0.0 0.0 0.0 0.0
0.0 0.0 0.0 0.0 0.0 0.0 0.0 0.0
0.0 0.0 0.0 0.0 0.0 0.0 0.0 0.0
0.0 0.0 0.0 0.0 0.0 0.0 0.0 0.0
0.0 0.0 0.0 0.0 0.0 0.0 0.0 0.0
0.0 0.0 0.0 0.0 0.0 0.0 0.0 0.0
0.0 0.0 0.0 0.0 0.0 0.0 0.0 0.0
0.0 0.0 0.0 0.0 0.0 0.0 0.0 0.0
0.0 0.0 0.0 0.0 0.0 0.0 0.0 0.0
0.0 0.0 0.0 0.0 0.0 0.0 0.0 0.0
0.0 0.0 0.0 0.0 0.0 0.0 0.0 0.0
0.0 0.0 0.0 0.0 0.0 0.0 0.0 0.0
0.0 0.0 0.0 0.0 0.0 0.0 0.0 0.0
0.0 0.0 0.0 0.0 0.0 0.0 0.0 0.0
0.0 0.0 0.0 0.0 0.0 0.0 0.0 0.0
0.0 0.0 0.0 0.0 0.0 0.0 0.0 0.0
0.0 0.0 0.0 0.0 0.0 0.0 0.0 0.0
0.0 0.0 0.0 0.0 0.0 0.0 0.0 0.0
0.0 0.0 0.0 0.0 0.0 0.0 0.0 0.0
0.0 0.0 0.0 0.0 0.0 0.0 0.0 0.0
0.0 0.0 0.0 0.0 0.0 0.0 0.0 0.0
0.0 0.0 0.0 0.0 0.0 0.0 0.0 0.0
0.0 0.0 0.0 0.0 0.0 0.0 0.0 0.0
0.0 0.0 0.0 0.0 0.0 0.0 0.0 0.0
0.0 0.0 0.0 0.0 0.0 0.0 0.0 0.0
0.0 0.0 0.0 0.0 0.0 0.0 0.0 0.0
0.0 0.0 0.0 0.0 0.0 0.0 0.0 0.0
0.0 0.0 0.0 0.0 0.0 0.0 0.0 0.0
0.0 0.0 0.0 0.0 0.0 0.0 0.0 0.0
0.0 0.0 0.0 0.0 0.0 0.0 0.0 0.0
00000000: 0000 0000 0000 0000 0000 0000 0000 0000
00000010: 0000 0000 0000 0000 0000 0000 0000 0000
00000020: 0000 0000 0000 0000 0000 0000 0000 0000
00000030: 0000 0000 0000 0000 0000 0000 0000 0000
00000040: 0000 0000 0000 0000 0000 0000 0000 0000
00000050: 0000 0000 0000 0000 0000 0000 0000 0000
00000060: 0000 0000 0000 0000 0000 0000 0000 0000
00000070: 0000 0000 0000 0000 0000 0000 0000 0000
00000080: 0000 0000 0000 0000 0000 0000 0000 0000
00000090: 0000 0000 0000 0000 0000 0000 0000 0000
000000a0: 0000 0000 0000 0000 0000 0000 0000 0000
000000b0: 0000 0000 0000 0000 0000 0000 0000 0000
000000c0: 0000 0000 0000 0000 0000 0000 0000 0000
000000d0: 0000 0000 0000 0000 0000 0000 0000 0000
000000e0: 0000 0000 0000 0000 0000 0000 0000 0000
000000f0: 0000 0000 0000 0000 0000 0000 0000 0000
00000100: 0000 0000 0000 0000 0000 0000 0000 0000
00000110: 0000 0000 0000 0000 0000 0000 0000 0000
00000120: 0000 0000 0000 0000 0000 0000 0000 0000
00000130: 0000 0000 0000 0000 0000 0000 0000 0000
00000140: 0000 0000 0000 0000 0000 0000 0000 0000
00000150: 0000 0000 0000 0000 0000 0000 0000 0000
00000160: 0000 0000 0000 0000 0000 0000 0000 0000
00000170: 0000 0000 0000 0000 0000 0000 0000 0000
00000180: 0000 0000 0000 0000 0000 0000 0000 0000
00000190: 0000 0000 0000 0000 0000 0000 0000 0000
000001a0: 0000 0000 0000 0000 0000 0000 0000 0000
000001b0: 0000 0000 0000 0000 0000 0000 0000 0000
000001c0: 0000 0000 0000 0000 0000 0000 0000 0000
000001d0: 0000 0000 0000 0000 0000 0000 0000 0000
000001e0: 0000 0000 0000 0000 0000 0000 0000 0000
000001f0: 0000 0000 0000 0000 0000 0000 0000 0000
00000200: 0000 0000 0000 0000 0000 0000 0000 0000
00000210: 0000 0000 0000 0000 0000 0000 0000 0000
00000220: 0000 0000 0000 0000 0000 0000 0000 0000
00000230: 0000 0000 0000 0000 0000 0000 0000 0000
00000240: 0000 0000 0000 0000 0000 0000 0000 0000
00000250: 0000 0000 0000 0000 0000 0000 0000 0000
00000260: 0000 0000 0000 0000 0000 0000 0000 0000
00000270: 0000 0000 0000 0000 0000 0000 0000 0000
00000280: 0000 0000 0000 0000 0000 0000 0000 0000
00000290: 0000 0000 0000 0000 0000 0000 0000 0000
000002a0: 0000 0000 0000 0000 0000 0000 0000 0000
000002b0: 0000 0000 0000 0000 0000 0000 0000 0000
000002c0: 0000 0000 0000 0000 0000 0000 0000 0000
000002d0: 0000 0000 0000 0000 0000 0000 0000 0000
000002e0: 0000 0000 0000 0000 0000 0000 0000 0000
000002f0: 0000 0000 0000 0000 0000 0000 0000 0000
00000300: 0000 0000 0000 0000 0000 0000 0000 0000
00000310: 0000 0000 0000 0000 0000 0000 0000 0000
00000320: 0000 0000 0000 0000 0000 0000 0000 0000
00000330: 0000 0000 0000 0000 0000 0000 0000 0000
00000340: 0000 0000 0000 0000 0000 0000 0000 0000
00000350: 0000 0000 0000 0000 0000 0000 0000 0000
00000360: 0000 0000 0000 0000 0000 0000 0000 0000
00000370: 0000 0000 0000 0000 0000 0000 0000 0000
00000380: 0000 0000 0000 0000 0000 0000 0000 0000
00000390: 0000 0000 0000 0000 0000 0000 0000 0000
000003a0: 0000 0000 0000 0000 0000 0000 0000 0000
000003b0: 0000 0000 0000 0000 0000 0000 0000 0000
000003c0: 0000 0000 0000 0000 0000 0000 0000 0000
000003d0: 0000 0000 0000 0000 0000 0000 0000 0000
000003e0: 0000 0000 0000 0000 0000 0000 0000 0000
000003f0: 0000 0000 0000 0000 0000 0000 0000 0000

dpgrnn1.inter_fc.bias f4 [16]
0.07668987 -0.1628606 0.07781932 -0.032550305 0.078077465 -0.09943664 -0.08349982 0.016297758
-0.02524352 -0.16409609 -0.104504615 0.10155401 0.15175849 0.043679237 0.16213673 0.16340908
00000000: 940f 9d3d eec4 26be bc5f 9f3d 7853 05bd
00000010: 14e7 9f3d 70a5 cbbd f401 abbd e082 853c
00000020: 80cb cebc ce08 28be 8406 d6bd 8cfb cf3d
00000030: 9466 1b3e 00e9 323d 2c07 263e b654 273e

dpgrnn2.intra_fc.bias f4 [16]
-0.2282111 0.0644919 -0.063813806 0.21984375 -0.034948826 -0.0728637 -0.083895504 0.13180017
-0.22141278 0.23011783 -0.077522546 0.2382465 0.050475657 0.14192069 0.12169555 -0.20404902
00000000: 2cb0 69be 5414 843d d0b0 82bd b81e 613e
00000010: 8026 0fbd 9039 95bd 68d1 abbd a0f6 063e
00000020: 08ba 62be 02a4 6b3e 24c4 9ebd e4f6 733e
00000030: 90bf 4e3d a853 113e 843b f93d 3af2 50be

dpgrnn2.inter_fc.bias f4 [16]
-0.043049157 -0.20006979 0.20542207 -0.2416301 -0.08213508 0.13042569 0.16221124 0.07299289
-0.13974315 0.16618484 0.111115664 -0.100058645 0.015090942 0.024235278 -0.14465651 0.17981538
00000000: 5054 30bd 18df 4cbe 2a5a 523e e26d 77be
00000010: 7036 a8bd 508e 053e b41a 263e 4c7d 953d
00000020: d418 0fbe 5c2c 2a3e 9c90 e33d 8ceb ccbd
00000030: 0040 773c 1089 c63c d620 14be 8621 383e

decoder.de_convs.0.point_conv1.weight f4 [8, 16, 1, 1]
0.011894822 0.17428738 -0.033523947 0.051995456 -0.10115531 0.15984386 -0.06309849 -0.025034845
0.030718416 -0.033813775 0.24639869 -0.24125317 0.011990815 -0.035965443 0.110862225 0.01774925
-0.22990465 0.17413166 0.0672397 -0.23648816 0.21568018 0.09488568 0.1965974 -0.24987996
-0.23584166 0.13390931 -0.067035586 -0.005227834 0.2387616 0.24933478 -0.17801708 0.041903943
0.04899016 0.16152349 0.13026953 -0.08329812 -0.008945078 0.011344373 -0.014176458 -0.14585963
0.079592735 0.022527993 0.115963995 -0.15594989 0.13257954 0.009672344 -0.022644967 0.10278019
-0.0131676495 0.14875713 -0.13175803 0.17409733 -0.24665236 -0.17013231 -0.13730708 -0.23386264
0.11721143 -0.16119993 -0.11984697 -0.18941644 -0.09854719 -0.1297333 -0.07891348 -0.17767411
-0.050420016 0.24783322 0.15839276 0.17921707 0.16227853 0.020190358 0.094594 0.031810164
-0.09579688 -0.09173307 -0.06307253 0.1604869 -0.21868476 0.058882594 -0.18836603 0.023039699
-0.21771842 -0.14550862 -0.057895064 -0.08311418 0.13404414 0.0131881535 -0.10878393 -0.1903809
0.18990266 0.15156862 -0.007671207 0.106274545 -0.085409075 -0.14784068 0.021816194 0.021039605
-0.08894497 0.2403898 -0.0619922 0.014506459 0.04076442 0.01658389 -0.20914811 0.16819978
0.096340746 0.054088265 -0.07181755 0.022384912 0.16865581 0.0551672 0.04108596 -0.20963603
-0.15033957 0.21005881 0.21615663 -0.20582184 0.20583105 -0.07251394 0.11324257 -0.20363533
0.14105263 -0.22748208 -0.1688188 0.012072533 -0.19325033 -0.019459277 0.107960165 -0.13344419
00000000: 80e2 423c 6478 323e 6850 09bd 30f9 543d
00000010: 842a cfbd 1cae 233e c839 81bd e015 cdbc
00000020: 30a5 fb3c 5080 0abd f04f 7c3e 120b 77be
00000030: 2075 443c 8050 13bd bc0b e33d e066 913c
00000040: 206c 6bbe 924f 323e f8b4 893d f429 72be
00000050: 44db 5c3e 6c53 c23d d450 493e 88e0 7fbe
00000060: 7a80 71be 861f 093e f449 89bd 404e abbb
00000070: ec7d 743e 9e51 7f3e 1c4a 36be 78a3 2b3d
00000080: e8a9 483d 6a66 253e 6065 053e 3498 aabd
00000090: 608e 12bc c0dd 393c 6044 68bc 3a5c 15be
000000a0: 8401 a33d a08c b83c 887e ed3d 54b1 1fbe
000000b0: eec2 073e c078 1e3c f081 b9bc 6c7e d23d
000000c0: 20bd 57bc ca53 183e 94eb 06be 9246 323e
000000d0: 7092 7cbe 2a37 2ebe 3a9a 0cbe b079 6fbe
000000e0: 8c0c f03d 9811 25be 5472 f5bd 62f6 41be
000000f0: 1cd3 c9bd ced8 04be 649d a1bd 34f0 35be
00000100: 3885 4ebd fec7 7d3e b631 223e ae84 373e
00000110: 582c 263e 4066 a53c 80ba c13d 604b 023d
00000120: 2831 c4bd 8cde bbbd 2c2c 81bd ae56 243e
00000130: e6ee 5fbe e02e 713d 06e3 40be c0bd bc3c
00000140: 94f1 5ebe 3600 15be 6023 6dbd c437 aabd
00000150: de42 093e 2013 583c 1cca debd 36f3 42be
00000160: d875 423e ce34 1b3e c05e fbbb 78a6 d93d
00000170: f4ea aebd 8c63 17be e0b7 b23c 405b ac3c
00000180: c828 b6bd be28 763e 88eb 7dbd 80ac 6d3c
00000190: 98f8 263d f0da 873c ec2a 56be 903c 2c3e
000001a0: 4c4e c53d a88b 5d3d 1415 93bd 9060 b73c
000001b0: 1cb4 2c3e 00f7 613d c049 283d d4aa 56be
000001c0: 9ef2 19be a819 573e 2a58 5d3e f6c2 52be
000001d0: 60c5 523e 3082 94bd b8eb e73d c885 50be
000001e0: 1a70 103e 10f1 68be d6de 2cbe e0cb 453c
000001f0: 6ae3 45be 1069 9fbc 381a dd3d 98a5 08be

decoder.de_convs.0.point_conv1.bias f4 [16]
0.2401798 0.15127066 0.19477716 0.101101995 0.06102249 0.08482656 -0.17279705 -0.1588273
0.23378906 -0.041522294 0.21024132 0.03666404 -0.20805305 0.0046806335 -0.12295997 -0.037356466
00000000: b2f1 753e b2e6 1a3e aa73 473e 900e cf3d
00000010: b8f2 793d 8cb9 ad3d b6f1 30be a0a3 22be
00000020: 6666 6f3e 4813 2abd 8049 573e 082d 163d
00000030: dc0b 55be 0060 993b 70d2 fbbd 1803 19bd

decoder.de_convs.0.point_bn1.weight f4 [16]
1.0 1.0 1.0 1.0 1.0 1.0 1.0 1.0
1.0 1.0 1.0 1.0 1.0 1.0 1.0 1.0
00000000: 0000 803f 0000 803f 0000 803f 0000 803f
00000010: 0000 803f 0000 803f 0000 803f 0000 803f
00000020: 0000 803f 0000 803f 0000 803f 0000 803f
00000030: 0000 803f 0000 803f 0000 803f 0000 803f

decoder.de_convs.0.point_bn1.bias f4 [16]
0.0 0.0 0.0 0.0 0.0 0.0 0.0 0.0
0.0 0.0 0.0 0.0 0.0 0.0 0.0 0.0
00000000: 0000 0000 0000 0000 0000 0000 0000 0000
00000010: 0000 0000 0000 0000 0000 0000 0000 0000
00000020: 0000 0000 0000 0000 0000 0000 0000 0000
00000030: 0000 0000 0000 0000 0000 0000 0000 0000

decoder.de_convs.0.depth_conv.weight f4 [16, 16, 3, 3]
-0.07251131 -0.01599006 0.014821529 0.033165466 -0.019018194 -0.025495928 0.015785705 0.014462462
0.004743 -0.058951847 0.026858598 -0.045875203 0.06464948 -0.052353352 0.016604384 -0.055010438
-0.0336623 -0.009835154 0.030411294 -0.025297811 0.011876444 -0.02033792 -0.022639882 -0.034427635
0.009745479 0.039819926 -0.0129431095 0.0077287853 0.0075795157 -0.043143243 0.06679817 0.070159644
-0.082219854 -0.0018918316 -0.057356 0.005579035 -0.011533886 0.075056486 -0.08115283 -0.015990447
-0.028737318 -0.013566425 0.077192694 0.076724604 -0.046637356 -0.03995506 -0.032395802 0.08294283
0.0033737223 0.006068945 0.027943214 -0.08083065 0.006620149 -0.035256922 0.05718454 -0.018759262
-0.038041007 0.014626364 0.036380827 -0.012906055 -0.057011217 -0.014589956 0.07787983 0.018963456
-0.07698977 0.05218359 -0.021931529 -0.03584814 -0.049707454 -0.0406728 -0.025012653 -0.0045181913
0.06776361 0.06304675 0.07321125 0.041193396 0.022598317 0.0550242 0.051068634 -0.066421464
-0.010575911 0.05510947 -0.04666429 0.07047626 -0.07411169 -0.06993582 -0.04754 -0.07966827
-0.048484873 0.07558811 0.017975103 0.049289893 0.025419524 0.032506913 -0.002962182 -0.06471955
-0.039204836 0.048314285 -0.008081625 0.06870007 -0.07376903 -0.04028564 0.07524495 0.0020425222
-0.00864487 0.011464646 -0.07161209 -0.022833627 -0.034445822 0.068978995 -0.053599857 0.07151878
0.056437623 -0.07844961 0.01828759 -0.06004622 0.06491016 0.054226726 -0.06737153 -0.069639266
0.03440705 -0.000227501 -0.032249324 0.06093241 0.07441237 0.028351575 0.009369573 -0.0796217
0.0066441298 0.012534251 -0.013165941 0.02073428 -0.0022364855 -0.029660374 -0.004547348 -0.074075
-0.07012191 0.061533045 0.062550984 0.059547972 -0.07135328 -0.004560401 0.049081974 0.00812763
-0.024013331 -0.06896527 -0.0032276115 -0.014508734 0.045187544 0.073084965 0.0025197368 0.041449726
0.057032436 -0.07222304 0.073632196 -0.011765818 0.01568078 0.040519588 -0.011501442 -0.01592962
-0.051914208 0.00431334 -0.079175316 -0.0056087775 0.07648714 0.056751303 -0.045645587 0.023629528
0.053468954 -0.037000638 -0.06194517 -0.027974864 -0.057038527 0.0038701198 0.066529974 0.025168478
0.005342881 -0.06584561 0.056932323 0.07763381 -0.03449331 -0.0744486 0.07105668 -0.07881372
0.0028997958 0.02911961 -0.04717999 0.055396765 0.06955114 0.043339156 0.062433213 0.028833669
-0.05446732 0.08251607 -0.033444047 0.051854264 -0.0069024465 -0.039850175 0.012289107 0.079924576
-0.05064296 0.07332134 -0.059880715 0.008411239 0.033228826 0.07405247 -0.009223491 0.012311369
-0.04990509 0.055797767 0.014234275 0.081736445 -0.038529646 -0.065362304 0.04690247 0.067648515
0.05711036 -0.06857775 -0.07970517 0.022154054 0.08240855 0.0760481 0.020085126 0.06646617
-0.054053508 0.044489622 -0.040578764 -0.04181453 -0.03223042 -0.022316864 0.07952605 0.012553881
0.027284374 -0.007225742 0.0423097 0.06723857 -0.062523626 -0.024113547 -0.03945157 0.026913097
0.04205957 -0.036883682 0.03925284 0.08303867 0.026073745 0.007206788 0.06423643 -0.04647265
0.05927389 0.039948724 -0.041667454 -0.060408752 0.019810926 0.041834526 0.033630412 0.02264757
00000000: cf80 94bd 96fd 82bc 00d6 723c 83d8 073d
00000010: 0bcc 9bbc d6dc d0bc 0651 813c f6f3 6c3c
00000020: 2b6b 9b3b 7e77 71bd 9006 dc3c a3e7 3bbd
00000030: f266 843d 7870 56bd eb05 883c a052 61bd
00000040: 7be1 09bd a023 21bc 1b21 f93c 5b3d cfbc
00000050: 6b95 423c b69b a6bc 4677 b9bc fe03 0dbd
00000060: 80ab 1f3c 381a 233d 560f 54bc c041 fd3b
00000070: 965d f83b f8b6 30bd 7bcd 883d dcaf 8f3d
00000080: e262 a8bd 56f7 f7ba 20ee 6abd 56d0 b63b
00000090: a0f8 3cbc 37b7 993d 7433 a6bd 66fe 82bc
000000a0: 866a ebbc b645 5ebc 3417 9e3d ca21 9d3d
000000b0: d006 3fbd eba7 23bd 76b1 04bd eedd a93d
000000c0: ab19 5d3b 00de c63b 2be9 e43c 8a8a a5bd
000000d0: d6ed d83b 9069 10bd 563a 6a3d 06ad 99bc
000000e0: e3d0 1bbd 6ba3 6f3c 1004 153d eb73 53bc
000000f0: 9884 69bd b60a 6fbc 767f 9f3d 4059 9b3c
00000100: d0ac 9dbd 76be 553d c0a9 b3bc 80d5 12bd
00000110: 0b9a 4bbd 8698 26bd 56e7 ccbc 560d 94bb
00000120: a6c7 8a3d a81e 813d c8ef 953d 68ba 283d
00000130: 1b20 b93c 0e61 613d 582d 513d fa07 88bd
00000140: 9646 2dbc 78ba 613d 0e23 3fbd db55 903d
00000150: dfc7 97bd 833a 8fbd 4eb9 42bd 1e29 a3bd
00000160: 1398 46bd f0cd 9a3d 8640 933c 33e4 493d
00000170: 9b3c d03c f825 053d 2b21 42bb af8b 84bd
00000180: 4095 20bd 33e5 453d cb68 04bc 9fb2 8c3d
00000190: 3814 97bd 8e02 25bd 061a 9a3d d6db 053b
000001a0: 36a3 0dbc 36d6 3b3c 5ca9 92bd 960d bbbc
000001b0: 1017 0dbd dc44 8d3d 868b 5bbd 7078 923d
000001c0: 232b 673d 30aa a0bd dbcf 953c 06f3 75bd
000001d0: 9eef 843d d81c 5e3d 16fa 89bd 089f 8ebd
000001e0: 68ee 0c3d 568d 6eb9 de17 04bd 4394 793d
000001f0: 8365 983d 9041 e83c d682 193c b410 a3bd
00000200: 00b7 d93b 765c 4d3c f6b5 57bc f0da a93c
00000210: 0092 12bb 50fa f2bc eb01 95bb a2b4 97bd
00000220: 139c 8fbd 130a 7c3d bb1a 803d 93e8 733d
00000230: ab21 92bd 6b6f 95bb 2e0a 493d c029 053c
00000240: 9bb7 c4bc aa3d 8dbd 5686 53bb 0bb6 6dbc
00000250: 9316 393d 92ad 953d 2b22 253b 30c7 293d
00000260: d89a 693d ace9 93bd 7acc 963d 6bc5 40bc
00000270: fb74 803c def7 253d 8b70 3cbc d67e 82bc
00000280: fea3 54bd eb56 8d3b ab26 a2bd d6c9 b7bb
00000290: 4aa5 9c3d 0e74 683d def6 3abd b692 c13c
000002a0: 4302 5b3d fb8d 17bd 38ba 7dbd 8b2b e5bc
000002b0: 3ba1 69bd d6a1 7d3b de40 883d 202e ce3c
000002c0: 5613 af3b 10da 86bd de31 693d 7afe 9e3d
000002d0: db48 0dbd 8278 98bd 2a86 913d 1669 a1bd
000002e0: 800a 3e3b 408c ee3c ce3f 41bd b8e7 623d
000002f0: d470 8e3d 6684 313d f8b9 7f3d 9634 ec3c
00000300: 2019 5fbd 2ffe a83d a0fc 08bd 2365 543d
00000310: eb2d e2bb f039 23bd 4058 493c 7faf a33d
00000320: fe6e 4fbd 8029 963d 7b45 75bd 4bcf 093c
00000330: f31a 083d d2a8 973d 201e 17bc a0b5 493c
00000340: 4869 4cbd 338c 643d e036 693c 7065 a73d
00000350: 43d1 1dbd acdc 85bd ce1c 403d 4e8b 8a3d
00000360: 8eec 693d 7e72 8cbd 773c a3bd 6b7c b53c
00000370: d0c5 a83d 1bbf 9b3d 9089 a43c 6a1f 883d
00000380: 3667 5dbd c03a 363d eb35 26bd b645 2bbd
00000390: 0b04 04bd dbd1 b6bc 8ede a23d cbae 4d3c
000003a0: 7b83 df3c ebc5 ecbb f04c 2d3d 60b4 893d
000003b0: 630c 80bd c689 c5bc f897 21bd db78 dc3c
000003c0: a846 2c3d 5813 17bd 96c7 203d 2e10 aa3d
000003d0: 9b98 d53c eb26 ec3b 648e 833d 1b5a 3ebd
000003e0: 2ec9 723d 46a1 233d 7eab 2abd 2b6f 77bd
000003f0: 864a a23c ae5a 2b3d 0bc0 093d 6687 b93c

decoder.de_convs.0.depth_conv.bias f4 [16]
0.082414 -0.046554983 0.07855602 0.030839097 -0.068912074 0.031911872 0.014564684 0.012256662
-0.011749208 0.07953556 -0.06656551 0.06279875 -0.02739821 0.019782603 -0.044643104 0.037371725
00000000: acc8 a83d 70b0 3ebd fbe1 a03d 46a2 fc3c
00000010: c621 8dbd 06b6 023d b6a0 6e3c 2bd0 483c
00000020: c07f 40bc 8ae3 a23d 8053 88bd a29c 803d
00000030: 3672 e0bc 200f a23c b0db 36bd 1813 193d

decoder.de_convs.0.point_conv2.weight f4 [16, 8, 1, 1]
-0.28679574 0.33754134 0.34883016 -0.088321246 0.23867491 0.10983624 0.24388771 0.28468743
-0.33597243 -0.24355137 0.2131632 0.17855479 -0.07665424 -0.3480801 -0.27149078 0.14788912
-0.108050734 -0.031090887 0.14424784 -0.09738438 0.32033902 -0.13434927 -0.27317896 0.18225801
0.25207227 0.069476 -0.31533074 -0.033136778 0.17584583 -0.27777067 0.30116642 -0.19888626
-0.32322758 -0.16432314 0.060767073 0.04405888 0.19165018 0.27772388 0.043985967 -0.16693
0.14016706 -0.23396963 0.016191132 -0.34846783 -0.20630945 0.05068428 -0.13959508 0.23392116
-0.17199117 -0.22077383 0.24490568 0.104829915 0.052217964 -0.12931482 0.2049235 0.14309685
0.14084955 0.29621655 0.12938854 -0.17911336 0.06313021 -0.02037307 -0.053805005 -0.18110205
-0.18948743 0.31401974 0.23894443 0.06529874 -0.20142458 -0.0930913 0.20002325 0.22906353
-0.09537162 -0.2670191 -0.1507594 0.11017835 0.18900396 -0.17616485 -0.24861468 -0.3251181
0.13529964 0.16593257 0.07712254 -0.2934606 -0.09059633 0.09349439 -0.05850109 0.10939459
0.015542662 0.109066725 -0.09320244 -0.11376652 -0.0056974953 0.33297855 -0.28173903 -0.026000896
-0.19818114 0.0385344 -0.14828067 0.06849006 0.2509913 0.29006404 -0.10503934 0.15432735
-0.24298185 -0.17060538 0.21078022 0.32998365 0.34485516 -0.32722527 -0.16871467 -0.10490114
0.035150092 -0.19878931 -0.031780913 0.080225006 0.15832615 -0.19236706 -0.11885091 -0.12619749
-0.1077654 0.08794501 0.2782283 -0.2840409 -0.21650119 -0.10582475 0.07350819 -0.26006505
00000000: e4d6 92be 38d2 ac3e de99 b23e c5e1 b4bd
00000010: 3267 743e d3f1 e03d b3bd 793e 8dc2 913e
00000020: 9404 acbe 8865 79be 7447 5a3e 11d7 363e
00000030: e6fc 9cbd 8e37 b2be d700 8bbe 3f70 173e
00000040: b449 ddbd 51b2 febc b5b5 133e 7671 c7bd
00000050: 7a03 a43e db92 09be 1dde 8bbe d8a1 3a3e
00000060: 9e0f 813e 6f49 8e3d 0873 a1be 6eba 07bd
00000070: ee10 343e f537 8ebe 7c32 9a3e d7a8 4bbe
00000080: 167e a5be 5344 28be e5e6 783d 1677 343d
00000090: f23f 443e d331 8e3e a12a 343d b3ef 2abe
000000a0: f487 0f3e bc95 6fbe 44a3 843c 606a b2be
000000b0: c942 53be 529a 4f3d 03f2 0ebe 0789 6f3e
000000c0: 741e 30be 8912 62be 8ec8 7a3e 11b1 d63d
000000d0: 81e2 553d 1b6b 04be 77d7 513e fb87 123e
000000e0: dd3a 103e b2a9 973e 6e7e 043e 7e69 37be
000000f0: 694a 813d 6de5 a6bc a362 5cbd d172 39be
00000100: fe08 42be 32c7 a03e d9ad 743e 59bb 853d
00000110: 3f42 4ebe a7a6 bebd e5d2 4c3e a18f 6a3e
00000120: 3252 c3bd bab6 88be ac60 1abe 30a5 e13d
00000130: 418a 413e 8f64 34be d994 7ebe e175 a6be
00000140: fd8b 0a3e 3aea 293e 6cf2 9d3d 7840 96be
00000150: 928a b9bd fd79 bf3d d79e 6fbd 450a e03d
00000160: a6a6 7e3c 605e df3d ece0 bebd 6cfe e8bd
00000170: 0eb2 babb 2a7c aa3e 1940 90be d5ff d4bc
00000180: ffef 4abe 3fd6 1d3d e3d6 17be 8444 8c3d
00000190: ef81 803e 4683 943e de1e d7bd fd07 1e3e
000001a0: 3cd0 78be 2db3 2ebe c5d6 573e 9ef3 a83e
000001b0: db90 b03e 128a a7be 8ac3 2cbe 69d6 d6bd
000001c0: 8bf9 0f3d 6d8f 4bbe b42c 02bd 024d a43d
000001d0: 4020 223e dffb 44be 1b68 f3bd ea39 01be
000001e0: 1bb4 dcbd 831c b43d f173 8e3e cf6d 91be
000001f0: 7db2 5dbe a6ba d8bd 768b 963d 3f27 85be

decoder.de_convs.0.point_conv2.bias f4 [8]
0.25342086 0.3261126 0.19217484 -0.3058766 -0.2587405 0.22476058 -0.052050345 -0.22516468
00000000: 61c0 813e 3bf8 a63e 7bc9 443e dc9b 9cbe
00000010: a379 84be a327 663e be32 55bd 9291 66be

decoder.de_convs.0.point_bn2.weight f4 [8]
1.0 1.0 1.0 1.0 1.0 1.0 1.0 1.0
00000000: 0000 803f 0000 803f 0000 803f 0000 803f
00000010: 0000 803f 0000 803f 0000 803f 0000 803f

decoder.de_convs.0.point_bn2.bias f4 [8]
0.0 0.0 0.0 0.0 0.0 0.0 0.0 0.0
00000000: 0000 0000 0000 0000 0000 0000 0000 0000
00000010: 0000 0000 0000 0000 0000 0000 0000 0000

decoder.de_convs.0.tra.att_fc.bias f4 [8]
0.23894161 -0.13480788 -0.0397093 0.16764367 -0.19961783 -0.13323939 0.20928007 0.15831032
00000000: 1cad 743e 140b 0abe 38a6 22bd c8aa 2b3e
00000010: 9e68 4cbe e86f 08be 844d 563e 1a1c 223e

decoder.de_convs.1.point_conv1.weight f4 [8, 16, 1, 1]
-0.026263237 0.028879225 -0.01987496 0.17464247 0.012519717 -0.101254195 -0.07439658 0.14102054
0.032862157 -0.18212098 -0.19464332 -0.190878 0.24813238 0.08208516 0.22137976 -0.14773652
0.007707864 0.11617103 0.046241105 0.23619872 -0.17360687 0.18170801 0.093710095 -0.09402791
-0.20313695 0.10074571 0.01403293 -0.2134059 0.040084124 -0.035925895 -0.21629441 0.10331014
-0.059603363 0.24082008 -0.14199278 0.095834464 -0.14768839 -0.17800248 -0.1825485 -0.16150165
-0.099208415 0.116214484 0.076209575 -0.09102139 0.15553895 0.1832932 -0.2227825 -0.11344966
-0.049126774 -0.0722273 -0.011791378 0.09227678 -0.07691127 -0.026508123 -0.11616847 0.10735771
0.09811178 -0.22919336 -0.22502857 0.04482174 0.1977492 0.040391326 -0.068443686 -0.20935142
-0.02112791 0.15701625 0.23812532 -0.026451528 -0.077778906 0.023593068 0.24001068 -0.191932
-0.12601852 -0.0062045753 -0.21073455 0.025154114 0.018750578 -0.07261869 -0.019159198 0.12863371
-0.04320115 0.06376898 -0.12132347 0.22436023 -0.21744487 0.09473762 -0.13154003 0.18487588
-0.067721546 0.07390979 -0.10950866 -0.23705217 0.15760338 0.108263284 0.08551872 -0.013120443
-0.015631318 0.11348933 -0.19900408 -0.17081243 -0.17241916 -0.17897868 -0.19901979 -0.21964419
0.033793926 -0.18489444 -0.23504952 0.1975896 0.08095503 -0.061020404 -0.16660497 -0.21063724
-0.0638091 -0.09829816 -0.04954192 -0.06957102 0.1264453 0.11984995 0.13380674 -0.03985977
-0.03759396 0.15428424 0.13481128 0.18841806 0.21588221 -0.10412693 0.12242642 0.005646199
00000000: 0026 d7bc 2094 ec3c d0d0 a2bc 7ad5 323e
00000010: 801f 4d3c 5c5e cfbd 3c5d 98bd b067 103e
00000020: 789a 063d ec7d 3abe 9450 47be 8675 43be
00000030: 6a16 7e3e 441c a83d 60b1 623e 3e48 17be
00000040: 4092 fc3b 14eb ed3d 5067 3d3d 14de 713e
00000050: 00c6 31be aa11 3a3e 14eb bf3d b491 c0bd
00000060: 2203 50be c453 ce3d 60ea 653c 1487 5abe
00000070: 402f 243d 0827 13bd 487c 5dbe 4494 d33d
00000080: a822 74bd 8a99 763e 8e66 11be dc44 c43d
00000090: a03b 17be 4846 36be feed 3abe b060 25be
000000a0: c82d cbbd dc01 ee3d c413 9c3d 6c69 babd
000000b0: 9a45 1f3e 36b1 3b3e 1821 64be 4c58 e8bd
000000c0: 2839 49bd e8eb 93bd a030 41bc 9cfb bc3d
000000d0: a883 9dbd 9027 d9bc bce9 edbd 5cde db3d
000000e0: d4ee c83d aab1 6abe e46d 66be 0097 373d
000000f0: c47e 4a3e 6071 253d 342c 8cbd 3860 56be
00000100: 7014 adbc dec8 203e 20d7 733e e0b0 d8bc
00000110: 8c4a 9fbd 4046 c13c 5cc5 753e d289 44be
00000120: 000b 01be c04f cbbb ccca 57be 0010 ce3c
00000130: d09a 993c 1cb9 94bd c0f3 9cbc 8eb8 033e
00000140: b0f3 30bd 5099 823d 7078 f8bd b0be 653e
00000150: dea9 5ebe cc05 c23d 6eb2 06be 1a50 3d3e
00000160: 98b1 8abd 045e 973d 1446 e0bd cebd 72be
00000170: c862 213e 24b9 dd3d 7024 af3d 20f7 56bc
00000180: 400d 80bc 186d e83d bac7 4bbe 74e9 2ebe
00000190: a68e 30be 3046 37be d8cb 4bbe 68ea 60be
000001a0: 806b 0a3d f854 3dbe d2b0 70be ee54 4a3e
000001b0: c0cb a53d 88f0 79bd 7e9a 2abe 4ab1 57be
000001c0: 58ae 82bd 8c50 c9bd 78ec 4abd 407b 8ebd
000001d0: e07a 013e e473 f53d a204 093e 0044 23bd
000001e0: 20fc 19bd b0fc 1d3e f80b 0a3e aaf0 403e
000001f0: 3a10 5d3e 8040 d5bd b4ba fa3d c003 b93b

decoder.de_convs.1.point_conv1.bias f4 [16]
-0.12782869 -0.13077497 -0.16366288 0.15658253 -0.12019241 0.20529783 -0.07456222 0.17082754
-0.14725369 0.050721377 -0.05581683 0.0020900667 -0.109371156 -0.14492068 0.13281697 -0.119907945
00000000: 86e5 02be e0e9 05be 3e97 27be 2c57 203e
00000010: 7027 f6bd 9839 523e 14b4 98bd 6aed 2e3e
00000020: acc9 16be 38c1 4f3d 30a0 64bd 80f9 083b
00000030: fcfd dfbd 1666 14be 2c01 083e 4c92 f5bd

decoder.de_convs.1.depth_conv.weight f4 [16, 16, 3, 3]
-0.0009903213 0.0675748 0.064276904 0.04330188 0.078955844 -0.041305255 -0.055700958 0.04561798
0.050730824 0.080269545 0.058634304 -0.072181664 0.057116322 0.08087042 0.067865595 -0.062372833
-0.0609803 -0.008405149 -0.024341822 -0.042442232 -0.018063685 0.0026656687 -0.06581109 0.0038882992
-0.06728115 0.081556916 -0.028966617 -0.027607292 -0.024611354 -0.021096319 -0.0060702167 -0.08019985
0.05573564 0.024099827 -0.081112824 -0.067943424 -0.025300473 0.021884799 0.069324665 0.013432136
-0.05058716 0.019551039 -0.07465648 0.059898756 -0.0265464 -0.051911257 -0.06848173 -0.0073458254
-0.06764146 0.067441046 -0.06600519 -0.020509413 0.036025256 -0.04382652 0.049515307 -0.05014844
0.0021436315 0.04679974 0.08256377 0.002857844 0.03379377 -0.0088850465 -0.06674436 -0.07890509
0.06573157 -0.08201768 0.024824362 -0.06935398 0.069743805 0.078372955 -0.007410109 0.07116624
-0.06379416 -0.007708361 0.065154664 -0.041217797 -0.024571896 -0.074337795 -0.074998975 0.077969685
0.00844569 0.027297795 -0.014481267 -0.005684197 0.05536298 -0.009914726 0.02783218 -0.060674846
0.05254566 -0.06152932 0.04339231 -0.05436785 0.02146089 0.030459186 0.07555765 0.004267951
-0.054645263 0.049222253 -0.026341856 0.07463458 -0.052796 -0.027089518 -0.032051604 0.026299924
-0.04100755 -0.07088914 -0.024993759 -0.0052869916 -0.0070040226 -0.04964944 -0.063345656 -0.0059790215
-0.018534344 -0.025251132 -0.046466917 -0.027817449 -0.01001821 -0.03753091 0.0040986044 0.015847992
-0.046343416 -0.016697884 0.0033405225 -0.02751584 0.020830374 0.015741736 0.06918057 -0.032200716
0.06343742 -0.0037417512 0.05034884 0.038902353 0.011458069 -0.06511487 -0.047096163 -0.02286467
-0.06467208 -0.0029734871 -0.07269698 0.05227661 0.011913588 -0.054892164 0.04003986 -0.016581923
-0.016410232 -0.0323025 -0.046124987 -0.04187159 0.011655441 0.055560093 0.06309953 -0.01864484
0.07332793 0.058154166 0.012800723 -0.038257867 0.058258902 0.057166778 0.0009971261 -0.05514743
-0.02341963 -0.01048395 0.038391553 -0.01653732 0.07660732 0.022314291 0.07341086 -0.03980885
-0.004026284 0.05024126 0.07463795 -0.0043391883 0.010758122 0.04632487 0.031481396 -0.06652105
-0.08200913 0.05670344 -0.053006046 0.0072494647 -0.032884948 0.0039333105 0.04821863 -0.006750862
0.013403585 0.039945047 -0.06468962 -0.037743114 0.06667781 0.06956734 -0.054937582 0.067315236
0.062131874 0.050796174 0.05385257 -0.025985193 -0.07193948 0.05155457 -0.009235641 -0.03164359
-0.024811288 0.0655901 0.007331401 0.030607998 -0.06556384 0.04871872 0.07267967 -0.01930505
0.06242205 0.065733925 0.039183043 0.01626896 0.061866265 -0.0333651 0.0065640113 0.02073428
0.067298755 -0.035211466 0.04813571 0.071163885 0.03130744 -0.0030448935 0.06364927 0.009884517
0.07638238 -0.049161553 -0.018615603 0.03205979 -0.06368794 0.058366448 0.036683522 0.046590358
0.04752174 0.0064273775 -0.03163644 -0.045163255 0.07239433 -0.07877018 0.07791587 -0.070908695
-0.03828501 -0.021074941 0.019279798 -0.009290487 -0.035889834 -0.054047257 -0.030856173 0.055188775
-0.026475033 0.006162922 0.06144774 -0.01868099 0.012660464 -0.08180866 -0.0045843525 -0.020400137
00000000: abcd 81ba a864 8a3d 9ca3 833d 505d 313d
00000010: 9ab3 a13d b32f 29bd b026 64bd ebd9 3a3d
00000020: 20cb 4f3d 5c64 a43d 862a 703d fbd3 93bd
00000030: cef2 693d 649f a53d 1efd 8a3d a87a 7fbd
00000040: 7bc6 79bd c0b5 09bc 8068 c7bc e8d7 2dbd
00000050: 4bfa 93bc 80b2 2e3b f7c7 86bd d6d2 7e3b
00000060: b3ca 89bd 5007 a73d 664b edbc b028 e2bc
00000070: c09d c9bc 30d2 acbc abe8 c6bb d23f a4bd
00000080: 0e4b 643d 006d c53c 7b1e a6bd ec25 8bbd
00000090: f042 cfbc c047 b33c 17fa 8d3d 7612 5c3c
000000a0: 7b34 4fbd 8029 a03c 7fe5 98bd 6658 753d
000000b0: d677 d9bc e6a0 54bd 2640 8cbd 40b5 f0bb
000000c0: 9b87 8abd 881e 8a3d bb2d 87bd 5b03 a8bc
000000d0: 388f 133d 7083 33bd 90d0 4a3d 7368 4dbd
000000e0: 2b7c 0c3b 16b1 3f3d 3217 a93d ab4a 3b3b
000000f0: 566b 0a3d 9692 11bc 44b1 88bd fe98 a1bd
00000100: 469e 863d e3f8 a7bd 765c cb3c 7609 8ebd
00000110: d7d5 8e3d 0082 a03d 80d0 f2bb 9bbf 913d
00000120: 83a6 82bd 6b96 fcbb cf6f 853d fed3 28bd
00000130: 004b c9bc 6a3e 98bd 1099 99bd 92ae 9f3d
00000140: cb5f 0a3c a09f df3c d642 6dbc 8042 babb
00000150: 4bc4 623d 6071 22bc 5000 e43c 3086 78bd
00000160: 1e3a 573d 2b06 7cbd 23bc 313d d3b0 5ebd
00000170: c0ce af3c 8b85 f93c f8bd 9a3d 2bda 8b3b
00000180: b6d3 5fbd 469d 493d e0ca d7bc 04da 983d
00000190: 9e40 58bd d6ea ddbc 8b48 03bd f072 d73c
000001a0: 88f7 27bd 532e 91bd b6bf ccbc 803e adbb
000001b0: 0082 e5bb 365d 4bbd 5ebb 81bd abeb c3bb
000001c0: 56d5 97bc 76db cebc 1854 3ebd 6be1 e3bc
000001d0: 6b23 24bc 03ba 19bd 964d 863b a6d3 813c
000001e0: 98d2 3dbd 00ca 88bc abec 5a3b e668 e1bc
000001f0: 76a4 aa3c d0f4 803c 8bae 8d3d e6e4 03bd
00000200: 7aeb 813d 2b38 75bb 963a 4e3d 1358 1f3d
00000210: a0ba 3b3c f25a 85bd e8e7 40bd b04e bbbc
00000220: cc72 84bd d6de 42bb 27e2 94bd 0020 563d
00000230: 3631 433c 9bd6 60bd d600 243d d0d6 87bc
00000240: c06e 86bc a04f 04bd 8eed 3cbd 8b81 2bbd
00000250: 76f6 3e3c fb92 633d 543a 813d 10bd 98bc
00000260: f42c 963d 1033 6e3d 20ba 513c 48b4 1cbd
00000270: e3a0 6e3d b627 6a3d 00b2 823a 46e2 61bd
00000280: 86da bfbc e0c4 2bbc 7640 1d3d 4679 87bc
00000290: 4ce4 9c3d 76cc b63c 6f58 963d 9b0e 23bd
000002a0: ebee 83bb c8c9 4d3d c8db 983d c02f 8ebb
000002b0: d642 303c 26bf 3d3d a3f2 003d 303c 88bd
000002c0: 67f4 a7bd de41 683d de1c 59bd eb8c ed3b
000002d0: 5eb2 06bd 00e3 803b e680 453d 5636 ddbb
000002e0: b69a 5b3c 6b9d 233d fe7b 84bd 8698 1abd
000002f0: 608e 883d 5279 8e3d 3b06 61bd 92dc 893d
00000300: fe7d 7e3d a60f 503d 8394 5c3d e6de d4bc
00000310: 0255 93bd e32a 533d 1651 17bc b69c 01bd
00000320: 0b41 cbbc 1a54 863d 403c f03b a0bd fa3c
00000330: 5646 86bd 488d 473d 14d9 943d a025 9ebc
00000340: 43ae 7f3d 829f 863d 667e 203d 7b46 853c
00000350: 7b67 7d3d d8a9 08bd eb16 d73b f0da a93c
00000360: eed3 893d e639 10bd f329 453d 5fbe 913d
00000370: 3b3c 003d d68c 47bb 8c5a 823d abf2 213c
00000380: 5e6e 9c3d a05d 49bd c07f 98bc 2051 033d
00000390: d36e 82bd a811 6f3d 7641 163d 88d5 3e3d
000003a0: 28a6 423d c09c d23b 3695 01bd 1bfd 38bd
000003b0: 7a43 943d 4352 a1bd 5b92 9f3d 9438 91bd
000003c0: bed0 1cbd 5ba5 acbc abf0 9d3c 2037 18bc
000003d0: 3801 13bd a860 5dbd 16c6 fcbc a00d 623d
000003e0: 2be2 d8bc 56f2 c93b a0b0 7b3d e008 99bc
000003f0: d66d 4f3c 4c8b a7bd 5638 96bb 301e a7bc

decoder.de_convs.1.depth_conv.bias f4 [16]
-0.072311 0.027328532 -0.034876496 -0.080905646 0.0019431412 0.052233618 -0.009733349 0.022127341
0.0737549 -0.0012292564 0.024502378 -0.04724322 0.0392556 -0.04052349 0.025906166 0.0662862
00000000: ca17 94bd 16e0 df3c a8da 0ebd dcb1 a5bd
00000010: 00b1 fe3a ebf2 553d a078 1fbc 6644 b53c
00000020: cf0c 973d 001f a1ba 36b9 c83c 1b82 41bd
00000030: 7bca 203d f6fb 25bd 2b39 d43c 0fc1 873d

decoder.de_convs.1.point_conv2.weight f4 [16, 8, 1, 1]
0.34169996 -0.3323462 0.23647206 -0.2959434 0.27960494 0.0097932 0.20698865 -0.10919157
0.24959292 -0.33037493 0.25864923 0.0033678282 -0.28405973 0.007572187 0.27751768 -0.307957
0.093980476 -0.2763726 -0.06596319 0.09218734 -0.061811093 0.2670474 0.328259 0.14158745
-0.10403014 -0.17613712 -0.20671545 -0.30224735 0.17006001 -0.30119902 -0.32292324 0.10674477
-0.13206546 -0.33503866 0.05226698 0.035956107 -0.025483543 0.079208344 -0.23341902 0.17154668
-0.21360688 0.25591314 0.29578182 0.06495221 -0.027442656 0.22366215 0.076798975 -0.23831666
0.24648277 -0.17830662 0.21882057 -0.34888184 -0.07554093 0.23727769 0.22274427 0.34550393
-0.10092307 0.21854536 0.2677902 -0.05917413 0.3217637 0.3067194 0.35274175 0.22268611
0.0017310132 0.14224885 -0.1333772 -0.3099072 -0.054839287 0.26487115 -0.0023218698 -0.31387237
-0.20348802 0.05394021 -0.120318085 -0.058843322 -0.20634258 -0.3407161 0.30399626 -0.17525178
-0.28992087 -0.14261481 0.20485164 -0.039602485 -0.26725063 0.32247698 0.19168644 -0.24589558
0.2826632 0.2292861 -0.05344317 0.1244443 0.031803 -0.16217196 -0.057886504 -0.1304418
-0.18301043 0.2747942 0.09280778 0.30674934 0.025196524 0.18278898 0.034328185 -0.098235786
-0.24412479 0.34369287 0.24324973 -0.24506007 -0.28959593 -0.12127069 -0.16519853 0.35036692
-0.124154285 0.16819909 0.2654392 -0.15701889 0.21398687 -0.30438256 0.053081427 0.2886871
-0.3296501 0.08836812 0.030856676 -0.06783813 -0.11060766 -0.083898656 0.07792657 0.2366309
00000000: 4cf3 ae3e 4829 aabe bb25 723e e585 97be
00000010: 6128 8f3e a873 203c d5f4 533e d49f dfbd
00000020: 4995 7f3e e726 a9be ac6d 843e c8b6 5c3b
00000030: 4770 91be 1c20 f83b cc16 8e3e 8aac 9dbe
00000040: d678 c03d b680 8dbe b517 87bd b7cc bc3d
00000050: a12d 7dbd 70ba 883e 9011 a83e 4dfc 103e
00000060: c10d d5bd 4a5d 34be 37ad 53be 2ac0 9abe
00000070: 3624 2e3e c236 9abe 3256 a5be 019d da3d
00000080: 2b3c 07be 308a abbe e715 563d b646 133d
00000090: ddc2 d0bc fc37 a23d 6505 6fbe efa9 2f3e
000000a0: c3bb 5abe 0c07 833e b770 973e aa05 853d
000000b0: 6ccf e0bc b107 653e c848 9d3d 4809 74be
000000c0: fb65 7c3e 0396 36be 8012 603e a4a0 b2be
000000d0: 34b5 9abd ecf8 723e 1317 643e e4e5 b03e
000000e0: c1b0 cebd 5bca 5f3e cc1b 893e 9360 72bd
000000f0: 36be a43e 530a 9d3e 919a b43e d407 643e
00000100: 2ae3 e23a afa9 113e 0894 08be 28ac 9ebe
00000110: 299f 60bd 319d 873e 832a 18bb e1b3 a0be
00000120: 2a5f 50be 69f0 5c3d 5469 f6bd b205 71bd
00000130: 784b 53be 5772 aebe 66a5 9b3e 3475 33be
00000140: 8270 94be 9e09 12be a1c4 513e 3736 22bd
00000150: 13d5 88be b41b a53e 7349 443e 0dcc 7bbe
00000160: 3bb9 903e fac9 6a3e 3ae7 5abd a7dc fe3d
00000170: dd43 023d 6810 26be 661a 6dbd 8992 05be
00000180: 1667 3bbe d3b1 8c3e 0112 be3d 400e 9d3e
00000190: f168 ce3c 092d 3b3e b69b 0c3d d82f c9bd
000001a0: d9fb 79be 83f8 af3e 7516 793e 07f1 7abe
000001b0: eb45 94be c45c f8bd ce29 29be 4b63 b33e
000001c0: 9a44 febd 623c 2c3e a6e7 873e 8fc9 20be
000001d0: 601f 5b3e 08d8 9bbe e96b 593d ccce 933e
000001e0: e6c7 a8be 58fa b43d 24c7 fc3c b8ee 8abd
000001f0: 4586 e2bd 0fd3 abbd f797 9f3d 5f4f 723e

decoder.de_convs.1.point_conv2.bias f4 [8]
-0.2026817 0.16067588 0.07071908 -0.18962115 0.27760556 0.084378496 0.23371473 -0.2281754
00000000: cb8b 4fbe 3888 243e 2ad5 903d 0c2c 42be
00000010: 5122 8e3e a2ce ac3d ea52 6f3e d0a6 69be

decoder.de_convs.1.tra.att_fc.bias f4 [8]
0.009526938 -0.21996894 -0.22378379 -0.11048928 -0.1371167 -0.01397112 -0.16637951 -0.02837032
00000000: e016 1c3c 8a3f 61be 9427 65be 3448 e2bd
00000010: 5268 0cbe 20e7 64bc 645f 2abe e068 e8bc

decoder.de_convs.2.point_conv1.weight f4 [8, 16, 1, 1]
-0.18038917 0.17909503 -0.24640632 -0.0051063 -0.05061859 -0.044098794 -0.028143764 -0.12921551
0.23199642 -0.057434708 0.045268536 0.22029224 -0.19738683 0.16847959 -0.14605242 -0.20184869
0.17926025 0.082885206 -0.12884188 0.06290737 0.09103295 -0.058305502 0.17241204 0.024567038
0.06947881 0.17718938 -0.03099826 0.19015446 -0.20029506 0.23332053 -0.11699173 0.10451764
0.113931805 -0.07524052 0.05810845 -0.16559172 0.090123266 -0.19449556 0.23567805 0.03860897
0.04111293 0.10688603 0.15754175 -0.11311209 0.045455515 0.057857215 -0.0737786 0.109876424
0.014439523 -0.21066993 0.05313489 0.05416581 -0.12869975 0.09004417 -0.020143956 0.08137128
0.036809653 -0.04460731 0.049110472 0.08562386 0.23053437 0.2375583 -0.16904578 0.016922593
0.07018241 -0.18884456 -0.021256149 -0.078829646 0.12103027 -0.06621182 0.17898268 -0.08921799
-0.058829278 0.13794982 0.12726259 0.20789978 0.18220249 -0.20781124 0.07365015 0.094477385
0.23116055 -0.11077011 -0.09542513 0.14889875 -0.21356842 0.08544162 -0.1211707 0.19801068
-0.14668733 -0.24909186 0.13000205 -0.089642376 -0.1411925 0.07225305 -0.17963281 0.20275515
-0.074114084 -0.0442746 -0.12013736 -0.24320549 0.11643335 -0.12292364 0.15360713 -0.024387658
0.0051110685 -0.09541613 -0.0679951 0.13109872 0.063318044 0.14592198 -0.19241965 0.2477096
-0.23839179 0.10938409 -0.097376585 0.18154499 0.12784028 0.12235859 0.104855865 0.02048713
-0.0450626 0.004760742 -0.20506781 0.1853894 -0.14865467 0.22025365 -0.07917899 0.22338903
00000000: f0b7 38be b064 373e f051 7cbe c052 a7bb
00000010: 7055 4fbd f0a0 34bd c08d e6bc 1251 04be
00000020: 7890 6d3e a840 6bbd 806b 393d 4a94 613e
00000030: c61f 4abe ea85 2c3e c48e 15be 6cb1 4ebe
00000040: 0090 373e b8bf a93d 20ef 03be 94d5 803d
00000050: 7c6f ba3d c0d1 6ebd c88c 303e d040 c93c
00000060: e84a 8e3d 2271 353e 10f0 fdbc dab7 423e
00000070: 261a 4dbe 94eb 6e3e 5c99 efbd 580d d63d
00000080: 1455 e93d b417 9abd 2003 6e3d e090 29be
00000090: 8c92 b83d d829 47be 9655 713e 7024 1e3d
000000a0: 0866 283d 10e7 da3d a052 213e 50a7 e7bd
000000b0: 902f 3a3d b0fb 6c3d 3c19 97bd e406 e13d
000000c0: c093 6c3c dcb9 57be f8a3 593d f8dc 5d3d
000000d0: dec9 03be 1469 b83d f004 a5bc fca5 a63d
000000e0: b8c5 163d 28b6 36bd 1028 493d 905b af3d
000000f0: 3411 6c3e 7c42 733e 561a 2dbe 40a1 8a3c
00000100: ccbb 8f3d 7860 41be 6021 aebc 7071 a1bd
00000110: b8de f73d 109a 87bd 3c47 373e ecb7 b6bd
00000120: f8f6 70bd b842 0d3e 2051 023e aee3 543e
00000130: 4a93 3a3e 78cc 54be e4d5 963d 5c7d c13d
00000140: 5ab5 6c3e 70db e2bd 406e c3bd ea78 183e
00000150: aeb1 5abe 04fc ae3d 5828 f8bd 50c3 4a3e
00000160: 3435 16be f011 7fbe 421f 053e 6c96 b7bd
00000170: c494 10be 68f9 933d aaf1 37be 0c9f 4f3e
00000180: 20c9 97bd 4859 35bd 940a f6bd dc0a 79be
00000190: 9c74 ee3d 64bf fbbd 304b 1d3e a0c8 c7bc
000001a0: c07a a73b 8869 c3bd 0441 8bbd be3e 063e
000001b0: e4ac 813d 926c 153e a809 45be 96a7 7d3e
000001c0: fa1c 74be c404 e03d 606d c7bd eee6 393e
000001d0: 90e8 023e 2497 fa3d acbe d63d a0d4 a73c
000001e0: 9093 38bd 0000 9c3b 4cfd 51be b8d6 3d3e
000001f0: ee38 18be 2c8a 613e 9828 a2bd 18c0 643e

decoder.de_convs.2.point_conv1.bias f4 [16]
0.20928067 0.18759245 -0.08718118 -0.0130288005 -0.15126812 0.12872607 0.180987 0.1975916
-0.17333621 -0.16443393 -0.2123906 -0.104105085 0.04138723 0.006113887 0.11084017 0.041752905
00000000: ac4d 563e 3c18 403e 0c8c b2bd c076 55bc
00000010: 08e6 1abe c4d0 033e a854 393e 7455 4a3e
00000020: 0c7f 31be 5e61 28be ec7c 59be 0c35 d5bd
00000030: a885 293d 0057 c83b 2c00 e33d 1805 2b3d

decoder.de_convs.2.depth_conv.weight f4 [16, 16, 3, 3]
0.0077765686 -0.01685983 -0.06401765 0.03712499 0.054004114 -0.044433594 -0.065065674 -0.025764972
-0.066790335 0.07033031 0.014414519 0.020065209 -0.018667948 0.004312843 0.05273805 -0.014720311
-0.017388007 -0.016648442 0.014803529 0.07299964 0.0048287017 0.06810999 -0.04743301 0.061314575
0.04199023 0.06384751 0.058395498 -0.00911361 -0.06744115 0.0025224488 0.04878944 0.042550683
-0.075383 0.006703099 0.030955076 -0.055387378 -0.035312913 -0.076939836 0.034672074 0.026116233
-0.020525655 -0.015567711 0.02945447 0.071427904 0.04494261 -0.011064878 -0.0034039717 -0.03279526
0.049132787 -0.019925496 -0.031187594 0.07293995 0.022043705 0.02533874 0.028145056 -0.0060011847
0.039654028 -0.022754233 -0.075367086 0.008338749 -0.018356275 0.08174871 0.0009726584 -0.058250725
0.04049961 -0.035812955 0.038040042 0.051711302 0.02207151 0.06136068 0.062599115 0.019777339
-0.051739484 0.011839132 0.008200049 -0.07183191 0.0784675 0.060569417 0.06309634 -0.053261273
0.0017721355 -0.056920998 -0.06672793 -0.036195874 0.0066426597 0.06732543 0.073769026 -0.012036264
0.024612775 -0.037298948 -0.00892359 -0.03913352 -0.08290916 0.035560988 0.060304396 0.057361703
0.016809732 0.033012897 -0.009091924 -0.005778432 0.0019505322 0.03421253 0.06029017 -0.01582712
-0.0027995508 0.04734982 -0.06070458 0.06174186 0.02822127 -0.008042216 -0.012281299 0.0064393184
-0.0019043386 0.023323825 0.057615202 -0.046622097 -0.019957166 0.044350754 -0.053521983 0.020647576
-0.061724454 0.0005604625 -0.0426751 0.07913856 0.06712188 -0.023529947 0.0049790144 0.02971546
0.000780652 -0.04990127 -0.0470156 -0.075439714 0.051501673 0.056752264 -0.071227536 0.042741627
-0.026864499 -0.053030103 -0.032302223 -0.058633856 -0.013552408 -0.012813072 -0.07857218 0.025789768
0.07206926 -0.027226985 -0.076316 0.039295465 -0.045945823 0.052463334 0.026063552 -0.049890958
0.010574828 -0.07628464 -0.0076040826 -0.010330161 0.08312902 0.05340178 -0.005780697 -0.021508684
0.023467153 0.03813837 0.00544555 0.06587252 -0.052216917 0.066387415 0.026836038 -0.0021162033
0.0026253364 -0.040700458 -0.06265709 -0.03566424 0.056028675 0.0041679144 -0.028063199 0.013469627
-0.06867932 -0.02944855 0.0077880025 0.014998148 -0.06845896 0.0318215 -0.024113178 -0.0057754917
-0.041983604 0.07544628 -0.026877403 0.0060288114 -0.027329784 -0.06016965 -0.0788037 0.060453616
-0.03464363 0.005472034 -0.019423923 0.050540727 -0.012245825 -0.02661421 -0.05884711 0.06165008
0.06379216 0.08054423 0.009142121 0.060812365 -0.03360807 0.023458084 0.08280954 0.038689654
0.04824817 -0.0026010077 0.048362833 -0.07149032 -0.059856486 0.044350576 0.024952155 0.027038902
-0.063523814 0.034327924 -0.04951664 0.05027163 -0.0013707976 0.054079615 0.055896133 0.048591148
0.0124911275 0.0176696 0.032086603 -0.054688245 0.022248587 0.0036602519 0.082403675 0.056146376
0.011803806 0.07006409 -0.038180202 0.036078542 0.038347147 -0.041823637 -0.063799635 0.05190768
-0.01417619 -0.059543937 0.064456984 -0.016128015 0.044404827 -0.025793215 0.07820369 0.04837204
0.019050598 0.05659028 -0.021667471 0.018604785 0.029391944 -0.034222215 -0.053429954 -0.020747315
00000000: 96d2 fe3b a01d 8abc b01b 83bd 6010 183d
00000010: 6b33 5d3d 0000 36bd 2741 85bd 1011 d3bc
00000020: 5fc9 88bd 5609 903d e02a 6c3c cb5f a43c
00000030: 86ed 98bc c052 8d3b db03 583d 762d 71bc
00000040: 4b71 8ebc 5062 88bc 808a 723c d680 953d
00000050: 163a 9e3b 407d 8b3d 1e49 42bd fe24 7b3d
00000060: f3fd 2b3d 7cc2 823d 1e30 6f3d 4051 15bc
00000070: 961e 8abd ab4f 253b 70d7 473d a049 2e3d
00000080: 6762 9abd aba5 db3b 8095 fd3c e0dd 62bd
00000090: 46a4 10bd a292 9dbd 4e04 0e3d b6f1 d53c
000000a0: 6b25 a8bc b60f 7fbc 804a f13c cb48 923d
000000b0: be15 383d 7649 35bc 2b15 5fbb 5354 06bd
000000c0: 763f 493d cb3a a3bc 207d ffbc 8a61 953d
000000d0: 0095 b43c 3093 cf3c 7690 e63c 96a5 c4bb
000000e0: 436c 223d 1667 babc 0f5a 9abd 409f 083c
000000f0: e65f 96bc de6b a73d 00fa 7e3a 5098 6ebd
00000100: ebe2 253d 9bb0 12bd e0cf 1b3d 3bcf 533d
00000110: 50cf b43c 5655 7b3d f733 803d 1604 a23c
00000120: c8ec 53bd ebf8 413c 8059 063c 9c1c 93bd
00000130: 92b3 a03d a317 783d a738 813d 7e28 5abd
00000140: 0047 e83a fe25 69bd a7a8 88bd 2042 14bd
00000150: abaa d93b eae1 893d 3714 973d c033 45bc
00000160: bba0 c93c c8c6 18bd 4034 12bc 784a 20bd
00000170: 47cc a9bd 66a8 113d be01 773d 1bf4 6a3d
00000180: 90b4 893c 8838 073d 4bf6 14bc 0059 bdbb
00000190: 00a9 ff3a 7022 0c3d d3f2 763d e0a7 81bc
000001a0: ab78 37bb e3f1 413d 5ea5 78bd 08e5 7c3d
000001b0: 4b30 e73c 80c3 03bc 8037 49bc eb00 d33b
000001c0: 009b f9ba 9b11 bf3c ebfd 6b3d d0f6 3ebd
000001d0: 367d a3bc 23a9 353d de39 5bbd 1b25 a93c
000001e0: c8d2 7cbd 00ec 123a 16cc 2ebd 6613 a23d
000001f0: 3277 893d e0c1 c0bc 0027 a33b d66d f33c
00000200: aba4 4c3a 4665 4cbd 6e93 40bd 2380 9abd
00000210: 6bf3 523d 1075 683d bedf 91bd d811 2f3d
00000220: f012 dcbc 1836 59bd 564f 04bd 0e2a 70bd
00000230: eb0a 5ebc ebed 51bc 73ea a0bd 1045 d33c
00000240: 0c99 933d 200b dfbc 904b 9cbd 48f4 203d
00000250: b031 3cbd cbe3 563d 3b83 d53c 765a 4cbd
00000260: 0b42 2d3c 1f3b 9cbd ab2b f9bb d63f 29bc
00000270: 8c3f aa3d d3bb 5a3d 006c bdbb fb32 b0bc
00000280: 303e c03c fb36 1c3d 9670 b23b 2ce8 863d
00000290: 68e1 55bd 20f6 873d 40d7 db3c 00b0 0abb
000002a0: d60d 2c3b 86b5 26bd 5c52 80bd ab14 12bd
000002b0: 537e 653d 0093 883b cbe4 e5bc b6af 5c3c
000002c0: bea7 8cbd 163e f1bc 8032 ff3b cbba 753c
000002d0: 3634 8cbd 4357 023d 0089 c5bc 5640 bdbb
000002e0: 00f7 2bbd 9483 9a3d 002e dcbc 568d c53b
000002f0: b6e2 dfbc 7374 76bd d663 a1bd 369e 773d
00000300: 7be6 0dbd c04e b33b eb1e 9fbc cb03 4f3d
00000310: b6a2 48bc 0b06 dabc ab09 71bd cb84 7c3d
00000320: 77a5 823d 60f4 a43d d6c8 153c 6316 793d
00000330: 9ea8 09bd 2b2b c03c 0c98 a93d 0b79 1e3d
00000340: e09f 453d ab75 2abb 1b18 463d 8469 92bd
00000350: 132c 75bd f3a8 353d 7668 cc3c b080 dd3c
00000360: c618 82bd 709b 0c3d f6d1 4abd a0e9 4d3d
00000370: 56ac b3ba 9682 5d3d 58f3 643d 8307 473d
00000380: 96a7 4c3c d6bf 903c 3e6d 033d c800 60bd
00000390: ab42 b63c d6e0 6f3b 42c3 a83d bef9 653d
000003a0: c064 413c c37d 8f3d d862 1cbd 18c7 133d
000003b0: e611 1d3d 434f 2bbd 62a9 82bd 269d 543d
000003c0: 4043 68bc 58e4 73bd 0602 843d e61e 84bc
000003d0: d6e1 353d 4b4c d3bc 4229 a03d c321 463d
000003e0: 0010 9c3c 36cb 673d fb7f b1bc 1069 983c
000003f0: 60c7 f03c 982c 0cbd 5ed9 5abd 46f6 a9bc

decoder.de_convs.2.depth_conv.bias f4 [16]
-0.082987204 -0.07933484 -0.04901719 0.0583737 0.06939136 -0.06717157 -0.041602693 0.0074035227
-0.057816606 0.021696191 0.019468447 0.03245322 -0.06587052 0.07314216 -0.03324784 0.0021473467
00000000: 32f5 a9bd 4e7a a2bd 40c6 48bd 4319 6f3d
00000010: 0f1d 8e3d 4091 89bd 9667 2abd 4099 f23b
00000020: 1bd1 6cbd 36bc b13c 4b7c 9f3c abed 043d
00000030: 20e7 86bd 8fcb 953d e32e 08bd 80ba 0c3b
