gtcrn_micro/gtcrn_micro.onnx (onnx, 475668 bytes, 116 tensors)

encoder.en_convs.2.tra.att_fc.bias f4 [8]
000000 60 29 52 3d c2 14 42 be 3e ed 36 3e c0 e3 cb 3c
       0.05130899 -0.18953231 0.17863938 0.024888873
000010 9c 88 49 3e e2 1f 2c be 26 a4 23 be 36 82 4f be
       0.19681019 -0.16809037 -0.15980586 -0.20264515

encoder.en_convs.3.tra.att_fc.bias f4 [8]
000000 1e c4 4f 3e c8 ad 1c bd a4 bc db bd 28 1b 67 3e
       0.20289657 -0.03825167 -0.1072934 0.22568953
000010 52 72 08 be b0 27 73 3e a0 ac 1b bd d2 0d 1d 3e
       -0.1332486 0.23745608 -0.038006425 0.15337303

encoder.en_convs.4.tra.att_fc.bias f4 [8]
000000 b8 18 2b 3e 94 ee ac bd f0 72 cf 3c b2 4b 5c 3e
       0.16708648 -0.08443943 0.025323361 0.2151325
000010 50 b8 f6 bc cc cf 80 3d d4 b6 4f be 70 92 96 bd
       -0.030117184 0.06289634 -0.20284587 -0.073521495

dpgrnn1.intra_fc.bias f4 [16]
000000 e2 2e 27 be 4e eb 65 3e 92 d8 75 3e 00 e5 6b 3d
       -0.16326478 0.22453043 0.24008396 0.05759144
000010 00 ab 65 bb b0 26 ba 3d c8 92 15 3d 08 e0 6d be
       -0.003504455 0.0908941 0.036516935 -0.23229992
000020 e8 e0 30 3e 80 9b df bd 78 73 6e 3e 54 3c 5b 3e
       0.17273295 -0.10918331 0.23286235 0.21409732
000030 72 47 09 3e b2 80 67 3e 08 36 30 3d 40 b4 0f bd
       0.1340616 0.22607687 0.04302028 -0.03508401

dpgrnn1.intra_ln.weight f4 [33, 16]
000000 00 00 80 3f 00 00 80 3f 00 00 80 3f 00 00 80 3f
       1.0 1.0 1.0 1.0
000010 00 00 80 3f 00 00 80 3f 00 00 80 3f 00 00 80 3f
       1.0 1.0 1.0 1.0
000020 00 00 80 3f 00 00 80 3f 00 00 80 3f 00 00 80 3f
       1.0 1.0 1.0 1.0
000030 00 00 80 3f 00 00 80 3f 00 00 80 3f 00 00 80 3f
       1.0 1.0 1.0 1.0
000040 00 00 80 3f 00 00 80 3f 00 00 80 3f 00 00 80 3f
       1.0 1.0 1.0 1.0
000050 00 00 80 3f 00 00 80 3f 00 00 80 3f 00 00 80 3f
       1.0 1.0 1.0 1.0
000060 00 00 80 3f 00 00 80 3f 00 00 80 3f 00 00 80 3f
       1.0 1.0 1.0 1.0
000070 00 00 80 3f 00 00 80 3f 00 00 80 3f 00 00 80 3f
       1.0 1.0 1.0 1.0
000080 00 00 80 3f 00 00 80 3f 00 00 80 3f 00 00 80 3f
       1.0 1.0 1.0 1.0
000090 00 00 80 3f 00 00 80 3f 00 00 80 3f 00 00 80 3f
       1.0 1.0 1.0 1.0
0000a0 00 00 80 3f 00 00 80 3f 00 00 80 3f 00 00 80 3f
       1.0 1.0 1.0 1.0
0000b0 00 00 80 3f 00 00 80 3f 00 00 80 3f 00 00 80 3f
       1.0 1.0 1.0 1.0
0000c0 00 00 80 3f 00 00 80 3f 00 00 80 3f 00 00 80 3f
       1.0 1.0 1.0 1.0
0000d0 00 00 80 3f 00 00 80 3f 00 00 80 3f 00 00 80 3f
       1.0 1.0 1.0 1.0
0000e0 00 00 80 3f 00 00 80 3f 00 00 80 3f 00 00 80 3f
       1.0 1.0 1.0 1.0
0000f0 00 00 80 3f 00 00 80 3f 00 00 80 3f 00 00 80 3f
       1.0 1.0 1.0 1.0
000100 00 00 80 3f 00 00 80 3f 00 00 80 3f 00 00 80 3f
       1.0 1.0 1.0 1.0
000110 00 00 80 3f 00 00 80 3f 00 00 80 3f 00 00 80 3f
       1.0 1.0 1.0 1.0
000120 00 00 80 3f 00 00 80 3f 00 00 80 3f 00 00 80 3f
       1.0 1.0 1.0 1.0
000130 00 00 80 3f 00 00 80 3f 00 00 80 3f 00 00 80 3f
       1.0 1.0 1.0 1.0
000140 00 00 80 3f 00 00 80 3f 00 00 80 3f 00 00 80 3f
       1.0 1.0 1.0 1.0
000150 00 00 80 3f 00 00 80 3f 00 00 80 3f 00 00 80 3f
       1.0 1.0 1.0 1.0
000160 00 00 80 3f 00 00 80 3f 00 00 80 3f 00 00 80 3f
       1.0 1.0 1.0 1.0
000170 00 00 80 3f 00 00 80 3f 00 00 80 3f 00 00 80 3f
       1.0 1.0 1.0 1.0
000180 00 00 80 3f 00 00 80 3f 00 00 80 3f 00 00 80 3f
       1.0 1.0 1.0 1.0
000190 00 00 80 3f 00 00 80 3f 00 00 80 3f 00 00 80 3f
       1.0 1.0 1.0 1.0
0001a0 00 00 80 3f 00 00 80 3f 00 00 80 3f 00 00 80 3f
       1.0 1.0 1.0 1.0
0001b0 00 00 80 3f 00 00 80 3f 00 00 80 3f 00 00 80 3f
       1.0 1.0 1.0 1.0
0001c0 00 00 80 3f 00 00 80 3f 00 00 80 3f 00 00 80 3f
       1.0 1.0 1.0 1.0
0001d0 00 00 80 3f 00 00 80 3f 00 00 80 3f 00 00 80 3f
       1.0 1.0 1.0 1.0
0001e0 00 00 80 3f 00 00 80 3f 00 00 80 3f 00 00 80 3f
       1.0 1.0 1.0 1.0
0001f0 00 00 80 3f 00 00 80 3f 00 00 80 3f 00 00 80 3f
       1.0 1.0 1.0 1.0
000200 00 00 80 3f 00 00 80 3f 00 00 80 3f 00 00 80 3f
       1.0 1.0 1.0 1.0
000210 00 00 80 3f 00 00 80 3f 00 00 80 3f 00 00 80 3f
       1.0 1.0 1.0 1.0
000220 00 00 80 3f 00 00 80 3f 00 00 80 3f 00 00 80 3f
       1.0 1.0 1.0 1.0
000230 00 00 80 3f 00 00 80 3f 00 00 80 3f 00 00 80 3f
       1.0 1.0 1.0 1.0
000240 00 00 80 3f 00 00 80 3f 00 00 80 3f 00 00 80 3f
       1.0 1.0 1.0 1.0
000250 00 00 80 3f 00 00 80 3f 00 00 80 3f 00 00 80 3f
       1.0 1.0 1.0 1.0
000260 00 00 80 3f 00 00 80 3f 00 00 80 3f 00 00 80 3f
       1.0 1.0 1.0 1.0
000270 00 00 80 3f 00 00 80 3f 00 00 80 3f 00 00 80 3f
       1.0 1.0 1.0 1.0
000280 00 00 80 3f 00 00 80 3f 00 00 80 3f 00 00 80 3f
       1.0 1.0 1.0 1.0
000290 00 00 80 3f 00 00 80 3f 00 00 80 3f 00 00 80 3f
       1.0 1.0 1.0 1.0
0002a0 00 00 80 3f 00 00 80 3f 00 00 80 3f 00 00 80 3f
       1.0 1.0 1.0 1.0
0002b0 00 00 80 3f 00 00 80 3f 00 00 80 3f 00 00 80 3f
       1.0 1.0 1.0 1.0
0002c0 00 00 80 3f 00 00 80 3f 00 00 80 3f 00 00 80 3f
       1.0 1.0 1.0 1.0
0002d0 00 00 80 3f 00 00 80 3f 00 00 80 3f 00 00 80 3f
       1.0 1.0 1.0 1.0
0002e0 00 00 80 3f 00 00 80 3f 00 00 80 3f 00 00 80 3f
       1.0 1.0 1.0 1.0
0002f0 00 00 80 3f 00 00 80 3f 00 00 80 3f 00 00 80 3f
       1.0 1.0 1.0 1.0
000300 00 00 80 3f 00 00 80 3f 00 00 80 3f 00 00 80 3f
       1.0 1.0 1.0 1.0
000310 00 00 80 3f 00 00 80 3f 00 00 80 3f 00 00 80 3f
       1.0 1.0 1.0 1.0
000320 00 00 80 3f 00 00 80 3f 00 00 80 3f 00 00 80 3f
       1.0 1.0 1.0 1.0
000330 00 00 80 3f 00 00 80 3f 00 00 80 3f 00 00 80 3f
       1.0 1.0 1.0 1.0
000340 00 00 80 3f 00 00 80 3f 00 00 80 3f 00 00 80 3f
       1.0 1.0 1.0 1.0
000350 00 00 80 3f 00 00 80 3f 00 00 80 3f 00 00 80 3f
       1.0 1.0 1.0 1.0
000360 00 00 80 3f 00 00 80 3f 00 00 80 3f 00 00 80 3f
       1.0 1.0 1.0 1.0
000370 00 00 80 3f 00 00 80 3f 00 00 80 3f 00 00 80 3f
       1.0 1.0 1.0 1.0
000380 00 00 80 3f 00 00 80 3f 00 00 80 3f 00 00 80 3f
       1.0 1.0 1.0 1.0
000390 00 00 80 3f 00 00 80 3f 00 00 80 3f 00 00 80 3f
       1.0 1.0 1.0 1.0
0003a0 00 00 80 3f 00 00 80 3f 00 00 80 3f 00 00 80 3f
       1.0 1.0 1.0 1.0
0003b0 00 00 80 3f 00 00 80 3f 00 00 80 3f 00 00 80 3f
       1.0 1.0 1.0 1.0
0003c0 00 00 80 3f 00 00 80 3f 00 00 80 3f 00 00 80 3f
       1.0 1.0 1.0 1.0
0003d0 00 00 80 3f 00 00 80 3f 00 00 80 3f 00 00 80 3f
       1.0 1.0 1.0 1.0
0003e0 00 00 80 3f 00 00 80 3f 00 00 80 3f 00 00 80 3f
       1.0 1.0 1.0 1.0
0003f0 00 00 80 3f 00 00 80 3f 00 00 80 3f 00 00 80 3f
       1.0 1.0 1.0 1.0

dpgrnn1.intra_ln.bias f4 [33, 16]
000000 00 00 00 00 00 00 00 00 00 00 00 00 00 00 00 00
       0.0 0.0 0.0 0.0
000010 00 00 00 00 00 00 00 00 00 00 00 00 00 00 00 00
       0.0 0.0 0.0 0.0
000020 00 00 00 00 00 00 00 00 00 00 00 00 00 00 00 00
       0.0 0.0 0.0 0.0
000030 00 00 00 00 00 00 00 00 00 00 00 00 00 00 00 00
       0.0 0.0 0.0 0.0
000040 00 00 00 00 00 00 00 00 00 00 00 00 00 00 00 00
       0.0 0.0 0.0 0.0
000050 00 00 00 00 00 00 00 00 00 00 00 00 00 00 00 00
       0.0 0.0 0.0 0.0
000060 00 00 00 00 00 00 00 00 00 00 00 00 00 00 00 00
       0.0 0.0 0.0 0.0
000070 00 00 00 00 00 00 00 00 00 00 00 00 00 00 00 00
       0.0 0.0 0.0 0.0
000080 00 00 00 00 00 00 00 00 00 00 00 00 00 00 00 00
       0.0 0.0 0.0 0.0
000090 00 00 00 00 00 00 00 00 00 00 00 00 00 00 00 00
       0.0 0.0 0.0 0.0
0000a0 00 00 00 00 00 00 00 00 00 00 00 00 00 00 00 00
       0.0 0.0 0.0 0.0
0000b0 00 00 00 00 00 00 00 00 00 00 00 00 00 00 00 00
       0.0 0.0 0.0 0.0
0000c0 00 00 00 00 00 00 00 00 00 00 00 00 00 00 00 00
       0.0 0.0 0.0 0.0
0000d0 00 00 00 00 00 00 00 00 00 00 00 00 00 00 00 00
       0.0 0.0 0.0 0.0
0000e0 00 00 00 00 00 00 00 00 00 00 00 00 00 00 00 00
       0.0 0.0 0.0 0.0
0000f0 00 00 00 00 00 00 00 00 00 00 00 00 00 00 00 00
       0.0 0.0 0.0 0.0
000100 00 00 00 00 00 00 00 00 00 00 00 00 00 00 00 00
       0.0 0.0 0.0 0.0
000110 00 00 00 00 00 00 00 00 00 00 00 00 00 00 00 00
       0.0 0.0 0.0 0.0
000120 00 00 00 00 00 00 00 00 00 00 00 00 00 00 00 00
       0.0 0.0 0.0 0.0
000130 00 00 00 00 00 00 00 00 00 00 00 00 00 00 00 00
       0.0 0.0 0.0 0.0
000140 00 00 00 00 00 00 00 00 00 00 00 00 00 00 00 00
       0.0 0.0 0.0 0.0
000150 00 00 00 00 00 00 00 00 00 00 00 00 00 00 00 00
       0.0 0.0 0.0 0.0
000160 00 00 00 00 00 00 00 00 00 00 00 00 00 00 00 00
       0.0 0.0 0.0 0.0
000170 00 00 00 00 00 00 00 00 00 00 00 00 00 00 00 00
       0.0 0.0 0.0 0.0
000180 00 00 00 00 00 00 00 00 00 00 00 00 00 00 00 00
       0.0 0.0 0.0 0.0
000190 00 00 00 00 00 00 00 00 00 00 00 00 00 00 00 00
       0.0 0.0 0.0 0.0
0001a0 00 00 00 00 00 00 00 00 00 00 00 00 00 00 00 00
       0.0 0.0 0.0 0.0
0001b0 00 00 00 00 00 00 00 00 00 00 00 00 00 00 00 00
       0.0 0.0 0.0 0.0
0001c0 00 00 00 00 00 00 00 00 00 00 00 00 00 00 00 00
       0.0 0.0 0.0 0.0
0001d0 00 00 00 00 00 00 00 00 00 00 00 00 00 00 00 00
       0.0 0.0 0.0 0.0
0001e0 00 00 00 00 00 00 00 00 00 00 00 00 00 00 00 00
       0.0 0.0 0.0 0.0
0001f0 00 00 00 00 00 00 00 00 00 00 00 00 00 00 00 00
       0.0 0.0 0.0 0.0
000200 00 00 00 00 00 00 00 00 00 00 00 00 00 00 00 00
       0.0 0.0 0.0 0.0
000210 00 00 00 00 00 00 00 00 00 00 00 00 00 00 00 00
       0.0 0.0 0.0 0.0
000220 00 00 00 00 00 00 00 00 00 00 00 00 00 00 00 00
       0.0 0.0 0.0 0.0
000230 00 00 00 00 00 00 00 00 00 00 00 00 00 00 00 00
       0.0 0.0 0.0 0.0
000240 00 00 00 00 00 00 00 00 00 00 00 00 00 00 00 00
       0.0 0.0 0.0 0.0
000250 00 00 00 00 00 00 00 00 00 00 00 00 00 00 00 00
       0.0 0.0 0.0 0.0
000260 00 00 00 00 00 00 00 00 00 00 00 00 00 00 00 00
       0.0 0.0 0.0 0.0
000270 00 00 00 00 00 00 00 00 00 00 00 00 00 00 00 00
       0.0 0.0 0.0 0.0
000280 00 00 00 00 00 00 00 00 00 00 00 00 00 00 00 00
       0.0 0.0 0.0 0.0
000290 00 00 00 00 00 00 00 00 00 00 00 00 00 00 00 00
       0.0 0.0 0.0 0.0
0002a0 00 00 00 00 00 00 00 00 00 00 00 00 00 00 00 00
       0.0 0.0 0.0 0.0
0002b0 00 00 00 00 00 00 00 00 00 00 00 00 00 00 00 00
       0.0 0.0 0.0 0.0
0002c0 00 00 00 00 00 00 00 00 00 00 00 00 00 00 00 00
       0.0 0.0 0.0 0.0
0002d0 00 00 00 00 00 00 00 00 00 00 00 00 00 00 00 00
       0.0 0.0 0.0 0.0
0002e0 00 00 00 00 00 00 00 00 00 00 00 00 00 00 00 00
       0.0 0.0 0.0 0.0
0002f0 00 00 00 00 00 00 00 00 00 00 00 00 00 00 00 00
       0.0 0.0 0.0 0.0
000300 00 00 00 00 00 00 00 00 00 00 00 00 00 00 00 00
       0.0 0.0 0.0 0.0
000310 00 00 00 00 00 00 00 00 00 00 00 00 00 00 00 00
       0.0 0.0 0.0 0.0
000320 00 00 00 00 00 00 00 00 00 00 00 00 00 00 00 00
       0.0 0.0 0.0 0.0
000330 00 00 00 00 00 00 00 00 00 00 00 00 00 00 00 00
       0.0 0.0 0.0 0.0
000340 00 00 00 00 00 00 00 00 00 00 00 00 00 00 00 00
       0.0 0.0 0.0 0.0
000350 00 00 00 00 00 00 00 00 00 00 00 00 00 00 00 00
       0.0 0.0 0.0 0.0
000360 00 00 00 00 00 00 00 00 00 00 00 00 00 00 00 00
       0.0 0.0 0.0 0.0
000370 00 00 00 00 00 00 00 00 00 00 00 00 00 00 00 00
       0.0 0.0 0.0 0.0
000380 00 00 00 00 00 00 00 00 00 00 00 00 00 00 00 00
       0.0 0.0 0.0 0.0
000390 00 00 00 00 00 00 00 00 00 00 00 00 00 00 00 00
       0.0 0.0 0.0 0.0
0003a0 00 00 00 00 00 00 00 00 00 00 00 00 00 00 00 00
       0.0 0.0 0.0 0.0
0003b0 00 00 00 00 00 00 00 00 00 00 00 00 00 00 00 00
       0.0 0.0 0.0 0.0
0003c0 00 00 00 00 00 00 00 00 00 00 00 00 00 00 00 00
       0.0 0.0 0.0 0.0
0003d0 00 00 00 00 00 00 00 00 00 00 00 00 00 00 00 00
       0.0 0.0 0.0 0.0
0003e0 00 00 00 00 00 00 00 00 00 00 00 00 00 00 00 00
       0.0 0.0 0.0 0.0
0003f0 00 00 00 00 00 00 00 00 00 00 00 00 00 00 00 00
       0.0 0.0 0.0 0.0

dpgrnn1.inter_fc.bias f4 [16]
000000 66 8d 73 3e 64 d7 e3 bd c0 c5 83 bd 38 34 14 be
       0.23784408 -0.11125067 -0.06434202 -0.14473045
000010 ac 3d 08 3e 40 f6 83 bd 46 65 13 be de 3e 27 be
       0.13304776 -0.06443453 -0.14394102 -0.16332576
000020 20 11 f7 3c 6a 64 57 be 30 42 fc 3d 80 0a 1b 3d
       0.030159533 -0.21034399 0.12317312 0.03785181
000030 34 8c 9f 3d 40 4e c1 3d b2 2f 39 3e 60 db f1 3c
       0.077904135 0.09438753 0.180846 0.029523551

dpgrnn2.intra_fc.bias f4 [16]
000000 e2 95 13 be 3a e7 4a 3e 48 c0 8c 3d 40 47 6d bc
       -0.14412645 0.19814768 0.06872612 -0.014482319
000010 20 05 6f be 34 37 4a be 30 ae 38 be 96 94 10 3e
       -0.23341799 -0.19747621 -0.18035197 0.14119181
000020 06 e8 60 be 40 95 41 bc 38 8b 85 3d c0 53 75 3e
       -0.2196351 -0.011815369 0.065206945 0.2395773
000030 b0 15 43 be 28 34 24 3d f2 fa 0d be 38 b5 5e 3e
       -0.19051242 0.040088803 -0.1386526 0.21748817

dpgrnn2.inter_fc.bias f4 [16]
000000 5a 61 15 be f8 8c 49 be c6 e0 0a 3e 74 cf c6 bd
       -0.14587918 -0.19682682 0.13562307 -0.09707537
000010 3c 64 a0 bd 66 f5 2f 3e 50 78 77 3e 18 73 2e 3d
       -0.07831618 0.17183456 0.2416699 0.04259023
000020 44 18 31 3e 94 45 58 be a8 a7 44 3d d4 ab e7 bd
       0.17294413 -0.21120292 0.048011452 -0.113120705
000030 88 a4 2e bd 5c dd c6 bd 5c 52 ae bd 48 78 cc bd
       -0.042637378 -0.0971019 -0.085118026 -0.09983879

decoder.de_convs.0.point_conv1.weight f4 [8, 16, 1, 1]
000000 08 64 54 3d 4c 83 03 3e 5c 01 66 3e b0 0c 44 bd
       0.05185321 0.12843055 0.22461456 -0.047863662
000010 28 1f 7b 3e 76 ac 03 be e0 50 17 3d e8 5d 47 3d
       0.24523604 -0.12858757 0.036942363 0.04867354
000020 40 0b b1 3d 80 95 49 bc b4 d9 ac 3d b8 60 67 3e
       0.08644724 -0.01230371 0.08439961 0.22595489
000030 08 1d 69 be c0 d6 f7 3d 40 af 2d 3d 28 63 0b bd
       -0.22764981 0.12101507 0.04240346 -0.03403011
000040 ac d4 7b be 0c 84 a7 3d 1e 3d 1d 3e 98 24 ad 3d
       -0.24592847 0.08179483 0.15355346 0.08454245
000050 98 ea df 3d 50 7f 5d bd 66 1c 26 be ac 31 2f be
       0.10933417 -0.054076493 -0.1622177 -0.17108792
000060 48 6c 4f be ec 99 24 3e e0 f0 78 bc c0 6c c7 bc
       -0.2025615 0.16074342 -0.015194148 -0.024343848
000070 4e e9 31 3e f4 bb 87 bd 6c 42 98 3d 20 d4 f7 3d
       0.17374155 -0.06627646 0.07434544 0.121010065
000080 96 45 36 3e 06 02 51 be 40 f5 f0 bc 00 df 6c bc
       0.17799982 -0.20410928 -0.02941382 -0.014457464
000090 e2 21 6a be 2e 1d 1b be 80 18 9e 3b 58 3f 2e 3e
       -0.22864488 -0.1514785 0.004824698 0.17016351
0000a0 e4 06 ed 3d 50 ec e5 bc 80 61 a9 3d 00 72 05 bc
       0.1157358 -0.028066784 0.0827055 -0.0081448555
0000b0 58 31 32 bd 7a 7f 56 3e 98 67 17 3e 58 5f bf bd
       -0.04350409 0.20947066 0.14785612 -0.09344357
0000c0 c0 2c dc 3b 0c 4f c8 bd 40 a9 fb bd c8 67 14 bd
       0.006719202 -0.09780702 -0.12288141 -0.036231786
0000d0 a0 ed e7 3c 62 9d 7f be ac 0d d9 bd 40 03 1f 3c
       0.02831155 -0.2496238 -0.10598311 0.009705365
0000e0 ac 78 46 3e 14 9a 7d 3e 34 ad 02 be aa d1 02 be
       0.1938197 0.24765807 -0.12761384 -0.12775293
0000f0 ec d1 60 be 86 6e 2c be 6c dd 6f 3e 10 05 e8 bc
       -0.21955079 -0.16839036 0.2342431 -0.028322726
000100 06 3d 72 3e 9c 9e 1f 3e 6c 7d f4 bd c0 a8 40 bd
       0.23656091 0.15587848 -0.11937985 -0.047035933
000110 90 f1 42 3d ac 56 c0 3d a0 32 77 be a0 aa 2d 3e
       0.047593653 0.09391531 -0.24140406 0.1695962
000120 d0 8b b8 bd 76 d7 52 be 90 ac 50 bd 28 f5 28 3d
       -0.09011042 -0.20590004 -0.05094582 0.041249424
000130 8a 18 6d be 18 fb 7a 3d 8c 48 1d 3e ba a5 52 be
       -0.23153892 0.061274618 0.15359706 -0.20571032
000140 30 7e 8e 3c 4c 5a 73 3e d4 17 61 be a4 6d fb 3d
       0.017394155 0.23764914 -0.21981746 0.12276772
000150 60 e6 58 3c f8 f1 81 3d d0 92 39 bd 50 f3 a1 bc
       0.013238519 0.0634498 -0.045306027 -0.01976934
000160 da c7 13 3e a4 a7 d1 bd e4 56 52 3e 2c bc 19 3e
       0.14431706 -0.10237053 0.20540959 0.15013188
000170 fe ba 0e be 18 f9 a9 3d ac cc 74 be dc a7 6a 3e
       -0.1393852 0.08299464 -0.23906201 0.22915596
000180 98 91 14 3e e6 eb 44 be 20 4a 20 3c 48 6d 53 bd
       0.14508665 -0.19230613 0.009783298 -0.05161789
000190 54 7a 4a 3e 8c 9b 19 be 80 8a 00 bc 5c 17 9e 3d
       0.19773227 -0.15000743 -0.007845521 0.07719299
0001a0 dc 49 df 3d f0 c3 46 3e b4 58 a1 3d 00 fe 6d 3c
       0.109027594 0.19410682 0.07878247 0.01452589
0001b0 78 d6 90 bd d0 a8 59 bd b6 15 75 be e8 8c 35 be
       -0.07072157 -0.053139508 -0.23934063 -0.17729533
0001c0 5e 29 5b be 08 19 bb 3d 4c 0f 18 3e 02 55 2d be
       -0.21402499 0.09135634 0.14849585 -0.16926959
0001d0 88 fa 53 be 10 ff e6 3c 80 9e eb 3b 08 8b 49 be
       -0.20701039 0.028197795 0.0071905255 -0.19681942
0001e0 10 84 47 3d 20 2e 5b 3e 42 f2 43 be 08 52 bb 3d
       0.04870993 0.21404314 -0.19135383 0.091465056
0001f0 26 a4 12 3e 08 b8 e6 3d ec 9a ac 3d 2c af 6c 3e
       0.1432043 0.1126557 0.084279865 0.23113698

decoder.de_convs.0.point_conv1.bias f4 [16]
000000 94 05 8a bd fe ec 0e 3e 88 11 b9 bd 48 7d 5b bd
       -0.06739345 0.13957593 -0.09036547 -0.053586274
000010 f8 f3 18 3d 44 b5 6b be ec 65 2c be a0 dd 38 bd
       0.03734204 -0.23018366 -0.16835755 -0.045133233
000020 a0 8c 35 bc f8 c1 13 be 00 a6 0d bc e0 59 05 3d
       -0.011080891 -0.14429462 -0.0086455345 0.032556415
000030 e4 4e 85 3d d0 49 77 3e f6 9f 46 3e 70 8e 19 3d
       0.06509188 0.24149251 0.19396958 0.037489355

decoder.de_convs.0.point_bn1.weight f4 [16]
000000 00 00 80 3f 00 00 80 3f 00 00 80 3f 00 00 80 3f
       1.0 1.0 1.0 1.0
000010 00 00 80 3f 00 00 80 3f 00 00 80 3f 00 00 80 3f
       1.0 1.0 1.0 1.0
000020 00 00 80 3f 00 00 80 3f 00 00 80 3f 00 00 80 3f
       1.0 1.0 1.0 1.0
000030 00 00 80 3f 00 00 80 3f 00 00 80 3f 00 00 80 3f
       1.0 1.0 1.0 1.0

decoder.de_convs.0.point_bn1.bias f4 [16]
000000 00 00 00 00 00 00 00 00 00 00 00 00 00 00 00 00
       0.0 0.0 0.0 0.0
000010 00 00 00 00 00 00 00 00 00 00 00 00 00 00 00 00
       0.0 0.0 0.0 0.0
000020 00 00 00 00 00 00 00 00 00 00 00 00 00 00 00 00
       0.0 0.0 0.0 0.0
000030 00 00 00 00 00 00 00 00 00 00 00 00 00 00 00 00
       0.0 0.0 0.0 0.0

decoder.de_convs.0.depth_conv.weight f4 [16, 16, 3, 3]
000000 0c ef a2 bd 98 64 3f 3d 56 93 81 bc 46 e7 e7 3c
       -0.07955751 0.046726793 -0.015817326 0.028308522
000010 4b c0 5d 3c 60 91 f8 3c ee 10 11 bd f8 bb 3d bd
       0.013534616 0.030342758 -0.035416536 -0.04632184
000020 1b a4 a4 3d 86 88 8c bc b0 a7 97 3c c4 16 a7 3d
       0.08039113 -0.017154943 0.018512577 0.08158639
000030 e3 33 92 bd ea bb a4 3d ab 81 4c bc 76 90 dc 3c
       -0.07138803 0.08043654 -0.012482087 0.026924353
000040 1a ec 8f 3d 2b 70 10 bd 4a ec 83 3d 43 df a1 bd
       0.07027455 -0.03526322 0.06441553 -0.07903912
000050 24 d3 86 bd 2e 4f 4d 3d d6 e6 25 3d 13 62 98 3d
       -0.06583241 0.05012434 0.040503345 0.07440581
000060 36 0d 7f 3c 32 c7 8e bd db e9 93 bc 80 13 e5 3b
       0.015567115 -0.06971587 -0.018055847 0.00699085
000070 7c 15 84 bd 60 43 61 3d d6 d2 81 bb c7 77 80 bd
       -0.0644941 0.054995894 -0.003961901 -0.06272846
000080 10 de 6d bd d6 98 07 bd 44 b9 8e 3d 54 a0 a9 3d
       -0.058073103 -0.03310474 0.0696893 0.08282533
000090 10 a1 a6 bc 44 49 a3 3d a0 61 1d bc ee f7 13 3d
       -0.020340472 0.07972959 -0.009605795 0.036125116
0000a0 e0 46 63 bc 06 84 c7 bc 96 4a 2b bd 67 42 8d bd
       -0.013871878 -0.024354946 -0.041819178 -0.06897431
0000b0 42 66 98 3d 40 4f ce 3b c0 90 a7 bd ab e8 3a 3d
       0.07441379 0.0062960684 -0.08181906 0.045632046
0000c0 56 45 f1 bb 7c 11 a2 bd 70 ec 2a 3d f6 3d db bc
       -0.007363002 -0.07913491 0.04172939 -0.026762944
0000d0 d6 15 1a bb 6b a9 7d 3c ab c8 ba 3a 60 e3 5d bd
       -0.002351155 0.015482287 0.0014250478 -0.05417192
0000e0 fa bb 9b 3d 2b 1e 58 bc c0 e1 d6 bc f6 66 d4 bc
       0.07604213 -0.013190786 -0.026230693 -0.025928002
0000f0 da cf 8e bd fb 3b 68 3d fb ee d5 3c a3 67 93 bd
       -0.06973238 0.056697827 0.026114931 -0.071975015
000100 3f 47 a2 3d 50 e8 9d bc 93 c6 11 3d 13 81 80 3d
       0.07923745 -0.019275814 0.035589766 0.06274619
000110 98 c5 61 bd 86 bc b8 bc b6 41 77 3c c0 b6 7f 3d
       -0.05512008 -0.022550832 0.01509135 0.062430143
000120 8b f2 74 bd c0 87 56 bd f0 fd be bc c3 77 32 3d
       -0.05980162 -0.052375555 -0.023314446 0.043571245
000130 4b 4c 49 bc 9e 5e 46 bd 3b fb 63 bd 00 45 5f bd
       -0.012286256 -0.048430078 -0.055659514 -0.054509163
000140 3c 44 a3 3d 7b f3 42 bd 60 ff 93 bc 6a 68 94 3d
       0.07971999 -0.047595482 -0.018066108 0.07246478
000150 b6 48 9a bd 66 a7 e6 3c 00 95 83 3a 16 97 ec bc
       -0.075334 0.028155994 0.0010038912 -0.028880637
000160 f6 bd 78 bd 96 3e 75 3d d0 91 9e 3c 18 f5 32 3d
       -0.060728036 0.05987414 0.019356638 0.04369077
000170 b0 e3 6b 3d 43 04 90 3d 88 1e 35 bd 96 b1 5c 3d
       0.057590187 0.07032063 -0.04421857 0.053880297
000180 fb 21 9a bc 2b f1 17 bb 4b 4b 70 bc 7c 58 9b bd
       -0.018815031 -0.0023184519 -0.014666389 -0.075852364
000190 96 dc 85 bb 9e 54 8d bd b3 8f 5a 3d 2b 27 55 bb
       -0.004085134 -0.06900905 0.0533597 -0.0032524567
0001a0 c0 6e c2 3c 06 31 3a bd 6e 13 61 bd 46 78 8f 3c
       0.02373445 -0.04545691 -0.05495017 0.017513406
0001b0 96 82 1f 3d 2e cd 8f bd 16 6e ba 3c 2e 7c 58 3d
       0.038942896 -0.07021557 0.022757571 0.052852802
0001c0 60 70 80 bc f6 9d 1e bd 13 6a 51 bd 3b 50 85 3d
       -0.015678585 -0.038724862 -0.05112655 0.06509443
0001d0 a7 c9 a7 3d 00 52 ad 3c 1b 0c e0 bc 00 e1 7e 3c
       0.08192759 0.021157265 -0.027349522 0.015556574
0001e0 ee 1c 78 bd ee 2c 66 3d a0 3b 86 bd f0 93 81 3c
       -0.060574464 0.056195192 -0.06554341 0.015817612
0001f0 38 30 47 3d 98 ba 6c 3d 36 04 a8 bd 56 f6 38 3b
       0.04862997 0.057795137 -0.08203928 0.0028223
000200 6b ee 6a bc c3 95 a5 3d 68 fd 19 bd 2b 65 b6 3c
       -0.01433907 0.080852054 -0.037595183 0.022265038
000210 f6 36 b5 3c 8b 60 3c 3d c0 bc 9f bb 00 2c 25 bd
       0.022120934 0.045990508 -0.0048747957 -0.040325165
000220 2e f4 95 bd 3b 0d 70 3d eb 9a 56 3c 40 79 c9 bb
       -0.07321964 0.058606368 0.013098459 -0.0061484873
000230 d0 75 89 3c ea 74 91 bd 40 03 8a bc b0 c2 0e bd
       0.01677981 -0.07102378 -0.016847253 -0.034853637
000240 ab b8 8c ba 86 80 b3 3c 54 17 84 bd e6 e8 38 3d
       -0.0010736188 0.02191187 -0.06449762 0.045143984
000250 40 6e f1 3c a6 5b 0c 3d 3b c5 85 3c 68 74 6a 3d
       0.029471517 0.03426709 0.016329398 0.05723992
000260 d6 ec 81 3b 03 e2 5e bd d6 ca 26 3b ab dd ea bc
       0.0039650006 -0.05441476 0.002545049 -0.028670153
000270 f0 d0 c7 bc 16 1c 58 3d ce e6 5c 3d 6b 3a 39 3c
       -0.024391621 0.05276116 0.05393105 0.011305432
000280 78 e1 6f bd 27 69 92 3d 7a 5c 8f 3d fb 5e 51 bd
       -0.058564633 0.071489625 0.070000604 -0.05111597
000290 d6 fa e9 3b a0 5d 3b bd 56 ac a2 bd 16 0e 97 3d
       0.0071404977 -0.045743585 -0.07943027 0.073757336
0002a0 56 8b 0f bb e0 67 20 bd f6 90 80 3d 36 ee 90 bd
       -0.002190312 -0.039161563 0.06277649 -0.07076685
0002b0 ab e0 cb 3a 40 8f 77 3c cb 86 ba bc 20 c2 1e bc
       0.0015554627 0.015109837 -0.022769352 -0.009689838
0002c0 80 76 39 3b 56 00 3d 3c c8 e0 71 bd 08 f2 4e bd
       0.0028299391 0.011535725 -0.05905226 -0.050523788
0002d0 a6 5c c7 bc 2b f4 d2 bb 48 db 0c 3d be 8f 8b 3d
       -0.02433617 -0.0064377985 0.03438881 0.06814526
0002e0 be bf 41 3d ae c8 74 3d 08 89 16 bd 8b 7a 30 bd
       0.047302 0.059761696 -0.036751777 -0.043085616
0002f0 0b 92 c8 bc 1b fe 56 bd f3 22 80 bd d6 2f 4e 3c
       -0.024483701 -0.052488428 -0.06256666 0.012584647
000300 d0 e6 d3 3c c6 ff bc 3c ec da 89 bd b0 a9 20 3d
       0.025866896 0.023071181 -0.06731209 0.039224327
000310 d6 d9 79 bb eb fa e3 3b ce ee 25 3d 2b 88 01 bd
       -0.0038124225 0.006957402 0.040510945 -0.031624
000320 46 46 75 3d c3 2a 71 3d c0 26 fa 3b 58 63 51 3d
       0.05988147 0.05887867 0.007634014 0.051120132
000330 b3 01 15 3d 30 95 3f 3d 2b 24 5e 3b 08 78 8e bd
       0.036378574 0.046773136 0.003389607 -0.06956488
000340 76 c3 18 bd be ec 6d 3d db f7 10 3d d6 d8 44 bc
       -0.03729578 0.058087103 0.035392623 -0.012014588
000350 db 3e e0 3c ab ad af bb 48 78 6a 3d 2b 4b 1b bc
       0.027373722 -0.005361279 0.057243615 -0.009478371
000360 d6 87 ae 3b 56 d3 b4 3b 76 5a cb 3c 02 67 97 bd
       0.0053262515 0.0055183573 0.024823409 -0.07392694
000370 3e ae 45 3d 26 b0 d1 bc 70 9a 90 bd db 19 b8 bc
       0.048261873 -0.02559669 -0.070607066 -0.022473266
000380 50 06 a8 bd 30 3a a4 bc 5b 52 5e 3d 4b ae 8a bd
       -0.08204329 -0.020047277 0.05427776 -0.06771525
000390 0b 76 78 bc 88 99 92 3d 6b a3 31 bd 7e cd 1d bd
       -0.015164862 0.0715819 -0.04336874 -0.03852605
0003a0 74 c9 85 3d 46 e2 96 bd 06 39 9c bc c0 bf 32 bd
       0.06532565 -0.07367377 -0.01907016 -0.0436399
0003b0 fe f1 71 3d 36 e8 3f 3c fb e0 bc 3c 6b 1c 8e 3b
       0.059068672 0.011713078 0.023056498 0.004336884
0003c0 06 49 3c bd bb ca 08 3d 0e 36 50 bd 00 65 89 3b
       -0.045968078 0.033396464 -0.0508328 0.0041929483
0003d0 38 71 a5 3d 00 5e 12 3d 10 65 a4 3d 20 ef 3b 3d
       0.080782354 0.035734177 0.08027089 0.045882344
0003e0 c8 0d 8f bd b6 e8 99 bd a3 b9 94 3d 4b bf eb bc
       -0.069850504 -0.07515089 0.0726197 -0.028777739
0003f0 04 a5 86 bd 7e b0 42 3d fe e8 9d 3d e0 97 60 3c
       -0.06574443 0.047531597 0.07710455 0.013708085

decoder.de_convs.0.depth_conv.bias f4 [16]
000000 b6 e7 a4 3d cb 2e d6 3c 20 79 71 bd b6 ce 71 3c
       0.08052008 0.02614536 -0.058953404 0.014758756
000010 d0 62 ca 3c 4e d7 54 bd c3 1b 2b bd 3b ee 6c bd
       0.02470532 -0.051963143 -0.041774523 -0.05784438
000020 4e df 10 3d ff f7 95 bd 6f ae 95 3d 86 ee c5 bc
       0.03536921 -0.07322692 0.07308661 -0.024161588
000030 63 00 47 3d 80 ac d1 3b 40 8c da bb 70 fb 76 3d
       0.048584353 0.0063987374 -0.006669551 0.060298383

decoder.de_convs.0.point_conv2.weight f4 [16, 8, 1, 1]
000000 7f 76 95 be 92 04 68 3d 36 29 87 3b e5 6f ab be
       -0.29191968 0.056644984 0.004124786 -0.33483806
000010 0d a3 38 be ca 67 76 be 39 8d f0 bd 9f d9 85 3e
       -0.18030949 -0.2406303 -0.11745686 0.26142594
000020 1b da 2d be 9a aa f2 bd 31 55 44 bd 9d 56 88 3d
       -0.16977732 -0.11848946 -0.047932807 0.06657145
000030 2c b4 2e 3e a7 c7 62 be 12 df a2 3e d3 70 10 3d
       0.17060918 -0.22146474 0.31810814 0.035263848
000040 45 9e 9e 3e 4b e2 e8 3d 05 42 b2 bd 2e fe 82 be
       0.30980125 0.11371287 -0.087039985 -0.2558455
000050 6b 2a 9d bd 04 5d ad 3e a2 07 8c 3e a3 8a 26 be
       -0.07674106 0.33860028 0.27349573 -0.16263823
000060 38 2d ae be 47 03 ff bd c8 ae 5a be 6d db a5 be
       -0.34018874 -0.12451797 -0.21355736 -0.3239397
000070 30 87 03 be c6 97 a6 3e 56 f7 eb 3c 81 14 8b 3d
       -0.12844539 0.3253767 0.028804462 0.0679102
000080 cf 3d c1 bc bd db 6d be eb ab 30 bd 97 39 08 be
       -0.023589043 -0.23228355 -0.043132704 -0.13303219
000090 6d 74 ae be 7c 28 ae 3e ab 1a ad 3e ea 0c d5 3c
       -0.340732 0.34015262 0.3380941 0.026007134
0000a0 23 32 33 be b6 c5 7d 3e 60 e2 97 3e 27 07 ab be
       -0.17499594 0.24782452 0.29664898 -0.33403894
0000b0 00 8e 4d 3e 77 46 31 3e b5 ab c3 3c a3 fd 71 3e
       0.200737 0.17312036 0.023885587 0.23631911
0000c0 a1 87 55 be 89 a3 0e be 8d da 3b be 27 31 55 be
       -0.2085252 -0.13929571 -0.1834509 -0.20819531
0000d0 a0 46 5c be da cf 49 be 8f 1d 5a be 63 d2 3f be
       -0.21511316 -0.19708195 -0.21300338 -0.187326
0000e0 50 5c 6b 3e 1c fe 9e be ad 9a 73 be 5e 91 93 be
       0.22984433 -0.31053245 -0.23789473 -0.28821844
0000f0 99 51 0c be 85 b7 6d 3e 89 8e 51 be dc 96 8a 3e
       -0.13703002 0.23214538 -0.20464529 0.27068222
000100 44 23 ad 3d 57 e3 c5 bd e5 e3 27 bd 88 73 94 3e
       0.08453992 -0.09662502 -0.04098882 0.28994393
000110 ff eb 0b 3d 65 39 96 3d 6c da 5c be bb 2e e4 bd
       0.03416061 0.07335166 -0.21567696 -0.11141726
000120 85 70 91 be a3 b3 35 3e e8 89 a3 be 4c 85 a5 be
       -0.28406158 0.17744307 -0.31941152 -0.3232826
000130 ad 2c 90 bc 8b 10 a1 bd 11 c6 20 3e 7a 87 5b 3d
       -0.017599428 -0.078644834 0.15700556 0.053595997
000140 13 54 10 be 89 b3 aa be 3a 3a 13 be e8 9e 12 3e
       -0.14094572 -0.333401 -0.1437768 0.1431843
000150 2f b8 ac 3c d4 40 36 be f2 36 50 be f7 f7 6b 3e
       0.02108392 -0.17798167 -0.2033346 0.2304381
000160 d1 f9 d1 bd eb 60 28 bd 75 d9 46 3e 9c 85 8d bd
       -0.10252727 -0.041108053 0.19418891 -0.069102496
000170 74 6d 1f 3d 3e 27 99 3e e2 59 15 3d 0a fe 15 be
       0.038922742 0.29912752 0.036462672 -0.1464769
000180 ec 84 4d 3e f0 03 41 be a4 17 97 3e 88 b9 49 3e
       0.20070237 -0.18849158 0.29510224 0.19699681
000190 ed 57 b9 3b 6f ab 19 be f8 6a b1 be 28 2f 2c be
       0.0056562335 -0.15006803 -0.34651923 -0.16814864
0001a0 c8 e6 4a 3e 5a cc 09 3e 04 86 68 3e f7 4c 5d 3e
       0.19814599 0.1345686 0.22707373 0.21611391
0001b0 1e 34 90 be 76 b4 c3 3d 0d e1 84 3c 12 6b 98 3e
       -0.28164762 0.095559046 0.016220594 0.29769188
0001c0 fb 4b 35 3e d7 99 a2 be f5 7f 9e be 09 9b 86 3d
       0.17704765 -0.31757995 -0.30956998 0.06572539
0001d0 a0 15 99 3e 60 1b 42 be 31 05 7d bd ba 49 0b be
       0.2989931 -0.18955755 -0.06177253 -0.13602343
0001e0 4e 1d 32 be 1f 8e 5a 3e bc 52 9a 3e c1 c4 96 be
       -0.17393991 0.21343277 0.30141246 -0.29446986
0001f0 06 d7 a6 be b6 bb ec 3d aa 8a 12 be 5f e2 14 be
       -0.32585925 0.115592405 -0.14310709 -0.14539479

decoder.de_convs.0.point_conv2.bias f4 [8]
000000 98 1f f1 bc 5a 33 c6 bd a5 6f 1e 39 00 46 03 3d
       -0.02943401 -0.09677763 0.00015109645 0.03204918
000010 f2 57 6e be db c9 2d be 4d 8f 5f 3e d6 d7 95 3b
       -0.23275736 -0.16971533 0.21832009 0.004572849

decoder.de_convs.0.point_bn2.weight f4 [8]
000000 00 00 80 3f 00 00 80 3f 00 00 80 3f 00 00 80 3f
       1.0 1.0 1.0 1.0
000010 00 00 80 3f 00 00 80 3f 00 00 80 3f 00 00 80 3f
       1.0 1.0 1.0 1.0

decoder.de_convs.0.point_bn2.bias f4 [8]
000000 00 00 00 00 00 00 00 00 00 00 00 00 00 00 00 00
       0.0 0.0 0.0 0.0
000010 00 00 00 00 00 00 00 00 00 00 00 00 00 00 00 00
       0.0 0.0 0.0 0.0

decoder.de_convs.0.tra.att_fc.bias f4 [8]
000000 50 1a 53 bd 80 9c c2 bc bc 7a db 3d c0 b2 3f be
       -0.051538765 -0.023756266 0.10716769 -0.18720531
000010 60 dd 7e bd 80 aa ba bd a0 e5 23 bd dc f7 2d be
       -0.06222284 -0.091145515 -0.04001391 -0.16989082

decoder.de_convs.1.point_conv1.weight f4 [8, 16, 1, 1]
000000 c0 a7 bd 3c 8a 70 7c 3e 94 3d 9c bd 9c 6b b7 3d
       0.023151278 0.24652305 -0.076289326 0.08956072
000010 50 1b 32 bd 84 cf 79 3e 06 11 44 be 68 59 7f 3d
       -0.04348308 0.24395567 -0.19147119 0.062341124
000020 00 b7 b1 3b 34 e5 bf bd 10 08 b5 3c e0 9c f5 3d
       0.0054234266 -0.09369889 0.022098571 0.11992812
000030 00 73 91 bb f8 d9 26 bd 54 44 cc bd 02 19 3d 3e
       -0.004438758 -0.040735215 -0.0997397 0.18466571
000040 46 d6 5d be 6c 4b 8e 3d 2c a5 85 bd 4c 02 c4 3d
       -0.2166377 0.06947979 -0.06525645 0.095707506
000050 38 3f 62 3d 30 d7 ad 3d f0 ab 62 be 0a e7 51 3e
       0.05523607 0.084883094 -0.22135901 0.2049829
000060 c0 fa 9c 3d 30 e7 63 be 08 70 9d 3d 02 e5 78 be
       0.07665014 -0.2225616 0.07687384 -0.2430611
000070 0a eb 2b 3e 40 55 ed bc 14 3f b7 3d 40 34 d4 3b
       0.16788879 -0.028971314 0.08947578 0.0064759552
000080 82 2a 6b be ba 22 63 3e d0 f7 21 3e 24 47 66 3e
       -0.22965434 0.22181216 0.15817189 0.22488075
000090 c0 44 b5 bd b0 bc fb bc 20 2c 7b bd 70 20 f9 bd
       -0.08851004 -0.030729622 -0.061321378 -0.1216439
0000a0 b0 f4 61 3d f0 67 d2 bc 24 11 8b 3d a0 6d 38 bc
       0.055164993 -0.025684327 0.06790379 -0.011256605
0000b0 20 b0 6f 3c c8 69 81 bd 28 b0 48 bd 70 c6 da bd
       0.014629394 -0.06319004 -0.04899612 -0.1068238
0000c0 8c ac 48 3e 8e b1 49 3e 52 59 5e be de a8 55 be
       0.19597071 0.19696638 -0.2171376 -0.20865199
0000d0 a6 95 49 3e 02 ce 50 be 34 c8 63 3e 00 e8 29 ba
       0.19685993 -0.20391086 0.2224434 -0.0006481409
0000e0 b0 72 4d 3d c8 06 28 bd b8 1a 5d 3d 22 cb 3a 3e
       0.050158203 -0.041022092 0.05398056 0.18241552
0000f0 1c 8a 61 be 4c 71 62 3e 50 d8 d3 bc e4 34 fd 3d
       -0.22025341 0.22113532 -0.025859982 0.12363604
000100 70 ad 1d 3e 68 57 a6 3d a8 a1 25 bd ba 2c 19 3e
       0.15398192 0.0812214 -0.04043737 0.14958468
000110 b8 cf 55 3e 4c 6a cb 3d 40 cc d9 3d 82 5c 42 3e
       0.2088002 0.09932384 0.10634661 0.18980601
000120 98 ea 0e bd cc 00 fa bd 9c e7 66 3e 28 a6 2c bd
       -0.034891695 -0.12207183 0.2254929 -0.042150646
000130 00 d4 3e bb 8c f0 fd bd 18 d6 64 be 30 d6 48 3e
       -0.002911806 -0.12399396 -0.22347295 0.19612956
000140 7c 21 b0 bd d0 1e 04 3d 08 18 b5 bd 88 d1 19 bd
       -0.08600137 0.032255948 -0.08842474 -0.03755334
000150 d8 db dd bd 48 f0 24 3e ae 94 73 3e 20 ba 6d 3e
       -0.108329475 0.16107285 0.23787186 0.23215532
000160 36 06 30 be 42 6d 2d 3e 0c 9c 64 3e 00 40 95 b9
       -0.1718987 0.1693621 0.22325152 -0.00028467178
000170 88 dd 50 3d 26 1d 2b 3e 00 0f c4 bd e6 ae 46 be
       0.05099252 0.16710338 -0.095731735 -0.19402656
000180 48 6d c8 3d 28 21 9c bd cc bd 2b 3e 68 f6 13 bd
       0.09786469 -0.076235116 0.1677162 -0.036123663
000190 e0 1f 6f 3e d8 88 14 be bc 6c 6d be 0c 4a 4c be
       0.23352003 -0.14505327 -0.2318601 -0.19950122
0001a0 48 d1 92 bd 60 36 27 bc 44 9b 8c 3d 38 f3 da bd
       -0.071688235 -0.010205835 0.06865552 -0.106909215
0001b0 58 8e 8a 3d 04 8c 74 3e 14 7d 2b be 9e 43 00 be
       0.06765431 0.23881537 -0.16746932 -0.12525794
0001c0 70 1a ae 3c b8 3b 63 3d 70 d9 b6 3c 20 ec 6c 3d
       0.02125284 0.055476874 0.02232048 0.057842374
0001d0 8a 44 5b 3e c0 09 b5 bb d8 a1 f2 bd 00 64 8b 3b
       0.21412864 -0.005524844 -0.118472755 0.0042538643
0001e0 5c 87 4d 3e c8 9b b3 bd 34 80 d7 3d 42 e5 44 3e
       0.20071167 -0.08769947 0.105225 0.1922808
0001f0 0c 1b ae bd 0c 81 88 bd 36 ca 7b be aa 29 72 3e
       -0.085012525 -0.06665239 -0.24588856 0.23648706

decoder.de_convs.1.point_conv1.bias f4 [16]
000000 00 b2 37 bb 80 36 8c bb 90 4a 6d 3e ba c1 1c 3e
       -0.002802968 -0.004278958 0.23172975 0.15308276
000010 20 49 9f bd c0 34 1b 3e c4 ff 77 be ea 18 07 be
       -0.07777619 0.15156841 -0.2421866 -0.13193098
000020 96 9e 38 be 74 4a d0 bd 78 a4 2c be 50 cc 65 bd
       -0.18029246 -0.10170451 -0.16859615 -0.05610305
000030 82 4b 58 3e dc 74 b6 bd 98 c3 66 bd c8 9b 32 bd
       0.21122554 -0.08909008 -0.056338876 -0.043605596

decoder.de_convs.1.depth_conv.weight f4 [16, 16, 3, 3]
000000 8e e2 86 bd 5b d5 d2 3c c6 44 42 3d 52 0e 84 3d
       -0.065861806 0.025736501 0.04742887 0.06448044
000010 18 70 8f 3d 30 82 6b bd 4b 5b 4e bc 16 1a c4 bb
       0.07003802 -0.057497203 -0.012595008 -0.005984555
000020 60 13 5c 3d 80 d2 a1 3d 16 69 a2 bc de a3 48 3d
       0.053729415 0.07901478 -0.0198255 0.0489844
000030 0b ac 43 bc 5a 69 a9 bd 2b 1c 04 bd 80 03 9a bb
       -0.011942874 -0.08272047 -0.032253426 -0.0047001243
000040 f0 8a 67 3d 86 2c 04 bd 58 bf 98 3d 1f f4 8a 3d
       0.056528986 -0.032269023 0.07458371 0.06784844
000050 a3 97 78 bd b6 a5 38 bd 66 00 c5 bc 42 a8 83 bd
       -0.060691487 -0.04507991 -0.024048042 -0.06428577
000060 50 74 c2 3c 16 b0 99 3c 20 16 57 bc ab b9 f0 bb
       0.023737103 0.018760722 -0.013127834 -0.007346352
000070 63 4b 3d bd e6 14 7f bd 6c 16 80 3d 8b ec a0 bc
       -0.046214473 -0.06227579 0.06254277 -0.019644042
000080 73 03 6f bd c0 ee 09 bd 0b 0f 89 bc 9b cf aa 3c
       -0.0583529 -0.033674955 -0.016730806 0.020850947
000090 96 97 46 bc 10 9a 40 bd d0 e0 aa bc 5e 03 57 3d
       -0.012121102 -0.047021925 -0.020859152 0.052493446
0000a0 b6 63 5e 3d f6 b7 58 bc cb f7 df 3c d0 51 f2 bc
       0.05429431 -0.013227453 0.027339837 -0.029580027
0000b0 2e 9a 73 3d 40 65 37 bd 5e b5 5b bd 16 a6 9e bd
       0.05947321 -0.044774294 -0.053639762 -0.07746522
0000c0 b8 ce 3e bd fb 9b 91 3c 20 31 47 bd 60 48 a9 3c
       -0.04658386 0.017774573 -0.048630834 0.020664394
0000d0 b0 af 85 bc e6 df ed 3c 1b a7 ef 3c 96 cf c2 3b
       -0.016319126 0.029037427 0.029254487 0.0059451563
0000e0 96 9a d4 3b 90 19 24 bd d8 23 3d bd d6 ed 92 bd
       0.0064881546 -0.04006344 -0.04617676 -0.0717427
0000f0 40 4d 54 bd ab ca d0 ba 00 57 91 3b de 05 73 3d
       -0.051831484 -0.001592954 0.00443542 0.059331767
000100 5e 8f 7a 3d 70 48 81 bc 9f 66 85 bd 1f 10 8f bd
       0.06117188 -0.015781611 -0.06513714 -0.06985497
000110 c4 4d a3 3d f0 ec 4e bd 53 47 a2 3d 7b 75 00 bd
       0.07973817 -0.05051893 0.0792376 -0.031362038
000120 26 18 d8 bc 00 30 ea 3a ce 6d 50 bd 3e 15 90 bd
       -0.026378702 0.0017867088 -0.050885968 -0.070353016
000130 eb 92 ed 3b eb 44 9a 3c a0 c7 65 bc 16 c0 b0 bb
       0.00725018 0.01883169 -0.014024645 -0.005393992
000140 d6 0e 02 bb 84 67 80 3d f6 29 32 bd f0 15 8e bc
       -0.0019845269 0.06269744 -0.04349705 -0.017344445
000150 36 ea 55 bc 6b 6f 94 bc 2c 20 a7 bd f0 02 50 3d
       -0.0130563285 -0.018119534 -0.08160433 0.05078405
000160 86 b8 ae 3c 4b c4 4d bc 26 11 18 3d eb 47 ad 3c
       0.021328222 -0.012559007 0.03712573 0.021152457
000170 5c 5f 9e bd 1e 63 52 bd 4e 36 63 3d a0 d9 3c bd
       -0.07733032 -0.051364057 0.05547171 -0.04610598
000180 a0 68 3d bd c4 d0 8c bd 00 64 a5 3b 66 5d 70 3d
       -0.046242356 -0.068757564 0.0050473213 0.05868282
000190 d3 90 6b 3d d0 66 c8 bc 40 81 fa bc 7b c0 9a bc
       0.057511162 -0.024463087 -0.03057921 -0.01889061
0001a0 eb 1e 86 bb 63 b0 9e 3d 5e a8 9e bd d6 1d e1 bb
       -0.004093041 0.07748487 -0.07746957 -0.006870012
0001b0 5c 48 a6 bd a6 7e 3e 3d 48 f9 9a bd 30 e0 3a 3d
       -0.0811927 0.0465075 -0.07567078 0.045623958
0001c0 ab e7 4a bc 3b b9 e6 bc 73 6b 2c bd 16 55 1a 3c
       -0.0123843355 -0.028164497 -0.04209466 0.0094197
0001d0 56 f6 66 3b 23 c6 5e 3d e0 64 11 3c 54 61 87 3d
       0.0035242043 0.054388177 0.008874148 0.06610361
0001e0 60 60 5a 3d 4b 29 28 3c 0e fe 1a bd ca f1 86 3d
       0.053314567 0.010263751 -0.03783994 0.06589086
0001f0 ef a6 88 bd 10 c9 87 bc 27 bb 98 bd aa fa 9f 3d
       -0.06672465 -0.016575366 -0.074575715 0.07811482
000200 6b 87 4a 3d d8 55 2a bd b6 bc bc bc e4 fa 90 bd
       0.04944555 -0.041585773 -0.023039203 -0.070791036
000210 cb a1 0d bc 38 8c 8c 3d 08 16 11 3d f0 d4 06 bd
       -0.0086445315 0.06862682 0.0354214 -0.032917917
000220 6e 30 a6 3d eb 07 ba 3c f0 70 d5 3c fb de a1 3c
       0.08114706 0.022708854 0.02605483 0.019759646
000230 56 a1 90 39 20 5d a1 3c a7 c9 a2 bd b6 ac 1d bc
       0.00027586025 0.019697726 -0.079486184 -0.009623697
000240 6b 8c 94 3c de 23 5e bd 80 0d 1d bc 30 78 3b 3d
       0.018133363 -0.054233424 -0.009585738 0.045768917
000250 83 7c 7b bd 07 de 89 3d 7b 75 6f 3d 00 c9 01 bb
       -0.06139804 0.067318015 0.058461647 -0.0019803643
000260 26 5d 9e bd d8 ad 54 3d a0 c7 6f bc d8 32 86 bd
       -0.077326104 0.051923603 -0.014634997 -0.065526664
000270 8e 4d 86 3d a0 24 be bc 80 1d 20 3c c0 a3 43 bd
       0.06557761 -0.023210824 0.009772658 -0.047763586
000280 de e6 2b 3d 4b 80 55 3c 0e 5b 81 bd 4b 20 32 3d
       0.04196822 0.013031076 -0.063161954 0.04348783
000290 a6 2a 51 bd 56 07 78 3a b2 ab a5 3d b7 08 9f 3d
       -0.051066063 0.00094615424 0.08089389 0.07765334
0002a0 8c 22 9f 3d 2b c0 5f bc ab 94 54 bd 90 08 b7 3c
       0.07770261 -0.013656656 -0.051899593 0.02234295
0002b0 50 1f 35 3d 6b 06 c6 3c 37 ff 81 3d 80 eb 2c bc
       0.044219315 0.024172982 0.063475065 -0.010554194
0002c0 4b 49 81 3c 73 f6 73 bd ee f5 32 bd 36 d1 f8 bc
       0.01578202 -0.059561204 -0.043691568 -0.030373197
0002d0 ee f6 2a bd f6 25 86 3d 56 10 86 3d 8e d1 8e 3d
       -0.041739397 0.06550209 0.065460846 0.06973563
0002e0 08 2d 95 bd e6 b2 f1 3c 96 ab 68 bc 04 9a 9a bd
       -0.0728398 0.02950425 -0.0142010655 -0.075489074
0002f0 20 e2 03 bd 0f b2 87 3d 6b c7 a0 3d a0 77 7e 3d
       -0.03219807 0.06625759 0.07850536 0.062125802
000300 8b 19 0a bd 8e c4 58 bd a3 77 8e 3d cb fc 6d bc
       -0.033715766 -0.052921824 0.06956413 -0.014525603
000310 60 48 74 3c f8 d6 87 bd 40 49 9f bd 73 a1 41 bd
       0.014909834 -0.06632799 -0.07777643 -0.04727311
000320 60 a2 37 bc 3b 16 a1 bc 9b f2 ce bc 0b f8 e5 3c
       -0.011208147 -0.01966392 -0.025262168 0.028072378
000330 fb 37 59 bd fb 79 5c 3d 0e a0 45 3d f2 29 a6 bd
       -0.053031903 0.053827267 0.048248343 -0.08113469
000340 f0 b1 fa bc 57 ca 9f bd 0b 11 4c 3d ab d4 44 3b
       -0.030602425 -0.07802265 0.04982094 0.0030033987
000350 1e e4 2b bd e0 e8 20 3d ab b0 88 3c 28 4c a6 bd
       -0.041965596 0.039284587 0.016685804 -0.081199944
000360 43 e9 35 3d b0 0e 83 3d 93 aa 14 3d 00 50 bd b8
       0.04441191 0.06399286 0.036295485 -9.0271235e-05
000370 5f fe 8b 3d 80 a0 2b bd c6 db d9 bc cb ef 7c bd
       0.06835627 -0.04190111 -0.026594054 -0.061752122
000380 f6 84 8e 3c 60 25 3b bc 4e 29 92 bd a6 f9 e4 3c
       0.017397385 -0.011422485 -0.071367845 0.027951073
000390 3c 32 93 bd b0 16 5c 3d f6 db 83 bd 36 f1 b5 bc
       -0.07187316 0.053732574 -0.064384386 -0.022209745
0003a0 ba 17 9c 3d 16 d5 49 3d a0 30 06 bc 43 39 58 3d
       0.07621713 0.04927548 -0.008190304 0.052788984
0003b0 ab eb 07 bd db 4e 57 3d 3e 57 25 3d de cf 9a bd
       -0.033183735 0.052565437 0.040366404 -0.07559179
0003c0 76 73 4f bc 34 48 88 bd 68 62 07 3d 16 a7 cc 3b
       -0.012661805 -0.06654397 0.033052832 0.006245504
0003d0 c7 d5 9e bd 23 f5 6f 3d 0b aa 67 3d eb 72 d8 bb
       -0.077556185 0.05858339 0.05655865 -0.006605496
0003e0 93 5f 2b 3d db 1e 75 3d 57 3c 8b 3d 78 fc 10 3d
       0.041839194 0.05984388 0.06798618 0.035397023
0003f0 0e bb 77 bd 66 a3 1a bd ab 04 a8 3b 23 3a 5f 3d
       -0.060481124 -0.037753485 0.0051275096 0.054498803

decoder.de_convs.1.depth_conv.bias f4 [16]
000000 90 86 aa 3c 7b ba 29 bd e0 1d 01 bd c0 86 28 bc
       0.020816118 -0.041437607 -0.03152263 -0.010286033
000010 1f bb 82 bd 73 1a 14 bd 80 ce 68 3b cb dc 08 bd
       -0.06383347 -0.036158036 0.0035523474 -0.03341369
000020 30 d2 42 3d 08 21 71 bd 96 5f ae 3b a3 4d 45 3d
       0.04756373 -0.05886939 0.0053214533 0.048169743
000030 3e 63 9c 3d e6 56 d1 bc 7a dd 86 bd f8 04 6b 3d
       0.076361164 -0.025554132 -0.06585212 0.057377785

decoder.de_convs.1.point_conv2.weight f4 [16, 8, 1, 1]
000000 35 b3 9c 3d 75 e1 0b be 46 30 ab be 01 9d 9a 3e
       0.076513685 -0.13660224 -0.33435267 0.3019791
000010 08 d6 8e be a7 73 10 bd 08 81 c0 3d 57 20 d4 3d
       -0.27897668 -0.035266545 0.09399611 0.10357731
000020 c1 41 89 be 68 0d 75 bd 7d e4 30 be 01 92 89 bd
       -0.2680798 -0.05982724 -0.17274661 -0.06717301
000030 c0 4b eb 3d 34 c0 95 be 08 65 1b 3d 5c c8 5a 3e
       0.114890575 -0.29248202 0.037938148 0.21365494
000040 d5 ab 38 3e f8 ce 96 bc d8 0a 90 bd f4 d5 48 bd
       0.18034299 -0.018409237 -0.07033318 -0.049032167
000050 89 00 36 be 09 93 90 3e 55 61 8c bd fe 00 80 be
       -0.17773642 0.2823718 -0.06854502 -0.25000757
000060 2e 2d 83 be 11 e6 e5 3d 8d 1e 95 be 69 86 1d be
       -0.25620407 0.11225522 -0.2912487 -0.15383305
000070 11 85 0b 3d 70 c6 62 be 01 ee 98 bd aa b0 07 3d
       0.03406245 -0.2214601 -0.07467271 0.033127464
000080 1f 89 7b 3e c2 74 ba bd f0 3d 39 3c ca 32 85 be
       0.24564026 -0.09104301 0.011306271 -0.2601531
000090 0d 8d 23 3e 3a 32 94 3e c4 46 90 3e 38 ca 7b 3d
       0.15971775 0.2894457 0.2817899 0.061472148
0000a0 89 48 a7 be a3 f6 5d be af 82 06 3c 91 85 15 be
       -0.32672527 -0.21676116 0.008209868 -0.14601733
0000b0 fe 26 3b 3d 07 15 54 bd 56 94 b2 be 3b 18 80 be
       0.045691483 -0.051777866 -0.34878796 -0.25018486
0000c0 98 c3 7e be 7c 5a 9c be a7 f5 1c 3e cf 56 33 3d
       -0.248793 -0.30537784 0.15328084 0.04378396
0000d0 1e f1 58 3e 13 51 a5 3e 95 8e d0 3d cc 94 4d be
       0.21185729 0.32288417 0.10183445 -0.20076293
0000e0 f7 a3 30 bd 42 1f 4e 3e 9b 5f a5 be 91 48 2f 3e
       -0.04312512 0.20129111 -0.32299504 0.17117526
0000f0 10 90 0d be f1 f9 39 3d 73 b5 31 3e a3 3e 04 3d
       -0.13824487 0.04540438 0.17354374 0.032286298
000100 73 85 ae be 0a 3c 41 bd af df a1 3e 3a 2f 89 be
       -0.3408619 -0.0471764 0.3161597 -0.26793844
000110 de aa 95 3d 2b 98 23 be 09 86 36 3e 2f 3d 3c be
       0.07307981 -0.15976016 0.17824568 -0.18382715
000120 69 83 87 bd c3 ca b9 bd 03 14 0a be 5e b1 b2 3e
       -0.066168614 -0.09071877 -0.13484196 0.34900945
000130 70 bf e1 bd c7 9e 89 bd b4 be 62 bd 81 42 7e bd
       -0.11022842 -0.067197375 -0.05535765 -0.06207514
000140 c8 96 65 be 5c ed 3d be d1 76 76 be ab 16 77 be
       -0.224208 -0.18547577 -0.24068762 -0.24129741
000150 66 33 8d be 2e ee 8c be c3 76 e9 bd 7c e7 18 3d
       -0.27578276 -0.27525467 -0.11399605 0.037330136
000160 dd 06 99 be f1 42 b0 3e df 24 82 be cf 82 dc bc
       -0.2988805 0.34426072 -0.25418755 -0.026917843
000170 f1 5e 00 3e 32 70 2f be a3 db 1f be be 94 a0 be
       0.12536217 -0.17132643 -0.15611129 -0.3136348
000180 24 c3 a1 3e 23 a0 0d 3e c2 dc 85 3d 9f cb 10 be
       0.31594193 0.13830619 0.06536247 -0.14140175
000190 5a d8 9c bb c9 60 d2 bc ad ac 22 be dc 23 ba 3d
       -0.0047865333 -0.025680916 -0.15886183 0.09088871
0001a0 e6 fb b1 3e 40 81 71 be d5 00 00 3e fe ad af be
       0.34762496 -0.23584461 0.12500317 -0.34312433
0001b0 fb cc af 3e 9f c7 86 3e ba 80 a7 be aa 12 86 3e
       0.34336075 0.26324174 -0.32715398 0.26186115
0001c0 c2 a9 e6 bd 19 a4 73 3e 7c 14 26 be 92 39 7f be
       -0.112628475 0.23793067 -0.16218752 -0.24924305
0001d0 e7 6f 6d be c8 5e ae 3e e2 26 15 be 50 c9 3e be
       -0.23187219 0.34056687 -0.14565614 -0.18631482
0001e0 f9 5f 0c be 68 1d 2b be 94 fe 88 be d8 39 3a bc
       -0.13708486 -0.16710436 -0.26756728 -0.01136633
0001f0 4f 21 8a 3e f7 95 6d bd 96 57 e9 bd 0d bd 9a bd
       0.26978537 -0.058004346 -0.11393659 -0.0755559

decoder.de_convs.1.point_conv2.bias f4 [8]
000000 2d ba aa be ca 22 3e 3e 60 38 1f 3e 00 99 0b 3d
       -0.33345166 0.18567958 0.15548849 0.03408146
000010 dc 34 94 3e a6 dd 95 3d f7 14 cb 3d d6 47 2b be
       0.28946579 0.07317667 0.09916108 -0.16726622

decoder.de_convs.1.tra.att_fc.bias f4 [8]
000000 a8 97 0e bd d6 08 2d 3e ee fd 2e 3e 9c 29 04 3e
       -0.0348126 0.16897902 0.17089054 0.12906498
000010 3c f0 b5 bd 90 4e 7a 3d 52 e3 7d 3e 78 26 4f 3d
       -0.08883712 0.06111008 0.24793747 0.050573796

decoder.de_convs.2.point_conv1.weight f4 [8, 16, 1, 1]
000000 48 69 f3 3d 56 1d 47 3e b2 ca 22 3e bc 1b a9 3d
       0.11885315 0.19444785 0.15897635 0.08257243
000010 cc 39 96 3d 76 0c 6e 3e 3a b8 51 3e e0 cc 77 3c
       0.07335243 0.23246941 0.20480433 0.01512453
000020 60 0e 39 3c 74 2e 89 3d 66 8c 74 3e 58 20 ba 3d
       0.011294931 0.06698313 0.23881683 0.090882
000030 e0 2a 51 3c ee 79 75 3e e2 df 23 3e d8 41 7b bd
       0.01276657 0.23972294 0.16003373 -0.06134209
000040 68 a0 26 bd 90 3b 6b be 9a 0b 40 3e 92 19 30 3e
       -0.04068032 -0.2297194 0.18754426 0.17197254
000050 90 7d 1b be e4 48 ee bd 9c d3 2f be c4 4c 3f 3e
       -0.15184617 -0.116349965 -0.17170566 0.18681628
000060 2c 89 fa bd 18 88 c5 bd a8 d3 7d bd 46 90 2c 3e
       -0.12233195 -0.096450984 -0.06196943 0.16851911
000070 40 37 6b bc 68 b5 f0 3d 58 d9 f8 3d a8 ed 49 be
       -0.014356434 0.117533505 0.1215083 -0.19719565
000080 6c d8 e8 3d ec f6 08 3e 10 0c 11 bd 72 fa 27 be
       0.11369404 0.13375443 -0.035411894 -0.16404131
000090 84 4d 3f 3e e0 38 25 be 10 19 c7 3d 8c 14 fe 3d
       0.18681914 -0.16134977 0.09721577 0.12406263
0000a0 14 c3 2f 3e 48 a8 63 3e dc 04 65 be f0 41 3a bd
       0.1716426 0.22232163 -0.22365135 -0.04547304
0000b0 ea e0 27 3e 90 45 6b 3d 94 9c b9 3d e0 34 2c 3d
       0.16394392 0.057439387 0.09063068 0.042042613
0000c0 00 ad 67 3c e4 1d a5 3d 40 2e 39 3c 78 4e 1d bd
       0.0141403675 0.08062342 0.011302531 -0.03840491
0000d0 42 6a 13 be 90 f9 17 3e 06 91 6f 3e 4e 97 1d be
       -0.14396003 0.14841294 0.23395166 -0.1538975
0000e0 30 12 c2 bd 32 2c 58 be 2e e9 32 be 74 e7 bd 3d
       -0.09476125 -0.21110609 -0.17471763 0.09272662
0000f0 a0 b4 94 bd b8 56 9c bd dc a5 b9 bd 32 8b 08 be
       -0.07261014 -0.07633728 -0.09064838 -0.13334349
000100 02 a6 03 be 74 dc 9e bd 00 dd a0 3d 7c c6 66 3e
       -0.12856296 -0.07756892 0.078546524 0.22536653
000110 20 42 54 be de 6b 32 be 24 3c 54 3e 38 25 c4 bd
       -0.2072835 -0.1742396 0.20726067 -0.095774114
000120 6c dc 2a 3e 2e 64 71 3e 88 23 99 bd 60 a2 d0 3d
       0.16685647 0.23573372 -0.0747748 0.101872206
000130 78 67 43 3e 90 59 e9 bc 50 85 66 3d c0 3f bf 3c
       0.19082439 -0.02848509 0.05627948 0.023345828
000140 84 6c 5d 3e 64 92 3b be f8 ab 71 3d fc 09 39 be
       0.21623427 -0.18317562 0.059001893 -0.18070215
000150 a8 6d 94 bd ba dd 17 be 12 f5 26 3e e2 79 47 be
       -0.07247478 -0.14830676 0.16304424 -0.19480088
000160 42 70 63 3e b0 4e f2 3c b0 e8 73 3e 42 a0 13 3e
       0.22210792 0.029578537 0.23819232 0.14416602
000170 78 e8 54 3d 80 30 67 3c c0 45 8b 3b 80 de ec 3c
       0.051979512 0.014110684 0.004250258 0.02891469
000180 9a b5 57 be 88 8c b9 bd f8 72 a5 3d 80 d8 76 bd
       -0.21065369 -0.09060007 0.08078569 -0.060265064
000190 00 7c da 3a 00 a3 74 3c 64 f9 31 3e 1a 13 5f 3e
       0.0016669035 0.01493144 0.17380291 0.2178463
0001a0 f4 e6 4e be b4 9f 39 be 00 fb 84 bd 40 1c bf 3c
       -0.20205289 -0.18127328 -0.06493187 0.0233289
0001b0 b8 a4 1e 3d 82 7f 05 3e 8e 54 77 be 42 53 49 be
       0.038731307 0.13036922 -0.24153349 -0.19660667
0001c0 a0 ce 93 3c 24 be 8e bd d8 94 6f be b8 98 c9 bd
       0.018042862 -0.0696986 -0.23396623 -0.09843582
0001d0 fc 81 e8 3d dc 0d 5b 3e 80 dc f2 3b a6 1b 08 be
       0.113529176 0.21392006 0.0074115396 -0.13291797
0001e0 e8 4d 21 bd 28 e1 15 bd 90 72 32 3d 3a fc 7c be
       -0.039380938 -0.03659168 0.043566287 -0.24705592
0001f0 fc 31 b3 3d c8 a6 56 be 58 5e e8 3d f0 7e 9c 3c
       0.08749768 -0.2096206 0.1134612 0.019103497

decoder.de_convs.2.point_conv1.bias f4 [16]
000000 c0 db bb bc b2 39 60 3e c0 06 76 bd 26 9d 34 be
       -0.022931933 0.21897009 -0.06006503 -0.17638072
000010 90 c8 88 bc c8 bd 4c 3e e0 b5 b0 bc e0 9f 5b 3e
       -0.016697198 0.19994271 -0.0215711 0.21447706
000020 e2 e9 6b be 6c f0 22 be 14 51 c5 3d 34 5d 83 3d
       -0.23038438 -0.15912026 0.09634605 0.064142615
000030 ce fd 3d be fc f0 c7 3d a0 77 3e be 50 b3 42 bd
       -0.1855385 0.09762761 -0.18600321 -0.047534287
