gtcrn_micro/streaming/onnx/gtcrn_micro_stream_simple.onnx (onnx, 355511 bytes, 151 tensors)

sfe.depth_conv.weight f4 [3, 1, 1, 3]
000000 15 7c ba bf c7 24 ed bd b2 3d 55 3d bb d0 8d 3d
       -1.4569117 -0.1157928 0.05206079 0.06924578
000010 76 94 34 be 2a a6 85 be c1 c9 55 3d 91 82 af 3e
       -0.17634758 -0.26103336 0.05219436 0.34279302
000020 cd 82 82 3e
       0.25490418

encoder.en_convs.2.tra.depth_conv.weight f4 [8, 1, 3]
000000 9e b4 d8 3e 13 48 0a bd 9d 67 2a bf ca e7 52 3e
       0.423253 -0.03376014 -0.6656435 0.20596233
000010 91 e7 4d bc 81 01 a4 3e d6 8d 79 3e d1 0f 75 3e
       -0.012567417 0.32032397 0.24370512 0.23931815
000020 f6 a5 ef 3e 2a b5 02 3f 55 7e 26 3e ef bc c7 be
       0.46806306 0.51057684 0.1625913 -0.39011332
000030 aa 02 03 3f 5f 24 2e be 3d d2 1b 3d 3a 46 94 bd
       0.5117594 -0.17006062 0.038042296 -0.07239957
000040 e3 21 25 3e bb 3c df 3e 26 b1 04 3f be 1d db 3e
       0.16126208 0.4360102 0.5183281 0.4279613
000050 7f e4 09 3f 8e 1a 23 3e d6 ef 85 3e d4 a3 b9 be
       0.5386428 0.15928099 0.26159543 -0.36257803

encoder.en_convs.2.tra.depth_conv.bias f4 [8]
000000 02 a2 aa 3e 35 e3 cc bc ec 75 e5 be 8e 75 cf be
       0.33326727 -0.025010685 -0.4481653 -0.40519375
000010 35 73 7a be 91 e6 11 be ff 39 63 be 08 89 d1 3e
       -0.2445801 -0.1424811 -0.22190093 0.4092486

encoder.en_convs.2.tra.point_conv.weight f4 [8, 8, 1]
000000 99 cd d5 ba fd 52 1f 3d e4 2b f7 3e 49 10 66 be
       -0.0016311883 0.038897503 0.48275673 -0.2246715
000010 26 94 17 be f0 e1 14 be 89 87 0d be a6 7a 6b 3d
       -0.14802608 -0.14539313 -0.13821234 0.057490014
000020 82 46 97 bc df d1 c6 be 38 9d 0c bb a2 69 61 3e
       -0.018466238 -0.38831994 -0.0021456014 0.22012952
000030 69 1b 26 3e ff 1e bf 3c 46 a1 e8 bd 19 83 29 3e
       0.16221394 0.02333021 -0.113588855 0.16553916
000040 98 5b a3 be af d3 55 3d e6 f6 16 bd 29 9c 8d 3e
       -0.31905818 0.05220383 -0.036856554 0.27658203
000050 14 0a 7b 3d 6d 17 2c be 10 92 07 be 74 8c 30 3e
       0.061288908 -0.16805811 -0.13239312 0.17241079
000060 11 4a 31 bf 05 b7 97 3e c5 2e 6a be 34 ac 01 bf
       -0.6925364 0.2963182 -0.22869404 -0.50653386
000070 61 d0 65 3e 03 af 7d bc 81 1f 13 bd 58 c7 5b 3d
       0.22442771 -0.015483621 -0.035918716 0.053656906
000080 4c 18 b2 3e 6c 24 fb 3e 3d c4 be be 9e be fb 3d
       0.34784162 0.49051225 -0.37259093 0.12292217
000090 82 fa 1f be 69 7b 37 3e 7d ba 57 3f 39 fc c6 be
       -0.15622905 0.17918171 0.84268934 -0.38864306
0000a0 4b 5d 95 3e c7 be b0 be d5 15 45 be b3 f2 35 3e
       0.2917274 -0.34520552 -0.1924661 0.17768364
0000b0 6e e2 5f be 03 c4 4f bf d6 f1 9a bd d3 9b 78 bd
       -0.2186372 -0.81158465 -0.07565658 -0.06069548
0000c0 f7 85 52 3e 5e 9d b9 3d b4 42 c8 bd da 51 97 be
       0.20558916 0.090632185 -0.097783476 -0.29554635
0000d0 09 96 09 bf 41 06 55 3d 32 27 65 3d 29 51 be 3e
       -0.5374456 0.052007917 0.055945583 0.37171295
0000e0 c0 24 d7 bd c9 e7 4b bc b6 83 fe 3e 13 24 39 bf
       -0.105050564 -0.012445399 0.49709862 -0.7232067
0000f0 0c 39 23 bd 0e f2 9a bd 2e 3c 13 bf fd c2 1a 3e
       -0.039849326 -0.075656995 -0.575137 0.15113445

encoder.en_convs.2.tra.point_conv.bias f4 [8]
000000 4e ae 67 3d 4b 1e a5 3e 33 91 78 3e c0 23 d2 bc
       0.056562714 0.32249674 0.24274139 -0.025651813
000010 a9 24 5f be 56 51 70 be 9d 18 d7 3e 34 a5 f1 3d
       -0.21791328 -0.23468527 0.42010966 0.11799088

encoder.en_convs.3.tra.depth_conv.weight f4 [8, 1, 3]
000000 36 b0 bb bd ec c1 36 3b 67 6e cc be d1 17 b5 3e
       -0.09164469 0.0027886583 -0.3992798 0.35369733
000010 3c 41 de 3e fd 23 4c 3f f6 c3 b4 bc f6 6c 7d bd
       0.43409145 0.79742414 -0.022066098 -0.06187149
000020 ac 60 63 bf 5f f9 f3 bc c7 9e 76 bd ca 79 27 3f
       -0.88819385 -0.029781995 -0.060210016 0.6542021
000030 8c 22 a7 be 1c e4 f0 bd 11 b1 de be f3 87 12 3f
       -0.32643545 -0.117622584 -0.43494466 0.5723869
000040 be 1d e3 be d4 c1 1b bf f3 f3 f9 3e 75 8e 18 bc
       -0.4435863 -0.60842633 0.4881893 -0.009311308
000050 e6 b9 20 bf 94 d4 ad 3e 67 ae 04 be 9e 70 1a 3f
       -0.6278366 0.33951247 -0.12957154 0.6032809

encoder.en_convs.3.tra.depth_conv.bias f4 [8]
000000 b8 13 c9 3e 22 6d fe 3d 6f 18 b1 3e 38 c0 1d bf
       0.39272857 0.12423159 0.34588954 -0.6162143
000010 89 28 a2 3d 92 6b cb 3e a9 dd 86 be fe ee 57 be
       0.07917888 0.39730507 -0.26340988 -0.21087262

encoder.en_convs.3.tra.point_conv.weight f4 [8, 8, 1]
000000 9f fc 73 3e 88 b2 e9 be 74 da 0b be 7e 5d 89 be
       0.23826836 -0.4564402 -0.13657552 -0.2682914
000010 1b 3f 2b be 21 75 8e bd cc 38 87 be 31 ba a0 3e
       -0.16723292 -0.06955934 -0.2641052 0.31392053
000020 1f 7a 9b 3e c0 fd 1a 3f eb b9 49 bf a0 25 34 bf
       0.30366609 0.6054344 -0.78799313 -0.7036991
000030 71 15 e7 3e b1 0c ab 3d fc ff 01 bc 62 d9 a6 3e
       0.45133546 0.0835203 -0.007934567 0.32587725
000040 36 22 c6 be cd 3e c8 3d a7 7c 31 3e 74 7e fc bd
       -0.38697976 0.09777603 0.17332707 -0.123288065
000050 ee 4f c8 bd 5c 0b d6 bc ee 93 96 bd 58 aa 59 be
       -0.097808704 -0.026128463 -0.07352434 -0.21256387
000060 c8 8f 5c be 2e 45 a6 be f4 53 08 3e 86 86 ef be
       -0.21539223 -0.32474655 0.13313276 -0.4678232
000070 f8 b0 df 3d 5f 06 f9 bc 23 7b 52 3e 9c 0a 8e 3e
       0.10922426 -0.030398546 0.20554785 0.2774247
000080 66 94 39 3f 00 38 a4 3c 88 49 e5 3e 89 bd 0a 3f
       0.72492063 0.020046234 0.44782662 0.5419546
000090 e1 6a 83 3e d8 79 c7 3e c9 20 e4 be 10 a1 22 3f
       0.2566748 0.38960147 -0.44556263 0.6352701
0000a0 df 77 30 bf ac 5f 55 be f7 12 20 bf 57 c7 b1 be
       -0.6893291 -0.20837277 -0.6252894 -0.34722397
0000b0 9d bb a8 3e e2 b6 33 3f 40 45 52 3d 29 bf 27 be
       0.32955638 0.7020093 0.051335573 -0.16381516
0000c0 33 02 dc 3d 28 86 71 be 64 95 dc 3e 31 0e 52 3e
       0.10742607 -0.23586333 0.43082726 0.20513226
0000d0 d2 6a cb be 4c eb 77 3c 8c f8 94 be 64 39 22 be
       -0.39729935 0.015131783 -0.29095876 -0.15842205
0000e0 67 dd a9 3e 1a fc a7 3d 55 4e 5e be 3a 0c bc be
       0.3317673 0.082023814 -0.21709569 -0.36728078
0000f0 74 6f d4 3d 95 e0 09 3e fa 31 0d 3f ab f9 01 bf
       0.103728205 0.13464577 0.55154383 -0.5077159

encoder.en_convs.3.tra.point_conv.bias f4 [8]
000000 c7 6f 2d 3d db ec 2d bd ef 86 cf be e5 d4 52 3e
       0.042342927 -0.04246221 -0.40532634 0.20589025
000010 92 55 2c 3e ce d0 f0 3d 05 15 09 be c2 8f a5 3d
       0.16829517 0.11758576 -0.13386925 0.0808406

encoder.en_convs.4.tra.depth_conv.weight f4 [8, 1, 3]
000000 8f 3b 46 be b1 6f e0 3d b4 62 2a 3f a0 cc bf bd
       -0.19358657 0.109588034 0.6655686 -0.09365201
000010 44 8a cc be 90 2d 88 bf 8a d4 d2 bc 4f 4c c6 be
       -0.39949238 -1.0638905 -0.025736112 -0.38730094
000020 5e 1b 27 bf b2 e4 cb 3c 1d 5c 8b 3e 4b 84 03 3f
       -0.65276134 0.024889324 0.27218714 0.5137374
000030 cd c0 93 be 5c d6 e7 be 8d 46 3f bf d7 8e 5b 3e
       -0.28858033 -0.4528073 -0.74717027 0.21441208
000040 30 df a2 3d e9 2d 43 3f 84 33 4c bd 8b 14 f8 3d
       0.07952726 0.7624193 -0.049853817 0.12113293
000050 3d bc 85 3f 86 0d 0b bf b7 9f bf 3e 3c 36 02 3f
       1.0448071 -0.5431751 0.3742654 0.50864005

encoder.en_convs.4.tra.depth_conv.bias f4 [8]
000000 3a 7f e7 bd 39 0d e7 bc 9f c0 8b be c0 c8 f0 be
       -0.113035634 -0.028204547 -0.27295396 -0.4702816
000010 a8 f4 3b 3f 85 e0 73 3d 88 7d 2c bf f0 e6 4a be
       0.7342019 0.05954029 -0.67379045 -0.19814658

encoder.en_convs.4.tra.point_conv.weight f4 [8, 8, 1]
000000 c5 8d ca bd 50 7f 3d bf e1 06 17 3e 33 c1 c1 be
       -0.09890322 -0.7402239 0.14748718 -0.37842712
000010 93 67 10 3f de e9 44 be 9f 1a 42 3d 14 c3 a6 bc
       0.5640804 -0.19229838 0.04738867 -0.020356692
000020 a4 98 ba be 5b 4c b0 be 38 c4 dc 3d 60 e4 cb be
       -0.3644458 -0.34433255 0.10779613 -0.39822674
000030 d3 a3 5c be c3 dd 1a bf 1c 94 ee 3e 2f 78 70 3e
       -0.21546869 -0.6049463 0.46597373 0.23483346
000040 d5 a7 53 be 47 38 ba be a0 50 ec bd f1 f0 82 3d
       -0.20669492 -0.3637106 -0.115388155 0.06393612
000050 43 7c 5d 3e f0 2f 88 be 71 a3 81 bf 44 05 a8 be
       0.21629433 -0.26599073 -1.0128003 -0.32816517
000060 34 bd 47 3f e3 fd b1 3e 50 63 58 3f c1 31 47 3f
       0.78023076 0.34764013 0.8452654 0.77810293
000070 09 73 15 3f 0a 6d 3d be d8 b1 68 bd 3b e2 1b 3f
       0.58378655 -0.18498626 -0.05681023 0.60892075
000080 bc 3b 15 3d 99 5a 54 3e d8 82 a6 3e 21 63 be 3e
       0.03643392 0.20737685 0.325217 0.37185004
000090 55 0e 21 bf 92 3c 19 be 4e 5b 11 be 21 0a f3 3d
       -0.62912494 -0.14964512 -0.14194986 0.11867166
0000a0 90 d6 16 3d 0f 41 93 3e 0e 49 03 3e 5e 48 85 3e
       0.036825716 0.28760573 0.12820837 0.26031774
0000b0 59 93 06 bf 8c be 4c be a0 b2 56 bd a4 ca e0 be
       -0.52568585 -0.19994563 -0.052416444 -0.43904603
0000c0 4b d8 bc bd 91 12 9d bd eb 3a 01 3f b3 1a 4e 3f
       -0.09220942 -0.07669557 0.50480527 0.8050949
0000d0 5e 07 98 bf 84 b8 71 bf de 86 d2 3e d2 68 ff 3d
       -1.1877248 -0.94422174 0.4111852 0.12471165
0000e0 71 45 4c 3e 87 3d 21 3e 6d 0f c3 3d 9b 3b 1b 3e
       0.19948365 0.15746127 0.095244266 0.15159456
0000f0 9d 93 0b be 16 b7 f4 bd f2 d6 62 3f 48 b6 03 3e
       -0.13630529 -0.11948983 0.8860923 0.12862504

encoder.en_convs.4.tra.point_conv.bias f4 [8]
000000 a1 f6 42 be a7 b4 81 bf 8e 79 2a be c5 cd 52 3d
       -0.19039394 -1.0133256 -0.16647932 0.05146577
000010 6d 9e 0b bf 19 70 8e bd 8b 71 84 be 99 10 20 bf
       -0.54538614 -0.06954975 -0.25867876 -0.62525326

decoder.de_convs.0.point_conv1.weight f4 [8, 16, 1, 1]
000000 b2 29 55 be fe 3c c2 3d bd 65 10 3f ea c1 83 be
       -0.20816687 0.094842896 0.5640524 -0.25733882
000010 e1 a5 63 bd ae 0e ff 3c 4c 65 da 3e 29 ea a0 3e
       -0.055578116 0.03113493 0.42655408 0.3142865
000020 f0 3c da bd 39 3f f3 be ed 5c 62 3f 81 3c 16 3e
       -0.10656154 -0.47509173 0.88423043 0.14671518
000030 49 c3 a9 be 0b 18 43 3e 47 f2 a1 3d 3e 88 0f bf
       -0.33156803 0.1905214 0.07907539 -0.56067264
000040 fe 20 d4 bd 9c 2a 3a 3e fa d4 a5 bd e7 ce aa 3e
       -0.10357855 0.18180317 -0.08097263 0.3336098
000050 76 79 bd be f2 18 ac 3e 96 aa 03 3e 48 f1 59 bd
       -0.3700673 0.33612782 0.12858042 -0.05320862
000060 09 7d ba bd 20 6f f0 3e 75 cb 36 3e 3d 7a 39 be
       -0.0910588 0.46959782 0.1785105 -0.18113036
000070 da 16 5b be b1 68 96 3e 58 ca bd be 39 22 20 3c
       -0.21395436 0.29376748 -0.3706844 0.009773784
000080 f1 66 0d 3e fe 74 f0 be 8c 06 e3 3e 09 2f b1 3d
       0.138088 -0.46964258 0.44340932 0.08651549
000090 6f 95 85 be bd 60 8a be 8f 1b f2 3d 36 ea aa 3c
       -0.2609057 -0.2702693 0.11821663 0.020863634
0000a0 81 20 89 be 63 30 09 bf 9f 84 34 3e 62 9d 46 ba
       -0.2678261 -0.5358946 0.17628716 -0.00075765525
0000b0 24 ab 38 bd 20 5c 47 3f ac a3 9a 3e 48 52 03 3e
       -0.045085087 0.77874947 0.30202997 0.12824357
0000c0 6c 50 10 3f a7 29 5a 3e 74 27 26 3e 5e f0 1d 3f
       0.56372714 0.21304952 0.16225988 0.61694896
0000d0 e3 15 16 3f ee 60 99 3e 44 9b 18 3f af ad ef be
       0.58627146 0.29956764 0.59611917 -0.46812198
0000e0 c8 52 14 be c3 79 6b 3e ce b5 bc bd 1d 5c 31 bf
       -0.14484704 0.22995667 -0.09214364 -0.6928118
0000f0 d0 77 d9 be f1 26 d9 be 02 fa ee be e9 42 64 3e
       -0.42474222 -0.42412522 -0.46675116 0.22291149
000100 4a 7c ed 3d d9 78 e4 bd bc d5 2a bf f9 af f4 3b
       0.11595972 -0.11155862 -0.6673238 0.0074672666
000110 34 d7 db be b5 f9 80 be aa ca 98 3e 68 cf 06 3f
       -0.42937624 -0.2519051 0.2984212 0.52660227
000120 2c f8 63 3e 55 70 0a be 18 0d 68 3e 92 dc 2c bf
       0.22262639 -0.13519414 0.22661245 -0.67524064
000130 a1 98 6a 3e c5 75 86 be 32 9c 16 3f 12 0f 90 be
       0.22909786 -0.26261726 0.58832085 -0.28136498
000140 81 2d 92 be 1c 14 0a bf a6 fb 33 3e 34 98 a0 3e
       -0.28550342 -0.53936934 0.17576465 0.31366122
000150 91 d4 b1 3d 99 8f fd 3e 1f 0b 85 3e 21 ad c7 be
       0.08683122 0.4952362 0.25985047 -0.38999274
000160 ab 3b 18 3f 8a e4 b1 bd bf 4a d4 3d f5 79 29 be
       0.59466046 -0.086861685 0.10365819 -0.16550429
000170 9f 5a bc 3e 7c 0a 60 3d b8 67 dc bd 8e a6 c9 be
       0.36787888 0.0546975 -0.1076197 -0.39384884
000180 39 21 12 bf 55 50 f7 3c 0b 42 bb 3c 82 6f a3 3e
       -0.57081944 0.030189672 0.02285864 0.3192101
000190 c8 0f b0 3e b8 bd 26 bf ea d0 32 bb 7b ab 91 bd
       0.3438704 -0.6513324 -0.0027285167 -0.071127854
0001a0 46 67 c0 bd 18 69 e1 bd 85 34 31 be 2f ee 1d 3d
       -0.09394698 -0.11006373 -0.17305191 0.038557228
0001b0 93 97 ee 3e 19 c1 a1 3d 01 a7 9c 3e 84 b8 df 3d
       0.46600017 0.078981586 0.30596164 0.109238654
0001c0 0b a4 a5 3e 02 2b c2 3e ef 51 9d 3d 94 ca bb 3e
       0.32351717 0.37923437 0.07681643 0.36677992
0001d0 4b f3 d1 bd 64 7a 29 3e 6a 87 ed be 61 93 f7 be
       -0.102514826 0.16550595 -0.46392375 -0.4835463
0001e0 fa 5b f3 3e 63 d9 80 be 57 49 ec 3e b1 73 67 be
       0.4753111 -0.25165853 0.46149704 -0.22602727
0001f0 a3 da bd be e7 a9 41 be d0 b4 b3 3e 7e 56 e7 be
       -0.3708087 -0.18912469 0.35098886 -0.45183176

decoder.de_convs.0.point_conv1.bias f4 [16]
000000 f5 f5 4a be 28 81 e6 bd f3 de 25 be 5a 6d 5a 3e
       -0.19820388 -0.11255103 -0.1619833 0.21330777
000010 78 eb d6 3d 2d 62 57 3e b4 33 d3 3c db 06 59 3e
       0.10494131 0.21033545 0.02578149 0.21194021
000020 f5 af c0 bd e7 5e 6c be 80 86 4e be 4f 81 01 3e
       -0.09408561 -0.23083077 -0.20168495 0.12646984
000030 ab 56 71 bd 9e 96 7a be 04 d9 03 be 3e 45 65 be
       -0.058920544 -0.24471518 -0.12875754 -0.22389695

decoder.de_convs.0.point_bn1.weight f4 [16]
000000 36 0f 7c 3f c0 f8 62 3f 6e 0b 2b 3f 56 3a 2a 3f
       0.9846071 0.8866081 0.66814315 0.66495264
000010 cd bb 0e 3f 79 28 77 3f 2c 7e 20 3f 84 9a 82 3f
       0.5575531 0.9654613 0.62692523 1.0203404
000020 6c 0b 69 3f 7d 51 68 3f 06 df 6f 3f 60 1a 1e 3f
       0.91033053 0.9074934 0.9369968 0.61758995
000030 26 40 25 3f f5 41 33 3f e0 03 59 3f 47 cd ac 3f
       0.6455101 0.7002252 0.8477154 1.3500146

decoder.de_convs.0.point_bn1.bias f4 [16]
000000 5d 9e e7 3e d0 eb 6c bf 11 15 4b 3d 54 2e 99 3c
       0.4523801 -0.9254732 0.049580637 0.018698849
000010 5f b6 b3 3e 46 97 d6 be 15 fd 9b 3e 41 93 37 3f
       0.35100076 -0.41912287 0.30466524 0.71709067
000020 b3 3a 22 be c5 39 9f 3f 64 8b 0b be 69 f5 87 3e
       -0.15842704 1.2439505 -0.13627392 0.2655442
000030 6c 91 c2 3f a8 5d 91 3d 24 30 66 3e 26 18 bb 3f
       1.5200629 0.07097942 0.22479302 1.4616745

decoder.de_convs.0.point_bn1.running_mean f4 [16]
000000 9a 5d 95 3f 54 5a a4 bf f1 15 04 40 22 1a 0b 41
       1.166919 -1.2840066 2.0638392 8.69388
000010 37 61 00 40 0c 34 e7 3f f8 65 87 40 cb 21 a6 c0
       2.0059335 1.8062758 4.2311974 -5.191625
000020 f6 4a d7 3f c6 98 7b bf 93 91 d7 3f bf fd d2 c0
       1.6819751 -0.9827999 1.6841301 -6.593475
000030 5e c9 47 bf da 60 2d 3f 7b cf a7 be 6d d5 9d bf
       -0.78041637 0.6772591 -0.32775483 -1.2330757

decoder.de_convs.0.point_bn1.running_var f4 [16]
000000 a0 e6 e1 40 c6 72 88 40 fc cd 94 40 2d dd 43 40
       7.0594025 4.2640104 4.6501446 3.0603745
000010 08 05 70 40 46 8f d0 40 c0 4e 9a 40 9c 7e ad 40
       3.750307 6.5174894 4.822113 5.4217052
000020 5b c6 01 41 b8 01 08 41 53 da 6f 41 56 5b 18 40
       8.110927 8.50042 14.990802 2.3805747
000030 8c 54 0e 41 33 53 c1 40 db ff 0c 41 1d fe 53 41
       8.895641 6.041406 8.812465 13.249539

decoder.de_convs.0.point_conv2.weight f4 [16, 8, 1, 1]
000000 ba 31 e8 3e d9 4d af bb e6 73 25 bf 2e dc e0 bd
       0.45350438 -0.0053498563 -0.6462997 -0.10979496
000010 90 47 71 3d 53 1c df 3d 83 38 04 bf cb fe 7e 3e
       0.058906138 0.10894074 -0.5164873 0.24901883
000020 9b d9 50 3f 08 ba 58 bd 8f ea 59 bd 6f 93 1f 3f
       0.8158204 -0.05291179 -0.053202208 0.6233434
000030 85 1f 89 3e 94 10 15 bf 68 bb 1f be bb c4 13 bf
       0.2678186 -0.5822842 -0.15598834 -0.5772206
000040 00 be 16 3e 0a 60 5e be df 4d d0 be e8 53 c3 3d
       0.14720917 -0.21716323 -0.4068441 0.09537488
000050 38 81 dd 3e 44 14 cd 3e f3 3b ee 3b 7a 15 8f be
       0.4326265 0.40054524 0.00727033 -0.27946073
000060 20 6a aa 3e d2 ad b7 be 5d 2e 17 3e 3f 63 20 3e
       0.33284092 -0.35874802 0.1476378 0.1566286
000070 0d c5 ee bd e1 99 56 3f 60 b4 0e be 9e a2 d4 3b
       -0.11658678 0.8382855 -0.13935995 0.006489112
000080 34 25 ca 3c f1 94 e4 3e 54 ee c2 be 5a 3f 1b bf
       0.024675943 0.44644883 -0.38072455 -0.6064354
000090 6d 9a 3d 3f 61 0a ea 3d ad 7e 10 3e 4c f5 1e 3e
       0.7406376 0.11427761 0.14110823 0.15523261
0000a0 10 4f 53 3e 51 f9 40 3e eb 2f d6 be 2f 7d 8d 3e
       0.20635629 0.18845107 -0.41833434 0.2763457
0000b0 65 03 fa bc 86 90 f1 bc 6b 77 28 3f 7e be e4 3e
       -0.030519197 -0.02948786 0.6580722 0.44676584
0000c0 ab 5e f0 be ba 66 ec 3e 75 53 87 3e e6 eb 05 bf
       -0.46947226 0.46172124 0.2643086 -0.5231308
0000d0 d5 ac 10 3f 62 71 55 3d 3d b1 ca be 0d 38 2f 3e
       0.5651372 0.052110083 -0.39588347 0.17111225
0000e0 26 09 77 bd c8 58 1e bf d5 98 19 3e 72 20 d9 bd
       -0.06031146 -0.6185422 0.14999707 -0.106018916
0000f0 49 2f c9 3e 8a 45 cf bd 03 b8 2a 3f e1 4b 07 bf
       0.39293888 -0.101206854 0.6668703 -0.5285016
000100 a4 43 8c be ff f4 55 bd 72 3b 53 3f a9 47 7e be
       -0.27395356 -0.0522356 0.8251258 -0.24832024
000110 65 99 31 3e ca 5f 6a be c2 bb c9 3e 68 21 9b be
       0.17343672 -0.22888103 0.3940106 -0.30298924
000120 2f fb 82 be ec 8d 22 bf 5f a3 57 3c a4 07 1d be
       -0.25582263 -0.63497806 0.013161509 -0.15334946
000130 70 60 d0 bc 12 c2 da bc 5a 9f 48 bd 26 4c d5 be
       -0.02543661 -0.026703868 -0.048980094 -0.4165966
000140 40 3a 25 bd 96 78 c8 bc 7f 77 e2 be 5a 7d 8d 3e
       -0.040338755 -0.024471562 -0.44231793 0.27634698
000150 6e 5b eb be c8 75 7e 3e 21 50 44 bd d0 03 30 bf
       -0.45968193 0.24849617 -0.04792798 -0.6875582
000160 b3 d0 8e 3e a0 b1 2c bf 78 3c d9 3e 61 fd d5 be
       0.278936 -0.67458534 0.42428946 -0.41794875
000170 24 06 00 3e f7 80 44 be cc c1 6e bd ac b2 ea bd
       0.12502342 -0.19189821 -0.058290288 -0.1145986
000180 4a e8 b4 3e 46 0b 69 3e 8c 64 12 3e f3 04 25 be
       0.35333472 0.22758207 0.14296168 -0.16115169
000190 2f be 5e 3e fc 13 e2 be 89 a1 08 3f 2b 2d 46 bf
       0.21752237 -0.44155872 0.53371483 -0.7741267
0001a0 6d 69 ba 3e 7b a2 95 bd 26 3c 2d 3e fd f3 26 3e
       0.36408558 -0.07306381 0.16917476 0.16304012
0001b0 74 a0 01 bf a0 a0 1d 3f 03 96 8c bd 09 1a 27 bd
       -0.5063546 0.6157322 -0.0686455 -0.040796313
0001c0 d1 6c 37 bf d3 3c a2 be e0 17 ca be 6c 7b c2 be
       -0.71650416 -0.3168703 -0.3947134 -0.37984788
0001d0 54 b4 77 bd 85 94 ae be 0e 11 49 be 64 19 e3 3d
       -0.06047471 -0.34097686 -0.19635412 0.11088827
0001e0 db f5 51 be 4b d5 aa 3e b4 ef d8 3d 37 53 f6 3e
       -0.20503943 0.33365855 0.10592595 0.48110363
0001f0 7a ef 79 3e 0d 76 00 bf 47 17 f2 3b fc 3a 21 be
       0.2440776 -0.5018013 0.007388029 -0.15745157

decoder.de_convs.0.point_conv2.bias f4 [8]
000000 2e 9a ee 3d 3f b0 92 3e f2 14 4e be 7c 3a 1f 3e
       0.11650501 0.2865009 -0.20125178 0.15549654
000010 71 9d 9b 3e 6b 85 fc bd 3d f0 02 be 3d af 60 be
       0.30393556 -0.12330135 -0.12786956 -0.21941848

decoder.de_convs.0.point_bn2.weight f4 [8]
000000 0e 3a a1 3f 83 5c de 3f 12 51 a9 3f 62 b3 b2 3f
       1.2595842 1.7371982 1.3227866 1.3960993
000010 f8 b5 86 3f 38 1f 8d 3f 61 62 94 3f 10 0f b4 3f
       1.0524282 1.1025152 1.1592523 1.4067097

decoder.de_convs.0.point_bn2.bias f4 [8]
000000 c8 a3 ef bf 09 04 a2 3e 0b f9 61 bf 04 3e 8a 3f
       -1.8721857 0.31643704 -0.88270634 1.0800176
000010 95 48 cd bf c4 b7 42 3f 9c f7 3a 3f 92 0d 86 be
       -1.6037775 0.76061654 0.7303407 -0.26182228

decoder.de_convs.0.point_bn2.running_mean f4 [8]
000000 44 aa 9b 3e de 23 d1 bc 5b b4 88 bf 2c 23 05 bf
       0.3040334 -0.025529798 -1.068004 -0.52006793
000010 79 d4 a5 3f 26 5d 58 be 23 9f c3 3e 58 fb 8a bf
       1.2955467 -0.21129283 0.3820735 -1.0857954

decoder.de_convs.0.point_bn2.running_var f4 [8]
000000 25 21 48 3f 37 47 4d 3f 1f 25 5a 3f 13 80 fe 3e
       0.78175575 0.8018679 0.8521289 0.49707088
000010 94 70 13 3f a0 9e 76 3f e4 d7 6d 3f 9a a8 94 3f
       0.57593656 0.9633579 0.9290755 1.1613953

decoder.de_convs.0.tra.depth_conv.weight f4 [8, 1, 3]
000000 8e 29 13 be 56 29 c1 bd f8 8d 29 3f 22 99 6b be
       -0.1437132 -0.09431712 0.6623225 -0.23007634
000010 1a f9 8e bc d4 13 6a bf fb 19 21 be b4 ab 21 be
       -0.017452765 -0.91436505 -0.15732567 -0.15788156
000020 43 73 0b bf 72 14 5e 3e d6 2e 0a 3e 67 80 0e 3f
       -0.5447275 0.21687487 0.13494429 0.55664676
000030 7a 37 e7 3d 94 89 88 bd af b6 af be c5 cb 25 be
       0.11289878 -0.06666866 -0.34319064 -0.16191013
000040 3c 25 e0 be 6e f8 7d bf 9f a8 c8 3d fd 76 2f be
       -0.43778408 -0.992072 0.09797787 -0.17135234
000050 56 ae 13 3f f7 a5 ca be 83 57 a9 3c b8 80 57 bf
       0.5768789 -0.39579746 0.020671612 -0.84180784

decoder.de_convs.0.tra.depth_conv.bias f4 [8]
000000 fc b6 6f 3e 15 b7 9e 3e d3 70 22 3f 32 7d 86 bf
       0.23409647 0.30999056 0.63453406 -1.0506957
000010 47 64 cf 3e ab a8 6b 3f 86 ed 36 be f5 dc b1 3e
       0.40506193 0.9205424 -0.17864046 0.3473889

decoder.de_convs.0.tra.point_conv.weight f4 [8, 8, 1]
000000 af e5 74 be 4c 3e b5 be 1c 73 92 3e fb d7 57 be
       -0.23915742 -0.3539909 0.28603446 -0.21078484
000010 af 8b 19 bd 68 dc aa 3b eb f5 87 be 2b 16 c9 3d
       -0.03748673 0.0052142628 -0.26554808 0.09818681
000020 8b e5 f6 3e f7 43 23 be d3 25 98 3c a7 95 e9 3d
       0.48222002 -0.15943895 0.018572723 0.11405497
000030 8d 08 74 3d 9e 7e 5a 3f 3c ef 3c 3e cc 96 e4 3e
       0.059578467 0.8534945 0.18450636 0.446463
000040 c9 3d b7 3d 87 0b 5a 3d b7 77 68 be 46 08 35 be
       0.089473315 0.05323365 -0.22701918 -0.17678937
000050 79 1e 21 be 84 8d 18 bf 3f cf 85 bd ed 5e 30 bd
       -0.1573428 -0.59590936 -0.0653367 -0.04305928
000060 44 4f 1a be f4 05 23 bf 63 d3 0b bd fa 30 85 3d
       -0.150693 -0.6368096 -0.03413714 0.06503482
000070 f1 cb 39 be 3f 0f 52 3f 46 13 75 be 15 7c d0 3e
       -0.18144204 0.82054514 -0.23933133 0.40719667
000080 07 0d 9c 3e 61 81 50 bf f6 a9 93 3e 65 18 3f bf
       0.3047869 -0.81447417 0.28840607 -0.746466
000090 86 1f 70 be 60 ba 7b be 74 51 18 3e 40 44 03 3f
       -0.23449525 -0.24582815 0.14874822 0.51276016
0000a0 14 03 3d 3d af e0 92 3e 6e eb 36 bf 01 bb d2 be
       0.046145514 0.28687045 -0.7145299 -0.41158298
0000b0 10 4c 22 be 58 55 67 be ea 2f c6 3e 84 82 07 be
       -0.15849328 -0.2259115 0.3870843 -0.13233382
0000c0 9b 5e 91 3e 39 1c a1 3a 0e 6b d2 3d 0f 76 a0 3e
       0.2839249 0.0012291736 0.10274325 0.31340072
0000d0 24 1d 38 be 29 9b cf be 2a c7 5f 3e 7f 56 64 3e
       -0.17979866 -0.40548065 0.21853319 0.2229862
0000e0 96 1c e4 3e d0 df b7 bc eb b4 e5 3c 76 48 bd 3e
       0.4455306 -0.02244559 0.02804037 0.36969346
0000f0 01 83 6b bf 4d df 49 bf da 64 97 be 3c 60 39 3e
       -0.9199677 -0.78856355 -0.2956913 0.18103117

decoder.de_convs.0.tra.point_conv.bias f4 [8]
000000 30 96 0b 3f 35 84 dd 3e 38 ac ba be 73 c1 1b 3e
       0.5452604 0.43264928 -0.36459517 0.15210514
000010 4e 6a 22 3e a5 0d 3c 3d c1 3a 14 bf 10 4e bb be
       0.15860865 0.04591145 -0.5790215 -0.36582994

decoder.de_convs.1.point_conv1.weight f4 [8, 16, 1, 1]
000000 dd 38 b8 be ef 20 1f 3f 81 97 bb 3f b4 6b 87 3e
       -0.35980883 0.6215963 1.465561 0.26449358
000010 c0 0c 5c bf 73 d7 9e be 29 15 09 3f b2 93 68 be
       -0.85956955 -0.3102375 0.5354791 -0.22712591
000020 a9 d9 d7 3e 66 41 1e 3f 32 a1 d4 3e fe 26 b1 bf
       0.4215825 0.6181854 0.41529232 -1.3840024
000030 29 76 b3 3e a8 1a 26 3f 53 f4 da 3e fc 13 0c bf
       0.35051087 0.64884424 0.4276453 -0.54717994
000040 3d 03 17 be 5c 42 06 3e 58 b9 5a 3e f4 4c a9 3e
       -0.14747329 0.13111252 0.21359766 0.33066523
000050 db be 82 3c 8c e1 fa bc 8b a2 8d 3d 47 d6 6d 3e
       0.015960148 -0.030625127 0.06915768 0.23226272
000060 f3 fc cf bc 3e 6d bc be 26 05 47 3c cb 3e 60 3c
       -0.02538917 -0.36802095 0.012147224 0.013686846
000070 60 ca b7 3c 8c cf 3d bd 37 c2 5e be fa cb 86 be
       0.022435367 -0.04634051 -0.21753775 -0.26327497
000080 27 3a 0f bf f1 95 da 3e 8b 96 d9 be e9 ac 68 be
       -0.5594811 0.4269252 -0.42497668 -0.2272221
000090 21 78 59 be 59 ca 05 3f 2c 0f 53 3f 25 45 05 3f
       -0.21237232 0.52261883 0.82445025 0.5205863
0000a0 f5 6a f3 be 24 cf 17 3e f4 58 2e 3e 6e ec c7 b9
       -0.4754254 0.14825112 0.1702612 -0.00038132392
0000b0 6e 66 a4 bf cc 0d d1 be fa 6a fd 3b 2f b7 6c 3e
       -1.2843759 -0.4083084 0.0077337 0.23116754
0000c0 11 8e c8 3d bc 8c 03 bf 0a a5 0c 3d 41 02 3d bc
       0.09792722 -0.5138662 0.03433708 -0.011536182
0000d0 8f a6 23 be ec 8d 09 3e 9e f5 81 be 52 37 df bc
       -0.15981506 0.13433045 -0.25382704 -0.027248058
0000e0 c3 cc 51 be ff 4e 93 be 36 63 92 3e 94 1a 8e 3e
       -0.20488267 -0.28771207 0.28591317 0.27754653
0000f0 16 e5 61 be 14 2a 60 be 61 70 f3 3d e8 f6 a2 3e
       -0.22060046 -0.21891052 0.11886669 0.31829
000100 2c 7e 71 3e f1 bb 3a 3e 38 29 14 be fb a2 a3 3e
       0.23583287 0.18235756 -0.14468849 0.31960282
000110 f6 1b 8e be 20 f5 0b 3f 53 2e 28 3e 53 b1 81 bf
       -0.27755708 0.54670906 0.16423921 -1.013224
000120 50 11 3d be b9 2e 20 3f 3c ef ef 3e 76 09 85 be
       -0.18463635 0.62571293 0.4686221 -0.2598378
000130 05 c2 e4 3d 66 5f c4 be ed 7c 09 bf 87 3e 45 3e
       0.11169819 -0.38354033 -0.53706247 0.19262134
000140 a5 c7 c3 bd ee 2f ba bd ec 2c ca 3c 10 0e ef 3d
       -0.095595635 -0.09091173 0.024679624 0.11672604
000150 84 b5 98 be 7f 0e d7 3c a9 3f d8 3e 26 08 62 bc
       -0.29825985 0.02625203 0.4223607 -0.013795888
000160 82 98 08 bf 9c d0 8d be 77 1b d9 3e bc 33 3d 3c
       -0.5335771 -0.2769822 0.42403767 0.011547979
000170 68 4a 3a 3e ed 77 8d 3e 21 b7 0a 3e 9d a3 31 be
       0.18192446 0.2763056 0.1354642 -0.1734757
000180 be 42 63 be 73 ac a8 3e 71 8b b9 bd ff 59 36 bf
       -0.22193429 0.32944068 -0.090597995 -0.71231073
000190 17 ca 38 3f 4c 8e 2d 3f c8 79 c3 3d 83 de 44 3e
       0.72183365 0.6779525 0.09544712 0.19225506
0001a0 79 c6 9e bc 98 eb 21 be 05 58 12 bf 4a 3e 9d be
       -0.019381749 -0.15812528 -0.5716556 -0.30711585
0001b0 65 c8 cd bd ab ac 2a bf 6e 35 57 3f b3 7b e9 3d
       -0.10047988 -0.6666972 0.840659 0.11400547
0001c0 ee 1a 17 3f 10 4c a6 be 40 b5 49 3e af ed f9 be
       0.59025466 -0.32479906 0.19698048 -0.4881415
0001d0 3b 07 db 3d 5f 36 6f 3e cc bf 08 3d ae 72 8d 3d
       0.106947385 0.23360585 0.033386037 0.06906639
0001e0 a1 d2 b9 be 3d 5b 2c be 67 56 8e 3c 2d 4f 38 bb
       -0.3629351 -0.1683168 0.017375184 -0.0028123364
0001f0 eb f9 71 3d a0 0b 9a 3c f3 5d 58 3e b9 ce 23 bf
       0.05907623 0.018804371 0.21129589 -0.6398731

decoder.de_convs.1.point_conv1.bias f4 [16]
000000 c5 d3 5c be 17 a2 83 3e 23 d2 ff bd 62 0d b4 3d
       -0.21565159 0.25709602 -0.12491252 0.08791615
000010 a8 96 bf bb 79 13 0e 3e 34 39 5a 3d f8 c3 53 bd
       -0.005846817 0.13874616 0.05327721 -0.051700562
000020 f6 c1 01 be 1d 73 56 3e a7 e7 75 be 60 c9 eb bd
       -0.12671646 0.2094235 -0.2401415 -0.115130186
000030 ee 9d 52 3e f8 f6 13 3d b5 f8 d2 3d 0c 72 63 3e
       0.20568058 0.0361242 0.10301343 0.22211474

decoder.de_convs.1.point_bn1.weight f4 [16]
000000 10 56 67 3f 22 f7 7f 3f 51 81 83 3f 46 ae 92 3f
       0.90365696 0.9998647 1.0273839 1.1459434
000010 35 ea 71 3f 11 17 60 3f df 98 81 3f 83 e0 96 3f
       0.94497997 0.87535197 1.0124778 1.1787266
000020 19 6a 55 3f c9 9e 93 3f ca 15 5f 3f 3c c7 93 3f
       0.8336502 1.1532832 0.8714262 1.1545177
000030 07 22 9f 3f 88 0d 6e 3f eb ee 1e 3f 57 e9 6c 3f
       1.2432259 0.929894 0.6208331 0.9254355

decoder.de_convs.1.point_bn1.bias f4 [16]
000000 01 27 d9 bd 48 42 a4 3d 2a 45 1f be 31 97 f9 be
       -0.106031425 0.08020455 -0.15553728 -0.48748162
000010 8f 55 27 3f 03 ac 54 be 4f a1 d0 3e 99 59 1a 3e
       0.6536493 -0.20768742 0.4074807 0.15073241
000020 15 98 cd 3c f3 46 aa be 7f e4 9b 3c c1 87 8e 3d
       0.025096932 -0.33257255 0.019029854 0.06959487
000030 4c e9 2e bf bf b3 f1 3e 48 ec 5b 3f 1b 46 b5 3f
       -0.6832473 0.47207448 0.8590741 1.416202

decoder.de_convs.1.point_bn1.running_mean f4 [16]
000000 3f 97 57 3e 2c 3e 3f c0 90 34 8b bd 2e f0 17 bf
       0.2105379 -2.9881697 -0.06797135 -0.5935086
000010 26 5c 73 bf 6d df a6 3f bc f5 25 3f 0d 16 83 3f
       -0.9506248 1.3036934 0.64828086 1.0241104
000020 b7 b2 80 c0 2b 95 69 c0 82 f9 09 40 27 00 e9 3f
       -4.021816 -3.6497295 2.1558537 1.8203171
000030 4e b7 93 be 56 9c 1d be ed 09 06 40 bc 7c f2 3d
       -0.28850788 -0.15391669 2.0943558 0.118401974

decoder.de_convs.1.point_bn1.running_var f4 [16]
000000 e4 dc 00 40 93 03 8d 3f 49 a4 08 40 a2 56 b8 3f
       2.013482 1.1016716 2.1350272 1.4401438
000010 d1 5a 95 3f fd 82 8a 3f f4 5f ef 3f 13 81 7b 40
       1.166834 1.0821224 1.8701158 3.929753
000020 84 eb e7 3f 69 79 06 40 af 47 ad 3f ed d5 cb 3f
       1.8118749 2.1011603 1.3537501 1.592466
000030 e4 95 1b 40 b8 f9 a4 3f 16 6e 71 3f f9 e5 96 40
       2.4310236 1.2888708 0.943086 4.715573

decoder.de_convs.1.point_conv2.weight f4 [16, 8, 1, 1]
000000 58 2a 39 be 8d a7 d3 bc 98 2f c0 be 2e 9e 8f 3e
       -0.18082559 -0.02583673 -0.3753631 0.2805037
000010 29 ab 8a 3e 0d 13 77 3e c9 fd aa be b6 0b 2c 3f
       0.2708371 0.24128361 -0.33396748 0.6720537
000020 00 52 74 3e c0 58 c3 3e 1b cb 4a 3e 8d 42 99 3e
       0.23859406 0.38153648 0.19804041 0.29933587
000030 68 d1 2e 3e ad 1f 71 be cc 3e 03 3f d2 59 13 3f
       0.1707207 -0.2354724 0.51267695 0.5755893
000040 2a d2 a1 3e 78 d7 12 be e6 da 10 be 29 41 55 bd
       0.31605655 -0.14340007 -0.14146003 -0.052064095
000050 0b 3d 04 3f ce a7 6f bd 37 91 84 3e 28 ed 07 3d
       0.51655644 -0.05850964 0.2589204 0.033185154
000060 88 21 5e 3e f0 c0 9a 3c a0 e1 a8 be 7d f3 d5 3e
       0.21692479 0.018890828 -0.32984638 0.4178733
000070 91 43 bc 3e 42 d2 b3 be 88 c3 59 3e d0 89 78 be
       0.367703 -0.3512135 0.21265996 -0.24271321
000080 bb 8b c2 be d4 1d 88 bc c1 c7 39 be 12 5b 14 3f
       -0.3799723 -0.016615786 -0.18142606 0.5795146
000090 99 26 9b 3d 29 6b 79 be 53 04 89 be 29 a0 6f be
       0.07575721 -0.24357285 -0.26761112 -0.2340094
0000a0 13 8a a7 3e 78 c2 fd 3c 57 2f 05 3e 19 97 f9 be
       0.3272253 0.030976519 0.1300634 -0.4874809
0000b0 5f fa dc 3d 79 0a 82 be 69 05 23 3f 2b 50 16 3f
       0.10789942 -0.25398615 0.6368013 0.58716077
0000c0 00 56 8c be 2e 27 18 3e 2e ff 3e 3e 86 95 3a 3f
       -0.27409363 0.14858696 0.18652031 0.72884405
0000d0 53 62 06 3d 0a 4e 42 3b 24 09 95 3e c1 4a 4a 3f
       0.032808613 0.0029648566 0.29108536 0.79020315
0000e0 41 72 ed be 15 e9 3a be f2 de fb be 68 66 06 bf
       -0.4637623 -0.18252976 -0.4919353 -0.5250001
0000f0 c5 34 0a bd a1 93 cb 3c 9b 8f 8e be 57 38 a2 bd
       -0.03374173 0.024850668 -0.27843937 -0.07920902
000100 75 6d 1a bf d4 cf ac 3f 30 2b 08 bf 91 7f 02 bf
       -0.6032327 1.3500924 -0.531909 -0.509759
000110 7b a8 5b 3d 43 1e ac 3e 53 1f 4b 3e 72 32 dc bd
       0.053627472 0.33616838 0.19836168 -0.10751809
000120 a1 ec 0c be 9d dd 88 3c 98 f7 3b be 19 6c 04 bf
       -0.13762142 0.016707236 -0.18356168 -0.51727444
000130 39 9a 4b be 88 75 b6 3e 15 51 ca bc ad 5d 3e be
       -0.1988305 0.35636544 -0.024696866 -0.18590422
000140 f2 49 3f bf af 1d d0 be 98 a3 79 be cc 66 16 3d
       -0.74722207 -0.40647647 -0.24378812 0.03671913
000150 27 4b c5 bd 08 73 b0 3e 88 fc e2 3e b2 a4 9f bd
       -0.09633475 0.34462762 0.4433329 -0.07795085
000160 b8 d0 49 be 05 fc 9a be 78 ac ed bc 50 54 fa 3e
       -0.19708526 -0.302704 -0.029012904 0.4889245
000170 dd 7f 38 be 00 0e 94 be d5 1d 32 3e 58 3e 2c bf
       -0.18017526 -0.2891693 0.17394193 -0.6728263
000180 56 54 8f 3e bf 2d 9e 3e 87 af 1f bc 9a 6c 1f 3d
       0.2799403 0.30894276 -0.009746439 0.03892193
000190 68 e6 38 bf c7 0f 07 bf 9c 1c b2 3e 81 0d b6 3e
       -0.7222657 -0.5275845 0.34787452 0.35557178
0001a0 ff a0 17 3e f9 4b 4e be 5c fa 5b 3f 81 f4 00 3e
       0.14807509 -0.20146169 0.85928893 0.12593271
0001b0 aa 2c da be 3d f2 a4 be 1f c8 e8 be bc 4b bd bc
       -0.426122 -0.32216063 -0.4546518 -0.023107402
0001c0 79 a0 ba be 62 59 17 3d 49 f3 12 3f 08 0e 43 be
       -0.36450556 0.036950476 0.57402474 -0.19048321
0001d0 06 54 05 3f 9f fd ab 3d dc a0 d0 be f1 f9 50 be
       0.52081335 0.08397984 -0.40747726 -0.20407845
0001e0 f9 4c 15 3e e1 ed 13 be ff 32 84 be 1d be f2 bd
       0.14580144 -0.14446212 -0.25820157 -0.118526675
0001f0 c8 50 1a be 08 87 f3 3e 16 b5 e1 3e 8b b3 af bb
       -0.15069878 0.47563958 0.4408347 -0.0053619794

decoder.de_convs.1.point_conv2.bias f4 [8]
000000 9d 47 01 3e f5 2e b8 3e 5d ad c1 bd f7 17 9f be
       0.12624975 0.35973325 -0.094568945 -0.3107297
000010 d5 d0 08 bf 1c 8e 31 3e b8 9d b7 be d4 10 86 3e
       -0.5344365 0.17339367 -0.35862517 0.26184714

decoder.de_convs.1.point_bn2.weight f4 [8]
000000 57 d0 88 3f cd 1b 9f 3f 94 6a a8 3f 34 eb bc 3f
       1.068858 1.2430359 1.3157525 1.4759278
000010 b1 d2 a7 3f 76 f5 cd 3f 34 28 b0 3f 37 77 5a 3f
       1.3111173 1.6090534 1.3762269 0.8533816

decoder.de_convs.1.point_bn2.bias f4 [8]
000000 12 a4 4f bf cb 22 ed bf 52 2e c9 3f 39 9c f5 be
       -0.81109726 -1.8526243 1.5717261 -0.4797075
000010 31 67 26 3f 4a 2b a6 3e 25 0b 8d 3e 0f 04 95 bf
       0.6500121 0.32454902 0.27547565 -1.1641864

decoder.de_convs.1.point_bn2.running_mean f4 [8]
000000 ac 4e 3c be 25 55 a1 3e ff 83 ad 3d 0f 28 fc 3e
       -0.18389386 0.31510273 0.08472442 0.49249312
000010 90 f0 49 bf 17 3c 14 bf 33 c9 7e 3e aa 9d 78 3f
       -0.78882694 -0.5790419 0.24881439 0.97115576

decoder.de_convs.1.point_bn2.running_var f4 [8]
000000 a3 32 a6 3f 67 38 66 3e a2 94 52 3f 2c 27 9c 3f
       1.2984203 0.22482453 0.82258046 1.2199454
000010 26 45 47 3f b4 66 15 3f 88 dd 2f 3f 29 a4 75 3f
       0.7783989 0.5835984 0.68697405 0.95953614

decoder.de_convs.1.tra.depth_conv.weight f4 [8, 1, 3]
000000 bd 16 d2 3c 89 91 3d be 83 30 22 be a7 ef d3 3c
       0.025645608 -0.18512549 -0.15838818 0.025871111
000010 58 a3 72 3e bf 5e a6 be 87 5b ef 3d 0a e4 88 bd
       0.23695123 -0.3249416 0.11687379 -0.0668412
000020 4f 9e e2 be 3d b2 e5 3e f8 87 e1 3e 03 8f 83 3f
       -0.44261405 0.44862548 0.44049048 1.0278019
000030 77 cf e7 3d 8f 9d 24 3e 41 eb 79 3f 39 76 eb 3d
       0.11318868 0.16075729 0.97624594 0.114971586
000040 6d 11 86 3d 41 c6 71 3f b3 da a4 be db c4 96 be
       0.065462925 0.94443136 -0.32198104 -0.29447064
000050 6e e6 91 bf e7 c8 b7 3e 3d 68 32 bd f3 49 08 bf
       -1.1398447 0.35895464 -0.04355644 -0.5323784

decoder.de_convs.1.tra.depth_conv.bias f4 [8]
000000 70 47 63 3f 4a 99 a8 be 41 11 78 3f 52 cd 20 be
       0.8878088 -0.3292945 0.9690133 -0.15703323
000010 04 d8 28 3f 98 00 fd be a1 6c d2 3e dd 43 32 3f
       0.65954614 -0.49414515 0.41098502 0.696348

decoder.de_convs.1.tra.point_conv.weight f4 [8, 8, 1]
000000 dd 88 88 3c 83 8f d5 3c 1a fa 54 bf 44 40 8a 3e
       0.016666824 0.026069408 -0.83194125 0.27002156
000010 d2 dd 03 bf b5 1c f5 3e 72 8a 1d 3d d9 ad af 3c
       -0.51510346 0.47873464 0.03846211 0.021445202
000020 f5 5a c0 3e 3a ee ba bd c3 36 5e 3d 82 38 8c bf
       0.37569395 -0.09127469 0.054251444 -1.0954745
000030 e5 9f f4 bb 0b 5a 30 be 9b c4 41 bf 1a a7 bb ba
       -0.00746535 -0.17221849 -0.7569062 -0.0014316768
000040 f2 39 00 3e 1c 04 03 3d 7e cb 5e 3d b8 f7 eb bd
       0.12522104 0.03198634 0.054393284 -0.11521858
000050 bf 87 2f 3f 02 79 69 bf cc 4f 55 3e 48 38 78 3e
       0.6856651 -0.9120027 0.20831221 0.2424022
000060 a3 18 3c be 5f 45 23 be 81 d1 91 3e fa c5 39 bd
       -0.18368773 -0.15944432 0.2848015 -0.04535482
000070 0b b7 da 3d 40 df 7d 3d d3 28 c3 3e e8 8d e2 be
       0.10679444 0.061980486 0.38117084 -0.4424889
000080 0e cf eb be 58 a8 a9 3e 7e a3 a4 be 00 4e 90 be
       -0.46056408 0.3313625 -0.32155985 -0.2818451
000090 ad 50 28 3f a0 52 0c bf 5a 5d e4 3e 7f ac 61 be
       0.657481 -0.54813576 0.44602472 -0.22038458
0000a0 42 45 9e be fb 6d 19 bd 66 56 5f 3f 8f ec 5d 3f
       -0.30912215 -0.0374584 0.8724121 0.86689085
0000b0 68 c2 c3 be f9 51 6d 3f 15 37 64 3f fd 4c 81 3e
       -0.38234258 0.92703205 0.8914655 0.2525405
0000c0 61 09 60 bf 60 91 2c bf 9a 5d 0d bc db bb 8c bd
       -0.8751431 -0.67409325 -0.008628273 -0.06871768
0000d0 90 ef 9b be 63 4b a1 3e 13 52 85 3e d9 99 a1 3e
       -0.3045621 0.31502828 0.2603918 0.3156269
0000e0 e7 64 30 3f 8c 3d 0d be b8 c6 65 3e a2 76 f7 be
       0.68903965 -0.1379301 0.22439086 -0.48332697
0000f0 ca 63 56 3e 2b 27 46 bf d5 bc dc be 76 78 fe bd
       0.20936504 -0.77403516 -0.43112817 -0.1242532

decoder.de_convs.1.tra.point_conv.bias f4 [8]
000000 25 8c 96 be e7 9a 9f 3e 51 4d 56 3f 5e 48 30 3f
       -0.29403797 0.3117287 0.83711725 0.68860424
000010 e9 47 f1 3e f6 00 05 3e 65 85 09 bf 51 fe ba 3e
       0.47125176 0.12988648 -0.5371917 0.36522153

decoder.de_convs.2.point_conv1.weight f4 [8, 16, 1, 1]
000000 01 cd 83 bd b2 bb fd 3e 0f 83 41 bb 56 b9 47 be
       -0.06435586 0.49557263 -0.002952758 -0.19504294
000010 04 d2 67 3d 68 19 2d 3d 71 83 70 3f 0d ba 28 3e
       0.05659677 0.042260557 0.93950564 0.16477223
000020 af 5d 10 bf 08 bf 50 be df c5 c4 3e eb b1 13 bf
       -0.5639295 -0.20385373 0.38432214 -0.57693356
000030 a4 ef a6 3f 0c ba df be 42 bc e8 3e b7 dc 0a bf
       1.3041883 -0.4369663 0.4545613 -0.54243034
000040 c1 1f 02 3e 5e a4 05 be 3e 69 dc 3e b1 81 b6 be
       0.12707426 -0.13050982 0.43049043 -0.35645822
000050 11 13 82 bd 95 85 8a 3e 0d 02 1a 3c 8d f5 3a be
       -0.06351293 0.2705504 0.009399903 -0.18257733
000060 d5 7a 6c bd e2 35 6c 3d a1 3a 9c bc 16 5c 0b 3e
       -0.05773433 0.057668574 -0.019070925 0.13609347
000070 a1 a8 9f bc 5b 40 54 be 1e bb 39 bf 32 8a 4e 3e
       -0.019489588 -0.20727675 -0.72551143 0.20169905
000080 09 ed c9 3e e4 7a d9 be 90 f6 dd 3e c9 91 69 3e
       0.39438656 -0.4247657 0.43352175 0.22809519
000090 10 79 1b 3f b3 43 3d bf 50 21 10 bf d7 fc aa 3f
       0.607316 -0.73931426 -0.5630083 1.3358411
0000a0 62 22 30 3e e8 6b 2c be f8 e3 6c bd ec 95 38 bd
       0.17200616 -0.16838038 -0.057834595 -0.04506485
0000b0 79 03 b5 3e 84 77 11 3f bb 4f a2 be 92 e3 0f 3f
       0.35354212 0.5682299 -0.31701455 0.5620662
0000c0 76 ef 9b be 6f fe 6d 3e 89 e5 00 be cb f6 36 bd
       -0.30456132 0.2324159 -0.1258756 -0.044668954
0000d0 a3 f3 f5 3d 44 5a a0 3d 6a 01 95 bd c1 6c 49 3d
       0.12009361 0.07829717 -0.0727566 0.04917598
0000e0 c0 69 ea 3d a0 04 11 3e 87 b6 62 3e a5 c5 40 3e
       0.114459515 0.1416192 0.22139941 0.18825395
0000f0 0c 74 85 be 50 5c 04 3d b2 dd 87 bd 06 d8 7c bd
       -0.260651 0.0323146 -0.06634082 -0.061729454
000100 14 16 e5 3d fd 1a d4 be 62 4f a5 be 65 4d 8d 3e
       0.11185852 -0.4142684 -0.32287127 0.2759811
000110 23 fd 19 be 5f ff c4 3e 9d a0 b1 3e 0b 1e c0 be
       -0.1503797 0.38476083 0.3469285 -0.3752292
000120 b8 8a 4c bd 26 5d 35 bf ef 80 1f 3f 45 58 1d bf
       -0.04993698 -0.7084526 0.6230611 -0.61462814
000130 55 a5 a6 be b7 66 ab 3e 3d 1a bb 3e 2a 22 19 bf
       -0.32548013 0.33476803 0.36543456 -0.59817755
000140 14 3a 24 be ef 11 a5 be fa 88 b4 3e ca 8d 62 bf
       -0.1603778 -0.32240245 0.35260755 -0.884976
000150 69 be 57 bf 4c 11 e1 3c 17 b6 01 be 57 e5 80 bd
       -0.8427492 0.027474068 -0.12667118 -0.06293743
000160 72 b6 27 3e 32 3e 02 3e 99 d8 ce 3d 73 1e 89 3e
       0.16378191 0.12719038 0.100999065 0.26781043
000170 5c 2f 71 bd 20 e4 f8 3e c0 54 a8 be c1 33 41 3d
       -0.058883056 0.48611546 -0.3287716 0.047168497
000180 80 f7 da bd 01 26 3f 3e da fb b9 be c7 e0 3e be
       -0.10691738 0.18666841 -0.3632496 -0.18640433
000190 9c 57 54 3e 97 84 7b be a8 6b 16 3d e5 b6 a5 3d
       0.20736545 -0.24562298 0.036723763 0.08091525
0001a0 96 8b d1 3e c4 18 f0 be 4b 08 1b bd 12 ae 12 bc
       0.40926808 -0.46893895 -0.037849706 -0.008952634
0001b0 91 1b 56 be 52 40 df be 92 97 08 3e db 6d 1a be
       -0.20908953 -0.4360376 0.1333907 -0.15080969
0001c0 b3 80 16 bf bc 99 8e 3e 43 fa 95 3e b3 44 2d 3e
       -0.5879013 0.27851665 0.29292497 0.16920738
0001d0 a5 9c ab be c3 28 e2 ba 07 82 61 3d 7b 2d 30 bd
       -0.33517948 -0.001725458 0.055055644 -0.043012124
0001e0 02 8f 9a be c5 25 d6 be cc be 1b bf e2 4a 8a 3e
       -0.3018723 -0.4182569 -0.6083801 0.27010256
0001f0 fb 10 98 bd 8d d7 6f bd c7 99 91 3d 41 fa 19 3e
       -0.07425114 -0.058555175 0.07109409 0.1503687

decoder.de_convs.2.point_conv1.bias f4 [16]
000000 b9 26 37 3e 75 9f 68 3d ea 80 44 be ab cc 29 3e
       0.17885865 0.056792695 -0.19189802 0.16581981
000010 1b c9 95 3e bf 78 55 3e 59 6c 34 be 01 a5 1c be
       0.29254994 0.20846842 -0.17619456 -0.15297319
000020 28 94 25 3e 4a 0a 15 be 15 a5 98 3d 77 0b 49 bd
       0.16169798 -0.14554706 0.07453362 -0.0490832
000030 0b c6 a2 bd 73 37 b7 bd b3 31 c0 bc c6 9a 2b 3e
       -0.0794793 -0.08946123 -0.023461198 0.1675826

decoder.de_convs.2.point_bn1.weight f4 [16]
000000 ba b0 69 3f 08 e6 0d 3f 5e 8d 4a 3f 0c f0 2b 3f
       0.9128529 0.55429125 0.7912196 0.6716316
000010 3a d1 5a 3f f2 81 5c 3f 1a 26 b5 3f f2 a8 d5 3f
       0.85475504 0.8613578 1.4152253 1.6692183
000020 10 3b 89 3f 1c 5e 57 3f f4 dc 64 3f 37 ae 7d 3f
       1.072115 0.84127975 0.8939965 0.99093956
000030 b4 44 5a 3f 44 88 65 3f 6c 0a 85 3f 75 32 85 3f
       0.8526108 0.8966105 1.0393806 1.0406023

decoder.de_convs.2.point_bn1.bias f4 [16]
000000 e5 5d 14 3f d6 54 ac 3f ce 51 18 bc 72 d0 c9 bc
       0.5795577 1.346339 -0.0092968475 -0.024635527
000010 55 6c 90 3e 58 38 9b 3d 75 2d 0a 3f 53 29 66 bf
       0.2820765 0.07579106 0.5397561 -0.89906806
000020 ed 9d ff 3d 5c 88 6b 3e 12 6c 2c 3f 3c 7e 8c be
       0.12481294 0.23001236 0.673524 -0.2744006
000030 e2 04 f4 be 90 74 0a bf d4 dd f5 bc c4 69 92 3e
       -0.47659975 -0.5408411 -0.030013002 0.28596318

decoder.de_convs.2.point_bn1.running_mean f4 [16]
000000 d0 32 0b c0 3d ed bf 3f 7f 1d 74 bf d1 d0 a7 be
       -2.1749763 1.4994274 -0.9535751 -0.32776502
000010 f6 97 b7 3e 62 a1 11 3f 71 ce b6 be e7 9c 33 3e
       0.35858124 0.56886876 -0.35704377 0.17540322
000020 92 50 43 3f 27 e4 35 3d c6 73 aa 3f eb fd 80 3f
       0.76294816 0.044407036 1.3316581 1.007749
000030 e6 37 c9 bf cd 31 c8 3e 85 ba 7d 3d 60 f4 01 bf
       -1.5720184 0.39100495 0.061945457 -0.5076351

decoder.de_convs.2.point_bn1.running_var f4 [16]
000000 ac 37 86 3f a7 7c 2f 3f 3a 58 e3 3f a4 c3 27 3f
       1.048574 0.6854958 1.77613 0.655329
000010 12 84 a1 3f cd 55 2d 3f 74 61 ad 3f 2c a4 d6 3f
       1.261843 0.67709047 1.3545365 1.6768851
000020 42 69 63 3f c3 cc 79 3f 63 60 01 40 a5 8f 92 3f
       0.88832486 0.97578067 2.021508 1.1450087
000030 91 d9 bc 3f 83 43 83 3f 8e 89 71 3f 1a 51 b9 3f
       1.4753896 1.0254978 0.94350517 1.4477875

decoder.de_convs.2.point_conv2.weight f4 [16, 8, 1, 1]
000000 99 e5 ef bd 59 26 45 bc ab 70 16 3f 52 5f 10 3f
       -0.11713714 -0.012033069 0.5876567 0.5639545
000010 07 83 ba 3d 09 e9 58 3e 8d cf 8f bd cb 58 35 be
       0.09107023 0.21182646 -0.07022009 -0.17709653
000020 4a 0b 17 3e 71 24 2e bf 51 8c 52 3f 26 12 e4 bd
       0.147504 -0.68024355 0.82245356 -0.11136274
000030 6b a9 ef be 2c 35 00 be 0e b1 0a 3e a2 d0 d6 bc
       -0.46808943 -0.12520283 0.13544104 -0.02622253
000040 d2 6f 13 bf 84 2d 36 3f e6 e2 ff 3e db 68 a9 be
       -0.575925 0.711632 0.49977797 -0.3308781
000050 91 0e 00 3e dd 67 a3 bd 06 95 1d bf b4 a5 7d 3e
       0.12505557 -0.07978795 -0.61555517 0.24770242
000060 83 2b 1c 3f 81 2f 0e 3e fa 0d 83 3d 14 92 de 3e
       0.61003894 0.13885309 0.0639915 0.43470824
000070 f4 a0 f4 3e 64 f1 4f bf 5f e7 ad be 0b 90 29 3d
       0.47779047 -0.8122771 -0.33965585 0.041397136
000080 40 02 82 3e 84 1b 34 be b5 a4 4c 3e 68 c2 45 3e
       0.25392342 -0.17588621 0.19984706 0.19312441
000090 49 2e 34 3e d8 35 19 bf fe fa 04 bf 76 96 d2 3e
       0.17595781 -0.59847784 -0.51945484 0.41130418
0000a0 7e 23 34 3e 95 90 1a 3e a2 2c 44 3e e4 c6 a8 be
       0.17591664 0.15094216 0.19157651 -0.32964242
0000b0 a4 10 d8 3e 65 4f 6b bf b1 78 bc 3e 4a e5 9e 3d
       0.42200196 -0.9191802 0.3681083 0.07758577
0000c0 88 f7 34 3e 51 f4 bd bc bf 34 67 be bd 68 0c bd
       0.1767255 -0.023187788 -0.22578715 -0.034279574
0000d0 bf ba d9 3e c6 96 11 bf 87 78 9d 3e 76 5e 95 be
       0.42525288 -0.56870687 0.30756018 -0.2917363
0000e0 19 f2 af 3e b2 52 b3 3e f0 1a 97 3e 06 02 17 3e
       0.34364393 0.3502403 0.2951274 0.14746866
0000f0 69 4c 1f bf 57 13 c0 3e cb 9e e2 3d 20 ef 3a 3f
       -0.6222597 0.37514755 0.110654436 0.73021126
000100 02 c8 5c 3e 65 bc c3 be 43 14 0f 3f f7 fa 9b bc
       0.21560672 -0.3822967 0.5589029 -0.019040568
000110 c7 c9 90 be 64 44 65 3e 74 e7 d1 bb f0 a3 96 3e
       -0.28278944 0.2238937 -0.006405765 0.2942195
000120 18 d6 cf 3d 94 55 2d 3e 91 07 1b 3e 76 77 76 be
       0.10148257 0.16927177 0.15139605 -0.24069008
000130 b0 55 b7 be 6b 44 a1 3e 4d 31 7f 3a d4 0a 84 3e
       -0.35807562 0.3149751 0.00097348244 0.2578951
000140 b1 a9 45 3e 0f a1 a1 3e 21 dc 93 be 61 1b f6 be
       0.19303013 0.3156819 -0.28878883 -0.48067763
000150 28 fd 03 be b4 30 ae be c4 64 50 3e cf d3 4f bf
       -0.1288954 -0.34021533 0.20350939 -0.8118257
000160 6a 93 98 3e f4 c2 de 3d 7e a1 41 bf cf 54 0f 3f
       0.29799968 0.10877028 -0.7563704 0.5598878
000170 08 b9 a2 3e da 00 51 be 12 54 03 bf 56 2c a6 3c
       0.31781793 -0.20410481 -0.51300156 0.020284813
000180 52 73 62 bd 68 79 25 3f 33 73 5d 3f b7 ab d0 3e
       -0.05528576 0.64638376 0.86503905 0.40756008
000190 3f 37 8b be c2 b8 a2 3e fa 07 a4 be f8 9e 09 3e
       -0.27190587 0.31781584 -0.32037336 0.13439548
0001a0 b4 7d 7e 3d d1 f9 05 bf 1e 81 e8 bd 71 cd 0c 3e
       0.0621316 -0.52334315 -0.11352752 0.13750245
0001b0 0d fb a0 be ad 1f 0f bf 08 fe 19 bf 89 0a 21 3e
       -0.31441537 -0.5590771 -0.60153246 0.15726675
0001c0 29 58 50 3c 3b 7e a2 be 14 48 2b 3d f1 01 39 bf
       0.0127163315 -0.3173693 0.041816786 -0.7226859
0001d0 bd 3c 38 3e d4 95 c8 bd 6b d5 ba be 26 ef 7a 3e
       0.1799192 -0.097942024 -0.3649095 0.2450529
0001e0 9c 3d 1f 3f 99 96 af 3d 3c f9 2c be 71 b0 20 3e
       0.62203383 0.08573646 -0.1689195 0.15692307
0001f0 6e be ae be b0 9b 87 3f 8a 4a b0 be 25 8a 45 3d
       -0.3412966 1.0594387 -0.3443187 0.048227448

decoder.de_convs.2.point_conv2.bias f4 [8]
000000 e6 de 1a 3e 19 47 9d 3d 64 5c 10 3d a7 f9 38 be
       0.15124092 0.076795764 0.03524436 -0.18063985
000010 12 4d 0d 3f 43 7c 08 3e e0 fb 6a 3e 91 dc 03 bd
       0.55195725 0.13328652 0.22947645 -0.03219277

decoder.de_convs.2.point_bn2.weight f4 [8]
000000 33 0b 1c 40 8f 0a 9e 3f f2 3b 7d 3f a3 9a a7 3f
       2.4381835 1.2346972 0.98919594 1.3094066
000010 a1 97 e3 3f 81 2e 49 40 a0 6e bb 3f 2a ff f9 3f
       1.7780648 3.1434634 1.4643135 1.9530995

decoder.de_convs.2.point_bn2.bias f4 [8]
000000 b6 eb b5 3f 57 31 02 c0 9f d2 9e bf 4a 71 89 bf
       1.4212558 -2.0342615 -1.2408026 -1.0737698
000010 36 eb 07 bf eb 2d c9 3e 56 63 3e 3f 27 df 70 3d
       -0.5309328 0.39292845 0.74370325 0.058806565

decoder.de_convs.2.point_bn2.running_mean f4 [8]
000000 8b 75 b3 3f 63 d6 81 3d 74 f3 5f 3f 34 b3 82 3c
       1.4020246 0.06339719 0.87480855 0.015954591
000010 71 3f be 3d e4 43 51 bf 69 4b 90 bf 93 86 1c 3f
       0.09289444 -0.8174422 -1.1273013 0.61142844

decoder.de_convs.2.point_bn2.running_var f4 [8]
000000 36 b3 0e 3f 88 95 9a 3f f8 f5 9d 3f 65 b5 da 3e
       0.55742204 1.2076883 1.2340689 0.42716518
000010 c7 8e 05 3f 70 56 34 40 c1 57 8a 3f ba eb 38 3f
       0.52170986 2.8177757 1.080803 0.7223469

decoder.de_convs.2.tra.depth_conv.weight f4 [8, 1, 3]
000000 a0 0d ff bb 2e 85 5e be 99 55 ce bc 28 eb e5 3e
       -0.0077836066 -0.21730492 -0.0251873 0.44905972
000010 b3 7c 5a 3e 41 55 ca bc fc c7 22 bf 3e 3a 63 bf
       0.21336631 -0.024698855 -0.635864 -0.88760746
000020 19 33 bd bb 80 27 fb 3e ea 1d ed 3d 16 bb 1b 3f
       -0.0057739136 0.49053574 0.11577971 0.60832345
000030 c6 99 10 bf d9 6c 00 bf 45 76 9c bf 0d f6 a7 bd
       -0.5648464 -0.5016609 -1.2223593 -0.08201227
000040 87 64 a8 bc 01 5b b7 bd 75 75 27 bf 7f 3e 19 bf
       -0.020555748 -0.089529045 -0.654136 -0.59860986
000050 9d c1 43 be 48 bf c2 3e a0 42 e1 bd 28 1f 08 3f
       -0.19116826 0.3803656 -0.10999036 0.5317254

decoder.de_convs.2.tra.depth_conv.bias f4 [8]
000000 ce 8f cf 3e b1 68 2e 3f 0e e6 97 bf bc 33 ef 3e
       0.40539402 0.68128496 -1.1867082 0.46719158
000010 0f 61 49 3f 2b 98 46 bf 7e 5d cb be a9 4d 82 bf
       0.78663725 -0.7757594 -0.39719766 -1.017995

decoder.de_convs.2.tra.point_conv.weight f4 [8, 8, 1]
000000 5c d1 b0 3d 50 b4 78 be 66 48 1e 3f e3 11 a7 be
       0.08633682 -0.24287534 0.6182922 -0.32630834
000010 10 2d dc be 76 7c 4e 3d e8 c8 14 3e a3 9d 1a 3e
       -0.4300313 0.050411664 0.14529765 0.15099196
000020 9d 0f 3e bc f8 dc 26 3f 56 8c 74 3f 81 00 33 3e
       -0.011600402 0.6518092 0.95526636 0.17480661
000030 32 df 98 be 3b 97 22 3f 34 fc 77 3d fd de d6 3d
       -0.29857785 0.6351201 0.060543254 0.104917504
000040 b7 75 33 3e aa 96 c7 3e 20 77 13 3f ce 30 4b 3f
       0.17525373 0.38982135 0.57603645 0.79371345
000050 1e cb 58 be 9b b2 ff 3e d3 26 8e be 68 c3 4a be
       -0.21171233 0.49940953 -0.27763996 -0.19801104
000060 fd 2e ad be fa 71 49 3e dd 5f 00 be ab b2 ec 3d
       -0.33824912 0.19672385 -0.12536569 0.11557516
000070 1f f5 07 be 98 8a cb 3d 6b b0 66 be 84 dd db bf
       -0.132771 0.09938544 -0.22528236 -1.7176976
000080 86 7f f9 3d 32 07 1b 3e de 0f 7e 3d a0 01 97 be
       0.12182526 0.15139464 0.06202685 -0.29493427
000090 b0 ab 53 be 8b 36 a7 3d 40 ca 47 be b3 df db bd
       -0.20670962 0.081647 -0.19510746 -0.107360266
0000a0 29 09 76 be 04 cc cd be 90 d4 82 3f e2 dd 35 bf
       -0.24026932 -0.40194714 1.0221119 -0.7104169
0000b0 9b fa 25 bf 8d 27 2a 3d 61 91 d6 3e 3d 12 80 3e
       -0.6483552 0.041541625 0.4190779 0.25013915
0000c0 9d 80 c4 3e a4 27 ce 3e e2 89 23 3f a4 58 8c 3e
       0.38379374 0.40264618 0.6388227 0.27411377
0000d0 8c 7e 21 bf a9 44 3c 3f 10 9c 9b bf 39 1f 8e be
       -0.6308372 0.7354227 -1.2157001 -0.27758196
0000e0 cb d0 8f 3e cf 5f f7 3d 96 73 ed bc 38 a5 80 be
       0.28088984 0.12078821 -0.02898578 -0.25126052
0000f0 22 2a f6 3d d5 91 82 be 0a cb 10 be 63 bd c7 3f
       0.12019755 -0.25501886 -0.14139953 1.5604671

decoder.de_convs.2.tra.point_conv.bias f4 [8]
000000 dc f5 80 bf b8 94 dd 3d 5c e6 1a bf 56 e6 84 bd
       -1.007503 0.108193815 -0.6050775 -0.064892456
000010 17 25 02 3f 67 2e c5 be dd 39 71 bb 3a 8c 00 3e
       0.50837845 -0.38511965 -0.003680817 0.12553492
