gtcrn_micro/streaming/onnx/gtcrn_micro_stream_simple.onnx (onnx, 355631 bytes, 151 tensors)

onnx::MatMul_2001 f4 [192, 64]
0	0x3f800000	1.0
1	0x2b8cbccc	1e-12
2	0x00000000	0.0
3	0x00000000	0.0
4	0x00000000	0.0
5	0x00000000	0.0
6	0x00000000	0.0
7	0x00000000	0.0
8	0x00000000	0.0
9	0x00000000	0.0
10	0x00000000	0.0
11	0x00000000	0.0
12	0x00000000	0.0
13	0x00000000	0.0
14	0x00000000	0.0
15	0x00000000	0.0
16	0x00000000	0.0
17	0x00000000	0.0
18	0x00000000	0.0
19	0x00000000	0.0
20	0x00000000	0.0
21	0x00000000	0.0
22	0x00000000	0.0
23	0x00000000	0.0
24	0x00000000	0.0
25	0x00000000	0.0
26	0x00000000	0.0
27	0x00000000	0.0
28	0x00000000	0.0
29	0x00000000	0.0
30	0x00000000	0.0
31	0x00000000	0.0
32	0x00000000	0.0
33	0x00000000	0.0
34	0x00000000	0.0
35	0x00000000	0.0
36	0x00000000	0.0
37	0x00000000	0.0
38	0x00000000	0.0
39	0x00000000	0.0
40	0x00000000	0.0
41	0x00000000	0.0
42	0x00000000	0.0
43	0x00000000	0.0
44	0x00000000	0.0
45	0x00000000	0.0
46	0x00000000	0.0
47	0x00000000	0.0
48	0x00000000	0.0
49	0x00000000	0.0
50	0x00000000	0.0
51	0x00000000	0.0
52	0x00000000	0.0
53	0x00000000	0.0
54	0x00000000	0.0
55	0x00000000	0.0
56	0x00000000	0.0
57	0x00000000	0.0
58	0x00000000	0.0
59	0x00000000	0.0
60	0x00000000	0.0
61	0x00000000	0.0
62	0x00000000	0.0
63	0x00000000	0.0
64	0x00000000	0.0
65	0x3f800000	1.0
66	0x2b0cbccc	5e-13
67	0x00000000	0.0
68	0x00000000	0.0
69	0x00000000	0.0
70	0x00000000	0.0
71	0x00000000	0.0
72	0x00000000	0.0
73	0x00000000	0.0
74	0x00000000	0.0
75	0x00000000	0.0
76	0x00000000	0.0
77	0x00000000	0.0
78	0x00000000	0.0
79	0x00000000	0.0
80	0x00000000	0.0
81	0x00000000	0.0
82	0x00000000	0.0
83	0x00000000	0.0
84	0x00000000	0.0
85	0x00000000	0.0
86	0x00000000	0.0
87	0x00000000	0.0
88	0x00000000	0.0
89	0x00000000	0.0
90	0x00000000	0.0
91	0x00000000	0.0
92	0x00000000	0.0
93	0x00000000	0.0
94	0x00000000	0.0
95	0x00000000	0.0
96	0x00000000	0.0
97	0x00000000	0.0
98	0x00000000	0.0
99	0x00000000	0.0
100	0x00000000	0.0
101	0x00000000	0.0
102	0x00000000	0.0
103	0x00000000	0.0
104	0x00000000	0.0
105	0x00000000	0.0
106	0x00000000	0.0
107	0x00000000	0.0
108	0x00000000	0.0
109	0x00000000	0.0
110	0x00000000	0.0
111	0x00000000	0.0
112	0x00000000	0.0
113	0x00000000	0.0
114	0x00000000	0.0
115	0x00000000	0.0
116	0x00000000	0.0
117	0x00000000	0.0
118	0x00000000	0.0
119	0x00000000	0.0
120	0x00000000	0.0
121	0x00000000	0.0
122	0x00000000	0.0
123	0x00000000	0.0
124	0x00000000	0.0
125	0x00000000	0.0
126	0x00000000	0.0
127	0x00000000	0.0
128	0x00000000	0.0
129	0x3f000000	0.5
130	0x3f000000	0.5
131	0x00000000	0.0
132	0x00000000	0.0
133	0x00000000	0.0
134	0x00000000	0.0
135	0x00000000	0.0
136	0x00000000	0.0
137	0x00000000	0.0
138	0x00000000	0.0
139	0x00000000	0.0
140	0x00000000	0.0
141	0x00000000	0.0
142	0x00000000	0.0
143	0x00000000	0.0
144	0x00000000	0.0
145	0x00000000	0.0
146	0x00000000	0.0
147	0x00000000	0.0
148	0x00000000	0.0
149	0x00000000	0.0
150	0x00000000	0.0
151	0x00000000	0.0
152	0x00000000	0.0
153	0x00000000	0.0
154	0x00000000	0.0
155	0x00000000	0.0
156	0x00000000	0.0
157	0x00000000	0.0
158	0x00000000	0.0
159	0x00000000	0.0
160	0x00000000	0.0
161	0x00000000	0.0
162	0x00000000	0.0
163	0x00000000	0.0
164	0x00000000	0.0
165	0x00000000	0.0
166	0x00000000	0.0
167	0x00000000	0.0
168	0x00000000	0.0
169	0x00000000	0.0
170	0x00000000	0.0
171	0x00000000	0.0
172	0x00000000	0.0
173	0x00000000	0.0
174	0x00000000	0.0
175	0x00000000	0.0
176	0x00000000	0.0
177	0x00000000	0.0
178	0x00000000	0.0
179	0x00000000	0.0
180	0x00000000	0.0
181	0x00000000	0.0
182	0x00000000	0.0
183	0x00000000	0.0
184	0x00000000	0.0
185	0x00000000	0.0
186	0x00000000	0.0
187	0x00000000	0.0
188	0x00000000	0.0
189	0x00000000	0.0
190	0x00000000	0.0
191	0x00000000	0.0
192	0x00000000	0.0
193	0x00000000	0.0
194	0x3f800000	1.0
195	0x2b0cbccc	5e-13
196	0x00000000	0.0
197	0x00000000	0.0
198	0x00000000	0.0
199	0x00000000	0.0
200	0x00000000	0.0
201	0x00000000	0.0
202	0x00000000	0.0
203	0x00000000	0.0
204	0x00000000	0.0
205	0x00000000	0.0
206	0x00000000	0.0
207	0x00000000	0.0
208	0x00000000	0.0
209	0x00000000	0.0
210	0x00000000	0.0
211	0x00000000	0.0
212	0x00000000	0.0
213	0x00000000	0.0
214	0x00000000	0.0
215	0x00000000	0.0
216	0x00000000	0.0
217	0x00000000	0.0
218	0x00000000	0.0
219	0x00000000	0.0
220	0x00000000	0.0
221	0x00000000	0.0
222	0x00000000	0.0
223	0x00000000	0.0
224	0x00000000	0.0
225	0x00000000	0.0
226	0x00000000	0.0
227	0x00000000	0.0
228	0x00000000	0.0
229	0x00000000	0.0
230	0x00000000	0.0
231	0x00000000	0.0
232	0x00000000	0.0
233	0x00000000	0.0
234	0x00000000	0.0
235	0x00000000	0.0
236	0x00000000	0.0
237	0x00000000	0.0
238	0x00000000	0.0
239	0x00000000	0.0
240	0x00000000	0.0
241	0x00000000	0.0
242	0x00000000	0.0
243	0x00000000	0.0
244	0x00000000	0.0
245	0x00000000	0.0
246	0x00000000	0.0
247	0x00000000	0.0
248	0x00000000	0.0
249	0x00000000	0.0
250	0x00000000	0.0
251	0x00000000	0.0
252	0x00000000	0.0
253	0x00000000	0.0
254	0x00000000	0.0
255	0x00000000	0.0

sfe.depth_conv.weight f4 [3, 1, 1, 3]
0	0xbfba7c15	-1.4569117
1	0xbded24c7	-0.1157928
2	0x3d553db2	0.05206079
3	0x3d8dd0bb	0.06924578
4	0xbe349476	-0.17634758
5	0xbe85a62a	-0.26103336
6	0x3d55c9c1	0.05219436
7	0x3eaf8291	0.34279302
8	0x3e8282cd	0.25490418

onnx::Conv_1880 f4 [16, 3, 1, 5]
0	0x3d90e759	0.07075376
1	0x3e734cd7	0.23759781
2	0x3b5f5570	0.0034078024
3	0x39027c7e	0.00012444143
4	0x3c033e8c	0.008010518
5	0x3c10f197	0.008846662
6	0x3bbddd6c	0.005794218
7	0xbc489673	-0.012242901
8	0x3c4ca61b	0.0124907745
9	0xbba4a48e	-0.0050244993
10	0xbc6fe227	-0.014641321
11	0xbc1e83e6	-0.009675002
12	0xbc359ce7	-0.011084772
13	0x3bd8205b	0.006595654
14	0xbc1a3476	-0.009411922
15	0x3b434205	0.002979399
16	0x3b1eef58	0.0024251547
17	0xbd7b81e7	-0.06140318
18	0x3a81aa3a	0.000989265
19	0x3a967cb0	0.0011481252
20	0xbb23d13e	-0.0024996544
21	0xbc0c035f	-0.008545726
22	0xbb5ba9c6	-0.003351794
23	0xbb85a9a1	-0.004079059
24	0xbbdb1f44	-0.0066870768
25	0xbbdddae9	-0.006770481
26	0xbc84bc4f	-0.016203074
27	0x3ab7ca48	0.0014022077
28	0xbcb9c4b8	-0.02267681
29	0x3b809c7d	0.003924905
30	0xba9494e5	-0.0011335878
31	0x3b97f49a	0.004637313
32	0xbcce9e77	-0.025222046
33	0xbda07601	-0.078350075
34	0xbd627e2e	-0.055296116
35	0x3c8650c7	0.01639594
36	0xbb87302d	-0.004125616
37	0x3be272c0	0.006910652
38	0xbbb22f64	-0.0054377783
39	0x3bb632cb	0.005560254
40	0xb9bb0f57	-0.00035678849
41	0xbc425025	-0.011859928
42	0x3c06ec95	0.0082351165
43	0xbc301f9f	-0.010749727
44	0x3c434524	0.01191834
45	0xba583bc5	-0.00082486524
46	0xba41fb80	-0.0007399842
47	0x3a358665	0.00069246284
48	0x3b57ce52	0.0032929373
49	0x3b9f0e64	0.0048540104
50	0x3eb8ba87	0.3607981
51	0x3e1c60c4	0.15271288
52	0xbe2fe6ec	-0.17177933
53	0x3ef778fb	0.48334488
54	0x3de2ae36	0.11068384
55	0x3e87dda4	0.26536286
56	0xbe7df3d2	-0.24800041
57	0x3d26ab9a	0.040690996
58	0x3ec9670e	0.39336437
59	0xbea36104	-0.31909955
60	0x3cc1c795	0.023654738
61	0xbcd25d6e	-0.025679316
62	0xbde3b227	-0.11117964
63	0xbe198f27	-0.14996015
64	0xbc29a9d5	-0.0103554325
65	0x3c738438	0.014863066
66	0xbcbeb5a6	-0.023279976
67	0x3c94c923	0.018162316
68	0x3c495197	0.012287519
69	0x3b84bccf	0.004050828
70	0x3be30345	0.00692788
71	0xbd1f9055	-0.038956005
72	0x3cdcb3b1	0.026941152
73	0xbc96a6de	-0.018390115
74	0xbb8a70e9	-0.0042248857
75	0x3d086c22	0.03330625
76	0xbd2058aa	-0.039147057
77	0xbe38e650	-0.18056607
78	0xbd64b324	-0.055834904
79	0xbd48e11b	-0.049042802
80	0x3be6f29a	0.0070479633
81	0x3a08590d	0.0005201258
82	0xbbd4ea51	-0.0064976593
83	0x3c2541b1	0.010086463
84	0xbc93b296	-0.018029492
85	0xbab3b08f	-0.0013709235
86	0xbc613174	-0.013744701
87	0xbc43d7a8	-0.011953272
88	0xbc6fdf78	-0.014640681
89	0xbc8cc127	-0.017181946
90	0xbbbbb5ab	-0.0057284436
91	0xb8fd959c	-0.00012091847
92	0xbd316a07	-0.043314006
93	0xbe4e49c2	-0.20145324
94	0xbd16d641	-0.036825422
95	0x3cfc720e	0.030816104
96	0xbc7010e8	-0.014652468
97	0x3c8459c5	0.016156087
98	0x3ba091a8	0.004900176
99	0x3ce02b20	0.027364314
100	0x3c87cd90	0.016577512
101	0xbcd0963d	-0.025462264
102	0x3c88d251	0.01670185
103	0xbc1bfa21	-0.009520085
104	0x3c78f628	0.015195407
105	0xbcc0face	-0.023557093
106	0x3cb4644e	0.022020485
107	0x3ecda24e	0.4016289
108	0xbc94eb0a	-0.018178482
109	0xbaf7dc35	-0.0018910231
110	0xbcc78b9c	-0.024358563
111	0xbc8efe26	-0.017455172
112	0x3abc39e8	0.0014360519
113	0x3adea665	0.0016986845
114	0x3c45ae20	0.01206544
115	0xbb283ff0	-0.0025672875
116	0x3bdda5a7	0.006764132
117	0x3c101d3f	0.008796035
118	0x3bb1e823	0.005429284
119	0xba11d899	-0.00055635866
120	0xbbf4f3ab	-0.0074753365
121	0x3d279986	0.040917896
122	0x3e13baf3	0.14426784
123	0xbdb2063e	-0.08692597
124	0x3e063017	0.13104282
125	0xbd1e8c84	-0.038708225
126	0xbbe2d212	-0.006922015
127	0xbd320fa5	-0.04347195
128	0xbb8c8099	-0.004287791
129	0xbd1e2b83	-0.038615715
130	0x3b89c8c8	0.004204843
131	0x3963b0a0	0.00021714205
132	0xba4e5f7a	-0.00078725035
133	0xbc44b121	-0.012005121
134	0xbc95b3c5	-0.018274197
135	0xb9f7d80a	-0.00047272473
136	0xbca59ecc	-0.020217322
137	0xbd1fcce3	-0.039013755
138	0x3de0e439	0.1098103
139	0xbd12e5b0	-0.03586358
140	0xb993f835	-0.00028222954
141	0xbca3b00e	-0.01998141
142	0xbaf10199	-0.0018387317
143	0xbcd5f987	-0.02611996
144	0x3ca34800	0.019931793
145	0x3c45ad90	0.012065306
146	0x3c89043c	0.016725652
147	0x3d39bb36	0.045344554
148	0x3cea6efd	0.028617376
149	0x3d43a323	0.047763
150	0xb89ea117	-7.5640324e-05
151	0xbbc6a055	-0.0060615935
152	0x3ce03d77	0.027373059
153	0x3dba01ed	0.090823986
154	0x3d97ed63	0.07418325
155	0xbc6b78e0	-0.014372081
156	0x3966b33c	0.0002200128
157	0xbc09e938	-0.00841742
158	0xbabe3a4a	-0.0014513221
159	0xbb96f69d	-0.0046070353
160	0x3b8364f2	0.0040098364
161	0x3c4e03ab	0.012574117
162	0x3ad6bf90	0.0016383994
163	0x3c3c44e4	0.011491034
164	0xbac2d2ca	-0.0014863845
165	0xbce207e0	-0.027591646
166	0x3ce4e524	0.027941294
167	0xbd19edf8	-0.03758046
168	0x3c4e404e	0.012588574
169	0xbcc8acba	-0.024496425
170	0xbc21b1c8	-0.0098690465
171	0x3b855df7	0.0040700394
172	0xbc91a6c6	-0.01777972
173	0x3b8b27d6	0.004246692
174	0x3a2c1579	0.0006564479
175	0xbc1570fd	-0.009121177
176	0x3ba5df60	0.0050620288
177	0xbcad3a91	-0.02114609
178	0x3c8b9129	0.017036991
179	0xbc24f8b8	-0.010069065
180	0xbb956bca	-0.0045599686
181	0xbbdf7128	-0.006818909
182	0x3dfd8f97	0.12380903
183	0x3e9e6712	0.3093801
184	0x3dc3533a	0.095373586
185	0xbc336f86	-0.010951882
186	0x3cb6b1cb	0.022301575
187	0x3bb4bebb	0.005515901
188	0x3c0e14d5	0.008671959
189	0xbc20615c	-0.009788837
190	0xbad8474d	-0.0016500741
191	0x3c5c7a6f	0.013456925
192	0x3b377c94	0.0027997838
193	0x3acc167d	0.0015570667
194	0x3a85ad49	0.0010198738
195	0x38757fa4	5.8531426e-05
196	0xbaf1150c	-0.0018393113
197	0x3d7b250d	0.06131463
198	0x3db8f685	0.09031395
199	0x3eb2d46f	0.349277
200	0x3c1286f0	0.008943304
201	0x3cfd43d7	0.030916138
202	0xbc2ca14a	-0.010536501
203	0x3d412e37	0.047163215
204	0x3cca9555	0.02472941
205	0x3b6805a2	0.0035403748
206	0xbcb65379	-0.0222566
207	0x3b97313b	0.004614023
208	0x3d07184c	0.032982156
209	0xbb8e7db4	-0.004348481
210	0xbc43cf4d	-0.01195128
211	0xbd7d379f	-0.061820623
212	0xbd840993	-0.06447139
213	0x3ab77144	0.0013995548
214	0xba9df97f	-0.0012052505
215	0xbac38b7f	-0.0014918892
216	0x3bafaa35	0.0053608664
217	0xba22801a	-0.0006198898
218	0x3bb68b1d	0.005570783
219	0xbbf4d6c4	-0.007471891
220	0x3b9779c0	0.004622668
221	0xb9cf1eec	-0.00039505155
222	0xbb0c8bf5	-0.0021445726
223	0x3bce3e0b	0.006294017
224	0xbbb29dfa	-0.005450961
225	0xbd80b4a3	-0.06284454
226	0xbdf9dbb0	-0.12200105
227	0x3ea484d6	0.32132596
228	0xbdc68dce	-0.09695016
229	0xbd10b730	-0.03533095
230	0xba85e72f	-0.0010215993
231	0x3ce4b627	0.027918888
232	0x3cc1780b	0.023616811
233	0x3c54c54b	0.012986491
234	0x3c581928	0.0131895915
235	0xbd030ba1	-0.031993512
236	0xbcf7e6f0	-0.030261487
237	0xbd79b479	-0.060963128
238	0xbd1e501d	-0.03865062
239	0xbc8de772	-0.017322276

onnx::Conv_1881 f4 [16]
0	0x3f02089a	0.50794375
1	0xbcff6db8	-0.031180248
2	0xbf3dbab6	-0.74113023
3	0x3a0e9468	0.00054389844
4	0xbc8b0630	-0.016970724
5	0xbe189da4	-0.14903885
6	0xbe31e58a	-0.17372718
7	0x3e0b7595	0.13619073
8	0x3eb05e3c	0.34446895
9	0x3b31a3dc	0.0027105724
10	0x3f6022fa	0.8755337
11	0x3eff1735	0.49822393
12	0x3e9512ac	0.29115808
13	0x3dad1838	0.08451885
14	0xbf26b32b	-0.6511714
15	0x3b47851e	0.0030444334

onnx::Conv_1883 f4 [16, 16, 1, 5]
0	0xbecc0847	-0.39850065
1	0xbd6e74a1	-0.058216695
2	0xbee9e3d3	-0.4568163
3	0x3dcbe113	0.09955039
4	0xbcc6dd86	-0.024275552
5	0x3dd3182f	0.10307347
6	0x3e96439f	0.29348466
7	0x3ddad34e	0.106848344
8	0xbd0ca66f	-0.03433841
9	0x3b15cdee	0.002285834
10	0xbe6120f5	-0.21985228
11	0xbe0489fb	-0.1294326
12	0x3d2012cb	0.039080422
13	0xbcba8fb7	-0.022773607
14	0x3cc3a3a1	0.023881735
15	0x3b822bf9	0.003972527
16	0xbd3e7262	-0.046495803
17	0xbcd83c10	-0.026395828
18	0x3c7b1729	0.015325346
19	0x3d7cd6eb	0.0617284
20	0x3d07bb10	0.03313738
21	0x3dfea8f1	0.12434567
22	0xbdc6d248	-0.09708077
23	0xbd91fbf8	-0.07128137
24	0xbd9482c6	-0.072515056
25	0x3e2c31e1	0.16815902
26	0x3da56dbf	0.08077573
27	0x3d60083b	0.05469535
28	0xbd79f95e	-0.06102883
29	0x3d7a59df	0.061120864
30	0xbd7429a7	-0.059610035
31	0xbd5412c9	-0.051775727
32	0x3c920bd5	0.017827908
33	0x3d8c4ad3	0.06850209
34	0xbd40f1f8	-0.04710576
35	0xbe3baf8e	-0.18328688
36	0xbe0d2912	-0.13785198
37	0x3d9c9e77	0.07647412
38	0x3e1a6e45	0.15081127
39	0xbe4432fa	-0.19160071
40	0xbe682256	-0.22669348
41	0x3e04aa61	0.1295562
42	0xbc902a87	-0.017598404
43	0xbe608fe6	-0.21929893
44	0xbdfc259d	-0.12311862
45	0xbe15d886	-0.14633378
46	0x3d9a47f6	0.07533257
47	0xbe77e612	-0.24208859
48	0x3e64dafc	0.22349161
49	0x3ec42b53	0.38314304
50	0xbe140cfa	-0.14458075
51	0xbd9fc7f3	-0.07801809
52	0x3e9446dd	0.28960314
53	0x3e0df648	0.1386348
54	0xbe01dc8c	-0.12681788
55	0x3f02f86f	0.5116033
56	0x3f29aa3e	0.66275394
57	0x3d4648ec	0.048409387
58	0xbc8b9ae1	-0.017041625
59	0xbd2b0ffd	-0.041763294
60	0xbbdbc02b	-0.006706258
61	0xbe902eb5	-0.28160635
62	0x3eb70ae4	0.35750496
63	0x3e3253f2	0.17414835
64	0x3c7ba381	0.015358807
65	0xbe2c088d	-0.16800137
66	0x3e21547c	0.15754884
67	0x3f1b7140	0.6071968
68	0xbec2bd30	-0.38034964
69	0xbea05bcc	-0.31320035
70	0xbde4f776	-0.11180012
71	0xbdb1a602	-0.086742416
72	0xbda5989d	-0.08085749
73	0x3d70cf6c	0.058791563
74	0x3d50810f	0.05090433
75	0x3e0235bb	0.12715809
76	0xbd89bbe6	-0.06725292
77	0x3d497670	0.049185216
78	0x3e27f7db	0.16403143
79	0x3e2bd0eb	0.16778915
80	0x3df18e15	0.11794678
81	0x3f13a27a	0.57669795
82	0xbf11a649	-0.56894356
83	0xbeeefe29	-0.46678284
84	0x3f07265b	0.527929
85	0xbfb2b20d	-1.3960587
86	0xbe3a15e9	-0.1817242
87	0x3f697607	0.9119572
88	0xbf504428	-0.81354
89	0xbf792c80	-0.97333527
90	0xbf3a5400	-0.72784424
91	0xbf11cd17	-0.5695357
92	0xbde244c3	-0.110482715
93	0xbe3f0db3	-0.1865757
94	0x3ec32000	0.38110352
95	0x3e85b4d2	0.26114517
96	0x3f22f8a9	0.63660675
97	0x3f6cb651	0.9246569
98	0x3f1b42e8	0.60648966
99	0x3ebe0f42	0.37121016
100	0xbeec84e8	-0.4619515
101	0x3e281320	0.16413546
102	0x3e347880	0.17624092
103	0xbf6b2cb6	-0.918651
104	0xbf081e40	-0.5317116
105	0x3ee6e2ba	0.45094854
106	0xbee1e366	-0.44118804
107	0x3ead63da	0.33865243
108	0xbee7accd	-0.45249024
109	0x3e29f321	0.16596653
110	0x3f18ec68	0.5973573
111	0x3e7bca40	0.24588871
112	0x3e2179d6	0.15769133
113	0x3f34735d	0.7048853
114	0x3e001d49	0.12511171
115	0xbebddc9a	-0.37082368
116	0xbf5d8460	-0.86530113
117	0xbe863b6f	-0.2621722
118	0x3e87469c	0.26421058
119	0x3de9b459	0.11411352
120	0x3f30b479	0.6902538
121	0xbdf19927	-0.117967896
122	0xbe80099c	-0.2500733
123	0x3eb1a9cd	0.3469986
124	0x3e5f84cc	0.21828002
125	0xc0244bde	-2.5671306
126	0x3e09c75c	0.13454956
127	0x3f8ade4d	1.0849091
128	0xc0065e8e	-2.0995212
129	0xbf933981	-1.1501924
130	0x3f8e0f68	1.1098452
131	0xbdfd0a0d	-0.12355433
132	0xbf7b6080	-0.9819412
133	0x3f10a787	0.56505626
134	0xbea6dc14	-0.3258978
135	0xbe6600d8	-0.2246126
136	0x3f5b97a3	0.85778254
137	0x3ea0316a	0.312877
138	0xbef2b28f	-0.47401854
139	0xbf63bd96	-0.8896116
140	0x3f69ce5a	0.9133049
141	0xbfb314f0	-1.3990765
142	0xbfa0fa68	-1.2576418
143	0x3f1537b3	0.58288115
144	0xbe4c3523	-0.19942145
145	0xbf282596	-0.6568235
146	0xbf8a9f7f	-1.0829924
147	0xbea301ca	-0.31837302
148	0x3f29e1ca	0.6636015
149	0xbf7eed81	-0.9958115
150	0x3ec0aba8	0.37630963
151	0xbfb2f271	-1.3980237
152	0xbee09a75	-0.4386784
153	0x3f3a9bd1	0.72894007
154	0xbd3fd34c	-0.046832368
155	0xbf61203c	-0.8793981
156	0xbf0884d2	-0.5332767
157	0x3f1aa751	0.60411555
158	0xbf83e85f	-1.0305289
159	0xbfa4af7a	-1.2866051
160	0x3d0e5b1f	0.03475487
161	0xbe9fc96d	-0.31208363
162	0xbde1f64e	-0.11033307
163	0xbf003f43	-0.5009653
164	0xbdc9e967	-0.09858971
165	0xbea178a9	-0.3153737
166	0x3e8a7fce	0.27050632
167	0xbe0e4ee9	-0.1389729
168	0xbe054ed5	-0.13018353
169	0xbdcfc4d9	-0.101449676
170	0xbe93f532	-0.28898007
171	0xbe1285d9	-0.14308871
172	0x3cb15eaf	0.021651594
173	0x3e4ba51f	0.19887207
174	0x3dd8b560	0.105814695
175	0xbb88dc68	-0.004176665
176	0xbda4697d	-0.08027933
177	0xbdecfbb5	-0.11571447
178	0xbd91dbaf	-0.071219794
179	0xbd9a088d	-0.07521162
180	0x3e2be646	0.16787061
181	0x3e40d91e	0.18832824
182	0x3d229ac4	0.039698377
183	0xbd9292ce	-0.07156907
184	0x3987abcc	0.00025877205
185	0xbe45b06f	-0.19305585
186	0x3e6629ed	0.22476931
187	0xbb898bf4	-0.004197592
188	0xbc8bda83	-0.017071968
189	0x3c59ca26	0.013292825
190	0x3d7990f1	0.060929243
191	0xbdd32ba1	-0.10311056
192	0x3d62814b	0.055299085
193	0xbd24b6ae	-0.04021328
194	0xbc3b3c53	-0.011427957
195	0x3f023897	0.508676
196	0x3d81a24e	0.06329785
197	0xbe6335f7	-0.22188555
198	0x3e69d344	0.22834498
199	0xbcda8851	-0.026676329
200	0xbd71c6aa	-0.05902735
201	0xbf1372cf	-0.5759706
202	0xbb944f86	-0.0045260815
203	0xbde8125f	-0.11331629
204	0xbe0a073e	-0.13479325
205	0x3e86efdd	0.26354876
206	0x3e62c59d	0.22145696
207	0x3d26e658	0.040747017
208	0xbe2026c1	-0.15639783
209	0x3e400567	0.18752061
210	0xbdec1001	-0.1152649
211	0x3e59a211	0.2125323
212	0xbe6310e8	-0.22174418
213	0x3d8fbf4b	0.07018908
214	0xbea07161	-0.313365
215	0x3e8f02bc	0.27931774
216	0x3ebdb8bc	0.37055004
217	0xbcbce859	-0.02306001
218	0xbdada8c6	-0.084794566
219	0x3e7028d3	0.23453073
220	0xbf1883fd	-0.595764
221	0x3ebfef1b	0.3748711
222	0x3b0b98f9	0.0021300896
223	0xbd88e9ee	-0.066852435
224	0xbecbcb8c	-0.3980373
225	0xbe4630ff	-0.19354628
226	0xbe96847b	-0.2939795
227	0x3e7c7922	0.24655584
228	0x3ee6205b	0.4494656
229	0xbe3e146c	-0.18562478
230	0x3e42378b	0.189665
231	0x3cfdcfad	0.030982817
232	0xbe82ac4d	-0.2552208
233	0x3d01f2f8	0.031725854
234	0xbd34000d	-0.04394536
235	0xbda65145	-0.0812097
236	0x3daf1c43	0.08550312
237	0xbcd098f7	-0.025463564
238	0x3cd6eb14	0.02623514
239	0x3c87dea0	0.016585648
240	0x3c87ba87	0.016568435
241	0x3e01aa9c	0.12662739
242	0x3e12070d	0.14260502
243	0xbd526277	-0.051363435
244	0x3ee2dc1c	0.44308555
245	0x3df013d4	0.11722532
246	0xbeaba458	-0.33523822
247	0x3e07eb86	0.13273439
248	0xbcff1697	-0.031138701
249	0x3e5111ea	0.2041699
250	0xbcd85e12	-0.026412044
251	0xbf1691c1	-0.5881615
252	0xbe8fde5f	-0.28099343
253	0xbedbe8db	-0.42951092
254	0x3b4febbd	0.0031726204
255	0xbf7dcf2a	-0.9914423

onnx::Conv_1884 f4 [16]
0	0xbcc13fa0	-0.02358991
1	0x3f934538	1.1505499
2	0x3f14ebee	0.581725
3	0xbfa880da	-1.3164322
4	0x3fd71c8b	1.6805586
5	0x3faa6e18	1.3314848
6	0x3fde34f5	1.7359911
7	0x40267988	2.6011677
8	0x3eec8c9e	0.46201032
9	0x3ff69e20	1.9267006
10	0x3fb12048	1.3837976
11	0xbdc36c30	-0.095421195
12	0x3ea5ae2a	0.3235944
13	0x3f90e072	1.1318495
14	0x3fcc3f72	1.5956862
15	0x3e38fffb	0.18066399

onnx::Conv_1886 f4 [16, 8, 1, 1]
0	0xbeb637a5	-0.35589328
1	0x3cd2fbb1	0.025754781
2	0x3e6f2814	0.23355132
3	0xbd2f5373	-0.042804193
4	0x3d1e2c32	0.038616367
5	0xbedb1154	-0.42786658
6	0xbe59a367	-0.2125374
7	0x3dcac2ed	0.099004604
8	0xbefca608	-0.49345422
9	0x3f375087	0.7160725
10	0xbf0715dc	-0.5276773
11	0x3ef27b01	0.4735947
12	0x3ec3adec	0.3821863
13	0x3f4857b0	0.782588
14	0x3eb1f158	0.34754443
15	0x3f8b11bd	1.0864788
16	0xbef7e1e7	-0.48414537
17	0xbf0f3064	-0.55933213
18	0x3dd07077	0.10177701
19	0x3fbce6d4	1.4757943
20	0x3d319fa5	0.04336514
21	0xbe453853	-0.19259767
22	0x3e207a93	0.15671758
23	0xbcf592b0	-0.029977173
24	0x3d982042	0.07428028
25	0x3dba8043	0.09106495
26	0xbddf61e0	-0.1090734
27	0x3fa6d8c5	1.3034903
28	0xbd55b1f3	-0.05217166
29	0x3e645666	0.22298583
30	0x3e24e712	0.16103771
31	0xbcab49f9	-0.020909296
32	0x3d221c8a	0.039578
33	0x3cc7ca48	0.024388447
34	0x3dbf11e5	0.09329585
35	0xbddb2f0e	-0.10702334
36	0x3caedde8	0.021346048
37	0xbd4a01bd	-0.049318064
38	0x3d9a57b9	0.07536263
39	0xbd6e89a2	-0.058236726
40	0xbf873198	-1.056201
41	0x3d82fe94	0.06396213
42	0x3f712799	0.94201046
43	0x3fbedd48	1.491128
44	0x3f34810e	0.7050942
45	0x3f406d0f	0.7516641
46	0xbf8d4c56	-1.1038921
47	0xbfbc98e1	-1.4734155
48	0x3ca51cc6	0.020155322
49	0x3de98485	0.11402229
50	0x3db4ffda	0.08837862
51	0xbde25c65	-0.11052779
52	0xbbffb198	-0.0078031532
53	0x3e155939	0.14584817
54	0x3de32348	0.11090714
55	0xbd6a9731	-0.057273094
56	0x3e1faa51	0.15592314
57	0xbed628d5	-0.41828027
58	0xbe2ec342	-0.17066672
59	0x3f2bfb2d	0.6718014
60	0xbe20b39b	-0.15693514
61	0xbf836b4c	-1.026712
62	0xbfcdaa73	-1.6067642
63	0x3e7643c6	0.24049291
64	0x40467044	3.1006021
65	0x3ee8f600	0.45500183
66	0xc0517e9c	-3.2733526
67	0x3f06a6b8	0.5259814
68	0x404adc67	3.1697023
69	0x3b8dbf4e	0.004325784
70	0xbfaf566a	-1.3698246
71	0x405736af	3.3627126
72	0x3f851f66	1.0400207
73	0xbf53bd8e	-0.8271111
74	0x3f3685d7	0.71297973
75	0x3c874aa6	0.016515087
76	0xbd378e54	-0.04481347
77	0x3f9da453	1.2315773
78	0xbe977ffa	-0.29589826
79	0xbf309dd7	-0.68990844
80	0x3f51a981	0.8189927
81	0x3de6d163	0.11270406
82	0x3e0521f8	0.1300124
83	0xbea413c4	-0.3204633
84	0xbc2f7ccc	-0.010710906
85	0x3f3806c1	0.71885306
86	0xbe353f7b	-0.17699997
87	0x3df5efa8	0.120086014
88	0xbd46c0e0	-0.048523784
89	0x3ce5b54a	0.028040547
90	0xbe51b88b	-0.20480554
91	0x3d9618bf	0.07328939
92	0xbd4c7c90	-0.04992348
93	0x3c5520b2	0.013008283
94	0xbe118b98	-0.14213407
95	0x3db8c5f6	0.09022133
96	0xbd6e5246	-0.05818393
97	0x3e82ceba	0.25548345
98	0x3dead31d	0.11466048
99	0xbf90392c	-1.1267447
100	0xbf3d40aa	-0.73926795
101	0xbf15a87c	-0.5846021
102	0x3f525049	0.82153755
103	0x3f5cf0e7	0.8630509
104	0x3db950ae	0.090485916
105	0xbef8460d	-0.48490945
106	0x3ded43ca	0.11585195
107	0x3ea34aa3	0.3189288
108	0x3a450647	0.0007515889
109	0xbe0ea3ec	-0.13929719
110	0xbecf1e5e	-0.40452856
111	0x3e16c45f	0.14723347
112	0xbc95ac78	-0.018270716
113	0x3ddaffdb	0.10693332
114	0x3dff745b	0.12473365
115	0x3ec43ad1	0.38326123
116	0xbc24300e	-0.010021223
117	0xbe8dff4c	-0.2773384
118	0xbded8c85	-0.115990676
119	0xbe1ec9be	-0.15506646
120	0xbfd9794a	-1.699014
121	0x3e9b11a8	0.30286908
122	0x3edddc40	0.433321
123	0xbeaf1549	-0.34195927
124	0x3dadf2f0	0.08493602
125	0xbf375d4b	-0.7162673
126	0x3eb78c6d	0.35849324
127	0x3f4c88f9	0.79896504

onnx::Conv_1887 f4 [16]
0	0x3f83b066	1.0288208
1	0xbf9a1392	-1.2037222
2	0xbe6e3124	-0.23260933
3	0xbf8987b9	-1.0744544
4	0x3f70e1d3	0.9409458
5	0xbd400930	-0.046883762
6	0x3f3dccc3	0.74140567
7	0x3faa4977	1.330367
8	0xc06d3f37	-3.7069833
9	0x3f33a830	0.7017851
10	0x3d818290	0.06323731
11	0x3f6fa836	0.93616045
12	0x3f1dc4e8	0.6162858
13	0x3f8f8b56	1.1214397
14	0x3f4833af	0.7820386
15	0x3f1c8fc9	0.611569

onnx::Conv_1889 f4 [16, 1, 3, 3]
0	0x3fa44981	1.2834932
1	0xbe4d080a	-0.20022598
2	0x3ea6394c	0.3246559
3	0xbf764374	-0.96196675
4	0x402e668a	2.7250085
5	0x3e53e07a	0.206911
6	0xc03b281a	-2.9243226
7	0x401ac9f1	2.4185755
8	0x3f7be65e	0.9839839
9	0x3d2d7a76	0.042353116
10	0xbe991a35	-0.29902807
11	0x3e969169	0.29407814
12	0xbd207cf9	-0.039181683
13	0xbf2f7b11	-0.6854716
14	0x3eab3bb0	0.33443975
15	0xbe81d73e	-0.2535953
16	0x3d76b7f9	0.060234044
17	0xbf8c5d04	-1.0965886
18	0xbe92c1f5	-0.28663602
19	0xbedc3419	-0.43008497
20	0x3d3efdf0	0.046628892
21	0x3ee80709	0.45317867
22	0xbf81a507	-1.0128487
23	0xbd152da6	-0.036420487
24	0x3fac81a7	1.3477067
25	0x407b9219	3.930792
26	0x3e371b21	0.17881443
27	0xbf7a2639	-0.97714573
28	0x3eb2532d	0.34829083
29	0xbe0bac65	-0.13639982
30	0x3dae759c	0.08518526
31	0x3e547999	0.20749511
32	0xbf550c30	-0.8322172
33	0xc0a7098c	-5.2199154
34	0x410bfa99	8.748681
35	0x3fd8303c	1.688972
36	0x3e940427	0.28909418
37	0xbf152918	-0.5826583
38	0x3f4ecac6	0.8077816
39	0xbfa0a216	-1.2549465
40	0x3fe85434	1.8150697
41	0xbedfbbd2	-0.43697983
42	0xc0ff5c62	-7.980027
43	0x3fbfca94	1.4983697
44	0x3ff38d1d	1.9027439
45	0xbe2eb817	-0.17062412
46	0xbe7293c4	-0.2368918
47	0x3dd610d0	0.104524255
48	0xbd7b54c4	-0.061360136
49	0xbea8573b	-0.32879052
50	0xbddc4342	-0.10755016
51	0xbea54854	-0.32281744
52	0xbeab6bba	-0.33480626
53	0xbf5547d1	-0.8331271
54	0xbe80c5de	-0.2515096
55	0xc0175701	-2.3646853
56	0x3f88bda3	1.0682873
57	0x3f01e96a	0.50746787
58	0xbf4940f6	-0.7861475
59	0x3e8f1069	0.27942207
60	0x3d56e623	0.05246557
61	0x40894904	4.290163
62	0xc0cd6b0d	-6.4193177
63	0x3ec7197d	0.38886634
64	0x3eb8cd44	0.36094105
65	0x3c4e04e2	0.012574406
66	0xbf556a11	-0.8336497
67	0xbf55f005	-0.83569366
68	0xbf39efad	-0.7263134
69	0xbe80641d	-0.2507638
70	0x3f99312e	1.1968133
71	0x3f9f4100	1.2441711
72	0x3c0f2ff1	0.0087394575
73	0xbe7c3d71	-0.24632813
74	0x3dddd8a4	0.108323365
75	0xbcc9e728	-0.024646357
76	0x3cd81f59	0.026382135
77	0xbcd2e787	-0.025745166
78	0xbda0e9b2	-0.07857074
79	0x3f0fe2d6	0.562055
80	0xbd75afba	-0.05998204
81	0xbd876085	-0.066102065
82	0x3e01adb2	0.12663916
83	0xbe235dce	-0.15953752
84	0xbe17830b	-0.14796083
85	0xbdb42486	-0.08796029
86	0xbe4a58ad	-0.1976039
87	0x3d9271f1	0.07150639
88	0x3dfb930a	0.12283905
89	0x3dbbf283	0.09177115
90	0x3f1e827a	0.6191784
91	0xbf3d3e8f	-0.7392358
92	0xbcee6213	-0.0290995
93	0xbe8233b8	-0.25430083
94	0x3f3d2194	0.7387936
95	0xbe39f43e	-0.18159577
96	0xbff8f791	-1.9450551
97	0xbf5ce2ba	-0.8628346
98	0x3f9a69fd	1.2063595
99	0xbf82c2a9	-1.0215656
100	0x3f60f38e	0.87871635
101	0x3e55d6db	0.20882742
102	0xbea05e48	-0.3132193
103	0x3fe63879	1.7985984
104	0x3fc41b17	1.5320767
105	0x3f831811	1.024172
106	0xbffa0c01	-1.9534913
107	0xc09ff080	-4.998108
108	0xbccd1b68	-0.025037482
109	0xbdd1d64f	-0.10245954
110	0xbd8b623b	-0.06805845
111	0xbdbd2072	-0.09234704
112	0x3d703c4c	0.058651254
113	0x3e1318a7	0.14364873
114	0xbd24b934	-0.040215686
115	0x3ec791ca	0.38978416
116	0x3ee87ce8	0.45407796
117	0xbe29e413	-0.1659091
118	0xba875b43	-0.0010326881
119	0x3d140cab	0.036144894
120	0x3e7b2453	0.24525575
121	0xbe7ef89e	-0.24899527
122	0x3f3b63e1	0.7319928
123	0xbe184367	-0.14869462
124	0x3f081dc4	0.5317042
125	0x400c40f9	2.1914656
126	0x3e6f8941	0.23392202
127	0x3eb77f9b	0.35839543
128	0x3e836f8d	0.25671044
129	0x3f08e183	0.53469104
130	0x3eb0fe7d	0.3456916
131	0xbf26fbcf	-0.6522798
132	0xc0476846	-3.1157393
133	0xbffbc906	-1.9670722
134	0x3f253ca1	0.6454564
135	0xbe6216fc	-0.2207908
136	0xbeac6b56	-0.3367564
137	0x3c8d5a6c	0.01725503
138	0xbeb10a53	-0.3457819
139	0x3d314ee3	0.043288123
140	0x3e26bee2	0.16283754
141	0xbf16fe3f	-0.589817
142	0xbe048cb0	-0.12944293
143	0x3edb03ed	0.42776433

onnx::Conv_1890 f4 [16]
0	0xc0535cd2	-3.3025403
1	0x3f4629b1	0.77407366
2	0xbf8ff77f	-1.1247405
3	0x3dd1f014	0.102508694
4	0x4060e179	3.5137618
5	0x3fda7212	1.7066061
6	0x404aff7f	3.1718442
7	0x3d89c118	0.06726283
8	0xbd68ce10	-0.05683714
9	0x3f910fc4	1.1332936
10	0x3fad4773	1.353743
11	0x4021f96b	2.5308483
12	0xbc8cccb0	-0.017187446
13	0xbff14396	-1.884875
14	0x405ee2a1	3.4825823
15	0x3fa72a1e	1.3059728

onnx::Conv_1892 f4 [8, 16, 1, 1]
0	0xbea6318e	-0.32459682
1	0x3dbeacc7	0.093102984
2	0xbd1351c6	-0.035966657
3	0xbe5726f0	-0.21010947
4	0x3e29c61c	0.16579479
5	0xbd103561	-0.035207156
6	0xbda30823	-0.07960536
7	0xbcb87c76	-0.022520285
8	0xbde78995	-0.113055386
9	0xbdf1eb1f	-0.11812424
10	0x3d9e9ba1	0.077445276
11	0x3e9d8d8b	0.3077205
12	0xbc66c985	-0.014086132
13	0xbed882cf	-0.422873
14	0x3c954182	0.018219713
15	0xbe93d7a6	-0.28875464
16	0x3e03e5e9	0.12880673
17	0xbd839792	-0.06425394
18	0xbe436015	-0.19079621
19	0x3dea1b6a	0.1143101
20	0x3e9964c6	0.29959697
21	0x3e992ac3	0.29915437
22	0x3e25c332	0.16187742
23	0x3d06a714	0.032874182
24	0xbd01a4ec	-0.031651422
25	0x3dd86aaa	0.105672196
26	0x3ddee0f0	0.10882747
27	0x3d1901b3	0.037355136
28	0x3e052fa7	0.13006459
29	0xbe0279f2	-0.12741831
30	0x3e8868cc	0.26642454
31	0xbdad85df	-0.084727995
32	0x3dce70e3	0.10080125
33	0xbd62980d	-0.05532079
34	0xbe8a8d69	-0.27061012
35	0x3e8b9ecc	0.2726959
36	0x3db184ec	0.08667931
37	0x3e3ee1c5	0.18640812
38	0x3e00652d	0.12538595
39	0xbd0de940	-0.034646273
40	0x3e1be7cc	0.15225142
41	0x3e403f0f	0.18774055
42	0xbee42210	-0.44557238
43	0xbe23c253	-0.15992098
44	0xbcd2bbd1	-0.025724323
45	0x3d804fad	0.06265197
46	0x3edfe028	0.43725705
47	0xbdcba840	-0.099442005
48	0xbd7a2f77	-0.061080422
49	0x3dc51aea	0.09624274
50	0xbdacdce0	-0.08440566
51	0xbd626cfb	-0.055279713
52	0xbee2d5fb	-0.4430388
53	0xbdf7be07	-0.12096792
54	0xbe421365	-0.18952711
55	0x3dc6e633	0.09711876
56	0xbe218ee2	-0.15777162
57	0x3dd41130	0.10354841
58	0xbd225066	-0.039627455
59	0xbdad6e4c	-0.08468303
60	0xbd883fcf	-0.066527955
61	0xbd8be0f5	-0.068300165
62	0x3c8aac38	0.016927823
63	0x3d9c4d52	0.07631935
64	0xbd23b4ef	-0.039967474
65	0xbe47a684	-0.19497114
66	0x3eb997eb	0.36248717
67	0x3e353d17	0.17699085
68	0x3e90cb1f	0.2827997
69	0x3d3982d2	0.045290776
70	0x3d003b40	0.031306505
71	0x3e6f2bd2	0.2335656
72	0x3d598eb5	0.05311461
73	0xbd8c28f2	-0.06843747
74	0x3dc20b46	0.094748065
75	0xbe3dc75c	-0.18533081
76	0x3b3ba177	0.0028630176
77	0x3e84e795	0.25957933
78	0x3d7bfa00	0.061517715
79	0x3d482aab	0.048868816
80	0x3e4d1952	0.2002919
81	0x3ece5078	0.40295768
82	0xbee8ef33	-0.45494995
83	0x3de59a0f	0.11211025
84	0x3dadaa52	0.08479752
85	0xbed4f3c8	-0.4159224
86	0x3e8e26ac	0.2776388
87	0xbe909cd6	-0.28244656
88	0x3eb90bfc	0.36141956
89	0x3ea1b27f	0.31581494
90	0xbe923c25	-0.28561512
91	0x3e215f65	0.15759046
92	0x3e9318ea	0.28729945
93	0x3e1334ab	0.1437556
94	0x3e3a4008	0.18188488
95	0xbe105ada	-0.14097157
96	0xbe6de93c	-0.23233503
97	0x3e0519b0	0.1299808
98	0xbddf4a5c	-0.10902855
99	0xbe84c8eb	-0.25934538
100	0x3ecb4e52	0.3970819
101	0xbcc6bfde	-0.024261411
102	0x3ef6d3a5	0.48208347
103	0xbe2cbec3	-0.16869645
104	0x3e33c41d	0.1755528
105	0xbd99c7fa	-0.075088456
106	0xbdac2965	-0.08406333
107	0x3e066639	0.13124932
108	0x3d24f0bd	0.04026865
109	0x3dcc4fd6	0.09976165
110	0x3e90a6b5	0.28252187
111	0x3cde922c	0.02716931
112	0x3e306a78	0.17228115
113	0xbdf13863	-0.11778333
114	0x3ea8e028	0.32983518
115	0x3e9db313	0.30800685
116	0x3d371615	0.044698793
117	0xbdb1f4a7	-0.08689242
118	0x3cefd52d	0.029276455
119	0x3d4254c2	0.047444113
120	0x3e0c475c	0.13699096
121	0xbe2cb89f	-0.16867302
122	0xbe52abcd	-0.2057335
123	0xbe2e1df0	-0.17003608
124	0x3da59c29	0.08086426
125	0x3d4a7ea8	0.049437195
126	0xbe857df3	-0.26072654
127	0x3e36b456	0.1784223

onnx::Conv_1893 f4 [8]
0	0x3ff3be6d	1.9042488
1	0x3d7dd460	0.061970115
2	0xbfa59499	-1.2935973
3	0x3f8191f1	1.0122663
4	0xbea02e3b	-0.3128527
5	0x3d6d8c68	0.05799523
6	0xbd219908	-0.039452583
7	0xbf80751d	-1.003574

encoder.en_convs.2.tra.depth_conv.weight f4 [8, 1, 3]
0	0x3ed8b49e	0.423253
1	0xbd0a4813	-0.03376014
2	0xbf2a679d	-0.6656435
3	0x3e52e7ca	0.20596233
4	0xbc4de791	-0.012567417
5	0x3ea40181	0.32032397
6	0x3e798dd6	0.24370512
7	0x3e750fd1	0.23931815
8	0x3eefa5f6	0.46806306
9	0x3f02b52a	0.51057684
10	0x3e267e55	0.1625913
11	0xbec7bcef	-0.39011332
12	0x3f0302aa	0.5117594
13	0xbe2e245f	-0.17006062
14	0x3d1bd23d	0.038042296
15	0xbd94463a	-0.07239957
16	0x3e2521e3	0.16126208
17	0x3edf3cbb	0.4360102
18	0x3f04b126	0.5183281
19	0x3edb1dbe	0.4279613
20	0x3f09e47f	0.5386428
21	0x3e231a8e	0.15928099
22	0x3e85efd6	0.26159543
23	0xbeb9a3d4	-0.36257803

encoder.en_convs.2.tra.depth_conv.bias f4 [8]
0	0x3eaaa202	0.33326727
1	0xbccce335	-0.025010685
2	0xbee575ec	-0.4481653
3	0xbecf758e	-0.40519375
4	0xbe7a7335	-0.2445801
5	0xbe11e691	-0.1424811
6	0xbe6339ff	-0.22190093
7	0x3ed18908	0.4092486

encoder.en_convs.2.tra.point_conv.weight f4 [8, 8, 1]
0	0xbad5cd99	-0.0016311883
1	0x3d1f52fd	0.038897503
2	0x3ef72be4	0.48275673
3	0xbe661049	-0.2246715
4	0xbe179426	-0.14802608
5	0xbe14e1f0	-0.14539313
6	0xbe0d8789	-0.13821234
7	0x3d6b7aa6	0.057490014
8	0xbc974682	-0.018466238
9	0xbec6d1df	-0.38831994
10	0xbb0c9d38	-0.0021456014
11	0x3e6169a2	0.22012952
12	0x3e261b69	0.16221394
13	0x3cbf1eff	0.02333021
14	0xbde8a146	-0.113588855
15	0x3e298319	0.16553916
16	0xbea35b98	-0.31905818
17	0x3d55d3af	0.05220383
18	0xbd16f6e6	-0.036856554
19	0x3e8d9c29	0.27658203
20	0x3d7b0a14	0.061288908
21	0xbe2c176d	-0.16805811
22	0xbe079210	-0.13239312
23	0x3e308c74	0.17241079
24	0xbf314a11	-0.6925364
25	0x3e97b705	0.2963182
26	0xbe6a2ec5	-0.22869404
27	0xbf01ac34	-0.50653386
28	0x3e65d061	0.22442771
29	0xbc7daf03	-0.015483621
30	0xbd131f81	-0.035918716
31	0x3d5bc758	0.053656906
32	0x3eb2184c	0.34784162
33	0x3efb246c	0.49051225
34	0xbebec43d	-0.37259093
35	0x3dfbbe9e	0.12292217
36	0xbe1ffa82	-0.15622905
37	0x3e377b69	0.17918171
38	0x3f57ba7d	0.84268934
39	0xbec6fc39	-0.38864306
40	0x3e955d4b	0.2917274
41	0xbeb0bec7	-0.34520552
42	0xbe4515d5	-0.1924661
43	0x3e35f2b3	0.17768364
44	0xbe5fe26e	-0.2186372
45	0xbf4fc403	-0.81158465
46	0xbd9af1d6	-0.07565658
47	0xbd789bd3	-0.06069548
48	0x3e5285f7	0.20558916
49	0x3db99d5e	0.090632185
50	0xbdc842b4	-0.097783476
51	0xbe9751da	-0.29554635
52	0xbf099609	-0.5374456
53	0x3d550641	0.052007917
54	0x3d652732	0.055945583
55	0x3ebe5129	0.37171295
56	0xbdd724c0	-0.105050564
57	0xbc4be7c9	-0.012445399
58	0x3efe83b6	0.49709862
59	0xbf392413	-0.7232067
60	0xbd23390c	-0.039849326
61	0xbd9af20e	-0.075656995
62	0xbf133c2e	-0.575137
63	0x3e1ac2fd	0.15113445

encoder.en_convs.2.tra.point_conv.bias f4 [8]
0	0x3d67ae4e	0.056562714
1	0x3ea51e4b	0.32249674
2	0x3e789133	0.24274139
3	0xbcd223c0	-0.025651813
4	0xbe5f24a9	-0.21791328
5	0xbe705156	-0.23468527
6	0x3ed7189d	0.42010966
7	0x3df1a534	0.11799088

onnx::Conv_1895 f4 [16, 8, 1, 1]
0	0xbc8e3a6b	-0.01736184
1	0xbeb42a0c	-0.3518833
2	0xbf18618c	-0.59523845
3	0x3cc92ea1	0.024558367
4	0x3e2de0f7	0.16980349
5	0x3f3c9ba6	0.73675
6	0x3f072291	0.5278712
7	0x3cdfcb6d	0.02731868
8	0xbf22d543	-0.6360666
9	0x3ca342fe	0.019929405
10	0x3f2b661c	0.6695268
11	0x3e07ac39	0.13249291
12	0x3e85864e	0.2607903
13	0x3eca56df	0.39519402
14	0xbf2f5d1d	-0.68501455
15	0xbec16069	-0.37768868
16	0xbfb8eb9f	-1.4446906
17	0xc0716503	-3.7717903
18	0x3fa34e96	1.2758358
19	0xbe18284b	-0.1485912
20	0xbf380d7e	-0.7189559
21	0x3fff2209	1.9932262
22	0x3f126216	0.5718092
23	0xbeac478f	-0.33648345
24	0x3f61c852	0.8819629
25	0xbe21821d	-0.1577229
26	0x3f8c7737	1.0973881
27	0xbe816ca9	-0.25278214
28	0x3fc6fb72	1.5545485
29	0x3eda5255	0.4264094
30	0xbe04e078	-0.12976253
31	0xbd98629d	-0.07440684
32	0xbc9c73e7	-0.019098235
33	0x3df2dcd8	0.11858529
34	0xbfcfd853	-1.6237892
35	0xbd25d2e6	-0.04048433
36	0xbe0f3404	-0.13984686
37	0x3f251415	0.6448377
38	0x3f216394	0.6304257
39	0xbe11797c	-0.14206499
40	0x3d39ff6c	0.045409605
41	0xbe34e84f	-0.17666744
42	0xbdbdb08b	-0.092621885
43	0xbdb98cb0	-0.09060037
44	0x3df9fb85	0.12206177
45	0x3e9d352e	0.30704635
46	0xbdfc0eb1	-0.1230749
47	0xbf6abf8e	-0.9169854
48	0xbebedb52	-0.37276703
49	0xbeef805f	-0.46777627
50	0xbe36ecc7	-0.17863761
51	0xbd946335	-0.07245485
52	0x3f414fea	0.75512564
53	0x3f1a6892	0.6031581
54	0x3f8824a4	1.0636182
55	0xbf03e6b1	-0.5152388
56	0x3d894f7c	0.067046136
57	0x400e5d1c	2.224433
58	0xbd4209bf	-0.047372576
59	0x3d95dab4	0.07317105
60	0x3e6228fb	0.22085945
61	0xbeca0689	-0.3945811
62	0x3ee0eb89	0.439297
63	0x3e9827d8	0.29717898
64	0x3e558fee	0.20855686
65	0x3f260fc5	0.6486781
66	0x3fd274db	1.6441911
67	0xbf3f5015	-0.7473157
68	0xbf68a7dd	-0.9088114
69	0x4032f615	2.7962697
70	0x3eb6b80b	0.3568729
71	0xbd7bc9ab	-0.061471622
72	0xbf07bd91	-0.5302363
73	0x3f358bce	0.7091645
74	0x3e992a57	0.29915115
75	0x3e910877	0.2832677
76	0x3ee749e1	0.45173553
77	0x3eb46920	0.35236454
78	0xbf2a1382	-0.66436017
79	0xbddf3aa2	-0.10899855
80	0xbe84f800	-0.2597046
81	0x3f9e511d	1.2368504
82	0x3e479fdf	0.1949458
83	0xbddb20b8	-0.106996
84	0x3eda7d56	0.4267375
85	0x3e9a60f8	0.30152106
86	0x3e86060f	0.26176497
87	0xbe1f4e9f	-0.15557335
88	0xbdfad716	-0.12248056
89	0x3ed9636a	0.4245866
90	0xbbb8a29f	-0.0056346203
91	0x3c854b5a	0.016271282
92	0x3ed35425	0.41275135
93	0xbe14ac12	-0.14518765
94	0x3e4a274f	0.19741558
95	0xbe04a863	-0.1295486
96	0xc00bde43	-2.1854408
97	0xbf1ad8b7	-0.6048693
98	0x3d02c78f	0.031928595
99	0x3dfc20b0	0.12310922
100	0xbe80d4c4	-0.25162327
101	0xbf8ade0c	-1.0849013
102	0x3f4e1719	0.80503994
103	0x3cc8ab7a	0.024495829
104	0xbf466ad7	-0.77506775
105	0x3f27d7f8	0.6556392
106	0x40198580	2.3987732
107	0x3f1239b6	0.5711931
108	0xbf276d1d	-0.6540087
109	0x3efce77c	0.4939536
110	0xbf8f4909	-1.1194164
111	0x3f4b5612	0.7942821
112	0x3d6c89c1	0.05774856
113	0xbf8975af	-1.0739039
114	0xbdbedbb9	-0.093192525
115	0x3eef9ddd	0.46800128
116	0x3f1dcacd	0.61637574
117	0xbfeb8002	-1.839844
118	0xbed3633a	-0.4128664
119	0xbee451cd	-0.4459366
120	0xbf391554	-0.7229817
121	0xbf778a8a	-0.9669577
122	0x3f9398bb	1.1530985
123	0x3f09c6f0	0.5381918
124	0x3f3361a5	0.7007087
125	0xbfaf7c50	-1.3709812
126	0xbf321000	-0.69555664
127	0x3f81b69a	1.013385

onnx::Conv_1896 f4 [16]
0	0x3f0c1db0	0.547328
1	0x3f9644bb	1.1739725
2	0x3f42949b	0.76008004
3	0xbe1461ca	-0.14490429
4	0x3ee9d948	0.45673585
5	0x3fa8383a	1.3142159
6	0x3f497bc2	0.78704464
7	0xbcb9f140	-0.022698045
8	0xbfb0ecae	-1.3822229
9	0x3fab6dce	1.3392885
10	0x3f29724d	0.66190034
11	0x3f808b7f	1.0042571
12	0x3fe10a15	1.7581202
13	0xbeff45e7	-0.4985802
14	0x3fbbf0be	1.4682844
15	0x3f4512fc	0.7698209

onnx::Conv_1898 f4 [16, 1, 3, 3]
0	0xbf865b2c	-1.0496573
1	0x3df23db8	0.11828178
2	0x3e3caf71	0.184263
3	0x3dec89e0	0.11549735
4	0x3e4444d2	0.19166878
5	0x3fe57077	1.7924947
6	0x3f05f840	0.52331924
7	0x3fc6bba0	1.5526009
8	0x3fff81a1	1.9961435
9	0xbe856e7c	-0.26060855
10	0xbee1d824	-0.44110215
11	0xbd4d103a	-0.050064303
12	0x3e3b5c2b	0.18296878
13	0xbf1b6939	-0.6070743
14	0xbd844894	-0.06459156
15	0x3e1df07f	0.15423773
16	0xbf2b9536	-0.6702455
17	0xbea6096f	-0.32429072
18	0x3f31fb4a	0.6952406
19	0x3f032965	0.5123504
20	0x3f5ee9d7	0.8707556
21	0x3d39f24c	0.045397088
22	0x3ee012f0	0.43764448
23	0x3f2760f9	0.65382344
24	0xbf31e691	-0.6949244
25	0xbf176b42	-0.5914804
26	0xbfa00cc1	-1.2503892
27	0xbe2dad9e	-0.16960761
28	0xbd269b64	-0.040675536
29	0x3e4ece02	0.20195773
30	0xbeb8209d	-0.35962382
31	0x3dfcdb57	0.12346523
32	0x3e02f236	0.12787709
33	0xbf92f50b	-1.1481031
34	0x3e601f10	0.2188685
35	0x3e8a58e5	0.27020946
36	0xbf3e9ac2	-0.7445489
37	0xbebacdfb	-0.36485276
38	0xbe3df4f7	-0.18550478
39	0xbd5f3360	-0.054492354
40	0x3ef8d59b	0.48600468
41	0x3d942498	0.07233542
42	0xbfbb3496	-1.4625423
43	0x3e4e7400	0.20161438
44	0xbfaef519	-1.3668548
45	0x3f702c31	0.9381743
46	0xbf011daf	-0.5043592
47	0x3e417772	0.18893221
48	0x3c954990	0.018223554
49	0xbe1a1a3f	-0.15049075
50	0x3f18ca73	0.59683913
51	0xbfd0493b	-1.6272348
52	0x400f7a55	2.2418416
53	0xbfe36902	-1.7766421
54	0x3cf1f53c	0.029535882
55	0x3e73b062	0.23797753
56	0xbe8b3bcb	-0.27194056
57	0xbe3ab4d3	-0.18233041
58	0x3f021066	0.5080627
59	0xbfb21def	-1.3915385
60	0x3fc55a8a	1.5418255
61	0x3fb24c40	1.392952
62	0xbf05c597	-0.52254623
63	0xbe4e9c13	-0.20176725
64	0xbec49a29	-0.38398865
65	0x3ececc35	0.40390173
66	0x3e5f778e	0.2182295
67	0xbf590e94	-0.8478787
68	0x3f12b962	0.5731412
69	0x3eda9213	0.4268957
70	0xbe90653f	-0.28202245
71	0xbec30fbc	-0.38097942
72	0x3e190b0c	0.1494562
73	0x3e9c54f3	0.3053356
74	0xbd26a982	-0.040689
75	0x3e00e180	0.12586021
76	0xbd78129f	-0.060564633
77	0xbe4e2386	-0.20130739
78	0x3f190632	0.5977508
79	0x3f94bba9	1.1619769
80	0x3e3eb3ee	0.18623325
81	0xbe18c2c6	-0.1491805
82	0x3ec0050f	0.3750386
83	0xbd9e3cd9	-0.077264495
84	0x3ccf27ae	0.025287475
85	0x3ec51058	0.38489032
86	0xbe8edc76	-0.27902573
87	0xbc7771fe	-0.015102861
88	0x3ef5219a	0.47877198
89	0xbf2a6e7c	-0.66574836
90	0xbefa7d00	-0.48923492
91	0xbf292742	-0.6607553
92	0x3fa9e3e5	1.3272673
93	0x3d0b1cd3	0.033963036
94	0xbf168cb7	-0.58808464
95	0x3f52e2c3	0.8237726
96	0x3f7b6a5b	0.9820916
97	0x3faa7b84	1.3318944
98	0xc001d8fd	-2.028869
99	0x3fe759cc	1.8074279
100	0xbf025e05	-0.5092471
101	0xbf8fbcb4	-1.1229463
102	0x3e3cc35f	0.18433903
103	0xbfc87229	-1.5659839
104	0xc0667a04	-3.6011972
105	0xc00b205d	-2.1738503
106	0x3fa37eb7	1.2773045
107	0x40428801	3.039551
108	0xbea03efc	-0.31298053
109	0xbe127817	-0.14303623
110	0xbec3668a	-0.3816417
111	0x3cbf889b	0.023380568
112	0xbcf0e878	-0.029407725
113	0xbe1f4c03	-0.1555634
114	0x3fb80435	1.4376284
115	0x3f2d57ea	0.6771227
116	0x3f148b0a	0.58024657
117	0xbe017874	-0.12643605
118	0x3df27ea0	0.11840558
119	0x3dd14000	0.10217285
120	0xbe8f457b	-0.27982697
121	0xbe863e03	-0.26219186
122	0x3e2c4133	0.16821747
123	0xbf1b123d	-0.60574704
124	0x3ea955e8	0.33073354
125	0x3e650d3c	0.2236833
126	0xbd8612d3	-0.06546559
127	0xbf0f9511	-0.5608683
128	0x3e4e8222	0.20166829
129	0xbd114d57	-0.035474148
130	0x3ed24c31	0.41073754
131	0x3ae98bfa	0.0017818206
132	0x3ead71b4	0.3387581
133	0x3f841d64	1.0321469
134	0x3d697ebd	0.057005633
135	0xbd8018d1	-0.06254733
136	0x3f0cf0b9	0.55054814
137	0x3de93cf8	0.11388582
138	0xb889db8d	-6.5735636e-05
139	0xbd4c7926	-0.049920224
140	0x3c81f7b6	0.015865188
141	0x3d80b88b	0.06285199
142	0xbf81abe6	-1.0130584
143	0xbf5fafc1	-0.87377554

onnx::Conv_1899 f4 [16]
0	0xc046bf32	-3.1054196
1	0x3fd3b81f	1.6540564
2	0x3ed7b3ec	0.42129457
3	0xbe0c6d5e	-0.13713595
4	0x40117150	2.272541
5	0x3ee0b526	0.43888205
6	0x3f2b0703	0.66807574
7	0x3f761dc6	0.9613918
8	0xbe0fba5c	-0.14035934
9	0xbf010548	-0.50398684
10	0x3f908ddd	1.1293293
11	0x3ffc64de	1.9718282
12	0xbe9f6532	-0.31131893
13	0xbe43b5c4	-0.19112307
14	0xbf4391eb	-0.7639453
15	0x3fe79b89	1.809434

onnx::Conv_1901 f4 [8, 16, 1, 1]
0	0xbdf916cf	-0.121625535
1	0x3dcde0ba	0.10052629
2	0xbd7e9ee0	-0.062163234
3	0xbed87dfb	-0.42283615
4	0x3e7e0443	0.24806313
5	0x3e9880c4	0.2978574
6	0xbe720696	-0.23635325
7	0x3dc5f7be	0.09666394
8	0xbe03f11a	-0.12884942
9	0xbe8adbce	-0.27120823
10	0x3d431204	0.047624603
11	0x3d827ab1	0.06371058
12	0xbdb1c6a2	-0.08680464
13	0xbee9d301	-0.45668796
14	0xbd307391	-0.043078963
15	0xbda1c093	-0.07898059
16	0x3c983427	0.018579556
17	0x3e3e87ff	0.18606566
18	0xbdf1ffd7	-0.11816376
19	0x3f3ffdc3	0.74996585
20	0xbe867a90	-0.26265383
21	0x3e0e6b9f	0.13908242
22	0x3e8ac440	0.27102852
23	0xbcebfce8	-0.028807119
24	0x3ebe6331	0.37185052
25	0x3d0574e5	0.032582182
26	0x3e51b7da	0.2048029
27	0x3e7779c3	0.24167542
28	0x3e701d4d	0.23448677
29	0x3e8ab642	0.27092177
30	0xbd53868f	-0.051641997
31	0xbeaf4d5b	-0.34238705
32	0xbf416225	-0.7554038
33	0xbedd4a5b	-0.4322079
34	0x3ea417ff	0.32049558
35	0xbe3aa174	-0.18225652
36	0xbe3c6440	-0.18397617
37	0x3ddc2607	0.10749441
38	0xbeff370d	-0.49846688
39	0x3da69dfd	0.081356026
40	0x3e397843	0.18112282
41	0xbe7a324d	-0.2443325
42	0xbe343da5	-0.1760164
43	0x3e9c5ea9	0.3054097
44	0xbed874e5	-0.42276683
45	0x3eca9e04	0.3957368
46	0xbe4d1ec8	-0.20031273
47	0x3e710270	0.23536086
48	0x3f4b2a59	0.7936149
49	0x3d918321	0.07105089
50	0x3d0cb12d	0.034348655
51	0x3ebdf6f3	0.3710247
52	0xbf261bc1	-0.648861
53	0x3dbbae3e	0.091640934
54	0xbee500c9	-0.44727162
55	0x3c90199f	0.017590342
56	0xbe39f93e	-0.18161485
57	0x3ec60f4a	0.3868354
58	0xbc542f27	-0.012950695
59	0x3ef55613	0.47917232
60	0xbe758b53	-0.23978929
61	0xbd910cea	-0.07082541
62	0x3e75de93	0.24010687
63	0x3f23cf10	0.6398783
64	0x3d503854	0.05083497
65	0x3e500816	0.20315585
66	0x3e952d05	0.2913591
67	0xbe1278f2	-0.1430395
68	0xbe87cdcb	-0.26524195
69	0x3d8a5082	0.06753637
70	0x3f038e82	0.51389325
71	0xbe6bae3b	-0.23015682
72	0x3d61c9c5	0.055124063
73	0xbe9b2330	-0.30300283
74	0xbe6ec34d	-0.23316689
75	0x3ded85d8	0.11597794
76	0xbeb37f58	-0.35058093
77	0x3e017cd4	0.12645274
78	0x3ea99e1d	0.33128443
79	0x3edfefab	0.4373754
80	0xbe3e39d5	-0.18576749
81	0xbce2211d	-0.02760368
82	0xbe050cd0	-0.12993169
83	0xbedb51e6	-0.4283592
84	0x3ec007b9	0.37505892
85	0x3df19ebf	0.117978565
86	0xbdac6525	-0.08417729
87	0x3e106cfe	0.14104077
88	0x3e5dd728	0.21664107
89	0xbd038a9f	-0.03211462
90	0x3ea7d9ff	0.32783505
91	0xbe4c437d	-0.1994762
92	0x3df32171	0.11871613
93	0xbeeb9724	-0.4601375
94	0xbda0328b	-0.0782214
95	0x3e3c95d3	0.18416528
96	0xbc53ebbb	-0.0129346205
97	0x3eb66fac	0.35632074
98	0x3d8a965e	0.067669615
99	0xbc26346d	-0.010144335
100	0x3cce7d45	0.025206218
101	0xbe31331c	-0.17304653
102	0x3e3613a2	0.17780927
103	0xbeb1669a	-0.3464859
104	0x3e203e0b	0.15648668
105	0xbe011c5d	-0.12608476
106	0x3e33e2c9	0.1756698
107	0x3e24b0c7	0.1608306
108	0x3c80d5b0	0.015726894
109	0xbe0e16ac	-0.13875836
110	0xbe604c09	-0.21904005
111	0x3e05eb56	0.13078055
112	0x3cde4f9e	0.027137574
113	0x3eb0ff46	0.34569758
114	0x3ecb1120	0.39661503
115	0xbd3a4c04	-0.04548265
116	0x3e0a27da	0.13491765
117	0xbe6de2cb	-0.23231046
118	0x3d39f018	0.045394987
119	0xbda29f99	-0.07940597
120	0xbe2054b6	-0.15657315
121	0xbb48d4f2	-0.0030644503
122	0xbea7b51b	-0.3275536
123	0x3db038cb	0.086045824
124	0xbeab663d	-0.3347644
125	0xbea345a9	-0.31889084
126	0x3e0a8e76	0.13530907
127	0xbe3a8855	-0.18216069

onnx::Conv_1902 f4 [8]
0	0x3f7c3734	0.98521733
1	0xbf3a1ca6	-0.72699964
2	0x3f896f1c	1.0737033
3	0x3ef6f44e	0.48233265
4	0xbdbbcc90	-0.091698766
5	0xbfa44901	-1.2834779
6	0x3f543802	0.8289796
7	0x3fab589e	1.3386419

encoder.en_convs.3.tra.depth_conv.weight f4 [8, 1, 3]
0	0xbdbbb036	-0.09164469
1	0x3b36c1ec	0.0027886583
2	0xbecc6e67	-0.3992798
3	0x3eb517d1	0.35369733
4	0x3ede413c	0.43409145
5	0x3f4c23fd	0.79742414
6	0xbcb4c3f6	-0.022066098
7	0xbd7d6cf6	-0.06187149
8	0xbf6360ac	-0.88819385
9	0xbcf3f95f	-0.029781995
10	0xbd769ec7	-0.060210016
11	0x3f2779ca	0.6542021
12	0xbea7228c	-0.32643545
13	0xbdf0e41c	-0.117622584
14	0xbedeb111	-0.43494466
15	0x3f1287f3	0.5723869
16	0xbee31dbe	-0.4435863
17	0xbf1bc1d4	-0.60842633
18	0x3ef9f3f3	0.4881893
19	0xbc188e75	-0.009311308
20	0xbf20b9e6	-0.6278366
21	0x3eadd494	0.33951247
22	0xbe04ae67	-0.12957154
23	0x3f1a709e	0.6032809

encoder.en_convs.3.tra.depth_conv.bias f4 [8]
0	0x3ec913b8	0.39272857
1	0x3dfe6d22	0.12423159
2	0x3eb1186f	0.34588954
3	0xbf1dc038	-0.6162143
4	0x3da22889	0.07917888
5	0x3ecb6b92	0.39730507
6	0xbe86dda9	-0.26340988
7	0xbe57eefe	-0.21087262

encoder.en_convs.3.tra.point_conv.weight f4 [8, 8, 1]
0	0x3e73fc9f	0.23826836
1	0xbee9b288	-0.4564402
2	0xbe0bda74	-0.13657552
3	0xbe895d7e	-0.2682914
4	0xbe2b3f1b	-0.16723292
5	0xbd8e7521	-0.06955934
6	0xbe8738cc	-0.2641052
7	0x3ea0ba31	0.31392053
8	0x3e9b7a1f	0.30366609
9	0x3f1afdc0	0.6054344
10	0xbf49b9eb	-0.78799313
11	0xbf3425a0	-0.7036991
12	0x3ee71571	0.45133546
13	0x3dab0cb1	0.0835203
14	0xbc01fffc	-0.007934567
15	0x3ea6d962	0.32587725
16	0xbec62236	-0.38697976
17	0x3dc83ecd	0.09777603
18	0x3e317ca7	0.17332707
19	0xbdfc7e74	-0.123288065
20	0xbdc84fee	-0.097808704
21	0xbcd60b5c	-0.026128463
22	0xbd9693ee	-0.07352434
23	0xbe59aa58	-0.21256387
24	0xbe5c8fc8	-0.21539223
25	0xbea6452e	-0.32474655
26	0x3e0853f4	0.13313276
27	0xbeef8686	-0.4678232
28	0x3ddfb0f8	0.10922426
29	0xbcf9065f	-0.030398546
30	0x3e527b23	0.20554785
31	0x3e8e0a9c	0.2774247
32	0x3f399466	0.72492063
33	0x3ca43800	0.020046234
34	0x3ee54988	0.44782662
35	0x3f0abd89	0.5419546
36	0x3e836ae1	0.2566748
37	0x3ec779d8	0.38960147
38	0xbee420c9	-0.44556263
39	0x3f22a110	0.6352701
40	0xbf3077df	-0.6893291
41	0xbe555fac	-0.20837277
42	0xbf2012f7	-0.6252894
43	0xbeb1c757	-0.34722397
44	0x3ea8bb9d	0.32955638
45	0x3f33b6e2	0.7020093
46	0x3d524540	0.051335573
47	0xbe27bf29	-0.16381516
48	0x3ddc0233	0.10742607
49	0xbe718628	-0.23586333
50	0x3edc9564	0.43082726
51	0x3e520e31	0.20513226
52	0xbecb6ad2	-0.39729935
53	0x3c77eb4c	0.015131783
54	0xbe94f88c	-0.29095876
55	0xbe223964	-0.15842205
56	0x3ea9dd67	0.3317673
57	0x3da7fc1a	0.082023814
58	0xbe5e4e55	-0.21709569
59	0xbebc0c3a	-0.36728078
60	0x3dd46f74	0.103728205
61	0x3e09e095	0.13464577
62	0x3f0d31fa	0.55154383
63	0xbf01f9ab	-0.5077159

encoder.en_convs.3.tra.point_conv.bias f4 [8]
0	0x3d2d6fc7	0.042342927
1	0xbd2decdb	-0.04246221
2	0xbecf86ef	-0.40532634
3	0x3e52d4e5	0.20589025
4	0x3e2c5592	0.16829517
5	0x3df0d0ce	0.11758576
6	0xbe091505	-0.13386925
7	0x3da58fc2	0.0808406

onnx::Conv_1904 f4 [16, 8, 1, 1]
0	0x3e3a46fc	0.18191141
1	0x3f4234b5	0.75861675
2	0x3e9d7f3b	0.30761132
3	0xbd053576	-0.032521687
4	0xbefb7fb5	-0.4912087
5	0xbe110dec	-0.14165467
6	0x3dc1658d	0.094431974
7	0x3bde9363	0.006792472
8	0x3f057453	0.5213062
9	0xbe9d7fc7	-0.3076155
10	0xbd64f6dd	-0.05589949
11	0xbf83f95f	-1.0310477
12	0x3e028e7e	0.12749669
13	0x3fe5c926	1.7952011
14	0x3d70ca1e	0.058786504
15	0x3ebe283e	0.37140077
16	0x3ecc8925	0.39948383
17	0xbfc90d53	-1.5707191
18	0xbf437b6b	-0.76360196
19	0x3f65fcfe	0.8983916
20	0xbf55c4bf	-0.83503336
21	0x3e733abb	0.23752873
22	0xbdead87f	-0.114670746
23	0xbf0342f3	-0.5127403
24	0xbe9ae348	-0.30251527
25	0x3e90729a	0.28212434
26	0xbe602c64	-0.21891934
27	0x3fa881fd	1.3164669
28	0xbf27a5ed	-0.6548756
29	0x3f1a5776	0.60289705
30	0x3e58e150	0.211797
31	0xbdcf0007	-0.10107427
32	0xbdd43959	-0.10362501
33	0xbeb3d450	-0.3512292
34	0xbe958291	-0.29201177
35	0x3eaacc3d	0.33358946
36	0x3d305ef2	0.043059297
37	0xbd3b76a2	-0.045767434
38	0xbeb4ed24	-0.35337174
39	0xbe16b925	-0.14719065
40	0xbf6814ce	-0.90656745
41	0xbf23c6c1	-0.6397515
42	0x3f221e8d	0.63327867
43	0xbd87fbea	-0.06639846
44	0x3f43bacf	0.7645692
45	0x3e3b9305	0.18317802
46	0x3f19a272	0.60013497
47	0x3f9b0213	1.2110008
48	0x3ffe10f1	1.984892
49	0x3f00293c	0.5006292
50	0xbf7449a1	-0.9542485
51	0xbcd80195	-0.026367942
52	0xbf6296c6	-0.8851131
53	0x3fe08507	1.7540597
54	0xbf3a3b8b	-0.72747105
55	0x3e800897	0.25006554
56	0x3d4e5134	0.05037041
57	0xbf6680e7	-0.9004044
58	0x3f0a4f34	0.54027104
59	0xbf35dd3b	-0.71040696
60	0x3e008ef6	0.12554535
61	0xbf1f3e6a	-0.6220461
62	0xbea67d71	-0.3251758
63	0x3e2d75f3	0.16939525
64	0xbfd9c2c9	-1.7012569
65	0xbddef68f	-0.10886871
66	0x3f7ddb05	0.9916232
67	0xbf3825d3	-0.71932715
68	0x3ed7d072	0.4215122
69	0xbf573a89	-0.8407369
70	0x3f7e9260	0.994421
71	0xbf559ab0	-0.8343916
72	0x3fdb37e6	1.7126434
73	0x3cfa8437	0.030580623
74	0x3f650285	0.8945697
75	0xbf2fcbfc	-0.6867063
76	0x3db3c532	0.087778464
77	0x3d6fb9c7	0.05852678
78	0xbecdc33b	-0.40188012
79	0x3e43760b	0.19087999
80	0x3f4c6593	0.7984249
81	0x3ded3989	0.115832396
82	0x3f0cb721	0.5496693
83	0x3d462261	0.04837263
84	0xbf0a8c61	-0.5412045
85	0xbf5165df	-0.8179607
86	0x3d61e2f8	0.055148095
87	0x3e4d8b45	0.20072658
88	0x3f3de82d	0.741824
89	0x3e8526b3	0.26006088
90	0xbf9f1cec	-1.2430701
91	0x3f946bbb	1.1595377
92	0x3e50ce5d	0.20391221
93	0xbfae6a6e	-1.362623
94	0xbfdbdd5a	-1.7176926
95	0xbe4f9fe3	-0.20275836
96	0xbec4df8f	-0.38451812
97	0xbe706bf0	-0.23478675
98	0xbeae8e0d	-0.3409275
99	0x3e2a11a2	0.16608289
100	0x3d72ba10	0.059259474
101	0x3f525369	0.82158524
102	0xbebda1d0	-0.37037516
103	0x3e9b953f	0.30387303
104	0x3f92b6a2	1.1461985
105	0x3f17272f	0.59044164
106	0x3ea9992a	0.33124667
107	0xbd3d7939	-0.046258185
108	0x3f7cf95f	0.9881801
109	0xbfa516f3	-1.2897629
110	0xbf626330	-0.884326
111	0xbfa467e1	-1.2844201
112	0x3fe764ff	1.8077697
113	0x3f829768	1.0202456
114	0x3f1d4871	0.6143866
115	0xc02d1206	-2.704225
116	0x3f524e96	0.8215116
117	0x3fb75c69	1.4325076
118	0xbfcbb4ca	-1.5914547
119	0xbf095e1b	-0.5365922
120	0xbfe857fd	-1.8151852
121	0xbf86d056	-1.0532329
122	0xbf603735	-0.8758424
123	0x3e2ab11c	0.16669124
124	0x3f826506	1.018708
125	0xc0066646	-2.0999923
126	0x3fd1265b	1.633983
127	0x3e8a5086	0.2701456
