gtcrn_micro/streaming/onnx/gtcrn_micro.onnx (onnx, 297691 bytes, 163 tensors)

sfe.depth_conv.weight f4 [3, 1, 1, 3]
-1.4569117 -0.1157928 0.05206079 0.06924578 -0.17634758 -0.26103336 0.05219436 0.34279302
0.25490418
00000000: 157c babf c724 edbd b23d 553d bbd0 8d3d
00000010: 7694 34be 2aa6 85be c1c9 553d 9182 af3e
00000020: cd82 823e

encoder.en_convs.2.tra.depth_conv.weight f4 [8, 1, 3]
0.423253 -0.03376014 -0.6656435 0.20596233 -0.012567417 0.32032397 0.24370512 0.23931815
0.46806306 0.51057684 0.1625913 -0.39011332 0.5117594 -0.17006062 0.038042296 -0.07239957
0.16126208 0.4360102 0.5183281 0.4279613 0.5386428 0.15928099 0.26159543 -0.36257803
00000000: 9eb4 d83e 1348 0abd 9d67 2abf cae7 523e
00000010: 91e7 4dbc 8101 a43e d68d 793e d10f 753e
00000020: f6a5 ef3e 2ab5 023f 557e 263e efbc c7be
00000030: aa02 033f 5f24 2ebe 3dd2 1b3d 3a46 94bd
00000040: e321 253e bb3c df3e 26b1 043f be1d db3e
00000050: 7fe4 093f 8e1a 233e d6ef 853e d4a3 b9be

encoder.en_convs.2.tra.depth_conv.bias f4 [8]
0.33326727 -0.025010685 -0.4481653 -0.40519375 -0.2445801 -0.1424811 -0.22190093 0.4092486
00000000: 02a2 aa3e 35e3 ccbc ec75 e5be 8e75 cfbe
00000010: 3573 7abe 91e6 11be ff39 63be 0889 d13e

encoder.en_convs.2.tra.point_conv.weight f4 [8, 8, 1]
-0.0016311883 0.038897503 0.48275673 -0.2246715 -0.14802608 -0.14539313 -0.13821234 0.057490014
-0.018466238 -0.38831994 -0.0021456014 0.22012952 0.16221394 0.02333021 -0.113588855 0.16553916
-0.31905818 0.05220383 -0.036856554 0.27658203 0.061288908 -0.16805811 -0.13239312 0.17241079
-0.6925364 0.2963182 -0.22869404 -0.50653386 0.22442771 -0.015483621 -0.035918716 0.053656906
0.34784162 0.49051225 -0.37259093 0.12292217 -0.15622905 0.17918171 0.84268934 -0.38864306
0.2917274 -0.34520552 -0.1924661 0.17768364 -0.2186372 -0.81158465 -0.07565658 -0.06069548
0.20558916 0.090632185 -0.097783476 -0.29554635 -0.5374456 0.052007917 0.055945583 0.37171295
-0.105050564 -0.012445399 0.49709862 -0.7232067 -0.039849326 -0.075656995 -0.575137 0.15113445
00000000: 99cd d5ba fd52 1f3d e42b f73e 4910 66be
00000010: 2694 17be f0e1 14be 8987 0dbe a67a 6b3d
00000020: 8246 97bc dfd1 c6be 389d 0cbb a269 613e
00000030: 691b 263e ff1e bf3c 46a1 e8bd 1983 293e
00000040: 985b a3be afd3 553d e6f6 16bd 299c 8d3e
00000050: 140a 7b3d 6d17 2cbe 1092 07be 748c 303e
00000060: 114a 31bf 05b7 973e c52e 6abe 34ac 01bf
00000070: 61d0 653e 03af 7dbc 811f 13bd 58c7 5b3d
00000080: 4c18 b23e 6c24 fb3e 3dc4 bebe 9ebe fb3d
00000090: 82fa 1fbe 697b 373e 7dba 573f 39fc c6be
000000a0: 4b5d 953e c7be b0be d515 45be b3f2 353e
000000b0: 6ee2 5fbe 03c4 4fbf d6f1 9abd d39b 78bd
000000c0: f785 523e 5e9d b93d b442 c8bd da51 97be
000000d0: 0996 09bf 4106 553d 3227 653d 2951 be3e
000000e0: c024 d7bd c9e7 4bbc b683 fe3e 1324 39bf
000000f0: 0c39 23bd 0ef2 9abd 2e3c 13bf fdc2 1a3e

encoder.en_convs.2.tra.point_conv.bias f4 [8]
0.056562714 0.32249674 0.24274139 -0.025651813 -0.21791328 -0.23468527 0.42010966 0.11799088
00000000: 4eae 673d 4b1e a53e 3391 783e c023 d2bc
00000010: a924 5fbe 5651 70be 9d18 d73e 34a5 f13d

encoder.en_convs.3.tra.depth_conv.weight f4 [8, 1, 3]
-0.09164469 0.0027886583 -0.3992798 0.35369733 0.43409145 0.79742414 -0.022066098 -0.06187149
-0.88819385 -0.029781995 -0.060210016 0.6542021 -0.32643545 -0.117622584 -0.43494466 0.5723869
-0.4435863 -0.60842633 0.4881893 -0.009311308 -0.6278366 0.33951247 -0.12957154 0.6032809
00000000: 36b0 bbbd ecc1 363b 676e ccbe d117 b53e
00000010: 3c41 de3e fd23 4c3f f6c3 b4bc f66c 7dbd
00000020: ac60 63bf 5ff9 f3bc c79e 76bd ca79 273f
00000030: 8c22 a7be 1ce4 f0bd 11b1 debe f387 123f
00000040: be1d e3be d4c1 1bbf f3f3 f93e 758e 18bc
00000050: e6b9 20bf 94d4 ad3e 67ae 04be 9e70 1a3f

encoder.en_convs.3.tra.depth_conv.bias f4 [8]
0.39272857 0.12423159 0.34588954 -0.6162143 0.07917888 0.39730507 -0.26340988 -0.21087262
00000000: b813 c93e 226d fe3d 6f18 b13e 38c0 1dbf
00000010: 8928 a23d 926b cb3e a9dd 86be feee 57be

encoder.en_convs.3.tra.point_conv.weight f4 [8, 8, 1]
0.23826836 -0.4564402 -0.13657552 -0.2682914 -0.16723292 -0.06955934 -0.2641052 0.31392053
0.30366609 0.6054344 -0.78799313 -0.7036991 0.45133546 0.0835203 -0.007934567 0.32587725
-0.38697976 0.09777603 0.17332707 -0.123288065 -0.097808704 -0.026128463 -0.07352434 -0.21256387
-0.21539223 -0.32474655 0.13313276 -0.4678232 0.10922426 -0.030398546 0.20554785 0.2774247
0.72492063 0.020046234 0.44782662 0.5419546 0.2566748 0.38960147 -0.44556263 0.6352701
-0.6893291 -0.20837277 -0.6252894 -0.34722397 0.32955638 0.7020093 0.051335573 -0.16381516
0.10742607 -0.23586333 0.43082726 0.20513226 -0.39729935 0.015131783 -0.29095876 -0.15842205
0.3317673 0.082023814 -0.21709569 -0.36728078 0.103728205 0.13464577 0.55154383 -0.5077159
00000000: 9ffc 733e 88b2 e9be 74da 0bbe 7e5d 89be
00000010: 1b3f 2bbe 2175 8ebd cc38 87be 31ba a03e
00000020: 1f7a 9b3e c0fd 1a3f ebb9 49bf a025 34bf
00000030: 7115 e73e b10c ab3d fcff 01bc 62d9 a63e
00000040: 3622 c6be cd3e c83d a77c 313e 747e fcbd
00000050: ee4f c8bd 5c0b d6bc ee93 96bd 58aa 59be
00000060: c88f 5cbe 2e45 a6be f453 083e 8686 efbe
00000070: f8b0 df3d 5f06 f9bc 237b 523e 9c0a 8e3e
00000080: 6694 393f 0038 a43c 8849 e53e 89bd 0a3f
00000090: e16a 833e d879 c73e c920 e4be 10a1 223f
000000a0: df77 30bf ac5f 55be f712 20bf 57c7 b1be
000000b0: 9dbb a83e e2b6 333f 4045 523d 29bf 27be
000000c0: 3302 dc3d 2886 71be 6495 dc3e 310e 523e
000000d0: d26a cbbe 4ceb 773c 8cf8 94be 6439 22be
000000e0: 67dd a93e 1afc a73d 554e 5ebe 3a0c bcbe
000000f0: 746f d43d 95e0 093e fa31 0d3f abf9 01bf

encoder.en_convs.3.tra.point_conv.bias f4 [8]
0.042342927 -0.04246221 -0.40532634 0.20589025 0.16829517 0.11758576 -0.13386925 0.0808406
00000000: c76f 2d3d dbec 2dbd ef86 cfbe e5d4 523e
00000010: 9255 2c3e ced0 f03d 0515 09be c28f a53d

encoder.en_convs.4.tra.depth_conv.weight f4 [8, 1, 3]
-0.19358657 0.109588034 0.6655686 -0.09365201 -0.39949238 -1.0638905 -0.025736112 -0.38730094
-0.65276134 0.024889324 0.27218714 0.5137374 -0.28858033 -0.4528073 -0.74717027 0.21441208
0.07952726 0.7624193 -0.049853817 0.12113293 1.0448071 -0.5431751 0.3742654 0.50864005
00000000: 8f3b 46be b16f e03d b462 2a3f a0cc bfbd
00000010: 448a ccbe 902d 88bf 8ad4 d2bc 4f4c c6be
00000020: 5e1b 27bf b2e4 cb3c 1d5c 8b3e 4b84 033f
00000030: cdc0 93be 5cd6 e7be 8d46 3fbf d78e 5b3e
00000040: 30df a23d e92d 433f 8433 4cbd 8b14 f83d
00000050: 3dbc 853f 860d 0bbf b79f bf3e 3c36 023f

encoder.en_convs.4.tra.depth_conv.bias f4 [8]
-0.113035634 -0.028204547 -0.27295396 -0.4702816 0.7342019 0.05954029 -0.67379045 -0.19814658
00000000: 3a7f e7bd 390d e7bc 9fc0 8bbe c0c8 f0be
00000010: a8f4 3b3f 85e0 733d 887d 2cbf f0e6 4abe

encoder.en_convs.4.tra.point_conv.weight f4 [8, 8, 1]
-0.09890322 -0.7402239 0.14748718 -0.37842712 0.5640804 -0.19229838 0.04738867 -0.020356692
-0.3644458 -0.34433255 0.10779613 -0.39822674 -0.21546869 -0.6049463 0.46597373 0.23483346
-0.20669492 -0.3637106 -0.115388155 0.06393612 0.21629433 -0.26599073 -1.0128003 -0.32816517
0.78023076 0.34764013 0.8452654 0.77810293 0.58378655 -0.18498626 -0.05681023 0.60892075
0.03643392 0.20737685 0.325217 0.37185004 -0.62912494 -0.14964512 -0.14194986 0.11867166
0.036825716 0.28760573 0.12820837 0.26031774 -0.52568585 -0.19994563 -0.052416444 -0.43904603
-0.09220942 -0.07669557 0.50480527 0.8050949 -1.1877248 -0.94422174 0.4111852 0.12471165
0.19948365 0.15746127 0.095244266 0.15159456 -0.13630529 -0.11948983 0.8860923 0.12862504
00000000: c58d cabd 507f 3dbf e106 173e 33c1 c1be
00000010: 9367 103f dee9 44be 9f1a 423d 14c3 a6bc
00000020: a498 babe 5b4c b0be 38c4 dc3d 60e4 cbbe
00000030: d3a3 5cbe c3dd 1abf 1c94 ee3e 2f78 703e
00000040: d5a7 53be 4738 babe a050 ecbd f1f0 823d
00000050: 437c 5d3e f02f 88be 71a3 81bf 4405 a8be
00000060: 34bd 473f e3fd b13e 5063 583f c131 473f
00000070: 0973 153f 0a6d 3dbe d8b1 68bd 3be2 1b3f
00000080: bc3b 153d 995a 543e d882 a63e 2163 be3e
00000090: 550e 21bf 923c 19be 4e5b 11be 210a f33d
000000a0: 90d6 163d 0f41 933e 0e49 033e 5e48 853e
000000b0: 5993 06bf 8cbe 4cbe a0b2 56bd a4ca e0be
000000c0: 4bd8 bcbd 9112 9dbd eb3a 013f b31a 4e3f
000000d0: 5e07 98bf 84b8 71bf de86 d23e d268 ff3d
000000e0: 7145 4c3e 873d 213e 6d0f c33d 9b3b 1b3e
000000f0: 9d93 0bbe 16b7 f4bd f2d6 623f 48b6 033e

encoder.en_convs.4.tra.point_conv.bias f4 [8]
-0.19039394 -1.0133256 -0.16647932 0.05146577 -0.54538614 -0.06954975 -0.25867876 -0.62525326
00000000: a1f6 42be a7b4 81bf 8e79 2abe c5cd 523d
00000010: 6d9e 0bbf 1970 8ebd 8b71 84be 9910 20bf

decoder.de_convs.0.point_conv1.weight f4 [8, 16, 1, 1]
-0.20816687 0.094842896 0.5640524 -0.25733882 -0.055578116 0.03113493 0.42655408 0.3142865
-0.10656154 -0.47509173 0.88423043 0.14671518 -0.33156803 0.1905214 0.07907539 -0.56067264
-0.10357855 0.18180317 -0.08097263 0.3336098 -0.3700673 0.33612782 0.12858042 -0.05320862
-0.0910588 0.46959782 0.1785105 -0.18113036 -0.21395436 0.29376748 -0.3706844 0.009773784
0.138088 -0.46964258 0.44340932 0.08651549 -0.2609057 -0.2702693 0.11821663 0.020863634
-0.2678261 -0.5358946 0.17628716 -0.00075765525 -0.045085087 0.77874947 0.30202997 0.12824357
0.56372714 0.21304952 0.16225988 0.61694896 0.58627146 0.29956764 0.59611917 -0.46812198
-0.14484704 0.22995667 -0.09214364 -0.6928118 -0.42474222 -0.42412522 -0.46675116 0.22291149
0.11595972 -0.11155862 -0.6673238 0.0074672666 -0.42937624 -0.2519051 0.2984212 0.52660227
0.22262639 -0.13519414 0.22661245 -0.67524064 0.22909786 -0.26261726 0.58832085 -0.28136498
-0.28550342 -0.53936934 0.17576465 0.31366122 0.08683122 0.4952362 0.25985047 -0.38999274
0.59466046 -0.086861685 0.10365819 -0.16550429 0.36787888 0.0546975 -0.1076197 -0.39384884
-0.57081944 0.030189672 0.02285864 0.3192101 0.3438704 -0.6513324 -0.0027285167 -0.071127854
-0.09394698 -0.11006373 -0.17305191 0.038557228 0.46600017 0.078981586 0.30596164 0.109238654
0.32351717 0.37923437 0.07681643 0.36677992 -0.102514826 0.16550595 -0.46392375 -0.4835463
0.4753111 -0.25165853 0.46149704 -0.22602727 -0.3708087 -0.18912469 0.35098886 -0.45183176
00000000: b229 55be fe3c c23d bd65 103f eac1 83be
00000010: e1a5 63bd ae0e ff3c 4c65 da3e 29ea a03e
00000020: f03c dabd 393f f3be ed5c 623f 813c 163e
00000030: 49c3 a9be 0b18 433e 47f2 a13d 3e88 0fbf
00000040: fe20 d4bd 9c2a 3a3e fad4 a5bd e7ce aa3e
00000050: 7679 bdbe f218 ac3e 96aa 033e 48f1 59bd
00000060: 097d babd 206f f03e 75cb 363e 3d7a 39be
00000070: da16 5bbe b168 963e 58ca bdbe 3922 203c
00000080: f166 0d3e fe74 f0be 8c06 e33e 092f b13d
00000090: 6f95 85be bd60 8abe 8f1b f23d 36ea aa3c
000000a0: 8120 89be 6330 09bf 9f84 343e 629d 46ba
000000b0: 24ab 38bd 205c 473f aca3 9a3e 4852 033e
000000c0: 6c50 103f a729 5a3e 7427 263e 5ef0 1d3f
000000d0: e315 163f ee60 993e 449b 183f afad efbe
000000e0: c852 14be c379 6b3e ceb5 bcbd 1d5c 31bf
000000f0: d077 d9be f126 d9be 02fa eebe e942 643e
00000100: 4a7c ed3d d978 e4bd bcd5 2abf f9af f43b
00000110: 34d7 dbbe b5f9 80be aaca 983e 68cf 063f
00000120: 2cf8 633e 5570 0abe 180d 683e 92dc 2cbf
00000130: a198 6a3e c575 86be 329c 163f 120f 90be
00000140: 812d 92be 1c14 0abf a6fb 333e 3498 a03e
00000150: 91d4 b13d 998f fd3e 1f0b 853e 21ad c7be
00000160: ab3b 183f 8ae4 b1bd bf4a d43d f579 29be
00000170: 9f5a bc3e 7c0a 603d b867 dcbd 8ea6 c9be
00000180: 3921 12bf 5550 f73c 0b42 bb3c 826f a33e
00000190: c80f b03e b8bd 26bf ead0 32bb 7bab 91bd
000001a0: 4667 c0bd 1869 e1bd 8534 31be 2fee 1d3d
000001b0: 9397 ee3e 19c1 a13d 01a7 9c3e 84b8 df3d
000001c0: 0ba4 a53e 022b c23e ef51 9d3d 94ca bb3e
000001d0: 4bf3 d1bd 647a 293e 6a87 edbe 6193 f7be
000001e0: fa5b f33e 63d9 80be 5749 ec3e b173 67be
000001f0: a3da bdbe e7a9 41be d0b4 b33e 7e56 e7be

decoder.de_convs.0.point_conv1.bias f4 [16]
-0.19820388 -0.11255103 -0.1619833 0.21330777 0.10494131 0.21033545 0.02578149 0.21194021
-0.09408561 -0.23083077 -0.20168495 0.12646984 -0.058920544 -0.24471518 -0.12875754 -0.22389695
00000000: f5f5 4abe 2881 e6bd f3de 25be 5a6d 5a3e
00000010: 78eb d63d 2d62 573e b433 d33c db06 593e
00000020: f5af c0bd e75e 6cbe 8086 4ebe 4f81 013e
00000030: ab56 71bd 9e96 7abe 04d9 03be 3e45 65be

decoder.de_convs.0.point_bn1.weight f4 [16]
0.9846071 0.8866081 0.66814315 0.66495264 0.5575531 0.9654613 0.62692523 1.0203404
0.91033053 0.9074934 0.9369968 0.61758995 0.6455101 0.7002252 0.8477154 1.3500146
00000000: 360f 7c3f c0f8 623f 6e0b 2b3f 563a 2a3f
00000010: cdbb 0e3f 7928 773f 2c7e 203f 849a 823f
00000020: 6c0b 693f 7d51 683f 06df 6f3f 601a 1e3f
00000030: 2640 253f f541 333f e003 593f 47cd ac3f

decoder.de_convs.0.point_bn1.bias f4 [16]
0.4523801 -0.9254732 0.049580637 0.018698849 0.35100076 -0.41912287 0.30466524 0.71709067
-0.15842704 1.2439505 -0.13627392 0.2655442 1.5200629 0.07097942 0.22479302 1.4616745
00000000: 5d9e e73e d0eb 6cbf 1115 4b3d 542e 993c
00000010: 5fb6 b33e 4697 d6be 15fd 9b3e 4193 373f
00000020: b33a 22be c539 9f3f 648b 0bbe 69f5 873e
00000030: 6c91 c23f a85d 913d 2430 663e 2618 bb3f

decoder.de_convs.0.point_bn1.running_mean f4 [16]
1.166919 -1.2840066 2.0638392 8.69388 2.0059335 1.8062758 4.2311974 -5.191625
1.6819751 -0.9827999 1.6841301 -6.593475 -0.78041637 0.6772591 -0.32775483 -1.2330757
00000000: 9a5d 953f 545a a4bf f115 0440 221a 0b41
00000010: 3761 0040 0c34 e73f f865 8740 cb21 a6c0
00000020: f64a d73f c698 7bbf 9391 d73f bffd d2c0
00000030: 5ec9 47bf da60 2d3f 7bcf a7be 6dd5 9dbf

decoder.de_convs.0.point_bn1.running_var f4 [16]
7.0594025 4.2640104 4.6501446 3.0603745 3.750307 6.5174894 4.822113 5.4217052
8.110927 8.50042 14.990802 2.3805747 8.895641 6.041406 8.812465 13.249539
00000000: a0e6 e140 c672 8840 fccd 9440 2ddd 4340
00000010: 0805 7040 468f d040 c04e 9a40 9c7e ad40
00000020: 5bc6 0141 b801 0841 53da 6f41 565b 1840
00000030: 8c54 0e41 3353 c140 dbff 0c41 1dfe 5341

decoder.de_convs.0.depth_conv.weight f4 [16, 16, 3, 3]
-0.08460707 -0.3293924 0.022152212 -0.23938955 -0.294203 -0.26586372 -0.28577432 -0.09982675
-0.32986373 -0.119018175 -0.29960778 0.0863169 -0.008177075 0.13663302 0.110507786 0.10272915
0.45228824 -0.026022917 -0.004366627 -0.090661556 0.43447295 0.05554298 -0.010542745 0.1376619
-0.08562988 0.024800884 -0.19101335 0.022749018 0.69928867 -0.7210441 -0.04501681 0.13518153
-0.17413048 -0.0828812 -0.01385531 0.015321313 -0.18710263 -0.28031707 -0.010986636 0.10225329
0.12833853 -0.37026808 0.011517701 0.013809097 -0.105535075 0.19354929 -0.002932904 -1.0165796
0.18094285 0.06539774 -0.5887097 0.18698096 0.26517785 -0.054850996 0.13036056 0.23257986
-0.36252835 0.3456747 0.19886716 -0.17031947 -0.01310466 0.13602312 -0.036302015 -0.5561126
0.18359628 0.18875551 -0.468891 0.30903253 0.03342291 -0.2695252 0.3987721 -0.00040041047
-0.41670626 0.47634944 0.36006734 0.060962193 0.043441925 -0.18630108 -0.16402318 0.08748026
-0.15908636 0.063822284 -0.40639058 0.25339374 0.026670905 -0.15618253 -0.25253958 -0.11473313
0.0573919 -0.049019206 -0.19951786 0.056010522 -0.31238776 0.15123372 -0.13189583 -0.16430971
0.24241722 -0.2270869 -0.05553004 -0.32917884 0.52202713 0.68035907 -0.44633326 0.17138867
0.1098293 -0.19652785 0.04609159 0.017929846 0.50764483 0.5790288 -0.51116073 0.046602815
0.3490159 -0.07034012 0.11645179 0.22848396 0.056004576 -0.45742977 -0.37253225 0.44041353
0.052414745 -0.067395106 0.062596485 -0.02440239 -0.04220703 -0.044900462 -0.46727896 -0.62993044
-0.09177315 0.103230156 -0.0707687 0.09096633 0.11529987 -0.12838915 0.19609207 -0.043883108
-0.03528517 -0.8241228 0.017828299 0.11502588 -0.004394022 -0.12319658 0.026802767 -0.26683545
-0.30981284 0.052034665 -0.32572988 0.22486448 0.19840775 0.2607828 0.39516598 0.11952131
0.0530733 0.24504694 0.0037861092 0.33647954 0.30367443 -0.087837234 0.04503186 0.19844931
-0.04018985 -0.15584707 -0.14598793 -0.0767366 0.21023624 -0.42631066 -0.29633427 -0.12713921
-0.44125742 -0.03418842 -0.2656622 0.23308918 0.15348184 -0.21992005 0.16058297 -0.14321668
0.14686453 0.01834132 -0.15400381 0.06488811 -0.03019978 0.14931102 0.11810532 -0.33196327
-0.044068433 -0.74020445 -0.3420062 -0.30820984 -0.039524946 -0.20971918 0.2562258 0.13513729
-0.2847051 -0.14436178 0.21440256 -0.52856755 -0.21071929 -0.14894262 -0.41259643 0.32595986
-0.051216867 0.18599345 0.3245569 -0.20638672 0.106196254 0.082316115 -0.25396913 -0.6564798
-0.60575205 -0.24650058 -0.12295511 -0.10034127 -0.15387493 -0.08144362 0.113638744 -0.0605437
-0.40802327 0.27469414 0.49307835 0.24993089 -0.5731443 0.25675228 -0.148352 -0.3858129
0.1414515 -1.1386526 -0.6168743 0.16175728 -0.50604975 -0.10538783 0.05156908 -0.4081469
0.03825111 -0.056274697 -0.12332648 0.17509823 -0.16089222 0.13435167 0.047017645 -0.3259695
-0.24500547 -0.19004649 0.06936927 0.15513292 0.30406973 0.2790198 -0.79341745 -0.3450467
-0.08864205 -0.21856852 -0.41228938 -0.067062646 -0.01449281 0.14879252 0.30328506 0.047998227
00000000: 7946 adbd 1fa6 a8be 8e78 b53c 8922 75be
00000010: c7a1 96be 4a1f 88be 0351 92be f871 ccbd
00000020: e6e3 a8be cdbf f3bd 3166 99be eac6 b03d
00000030: 23f9 05bc 87e9 0b3e e851 e23d a963 d23d
00000040: 5392 e73e 032e d5bc ec15 8fbb c4ac b9bd
00000050: 3d73 de3e 0981 633d 7abb 2cbc 3ef7 0c3e
00000060: b85e afbd 392b cb3c 0199 43be 265c ba3c
00000070: 9504 333f 5996 38bf 8c63 38bd 076d 0a3e
00000080: 434f 32be 9ebd a9bd 6201 63bc 3f06 7b3c
00000090: d597 3fbe b885 8fbe 4b01 34bc 2c6a d13d
000000a0: 2d6b 033e c793 bdbe bdb4 3c3c 8d3f 623c
000000b0: c622 d8bd c931 463e f735 40bb 481f 82bf
000000c0: 1549 393e 40ef 853d aeb5 16bf f077 3f3e
000000d0: 64c5 873e 70ab 60bd 3d7d 053e 6a29 6e3e
000000e0: 519d b9be 46fc b03e d5a3 4b3e 3a68 2ebe
000000f0: eeb4 56bc a549 0b3e 6cb1 14bd 655d 0ebf
00000100: aa00 3c3e 2049 413e 7b12 f0be 8339 9e3e
00000110: 76e6 083d 35ff 89be db2b cc3e 2fee d1b9
00000120: 865a d5be 13e4 f33e bf5a b83e 7eb3 793d
00000130: 29f0 313d b6c5 3ebe b1f5 27be da28 b33d
00000140: 89e7 22be 42b5 823d 6d12 d0be d3bc 813e
00000150: f17c da3c 50ee 1fbe de4c 81be 34f9 eabd
00000160: c513 6b3d 5dc8 48bd 694e 4cbe 4a6b 653d
00000170: 4af1 9fbe 03dd 1a3e b30f 07be ce40 28be
00000180: 383c 783e 7889 68be 7873 63bd 218a a8be
00000190: 92a3 053f 032c 2e3f cb85 e4be 8380 2f3e
000001a0: 2fee e03d 993e 49be 89ca 3c3d 9de1 923c
000001b0: 03f5 013f 3b3b 143f 6edb 02bf 98e2 3e3d
000001c0: 36b2 b23e 7b0e 90bd 477e ee3d b3f7 693e
000001d0: 0e65 653d 3c34 eabe 8cbc bebe e27d e13e
000001e0: d8b0 563d 7206 8abd 9632 803d 85e7 c7bc
000001f0: 47e1 2cbd 8ce9 37bd 303f efbe 1f43 21bf
00000200: 90f3 bbbd 556a d33d 2eef 90bd 8e4c ba3d
00000210: 5722 ec3d 7278 03be 5ccc 483e c6be 33bd
00000220: 2f87 10bd b6f9 52bf a70c 923c b092 eb3d
00000230: bafb 8fbb 7d4e fcbd 7a91 db3c a89e 88be
00000240: ca9f 9ebe 4d22 553d 11c6 a6be e042 663e
00000250: 672b 4b3e 5385 853e 3253 ca3e 97c7 f43d
00000260: 6363 593d 96ed 7a3e 5f20 783b 0c47 ac3e
00000270: 377b 9b3e 02e4 b3bd 5473 383d 4c36 4b3e
00000280: 1d9e 24bd 6096 1fbe dc7d 15be 1428 9dbd
00000290: 2b48 573e 6445 dabe 20b9 97be c830 02be
000002a0: 7eec e1be 2809 0cbd e004 88be eeae 6e3e
000002b0: 582a 1d3e b932 61be dd6f 243e 65a7 12be
000002c0: a863 163e 8940 963c 2db3 1dbe 0fe4 843d
000002d0: 8765 f7bc fde4 183e 34e1 f13d 17f7 a9be
000002e0: 1a81 34bd 0a7e 3dbf 701b afbe aecd 9dbe
000002f0: e9e4 21bd a0c0 56be 0730 833e 6e61 0a3e
00000300: dec4 91be 93d3 13be 588c 5b3e 3450 07bf
00000310: ccc6 57be 6a84 18be d73f d3be 36e4 a63e
00000320: c7c8 51bd 1175 3e3e 522c a63e 0a57 53be
00000330: 6c7d d93d 5a95 a83d 3e08 82be 0f0f 28bf
00000340: 9112 1bbf a66a 7cbe e4cf fbbd b97f cdbd
00000350: 6491 1dbe eacb a6bd 6ebb e83d acfc 77bd
00000360: 6de8 d0be b6a4 8c3e c474 fc3e e2ed 7f3e
00000370: 96b9 12bf 0975 833e 96e9 17be 4589 c5be
00000380: a9d8 103e 5ebf 91bf 79eb 1dbf b3a3 253e
00000390: 7a8c 01bf 93d5 d7bd 1a3a 533d a1f8 d0be
000003a0: 32ad 1c3d 4c80 66bd 9892 fcbd f34c 333e
000003b0: eec0 24be 7c93 093e 9395 403d 79e5 a6be
000003c0: b7e2 7abe 8c9b 42be 7a11 8e3d 2adb 1e3e
000003d0: 07af 9b3e afdb 8e3e 681d 4bbf f6a9 b0be
000003e0: f789 b5bd 6dd0 5fbe 9817 d3be 2458 89bd
000003f0: 4073 6dbc 115d 183e 2e48 9b3e ca99 443d

decoder.de_convs.0.depth_conv.bias f4 [16]
-0.028578555 -0.04032084 -0.0124932965 -0.037272688 -0.045037746 -0.05593514 0.028194292 -0.06790167
-0.03934679 0.0146058025 0.010965839 0.014751971 0.017762775 -0.070020564 0.016190415 -0.01516047
00000000: 931d eabc 7727 25bd afb0 4cbc 3fab 18bd
00000010: 8079 38bd 3f1c 65bd b7f7 e63c 0810 8bbd
00000020: 1a2a 21bd 2d4d 6f3c 10aa 333c 40b2 713c
00000030: 3d83 913c f166 8fbd c3a1 843c 9f63 78bc

decoder.de_convs.0.depth_bn.weight f4 [16]
1.035076 1.0886441 0.76646376 1.1230631 1.0246264 0.8593011 1.2083642 1.1213568
1.0642072 0.9241567 0.8029283 1.1999984 0.875707 1.1584207 1.1935353 0.9182322
00000000: 5f7d 843f b158 8b3f f836 443f 88c0 8f3f
00000010: f526 833f 28fb 5b3f aeab 9a3f 9f88 8f3f
00000020: f137 883f 8995 6c3f b68c 4d3f 8c99 993f
00000030: 552e 603f 2147 943f c4c5 983f 4411 6b3f

decoder.de_convs.0.depth_bn.bias f4 [16]
0.11915432 -0.671498 0.24269472 -0.28757733 0.6632286 0.53132606 -0.3287062 -0.17779006
-0.4498667 0.259137 0.084392436 -0.38385737 0.55994815 -0.0124198785 0.51015157 0.16032264
00000000: 2e07 f43d 4be7 2bbf f784 783e 563d 93be
00000010: 59c9 293f fc04 083f 2e4c a8be 990e 36be
00000020: ee54 e6be 9bad 843e f1d5 ac3d f488 c4be
00000030: c358 0f3f bf7c 4bbc 4b99 023f 9e2b 243e

decoder.de_convs.0.depth_bn.running_mean f4 [16]
-4.6567883 -10.365146 -8.583966 -12.801542 -1.4225752 -4.7410345 -4.238863 1.0533247
-4.0947104 -9.878189 -6.543074 -0.33010787 -4.1398892 0.11857734 -0.41608912 -3.0005896
00000000: 6904 95c0 a3d7 25c1 ed57 09c1 1ed3 4cc1
00000010: f216 b6bf 8eb6 97c0 c4a4 87c0 58d3 863f
00000020: de07 83c0 100d 1ec1 dd60 d1c0 e603 a9be
00000030: f979 84c0 add8 f23d a209 d5be a909 40c0

decoder.de_convs.0.depth_bn.running_var f4 [16]
6.974411 11.530172 9.870869 11.590821 8.125803 4.764548 10.251378 7.7711067
4.1226125 5.5365353 4.82515 4.8362203 7.825887 4.520307 6.6542864 7.320906
00000000: 602e df40 967b 3841 14ef 1d41 0174 3941
00000010: 4a03 0241 2d77 9840 a505 2441 e8ac f840
00000020: 71ec 8340 4c2b b140 a167 9a40 51c2 9a40
00000030: ab6d fa40 5ba6 9040 eaef d440 dd44 ea40

decoder.de_convs.0.point_conv2.weight f4 [16, 8, 1, 1]
0.45350438 -0.0053498563 -0.6462997 -0.10979496 0.058906138 0.10894074 -0.5164873 0.24901883
0.8158204 -0.05291179 -0.053202208 0.6233434 0.2678186 -0.5822842 -0.15598834 -0.5772206
0.14720917 -0.21716323 -0.4068441 0.09537488 0.4326265 0.40054524 0.00727033 -0.27946073
0.33284092 -0.35874802 0.1476378 0.1566286 -0.11658678 0.8382855 -0.13935995 0.006489112
0.024675943 0.44644883 -0.38072455 -0.6064354 0.7406376 0.11427761 0.14110823 0.15523261
0.20635629 0.18845107 -0.41833434 0.2763457 -0.030519197 -0.02948786 0.6580722 0.44676584
-0.46947226 0.46172124 0.2643086 -0.5231308 0.5651372 0.052110083 -0.39588347 0.17111225
-0.06031146 -0.6185422 0.14999707 -0.106018916 0.39293888 -0.101206854 0.6668703 -0.5285016
-0.27395356 -0.0522356 0.8251258 -0.24832024 0.17343672 -0.22888103 0.3940106 -0.30298924
-0.25582263 -0.63497806 0.013161509 -0.15334946 -0.02543661 -0.026703868 -0.048980094 -0.4165966
-0.040338755 -0.024471562 -0.44231793 0.27634698 -0.45968193 0.24849617 -0.04792798 -0.6875582
0.278936 -0.67458534 0.42428946 -0.41794875 0.12502342 -0.19189821 -0.058290288 -0.1145986
0.35333472 0.22758207 0.14296168 -0.16115169 0.21752237 -0.44155872 0.53371483 -0.7741267
0.36408558 -0.07306381 0.16917476 0.16304012 -0.5063546 0.6157322 -0.0686455 -0.040796313
-0.71650416 -0.3168703 -0.3947134 -0.37984788 -0.06047471 -0.34097686 -0.19635412 0.11088827
-0.20503943 0.33365855 0.10592595 0.48110363 0.2440776 -0.5018013 0.007388029 -0.15745157
00000000: ba31 e83e d94d afbb e673 25bf 2edc e0bd
00000010: 9047 713d 531c df3d 8338 04bf cbfe 7e3e
00000020: 9bd9 503f 08ba 58bd 8fea 59bd 6f93 1f3f
00000030: 851f 893e 9410 15bf 68bb 1fbe bbc4 13bf
00000040: 00be 163e 0a60 5ebe df4d d0be e853 c33d
00000050: 3881 dd3e 4414 cd3e f33b ee3b 7a15 8fbe
00000060: 206a aa3e d2ad b7be 5d2e 173e 3f63 203e
00000070: 0dc5 eebd e199 563f 60b4 0ebe 9ea2 d43b
00000080: 3425 ca3c f194 e43e 54ee c2be 5a3f 1bbf
00000090: 6d9a 3d3f 610a ea3d ad7e 103e 4cf5 1e3e
000000a0: 104f 533e 51f9 403e eb2f d6be 2f7d 8d3e
000000b0: 6503 fabc 8690 f1bc 6b77 283f 7ebe e43e
000000c0: ab5e f0be ba66 ec3e 7553 873e e6eb 05bf
000000d0: d5ac 103f 6271 553d 3db1 cabe 0d38 2f3e
000000e0: 2609 77bd c858 1ebf d598 193e 7220 d9bd
000000f0: 492f c93e 8a45 cfbd 03b8 2a3f e14b 07bf
00000100: a443 8cbe fff4 55bd 723b 533f a947 7ebe
00000110: 6599 313e ca5f 6abe c2bb c93e 6821 9bbe
00000120: 2ffb 82be ec8d 22bf 5fa3 573c a407 1dbe
00000130: 7060 d0bc 12c2 dabc 5a9f 48bd 264c d5be
00000140: 403a 25bd 9678 c8bc 7f77 e2be 5a7d 8d3e
00000150: 6e5b ebbe c875 7e3e 2150 44bd d003 30bf
00000160: b3d0 8e3e a0b1 2cbf 783c d93e 61fd d5be
00000170: 2406 003e f780 44be ccc1 6ebd acb2 eabd
00000180: 4ae8 b43e 460b 693e 8c64 123e f304 25be
00000190: 2fbe 5e3e fc13 e2be 89a1 083f 2b2d 46bf
000001a0: 6d69 ba3e 7ba2 95bd 263c 2d3e fdf3 263e
000001b0: 74a0 01bf a0a0 1d3f 0396 8cbd 091a 27bd
000001c0: d16c 37bf d33c a2be e017 cabe 6c7b c2be
000001d0: 54b4 77bd 8594 aebe 0e11 49be 6419 e33d
000001e0: dbf5 51be 4bd5 aa3e b4ef d83d 3753 f63e
000001f0: 7aef 793e 0d76 00bf 4717 f23b fc3a 21be

decoder.de_convs.0.point_conv2.bias f4 [8]
0.11650501 0.2865009 -0.20125178 0.15549654 0.30393556 -0.12330135 -0.12786956 -0.21941848
00000000: 2e9a ee3d 3fb0 923e f214 4ebe 7c3a 1f3e
00000010: 719d 9b3e 6b85 fcbd 3df0 02be 3daf 60be

decoder.de_convs.0.point_bn2.weight f4 [8]
1.2595842 1.7371982 1.3227866 1.3960993 1.0524282 1.1025152 1.1592523 1.4067097
00000000: 0e3a a13f 835c de3f 1251 a93f 62b3 b23f
00000010: f8b5 863f 381f 8d3f 6162 943f 100f b43f

decoder.de_convs.0.point_bn2.bias f4 [8]
-1.8721857 0.31643704 -0.88270634 1.0800176 -1.6037775 0.76061654 0.7303407 -0.26182228
00000000: c8a3 efbf 0904 a23e 0bf9 61bf 043e 8a3f
00000010: 9548 cdbf c4b7 423f 9cf7 3a3f 920d 86be

decoder.de_convs.0.point_bn2.running_mean f4 [8]
0.3040334 -0.025529798 -1.068004 -0.52006793 1.2955467 -0.21129283 0.3820735 -1.0857954
00000000: 44aa 9b3e de23 d1bc 5bb4 88bf 2c23 05bf
00000010: 79d4 a53f 265d 58be 239f c33e 58fb 8abf

decoder.de_convs.0.point_bn2.running_var f4 [8]
0.78175575 0.8018679 0.8521289 0.49707088 0.57593656 0.9633579 0.9290755 1.1613953
00000000: 2521 483f 3747 4d3f 1f25 5a3f 1380 fe3e
00000010: 9470 133f a09e 763f e4d7 6d3f 9aa8 943f

decoder.de_convs.0.tra.depth_conv.weight f4 [8, 1, 3]
-0.1437132 -0.09431712 0.6623225 -0.23007634 -0.017452765 -0.91436505 -0.15732567 -0.15788156
-0.5447275 0.21687487 0.13494429 0.55664676 0.11289878 -0.06666866 -0.34319064 -0.16191013
-0.43778408 -0.992072 0.09797787 -0.17135234 0.5768789 -0.39579746 0.020671612 -0.84180784
00000000: 8e29 13be 5629 c1bd f88d 293f 2299 6bbe
00000010: 1af9 8ebc d413 6abf fb19 21be b4ab 21be
00000020: 4373 0bbf 7214 5e3e d62e 0a3e 6780 0e3f
00000030: 7a37 e73d 9489 88bd afb6 afbe c5cb 25be
00000040: 3c25 e0be 6ef8 7dbf 9fa8 c83d fd76 2fbe
00000050: 56ae 133f f7a5 cabe 8357 a93c b880 57bf

decoder.de_convs.0.tra.depth_conv.bias f4 [8]
0.23409647 0.30999056 0.63453406 -1.0506957 0.40506193 0.9205424 -0.17864046 0.3473889
00000000: fcb6 6f3e 15b7 9e3e d370 223f 327d 86bf
00000010: 4764 cf3e aba8 6b3f 86ed 36be f5dc b13e

decoder.de_convs.0.tra.point_conv.weight f4 [8, 8, 1]
-0.23915742 -0.3539909 0.28603446 -0.21078484 -0.03748673 0.0052142628 -0.26554808 0.09818681
0.48222002 -0.15943895 0.018572723 0.11405497 0.059578467 0.8534945 0.18450636 0.446463
0.089473315 0.05323365 -0.22701918 -0.17678937 -0.1573428 -0.59590936 -0.0653367 -0.04305928
-0.150693 -0.6368096 -0.03413714 0.06503482 -0.18144204 0.82054514 -0.23933133 0.40719667
0.3047869 -0.81447417 0.28840607 -0.746466 -0.23449525 -0.24582815 0.14874822 0.51276016
0.046145514 0.28687045 -0.7145299 -0.41158298 -0.15849328 -0.2259115 0.3870843 -0.13233382
0.2839249 0.0012291736 0.10274325 0.31340072 -0.17979866 -0.40548065 0.21853319 0.2229862
0.4455306 -0.02244559 0.02804037 0.36969346 -0.9199677 -0.78856355 -0.2956913 0.18103117
00000000: afe5 74be 4c3e b5be 1c73 923e fbd7 57be
00000010: af8b 19bd 68dc aa3b ebf5 87be 2b16 c93d
00000020: 8be5 f63e f743 23be d325 983c a795 e93d
00000030: 8d08 743d 9e7e 5a3f 3cef 3c3e cc96 e43e
00000040: c93d b73d 870b 5a3d b777 68be 4608 35be
00000050: 791e 21be 848d 18bf 3fcf 85bd ed5e 30bd
00000060: 444f 1abe f405 23bf 63d3 0bbd fa30 853d
00000070: f1cb 39be 3f0f 523f 4613 75be 157c d03e
00000080: 070d 9c3e 6181 50bf f6a9 933e 6518 3fbf
00000090: 861f 70be 60ba 7bbe 7451 183e 4044 033f
000000a0: 1403 3d3d afe0 923e 6eeb 36bf 01bb d2be
000000b0: 104c 22be 5855 67be ea2f c63e 8482 07be
000000c0: 9b5e 913e 391c a13a 0e6b d23d 0f76 a03e
000000d0: 241d 38be 299b cfbe 2ac7 5f3e 7f56 643e
000000e0: 961c e43e d0df b7bc ebb4 e53c 7648 bd3e
000000f0: 0183 6bbf 4ddf 49bf da64 97be 3c60 393e

decoder.de_convs.0.tra.point_conv.bias f4 [8]
0.5452604 0.43264928 -0.36459517 0.15210514 0.15860865 0.04591145 -0.5790215 -0.36582994
00000000: 3096 0b3f 3584 dd3e 38ac babe 73c1 1b3e
00000010: 4e6a 223e a50d 3c3d c13a 14bf 104e bbbe

decoder.de_convs.1.point_conv1.weight f4 [8, 16, 1, 1]
-0.35980883 0.6215963 1.465561 0.26449358 -0.85956955 -0.3102375 0.5354791 -0.22712591
0.4215825 0.6181854 0.41529232 -1.3840024 0.35051087 0.64884424 0.4276453 -0.54717994
-0.14747329 0.13111252 0.21359766 0.33066523 0.015960148 -0.030625127 0.06915768 0.23226272
-0.02538917 -0.36802095 0.012147224 0.013686846 0.022435367 -0.04634051 -0.21753775 -0.26327497
-0.5594811 0.4269252 -0.42497668 -0.2272221 -0.21237232 0.52261883 0.82445025 0.5205863
-0.4754254 0.14825112 0.1702612 -0.00038132392 -1.2843759 -0.4083084 0.0077337 0.23116754
0.09792722 -0.5138662 0.03433708 -0.011536182 -0.15981506 0.13433045 -0.25382704 -0.027248058
-0.20488267 -0.28771207 0.28591317 0.27754653 -0.22060046 -0.21891052 0.11886669 0.31829
0.23583287 0.18235756 -0.14468849 0.31960282 -0.27755708 0.54670906 0.16423921 -1.013224
-0.18463635 0.62571293 0.4686221 -0.2598378 0.11169819 -0.38354033 -0.53706247 0.19262134
-0.095595635 -0.09091173 0.024679624 0.11672604 -0.29825985 0.02625203 0.4223607 -0.013795888
-0.5335771 -0.2769822 0.42403767 0.011547979 0.18192446 0.2763056 0.1354642 -0.1734757
-0.22193429 0.32944068 -0.090597995 -0.71231073 0.72183365 0.6779525 0.09544712 0.19225506
-0.019381749 -0.15812528 -0.5716556 -0.30711585 -0.10047988 -0.6666972 0.840659 0.11400547
0.59025466 -0.32479906 0.19698048 -0.4881415 0.106947385 0.23360585 0.033386037 0.06906639
-0.3629351 -0.1683168 0.017375184 -0.0028123364 0.05907623 0.018804371 0.21129589 -0.6398731
00000000: dd38 b8be ef20 1f3f 8197 bb3f b46b 873e
00000010: c00c 5cbf 73d7 9ebe 2915 093f b293 68be
00000020: a9d9 d73e 6641 1e3f 32a1 d43e fe26 b1bf
00000030: 2976 b33e a81a 263f 53f4 da3e fc13 0cbf
00000040: 3d03 17be 5c42 063e 58b9 5a3e f44c a93e
00000050: dbbe 823c 8ce1 fabc 8ba2 8d3d 47d6 6d3e
00000060: f3fc cfbc 3e6d bcbe 2605 473c cb3e 603c
00000070: 60ca b73c 8ccf 3dbd 37c2 5ebe facb 86be
00000080: 273a 0fbf f195 da3e 8b96 d9be e9ac 68be
00000090: 2178 59be 59ca 053f 2c0f 533f 2545 053f
000000a0: f56a f3be 24cf 173e f458 2e3e 6eec c7b9
000000b0: 6e66 a4bf cc0d d1be fa6a fd3b 2fb7 6c3e
000000c0: 118e c83d bc8c 03bf 0aa5 0c3d 4102 3dbc
000000d0: 8fa6 23be ec8d 093e 9ef5 81be 5237 dfbc
000000e0: c3cc 51be ff4e 93be 3663 923e 941a 8e3e
000000f0: 16e5 61be 142a 60be 6170 f33d e8f6 a23e
00000100: 2c7e 713e f1bb 3a3e 3829 14be fba2 a33e
00000110: f61b 8ebe 20f5 0b3f 532e 283e 53b1 81bf
00000120: 5011 3dbe b92e 203f 3cef ef3e 7609 85be
00000130: 05c2 e43d 665f c4be ed7c 09bf 873e 453e
00000140: a5c7 c3bd ee2f babd ec2c ca3c 100e ef3d
00000150: 84b5 98be 7f0e d73c a93f d83e 2608 62bc
00000160: 8298 08bf 9cd0 8dbe 771b d93e bc33 3d3c
00000170: 684a 3a3e ed77 8d3e 21b7 0a3e 9da3 31be
00000180: be42 63be 73ac a83e 718b b9bd ff59 36bf
00000190: 17ca 383f 4c8e 2d3f c879 c33d 83de 443e
000001a0: 79c6 9ebc 98eb 21be 0558 12bf 4a3e 9dbe
000001b0: 65c8 cdbd abac 2abf 6e35 573f b37b e93d
000001c0: ee1a 173f 104c a6be 40b5 493e afed f9be
000001d0: 3b07 db3d 5f36 6f3e ccbf 083d ae72 8d3d
000001e0: a1d2 b9be 3d5b 2cbe 6756 8e3c 2d4f 38bb
000001f0: ebf9 713d a00b 9a3c f35d 583e b9ce 23bf

decoder.de_convs.1.point_conv1.bias f4 [16]
-0.21565159 0.25709602 -0.12491252 0.08791615 -0.005846817 0.13874616 0.05327721 -0.051700562
-0.12671646 0.2094235 -0.2401415 -0.115130186 0.20568058 0.0361242 0.10301343 0.22211474
00000000: c5d3 5cbe 17a2 833e 23d2 ffbd 620d b43d
00000010: a896 bfbb 7913 0e3e 3439 5a3d f8c3 53bd
00000020: f6c1 01be 1d73 563e a7e7 75be 60c9 ebbd
00000030: ee9d 523e f8f6 133d b5f8 d23d 0c72 633e

decoder.de_convs.1.point_bn1.weight f4 [16]
0.90365696 0.9998647 1.0273839 1.1459434 0.94497997 0.87535197 1.0124778 1.1787266
0.8336502 1.1532832 0.8714262 1.1545177 1.2432259 0.929894 0.6208331 0.9254355
00000000: 1056 673f 22f7 7f3f 5181 833f 46ae 923f
00000010: 35ea 713f 1117 603f df98 813f 83e0 963f
00000020: 196a 553f c99e 933f ca15 5f3f 3cc7 933f
00000030: 0722 9f3f 880d 6e3f ebee 1e3f 57e9 6c3f

decoder.de_convs.1.point_bn1.bias f4 [16]
-0.106031425 0.08020455 -0.15553728 -0.48748162 0.6536493 -0.20768742 0.4074807 0.15073241
0.025096932 -0.33257255 0.019029854 0.06959487 -0.6832473 0.47207448 0.8590741 1.416202
00000000: 0127 d9bd 4842 a43d 2a45 1fbe 3197 f9be
00000010: 8f55 273f 03ac 54be 4fa1 d03e 9959 1a3e
00000020: 1598 cd3c f346 aabe 7fe4 9b3c c187 8e3d
00000030: 4ce9 2ebf bfb3 f13e 48ec 5b3f 1b46 b53f

decoder.de_convs.1.point_bn1.running_mean f4 [16]
0.2105379 -2.9881697 -0.06797135 -0.5935086 -0.9506248 1.3036934 0.64828086 1.0241104
-4.021816 -3.6497295 2.1558537 1.8203171 -0.28850788 -0.15391669 2.0943558 0.118401974
00000000: 3f97 573e 2c3e 3fc0 9034 8bbd 2ef0 17bf
00000010: 265c 73bf 6ddf a63f bcf5 253f 0d16 833f
00000020: b7b2 80c0 2b95 69c0 82f9 0940 2700 e93f
00000030: 4eb7 93be 569c 1dbe ed09 0640 bc7c f23d

decoder.de_convs.1.point_bn1.running_var f4 [16]
2.013482 1.1016716 2.1350272 1.4401438 1.166834 1.0821224 1.8701158 3.929753
1.8118749 2.1011603 1.3537501 1.592466 2.4310236 1.2888708 0.943086 4.715573
00000000: e4dc 0040 9303 8d3f 49a4 0840 a256 b83f
00000010: d15a 953f fd82 8a3f f45f ef3f 1381 7b40
00000020: 84eb e73f 6979 0640 af47 ad3f edd5 cb3f
00000030: e495 1b40 b8f9 a43f 166e 713f f9e5 9640

decoder.de_convs.1.depth_conv.weight f4 [16, 16, 3, 3]
0.19902696 -0.33868864 -0.50067735 -0.3314008 -0.15868224 -0.31823692 -0.24158733 0.2206651
-0.06743294 0.519943 -0.17481922 -0.078452095 0.54458165 -0.08512728 -0.21384814 0.33528733
-0.10184835 -0.2107577 0.660609 0.020399405 -0.0005268141 0.15655093 -0.02857002 -0.3661087
0.3050971 -0.35818103 -0.2864676 0.2161793 -0.056913365 -0.4076565 -0.14142586 0.07774487
-0.22419646 -0.07921171 0.038783327 -0.29157218 -0.18747644 0.23607196 0.39303997 0.013594602
-0.05108434 -0.08243932 -0.027137512 -0.18005718 -0.07778886 -0.61152756 0.07175849 0.28074855
-0.43086198 0.07826798 0.14408383 -0.066906765 -0.15777823 0.27647886 -0.54319775 -0.03471524
-0.89620835 0.28056607 0.24871394 -0.4784011 0.3917402 0.03122237 -0.58051395 -0.08310381
0.27656785 -0.68420786 0.1762751 -0.034320995 -0.12001828 -0.14818178 -0.3846216 -0.14942282
-0.18972561 -0.17111038 0.18261802 -0.09085825 0.08132553 0.12783846 -0.16450141 -0.003046921
0.06826422 0.047029853 -0.28478745 0.017344045 -0.09029294 0.020174243 -0.1553788 -0.106313646
-0.16482167 -0.09471674 0.33232504 -0.05965083 -0.024344493 0.29016298 -0.059828043 0.17502426
0.08181798 -0.013355569 0.029030627 0.09462036 -0.12172975 -0.039221175 0.2918362 0.34198132
0.27500516 0.67333126 0.3110437 0.21862873 -0.3430059 -0.41083923 -0.49731675 -0.061421365
-0.26532617 -0.25290996 -0.21486118 -0.19464315 -0.2608464 -0.98879486 -0.06852338 0.017164012
-0.21534379 0.15566687 0.40433916 0.030750513 0.21601726 0.33891627 0.7165018 0.5900246
0.28353593 -0.083629616 0.14727153 0.003656796 0.02399063 0.08379149 -0.059557326 -0.40677208
-0.754291 -0.3681073 -0.09014084 -0.38853687 0.015753748 -0.21078648 -0.3511551 0.09821591
-0.3606482 -0.6180257 -0.08785787 0.10590594 -0.1829624 0.33861792 -0.16831619 -0.17858271
0.30930462 -0.28258494 -0.58490354 0.029290503 -0.2387918 -0.22780015 -0.055933718 -0.30822465
-0.0011723326 -0.11709775 -0.13232434 -0.072442435 0.5024632 -0.041396666 -0.15690471 0.13283324
0.011083265 0.15772858 0.06363678 -0.0356934 0.6614076 0.60703087 -0.36630198 0.12652354
0.31219226 -0.16714537 0.016248433 0.25463372 0.34217393 -0.5684665 -0.7603636 0.12966867
-0.1802445 -0.43367088 0.13106625 0.089965135 -0.14012294 0.22045878 0.62705255 0.2992165
-0.10843799 0.15321505 -0.1329528 0.006435879 0.48513559 -0.061691836 0.14428683 0.104169756
0.1756544 0.14899749 0.21509337 -0.039205343 0.1297861 0.37252155 0.027362797 -0.14147218
0.15175237 0.21119663 -0.29793832 -0.1959491 -0.3085255 0.028206317 -0.040843304 -0.2508336
0.042412486 -0.061195847 -0.4852085 0.27069288 0.08630832 -0.36193654 0.14993273 0.021444513
-0.20383957 0.13418941 -0.40873432 0.009870237 0.25568548 -0.15300778 0.079041734 0.2679242
0.21292326 0.20019224 0.04916812 -0.24857198 -0.121423244 0.1017602 -0.026247855 -0.07875135
0.011515218 -0.21134648 -0.11807201 -0.510162 -0.34639794 -0.8110495 -0.2049866 0.08400479
-0.14236939 -0.5247338 -0.0062775947 -0.1580577 -0.0039922106 -0.26258165 -0.43771917 0.10215767
00000000: b9cd 4b3e 9968 adbe 642c 00bf 5ead a9be
00000010: 997d 22be f3ef a2be ab62 77be 08f6 613e
00000020: 481a 8abd fc1a 053f cf03 33be 7eab a0bd
00000030: b469 0b3f 3657 aebd 02fb 5abe c8aa ab3e
00000040: de95 d0bd ded0 57be ac1d 293f a71c a73c
00000050: e519 0aba e34e 203e ad0b eabc 9972 bbbe
00000060: b035 9c3e 8163 b7be e2ab 92be 1b5e 5d3e
00000070: fd1d 69bd 5ab8 d0be f1d1 10be b438 9f3d
00000080: c293 65be c039 a2bd 44db 1e3d f348 95be
00000090: d3f9 3fbe d9bc 713e 893c c93e e5bb 5e3c
000000a0: d03d 51bd f2d5 a8bd 7d4f debc e960 38be
000000b0: c44f 9fbd 128d 1cbf 1df6 923d 46be 8f3e
000000c0: f199 dcbe f64a a03d b68a 133e 6a06 89bd
000000d0: 9e90 21be a38e 8d3e 020f 0bbf 9131 0ebd
000000e0: e96d 65bf 5ba6 8f3e deae 7e3e fdf0 f4be
000000f0: 2c92 c83e 0ec6 ff3c 909c 14bf 5532 aabd
00000100: 4d9a 8d3e 3f28 2fbf 7681 343e 2c94 0cbd
00000110: 25cc f5bd f7bc 17be 1fed c4be 4c02 19be
00000120: 6e47 42be 8f37 2fbe 3800 3b3e e413 babd
00000130: 008e a63d 16e8 023e 0f73 28be daae 47bb
00000140: 1dce 8b3d 60a2 403d a9cf 91be 1915 8e3c
00000150: 81eb b8bd 7444 a53c 9f1b 1fbe f8ba d9bd
00000160: 03c7 28be dafa c1bd 8226 aa3e 6e54 74bd
00000170: 1a6e c7bc 3e90 943e 400e 75bd 8f39 333e
00000180: 2f90 a73d 51d1 5abc a3d1 ed3c 52c8 c13d
00000190: 724d f9bd 62a6 20bd 8e6b 953e 2d18 af3e
000001a0: 7acd 8c3e 705f 2c3f 1f41 9f3e 36e0 5f3e
000001b0: 789e afbe 8559 d2be 4da0 febe f894 7bbd
000001c0: d5d8 87be 6a7d 81be 9204 5cbe 8950 47be
000001d0: a98d 85be a921 7dbf fc55 8cbd 8b9b 8c3c
000001e0: 1583 5cbe 2367 1f3e 8b05 cf3e 80e8 fb3c
000001f0: a133 5d3e 6f86 ad3e a96c 373f da0b 173f
00000200: 9f2b 913e 0146 abbd 59ce 163e dba6 6f3b
00000210: ff87 c43c df9a ab3d 62f2 73bd 6e44 d0be
00000220: 3719 41bf 8f78 bcbe c39b b8bd 4eee c6be
00000230: 010e 813c 69d8 57be 9aca b3be 6c25 c93d
00000240: e2a6 b8be ef36 1ebf d4ee b3bd 37e5 d83d
00000250: 7f5a 3bbe 545f ad3e 145b 2cbe 63de 36be
00000260: 2d5d 9e3e f9ae 90be 3dbc 15bf a3f2 ef3c
00000270: d685 74be 7144 69be c11a 65bd 9fcf 9dbe
00000280: f4a8 99ba f2d0 efbd 0880 07be b35c 94bd
00000290: 6ea1 003f 8d8f 29bd a1ab 20be 7005 083e
000002a0: 9596 353c 9a83 213e 0054 823d 3e33 12bd
000002b0: 0252 293f 6066 1b3f ef8b bbbe 638f 013e
000002c0: aad7 9f3e 2828 2bbe 6f1b 853c 5a5f 823e
000002d0: 6c31 af3e 0587 11bf 30a7 42bf ddc7 043e
000002e0: 0492 38be 1c0a debe 3b36 063e a43f b83d
000002f0: 637c 0fbe f2bf 613e 8486 203f e832 993e
00000300: bd14 debd 68e4 1c3e c724 08be 11e4 d23b
00000310: b163 f83e 94b0 7cbd edbf 133e f456 d53d
00000320: bfde 333e cc92 183e 7041 5c3e c895 20bd
00000330: a6e6 043e 25bb be3e f227 e03c 15de 10be
00000340: f964 1b3e ee43 583e 5f8b 98be e2a6 48be
00000350: 0ef7 9dbe ef10 e73c 4f4b 27bd 436d 80be
00000360: b7b8 2d3d 7fa8 7abd 406d f8be 4298 8a3e
00000370: 6bc2 b03d bf4f b9be f787 193e 67ac af3c
00000380: 52bb 50be f368 093e a045 d1be c6b6 213c
00000390: 35e9 823e 12ae 1cbe a2e0 a13d 5c2d 893e
000003a0: 8e08 5a3e 32ff 4c3e 8364 493d a789 7ebe
000003b0: c0ac f8bd a767 d03d be05 d7bc 6348 a1bd
000003c0: 53aa 3c3c 366b 58be bdcf f1bd fa99 02bf
000003d0: 125b b1be f1a0 4fbf 02e8 51be b40a ac3d
000003e0: 48c9 11be f454 06bf 48b4 cdbb e1d9 21be
000003f0: 17d1 82bb 1a71 86be ba1c e0be 0a38 d13d

decoder.de_convs.1.depth_conv.bias f4 [16]
-0.094779834 -0.023241287 0.058333077 -0.07058909 0.004984724 0.027151866 0.0009420763 -0.011724158
0.048345003 0.032197565 0.002155711 0.06875541 0.19878818 -0.04841864 -0.05978104 0.06282704
00000000: ee1b c2bd 8364 bebc aaee 6e3d 0391 90bd
00000010: e556 a33b 976d de3c acf5 763a af16 40bc
00000020: 6905 463d 98e1 033d d446 0d3b a3cf 8c3d
00000030: 218f 4b3e a052 46bd f7dc 74bd 77ab 803d

decoder.de_convs.1.depth_bn.weight f4 [16]
0.8202426 0.92957985 0.94566 1.035876 0.93259835 0.9408916 1.0262593 0.9430893
1.1541328 0.91317856 1.0120709 0.8114745 1.1335727 1.284356 1.0395314 0.83924425
00000000: 6bfb 513f f2f8 6d3f c616 723f 9697 843f
00000010: c4be 6e3f 46de 703f 775c 833f 4d6e 713f
00000020: a0ba 933f 12c6 693f 8a8b 813f cbbc 4f3f
00000030: e918 913f c765 a43f 5d0f 853f b6d8 563f

decoder.de_convs.1.depth_bn.bias f4 [16]
0.21440588 0.38831046 -0.4846979 0.35460466 0.48888683 -0.04291518 0.08594178 0.31240728
-2.253711 -0.3119407 -0.1525694 0.05038725 0.9774541 0.18271881 0.7003849 0.6987914
00000000: 378d 5b3e a1d0 c63e 532a f8be be8e b53e
00000010: 604f fa3e d4c7 2fbd 3e02 b03d d9f3 9f3e
00000020: cd3c 10c0 b1b6 9fbe 273b 1cbe dc62 4e3d
00000030: 6f3a 7a3f a41a 3b3e 6d4c 333f fee3 323f

decoder.de_convs.1.depth_bn.running_mean f4 [16]
1.7649451 -1.7709904 -2.6865988 -3.4281793 -3.1826682 -3.6485965 -2.1429377 -1.3145993
-1.3518376 5.2548027 0.49130407 0.35649383 5.2471886 -4.0474763 3.2448945 -2.7164178
00000000: b9e9 e13f d0af e2bf 3cf1 2bc0 4a67 5bc0
00000010: d6b0 4bc0 9b82 69c0 e425 09c0 ca44 a8bf
00000020: 0409 adbf 5827 a840 358c fb3e 5c86 b63e
00000030: f8e8 a740 ed84 81c0 5aac 4f40 cad9 2dc0

decoder.de_convs.1.depth_bn.running_var f4 [16]
5.7779794 10.456761 4.509512 11.564556 6.322365 7.732356 10.86631 13.126983
4.4972014 6.7665277 19.816994 12.580231 8.109119 16.700758 13.541975 6.1275377
00000000: 35e5 b840 e54e 2741 ec4d 9040 6c08 3941
00000010: d050 ca40 766f f740 68dc 2d41 1f08 5241
00000020: 13e9 8f40 6587 d840 3489 9e41 a048 4941
00000030: f4be 0141 279b 8541 eeab 5841 ca14 c440

decoder.de_convs.1.point_conv2.weight f4 [16, 8, 1, 1]
-0.18082559 -0.02583673 -0.3753631 0.2805037 0.2708371 0.24128361 -0.33396748 0.6720537
0.23859406 0.38153648 0.19804041 0.29933587 0.1707207 -0.2354724 0.51267695 0.5755893
0.31605655 -0.14340007 -0.14146003 -0.052064095 0.51655644 -0.05850964 0.2589204 0.033185154
0.21692479 0.018890828 -0.32984638 0.4178733 0.367703 -0.3512135 0.21265996 -0.24271321
-0.3799723 -0.016615786 -0.18142606 0.5795146 0.07575721 -0.24357285 -0.26761112 -0.2340094
0.3272253 0.030976519 0.1300634 -0.4874809 0.10789942 -0.25398615 0.6368013 0.58716077
-0.27409363 0.14858696 0.18652031 0.72884405 0.032808613 0.0029648566 0.29108536 0.79020315
-0.4637623 -0.18252976 -0.4919353 -0.5250001 -0.03374173 0.024850668 -0.27843937 -0.07920902
-0.6032327 1.3500924 -0.531909 -0.509759 0.053627472 0.33616838 0.19836168 -0.10751809
-0.13762142 0.016707236 -0.18356168 -0.51727444 -0.1988305 0.35636544 -0.024696866 -0.18590422
-0.74722207 -0.40647647 -0.24378812 0.03671913 -0.09633475 0.34462762 0.4433329 -0.07795085
-0.19708526 -0.302704 -0.029012904 0.4889245 -0.18017526 -0.2891693 0.17394193 -0.6728263
0.2799403 0.30894276 -0.009746439 0.03892193 -0.7222657 -0.5275845 0.34787452 0.35557178
0.14807509 -0.20146169 0.85928893 0.12593271 -0.426122 -0.32216063 -0.4546518 -0.023107402
-0.36450556 0.036950476 0.57402474 -0.19048321 0.52081335 0.08397984 -0.40747726 -0.20407845
0.14580144 -0.14446212 -0.25820157 -0.118526675 -0.15069878 0.47563958 0.4408347 -0.0053619794
00000000: 582a 39be 8da7 d3bc 982f c0be 2e9e 8f3e
00000010: 29ab 8a3e 0d13 773e c9fd aabe b60b 2c3f
00000020: 0052 743e c058 c33e 1bcb 4a3e 8d42 993e
00000030: 68d1 2e3e ad1f 71be cc3e 033f d259 133f
00000040: 2ad2 a13e 78d7 12be e6da 10be 2941 55bd
00000050: 0b3d 043f cea7 6fbd 3791 843e 28ed 073d
00000060: 8821 5e3e f0c0 9a3c a0e1 a8be 7df3 d53e
00000070: 9143 bc3e 42d2 b3be 88c3 593e d089 78be
00000080: bb8b c2be d41d 88bc c1c7 39be 125b 143f
00000090: 9926 9b3d 296b 79be 5304 89be 29a0 6fbe
000000a0: 138a a73e 78c2 fd3c 572f 053e 1997 f9be
000000b0: 5ffa dc3d 790a 82be 6905 233f 2b50 163f
000000c0: 0056 8cbe 2e27 183e 2eff 3e3e 8695 3a3f
000000d0: 5362 063d 0a4e 423b 2409 953e c14a 4a3f
000000e0: 4172 edbe 15e9 3abe f2de fbbe 6866 06bf
000000f0: c534 0abd a193 cb3c 9b8f 8ebe 5738 a2bd
00000100: 756d 1abf d4cf ac3f 302b 08bf 917f 02bf
00000110: 7ba8 5b3d 431e ac3e 531f 4b3e 7232 dcbd
00000120: a1ec 0cbe 9ddd 883c 98f7 3bbe 196c 04bf
00000130: 399a 4bbe 8875 b63e 1551 cabc ad5d 3ebe
00000140: f249 3fbf af1d d0be 98a3 79be cc66 163d
00000150: 274b c5bd 0873 b03e 88fc e23e b2a4 9fbd
00000160: b8d0 49be 05fc 9abe 78ac edbc 5054 fa3e
00000170: dd7f 38be 000e 94be d51d 323e 583e 2cbf
00000180: 5654 8f3e bf2d 9e3e 87af 1fbc 9a6c 1f3d
00000190: 68e6 38bf c70f 07bf 9c1c b23e 810d b63e
000001a0: ffa0 173e f94b 4ebe 5cfa 5b3f 81f4 003e
000001b0: aa2c dabe 3df2 a4be 1fc8 e8be bc4b bdbc
000001c0: 79a0 babe 6259 173d 49f3 123f 080e 43be
000001d0: 0654 053f 9ffd ab3d dca0 d0be f1f9 50be
000001e0: f94c 153e e1ed 13be ff32 84be 1dbe f2bd
000001f0: c850 1abe 0887 f33e 16b5 e13e 8bb3 afbb

decoder.de_convs.1.point_conv2.bias f4 [8]
0.12624975 0.35973325 -0.094568945 -0.3107297 -0.5344365 0.17339367 -0.35862517 0.26184714
00000000: 9d47 013e f52e b83e 5dad c1bd f717 9fbe
00000010: d5d0 08bf 1c8e 313e b89d b7be d410 863e

decoder.de_convs.1.point_bn2.weight f4 [8]
1.068858 1.2430359 1.3157525 1.4759278 1.3111173 1.6090534 1.3762269 0.8533816
00000000: 57d0 883f cd1b 9f3f 946a a83f 34eb bc3f
00000010: b1d2 a73f 76f5 cd3f 3428 b03f 3777 5a3f

decoder.de_convs.1.point_bn2.bias f4 [8]
-0.81109726 -1.8526243 1.5717261 -0.4797075 0.6500121 0.32454902 0.27547565 -1.1641864
00000000: 12a4 4fbf cb22 edbf 522e c93f 399c f5be
00000010: 3167 263f 4a2b a63e 250b 8d3e 0f04 95bf

decoder.de_convs.1.point_bn2.running_mean f4 [8]
-0.18389386 0.31510273 0.08472442 0.49249312 -0.78882694 -0.5790419 0.24881439 0.97115576
00000000: ac4e 3cbe 2555 a13e ff83 ad3d 0f28 fc3e
00000010: 90f0 49bf 173c 14bf 33c9 7e3e aa9d 783f

decoder.de_convs.1.point_bn2.running_var f4 [8]
1.2984203 0.22482453 0.82258046 1.2199454 0.7783989 0.5835984 0.68697405 0.95953614
00000000: a332 a63f 6738 663e a294 523f 2c27 9c3f
00000010: 2645 473f b466 153f 88dd 2f3f 29a4 753f

decoder.de_convs.1.tra.depth_conv.weight f4 [8, 1, 3]
0.025645608 -0.18512549 -0.15838818 0.025871111 0.23695123 -0.3249416 0.11687379 -0.0668412
-0.44261405 0.44862548 0.44049048 1.0278019 0.11318868 0.16075729 0.97624594 0.114971586
0.065462925 0.94443136 -0.32198104 -0.29447064 -1.1398447 0.35895464 -0.04355644 -0.5323784
00000000: bd16 d23c 8991 3dbe 8330 22be a7ef d33c
00000010: 58a3 723e bf5e a6be 875b ef3d 0ae4 88bd
00000020: 4f9e e2be 3db2 e53e f887 e13e 038f 833f
00000030: 77cf e73d 8f9d 243e 41eb 793f 3976 eb3d
00000040: 6d11 863d 41c6 713f b3da a4be dbc4 96be
00000050: 6ee6 91bf e7c8 b73e 3d68 32bd f349 08bf

decoder.de_convs.1.tra.depth_conv.bias f4 [8]
0.8878088 -0.3292945 0.9690133 -0.15703323 0.65954614 -0.49414515 0.41098502 0.696348
00000000: 7047 633f 4a99 a8be 4111 783f 52cd 20be
00000010: 04d8 283f 9800 fdbe a16c d23e dd43 323f

decoder.de_convs.1.tra.point_conv.weight f4 [8, 8, 1]
0.016666824 0.026069408 -0.83194125 0.27002156 -0.51510346 0.47873464 0.03846211 0.021445202
0.37569395 -0.09127469 0.054251444 -1.0954745 -0.00746535 -0.17221849 -0.7569062 -0.0014316768
0.12522104 0.03198634 0.054393284 -0.11521858 0.6856651 -0.9120027 0.20831221 0.2424022
-0.18368773 -0.15944432 0.2848015 -0.04535482 0.10679444 0.061980486 0.38117084 -0.4424889
-0.46056408 0.3313625 -0.32155985 -0.2818451 0.657481 -0.54813576 0.44602472 -0.22038458
-0.30912215 -0.0374584 0.8724121 0.86689085 -0.38234258 0.92703205 0.8914655 0.2525405
-0.8751431 -0.67409325 -0.008628273 -0.06871768 -0.3045621 0.31502828 0.2603918 0.3156269
0.68903965 -0.1379301 0.22439086 -0.48332697 0.20936504 -0.77403516 -0.43112817 -0.1242532
00000000: dd88 883c 838f d53c 1afa 54bf 4440 8a3e
00000010: d2dd 03bf b51c f53e 728a 1d3d d9ad af3c
00000020: f55a c03e 3aee babd c336 5e3d 8238 8cbf
00000030: e59f f4bb 0b5a 30be 9bc4 41bf 1aa7 bbba
00000040: f239 003e 1c04 033d 7ecb 5e3d b8f7 ebbd
00000050: bf87 2f3f 0279 69bf cc4f 553e 4838 783e
00000060: a318 3cbe 5f45 23be 81d1 913e fac5 39bd
00000070: 0bb7 da3d 40df 7d3d d328 c33e e88d e2be
00000080: 0ecf ebbe 58a8 a93e 7ea3 a4be 004e 90be
00000090: ad50 283f a052 0cbf 5a5d e43e 7fac 61be
000000a0: 4245 9ebe fb6d 19bd 6656 5f3f 8fec 5d3f
000000b0: 68c2 c3be f951 6d3f 1537 643f fd4c 813e
000000c0: 6109 60bf 6091 2cbf 9a5d 0dbc dbbb 8cbd
000000d0: 90ef 9bbe 634b a13e 1352 853e d999 a13e
000000e0: e764 303f 8c3d 0dbe b8c6 653e a276 f7be
000000f0: ca63 563e 2b27 46bf d5bc dcbe 7678 febd

decoder.de_convs.1.tra.point_conv.bias f4 [8]
-0.29403797 0.3117287 0.83711725 0.68860424 0.47125176 0.12988648 -0.5371917 0.36522153
00000000: 258c 96be e79a 9f3e 514d 563f 5e48 303f
00000010: e947 f13e f600 053e 6585 09bf 51fe ba3e

decoder.de_convs.2.point_conv1.weight f4 [8, 16, 1, 1]
-0.06435586 0.49557263 -0.002952758 -0.19504294 0.05659677 0.042260557 0.93950564 0.16477223
-0.5639295 -0.20385373 0.38432214 -0.57693356 1.3041883 -0.4369663 0.4545613 -0.54243034
0.12707426 -0.13050982 0.43049043 -0.35645822 -0.06351293 0.2705504 0.009399903 -0.18257733
-0.05773433 0.057668574 -0.019070925 0.13609347 -0.019489588 -0.20727675 -0.72551143 0.20169905
0.39438656 -0.4247657 0.43352175 0.22809519 0.607316 -0.73931426 -0.5630083 1.3358411
0.17200616 -0.16838038 -0.057834595 -0.04506485 0.35354212 0.5682299 -0.31701455 0.5620662
-0.30456132 0.2324159 -0.1258756 -0.044668954 0.12009361 0.07829717 -0.0727566 0.04917598
0.114459515 0.1416192 0.22139941 0.18825395 -0.260651 0.0323146 -0.06634082 -0.061729454
0.11185852 -0.4142684 -0.32287127 0.2759811 -0.1503797 0.38476083 0.3469285 -0.3752292
-0.04993698 -0.7084526 0.6230611 -0.61462814 -0.32548013 0.33476803 0.36543456 -0.59817755
-0.1603778 -0.32240245 0.35260755 -0.884976 -0.8427492 0.027474068 -0.12667118 -0.06293743
0.16378191 0.12719038 0.100999065 0.26781043 -0.058883056 0.48611546 -0.3287716 0.047168497
-0.10691738 0.18666841 -0.3632496 -0.18640433 0.20736545 -0.24562298 0.036723763 0.08091525
0.40926808 -0.46893895 -0.037849706 -0.008952634 -0.20908953 -0.4360376 0.1333907 -0.15080969
-0.5879013 0.27851665 0.29292497 0.16920738 -0.33517948 -0.001725458 0.055055644 -0.043012124
-0.3018723 -0.4182569 -0.6083801 0.27010256 -0.07425114 -0.058555175 0.07109409 0.1503687
00000000: 01cd 83bd b2bb fd3e 0f83 41bb 56b9 47be
00000010: 04d2 673d 6819 2d3d 7183 703f 0dba 283e
00000020: af5d 10bf 08bf 50be dfc5 c43e ebb1 13bf
00000030: a4ef a63f 0cba dfbe 42bc e83e b7dc 0abf
00000040: c11f 023e 5ea4 05be 3e69 dc3e b181 b6be
00000050: 1113 82bd 9585 8a3e 0d02 1a3c 8df5 3abe
00000060: d57a 6cbd e235 6c3d a13a 9cbc 165c 0b3e
00000070: a1a8 9fbc 5b40 54be 1ebb 39bf 328a 4e3e
00000080: 09ed c93e e47a d9be 90f6 dd3e c991 693e
00000090: 1079 1b3f b343 3dbf 5021 10bf d7fc aa3f
000000a0: 6222 303e e86b 2cbe f8e3 6cbd ec95 38bd
000000b0: 7903 b53e 8477 113f bb4f a2be 92e3 0f3f
000000c0: 76ef 9bbe 6ffe 6d3e 89e5 00be cbf6 36bd
000000d0: a3f3 f53d 445a a03d 6a01 95bd c16c 493d
000000e0: c069 ea3d a004 113e 87b6 623e a5c5 403e
000000f0: 0c74 85be 505c 043d b2dd 87bd 06d8 7cbd
00000100: 1416 e53d fd1a d4be 624f a5be 654d 8d3e
00000110: 23fd 19be 5fff c43e 9da0 b13e 0b1e c0be
00000120: b88a 4cbd 265d 35bf ef80 1f3f 4558 1dbf
00000130: 55a5 a6be b766 ab3e 3d1a bb3e 2a22 19bf
00000140: 143a 24be ef11 a5be fa88 b43e ca8d 62bf
00000150: 69be 57bf 4c11 e13c 17b6 01be 57e5 80bd
00000160: 72b6 273e 323e 023e 99d8 ce3d 731e 893e
00000170: 5c2f 71bd 20e4 f83e c054 a8be c133 413d
00000180: 80f7 dabd 0126 3f3e dafb b9be c7e0 3ebe
00000190: 9c57 543e 9784 7bbe a86b 163d e5b6 a53d
000001a0: 968b d13e c418 f0be 4b08 1bbd 12ae 12bc
000001b0: 911b 56be 5240 dfbe 9297 083e db6d 1abe
000001c0: b380 16bf bc99 8e3e 43fa 953e b344 2d3e
000001d0: a59c abbe c328 e2ba 0782 613d 7b2d 30bd
000001e0: 028f 9abe c525 d6be ccbe 1bbf e24a 8a3e
000001f0: fb10 98bd 8dd7 6fbd c799 913d 41fa 193e

decoder.de_convs.2.point_conv1.bias f4 [16]
0.17885865 0.056792695 -0.19189802 0.16581981 0.29254994 0.20846842 -0.17619456 -0.15297319
0.16169798 -0.14554706 0.07453362 -0.0490832 -0.0794793 -0.08946123 -0.023461198 0.1675826
00000000: b926 373e 759f 683d ea80 44be abcc 293e
00000010: 1bc9 953e bf78 553e 596c 34be 01a5 1cbe
00000020: 2894 253e 4a0a 15be 15a5 983d 770b 49bd
00000030: 0bc6 a2bd 7337 b7bd b331 c0bc c69a 2b3e
