gtcrn_micro/models/onnx/gtcrn_s3.onnx (onnx, 183487 bytes, 52 tensors)

onnx::MatMul_813 f4 [192, 64]
0	0x3f800000	1.0
1	0x2b8cbccc	1e-12
2	0x00000000	0.0
3	0x00000000	0.0
4	0x00000000	0.0
5	0x00000000	0.0
6	0x00000000	0.0
7	0x00000000	0.0
8	0x00000000	0.0
9	0x00000000	0.0
10	0x00000000	0.0
11	0x00000000	0.0
12	0x00000000	0.0
13	0x00000000	0.0
14	0x00000000	0.0
15	0x00000000	0.0
16	0x00000000	0.0
17	0x00000000	0.0
18	0x00000000	0.0
19	0x00000000	0.0
20	0x00000000	0.0
21	0x00000000	0.0
22	0x00000000	0.0
23	0x00000000	0.0
24	0x00000000	0.0
25	0x00000000	0.0
26	0x00000000	0.0
27	0x00000000	0.0
28	0x00000000	0.0
29	0x00000000	0.0
30	0x00000000	0.0
31	0x00000000	0.0
32	0x00000000	0.0
33	0x00000000	0.0
34	0x00000000	0.0
35	0x00000000	0.0
36	0x00000000	0.0
37	0x00000000	0.0
38	0x00000000	0.0
39	0x00000000	0.0
40	0x00000000	0.0
41	0x00000000	0.0
42	0x00000000	0.0
43	0x00000000	0.0
44	0x00000000	0.0
45	0x00000000	0.0
46	0x00000000	0.0
47	0x00000000	0.0
48	0x00000000	0.0
49	0x00000000	0.0
50	0x00000000	0.0
51	0x00000000	0.0
52	0x00000000	0.0
53	0x00000000	0.0
54	0x00000000	0.0
55	0x00000000	0.0
56	0x00000000	0.0
57	0x00000000	0.0
58	0x00000000	0.0
59	0x00000000	0.0
60	0x00000000	0.0
61	0x00000000	0.0
62	0x00000000	0.0
63	0x00000000	0.0
64	0x00000000	0.0
65	0x3f800000	1.0
66	0x2b0cbccc	5e-13
67	0x00000000	0.0
68	0x00000000	0.0
69	0x00000000	0.0
70	0x00000000	0.0
71	0x00000000	0.0
72	0x00000000	0.0
73	0x00000000	0.0
74	0x00000000	0.0
75	0x00000000	0.0
76	0x00000000	0.0
77	0x00000000	0.0
78	0x00000000	0.0
79	0x00000000	0.0
80	0x00000000	0.0
81	0x00000000	0.0
82	0x00000000	0.0
83	0x00000000	0.0
84	0x00000000	0.0
85	0x00000000	0.0
86	0x00000000	0.0
87	0x00000000	0.0
88	0x00000000	0.0
89	0x00000000	0.0
90	0x00000000	0.0
91	0x00000000	0.0
92	0x00000000	0.0
93	0x00000000	0.0
94	0x00000000	0.0
95	0x00000000	0.0
96	0x00000000	0.0
97	0x00000000	0.0
98	0x00000000	0.0
99	0x00000000	0.0
100	0x00000000	0.0
101	0x00000000	0.0
102	0x00000000	0.0
103	0x00000000	0.0
104	0x00000000	0.0
105	0x00000000	0.0
106	0x00000000	0.0
107	0x00000000	0.0
108	0x00000000	0.0
109	0x00000000	0.0
110	0x00000000	0.0
111	0x00000000	0.0
112	0x00000000	0.0
113	0x00000000	0.0
114	0x00000000	0.0
115	0x00000000	0.0
116	0x00000000	0.0
117	0x00000000	0.0
118	0x00000000	0.0
119	0x00000000	0.0
120	0x00000000	0.0
121	0x00000000	0.0
122	0x00000000	0.0
123	0x00000000	0.0
124	0x00000000	0.0
125	0x00000000	0.0
126	0x00000000	0.0
127	0x00000000	0.0
128	0x00000000	0.0
129	0x3f000000	0.5
130	0x3f000000	0.5
131	0x00000000	0.0
132	0x00000000	0.0
133	0x00000000	0.0
134	0x00000000	0.0
135	0x00000000	0.0
136	0x00000000	0.0
137	0x00000000	0.0
138	0x00000000	0.0
139	0x00000000	0.0
140	0x00000000	0.0
141	0x00000000	0.0
142	0x00000000	0.0
143	0x00000000	0.0
144	0x00000000	0.0
145	0x00000000	0.0
146	0x00000000	0.0
147	0x00000000	0.0
148	0x00000000	0.0
149	0x00000000	0.0
150	0x00000000	0.0
151	0x00000000	0.0
152	0x00000000	0.0
153	0x00000000	0.0
154	0x00000000	0.0
155	0x00000000	0.0
156	0x00000000	0.0
157	0x00000000	0.0
158	0x00000000	0.0
159	0x00000000	0.0
160	0x00000000	0.0
161	0x00000000	0.0
162	0x00000000	0.0
163	0x00000000	0.0
164	0x00000000	0.0
165	0x00000000	0.0
166	0x00000000	0.0
167	0x00000000	0.0
168	0x00000000	0.0
169	0x00000000	0.0
170	0x00000000	0.0
171	0x00000000	0.0
172	0x00000000	0.0
173	0x00000000	0.0
174	0x00000000	0.0
175	0x00000000	0.0
176	0x00000000	0.0
177	0x00000000	0.0
178	0x00000000	0.0
179	0x00000000	0.0
180	0x00000000	0.0
181	0x00000000	0.0
182	0x00000000	0.0
183	0x00000000	0.0
184	0x00000000	0.0
185	0x00000000	0.0
186	0x00000000	0.0
187	0x00000000	0.0
188	0x00000000	0.0
189	0x00000000	0.0
190	0x00000000	0.0
191	0x00000000	0.0
192	0x00000000	0.0
193	0x00000000	0.0
194	0x3f800000	1.0
195	0x2b0cbccc	5e-13
196	0x00000000	0.0
197	0x00000000	0.0
198	0x00000000	0.0
199	0x00000000	0.0
200	0x00000000	0.0
201	0x00000000	0.0
202	0x00000000	0.0
203	0x00000000	0.0
204	0x00000000	0.0
205	0x00000000	0.0
206	0x00000000	0.0
207	0x00000000	0.0
208	0x00000000	0.0
209	0x00000000	0.0
210	0x00000000	0.0
211	0x00000000	0.0
212	0x00000000	0.0
213	0x00000000	0.0
214	0x00000000	0.0
215	0x00000000	0.0
216	0x00000000	0.0
217	0x00000000	0.0
218	0x00000000	0.0
219	0x00000000	0.0
220	0x00000000	0.0
221	0x00000000	0.0
222	0x00000000	0.0
223	0x00000000	0.0
224	0x00000000	0.0
225	0x00000000	0.0
226	0x00000000	0.0
227	0x00000000	0.0
228	0x00000000	0.0
229	0x00000000	0.0
230	0x00000000	0.0
231	0x00000000	0.0
232	0x00000000	0.0
233	0x00000000	0.0
234	0x00000000	0.0
235	0x00000000	0.0
236	0x00000000	0.0
237	0x00000000	0.0
238	0x00000000	0.0
239	0x00000000	0.0
240	0x00000000	0.0
241	0x00000000	0.0
242	0x00000000	0.0
243	0x00000000	0.0
244	0x00000000	0.0
245	0x00000000	0.0
246	0x00000000	0.0
247	0x00000000	0.0
248	0x00000000	0.0
249	0x00000000	0.0
250	0x00000000	0.0
251	0x00000000	0.0
252	0x00000000	0.0
253	0x00000000	0.0
254	0x00000000	0.0
255	0x00000000	0.0

onnx::Conv_773 f4 [16, 3, 1, 5]
0	0xbe2f5e44	-0.17125803
1	0xbc161072	-0.009159194
2	0xbe4133a6	-0.18867359
3	0x3de6743a	0.11252637
4	0x3e254ad2	0.16141823
5	0x3d1b42be	0.037905447
6	0xbe384c5a	-0.17997876
7	0xbd1a9cb1	-0.03774709
8	0xbdc1fd14	-0.09472099
9	0x3d39553a	0.045247294
10	0x3d77e521	0.06052125
11	0x3e728d57	0.2368673
12	0xbd8705d9	-0.06592912
13	0xbe024d88	-0.12724888
14	0x3dbc0500	0.09180641
15	0xbd67c67c	-0.056585774
16	0x3e2d35fe	0.16915128
17	0x3e818810	0.2529912
18	0x3e607248	0.21918595
19	0x3dc4517c	0.095858544
20	0x3d74805c	0.059692726
21	0xbe34eecd	-0.1766922
22	0xbd8bb024	-0.068207055
23	0xbe5e07f7	-0.21682726
24	0xbd265334	-0.040606692
25	0x3e1f97aa	0.15585199
26	0xbe28f6e9	-0.16500439
27	0x3dbbec09	0.091758795
28	0x39778c05	0.00023607917
29	0x3e6e9d30	0.2330215
30	0xbe236911	-0.15958048
31	0x3e0c6e1a	0.13713875
32	0xbd87f1be	-0.066379055
33	0xbe6b1d42	-0.2296038
34	0xbe2a722f	-0.1664512
35	0xbe81337f	-0.252346
36	0x3dd46216	0.10370271
37	0xbe533b36	-0.20628056
38	0x3deeaf07	0.116544776
39	0x3e57e0c8	0.21081841
40	0x3dd37a00	0.10326004
41	0x3dcb741e	0.09934257
42	0xbe49d779	-0.19711103
43	0xbd200968	-0.03907147
44	0x3e1a7212	0.15082577
45	0xbe5995e8	-0.21248591
46	0xbe779c28	-0.24180663
47	0xbe00cc4b	-0.12577932
48	0x3d8be61f	0.068310015
49	0x3e3d1df8	0.18468463
50	0xbd8017ca	-0.062545374
51	0xbe30cf7c	-0.17266649
52	0x3e534b09	0.20634092
53	0xbe6ee78e	-0.23330519
54	0x3e839b17	0.25704262
55	0x3e7bd223	0.2459188
56	0xbd178b28	-0.036997944
57	0x3e45867b	0.19289581
58	0xbe360723	-0.1777616
59	0x3e81df8f	0.25365874
60	0xbd070e1d	-0.032972444
61	0xbdb6c526	-0.08924322
62	0x3ddbcce8	0.10732442
63	0x3df6b199	0.12045593
64	0x3d6e6185	0.05819847
65	0x3e565734	0.20931703
66	0x3ccb9e5a	0.024855781
67	0x3d0b664c	0.034033105
68	0xbda1e382	-0.07904722
69	0xbe12e79c	-0.14346164
70	0x3e492175	0.19641669
71	0x3e493b45	0.19651516
72	0x3e5d68b4	0.21621972
73	0xbde15c0f	-0.11003887
74	0xbe8263bc	-0.25466716
75	0x3e7e0fba	0.24810687
76	0xbe389e53	-0.18029146
77	0x3e096a1e	0.13419387
78	0xbe0abb4c	-0.1354801
79	0xbe0497c0	-0.12948513
80	0xbd5470ff	-0.051865574
81	0xbe82d427	-0.25552484
82	0xbcd1fade	-0.025632318
83	0xbdb93653	-0.09043565
84	0xbd6dd541	-0.058064703
85	0x3db97042	0.090546146
86	0x3cccb2e1	0.02498764
87	0xbe2164ce	-0.1576111
88	0xbd827ea7	-0.06371813
89	0x3e6175ef	0.22017644
90	0xbe127662	-0.14302972
91	0xbd5effe0	-0.05444324
92	0xbe34bc6e	-0.17650005
93	0x3e832a34	0.25618136
94	0x3e7a39b6	0.24436077
95	0xbe602c05	-0.21891792
96	0xbd928ad2	-0.07155384
97	0x3e016e5b	0.12639754
98	0x3def2dda	0.11678667
99	0xbe41e04a	-0.18933216
100	0x3da9c942	0.0829034
101	0x3d1cc4c9	0.038273606
102	0xbe5f52d3	-0.21808939
103	0xbcf0c2ac	-0.029389702
104	0x3dbf4d00	0.093408585
105	0xbe5ae33a	-0.21375743
106	0x3d9a5582	0.075358406
107	0x3e13a396	0.14417872
108	0x3d809f1e	0.06280349
109	0xbd810a18	-0.06300753
110	0x3d7557a9	0.059898052
111	0x3db799b2	0.08964862
112	0x3d8c042f	0.068367355
113	0x3d7098d8	0.058739513
114	0xbd715ce1	-0.058926467
115	0x3d3d62cc	0.0462368
116	0xbe7406ab	-0.23830669
117	0xbd3bf0ab	-0.045883816
118	0xbd019cbf	-0.031643625
119	0x3e2307e4	0.15920979
120	0x3d85c481	0.06531621
121	0x3e5c6b6e	0.21525356
122	0xbbaa34a7	-0.005194265
123	0xbc9574f2	-0.01824424
124	0xbd003d68	-0.03130856
125	0x3e0cb13c	0.13739485
126	0xbcfd2fcb	-0.030906579
127	0x3e2658a6	0.16244754
128	0x3e41f5cd	0.18941422
129	0xbe63c8f1	-0.22244622
130	0x3d95055b	0.07276412
131	0x3dcf9ffe	0.10137938
132	0x3e405f9e	0.18786475
133	0x3d76075d	0.060065616
134	0xbc127543	-0.00893909
135	0xbe61b346	-0.22041044
136	0x3e6e703a	0.23284999
137	0xbe802abf	-0.25032613
138	0xbd7c201b	-0.061554056
139	0xbe08e009	-0.13366713
140	0xbe5faa39	-0.21842279
141	0x3ca47db4	0.020079471
142	0x3d4f230a	0.050570525
143	0x3db45d3c	0.088068455
144	0x3d8b93d2	0.06815304
145	0x3e0d3969	0.13791431
146	0xbe5e39a7	-0.2170168
147	0xbe45d525	-0.1931959
148	0xbe31ced1	-0.1736405
149	0xbda506a1	-0.08057905
150	0x3d425ee7	0.047453787
151	0x3da95fed	0.082702495
152	0xbe790743	-0.24319176
153	0x3d36a964	0.044595137
154	0xbe090425	-0.13380487
155	0x3e6b53e4	0.2298122
156	0xbe4cf37b	-0.20014755
157	0xbe00eea4	-0.12591034
158	0xbdcbb540	-0.0994668
159	0xbe3df59b	-0.18550722
160	0xbd5ed3a9	-0.054401074
161	0x3d72a3d2	0.059238262
162	0x3e2bb589	0.16768469
163	0x3cbb6078	0.022873148
164	0x3e74772b	0.23873584
165	0x3dcc9b31	0.09990538
166	0xbc04cd85	-0.00810564
167	0xbe3e1282	-0.18561748
168	0xbe3c7af9	-0.18406285
169	0x3d16505a	0.036697723
170	0x3d817c5c	0.06322548
171	0x3e23328a	0.15937248
172	0xbcee4405	-0.029085169
173	0xbcb1fc64	-0.021726795
174	0x3da22da8	0.079188645
175	0x3e0535b2	0.13008764
176	0xbd0e34ec	-0.03471844
177	0xbd5938e3	-0.053032767
178	0xbcf05cbf	-0.0293411
179	0x3dec94dc	0.1155183
180	0x3e249083	0.16070752
181	0x3d6c9c69	0.05776635
182	0x3da4550a	0.080240324
183	0x3de40658	0.111340225
184	0x3e21b904	0.15793234
185	0x3db55fb8	0.088561475
186	0x3e2ba99c	0.1676392
187	0xbe76e1d7	-0.24109589
188	0x3d197169	0.037461672
189	0x3c373977	0.011183134
190	0x3d40ef65	0.047103304
191	0xbdb7c9fe	-0.08974074
192	0xbdc61c03	-0.096733116
193	0xbd1cdeab	-0.03829829
194	0xbe48de7d	-0.19616123
195	0x3dd8a80a	0.10578926
196	0xbd4f974b	-0.050681394
197	0x3df4fd81	0.119624145
198	0xbe34775e	-0.1762366
199	0x3d28aa8c	0.04117827
200	0x3e5f3b5e	0.2179999
201	0x3e3f7b08	0.18699276
202	0x3e6dbb62	0.23216012
203	0x3d2d656d	0.042333055
204	0xbe218f78	-0.15777385
205	0x3e409fad	0.18810911
206	0x3e57b962	0.21066812
207	0x3c32659a	0.0108884815
208	0x3d49441b	0.049137216
209	0xbdd2d95b	-0.102953635
210	0x3d918702	0.07105829
211	0xbd70087a	-0.058601834
212	0xbe0666f2	-0.13125208
213	0xbe7ce639	-0.24697198
214	0x3e455a6f	0.19272779
215	0xbe78c1b9	-0.2429265
216	0xbe6f1893	-0.23349218
217	0x3e1946d5	0.14968427
218	0xbd1afebe	-0.037840597
219	0x3c5d179f	0.013494401
220	0x3bd39367	0.0064567807
221	0xbe510414	-0.20411712
222	0xbdf880ce	-0.121339425
223	0xbdab52a3	-0.08365371
224	0xbe4de70e	-0.20107672
225	0xbe70670f	-0.23476814
226	0xbe66e91d	-0.22549863
227	0xbe55cdb8	-0.20879257
228	0x3dd351ca	0.103183344
229	0xbe44a108	-0.19202054
230	0xbd389410	-0.04506308
231	0x3d415ead	0.04720943
232	0xbd1a94fa	-0.03773973
233	0xbe61f0d0	-0.22064519
234	0xbe301ab0	-0.1719768
235	0xbe75ff8e	-0.24023268
236	0x3d917e22	0.07104136
237	0xbd83f334	-0.06442872
238	0xbd8368c2	-0.06416465
239	0xbe3767eb	-0.17910735

onnx::Conv_774 f4 [16]
0	0xbc277fe8	-0.010223366
1	0xbe7ae3a3	-0.24500899
2	0x3df887be	0.12135266
3	0xbe333010	-0.17498803
4	0x3d1c7aa6	0.038202904
5	0xbdfe624b	-0.12421092
6	0x3e7b1a47	0.24521743
7	0x3e4ced4a	0.20012394
8	0xbe666532	-0.2249954
9	0xbd1d7642	-0.038442858
10	0x3ce12aef	0.027486293
11	0xbe2c3af5	-0.16819365
12	0xbdb6056f	-0.08887755
13	0xbe35769c	-0.17721027
14	0x3e64153f	0.2227373
15	0x3e669bc8	0.22520363

onnx::Conv_776 f4 [16, 16, 1, 5]
0	0x3aa14214	0.0012303018
1	0x3d24db52	0.040248223
2	0xbcc1d533	-0.023661232
3	0xbd1ad0c3	-0.037796747
4	0xbd98308b	-0.07431134
5	0xbb3fa6aa	-0.0029243627
6	0xbdc7be13	-0.09753051
7	0xbdd510bf	-0.10403585
8	0xbddf2a0e	-0.10896693
9	0xbddf9829	-0.10917694
10	0xbdc7204f	-0.09722959
11	0x3da59381	0.08084775
12	0x3d070ab9	0.03296921
13	0x3c93a9f0	0.018025368
14	0xbc1da5eb	-0.009622077
15	0xbc42a44a	-0.01187999
16	0x3d889a7f	0.06670093
17	0x3dc05811	0.09391797
18	0xbd918a7a	-0.071064904
19	0xbd2bf298	-0.041979402
20	0xbba3a718	-0.0049942844
21	0x3cf374f0	0.029718846
22	0x3d840d58	0.064478576
23	0x3cbe9c6e	0.02326795
24	0x3ca992b8	0.020699844
25	0x3ce8c75c	0.028415374
26	0xbd192656	-0.037390076
27	0xbdda1136	-0.10647814
28	0xbdccc430	-0.09998357
29	0xbcb77403	-0.022394186
30	0xbb89cfd5	-0.0042056837
31	0x3d4904d5	0.049076874
32	0xbdde3a44	-0.10850957
33	0x3c30f0dd	0.010799614
34	0x3c9d47eb	0.019199332
35	0x3ddbabf6	0.10726158
36	0xbc4fa969	-0.012674668
37	0xbc83b7fd	-0.016078943
38	0xbdd13e71	-0.10216988
39	0xbd9e3af3	-0.077260874
40	0xbd35cb82	-0.044383533
41	0x3d4dd3c1	0.050250772
42	0x3cb8e402	0.02256966
43	0xbd3a15f6	-0.0454311
44	0xbc3edd15	-0.01164939
45	0xbdc6651e	-0.09687255
46	0xbd1babfb	-0.03800581
47	0xbdc00ced	-0.093774654
48	0x39869360	0.00025668275
49	0x3d2a99e1	0.041650657
50	0xbc585c22	-0.01320556
51	0xbcf2b5ac	-0.029627644
52	0x3d883100	0.06649971
53	0xbd783c10	-0.060604155
54	0xbd9f116d	-0.077669956
55	0xbd00dce5	-0.03146066
56	0xbd79ecc8	-0.061016828
57	0xbdca991a	-0.09892483
58	0xbcd9228e	-0.026505735
59	0xbd07bc88	-0.03313878
60	0x3d1babe6	0.038005732
61	0x3c2a279d	0.010385421
62	0xbc0eaca5	-0.008708154
63	0xbd5654ec	-0.05232708
64	0xbdde795c	-0.10862991
65	0x3de0a1ab	0.10968336
66	0x3dc0b37d	0.09409235
67	0x3d4b2484	0.04959537
68	0x3c399289	0.011326441
69	0xbcbb0563	-0.022829717
70	0x38c65697	9.457504e-05
71	0x3dc2db63	0.09514501
72	0x3dca8ae5	0.09889773
73	0xbd8d069b	-0.068860255
74	0x3ddb2f64	0.107023984
75	0xbdabecec	-0.08394799
76	0xbdb03562	-0.08603932
77	0x3cb6146b	0.022226533
78	0x3c20a994	0.009806056
79	0xbdd6e100	-0.10492134
80	0xbd9a31a5	-0.07529
81	0x3db057e0	0.08610511
82	0xbd391921	-0.04518998
83	0xbd0e5480	-0.034748554
84	0x3cc4ffb0	0.024047703
85	0x3c8b9dcd	0.017043019
86	0xbbd3de3d	-0.006465702
87	0x3cfc2c70	0.030782908
88	0x3ca27b1a	0.01983409
89	0xbcacc5b4	-0.021090366
90	0xbb8b7f9d	-0.004257156
91	0xbdd397db	-0.103316985
92	0x3da2e474	0.0795373
93	0x3cbb28e2	0.022846643
94	0xbd7c04c0	-0.061527967
95	0xbde318ca	-0.110887125
96	0x3dbabc2a	0.09117921
97	0x3d8b1545	0.06791166
98	0xbd6b01f2	-0.057374902
99	0xbddc0077	-0.10742276
100	0x3da136f1	0.07871807
101	0xbafb9f6d	-0.0019197293
102	0xbd608520	-0.054814458
103	0x3c802147	0.015640868
104	0xbdbd2253	-0.092350625
105	0xbd8a8f70	-0.0676564
106	0xbdb1ed8e	-0.08687888
107	0xb71efbd0	-9.4761635e-06
108	0x3dd6a659	0.10480947
109	0x3b13ca4e	0.0022551003
110	0xbd86cb7c	-0.0658178
111	0x3d35f2b2	0.044420905
112	0xbcf5a646	-0.029986512
113	0x3dcdf2cb	0.10056075
114	0x3cc68f86	0.02423836
115	0x3d940762	0.07227971
116	0x3ddd3465	0.10801009
117	0x3d01ed66	0.03172054
118	0x3c0c89c3	0.008577767
119	0xbdc6714f	-0.09689581
120	0xbcfbaef1	-0.030723067
121	0x3dc1fb01	0.09471703
122	0x3dccef8d	0.10006628
123	0xbd022419	-0.031772707
124	0x3ca7f2c3	0.0205015
125	0xbbf3deee	-0.007442347
126	0x3d84c3cc	0.06482658
127	0xbda10407	-0.07862096
128	0x3da3cf61	0.07998539
129	0xbd7324b1	-0.059361164
130	0xbbd94edb	-0.0066317148
131	0xbd9c5333	-0.076330565
132	0x3d60e1a4	0.054902688
133	0x3db139ab	0.086535774
134	0x3d9b7a5d	0.07591698
135	0xbdbb93ed	-0.09159074
136	0xbdbdbf64	-0.092650205
137	0x3cd70bbe	0.026250716
138	0xbd960fb2	-0.073272124
139	0x3d968fb4	0.07351628
140	0x3ddb3012	0.10702528
141	0x3c45d6be	0.012075124
142	0x3d36f130	0.044663608
143	0xbc0c3a7e	-0.0085588675
144	0x3dc6299e	0.096759066
145	0x3d40fa07	0.047113445
146	0x3cc991e7	0.024605704
147	0x3dae7e30	0.08520162
148	0xbd568929	-0.0523769
149	0x3c33eb95	0.01098146
150	0xbd78f88c	-0.060783908
151	0x3cd8acdb	0.026449611
152	0xbc183514	-0.009289999
153	0x3d81d8b2	0.063401595
154	0xbdbbafdd	-0.09164403
155	0xbcbee419	-0.023302125
156	0x3da62684	0.08112815
157	0x3d53284f	0.051552113
158	0xbd813f61	-0.06310917
159	0xbd331582	-0.043721683
160	0xbd2ba452	-0.041904755
161	0xbc2308f4	-0.009950865
162	0xbd067e89	-0.032835517
163	0xbd7da343	-0.061923277
164	0xbdc8fa1a	-0.09813328
165	0xbceecedb	-0.02915137
166	0xbdc55915	-0.09636132
167	0x3d55bc0b	0.052181285
168	0x3d334364	0.04376544
169	0xbd9cab3b	-0.07649847
170	0x3cb39af2	0.02192447
171	0xbd2e4160	-0.042542815
172	0xbbfc02ef	-0.0076907794
173	0xbd179976	-0.037011586
174	0xbd87f67b	-0.06638809
175	0x3d8a36d0	0.06748736
176	0xbbb6c0ae	-0.0055771684
177	0xbd1ed992	-0.03878171
178	0x3dc2e055	0.09515444
179	0x3d73fb10	0.059565604
180	0x3d855f64	0.06512335
181	0x3d40cc37	0.047069754
182	0x3d9dfdc9	0.07714421
183	0xbdd2df31	-0.10296477
184	0xbd214a62	-0.039377578
185	0xbd5ea267	-0.054354098
186	0x3db762c8	0.08954388
187	0x3d5ea85f	0.05435979
188	0x3ddf8f71	0.10916031
189	0x3c7882c7	0.0151678985
190	0x3d8b334b	0.06796893
191	0xbdb67b94	-0.089102894
192	0xbd88a87f	-0.06672763
193	0xbdbb726b	-0.09152683
194	0x3d246061	0.040130977
195	0x3c834dc6	0.016028296
196	0x3cccdaf7	0.025006754
197	0x3d644621	0.055730943
198	0x3c803d16	0.015654128
199	0xbd7df7c1	-0.062003855
200	0x3d6440c3	0.055725824
201	0xbdbd7b1c	-0.09251997
202	0xbd3c59b3	-0.04598398
203	0x3dd77385	0.105200805
204	0x3dbd80bf	0.09253072
205	0x3d8787de	0.066177115
206	0x3db18c37	0.08669322
207	0xbdac5c2b	-0.08416017
208	0x3d9238b3	0.07139721
209	0x3b7bdd5e	0.0038431506
210	0xbddda34c	-0.10822162
211	0x3d6b0d7a	0.0573859
212	0xbd58e6ec	-0.0529546
213	0xbdb5268e	-0.08845244
214	0x3d4cf75a	0.05004058
215	0x3da36a52	0.07979263
216	0xbcf5d60a	-0.030009288
217	0xbd179513	-0.037007403
218	0xbd7deed7	-0.061995354
219	0x3bf862db	0.007580144
220	0xbdb5089e	-0.08839534
221	0x3de1e7fd	0.110305764
222	0xbd2030b8	-0.03910896
223	0x3bd9f2a5	0.00665124
224	0xbd9df559	-0.07712812
225	0xbdd74a79	-0.105122514
226	0xbd9de60d	-0.07709894
227	0x3cad42ed	0.021150077
228	0x3cef3382	0.029199366
229	0xbd7a23ff	-0.061069485
230	0x3cd738f1	0.026272269
231	0xbcfbb330	-0.030725092
232	0xbcd3fab1	-0.025876375
233	0x3ccb0a97	0.024785323
234	0x3d3f89b8	0.0467622
235	0x3d45723b	0.04820464
236	0x3dae7e14	0.08520141
237	0x3dda3980	0.106554985
238	0x3cae3199	0.021263884
239	0xbc434cf2	-0.011920201
240	0x3d9d0fac	0.07669005
241	0x3ccb93f8	0.02485083
242	0x3c89e19c	0.016831212
243	0xbd1cef14	-0.03831394
244	0xbd8672b0	-0.06564844
245	0xbddd0161	-0.10791279
246	0x3d9c31a6	0.07626657
247	0x3d21201b	0.03933726
248	0x3da6be6c	0.08141789
249	0x3be279ef	0.0069115083
250	0x3d70132e	0.05861204
251	0xbc704f02	-0.014667274
252	0xbc1744c2	-0.009232702
253	0x3d28fab0	0.0412547
254	0xbdc6f438	-0.0971455
255	0xbd882876	-0.06648342

onnx::Conv_777 f4 [16]
0	0xbdbb20ae	-0.091370925
1	0xbce2ba23	-0.027676648
2	0x3d84bd3a	0.064814046
3	0x3db1a133	0.086733244
4	0xbda92b3d	-0.082602
5	0xbda5ff51	-0.08105338
6	0xbc278f73	-0.010227072
7	0x3c98e150	0.018662125
8	0x3d6f49d2	0.05842001
9	0x3c21dadc	0.00987884
10	0x3d036626	0.03207984
11	0xbda2d5b8	-0.0795092
12	0x3cdbaa65	0.026814649
13	0xbd1e8216	-0.03869828
14	0x3c3a7554	0.011380512
15	0xba54bc81	-0.00081152475

onnx::Conv_779 f4 [16, 8, 1, 1]
0	0x3e5e7ac7	0.21726523
1	0xbe8e6145	-0.27808586
2	0xbe90212c	-0.28150308
3	0x3cebab60	0.028768241
4	0x3e478dc8	0.19487679
5	0xbe20c628	-0.1570059
6	0x3da0efe1	0.07858253
7	0x3e1bb081	0.1520405
8	0x3eb27dea	0.3486169
9	0xbd17d1f9	-0.03706548
10	0xbe41c1c1	-0.18921567
11	0x3ce7bcfd	0.028288359
12	0x3e52342e	0.20527717
13	0x3e849acc	0.2589935
14	0x3e90eaa4	0.28304017
15	0xbe9a3a5e	-0.30122656
16	0x3e37a639	0.17934503
17	0x3e8fb3da	0.28066903
18	0x3dd1a6dc	0.10236904
19	0x3e9ee0b5	0.31030813
20	0x3def457a	0.116831735
21	0x3ea11b0d	0.3146595
22	0x3b303a99	0.0026890396
23	0x3eb42de8	0.35191274
24	0xbe1ab3b7	-0.15107618
25	0x3de4f6a3	0.11179855
26	0x3e731636	0.23738942
27	0x3e6ff765	0.23434217
28	0xbe84fc28	-0.2597363
29	0xbe6d6542	-0.23183158
30	0x3d0fd4c4	0.03511502
31	0x3eaa699f	0.33283707
32	0x3d0cabcc	0.034343526
33	0xbdc8fcfc	-0.09813878
34	0xbe8c716c	-0.27430284
35	0x3cfb6380	0.030687094
36	0x3e3594fa	0.17732611
37	0x3d943049	0.07235772
38	0x3e11e008	0.14245617
39	0x3db3a768	0.087721646
40	0xbe60315e	-0.21893832
41	0xbe351559	-0.17683925
42	0x3e9dc5f5	0.30815092
43	0xbd785741	-0.060630087
44	0x3e21af97	0.15789638
45	0xbdd7b22d	-0.10532031
46	0x3e95df99	0.29272154
47	0xbda55d14	-0.08074394
48	0x3ea4df8b	0.322018
49	0x3dbb0bd1	0.09133113
50	0xbeac014e	-0.33594745
51	0x3ea6cee0	0.32579708
52	0x3e9b9cbd	0.3039302
53	0xbe191bce	-0.14952013
54	0x3e266569	0.16249622
55	0x3dc704a5	0.09717683
56	0x3e174bb9	0.1477498
57	0x3aa46b07	0.0012544104
58	0xbe0fc297	-0.14039074
59	0xbe47552b	-0.19466083
60	0x3e890504	0.2676164
61	0xbe41b1d5	-0.18915494
62	0xbda39093	-0.0798656
63	0x3e973a6b	0.29536757
64	0x3dae4933	0.085100554
65	0x3e9d2dc3	0.30698976
66	0x3e09fed0	0.1347611
67	0xbea536a2	-0.32268244
68	0x3e395f4d	0.1810276
69	0xbe74a606	-0.23891458
70	0xbe95e51f	-0.29276368
71	0x3e1bb1c1	0.15204526
72	0xbde28825	-0.11061124
73	0xbe28dfc3	-0.16491608
74	0xbd6f789c	-0.05846463
75	0x3d7a3449	0.06108502
76	0x3eb39996	0.35078114
77	0xbe940f0d	-0.28917733
78	0xbe8f267d	-0.27959052
79	0xbe2d3436	-0.16914448
80	0xbea61254	-0.32435858
81	0x3d7989df	0.0609225
82	0xbea7936b	-0.32729658
83	0x3e4afb89	0.19822516
84	0xbea736b8	-0.32658935
85	0x3e6110f0	0.21979117
86	0xbe026b0d	-0.12736149
87	0x3d9e5cdc	0.07732555
88	0xbe0fd63a	-0.14046565
89	0x3dfe1cc5	0.12407831
90	0x3e800809	0.2500613
91	0xbe945fa7	-0.28979227
92	0x3c7d8c03	0.015475276
93	0xbda3ba4b	-0.07994517
94	0x3d9beb8f	0.076132886
95	0x3e30a817	0.17251621
96	0x3d10ede2	0.035383113
97	0x3d505a6f	0.050867494
98	0xbe497e1f	-0.19677018
99	0x3e9c8afe	0.30574793
100	0xbe88024c	-0.26564252
101	0xbe78740e	-0.24263021
102	0xbe50fe2b	-0.20409457
103	0x3d226c31	0.03965396
104	0xbea34a81	-0.3189278
105	0xbe7a6058	-0.24450815
106	0x3e949752	0.29021698
107	0xbe67c415	-0.22633393
108	0xbe9efb56	-0.3105113
109	0x3ba1ba4f	0.00493554
110	0x3ea17fef	0.31542918
111	0x3e8f9647	0.2804434
112	0x3e875c19	0.26437452
113	0xbe894709	-0.26812008
114	0x3e5840a9	0.21118416
115	0x3eb1849d	0.34671488
116	0x3b10801b	0.0022049013
117	0xbe9b49a7	-0.3032963
118	0x3dc15f70	0.094420314
119	0x3eb04d24	0.34433854
120	0xbe11925f	-0.14215992
121	0xbe8cfbf0	-0.27535963
122	0xbdd215e0	-0.102580786
123	0xbe842852	-0.25812012
124	0xbd2f09d7	-0.042733993
125	0x3e9dd7e2	0.30828768
126	0xbdfbcd30	-0.12294996
127	0xbda5ce8c	-0.08096036

onnx::Conv_780 f4 [16]
0	0xbe4c7c80	-0.19969368
1	0xbea7998a	-0.32734329
2	0xbe93e2d9	-0.2888401
3	0x3d424f90	0.047439158
4	0xbe57b9e3	-0.21067004
5	0xbde2bc51	-0.11071075
6	0x3ea0a7e0	0.31378078
7	0x3ea084eb	0.31351408
8	0x3e18cabe	0.1492109
9	0xbd010cf8	-0.03150651
10	0xbd970823	-0.07374599
11	0x3ea6acf2	0.32553822
12	0xbe2bf9ad	-0.16794463
13	0xbe858211	-0.26075795
14	0xbea2338b	-0.3167995
15	0x3ea7cc95	0.3277327

onnx::Conv_782 f4 [16, 1, 3, 3]
0	0xbea50e92	-0.3223768
1	0x3e58db17	0.21177326
2	0xbd68c88a	-0.056831874
3	0xbe5c54e0	-0.21516752
4	0x3dae80f2	0.08520688
5	0xbe3fb3f1	-0.18720986
6	0x3e91f4f6	0.28507203
7	0x3e323124	0.17401558
8	0x3e47232a	0.19447008
9	0xbd821ff5	-0.063537516
10	0x3e99090a	0.2988971
11	0x3e3cde32	0.18444136
12	0x3e470a52	0.1943753
13	0xbe19bf24	-0.1501432
14	0x3e65f85d	0.22458024
15	0x3e7e965a	0.24862042
16	0x3e416901	0.18887712
17	0xbdff59b2	-0.1246828
18	0x3e250262	0.1611419
19	0x3d6c749d	0.0577284
20	0xbe5742b4	-0.21021539
21	0xbe629949	-0.22128786
22	0xbcd7b28f	-0.02633026
23	0x3ea21b2d	0.31661358
24	0x3dd27596	0.10276334
25	0x3d7e4d63	0.06208552
26	0xbe5a19f6	-0.21298966
27	0xbe7a87b9	-0.24465837
28	0x3c77055a	0.0150769595
29	0xbd529fa6	-0.051421784
30	0xbe78ad26	-0.24284801
31	0x3dba68b3	0.09102001
32	0xbe122026	-0.14270076
33	0xbe8b806e	-0.27246422
34	0xbe8bf7fe	-0.2733764
35	0x3e9983d9	0.29983404
36	0xbe880dbd	-0.2657298
37	0xbe0a068e	-0.13479063
38	0x3d557dba	0.052121855
39	0x3e2ff4f9	0.17183293
40	0xbd802f71	-0.06259049
41	0xbe2027be	-0.1564016
42	0xbdac9ae7	-0.08427983
43	0xbda4f7e0	-0.08055091
44	0xbe917d4c	-0.28415906
45	0x3e278d7f	0.1636257
46	0x3d951be5	0.07280711
47	0x3e56234d	0.20911904
48	0xbe1e5912	-0.15463665
49	0xbd15c27a	-0.03656242
50	0x3d811e21	0.06304575
51	0xbe62aa84	-0.22135359
52	0x3e81bb37	0.25338146
53	0x3cc87514	0.02446989
54	0xb9ec1a5e	-0.00045033073
55	0xbe9e5176	-0.30921525
56	0xbe8de369	-0.27712563
57	0xbdde7e67	-0.10863953
58	0xbe3a9a83	-0.18223004
59	0xbe9b3b33	-0.30318603
60	0xbe166aad	-0.14689131
61	0xbe86bf13	-0.26317653
62	0xbc194fa4	-0.009357367
63	0xbe43154e	-0.19051096
64	0x3e08f979	0.13376416
65	0x3e626b6e	0.22111294
66	0x3e9c6a44	0.30549824
67	0x3db6f6e4	0.089338094
68	0xbde91d9f	-0.11382603
69	0x3e8e1e3f	0.2775745
70	0x3e8da985	0.27668396
71	0xbe0d6992	-0.13809803
72	0x3d0195cb	0.031636994
73	0x3debd90e	0.11516009
74	0x3e97a5c0	0.29618645
75	0xbe4bd3e3	-0.19905047
76	0xbe1b4310	-0.15162301
77	0x3e4ae093	0.19812231
78	0x3d5f338d	0.054492522
79	0xbdab1fde	-0.083556876
80	0x3e5341c3	0.20630555
81	0xbddb6228	-0.10712081
82	0xbe174dce	-0.14775774
83	0xbdcacc43	-0.09902241
84	0x3e1cadcd	0.15300675
85	0x3e834573	0.25638923
86	0xbea15cf6	-0.31516236
87	0xbe51b9ee	-0.20481083
88	0xbde75c84	-0.11296943
89	0x3dbc5b62	0.091971174
90	0xbe3f8804	-0.1870423
91	0xbe85970f	-0.2609181
92	0x3e8c1b24	0.27364457
93	0x3b8aa87e	0.0042315116
94	0x3e5648e5	0.20926245
95	0xbdd63765	-0.104597844
96	0xbe2b0956	-0.1670278
97	0xbdf8be04	-0.121456176
98	0x3dcd7c48	0.100334704
99	0xbe9e6194	-0.3093382
100	0xbd28c009	-0.041198764
101	0x3e9a0e28	0.30088925
102	0x3cb6f184	0.02233196
103	0xbeaa231b	-0.33229908
104	0x3e918b78	0.2842672
105	0xbdfdf113	-0.12399497
106	0x3c9d8df7	0.019232733
107	0x3dde9662	0.10868527
108	0xbe5288de	-0.20560023
109	0xbe07fc43	-0.13279824
110	0x3e0172fc	0.1264152
111	0x3e7276e8	0.23678172
112	0x3de6e68a	0.112744406
113	0x3e5d5c12	0.21617153
114	0xbe4bbed3	-0.19897012
115	0xbdb63694	-0.08897129
116	0x3e68ac5f	0.22722004
117	0x3d830b4b	0.06398638
118	0x3e9640e1	0.29346374
119	0xbdedab92	-0.1160499
120	0xbe3c04f0	-0.18361259
121	0xbde4d640	-0.111736774
122	0x3e2aa6ee	0.16665241
123	0x3e884102	0.26612097
124	0x3d499efe	0.049223892
125	0x3e0f4afc	0.13993448
126	0xbd831f80	-0.064024925
127	0xbe90b87c	-0.2826575
128	0x3e17885c	0.1479811
129	0xbcae21c7	-0.02125634
130	0x3e206989	0.15665258
131	0xbe9f9774	-0.31170237
132	0xbe9aad08	-0.30210137
133	0x3e84cf7b	0.25939545
134	0x3c8dd27c	0.01731228
135	0xbe066a47	-0.13126479
136	0x3dcdf307	0.100561194
137	0xbe308b79	-0.17240705
138	0x3d7bd6e3	0.06148423
139	0xbe1e01c7	-0.15430366
140	0xbcd39711	-0.02582887
141	0xbea5bd39	-0.32370928
142	0x3e83b9fc	0.25727832
143	0x3dcb2773	0.09919634

onnx::Conv_783 f4 [16]
0	0xbde2ba5c	-0.110707015
1	0xbe71c42f	-0.23609994
2	0xbd713c91	-0.05889565
3	0xbea99226	-0.33119315
4	0x3e573599	0.2101654
5	0x3e04b312	0.12958935
6	0xbe29ebab	-0.16593806
7	0xbe7410f0	-0.23834586
8	0xbe34259b	-0.1759247
9	0xbd7d67b8	-0.061866492
10	0x3e98f88e	0.29877132
11	0x3e3bba75	0.18332846
12	0x3e42a2c3	0.19007401
13	0x3e047d83	0.12938504
14	0x3e3ca978	0.18424022
15	0x3e0682b7	0.13135801

onnx::Conv_785 f4 [8, 16, 1, 1]
0	0xbdccd245	-0.10001043
1	0x3c830e75	0.015998105
2	0xbc0487b5	-0.008088996
3	0xbc15b24f	-0.00913675
4	0xbe6d112e	-0.23151085
5	0xbca07f5b	-0.019591978
6	0x3e26e0fd	0.16296764
7	0xbe0e86c9	-0.13918604
8	0x3e7f1666	0.24910888
9	0xbe066788	-0.13125432
10	0xbd04ede4	-0.032453433
11	0xbb0a27d3	-0.0021080866
12	0xbe194aba	-0.14969912
13	0x3dd30567	0.10303765
14	0xbe35fe66	-0.17772827
15	0x3e45378d	0.19259472
16	0x3e21b8f1	0.15793206
17	0xbda94744	-0.08265546
18	0xbd5c5bf0	-0.053798616
19	0x3ddcc31c	0.10779402
20	0xbdef2e72	-0.116787806
21	0x3d41e768	0.047339827
22	0xbe091c11	-0.13389613
23	0xbd6c8692	-0.057745524
24	0x3e14cddd	0.14531656
25	0xbe3bb7ac	-0.18331784
26	0x3b0522d4	0.0020314949
27	0xbdee1906	-0.116258666
28	0x3c497e1e	0.012298135
29	0x3e2fa178	0.17151439
30	0x3b814e96	0.0039461358
31	0x3d5757e1	0.052574042
32	0x3e7d686f	0.2474687
33	0x3c801676	0.01563571
34	0xbd9c8879	-0.076432176
35	0xbe5a581e	-0.21322677
36	0x3d8a7c03	0.067619346
37	0x3e74f79e	0.23922583
38	0x3e2a161c	0.16609997
39	0x3e45797f	0.19284628
40	0x3dc53e0b	0.096309744
41	0x3c1f0d2c	0.00970773
42	0xbdf41d70	-0.11919677
43	0xbe012ab6	-0.12613949
44	0x3db54c41	0.08852435
45	0xbe4235d2	-0.18965843
46	0x3e771c47	0.2413188
47	0x3d6ff7d9	0.058585975
48	0x3db2ae21	0.08724619
49	0x3d02558d	0.03181987
50	0xbe7039c9	-0.23459543
51	0x3d843ad5	0.06456534
52	0x3e228e91	0.15874697
53	0xbe7a8984	-0.2446652
54	0xbe5cd72e	-0.2156646
55	0x3e5bd9be	0.21469781
56	0x3d5e019f	0.054200765
57	0xbe100179	-0.14063062
58	0xbe61eec2	-0.22063735
59	0x3cbdccc2	0.023168925
60	0x3e72ba8a	0.23703972
61	0x3e152ec1	0.14568616
62	0xbe1fe774	-0.15615636
63	0x3e07dc51	0.13267638
64	0xbdb1527e	-0.08658312
65	0x3d16ad3f	0.036786314
66	0xbd1dbdf4	-0.03851123
67	0x3d917378	0.07102102
68	0x3c895823	0.01676566
69	0xbd16ef36	-0.036849223
70	0xbe6eb6e6	-0.23311958
71	0x3ced7692	0.028987203
72	0xbd48c29e	-0.049013726
73	0xbddbf794	-0.10740581
74	0xbe64dbb1	-0.2234943
75	0xbd827a69	-0.06371004
76	0xbe4808ba	-0.19534579
77	0xbe273ed1	-0.16332556
78	0xbdf22c89	-0.11824901
79	0xbd7d113d	-0.061784018
80	0x3e47e522	0.19521001
81	0xbce7b894	-0.028286256
82	0x3d673294	0.05644472
83	0xbdc25414	-0.09488693
84	0xba89bfd3	-0.0010509439
85	0x3b691f34	0.0035571577
86	0xbded2eb6	-0.11581175
87	0xbc3dc042	-0.011581482
88	0xbe434482	-0.19069102
89	0x3dac5937	0.08415454
90	0x3e4dcb74	0.20097142
91	0x3c2efe27	0.010680712
92	0x3e3d02ee	0.18458149
93	0xbe5811ab	-0.2110049
94	0xbe03b3c3	-0.12861542
95	0x3de74c24	0.112938195
96	0xbdfcfd59	-0.1235301
97	0xbd5ea81f	-0.05435955
98	0x3e469aff	0.19395064
99	0xbd3a215b	-0.045441967
100	0x3e099535	0.13435824
101	0xbc4069e1	-0.0117439935
102	0x3ccc069d	0.024905497
103	0x3e406c21	0.18791248
104	0xb9aa3bc8	-0.00032469467
105	0xbdd4bec2	-0.10387947
106	0x3deda102	0.116029754
107	0xbdd76b4d	-0.10518513
108	0x3da5d666	0.08097534
109	0x3e639e75	0.22228415
110	0xbe72dac0	-0.23716259
111	0x3da915bd	0.082560994
112	0xbe151157	-0.14557396
113	0x3c5582fa	0.0130317155
114	0xbe18481a	-0.14871255
115	0x3e532245	0.20618542
116	0xbe7e3579	-0.24825086
117	0x3d64937d	0.05580472
118	0x3e0a9829	0.13534607
119	0xbe317856	-0.17331061
120	0x3e0cad12	0.13737896
121	0x3da0f33f	0.078588955
122	0x3db77b10	0.08959019
123	0x3d31b18e	0.04338222
124	0xbd96a6e3	-0.0735605
125	0x3d971aee	0.07378183
126	0x3db4bdd1	0.08825267
127	0xbdc77d6b	-0.097407185

onnx::Conv_786 f4 [8]
0	0xbce6e9a4	-0.02818758
1	0xbe132854	-0.14370853
2	0x3d9e8e0c	0.07741937
3	0x3e1ca109	0.15295805
4	0x3d99fe65	0.07519225
5	0x3d84bad0	0.06480944
6	0x3e10d2f8	0.14142978
7	0xbe36c6a0	-0.17849207

onnx::Conv_788 f4 [16, 8, 1, 1]
0	0xbe95aeae	-0.29234833
1	0x3dd39f39	0.10333104
2	0xbd254427	-0.0403482
3	0x3e8bf1b7	0.2733285
4	0x3dd01eed	0.101621486
5	0x3e0f0976	0.13968453
6	0x3d336b9d	0.0438038
7	0x3dc12010	0.094299436
8	0x3d943208	0.07236105
9	0xbe454eb7	-0.19268309
10	0x3e15606e	0.14587566
11	0x3e1ca5a9	0.1529757
12	0xbe59f907	-0.21286403
13	0x3e97656e	0.29569572
14	0xbd2c1b8f	-0.04201847
15	0xbde6e158	-0.1127345
16	0xbead6635	-0.3386704
17	0x3d2c0b90	0.042003214
18	0x3e9f68c3	0.31134614
19	0x3e89846d	0.26858845
20	0x3d2eef48	0.042708665
21	0x3e1fad98	0.15593565
22	0xbda9be36	-0.08288233
23	0xbdab3f30	-0.083616614
24	0x3eb4261a	0.3518532
25	0xbe406328	-0.18787825
26	0x3eb18243	0.34669694
27	0x3eaa0a37	0.33210918
28	0xbdc44e9a	-0.095853046
29	0xbe1b0d18	-0.15141714
30	0x3e3dbd08	0.18529141
31	0xbe0b13f6	-0.13581833
32	0x3e8c97c1	0.2745953
33	0x3e11c58f	0.14235519
34	0xbead7188	-0.3387568
35	0xbe966e0f	-0.29380843
36	0xbe9c3f54	-0.30517066
37	0x3e891c0f	0.2677922
38	0x3cc6f96b	0.024288854
39	0x3dc74c81	0.09731389
40	0xbc6bcfe1	-0.014392824
41	0x3e90b76c	0.2826494
42	0xbea5ebc7	-0.32406446
43	0xbe75208d	-0.23938198
44	0xbe723ea5	-0.2365671
45	0xbbfef52a	-0.0077806907
46	0xbd026597	-0.031835165
47	0xbd99ae52	-0.07503952
48	0x3dab5b4b	0.08367022
49	0xbe8eed00	-0.27915192
50	0x3e2bd3bf	0.16779993
51	0x3eb25d2c	0.3483671
52	0x3e613437	0.21992575
53	0xbe1d8b33	-0.15385132
54	0x3e44aad5	0.19205792
55	0xbe6b3ec7	-0.22973166
56	0x3e12827b	0.14307587
57	0x3a2dcdc4	0.0006630088
58	0xbdbf8fa4	-0.09353569
59	0x3e53bafa	0.20676795
60	0x3e0ef5a1	0.13960887
61	0x3d5c0dc4	0.053724065
62	0x3e965318	0.2936027
63	0xbd04b7c7	-0.032401826
64	0x3d8bb37e	0.06821345
65	0xbe12160c	-0.14266223
66	0x3dfc948c	0.123330206
67	0xbeb17d6a	-0.34665996
68	0xbe6b7137	-0.22992407
69	0x3e70c33d	0.23511977
70	0xbe4dab19	-0.200848
71	0xbdd2df9f	-0.102965586
72	0xbe0c52ab	-0.1370341
73	0xbe88f5ec	-0.26750124
74	0x3ca3afff	0.019981382
75	0xbeaaf1a4	-0.33387482
76	0x3ea0699f	0.31330582
77	0x3d58a7fc	0.052894577
78	0xbd36fc9e	-0.04467451
79	0xbea66e95	-0.32506242
80	0xbe3cd02a	-0.18438783
81	0xbe982d6f	-0.29722163
82	0xbcdd8296	-0.027039807
83	0xbc7e3503	-0.015515569
84	0x3db9f746	0.09080367
85	0x3e7d5ac7	0.2474166
86	0xbe5995d6	-0.21248564
87	0x3e24c266	0.16089782
88	0xbe608047	-0.21923934
89	0x3b5d8c0b	0.0033805396
90	0xbc79a896	-0.015237948
91	0xbea0d5f2	-0.31413227
92	0x3ea40a57	0.3203914
93	0x3e3b86a4	0.1831308
94	0x3db3e3d8	0.08783692
95	0xbe2ac5df	-0.16677044
96	0x3d9578d3	0.07298436
97	0xbe02ebcf	-0.12785266
98	0x3e756e71	0.23967911
99	0x3ce3f1f5	0.027825335
100	0x3cd47a01	0.025937082
101	0xbd8b86d5	-0.068128265
102	0x3dd1a87e	0.102372155
103	0x3e2c9388	0.16853154
104	0xbe6b6d95	-0.22991021
105	0xbd96225b	-0.073307715
106	0x3da79953	0.08183541
107	0x3b9b6272	0.00474196
108	0xbe28ab40	-0.16471577
109	0xbe164df6	-0.14678177
110	0xbd554a4a	-0.0520728
111	0x3d8f07fe	0.06983946
112	0x3b79a567	0.0038092972
113	0xbca03a9d	-0.019559199
114	0xbca66bda	-0.0203151
115	0x3e4ca290	0.19983888
116	0x3e2bcc74	0.16777211
117	0xbc6ec88c	-0.014574181
118	0xbeaf7caa	-0.342748
119	0x3e65d86d	0.22445841
120	0x3ea42b82	0.32064444
121	0xbe512d01	-0.20427324
122	0xbe9e9ec2	-0.30980498
123	0x3dcaf586	0.09910111
124	0x3e83eff2	0.25769
125	0x3e409cf3	0.18809871
126	0x3e0b9df5	0.13634475
127	0x3eae0714	0.33989775

onnx::Conv_789 f4 [16]
0	0x3cd9ab89	0.026571052
1	0xbd314698	-0.043280214
2	0x3e5cbaf7	0.21555696
3	0xbe8495e9	-0.25895622
4	0x3df3aa21	0.11897684
5	0xbc8f7708	-0.017512813
6	0x3e944743	0.28960618
7	0xbe7ab303	-0.2448235
8	0xbe75e0f0	-0.24011588
9	0x3eb2569f	0.34831712
10	0xba8b8533	-0.0010644555
11	0xbd8660f8	-0.06561464
12	0xbcdf577c	-0.027263395
13	0xbea3b094	-0.31970656
14	0xbd3f7931	-0.046746437
15	0xbe9b782c	-0.3036512

onnx::Conv_791 f4 [16, 1, 3, 3]
0	0xbe5930ac	-0.21209973
1	0x3d3b78e2	0.04576958
2	0xbe1cd0e3	-0.15314059
3	0x3d44929f	0.04799139
4	0x3dcd8713	0.10035529
5	0x3cabcf9e	0.020973023
6	0xbbc0736c	-0.0058731344
7	0x3dae2a47	0.085041575
8	0xbe4d3b58	-0.20042169
9	0xbe100d47	-0.14067565
10	0xbca70ef4	-0.020392872
11	0x3e19ef7d	0.15032764
12	0xbdcb2d98	-0.09920806
13	0xbe8b9d0c	-0.27268255
14	0xbe87c6e5	-0.26518932
15	0xbe09aca1	-0.13444759
16	0xbe95e46e	-0.2927584
17	0x3e9de61c	0.30839622
18	0xbe64409b	-0.2229027
19	0xbde995a9	-0.114054985
20	0xbd183904	-0.03716375
21	0x3dfc109d	0.12307856
22	0x3d8c4ed8	0.06850976
23	0x3e97fb6e	0.29684013
24	0xbe25b558	-0.16182458
25	0x3e22a351	0.15882613
26	0xbde0bf81	-0.109740265
27	0xbd40fb2c	-0.047114536
28	0xbe8ee975	-0.2791249
29	0x3e9cf8ce	0.30658573
30	0xbcf43c86	-0.029814016
31	0x3e94c425	0.29055896
32	0xbe733fb0	-0.23754764
33	0x3e8150d0	0.25256968
34	0x3e8bba21	0.27290443
35	0x3daa63ce	0.083198175
36	0xbd4fbe3c	-0.05071853
37	0x3ea97664	0.33098137
38	0x3d908c81	0.07058049
39	0xbdd2dcab	-0.10295995
40	0x3e4838b9	0.19552888
41	0x3e5b9ebb	0.2144727
42	0xbdd42bd5	-0.10359923
43	0xbe9b6f73	-0.30358467
44	0x3bd115bb	0.0063807643
45	0x3cf2ae86	0.029624235
46	0xbe75ff0f	-0.24023078
47	0xbd11d826	-0.035606526
48	0xbe675742	-0.2259188
49	0xbe30c204	-0.17261511
50	0x3e7a6e7c	0.24456209
51	0xbe86cd5f	-0.2632856
52	0xbe371004	-0.17877203
53	0x3e9bf6c3	0.30461702
54	0x3e9f276c	0.31084764
55	0xbe310b7c	-0.17289537
56	0x3e892ff5	0.267944
57	0x3dae8602	0.08521654
58	0xbe45c7af	-0.19314454
59	0x3e5d14c7	0.21589957
60	0xbe90ae3c	-0.2825793
61	0xbea040fe	-0.31299585
62	0xbe2ce0c2	-0.16882613
63	0xbe8633f7	-0.2621152
64	0xbe80dea5	-0.25169864
65	0x3d1f9d97	0.03896865
66	0xbe39ece3	-0.18156771
67	0x3dd39261	0.10330654
68	0x3e9ef203	0.31044015
69	0xbe20d62b	-0.15706699
70	0xbe8b758a	-0.27238113
71	0xbe8d4e2d	-0.27598706
72	0x3e8b4f4c	0.27208936
73	0x3d49d0f4	0.04927154
74	0x3db8dcae	0.09026466
75	0xbe98699c	-0.29768074
76	0xbe6a228e	-0.22864744
77	0xbe1fd4b7	-0.15608488
78	0xbcbeec41	-0.023306014
79	0x3e4b2b55	0.19840749
80	0xbe3e08ea	-0.18558088
81	0x3e342dc3	0.17595582
82	0x3e6b7001	0.22991945
83	0xbdc347bb	-0.09535166
84	0x3e27499c	0.16336673
85	0xbd3e21ed	-0.046419073
86	0x3dd940e9	0.10608084
87	0xbe1cf238	-0.15326774
88	0xbe24c962	-0.16092446
89	0x3d847675	0.064679064
90	0xbe1254e0	-0.1429019
91	0xbe7e77b3	-0.24850349
92	0x3d108ebc	0.035292372
93	0xbe3de352	-0.18543747
94	0xbb917426	-0.004438895
95	0xbdab1d1e	-0.08355163
96	0xbdede68d	-0.1161624
97	0xbe406297	-0.18787609
98	0xbe98e7c4	-0.29864323
99	0x3d8fb881	0.07017613
100	0xbde317d0	-0.11088526
101	0x3cdbd123	0.026833123
102	0x3cbc9b58	0.023023292
103	0x3e423e4e	0.1896908
104	0xbc2755c9	-0.010213324
105	0x3e4cdecb	0.20006864
106	0xbcba4919	-0.022739934
107	0xbe8dadad	-0.27671567
108	0xbd9deff2	-0.077117816
109	0xbd6edb48	-0.05831459
110	0xbd8e47ac	-0.06947264
111	0xbe7bc8e0	-0.24588346
112	0x3e586557	0.21132408
113	0x3db9dd5e	0.090754256
114	0x3d370aa4	0.044687882
115	0x3d4909de	0.049081676
116	0x3d8a5bc9	0.06755788
117	0x3e6a6fe9	0.22894253
118	0x3e31cdbc	0.17363638
119	0xbe87db6d	-0.26534596
120	0xbe8ef7c4	-0.27923405
121	0x3ea89fd7	0.32934448
122	0x3d24a715	0.040198404
123	0xbe4de1ac	-0.20105618
124	0xbd716b31	-0.058940116
125	0x3eaa8b4e	0.33309406
126	0x3e47579d	0.19467016
127	0xbde6e5da	-0.112743095
128	0xbe9abe0d	-0.30223122
129	0x3de37585	0.111063994
130	0xbea67878	-0.32513785
131	0xbcecabc8	-0.028890505
132	0x3e71051f	0.2353711
133	0xbe525f16	-0.20544085
134	0x3e06e8f2	0.13174799
135	0xbdfad1d4	-0.12247053
136	0x3e02ec20	0.12785387
137	0x3dda6c03	0.10665133
138	0x3cfc326d	0.030785764
139	0x3d9fa982	0.07796003
140	0xbe22462b	-0.1584708
141	0xbd19864e	-0.0374816
142	0xbdcb8f43	-0.099394344
143	0x3e7092f1	0.23493554

onnx::Conv_792 f4 [16]
0	0x3da7b109	0.08188064
1	0xbe307c7c	-0.17234987
2	0x3e5ec067	0.21753083
3	0x3e5b2ff3	0.2140501
4	0x3dc595c5	0.09647707
5	0xbb5755b9	-0.0032857491
6	0xbe1e676a	-0.15469137
7	0x3e3fca64	0.1872955
8	0xbe1071bf	-0.1410589
9	0x3dcb677d	0.09931848
10	0xbe91a1fa	-0.2844389
11	0x3e5509e2	0.20804551
12	0x3ce27e61	0.027648153
13	0xbdb6eadf	-0.08931517
14	0xbe37b69c	-0.17940754
15	0x3e11ec66	0.14250335

onnx::Conv_794 f4 [8, 16, 1, 1]
0	0x3e312c04	0.17301947
1	0xbd1effe4	-0.038818255
2	0xbe0ebd1b	-0.13939326
3	0x3d227b2b	0.039668243
4	0xbe45b5df	-0.1930766
5	0xbdd69de6	-0.104793355
6	0xbe130de2	-0.14360765
7	0xbb8b3d12	-0.0042492235
8	0x3d907691	0.07053865
9	0x3e22945b	0.15876906
10	0x3d69835b	0.057010036
11	0x3e080301	0.13282396
12	0x3cc14551	0.023592623
13	0xbdc688eb	-0.09694084
14	0xbe540e3c	-0.20708555
15	0xbe4fd346	-0.20295438
16	0xbe78a0b8	-0.2428006
17	0xbe3effed	-0.18652315
18	0xbdc34650	-0.095348954
19	0xbd28a119	-0.04116926
20	0x3d325f35	0.043547828
21	0xbd773a6f	-0.06035846
22	0x3de61489	0.112343855
23	0x3e09301f	0.13397263
24	0x3e2ec597	0.17067562
25	0xbc678c14	-0.014132518
26	0x3e0b2a3a	0.13590327
27	0x3e457e33	0.19286422
28	0x3e3d5bba	0.18492022
29	0x3c3f95a1	0.011693389
30	0xbe768f21	-0.24078037
31	0x3e51dc37	0.20494162
32	0x3d25d3ea	0.0404853
33	0xbe0fcf21	-0.14043857
34	0xbe1cfb32	-0.15330198
35	0x3e012c40	0.12614536
36	0x3e4b8eb1	0.19878651
37	0x3e33cd5b	0.17558806
38	0x3e3e99fb	0.18613426
39	0xbe7e20d1	-0.24817206
40	0x3ba027cb	0.004887556
41	0x3cfd709d	0.030937487
42	0xbd221a0b	-0.039575618
43	0x3e43a14e	0.19104502
44	0x3e172d3c	0.1476335
45	0xbd8a465b	-0.067517005
46	0xbe5ff243	-0.2186976
47	0x3cf10121	0.029419484
48	0x3d4bcff5	0.04975887
49	0x3e4cfe07	0.20018779
50	0xbd07cd13	-0.03315456
51	0xbe594861	-0.21219017
52	0x3e2f737e	0.171339
53	0x3d1828be	0.03714823
54	0x3e448f82	0.19195369
55	0xbd8fbfc5	-0.07018999
56	0x3dfb2dae	0.12264572
57	0x3d6ad34b	0.05733041
58	0xbdee601e	-0.11639427
59	0x3e05b632	0.13057783
60	0x3e008416	0.12550387
61	0xbe2a2dda	-0.16619053
62	0xbca9cdb8	-0.020727977
63	0xbe5fb739	-0.21847238
64	0x3dea6973	0.11445894
65	0xbb9f02cc	-0.0048526283
66	0x3d5c1650	0.053732216
67	0x3e19a3aa	0.15003839
68	0xbe1d470e	-0.15359136
69	0x3e5a7e0c	0.21337146
70	0xbe54e102	-0.20788959
71	0x3e587bd9	0.21140994
72	0x3d51d7a3	0.051231038
73	0xbe374688	-0.17898
74	0x3da75061	0.08169628
75	0xbde0952a	-0.10965951
76	0xbd46204f	-0.048370656
77	0xbdc523eb	-0.096259914
78	0x3e0a818b	0.13525979
79	0x3ce88394	0.028383054
80	0xbc0c5592	-0.008565323
81	0xbdf7e1b7	-0.121035986
82	0x3bcb743d	0.006208925
83	0x3d373984	0.044732586
84	0xbe239dc8	-0.15978158
85	0x3e3d2944	0.18472773
86	0xbe1332fe	-0.1437492
87	0x3e43cfae	0.19122192
88	0xbdda0a48	-0.10646492
89	0x3e5c74e6	0.21528968
90	0x3e0f8f25	0.14019449
91	0x3e2b79f4	0.1674574
92	0x3e235d84	0.15953642
93	0xbe0b0d86	-0.13579378
94	0x3d6b54a3	0.057453763
95	0xbcbb05a3	-0.022829836
96	0x3e6caaec	0.23112077
97	0x3c413b81	0.011793972
98	0xbe16ec0e	-0.14738485
99	0xbd84bb64	-0.064810544
100	0xbdf2dd04	-0.11858562
101	0x3d8d28c2	0.068925396
102	0xbde94807	-0.11390691
103	0x3d448a00	0.04798317
104	0xbe4dc3b6	-0.20094189
105	0xbe3d71a6	-0.18500385
106	0x3e3107dc	0.17288154
107	0x3e2adc64	0.16685635
108	0xbd802826	-0.06257658
109	0xbda47346	-0.08029799
110	0xbe13bf6c	-0.1442849
111	0x3db3145d	0.08744118
112	0x3dc7e53a	0.09760518
113	0xbe6bfcdd	-0.23045678
114	0xbe5305f9	-0.20607747
115	0x3d8c9a5e	0.06865381
116	0x3dada2cb	0.08478316
117	0x3d65d5ad	0.05611198
118	0xbe745088	-0.23858845
119	0x3de87d00	0.11351967
120	0x3e41752d	0.18892355
121	0xbb961d4f	-0.0045811306
122	0x3cb44415	0.02200512
123	0xbe2049db	-0.15653174
124	0xbd2a9d68	-0.04165402
125	0x3c5b15d8	0.013371907
126	0xbe1ee5ce	-0.15517351
127	0x3e692a89	0.22770132

onnx::Conv_795 f4 [8]
0	0xbe448fb0	-0.19195437
1	0xbe4dc86e	-0.20095989
2	0x3c853fb4	0.016265728
3	0x3e6ed9e4	0.23325306
4	0xbe691664	-0.22762448
5	0x3db619a8	0.08891612
6	0x3d8a994f	0.067675225
7	0x3e75ee25	0.24016626

onnx::Conv_797 f4 [16, 8, 1, 1]
0	0xbd2c32d9	-0.04204068
1	0xbea38139	-0.31934527
2	0x3e56a9e6	0.20963249
3	0xbe999688	-0.2999766
4	0xbdda7f44	-0.10668805
5	0xbd0e6b42	-0.034770258
6	0x3e92a663	0.28642568
7	0x3d8db578	0.06919378
8	0x3d715a81	0.058924202
9	0x3dd37362	0.10324742
10	0xbd5b7815	-0.053581316
11	0xbe983f3b	-0.2973574
12	0x3e123305	0.14277275
13	0xbda0bbf3	-0.078483485
14	0x3e8d9c81	0.27658466
15	0x3dc83e6b	0.0977753
16	0xbe2ce583	-0.16884427
17	0xbd69003a	-0.05688498
18	0xbe119a07	-0.14218913
19	0xbe96a251	-0.29420713
20	0x3e8aa4b5	0.27078786
21	0xbeb21b09	-0.3478625
22	0xbd2c0938	-0.04200098
23	0x3d9cab6d	0.076498844
24	0x3e4b2bea	0.1984097
25	0x3e256afd	0.16154094
26	0x3d649300	0.055804253
27	0xbbf6fde1	-0.007537589
28	0x3d8be40a	0.068306044
29	0x3ead5fe3	0.33862218
30	0x3d85bc26	0.06530027
31	0xbbfa60c9	-0.007640932
32	0xbe6f809c	-0.23388904
33	0x3e00f545	0.12593563
34	0xbea069c4	-0.31330693
35	0x3df6e95f	0.12056231
36	0xbd393449	-0.04521588
37	0x3d290417	0.041263666
38	0xbe930d2c	-0.28720987
39	0xbe8c329e	-0.27382368
40	0x3e979426	0.29605216
41	0xbe83d438	-0.25747848
42	0xbe7ca6da	-0.24673024
43	0x3eb363ca	0.3503707
44	0xbe1adfcc	-0.15124434
45	0x3e601cda	0.21886006
46	0x3e62a813	0.22134428
47	0x3dfc83d7	0.12329834
48	0xbe73fd72	-0.2382715
49	0xbe9f07c6	-0.31060618
50	0xbc8f0d3b	-0.017462363
51	0xbe8ab6b7	-0.27092525
52	0xbe5a644f	-0.21327327
53	0x3de3f677	0.11130994
54	0xbc0e61c2	-0.0086902995
55	0xbc0df4dd	-0.008664337
56	0x3e855780	0.2604332
57	0xbdfa7f97	-0.12231367
58	0xbe892d1b	-0.26792225
59	0xbd570944	-0.05249907
60	0xbe7e11da	-0.24811497
61	0x3e8ba113	0.27271327
62	0xbe16018d	-0.14649029
63	0x3eb0430d	0.34426156
64	0xbe8634af	-0.2621207
65	0x3ca1d681	0.019755604
66	0x3ded79a4	0.11595467
67	0xbe6c29d6	-0.23062834
68	0xbe44246e	-0.19154522
69	0x3e920762	0.28521258
70	0x3d9fa982	0.07796003
71	0x3d0f8652	0.035040207
72	0x3d72cf8b	0.05927996
73	0x3e8b0681	0.271534
74	0xbe8cd305	-0.27504745
75	0xbe639598	-0.22225034
76	0x3e9a8fb7	0.3018777
77	0x3e7c3b4c	0.24631995
78	0xbdd2eb8d	-0.10298834
79	0xbe765b33	-0.24058227
80	0x3e056dbf	0.13030146
81	0x3da4aecc	0.08041152
82	0x3e8e27b1	0.27764657
83	0xbe818681	-0.2529793
84	0x3e5e2e01	0.21697237
85	0x3d8461ab	0.06463941
86	0xbe711464	-0.23542935
87	0xbe445634	-0.19173509
88	0x3e4d05d2	0.20021752
89	0x3cb3cb8f	0.02194765
90	0xbdf8b33e	-0.12143563
91	0xbe8e225b	-0.27760586
92	0xbd98335b	-0.0743167
93	0xbea2aade	-0.31770986
94	0xbe372645	-0.17885692
95	0xbe19f507	-0.15034877
96	0xbe28acaf	-0.16472124
97	0x3e165643	0.14681344
98	0x3be39c7d	0.006946145
99	0xbe67946b	-0.2261521
100	0x3ead5754	0.3385569
101	0x3e072d34	0.13200837
102	0x3e322e0d	0.1740038
103	0x3e0e1b3f	0.13877581
104	0x3e79a19d	0.24378057
105	0x3dc927a8	0.09822017
106	0x3dbe1667	0.09281617
107	0x3d6cb3d4	0.057788685
108	0x3e2d19e5	0.16904409
109	0x3e9fb710	0.31194353
110	0xbde08000	-0.10961914
111	0xbd111843	-0.03542353
112	0xba9287d4	-0.0011179396
113	0x3da84b5c	0.08217499
114	0xbdf35d62	-0.11883046
115	0x3e4b7796	0.19869837
116	0x3e57a03c	0.21057218
117	0xbe2010d1	-0.15631415
118	0x3e2b7041	0.1674204
119	0xbe3328c8	-0.17496026
120	0xbcf0bf4b	-0.02938809
121	0xbe7f8175	-0.24951728
122	0x3e5148c8	0.2043792
123	0x3e2e4114	0.17017013
124	0xbcfc6d5e	-0.03081387
125	0x3e95711c	0.29187858
126	0x3d76cabf	0.060251947
127	0xbc497d97	-0.012298009

onnx::Conv_798 f4 [16]
0	0xbe881a22	-0.26582438
1	0xbe0f6ec4	-0.14007097
2	0xbe952769	-0.2913163
3	0x3e3b63ff	0.18299864
4	0x3d33096a	0.04371015
5	0xbe83f0ed	-0.2576975
6	0xbeb084fc	-0.3447646
7	0x3ea8c50e	0.3296284
8	0xbd78ac75	-0.060711343
9	0x3e9ecc56	0.3101527
10	0x3d09a563	0.03360499
11	0x3e5d75ca	0.21626964
12	0xbe4cfd7e	-0.20018575
13	0x3dfc8ebc	0.12331912
14	0x3cde8316	0.027162116
15	0x3e9fefbe	0.31237596

onnx::Conv_800 f4 [16, 1, 3, 3]
0	0xbd5e082d	-0.054207016
1	0xbe64a125	-0.22327097
2	0xbe8398e0	-0.25702572
3	0xbe11a9f0	-0.14224982
4	0x3e153c27	0.14573728
5	0x3ddc918e	0.1076995
6	0xbe53847e	-0.2065601
7	0xbe4308a6	-0.19046268
8	0xbe864c4f	-0.26230094
9	0xbcf24ab0	-0.02957663
10	0x3be77c5f	0.0070643867
11	0xbe231272	-0.15925005
12	0xbe6be951	-0.23038222
13	0xbe8ee7c1	-0.2791119
14	0xbe0c21b0	-0.13684726
15	0xbe807c1c	-0.25094688
16	0xbdff6482	-0.12470342
17	0xbddb8818	-0.10719317
18	0x3e87be0f	0.2651219
19	0xbe1119ae	-0.14169952
20	0xbe7e16c0	-0.24813366
21	0x3e06c934	0.1316269
22	0x3e8afb92	0.27145058
23	0xbe8d578e	-0.2760586
24	0xbd9f9837	-0.077927046
25	0xbe561f20	-0.20910311
26	0xbde2b966	-0.11070518
27	0xbdabe2d8	-0.083928764
28	0xbea9e0f6	-0.33179444
29	0x3e41470f	0.18874763
30	0x3ea3a175	0.3195912
31	0xbe76370f	-0.2404444
32	0x3e045033	0.12921219
33	0xbdc27220	-0.09494424
34	0xbe45a8df	-0.193027
35	0x3e6dcb05	0.23221977
36	0xbe199dd1	-0.15001608
37	0xbe0d5538	-0.1380204
38	0xbe74ad36	-0.238942
39	0x3c0fc951	0.008776025
40	0x3dd5d1d0	0.10440409
41	0xbe1a90e3	-0.15094332
42	0x3e2623f9	0.1622466
43	0xbe4d7b35	-0.20066531
44	0x3dc0b131	0.094087966
45	0x3e50fe1b	0.20409434
46	0xbe6deafd	-0.23234172
47	0x3e480ea4	0.19536835
48	0x3ea2950e	0.31754345
49	0xbdafa076	-0.08575527
50	0xbe58664c	-0.21132773
51	0x3e7cc9a3	0.24686293
52	0xbe6942d1	-0.22779395
53	0xbdfe0d0d	-0.12404833
54	0xbe0a95b6	-0.13533673
55	0xbe914f4e	-0.28380817
56	0x3e887906	0.26654834
57	0xbd7e0123	-0.062012803
58	0x3dd74804	0.10511783
59	0x3e37f8f2	0.17966059
60	0xbe3f5e47	-0.18688308
61	0x3deabdde	0.114619955
62	0x3e4e5c77	0.2015246
63	0x3e2e5c82	0.17027476
64	0x3e45a68d	0.19301815
65	0x3d121cd0	0.03567201
66	0xbc4f5392	-0.012654202
67	0x3d95aa0f	0.07307827
68	0x3e11290e	0.14175817
69	0xbe59bdb4	-0.21263772
70	0x3e8f500d	0.2799076
71	0x3e11305e	0.14178607
72	0xbcdd52e2	-0.02701706
73	0xbe49a964	-0.19693524
74	0x3e8f8043	0.28027543
75	0xbe803348	-0.25039124
76	0x3e8a1e2d	0.26976147
77	0xbcea621e	-0.028611239
78	0xbea8ea78	-0.32991385
79	0xbe6e4e08	-0.23271954
80	0x3eaa02f2	0.33205372
81	0xbdcc89e8	-0.09987241
82	0x3ea22de9	0.31675652
83	0xbe26d0c7	-0.1629058
84	0xbe423f8b	-0.18969552
85	0xbcba8c19	-0.022771882
86	0xbe3e424a	-0.18579975
87	0xbdc7ab29	-0.09749443
88	0xbe017881	-0.12643625
89	0xbe21e40e	-0.15809652
90	0x3debc283	0.115117095
91	0x3d04f9ff	0.032464977
92	0x3d4b917d	0.049699295
93	0xbe298f8b	-0.16558664
94	0x3e2d99f2	0.16953257
95	0xbd50ddf1	-0.05099291
96	0x3e3f8954	0.1870473
97	0x3ce4de35	0.027937988
98	0xbd7731a5	-0.06035008
99	0x3b13e9cf	0.002256978
100	0xbde39150	-0.111117005
101	0xbe69c316	-0.22828326
102	0x3d86400f	0.06555187
103	0x3e09cfc6	0.13458166
104	0x3d6d30bd	0.05790781
105	0xbdc4500b	-0.095855795
106	0xbe7f36ff	-0.24923323
107	0x3db57f5a	0.08862181
108	0xbdf150ec	-0.11783013
109	0xbe24d878	-0.16098201
110	0x3e2942e0	0.16529417
111	0x3df38ff6	0.11892693
112	0x3e4ec972	0.20194033
113	0x3e535bb9	0.20640458
114	0xbdb92cde	-0.09041761
115	0xbd427b8b	-0.0474811
116	0xbdcbffed	-0.09960923
117	0x3e14a08f	0.14514373
118	0x3d9d3d0c	0.076776594
119	0x3de16db1	0.1100725
120	0x3d1e3b0c	0.03863053
121	0x3e85d01c	0.26135337
122	0x3dd97a5f	0.106190436
123	0xbd40892c	-0.047005817
124	0xbe96aaf5	-0.29427305
125	0xbe8f20ac	-0.27954614
126	0x3e9350f0	0.28772688
127	0x3e3a833b	0.18214123
128	0xbe8858b7	-0.26630184
129	0xbcb6f984	-0.022335775
130	0x3e168987	0.147009
131	0x3e1c219b	0.15247194
132	0x3d9e9c02	0.077446
133	0xbe7bf5c5	-0.24605472
134	0xbdde6b57	-0.10860317
135	0xbe3ac651	-0.18239714
136	0x3d89a449	0.06720788
137	0x3ea58875	0.3233067
138	0xbe44d702	-0.19222644
139	0xbdd1114b	-0.102083765
140	0xbe97529a	-0.29555207
141	0xbe19b49e	-0.15010306
142	0xbe9fe9cf	-0.3123307
143	0xbe14a1fa	-0.14514914

onnx::Conv_801 f4 [16]
0	0xbe7be4c8	-0.24598992
1	0xbe677a67	-0.22605287
2	0xbd1dec37	-0.03855535
3	0x3e07f549	0.13277163
4	0xbe34e6a3	-0.17666106
5	0x3e6aac71	0.22917344
6	0x3e9ea1e0	0.30982876
7	0x3e27dcbf	0.16392802
8	0x3e0829a1	0.1329713
9	0x3e0be4b0	0.13661456
10	0xbd995ac4	-0.07488015
11	0x3d718567	0.058965113
12	0xbc2c6147	-0.01052124
13	0xbd90a98c	-0.070635885
14	0xbe57c6b7	-0.21071897
15	0xbe17f021	-0.14837696
