gtcrn_micro/models/onnx/gtcrn_micro.onnx (onnx, 158489 bytes, 52 tensors)

onnx::MatMul_690 f4 [192, 64]
000000 00 00 80 3f cc bc 8c 2b 00 00 00 00 00 00 00 00
       1.0 1e-12 0.0 0.0
000010 00 00 00 00 00 00 00 00 00 00 00 00 00 00 00 00
       0.0 0.0 0.0 0.0
000020 00 00 00 00 00 00 00 00 00 00 00 00 00 00 00 00
       0.0 0.0 0.0 0.0
000030 00 00 00 00 00 00 00 00 00 00 00 00 00 00 00 00
       0.0 0.0 0.0 0.0
000040 00 00 00 00 00 00 00 00 00 00 00 00 00 00 00 00
       0.0 0.0 0.0 0.0
000050 00 00 00 00 00 00 00 00 00 00 00 00 00 00 00 00
       0.0 0.0 0.0 0.0
000060 00 00 00 00 00 00 00 00 00 00 00 00 00 00 00 00
       0.0 0.0 0.0 0.0
000070 00 00 00 00 00 00 00 00 00 00 00 00 00 00 00 00
       0.0 0.0 0.0 0.0
000080 00 00 00 00 00 00 00 00 00 00 00 00 00 00 00 00
       0.0 0.0 0.0 0.0
000090 00 00 00 00 00 00 00 00 00 00 00 00 00 00 00 00
       0.0 0.0 0.0 0.0
0000a0 00 00 00 00 00 00 00 00 00 00 00 00 00 00 00 00
       0.0 0.0 0.0 0.0
0000b0 00 00 00 00 00 00 00 00 00 00 00 00 00 00 00 00
       0.0 0.0 0.0 0.0
0000c0 00 00 00 00 00 00 00 00 00 00 00 00 00 00 00 00
       0.0 0.0 0.0 0.0
0000d0 00 00 00 00 00 00 00 00 00 00 00 00 00 00 00 00
       0.0 0.0 0.0 0.0
0000e0 00 00 00 00 00 00 00 00 00 00 00 00 00 00 00 00
       0.0 0.0 0.0 0.0
0000f0 00 00 00 00 00 00 00 00 00 00 00 00 00 00 00 00
       0.0 0.0 0.0 0.0
000100 00 00 00 00 00 00 80 3f cc bc 0c 2b 00 00 00 00
       0.0 1.0 5e-13 0.0
000110 00 00 00 00 00 00 00 00 00 00 00 00 00 00 00 00
       0.0 0.0 0.0 0.0
000120 00 00 00 00 00 00 00 00 00 00 00 00 00 00 00 00
       0.0 0.0 0.0 0.0
000130 00 00 00 00 00 00 00 00 00 00 00 00 00 00 00 00
       0.0 0.0 0.0 0.0
000140 00 00 00 00 00 00 00 00 00 00 00 00 00 00 00 00
       0.0 0.0 0.0 0.0
000150 00 00 00 00 00 00 00 00 00 00 00 00 00 00 00 00
       0.0 0.0 0.0 0.0
000160 00 00 00 00 00 00 00 00 00 00 00 00 00 00 00 00
       0.0 0.0 0.0 0.0
000170 00 00 00 00 00 00 00 00 00 00 00 00 00 00 00 00
       0.0 0.0 0.0 0.0
000180 00 00 00 00 00 00 00 00 00 00 00 00 00 00 00 00
       0.0 0.0 0.0 0.0
000190 00 00 00 00 00 00 00 00 00 00 00 00 00 00 00 00
       0.0 0.0 0.0 0.0
0001a0 00 00 00 00 00 00 00 00 00 00 00 00 00 00 00 00
       0.0 0.0 0.0 0.0
0001b0 00 00 00 00 00 00 00 00 00 00 00 00 00 00 00 00
       0.0 0.0 0.0 0.0
0001c0 00 00 00 00 00 00 00 00 00 00 00 00 00 00 00 00
       0.0 0.0 0.0 0.0
0001d0 00 00 00 00 00 00 00 00 00 00 00 00 00 00 00 00
       0.0 0.0 0.0 0.0
0001e0 00 00 00 00 00 00 00 00 00 00 00 00 00 00 00 00
       0.0 0.0 0.0 0.0
0001f0 00 00 00 00 00 00 00 00 00 00 00 00 00 00 00 00
       0.0 0.0 0.0 0.0
000200 00 00 00 00 00 00 00 3f 00 00 00 3f 00 00 00 00
       0.0 0.5 0.5 0.0
000210 00 00 00 00 00 00 00 00 00 00 00 00 00 00 00 00
       0.0 0.0 0.0 0.0
000220 00 00 00 00 00 00 00 00 00 00 00 00 00 00 00 00
       0.0 0.0 0.0 0.0
000230 00 00 00 00 00 00 00 00 00 00 00 00 00 00 00 00
       0.0 0.0 0.0 0.0
000240 00 00 00 00 00 00 00 00 00 00 00 00 00 00 00 00
       0.0 0.0 0.0 0.0
000250 00 00 00 00 00 00 00 00 00 00 00 00 00 00 00 00
       0.0 0.0 0.0 0.0
000260 00 00 00 00 00 00 00 00 00 00 00 00 00 00 00 00
       0.0 0.0 0.0 0.0
000270 00 00 00 00 00 00 00 00 00 00 00 00 00 00 00 00
       0.0 0.0 0.0 0.0
000280 00 00 00 00 00 00 00 00 00 00 00 00 00 00 00 00
       0.0 0.0 0.0 0.0
000290 00 00 00 00 00 00 00 00 00 00 00 00 00 00 00 00
       0.0 0.0 0.0 0.0
0002a0 00 00 00 00 00 00 00 00 00 00 00 00 00 00 00 00
       0.0 0.0 0.0 0.0
0002b0 00 00 00 00 00 00 00 00 00 00 00 00 00 00 00 00
       0.0 0.0 0.0 0.0
0002c0 00 00 00 00 00 00 00 00 00 00 00 00 00 00 00 00
       0.0 0.0 0.0 0.0
0002d0 00 00 00 00 00 00 00 00 00 00 00 00 00 00 00 00
       0.0 0.0 0.0 0.0
0002e0 00 00 00 00 00 00 00 00 00 00 00 00 00 00 00 00
       0.0 0.0 0.0 0.0
0002f0 00 00 00 00 00 00 00 00 00 00 00 00 00 00 00 00
       0.0 0.0 0.0 0.0
000300 00 00 00 00 00 00 00 00 00 00 80 3f cc bc 0c 2b
       0.0 0.0 1.0 5e-13
000310 00 00 00 00 00 00 00 00 00 00 00 00 00 00 00 00
       0.0 0.0 0.0 0.0
000320 00 00 00 00 00 00 00 00 00 00 00 00 00 00 00 00
       0.0 0.0 0.0 0.0
000330 00 00 00 00 00 00 00 00 00 00 00 00 00 00 00 00
       0.0 0.0 0.0 0.0
000340 00 00 00 00 00 00 00 00 00 00 00 00 00 00 00 00
       0.0 0.0 0.0 0.0
000350 00 00 00 00 00 00 00 00 00 00 00 00 00 00 00 00
       0.0 0.0 0.0 0.0
000360 00 00 00 00 00 00 00 00 00 00 00 00 00 00 00 00
       0.0 0.0 0.0 0.0
000370 00 00 00 00 00 00 00 00 00 00 00 00 00 00 00 00
       0.0 0.0 0.0 0.0
000380 00 00 00 00 00 00 00 00 00 00 00 00 00 00 00 00
       0.0 0.0 0.0 0.0
000390 00 00 00 00 00 00 00 00 00 00 00 00 00 00 00 00
       0.0 0.0 0.0 0.0
0003a0 00 00 00 00 00 00 00 00 00 00 00 00 00 00 00 00
       0.0 0.0 0.0 0.0
0003b0 00 00 00 00 00 00 00 00 00 00 00 00 00 00 00 00
       0.0 0.0 0.0 0.0
0003c0 00 00 00 00 00 00 00 00 00 00 00 00 00 00 00 00
       0.0 0.0 0.0 0.0
0003d0 00 00 00 00 00 00 00 00 00 00 00 00 00 00 00 00
       0.0 0.0 0.0 0.0
0003e0 00 00 00 00 00 00 00 00 00 00 00 00 00 00 00 00
       0.0 0.0 0.0 0.0
0003f0 00 00 00 00 00 00 00 00 00 00 00 00 00 00 00 00
       0.0 0.0 0.0 0.0

onnx::Conv_632 f4 [16, 3, 1, 5]
000000 2e 72 c4 3c 60 f1 56 be 9e 83 68 be 3c 62 6b 3e
       0.023980226 -0.20990515 -0.22706458 0.22986692
000010 a6 fe 75 bd d5 d4 f7 bc e2 6c 16 3e f0 00 64 3e
       -0.060057305 -0.030252853 0.14689973 0.22265983
000020 ad 85 fd bd 3a 93 6a 3e 8f a7 54 be 80 e0 b6 3d
       -0.12379012 0.22907725 -0.20767044 0.08929539
000030 9a 65 de bd 51 09 2b 3e fc 1b a7 bc 0b dd 88 3d
       -0.10859223 0.16702773 -0.020399086 0.066827856
000040 1c 1c e8 3c 60 62 c8 bd 71 6b 1b 3e e3 de 47 3d
       0.028333716 -0.097843885 0.15177704 0.048796546
000050 ff e4 a8 3d 5e 3f 50 be 3f c1 f5 bd 4e 5a f8 3d
       0.082468025 -0.20336673 -0.119997494 0.12126599
000060 86 a7 34 be 24 f0 16 3d 93 11 3f be 48 9e 62 3e
       -0.1764203 0.03685011 -0.18659048 0.22130692
000070 dc 2c 22 3e 35 37 4d 3e 2c 7b 1a be ec fd 85 bd
       0.15837425 0.20040591 -0.15086049 -0.065425724
000080 c6 89 75 3e 95 4f 0d 3e a6 7c 90 bd c7 f5 46 be
       0.23978338 0.1379989 -0.07055025 -0.19429694
000090 3c db af 3d 7c 7c cd bd 4b 27 5c 3e 14 19 5e be
       0.085867375 -0.10033509 0.21499364 -0.21689254
0000a0 55 b8 d0 bd 67 64 46 be 9c 30 50 be 44 18 1a 3e
       -0.101914085 -0.19374238 -0.20331043 0.15048319
0000b0 11 1b 62 be 90 3c 18 3e 28 47 15 be 00 99 4d be
       -0.22080638 0.14866853 -0.14577925 -0.20077896
0000c0 6d 0e 76 3e 3e c1 73 be 78 7b 97 bd 18 fb 40 be
       0.2402894 -0.23804185 -0.07396597 -0.18845785
0000d0 66 2d 9d 3d 53 d8 3e 3e 5d 6d 4e 3e af 37 9e bd
       0.07674675 0.18637209 0.20158906 -0.077254646
0000e0 ea 45 8d bd ce fa 0f 3e e9 7b 0b 3e d8 2b 22 be
       -0.06898101 0.14060518 0.13621487 -0.15837038
0000f0 8c 05 67 bd ba ee 8d 3d 2f 6b 2c 3e e9 d9 65 be
       -0.056401774 0.06930299 0.16837762 -0.22446407
000100 f8 67 80 be da ad a2 bd 6e d5 1d be 50 d8 20 be
       -0.25079322 -0.07943316 -0.15413448 -0.15707517
000110 de 84 44 be e3 c9 92 bd 0e 74 24 3e 92 62 f4 3c
       -0.1919131 -0.07167413 0.16059896 0.029832158
000120 b6 08 75 3e f1 0c ff 3d 81 17 08 bc d7 4f f2 3d
       0.23929104 0.1245364 -0.008306385 0.118316345
000130 e7 4b 71 be a6 46 cc bd 9a 04 9d bd 04 92 06 bc
       -0.2356411 -0.099744126 -0.07666893 -0.008213524
000140 7d 14 57 be 50 13 2d 3e dd 30 44 be df 6b c4 3d
       -0.2100391 0.16901898 -0.19159265 0.09590887
000150 c6 d4 08 be 9b e9 32 3e 30 26 fc bd 6f 37 ea 3d
       -0.13362417 0.17471926 -0.12311971 0.11436354
000160 69 0a 82 be 95 0c 69 3e bf f4 29 be 1f 53 76 3e
       -0.25398567 0.22758706 -0.1659727 0.24055146
000170 5a 58 29 be 79 7e 19 be 21 48 67 be 0c da 8f 3d
       -0.1653761 -0.14989652 -0.22586109 0.07024011
000180 c2 60 c6 bc bd 7f 30 3e d0 7d 22 3e 74 e8 7a 3e
       -0.02421606 0.17236228 0.15868306 0.24502736
000190 90 78 84 3d f2 18 49 3e 4e c1 1f bd fd 73 72 bd
       0.06468308 0.19638422 -0.03900271 -0.059192646
0001a0 b5 e1 69 be d5 31 11 3d 74 c1 59 be 3c e1 70 be
       -0.22840007 0.035447914 -0.21265203 -0.2352342
0001b0 14 4f f5 3d 7f 91 45 be 48 4a 2f be 78 35 65 3b
       0.119779736 -0.19293784 -0.1711818 0.0034974497
0001c0 33 25 37 bd 5a aa 5c 3e 0d e2 53 3e 21 7c 32 bd
       -0.04471321 0.21549359 0.206917 -0.04357541
0001d0 7b 9d 23 be 5e eb 2d be 32 0e 74 be 74 1e 51 3e
       -0.15978043 -0.16984317 -0.2383354 0.20421773
0001e0 12 9b 87 bd ec 6f 0a be 82 d9 35 be af 1b 05 3e
       -0.06621374 -0.13519257 -0.17758754 0.12998842
0001f0 e8 e5 62 3d 81 1b fb 3d 3a c3 3d 3e da c4 4d 3e
       0.055395037 0.12261105 0.18531504 0.20094624
000200 cc 65 6a 3e ce 76 64 be a7 da 8c 3c 50 e8 80 3e
       0.22890395 -0.22310945 0.017194105 0.2517724
000210 5e 71 19 be ba 5c 4e 3e 88 c0 99 3d 57 3e d3 bd
       -0.14984652 0.2015256 0.075074255 -0.10314625
000220 a0 51 3d 3c fc 50 12 3c e8 9d ff bd 18 1d 68 3e
       0.011555105 0.008930441 -0.1248129 0.22667348
000230 a9 83 56 3d d8 c9 82 3e 40 41 23 bd 94 93 47 3e
       0.052371655 0.2554462 -0.03985715 0.1948989
000240 ff e2 12 3d 11 df cc 3d 6d e8 7c 3e a0 1a 3b bd
       0.03586101 0.10003484 0.24698038 -0.04567969
000250 d9 4a 0d 3e 25 39 4b 3e a2 7d 19 3e 19 f6 81 bd
       0.13798083 0.19846018 0.14989331 -0.063457675
000260 d5 6a 81 3e eb c1 99 bd c3 1f 09 3e f8 55 67 be
       0.2527682 -0.0750769 0.13391022 -0.22591388
000270 c5 27 65 3e 1f e8 2b 3e d4 89 66 3e 7d bd 2a 3e
       0.22378452 0.16787766 0.22513515 0.16673847
000280 a5 59 ef bb b2 9a 34 3e 08 14 a2 bc b8 f2 2d be
       -0.0073043876 0.17637137 -0.019784942 -0.16987121
000290 ce 78 a1 3d 4f 97 fa 3d 8f d8 7e bd 91 8a c6 bd
       0.0788437 0.12235891 -0.062218245 -0.09694398
0002a0 95 26 4f be c0 f0 43 be 52 84 51 3d 85 27 47 be
       -0.20229562 -0.19134808 0.05115158 -0.19448669
0002b0 2f 5a eb 3d 0a 41 a9 bd e7 a9 a4 3d 07 ee 31 3d
       0.114918105 -0.08264358 0.08040219 0.04343989
0002c0 81 e2 16 3e 0f f1 cd 3d 13 55 52 3d bf 22 29 be
       0.14734842 0.10055744 0.051350664 -0.16517161
0002d0 47 50 d7 bb 2b ec 83 3e 52 f9 9f bd dc 6b 84 3d
       -0.006570849 0.2576612 -0.07811226 0.06465885
0002e0 7d 5a 01 3d 6b 3f 85 3d b4 fc 99 bd e3 c3 d1 bd
       0.031580437 0.06506237 -0.075189024 -0.102424406
0002f0 c4 3f 44 3e aa fb 00 3e ef 24 ec bd 05 16 9e 3c
       0.1916495 0.12596002 -0.11530482 0.01929761
000300 46 71 9d 3d 2a 1c b9 3c 11 a6 57 bd 00 3b b1 3b
       0.07687621 0.022596437 -0.052648608 0.0054086447
000310 4e 42 59 be 2c 5e 27 3e 96 f1 51 3e 8a ae 49 3e
       -0.212167 0.16344517 0.20502314 0.19695488
000320 50 c3 58 3e ba 39 f4 bd da 48 29 3d 63 e7 eb 3c
       0.21168256 -0.11925073 0.041329242 0.028796857
000330 b4 7c 0d 3d a4 65 ca 3d 46 08 19 be 2e 72 81 3c
       0.034542754 0.09882668 -0.14944562 0.015801515
000340 de 92 cd 3c 94 41 94 3d dc 56 07 be e9 e7 37 3d
       0.025094446 0.072390705 -0.13216728 0.0448989
000350 8a 8e 3f 3e 56 e6 23 3d 44 6b 31 3e ae e5 54 3e
       0.18706718 0.040014587 0.17326075 0.20790741
000360 b0 16 3e 3e 5f 95 1f be c2 5b 48 bd af 7a 82 be
       0.18563342 -0.15584324 -0.048915632 -0.25484225
000370 34 54 e2 3d a1 44 f8 bc f0 c1 bc bb c9 c6 06 be
       0.11051217 -0.030306162 -0.005760424 -0.13161768
000380 b9 ea 03 3e dd f7 3a bd 4c 2b 18 3e ec 47 20 3e
       0.12882508 -0.045646537 0.14860266 0.15652436
000390 35 be 4a 3e e9 d8 e5 3c b1 be 0a bd fd 1f 36 be
       0.1979912 0.028057532 -0.033873264 -0.1778564
0003a0 99 4a 48 3e f0 cc 38 be 73 d7 b1 3d 8d fc 52 3d
       0.19559707 -0.18046927 0.08683672 0.051510382
0003b0 fa fe 10 3e eb 94 0a 3e c9 86 5f 3a 7d fd 6c be
       0.14159766 0.1353337 0.00085268595 -0.23143573

onnx::Conv_633 f4 [16]
000000 d3 89 99 bd b8 06 3e 3e 53 fc 55 be 20 3f 50 be
       -0.07496991 0.1855725 -0.20897035 -0.2033658
000010 4e 80 17 3e 13 06 02 3e d7 e2 e7 bd 70 45 08 3e
       0.14795038 0.1269763 -0.11322563 0.13307738
000020 43 82 66 be e7 46 09 be 40 32 23 be 31 8f 92 bd
       -0.22510628 -0.13405953 -0.15937138 -0.07156218
000030 8e 37 82 3e 5f 81 a6 3d eb 04 e2 3d 1c 33 59 3d
       0.2543301 0.08130144 0.11036094 0.053027257

onnx::Conv_635 f4 [16, 16, 1, 5]
000000 4a 85 3d bc 78 fc b9 bd 7d 61 0f 3c df aa b9 3d
       -0.011567423 -0.09081358 0.00875127 0.09065794
000010 e3 13 7f bd 5d 42 ce bd e4 9b 59 bc 9b 1d e1 bd
       -0.062274825 -0.100712515 -0.013281796 -0.10991975
000020 9c 94 7b 3d f3 7c 83 3d ab 14 9f bd 6b 19 e1 3c
       0.06142102 0.064203165 -0.07767614 0.02747794
000030 dc 58 b8 bd 7c 73 40 ba 60 a6 b5 3c da 87 ae 3c
       -0.090013236 -0.0007341427 0.02217406 0.021305013
000040 29 39 51 bb 42 06 c1 bc 6d bf 06 bb e0 cc c3 3d
       -0.003192494 -0.023562554 -0.0020560876 0.09560561
000050 af 7f d5 3d 35 97 f8 3c 67 f7 b4 bd e1 30 0c bd
       0.10424744 0.030345539 -0.08836251 -0.034226302
000060 f5 8f ba 3d cb 47 85 3c 22 95 9c 3d 61 d5 c7 bd
       0.09109489 0.016269585 0.07645632 -0.09757496
000070 9b a7 7c bd 97 3d 00 3d 8f 2b e2 3d 73 e3 1a 3d
       -0.06168328 0.031308737 0.110434644 0.03781457
000080 b5 b7 19 3d 11 bf 94 bc 40 9d cb 3d e7 3c 66 bd
       0.037528712 -0.018157514 0.099421024 -0.056210425
000090 08 22 a0 3d d2 eb 49 3d b6 8c d6 3d 59 dc 81 bd
       0.07818991 0.04929716 0.10476057 -0.06340856
0000a0 26 48 76 bd f3 73 af 3c 89 88 5d 3d e5 23 b3 bd
       -0.0601274 0.021417594 0.05408529 -0.08747081
0000b0 be 65 1d 3a c1 1b 8e bd 8a dd a0 3c 2b c8 84 bd
       0.00060042355 -0.069388874 0.019636888 -0.064834915
0000c0 12 f0 56 bd b6 08 d4 bd b4 d4 46 bc c6 6d e0 3c
       -0.052475043 -0.10353224 -0.012135673 0.027396094
0000d0 b5 83 36 bd 0c 64 84 3d 45 fd d8 bc 07 57 ba bd
       -0.0445592 0.06464395 -0.026487956 -0.090986304
0000e0 88 65 1b bd 9f d6 1d bd 67 be 4c 3d 01 53 3d bd
       -0.037938625 -0.038534757 0.04998627 -0.046221737
0000f0 59 fe d3 bd 58 e7 2b 3d d2 90 9d bd c6 69 a2 bc
       -0.10351247 0.041968673 -0.07693638 -0.019825827
000100 c9 8a e1 3b 3b 26 8d bb c2 f5 ec bc ca 09 a3 bc
       0.0068829996 -0.004307536 -0.02892578 -0.019902129
000110 4b 2d 82 bb de 15 d1 3d b0 80 de 3d 6f 65 a9 bd
       -0.0039726845 0.10209249 0.10864389 -0.082713
000120 52 5b d8 3c 24 95 8f 3c 84 ad dc bd d9 c4 dc 3d
       0.026410732 0.01752717 -0.10775283 0.10779733
000130 4c 39 64 bd 7b e7 c4 3c f1 7e 93 bd 38 43 89 bd
       -0.055718705 0.02403616 -0.072019465 -0.06702274
000140 be 82 bc 3c 99 d1 ac bd 3a 9c 0f 3d 32 01 9a bd
       0.023011561 -0.08438415 0.0350611 -0.07519759
000150 49 d2 32 bd fb 8e e3 3d c3 31 a8 bc 6e cb 54 3d
       -0.043657575 0.11111256 -0.02053154 0.05195182
000160 97 f4 0e bd d0 3a 55 bd a2 b5 ac 3d 56 a7 92 3c
       -0.034901228 -0.05205804 0.08433081 0.017902058
000170 9e de e8 3b 53 50 3d bd ec 0a f2 3b 7b fa c1 bd
       0.007106616 -0.04621918 0.007386556 -0.094716035
000180 f3 b3 a3 bd 07 9a 41 bd f9 94 8f 3d 22 56 05 3c
       -0.07993307 -0.047266033 0.07010836 0.008138211
000190 1d 7f 74 3d 9c e3 c1 3d 2b f1 5e bc 87 2c 20 3c
       0.059691537 0.09467241 -0.013607304 0.009776241
0001a0 2a dd 56 3d a4 94 b1 3d 46 f4 7f bd bf 97 a0 3c
       0.052457012 0.08670929 -0.062488817 0.019603608
0001b0 f4 93 df bc 21 b6 02 3d 06 b4 11 bd 87 de a3 bd
       -0.02729223 0.031911973 -0.035572074 -0.08001428
0001c0 a8 88 57 3c 35 c4 a5 3d f9 c6 90 bc f4 bd b8 bd
       0.01315514 0.08094064 -0.017673003 -0.09020606
0001d0 38 34 29 3b 42 c8 ef bc 06 09 fc 3c 24 2e 41 3c
       0.0025818478 -0.029270295 0.030766021 0.011790786
0001e0 15 1c c2 bc 15 6c d7 3d e5 33 b5 3c 2e 7f 3c bd
       -0.023695031 0.10518662 0.022119472 -0.046019726
0001f0 a7 7b b1 bd 0a a5 08 bc 20 1f 80 3d 78 e5 f8 3c
       -0.08666163 -0.00834013 0.062559366 0.030382857
000200 03 5b de bd 85 68 93 3d ac 9b 38 bd 6d 03 63 3d
       -0.10857203 0.0719767 -0.045070335 0.05542319
000210 de 83 88 bd b2 95 bc bc 4c b2 01 3d 48 8e 5f 3d
       -0.06665777 -0.023020599 0.031664178 0.05457905
000220 af 2c bd 3d 06 37 54 bd c8 60 b4 3c 47 90 fe 3c
       0.09237038 -0.051810287 0.022018805 0.031074656
000230 11 94 ab bd ba 01 aa 3d 4c c8 39 bd 4b 5a d7 bd
       -0.08377851 0.083011106 -0.045357034 -0.10515269
000240 79 63 91 bd 16 58 e2 bc c4 07 83 3d f8 ce ee 3c
       -0.07099051 -0.027629893 0.063979656 0.029151425
000250 d7 39 dc 3d ba c3 bb 3d df 0b 0e 3d e6 22 e7 3c
       0.107532196 0.09168191 0.03467929 0.028214883
000260 6a 81 01 bd a9 00 8d bd d8 ef 18 bd 25 64 8b bd
       -0.03161756 -0.068848915 -0.037338108 -0.068062104
000270 66 fe d7 3d f7 7b 83 bd 78 da a7 3d 2f 8c dc bd
       0.105465695 -0.06420129 0.081959665 -0.107689254
000280 7a 94 db bd 18 fc 3d bd aa 4d ef 3c ec 02 7e bd
       -0.10721679 -0.046382993 0.029211838 -0.062014505
000290 a3 22 ae bd cb c8 9c bd e9 2c 43 bd 48 33 ae bd
       -0.085027 -0.07655486 -0.04765025 -0.08505875
0002a0 00 69 84 bd f8 5c 09 bd 6a 43 95 bd b0 94 21 3d
       -0.0646534 -0.033535928 -0.07288249 0.03944844
0002b0 43 35 c8 bd 9e d6 7c bd 8c c4 bb bd fa df 10 bd
       -0.09775784 -0.061728112 -0.09168348 -0.03536985
0002c0 de 5d 2f 3d ab 2b 43 3d f7 b1 03 bd ee 8c 54 bd
       0.042814128 0.047649067 -0.032152142 -0.051892214
0002d0 c8 ab af 3d de b8 07 3d 50 37 7a 3d 9f 3c 9e 3d
       0.085776865 0.033135287 0.061087906 0.07726406
0002e0 9b 82 55 bd 10 3e df 3c da 30 da 3d bd cb e2 bd
       -0.05212651 0.027251273 0.10653849 -0.11074016
0002f0 61 ac 22 bc 78 81 a9 3d 42 85 21 bd ba bb 9b 3d
       -0.009928794 0.08276647 -0.039433725 0.076041654
000300 4b f7 e2 bd c1 5a 92 bd ba a6 ce 3c 95 84 d0 bd
       -0.11082324 -0.07146216 0.025225986 -0.10181538
000310 18 f8 cf bd 9c 30 95 bd 7a 5f 2d bd d8 55 0c 3d
       -0.10154742 -0.07284662 -0.04232738 0.034261554
000320 23 4a e4 3c 2e f4 d0 bc b5 18 b1 3d 4c f8 15 bd
       0.027867382 -0.025507059 0.086472906 -0.036613747
000330 43 ef ac 3d 29 42 99 3c ab 1c 3d 3d a0 a6 43 3d
       0.08444073 0.018708305 0.046169918 0.047766328
000340 4d ac e1 bc ff ba ca bd ea c8 3a 3d 6a b2 ca 3d
       -0.02754798 -0.09898948 0.045601763 0.09897311
000350 fd 24 92 3d 00 e2 c9 bd d7 fb be bd 13 10 cf bb
       0.07135961 -0.09857559 -0.093253784 -0.006319055
000360 e7 c7 31 3d 66 a8 2f 3d 8b 2d d2 bd 4c c6 c1 3d
       0.043403532 0.042885207 -0.10262593 0.0946165
000370 ac a3 3c 3b 71 55 0f bd b0 88 2f 3a eb fd df 3c
       0.002878408 -0.034993593 0.0006696088 0.027342757
000380 d7 ed 0d 3d 89 70 56 3b 12 a2 bd bd 67 5f da 3d
       0.03465065 0.0032720885 -0.09259428 0.10662728
000390 05 a9 6c 3d a1 ef 44 3d 1a e2 82 bd be bc 8a bc
       0.057778377 0.04808009 -0.06390782 -0.016935702
0003a0 75 08 4d bd 47 b9 6b 3d 3b 9b 5d 3d d4 3d d1 3c
       -0.050056893 0.05754974 0.054103117 0.025542177
0003b0 ce eb 2e 3d a1 04 ba bd 1d aa 56 3d bc 50 97 bd
       0.04270535 -0.09082914 0.052408326 -0.07388446
0003c0 c3 76 93 bc 21 dd a1 3d e2 f2 3e 3c 2f 21 22 bd
       -0.018000966 0.07903505 0.011654587 -0.039582428
0003d0 5a 90 4b 3d 14 54 a3 3c a1 8e 15 3d 76 fc 86 3d
       0.04969821 0.019937553 0.036512975 0.06591122
0003e0 ef a7 d3 bd 45 4a a2 3b fa 18 3c bd 0c 24 69 bc
       -0.10334765 0.0049527013 -0.045922257 -0.014229786
0003f0 6d 25 36 3d 19 c5 ba bd dc e3 95 bd 20 0d b2 bc
       0.044469286 -0.09119625 -0.07318851 -0.021734774

onnx::Conv_636 f4 [16]
000000 2b 49 0f 3b be 31 38 bb 1c ff 9e bc 5e 5d 78 bd
       0.002186368 -0.002810582 -0.019408755 -0.060635917
000010 41 51 aa bd bb 31 d9 3c b5 d3 9e 3d dd 90 7b bd
       -0.08316279 0.026512971 0.07755224 -0.06141745
000020 0a f3 9d 3d 69 bf a0 3c f8 b8 8b bc 18 5d ed 3c
       0.07712372 0.019622521 -0.017055973 0.028975055
000030 5d 1b 7f 3d c9 4a 06 bd 55 e0 7d bc 42 e7 0f 3b
       0.062281955 -0.032786164 -0.015495379 0.0021957909

onnx::Conv_638 f4 [16, 8, 1, 1]
000000 de ed 3d 3e d6 34 3d bd 01 a5 60 3e 3a b8 53 be
       0.1854777 -0.046192966 0.21937944 -0.20675746
000010 d5 73 af be b9 30 b7 3d 17 36 4a be ce cb 7b 3e
       -0.3426806 0.0894484 -0.19747196 0.24589464
000020 8d cc ab 3e 11 f3 d2 3c 1a c3 a1 bd c6 a7 ae bd
       0.33554497 0.025750669 -0.07898541 -0.08528094
000030 f1 4c 11 3e fa 6b 1d be db e4 a6 bd f0 e9 81 be
       0.14189507 -0.15373221 -0.081491195 -0.25373793
000040 e0 99 3a 3e 85 54 d9 3d 36 8e 41 be 85 d2 99 be
       0.18222761 0.10611824 -0.18901905 -0.30043426
000050 6f fd 98 bd a9 c6 83 3d cc 4e b3 bd 1b 65 7f bd
       -0.074702136 0.06434376 -0.08755264 -0.06235228
000060 ce b5 8a be b9 7a f1 bd 1c 43 97 3e 56 b8 49 3e
       -0.2709183 -0.117909856 0.29543388 0.19699225
000070 ae cf 53 be c0 0b 99 3e d9 9b ed bd 33 7b b0 be
       -0.20684692 0.29891777 -0.11601991 -0.34468994
000080 8e d5 28 bd ee 22 ea bd e3 54 dd bd 34 2e 94 3e
       -0.041219287 -0.114324436 -0.108072065 0.289415
000090 14 5f 48 3e 9c 4b 7d 3e e7 75 7a be 73 dc 89 3e
       0.1956752 0.24735874 -0.24459039 0.26926002
0000a0 d2 3e 59 3d 7b f4 95 be 35 57 04 be 2d 3c 71 be
       0.053038426 -0.29288086 -0.12923892 -0.23558111
0000b0 bf 51 28 be d7 6e 33 bc 86 12 21 3e 9f 5e 84 bd
       -0.16437434 -0.010951719 0.15729722 -0.0646336
0000c0 2f ec a3 3e a0 05 8c bc 33 86 1e 3d 18 55 f0 3d
       0.3201613 -0.017092526 0.0387022 0.1173498
0000d0 39 63 72 bd 53 a1 ea 3c f8 58 a8 3c 35 4c 88 bd
       -0.059176657 0.028641379 0.020550236 -0.0665516
0000e0 6b 6d 82 3e 4a 12 7d be 1f a7 bd 3a 39 f5 8f be
       0.25474104 -0.24714008 0.0014469362 -0.28116778
0000f0 91 41 d1 3d 20 b6 9f 3b 0b 60 3f be 81 ea 75 be
       0.10217584 0.004874006 -0.18688981 -0.24015237
000100 f8 98 50 3e 9c 50 91 be d2 81 98 bd 1b f0 9f 39
       0.20370853 -0.28381813 -0.07446636 0.00030505736
000110 b0 bd 5e be 18 cc b9 3d a9 6c 7c bd b5 b0 83 be
       -0.21752048 0.09072131 -0.061627064 -0.25720754
000120 e9 c5 5a 3e 89 0f 11 3e e4 a8 13 3e 73 52 65 3e
       0.21364559 0.14166082 0.14419895 0.22394733
000130 12 97 81 bc c6 f1 68 3e 1a c7 34 3e 91 45 48 3e
       -0.015819106 0.22748479 0.17654076 0.19557787
000140 68 b0 32 3e f8 ed 39 be 87 9b a6 be c2 19 ab be
       0.17450106 -0.18157184 -0.32540533 -0.3341809
000150 54 65 9a be 6b 98 88 3d 20 d7 d3 bd 76 de 93 be
       -0.30155432 0.066696964 -0.10343766 -0.28880662
000160 3b 6c e9 3b 0e 20 58 3e 7a 61 71 be ad 66 83 3e
       0.007123498 0.21105978 -0.2357234 0.25664273
000170 1a 1d 84 3b 67 9f 1e 3e 29 ee 43 be 5f 9d 8b be
       0.0040317895 0.15490495 -0.1913382 -0.27268502
000180 0b 35 e1 bc 32 0f 67 3e e3 35 45 3d 1a 00 64 3e
       -0.027491113 0.2256439 0.048147094 0.22265664
000190 d8 30 4d be 50 da 62 be c7 f8 f2 bd d1 8a 7b 3e
       -0.20038164 -0.22153592 -0.11863857 0.24564673
0001a0 5a 8c 8c bd 82 22 a2 3e ab bf a6 bd 09 f2 4d 3e
       -0.068627074 0.31666952 -0.081420265 0.2011186
0001b0 1a 16 03 3d 17 e2 80 be e3 fd a9 be ff a9 94 3e
       0.0320035 -0.25172493 -0.33201513 0.29035947
0001c0 f1 59 9e 3d d3 6c 9f be 07 b3 ad 3d 17 00 f0 bd
       0.07731999 -0.31137714 0.084814124 -0.11718767
0001d0 1a e0 2a 3d e1 23 a5 be 75 e5 58 bc b4 7e e6 bd
       0.041717626 -0.32253936 -0.013238301 -0.112546355
0001e0 fb 49 35 be 1e 44 8c be 4c ef b2 bc c4 94 61 bd
       -0.17704003 -0.2739572 -0.021842621 -0.055073515
0001f0 92 a5 b4 3d 27 11 9f 3e b3 49 4f 3e be 87 ba 3d
       0.088206425 0.31067774 0.20242958 0.09107922

onnx::Conv_639 f4 [16]
000000 7c 47 7c 3e 70 6c 66 3e 0e 92 16 be 95 0d b0 3e
       0.24636644 0.22502303 -0.14704153 0.34385362
000010 ae 07 3d be 3b 03 a3 be 7e 1a 3c 3e c5 1d a5 be
       -0.18459961 -0.31838402 0.18369481 -0.32249275
000020 7b a3 a5 bd 49 4f 5d 3e d2 1c 4f be 8b 53 0a be
       -0.08087822 0.21612276 -0.20225838 -0.13508432
000030 bd 55 af 3d 87 3d 87 3e e0 5f 28 3e 96 c2 61 3e
       0.08561275 0.2641413 0.16442823 0.22046885

onnx::Conv_641 f4 [16, 1, 3, 3]
000000 35 6b 99 be 53 6a 89 bd 78 b2 7b 3d 8c 92 1f 3e
       -0.29964605 -0.06709733 0.061449498 0.15583247
000010 8e 25 75 be 58 b6 a7 3e 91 78 a0 be 01 d3 70 be
       -0.23940107 0.32756305 -0.31341985 -0.23517992
000020 d3 8c 9b be c9 c3 21 3e 54 2e 9f be bb a7 d3 bd
       -0.30380878 0.15797342 -0.31090033 -0.103347264
000030 8e 4e 51 be dc f7 9b be c2 03 3c bd f8 a3 bd bd
       -0.20440122 -0.3046254 -0.04590202 -0.0925979
000040 4f 31 2e be fc 91 57 be 20 eb 9d be 85 eb 87 be
       -0.17010997 -0.21051782 -0.3084345 -0.26546875
000050 f6 dd 92 bd e2 f4 67 be 64 42 7a bd ab c2 08 3e
       -0.07171242 -0.22652009 -0.06109847 0.1335551
000060 3a 99 c6 3d 3f 64 07 3d f6 e4 80 be a2 c3 0b 3e
       0.096971944 0.033054586 -0.25174683 0.13648847
000070 1c a7 8f bd 5f 48 2d 3e 57 3d 59 be 70 ee 3c be
       -0.070142955 0.16922139 -0.21214806 -0.18450332
000080 ce c2 a5 3e 02 77 3d 3d 8f b3 1e be 95 14 65 be
       0.32375187 0.046256073 -0.15498184 -0.22371133
000090 1d bc 7c be ad 75 55 be 43 d3 5a 3e e2 a3 92 be
       -0.24681135 -0.20845671 0.21369652 -0.28640658
0000a0 be 0a 49 3c e5 ce 4c 3e fb ad 85 3e f9 9a 18 3c
       0.012270628 0.20000799 0.261093 0.009314292
0000b0 45 c3 a4 3d 28 3b 74 3e 2c 28 a6 3e 6f d9 5e be
       0.08045057 0.23850691 0.32452524 -0.21762632
0000c0 fc 64 93 3e af 1d 9d 3e 11 50 71 be 95 25 e5 bd
       0.28787982 0.3068671 -0.23565699 -0.11188809
0000d0 9e f2 8b be 41 95 7a be 37 d4 05 3e eb eb 5a be
       -0.2733354 -0.24470998 0.13069235 -0.21379058
0000e0 df e6 d6 bd f4 a4 a9 be 90 e5 91 3e 42 a7 2e 3e
       -0.10493254 -0.33133662 0.28495455 0.17055991
0000f0 30 29 a6 be 61 3b a0 3d d7 b8 a7 3e 12 8a 9e 3d
       -0.324533 0.07823826 0.3275821 0.077411786
000100 2d c8 a1 be ac 40 38 be 54 39 05 3e 09 06 9c be
       -0.31598035 -0.1799342 0.1301015 -0.30473354
000110 8e 7a 92 be 71 46 a0 3e 1a 78 36 bc 2c a7 79 3e
       -0.28609127 0.31303743 -0.011137033 0.24380177
000120 26 f9 10 bb ad 70 cd 3d 4b 16 3b be a1 c1 52 3e
       -0.002212116 0.10031257 -0.18270223 0.20581676
000130 b2 b2 3d be ec 89 1d 3e da b5 6e be 6f c2 84 bd
       -0.18525198 0.15384644 -0.23311558 -0.06482398
000140 2b 55 c2 3d 9a f0 98 3e 56 85 91 3e f9 44 62 3e
       0.09488901 0.29871064 0.2842204 0.22096623
000150 b6 5b b0 3d dd 98 ee 3d 1b eb 08 be 5b 42 a2 3e
       0.086112425 0.1165025 -0.13370936 0.3169125
000160 f7 69 90 bd 60 e8 82 bd ee 51 60 3e c6 45 af bb
       -0.07051461 -0.06391978 0.21906254 -0.005348894
000170 57 68 7f 3c 4e 2d 39 bd b3 9b 2a be 3d f7 a3 3e
       0.015588841 -0.04520922 -0.16660957 0.32024565
000180 ef 7f 59 3d d6 30 6b be 69 8a f8 3d 1f 9c 04 be
       0.053100523 -0.22967848 0.12135775 -0.1295018
000190 f9 2b 8e be be 77 ca 3a 93 7e cd bd 66 62 e1 3d
       -0.27767923 0.0015447063 -0.10033908 0.11005096
0001a0 97 00 5d 3e fb d5 63 3e 83 43 8f be d2 6b 2c bd
       0.21582256 0.22249596 -0.27981195 -0.042095013
0001b0 c0 b7 8c 3e 63 39 b9 bd 2a 9b 47 be e6 b1 12 3e
       0.2748394 -0.09044149 -0.19492784 0.14325675
0001c0 fd 62 15 3e f7 52 95 3e 41 5f 81 3c 48 9a 3d be
       0.14588542 0.2916486 0.01579249 -0.18515885
0001d0 8f 03 5e 3e 3e 84 2a 3d 7f 2f 85 bd 9d 06 4d be
       0.21681045 0.041630022 -0.065032 -0.20022054
0001e0 77 4c 14 3e 56 f9 39 be f4 8f 1d be 90 fd 19 3e
       0.14482294 -0.1816152 -0.15386945 0.15038133
0001f0 de 47 ea 3d c0 2c 81 be bb de a9 be 1b d7 10 3d
       0.11439489 -0.25229454 -0.33177742 0.03536139
000200 b2 ac 2c bd 02 8a ac bd d9 ca 8e 3e a2 9b 9d 3c
       -0.042156883 -0.084247604 0.27889135 0.01923925
000210 e1 b1 62 3d 8d bb 25 3e 44 c0 99 be 9c 90 7e be
       0.05534542 0.16184826 -0.300295 -0.24859852
000220 53 07 02 be 13 03 90 3e 33 84 6a 3e cb 94 11 3e
       -0.12698106 0.28127345 0.22901992 0.14216916
000230 0d 6b 3c 3e 35 d2 2c 3e 46 81 30 bd 82 e7 5e 3e
       0.18400212 0.16877063 -0.043092035 0.21768

onnx::Conv_642 f4 [16]
000000 f9 f6 97 be 49 99 8c 3e 2f 00 57 3d 08 b4 85 be
       -0.29680613 0.27460697 0.05249041 -0.26113915
000010 57 7c 0e be 0c c6 3f be b3 20 aa 3d 9d 3b 55 3e
       -0.1391462 -0.18727893 0.08307018 0.20823522
000020 50 a2 c1 bd 3b c8 f4 bd d8 1a 87 be 0d 33 a8 3e
       -0.09454787 -0.119522534 -0.26387668 0.3285145
000030 77 1e 95 3e 6d eb 8d 3e 0c cc 1d be 88 a8 97 3e
       0.29124805 0.27718678 -0.15409869 0.29620767

onnx::Conv_644 f4 [8, 16, 1, 1]
000000 cf e3 13 3b 96 5b 66 be 40 a1 2b 3e 3e 5d 4a bc
       0.0022566204 -0.22495875 0.1676073 -0.012351332
000010 04 b9 6c be a6 93 b1 bd 18 be 0c 3e dd f2 46 3e
       -0.23117453 -0.0867074 0.1374439 0.19428582
000020 a6 8c 97 3d 1b 64 02 be c4 f3 0b be 3b 16 53 bb
       0.073998734 -0.127335 -0.13667208 -0.0032209295
000030 ae be 7a 3d 08 c7 19 3e 34 bf 48 3e d6 e0 f8 bd
       0.061217003 0.1501733 0.19604188 -0.12152259
000040 37 1d 77 3d 3e 0f 60 3d c0 cf f4 bd 90 10 7a 3e
       0.060330596 0.054702036 -0.11953688 0.2442038
000050 69 1b 65 3e e4 ef dc bd 44 58 38 bd 2d f5 7c bb
       0.22373737 -0.10787943 -0.04500605 -0.0038598285
000060 b8 44 55 be d7 d0 3e 3e 79 cb 71 3e dd 94 69 be
       -0.20826995 0.18634354 0.23612775 -0.22810693
000070 c6 c2 6c be ca be e1 bd 91 4a 3a 3e e5 3e 83 bd
       -0.23121175 -0.11022718 0.18192507 -0.064084806
000080 6d 49 82 3d 2b 90 34 3e 83 3f 0e 3e 15 54 64 bd
       0.06361661 0.1763312 0.13891415 -0.05574425
000090 65 37 58 3e 0d 7b d9 3d 8c d4 68 3e 9c 4a 17 be
       0.21114881 0.10619173 0.2273733 -0.14774555
0000a0 16 32 e0 3d 33 bf 63 3e 5b 23 57 be fa 70 af bd
       0.10947053 0.22240905 -0.21009581 -0.085664704
0000b0 89 08 35 be c8 8b 29 bc c3 ac 6f 3e 4b 32 52 3e
       -0.17679037 -0.010348268 0.23405747 0.20526998
0000c0 ad ca 01 3e 4e 29 97 bd 89 bf 39 be b7 74 33 3e
       0.12674971 -0.07380925 -0.18139471 0.17524992
0000d0 f2 7a 55 be 85 5c 82 3d f9 d0 1b 3e 42 a4 48 be
       -0.20847681 0.06365303 0.15216435 -0.1959391
0000e0 cf 9e 5f 3e 47 e8 02 3e 08 03 00 be 08 a3 3b 3e
       0.21837924 0.1278392 -0.12501156 0.1832391
0000f0 60 5f f4 bd af 52 59 3e b5 7a 1a 3e 03 ac ba 3d
       -0.11932254 0.21222948 0.15085872 0.0911484
000100 18 7e 6d be f1 eb 27 3e 79 62 2d be 22 c5 a5 3d
       -0.23192632 0.16398598 -0.16932096 0.08094241
000110 e0 28 2a be d0 03 5a 3d db 76 ad bd 0e 4d ed 3d
       -0.16617155 0.053226292 -0.084699355 0.11586963
000120 51 65 a8 3d 3d a0 52 be 2d a7 1a bc 2c e9 42 3e
       0.082224496 -0.20568939 -0.009439272 0.1903426
000130 19 bf 4a 3e 0b ca a1 3c 6a 5c ca bd af 5b 08 3e
       0.1979946 0.019749662 -0.09880908 0.13316225
000140 a3 f7 07 3e e9 0e 9b 3d 0a 57 29 3e e6 8a e2 3d
       0.1327806 0.07571203 0.16537109 0.11061649
000150 b5 8b b3 bc e9 94 03 3e 2e e0 47 be 1c 23 66 be
       -0.021917203 0.12849773 -0.19519112 -0.2247433
000160 3b 07 2e be 87 b7 46 3d 19 cf 82 3d 73 62 21 3d
       -0.16994946 0.04851487 0.06387157 0.03940053
000170 70 b4 4e be 52 27 c9 bd e4 39 38 3d 77 80 ac bc
       -0.20186019 -0.09821953 0.044977084 -0.02105735
000180 2c f5 7e 3c bb 18 1b 3e 27 9e 5e 3d 76 04 75 be
       0.015561383 0.15146153 0.054350045 -0.23927483
000190 62 a9 e1 bd 38 71 da bc 72 9f 36 3e 8d a9 75 be
       -0.11018635 -0.026665315 0.17834261 -0.2399046
0001a0 78 f5 e8 3d 5d d9 4c be b0 df 42 3d 1e 5d 48 be
       0.113749444 -0.20004793 0.047576606 -0.19566771
0001b0 aa 89 97 bd a0 f6 92 3d 4d 98 5d 3e c8 7f 2a bd
       -0.07399304 0.07175946 0.2164013 -0.041625768
0001c0 8a 73 a3 bc 6b e9 22 be 97 54 5e 3e 19 d1 38 3e
       -0.019952554 -0.15909354 0.21711956 0.18048514
0001d0 02 33 8c bd a7 42 ac bc f0 79 29 be 76 15 26 be
       -0.068456665 -0.021027876 -0.16550422 -0.16219124
0001e0 aa 15 05 3e 97 08 2f bd 4d 50 65 3d a4 04 31 be
       0.12996545 -0.0427328 0.055984784 -0.17286927
0001f0 15 f3 82 bd cd 03 7d 3d 45 83 c1 bd f3 bc 01 3e
       -0.063940205 0.061771203 -0.09448866 0.12669735

onnx::Conv_645 f4 [8]
000000 6a 58 0c 3d 02 b3 73 be 37 22 5d bc 2b 80 41 be
       0.034264006 -0.23798755 -0.013496927 -0.18896548
000010 48 85 1e be 7c b1 ce bc a6 6b 80 3c 75 5e 53 be
       -0.1548053 -0.025231116 0.01567633 -0.20641501

onnx::Conv_647 f4 [16, 16, 1, 1]
000000 21 41 02 3e 31 ab 45 3e 98 36 75 bd f0 81 2a be
       0.12720157 0.19303586 -0.059866518 -0.1665113
000010 4d 76 6b be 8b df 28 3e c3 ff f7 3d bd 53 28 be
       -0.22994347 0.16491525 0.121093296 -0.16438194
000020 58 68 11 3e d3 b9 5f be df eb 20 be fe a0 23 3e
       0.1419996 -0.2184823 -0.15714978 0.15979382
000030 72 37 ec 3b a9 ee 7d be 2b 15 7c 3e 24 66 36 bd
       0.007208758 -0.24798073 0.2461745 -0.044531003
000040 33 ed 20 3e fb bb 64 be 32 7d 7a be de ef e0 bd
       0.15715484 -0.22337334 -0.2446182 -0.10983251
000050 d0 4b dc bd a5 7b 9b bd 84 e7 86 3c 04 eb 16 be
       -0.107566476 -0.07591943 0.016467817 -0.14738089
000060 3a 2d d6 3c 04 1e 3e 3e ee 0d 8d bd 28 91 19 be
       0.026144613 0.18566138 -0.068874225 -0.14996779
000070 e8 d7 90 bd 29 19 26 bc 03 d9 6b 3d a0 08 11 3e
       -0.07072431 -0.010137835 0.057580005 0.14163446
000080 12 59 56 be 9b 5d f7 bd d1 e3 0f bd 3b 2c 7c be
       -0.20932415 -0.12078401 -0.035129372 -0.24626248
000090 45 6d 75 3e a9 c4 28 bd d2 51 8b ba ca 17 d4 3c
       0.23967464 -0.041203175 -0.0010629243 0.02589025
0000a0 eb ae a0 3c af 58 0a 3e f2 99 ec bb 49 ce 34 be
       0.019614657 0.13510393 -0.0072205 -0.17656817
0000b0 96 e5 61 3c f4 9a ce bd ce f3 c7 3c 23 32 72 3e
       0.013787648 -0.10088149 0.024408247 0.23651938
0000c0 a4 26 23 be 43 6d 7d 3e 67 5e c5 bd 22 61 0c bd
       -0.15932709 0.24748711 -0.096371464 -0.03427232
0000d0 00 f7 67 be dc e6 5c 3e 4d e0 0d be c0 42 42 3b
       -0.22652817 0.21572441 -0.13855095 0.0029641837
0000e0 95 47 65 bd 01 c0 63 3e 19 95 70 3e 77 00 5f bd
       -0.05597647 0.22241212 0.23494376 -0.054443803
0000f0 12 77 00 3e 53 c2 a0 3d a1 e5 70 3d 52 7c 19 3e
       0.12545422 0.078495644 0.05881274 0.1498883
000100 89 79 6a be e2 72 55 3e f6 31 81 bc 91 0d 40 3d
       -0.22897924 0.20844606 -0.015770894 0.046887938
000110 f9 a6 58 3c c1 e3 a6 bd f8 98 00 3e b4 ef 68 be
       0.013223403 -0.08148909 0.12558353 -0.2274769
000120 c6 c9 49 3e 63 48 52 be f2 c2 b0 3d 4b af 76 3e
       0.19705877 -0.20535426 0.08630933 0.24090306
000130 9a d0 11 3e 99 1a 40 be cb dd 7d be 6b 43 0e be
       0.14239731 -0.18760146 -0.24791639 -0.13892905
000140 23 1a 46 be 1b 7f 1a 3e ec 63 61 be 60 83 78 3e
       -0.19345908 0.1508755 -0.22010773 0.24268866
000150 e9 11 34 3e ef 24 71 3e d7 59 2d bd f4 17 e7 3d
       0.17584957 0.23549245 -0.042322006 0.112838656
000160 48 19 1f 3e 91 e0 33 be bd 78 32 bd 92 00 a4 bd
       0.15536988 -0.17566134 -0.043572176 -0.08007921
000170 9b fb 09 bd 82 95 c9 3d 5a 0f 8b 3d 59 d9 77 3e
       -0.033687215 0.098429695 0.067900375 0.24204005
000180 e1 04 3f 3e 7d eb 4a bc e0 35 36 be aa e1 b0 bd
       0.18654205 -0.012385246 -0.17793989 -0.08636792
000190 aa 34 c8 bd df ce 26 be 00 ae ff bd bd d7 8f 3d
       -0.0977567 -0.16289853 -0.1248436 0.07023571
0001a0 65 bb 38 be df c7 6f 3e f3 7f 0e be 64 8c b5 bc
       -0.18040235 0.23416089 -0.13915996 -0.02216167
0001b0 94 fa 9f bd df 4b 0f be 5c 41 62 3e c7 1c 02 3e
       -0.07811466 -0.13993786 0.22095245 0.1270629
0001c0 19 1a 63 be c6 d6 5c be 2f b2 70 3e 0f 31 39 3e
       -0.22177924 -0.21566305 0.23505472 0.1808512
0001d0 05 ab 4c be 9b b9 44 be 68 4c 86 3d d2 80 fa 3d
       -0.19987114 -0.19211428 0.06557542 0.12231602
0001e0 ba f6 47 be 44 5d 36 3c bd 72 4d 3d 4d 6f b4 3d
       -0.19527712 0.011130635 0.05015825 0.088102914
0001f0 6b ff 2d 3e 2b 25 de 3d f5 fc 03 3d c7 14 d1 bd
       0.16991965 0.10846933 0.03222366 -0.10209041
000200 e1 ed e4 bd b6 a7 b0 3c 1b af 7c be f7 ef 15 3e
       -0.11178184 0.021564346 -0.24676172 0.1464232
000210 8c c0 17 be 98 a8 43 be 43 3c b9 bc 6f 1e 45 3d
       -0.14819545 -0.19107282 -0.022611743 0.048124727
000220 0b b2 7d 3e 89 c6 c0 bd 38 fc 9d bd 73 1b 45 3e
       0.24774949 -0.094128676 -0.077141225 0.19248752
000230 43 4c d2 bd 3f 66 77 bd 88 f4 62 3e cd 6b 9c b9
       -0.10268452 -0.060400244 0.22163594 -0.00029834957
000240 65 e1 76 3e b8 cc 5c bc d6 fb 0c 3e 33 06 95 bd
       0.24109419 -0.013476543 0.13767943 -0.07276573
000250 f0 bd 9d bd 1d 3f 9c 3d 67 b7 96 3d 00 1b 3e be
       -0.07702243 0.076292254 0.073592 -0.18564987
000260 53 99 27 3e 3f cf ea 3d eb b3 27 3e 74 36 68 3e
       0.16367082 0.1146531 0.16377227 0.22677022
000270 a2 81 3d 3c b5 fd b2 bd 53 9e ba 3c d8 77 d0 3d
       0.011566551 -0.08739797 0.022780573 0.101791084
000280 bd 70 65 bd cf 38 08 3e 09 f9 be bd b2 dc bd 3d
       -0.05601572 0.13302921 -0.093248434 0.0927061
000290 f2 a6 e1 bd a7 96 08 3e a3 08 2d 3e 2f 6c 46 3d
       -0.110181704 0.1333872 0.16897826 0.048443016
0002a0 f0 ed 5a bd a7 5d 34 3e 30 4e 74 be 7c a7 73 3e
       -0.05344957 0.1761385 -0.23857951 0.23794359
0002b0 80 f4 fe bd c3 ea 89 bc d4 95 04 3b b6 b0 e0 ba
       -0.124489784 -0.016835576 0.0020230906 -0.0017142508
0002c0 81 03 c0 3b 66 91 56 3e 8c fc 7f bc 4c c1 73 be
       0.0058597927 0.20953903 -0.015624177 -0.23804206
0002d0 52 6f 2a be 6a 98 0c 3e 91 5b 7c be cf 7a 6a be
       -0.16644028 0.13730016 -0.24644305 -0.2289841
0002e0 4c ad 4f 3e 50 b4 2a bd f9 6f 75 be 33 46 3b 3d
       0.20280951 -0.041675866 -0.23968495 0.045721244
0002f0 06 0a 54 3e 5d 20 4d bc d6 e6 79 3d f5 08 04 be
       0.20706949 -0.012519923 0.061011158 -0.12894042
000300 d7 ec 56 be dc 74 35 be da 46 ed bd 3b 5b ae bd
       -0.20988785 -0.1772036 -0.115857795 -0.085134946
000310 5b 23 76 3e f3 d0 20 be 58 6a b7 3d c5 0e e4 3d
       0.24036925 -0.15704708 0.0895583 0.111356296
000320 d8 13 11 3d 08 fa 3d be 9a 3b 50 be f8 c4 2a be
       0.035419315 -0.1855241 -0.20335236 -0.166767
000330 66 61 af bd 12 91 19 be 5a e7 54 bc c8 b3 13 bd
       -0.08563499 -0.14996746 -0.012994612 -0.036060125
000340 9f e0 7b be 95 de 02 bd 5f cc c5 bc 65 15 e3 bd
       -0.24597405 -0.031950552 -0.024145303 -0.11088065
000350 60 21 00 3e f4 aa e8 3c 0f ae ea bd 7d ea 5d be
       0.12512732 0.02840183 -0.1145898 -0.21671481
000360 26 cd bd 3d 31 90 7d be 71 f3 fc 3d 95 7d 3f 3e
       0.092676446 -0.24762036 0.1235112 0.1870025
000370 dc b9 fe bc db e0 d1 bc fa 00 17 3e f6 6a 17 be
       -0.031094484 -0.025619915 0.14746466 -0.14786896
000380 7b 04 f6 bd af 3d 0e be 04 d8 e8 bc e6 f6 6c be
       -0.12012573 -0.13890718 -0.028423317 -0.2314106
000390 26 ca 30 3c 3c 5f d0 3c 51 c5 09 be f5 ab c0 3d
       0.010790383 0.025436036 -0.13454176 0.09407798
0003a0 ad 5c 4c bd 1b 6f d2 bd 2c 97 db bd 50 d9 5b bd
       -0.04989307 -0.10275098 -0.10722193 -0.053674042
0003b0 4f 58 c6 3d 4f 5b 94 bd 9d bf 5d be 48 65 29 3c
       0.09684812 -0.07243978 -0.21655126 0.010339089
0003c0 8a c1 0c 3d f6 70 74 3e 18 95 e8 3d cb dc c5 bd
       0.03436426 0.23871216 0.113565624 -0.096612535
0003d0 1d 79 3f 3e 95 9e 51 3e e8 eb 53 be 73 c3 d1 bd
       0.18698545 0.2047065 -0.2069546 -0.10242357
0003e0 8b 8b d3 3c 3e 91 6d be 80 05 12 3d d7 9d 46 3d
       0.025823375 -0.23199937 0.035649776 0.04849037
0003f0 37 b7 03 be 1d 87 53 3e 57 f5 93 bd ea 14 7b be
       -0.1286286 0.2065701 -0.07224529 -0.24519697

onnx::Conv_648 f4 [16]
000000 c9 86 a6 ba ca cf 24 be 9c ac 29 be 7f 76 6a 3e
       -0.0012704964 -0.1609489 -0.16569752 0.22896765
000010 0c 9f 36 3d dd 88 10 be a4 d1 5c be 5d 2b 21 3e
       0.044585273 -0.14114709 -0.21564347 0.15739198
000020 c1 24 03 3e 1e de 00 bd 2a 16 5a 3e 7c 2b 2c 3e
       0.12806989 -0.031461827 0.21297517 0.16813463
000030 32 57 7f be 77 6c 16 bd d9 28 84 3d 30 84 73 bc
       -0.24935606 -0.036724534 0.064531036 -0.014863059

onnx::Conv_650 f4 [16, 1, 3, 1]
000000 07 17 a4 3e 6e bc c6 bc 2f fa 07 3f b3 cb ea 3e
       0.32048818 -0.024259772 0.53116125 0.45858535
000010 12 f2 bf 3e 60 c5 0b 3f 56 c6 0e bf de 8a e8 3e
       0.37489372 0.54598045 -0.55771387 0.45418447
000020 a6 08 0c 3f 02 a6 87 3e 0d 47 3c be 95 24 ec 3e
       0.54700696 0.2649384 -0.18386479 0.4612166
000030 76 c4 03 bd 05 4f f3 3e 4c 9d f0 3d 1f a0 0a 3e
       -0.03216978 0.47521225 0.11748752 0.13537644
000040 03 b6 78 3d a7 6a 2f be 40 a8 12 3e e9 1e 8d 3e
       0.060720455 -0.17130528 0.14321995 0.27562645
000050 28 51 ea be 93 cc cc 3e 81 33 09 3b 54 3a c7 3e
       -0.45765042 0.39999828 0.002093524 0.38911688
000060 8b e6 7b 3e e4 a1 3b 3e 34 57 76 3e 24 c5 0e 3f
       0.24599664 0.18323475 0.24056703 0.5576956
000070 d6 56 ad be 45 4d 0e bf 3b 6b 37 bd 6f 17 a4 bd
       -0.33855313 -0.55586654 -0.044779997 -0.08012282
000080 49 25 ee 3e d4 bf f3 be c0 3f f2 3e 47 4b b0 bd
       0.4651282 -0.4760729 0.47314262 -0.08608108
000090 22 01 83 3d c9 4a 05 3f dc dc 94 be c7 d1 cb be
       0.063967004 0.5206724 -0.29074752 -0.39808485
0000a0 2c ea c4 3e 51 f8 f5 3d ab 05 5b be 75 c4 45 be
       0.3845991 0.12010253 -0.21388881 -0.19313224
0000b0 be ac a0 be 72 29 77 3e 4e da d3 be b9 c3 db 3e
       -0.31381792 0.24136904 -0.4137749 0.42922762

onnx::Conv_651 f4 [16]
000000 31 00 ab be 3d 97 cb 3e d5 8a b4 be d3 e5 1a 3e
       -0.33398584 0.39763823 -0.3526217 0.15126733
000010 d4 a1 f4 3e 36 18 01 3e ff eb b6 3d 36 a2 b9 3e
       0.47779715 0.12606892 0.089317314 0.3625657
000020 b6 d0 e1 be 4f 05 ba 3e 78 71 3c 3e b8 98 50 3e
       -0.44104546 0.36332175 0.1840266 0.20370758
000030 08 6a ec be 3b 2f f5 be 1a 7f 11 bf bf 24 f6 be
       -0.46174645 -0.47887596 -0.56834567 -0.4807491

onnx::Conv_653 f4 [16, 16, 1, 1]
000000 3f fd a0 bd 97 df 7d 3e 9e 91 54 be c0 70 86 3d
       -0.07860803 0.24792324 -0.20758674 0.06564474
000010 12 18 ee bc 00 51 c4 3d de 81 4e 3e dd 23 cc bc
       -0.029064212 0.09585762 0.20166728 -0.024919445
000020 9d e1 52 be 28 37 4a 3e 31 0e e5 3d 07 1a 5e 3d
       -0.20593877 0.19747603 0.111843474 0.05422404
000030 4d 38 c1 3d 4d 77 65 3d 1b 10 ae bd 8e 75 bd bd
       0.09434567 0.056021977 -0.084991656 -0.092509374
000040 57 80 2c 3e cc f4 29 3e 71 76 90 bd 97 95 a1 3d
       0.16845833 0.16597289 -0.07053841 0.0788986
000050 0c 4c f3 bd 5f 12 2e bd cc 5e 2b 3e d2 57 4e 3e
       -0.11879739 -0.04249799 0.16735381 0.20150688
000060 38 f8 6d be b5 70 3a be e3 1f 46 3e 92 45 fb 3d
       -0.23239219 -0.18207057 0.19348101 0.12269129
000070 5c 4a 06 be 43 e6 20 3d b4 e4 85 3d c3 18 ad bd
       -0.13114303 0.039282095 0.06537762 -0.084519885
000080 64 a8 1f be 89 a0 d9 3c 89 dc 57 3e 29 90 4c be
       -0.1559158 0.026565807 0.21080221 -0.19976868
000090 2a cc e2 bd 0a 74 01 be 8b 5c 7e 3e c1 c5 d9 bd
       -0.110740975 -0.12641922 0.2483999 -0.10633422
0000a0 96 6f e2 3d bb f6 1b be 0f 2b d1 bd b2 c2 3b be
       0.110564396 -0.15230839 -0.10213291 -0.18335989
0000b0 83 60 c6 3d 9f 95 65 be ec 44 87 3d 27 3a 22 be
       0.09686377 -0.22420357 0.06604943 -0.15842496
0000c0 cf bb 2c be 81 0d f2 3c f1 3c f1 3b ab 26 c5 3d
       -0.16868518 0.029547455 0.007362001 0.09626516
0000d0 da 38 56 3e 21 5b 71 3d bb 93 22 3d 1d 4e 4b 3c
       0.20920125 0.058924798 0.039691668 0.01240876
0000e0 c6 47 0b be df b6 ba 3d ea 4d ee 3d e5 a6 2e be
       -0.13601598 0.09116911 0.11635955 -0.17055853
0000f0 90 cb 86 bd 8e 47 b1 3d fd cf 26 be 95 ed 21 3e
       -0.06581795 0.08656226 -0.16290279 0.15813287
000100 5b db 65 be 84 5d 9f bd bb e0 21 3d c7 80 45 be
       -0.22446959 -0.077815086 0.03952096 -0.19287406
000110 45 62 9b bd d7 d3 21 3e 84 08 38 3e 7f b1 28 3e
       -0.07587103 0.15803467 0.17971998 0.1647396
000120 35 18 58 be 07 8a 10 be b4 d7 e7 bb b5 63 d7 3d
       -0.21102984 -0.14115153 -0.0070752744 0.105170645
000130 ca d8 a3 bd 3f 44 47 3e 22 28 4f be c0 75 7f 3e
       -0.080003336 0.19459628 -0.20230153 0.24947262
000140 44 98 61 be a9 e7 21 3e 9a 5a 6e be 48 9a 5a bd
       -0.22030741 0.15811028 -0.23276749 -0.05336979
000150 0f 53 95 3b 40 a0 31 3e fd 31 1a 3d a2 56 3d be
       0.0045570205 0.17346287 0.03764533 -0.18490079
000160 03 b1 88 bd c3 71 38 bd d2 36 42 3e b5 af e4 bb
       -0.06674387 -0.045030367 0.18966225 -0.0069789537
000170 b1 3b 3a be ca bb e0 bd a0 fd 12 3d 4a 6e 3e be
       -0.18186833 -0.10973318 0.035886407 -0.1859676
000180 bc 84 dc 3d 7f 63 1c be 95 ef b2 bd 13 22 09 bd
       0.107675046 -0.1527233 -0.08737103 -0.03347976
000190 3d e1 01 bd 30 34 ce bd ed a0 fc 3c 8e 2c 18 bd
       -0.031708945 -0.10068548 0.030838454 -0.037151866
0001a0 40 c9 e8 bd 9e d2 24 be b2 70 a3 3d 4b c9 7b 3e
       -0.113665104 -0.16095969 0.07980479 0.24588506
0001b0 b9 7c 9b bd 20 32 32 be 13 1e 78 3e 72 62 97 bd
       -0.07592148 -0.17401934 0.24230222 -0.07391824
0001c0 f4 b4 36 be 88 b8 37 3e 1c 25 73 be 26 6b 4f 3e
       -0.17842466 0.17941487 -0.23744625 0.20255718
0001d0 dd 67 10 3e af 88 39 be b3 f9 4c 3e 99 78 71 3d
       0.1410212 -0.18118547 0.20017128 0.0589529
0001e0 60 a4 11 3e 15 56 8f bd 94 0b 38 3d 52 ef 4e be
       0.1422286 -0.06998841 0.044932917 -0.20208481
0001f0 09 ee 27 bc 55 64 65 3c bb 04 20 be 2e 67 f9 bd
       -0.010249623 0.014000972 -0.15626805 -0.12177883
000200 18 15 da bd ca 15 b0 bd d8 59 5b be 5f 7e 46 bc
       -0.106485546 -0.08597906 -0.21420991 -0.01211509
000210 8f 24 77 be 9e 45 ed bd ce 0d 97 3c de e4 7a 3d
       -0.2413504 -0.11585544 0.0184392 0.06125342
000220 b2 67 5c 3e 23 c2 ea 3d b7 0a 77 3d 19 b1 82 3d
       0.21523932 0.1146281 0.060312953 0.06381435
000230 a3 91 5e 3e 60 90 2b be 5b 14 af 3d f6 96 00 3e
       0.21735243 -0.16754293 0.085488044 0.12557587
000240 a1 6a 59 3d 9d 7d fb 3c e7 52 57 3e 19 d7 63 be
       0.053080205 0.030699546 0.21027718 -0.22250022
000250 56 08 00 3c d2 58 e2 3d fd 96 3e 3e bf ba 58 3e
       0.007814487 0.110520974 0.18612285 0.21164988
000260 02 47 8d 3c 5b 62 52 3e 10 28 d0 3d b9 aa d9 bc
       0.017245773 0.20545332 0.10163891 -0.026570665
000270 80 8c 93 bd 5c 2c 54 3e 0b 67 21 3e 0f 70 a1 3d
       -0.072045326 0.20720047 0.15761964 0.078827016
000280 67 cc 07 be 2c 7c 9d 3c af e4 c4 bc 80 0b 63 3e
       -0.13261567 0.019224249 -0.024034826 0.22172356
000290 c8 de a9 bd 78 62 ff bd 6c 1a 38 be a9 5c e4 bd
       -0.08294445 -0.12469953 -0.17978829 -0.11150486
0002a0 b2 71 2b 3e 3c 6f e7 3d 46 08 6d 3e e7 2f 09 3e
       0.1674259 0.11300513 0.23147687 0.1339718
0002b0 4a 00 6e bd 0e b7 48 3d a6 17 62 be 1d 88 46 3e
       -0.058105744 0.0490027 -0.22079334 0.1938786
0002c0 f5 26 03 3c d3 7b 89 3d cd 39 9a 3c 93 fc 69 be
       0.008004894 0.06713071 0.01882639 -0.22850256
0002d0 5a e9 73 be f2 dc 8a bc 63 32 71 3e b0 81 67 be
       -0.23819485 -0.016951058 0.23554377 -0.22608066
0002e0 dc e3 62 be cf 7c c6 bd dd 7e b2 bd 77 c2 08 3e
       -0.22157234 -0.09691774 -0.087156035 0.13355432
0002f0 56 77 74 3e a2 a6 49 3e b0 f7 74 bd 6d 28 7d 3d
       0.23873648 0.19692472 -0.059806526 0.06180613
000300 66 e0 47 be 18 09 e7 3d 21 cf 57 3d 7e d7 55 be
       -0.19519195 0.11281031 0.052687768 -0.20882985
000310 f2 db 23 bd 8e 21 43 be da de 17 3e 75 99 cc bd
       -0.040004678 -0.19055769 0.14831105 -0.09990207
000320 cd 91 4d be e7 ff 76 3d 90 5e 9f 3d 89 0c 40 bd
       -0.2007515 0.06030264 0.07781708 -0.046886954
000330 fc 2b cf bd 35 0f 51 be 85 15 b4 bc 8a 9a 54 3d
       -0.10115811 -0.20415957 -0.021982918 0.051905192
000340 28 a3 2a 3e 6f 77 c7 3d e2 ec 3d be 7e 2f 30 be
       0.16663802 0.09739577 -0.18547395 -0.17205617
000350 db f7 4c be d8 58 86 3d ae 85 31 be 9e f0 47 be
       -0.20016424 0.06559914 -0.17336151 -0.19525382
000360 68 61 00 3e fd e9 d8 3d 16 53 13 be e0 b3 47 3e
       0.12537158 0.10591505 -0.14387164 0.1950221
000370 98 4e 73 3d 83 b7 53 3e 3f e7 56 3e cf b6 16 bb
       0.059401125 0.20675473 0.20986651 -0.0022997146
000380 27 93 47 bd ef f6 6b 3e 70 c0 4d be da 6a 1f 3e
       -0.04872432 0.23043416 -0.2009294 0.15568104
000390 b2 88 2a 3e 0b 72 a0 bc 45 7c 69 be 7f e7 32 be
       0.16653708 -0.01958563 -0.22801311 -0.17471121
0003a0 6a be 72 be e0 53 42 3d fb a3 51 3e d0 66 07 be
       -0.2370545 0.04744327 0.2047271 -0.13222814
0003b0 3f 77 4c 3e 50 13 87 bd 9e b4 6d 3e 23 96 45 be
       0.19967364 -0.065954804 0.23213431 -0.19295554
0003c0 cf 56 3b be 68 5e 44 be 75 c6 26 be 05 20 a8 bd
       -0.18294834 -0.19176638 -0.16286643 -0.08209232
0003d0 7f f3 2e bd c9 00 34 be e4 9d ab 3d a9 ae 0e 3d
       -0.042712685 -0.17578425 0.083797246 0.034834538
0003e0 6d 03 1b be 8b 0c 04 be 4d 2f 83 bd 53 ab 20 3d
       -0.15138026 -0.1289541 -0.06405506 0.039225888
0003f0 a2 6f 8c 3d ae 27 a4 3d 92 8b 24 be 56 30 4a 3d
       0.0685723 0.08015381 -0.16068867 0.049362503

onnx::Conv_654 f4 [16]
000000 21 6b 34 3e 4a 16 a5 bd 87 83 53 be 01 20 5f 3e
       0.17618991 -0.08060892 -0.20655642 0.21789552
000010 f1 1b 35 3e 48 75 ab 3d 30 d4 61 3e 1a 6c ee bd
       0.1768644 0.08371979 0.220536 -0.116417125
000020 00 2e d0 bd 4b 7c 69 bd a9 1a 41 be ff d8 22 3e
       -0.10165024 -0.0570033 -0.18857826 0.1590309
000030 b3 55 47 3e 43 da f5 3d 93 de c6 3d 7c 09 79 be
       0.19466285 0.12004521 0.097104214 -0.24320024
