gtcrn_micro/models/onnx/gtcrn_micro.onnx (onnx, 200319 bytes, 76 tensors)

onnx::MatMul_1191 f4 [192, 64]
00000000: 0000 803f ccbc 8c2b 0000 0000 0000 0000
00000010: 0000 0000 0000 0000 0000 0000 0000 0000
00000020: 0000 0000 0000 0000 0000 0000 0000 0000
00000030: 0000 0000 0000 0000 0000 0000 0000 0000
00000040: 0000 0000 0000 0000 0000 0000 0000 0000
00000050: 0000 0000 0000 0000 0000 0000 0000 0000
00000060: 0000 0000 0000 0000 0000 0000 0000 0000
00000070: 0000 0000 0000 0000 0000 0000 0000 0000
00000080: 0000 0000 0000 0000 0000 0000 0000 0000
00000090: 0000 0000 0000 0000 0000 0000 0000 0000
000000a0: 0000 0000 0000 0000 0000 0000 0000 0000
000000b0: 0000 0000 0000 0000 0000 0000 0000 0000
000000c0: 0000 0000 0000 0000 0000 0000 0000 0000
000000d0: 0000 0000 0000 0000 0000 0000 0000 0000
000000e0: 0000 0000 0000 0000 0000 0000 0000 0000
000000f0: 0000 0000 0000 0000 0000 0000 0000 0000
00000100: 0000 0000 0000 803f ccbc 0c2b 0000 0000
00000110: 0000 0000 0000 0000 0000 0000 0000 0000
00000120: 0000 0000 0000 0000 0000 0000 0000 0000
00000130: 0000 0000 0000 0000 0000 0000 0000 0000
00000140: 0000 0000 0000 0000 0000 0000 0000 0000
00000150: 0000 0000 0000 0000 0000 0000 0000 0000
00000160: 0000 0000 0000 0000 0000 0000 0000 0000
00000170: 0000 0000 0000 0000 0000 0000 0000 0000
00000180: 0000 0000 0000 0000 0000 0000 0000 0000
00000190: 0000 0000 0000 0000 0000 0000 0000 0000
000001a0: 0000 0000 0000 0000 0000 0000 0000 0000
000001b0: 0000 0000 0000 0000 0000 0000 0000 0000
000001c0: 0000 0000 0000 0000 0000 0000 0000 0000
000001d0: 0000 0000 0000 0000 0000 0000 0000 0000
000001e0: 0000 0000 0000 0000 0000 0000 0000 0000
000001f0: 0000 0000 0000 0000 0000 0000 0000 0000
00000200: 0000 0000 0000 003f 0000 003f 0000 0000
00000210: 0000 0000 0000 0000 0000 0000 0000 0000
00000220: 0000 0000 0000 0000 0000 0000 0000 0000
00000230: 0000 0000 0000 0000 0000 0000 0000 0000
00000240: 0000 0000 0000 0000 0000 0000 0000 0000
00000250: 0000 0000 0000 0000 0000 0000 0000 0000
00000260: 0000 0000 0000 0000 0000 0000 0000 0000
00000270: 0000 0000 0000 0000 0000 0000 0000 0000
00000280: 0000 0000 0000 0000 0000 0000 0000 0000
00000290: 0000 0000 0000 0000 0000 0000 0000 0000
000002a0: 0000 0000 0000 0000 0000 0000 0000 0000
000002b0: 0000 0000 0000 0000 0000 0000 0000 0000
000002c0: 0000 0000 0000 0000 0000 0000 0000 0000
000002d0: 0000 0000 0000 0000 0000 0000 0000 0000
000002e0: 0000 0000 0000 0000 0000 0000 0000 0000
000002f0: 0000 0000 0000 0000 0000 0000 0000 0000
00000300: 0000 0000 0000 0000 0000 803f ccbc 0c2b
00000310: 0000 0000 0000 0000 0000 0000 0000 0000
00000320: 0000 0000 0000 0000 0000 0000 0000 0000
00000330: 0000 0000 0000 0000 0000 0000 0000 0000
00000340: 0000 0000 0000 0000 0000 0000 0000 0000
00000350: 0000 0000 0000 0000 0000 0000 0000 0000
00000360: 0000 0000 0000 0000 0000 0000 0000 0000
00000370: 0000 0000 0000 0000 0000 0000 0000 0000
00000380: 0000 0000 0000 0000 0000 0000 0000 0000
00000390: 0000 0000 0000 0000 0000 0000 0000 0000
000003a0: 0000 0000 0000 0000 0000 0000 0000 0000
000003b0: 0000 0000 0000 0000 0000 0000 0000 0000
000003c0: 0000 0000 0000 0000 0000 0000 0000 0000
000003d0: 0000 0000 0000 0000 0000 0000 0000 0000
000003e0: 0000 0000 0000 0000 0000 0000 0000 0000
000003f0: 0000 0000 0000 0000 0000 0000 0000 0000
1.0 1e-12 0.0 0.0 0.0 0.0 0.0 0.0
0.0 0.0 0.0 0.0 0.0 0.0 0.0 0.0
0.0 0.0 0.0 0.0 0.0 0.0 0.0 0.0
0.0 0.0 0.0 0.0 0.0 0.0 0.0 0.0
0.0 0.0 0.0 0.0 0.0 0.0 0.0 0.0
0.0 0.0 0.0 0.0 0.0 0.0 0.0 0.0
0.0 0.0 0.0 0.0 0.0 0.0 0.0 0.0
0.0 0.0 0.0 0.0 0.0 0.0 0.0 0.0
0.0 1.0 5e-13 0.0 0.0 0.0 0.0 0.0
0.0 0.0 0.0 0.0 0.0 0.0 0.0 0.0
0.0 0.0 0.0 0.0 0.0 0.0 0.0 0.0
0.0 0.0 0.0 0.0 0.0 0.0 0.0 0.0
0.0 0.0 0.0 0.0 0.0 0.0 0.0 0.0
0.0 0.0 0.0 0.0 0.0 0.0 0.0 0.0
0.0 0.0 0.0 0.0 0.0 0.0 0.0 0.0
0.0 0.0 0.0 0.0 0.0 0.0 0.0 0.0
0.0 0.5 0.5 0.0 0.0 0.0 0.0 0.0
0.0 0.0 0.0 0.0 0.0 0.0 0.0 0.0
0.0 0.0 0.0 0.0 0.0 0.0 0.0 0.0
0.0 0.0 0.0 0.0 0.0 0.0 0.0 0.0
0.0 0.0 0.0 0.0 0.0 0.0 0.0 0.0
0.0 0.0 0.0 0.0 0.0 0.0 0.0 0.0
0.0 0.0 0.0 0.0 0.0 0.0 0.0 0.0
0.0 0.0 0.0 0.0 0.0 0.0 0.0 0.0
0.0 0.0 1.0 5e-13 0.0 0.0 0.0 0.0
0.0 0.0 0.0 0.0 0.0 0.0 0.0 0.0
0.0 0.0 0.0 0.0 0.0 0.0 0.0 0.0
0.0 0.0 0.0 0.0 0.0 0.0 0.0 0.0
0.0 0.0 0.0 0.0 0.0 0.0 0.0 0.0
0.0 0.0 0.0 0.0 0.0 0.0 0.0 0.0
0.0 0.0 0.0 0.0 0.0 0.0 0.0 0.0
0.0 0.0 0.0 0.0 0.0 0.0 0.0 0.0

onnx::Conv_1115 f4 [16, 3, 1, 5]
00000000: dec7 02be b1b1 433d e089 d63d d749 00be
00000010: 0183 053e d1ac 37bd 5eff 723e 260b 703e
00000020: 12c9 653e 4c61 0f3e 70d0 29bd e18e 5a3e
00000030: ee7f 98bd 6f51 d9bd 212a 343d c8e8 653e
00000040: eca2 95bd 1160 583e c868 41be 6fcf 5cbe
00000050: 6818 833e ff04 a3bb a4fb 17be ddb6 723d
00000060: af1a fbbd bab7 7dbe 592d 24be 2ae3 4c3d
00000070: b515 b73c 7b92 8a3c ecee b53d f35a f8bd
00000080: 36ea 3b3c 210f fc3c aa7b d4bd bef1 9dba
00000090: e73e c73d 0214 3bbe be12 a2bd 64d4 6b3e
000000a0: 299d 82be 1725 bfbc f4f9 2c3e 996c fc3d
000000b0: afba 0d3e b7b3 34be fb35 05be 3b3c 023e
000000c0: 4c4d 29be 95d7 c83d f315 ce3d 6219 723e
000000d0: 4f94 5fbd d51e aa3d 61f9 16be 2ce4 dabc
000000e0: 54da a33c a274 b4bd 0148 a1bd 3c4d a73c
000000f0: 8f3c 1f3d d93e 6c3d 7434 123e c22a 673e
00000100: 78ac 7c3d 453c 9abd 02b0 4f3e aa33 7fbe
00000110: b6d9 2f3e 75d4 11be 5317 4f3e 0686 833e
00000120: b097 d0bd c817 2cbe c6d9 633d 9e76 413e
00000130: 9b8e 4cba 06eb 81be 708a 8e3d cc73 4d3e
00000140: 8302 c6bc da0e b83d 9b2c 40be d22a 7f3e
00000150: 9736 bcbd 7de6 3c3e e148 303e 6144 1fbe
00000160: d3e4 993b 4fca 823e 8575 423e 6f23 943d
00000170: 7cd7 3d3e afdd 8c3d 827c 4f3e 0437 64bd
00000180: 68e4 fe3c f430 8ebb 87c4 683e 2f5d 38be
00000190: d5c0 0d3d 11c6 bbbd 5198 223e 100b 21be
000001a0: c4a4 a7bc de40 4d3e a388 173c da1c 393e
000001b0: f7b1 753b c72a 76be 2fbc 653d 4957 15be
000001c0: fe88 0bbd e109 463e 29be 1cbe bcdb 15be
000001d0: 7979 c43c b9e6 793e 80c9 50be 0ffd 113e
000001e0: 45b0 6ebc c7c7 4cbe 138e 1b3c f781 1dbe
000001f0: 2e0a 6dbd e45e 80be e67a 51be cb0d b0bd
00000200: 8e2f 053e 286f 543e 16d2 4e3e 9e28 48be
00000210: fa60 393c 57c5 f7bb d37a 7d3e 6ad5 1abe
00000220: 2fe0 1a3e 2c4c 6abe af93 7ebd aef7 83be
00000230: 17ad 423e 9cab 07be ba20 24be c550 813e
00000240: 9c87 98bc f63d 64be 3e50 41be 8438 54bd
00000250: ae2d 59be 6912 893d aa3f 1cbe 4fa9 89bd
00000260: 1ea1 6b3e 349b 713d 2e6c 463e 7792 48bc
00000270: f25a f73d d2e6 db3d 8695 77be 61d1 09bd
00000280: 0a9f 4fbe 0052 dabd 93eb e83c 3316 0ebe
00000290: feec 833e feb3 223e eae6 c4bd f0a8 89bd
000002a0: fedd 56bd afb8 1bbe a033 b7bd 8e1b 5e3e
000002b0: fd47 f93c 2dbb 5c3e 5d29 803e d5c3 92bd
000002c0: 3182 b03c d4e1 b2bd f657 d73d ad7d 843d
000002d0: ebd3 14be 36e3 7dbd 030d 5c3e fca6 d03d
000002e0: 08e3 833d 58f9 233e b99a ac3d 9ad9 4c3e
000002f0: 7837 cfbb ad24 c6bd 30e1 bf3d d4b2 27be
00000300: 3632 283e 359b 20be a370 393e e5a0 8c3d
00000310: 08ac ca3b 6b78 68bd cfa0 cc3c d5a5 7dbe
00000320: d3f1 293e 63de 543e b217 043e 4773 c43d
00000330: da5f 513e 0b8d 173e be40 523d 7888 71be
00000340: 44cd ab3d e75c 79bd ff79 733e 28d4 1f3d
00000350: 39b0 ef3d 8cf9 523e af0b 05bd 87f6 c63d
00000360: 5c85 2e3e 1e84 4d3e 8f44 80be a78c 68be
00000370: beb7 31be c7bd 48bd 2838 3fbe 5703 08be
00000380: cbeb c53d a5de 4dbe 5e7b f93d 6cf6 5f3d
00000390: 80a1 a5bd 8750 313d 9dd9 2ebe 2132 263e
000003a0: d430 35be 5810 46be 5213 203e d65f 513e
000003b0: 1744 18be b142 233e 22dd 803e e37f 683e
-0.12771556 0.04777688 0.10475516 -0.12528168 0.13038255 -0.044842545 0.23730227 0.23441753
0.22439983 0.1400196 -0.041458547 0.21343566 -0.07446276 -0.10611235 0.04398549 0.2245208
-0.073064655 0.21130396 -0.18887627 -0.21563505 0.25604558 -0.004974961 -0.14842087 0.059256423
-0.12260949 -0.24777117 -0.16032924 0.050021328 0.022349218 0.01691555 0.08883461 -0.12126722
0.011469414 0.030768933 -0.103751495 -0.0012050194 0.097287945 -0.18269351 -0.07913731 0.2303024
-0.2551053 -0.023333116 0.16892225 0.12325401 0.13840745 -0.17646681 -0.13008873 0.12718289
-0.16533393 0.09806744 0.1006278 0.23642495 -0.054584797 0.08306662 -0.14743568 -0.026720129
0.020001568 -0.088113084 -0.07875062 0.02042257 0.038876113 0.057677124 0.14277822 0.22574905
0.061687917 -0.07531027 0.20281985 -0.24922052 0.17172894 -0.14241202 0.20223741 0.2568819
-0.10185182 -0.16805947 0.055627607 0.18892905 -0.00078032323 -0.2537462 0.069599986 0.20063704
-0.02417112 0.08987208 -0.18767016 0.24918678 -0.091901 0.184473 0.17215301 -0.15553428
0.0046964674 0.25544974 0.18990143 0.07233321 0.18539232 0.0687822 0.2026234 -0.05571653
0.031114772 -0.0043393318 0.22731219 -0.18004297 0.034607727 -0.091686375 0.15878417 -0.15726876
-0.020464309 0.20044276 0.009248885 0.18077412 0.0037490109 -0.24039756 0.05608767 -0.14584078
-0.034066193 0.19339706 -0.15306915 -0.14634603 0.023983704 0.2440442 -0.20389366 0.1425669
-0.014568393 -0.19998084 0.009494322 -0.15381609 -0.057871036 -0.25072396 -0.20457038 -0.08596381
0.13006422 0.20745528 0.20197329 -0.19546744 0.011314625 -0.0075613665 0.24753885 -0.15120474
0.15124582 -0.2288062 -0.06215256 -0.25774902 0.19011341 -0.13249058 -0.16028109 0.25256935
-0.018619351 -0.22289261 -0.18878266 -0.05181171 -0.21208832 0.066929646 -0.15258661 -0.06721746
0.2301068 0.058985904 0.19377205 -0.012241951 0.12077893 0.10737385 -0.24178132 -0.033646945
-0.20275512 -0.106601715 0.028432643 -0.13875656 0.25766748 0.15888974 -0.09614356 -0.067216754
-0.052457802 -0.1520717 -0.089453936 0.21690199 0.030429834 0.21555777 0.25031558 -0.07166258
0.021546455 -0.087344795 0.10514824 0.06469283 -0.14533965 -0.061984263 0.21489339 0.101881
0.06439787 0.16013086 0.084279485 0.20004883 -0.006323751 -0.09674964 0.09369123 -0.16376811
0.16425404 -0.15684207 0.18109374 0.06866626 0.0061850585 -0.056755465 0.024979023 -0.24770291
0.16596155 0.20787959 0.12899664 0.095923 0.2044672 0.14799897 0.051331274 -0.23587215
0.08388761 -0.060879614 0.23777007 0.039020687 0.11703534 0.20603007 -0.032481845 0.0971499
0.1704306 0.2006993 -0.25052306 -0.22709905 -0.17355248 -0.04900911 -0.18673766 -0.13282524
0.096641146 -0.20104463 0.121817335 0.054678366 -0.08087444 0.043289687 -0.170752 0.1623006
-0.17694408 -0.19342172 0.1563237 0.20446715 -0.14869724 0.1594341 0.2516871 0.22705035

onnx::Conv_1116 f4 [16]
00000000: 2261 b1bd 07be 013e e22b 66bd 7422 4bbe
00000010: 1592 5c3e b6b2 33be 5d64 f0bd 1478 63bc
00000020: 0960 353e 2149 6fbe f984 32ba 713e 813e
00000030: 7f2e dabd 43dc 7b3d 8b65 253e a309 b73c
-0.08661105 0.12670146 -0.056194194 -0.19837362 0.21540101 -0.17548642 -0.11737893 -0.013883609
0.17712416 -0.2336774 -0.00068099756 0.25242952 -0.106534 0.061489355 0.16152017 0.022343462

onnx::Conv_1118 f4 [16, 16, 1, 5]
00000000: df77 553d 8e80 8fbd e7f2 613d 0fbb b13b
00000010: cf65 5fbd 8d2b 883d d5c1 aabd 72b0 8b3c
00000020: 5bbe e6ba aad4 ec3b 48d8 fa3c e43f c6bc
00000030: 0258 f03b ff83 643c bf01 cabd 414e 6ebd
00000040: 01ba a33d da50 b03d a991 2dbd a562 58bd
00000050: e82d e43d fa6e 903d 9e5c 94bd f164 e23c
00000060: 0aff 393d e7fc 68bd 0c81 c93b aa34 38bd
00000070: d32b 48bc 9ca2 8abc 77b2 fd3c 52a3 0b3d
00000080: 9cff 2e3d 9f52 fabc 2c87 cc3b 3072 db3c
00000090: 1c34 2b3d 304e 10bd 4784 02bb 58e5 a83c
000000a0: c7aa 8a3d db7c 493d 94c6 e53c 3062 c9bd
000000b0: 24b4 be3d d376 a1bc 32f8 b0bd d5bf 243c
000000c0: 0ed5 893d 5e17 a23d c6b9 ccbd 1fdc d1bd
000000d0: 6664 693d 88f9 b3bd 9aef 893d 5a99 93bd
000000e0: 05d4 4ebd e9ae 403c 8be8 73bd a428 cebc
000000f0: 8a03 ea3b 77ee 9cbd e845 51bc e5a3 22bd
00000100: b80e 37bc 3e1b 6e3c 0278 b83d 69a4 95bd
00000110: 44e9 6d3c a0c6 c03d ab66 a43d df8f a5bc
00000120: 0881 483d a117 de3d 500a d7bd 5fdc cc3d
00000130: fa9f 873c ee5a b03d b8c3 3d3d 9f4a 89bd
00000140: 8289 ae3d 309b 0bbd 3d17 ac3a eeb6 25bd
00000150: e2b1 e0bd 09a4 3a3d a736 8c3d 14af 733b
00000160: 68e8 f83c b995 50bd bbf0 893d e913 dc3d
00000170: de13 c23d 81a9 b2bd 4ffd dabd 3adc c7bd
00000180: be94 6f3c c7fc 413d f28c bbbc 7298 cabd
00000190: 3c7e 8d3d dda3 6fbd daea a03d e55b 963d
000001a0: 7f31 913d 3f64 7b3d 929d c93d d049 413d
000001b0: 7f89 c03d f06f f9bc 8ee3 ac3c 1d11 413d
000001c0: f399 fbbb c439 b8bd b2eb 51bd 3d57 88bd
000001d0: 4e69 4e3d 8bce 83bd dc81 163d 1dd2 903d
000001e0: f05d c8bc ca12 93bd e531 1f3d 165b c5bc
000001f0: 3989 963d 7602 8cbd 3f8a 1dbc 5608 d83d
00000200: 5a3d 9bbd ed01 f8bb 2596 aabd c3d0 8d3d
00000210: 8562 3bbd e434 5cbc 3a98 d3bd e530 a83d
00000220: d8be c3bd f165 72bd 25ef 2dbd 55e9 8b3d
00000230: ca20 95bd fd0c c63d 7e3d acbd 850d bc3c
00000240: 0613 b5bd 44df d23d a1c6 4d3d d642 bd3d
00000250: 206d b23d f52a 47bd a747 33bd 14ca 91bc
00000260: 9cc4 6dbd ae4b 813c 9b67 963d ed42 cb3d
00000270: d517 c8bd f3e4 6bbd dfcc 443d bbc2 123c
00000280: 1ba7 4dbd 3003 b33d b05c 193c c76b 7f3c
00000290: 89b5 5bbd dd6c ad3d 8bf0 973c 38fc 9a3d
000002a0: afb3 8abd 26ce 493d b739 893d 3bcb 853d
000002b0: c29a 94bc 0335 bc3d 3193 23bc b7be 9abd
000002c0: 08c0 14bd 3faf 9cbd e133 99bd 681e 0fbd
000002d0: 4fbc d4bc 4801 8f3d f9e4 9abd e7d7 e13d
000002e0: ad14 d93d c9fb 8bbd 2923 ab3d 54ac 183d
000002f0: 2199 6abb 89c2 963c d029 8bbd 5f95 543d
00000300: 2be9 37bd 6064 bcbd ae4e cabc 4e5c d3bd
00000310: de4a 9cbd fa67 cabd 1851 af3c d447 9e3d
00000320: 7ca4 74bc d714 b2bd b75a b4bc 1d5f 7abd
00000330: 8855 99bb 760a 2a3d ec0d a33c 5ae2 71bd
00000340: 0255 ddbc 77c4 353d 949d 0e3d 5f9b bfbc
00000350: a415 72bd 6797 0bbd 4318 a23d 9a95 403d
00000360: 8f29 fcbc caa6 a6bd bc7b e0bd 7b46 ed3a
00000370: 2f66 60bd 0471 123d 614f fb3a 62b6 d43d
00000380: d1be b93d 3b9d 963d 3759 77bc 327b 91bd
00000390: 1ee6 84bd 54ad c4bd ae36 0dbd 428f 8d3d
000003a0: f562 9fbd 3aee 9d3c 2ff2 3ebd 573d dc3d
000003b0: 39e0 203d 28ba 0bbd 77ae 5ebd 218b bc3c
000003c0: 0091 553d f8e1 673d 4011 b33d a9aa c4bc
000003d0: b3f4 ae3d 9daf bd3d 6754 893b fee9 843c
000003e0: 682d 98bd 2b03 863d acf4 393d f1c4 c2bd
000003f0: 7575 75bd 480f 5d3d e168 d9bc 2572 91bb
0.05211627 -0.07006942 0.05516329 0.0054239105 -0.05454045 0.06648932 -0.08337752 0.01705191
-0.0017604338 0.0072275 0.030620709 -0.024200387 0.00733471 0.013947486 -0.09863614 -0.058180097
0.07994462 0.08609171 -0.04237524 -0.05282845 0.111415684 0.07052417 -0.07244228 0.027636023
0.04540924 -0.05688181 0.006149417 -0.0449721 -0.01221748 -0.016923241 0.030968888 0.0340913
0.042724237 -0.030556975 0.0062416997 0.026787847 0.041797742 -0.035230815 -0.001991527 0.020617172
0.067708544 0.049191337 0.028048791 -0.09833181 0.09311703 -0.01970998 -0.086410895 0.010055502
0.0673009 0.07914613 -0.09996371 -0.10247063 0.056980513 -0.08787829 0.067351535 -0.07206984
-0.050495166 0.011760452 -0.059547942 -0.025165863 0.007141535 -0.07662671 -0.012773015 -0.039707083
-0.011172943 0.014532862 0.09007265 -0.073067494 0.014520947 0.09412885 0.08027395 -0.020210205
0.04895118 0.108443506 -0.10500014 0.1000297 0.016555775 0.086110935 0.04632923 -0.06703686
0.08522321 -0.034083545 0.0013129484 -0.04045766 -0.109714285 0.045566592 0.068463616 0.0037183212
0.030384257 -0.050924037 0.06735369 0.10745985 0.094764456 -0.087237366 -0.10692846 -0.09758802
0.014622865 0.047360208 -0.022894356 -0.09892358 0.06908843 -0.05850588 0.078572944 0.07341746
0.07089519 0.0613749 0.09844507 0.047189534 0.09401225 -0.030448884 0.0211046 0.04713546
-0.0076782643 -0.08995393 -0.051250167 -0.066572644 0.050393395 -0.06435879 0.036744937 0.07071326
-0.024458855 -0.07181318 0.038865943 -0.024091285 0.07350392 -0.06836407 -0.00961548 0.10548465
-0.07580061 -0.007568589 -0.08329419 0.06924584 -0.045748252 -0.0134403445 -0.10331769 0.08212451
-0.09557885 -0.05917925 -0.042464394 0.06831614 -0.07281645 0.09670446 -0.08410166 0.022955665
-0.08841519 0.10296491 0.050238255 0.092412636 0.0871222 -0.04862495 -0.043769505 -0.017796554
-0.05804883 0.015783157 0.0734398 0.099248745 -0.097701706 -0.05759139 0.048046943 0.00895756
-0.050208192 0.08740842 0.009360477 0.015589661 -0.053639922 0.0846803 0.018547317 0.07567638
-0.06772553 0.049268864 0.06700461 0.06532904 -0.0181402 0.09189799 -0.009983824 -0.07555907
-0.036315948 -0.07650613 -0.07480598 -0.034941107 -0.025968699 0.06982666 -0.07563204 0.11027508
0.10599647 -0.068351336 0.08356316 0.03727372 -0.0035796838 0.018403308 -0.067950845 0.051900264
-0.0449001 -0.091988325 -0.02469572 -0.1032034 -0.07631467 -0.09883113 0.021400973 0.07728544
-0.014931794 -0.08695381 -0.022015912 -0.061125863 -0.0046793856 0.041513883 0.0199041 -0.059053756
-0.027018074 0.044376817 0.034818247 -0.023389516 -0.05910267 -0.034079935 0.07914784 0.04701767
-0.030781535 -0.08137281 -0.109611005 0.001810267 -0.05478495 0.03575231 0.0019173437 0.10386349
0.090695985 0.07354208 -0.015096954 -0.07103576 -0.06489204 -0.09603372 -0.034475975 0.0691209
-0.077825464 0.019278634 -0.046617683 0.10753887 0.039276335 -0.03411308 -0.0543656 0.02301556
0.052140236 0.056611985 0.087435246 -0.024007158 0.085427664 0.09262011 0.0041909697 0.016224857
-0.074305356 0.06543573 0.045399353 -0.0951022 -0.05992647 0.05396965 -0.026539268 -0.004438656

onnx::Conv_1119 f4 [16]
00000000: a2ed c5bd 6c84 08bd 1f9b bbbd 15dc fe3c
00000010: bdce 9a3d 76d8 5e3d 9e32 c9bc 20cc 16bd
00000020: 2c07 94bd 3f68 c33d 80a0 bf3d 2f33 563d
00000030: f46f 63bc d457 bbbd 2678 4a3d 7a8e 5cbd
-0.096644655 -0.033329412 -0.091604464 0.031110803 0.075589634 0.054405652 -0.024560269 -0.036815763
-0.072279304 0.09541368 0.09356785 0.052294906 -0.013881672 -0.09147611 0.04943099 -0.053846814

onnx::Conv_1121 f4 [16, 8, 1, 1]
00000000: 9432 793e c17f 4e3e 4d77 903e c247 96be
00000010: 9cc2 913e b93a 153e 08e9 f43d 8797 32bd
00000020: 3af0 a43e 21c6 83bc 2149 88be 03a0 8d3c
00000030: 04b7 5e3d 5420 febb 2905 0cbe e01b 46bd
00000040: 9470 a5be b97e 85be d60a 863d 519e a73e
00000050: 3281 ab3e c459 97bd 559f b4be 7199 b43e
00000060: 9575 003e a7f4 e3bd 6b54 bc3c 69c7 3c3e
00000070: 1a90 6fbe 1088 68bd 2fe9 81bc f9b7 903e
00000080: fd3c 643e fada 4cbe 2e98 52be 18d5 3b3e
00000090: 6a64 96be bed5 34be 4bb1 f5bd b108 28be
000000a0: fbad 29be aedc 98be d704 babc 3b14 93be
000000b0: 6a1d 733e 4212 e2bd 350b 0fbe 6847 09be
000000c0: 3dea 2b3d 4b56 8a3c fff3 c73c ae78 1a3e
000000d0: 5f36 9d3e bde1 413d 2da0 453c 12d7 53be
000000e0: e691 78be fbcc 8d3e a48a 7a3e 7a98 debd
000000f0: 5598 083e ffe0 56be db30 29be 1ae9 e6bd
00000100: d4ac c3bd 6800 79be 74dc 9a3e f827 283e
00000110: 0e00 09be 2c99 a83e 87e6 883e a385 003e
00000120: bc75 d5bd e6ef 093d de98 9f3d 73a2 98be
00000130: 15b0 09be f44a b33e d506 9e3e 64c0 53be
00000140: 64e4 99bd 846e 87be a8ee 1c3e fa95 1bbd
00000150: 7553 bebd 3aa8 533e ce78 753e c52c 44bc
00000160: f70d 6b3e c587 003d 4ae3 aabe 8527 293e
00000170: 08bb 6c3e cfa0 633e 3c66 93be fbfc 643d
00000180: 6a60 23be 967d 193e 8561 883e aae7 d53c
00000190: 8159 903d 2197 54bd 9b56 a1bd e1e3 453c
000001a0: aad1 f93d 2277 52be 41ef b8bd 2a4b 5a3d
000001b0: b860 993e 28df e63d 88d5 4dbe bf30 9fbe
000001c0: b628 983e c2d2 04be dedf 493e 4807 b2bc
000001d0: 8695 083e 4f72 ad3e 47ed 883e 6c93 69be
000001e0: 3b73 17be de89 9cbe 7018 9dbe 06e8 2fbe
000001f0: e021 353e 92e1 08be f985 a0be 0618 403c
0.243357 0.20165922 0.2821602 -0.29351622 0.28468788 0.14573182 0.1195851 -0.04360154
0.32214528 -0.016085686 -0.26618293 0.017288214 0.054373756 -0.0077553187 -0.13673843 -0.048366427
-0.32312453 -0.26073244 0.065450355 0.32737973 0.33497006 -0.07390168 -0.3527781 0.35273317
0.12544854 -0.11130648 0.022989472 0.18435444 -0.23394814 -0.056770384 -0.01585826 0.2826536
0.2228889 -0.20005408 -0.20565864 0.18343008 -0.29373485 -0.17659661 -0.119967066 -0.16409566
-0.16570275 -0.29855865 -0.022707386 -0.28726372 0.2374169 -0.11038639 -0.13969119 -0.13406146
0.041971434 0.01688685 0.024408339 0.15085098 0.30705544 0.04733442 0.012062115 -0.20687512
-0.24274406 0.2769545 0.2446695 -0.10868926 0.1333936 -0.20984267 -0.16522543 -0.11274929
-0.09554449 -0.24316561 0.30246317 0.16421497 -0.13378927 0.3292936 0.26738378 0.12550978
-0.10422847 0.03367605 0.07792829 -0.2981144 -0.13446076 0.35018122 0.30864587 -0.2067886
-0.07514265 -0.26451504 0.15325415 -0.037984826 -0.09293262 0.20669642 0.23971865 -0.0119735645
0.22954546 0.03137948 -0.33376533 0.16518982 0.23118222 0.22229312 -0.28788936 0.055905323
-0.15954748 0.14989313 0.26636901 0.026111443 0.070483215 -0.05190194 -0.07877847 0.012078256
0.12198193 -0.20553258 -0.09030009 0.05329434 0.29956603 0.112730324 -0.20100987 -0.31091878
0.2971856 -0.12971023 0.19714305 -0.021731988 0.13338289 0.33876273 0.26743528 -0.22810143
-0.1479005 -0.30573934 -0.30682707 -0.17178354 0.17688704 -0.13367298 -0.31352213 0.011724478

onnx::Conv_1122 f4 [16]
00000000: 0229 ed3d 2bb0 09bd c9d2 dfbc dcc6 bcbd
00000010: ae17 003e c853 c63d 541d 2abe 1810 74be
00000020: 7d9d 6b3e 178a 323d fb08 1cbe 40d0 413e
00000030: 306d 3bbe 6c92 9a3e ec0b 35bd d3e1 2a3d
0.11580087 -0.033615272 -0.02732219 -0.09217617 0.12509033 0.09683949 -0.1661275 -0.23834264
0.23009296 0.043588724 -0.15237801 0.18927097 -0.1830337 0.30189836 -0.044200823 0.04171927

onnx::Conv_1124 f4 [16, 1, 3, 3]
00000000: c188 a23e e2fd 853e 9f65 a83e 07e9 9abe
00000010: a228 bd3d 8694 8cbe b080 a9be 9179 983e
00000020: d782 9d3e df7b 9d3e b443 e63a d3f8 39be
00000030: c16f 27be d538 84bc 2483 79be 3166 a53e
00000040: 1d22 bdbd 13cf 11be 059d 25be e5d2 6dbe
00000050: 7df0 0bbb 3843 2bbe b688 08be 2d78 4c3e
00000060: b555 0d3e 27b0 703e e7ab 1d3e 2436 d7bd
00000070: e4bf 1e3e bb1b 39be b100 f23c 6308 853e
00000080: 4636 4a3e 488d fd3d 8385 4cbe f583 04be
00000090: bb20 52bc 2826 433e b58e a03e 83e6 2abe
000000a0: d544 833b abe1 033e f710 573e 251f 9a3e
000000b0: ef8a 9dbe d313 6a3d 3c91 78be ead2 773e
000000c0: 7cc8 8f3d 93ae a63e ec5b a73e c402 283e
000000d0: 3b50 913d 45c8 b4bd 5a57 553e 7c92 0fbe
000000e0: 50f2 e5bd 48d1 433e f408 91be df38 c63d
000000f0: d1a4 803e d9c9 8d3e de39 3b3e 5ae0 a33e
00000100: d495 49bd 9dca 163e ed92 8abe 6817 a83e
00000110: 915f 2f3d e54e c63d b7bf a0be 331c a23e
00000120: 9713 ae3d 404b 24bd 3bf5 72bd baa2 36be
00000130: 94be 1f3e 9879 5a3d 9520 883e 863e 923d
00000140: 6448 80be d6aa 8dbe 20d1 413d 337a 393e
00000150: 5d46 cb3d 63db 1bbe fe48 993e 2da5 eebd
00000160: eaf8 55be 6698 513b e8d4 ca3c 6b32 9cbe
00000170: d30f 3a3e 8ff9 8f3e df4d 053e e626 81be
00000180: 51c0 903c 6bb8 8dbe a6f1 38be 62c0 1fbd
00000190: a759 f13d 33f1 32be 126f 4ebc 58a0 25be
000001a0: 8b42 93be be65 483c d773 58be a074 8b3e
000001b0: 4112 0a3e d45f 173e 9396 8abc 6c87 93be
000001c0: ac91 8e3e b630 123e 4f20 853e 336f 9fbe
000001d0: b0ff 653e 8640 a4be e799 aa3e 06ec 8c3e
000001e0: 48c9 813e c93b 98be 0d30 5dbc 4c3f 93be
000001f0: 10bb 56bd 0518 8a3e 44f2 78be d0d2 813e
00000200: 17e0 ffbc 00dd 3c3e ad09 a83e b92f 90be
00000210: 89f6 eabc 16d2 5b3e 062d 00be 11bf 003e
00000220: 4c2f 313e e9d0 48be 71e7 2f3d b169 193e
00000230: 552b 0c3e cc2e 60bd d9b4 693e 786f ed3d
0.3174496 0.2617026 0.3289003 -0.3025591 0.09236266 -0.27457064 -0.33105993 0.29780248
0.30763885 0.3075857 0.0017567785 -0.18161325 -0.16351224 -0.01614038 -0.24366432 0.32304528
-0.09235022 -0.14239149 -0.1617318 -0.23224981 -0.002135306 -0.1672486 -0.13333401 0.19967718
0.13802226 0.23504697 0.15397607 -0.105083734 0.15502888 -0.18076985 0.029541345 0.2598296
0.19747266 0.12380463 -0.19972806 -0.12940963 -0.012825186 0.19057524 0.31358877 -0.16689496
0.004006008 0.12879054 0.21002565 0.30101886 -0.3077006 0.057147812 -0.24274153 0.24201551
0.07020661 0.32555065 0.32687318 0.16407305 0.07095381 -0.08827261 0.20834103 -0.14020723
-0.11227858 0.19122803 -0.28327143 0.09678816 0.25125745 0.2769306 0.18283793 0.32007104
-0.049215153 0.14725728 -0.2706522 0.32830358 0.04281575 0.09683017 -0.31396267 0.3166214
0.0849983 -0.040110826 -0.0593159 -0.17835513 0.15600044 0.053338617 0.26587358 0.07140832
-0.2505523 -0.276694 0.047318578 0.18113022 0.0992553 -0.15220408 0.299385 -0.116525985
-0.20895734 0.0031981706 0.024759725 -0.30507216 0.18170099 0.28120086 0.13017987 -0.2522499
0.017669829 -0.27679762 -0.18060932 -0.03900183 0.11784678 -0.17474823 -0.012599723 -0.16174448
-0.28761706 0.0122312885 -0.2113794 0.27237415 0.13483526 0.1478265 -0.016917503 -0.28814256
0.27845514 0.14276394 0.26001212 -0.31139526 0.22460818 -0.32080477 0.33320543 0.27523822
0.25348878 -0.29733112 -0.013500226 -0.2875923 -0.05242449 0.2697145 -0.24311167 0.2535615
-0.031234784 0.1844368 0.32819882 -0.2816141 -0.02868201 0.2146686 -0.12517175 0.12572886
0.17303199 -0.19610943 0.04294533 0.14981724 0.13688405 -0.05473213 0.22822894 0.115935266

onnx::Conv_1125 f4 [16]
00000000: c8c4 8abd f8d5 7c3d a77d 9f3d c9c9 a6bb
00000010: 9f2a 163e fb01 34bd 22fc 04be 206b d5bd
00000020: e41d 41be 315c 6f3e ae59 113e d760 7fbe
00000030: ae81 173e 93fb ca3c 0e18 433e 8821 1c3e
-0.06775814 0.061727494 0.07787638 -0.0050899726 0.14664696 -0.0439472 -0.12986806 -0.10420823
-0.18859059 0.23375012 0.14194366 -0.24939285 0.14795563 0.024778163 0.19052145 0.15247166

onnx::Conv_1127 f4 [8, 16, 1, 1]
00000000: 28d3 dc3c 9483 e6bd 716b 0fbe adf5 193d
00000010: 72ca a53d 85d2 b3bb 7e86 983d b4e7 ffbd
00000020: f4ec 24be 1728 c73d ff9b aebd 879e 4cbe
00000030: d64f 803c 9bdb c4bd 1156 09be 39d3 0fbe
00000040: 14a8 923d 6a43 56be 0906 41bd 79da d7bc
00000050: b005 e93d b189 273e 599b 4c3e a1f7 3a3e
00000060: 9c50 5bbe 019a 4d3e 2cf5 05be 23cd 533e
00000070: c107 233e e13e 0abe e274 ee3c 72f3 723e
00000080: 6229 44be 2282 54bd f5cf 63bc 411f 653e
00000090: aca0 dcbd 7eb0 123e b885 d0bd 253c 463e
000000a0: bc95 61be ec82 cebd 2a4b 0cbd ada8 f0bd
000000b0: 1e16 69be 6b2a 2d3e fcb5 04bd b29b 41be
000000c0: d05d 113b 8529 273e 552d 35bd ac7d a9bd
000000d0: 9423 6d3e b30f 47be 1040 623e d616 50be
000000e0: 0738 033e 2657 17bd fccd 683d edb2 34be
000000f0: bcd7 cd3a 9c02 dabd c5dd 01be 4f42 963b
00000100: f0b9 13bc 51ad 333e f517 04bd fde2 073e
00000110: d006 50be 9d96 0e3e 8fe0 14be c876 1fbe
00000120: b790 4dbe 45fb 0d3e b5ad 523e ffd1 583e
00000130: 7676 803c db26 343e e9e8 19be 74a6 1ebe
00000140: 1595 bf3d e4f1 123e 5561 3abe 9580 4bbd
00000150: 04a0 863c 28ff abbc 0a4d 3ebe dfe9 89bd
00000160: 137d 89bd 9a88 50be f9af d83b bae4 5bbe
00000170: 5166 403d bce8 84bd f345 573e 7bc7 57be
00000180: 0de1 1c3d 82bf 3d3c 82cd 8c3d ede7 633e
00000190: f92d 7dbe 5c81 6ebe a5b9 5fbe a4a9 b73d
000001a0: 57a1 ebbd ff62 453c bde4 9cbd e316 52be
000001b0: 2b32 69be ff19 5e3e 2e85 803d 8360 21bd
000001c0: dbf8 d0bc d8ca 933d afe7 c63c 7905 713e
000001d0: bbcc 6bbe f05c f3bd ccd6 31be 429e 3d3c
000001e0: a935 653e 7b8e 3abd fe2b 383e a343 c6bd
000001f0: 824f f93d efc1 0f3e fb4f d1bb 4669 7f3e
0.026956156 -0.11255565 -0.1400583 0.03758781 0.08095254 -0.0054877424 0.07447527 -0.12495366
-0.16106015 0.097244434 -0.08525848 -0.19982348 0.015663069 -0.09612199 -0.13411738 -0.14045419
0.071609646 -0.20924154 -0.047124896 -0.026349293 0.11378038 0.16361119 0.19981135 0.18258525
-0.21417469 0.20078279 -0.13081807 0.20683722 0.15920927 -0.13500549 0.029108468 0.2372568
-0.19156411 -0.051881917 -0.013904561 0.22375204 -0.10772833 0.14325139 -0.10181755 0.19358881
-0.22029775 -0.10083565 -0.03425137 -0.11750922 -0.22762343 0.16910712 -0.032400116 -0.1890705
0.002218116 0.16324432 -0.044232685 -0.08275923 0.23158103 -0.19439583 0.2209475 -0.20321211
0.12814341 -0.036948346 0.056837067 -0.1764638 0.0015704553 -0.10645029 -0.12682255 0.0045855413
-0.009016499 0.17546584 -0.03224941 0.13270183 -0.20315099 0.13924642 -0.14538787 -0.15572655
-0.20074736 0.13865383 0.20574076 0.21173857 0.015681487 0.17592947 -0.15030254 -0.15493184
0.09354607 0.14350086 -0.18201192 -0.049683172 0.016433723 -0.020995691 -0.18584076 -0.067340605
-0.06713309 -0.2036461 0.0066127745 -0.21473971 0.046972577 -0.06489703 0.21022777 -0.2107219
0.038300563 0.011581304 0.06875135 0.22256441 -0.24724568 -0.23291534 -0.21848162 0.08967903
-0.115053825 0.012047528 -0.07660816 -0.20516543 -0.22773044 0.21689604 0.06275402 -0.03939868
-0.025509289 0.07216424 0.024280397 0.23537244 -0.23027317 -0.11882961 -0.17367095 0.011573376
0.22383751 -0.045546036 0.17985532 -0.096808694 0.12173368 0.14038824 -0.0063877082 0.24942502

onnx::Conv_1128 f4 [8]
00000000: 13b5 4d3e fdf9 15be c599 013e eeca 793c
00000010: 0e58 fa3c a542 7dbe af5c 393e 5b09 6abd
0.20088606 -0.14646144 0.12656315 0.015246136 0.030559566 -0.24732454 0.18101762 -0.05713783

onnx::Conv_1130 f4 [16, 8, 1, 1]
00000000: 990c 693c 3fc0 b4be 0cd0 7a3e fe22 33be
00000010: dbda e23d 0ed6 a53e 2a5f 93be fe9b 8c3e
00000020: aec6 6abe 9ff9 a53e 4256 2e3e 8cd8 86be
00000030: 7051 da3c 5c61 4e3e 0c85 50be 3217 38bd
00000040: 1709 a0be 92ee 113e 6105 633e 7ba5 acbe
00000050: d86c b23e 4d25 f33d 79dd 083e 1b46 e03d
00000060: 5647 db3c d9ba 26be 0e73 83be b83a 03be
00000070: b855 9ebc 9f2c e5bd 21bc 833e 5264 91bd
00000080: 2681 2cbe c9c9 0b3c ea89 90be 3cd7 e1bc
00000090: 473d acbe 2c2e 68bd 1798 7e3e 6795 a0be
000000a0: 97d9 3a3d b9f3 bbbc c97d 9b3e 575f ac3e
000000b0: 64c0 b1bd 8c6c 8dbd dd95 adbe b16f 8c3e
000000c0: 6826 183e d354 71be 28db 213e 16e8 ab3e
000000d0: ce0d 963d 2300 383e 4ff8 543d dd3b bd3d
000000e0: 33f5 823d 75f9 f3bd f1fd 1fbd 81be 31be
000000f0: cb5d e43d 879a 923e 7c7e 69be d6b3 553e
00000100: c026 923e 5fa4 2ebe 66ae 5e3e b6d4 17bd
00000110: daeb 38bc 9986 01be 9ce7 973e 7c6c 04be
00000120: 4132 a43e db06 3bbe 50a9 033d b075 243e
00000130: d029 873e 59bc 233e 4c87 63be 6e73 c5bd
00000140: ddac 153d 131f 2cbe da1d b13e 36c4 61be
00000150: c0ff 87be 8d1a 753e cda6 84be 8f86 7cbc
00000160: bab0 81bd 8427 923e 2e49 45be 30da 89be
00000170: 213c 9b3d 9df5 b9bd 7a6b 35be 40ee 98bd
00000180: 2124 913d f25f b0bd c23b 793e b7d2 443d
00000190: c535 a83e f3cc 70bd 43e7 c5bd 73c5 a73e
000001a0: b8ea ef3d afc4 79be e0fa 403e 582a 0a3e
000001b0: ebd7 acbe 9049 c1bd 3a93 8fbe 1497 29bc
000001c0: ba0e 30be 1a3b 86be 7a32 59be aab0 43be
000001d0: 8e7b 82bb 2bfa 93bd ac3b 70be 80b9 fe3c
000001e0: f085 213e 3718 80be 13e2 2cbe 037d b1be
000001f0: 0d1d 56bd e858 013e 3ca5 3bbd c4b6 1dbe
0.014224195 -0.35302922 0.24493426 -0.17493817 0.110768996 0.32389873 -0.28783542 0.27462763
-0.22927353 0.32417008 0.17025092 -0.26337087 0.02665016 0.20154327 -0.20363253 -0.044943996
-0.31256935 0.14251164 0.2217002 -0.33720002 0.34848666 0.11872349 0.13365735 0.109508716
0.026767414 -0.16282214 -0.25673717 -0.12815368 -0.019327983 -0.111901514 0.25729468 -0.07099213
-0.16846141 0.008531996 -0.2823022 -0.027568452 -0.336405 -0.056684658 0.24862705 -0.31363985
0.045617666 -0.022943364 0.30369404 0.3366649 -0.08679274 -0.06905469 -0.339034 0.27428964
0.14858401 -0.23567514 0.15806258 0.33575505 0.07326852 0.17968802 0.051994618 0.09239934
0.06394424 -0.119128145 -0.039060537 -0.17357828 0.11150702 0.2863352 -0.22802156 0.20869383
0.2854519 -0.1705489 0.21746215 -0.03706809 -0.0112867 -0.12649001 0.2966889 -0.12932009
0.3206959 -0.18264334 0.03214389 0.16060519 0.26399088 0.15989818 -0.2221958 -0.09641157
0.03654181 -0.16808729 0.34593087 -0.22047505 -0.2656231 0.2393591 -0.2590851 -0.015412941
-0.06332536 0.28545773 -0.19266197 -0.26924276 0.07579828 -0.0908005 -0.1771678 -0.074673176
0.07086969 -0.0861205 0.24339202 0.048052516 0.32853523 -0.058789205 -0.0966325 0.3276783
0.11714691 -0.24391435 0.18845701 0.13492715 -0.33758482 -0.09437859 -0.28042012 -0.010350961
-0.17193118 -0.26216966 -0.21210662 -0.1911036 -0.003982014 -0.0722545 -0.23460263 0.031094313
0.1577375 -0.25018474 -0.16883115 -0.3466569 -0.0522738 0.12631571 -0.045811877 -0.15401751

onnx::Conv_1131 f4 [16]
00000000: a0a4 423e e02f b4be 9fb3 fb3d a6ad a5be
00000010: 48ec 6dbc 0a26 b13e 4d34 953c 559e b23c
00000020: c828 9dbd 1acf d7bd 1e12 0ebe 619b 853c
00000030: 5ddf 97ba a0ef 96be 6622 b3be 85ab 93be
0.19008112 -0.35192776 0.122901194 -0.32359046 -0.014521666 0.34599334 0.018213416 0.021804014
-0.07673794 -0.10537548 -0.13874099 0.016309442 -0.0011586953 -0.29479694 -0.3498718 -0.28841797

onnx::Conv_1133 f4 [16, 1, 3, 3]
00000000: 81bf 263e 6e3e f93d 53b3 893d d64f 13be
00000010: 6a7e 45bb 2426 d7bc df9c 1fbe 08f4 2b3d
00000020: 446e 593d 469b a1bd 1c03 8cbe 642a 9cbe
00000030: f6b2 533e 1747 a73e 112a 703e 2344 083e
00000040: 0b95 e5bd 0351 3b3e 661d 3b3e a9d8 953e
00000050: 8819 7dbe 4496 1f3e ddbf de3d 8680 89be
00000060: 2ce8 9ebd 29e7 20be 8f55 7fbe f459 67be
00000070: 21b9 823e c4a5 a63e c3c9 b8bb 71fe f0bd
00000080: b20c 6d3c 6d4b 8b3e 77b2 ad3d 0476 803e
00000090: d26c 963e 3a9f 95be 196b 19bd b739 ddbc
000000a0: 9e12 a53e eabd 68bd 1a72 9dbe 3128 9c3e
000000b0: ee3f 2abe 0ffc 403e 39c4 813e 6764 acbd
000000c0: 263b 443e de39 f9bd 45cd a63e 66a8 a9be
000000d0: f80b 1abe 2b93 9a3e 3f5c 67bd 49de 0f3e
000000e0: edfb 4bbe 95ae 993e 1901 32be 4dd5 3d3e
000000f0: aeae 523e ea2c 163e a08e a63e ae9b f8bc
00000100: 4cb8 92be a0dd 833d f70c 8ebd a878 8e3e
00000110: 0103 593e 1d9c 55be 746b 863d 5842 5abe
00000120: dc18 a53e 5a48 2ebe 6600 803d a411 7fbe
00000130: a734 c13d 74f5 79be 478a 8a3e d0ef 10bb
00000140: f416 e83d 5729 843e d991 19be 19a6 a8bd
00000150: d413 863e a344 873e 255f 25be bf44 953e
00000160: 7453 37be 1ffc 7fbe c5c1 a5bd a388 7dbe
00000170: b4af 283e 4594 a5be 25f0 833e 7bb4 a23e
00000180: 54f5 70be 5119 533d 15e6 c63b dfc9 463e
00000190: 579a 8e3d edda a33e ccad 1e3d 7eb3 fabd
000001a0: 86b4 53bd 0201 a1be 6273 dd3d 225c ddbd
000001b0: 07b8 763e 5bf2 41be 99ee 8bbe 4623 533d
000001c0: f8db fdbd 5a19 6d3e 7e15 44be 958e a7be
000001d0: ba09 383d 1f8f 95be ba12 e9bd 5c94 26be
000001e0: 065c c23d 30ca 1a3e 879b 04be 4fc0 a7bd
000001f0: ee2d 933e 0d54 ad3d 5bd6 91bd b948 8abe
00000200: 2109 173e 6049 b3bd 45b6 4cbe 869d 12bd
00000210: c76b 903d c54d f83d 88d4 033e 526a ffbd
00000220: e510 c7bd bf88 5fbe 8f97 16bd 7f08 a2be
00000230: 79dc 00be 7b63 20be 89f0 a63d 8f7c 14be
0.1628399 0.12170111 0.067236565 -0.14385924 -0.0030135163 -0.026263304 -0.15587185 0.041980773
0.053083673 -0.07890944 -0.27346122 -0.3050109 0.20673737 0.32671425 0.23453547 0.13307242
-0.11210068 0.18292622 0.18272933 0.2926686 -0.2471677 0.15584666 0.10876439 -0.26855868
-0.07759127 -0.1571318 -0.24934982 -0.22592908 0.25531867 0.32548344 -0.0056392862 -0.11767281
0.014468359 0.27205983 0.08481305 0.2509004 0.29379898 -0.29223043 -0.037455652 -0.02700506
0.32240766 -0.05682174 -0.30751115 0.30499414 -0.1662595 0.18846153 0.25345019 -0.08417588
0.19163188 -0.121692404 0.32578483 -0.3313629 -0.15043628 0.30190405 -0.056484457 0.14049639
-0.19920321 0.30016008 -0.17383231 0.18538399 0.20574448 0.14665571 0.3253069 -0.030347671
-0.28656232 0.06438756 -0.069360666 0.27826428 0.21192552 -0.20860334 0.06563464 -0.2131437
0.3224553 -0.17019787 0.06250076 -0.24909073 0.09433871 -0.24410039 0.27058622 -0.0022115596
0.11332503 0.2581279 -0.14997043 -0.082348056 0.26187003 0.26419553 -0.16149576 0.29154012
-0.17902929 -0.2499852 -0.08093599 -0.24759154 0.16473275 -0.32339683 0.25769153 0.3177832
-0.23531085 0.051537815 0.0060699084 0.19412945 0.06963032 0.32002965 0.038739964 -0.12241267
-0.051685832 -0.3144608 0.10813023 -0.108085886 0.24093638 -0.18940108 -0.27330473 0.05154731
-0.12395471 0.23154202 -0.19148824 -0.3272597 0.04493115 -0.29210755 -0.11380525 -0.16267532
0.09490208 0.15116191 -0.12949954 -0.08190977 0.2874598 0.08463297 -0.07120963 -0.27008608
0.14749576 -0.087542295 -0.19991405 -0.035794757 0.07051807 0.12124208 0.12874043 -0.12471451
-0.09720019 -0.21829508 -0.03676563 -0.31647107 -0.12584104 -0.15662949 0.08151347 -0.1450064

onnx::Conv_1134 f4 [16]
00000000: f747 933e 8e93 a1be 751a 47bd caed d5bd
00000010: 9010 7c3e 0290 ad3d 54cf 37be 78bb 9cbd
00000020: 028d a1be dde2 24be a8f7 9b3d d9e4 0fbe
00000030: d02d 3ebe a987 26bd 7d34 803e bd35 993e
0.28765842 -0.31557888 -0.048609216 -0.10445745 0.24615693 0.08474733 -0.17950183 -0.07652944
-0.31552893 -0.16102166 0.07615596 -0.14052142 -0.18572164 -0.04065672 0.25040045 0.29923812

onnx::Conv_1136 f4 [8, 16, 1, 1]
00000000: 3688 6c3e d45f 493e ef0d f73d 8c6d 50be
00000010: 520a 1f3e e5de ccbd 1d9c 09be 5193 713e
00000020: 6352 3abd 5924 263e 9100 cc3d ecca 9e3d
00000030: 7a24 ca3d e675 303c 5620 4abe dce8 cf3c
00000040: 0b95 d3bc 02ec bc3d afa5 7bbe aa45 0cbd
00000050: 38b2 b6bd 4e31 973c 37dd 883d 2943 f2bd
00000060: bc04 dabd 8062 abbd 354f 653b 9f84 28be
00000070: b3f2 6a3b dded 40be 36f6 5abe 1bd1 22bd
00000080: 4ae0 d3bc e80c 913d 7b12 533e c1e3 833d
00000090: 8352 643e 580d ab3d 30f7 41be 5d03 9abd
000000a0: 8b1d 21bd c710 343e a388 eb3c 2375 02be
000000b0: db9b 32be 9134 0e3e 8551 203e 9d46 633d
000000c0: 88c6 42be df4c b93d 70db 72bc e0c8 543e
000000d0: 1a69 6dbe 373a 953d ea5b 1ebe 6b7d 8a3d
000000e0: 1dae a6bd 4c81 85bd 384f 0c3e c534 b5bd
000000f0: 4ebe 5bbe 1ef7 803d 315e 15be 846d 6c3e
00000100: 32f8 8cbc e7bb 5dbe 7da8 32be 8f5b c53d
00000110: 7c8a 31be 23cf 89bc d6bd 183d 7a89 613e
00000120: 3504 9b3d 0437 e73d 0e42 183e e786 2e3d
00000130: 9165 f13d d23e 363e 06d1 b1bd bb9a 14be
00000140: 54db 4e3d 21ee 4c3e ccea 29be c3d5 5fbe
00000150: 87ac c63d 16ca a5bd b325 08bd ecd0 1ebe
00000160: 0007 6fbe 6a06 6ebd 97ab a0bd 9a17 a3bd
00000170: d349 4c3e 3d9a 013e 6c5c 4fbd c72f 1a3e
00000180: 96c3 d5bd 3d8d 093e 8827 2b3d afea 023e
00000190: 72ed 30be dcb6 183e b050 49be 1bd5 463e
000001a0: 016b 593d ed9f 8e3d 1359 bbbd 9689 7f3e
000001b0: 1352 693e b240 423e 48d9 003e d42c 92bd
000001c0: 67af 58be b342 7ebe 50a8 553e cf0c 783e
000001d0: a0f8 3cbe de28 44be 8cb4 563e ab68 aebd
000001e0: 55f8 323e 2930 573e 1dba 273e 9429 9ebd
000001f0: 99ae 463e 2547 263e 4f00 c73d 8ce3 9fbc
0.23098835 0.19665462 0.120632045 -0.20354289 0.1553128 -0.10003451 -0.13438459 0.23591353
-0.045488726 0.16224803 0.099610455 0.07753548 0.098702386 0.010770297 -0.19738898 0.02537959
-0.025827905 0.092247024 -0.24574922 -0.034246124 -0.08920711 0.018456127 0.066828184 -0.11829216
-0.10645434 -0.08368397 0.0034989838 -0.16456841 0.0035850226 -0.18840738 -0.21382985 -0.0397502
-0.025863785 0.0708254 0.20612518 0.06439925 0.222971 0.083521545 -0.18941951 -0.07520173
-0.039334815 0.17584525 0.028751677 -0.12739997 -0.17442267 0.1388724 0.15656097 0.055487264
-0.19021046 0.09047865 -0.014822826 0.20779753 -0.23184624 0.07286494 -0.1546475 0.06762203
-0.08138678 -0.06518802 0.13702095 -0.088479556 -0.21459314 0.06297134 -0.14586712 0.23088652
-0.017208192 -0.2165371 -0.17447086 0.09636604 -0.17337984 -0.016822403 0.037290417 0.220251
0.07569162 0.1128979 0.14868948 0.04260912 0.117869504 0.17797402 -0.08682446 -0.1451215
0.050502136 0.20012714 -0.16593474 -0.21858887 0.09700876 -0.080951855 -0.033239078 -0.15509385
-0.23342514 -0.058111586 -0.07845228 -0.07963486 0.19950037 0.12656493 -0.05062525 0.15057288
-0.10437696 0.13432784 0.041785747 0.12784837 -0.17278078 0.14913505 -0.19659686 0.19417231
0.053080563 0.06964097 -0.09147849 0.24954829 0.22785215 0.18969992 0.12582886 -0.071374565
-0.2116066 -0.24830131 0.20864987 0.24223636 -0.18454218 -0.19156215 0.2096731 -0.085160576
0.17477544 0.21014465 0.1637959 -0.07722774 0.19402541 0.16238077 0.09716856 -0.019517682

onnx::Conv_1137 f4 [8]
00000000: a8ee 4d3e 738d 52be a49a a93d cc67 67bd
00000010: 6d13 c1bd cf2b 76bc 228b a53d 3020 363e
0.20110571 -0.20561771 0.082814485 -0.056495473 -0.09427533 -0.015025093 0.08083178 0.17785716

onnx::Conv_1139 f4 [16, 8, 1, 1]
00000000: 0a90 2c3e 3f10 473e aba5 81be 4036 4e3e
00000010: b973 18bd d525 36bd 9c83 acbd 57e3 8fbe
00000020: 5a65 883e be4b eebc 427e c83d 5646 5fbd
00000030: a431 893d 3fd8 cabc 91d6 0c3e 6bcf 62be
00000040: d1b8 b0bd 9f97 5dbe 3e02 5a3d 44df 2dbe
00000050: 8d58 afbe 5fc1 b43e 4277 89be 0bb5 ca3d
00000060: 2a5e 66be dd3b a1be 76d6 d7ba b37a 6a3e
00000070: 70b3 073e 6752 b4be 0db7 a03e f095 38bd
00000080: 1124 a23e 9c3b 3dbe c08d 4d3e 70ac 4c3d
00000090: 4584 1a3e 5125 97be 2530 883e a394 a1be
000000a0: 7122 e73d 2a0f 5b3d a4d5 173e d18e b6bd
000000b0: d7b4 2d3e 7d38 6dbe 1323 1ebb 6db8 8b3e
000000c0: 1490 e53d e00e 44be 31ce 39be dcb4 6a3e
000000d0: c099 1cbc bcca be3d 0887 81be f8d4 433e
000000e0: afd5 313e 13ad 77be 478b 90be 92bd 953c
000000f0: 6ce0 76be 89f3 a93e e64c 023e 8606 ab3e
00000100: d0fd 4d3d 3b6e 3f3e 5a03 763e c580 b2be
00000110: 37c5 06be 24e4 7f3e ab42 a2bd d4bf 0d3c
00000120: 2ad0 1abe 50ad 32bd 8dfb 873e c241 8b3e
00000130: 1619 483e 417c 0c3e 7753 af3e 1d0f d5bb
00000140: 833c 86bc c831 e63d 56ed e7bc 69db 9a3d
00000150: f860 79be 4959 383e 69ea 403e e970 88bd
00000160: e0e5 093e 9e2f 373c e956 443e 3913 edbd
00000170: c434 663e c8aa ee3d 797c 1d3e a749 93be
00000180: 21d7 b03e 44d4 8a3d dea6 a0be 3957 0a3e
00000190: fdfa aa3e 5413 873e cdd4 653e 687f a93e
000001a0: 9a5e afbc 1909 b4be d434 94be da68 55be
000001b0: aedc 99be 1f50 81bd c5f5 8b3e ca52 583e
000001c0: 3b11 8a3e 087c 8ebd cce2 053d e77d 89be
000001d0: 0720 1abe a4c0 953d 3385 8b3e 54a5 afbe
000001e0: 625c 8cbe 6240 44be b1d9 5dbe ce04 323e
000001f0: e66b cbbd 99af aabe a95e 323e f4ed 643e
0.16851822 0.19439791 -0.25321707 0.20137882 -0.037219737 -0.044469673 -0.0842354 -0.28103134
0.26639825 -0.029088851 0.09789707 -0.054510437 0.06698921 -0.024761317 0.13753726 -0.22149436
-0.08629001 -0.2163987 0.053224795 -0.169797 -0.34247246 0.3530378 -0.268488 0.098978125
-0.22496858 -0.31490985 -0.0016467113 0.22898369 0.13252044 -0.35219118 0.31389657 -0.045064867
0.3166814 -0.1847977 0.20073605 0.049969137 0.1508952 -0.29520658 0.2659923 -0.31558713
0.11285866 0.05348126 0.14827591 -0.08913959 0.16963516 -0.2316608 -0.0024129793 0.27289143
0.11209121 -0.191463 -0.18145062 0.22920555 -0.009558141 0.09316012 -0.25298333 0.1912421
0.1736667 -0.24187116 -0.2823126 0.01827887 -0.24109048 0.33193615 0.12724647 0.33403414
0.050290883 0.18694393 0.24024716 -0.34863868 -0.13161169 0.24989372 -0.07922872 0.008651692
-0.15118471 -0.043622315 0.26559106 0.27198607 0.1954082 0.13719274 0.34243366 -0.006502046
-0.016386276 0.11239964 -0.028311413 0.075613804 -0.24353397 0.1800281 0.1883942 -0.06662161
0.13466597 0.011180786 0.19173779 -0.11575932 0.22481066 0.11653668 0.15379514 -0.2876713
0.3453913 0.06778768 -0.3137731 0.13509835 0.33394614 0.26381934 0.22444458 0.33105016
-0.021407414 -0.3516319 -0.28946555 -0.20840779 -0.30051178 -0.0631411 0.27335945 0.21125332
0.2696627 -0.06957251 0.032686993 -0.26853868 -0.1505128 0.07312134 0.2725006 -0.34305823
-0.27414232 -0.19165185 -0.21665074 0.17384645 -0.09932689 -0.33337095 0.17418922 0.22356397

onnx::Conv_1140 f4 [16]
00000000: 4f60 24be 568c 15bc b72d cbbc 3ba7 b1be
00000010: cd63 013e 6325 303e 6d59 353e d8f6 2bbe
00000020: e8a3 02bd 1bb5 a0be 8880 ab3e c684 783e
00000030: 9a0f 203e 7ef7 14bc c249 fb3d a696 0cbe
-0.16052364 -0.009127697 -0.024802072 -0.346979 0.12635727 0.17201762 0.17709894 -0.16793382
-0.031894594 -0.31388173 0.334965 0.24269399 0.15630952 -0.00909221 0.122699276 -0.13729343

onnx::Conv_1142 f4 [16, 1, 3, 3]
00000000: bd4f cb3a cd80 7bbd 6b52 c3bb 2967 8bbe
00000010: 3a95 77bd 3959 a33e 2c51 aa3e cfef 753e
00000020: 3d29 ae3d 4c12 993e a10e 8fbd 2735 103e
00000030: 54f3 6fbe 17ce 1f3e 03a0 533e cef4 9c3e
00000040: 6688 f2bd 804e 2abe e1f0 383e c459 a43e
00000050: d255 ac3d 498d 9c3e b538 a4bc fc0c cf3c
00000060: c0fc 90be b03f aa3e 3c66 98be 0bd1 a0be
00000070: 7cd7 0ebd dbaf e33d 460a 0a3e d4cb 66be
00000080: dabd b5bc fc69 8f3c f2ed 6cbe a031 8c3e
00000090: 7995 2f3e 62da 84be 458c d53d 6ddc dd3d
000000a0: f762 ae3d 3ff3 d63d d069 e4bd 504e 443e
000000b0: 47b9 8ebd c1dd f03d 4799 efbc 75da 6ebe
000000c0: ebab 5abe bc36 1ebe a2f1 90be e765 2d3d
000000d0: 08be 853e 5e6c e93c 617c 8cbe adbe 1b3d
000000e0: 69f1 69be 1604 a3bd 499b a53e 5fb0 15be
000000f0: f438 9a3e 64c5 06be 2e92 513e 051e 82bd
00000100: 2c41 593e b4e0 40be c66e 513d f6fa 22be
00000110: 4fb9 943e d95c 48be df2c 2d3e 1b9d 5c3e
00000120: ccba 97be a828 553e 5566 c5bc cde9 443e
00000130: 7dc9 823e 774a 88be 0c7c 583e 38c7 bd3d
00000140: 1edf 94be f839 3cbe 3af0 253e 576d d03d
00000150: 7b69 723e 07c7 acbc 95f3 76be f38d 04be
00000160: cdd5 1abd 78ef 5abd ebee 6a3e a84d 8d3d
00000170: 6550 a8be 61bd 20be 5678 b1bd 46de 803e
00000180: 97d8 1fbd 1966 313e 98e8 7d3e a872 6ebd
00000190: 5b6b f4bd dd46 eebc 30f9 92bd 25ea 153e
000001a0: 6015 83bd 887c 6e3c 73c4 103e 26ea a03e
000001b0: b520 543e 46b1 53bd 3c61 d03c e19e 52be
000001c0: 79d8 8ebe 3dc1 893e 4d89 8b3e 43ee 513e
000001d0: 870c 70bc 9dfd a73e ecac 4f3e ebbb 293e
000001e0: 4be6 10be 2cb6 403e 1342 9bbd 3871 4d3e
000001f0: d3e3 6abe 16c1 413c 69ce 49bd 7ea9 60be
00000200: 668a 96be 34b0 98bd 2895 01be 7b59 823e
00000210: 573e efbd db9f 833d 4ddf 8c3e d5ed b33d
00000220: 06a9 a43e 0227 503e b154 4a3e 9c4c 6fbd
00000230: 7e66 2a3d 603b 87be b50c 943e ed31 af3d
0.0015511435 -0.06140213 -0.0059607527 -0.27227142 -0.060445048 0.3190401 0.33265054 0.24017261
0.08503959 0.29896772 -0.06985212 0.14082776 -0.23432666 0.15605961 0.20666508 0.3065552
-0.11842422 -0.16631508 0.18060638 0.32099736 0.084148064 0.30576542 -0.020046571 0.025274746
-0.28317833 0.33251715 -0.297655 -0.31409487 -0.03487347 0.11117526 0.13480482 -0.22538692
-0.022185255 0.017506592 -0.23137644 0.2738161 0.17146863 -0.25947863 0.10427145 0.108330585
0.0851497 0.10495614 -0.11152995 0.19170499 -0.069689326 0.11761046 -0.029247893 -0.23325522
-0.21354644 -0.15450567 -0.2830935 0.04233351 0.26121545 0.028494056 -0.27438644 0.03802364
-0.22845997 -0.07959764 0.32345036 -0.14618061 0.30121577 -0.13161236 0.2046592 -0.06353382
0.21216267 -0.18835717 0.051131032 -0.15916047 0.2904763 -0.19566669 0.16911648 0.21544306
-0.29634702 0.2081629 -0.024096647 0.19229813 0.25544348 -0.26619312 0.2114107 0.092665136
-0.29076475 -0.18381488 0.1620492 0.10177105 0.2367305 -0.021090997 -0.24116357 -0.12944774
-0.037801553 -0.05345103 0.22942702 0.068995774 -0.32873836 -0.15697242 -0.086655304 0.2516958
-0.039024916 0.17324103 0.24795759 -0.058214813 -0.11934539 -0.029086525 -0.07176435 0.146401
-0.06400561 0.014556058 0.1413744 0.3142864 0.20715602 -0.051682733 0.02543699 -0.2056842
-0.2789953 0.26905242 0.2725319 0.20501046 -0.014651424 0.3281068 0.20280808 0.16575591
-0.1415035 0.18819493 -0.07580962 0.20062721 -0.2293847 0.01182582 -0.049269114 -0.21939656
-0.29402465 -0.07455483 -0.12654555 0.25458893 -0.11681812 0.064269744 0.27514115 0.08785597
0.32160205 0.2032738 0.1975887 -0.05842267 0.04160165 -0.26412487 0.28915945 0.085544445

onnx::Conv_1143 f4 [16]
00000000: 3d12 8b3e 4b39 843e b7ee 763e 8d92 953e
00000010: c02e 7dbe 7e15 53be bb19 a8be a0e1 a8be
00000020: d044 aabe 93f2 a13e 25fb 7c3e a79c 96be
00000030: d489 e7bd ca34 053d 186b dbbd 1f4b 663e
0.27162352 0.2582496 0.241145 0.29213372 -0.24724865 -0.20613667 -0.3283213 -0.32984638
-0.33255625 0.31630382 0.24705179 -0.2941639 -0.113055855 0.032521047 -0.10713786 0.22489594

onnx::Conv_1145 f4 [8, 16, 1, 1]
00000000: 5c1b 19be 68c7 91bd 96c8 543e 6b15 f83d
00000010: f0f4 f33d 0383 3ebe a55f 4b3d 0dc3 9a3c
00000020: ef17 763e 70c3 123c d239 6ebd ae77 423e
00000030: 30e3 373e ca09 973d a468 73be 0bed 70be
00000040: 86df 0a3e ee7b 78bd 7b78 d3bb 8b1a 7ebe
00000050: 4ba1 963d b00e 74be 3753 453e fb40 a0bc
00000060: d6d5 f9bd 9807 5abd f1dd 0e3e a9b4 6fbd
00000070: 8afd 0abd 4d17 fc3d db00 72be 7de5 213e
00000080: b1a1 bebc 8ae8 0a3e 71d2 bfbd 370f 153d
00000090: 1fa0 76be 6ee4 d43d ca78 1dbe 6093 793e
000000a0: 072d 77bd 9190 0ebe 3b48 02be ba02 553e
000000b0: 65ec 3abe 9ea0 31bd 16c4 803d efac de3d
000000c0: baff 7abe 7fbe 94bd 55de 033c a5c3 e53d
000000d0: 12d6 bcbd b4a1 623e 8b6b 4dbe 0132 33be
000000e0: 1f4a 5dbe 510a 5fbe 8acb 053e 8e61 123e
000000f0: 400b 2b3e 9752 a2bd 3017 6f3e 45d7 4a3e
00000100: 0330 3b3e 9374 77be 0679 f9bd fc23 313e
00000110: cf04 eabd cd4a 4bbd 808f 3bbe cd5e cd3c
00000120: b927 3fbe 38cf 3d3e 784a 733d 0eb7 48be
00000130: d39b 513e d743 2cbd 6056 dabd cf9d 143e
00000140: 0beb 50bd a84c 2a3c 32ff 5abe f38e 01be
00000150: 6fa6 5ebe b1ca 71bb 8d0a a9bd b52a a7bd
00000160: a514 21be 8221 8cbd 0582 fc3d bc6c 683d
00000170: 14e6 04bc 6d24 cdbc b932 58bc a39c 7d3e
00000180: a15f 763e 099c a8bb 0966 5d3e c3e0 2e3e
00000190: 9b14 153e a515 823c 1b58 533d 7cb6 85bd
000001a0: 0028 d0bd e6a6 973d 59d7 d93d 6a5f 8cbd
000001b0: 5abf 0abe 52b9 49be eaa2 56bd b218 623e
000001c0: 26c3 3bbe 7a82 253e 4e86 d43d 59db 71be
000001d0: b9b6 273e 51a6 10bb b440 66be d7ed 933d
000001e0: cc63 56be 9655 13be 13a8 39be 5719 04be
000001f0: 8ad9 7ebe bc90 4e3e a946 82bd c639 e23d
-0.14951843 -0.07118112 0.20779642 0.1211346 0.119119525 -0.18604665 0.04965176 0.018891836
0.24032567 0.008957729 -0.05816061 0.18990967 0.17957759 0.07374914 -0.23770386 -0.23527925
0.1356183 -0.060665064 -0.0064535714 -0.24814813 0.07354983 -0.23833728 0.19270025 -0.019562235
-0.12198989 -0.0532299 0.13951851 -0.0585219 -0.0339332 0.12309132 -0.23633139 0.15810199
-0.02327046 0.13565269 -0.093663104 0.036391463 -0.24084519 0.10395132 -0.15378109 0.24372625
-0.060345676 -0.13922335 -0.12722866 0.20801821 -0.1825424 -0.043366067 0.062874004 0.10872828
-0.24511614 -0.07262897 0.008048614 0.11218957 -0.09220518 0.22131997 -0.20060556 -0.17499544
-0.21610306 -0.21781279 0.13065925 0.14295027 0.1670351 -0.07925909 0.23348689 0.19808681
0.18280034 -0.24165563 -0.121812865 0.17298883 -0.114266984 -0.049631882 -0.1831646 0.025069619
-0.18667497 0.18536079 0.05939719 -0.1960108 0.20469598 -0.042056885 -0.10661006 0.14513324
-0.051005404 0.010394253 -0.21386412 -0.12652187 -0.21743177 -0.0036894495 -0.082539655 -0.081624426
-0.15730532 -0.068423286 0.12329487 0.056744322 -0.0081114955 -0.025041783 -0.013195687 0.24766783
0.24059917 -0.005145554 0.21620955 0.17077927 0.14558642 0.015879462 0.051597696 -0.06528947
-0.101638794 0.0740488 0.106367774 -0.06854136 -0.13549557 -0.196996 -0.05240146 0.22079733
-0.18336162 0.16163054 0.10377179 -0.2361883 0.16378297 -0.0022071789 -0.2248562 0.07223099
-0.20936507 -0.14388117 -0.18130521 -0.12900291 -0.24887672 0.201724 -0.063611336 0.11046176

onnx::Conv_1146 f4 [8]
00000000: e09d 37be 45e1 573e 3876 dcbd cba3 203e
00000010: 7950 283e bd87 cdbd b2fd e23d 329d 243d
-0.17931318 0.21082027 -0.10764736 0.15687482 0.16436948 -0.10035656 0.11083545 0.040188976
