gtcrn_micro/models/onnx/gtcrn_micro.onnx (onnx, 217757 bytes, 100 tensors)

onnx::MatMul_1478 f4 [192, 64]
0	0x3f800000	1.0
1	0x2b8cbccc	1e-12
2	0x00000000	0.0
3	0x00000000	0.0
4	0x00000000	0.0
5	0x00000000	0.0
6	0x00000000	0.0
7	0x00000000	0.0
8	0x00000000	0.0
9	0x00000000	0.0
10	0x00000000	0.0
11	0x00000000	0.0
12	0x00000000	0.0
13	0x00000000	0.0
14	0x00000000	0.0
15	0x00000000	0.0
16	0x00000000	0.0
17	0x00000000	0.0
18	0x00000000	0.0
19	0x00000000	0.0
20	0x00000000	0.0
21	0x00000000	0.0
22	0x00000000	0.0
23	0x00000000	0.0
24	0x00000000	0.0
25	0x00000000	0.0
26	0x00000000	0.0
27	0x00000000	0.0
28	0x00000000	0.0
29	0x00000000	0.0
30	0x00000000	0.0
31	0x00000000	0.0
32	0x00000000	0.0
33	0x00000000	0.0
34	0x00000000	0.0
35	0x00000000	0.0
36	0x00000000	0.0
37	0x00000000	0.0
38	0x00000000	0.0
39	0x00000000	0.0
40	0x00000000	0.0
41	0x00000000	0.0
42	0x00000000	0.0
43	0x00000000	0.0
44	0x00000000	0.0
45	0x00000000	0.0
46	0x00000000	0.0
47	0x00000000	0.0
48	0x00000000	0.0
49	0x00000000	0.0
50	0x00000000	0.0
51	0x00000000	0.0
52	0x00000000	0.0
53	0x00000000	0.0
54	0x00000000	0.0
55	0x00000000	0.0
56	0x00000000	0.0
57	0x00000000	0.0
58	0x00000000	0.0
59	0x00000000	0.0
60	0x00000000	0.0
61	0x00000000	0.0
62	0x00000000	0.0
63	0x00000000	0.0
64	0x00000000	0.0
65	0x3f800000	1.0
66	0x2b0cbccc	5e-13
67	0x00000000	0.0
68	0x00000000	0.0
69	0x00000000	0.0
70	0x00000000	0.0
71	0x00000000	0.0
72	0x00000000	0.0
73	0x00000000	0.0
74	0x00000000	0.0
75	0x00000000	0.0
76	0x00000000	0.0
77	0x00000000	0.0
78	0x00000000	0.0
79	0x00000000	0.0
80	0x00000000	0.0
81	0x00000000	0.0
82	0x00000000	0.0
83	0x00000000	0.0
84	0x00000000	0.0
85	0x00000000	0.0
86	0x00000000	0.0
87	0x00000000	0.0
88	0x00000000	0.0
89	0x00000000	0.0
90	0x00000000	0.0
91	0x00000000	0.0
92	0x00000000	0.0
93	0x00000000	0.0
94	0x00000000	0.0
95	0x00000000	0.0
96	0x00000000	0.0
97	0x00000000	0.0
98	0x00000000	0.0
99	0x00000000	0.0
100	0x00000000	0.0
101	0x00000000	0.0
102	0x00000000	0.0
103	0x00000000	0.0
104	0x00000000	0.0
105	0x00000000	0.0
106	0x00000000	0.0
107	0x00000000	0.0
108	0x00000000	0.0
109	0x00000000	0.0
110	0x00000000	0.0
111	0x00000000	0.0
112	0x00000000	0.0
113	0x00000000	0.0
114	0x00000000	0.0
115	0x00000000	0.0
116	0x00000000	0.0
117	0x00000000	0.0
118	0x00000000	0.0
119	0x00000000	0.0
120	0x00000000	0.0
121	0x00000000	0.0
122	0x00000000	0.0
123	0x00000000	0.0
124	0x00000000	0.0
125	0x00000000	0.0
126	0x00000000	0.0
127	0x00000000	0.0
128	0x00000000	0.0
129	0x3f000000	0.5
130	0x3f000000	0.5
131	0x00000000	0.0
132	0x00000000	0.0
133	0x00000000	0.0
134	0x00000000	0.0
135	0x00000000	0.0
136	0x00000000	0.0
137	0x00000000	0.0
138	0x00000000	0.0
139	0x00000000	0.0
140	0x00000000	0.0
141	0x00000000	0.0
142	0x00000000	0.0
143	0x00000000	0.0
144	0x00000000	0.0
145	0x00000000	0.0
146	0x00000000	0.0
147	0x00000000	0.0
148	0x00000000	0.0
149	0x00000000	0.0
150	0x00000000	0.0
151	0x00000000	0.0
152	0x00000000	0.0
153	0x00000000	0.0
154	0x00000000	0.0
155	0x00000000	0.0
156	0x00000000	0.0
157	0x00000000	0.0
158	0x00000000	0.0
159	0x00000000	0.0
160	0x00000000	0.0
161	0x00000000	0.0
162	0x00000000	0.0
163	0x00000000	0.0
164	0x00000000	0.0
165	0x00000000	0.0
166	0x00000000	0.0
167	0x00000000	0.0
168	0x00000000	0.0
169	0x00000000	0.0
170	0x00000000	0.0
171	0x00000000	0.0
172	0x00000000	0.0
173	0x00000000	0.0
174	0x00000000	0.0
175	0x00000000	0.0
176	0x00000000	0.0
177	0x00000000	0.0
178	0x00000000	0.0
179	0x00000000	0.0
180	0x00000000	0.0
181	0x00000000	0.0
182	0x00000000	0.0
183	0x00000000	0.0
184	0x00000000	0.0
185	0x00000000	0.0
186	0x00000000	0.0
187	0x00000000	0.0
188	0x00000000	0.0
189	0x00000000	0.0
190	0x00000000	0.0
191	0x00000000	0.0
192	0x00000000	0.0
193	0x00000000	0.0
194	0x3f800000	1.0
195	0x2b0cbccc	5e-13
196	0x00000000	0.0
197	0x00000000	0.0
198	0x00000000	0.0
199	0x00000000	0.0
200	0x00000000	0.0
201	0x00000000	0.0
202	0x00000000	0.0
203	0x00000000	0.0
204	0x00000000	0.0
205	0x00000000	0.0
206	0x00000000	0.0
207	0x00000000	0.0
208	0x00000000	0.0
209	0x00000000	0.0
210	0x00000000	0.0
211	0x00000000	0.0
212	0x00000000	0.0
213	0x00000000	0.0
214	0x00000000	0.0
215	0x00000000	0.0
216	0x00000000	0.0
217	0x00000000	0.0
218	0x00000000	0.0
219	0x00000000	0.0
220	0x00000000	0.0
221	0x00000000	0.0
222	0x00000000	0.0
223	0x00000000	0.0
224	0x00000000	0.0
225	0x00000000	0.0
226	0x00000000	0.0
227	0x00000000	0.0
228	0x00000000	0.0
229	0x00000000	0.0
230	0x00000000	0.0
231	0x00000000	0.0
232	0x00000000	0.0
233	0x00000000	0.0
234	0x00000000	0.0
235	0x00000000	0.0
236	0x00000000	0.0
237	0x00000000	0.0
238	0x00000000	0.0
239	0x00000000	0.0
240	0x00000000	0.0
241	0x00000000	0.0
242	0x00000000	0.0
243	0x00000000	0.0
244	0x00000000	0.0
245	0x00000000	0.0
246	0x00000000	0.0
247	0x00000000	0.0
248	0x00000000	0.0
249	0x00000000	0.0
250	0x00000000	0.0
251	0x00000000	0.0
252	0x00000000	0.0
253	0x00000000	0.0
254	0x00000000	0.0
255	0x00000000	0.0

onnx::Conv_1366 f4 [16, 3, 1, 5]
0	0x3e260fb0	0.16216922
1	0xbdfefde3	-0.12450769
2	0x3cb72d13	0.02236036
3	0xbe6d7cc5	-0.23192127
4	0x3e0af355	0.13569386
5	0x3d831c55	0.06401888
6	0x3c1c3711	0.009534613
7	0xbdd5d170	-0.10440338
8	0xbe6cf26d	-0.23139353
9	0xbe4a1b54	-0.19736987
10	0x3e50e2e8	0.20399058
11	0x3dc8b0f3	0.097993754
12	0x3d8dc3cd	0.06922112
13	0xbe2a4cfa	-0.16630927
14	0x3d1f15ed	0.03883927
15	0x3de1c3ca	0.11023672
16	0x3e085e97	0.13317333
17	0x3bb986ac	0.005661806
18	0xbe05e75a	-0.13076535
19	0x3bf9df6c	0.007625511
20	0x3d95ff3a	0.07324071
21	0xbc81277f	-0.015765904
22	0xbe6cbc34	-0.23118669
23	0x3e6b8984	0.23001677
24	0xbe4e5df6	-0.20153031
25	0x3dc9055d	0.09815476
26	0xbdc9ed7c	-0.0985975
27	0xbd87a8b4	-0.066239744
28	0xbd125acb	-0.03573112
29	0x3e623027	0.22088681
30	0x3e5676dd	0.2094378
31	0xbe031aca	-0.12803188
32	0xbc98d07c	-0.0186541
33	0xbd35b523	-0.0443622
34	0xbe768493	-0.2407401
35	0xbe31a4b7	-0.1734799
36	0xbe474d00	-0.19462967
37	0x3e49f253	0.19721346
38	0xbd1bef9c	-0.038070306
39	0xbe1eb712	-0.15499523
40	0x3e1c5e41	0.1527033
41	0x3d750d5e	0.0598272
42	0xbe16c133	-0.14722137
43	0xbdf0a6ee	-0.11750589
44	0xbe2a8f2f	-0.16656183
45	0x3cb45737	0.022014244
46	0xbdf4479f	-0.11927723
47	0x3df092b6	0.11746733
48	0xbd157677	-0.03648993
49	0x3d93e4a8	0.07221347
50	0xbe3dadd8	-0.18523347
51	0x3e13016c	0.14356011
52	0xbe23814c	-0.15967292
53	0xbdbb9ee6	-0.09161167
54	0xbb73ae16	-0.003718262
55	0x3d6e9ce8	0.058255106
56	0x3e2f1e09	0.17101301
57	0xbdd45049	-0.10366876
58	0xbe369d06	-0.17833337
59	0xbdc59bfa	-0.09648891
60	0xbe4b7345	-0.1986819
61	0xbe4ae18b	-0.198126
62	0xbe06fd1a	-0.13182488
63	0x3e547e26	0.20751247
64	0xbe13d720	-0.14437532
65	0x3e229811	0.15878321
66	0xbe517e66	-0.20458373
67	0xbe693374	-0.22773534
68	0x3db997bf	0.090621464
69	0xbe674752	-0.225858
70	0x3e498801	0.19680788
71	0xbe63dd27	-0.22252332
72	0x3e45bd85	0.19310577
73	0xbe63ebc4	-0.22257906
74	0xbe3f4430	-0.18678355
75	0xbdeef731	-0.11668242
76	0x3d2b2395	0.04178198
77	0xbd4f9796	-0.050681673
78	0x3deb5d27	0.11492377
79	0x3df5d4a9	0.12003452
80	0xbe4910c6	-0.19635305
81	0x3deac1a3	0.114627145
82	0xbe57c5b2	-0.21071509
83	0x3e4b965b	0.19881575
84	0xbe1f6845	-0.1556712
85	0xbcbb2fcc	-0.02284994
86	0x3d2a65df	0.041601058
87	0x3e15d78a	0.14633003
88	0xbccdf867	-0.025142862
89	0x3e570ac0	0.21000195
90	0x3e63b470	0.222368
91	0x3cfe591c	0.03104835
92	0xbe2e3e67	-0.17015992
93	0x3e4d7cc9	0.20067133
94	0x3e62ea1d	0.2215962
95	0x3da250ad	0.07925544
96	0xbcd082ce	-0.025452998
97	0x3d275b25	0.040858407
98	0xbe339c0e	-0.17539999
99	0xbe3846f8	-0.17995822
100	0xbd4809e0	-0.048837543
101	0x3e794564	0.24342877
102	0xbe1855de	-0.14876506
103	0x3decc7f3	0.11561575
104	0x3e4a378a	0.19747749
105	0xbe704482	-0.23463634
106	0xbc0f0cf0	-0.008731112
107	0xbde42405	-0.11139683
108	0xbd80215c	-0.06256363
109	0xbbceb135	-0.006307746
110	0x3e458011	0.19287135
111	0xbcc50169	-0.024048524
112	0x3e133345	0.14375027
113	0xbd93e197	-0.07220762
114	0x3e6be6df	0.23037289
115	0xbdca9143	-0.09890988
116	0x3df0269b	0.117261134
117	0xbbd6db51	-0.0065569063
118	0x3daf4f53	0.08560052
119	0x3e4b2e5f	0.19841908
120	0xbb4033af	-0.002932768
121	0xbd0ddda7	-0.034635212
122	0xbd46effe	-0.048568718
123	0x3e1e6cab	0.15471141
124	0x3da61872	0.08110131
125	0xbdf590d2	-0.11990513
126	0xbe6144da	-0.21998921
127	0xbc6827cb	-0.014169644
128	0xbbdbf58a	-0.00671262
129	0x3e615154	0.2200368
130	0xbe2c7e40	-0.16845036
131	0xbe2fef28	-0.17181075
132	0xbe5cb014	-0.21551543
133	0xbe22dd56	-0.15904745
134	0x3dc037b8	0.093856275
135	0xbdb23141	-0.08700801
136	0xbcae84a4	-0.021303482
137	0x3e71646d	0.23573466
138	0x3e7719e9	0.24130978
139	0xbd454e3a	-0.048170306
140	0xbb1159e3	-0.002217882
141	0x3e099563	0.13435893
142	0x3dd32c55	0.1031119
143	0xbd975162	-0.073885694
144	0x3dfd6024	0.12371853
145	0xbda8a15d	-0.082339026
146	0xbb836891	-0.004010268
147	0xbe3c6206	-0.18396768
148	0xbd96ec23	-0.07369258
149	0xbe6570d1	-0.22406317
150	0xbe51ce7f	-0.20488928
151	0xbe740bb8	-0.23832595
152	0xbdb67050	-0.08908141
153	0x3e0a3032	0.13494948
154	0xbe5bfe1a	-0.21483651
155	0xbdcf7053	-0.10128846
156	0xbe618767	-0.22024308
157	0x3e0484b2	0.12941244
158	0x3e7bce37	0.24590383
159	0x3e1cc0d9	0.1530794
160	0xbde78989	-0.113055296
161	0xbdace501	-0.084421165
162	0xbd57c3db	-0.052677017
163	0x3c2f39d5	0.010694941
164	0x3e76f6ca	0.2411758
165	0xbe2e0204	-0.16992956
166	0x3dc5161e	0.09623359
167	0xbba5902b	-0.0050525866
168	0xbe2f9b0a	-0.17148986
169	0xbe1f8eca	-0.15581813
170	0x3e31677d	0.17324634
171	0xbdada9e2	-0.08479668
172	0xbe6557ac	-0.22396725
173	0x3cf936b0	0.030421585
174	0xbe05575a	-0.13021603
175	0xbd8c75db	-0.06858417
176	0xbd9cb691	-0.07652009
177	0x3e0a59c6	0.13510808
178	0xbe703d47	-0.23460875
179	0xbe6da8b2	-0.23208883
180	0x3e2b36e2	0.16720155
181	0xbe1783a1	-0.14796306
182	0xbd179ac7	-0.03701284
183	0x3e1d8f9e	0.15386817
184	0x3df6cb18	0.12050456
185	0xbda19e68	-0.07891542
186	0x3e1101a6	0.14160785
187	0xbe8004de	-0.25003713
188	0xbe04275a	-0.12905636
189	0xbe30807b	-0.17236511
190	0xbe3fef7f	-0.18743704
191	0xbd012344	-0.031527773
192	0x3e45fdc7	0.1933509
193	0xbe68ada1	-0.22722484
194	0xbcaa38a7	-0.020778967
195	0x3e20c36c	0.15699548
196	0xbc968ab4	-0.018376686
197	0xbe29c4bd	-0.16578956
198	0xbdb1f3ad	-0.086890556
199	0x3e69d963	0.22836833
200	0x3e363f77	0.17797647
201	0xbe154ff3	-0.1458128
202	0x3e127b98	0.1430496
203	0x3e387362	0.18012765
204	0xbe666901	-0.22500993
205	0xbdb23eaf	-0.08703362
206	0x3e5c31ab	0.21503322
207	0x3d32bef0	0.043639123
208	0xbba67638	-0.0050800107
209	0x3da43ca3	0.08019378
210	0x3d8282ee	0.06372629
211	0x3e69fb23	0.22849707
212	0xbb79ac4c	-0.0038097082
213	0x3e2c0950	0.16800427
214	0xbe688835	-0.22708209
215	0x3e77ce54	0.24199802
216	0xbd6da7e8	-0.058021456
217	0xbd5d8e23	-0.05409063
218	0x3e79051b	0.24318354
219	0xbe7836ff	-0.2423973
220	0xbdca17f9	-0.09867854
221	0xbd0fc100	-0.03509617
222	0x3d625106	0.05525305
223	0xbd416ef2	-0.047224946
224	0x3e532e3d	0.20623107
225	0xbe821f10	-0.25414324
226	0x3e671e05	0.22570045
227	0x3cbd5190	0.023110181
228	0x3e11e38c	0.14246958
229	0xbe0dc140	-0.1384325
230	0x3dc2ea30	0.09517324
231	0xbe42b2e4	-0.19013554
232	0xbb4d9cae	-0.0031373906
233	0xbe80b6ca	-0.25139457
234	0x3e45a21c	0.19300121
235	0x3dd6e298	0.10492438
236	0xbd384ca4	-0.044994965
237	0x3d33d70d	0.04390626
238	0xbe427078	-0.18988216
239	0xbe549300	-0.20759201

onnx::Conv_1367 f4 [16]
0	0xbde52a4d	-0.11189709
1	0xbe7c5fa9	-0.24645866
2	0xbe263883	-0.16232495
3	0x3cbcd1f2	0.023049328
4	0xbd1505c2	-0.036382444
5	0xbe07039b	-0.13184969
6	0xbe6a0dfa	-0.22856894
7	0xbd8c0cbd	-0.06838367
8	0x3e76ce1b	0.2410206
9	0x3dfe5ed7	0.12420433
10	0xbe5f18c9	-0.21786799
11	0xbe3453b5	-0.17610057
12	0xbe4675e3	-0.19380908
13	0x3e1568ec	0.14590806
14	0x3ce1cb26	0.027562689
15	0x3e57c645	0.21071728

onnx::Conv_1369 f4 [16, 16, 1, 5]
0	0xbd924835	-0.07142679
1	0xbcbeb885	-0.023281345
2	0x3d9cf512	0.07663931
3	0xbd6d7081	-0.05796862
4	0x3cd85e10	0.02641204
5	0xbd983346	-0.07431655
6	0x3d9b27fc	0.07575986
7	0xbd1412c4	-0.03615071
8	0x3d922fb3	0.07138004
9	0xbdd9173c	-0.10600135
10	0xbaa414c6	-0.0012518398
11	0x3cca11c7	0.02466668
12	0xbdd6a5c8	-0.10480839
13	0x3d0babae	0.034099273
14	0x3d34ab3a	0.044108607
15	0xbd3c68bc	-0.04599832
16	0xbc0496e4	-0.008092616
17	0x3d215be1	0.039394263
18	0x3dd42f3d	0.103605725
19	0x3dd26fae	0.102752075
20	0x3d737fac	0.05944793
21	0x3da28763	0.07935979
22	0x3d2b3f64	0.0418085
23	0x3d89f819	0.06736774
24	0x3de4a5e5	0.11164454
25	0x3db03021	0.0860293
26	0xbd0053fe	-0.0313301
27	0x3ba13d29	0.004920621
28	0x3d9292c8	0.071569026
29	0xbcbc6b19	-0.023000287
30	0xbd2c6416	-0.042087637
31	0xbd4fe17f	-0.05075216
32	0x3dd83b60	0.105582
33	0xbb5e4e1b	-0.0033921066
34	0x3dab4d4d	0.08364353
35	0xbcd1ed63	-0.02562589
36	0xbc3f1ccf	-0.011664583
37	0xbd745713	-0.059653353
38	0x3cd640da	0.02615397
39	0x3d2b0fb8	0.041763037
40	0xbde4a263	-0.11163785
41	0x3dab7847	0.083725505
42	0x3d9a49af	0.07533585
43	0xbd66cad6	-0.056345783
44	0xbdad1f73	-0.08453264
45	0x3c4d7e89	0.012542375
46	0x3d8f60ff	0.070009224
47	0xbde4b270	-0.11166847
48	0xbdb581c3	-0.08862641
49	0x3ca80e03	0.020514494
50	0x3d79b98c	0.060967967
51	0xbd584b80	-0.052806377
52	0xbd05d067	-0.03266945
53	0xbd9c2d8c	-0.07625875
54	0xbbac2e7f	-0.005254566
55	0xbcd8bfaa	-0.02645858
56	0x3d950bb0	0.0727762
57	0xbda0ac6b	-0.07845386
58	0xbd9bf5bb	-0.07615229
59	0xbd86372c	-0.06553492
60	0x3d979d0e	0.07403003
61	0xbd90c824	-0.07069424
62	0x3d905a6b	0.07048496
63	0x3d732955	0.05936559
64	0x3a5c43fc	0.00084024644
65	0x3d181818	0.037132353
66	0xbc406118	-0.011741899
67	0xbd8ff4b8	-0.07029098
68	0xbc81058d	-0.015749717
69	0xbd811080	-0.06301975
70	0xbd7686ff	-0.060187336
71	0xbd7b7266	-0.061388396
72	0xbd81b1a9	-0.06332714
73	0xbd9a2d19	-0.07528133
74	0x3c44e531	0.012017534
75	0x3d5cc8e1	0.05390251
76	0x3d3a0b68	0.045421034
77	0x3dd00ed5	0.10159079
78	0xbd9aa960	-0.07551837
79	0x3d7c4184	0.061585918
80	0xbd8b972d	-0.06815944
81	0x3dd0c080	0.101929665
82	0xbd7d4fd0	-0.061843693
83	0x3d8c4f71	0.0685109
84	0x3d0a3f18	0.033751577
85	0xbc8e2c19	-0.017355012
86	0xba8007ac	-0.0009767911
87	0x3de02269	0.10944063
88	0xbc16a25e	-0.009193985
89	0x3b34173e	0.0027479674
90	0x3d60435b	0.054751735
91	0x3cbd4d3f	0.023108123
92	0xbb1aff46	-0.002365069
93	0x3d146ba2	0.03623546
94	0x3d8b7f7f	0.06811427
95	0x3dd69f7b	0.10479637
96	0x3dbd0ed4	0.09231344
97	0x3d7e1b2f	0.062037643
98	0x3c87fe57	0.01660077
99	0x3bb96182	0.005657376
100	0x3dba4ed5	0.09097067
101	0xbc99c446	-0.018770348
102	0xbd88eef8	-0.06686205
103	0x3da46437	0.08026927
104	0xbc881800	-0.016613007
105	0xbd55954a	-0.052144326
106	0x3dbd4ed7	0.09243553
107	0x3dc3c560	0.09559131
108	0x3de131d5	0.10995833
109	0xbdd02e2a	-0.10165055
110	0xbd0c91a9	-0.0343186
111	0xbd2126ed	-0.039343763
112	0x3dc25395	0.09488598
113	0xbd006478	-0.031345814
114	0x3dd629d4	0.10457197
115	0x3d99a87b	0.07502838
116	0x3da963b3	0.08270969
117	0xbbe88eca	-0.0070971
118	0x3d959f85	0.073058166
119	0xbd8008ce	-0.06251679
120	0x3c9f6a95	0.019460002
121	0x3dd74a3a	0.105122045
122	0xbd80d6aa	-0.06290944
123	0x3ddee30e	0.10883151
124	0xbbfc01ed	-0.0076906593
125	0x3d6f7d2b	0.05846898
126	0x3dc2d080	0.095124245
127	0xbd896b38	-0.067099035
128	0x3cb86df9	0.022513377
129	0xbc1fc438	-0.009751372
130	0x3cfba606	0.030718815
131	0xbd10ddf0	-0.035367906
132	0x3de1df1d	0.110288836
133	0xbbd7e4ba	-0.0065885456
134	0x3be0c95e	0.0068599423
135	0xbd0bfa59	-0.034174297
136	0x3dc1ce01	0.0946312
137	0x3dc3545a	0.09537573
138	0xbd12c855	-0.035835583
139	0xbd86cbf1	-0.065818675
140	0xb98e7a8f	-0.00027175664
141	0xbdae3a87	-0.08507257
142	0x3da3a08c	0.07989606
143	0x3cf79cff	0.030226229
144	0x3dda453d	0.106577374
145	0x3c6d4d95	0.014483829
146	0xbb5ef274	-0.0034019025
147	0x3d90a883	0.07063391
148	0x3dbfb83e	0.09361313
149	0x3dc4f048	0.096161425
150	0x3dca6ee9	0.09884436
151	0xbdb7b601	-0.08970261
152	0xbca1e1ee	-0.019761052
153	0xbc9b1a46	-0.018933427
154	0x3d720625	0.05908789
155	0xbd95c196	-0.07312314
156	0x3d7dc2ea	0.061953463
157	0xbd4cd8ad	-0.050011326
158	0x3c9186bf	0.017764447
159	0x3d94a37e	0.07257746
160	0xbddfc607	-0.109264426
161	0x3d853040	0.065033436
162	0xbd86dd6b	-0.06585201
163	0xbdc5e89e	-0.09663509
164	0xbdce6879	-0.1007852
165	0x3aeb2b98	0.0017942069
166	0xbd400b29	-0.046885643
167	0x3db2822e	0.08716236
168	0x3c979ec9	0.018508332
169	0x3ddcd0d5	0.10782019
170	0x3cd5cad8	0.0260977
171	0xbdcbbfb8	-0.09948677
172	0xbdd6a505	-0.10480694
173	0x3c772e65	0.015086745
174	0x3dbaf6f3	0.09129133
175	0xbd7faf9a	-0.062423326
176	0x3d9510e1	0.0727861
177	0x3d84167c	0.06449601
178	0xbd2ba386	-0.041903995
179	0xbd5a7e09	-0.053342853
180	0xbdd77938	-0.105211675
181	0xbdb48ac5	-0.08815531
182	0xbb8dfb8c	-0.0043329652
183	0xbc5abf22	-0.013351234
184	0xbc6c64f9	-0.014428371
185	0xbd36b379	-0.044604752
186	0xbd406648	-0.046972543
187	0x3d3f9469	0.046772394
188	0xbdce006f	-0.100586765
189	0xbdcb08cd	-0.09913788
190	0x3cea9b7a	0.02863859
191	0x3dc25a18	0.0948984
192	0x3dd0af7b	0.1018972
193	0x3dcdd4ed	0.10050378
194	0xbd4a6756	-0.049414955
195	0x3d8a2a69	0.0674637
196	0x3c9c2ca4	0.019064255
197	0xbdad9227	-0.08475142
198	0xbcd8dc6d	-0.026472295
199	0x3d44b846	0.0480273
200	0xbcd1ca3a	-0.025609124
201	0xbd2e686c	-0.042580053
202	0x3d399ccb	0.045315545
203	0xbd84162b	-0.06449541
204	0x3d5774be	0.05260157
205	0x3da306f9	0.07960314
206	0xbda67b0a	-0.081289366
207	0xbc40c0be	-0.011764703
208	0xbcdc674a	-0.02690472
209	0xbc84b1a4	-0.016197987
210	0x3d3aa5e4	0.045568362
211	0x3dc12f58	0.09432858
212	0xbd7a967c	-0.06117867
213	0x3dc909e6	0.09816341
214	0xbdb07f57	-0.08618038
215	0xbc08583b	-0.008321817
216	0x3d436b7e	0.047709934
217	0xbd880181	-0.06640912
218	0x3dd5848e	0.104256734
219	0x3dabea8a	0.08394344
220	0x3dc1193e	0.09428643
221	0xbdbd0bc1	-0.092307575
222	0x3d137ef3	0.03600974
223	0xbc740470	-0.014893636
224	0x3cdb9cde	0.026808199
225	0x3d684156	0.056702934
226	0x3d0b507a	0.034012295
227	0xbca7f89a	-0.020504285
228	0x3c249474	0.01004516
229	0x3d9bbe92	0.07604708
230	0x3d98dbc5	0.07463793
231	0x3de43f20	0.11144853
232	0xbc3ccef0	-0.011523947
233	0x3d52fabc	0.05150865
234	0x3c2ce135	0.01055174
235	0x3d29ab92	0.041423388
236	0xbca28cfd	-0.01984262
237	0x3d7e4d05	0.06208517
238	0xbcd35651	-0.025797995
239	0x3db35b24	0.08757618
240	0x3dc5307a	0.09628387
241	0x3da427e9	0.08015425
242	0x3cdd9426	0.027048182
243	0xbd91d5c3	-0.0712085
244	0x3b53e079	0.003232984
245	0x3c793c6d	0.015212161
246	0xbd935919	-0.071947284
247	0xbd9cb6e8	-0.07652074
248	0x3dc7ca11	0.09755338
249	0xbd9eec84	-0.077599555
250	0x3dc255cd	0.094890215
251	0xbc764227	-0.01503042
252	0xbd949b1f	-0.072561495
253	0x3d223a45	0.03960635
254	0x3cb4617b	0.022019139
255	0x3d365bc7	0.04452112

onnx::Conv_1370 f4 [16]
0	0x3d81461a	0.06312199
1	0xbd894b25	-0.06703786
2	0x3d3a8f48	0.0455468
3	0xbb9f75e7	-0.00486635
4	0x3d86f295	0.065892376
5	0xbcbf9938	-0.02338849
6	0x3da2f385	0.07956604
7	0xbaa9f4bf	-0.0012966617
8	0xbda1246e	-0.078682765
9	0xbdbd07d0	-0.09230006
10	0xbdd71f24	-0.105039865
11	0xbd957e9a	-0.07299538
12	0x3dc41089	0.09573466
13	0xbd70ce2c	-0.05879037
14	0xbdcd32fa	-0.10019489
15	0x3b2033bd	0.00244449

onnx::Conv_1372 f4 [16, 8, 1, 1]
0	0x3e1b89d5	0.15189297
1	0xbe8f8580	-0.2803154
2	0xbea46352	-0.32107025
3	0x3ea528c2	0.32257658
4	0xbd874ce7	-0.06606465
5	0x3e4f79c3	0.20261292
6	0xbd18c625	-0.03729834
7	0xbde20b24	-0.11037281
8	0xbe76769f	-0.24068688
9	0xbe86a42e	-0.26297134
10	0xbe4c3af3	-0.19944362
11	0x3da62020	0.08111596
12	0xbeb3f09e	-0.35144514
13	0xbde6d72e	-0.11271511
14	0x3e9b2475	0.30301252
15	0x3e0e24e1	0.13881256
16	0xbd5284b6	-0.051396094
17	0xbea56ae6	-0.3230812
18	0x3e7f552d	0.24934836
19	0xbe97105c	-0.2950467
20	0xbd98cf34	-0.07461396
21	0xbde3ac5a	-0.11116858
22	0xbe7f04e0	-0.24904203
23	0xbe9d6fbc	-0.3074931
24	0x3e151c98	0.14561689
25	0xbde3a78f	-0.11115944
26	0xbe8de518	-0.27713847
27	0xbdf7e5fc	-0.12104413
28	0xbe267c4b	-0.16258352
29	0xbc418b9b	-0.01181307
30	0x3ead6a0d	0.33869973
31	0xbe8bcb17	-0.27303383
32	0xbe51d71b	-0.20492212
33	0xbd94c6d0	-0.07264483
34	0x3e6be2e8	0.23035777
35	0xbe17a2fc	-0.14808267
36	0x3dedb7fa	0.11607356
37	0xbdfa7d1e	-0.122308955
38	0x3e9de515	0.30838838
39	0x3e810251	0.2519708
40	0x3e5842b1	0.21119191
41	0xbd199598	-0.03749618
42	0x3e983651	0.2972894
43	0xbcc95b8f	-0.024579791
44	0xbd99a6e5	-0.07502536
45	0x3e132de9	0.14372982
46	0xbea68b08	-0.32527947
47	0x3e1d29cc	0.15347975
48	0x3ea15633	0.31511077
49	0x3e38c7bc	0.18044943
50	0x3e9ade11	0.30247548
51	0xbeb09e73	-0.34495887
52	0x3db6530b	0.08902558
53	0x3ea62e96	0.32457417
54	0x3ea5f6ca	0.32414848
55	0xbd810a8f	-0.06300842
56	0xbdcc8192	-0.09985651
57	0xbe9f521c	-0.31117332
58	0x3da9936e	0.08280073
59	0x3e81be7d	0.25340644
60	0x3e73a4bc	0.2379331
61	0x3eb4918c	0.35267293
62	0x3ca18848	0.019718304
63	0xbe2e3665	-0.17012937
64	0x3e8b8d75	0.2725636
65	0xbdfe5326	-0.12418203
66	0x3eacdc20	0.33761692
67	0x3e60f6da	0.21969166
68	0x3e64443f	0.22291659
69	0xbe80c29d	-0.25148478
70	0x3dd37b3a	0.10326238
71	0xbe765678	-0.24056423
72	0xbe695642	-0.22786811
73	0x3e6ff263	0.23432307
74	0xbe1c0fdd	-0.15240426
75	0xbdcfc005	-0.10144047
76	0xbea64896	-0.32477254
77	0xbd479c5d	-0.048733104
78	0x3e0b27e4	0.13589436
79	0xbe115708	-0.14193356
80	0x3d9906de	0.07472013
81	0x3e0ca1b0	0.13733554
82	0x3e5f16c6	0.21786031
83	0xbea0311e	-0.31287473
84	0x3d5383d8	0.051639408
85	0x3dd0d41e	0.10196708
86	0x3e0bc76c	0.13650292
87	0xbe5376be	-0.20650765
88	0xbe4b762c	-0.19869298
89	0xbdb7034a	-0.08936174
90	0xbdcce255	-0.10004107
91	0x3e872e71	0.2640262
92	0xbe8d6651	-0.27617124
93	0x3e8e3c97	0.277806
94	0x3e7f596d	0.24936457
95	0xbe7351ed	-0.23761721
96	0xbdf591b2	-0.1199068
97	0x3ea5c33a	0.3237551
98	0xbc22d9ed	-0.009939653
99	0x3ea77cc9	0.3271239
100	0xbe0e785d	-0.13913102
101	0x3e7d090e	0.24710485
102	0xbea82937	-0.32843944
103	0x3e6a2294	0.22864753
104	0xbd4f343c	-0.050586924
105	0x3ea9ccce	0.33164066
106	0x3e59ec36	0.21281514
107	0x3e71c506	0.23610315
108	0xbe57b479	-0.21064939
109	0xbde60e74	-0.112332255
110	0x3de519e8	0.11186582
111	0x3eaea673	0.34111366
112	0xbe5c2966	-0.21500167
113	0x3df20c5d	0.11818764
114	0xbe3797f8	-0.17929065
115	0xbe8f146d	-0.2794527
116	0xbd300f1d	-0.042983163
117	0x3e9d0527	0.30667993
118	0x3ea99619	0.33122328
119	0xbe39a3ef	-0.18128942
120	0xbd181224	-0.037126675
121	0xbe6970d7	-0.22796951
122	0xbd61d512	-0.05513484
123	0x3eaed85d	0.34149447
124	0xbea1eb99	-0.3162506
125	0xbc9217ed	-0.017833674
126	0xbd9ab3db	-0.07553836
127	0x3def7552	0.11692299

onnx::Conv_1373 f4 [16]
0	0xbe45d18d	-0.19318219
1	0x3e9661dc	0.29371536
2	0x3e55dd9f	0.20885323
3	0x3db642de	0.08899473
4	0x3e30ef1c	0.17278713
5	0x3c9cbf3a	0.019134153
6	0xbea650fe	-0.32483667
7	0xbd04dd1f	-0.03243744
8	0xbe8057f5	-0.25067106
9	0x3e5c1fc1	0.21496488
10	0xbd027827	-0.031852867
11	0xbcaa6341	-0.020799281
12	0x3eada622	0.33915812
13	0xbeb3554c	-0.35026014
14	0x3eaa681f	0.33282563
15	0xbe9f4cba	-0.31113225

onnx::Conv_1375 f4 [16, 1, 3, 3]
0	0xbe15642f	-0.14588998
1	0x3e129448	0.14314377
2	0xbea2e4f5	-0.31815305
3	0x3e950f25	0.29113117
4	0x3e828e63	0.25499257
5	0xbe093c4b	-0.13401906
6	0xbd591f84	-0.05300857
7	0x3e993220	0.29921055
8	0xbe634b00	-0.22196579
9	0xbe896635	-0.2683579
10	0xbea52b42	-0.32259566
11	0x3e8a6941	0.27033427
12	0x3d03d480	0.032185078
13	0x3e81e2d4	0.2536837
14	0x3df5cc5f	0.12001871
15	0x3ea9acff	0.33139798
16	0xbe201b0b	-0.15635316
17	0xbe2d2ddf	-0.1691203
18	0x3d8afa08	0.06785971
19	0xbe838dcf	-0.2569413
20	0x3d5433d0	0.051807225
21	0x3d5b1ce3	0.053494345
22	0xbe598c71	-0.2124498
23	0x3e09cfd9	0.13458194
24	0xbdaf91c1	-0.08572722
25	0x3e94b88e	0.29047054
26	0x3e983e75	0.2973515
27	0xbcf5ef6f	-0.030021397
28	0xbda66ae9	-0.0812586
29	0xbe8b455e	-0.2720136
30	0x3e12988e	0.14316007
31	0xbda1b1db	-0.07895251
32	0xbe621ca6	-0.22081241
33	0xbe408111	-0.18799235
34	0x3d836d05	0.06417278
35	0x3dda3ad3	0.10655751
36	0xbe95ce71	-0.29259065
37	0x3e8ff955	0.28119913
38	0xbcb379b0	-0.021908611
39	0x3dc87e69	0.09789736
40	0xbdbc921d	-0.092075564
41	0xbe95f447	-0.2928793
42	0x3eaa8a67	0.33308718
43	0xbe8690e3	-0.26282415
44	0x3ea2b093	0.3177534
45	0xbd1ff3ac	-0.039050743
46	0xbe0cad82	-0.13738063
47	0x3dcaa644	0.09894994
48	0xbe979b81	-0.29610828
49	0xbe282614	-0.16420776
50	0x3da77814	0.081772
51	0x3e6af3a1	0.229445
52	0xbdc3100b	-0.09524544
53	0x3e93659c	0.2878846
54	0xbe2236c6	-0.15841207
55	0x3da17426	0.07883482
56	0x3dee2e68	0.11629945
57	0xbe575441	-0.21028234
58	0xbe67e037	-0.22644125
59	0xbe18df64	-0.14928967
60	0x3d861b9f	0.06548237
61	0x3e79547c	0.24348634
62	0x3d18e2a4	0.037325516
63	0x3da665bf	0.08124875
64	0xbe821f00	-0.25414276
65	0xbdcce7a8	-0.100051224
66	0x3e67b954	0.22629291
67	0x3ea27fd3	0.31738147
68	0xbdb8a8ee	-0.09016596
69	0x3d3c4f62	0.045974143
70	0x3e542b72	0.20719698
71	0xbe8ec487	-0.27884313
72	0xbe4f84b7	-0.2026547
73	0x3e655375	0.22395118
74	0xbe583454	-0.21113712
75	0xbe34834d	-0.17628212
76	0xbd6aab69	-0.057292376
77	0xbe2c8f8d	-0.16851635
78	0x3e0d0335	0.13770755
79	0x3e035365	0.12824781
80	0x3e47e4a6	0.19520816
81	0x3e252ce8	0.16130412
82	0x3ea0bf35	0.3139588
83	0xbe3566c7	-0.17714988
84	0xbe1b9a9d	-0.15195699
85	0xbe94abb2	-0.29037243
86	0x3cc6bbea	0.024259526
87	0x3be0f061	0.006864593
88	0xbd6e5b08	-0.058192283
89	0xbd4dd9dc	-0.050256595
90	0xbdd6a49a	-0.10480614
91	0xbd3b5163	-0.045731913
92	0x3b446116	0.0029965094
93	0x3d9b0568	0.075693905
94	0x3e4ef614	0.20211059
95	0xbdac0113	-0.083986424
96	0x3dfda88d	0.12385664
97	0x3e3b6f6d	0.18304224
98	0xbdc8be69	-0.09801943
99	0xbdb245d6	-0.087047264
100	0x3d2e7f72	0.04260201
101	0xbdefca3c	-0.11708495
102	0x3e66395c	0.22482818
103	0xbe3777f4	-0.17916852
104	0x3e4011e7	0.18756829
105	0x3d014ec1	0.031569246
106	0xbc93b8bb	-0.018032422
107	0x3e81188e	0.25214046
108	0xbe28f667	-0.16500245
109	0x3e73b796	0.23800501
110	0xbe1088cf	-0.14114688
111	0xbe82159c	-0.25407112
112	0xbe0697a4	-0.13143784
113	0xbdff04b7	-0.12452071
114	0x3e531bd6	0.20616087
115	0x3e10a147	0.14124022
116	0x3e812910	0.2522664
117	0xbe038220	-0.12842607
118	0x3ddbb17e	0.10727213
119	0x3e8c4f34	0.27404177
120	0xbe5188e1	-0.20462371
121	0xbd828a20	-0.063740015
122	0x3cd04012	0.025421176
123	0xbe1f1647	-0.15535842
124	0xbb87b97e	-0.0041419854
125	0xbdc10c67	-0.09426194
126	0x3ddc4ca3	0.10756805
127	0xbdf3d236	-0.11905329
128	0x3e958f55	0.29210916
129	0xbdff3fa7	-0.124633126
130	0x3e4011a7	0.18756734
131	0xbe9b357b	-0.3031424
132	0x3e82ce79	0.2554815
133	0xbe87796c	-0.26459825
134	0x3e8b79c5	0.2724134
135	0xbbdb06b8	-0.0066841505
136	0xbd8b7d52	-0.06811012
137	0xbe460adf	-0.19340084
138	0x3e926330	0.285913
139	0x3d213141	0.039353613
140	0xbe243028	-0.16033995
141	0x3e1636e2	0.14669374
142	0xbe0407fb	-0.1289367
143	0x3e8a1e26	0.26976126

onnx::Conv_1376 f4 [16]
0	0x3e1cfbda	0.15330449
1	0x3c4d8ae8	0.012545325
2	0x3cb6105a	0.022224594
3	0x3d592f64	0.05302371
4	0xbdc0d06c	-0.09414753
5	0xbe02b9fb	-0.12766258
6	0x3e64dac3	0.22349076
7	0xbe339efb	-0.17541115
8	0x3e16091d	0.14651914
9	0x3e1eed2a	0.15520158
10	0xbe869c0b	-0.26290926
11	0x3e9f52d2	0.31117874
12	0xbea55089	-0.32288006
13	0x3d78158f	0.060567435
14	0xbcb38ff0	-0.02191922
15	0xbd1bee2d	-0.03806894

onnx::Conv_1378 f4 [8, 16, 1, 1]
0	0xbe00818a	-0.12549415
1	0x3dd03bac	0.101676315
2	0xbd12c768	-0.0358347
3	0xbe18e644	-0.1493159
4	0xbe479cd7	-0.19493423
5	0x3d885acf	0.06657945
6	0x3d94933f	0.072546475
7	0xbe573c0f	-0.21019004
8	0xbe4e0b2a	-0.20121446
9	0x3e13e841	0.14444067
10	0xbd290099	-0.041260336
11	0xbc8591b4	-0.016304828
12	0xbe76758d	-0.2406828
13	0xbc9f131c	-0.019418292
14	0xbe01e42d	-0.12684698
15	0x3e2dd5f9	0.16976155
16	0x3da743f5	0.08167259
17	0xbe6a16c9	-0.22860254
18	0xbe07a637	-0.13247
19	0x3b7b0cae	0.0038307118
20	0x3ddaafb4	0.10678044
21	0x3e5b4192	0.21411732
22	0xbd9e47d8	-0.07728547
23	0xbe33b055	-0.17547734
24	0x3d8f7f49	0.070066996
25	0x3d76e467	0.060276415
26	0xbd7bd7cd	-0.0614851
27	0x3e6c34c0	0.23066998
28	0x3e2ff1b2	0.17182043
29	0x3de85764	0.113447934
30	0x3e318d2c	0.17339009
31	0xbca34e4a	-0.019934792
32	0x3e24be00	0.16088104
33	0xbe550e0e	-0.20806143
34	0x3d829d15	0.06377617
35	0x3e39caeb	0.18143813
36	0x3e2f80ae	0.17138931
37	0x3e2fafea	0.1715695
38	0x3e5916d3	0.21200113
39	0xbe23f4e0	-0.16011381
40	0x3cc8bb1e	0.024503287
41	0xbe397b15	-0.18113358
42	0x3dfd7871	0.12376488
43	0xbd2ac768	-0.041694075
44	0xbe45d285	-0.19318588
45	0x3dc5a337	0.096502714
46	0xbd31358e	-0.043263964
47	0xbe6ace49	-0.22930254
48	0xbca75e69	-0.02043076
49	0xbd9f4198	-0.07776183
50	0x3e4c4175	0.19946845
51	0x3e302984	0.17203337
52	0xbdeeaac2	-0.11653663
53	0xbe791528	-0.24324477
54	0xbe4bec05	-0.19914253
55	0x3e752d3a	0.23943034
56	0xbcbf13f1	-0.023324938
57	0x3c3773c4	0.011197034
58	0xbe0caf28	-0.13738692
59	0x3d3c29da	0.04593835
60	0xbcb08a56	-0.021550339
61	0x3d6de8da	0.058083393
62	0x3d2971e8	0.041368395
63	0xbe48a9b0	-0.1959598
64	0xbe326595	-0.17421563
65	0xbe43b64a	-0.19112507
66	0x3e7fec88	0.24992573
67	0xbe20570b	-0.15658204
68	0xbe592bf5	-0.21208175
69	0x3e75f56b	0.24019401
70	0xbd8bf01a	-0.06832905
71	0xbcb30995	-0.021855155
72	0x3e73305e	0.2374892
73	0xbe2f739e	-0.17133948
74	0xbe3cb9de	-0.18430278
75	0xbe26f221	-0.16303302
76	0xbe3bf386	-0.18354616
77	0xbe158e8f	-0.14605163
78	0x3e511b55	0.20420583
79	0x3d32bf35	0.04363938
80	0x3db359cd	0.087573625
81	0x3ddbdf54	0.10735956
82	0xbdbea439	-0.09308667
83	0x3df5bb0f	0.11998569
84	0xbe6c7cbe	-0.2309446
85	0xbdb63070	-0.088959575
86	0xbdc2d0d4	-0.09512487
87	0x3e7cb969	0.24680103
88	0x3da58e12	0.080837384
89	0xbe0181f2	-0.12647226
90	0x3db4e36d	0.088324405
91	0x3c04c1d4	0.008102853
92	0xbcf8658e	-0.030321863
93	0xbe5fd65f	-0.2185912
94	0xbe0522ca	-0.13001552
95	0x3e58de47	0.21178542
96	0xbd1b5f9d	-0.03793298
97	0xbba1da0b	-0.004939323
98	0xbe51a4c1	-0.20473005
99	0x3d27f449	0.041004453
100	0x3c81d765	0.015849778
101	0xbe158a73	-0.14603595
102	0x3dd7a869	0.105301686
103	0xbcea0da3	-0.028570956
104	0xbd3e685a	-0.046486236
105	0xbccc43ed	-0.024934733
106	0xbe19d81c	-0.15023845
107	0xbd847a69	-0.064686604
108	0xbcc1efd0	-0.023673922
109	0x3e6334db	0.22188132
110	0x3e4e4a74	0.20145589
111	0x3db100ce	0.086427316
112	0xbdffa878	-0.12483305
113	0x3e4c3bbd	0.19944663
114	0xbc800396	-0.01562671
115	0x3e6b96e7	0.23006783
116	0x3e1175ae	0.14205047
117	0x3ca55baa	0.02018531
118	0xbd84c548	-0.06482941
119	0xbb913a50	-0.004432
120	0xbe760875	-0.24026664
121	0xbc94724f	-0.018120913
122	0xbe249fd2	-0.16076592
123	0xbe1b3183	-0.15155606
124	0xbdeb05c3	-0.11475708
125	0xbe496a00	-0.19669342
126	0xbd91d590	-0.07120812
127	0x3e190ed8	0.14947069

onnx::Conv_1379 f4 [8]
0	0xbdf3fa24	-0.11912945
1	0xbda27ba3	-0.07933738
2	0x3c5eda17	0.013601801
3	0xbe396de5	-0.18108328
4	0x3e62c686	0.22146043
5	0x3e167663	0.14693598
6	0x3d90bd99	0.07067413
7	0xbe5dd79f	-0.21664284

onnx::Conv_1381 f4 [16, 8, 1, 1]
0	0xbe810a4a	-0.25203162
1	0xbe1fba55	-0.15598424
2	0x3dbba2ea	0.09161933
3	0xbdc017e4	-0.09379557
4	0x3e77c3b7	0.24195753
5	0x3e5be269	0.21473087
6	0x3e812cc1	0.25229457
7	0x3db38cea	0.087671116
8	0x3d81cc7b	0.0633783
9	0x3e9f0e2a	0.31065494
10	0x3cdf7c9b	0.027281096
11	0xbea2a21b	-0.31764302
12	0xbdfaff22	-0.12255694
13	0xbe4c9e27	-0.19982205
14	0x3e65eae3	0.22452883
15	0x3d241b9c	0.040065393
16	0x3e211bfc	0.15733331
17	0x3d262683	0.04056407
18	0x3e62634f	0.22108196
19	0x3ca6683a	0.020313371
20	0xbe3e43e7	-0.1858059
21	0xbd425330	-0.047442615
22	0x3e9b6c80	0.30356216
23	0x3cbfff74	0.02343724
24	0xbc88c1a7	-0.016693903
25	0xbc06b9d8	-0.00822302
26	0x3ddd85ca	0.10816534
27	0x3e1c18b1	0.15243794
28	0x3e57394e	0.21017954
29	0xbdacdbb1	-0.0844034
30	0xbe61f807	-0.22067271
31	0x3eac653a	0.3367098
32	0xbea76d7b	-0.32700714
33	0xbea05d8b	-0.31321368
34	0xbe004008	-0.12524426
35	0x3e4451a7	0.19171773
36	0x3c8ffd8f	0.01757696
37	0xbeae9f0c	-0.34105718
38	0xbce17454	-0.02752129
39	0xbe09997a	-0.13437453
40	0xbe51774e	-0.20455667
41	0x3e897dea	0.26853877
42	0xbe2baa7a	-0.1676425
43	0xbd8a75a1	-0.06760717
44	0xbde54eac	-0.11196646
45	0xbe2ae5e4	-0.16689259
46	0x3de3da45	0.11125616
47	0xbd530eff	-0.051527973
48	0xbe90d8f5	-0.28290525
49	0x3e75432b	0.23951404
50	0xbdf05b92	-0.11736216
51	0x3ada8185	0.001667068
52	0x3e892cca	0.26791984
53	0x3e9c45bb	0.3052195
54	0x3e59041b	0.21192972
55	0xbe430e34	-0.19048387
56	0x3d9cb0e3	0.07650926
57	0xbdb7123a	-0.08939023
58	0x3e80df5e	0.25170416
59	0x3e8725fa	0.2639616
60	0xbd318910	-0.043343604
61	0x3eade489	0.3396342
62	0x3da0fb26	0.07860403
63	0x3e46bfdb	0.19409125
64	0xbe33af87	-0.17547427
65	0x3d43e57c	0.047826275
66	0xbe6574d8	-0.22407854
67	0x3e986acc	0.2976898
68	0xbe5546b0	-0.20827746
69	0xbe8df8d7	-0.27728912
70	0x3e872fe0	0.26403713
71	0x3e639d67	0.22228013
72	0xbda1e9d1	-0.07905925
73	0x3d4856a3	0.04891075
74	0xbe3679fd	-0.17819972
75	0x3e6e6aa8	0.23282874
76	0x3e610afb	0.21976845
77	0x3e673501	0.22578813
78	0xbe9b3d5b	-0.30320248
79	0x3c40f477	0.011777035
80	0x3e893b3a	0.26803
81	0xbdaf4038	-0.08557171
82	0xbd875ed2	-0.066098824
83	0xbe56783a	-0.209443
84	0x3e7d22cc	0.24720305
85	0x3e869d31	0.26291803
86	0xbe81a908	-0.25324273
87	0x3e715ce1	0.23570587
88	0x3cbe6210	0.02324012
89	0x3e909c97	0.2824447
90	0x3e91a604	0.28446972
91	0xbeb491d0	-0.35267496
92	0xbd7ecac8	-0.062205106
93	0x3e474835	0.19461139
94	0xbe8fda01	-0.2809601
95	0x3e195e8f	0.14977477
96	0x3de68fda	0.11257906
97	0xbe5afae6	-0.21384773
98	0x3d9ea408	0.0774613
99	0x3d606971	0.054788057
100	0x3de4095c	0.11134598
101	0x3e85b248	0.2611258
102	0x3e5f668b	0.21816461
103	0xbdeb57f0	-0.11491382
104	0xbe4716ee	-0.1944234
105	0xbdb21ca6	-0.086968705
106	0xbeb2dbca	-0.3493331
107	0x3ae6c7e3	0.0017607178
108	0x3e064f64	0.13116223
109	0xbde338c9	-0.11094815
110	0xbea5f025	-0.32409778
111	0x3c72752b	0.014798443
112	0xbddab52f	-0.10679089
113	0x3ea2dbe0	0.31808376
114	0xbdbcb00e	-0.09213267
115	0x3ce421dd	0.027848179
116	0x3d950bd2	0.07277645
117	0x3e9c9387	0.30581304
118	0x3dfc4f8f	0.12319862
119	0x3dcb11f1	0.099155314
120	0x3e553faf	0.20825075
121	0xbe990696	-0.29887837
122	0x3e979646	0.29606837
123	0xbe882d26	-0.26596946
124	0x3e45962a	0.19295564
125	0x3dbc1582	0.0918379
126	0x3e7e1062	0.24810937
127	0x3d398c03	0.04529954

onnx::Conv_1382 f4 [16]
0	0xbeb0bf33	-0.34520873
1	0x3d21ef63	0.039534938
2	0xbdda292d	-0.10652385
3	0x3ea0dffd	0.3142089
4	0x3df3499c	0.11879274
5	0x3e048232	0.1294029
6	0x3e8add04	0.27121747
7	0xbd859a68	-0.06523591
8	0x3d5baa27	0.053629067
9	0xbe6739ff	-0.22580718
10	0x3d6060c7	0.054779794
11	0x3e15d4d4	0.14631969
12	0xbd24894d	-0.040170003
13	0xbe4f9282	-0.20270732
14	0x3e78139e	0.24226233
15	0xbe068d82	-0.13139918

onnx::Conv_1384 f4 [16, 1, 3, 3]
0	0xbdf4585b	-0.11930915
1	0x3e32fcf8	0.17479312
2	0x3d03e60b	0.032201808
3	0x3e93db36	0.28878182
4	0x3debad6e	0.115076885
5	0x3d0c4d08	0.03425315
6	0x3e9687b9	0.29400423
7	0x3e0e3511	0.1388743
8	0x3c72995b	0.014807071
9	0x3e7de1a0	0.247931
10	0x3cc8e93e	0.024525281
11	0x3e804d0d	0.25058785
12	0x3e7a3329	0.24433579
13	0x3e972565	0.29520717
14	0x3dea1c89	0.11431224
15	0xbdee4158	-0.11633557
16	0xbea09c22	-0.3136912
17	0x3e59a347	0.21253692
18	0xbe4e826c	-0.2016694
19	0x3e982149	0.29712895
20	0xbe21715e	-0.15765902
21	0x3e71e731	0.23623349
22	0x3e811a5a	0.25215417
23	0xbd6972de	-0.05699431
24	0x3cc8083e	0.024417993
25	0x3db5df9a	0.08880539
26	0xbc8f04d1	-0.017458351
27	0xbe9e023a	-0.30861074
28	0xbe8ad105	-0.27112594
29	0xbdc1cfd0	-0.09463465
30	0x3dd56695	0.104199566
31	0xbd0e627c	-0.03476189
32	0x3e62a159	0.22131862
33	0xbdff6c32	-0.124718085
34	0xbc32081c	-0.010866191
35	0x3ea68e3b	0.32530388
36	0x3e79cd59	0.2439474
37	0x3e9401cf	0.2890763
38	0x3d08ef3e	0.033431284
39	0x3d4bb6d3	0.0497349
40	0xbd5df1ed	-0.054185797
41	0xbe9b982c	-0.30389535
42	0xbe484939	-0.19559182
43	0x3cb80e44	0.02246774
44	0xbd080ae9	-0.03321353
45	0xbbdcfe62	-0.006744192
46	0xbe3ecc57	-0.18632637
47	0x3ca537b5	0.020168165
48	0xbd5fa8e2	-0.05460442
49	0x3e08ae91	0.13347842
50	0x3e2bf156	0.16791281
51	0x3e992649	0.29912022
52	0x3e6db08d	0.2321188
53	0xbe09dc6b	-0.13462989
54	0x3e720889	0.23636068
55	0xbea55f29	-0.32299164
56	0x3e928142	0.2861424
57	0xbea403b6	-0.3203408
58	0xbe7f9e12	-0.24962643
59	0x3d451615	0.048116762
60	0xbe918af3	-0.28426322
61	0xbe8c2148	-0.27369142
62	0x3e56c8fd	0.20975108
63	0xbd4ad7c8	-0.04952219
64	0x3e810170	0.2519641
65	0x3e42e8a6	0.19034061
66	0xbd71d3dc	-0.059039935
67	0xbeaa4dee	-0.3326258
68	0x3e6f33bd	0.2335958
69	0x3e787471	0.24263169
70	0x3e8e56c9	0.27800587
71	0xbdcd3c98	-0.10021323
72	0xbd163fa5	-0.03668179
73	0xbdc30846	-0.095230624
74	0x3dddcae7	0.10829716
75	0xbc7cd9ad	-0.015432757
76	0xbe4c1815	-0.19931062
77	0x3e6d51c0	0.23175716
78	0xbea88d79	-0.32920435
79	0x3e8084f5	0.25101438
80	0x3e7acc61	0.24492027
81	0xbe4d9333	-0.20075683
82	0xbdab5673	-0.08366098
83	0x3deede02	0.116634384
84	0xbe53ccdb	-0.20683615
85	0xbd7550c6	-0.059891485
86	0xbe26a8f4	-0.16275388
87	0x3e33010d	0.1748087
88	0x3e682c1c	0.22673076
89	0xbdae5f02	-0.08514215
90	0x3d30617c	0.04306172
91	0xbe727fd8	-0.23681581
92	0x3e84600b	0.25854525
93	0x3ea792c4	0.3272916
94	0x3c88c2be	0.016694423
95	0xbe89cddb	-0.26914868
96	0xbdddd70d	-0.10832033
97	0x3df85e6f	0.12127387
98	0x3e8719fb	0.2638701
99	0xbd18204e	-0.037140183
100	0x3d67f02a	0.056625523
101	0x3e4403f8	0.19142139
102	0xbd259cea	-0.040432848
103	0x3e228083	0.15869336
104	0x3e42fb2e	0.1904113
105	0xbe9809ec	-0.2969507
106	0xbdbdc942	-0.092669025
107	0x3e1c430b	0.1525995
108	0x3e6eae00	0.23308563
109	0x3d97ed09	0.07418258
110	0xbe2339ba	-0.1593999
111	0x3ccd9ee8	0.025100186
112	0xbdcdba12	-0.10045256
113	0xbd88993e	-0.06669854
114	0xbd4d62d3	-0.050143074
115	0xbcbaf983	-0.022824055
116	0xbe26d554	-0.16292316
117	0xbdce48fc	-0.100725144
118	0xbe07eaa9	-0.1327311
119	0x38a72a74	7.971088e-05
120	0x3e8d6881	0.27618793
121	0xbe362007	-0.17785655
122	0xbdeff50c	-0.11716661
123	0xbdf7e735	-0.12104646
124	0x3bd0c167	0.0063707116
125	0x3ea0abe3	0.3138114
126	0x3df73b2a	0.120718315
127	0x3e307a5c	0.17234176
128	0xbdbe795d	-0.09300492
129	0xbe25137a	-0.16120711
130	0x3e0a8c2b	0.13530032
131	0x3e83537d	0.25649634
132	0x3df8cdc4	0.12148622
133	0x3dec3a9d	0.11534617
134	0xbe399c6e	-0.1812608
135	0x3ea01ebf	0.31273457
136	0x3e8c5cf4	0.27414668
137	0x3ded9d6d	0.11602292
138	0x3e0649af	0.13114046
139	0x3e1dff4a	0.15429416
140	0x3d3ad0d9	0.04560933
141	0x3d61a561	0.05508936
142	0xbe4089d1	-0.18802573
143	0x3e2a20f3	0.16614132

onnx::Conv_1385 f4 [16]
0	0xbe88b345	-0.26699272
1	0x3ea8267c	0.3284186
2	0xbe2ad423	-0.16682486
3	0xbe0bfdc0	-0.13671017
4	0xbe64c63b	-0.22341244
5	0xbe45fb3a	-0.19334117
6	0x3e5770af	0.21039079
7	0xbcc2baab	-0.02377065
8	0xbea6a84c	-0.32550275
9	0xbde55ebb	-0.11199709
10	0x3e113e1e	0.14183852
11	0x3e6474d5	0.22310193
12	0xbd9479bf	-0.07249784
13	0xbe8e07ab	-0.27740225
14	0xbe003d24	-0.12523323
15	0xbe9acbaf	-0.30233523

onnx::Conv_1387 f4 [8, 16, 1, 1]
0	0xbdb74e8c	-0.089505285
1	0xbdf8c9d6	-0.12147872
2	0x3d7f1794	0.062278345
3	0xbd08ca23	-0.033395898
4	0xbd8bdfe6	-0.068298146
5	0x3e7a0310	0.24415231
6	0x3e11f0ec	0.1425206
7	0xbd1543bf	-0.03644156
8	0x3e49baf0	0.19700217
9	0x3e6b4e15	0.22979005
10	0x3e3b9b90	0.18321061
11	0x3e4092af	0.18805955
12	0x3e4399de	0.19101664
13	0x3e09f277	0.13471399
14	0x3e5055f2	0.20345286
15	0xbe4db333	-0.2008789
16	0x3e77557d	0.24153705
17	0x3df80403	0.1211014
18	0xbe180650	-0.14846158
19	0xbdfb7a09	-0.12279136
20	0xbe4c71c3	-0.19965272
21	0xbe3d531a	-0.18488732
22	0xbe11dbc0	-0.14243984
23	0xbe4ef332	-0.20209959
24	0x3da0b723	0.078474306
25	0x3e373842	0.17892554
26	0x3e54a678	0.20766628
27	0xbe5edc61	-0.21763755
28	0xbda4a83a	-0.08039899
29	0xbd8c242a	-0.06842835
30	0x3e08e523	0.13368659
31	0x3e3d7680	0.18502235
32	0xbb805f56	-0.003917615
33	0xbde6a568	-0.112620175
34	0x3d37fbbc	0.044917807
35	0xbd6505ed	-0.055913854
36	0x3e61c63a	0.22048274
37	0xbc089bb3	-0.008337903
38	0xbe119b08	-0.14219296
39	0xbe74f60a	-0.23921981
40	0xbd78ce4e	-0.060743622
41	0x3e7acc86	0.24492082
42	0x3e2599d8	0.16171968
43	0xbd8e85c5	-0.06959108
44	0xbd88a753	-0.066725396
45	0x3e40af17	0.18816791
46	0xbe0a4ac9	-0.13505091
47	0x3cab4938	0.020908937
48	0xbda7888d	-0.08180342
49	0xbe1eea3e	-0.15519044
50	0x3e51db7b	0.20493881
51	0x3e4505a9	0.1924044
52	0x3e788fc8	0.24273598
53	0x3e2b378a	0.16720405
54	0xbda084c3	-0.07837822
55	0xbe74d22a	-0.23908296
56	0xbd86b740	-0.06577921
57	0x3e465235	0.19367297
58	0xbd75ed07	-0.0600405
59	0xbe6075fc	-0.21920007
60	0x3e0bc78e	0.13650343
61	0x3da2e393	0.079535626
62	0xbd0f8cb9	-0.035046313
63	0xbdf33ee4	-0.1187723
64	0xbe7baa65	-0.24576719
65	0x3c71e911	0.01476504
66	0xbe78fa4e	-0.24314234
67	0xbe419532	-0.1890457
68	0x3b3d8a42	0.002892152
69	0x3d45406f	0.04815715
70	0x3d9e74c4	0.07737115
71	0x3de277c2	0.11057998
72	0x3df630b7	0.1202101
73	0x3dd5e1e2	0.10443474
74	0xbe20466b	-0.15651862
75	0x3dcd6bd1	0.1003033
76	0xbd81ebc9	-0.063438006
77	0xbd0b8242	-0.03405977
78	0xbddfa6d7	-0.10920494
79	0xbe1c568b	-0.15267389
80	0xbe009d14	-0.1255992
81	0xbe68a2de	-0.22718379
82	0xbd98ec36	-0.07466929
83	0x3e25aee0	0.16179991
84	0xbbce0d3c	-0.0062881988
85	0xbe023a79	-0.12717618
86	0x3c0c3a52	0.0085588265
87	0xbe61d024	-0.22052056
88	0x3cdcde08	0.026961342
89	0xbe03af03	-0.1285973
90	0xbe5a50cc	-0.21319884
91	0xbdcb9df9	-0.0994224
92	0x3d2676a9	0.040640507
93	0xbc4bd5dd	-0.012441126
94	0xbe53030d	-0.20606633
95	0x3e0fddc3	0.14049439
96	0xbe471cbb	-0.19444554
97	0xbe08738f	-0.13325332
98	0x3da59b82	0.080863014
99	0x3e7e86fe	0.24856183
100	0x3e5c8292	0.21534184
101	0x3d8fc681	0.070202835
102	0xbb897f93	-0.0041961162
103	0xbe030a4f	-0.12796901
104	0x3d9c0931	0.076189406
105	0xbc972c8e	-0.018453863
106	0xbe4a58fe	-0.1976051
107	0xbe78dcee	-0.24303028
108	0x3e3ea50b	0.18617646
109	0x3e0772d0	0.13227391
110	0xbe40dd5d	-0.18834443
111	0x3de1c596	0.11024015
112	0x3db1e332	0.08685912
113	0x3e6746aa	0.2258555
114	0xbdca182a	-0.0986789
115	0x3e10f708	0.14156735
116	0xbe5b10d2	-0.21393135
117	0x3e5ef773	0.21774082
118	0xbd3e7f41	-0.046508078
119	0xbe62cd68	-0.22148669
120	0x3dac1020	0.08401513
121	0x3cf05e11	0.02934173
122	0xbd36f74c	-0.044669434
123	0x3d7a521e	0.06111347
124	0xbd24a7e2	-0.040199168
125	0xbe026b53	-0.12736253
126	0xbe4b98f7	-0.1988257
127	0xbc427780	-0.011869311

onnx::Conv_1388 f4 [8]
0	0x3e584bb3	0.21122627
1	0x3d861978	0.065478265
2	0xba98f4ce	-0.0011669637
3	0x3e6bf52b	0.23042743
4	0x3cc8382e	0.024440851
5	0xbe2c109e	-0.16803214
6	0x3cb95353	0.02262274
7	0xbd950b1b	-0.07277509

onnx::Conv_1390 f4 [16, 8, 1, 1]
0	0x3ddc6d61	0.1076305
1	0x3df45299	0.11929817
2	0x3d170999	0.036874387
3	0xbcb36ce5	-0.02190251
4	0xbe598b63	-0.21244578
5	0x3d199e85	0.03750469
6	0x3e944a91	0.2896314
7	0x3e8c1064	0.27356255
8	0xbe756482	-0.23964122
9	0xbea0c897	-0.31403038
10	0x3d868782	0.06568815
11	0x3e352c57	0.17692696
12	0xbd1ced69	-0.03831235
13	0x3ea69127	0.32532617
14	0xbe1a2442	-0.15052894
15	0x3e89db05	0.2692491
16	0x3e6d9968	0.23203051
17	0xbe664170	-0.224859
18	0x3e8d45ee	0.27592415
19	0xbe124b5e	-0.14286563
20	0xbd4d1d4f	-0.05007678
21	0x3eb1df16	0.34740514
22	0x3d41ff5a	0.047362663
23	0xbd23724d	-0.039903928
24	0x3e42b505	0.19014366
25	0xbe431aa2	-0.19053128
26	0xbca86887	-0.020557655
27	0xbe030769	-0.12795796
28	0xbd2d4aa4	-0.04230751
29	0xbde3915a	-0.11111708
30	0xbdc77595	-0.09739224
31	0x3e1cc348	0.15308869
32	0xbd082ffd	-0.03324889
33	0x3ca6ab7e	0.020345446
34	0xbe2a50d3	-0.16632394
35	0x3c901062	0.017585937
36	0xbe945162	-0.2896834
37	0xbe59df1f	-0.2127652
38	0xbd2634a7	-0.040577557
39	0x3e3f4afc	0.18680948
40	0x3e37903f	0.1792612
41	0xbcd4fa6e	-0.02599832
42	0xbe11af82	-0.14227107
43	0x3e9ab5c3	0.30216798
44	0x3e2f25c0	0.17104244
45	0x3d7325fd	0.0593624
46	0x3daa238c	0.08307561
47	0xbe149dd5	-0.14513333
48	0xbe8ba2ea	-0.2727273
49	0xbea7d1cf	-0.3277726
50	0x3d91a1c0	0.071109295
51	0xbea98a84	-0.33113492
52	0xbe878300	-0.26467133
53	0x3dcf5f03	0.10125544
54	0xbbb72804	-0.005589487
55	0x3e77617b	0.2415828
56	0x3e6c98ea	0.23105207
57	0x3dcd7ab7	0.100331716
58	0x3c603bb3	0.013686108
59	0xba92948e	-0.0011183189
60	0x3d4675b9	0.048452113
61	0xbc853386	-0.01625992
62	0xbe5b9cc3	-0.21446519
63	0x3e79c936	0.24393162
64	0xbdfb2995	-0.122637905
65	0x3d4a68a9	0.049416218
66	0x3eb33682	0.35002524
67	0x3e401db7	0.18761335
68	0x3d2cf619	0.042226885
69	0xbded44eb	-0.11585411
70	0x3e198ffb	0.1499633
71	0x3e2d3a17	0.16916691
72	0x3eaeb500	0.34122467
73	0x3dadb2f0	0.08481395
74	0xbea595c7	-0.32340834
75	0xbe867810	-0.26263475
76	0x3ea7df81	0.32787707
77	0xbd8caed3	-0.068692826
78	0x3e96372d	0.2933897
79	0xbe4b39dc	-0.1984629
80	0x3e99bcdc	0.300269
81	0xbea5471e	-0.3228082
82	0xbd96a3fa	-0.07355495
83	0x3e9da2fa	0.30788404
84	0x3e98d03c	0.2984637
85	0x3af75206	0.0018869049
86	0xbe77eab4	-0.24210626
87	0xbe433370	-0.1906259
88	0xbdbe5e11	-0.092952855
89	0x3e43aff2	0.19110087
90	0xbe027d37	-0.12743078
91	0xbe924763	-0.2857009
92	0xbd71e628	-0.059057385
93	0x3deb1287	0.11478143
94	0x3ddb61a7	0.10711985
95	0xbe7f3b85	-0.24925049
96	0xbe9212bc	-0.28529918
97	0xbe9d2257	-0.30690262
98	0x3d8eb625	0.06968335
99	0x3e68550d	0.22688694
100	0xbea3e1f3	-0.32008323
101	0xbe6624a8	-0.22474921
102	0xbe21dfad	-0.15807982
103	0x3e57462d	0.21022864
104	0x3dbea942	0.09309627
105	0x3e093c12	0.13401821
106	0x3b88c218	0.0041735284
107	0x3dd8bb79	0.105826326
108	0x3d3c6a4b	0.045999806
109	0x3e7be0f9	0.24597539
110	0xbb828a68	-0.0039837845
111	0x3dcf94cc	0.101358026
112	0xbe4fe35a	-0.20301571
113	0xbe155a99	-0.14585342
114	0xbd568110	-0.052369177
115	0xbde64069	-0.11242754
116	0xbe589189	-0.21149267
117	0x3eb3e502	0.35135657
118	0xbe34778d	-0.1762373
119	0xbe3abd73	-0.18236332
120	0xbea94f2b	-0.33068213
121	0x3d824af1	0.0636195
122	0xbea1418c	-0.3149532
123	0xbe3ff615	-0.18746217
124	0x3e93a5b7	0.28837368
125	0x3db3d7a0	0.087813616
126	0x3ea99ef1	0.33129075
127	0xbe90f766	-0.2831375

onnx::Conv_1391 f4 [16]
0	0xbda59ffd	-0.08087156
1	0xbdeeb443	-0.11655476
2	0x3b90de26	0.0044210134
3	0x3e63977e	0.22225758
4	0x3e90aa0f	0.28254744
5	0x3e37318a	0.17889991
6	0xbe703240	-0.23456669
7	0xbe8b7bc3	-0.2724286
8	0xbe098396	-0.13429102
9	0xbb9bd82e	-0.0047559952
10	0x3e861788	0.26189828
11	0xbeb07653	-0.34465274
12	0x3dd3201f	0.10308861
13	0x3cdd9e13	0.027052915
14	0x3d7c944e	0.061664872
15	0xbb0136ff	-0.0019716618

onnx::Conv_1393 f4 [16, 1, 3, 3]
0	0x3e7cc928	0.2468611
1	0xbcb30530	-0.02185306
2	0xbce26161	-0.027634325
3	0xbe1ffefc	-0.15624613
4	0xbe44b22f	-0.19208597
5	0x3dbfa931	0.093584426
6	0x3dfd99b8	0.12382835
7	0x3def07ad	0.11671386
8	0xbea93413	-0.33047542
9	0x3e52b87b	0.20578186
10	0x3e47560f	0.19466422
11	0xbe19a656	-0.15004858
12	0xbe7b77b8	-0.24557388
13	0xbdc2f000	-0.095184326
14	0x3e67431f	0.22584198
15	0x3d52e5fb	0.051488858
16	0x3e6bd691	0.2303107
17	0xbe54add2	-0.20769432
18	0xbe88cfb3	-0.26720962
19	0xbe0c9592	-0.13728932
20	0xbe2349a0	-0.15946054
21	0x3d2f26f2	0.04276175
22	0x3dac2cb3	0.08406963
23	0xbe1708c9	-0.14749445
24	0xbd90dd70	-0.07073486
25	0xbe4a6ddc	-0.1976847
26	0x3de4dec5	0.111753024
27	0xbe2eac35	-0.1705788
28	0x3e1afd95	0.15135796
29	0xbe8be2b5	-0.273214
30	0x3ea5d80d	0.32391396
31	0x3b4407c0	0.0029911846
32	0x3e9fa41a	0.31179887
33	0x3d987084	0.07443336
34	0xbde034cc	-0.1094757
35	0x3e3a54f9	0.18196477
36	0x3e952dfb	0.29136643
37	0x3e0315c5	0.12801273
38	0x3e9f5f1b	0.31127247
39	0xbe368a22	-0.17826131
40	0xbe90830b	-0.28224978
41	0xbe44361e	-0.19161269
42	0xbe0399ed	-0.12851687
43	0x3ddcc928	0.10780555
44	0x3d2aa7a8	0.041663796
45	0x3ea5c62a	0.3237775
46	0x3e65414b	0.22388189
47	0xbe6c10eb	-0.23053329
48	0x3e88a099	0.26685026
49	0x3e28bc6c	0.16478127
50	0x3e777295	0.24164803
51	0x3e8d3a14	0.27583373
52	0xbada3d0e	-0.0016650276
53	0xbdb6f82f	-0.08934056
54	0xbd760b6f	-0.060069498
55	0xbe9e459c	-0.30912483
56	0x3e238a4a	0.15970722
57	0x3dc1efab	0.09469541
58	0xbe140cc2	-0.14457992
59	0x3db99913	0.090624
60	0x3e0e3d6c	0.13890618
61	0xbbfe8402	-0.0077672014
62	0xbe059d3c	-0.13048261
63	0x3e91925b	0.28431973
64	0xbdc056b1	-0.09391535
65	0xbe837e13	-0.25682124
66	0x3d61bf0c	0.055113837
67	0xbe8e9d31	-0.27854303
68	0xbc3ba76d	-0.011453492
69	0x3e3133d9	0.17304935
70	0x3e29205f	0.16516255
71	0x3ce234e1	0.027613105
72	0xbc481c14	-0.012213726
73	0xbe8b1b99	-0.27169493
74	0xbd727d90	-0.059201777
75	0xbe127058	-0.14300668
76	0x3d34dc10	0.04415518
77	0xbe5258d3	-0.20541696
78	0x3e809928	0.2511685
79	0x3d7bef2d	0.061507393
80	0x3de8992f	0.113573425
81	0xbd989eb9	-0.07452149
82	0x3e1d19a4	0.15341812
83	0xbdc348bb	-0.095353566
84	0x3e02ad58	0.12761438
85	0xbe75ad7f	-0.23991965
86	0xbe8272b4	-0.25478137
87	0x3e958c5d	0.2920865
88	0xbe3fc05f	-0.18725727
89	0xbd72cd10	-0.059277594
90	0x3e48caf9	0.19608678
91	0xbe2e613a	-0.17029276
92	0x3e9d1f9e	0.30688184
93	0xbdcf2f5c	-0.10116455
94	0xbe96e986	-0.2947504
95	0x3de04576	0.109507486
96	0xbdfa715e	-0.12228654
97	0x3e97410c	0.29541814
98	0x3d85888a	0.065201834
99	0x3e83bb01	0.2572861
100	0xbd78d099	-0.06074581
101	0x3e7bca08	0.24588788
102	0x3e600a44	0.21878916
103	0x3e88a0c7	0.26685163
104	0x3e8e001d	0.2773446
105	0xbe373f47	-0.17895232
106	0xbd582a4f	-0.052774724
107	0x3db42535	0.08796159
108	0x3e3b93f0	0.18318152
109	0x3e06b37f	0.1315441
110	0x3e7d6515	0.24745591
111	0x3e21c141	0.15796377
112	0x3e9dc756	0.30816144
113	0xbe03328b	-0.1281225
114	0xbe9f1d3c	-0.31076992
115	0xbe2a6900	-0.16641617
116	0x3eaa95a3	0.3331729
117	0xbe7ede12	-0.248894
118	0xbe964fd9	-0.29357794
119	0x3d62f881	0.055412773
120	0xbe200d99	-0.15630187
121	0xbd43960b	-0.047750514
122	0xbdc86d64	-0.097864896
123	0xbdb33ef0	-0.08752239
124	0x3e817624	0.25285447
125	0x3e866c17	0.2625434
126	0xbe1fe27a	-0.15613738
127	0xbe1b0363	-0.1513801
128	0xbe1e6d07	-0.15471278
129	0x3e4b90d0	0.1987946
130	0xbcf4eb46	-0.029897343
131	0xbe81efa1	-0.25378135
132	0xbe351493	-0.1768363
133	0x3e9416c6	0.28923625
134	0xbe5f7b62	-0.2182441
135	0x3dd2d6c6	0.10294871
136	0xbccbb468	-0.024866298
137	0xbdebff7e	-0.11523341
138	0x3e8ab895	0.2709395
139	0xbe61ca89	-0.22049917
140	0x3e4ac7b0	0.19802737
141	0x3e6410a5	0.22271974
142	0xbdfd13d3	-0.12357297
143	0xbba813c9	-0.0051293117

onnx::Conv_1394 f4 [16]
0	0x3ea865bd	0.3289012
1	0x3e8f0d4f	0.2793984
2	0xbe34c885	-0.17654617
3	0xbde2c5a6	-0.11072855
4	0xbe7c4d35	-0.24638827
5	0x3ea0318a	0.31287795
6	0xbe24eb6a	-0.16105428
7	0x3da17a51	0.07884658
8	0xbe9f3758	-0.3109691
9	0xbdd1d72b	-0.10246118
10	0xbe641c70	-0.22276473
11	0xbd97b7e9	-0.07408125
12	0x3e3583bc	0.17726034
13	0xbd946e3a	-0.072475865
14	0x3bdded0d	0.0067726434
15	0xbd9666d5	-0.073438324
