gtcrn_micro/models/onnx/gtcrn_micro.onnx (onnx, 326655 bytes, 119 tensors)

onnx::MatMul_2603 f4 [192, 64]
0	0x3f800000	1.0
1	0x2b8cbccc	1e-12
2	0x00000000	0.0
3	0x00000000	0.0
4	0x00000000	0.0
5	0x00000000	0.0
6	0x00000000	0.0
7	0x00000000	0.0
8	0x00000000	0.0
9	0x00000000	0.0
10	0x00000000	0.0
11	0x00000000	0.0
12	0x00000000	0.0
13	0x00000000	0.0
14	0x00000000	0.0
15	0x00000000	0.0
16	0x00000000	0.0
17	0x00000000	0.0
18	0x00000000	0.0
19	0x00000000	0.0
20	0x00000000	0.0
21	0x00000000	0.0
22	0x00000000	0.0
23	0x00000000	0.0
24	0x00000000	0.0
25	0x00000000	0.0
26	0x00000000	0.0
27	0x00000000	0.0
28	0x00000000	0.0
29	0x00000000	0.0
30	0x00000000	0.0
31	0x00000000	0.0
32	0x00000000	0.0
33	0x00000000	0.0
34	0x00000000	0.0
35	0x00000000	0.0
36	0x00000000	0.0
37	0x00000000	0.0
38	0x00000000	0.0
39	0x00000000	0.0
40	0x00000000	0.0
41	0x00000000	0.0
42	0x00000000	0.0
43	0x00000000	0.0
44	0x00000000	0.0
45	0x00000000	0.0
46	0x00000000	0.0
47	0x00000000	0.0
48	0x00000000	0.0
49	0x00000000	0.0
50	0x00000000	0.0
51	0x00000000	0.0
52	0x00000000	0.0
53	0x00000000	0.0
54	0x00000000	0.0
55	0x00000000	0.0
56	0x00000000	0.0
57	0x00000000	0.0
58	0x00000000	0.0
59	0x00000000	0.0
60	0x00000000	0.0
61	0x00000000	0.0
62	0x00000000	0.0
63	0x00000000	0.0
64	0x00000000	0.0
65	0x3f800000	1.0
66	0x2b0cbccc	5e-13
67	0x00000000	0.0
68	0x00000000	0.0
69	0x00000000	0.0
70	0x00000000	0.0
71	0x00000000	0.0
72	0x00000000	0.0
73	0x00000000	0.0
74	0x00000000	0.0
75	0x00000000	0.0
76	0x00000000	0.0
77	0x00000000	0.0
78	0x00000000	0.0
79	0x00000000	0.0
80	0x00000000	0.0
81	0x00000000	0.0
82	0x00000000	0.0
83	0x00000000	0.0
84	0x00000000	0.0
85	0x00000000	0.0
86	0x00000000	0.0
87	0x00000000	0.0
88	0x00000000	0.0
89	0x00000000	0.0
90	0x00000000	0.0
91	0x00000000	0.0
92	0x00000000	0.0
93	0x00000000	0.0
94	0x00000000	0.0
95	0x00000000	0.0
96	0x00000000	0.0
97	0x00000000	0.0
98	0x00000000	0.0
99	0x00000000	0.0
100	0x00000000	0.0
101	0x00000000	0.0
102	0x00000000	0.0
103	0x00000000	0.0
104	0x00000000	0.0
105	0x00000000	0.0
106	0x00000000	0.0
107	0x00000000	0.0
108	0x00000000	0.0
109	0x00000000	0.0
110	0x00000000	0.0
111	0x00000000	0.0
112	0x00000000	0.0
113	0x00000000	0.0
114	0x00000000	0.0
115	0x00000000	0.0
116	0x00000000	0.0
117	0x00000000	0.0
118	0x00000000	0.0
119	0x00000000	0.0
120	0x00000000	0.0
121	0x00000000	0.0
122	0x00000000	0.0
123	0x00000000	0.0
124	0x00000000	0.0
125	0x00000000	0.0
126	0x00000000	0.0
127	0x00000000	0.0
128	0x00000000	0.0
129	0x3f000000	0.5
130	0x3f000000	0.5
131	0x00000000	0.0
132	0x00000000	0.0
133	0x00000000	0.0
134	0x00000000	0.0
135	0x00000000	0.0
136	0x00000000	0.0
137	0x00000000	0.0
138	0x00000000	0.0
139	0x00000000	0.0
140	0x00000000	0.0
141	0x00000000	0.0
142	0x00000000	0.0
143	0x00000000	0.0
144	0x00000000	0.0
145	0x00000000	0.0
146	0x00000000	0.0
147	0x00000000	0.0
148	0x00000000	0.0
149	0x00000000	0.0
150	0x00000000	0.0
151	0x00000000	0.0
152	0x00000000	0.0
153	0x00000000	0.0
154	0x00000000	0.0
155	0x00000000	0.0
156	0x00000000	0.0
157	0x00000000	0.0
158	0x00000000	0.0
159	0x00000000	0.0
160	0x00000000	0.0
161	0x00000000	0.0
162	0x00000000	0.0
163	0x00000000	0.0
164	0x00000000	0.0
165	0x00000000	0.0
166	0x00000000	0.0
167	0x00000000	0.0
168	0x00000000	0.0
169	0x00000000	0.0
170	0x00000000	0.0
171	0x00000000	0.0
172	0x00000000	0.0
173	0x00000000	0.0
174	0x00000000	0.0
175	0x00000000	0.0
176	0x00000000	0.0
177	0x00000000	0.0
178	0x00000000	0.0
179	0x00000000	0.0
180	0x00000000	0.0
181	0x00000000	0.0
182	0x00000000	0.0
183	0x00000000	0.0
184	0x00000000	0.0
185	0x00000000	0.0
186	0x00000000	0.0
187	0x00000000	0.0
188	0x00000000	0.0
189	0x00000000	0.0
190	0x00000000	0.0
191	0x00000000	0.0
192	0x00000000	0.0
193	0x00000000	0.0
194	0x3f800000	1.0
195	0x2b0cbccc	5e-13
196	0x00000000	0.0
197	0x00000000	0.0
198	0x00000000	0.0
199	0x00000000	0.0
200	0x00000000	0.0
201	0x00000000	0.0
202	0x00000000	0.0
203	0x00000000	0.0
204	0x00000000	0.0
205	0x00000000	0.0
206	0x00000000	0.0
207	0x00000000	0.0
208	0x00000000	0.0
209	0x00000000	0.0
210	0x00000000	0.0
211	0x00000000	0.0
212	0x00000000	0.0
213	0x00000000	0.0
214	0x00000000	0.0
215	0x00000000	0.0
216	0x00000000	0.0
217	0x00000000	0.0
218	0x00000000	0.0
219	0x00000000	0.0
220	0x00000000	0.0
221	0x00000000	0.0
222	0x00000000	0.0
223	0x00000000	0.0
224	0x00000000	0.0
225	0x00000000	0.0
226	0x00000000	0.0
227	0x00000000	0.0
228	0x00000000	0.0
229	0x00000000	0.0
230	0x00000000	0.0
231	0x00000000	0.0
232	0x00000000	0.0
233	0x00000000	0.0
234	0x00000000	0.0
235	0x00000000	0.0
236	0x00000000	0.0
237	0x00000000	0.0
238	0x00000000	0.0
239	0x00000000	0.0
240	0x00000000	0.0
241	0x00000000	0.0
242	0x00000000	0.0
243	0x00000000	0.0
244	0x00000000	0.0
245	0x00000000	0.0
246	0x00000000	0.0
247	0x00000000	0.0
248	0x00000000	0.0
249	0x00000000	0.0
250	0x00000000	0.0
251	0x00000000	0.0
252	0x00000000	0.0
253	0x00000000	0.0
254	0x00000000	0.0
255	0x00000000	0.0

onnx::Conv_2563 f4 [16, 3, 1, 5]
0	0x3caf8f09	0.02143051
1	0xbda18a0a	-0.07887657
2	0x3da3ad52	0.079920426
3	0xbe6f7598	-0.23384702
4	0xbe123f8a	-0.1428205
5	0xbd447c48	-0.047970086
6	0xbbbd29fe	-0.005772828
7	0x3db14954	0.08656564
8	0xbe225c6a	-0.15855566
9	0xbe2d77ae	-0.16940185
10	0xbe5d7436	-0.21626362
11	0xbe0e7a0c	-0.13913745
12	0xbe607468	-0.21919405
13	0xbe19e415	-0.15028413
14	0xbde8eeb8	-0.11373657
15	0xbe0ba878	-0.13638484
16	0xbc88b28d	-0.016686702
17	0x3e68cd5f	0.22734593
18	0x3d1eadcf	0.038739976
19	0xbe6a2150	-0.2286427
20	0x3e20ef40	0.15716267
21	0xbdd858e2	-0.10563828
22	0xbd3b5bd2	-0.045741864
23	0x3dcd9635	0.10038415
24	0x3e7cfb7e	0.24705312
25	0xbc9e913f	-0.019356368
26	0xbe1b5794	-0.15170127
27	0x3e3742dc	0.17896599
28	0x3e81c829	0.25348023
29	0x3e0f365f	0.13985585
30	0xb7d9eb34	-2.597794e-05
31	0xbd52481a	-0.051338293
32	0xbe15e009	-0.14636244
33	0x3e3fe3d8	0.18739259
34	0xbc481856	-0.012212833
35	0x3e1975d9	0.14986362
36	0x3dd1f9e6	0.102527425
37	0xbe76516d	-0.24054499
38	0xbe63ced5	-0.22246869
39	0xbdd74f60	-0.105131865
40	0x3e6203df	0.22071789
41	0x3d8e2b29	0.06941826
42	0x3e622e18	0.22087896
43	0xbe7dcd39	-0.24785317
44	0xbc8e0d21	-0.017340245
45	0x3e51bb8d	0.20481701
46	0x3ddb9ab8	0.1072287
47	0xbe828bdc	-0.2549733
48	0xbe359873	-0.17733936
49	0x3e82ccf1	0.25546983
50	0xbcd3ad18	-0.025839373
51	0x3d0b0d2f	0.03394812
52	0x3e217560	0.15767431
53	0x3e6d6a83	0.23185162
54	0x3df7af89	0.120940275
55	0xbdf92e33	-0.12167015
56	0x3e654ff4	0.22393781
57	0x3d9e19b3	0.077197455
58	0x3e01fc39	0.12693872
59	0xbd8c43e5	-0.06848887
60	0x3d26abbb	0.04069112
61	0x3e01197b	0.12607376
62	0x3e6600b6	0.22461209
63	0x3d96b198	0.07358092
64	0x3e0c0b97	0.13676296
65	0x3e81fe62	0.2538939
66	0xbe73a962	-0.23795083
67	0xbe312887	-0.17300616
68	0x3e33c02b	0.17553775
69	0xbe65dc61	-0.22447349
70	0x3daac968	0.083391964
71	0xbe40ed6d	-0.18840571
72	0xbe7567be	-0.23965356
73	0x3ca12ef2	0.019675706
74	0x3dd4cef3	0.10391035
75	0x3ccef91e	0.025265273
76	0xbe3a4181	-0.1818905
77	0x3d8503df	0.06494879
78	0xbc8fd4b8	-0.017557487
79	0xbe805081	-0.2506142
80	0x3e0a5881	0.13510324
81	0xbe208363	-0.1567512
82	0x3e3339cb	0.17502515
83	0xbca73739	-0.020412074
84	0x3e82cbd9	0.25546148
85	0xbd2dd719	-0.04244146
86	0xbd1a223d	-0.03763031
87	0xbd0fa881	-0.035072807
88	0x3d6e1530	0.058125675
89	0xbd3db308	-0.046313316
90	0xbbc064be	-0.0058713844
91	0x3e04b3ab	0.12959163
92	0xbdacd562	-0.08439137
93	0xbe1f3d60	-0.15550756
94	0xbe252fed	-0.16131563
95	0x3e424b35	0.18974002
96	0x3d1a71f5	0.037706334
97	0xbe2aa729	-0.16665329
98	0xbe31bd85	-0.17357452
99	0xbe8260e0	-0.25464535
100	0x3dc99719	0.09843273
101	0xbde268a2	-0.110551134
102	0xbe61d0c1	-0.2205229
103	0x3e3945b6	0.18092999
104	0x3e6e7c17	0.23289524
105	0x3db60131	0.08886946
106	0x3cb0194d	0.02149644
107	0xbe2a0786	-0.16604432
108	0x3e504f5a	0.2034277
109	0xbe066404	-0.1312409
110	0xbe536331	-0.20643307
111	0x3dd92e66	0.10604553
112	0xbd3ab41f	-0.045581933
113	0x3e432878	0.19058406
114	0xbcf53553	-0.029932654
115	0x3db4591f	0.08806061
116	0x3ddc2b4b	0.10750445
117	0x3e61d9d1	0.22055747
118	0xbe2dd1c4	-0.1697455
119	0xbe4e8ffb	-0.20172112
120	0x3d4f6b5e	0.050639503
121	0xbd8d4e99	-0.06899757
122	0x3dd2092e	0.10255657
123	0xbdb1f4b9	-0.08689255
124	0x3d6009a0	0.05469668
125	0xbe3921d6	-0.18079314
126	0xbdc3e3cd	-0.09564934
127	0xbc75111c	-0.0149576925
128	0xbe7e4c92	-0.24833897
129	0x3d641b63	0.05569018
130	0xbe0105ac	-0.1259982
131	0x3dc3f23a	0.095676854
132	0xbd8fb918	-0.07017726
133	0xbd2077e2	-0.03917683
134	0x3e313249	0.17304339
135	0xbe55052c	-0.20802754
136	0xbdb18f4d	-0.086699106
137	0xbd39321d	-0.045213807
138	0x3e32d0c3	0.17462449
139	0x3e2a6982	0.1664181
140	0x3e403448	0.18769944
141	0xbe543806	-0.20724496
142	0xbe11e3fa	-0.14247122
143	0x3de01f2b	0.10943445
144	0xbd7165a9	-0.05893484
145	0xbdc296d6	-0.09501426
146	0xbe33d004	-0.1755982
147	0x3dd2856c	0.102793545
148	0xbc9318b3	-0.017956113
149	0xbdf51429	-0.11966736
150	0x3d017f06	0.03161528
151	0x3dd96c4d	0.1061636
152	0x3e02812a	0.12744585
153	0x3dec0429	0.11524231
154	0xbddbdce2	-0.107354894
155	0x3dccf9d2	0.10008587
156	0x3e0b655a	0.13612881
157	0xbd6a1c2e	-0.05715578
158	0xbe15c973	-0.14627628
159	0x3e22bcd2	0.15892342
160	0x3d66c5ef	0.056341108
161	0xbe0769d0	-0.13223958
162	0x3e79c11b	0.2439007
163	0x3dd6b859	0.1048438
164	0x3e4b9ae1	0.198833
165	0xbe213c7c	-0.15745729
166	0xbd18eaa1	-0.037333135
167	0xbc0e3c0e	-0.00868131
168	0xbe7d9aee	-0.24766132
169	0xbe749139	-0.23883523
170	0x3e1ce00c	0.15319842
171	0xbdc9cc5f	-0.09853434
172	0xbdd4ad49	-0.10384614
173	0xbc5ce125	-0.013481413
174	0x3e38813b	0.18018048
175	0x3e4852b9	0.19562806
176	0xbdda88e2	-0.106706396
177	0xbdbc29a6	-0.09187631
178	0xbe7c0a26	-0.24613246
179	0xbe7853d5	-0.2425073
180	0xbd945b51	-0.0724398
181	0xbde66c39	-0.112511106
182	0x3e3f82b2	0.187022
183	0xbdcd679f	-0.1002953
184	0xbdc095e9	-0.09403593
185	0x3e5f472c	0.21804494
186	0x3e46faed	0.19431658
187	0xbdb3bba2	-0.087760225
188	0xbe28cddd	-0.1648478
189	0x3e17ca3d	0.14823242
190	0x3d86ba64	0.0657852
191	0xbe68730b	-0.22700135
192	0x3e503ddb	0.20336096
193	0x3e2f6002	0.17126468
194	0xbe746ce6	-0.23869666
195	0x3dfa1d32	0.122126
196	0x3e1979e8	0.1498791
197	0xbe817f65	-0.25292507
198	0xbdc93853	-0.09825196
199	0xbe10e5cb	-0.14150159
200	0xbe566ad7	-0.20939194
201	0x3ddb21d1	0.10699809
202	0x3e4f4054	0.20239383
203	0x3e6ac864	0.22928005
204	0xbdee7e04	-0.11645129
205	0xbe0867eb	-0.13320892
206	0x3e1ff543	0.15620904
207	0xbda12668	-0.078686535
208	0x3e163f76	0.14672646
209	0xbdd41ae7	-0.10356694
210	0xbbdf521d	-0.0068152086
211	0xbe2d5db9	-0.16930284
212	0x3e1241b6	0.14282879
213	0x3e82ede6	0.25572127
214	0x3d41f566	0.04735317
215	0x3dc87e57	0.097897224
216	0xbe3e912d	-0.18610068
217	0x3e81c7fc	0.25347888
218	0xbd2de286	-0.042452358
219	0x3dd00adf	0.101583235
220	0xbe7a8e94	-0.24468452
221	0xbe1c1806	-0.15243539
222	0x3c482f72	0.012218343
223	0x3d3d2ba3	0.046184193
224	0xbdba2eba	-0.09090944
225	0xbd42ba4e	-0.047540955
226	0xbe5b585a	-0.21420422
227	0x3e55d31c	0.20881313
228	0xbe2c38e4	-0.16818577
229	0xbe393bbd	-0.18089195
230	0xbe220ee2	-0.1582599
231	0xbdcfa5b5	-0.10139028
232	0xbd9ebb8b	-0.07750615
233	0x3e50c0ed	0.20386095
234	0x3e82f35b	0.2557629
235	0xbd910579	-0.07081122
236	0xba4dcec4	-0.000785094
237	0x3e73b8bd	0.23800941
238	0xbdca4773	-0.09876909
239	0xbdd8a992	-0.10579218

onnx::Conv_2564 f4 [16]
0	0x3e40d3f2	0.1883085
1	0x3ddda419	0.10822315
2	0x3deab653	0.11460557
3	0x3e504424	0.20338494
4	0x3c0be802	0.008539202
5	0xbe6690f2	-0.2251623
6	0xbe6339ff	-0.22190093
7	0xbc70998d	-0.014685047
8	0xbe652b1a	-0.22379723
9	0x3e462dc5	0.19353397
10	0xbd4d0268	-0.050051123
11	0xbe50adbb	-0.20378773
12	0x3e248e41	0.1606989
13	0xbd8afa4e	-0.06786023
14	0xbe68bc8a	-0.22728172
15	0xbe2e1d31	-0.17003323

onnx::Conv_2566 f4 [16, 16, 1, 5]
0	0x3d5ff45f	0.05467641
1	0xbc08571d	-0.008321551
2	0xbd316006	-0.043304466
3	0xbd84d4ec	-0.06485924
4	0xbb4b13df	-0.0030987186
5	0x3b53877c	0.00322768
6	0xbdc3eaca	-0.09566267
7	0xbbdcb3ca	-0.0067352997
8	0x3dd57847	0.10423332
9	0xbc03a65a	-0.008035267
10	0x3d98f9e3	0.07469537
11	0x3d789fb8	0.060699195
12	0x3d4d95b8	0.05019161
13	0xbdc70371	-0.09717453
14	0x3de1fbd4	0.110343605
15	0xbd9ca98a	-0.076495245
16	0x3dc40b1b	0.09572431
17	0xbd554eec	-0.05207722
18	0x3d5c1842	0.05373407
19	0x3d6dabf1	0.058025304
20	0xbd2f1e90	-0.042753756
21	0xbdc2649c	-0.09491846
22	0xbc240794	-0.010011572
23	0x3ca58c12	0.020208392
24	0x3d9cf431	0.07663763
25	0xbd3a6733	-0.045508575
26	0x3bb7e05a	0.0056114616
27	0xbcfc6c1c	-0.03081327
28	0xbc9810f7	-0.018562777
29	0x3d3c622e	0.04599207
30	0x3de3a973	0.11116304
31	0xbdd0f25b	-0.10202476
32	0x3c9030d3	0.017601406
33	0x3dca293e	0.098711476
34	0x3db9f444	0.09079793
35	0x3c16ad8c	0.00919665
36	0xbd6b05d8	-0.05737862
37	0x3d19e06b	0.037567537
38	0x3d2da377	0.04239222
39	0xbdcae5a9	-0.099070854
40	0xbb820a30	-0.0039684996
41	0x3cf8d6af	0.030375807
42	0xbd73cc49	-0.059520993
43	0xbd9abc3f	-0.07555436
44	0x3d99ca9a	0.07509346
45	0x3d44ea8b	0.04807524
46	0xbddf1714	-0.10893074
47	0xbdca9b85	-0.09892944
48	0x3daaeeae	0.08346306
49	0x3d088c91	0.03333718
50	0xbdaa8034	-0.08325234
51	0xbd0fa435	-0.03506871
52	0xbd74fa44	-0.059808984
53	0x3c883409	0.016626375
54	0xbdc4c97f	-0.09608745
55	0x3d2229f6	0.0395908
56	0xbdd94300	-0.10608482
57	0xbd75d34d	-0.060015965
58	0xbd105416	-0.03523644
59	0x3d2009c9	0.03907183
60	0x3c00dde3	0.007865402
61	0x3d0a9d37	0.033841338
62	0x3cb40b56	0.021978062
63	0xbd95aec8	-0.073087275
64	0x3de17bf4	0.1100997
65	0x3da088ff	0.0783863
66	0x3ddaf964	0.10692099
67	0xbdc83394	-0.09775463
68	0xbd7c0295	-0.0615259
69	0x3d9029be	0.07039212
70	0x3d4f33b2	0.05058641
71	0x3d6f78c4	0.05846478
72	0xbbe2a167	-0.0069162133
73	0xbcb5cbc6	-0.022191893
74	0x3d97519d	0.073886134
75	0x3dd55bd6	0.10417907
76	0x3b182330	0.0023214333
77	0xbd5a7730	-0.053336322
78	0x3dabc75b	0.083876334
79	0x3d2ea5b8	0.04263851
80	0x3be69bb3	0.0070376038
81	0x3d6abe4a	0.05731038
82	0xbd82fe41	-0.06396151
83	0x3d329d59	0.04360709
84	0xbd8ac2f9	-0.06775469
85	0xbdb38c80	-0.087670326
86	0xbc3f73e7	-0.011685348
87	0xbd891b4d	-0.0669466
88	0xbd1b3641	-0.037893537
89	0xbb867687	-0.004103485
90	0xbce408ee	-0.02783629
91	0x3c799a74	0.015234578
92	0xbccbd41e	-0.024881419
93	0xbd03aca4	-0.032147065
94	0x3d82d1d2	0.06387676
95	0x3d87094d	0.06593571
96	0xbc9c082a	-0.019046862
97	0x3d96fa91	0.073720105
98	0xbdd1444e	-0.10218106
99	0xbdc9a342	-0.09845592
100	0xbb361228	-0.0027781818
101	0xbdddd2e0	-0.10831237
102	0xbd8091e2	-0.06277825
103	0x3d541734	0.05177994
104	0x3d780fbc	0.06056188
105	0x3d35119d	0.04420625
106	0xbd88a783	-0.06672575
107	0x3d523fb0	0.05133027
108	0xbcfaed30	-0.030630678
109	0x3d706df3	0.058698606
110	0x3da43707	0.08018308
111	0xbbba3b87	-0.0056833657
112	0x3caeca19	0.021336602
113	0xbbfd79ec	-0.0077354815
114	0xbd3b2bd9	-0.045696113
115	0x3d64b5ca	0.05583743
116	0x3cf9f1a9	0.03051074
117	0xbdbd454f	-0.09241735
118	0xbd591de3	-0.053007018
119	0xbc69ce0a	-0.014270315
120	0x3d206ac6	0.039164327
121	0xbc505fb5	-0.012718131
122	0x3db11601	0.08646775
123	0xbd469ff9	-0.048492406
124	0x3dbe0be3	0.09279611
125	0x3d88037c	0.066412896
126	0x3dd4f351	0.103979714
127	0xbd7a1a3b	-0.06106017
128	0xbc45d7bf	-0.012075364
129	0xbd2ad551	-0.04170734
130	0x3c1140d7	0.008865557
131	0xbdcea8ab	-0.100907646
132	0x3cff5d94	0.031172551
133	0xbdb2def1	-0.08733929
134	0x3d1c6ad8	0.03818783
135	0x3cf9141f	0.030405102
136	0xbae48109	-0.0017433475
137	0xbd02c6e6	-0.031927966
138	0x3daf08e9	0.08546621
139	0x3da897b1	0.08232058
140	0x3d7d140e	0.061786704
141	0x3d86db47	0.065847926
142	0xbd0564eb	-0.032566946
143	0xbd564b92	-0.052318163
144	0x3c8eeb4f	0.017446188
145	0xbc8bbef3	-0.017058825
146	0x3d522107	0.05130103
147	0x3db5e393	0.08881297
148	0xbd231994	-0.039819315
149	0x3d8e0ff2	0.06936635
150	0x3dd3cc72	0.10341729
151	0xbcc8e0b1	-0.024521204
152	0x3bb0033a	0.0053714784
153	0xbd3c4ad8	-0.045969814
154	0x3cc2d77f	0.023784397
155	0xbcdec35c	-0.027192764
156	0xbd6c8e29	-0.057752762
157	0xbc143c74	-0.009047616
158	0xbd883e8d	-0.066525556
159	0x3c341481	0.010991217
160	0x3d1a7764	0.037711516
161	0x3d974be8	0.07387525
162	0x3dccf3d6	0.100074455
163	0x3cc1b0ab	0.023643812
164	0x3dd95491	0.10611833
165	0x3cc161cc	0.023606203
166	0xbdafc233	-0.085819624
167	0xbdb40fa4	-0.08792046
168	0x3dd1a6a5	0.10236863
169	0xbd5c6c52	-0.05381424
170	0xbd1d3a39	-0.038385604
171	0x3cc89f6e	0.024490084
172	0x3cd76e69	0.026297765
173	0xbcdbeddf	-0.026846824
174	0x3d40472c	0.046942875
175	0x3d022221	0.03177083
176	0x3d83bf5e	0.06432985
177	0x3dc21fdf	0.09478735
178	0x3dae0f3d	0.08499
179	0xbd70eb3d	-0.05881809
180	0xbdb790ef	-0.08963191
181	0x3da67aad	0.08128867
182	0x3ddcb482	0.10776617
183	0x3d9b8305	0.07593349
184	0x3d90a0a7	0.07061892
185	0x3bb68369	0.0055698645
186	0xbc60cbc5	-0.013720457
187	0xbdaf597d	-0.085619904
188	0xbdb70efc	-0.08938405
189	0xbd7ce8e2	-0.06174553
190	0x3c8ca93c	0.017170541
191	0xbd3afec3	-0.045653116
192	0xbd08f5d5	-0.03343757
193	0xbdb3a1b7	-0.08771079
194	0x3ce7f9ac	0.028317295
195	0x3d1319c5	0.035913248
196	0xbdcc3b6b	-0.099722706
197	0xbc98d825	-0.018657753
198	0xbc441585	-0.011968021
199	0x3dcfeb11	0.10152257
200	0x3d9a92a3	0.075475
201	0xbdd48255	-0.10376421
202	0x3dcbf825	0.09959439
203	0x3dd21554	0.10257974
204	0x3d0f3de4	0.034971133
205	0xbdd099e1	-0.101856
206	0xbdcf283d	-0.10115097
207	0xbd35681a	-0.044288732
208	0x3dbfaf3e	0.09359597
209	0x3c3ae835	0.0114079015
210	0xbd43716b	-0.047715586
211	0x3d72b031	0.05925006
212	0x3dbfb096	0.09359853
213	0xbd89e6cd	-0.06733475
214	0xbda44372	-0.08020677
215	0xbc9b0ba8	-0.018926457
216	0x3b872298	0.004123997
217	0x3c34a52d	0.011025709
218	0xbdb945bd	-0.09046505
219	0x3d0c156e	0.034200124
220	0x3b2bee52	0.002623458
221	0x3b315755	0.002706011
222	0xbd65d5da	-0.056112148
223	0x3d994d4e	0.07485448
224	0x3cdfc175	0.027313927
225	0xbd32de35	-0.043668944
226	0xbdad4ca3	-0.08461883
227	0xbcc7c9a9	-0.024388151
228	0xbd04ec93	-0.032452177
229	0xbcb15ae9	-0.021649795
230	0xbc4caffa	-0.012493128
231	0xbccfc62c	-0.02536305
232	0xbdd229aa	-0.10261853
233	0x3c0e2da3	0.008677873
234	0x3dada4c6	0.08478694
235	0x3d0a62e6	0.033785723
236	0xbb98f69c	-0.00466807
237	0xbcbdc2ba	-0.023164142
238	0x3ca7b66a	0.020472724
239	0xbd9c1f56	-0.07623164
240	0x3d9ba475	0.07599727
241	0xbd5b17d6	-0.05348953
242	0xbdad0dc8	-0.08449894
243	0x3d858afb	0.06520649
244	0xbd4aa9cd	-0.04947834
245	0xbd7e1111	-0.062027995
246	0x3dc81d12	0.0977117
247	0x3d73af50	0.059493363
248	0xbcd92504	-0.026506908
249	0xbd910f45	-0.070829906
250	0xbce6b930	-0.028164476
251	0x3dbc775b	0.09202453
252	0xbd83595c	-0.06413528
253	0xbddd6520	-0.10810304
254	0x3d06d4e8	0.032917887
255	0xbb397aaa	-0.0028301873

onnx::Conv_2567 f4 [16]
0	0xbdba998f	-0.0911132
1	0xbdc54239	-0.096317716
2	0x3d4b42a2	0.049624093
3	0xbdcba458	-0.099434555
4	0x3dd8f604	0.10593799
5	0x3d11a130	0.03555411
6	0xbd994cd6	-0.074853584
7	0x3d2e3b65	0.04253711
8	0xbce9de00	-0.02854824
9	0xbda75b86	-0.081717536
10	0xbdcd63c7	-0.10028797
11	0xbcf2d4a4	-0.02964241
12	0xbdcd9fce	-0.10040246
13	0xbcdbf88c	-0.026851915
14	0x3da2d3d3	0.079505585
15	0xbd4a77de	-0.04943072

onnx::Conv_2569 f4 [16, 8, 1, 1]
0	0x3e912cfb	0.2835463
1	0xbe84f29e	-0.25966352
2	0x3e5783b8	0.2104634
3	0x3c6f4a4c	0.014605116
4	0xbdce7737	-0.10081332
5	0xbe83dfa4	-0.25756562
6	0x3e396528	0.18104994
7	0xbdb867ef	-0.09004199
8	0xbe29e9d2	-0.16593102
9	0x3e99cb30	0.30037832
10	0x3e7ccf45	0.24688442
11	0x3e4f8b5d	0.20268007
12	0xbc96b61e	-0.018397387
13	0x3e6af620	0.22945452
14	0x3a4fd547	0.0007928204
15	0xbe8a0bed	-0.26962224
16	0xbe5a68f9	-0.21329106
17	0xbdbefd0d	-0.09325609
18	0x3df47413	0.11936202
19	0xbeadf0d6	-0.33972806
20	0xbeaf7d2e	-0.34275192
21	0xbeace7e9	-0.33770683
22	0xbdc91457	-0.09818333
23	0xbb522a12	-0.0032068533
24	0xbd59af07	-0.053145435
25	0x3e74cd06	0.23906335
26	0x3e686279	0.22693814
27	0xbd8072e3	-0.06271913
28	0x3eaf948a	0.34293014
29	0xbca71781	-0.02039695
30	0x3e59fe14	0.2128833
31	0xbe9b8fd5	-0.30383173
32	0x3ea18cb3	0.31552657
33	0xbe91296d	-0.28351918
34	0x3e867c97	0.2626693
35	0xbe6fae3b	-0.23406307
36	0x3e9bea2c	0.30452096
37	0x3eb4c669	0.35307625
38	0x3e48a7ae	0.19595215
39	0x3ea35d21	0.3190699
40	0x3e8b5ad9	0.2721775
41	0x3e6c719d	0.23090215
42	0xbd64fa8d	-0.055903006
43	0xbc821adc	-0.015881948
44	0x3e33af02	0.17547229
45	0x3e75435b	0.23951475
46	0xbe8aabd7	-0.27084228
47	0x3ddd273c	0.10798499
48	0xbe0f66bc	-0.14004034
49	0xbe472482	-0.1944752
50	0xbe552c5f	-0.20817707
51	0x3dfb0547	0.12256866
52	0xbd03b4d9	-0.03215489
53	0x3dedb3ab	0.116065346
54	0xbd7764b8	-0.060398787
55	0xbe8a2ef2	-0.2698894
56	0x3e874ed3	0.26427326
57	0x3d1f5672	0.0389008
58	0x3e87e169	0.26539162
59	0x3dcf2dcd	0.10116158
60	0xbe289e22	-0.16466573
61	0x3eb33f1f	0.35009095
62	0x3d2fa8ac	0.042885467
63	0xbdb2ffa6	-0.08740167
64	0xbe0b8363	-0.13624339
65	0x3e458948	0.1929065
66	0xbd7979eb	-0.060907286
67	0x3e9660b1	0.29370645
68	0x3e24eaea	0.16105238
69	0xbd4e3be8	-0.0503501
70	0x3e99aa0d	0.3001255
71	0xbeb29ab2	-0.34883648
72	0xbd384a54	-0.04499276
73	0xbea0cfbe	-0.31408495
74	0x3e85e23b	0.26149163
75	0x3d2579b7	0.04039928
76	0xbd90ad79	-0.07064337
77	0xbd523b38	-0.051326007
78	0xbdbf0c62	-0.09328534
79	0x3909d748	0.00013145537
80	0xbe09e16c	-0.13464898
81	0xbe29ec48	-0.1659404
82	0x3e8d7fbc	0.27636516
83	0x3e3908a8	0.18069708
84	0x3e59b5ae	0.21260712
85	0xbda8fa91	-0.08250917
86	0x3eb1d365	0.34731594
87	0xbe337055	-0.1752332
88	0x3cd5bfe4	0.026092477
89	0xbd83c084	-0.06433204
90	0xbeaa982a	-0.33319217
91	0xbe0aecdc	-0.13566917
92	0xbe650a32	-0.2236717
93	0x3d6de059	0.058075283
94	0x3e4641d3	0.19361047
95	0xbe623811	-0.220917
96	0x3e8e88bb	0.27838692
97	0x3e84d48b	0.25943407
98	0x3e21ba90	0.15793824
99	0xbe3cea3a	-0.18448725
100	0x3e3fa1dc	0.18714088
101	0xbe5cabf8	-0.21549976
102	0x3dc55659	0.0963561
103	0xbe28fc47	-0.16502486
104	0x3d65fb68	0.056147963
105	0xbe603079	-0.21893491
106	0xbe18eb5e	-0.14933535
107	0x3e3471d4	0.17621547
108	0x3e006d2f	0.1254165
109	0xbe9d901d	-0.30774012
110	0xbea0daa6	-0.31416816
111	0x3e2861d5	0.1644357
112	0x3dc5b15e	0.09652971
113	0x3e99dd56	0.30051678
114	0xbdb6a59f	-0.089183085
115	0x3b548fd6	0.0032434366
116	0xbe4e440c	-0.20143145
117	0xbe432973	-0.1905878
118	0xbe36b867	-0.17843781
119	0xbe165d7a	-0.14684096
120	0xbe219dc8	-0.15782845
121	0x3de75a1b	0.11296483
122	0x3cda40ff	0.02664232
123	0xbea7da5c	-0.32783782
124	0xbd9cc049	-0.07653863
125	0x3e981989	0.29706982
126	0x3e95c427	0.29251215
127	0x3e031db7	0.12804304

onnx::Conv_2570 f4 [16]
0	0x3def48d1	0.116838105
1	0xbe968ef5	-0.29405943
2	0x3e6577c0	0.22408962
3	0x3ddacd5c	0.106837004
4	0xbe23b55b	-0.1598715
5	0xbe83776f	-0.25677058
6	0x3e4c8847	0.1997386
7	0x3df862da	0.121282294
8	0xbea13d43	-0.3149205
9	0xbe53cc18	-0.20683324
10	0x3c060a7b	0.00818121
11	0xbdbf2ff6	-0.0933532
12	0x3a27243b	0.0006375943
13	0xbe813526	-0.25235862
14	0x3ea74cc2	0.3267575
15	0xbe9bc137	-0.3042085

onnx::Conv_2572 f4 [16, 1, 3, 3]
0	0x3e13ba6e	0.14426586
1	0x3e4f350a	0.20235077
2	0xbe42da00	-0.19028473
3	0xbe61cdf1	-0.22051217
4	0xbdd31e61	-0.10308529
5	0x3ea5ad69	0.32358864
6	0x3e5bdc36	0.21470723
7	0x3e289641	0.16463567
8	0xbe705fd7	-0.2347406
9	0x3adade63	0.0016698356
10	0xbe432e08	-0.19060528
11	0x3c475ebf	0.012168585
12	0x3bc025c1	0.0058638756
13	0xbd75c30f	-0.060000475
14	0xbc03f655	-0.008054336
15	0xbe373f3f	-0.1789522
16	0x3e268251	0.1626065
17	0xbd3f2ee1	-0.046675567
18	0xbe6a0b81	-0.22855951
19	0x3e022b90	0.1271193
20	0xbe6fa4df	-0.23402737
21	0xbc706307	-0.014672047
22	0xbe8c2051	-0.27368405
23	0xbc117426	-0.00887779
24	0xbd43e176	-0.04782244
25	0xbe13c01b	-0.14428751
26	0x3df201a1	0.11816717
27	0x3e150c42	0.14555457
28	0xbe8d5d98	-0.2761047
29	0xbd383e24	-0.044981137
30	0x3d55d730	0.052207172
31	0x3e265439	0.16243066
32	0x3e06e864	0.13174587
33	0x3ded4248	0.11584908
34	0x3cc5fc95	0.024168292
35	0x3c537091	0.012905256
36	0xbd811f96	-0.06304853
37	0xbdab0a9e	-0.083516344
38	0xbe985829	-0.2975476
39	0xbe9af044	-0.30261433
40	0x3ea7c0f5	0.32764402
41	0x3db0fffc	0.08642575
42	0x3e8150d5	0.25256982
43	0x3db1d5b6	0.0868334
44	0x3de847ba	0.11341806
45	0xbe96ed2c	-0.29477823
46	0xbd46fdb5	-0.048581798
47	0x3e4a8e96	0.19780955
48	0x3dc9dcfe	0.09856604
49	0x3ea24f37	0.3170106
50	0xbdc802b4	-0.097661406
51	0xbea55444	-0.32290852
52	0xbd224fc1	-0.03962684
53	0x3d83eaab	0.06441244
54	0x3e951d1b	0.29123768
55	0xbe9333d0	-0.28750467
56	0x3c6971de	0.014248339
57	0xbe78e909	-0.24307646
58	0x3e5a72e0	0.21332884
59	0x3ddba783	0.1072531
60	0x3d974fbe	0.073882565
61	0x3da1da16	0.07902925
62	0x3d87692f	0.06611859
63	0x3d1a1bf8	0.03762433
64	0xbe3b4053	-0.18286256
65	0xbe458e6a	-0.19292608
66	0xbd92f7d0	-0.07176173
67	0x3d69715e	0.05699288
68	0x3e2b1c73	0.16710071
69	0xbe78c774	-0.24294835
70	0x3e57a364	0.21058422
71	0x3ea9cd7a	0.3316458
72	0xbdd6d665	-0.10490111
73	0x3e1549ea	0.14578977
74	0xbe00d2b6	-0.1258038
75	0xbe88b913	-0.267037
76	0x3c4f7f67	0.012664652
77	0x3e9557af	0.2916846
78	0xbd5f1aad	-0.0544688
79	0xbe95b5a1	-0.29240134
80	0xbbf75005	-0.007547381
81	0xbe433abb	-0.19065373
82	0x3ea68ead	0.32530728
83	0x3e303184	0.17206389
84	0x3e83953f	0.25699803
85	0x3e8574f2	0.26065785
86	0xbe4401b3	-0.19141273
87	0xbe943c1e	-0.28952116
88	0xbdb7b1c4	-0.08969453
89	0xbe8cd0e4	-0.2750312
90	0x3d4b2e08	0.049604446
91	0xbc2d3f72	-0.010574209
92	0x3d4c919d	0.049943555
93	0x3dfd943d	0.1238179
94	0x3e886cef	0.2664561
95	0x3d78149a	0.060566522
96	0x3ea020f2	0.31275135
97	0x3e05a05a	0.1304945
98	0xbe4020ef	-0.18762563
99	0x3d6daa32	0.05802364
100	0x3e08c10b	0.1335489
101	0xbdaace9e	-0.0834019
102	0x3e88a847	0.26690885
103	0xbd6cd228	-0.057817608
104	0x3def97bc	0.11698863
105	0x3ea4ed91	0.322125
106	0x3e325b45	0.17417629
107	0x3dba92b3	0.09110012
108	0xbe0ed074	-0.13946706
109	0x3d05ed6a	0.03269712
110	0x3d9e381c	0.07725546
111	0xbe35059d	-0.17677923
112	0xbe931c5c	-0.28732574
113	0x3e6f8427	0.23390256
114	0x3dc02257	0.0938155
115	0x3d70b59c	0.058766946
116	0xbd4aa434	-0.049473003
117	0x3c68ba5f	0.014204591
118	0x3c09bbfe	0.008406637
119	0xbd997019	-0.07492084
120	0x3e8b7f21	0.2724543
121	0xbe088b46	-0.13334379
122	0xbe668617	-0.22512089
123	0x3e36c4ea	0.17848554
124	0xbea53daa	-0.32273608
125	0x3e99c801	0.30035403
126	0xbe2baa8e	-0.1676428
127	0x3e85147b	0.25992188
128	0xbe95bf55	-0.29247537
129	0xbe439b00	-0.19102097
130	0xbdc6990a	-0.09697159
131	0xbbe69b5f	-0.0070375646
132	0x3e9dc1c3	0.3081189
133	0xbe488231	-0.19580914
134	0xbe30906c	-0.17242593
135	0xbe04944a	-0.12947193
136	0xbe525f83	-0.20544247
137	0xbe3714bf	-0.17879008
138	0x3e2176a9	0.15767922
139	0x3e957cab	0.29196677
140	0x3d8c8f02	0.06863214
141	0xbea691e9	-0.32533196
142	0xbde291b1	-0.11062945
143	0x3d4fe0fc	0.05075167

onnx::Conv_2573 f4 [16]
0	0xbc0bdc7d	-0.008536455
1	0x3e5e2165	0.21692427
2	0x3e9a44ec	0.30130708
3	0x3d6e9408	0.058246642
4	0xbd2427ea	-0.040077128
5	0x3c9d3962	0.019192401
6	0x3e4675df	0.19380902
7	0xbe6a90f3	-0.22906856
8	0x3e505094	0.20343238
9	0xbd0f475c	-0.034980163
10	0x3d14776f	0.036246713
11	0x3e8a2d15	0.2698752
12	0xbd947a8f	-0.07249939
13	0xbbd5f6ba	-0.0065296562
14	0xbdf18371	-0.117926486
15	0xbde0e406	-0.10980992

onnx::Conv_2575 f4 [8, 16, 1, 1]
0	0xbe48a0ea	-0.19592634
1	0xbe2d8833	-0.16946487
2	0x3e1c2155	0.1524709
3	0x3e5a153a	0.2129716
4	0xbe7a465c	-0.24440902
5	0x3cba7663	0.02276153
6	0xbba90ec9	-0.005159233
7	0x3e2d8063	0.16943507
8	0xbe6fb007	-0.23406993
9	0x3ddae8c0	0.10688925
10	0xbd10e810	-0.035377562
11	0x3e0fceb3	0.14043693
12	0x3daccebb	0.08437868
13	0x3d4c2b25	0.049845833
14	0x3d8b39de	0.06798147
15	0x3dbd0ada	0.092305854
16	0x3d0459b5	0.032312114
17	0xbcf0ad51	-0.029379519
18	0xbe4e1ef6	-0.20128998
19	0xbd3e3baa	-0.04644362
20	0xbd06ae04	-0.032880798
21	0x3e16b48b	0.14717309
22	0xbe7f1502	-0.24910358
23	0xbde7548c	-0.11295423
24	0x3e5748b3	0.21023826
25	0xbd96e6fa	-0.07368274
26	0xbd04c76c	-0.032416746
27	0xbdb713c8	-0.0893932
28	0xbd897d8b	-0.067133985
29	0x3df299f0	0.118457675
30	0x3da3ef06	0.080045745
31	0xbe507668	-0.20357668
32	0x3ddc0624	0.10743359
33	0x3e5fe08f	0.21863006
34	0x3c428620	0.011872798
35	0xbe50d7f1	-0.20394875
36	0x3cbcaf52	0.023032818
37	0xbd432d38	-0.047650546
38	0x3e7580bf	0.23974894
39	0xbdd4a7b2	-0.10383548
40	0xbc3b4803	-0.011430743
41	0xbe365536	-0.17805943
42	0xbe4b734f	-0.19868205
43	0xbdac9fe3	-0.084289335
44	0x3e7a2ee6	0.24431953
45	0x3e28ce3b	0.1648492
46	0xbe31ba3a	-0.17356196
47	0x3e0721c8	0.1319648
48	0x3e64fb09	0.22361387
49	0x3e79fcf8	0.24412906
50	0x3dc697e3	0.09696939
51	0xbdd7d395	-0.10538403
52	0xbcf3baa0	-0.029752076
53	0xb9a12bcb	-0.0003074094
54	0x3e0215fb	0.12703697
55	0xbdc61a67	-0.096730046
56	0x3bf8caae	0.0075925207
57	0xbcfc6add	-0.030812675
58	0xbdcd7c49	-0.10033471
59	0xbe0c16f0	-0.13680625
60	0xbddfe90b	-0.10933121
61	0xbd18ef26	-0.037337445
62	0x3e473a6d	0.19455881
63	0xbd909751	-0.07060111
64	0x3c6dd392	0.014515774
65	0x3e62ff74	0.2216776
66	0x3d12cd88	0.03584054
67	0x3e38567e	0.18001744
68	0xbd0245dd	-0.031804908
69	0x3e53374f	0.20626567
70	0x3e453e67	0.19262086
71	0x3e2f9fc6	0.17150792
72	0x3e32bfeb	0.17456023
73	0xbda05413	-0.07828536
74	0x3d481326	0.048846386
75	0x3e4635fb	0.1935653
76	0x3dca51ba	0.09878869
77	0x3df618af	0.12016427
78	0xbc2e9607	-0.0106558865
79	0x3e347729	0.17623581
80	0x3cbf5761	0.023357095
81	0x3ca65139	0.020302402
82	0xbcb35e55	-0.021895567
83	0xbe3b4517	-0.18288074
84	0xbbd4d47a	-0.0064950557
85	0x3d173916	0.036919676
86	0xbe7e8de4	-0.24858814
87	0xbe0cef5a	-0.1376318
88	0x3e74e316	0.23914751
89	0x3e1a8ac3	0.15091996
90	0x3dcac595	0.09900967
91	0xbe16890f	-0.14700721
92	0xbe4f4e88	-0.20244801
93	0x3e15d9a5	0.14633806
94	0x3e58cbbf	0.21171473
95	0x3e63b675	0.2223757
96	0xbcb90a63	-0.02258796
97	0x3dcdc808	0.100479186
98	0xbca1513b	-0.019692054
99	0xbdc7832b	-0.09741815
100	0x3e55aad8	0.20865953
101	0xbdce58f8	-0.10075563
102	0x3dba61eb	0.091007076
103	0xbe765f89	-0.24059881
104	0x3db3e855	0.08784548
105	0x3dbbcb7e	0.091696724
106	0x3bebac33	0.0071921586
107	0xbc075a54	-0.008261282
108	0x3e692fa1	0.22772075
109	0x3db199c6	0.08671908
110	0x3db66bf4	0.08907309
111	0xbda56582	-0.08076002
112	0xbdf3c668	-0.11903077
113	0xbe200a4f	-0.15628932
114	0x3dbb4fff	0.091461174
115	0xbd6cbb02	-0.057795532
116	0xbe657227	-0.22406827
117	0xbd875a1c	-0.06608984
118	0xbcef0f72	-0.02918217
119	0x3e274fb1	0.16338994
120	0x3db874a3	0.09006622
121	0x3e69948f	0.22810577
122	0x3e12ef5e	0.14349124
123	0xbda3ab7e	-0.07991694
124	0xbddfe25f	-0.10931849
125	0xbe71e075	-0.2362078
126	0x3d53ece2	0.05173958
127	0xbd524f33	-0.05134506

onnx::Conv_2576 f4 [8]
0	0xbd575e21	-0.052580003
1	0x3e649fcd	0.22326584
2	0x3e2fa072	0.17151049
3	0xbd94801b	-0.07250997
4	0xbd9f04f0	-0.07764614
5	0xbdf42f58	-0.119230926
6	0xbe74c4d4	-0.23903209
7	0xbdf719e7	-0.12065487

onnx::LSTM_2632 f4 [1, 64, 8]
0	0xbd1b2330	-0.037875354
1	0x3e313aac	0.17307538
2	0x3e0940c4	0.13403612
3	0x3d00c578	0.03143832
4	0x3e6bf372	0.23042086
5	0x3e67b79a	0.22628632
6	0x3c8ef810	0.01745227
7	0x3d821a78	0.06352705
8	0xbd29d710	-0.041464865
9	0x3e32808e	0.17431852
10	0xbc8f6b80	-0.017507315
11	0xbd42b770	-0.04753822
12	0xbe68c20c	-0.22730273
13	0x3e052b28	0.13004744
14	0xbe6bd76c	-0.23031396
15	0x3e121d14	0.14268905
16	0x3e3233f2	0.17402628
17	0xbc9b8e30	-0.018988699
18	0x3dd78ee0	0.10525298
19	0x3dd39570	0.10331237
20	0x3d956a30	0.07295644
21	0xbde9c888	-0.114152014
22	0xbe45e742	-0.19326499
23	0x3e3b96c8	0.18319237
24	0x3e01bac4	0.12668902
25	0xbe3c51a6	-0.18390521
26	0xbe4b4ad0	-0.19852757
27	0xbe299d1e	-0.16563842
28	0x3d5b8398	0.053592294
29	0xbe73a8b6	-0.23794827
30	0xbdef2440	-0.11676836
31	0x3deaeb88	0.11470705
32	0xbe352d8a	-0.17693153
33	0xbe2453ce	-0.16047594
34	0xbe4f0dce	-0.2022011
35	0xbe7278ae	-0.23678848
36	0xbe0ed7d0	-0.13949513
37	0xbded4878	-0.11586088
38	0x3cbfc370	0.023408622
39	0x3cac3230	0.021020025
40	0xbda11988	-0.07866198
41	0xbd0da820	-0.034584165
42	0x3d425000	0.047439575
43	0xbdfc8e18	-0.1233179
44	0xbd079d38	-0.03310892
45	0xbdc54418	-0.096321285
46	0xbcf19490	-0.029489785
47	0x3e2caa14	0.16861755
48	0xbe69ecac	-0.2284419
49	0xb9b7c800	-0.00035053492
50	0xbd7b2d10	-0.06132227
51	0xbe350592	-0.17677906
52	0xbbb98980	-0.005662143
53	0xbd6d2228	-0.057893902
54	0xbdfb4928	-0.12269813
55	0xbe14c872	-0.14529589
56	0xbcca8f20	-0.02472645
57	0xbe4786d8	-0.19485033
58	0x3e3cd168	0.18439257
59	0x3e357124	0.17718941
60	0x3e7049ec	0.23465699
61	0x3dcbac50	0.099449754
62	0x3e1ca444	0.15297037
63	0x3e7f3436	0.2492226
64	0xbdd4fae4	-0.10399416
65	0x3cafa670	0.021441668
66	0xbba8ccc0	-0.005151361
67	0xbcffe200	-0.031235695
68	0x3d0ee1c8	0.03488329
69	0xbd8c6064	-0.068543226
70	0x3e538494	0.20656043
71	0x3d6591c8	0.05604723
72	0x3e688b54	0.227094
73	0xbe5a8506	-0.21339807
74	0xbe03336e	-0.12812588
75	0xbcf23590	-0.029566556
76	0x3e30f7c8	0.17282021
77	0xbcf36660	-0.029711902
78	0x3e41ef1a	0.18938866
79	0x3c4ce5c0	0.012505949
80	0x3ddcd414	0.10782638
81	0xbe682ac2	-0.22672561
82	0x3b114980	0.0022169054
83	0xbe5793b4	-0.21052438
84	0x3e6476ba	0.22310916
85	0xbc2ad9a0	-0.010427862
86	0xbe3a47aa	-0.181914
87	0xbe0f1efe	-0.13976666
88	0xbd8375cc	-0.06418952
89	0x3e06620a	0.13123336
90	0x3e49f0fa	0.19720832
91	0xbe1bd408	-0.15217602
92	0xbc2e4fe0	-0.010639161
93	0x3e0da6fe	0.13833234
94	0xbdfe0738	-0.124037206
95	0xbd6eabe8	-0.05826941
96	0x3d8dd1ec	0.06924805
97	0x3e39f248	0.18158829
98	0xbe0c0c98	-0.13676679
99	0x3d8e4854	0.06947389
100	0xbe01a0d4	-0.12659007
101	0x3e4d9a0c	0.20078295
102	0x3e08a4e6	0.13344154
103	0x3bdd3180	0.0067502856
104	0x3e7304c8	0.23732293
105	0xbca9a840	-0.02071011
106	0x3e0654ba	0.13118258
107	0x3e2551c6	0.16144475
108	0x3e6d3766	0.23165664
109	0x3e7a297c	0.24429888
110	0x3e0b19fe	0.13584134
111	0x3e4a1a9a	0.1973671
112	0x3e463c58	0.19358957
113	0x3e384d20	0.17998171
114	0x3d6551c8	0.055986196
115	0xbe19e254	-0.15027744
116	0x3de4c40c	0.111702055
117	0xbd078fd0	-0.033096135
118	0x3e73ef9c	0.23821872
119	0x3e31e110	0.17371011
120	0xbe3acfc8	-0.18243325
121	0xbcd603f0	-0.026124924
122	0x3e1c22dc	0.15247673
123	0x3d066140	0.03280759
124	0x3e22a942	0.15884879
125	0xbe564a70	-0.20926833
126	0xbe70ca9c	-0.2351479
127	0xbdbafa84	-0.09129813
128	0x3de77638	0.11301845
129	0x3cd14930	0.025547594
130	0xbd9a3c70	-0.07531059
131	0x3e56e3ac	0.20985287
132	0xbcb42760	-0.021991432
133	0xbb064e80	-0.0020493567
134	0xbe6f596a	-0.23373953
135	0x3e1a272e	0.15054008
136	0x3e5538ae	0.20822403
137	0xbbc17d00	-0.0059047937
138	0xbe2df94a	-0.16989627
139	0x3dfcce14	0.12343994
140	0xbdfe7de0	-0.124263525
141	0x3e256558	0.16151941
142	0xbdcd7578	-0.10032171
143	0x3e14ef94	0.14544517
144	0xbe77c2da	-0.24195424
145	0x3e72fed6	0.23730025
146	0x3d456dd8	0.04820046
147	0xbde720bc	-0.112855405
148	0x3c4afc00	0.012389183
149	0xbcac3fe0	-0.021026552
150	0xbd3ef4f8	-0.04662034
151	0x3dec019c	0.115237445
152	0x3e6ead82	0.23308375
153	0xbe67c59e	-0.22633979
154	0xbe570ede	-0.21001765
155	0x3e3581b6	0.17725262
156	0x3cdb0030	0.026733488
157	0x3e0fed02	0.14055255
158	0xbddad8d8	-0.10685891
159	0xbe298d50	-0.16557813
160	0xbe01976e	-0.12655422
161	0x3e0a8518	0.13527334
162	0xbe05970c	-0.13045901
163	0xbccc3330	-0.024926752
164	0x3e2c4ea8	0.1682688
165	0x3df3b650	0.11900008
166	0x3dfda0f8	0.12384218
167	0xbe132dda	-0.1437296
168	0xbe5c4d98	-0.21513975
169	0xbe7e548c	-0.2483694
170	0x3e1a24da	0.1505312
171	0xbddd689c	-0.10810968
172	0x3e626ea0	0.22112513
173	0xbe508936	-0.20364842
174	0x3d1526c0	0.036413908
175	0xbb35b680	-0.0027727187
176	0xbe6090be	-0.21930215
177	0xbdcd3a44	-0.10020879
178	0xbd8cf860	-0.06883311
179	0xbe035384	-0.12824827
180	0x3d029008	0.03187564
181	0x3d893e74	0.06701365
182	0xbe275d66	-0.16344222
183	0x3e11538c	0.14192027
184	0xbe20ec40	-0.15715122
185	0x3da19540	0.07889795
186	0xbe15a13c	-0.14612287
187	0xbe73b190	-0.23798203
188	0x3e58a716	0.21157488
189	0x3de1e3cc	0.11029777
190	0x3df9d4e0	0.12198806
191	0xbe5533ca	-0.20820537
192	0x3d929a18	0.07158297
193	0x3e34d2c2	0.17658523
194	0xbdcda6c4	-0.10041574
195	0xbd1b25d8	-0.037877887
196	0x3dbc7ab8	0.09203094
197	0x3e11fc00	0.14256287
198	0x3d9a3094	0.07528797
199	0xbe370a4e	-0.17875025
200	0xbdcade20	-0.09905648
201	0x3bac6c80	0.0052619576
202	0x3d5f5778	0.054526776
203	0xbd268de0	-0.040662646
204	0x3da1d1f8	0.079013765
205	0x3d0c0190	0.034181178
206	0xbd38a860	-0.04508245
207	0x3da04840	0.078262806
208	0xbe69302e	-0.22772285
209	0x3bb8cdc0	0.0056397617
210	0x3e2d7e1e	0.16942641
211	0xbe04a660	-0.12954092
212	0xbdc1d6f4	-0.09464827
213	0xbe00aeaa	-0.12566629
214	0x3e57b364	0.21064526
215	0xbda889e4	-0.082294255
216	0xbe5afe92	-0.21386173
217	0x3df21068	0.118195355
218	0xbe5e7d56	-0.217275
219	0xbe1de4e2	-0.15419343
220	0xbdcef2b4	-0.10104886
221	0xbc907880	-0.017635584
222	0xbd3ff0a0	-0.046860337
223	0xbe11a37a	-0.14222518
224	0x3db3fb04	0.08788112
225	0x3d3f1ee0	0.046660304
226	0xbc456e00	-0.012050152
227	0x3e0a0490	0.13478303
228	0xbe47b9ba	-0.19504443
229	0xbe583f1a	-0.21117821
230	0x3e5fe334	0.21864015
231	0xbdedba68	-0.1160782
232	0x3e3ad1cc	0.18244094
233	0x3a03ba00	0.00050249696
234	0xbe13255a	-0.14369717
235	0xbc770de0	-0.015078992
236	0x3df2b474	0.11850825
237	0x3e7469a8	0.2386843
238	0xbe0739c4	-0.1320563
239	0x3e039368	0.128492
240	0x3dfed324	0.12442616
241	0xbe734424	-0.23756462
242	0xbe6c9de0	-0.231071
243	0xbda3b58c	-0.07993612
244	0x3dc2d664	0.09513548
245	0x3dac5a9c	0.0841572
246	0xbe6a9a8c	-0.22910517
247	0xbe36e630	-0.17861247
248	0x3d389760	0.045066237
249	0x3d13c1e0	0.036073565
250	0xbd9feaf0	-0.07808483
251	0xbe1268d2	-0.14297798
252	0x3e259d22	0.16173223
253	0x3e5a3430	0.2130897
254	0x3e13dec2	0.14440444
255	0x3c8f3410	0.01748088

onnx::LSTM_2633 f4 [1, 64, 16]
0	0x3d6eba48	0.05828312
1	0xbdd78620	-0.10523629
2	0xbdc4fa74	-0.09618083
3	0xbe2b1b4c	-0.16709632
4	0x3e45a3c0	0.19300747
5	0x3dde95b4	0.10868397
6	0xbc875270	-0.016518801
7	0x3e2a2578	0.16615856
8	0xbd5f8328	-0.05456844
9	0xbe373632	-0.17891768
10	0x3dc28cc4	0.09499505
11	0xbe56f87e	-0.2099323
12	0xbe0c7952	-0.13718155
13	0xbd9305cc	-0.0717884
14	0x3be48500	0.0069738626
15	0x3d93e720	0.07221818
16	0x3e7d6fc4	0.24749666
17	0x3e13fc9e	0.14451835
18	0xbe42306e	-0.18963787
19	0x3e17d1aa	0.14826074
20	0x3e37823c	0.17920774
21	0x3e1a42c2	0.15064529
22	0xbe628444	-0.22120768
23	0xbdee1cd4	-0.11626592
24	0xbe14355c	-0.1447348
25	0xbd7ff308	-0.062487632
26	0xbe4d4d16	-0.20048937
27	0x3e74d6ce	0.23910066
28	0xbe21790c	-0.15768832
29	0x3e37a110	0.17932534
30	0x3ddf8f24	0.10915974
31	0xbe69b1b2	-0.22821692
32	0xbe3447fa	-0.17605582
33	0xbe4df5e0	-0.20113325
34	0xbc5a1400	-0.013310432
35	0x3e6b4134	0.22974092
36	0xbd0eec90	-0.034893572
37	0x3e5778b4	0.21042138
38	0x3dd6d564	0.1048992
39	0x3dc5b18c	0.09653005
40	0x3e4509a0	0.19241953
41	0xbe34f470	-0.1767137
42	0xbe7f2164	-0.24915081
43	0x3e3076ea	0.17232862
44	0xbe19f4e6	-0.15034828
45	0x3e5dbff6	0.21655259
46	0x3e178b20	0.14799166
47	0x3e42db8c	0.19029063
48	0x3d5d83d8	0.054080814
49	0xbbed36c0	-0.0072391927
50	0x3d3b5260	0.045732856
51	0x3e26abfe	0.16276547
52	0x3e62e2e2	0.22156861
53	0x3e2f515a	0.17120877
54	0x3da96f54	0.08273187
55	0xbe163b48	-0.14671052
56	0x3dd04bcc	0.10170707
57	0x3e138566	0.14406356
58	0xbe5e2a3e	-0.21695802
59	0x3e060ce6	0.13090858
60	0x3d8e77c8	0.0695644
61	0x3e23d03a	0.15997401
62	0xbe6fa928	-0.23404372
63	0x3e600e6e	0.21880504
64	0xbe21096e	-0.15726253
65	0x3d2e7640	0.04259324
66	0xbd51ca20	-0.051218152
67	0xbd9284e4	-0.07154253
68	0x3e6e7eb2	0.23290518
69	0x3c4e2380	0.012581706
70	0xbdbe0fc4	-0.09280351
71	0xbe03cbb8	-0.12870681
72	0x3dbf346c	0.093361706
73	0x3d628700	0.055304527
74	0x3e0d2e0a	0.13787094
75	0xbe45bdd2	-0.19310692
76	0x3d915208	0.07095724
77	0xbdac906c	-0.08425984
78	0xbd3daf58	-0.0463098
79	0xbe56e450	-0.20985532
80	0xbe2039be	-0.15647027
81	0xbe5d2560	-0.21596289
82	0xbe52a888	-0.20572102
83	0xbe4b9e30	-0.19884562
84	0xbdcb271c	-0.09919569
85	0x3e62ce5c	0.22149032
86	0x3dd3b470	0.1033715
87	0x3d020908	0.031746894
88	0x3e10f126	0.14154491
89	0x3ddd7834	0.108139426
90	0x3e5f827e	0.21827123
91	0x3e017706	0.1264306
92	0xbdc785a4	-0.09742287
93	0x3d4fbe00	0.050718307
94	0xbe3e6d5e	-0.18596408
95	0x3c3d3b00	0.011549711
96	0x3e0f5be2	0.13999894
97	0x3e447d9e	0.19188544
98	0x3c8deec0	0.017325759
99	0xbe522d32	-0.20525053
100	0xbd99e45c	-0.07514259
101	0xbdf1f158	-0.11813611
102	0xbd8f1e28	-0.06988174
103	0x3dd9123c	0.10599181
104	0xbe035b3c	-0.12827772
105	0x3dc69050	0.09695494
106	0x3c0a4b00	0.008440733
107	0xbd1a2fd0	-0.037643254
108	0x3c94d1b0	0.018166393
109	0x3e6ea624	0.23305565
110	0x3e774d58	0.24150598
111	0x3e0c5192	0.13702992
112	0x3d24d668	0.040243536
113	0xbcaa9940	-0.020825028
114	0x3e7f2a56	0.24918494
115	0xbd6f0ef8	-0.058363885
116	0xbe361338	-0.17780769
117	0xbe5d59fe	-0.2161636
118	0xbd4926a8	-0.04910913
119	0xbe6fd3fe	-0.23420712
120	0x3d6f5700	0.05843258
121	0xbd766800	-0.060157776
122	0x3e2e5fe0	0.17028761
123	0x3e49d032	0.19708326
124	0xbd91bb04	-0.071157485
125	0xbe3983d0	-0.18116689
126	0xbe502b06	-0.20328912
127	0x3de025a4	0.109446794
128	0xbd4b86b8	-0.049689025
129	0xbe063846	-0.13107404
130	0xbda39104	-0.07986644
131	0x3e76fec6	0.24120626
132	0x3de49b74	0.11162463
133	0xbe100658	-0.1406492
134	0x3e73dbcc	0.23814315
135	0x3e4f97b0	0.20272708
136	0x3d161920	0.036645055
137	0x3e11a7ca	0.14224163
138	0x3e6b9dbc	0.2300939
139	0x3e0d7004	0.13812262
140	0x3ba42200	0.005008936
141	0xbdcbbc8c	-0.09948072
142	0xbe169b80	-0.14707756
143	0x3cdf7560	0.027277648
144	0xbba7b280	-0.0051177144
145	0xbd20c1b8	-0.039247245
146	0xbc820db0	-0.015875667
147	0x3e32bfac	0.1745593
148	0xbe15da3e	-0.14634034
149	0x3df8f568	0.121561825
150	0x3e199656	0.14998755
151	0x3e2c7438	0.16841209
152	0xbdd8360c	-0.105571836
153	0x3de5636c	0.11200604
154	0xbe61f56a	-0.22066274
155	0x3e0f37a4	0.13986069
156	0xbe2a8426	-0.16651973
157	0x3e71591a	0.23569146
158	0x3d816d38	0.0631966
159	0xbd33ca10	-0.043893874
160	0xbe4cffda	-0.20019475
161	0x3e15315e	0.14569613
162	0x3e1e1076	0.15435967
163	0x3bd93b40	0.0066293776
164	0xbe762fa4	-0.24041611
165	0x3d6b0c40	0.05738473
166	0x3de62d70	0.11239135
167	0xbd47ca20	-0.048776746
168	0x3d8b4d4c	0.068018526
169	0x3deeb60c	0.116558164
170	0x3e5432f0	0.20722556
171	0x3dba5cb4	0.09099713
172	0xbddf772c	-0.10911402
173	0x3e711cbe	0.2354612
174	0xbe64b8a2	-0.22336057
175	0x3d10bbd0	0.035335362
176	0x3e44b70a	0.19210449
177	0xbe6f8ef6	-0.23394379
178	0xbe3513a6	-0.17683277
179	0xbdd3ca88	-0.10341364
180	0x3da30e14	0.079616696
181	0x3dcfd41c	0.101478785
182	0xbe79180e	-0.24325582
183	0xbd823e6c	-0.06359562
184	0xbe21f3cc	-0.15815657
185	0x3d973188	0.07382494
186	0xbe57763a	-0.21041194
187	0x3dd500f8	0.104005754
188	0x3e207bd6	0.1567224
189	0x3e546570	0.2074182
190	0x3d762a50	0.060098946
191	0xbe347386	-0.17622194
192	0xbc08e880	-0.008356214
193	0xbc90bce0	-0.017668188
194	0xbd05c7e0	-0.03266132
195	0xbdbfaf64	-0.09359625
196	0xbe17a5ea	-0.14809385
197	0xbe0e6d1e	-0.13908812
198	0x3df620e0	0.12017989
199	0xbd3e6a30	-0.046487987
200	0x3e3a8ab4	0.18216974
201	0x3dba74a0	0.09104276
202	0xbd237458	-0.039905876
203	0x3dcbc9ec	0.09950623
204	0x3d40c4e0	0.047062755
205	0xbd22d420	-0.03975308
206	0x3dbcbaa4	0.092152864
207	0xbe76b91a	-0.24094048
208	0xbd81fd0c	-0.06347093
209	0x3e66d6f2	0.22542933
210	0x3deb53f4	0.11490622
211	0xbe3896ea	-0.18026319
212	0x3dff29d8	0.12459153
213	0xbe68741e	-0.22700545
214	0x3e3429c8	0.17594063
215	0xbe5f5a08	-0.21811688
216	0x3c0e86a0	0.008699089
217	0xbcde54e0	-0.02714008
218	0xbe256a70	-0.16153884
219	0xbe05b3fe	-0.13056943
220	0xbd7789b8	-0.060434073
221	0x3e57845e	0.21046588
222	0x3e4955a0	0.1966157
223	0xbe5370ac	-0.2064845
224	0x3e1ff9d4	0.15622646
225	0x3e6ec990	0.23319077
226	0x3e2a56b6	0.1663464
227	0xbd3ce5f0	-0.046117723
228	0xbd7a2320	-0.061068654
229	0xbe4c0132	-0.19922331
230	0xbe0d06fe	-0.13772199
231	0x3e621c4e	0.2208111
232	0x3d63e600	0.055639267
233	0xbe64dcee	-0.22349903
234	0x3db06790	0.08613503
235	0xbe6cdeec	-0.23131913
236	0xbe4ec5b2	-0.20192602
237	0x3e55afee	0.20867893
238	0xbde60d40	-0.11232996
239	0xbe00dc5c	-0.1258406
240	0xbd240538	-0.04004404
241	0x3e233644	0.1593867
242	0x3d257310	0.040392935
243	0x3e0dfda8	0.13866293
244	0x3d1f5ea0	0.0389086
245	0xbe513d08	-0.20433438
246	0xbdb201a8	-0.08691722
247	0x3d991538	0.0747475
248	0xbd5dcc38	-0.054149836
249	0xbe4d894e	-0.20071909
250	0xbcbccf00	-0.023047924
251	0xbe3b47ce	-0.1828911
252	0xbe5c9132	-0.21539763
253	0xbe63179a	-0.22176972
254	0x3d7b9450	0.06142074
255	0xbe56768c	-0.2094366

onnx::LSTM_2634 f4 [1, 128]
0	0x3e609e78	0.21935451
1	0xbcdc87c0	-0.0269202
2	0x3d098b38	0.033580035
3	0x3e0d4ffe	0.13800046
4	0x3dfe27e4	0.12409952
5	0x3de22e64	0.110440046
6	0x3e3253f2	0.17414835
7	0xbd506e48	-0.050886422
8	0x3e55408a	0.20825401
9	0xbdbc54ec	-0.09195885
10	0xbda118a0	-0.07866025
11	0x3d8c2c10	0.06844342
12	0xbe2c1944	-0.16806513
13	0x3e276e12	0.16350582
14	0x3c940120	0.018066943
15	0xbd9678fc	-0.07347295
16	0x3b91af40	0.0044459403
17	0xbe20b034	-0.15692216
18	0x3e3cf5a0	0.18453074
19	0x3c7446c0	0.014909446
20	0x3dfab5b0	0.122416854
21	0x3c4e32a0	0.012585312
22	0xbe790a92	-0.24320439
23	0xbe435748	-0.19076264
24	0x3de85950	0.1134516
25	0xbc9d8f20	-0.019233286
26	0x3e5af5a0	0.21382761
27	0xbe69746e	-0.2279832
28	0x3db54558	0.08851117
29	0x3e044b3e	0.12919328
30	0x3e3007ac	0.17190427
31	0xbe786638	-0.24257743
32	0x3dbbe14c	0.09173831
33	0xbdd7f7d4	-0.10545316
34	0x3d4fda40	0.05074525
35	0x3db35c6c	0.087578624
36	0xbd99e5e0	-0.07514548
37	0xbe31ca82	-0.17362407
38	0xbe20df24	-0.15710121
39	0xbe17a77a	-0.14809981
40	0x3e2c5542	0.16829398
41	0xbdffafe4	-0.1248472
42	0xbe628dac	-0.22124356
43	0xbe14cd1e	-0.14531371
44	0x3e29713c	0.16547102
45	0x3dcea1bc	0.10089442
46	0xbda5a868	-0.080887616
47	0xbe58452c	-0.21120137
48	0x3e318b88	0.17338383
49	0x3d03ff60	0.032225966
50	0xbdaa6764	-0.083205014
51	0x3e724a7c	0.23661226
52	0xbe29f27c	-0.16596407
53	0xbce83f30	-0.028350443
54	0xbe383310	-0.17988229
55	0xbe2bd52a	-0.16780534
56	0x3ddc5e7c	0.10760209
57	0xbe3935ea	-0.18086973
58	0xbd59cc30	-0.053173244
59	0xbe465ce6	-0.19371375
60	0xbdf0c5a0	-0.11756444
61	0xba24d800	-0.000628829
62	0xbdc68990	-0.09694207
63	0xbe31e288	-0.17371571
64	0xbe524474	-0.20533925
65	0x3dbc9f14	0.09210029
66	0xbd7e0dc0	-0.06202483
67	0x3d3c5080	0.04597521
68	0xbe71cc52	-0.23613098
69	0x3e6df35a	0.23237363
70	0x3dd28988	0.10280138
71	0xbe06817e	-0.13135335
72	0xbdb840cc	-0.08996734
73	0xbe5e057e	-0.21681783
74	0xbe124566	-0.14284286
75	0xbe4618e4	-0.19345433
76	0xbe5d3ef4	-0.21606046
77	0x3e38dd0a	0.1805307
78	0xbe3fd0ee	-0.18732044
79	0x3e17ddb2	0.14830664
80	0x3dfb20a4	0.12262085
81	0xbe6c15ae	-0.23055145
82	0x3e51410a	0.20434967
83	0x3e65be78	0.2243594
84	0xbd16e5a0	-0.03684008
85	0x3e578932	0.2104843
86	0xbd85a3bc	-0.065253705
87	0xbde9de98	-0.114194095
88	0xbe5eab0c	-0.21744937
89	0x3d915ca4	0.07097748
90	0x3d5545c0	0.052068472
91	0xbe728b0c	-0.23685855
92	0x3e5713e8	0.21003687
93	0xbdfe8bc0	-0.12428999
94	0xbc356300	-0.011070967
95	0x3de43750	0.111433625
96	0xbc8bfd90	-0.017088681
97	0xbb91de40	-0.004451543
98	0xbd884d24	-0.066553384
99	0xbe3d0bb8	-0.18461502
100	0x3e55cd2c	0.20879048
101	0x3e497120	0.1967206
102	0x3e220d8e	0.15825483
103	0xbceaf0b0	-0.028679222
104	0x3c84eea0	0.016227067
105	0xbd036e20	-0.032087445
106	0x3e2db2e4	0.16962773
107	0x3d231258	0.039812416
108	0xbd29e0a0	-0.041473985
109	0x3ce14ef0	0.02750346
110	0xbd489488	-0.048969775
111	0x3ba42540	0.0050093234
112	0x3dc04f50	0.09390128
113	0xbe7a712e	-0.24457237
114	0x3e26bcc2	0.16282943
115	0xbd273f00	-0.040831566
116	0x3e42837c	0.1899547
117	0x3d327160	0.043565154
118	0x3d206590	0.039159358
119	0x3e270e66	0.16314086
120	0xbe28aaca	-0.16471401
121	0xbd90f3c4	-0.070777446
122	0xbc9c16a0	-0.019053757
123	0xbda88880	-0.0822916
124	0x3e6ec61c	0.2331776
125	0x3e2627ec	0.16226166
126	0xbe523d18	-0.20531118
127	0xbe66094e	-0.22464487

/encoder/en_convs.2/tra/att_lstm/ConstantOfShape_output_0 f4 [1, 1, 16]
0	0x00000000	0.0
1	0x00000000	0.0
2	0x00000000	0.0
3	0x00000000	0.0
4	0x00000000	0.0
5	0x00000000	0.0
6	0x00000000	0.0
7	0x00000000	0.0
8	0x00000000	0.0
9	0x00000000	0.0
10	0x00000000	0.0
11	0x00000000	0.0
12	0x00000000	0.0
13	0x00000000	0.0
14	0x00000000	0.0
15	0x00000000	0.0
