gtcrn_micro/streaming/tflite/gtcrn_micro_stream_simple_float16.tflite (tflite, 213332 bytes, 124 tensors)

arith.constant2 f2 [16]
0.3162 -0.0112 0.22 -3.686 0.2163 -0.1272 0.3062 -1.617
-1.319 -3.824 -1.186 0.284 0.3499 -0.04764 -0.4048 -0.8813
00000000: 0f35 bca1 0a33 5fc3 ec32 12b0 e634 78be
00000010: 47bd a6c3 bebc 8b34 9935 19aa 7ab6 0dbb

arith.constant3 f2 [16]
2.518 0.3425 0.5566 0.2473 0.009224 -0.5195 0.974 -1.125
-0.743 0.1921 -0.1638 -1.208 0.627 -0.887 -0.0963 0.725
00000000: 0941 7b35 7438 ea33 b920 28b8 cb3b 80bc
00000010: f2b9 2632 3eb1 d5bc 0439 19bb 2aae cd39

arith.constant4 f2 [16]
-0.2401 2.926 -0.1077 0.0793 1.485 -1.305 -0.0725 -0.4583
2.516 2.57 -1.596 -1.596 -0.4531 0.598 -0.4797 1.366
00000000: afb3 da41 e5ae 132d f13d 38bd a4ac 55b7
00000010: 0841 2441 62be 62be 40b7 c938 adb7 773d

arith.constant13 f2 [16]
-0.2157 0.257 -0.12494 0.0879 -0.005848 0.1388 0.05328 -0.0517
-0.1267 0.2095 -0.2401 -0.1151 0.2057 0.03613 0.103 0.2222
00000000: e7b2 1d34 ffaf a02d fd9d 7130 d22a 9eaa
00000010: 0eb0 b432 afb3 5eaf 9532 a028 982e 1c33

arith.constant14 f2 [16]
0.1788 0.0568 -0.1919 0.1658 0.2925 0.2085 -0.1761 -0.153
0.1617 -0.1455 0.0745 -0.04907 -0.07947 -0.0895 -0.02347 0.1676
00000000: b931 452b 24b2 4e31 ae34 ac32 a3b1 e5b0
00000010: 2d31 a8b0 c52c 48aa 16ad baad 02a6 5d31

arith.constant18 f2 [16]
0.6367 0.9526 0.703 0.955 0.875 0.8413 0.74 0.5947
0.619 0.7954 0.749 0.915 0.7974 0.819 0.639 0.4263
00000000: 1839 9f3b a039 a43b 003b bb3a ec39 c238
00000010: f438 5d3a fe39 523b 613a 8d3a 1d39 d236

arith.constant22 f2 [16]
0.8916 0.6694 0.5938 0.8296 0.7607 1.047 1.216 1.289
1.138 0.8516 0.629 0.9263 0.702 0.8853 1.07 0.8647
00000000: 223b 5b39 c038 a33a 163a 303c dd3c 283d
00000010: 8d3c d03a 0839 693b 9e39 153b 483c eb3a

arith.constant27 f2 [16]
0.4197 0.596 0.5757 0.78 0.4033 0.511 0.1709 0.554
0.925 1.237 0.5454 0.3723 0.4038 0.3928 0.5874 1.585
00000000: b736 c538 9b38 3d3a 7436 1738 7831 6f38
00000010: 663b f33c 5d38 f535 7636 4936 b338 573e

arith.constant85 f2 [3, 1, 3, 1]
-1.457 -0.1158 0.05206 0.0693 -0.1764 -0.261 0.0522 0.3428
0.255
00000000: d4bd 69af aa2a 6f2c a5b1 2db4 ae2a 7c35
00000010: 1434

arith.constant86 f2 [16, 1, 5, 3]
0.07074 0.00885 -0.01464 0.2375 0.005795 -0.009674 0.003408 -0.012245
-0.011086 0.0001245 0.01249 0.006596 0.00801 -0.005024 -0.009415 0.00298
-0.0025 -0.00677 0.002424 -0.008545 -0.0162 -0.0614 -0.003351 0.001402
0.000989 -0.004078 -0.02267 0.001148 -0.006687 0.003925 -0.001134 0.0164
-0.0003567 0.00464 -0.004128 -0.01186 -0.02522 0.006912 0.00823 -0.07837
-0.005436 -0.01075 -0.0553 0.00556 0.01192 -0.000825 0.3608 0.2654
-0.00074 0.1527 -0.248 0.0006924 -0.1718 0.04068 0.003292 0.4834
0.3933 0.004852 0.11066 -0.319 0.02365 0.01486 0.006927 -0.02568
-0.02328 -0.03897 -0.1112 0.01816 0.02695 -0.1499 0.01229 -0.01839
-0.01035 0.00405 -0.004227 0.0333 0.00705 -0.001371 -0.03915 0.00052
-0.01375 -0.1805 -0.006496 -0.011955 -0.05585 0.010086 -0.01464 -0.04904
-0.01804 -0.01718 -0.00573 0.03082 0.01657 -0.00012094 -0.014656 -0.02547
-0.0433 0.01616 0.01671 -0.2014 0.0049 -0.00952 -0.03683 0.02736
0.0152 -0.02356 -0.02435 -0.002567 0.02202 -0.01746 0.006763 0.4016
0.001436 0.0088 -0.01817 0.0016985 0.00543 -0.001891 0.01206 -0.0005565
-0.007477 -0.0387 0.004204 0.04092 -0.006924 0.0002172 0.1443 -0.04346
-0.0007873 -0.0869 -0.004288 -0.01201 0.1311 -0.0386 -0.01828 -0.0004728
-0.0002823 0.01206 -0.02022 -0.01999 0.01672 -0.039 -0.001839 0.04535
0.1098 -0.02612 0.02861 -0.03586 0.01993 0.04776 -7.564e-05 -0.01437
0.00401 -0.00606 0.0002201 0.01257 0.02737 -0.008415 0.001638 0.0908
-0.0014515 0.01149 0.07416 -0.00461 -0.001487 -0.02759 -0.00987 -0.009125
0.02794 0.00407 0.005062 -0.03757 -0.01778 -0.02115 0.01259 0.004246
0.01704 -0.02449 0.0006566 -0.01007 -0.00456 -0.01095 -0.00165 -0.00682
0.02231 0.01346 0.1238 0.005516 0.0028 0.3093 0.008675 0.001557
0.0954 -0.00979 0.0010195 5.853e-05 0.00894 0.00354 -0.00184 0.03091
-0.02226 0.0613 -0.01054 0.004616 0.09033 0.04715 0.033 0.3494
0.02473 -0.00435 -0.01195 -0.001492 0.004623 -0.06183 0.00536 -0.000395
-0.06445 -0.00062 -0.002144 0.0014 0.00557 0.006294 -0.001205 -0.007473
-0.00545 -0.06287 -0.001021 -0.03198 -0.122 0.02792 -0.03026 0.3213
0.02362 -0.06097 -0.0969 0.012985 -0.03867 -0.03534 0.01319 -0.01732
00000000: 872c 8820 7fa3 9a33 ef1d f4a0 fb1a 45a2
00000010: ada1 1408 6522 c11e 1a20 259d d2a0 1a1a
00000020: 1f99 ef9e f718 60a0 26a4 dcab dd9a be15
00000030: 0d14 2d9c cea5 b414 d99e 051c a594 3324
00000040: d88d c01c 3a9c 13a2 75a6 141f 3720 04ad
00000050: 919d 81a1 14ab b21d 1a22 c292 c635 3f34
00000060: 1092 e330 f0b3 ac11 7fb1 3529 be1a bc37
00000070: 4b36 f81c 152f 1bb5 0e26 9c23 181f 93a6
00000080: f6a5 fda8 1eaf a624 e626 ccb0 4b22 b5a4
00000090: 4da1 261c 549c 4328 381f 9e95 03a9 4310
000000a0: 0aa3 c7b1 a79e 1fa2 26ab 2a21 7fa3 47aa
000000b0: 9ea4 66a4 de9d e427 3e24 ed87 81a3 85a6
000000c0: 8ba9 2324 4724 72b2 051d e0a0 b7a8 0127
000000d0: c823 08a6 3ca6 4299 a325 78a4 ed1e 6d36
000000e0: e215 8120 a7a4 f516 8f1d bf97 2d22 8f90
000000f0: a89f f4a8 4e1c 3d29 179f 1e0b 9e30 90a9
00000100: 7392 90ad 649c 26a2 3230 f1a8 aea4 bf8f
00000110: a08c 2d22 2da5 1ea5 4824 fea8 8897 ce29
00000120: 072f b0a6 5327 97a8 1a25 1d2a f584 5ca3
00000130: 1b1c 359e 360b 7022 0227 4fa0 b616 d02d
00000140: f295 e221 bf2c b89c 1796 10a7 0ea1 aca0
00000150: 2727 2b1c 2f1d cfa8 8da4 6aa5 7222 591c
00000160: 5d24 45a6 6111 28a1 ab9c 9ba1 c296 fc9e
00000170: b625 e422 ec2f a61d bc19 f334 7120 6116
00000180: 1b2e 03a1 2d14 d603 9420 401b 8997 ea27
00000190: b3a5 d92b 65a1 ba1c c82d 092a 3928 9735
000001a0: 5526 749c 1ea2 1c96 bc1c eaab 7d1d 798e
000001b0: 20ac 1491 6498 bc15 b41d 721e f094 a79f
000001c0: 959d 06ac 2f94 18a8 cfaf 2627 bfa7 2435
000001d0: 0c26 ceab 34ae a622 f3a8 86a8 c122 6fa4

arith.constant87 f2 [16, 1, 5, 16]
-0.3984 0.1031 -0.2198 0.00397 0.03314 0.1682 -0.0596 -0.1832
-0.2267 -0.1464 -0.1445 0.5117 -0.006706 -0.168 -0.1118 0.1272
-0.05823 0.2935 -0.1294 -0.0465 0.1243 0.08075 -0.0518 -0.1378
0.1295 0.0753 -0.078 0.6626 -0.2815 0.1576 -0.08673 -0.06726
-0.4568 0.1069 0.0391 -0.0264 -0.0971 0.0547 0.01782 0.0765
-0.0176 -0.2421 0.2896 0.0484 0.3574 0.6074 -0.0809 0.0492
0.09955 -0.03433 -0.02277 0.01533 -0.0713 -0.06104 0.0685 0.1508
-0.2192 0.2235 0.1387 -0.01704 0.1742 -0.3804 0.05878 0.1641
-0.02428 0.002285 0.02388 0.06174 -0.0725 0.06113 -0.04712 -0.1917
-0.1231 0.383 -0.1268 -0.04175 0.01536 -0.3132 0.0509 0.1678
0.1179 -1.396 -0.728 0.2612 -0.462 0.451 0.597 -0.3708
0.6904 -2.566 1.109 -0.2246 0.913 -0.6567 0.3762 -0.8794
0.5767 -0.1818 -0.5693 0.6367 0.1642 -0.4412 0.2458 -0.865
-0.118 0.1345 -0.12354 0.858 -1.399 -1.083 -1.398 -0.533
-0.569 0.912 -0.1105 0.925 0.1763 0.3386 0.1577 -0.2622
-0.25 1.085 -0.982 0.313 -1.258 -0.3184 -0.4387 0.604
-0.4668 -0.8135 -0.1865 0.6064 -0.9185 -0.4524 0.705 0.2642
0.347 -2.1 0.565 -0.474 0.583 0.6636 0.729 -1.03
0.528 -0.973 0.381 0.371 -0.5317 0.166 0.1251 0.11414
0.2183 -1.15 -0.326 -0.8896 -0.1995 -0.9956 -0.04684 -1.286
0.03476 -0.3154 -0.289 -0.004177 0.1678 -0.1931 0.06094 0.509
-0.05902 0.2634 -0.1153 0.2793 -0.5957 -0.1936 0.1897 -0.08124
-0.312 0.2705 -0.1431 -0.08026 0.1884 0.2247 -0.1031 0.0633
-0.576 0.2214 0.2125 0.3706 0.3748 -0.294 0.03098 0.0855
-0.11035 -0.1389 0.02165 -0.1157 0.0397 -0.004196 0.0553 -0.2219
-0.004524 0.04074 -0.2218 -0.02306 0.00213 0.2466 -0.2551 -0.02547
-0.501 -0.1301 0.1989 -0.0712 -0.0716 -0.01707 -0.04022 0.2284
-0.11334 -0.1564 0.0702 -0.0848 -0.06683 0.4495 0.03174 0.02623
-0.0986 -0.10144 0.10583 -0.0752 0.0002587 0.01329 -0.01143 -0.02667
-0.1348 0.1875 -0.3135 0.2345 -0.398 -0.1857 -0.04395 0.01659
0.01657 0.11725 -0.02641 -0.991 0.3315 -0.1965 -0.1616 -0.1611
-0.116 -0.231 0.01889 0.0844 0.2119 0.2213 -0.1018 -0.1001
00000000: 60b6 992e 09b3 111c 3e28 6231 a1ab ddb1
00000010: 41b3 afb0 a0b0 1838 de9e 60b1 28af 1230
00000020: 74ab b234 24b0 f4a9 f52f 2b2d a1aa 69b0
00000030: 2530 d22c feac 4d39 81b4 0b31 8dad 4eac
00000040: 4fb7 d72e 0129 c2a6 37ae 002b 9024 e52c
00000050: 81a4 bfb3 a234 322a b835 dc38 2dad 4c2a
00000060: 5f2e 65a8 d4a5 d923 90ac d0ab 622c d330
00000070: 04b3 2733 7030 5da4 9331 16b6 862b 4031
00000080: 37a6 ae18 1d26 e72b a4ac d32b 08aa 22b2
00000090: e1af 2136 0fb0 58a9 dd23 03b5 842a 5f31
000000a0: 8c2f 96bd d3b9 2e34 64b7 3737 c738 efb5
000000b0: 8639 22c1 703c 30b3 4e3b 41b9 0536 09bb
000000c0: 9d38 d1b1 8eb8 1839 4131 0fb7 de33 ecba
000000d0: 8daf 4e30 e8af dd3a 99bd 55bc 98bd 44b8
000000e0: 8db8 4c3b 12af 663b a431 6b35 0c31 32b4
000000f0: 00b4 573c dbbb 0235 08bd 18b5 05b7 d538
00000100: 78b7 82ba f8b1 da38 59bb 3db7 a439 3a34
00000110: 8d35 33c0 8538 96b7 aa38 4f39 d539 1fbc
00000120: 3938 c9bb 1936 f035 41b8 5031 0130 4e2f
00000130: fc32 9abc 37b5 1ebb 62b2 f7bb ffa9 25bd
00000140: 7328 0cb5 a0b4 479c 5f31 2eb2 cd2b 1238
00000150: 8eab 3734 61af 7834 c4b8 32b2 1232 33ad
00000160: feb4 5434 94b0 23ad 0732 3133 99ae 0d2c
00000170: 9cb8 1633 cd32 ee35 ff35 b4b4 ee27 792d
00000180: 10af 72b0 8b25 68af 1529 4c9c 142b 1ab3
00000190: a29c 3729 19b3 e7a5 5d18 e433 15b4 85a6
000001a0: 02b8 2ab0 5d32 8fac 95ac 5fa4 26a9 4f33
000001b0: 41af 01b1 7e2c 6dad 47ac 3137 1028 b726
000001c0: 4fae 7eae c62e d0ac 3d0c ce22 daa1 d4a6
000001d0: 50b0 0032 04b5 8133 5eb6 f1b1 a0a9 3f24
000001e0: 3e24 812f c3a6 eebb 4e35 4ab2 2cb1 28b1
000001f0: 6daf 64b3 d624 672d c832 1533 84ae 68ae

arith.constant88 f2 [16, 1, 1, 8]
-0.356 0.02576 0.2335 -0.04282 0.0386 -0.428 -0.2125 0.099
-0.4934 0.7163 -0.528 0.4736 0.382 0.7827 0.3477 1.087
-0.4841 -0.5596 0.1018 1.476 0.04337 -0.1926 0.1567 -0.02998
0.0743 0.09106 -0.1091 1.304 -0.0522 0.223 0.161 -0.0209
0.03958 0.02438 0.0933 -0.107 0.02135 -0.04932 0.0754 -0.05823
-1.057 0.06396 0.942 1.491 0.705 0.7515 -1.104 -1.474
0.02016 0.114 0.0884 -0.11053 -0.007805 0.1459 0.1109 -0.05728
0.1559 -0.4182 -0.1707 0.672 -0.157 -1.026 -1.606 0.2405
3.102 0.455 -3.273 0.526 3.17 0.004326 -1.37 3.363
1.04 -0.827 0.713 0.01651 -0.0448 1.231 -0.296 -0.69
0.819 0.11273 0.13 -0.3206 -0.01071 0.7188 -0.177 0.12006
-0.04852 0.02805 -0.2048 0.0733 -0.04993 0.01301 -0.1421 0.0902
-0.0582 0.2554 0.1147 -1.127 -0.7393 -0.5845 0.822 0.8633
0.0905 -0.4849 0.11584 0.3188 0.0007515 -0.1393 -0.4045 0.1472
-0.01826 0.10693 0.12476 0.3833 -0.010025 -0.2773 -0.11597 -0.155
-1.699 0.303 0.4333 -0.342 0.08496 -0.7163 0.3584 0.799
00000000: b2b5 9826 7933 7ba9 f128 d9b6 cdb2 562e
00000010: e5b7 bb39 39b8 9437 1d36 433a 9035 593c
00000020: bfb7 7ab8 842e e73d 8d29 2ab2 0431 ada7
00000030: c12c d42d fbae 373d aeaa 2333 2731 5aa5
00000040: 1129 3e26 f92d d9ae 7725 50aa d32c 74ab
00000050: 3abc 182c 893b f73d a439 033a 6abc e5bd
00000060: 2925 4c2f a82d 13af fe9f ab30 192f 55ab
00000070: fd30 b1b6 76b1 6039 06b1 1bbc 6dbe b233
00000080: 3442 4837 8cc2 3538 5742 6e1c 7bbd ba42
00000090: 293c 9eba b439 3a24 bca9 ed3c bcb4 85b9
000000a0: 8d3a 372f 2930 21b5 7ca1 c039 aab1 af2f
000000b0: 36aa 2e27 8eb2 b12c 64aa a922 8cb0 c62d
000000c0: 73ab 1634 572f 82bc eab9 adb8 933a e83a
000000d0: cb2d c2b7 6a2f 1a35 2812 75b0 79b6 b630
000000e0: ada4 d82e fc2f 2236 22a1 70b4 6caf f6b0
000000f0: ccbe d934 ef36 79b5 702d bbb9 bc35 643a

arith.constant89 f2 [1, 3, 3, 16]
1.283 0.04236 -0.2866 -0.977 0.289 -0.1707 -0.2515 0.389
0.008736 -0.0661 0.619 -1.021 -0.02504 -0.1659 0.2339 -0.2208
-0.2002 -0.299 -0.4302 0.3484 -0.5825 -0.2369 -2.365 0.3608
-0.2463 0.1266 -0.7393 0.879 -0.1025 -0.001033 0.3584 -0.3367
0.3247 0.2942 0.04663 -0.1364 0.8076 0.10455 1.068 0.01257
0.10834 -0.1595 -0.0291 0.2089 -0.06805 0.03613 0.2566 0.01726
-0.962 -0.03918 0.4531 0.0852 -1.255 -0.06137 0.5073 -0.8335
-0.02464 -0.148 -0.2544 -0.3132 -0.09235 0.2452 0.5347 -0.3457
2.725 -0.6855 -1.013 0.2075 1.815 -0.3289 -0.786 -0.836
0.02638 -0.08795 0.739 1.799 0.05865 -0.249 0.3457 0.04327
0.2069 0.3345 -0.0364 -0.832 -0.437 -0.10754 0.2795 -0.726
-0.02574 -0.1976 -0.1816 1.532 0.1437 0.732 -0.6523 0.1628
-2.924 -0.2537 1.348 -5.22 -7.98 -0.3228 0.05246 -0.2507
-0.07855 0.07153 -1.945 1.024 -0.04022 -0.1487 -3.115 -0.59
2.418 0.06024 3.932 8.75 1.498 -0.3347 4.29 1.197
0.562 0.12286 -0.863 -1.953 0.39 0.5317 -1.967 -0.1294
0.984 -1.097 0.1788 1.689 1.902 -0.833 -6.418 1.244
-0.05997 0.0918 1.206 -5.0 0.454 2.191 0.6455 0.4277
00000000: 223d 6c29 96b4 d1bb a034 76b1 06b4 3936
00000010: 7920 3bac f438 16bc 69a6 4fb1 7c33 11b3
00000020: 68b2 c9b4 e2b6 9335 a9b8 95b3 bbc0 c635
00000030: e2b3 0d30 eab9 083b 8fae 3b94 bc35 63b5
00000040: 3235 b534 f829 5db0 763a b12e 463c 7022
00000050: ef2e 1bb1 73a7 af32 5bac a028 1b34 6b24
00000060: b2bb 04a9 4037 742d 05bd dbab 0f38 abba
00000070: 4fa6 bcb0 12b4 03b5 e9ad d933 4738 88b5
00000080: 7341 7cb9 0dbc a432 433f 43b5 4aba b0ba
00000090: c126 a1ad e939 323f 822b f8b3 8835 8a29
000000a0: 9f32 5a35 a9a8 a8ba feb6 e2ae 7934 cfb9
000000b0: 97a6 53b2 d0b1 213e 9930 db39 38b9 3631
000000c0: d9c1 0fb4 643d 38c5 fbc7 2ab5 b72a 03b4
000000d0: 07ad 942c c8bf 193c 26a9 c2b0 3bc2 b8b8
000000e0: d640 b62b dd43 6048 fe3d 5bb5 4a44 ca3c
000000f0: 7f38 dd2f e7ba d0bf 3d36 4138 debf 24b0
00000100: df3b 63bc b931 c23e 9c3f aaba 6bc6 fa3c
00000110: adab e02d d33c 00c5 4437 6240 2a39 d836

arith.constant90 f2 [8, 1, 1, 16]
-0.3247 0.0931 -0.03598 -0.2101 0.1658 -0.03522 -0.0796 -0.02252
-0.11304 -0.1181 0.07745 0.3076 -0.014084 -0.4229 0.01822 -0.2888
0.1288 -0.0643 -0.1908 0.1143 0.2996 0.299 0.1619 0.03287
-0.03165 0.10565 0.1088 0.03735 0.13 -0.1274 0.2664 -0.0847
0.1008 -0.05533 -0.2705 0.2727 0.0867 0.1864 0.1254 -0.03464
0.1522 0.1877 -0.4456 -0.1599 -0.02573 0.0626 0.4373 -0.0994
-0.06107 0.09625 -0.0844 -0.05527 -0.443 -0.121 -0.1896 0.0971
-0.1577 0.1036 -0.03964 -0.08466 -0.0665 -0.0683 0.01692 0.0763
-0.03998 -0.195 0.3625 0.177 0.2827 0.0453 0.0313 0.2335
0.0531 -0.0684 0.0947 -0.1853 0.002863 0.2595 0.06152 0.04886
0.2003 0.403 -0.4548 0.1121 0.0848 -0.416 0.2776 -0.2825
0.3613 0.316 -0.2856 0.1576 0.2874 0.1438 0.1819 -0.141
-0.2323 0.13 -0.109 -0.2593 0.397 -0.02426 0.4822 -0.1687
0.1755 -0.0751 -0.08405 0.1312 0.04028 0.09973 0.2825 0.02718
0.1722 -0.1178 0.3298 0.308 0.0447 -0.0869 0.02928 0.04745
0.137 -0.1687 -0.2057 -0.17 0.0809 0.04944 -0.2607 0.1785
00000000: 32b5 f52d 9ba8 b9b2 4e31 82a8 18ad c4a5
00000010: 3caf 8faf f52c ec34 36a3 c4b6 aa24 9fb4
00000020: 1f30 1dac 1bb2 512f cb34 c934 2e31 3528
00000030: 0da8 c32e f72e c828 2930 14b0 4334 6cad
00000040: 742e 15ab 54b4 5d34 8c2d f731 0330 6fa8
00000050: df30 0232 21b7 1eb1 96a6 022c ff36 5dae
00000060: d1ab 292e 67ad 13ab 17b7 beaf 11b2 372e
00000070: 0cb1 a12e 13a9 6bad 42ac 5fac 5524 e22c
00000080: 1ea9 3db2 cd35 aa31 8634 cc29 0228 7933
00000090: cc2a 61ac 102e eeb1 dd19 2734 e02b 412a
000000a0: 6932 7336 47b7 2d2f 6d2d a8b6 7134 85b4
000000b0: c835 0e35 92b4 0b31 9934 9a30 d231 83b0
000000c0: 6fb3 2930 faae 26b4 5a36 36a6 b737 66b1
000000d0: 9e31 ceac 61ad 3330 2829 622e 8534 f526
000000e0: 8331 8aaf 4735 ee34 b929 90ad 7f27 132a
000000f0: 6230 66b1 95b2 71b1 2d2d 542a 2cb4 b631

arith.constant91 f2 [8, 1, 3, 1]
0.4233 -0.03375 -0.6655 0.2059 -0.012566 0.3203 0.2437 0.2393
0.468 0.5107 0.1626 -0.3901 0.5117 -0.17 0.03806 -0.0724
0.1613 0.436 0.5186 0.428 0.5386 0.1593 0.2615 -0.3625
00000000: c636 52a8 53b9 9732 6fa2 2035 cc33 a833
00000010: 7d37 1638 3431 3eb6 1838 71b1 df28 a2ac
00000020: 2931 fa36 2638 d936 4f38 1931 2f34 cdb5

arith.constant92 f2 [8, 1, 1, 8]
-0.001631 0.0389 0.4827 -0.2247 -0.1481 -0.1454 -0.1382 0.0575
-0.01846 -0.3884 -0.002146 0.2201 0.1622 0.02333 -0.1136 0.1655
-0.319 0.05222 -0.03687 0.2766 0.06128 -0.1681 -0.1324 0.1724
-0.6924 0.2964 -0.2286 -0.5063 0.2245 -0.01548 -0.03592 0.05365
0.348 0.4905 -0.3726 0.1229 -0.1562 0.1792 0.843 -0.3887
0.2917 -0.3452 -0.1925 0.1777 -0.2186 -0.8115 -0.0757 -0.0607
0.2056 0.09064 -0.0978 -0.2957 -0.5376 0.052 0.05594 0.3718
-0.10504 -0.01244 0.497 -0.723 -0.03986 -0.0757 -0.575 0.1511
00000000: ae96 fb28 b937 31b3 bdb0 a7b0 6cb0 5c2b
00000010: baa4 37b6 6598 0b33 3131 f925 45af 4c31
00000020: 1bb5 af2a b8a8 6d34 d82b 61b1 3db0 8431
00000030: 8ab9 be34 51b3 0db8 2f33 eda3 99a8 de2a
00000040: 9135 d937 f6b5 de2f 00b1 bc31 be3a 38b6
00000050: ab34 86b5 29b2 b031 ffb2 7eba d8ac c5ab
00000060: 9432 cd2d 42ae bbb4 4db8 a82a 292b f335
00000070: b9ae 5fa2 f437 c9b9 1aa9 d8ac 9ab8 d630

arith.constant93 f2 [16, 1, 1, 8]
-0.01736 -0.3518 -0.595 0.02455 0.1698 0.737 0.528 0.02731
-0.636 0.01993 0.6694 0.1324 0.2607 0.3953 -0.685 -0.3777
-1.444 -3.771 1.275 -0.1486 -0.7188 1.993 0.572 -0.3364
0.882 -0.1577 1.098 -0.2527 1.555 0.4265 -0.1298 -0.0744
-0.0191 0.1186 -1.624 -0.0405 -0.1399 0.645 0.6304 -0.1421
0.0454 -0.1766 -0.09265 -0.0906 0.1221 0.3071 -0.12305 -0.917
-0.3728 -0.4678 -0.1786 -0.07245 0.755 0.603 1.063 -0.515
0.067 2.225 -0.04736 0.0732 0.2208 -0.3945 0.4392 0.297
0.2085 0.6484 1.645 -0.7476 -0.9087 2.797 0.357 -0.06146
-0.5303 0.709 0.299 0.2832 0.4517 0.3523 -0.6646 -0.109
-0.2598 1.237 0.195 -0.107 0.4268 0.3015 0.2617 -0.1555
-0.1225 0.4246 -0.005634 0.01627 0.4128 -0.1451 0.1974 -0.1295
-2.186 -0.605 0.03192 0.1231 -0.2517 -1.085 0.805 0.02449
-0.775 0.656 2.398 0.5713 -0.654 0.494 -1.119 0.7944
0.05774 -1.074 -0.0932 0.468 0.616 -1.84 -0.4128 -0.446
-0.723 -0.967 1.153 0.538 0.7007 -1.371 -0.6953 1.014
00000000: 72a4 a1b5 c3b8 4926 6f31 e539 3938 fe26
00000010: 17b9 1a25 5b39 3d30 2c34 5336 7bb9 0bb6
00000020: c7bd 8bc3 1a3d c1b0 c0b9 f93f 9338 62b5
00000030: 0e3b 0cb1 643c 0bb4 383e d336 27b0 c3ac
00000040: e4a4 972f 7fbe 2fa9 7ab0 2939 0b39 8cb0
00000050: d029 a7b1 eead ccad d02f ea34 e0af 56bb
00000060: f7b5 7cb7 b7b1 a3ac 0a3a d338 413c 1fb8
00000070: 4a2c 7340 10aa af2c 1133 50b6 0737 c134
00000080: ac32 3039 943e fbb9 45bb 9841 b635 deab
00000090: 3eb8 ac39 c934 8834 3a37 a335 51b9 faae
000000a0: 28b4 f33c 3d32 d9ae d436 d334 3034 fab0
000000b0: d7af cb36 c59d 2a24 9b36 a5b0 5132 25b0
000000c0: 5fc0 d7b8 1628 e12f 07b4 57bc 713a 4526
000000d0: 33ba 3f39 cc40 9238 3bb9 e737 7abc 5b3a
000000e0: 642b 4cbc f7ad 7d37 ee38 5cbf 9bb6 23b7
000000f0: c9b9 bcbb 9d3c 4e38 9b39 7cbd 90b9 0e3c

arith.constant94 f2 [1, 3, 3, 16]
-1.05 -0.2605 0.6953 -0.1696 -0.7446 0.938 0.02954 -0.2018
0.1494 -0.1492 -0.4893 1.808 -0.313 -0.1265 -0.0655 -0.06256
0.1183 -0.4412 0.512 -0.04068 -0.3647 -0.5044 0.238 -0.384
0.3054 0.375 -0.6606 -0.5093 -0.1431 0.1184 -0.561 0.551
0.1842 -0.05008 0.8706 0.2019 -0.1855 0.189 -0.272 0.4038
-0.04068 -0.0773 1.327 -1.123 -0.3816 0.1022 0.2017 0.1139
0.1155 0.183 0.0454 -0.3596 -0.0545 0.01822 -0.1824 0.2183
0.1259 0.02528 0.03397 0.1843 0.02338 -0.2798 -0.03546 -6.574e-05
0.1917 -0.607 0.4377 0.1235 0.486 -0.1505 0.5083 -0.8477
-0.06058 0.385 -0.588 -1.566 -0.0294 -0.2622 0.4106 -0.04993
1.793 -0.0646 0.654 0.1279 0.0723 0.5967 -1.392 0.573
-0.2013 -0.279 0.8237 -3.602 -0.1555 0.1682 0.001781 0.01587
0.5234 0.1543 -0.695 -1.148 -1.463 -1.627 1.542 0.427
0.5977 -0.01511 0.982 -2.174 1.4375 -0.606 0.3389 0.06287
1.553 -0.6704 -0.5913 0.2189 0.2017 2.242 1.393 -0.282
1.162 0.4788 1.332 1.277 0.6772 0.3308 1.032 -1.013
1.996 -0.3242 -1.25 0.2703 -1.367 -1.776 -0.5225 -0.3809
0.1863 -0.6655 -2.03 3.04 0.58 0.2236 0.057 -0.8735
00000000: 33bc 2bb4 9039 6db1 f5b9 813b 9027 75b2
00000010: c830 c6b0 d4b7 3b3f 02b5 0cb0 31ac 01ac
00000020: 922f 0fb7 1938 35a9 d6b5 09b8 9e33 25b6
00000030: e334 0036 49b9 13b8 94b0 942f 7db8 6838
00000040: e531 69aa f73a 7632 f0b1 0c32 5ab4 7636
00000050: 35a9 f2ac 4f3d 7ebc 1bb6 8a2e 7432 4a2f
00000060: 642f db31 d029 c1b5 faaa aa24 d6b1 fc32
00000070: 0730 7926 5928 e631 fc25 7ab4 8aa8 4f84
00000080: 2232 dbb8 0137 e72f c737 d1b0 1138 c8ba
00000090: c1ab 2936 b4b8 44be 87a7 32b4 9236 64aa
000000a0: 2c3f 22ac 3b39 1830 a12c c638 91bd 9638
000000b0: 71b2 77b4 973a 34c3 fab0 6231 4c17 1024
000000c0: 3038 f030 8fb9 98bc dabd 82be 2b3e d536
000000d0: c838 bca3 db3b 59c0 c03d d9b8 6c35 062c
000000e0: 363e 5db9 bbb8 0133 7432 7c40 923d 83b4
000000f0: a63c a937 543d 1c3d 6b39 4b35 213c 0dbc
00000100: fc3f 30b5 00bd 5334 78bd 1bbf 2eb8 18b6
00000110: f631 53b9 0fc0 1442 a438 2833 4c2b fdba

arith.constant95 f2 [8, 1, 1, 16]
-0.12164 0.1005 -0.06216 -0.4229 0.248 0.2979 -0.2363 0.0967
-0.1289 -0.2712 0.04764 0.0637 -0.0868 -0.4568 -0.0431 -0.079
0.01859 0.186 -0.11816 0.75 -0.2627 0.139 0.271 -0.02881
0.3718 0.0326 0.2048 0.2417 0.2345 0.271 -0.05164 -0.3423
-0.7554 -0.4321 0.3206 -0.1823 -0.184 0.1075 -0.4985 0.08136
0.1812 -0.2444 -0.176 0.3054 -0.4229 0.3958 -0.2003 0.2354
0.7935 0.07104 0.03436 0.371 -0.649 0.0916 -0.4473 0.0176
-0.1816 0.3867 -0.01295 0.4792 -0.2397 -0.0708 0.2401 0.6396
0.05084 0.2031 0.2913 -0.1431 -0.2651 0.06757 0.5137 -0.2301
0.0551 -0.303 -0.2332 0.11597 -0.3506 0.1265 0.3313 0.4373
-0.1858 -0.0276 -0.1299 -0.4285 0.375 0.118 -0.08417 0.141
0.2167 -0.0321 0.328 -0.1995 0.1187 -0.4602 -0.07825 0.1842
-0.01293 0.3562 0.0677 -0.01015 0.0252 -0.1731 0.1779 -0.3464
0.1565 -0.1261 0.1757 0.1609 0.01573 -0.1388 -0.219 0.1307
0.02713 0.3457 0.3967 -0.04547 0.1349 -0.2323 0.0454 -0.0794
-0.1566 -0.003065 -0.3276 0.08606 -0.3347 -0.3188 0.1353 -0.1821
00000000: c9af 6f2e f5ab c4b6 f033 c434 90b3 302e
00000010: 20b0 57b4 192a 142c 8ead 4fb7 84a9 0ead
00000020: c224 f431 90af 003a 34b4 7330 5634 60a7
00000030: f335 2c28 8e32 bc33 8133 5634 9caa 7ab5
00000040: 0bba eab6 2135 d5b1 e3b1 e12e fab7 352d
00000050: cc31 d2b3 a2b1 e334 c4b6 5536 69b2 8833
00000060: 593a 8c2c 6628 f035 31b9 dd2d 28b7 8124
00000070: d0b1 3036 a1a2 ab37 acb3 88ac af33 1e39
00000080: 822a 8032 a934 94b0 3eb4 532c 1c38 5db3
00000090: 0e2b d9b4 76b3 6c2f 9cb5 0c30 4d35 ff36
000000a0: f2b1 11a7 28b0 dbb6 0036 8d2f 63ad 8330
000000b0: ef32 1ca8 3f35 62b2 992f 5db7 02ad e531
000000c0: 9fa2 b335 552c 32a1 7426 8ab1 b131 8bb5
000000d0: 0231 09b0 9f31 2631 0724 71b0 02b3 2f30
000000e0: f226 8835 5936 d2a9 5130 6fb3 d029 15ad
000000f0: 03b1 479a 3eb5 822d 5bb5 1ab5 5430 d4b1

arith.constant96 f2 [8, 1, 3, 1]
-0.0917 0.002789 -0.3992 0.3538 0.434 0.7974 -0.02206 -0.06186
-0.888 -0.02979 -0.0602 0.6543 -0.3264 -0.1176 -0.435 0.5723
-0.4436 -0.6084 0.4883 -0.00931 -0.628 0.3396 -0.1295 0.6035
00000000: dead b619 63b6 a935 f236 613a a6a5 ebab
00000010: 1bbb a0a7 b5ab 3c39 39b5 87af f6b6 9438
00000020: 19b7 deb8 d037 c4a0 06b9 6f35 25b0 d438

arith.constant97 f2 [8, 1, 1, 8]
0.2383 -0.4565 -0.1366 -0.2683 -0.1672 -0.0696 -0.2642 0.314
0.3037 0.6055 -0.788 -0.7036 0.4514 0.0835 -0.007935 0.326
-0.387 0.0978 0.1733 -0.1233 -0.0978 -0.02612 -0.07355 -0.2125
-0.2153 -0.3247 0.1332 -0.4678 0.10925 -0.0304 0.2056 0.2773
0.725 0.02005 0.4478 0.542 0.2566 0.3896 -0.4456 0.6353
-0.6895 -0.2084 -0.6255 -0.3472 0.3296 0.702 0.05133 -0.1638
0.1074 -0.2358 0.431 0.2051 -0.3972 0.01513 -0.291 -0.1584
0.3318 0.08203 -0.217 -0.3672 0.1037 0.1346 0.552 -0.508
00000000: a033 4eb7 5fb0 4bb4 5ab1 74ac 3ab4 0635
00000010: dc34 d838 4eba a1b9 3937 582d 10a0 3735
00000020: 31b6 422e 8c31 e4af 42ae b0a6 b5ac cdb2
00000030: e4b2 32b5 4330 7cb7 fe2e c8a7 9432 7034
00000040: cd39 2225 2a37 5638 1b34 3c36 21b7 1539
00000050: 84b9 abb2 01b9 8eb5 4635 9e39 922a 3eb1
00000060: e02e 8cb3 e536 9032 5bb6 bf23 a8b4 12b1
00000070: 4f35 402d f2b2 e0b5 a32e 4f30 6a38 10b8

arith.constant98 f2 [16, 1, 1, 8]
0.1819 0.759 0.3076 -0.03253 -0.4912 -0.1416 0.0944 0.006794
0.5215 -0.3076 -0.0559 -1.031 0.1274 1.795 0.05878 0.3713
0.3994 -1.57 -0.7637 0.8984 -0.835 0.2375 -0.1147 -0.5127
-0.3025 0.2822 -0.2189 1.316 -0.655 0.603 0.2118 -0.1011
-0.10364 -0.3513 -0.292 0.3335 0.04306 -0.04578 -0.3533 -0.1472
-0.9067 -0.6396 0.6333 -0.0664 0.7646 0.1832 0.6 1.211
1.985 0.5005 -0.954 -0.02637 -0.8853 1.754 -0.7275 0.25
0.05038 -0.9004 0.54 -0.7104 0.1255 -0.622 -0.3252 0.1694
-1.701 -0.1089 0.9917 -0.719 0.4216 -0.841 0.9946 -0.8345
1.713 0.03058 0.8945 -0.6865 0.08777 0.05853 -0.4019 0.1909
0.7983 0.11584 0.55 0.04837 -0.541 -0.818 0.05515 0.2007
0.7417 0.26 -1.243 1.159 0.2039 -1.362 -1.718 -0.2028
-0.3845 -0.2347 -0.3408 0.1661 0.05927 0.822 -0.3704 0.304
1.146 0.5903 0.3313 -0.04626 0.9883 -1.29 -0.8843 -1.284
1.808 1.0205 0.6143 -2.705 0.8213 1.433 -1.592 -0.5366
-1.815 -1.054 -0.876 0.1667 1.019 -2.1 1.634 0.2703
00000000: d231 123a ec34 2aa8 dcb7 88b0 0b2e f51e
00000010: 2c38 ecb4 28ab 20bc 1430 2e3f 862b f135
00000020: 6436 48be 1cba 303b aeba 9a33 57af 1ab8
00000030: d7b4 8434 01b3 443d 3db9 d338 c732 78ae
00000040: a2ae 9fb5 acb4 5635 8329 dca9 a7b5 b6b0
00000050: 41bb 1eb9 1139 40ac 1e3a dd31 cd38 d83c
00000060: f13f 0138 a2bb c0a6 15bb 043f d2b9 0034
00000070: 732a 34bb 5238 afb9 0430 fab8 34b5 6c31
00000080: cebe f8ae ef3b c1b9 bf36 baba f53b adba
00000090: da3e d427 283b 7eb9 9e2d 7e2b 6eb6 1c32
000000a0: 633a 6a2f 6638 312a 54b8 8bba 0f2b 6c32
000000b0: ef39 2934 f9bc a33c 8632 73bd dfbe 7db2
000000c0: 27b6 83b3 74b5 5131 962b 933a edb5 dd34
000000d0: 963c b938 4d35 eca9 e83b 29bd 13bb 23bd
000000e0: 3b3f 153c ea38 69c1 923a bb3d 5ebe 4bb8
000000f0: 43bf 37bc 02bb 5631 133c 33c0 893e 5334

arith.constant99 f2 [1, 3, 3, 16]
1.037 0.1536 0.3823 0.528 0.09296 -0.0966 0.1608 -0.6743
0.3638 -0.212 -0.4363 -0.03433 0.4976 -0.010124 0.3606 0.242
-1.754 -0.48 0.6655 -0.6147 -0.6045 0.2383 -0.054 -0.2527
0.4863 -0.867 -0.786 -0.189 0.2522 -0.05142 -0.1814 0.4143
1.676 -0.528 -0.1056 1.941 0.01265 -0.2834 0.10504 0.632
0.1959 -0.652 -0.0486 -0.1019 -0.11273 0.463 -0.05276 -0.2893
0.1952 -0.3364 0.1952 1.996 0.1797 0.0961 0.1403 0.706
-0.4226 0.2301 -0.421 0.2634 -0.051 -0.003565 0.0431 0.4463
2.354 -3.016 0.4863 -0.239 0.5024 1.292 -0.04016 -0.1263
-0.1783 0.2854 -0.1761 -0.2059 0.8403 0.1377 0.1719 0.322
0.2654 -1.487 -0.1085 0.4224 -0.4849 -1.529 0.2979 -0.6694
0.1602 0.01006 -0.611 -0.02464 1.056 -0.07367 -0.2954 -0.5312
2.26 0.175 -1.571 1.982 1.799 0.08026 0.2957 3.07
-0.1273 1.301 -1.219 0.7446 0.2163 0.2585 -0.1056 0.2194
0.661 2.89 -1.517 -6.113 1.656 -1.076 0.2283 -1.951
-1.064 -1.778 -0.7695 0.03412 -1.683 1.499 0.2346 0.83
-0.3384 1.628 -0.608 -2.61 2.457 1.16 0.2664 -1.43
-1.12 -0.453 -0.5864 0.2874 2.982 0.07416 1.058 -0.6865
00000000: 263c ea30 1e36 3938 f32d 2fae 2531 65b9
00000010: d235 c9b2 fbb6 65a8 f637 2fa1 c535 be33
00000020: 04bf aeb7 5339 ebb8 d6b8 a033 e9aa 0bb4
00000030: c837 f0ba 4aba 0cb2 0934 95aa ceb1 a136
00000040: b43e 39b8 c2ae c43f 7a22 89b4 b92e 0e39
00000050: 4532 37b9 39aa 86ae 37af 6837 c1aa a1b4
00000060: 3f32 62b5 3f32 fc3f c031 272e 7d30 a639
00000070: c3b6 5d33 bcb6 3734 87aa 4d9b 8429 2437
00000080: b540 08c2 c837 a6b3 0538 2b3d 24a9 0bb0
00000090: b5b1 9134 a3b1 97b2 b93a 6830 8031 2735
000000a0: 3f34 f3bd f2ae c236 c2b7 1ebe c434 5bb9
000000b0: 2031 2721 e3b8 4fa6 393c b7ac bab4 40b8
000000c0: 8540 9a31 49be ee3f 323f 232d bb34 2442
000000d0: 13b0 343d e0bc f539 ec32 2334 c2ae 0533
000000e0: 4a39 c841 11be 1dc6 a03e 4ebc 4e33 cebf
000000f0: 42bc 1dbf 28ba 5e28 bbbe ff3d 8233 a43a
00000100: 6ab5 833e ddb8 38c1 ea40 a43c 4334 b8bd
00000110: 7bbc 3fb7 b1b8 9934 f741 bf2c 3b3c 7eb9

arith.constant100 f2 [8, 1, 1, 16]
0.2106 -0.299 -0.1554 -0.5522 0.1582 -0.1301 0.4194 0.4092
0.1294 -0.3623 -0.03506 0.526 0.0032 -0.1383 0.2412 -0.2773
-0.01784 -0.5005 0.105 -0.1138 -0.2347 -0.06976 -0.3005 0.5234
0.14 -0.4055 -0.4517 -0.0489 0.718 -0.0589 -0.2668 0.03008
-0.698 -0.372 0.4626 -0.2778 -0.1101 0.461 -0.3992 -0.0812
0.6553 0.885 -0.277 0.2018 0.1555 0.2913 0.415 -0.2485
0.2522 -0.7715 -0.1982 -0.0593 -0.256 -0.1571 -0.4631 -0.3223
0.608 0.4717 0.8623 0.007626 0.3413 -0.3508 0.3262 0.2961
0.0789 -0.2009 0.01685 -0.0586 -0.3525 -0.09766 -0.2035 -0.174
-0.268 -0.2725 0.0391 -0.2233 0.001838 -0.2566 -0.172 0.2185
-0.384 0.443 0.219 0.4246 -0.8486 0.4219 -0.1333 -0.11365
0.0165 -0.05173 0.1669 0.1545 0.05804 -0.245 -0.1405 0.1176
-0.182 0.0123 0.0845 0.311 -0.1843 -0.274 0.535 0.2206
-0.203 -0.2382 0.0584 -0.6143 -0.3171 -0.4028 -0.687 0.4272
-0.0872 -0.0663 -0.33 -0.2212 0.2358 -0.02522 0.02763 -0.00945
0.2422 0.01736 -0.1444 0.01875 0.2439 -0.0348 -0.1361 -0.1721
00000000: bd32 c9b4 f9b0 6bb8 1031 2ab0 b636 8c36
00000010: 2430 ccb5 7da8 3538 8e1a 6db0 b833 70b4
00000020: 91a4 01b8 b82e 48af 83b3 77ac cfb4 3038
00000030: 7b30 7db6 3ab7 42aa be39 8aab 45b4 b327
00000040: 96b9 f4b5 6737 72b4 0caf 6037 63b6 32ad
00000050: 3e39 143b 6fb4 7532 fa30 a934 a436 f4b3
00000060: 0934 2cba 58b2 97ab 19b4 07b1 69b7 28b5
00000070: dd38 8c37 e63a cf1f 7635 9db5 3835 bd34
00000080: 0d2d 6eb2 5024 80ab a4b5 40ae 83b2 91b1
00000090: 4ab4 5cb4 0129 25b3 8717 1bb4 81b1 fe32
000000a0: 25b6 1737 0233 cb36 caba c036 44b0 46af
000000b0: 3924 9faa 5731 f230 6e2b d7b3 7fb0 872f
000000c0: d3b1 4c22 682d fa34 e6b1 62b4 4838 0f33
000000d0: 7fb2 9fb3 7a2b eab8 13b5 72b6 7fb9 d636
000000e0: 95ad 3eac 48b5 14b3 8c33 75a6 1327 d7a0
000000f0: c033 7224 9fb0 cd24 ce33 74a8 5bb0 82b1

arith.constant101 f2 [8, 1, 3, 1]
-0.1936 0.10956 0.6655 -0.0936 -0.3994 -1.063 -0.02574 -0.3872
-0.653 0.02489 0.2722 0.5137 -0.2886 -0.453 -0.747 0.2144
0.0795 0.762 -0.04987 0.12115 1.045 -0.543 0.3743 0.509
00000000: 32b2 032f 5339 fead 64b6 41bc 97a6 32b6
00000010: 39b9 5f26 5b34 1c38 9eb4 3fb7 fab9 dc32
00000020: 172d 193a 62aa c12f 2e3c 58b8 fd35 1238

arith.constant102 f2 [8, 1, 1, 8]
-0.0989 -0.74 0.1475 -0.3784 0.564 -0.1923 0.0474 -0.02036
-0.3645 -0.3442 0.1078 -0.3982 -0.2155 -0.605 0.466 0.2349
-0.2067 -0.3638 -0.1154 0.06396 0.2163 -0.2659 -1.013 -0.3281
0.7803 0.3477 0.845 0.7783 0.584 -0.1849 -0.05682 0.609
0.03644 0.2074 0.3252 0.3718 -0.629 -0.1497 -0.142 0.11865
0.03683 0.2876 0.1282 0.2603 -0.526 -0.2 -0.05243 -0.439
-0.0922 -0.0767 0.505 0.805 -1.1875 -0.9443 0.4111 0.1247
0.1995 0.1575 0.0952 0.1516 -0.1364 -0.1195 0.886 0.1287
00000000: 54ae ecb9 b830 0eb6 8338 27b2 112a 36a5
00000010: d5b5 82b5 e62e 5fb6 e5b2 d7b8 7537 8433
00000020: 9db2 d2b5 63af 182c ec32 41b4 0dbc 40b5
00000030: 3e3a 9035 c33a 3a3a ac38 ebb1 46ab df38
00000040: aa28 a332 3435 f335 08b9 cab0 8bb0 982f
00000050: b728 9a34 1a30 2a34 35b8 66b2 b6aa 06b7
00000060: e7ad e9ac 0a38 713a c0bc 8ebb 9436 fb2f
00000070: 6232 0a31 182e da30 5db0 a6af 173b 1e30

arith.constant103 f2 [16, 1, 1, 16]
-0.01743 -0.03094 0.04587 -0.01826 0.0412 -0.0581 0.07526 0.176
0.007416 0.1304 -0.1658 -0.00876 -0.01418 -0.1486 0.0288 -0.03986
-0.2034 0.1879 -0.1885 -0.4282 -0.3298 0.05667 0.3628 0.04865
0.02324 0.2905 -0.03842 0.3105 0.10455 -0.1027 0.3938 -0.1946
0.6333 -1.159 1.028 0.6865 1.4 1.197 1.266 0.2335
0.765 3.213 -0.02802 -1.613 0.994 2.375 0.1644 2.781
0.828 -1.192 -2.14 -1.453 -0.8535 -2.926 -0.1516 0.747
-1.448 -1.004 -2.23 -2.418 1.173 -0.567 -0.2534 1.397
-0.5576 -0.3376 0.1705 0.6196 -0.1846 -0.881 0.457 0.092
0.511 -0.8345 0.5156 -1.452 -0.3337 0.914 -0.4033 0.3882
0.3667 -0.05533 0.1847 0.544 -0.3044 0.229 1.22 -0.3948
-0.973 -1.686 -0.3303 -0.1919 1.473 -0.443 1.337 -1.049
-0.02919 -0.1454 -0.5312 0.2059 -0.4038 -0.583 -0.191 0.0837
0.0855 -0.0598 -0.321 0.002872 0.212 0.708 0.243 0.307
-0.09247 -0.03928 -0.2944 0.3196 0.1511 0.0549 0.2365 -0.7056
0.9614 -0.974 -0.2325 0.745 -0.0691 0.1497 0.4053 0.1385
0.4197 1.242 0.3975 0.7363 0.7114 -0.3516 -0.1531 -0.2441
-0.712 -0.631 0.8135 -1.043 0.4307 0.2876 -0.5083 1.122
0.2876 0.2122 -0.2832 -0.2693 0.1423 -0.006943 -0.04205 0.87
-0.3105 -0.4133 0.0856 -1.685 0.1936 -0.006557 -0.2585 -0.754
0.1608 0.2124 -0.3096 -0.2478 -0.1189 -0.0406 -0.313 0.03363
-0.2024 0.6646 0.1521 0.08264 -0.06027 -0.2734 0.04498 0.11725
0.09894 0.151 -0.2869 0.2798 -0.45 0.4324 0.6387 0.07367
-0.0543 -0.2435 0.2498 0.1624 -0.3604 0.374 0.2913 0.02806
1.614 1.733 0.628 0.3274 -0.8125 -0.676 -1.356 -0.8096
-0.5264 1.632 0.6973 1.74 -2.662 0.3472 -0.7275 -0.02264
0.0354 -0.01258 0.02069 0.093 -0.00784 -0.03888 -0.01608 0.1888
-0.083 -0.03998 0.1001 0.08887 0.01442 -0.0708 0.0318 -0.02954
0.05304 0.1267 -0.0418 -0.2358 0.01113 0.1553 -0.02965 0.1296
-0.2119 -0.2297 0.02846 -0.7847 0.128 -0.04312 0.1265 -1.269
0.03262 -0.534 -0.1013 0.216 -0.0924 -0.372 -0.0382 -0.1156
-0.3105 0.0308 -0.3594 -0.1975 -0.3315 0.04834 -0.215 -0.1936
00000000: 76a4 eca7 df29 ada4 4629 70ab d12c a231
00000010: 981f 2c30 4eb1 7ca0 43a3 c1b0 5f27 1aa9
00000020: 82b2 0332 08b2 dab6 47b5 412b ce35 3a2a
00000030: f325 a634 eba8 f834 b12e 93ae 4d36 3ab2
00000040: 1139 a3bc 1d3c 7e39 9a3d ca3c 103d 7933
00000050: 1f3a 6d42 2ca7 74be f43b c040 4331 9041
00000060: a03a c5bc 48c0 d0bd d4ba dac1 dab0 fa39
00000070: cbbd 04bc 76c0 d6c0 b13c 89b8 0eb4 973d
00000080: 76b8 67b5 7531 f538 e8b1 0cbb 5037 e32d
00000090: 1738 adba 2038 cfbd 57b5 503b 74b6 3636
000000a0: de35 15ab e931 5a38 dfb4 5433 e13c 51b6
000000b0: c9bb bebe 49b5 24b2 e43d 17b7 593d 32bc
000000c0: 79a7 a7b0 40b8 9732 76b6 aab8 1db2 5b2d
000000d0: 792d a8ab 23b5 e219 c932 aa39 c733 e934
000000e0: ebad 07a9 b6b4 1d35 d630 072b 9133 a5b9
000000f0: b13b cbbb 71b3 f639 6cac ca30 7c36 6f30
00000100: b736 f83c 5c36 e439 b139 a0b5 e6b0 d0b3
00000110: b2b9 0cb9 823a 2cbc e436 9a34 11b8 7d3c
00000120: 9a34 ca32 88b4 4fb4 8e30 1c9f 62a9 f63a
00000130: f8b4 9db6 7a2d bdbe 3232 b79e 23b4 08ba
00000140: 2531 cc32 f4b4 eeb3 9caf 32a9 02b5 4e28
00000150: 7ab2 5139 de30 4a2d b7ab 60b4 c229 812f
00000160: 552e d530 97b4 7a34 33b7 eb36 1c39 b72c
00000170: f3aa cbb3 fe33 3231 c4b5 fc35 a934 2f27
00000180: 753e ef3e 0639 3d35 80ba 68b9 6dbd 7aba
00000190: 36b8 873e 9439 f63e 53c1 8e35 d2b9 cca5
000001a0: 8828 71a2 4c25 f42d 04a0 faa8 1ea4 0b32
000001b0: 50ad 1ea9 682e b02d 6223 88ac 1228 90a7
000001c0: ca2a 0e30 5aa9 8cb3 b321 f830 97a7 2630
000001d0: c8b2 5ab3 4927 47ba 1930 85a9 0c30 13bd
000001e0: 2d28 46b8 7cae e932 eaad f4b5 e4a8 66af
000001f0: f8b4 e327 c0b5 52b2 4eb5 302a e1b2 32b2

arith.constant104 f2 [1, 3, 1, 16]
3.45 -0.296 0.1265 -0.1521 -0.002634 0.2428 0.3992 -1.118
2.262 -0.009155 0.4666 0.148 0.04794 -0.0799 -0.11475 -0.2637
3.834 -1.158 0.1737 -0.848 0.00845 0.237 1.492 5.734
-0.2683 0.3242 1.016 0.2917 0.05298 -0.539 -0.1914 0.0741
-1.627 -4.555 0.4111 1.186 1.104 0.526 1.81 -3.195
-2.297 0.9854 1.652 1.682 0.5454 -7.41 -4.125 -1.953
00000000: e642 bcb4 0c30 deb0 6599 c533 6336 79bc
00000010: 8640 b0a0 7737 bc30 232a 1dad 58af 38b4
00000020: ab43 a2bc 8f31 c9ba 5420 9633 f83d bc45
00000030: 4bb4 3035 103c ab34 c82a 50b8 20b2 be2c
00000040: 82be 8ec4 9436 be3c 6a3c 3538 3d3f 64c2
00000050: 98c0 e23b 9c3e ba3e 5d38 69c7 20c4 d0bf

arith.constant105 f2 [16, 1, 1, 16]
-0.1813 0.1616 0.0481 -0.1434 0.2642 0.0627 0.3105 0.008026
0.08636 -0.2798 -0.1298 0.2454 0.046 -0.01756 0.1926 -0.005787
-0.7275 0.7803 -0.564 -0.612 0.4006 -0.663 -0.388 0.7964
0.6953 0.4783 0.822 -0.006 -0.4617 0.08466 0.316 -0.4192
0.008835 0.3257 -0.03925 0.08453 0.2166 0.05408 0.083 0.0646
-0.3645 0.2498 -0.1804 -0.4219 0.02162 -0.634 -0.12366 -0.3274
-0.01764 -0.5386 0.1387 0.4312 0.0706 0.1506 0.0772 -0.04065
0.0741 0.3796 -0.272 0.0781 -0.02573 -1.211 -0.3992 0.06946
0.149 -0.2 0.2048 -0.004494 -0.594 -0.1138 -0.406 0.1791
-0.07245 -0.2935 0.6147 -0.0944 -0.2329 -0.5376 0.3032 0.007305
0.1194 -0.0713 -0.1549 -0.1318 -0.1342 -0.1008 0.0279 0.1273
0.213 0.1387 -0.01897 0.06537 0.08936 -0.526 -0.4138 -0.08167
-0.4082 0.572 -0.8735 -0.852 -0.2917 0.289 -0.344 0.5386
1.033 0.1584 -0.1189 -0.01408 0.046 -0.524 -0.3232 -0.1968
-0.01942 -0.1256 0.01417 0.04303 0.121 0.2096 0.2747 -0.216
-0.282 0.0008984 0.01985 0.1235 0.1605 0.1489 0.1211 0.3113
-0.0591 -0.1667 -0.1179 0.02565 -0.1321 -0.1421 0.063 -0.0646
0.01307 0.1332 -0.2622 -0.1675 -0.1454 -0.1321 -0.05072 -0.04422
-0.2556 0.1584 0.006718 0.0817 0.4365 -0.2666 -0.02579 0.07806
0.3076 0.6353 -0.2072 0.001763 0.05847 -0.618 -0.4766 -0.6045
-0.3264 -0.3335 0.2031 0.6665 0.1658 0.2812 0.54 -0.3596
-0.5986 -0.05573 -0.4307 0.3296 -0.01191 -0.1575 0.606 -0.1805
-0.4011 0.5864 0.24 0.1956 0.7705 -0.08765 0.2727 -0.3784
0.1284 0.0653 -0.5957 -1.329 0.3022 -0.7686 0.637 -1.895
0.05878 -0.0384 -0.345 -0.04767 0.06946 -0.1576 -0.1305 -0.2156
-0.01414 -0.5586 0.02725 -0.2311 0.476 -0.3289 0.305 0.08856
-0.03647 0.01145 -0.0935 -0.02359 0.1594 0.07153 0.2292 -0.00484
-0.2993 -0.002535 -0.01727 0.1026 0.05807 -0.03244 -0.03635 0.1616
0.0587 0.07806 -0.3193 -0.03897 0.403 -0.1661 -0.1536 -0.0374
0.1809 0.03085 -0.003508 0.4526 0.1965 -0.2534 0.0798 -0.1626
0.558 -0.463 -0.03256 0.2261 -0.4175 0.2751 0.04385 -0.1472
0.0963 -0.2812 -0.2979 -0.32 0.01189 0.2666 0.4102 -0.07544
00000000: cdb1 2c31 282a 97b0 3a34 032c f834 1c20
00000010: 872d 7ab4 27b0 da33 e329 7fa4 2a32 ed9d
00000020: d2b9 3e3a 83b8 e5b8 6936 4eb9 35b6 5f3a
00000030: 9039 a737 933a 259e 63b7 6b2d 0e35 b5b6
00000040: 8620 3635 06a9 692d ee32 ec2a 502d 222c
00000050: d5b5 fe33 c6b1 c0b6 8925 12b9 eaaf 3db5
00000060: 84a4 4fb8 7030 e636 852c d230 f12c 34a9
00000070: be2c 1336 5ab4 002d 96a6 d8bc 63b6 722c
00000080: c530 66b2 8e32 9a9c c1b8 48af 7fb6 bb31
00000090: a3ac b2b4 eb38 0bae 74b3 4db8 da34 7b1f
000000a0: a42f 90ac f5b0 38b0 4bb0 74ae 2427 1330
000000b0: d132 7030 dba4 2f2c b82d 35b8 9fb6 3aad
000000c0: 88b6 9338 fdba d1ba abb4 a034 81b5 4f38
000000d0: 223c 1231 9caf 35a3 e329 31b8 2cb5 4cb2
000000e0: f9a4 05b0 4123 8229 be2f b532 6534 e9b2
000000f0: 83b4 5c13 1525 e72f 2331 c430 c02f fb34
00000100: 91ab 56b1 8caf 9126 3ab0 8cb0 082c 22ac
00000110: b122 4330 32b4 5cb1 a7b0 3ab0 7eaa a9a9
00000120: 17b4 1231 e11e 3b2d fc36 44b4 9aa6 ff2c
00000130: ec34 1539 a1b2 3917 7c2b f2b8 a0b7 d6b8
00000140: 39b5 56b5 8032 5539 4e31 8034 5238 c1b5
00000150: cab8 22ab e4b6 4635 19a2 0ab1 d938 c7b1
00000160: 6bb6 b138 ae33 4232 2a3a 9cad 5d34 0eb6
00000170: 1c30 2e2c c4b8 51bd d634 26ba 1939 94bf
00000180: 862b eaa8 85b5 1aaa 722c 0bb1 2db0 e6b2
00000190: 3da3 78b8 fa26 65b3 9e37 43b5 e134 ab2d
000001a0: aba8 dd21 fcad 0aa6 1a31 942c 5633 f59c
000001b0: cab4 3199 6ca4 912e 6f2b 27a8 a7a8 2c31
000001c0: 832b ff2c 1cb5 fda8 7336 51b1 eab0 caa8
000001d0: ca31 e627 2f9b 3e37 4a32 0eb4 1b2d 34b1
000001e0: 7738 68b7 2ba8 3c33 aeb6 6734 9d29 b6b0
000001f0: 2a2e 80b4 c4b4 1fb5 1622 4434 9036 d4ac

arith.constant106 f2 [16, 1, 1, 16]
-0.2446 0.03375 0.03415 0.1531 0.01736 -0.2242 0.11926 -0.417
-0.00949 0.1926 -0.3079 0.1965 -0.1803 0.1554 -0.383 -0.3838
-0.3286 0.783 0.02826 -0.05695 -0.4788 0.9526 -0.05197 -0.984
0.2273 0.0704 0.91 -0.3555 0.543 0.7812 -0.4426 -0.2144
-0.1951 -0.1036 0.3909 0.0696 -0.01163 0.1512 0.01356 0.1929
0.0902 0.1741 -0.1195 -0.05273 -0.119 0.3438 0.101 0.0774
-0.1857 0.8057 -0.513 0.295 -0.3315 0.6 -0.1903 0.3965
0.2715 -0.666 -0.1982 0.2344 0.3325 0.1421 -0.1844 -1.119
-0.1992 0.08936 0.03116 -0.1672 -0.05408 0.1548 -0.414 0.3928
0.1204 0.1903 -0.1968 0.0629 -0.4485 -0.445 -0.1807 0.4438
-0.0349 0.005962 0.1284 0.03415 -0.00295 0.0124 0.03452 -0.003899
-0.02283 -0.04117 -0.1445 0.02493 -0.00965 -0.1293 -0.2478 0.1685
0.1718 -0.256 0.09717 0.0246 -0.04773 0.0609 0.1702 0.1375
0.08057 -0.005276 0.1261 -0.02428 -0.136 0.0517 0.0807 -0.1758
0.1909 0.1069 -0.0729 -0.219 0.04895 -0.1927 -0.0518 -0.05716
-0.0728 -0.12164 0.1707 9.483e-05 -0.07666 -0.2703 0.03568 0.11694
0.117 0.1614 0.858 0.2361 0.4385 1.615 -0.3794 0.332
0.1768 -0.04553 0.1848 0.714 0.2727 -0.8486 -0.0949 -0.73
0.0796 -0.6543 0.10547 0.05402 0.562 0.2366 -0.1567 -0.581
-0.1669 0.219 -0.5186 -0.01909 -0.4814 -0.0927 -0.567 0.144
-0.884 -0.448 0.1765 0.2378 -0.5894 -0.473 0.04846 -0.1024
-1.499 -0.582 -0.1708 -0.1526 -0.6313 0.4722 0.5625 -0.9897
-0.05142 -0.10376 0.384 0.2163 0.01743 -0.2202 0.05048 0.1832
0.0483 0.00906 -0.3345 -0.10583 -0.442 -0.2412 0.1818 0.1622
0.4343 0.3027 0.373 0.2423 0.598 -0.3716 0.1294 0.1313
-0.3713 -0.0671 -0.2944 0.074 0.3123 -0.3682 -0.2484 -0.2766
0.2673 -0.614 0.0284 0.7505 -0.08124 0.2328 0.4639 -0.421
-0.991 -0.5503 0.4558 0.0436 0.9263 0.01358 -0.866 -0.8613
0.1268 -0.2189 -0.04333 0.01003 -0.05325 0.1726 -0.04053 -0.007515
0.6104 0.2338 -0.0741 -0.1936 -0.1214 -0.05655 -0.1484 -0.1893
-0.0354 -0.01727 -0.10547 -0.003424 0.06165 0.1298 -0.01866 -0.04013
0.01099 -0.079 0.0955 -0.1664 -0.04245 -0.1658 0.02275 0.08185
00000000: d4b3 5228 5f28 e630 7224 2db3 a22f acb6
00000010: dca0 2a32 edb4 4a32 c5b1 f930 21b6 24b6
00000020: 42b5 443a 3c27 4aab a9b7 9f3b a7aa dfbb
00000030: 4633 812c 483b b0b5 5838 403a 15b7 dcb2
00000040: 3eb2 a1ae 4136 742c f4a1 d730 f122 2c32
00000050: c62d 9231 a6af c0aa 9eaf 8035 772e f42c
00000060: f1b1 723a 1bb8 b834 4eb5 cd38 17b2 5836
00000070: 5834 54b9 58b2 8033 5235 8c30 e7b1 7abc
00000080: 60b2 b82d fa27 5ab1 ecaa f430 a0b6 4936
00000090: b52f 1732 4cb2 072c 2db7 1fb7 c8b1 1a37
000000a0: 78a8 1b1e 1c30 5f28 0b9a 5922 6b28 fc9b
000000b0: d8a5 45a9 a0b0 6226 f1a0 23b0 eeb3 6431
000000c0: 7f31 19b4 382e 4c26 1caa cc2b 7231 6630
000000d0: 282d 679d 0930 37a6 5ab0 9e2a 2a2d a0b1
000000e0: 1c32 d72e aaac 02b3 442a 2bb2 a1aa 51ab
000000f0: a9ac c9af 7631 3706 e8ac 53b4 9128 7c2f
00000100: 7d2f 2a31 dd3a 8e33 0437 763e 12b6 5035
00000110: a831 d4a9 ea31 b639 5d34 caba 13ae d7b9
00000120: 182d 3cb9 c02e ea2a 7f38 9233 04b1 a6b8
00000130: 57b1 0233 26b8 e3a4 b4b7 efad 89b8 9c30
00000140: 12bb 2bb7 a631 9c33 b7b8 91b7 342a 8eae
00000150: ffbd a8b8 77b1 e2b0 0db9 8e37 8038 ebbb
00000160: 95aa a4ae 2536 ec32 7624 0cb3 762a dd31
00000170: 2f2a a420 5ab5 c6ae 12b7 b8b3 d131 3131
00000180: f336 d834 f835 c133 c938 f2b5 2430 3430
00000190: f1b5 4bac b6b4 bc2c ff34 e4b5 f3b3 6db4
000001a0: 4734 e9b8 4527 013a 33ad 7333 6c37 bcb6
000001b0: eebb 67b8 4b37 9529 693b f422 eeba e4ba
000001c0: 0f30 01b3 8ca9 2321 d1aa 8631 30a9 b29f
000001d0: e238 7b33 beac 32b2 c5af 3dab c0b0 0fb2
000001e0: 88a8 6ca4 c0ae 039b e42b 2730 c7a4 23a9
000001f0: a021 0ead 1d2e 53b1 6fa9 4eb1 d325 3d2d

arith.constant107 f2 [1, 3, 1, 16]
-1.4795 -0.04645 3.271 -0.1121 1.328 -0.8975 1.994 -4.24
-0.573 -0.3694 0.4988 -3.152 0.3357 0.748 -5.508 -0.3093
-0.3723 -0.004585 -4.344 -0.10583 1.039 -1.469 1.317 -1.905
-0.651 -0.4448 0.2084 -1.17 0.784 0.8154 -1.165 0.997
1.818 -1.6045 0.4487 -0.525 -3.045 -0.9536 -1.774 7.957
-0.1427 -0.3645 -1.345 1.317 0.98 -1.93 5.875 3.334
00000000: ebbd f2a9 8b42 2daf 503d 2ebb fa3f 3dc4
00000010: 96b8 e9b5 fb37 4ec2 5f35 fc39 82c5 f3b4
00000020: f5b5 b29c 58c4 c6ae 283c e0bd 453d 9fbf
00000030: 35b9 1eb7 ab32 aebc 463a 863a a9bc fa3b
00000040: 463f 6bbe 2e37 33b8 17c2 a1bb 19bf f547
00000050: 91b0 d5b5 61bd 453d d73b b8bf e045 ab42

arith.constant108 f2 [16, 1, 1, 16]
-0.09845 0.0336 0.3235 -0.2778 0.173 0.7407 0.339 -0.08
-0.1229 -0.2 0.08325 0.2108 -0.12476 -0.3762 0.0929 -0.033
-0.11005 0.1354 0.2932 -0.04733 -0.479 -0.05023 -0.2888 -0.275
0.0729 -0.0957 -0.2903 0.223 -0.0942 -0.3918 -0.03015 0.2386
0.1403 0.1659 -0.1433 -0.391 -0.01767 -0.086 0.2725 -0.02138
-0.6196 0.1077 -0.127 -0.05542 -0.04025 -0.0462 0.183 0.235
-0.1833 -0.10516 0.1714 -0.2664 0.08185 0.0009365 0.10535 -0.1566
0.3228 -0.06995 -0.3225 0.1338 -0.5205 0.3516 0.1234 -0.3054
-0.0727 0.05133 0.0246 -0.465 -0.02568 -0.1019 -0.2311 0.2263
-0.1492 -0.407 0.1395 -0.1986 -0.1252 0.07263 -0.2411 0.2708
0.338 0.005383 -0.214 -0.2477 0.02298 0.314 -0.045 -0.0536
0.3035 0.2267 -0.0604 0.0746 0.2418 -0.2074 -0.2864 -0.1793
-0.504 0.5024 0.2505 -0.262 -0.543 0.0916 -0.3652 0.6636
-0.2256 -0.1997 0.04083 -0.2886 -0.3203 -0.4219 0.256 -0.2001
0.1598 0.0578 -0.12335 0.1549 0.3484 0.402 0.1942 -0.4941
0.771 -0.3396 0.4934 0.9697 -0.1842 0.07684 0.2903 -0.2291
0.1727 -0.3643 -0.0449 -0.1771 0.1225 0.02933 0.0576 -0.3164
0.3242 0.3738 0.299 0.421 -0.05035 -0.1324 -0.1808 -0.176
0.1694 -0.4536 0.2017 -0.2162 -0.04 0.3315 -0.16 0.1417
-0.158 0.3938 0.0681 -0.138 0.2502 -0.3167 -0.1946 0.1356
-0.1412 -0.2927 -0.0476 0.06354 0.1409 0.1039 -0.1393 0.09814
0.03482 -0.2024 -0.0738 0.639 -0.00773 0.0976 0.2527 -0.6304
0.1514 0.1805 -0.2688 -0.06116 0.3572 0.0946 0.1866 -0.1238
0.4597 -0.07446 -0.622 0.1423 0.02478 0.181 0.1469 0.0345
0.0984 -0.1019 0.2189 0.08984 -0.14 -0.3992 -0.211 0.3171
-0.2083 -0.0466 -0.02643 0.0988 0.03253 0.23 -0.09375 -0.02353
-0.2015 0.608 -0.2393 -0.01617 -0.2 -0.1022 -0.3582 -0.0911
0.01147 -0.3132 0.1777 -0.0688 0.1848 -0.02547 0.2084 -0.1375
-0.5083 -0.2134 -0.2039 -0.03275 0.2056 -0.2954 -0.1276 0.10144
-0.02258 -0.26 0.1915 0.2074 -0.672 -0.2241 -0.261 0.2213
0.2335 -0.2856 -0.2947 0.11725 -0.2319 0.1703 0.04144 0.3628
0.0749 0.336 0.2625 -0.07275 -0.1285 -0.01839 -0.2988 -0.1368
00000000: 4dae 4d28 2d35 72b4 8931 ed39 6d35 1fad
00000010: deaf 66b2 542d bf32 fcaf 05b6 f22d 39a8
00000020: 0baf 5530 b134 0faa aab7 6eaa 9fb4 66b4
00000030: aa2c 20ae a5b4 2333 07ae 45b6 b8a7 a333
00000040: 7d30 4f31 96b0 42b6 86a4 81ad 5c34 79a5
00000050: f5b8 e52e 10b0 18ab 27a9 eaa9 db31 8533
00000060: deb1 bbae 7c31 43b4 3d2d ac13 be2e 03b1
00000070: 2a35 7aac 29b5 4830 2ab8 a035 e62f e3b4
00000080: a7ac 922a 4c26 71b7 93a6 86ae 65b3 3e33
00000090: c6b0 83b6 7730 5bb2 02b0 a62c b7b3 5534
000000a0: 6835 831d d9b2 edb3 e225 0635 c3a9 dcaa
000000b0: db34 4133 bbab c62c bd33 a3b2 95b4 bdb1
000000c0: 08b8 0538 0234 31b4 58b8 dd2d d8b5 4f39
000000d0: 38b3 64b2 3a29 9eb4 20b5 c0b6 1934 67b2
000000e0: 1d31 662b e5af f530 9335 6f36 3732 e8b7
000000f0: 2b3a 6fb5 e537 c23b e5b1 eb2c a534 55b3
00000100: 8731 d4b5 bfa9 abb1 d72f 8227 5f2b 10b5
00000110: 3035 fb35 c934 bc36 72aa 3db0 c9b1 a2b1
00000120: 6c31 42b7 7432 ebb2 1fa9 4e35 1fb1 8930
00000130: 0eb1 4d36 5c2c 6ab0 0134 11b5 3ab2 5730
00000140: 85b0 afb4 18aa 112c 8230 a62e 75b0 482e
00000150: 7528 7ab2 b9ac 1d39 ea9f 3f2e 0b34 0bb9
00000160: d830 c731 4db4 d4ab b735 0e2e f931 ecaf
00000170: 5b37 c4ac fab8 8e30 5826 cb31 b330 6a28
00000180: 4c2e 86ae 0133 c02d 7bb0 63b6 c1b2 1335
00000190: aab2 f7a9 c4a6 532e 2a28 5c33 00ae 06a6
000001a0: 73b2 dd38 a8b3 24a4 66b2 8aae bbb5 d5ad
000001b0: df21 03b5 b031 67ac ea31 85a6 ab32 66b0
000001c0: 11b8 d4b2 86b2 31a8 9432 bab4 15b0 7e2e
000001d0: c8a5 29b4 2132 a332 60b9 2cb3 2db4 1533
000001e0: 7933 92b4 b7b4 812f 6cb3 7331 4e29 ce35
000001f0: cb2c 6035 3334 a8ac 1db0 b5a4 c8b4 61b0

arith.constant109 f2 [16, 1, 1, 16]
-0.0937 0.1272 -0.1598 -0.1454 -0.1324 -0.1617 -0.0674 -0.0983
0.02116 -0.05444 0.03656 0.0219 -0.00517 0.04056 0.06726 0.00562
-0.02379 -0.03683 0.0883 0.03473 0.00935 0.02196 0.01764 -0.02536
-0.0731 0.0215 -0.01167 0.02225 -0.008835 0.02724 -0.01746 -0.0442
0.295 -0.08856 -0.1803 -0.2135 0.0374 -0.1815 -0.2034 -0.0491
-0.4473 0.09784 0.1785 -0.3618 0.4312 -0.3252 0.1912 0.3872
0.01848 0.091 -0.0916 -0.0809 0.1716 -0.0958 -0.1791 -0.1101
-0.0212 0.06323 -0.04907 -0.06143 0.08203 0.1183 -0.02002 0.1462
0.38 0.0003774 -0.0829 -0.1969 -0.3877 -0.3855 -0.1364 -0.362
-0.0716 -0.04684 0.00662 0.1484 0.1963 -0.3396 -0.0765 0.09467
0.013535 0.1298 0.1071 -0.1426 -0.0755 -0.01834 -0.1799 -0.03955
-0.1707 0.11646 -0.143 0.1895 -0.1754 0.03174 0.102 0.2012
-0.07623 0.0794 0.02306 -0.0599 -0.0356 0.002352 0.08215 0.01466
-0.02869 0.01698 0.002796 0.00782 -0.04483 -0.002462 -0.06256 -0.012024
0.01234 -0.03757 0.01717 -0.04755 -0.03366 -0.051 -0.006805 0.10345
0.02989 0.006306 -0.06155 0.10925 -0.02069 -0.0007167 -0.1259 -0.09094
0.887 -0.798 -0.205 0.1234 -0.2727 0.3293 -0.02953 -0.313
0.4707 -0.04453 0.11896 -0.0849 -0.246 0.11194 0.03293 -0.2139
0.006172 0.044 -0.1143 -0.1515 -0.1309 -0.1116 -0.0852 -0.10895
0.02512 -0.05884 0.06586 0.002876 -0.014694 -0.11365 0.02223 0.03937
0.158 -0.005436 -0.1442 0.01454 0.1741 -0.02425 -0.2695 0.4224
-0.1259 -0.172 0.0315 -0.1138 0.0483 -0.1744 0.1548 0.1301
-0.0644 0.0241 -0.2974 0.2773 0.21 0.2886 0.287 0.7544
0.466 -0.1483 0.0316 -0.1896 -0.336 -0.12164 0.748 -0.0519
0.1216 -0.516 0.315 0.2698 -0.11707 -0.05536 0.2842 -0.1301
0.2673 0.05707 -0.00747 -0.08856 -0.087 -0.526 0.0301 -0.1522
0.07324 0.1152 -0.03583 -0.06525 -0.06058 -0.02501 -0.03412 0.03732
-0.07605 -0.09827 0.0665 0.04092 -0.0017185 -0.05554 0.011086 0.0453
-0.8696 -0.04276 1.139 0.4756 0.3838 0.1696 0.3337 -0.0755
0.7197 -0.329 -0.0486 -0.0422 0.012474 0.6206 0.179 -1.154
0.0591 0.1295 0.1282 0.1137 0.2415 0.4292 0.1609 -0.1371
-0.063 -0.09186 0.2678 0.31 0.0943 -0.0531 -0.2257 0.02937
00000000: ffad 1230 1db1 a7b0 3db0 2db1 50ac 4bae
00000010: 6b25 f8aa ae28 9b25 4b9d 3129 4e2c c11d
00000020: 17a6 b7a8 a72d 7228 ca20 9f25 8424 7ea6
00000030: aeac 8125 faa1 b225 86a0 f926 78a4 a8a9
00000040: b834 abad c5b1 d5b2 ca28 cfb1 82b2 49aa
00000050: 28b7 432e b631 cab5 e636 34b5 1e32 3236
00000060: bb24 d32d ddad 2dad 7e31 22ae bbb1 0caf
00000070: 6da5 0c2c 48aa ddab 402d 922f 20a5 ae30
00000080: 1436 2f0e 4ead 4db2 34b6 2bb6 5db0 cbb5
00000090: 95ac ffa9 c71e c030 4832 6fb5 e5ac 0f2e
000000a0: ee22 2730 db2e 90b0 d5ac b2a4 c2b1 10a9
000000b0: 76b1 742f 93b0 1032 9db1 1028 872e 7032
000000c0: e1ac 152d e725 abab 8fa8 d118 422d 8223
000000d0: 58a7 5924 ba19 0120 bda9 0b99 01ac 28a2
000000e0: 5122 cfa8 6524 16aa 4fa8 87aa f89e 9f2e
000000f0: a727 751e e1ab fe2e 4ca5 df91 07b0 d2ad
00000100: 193b 62ba 8fb2 e62f 5db4 4535 8fa7 02b5
00000110: 8837 b3a9 9d2f 6fad dfb3 2a2f 3728 d8b2
00000120: 521e a229 51af d9b0 30b0 24af 74ad f9ae
00000130: 6e26 88ab 372c e419 86a3 46af b125 0a29
00000140: 0e31 919d 9db0 7223 9231 35a6 50b4 c236
00000150: 07b0 81b1 0828 48af 2f2a 95b1 f430 2a30
00000160: 1fac 2b26 c2b4 7034 b832 9e34 9834 093a
00000170: 7537 bfb0 0b28 11b2 60b5 c9af fc39 a5aa
00000180: c82f 21b8 0a35 5134 7eaf 16ab 8c34 2ab0
00000190: 4734 4e2b a69f abad 91ad 35b8 b527 dfb0
000001a0: b02c 5f2f 96a8 2dac c1ab 67a6 5ea8 c728
000001b0: deac 4aae 422c 3d29 0a97 1cab ad21 cc29
000001c0: f5ba 79a9 8e3c 9c37 2436 6d31 5735 d5ac
000001d0: c239 44b5 39aa 67a9 6322 f738 ba31 9ebc
000001e0: 912b 2530 1a30 472f ba33 de36 2631 63b0
000001f0: 08ac e1ad 4934 f634 092e ccaa 39b3 8527

arith.constant110 f2 [1, 3, 1, 16]
-1.7295 -5.695 0.01473 -1.078 -0.522 0.3708 2.07 -2.379
-0.03445 -2.375 -2.598 -0.8564 1.453 5.535 -0.7275 -1.141
-2.102 -2.354 0.4573 -2.262 1.757 1.371 2.498 -2.432
-0.1713 -4.67 0.1399 0.215 -0.1229 -0.4866 -0.3955 -1.377
1.914 8.414 1.745 1.881 -1.053 0.9116 4.992 -0.4817
0.647 7.316 1.935 0.2034 -1.375 -4.31 0.5215 1.423
00000000: ebbe b2c5 8b23 50bc 2db8 ef35 2440 c2c0
00000010: 69a8 c0c0 32c1 daba d03d 8945 d2b9 90bc
00000020: 34c0 b5c0 5137 86c0 073f 7c3d ff40 ddc0
00000030: 7bb1 acc4 7a30 e132 deaf c9b7 54b6 82bd
00000040: a83f 3548 fb3e 863f 36bc 4b3b fe44 b5b7
00000050: 2d39 5147 bd3f 8232 80bd 4fc4 2c38 b13d
