gtcrn_micro/streaming/tflite/gtcrn_micro_stream_simple_float32.tflite (tflite, 278448 bytes, 128 tensors)

arith.constant f4 [8]
0	0xc02a74b7	-2.6633737
1	0xc0013ab4	-2.019208
2	0xbffe83b9	-1.9883949
3	0xbfbbdb52	-1.4676306
4	0x3f196051	0.5991259
5	0x400b175f	2.1733015
6	0x4029e727	2.6547334
7	0xbfb5ca16	-1.4202297

arith.constant1 f4 [8, 1, 1, 16]
0	0xbec3daec	-0.38252962
1	0x3ef6a108	0.48169732
2	0xbff0bd2b	-1.880773
3	0x3ffeffab	1.9921774
4	0x3f544831	0.82922655
5	0x3f131155	0.5744832
6	0x3f13be72	0.5771247
7	0x3f8fa500	1.1222229
8	0x3f343fba	0.7040974
9	0x3ea9ae33	0.33140716
10	0x3f215fee	0.63037
11	0x3f79214e	0.97316444
12	0xbe38e099	-0.18054427
13	0x3e4fc521	0.20290042
14	0x3d2a1863	0.041527163
15	0x4002019d	2.0313485
16	0xbc5d807e	-0.013519404
17	0xbf43a710	-0.7642679
18	0x3f4cae3a	0.7995335
19	0x3e1fbf9b	0.15600435
20	0xbe4a5ac3	-0.19761185
21	0x3e2da822	0.16958669
22	0xbcd56aef	-0.026051966
23	0x3ec97923	0.39350232
24	0xbedbe9d5	-0.42951837
25	0x3e42bea5	0.19018038
26	0x3eb597fe	0.35467523
27	0x3dfa46fa	0.12220569
28	0x3f39e9ee	0.72622573
29	0xbf168651	-0.587987
30	0xbeb6907c	-0.35657108
31	0x3dc546f0	0.09632671
32	0x3f05f5b6	0.5232805
33	0x3f3b7baf	0.732356
34	0x3ee3dacc	0.44502866
35	0x3d696556	0.056981407
36	0x3e3639ab	0.17795436
37	0x3e2eaf1a	0.17058983
38	0xbe4de0c8	-0.20105278
39	0x3e868d54	0.262797
40	0x3efecf79	0.49767664
41	0x3e0a0be7	0.13481103
42	0xbe83a988	-0.2571528
43	0xbf2c6b4a	-0.6735121
44	0x3f4530d5	0.77027637
45	0xbdcf08be	-0.10109089
46	0x3d1884a4	0.03723587
47	0xbe1a0659	-0.15041484
48	0x3f909e7b	1.1298364
49	0xbe6475ec	-0.22310609
50	0xbf29b2f8	-0.6628871
51	0x3f5ef372	0.8709022
52	0x3ec618ec	0.3869089
53	0xbf2910ba	-0.6604115
54	0xbd8ca62a	-0.06867631
55	0x3e974416	0.29544133
56	0xbd1c3f34	-0.038146213
57	0xbef6e348	-0.48220277
58	0xbf76870b	-0.9629981
59	0x3f8f9383	1.1216892
60	0x3f510700	0.81651306
61	0x3e8d0b0a	0.27547485
62	0xbfb952e0	-1.4478416
63	0x3ea0f6bd	0.31438246
64	0x3e659096	0.22418436
65	0xbf937de3	-1.1522793
66	0x3e9d9dd8	0.30784488
67	0x3f968c69	1.17616
68	0x3eddc5b9	0.43314913
69	0x3f84f84b	1.0388273
70	0x3f85fe87	1.04683
71	0xbfc411d9	-1.5317947
72	0xbf3235c2	-0.6961328
73	0xbf61a780	-0.8814621
74	0xbea274c9	-0.31729725
75	0x3f4848d2	0.78236115
76	0xbf2b59f0	-0.6693411
77	0xbf4623e5	-0.7739852
78	0x3ee2c3e3	0.44290075
79	0xbf571495	-0.8401578
80	0x3ecb18f6	0.3966748
81	0xbe701641	-0.23445989
82	0xbe190005	-0.14941414
83	0xbfc2b380	-1.5211029
84	0xbf8f7435	-1.1207339
85	0xbfdc535d	-1.721294
86	0xbf885161	-1.0649835
87	0x3f33d81f	0.7025165
88	0x3ed6aae0	0.41927242
89	0x3f16ff70	0.58983517
90	0xbf23190d	-0.637101
91	0xbec3b1ad	-0.38221493
92	0x3f185c11	0.5951548
93	0xbf860278	-1.0469503
94	0xbe3bcfe2	-0.1834102
95	0x3ffdf201	1.9839479
96	0xbdca8eef	-0.09890544
97	0x3e435918	0.19076955
98	0xbf5df496	-0.86701334
99	0xbef4f1d0	-0.47840738
100	0xbf3b4dc5	-0.7316554
101	0x3f04bb4b	0.51848286
102	0x3eddcc73	0.43320045
103	0x3e1f991a	0.15585747
104	0xbc13d35d	-0.009022561
105	0x3ab3b85d	0.0013711561
106	0x3e92c309	0.28664425
107	0xbf38fa14	-0.7225659
108	0xbee709f6	-0.45124787
109	0xbf58e62e	-0.84726226
110	0xbf039405	-0.51397735
111	0xbef84ea6	-0.48497504
112	0xbed05de5	-0.40696636
113	0xbd76d24f	-0.06025916
114	0x3f11b847	0.5692181
115	0x3dc2d3aa	0.09513028
116	0x3f71f6e6	0.9451736
117	0x3e36920a	0.17829147
118	0xbf2b9fd5	-0.6704076
119	0x3fd6c957	1.6780194
120	0x3f2d15ce	0.67611396
121	0x3f17b74f	0.5926408
122	0xbfeecaf5	-1.8655688
123	0x3d3eeeac	0.046614334
124	0x3e9e203d	0.3088397
125	0x3eb9091e	0.36139768
126	0x3f102942	0.56312954
127	0x3de2f8e3	0.110826276

arith.constant2 f4 [8]
0	0xbf052a57	-0.5201773
1	0xbfde28f4	-1.7356248
2	0x3fa7e33e	1.3116224
3	0xbfc6c99a	-1.5530274
4	0x3f83973c	1.0280528
5	0x3ff46617	1.9093655
6	0xbf3bae29	-0.7331262
7	0xbfe41cae	-1.7821252

arith.constant3 f4 [8, 1, 1, 16]
0	0xbe2db034	-0.16961747
1	0x3e652d35	0.22380526
2	0x3e97ca72	0.2964664
3	0x3e505cd5	0.20347913
4	0xbeb67cbe	-0.35642046
5	0x3e9d279e	0.30694288
6	0xbe83a332	-0.25710446
7	0xbedeba89	-0.4350169
8	0xbf10db0e	-0.5658425
9	0xbe04307d	-0.12909122
10	0xbf336ea4	-0.700907
11	0xbe3d4e62	-0.18486932
12	0x3e867208	0.26258874
13	0x3e0e3b00	0.13889694
14	0xbeaf0f24	-0.3419124
15	0x3e0c0bec	0.13676423
16	0xbd8ab6bb	-0.06773134
17	0x3f8006a8	1.0002031
18	0xbec07947	-0.37592527
19	0x3d4ad82d	0.049522568
20	0xbd326a69	-0.043558512
21	0x3da64f01	0.081205375
22	0x3ec76f87	0.38952276
23	0xbef4fe84	-0.4785043
24	0x406283a9	3.539286
25	0x3d3365cb	0.04379825
26	0xbf88650c	-1.0655837
27	0xbf4b259e	-0.79354274
28	0x3f4f5575	0.8098977
29	0xbf0733d4	-0.5281346
30	0x3dc661c7	0.09686618
31	0xbec1e635	-0.37870947
32	0xbf0b6751	-0.54454523
33	0x3e931909	0.28730038
34	0xbe5224c0	-0.20521832
35	0xbef4ffb5	-0.4785134
36	0xbe86c1d8	-0.26319766
37	0x3e4136a7	0.18868504
38	0x3e8a8a82	0.27058798
39	0xbf36b251	-0.7136584
40	0xbf458ac7	-0.7716488
41	0xbe8857ee	-0.26629585
42	0xbeb513e2	-0.35366732
43	0xbd2c6605	-0.04208948
44	0xbc67a895	-0.014139314
45	0x3f9f9011	1.246584
46	0x3f552ee5	0.8327468
47	0xbebfc893	-0.37457713
48	0x3ebfe96b	0.3748277
49	0x3ecccbd2	0.39999253
50	0xbd8e7b82	-0.06957151
51	0x3f0ef2a8	0.55839014
52	0x3f463e2a	0.77438605
53	0xbf26c272	-0.6514045
54	0x3f79537a	0.97393
55	0xbf339822	-0.7015401
56	0xbf2e616b	-0.681174
57	0xbf30f392	-0.6912166
58	0x3d48fa01	0.049066547
59	0x3f2740dd	0.6533335
60	0x3d550885	0.052010078
61	0x3e2c5182	0.16827968
62	0xbe825297	-0.25453636
63	0xbe222f37	-0.15838324
64	0x3ece120b	0.4024814
65	0x3e81e53a	0.25370198
66	0x3f4483cf	0.76763624
67	0x3f0be2dd	0.5464304
68	0x3de69066	0.112580106
69	0x3e24319d	0.16034551
70	0x3d47b413	0.048755717
71	0xbd4d621c	-0.050142393
72	0x3da3368c	0.07969388
73	0xbe97487e	-0.29547495
74	0xbe129872	-0.14315966
75	0xbe8916cd	-0.26775208
76	0xbf8962fe	-1.0733335
77	0xbf221c55	-0.6332448
78	0x3f462264	0.77396226
79	0xbe6552a8	-0.22394812
80	0x3f02199d	0.5082033
81	0xbefdeeec	-0.49596345
82	0xbdfc6316	-0.12323587
83	0xbf3d5fcd	-0.73974305
84	0xbf03559c	-0.51302505
85	0xbf08f303	-0.53495806
86	0x3bcca08e	0.0062447255
87	0x3d56643e	0.052341692
88	0x3f35430b	0.70805424
89	0x3f4026f3	0.7505943
90	0x3f39d2b7	0.7258715
91	0xbf1beb86	-0.60906255
92	0xbf8e3c99	-1.1112243
93	0xbf2db57c	-0.6785505
94	0x3e3520ab	0.17688243
95	0x3f803b7c	1.0018153
96	0xbf0df554	-0.55452466
97	0x3f59ebf4	0.8512566
98	0x3edc1dde	0.42991537
99	0x3eb4ca06	0.35310382
100	0xbee38143	-0.44434556
101	0x3f875765	1.0573546
102	0x3ef7760e	0.48332256
103	0xbeecb5db	-0.46232495
104	0x3ea8a23c	0.32936275
105	0xbd27f702	-0.04100705
106	0x3f3c7225	0.7361167
107	0x3e93dfab	0.28881583
108	0x3f13dea7	0.57761616
109	0xbf4141d5	-0.75491077
110	0xbf2d3471	-0.67658144
111	0x3f3b624c	0.73196864
112	0x3f15e237	0.585483
113	0x3f005eae	0.5014447
114	0x3cecd583	0.028910404
115	0xbe5885d9	-0.21144809
116	0xbe50c21b	-0.20386545
117	0x3f02f357	0.5115256
118	0x3f303bd6	0.688413
119	0xbd8d52dd	-0.069005705
120	0xbdbfd514	-0.09366813
121	0xbe25d80b	-0.16195695
122	0xbd8b1431	-0.067909606
123	0xbf160e53	-0.5861561
124	0x3e9e9a03	0.30976877
125	0xbca4e963	-0.020130819
126	0xbe360e99	-0.17779006
127	0xbb99117f	-0.004671275

arith.constant4 f4 [8]
0	0xc008eae2	-2.139336
1	0x3f6bf8f6	0.9217676
2	0x3eb7f84f	0.35931632
3	0x401abc6f	2.417751
4	0xc03ea65f	-2.9789045
5	0x3f5c054b	0.85945576
6	0x3defb3e4	0.11704233
7	0x3f5e7b10	0.8690653

arith.constant5 f4 [8, 1, 1, 16]
0	0x3f2563f2	0.6460563
1	0x3f94c332	1.1622069
2	0x3e56becd	0.20971222
3	0x3ef2c532	0.47416073
4	0x3d0ffc9d	0.03515302
5	0x3e96838d	0.2939724
6	0xbf2b36bc	-0.66880393
7	0xbdaff63f	-0.085918896
8	0xbec7d18c	-0.3902706
9	0xbeba9814	-0.3644415
10	0xbd6b6186	-0.057466052
11	0x3ecb73e2	0.3973685
12	0x3f00dbef	0.5033559
13	0x3f04c7a7	0.51867145
14	0xbf82a707	-1.0207223
15	0xbe958daa	-0.29209644
16	0xbc2a0ade	-0.0103785675
17	0xbdd238c6	-0.10264735
18	0xbed7b361	-0.42129043
19	0xbf322a7d	-0.6959608
20	0x3f5db897	0.86609787
21	0x3ebb2e91	0.36558965
22	0x3f654e4b	0.8957259
23	0xbf999818	-1.199954
24	0xbdcf8905	-0.10133556
25	0xbf9dace8	-1.2318392
26	0xbd42743b	-0.047474127
27	0xbfa782b3	-1.3086761
28	0x3ee20ca3	0.44150266
29	0xbe1124bc	-0.1417417
30	0xbf1d5e3e	-0.6147193
31	0x3f25b4aa	0.64728796
32	0xbf6d1660	-0.92612267
33	0xbd9c21ff	-0.07623672
34	0xbf153ef6	-0.58299196
35	0x3e58a300	0.2115593
36	0xbf0baa0f	-0.54556364
37	0xbf197604	-0.599457
38	0x3ec1eabe	0.37874407
39	0x3e5c193e	0.21494004
40	0x3f975805	1.1823736
41	0x3c9a8028	0.018859938
42	0xbf224254	-0.6338246
43	0x3f1ba544	0.6079905
44	0x3e51c674	0.2048586
45	0x3e783d31	0.24242093
46	0xbf10cbc3	-0.56560916
47	0x3e1b6e44	0.15178782
48	0xbe5ea178	-0.21741283
49	0x3f9dfe6b	1.2343267
50	0x3e416427	0.18885861
51	0x3e9ecc2c	0.31015146
52	0xbf99b553	-1.2008461
53	0x3f0c1613	0.5472118
54	0xbf8497ff	-1.0358886
55	0xbe56f95d	-0.20993562
56	0xbefbc248	-0.49171662
57	0xbe9b7916	-0.3036582
58	0x3f0c163e	0.5472144
59	0xbf53de42	-0.82761014
60	0xbea3621e	-0.31910795
61	0x3ea54c40	0.32284737
62	0xbf408dd0	-0.7521639
63	0x3f73e206	0.9526676
64	0x3da74c66	0.08168869
65	0x3ebe282a	0.37140018
66	0x3f199645	0.5999492
67	0xbe258ee5	-0.16167791
68	0x3f837794	1.0270867
69	0xbd2d5aae	-0.042322807
70	0x3f48a135	0.7837098
71	0x3f0b7f5b	0.54491204
72	0x3e76499a	0.24051514
73	0xbd107bf9	-0.03527448
74	0xbf233125	-0.63746864
75	0x3e3189e0	0.17337751
76	0x3e9a720c	0.30165136
77	0xbf33c2e1	-0.70219237
78	0xbdabc0d9	-0.08386392
79	0x3ead4cdf	0.3384771
80	0x3dfa9db0	0.12237108
81	0xbf27710f	-0.6540689
82	0x3ee65c8f	0.44992492
83	0x3f710eaf	0.9416303
84	0x3e037258	0.12836587
85	0xbd07ac25	-0.033123154
86	0x3d6fc1a2	0.058534272
87	0xbde8d306	-0.113683745
88	0xbe83a251	-0.25709775
89	0xbcf5ba11	-0.02999595
90	0x3e8eea44	0.27913105
91	0xbe5cba9e	-0.21555564
92	0xbefdf300	-0.49599457
93	0x3f310f58	0.6916404
94	0xbec41a43	-0.38301286
95	0xbf104c48	-0.56366396
96	0xbf1f04ef	-0.62116903
97	0xbe401b48	-0.18760407
98	0x3c0f427f	0.008743881
99	0xbe2ba0c3	-0.16760544
100	0x3e2dc7f3	0.16970806
101	0x3f4a9c7d	0.7914503
102	0xbef3c628	-0.4761212
103	0x3f4d51f2	0.80203164
104	0x3ef29eec	0.47386873
105	0xbd7148df	-0.058907386
106	0xbd6c1a0c	-0.057642028
107	0xbd8f92fc	-0.07010457
108	0x3f2452c9	0.6418882
109	0xbda91479	-0.08255858
110	0xbe71d19e	-0.23615119
111	0x3c119437	0.008885435
112	0x3ea66c6c	0.32504594
113	0xbf40e218	-0.7534499
114	0xbebac4b3	-0.36478195
115	0x3c0ac6ef	0.008470281
116	0x3e4f7d3b	0.20262615
117	0x3f154a65	0.5831664
118	0x3e64b6e7	0.22335397
119	0xbf309a72	-0.68985665
120	0xbeca7e2d	-0.3954939
121	0xbf0b3594	-0.5437863
122	0xbf65c0e0	-0.8974743
123	0xbe192d28	-0.14958632
124	0xbf81572c	-1.0104728
125	0xbd5a1e74	-0.0532517
126	0x3e143790	0.1447432
127	0xbe527483	-0.20552258

arith.constant6 f4 [16]
0	0xbd5b2656	-0.053503357
1	0xbed85177	-0.42249653
2	0xbf23db57	-0.6400656
3	0xc04d1b7d	-3.2048028
4	0xbe49050b	-0.1963083
5	0xbf82e6d7	-1.0226697
6	0xbf655d4a	-0.8959547
7	0x40456fee	3.0849566
8	0xbf39e3ae	-0.72613037
9	0x3fbd2f60	1.4780083
10	0xbf17b808	-0.59265184
11	0x403d24c6	2.9553695
12	0x3fd68e37	1.676215
13	0xbe4446d6	-0.19167647
14	0x3e903063	0.28161916
15	0x3feb00d2	1.8359625

arith.constant7 f4 [8]
0	0xbf80f5dc	-1.007503
1	0x3ddd94b8	0.108193815
2	0xbf1ae65c	-0.6050775
3	0xbd84e656	-0.064892456
4	0x3f022517	0.50837845
5	0xbec52e67	-0.38511965
6	0xbb7139dd	-0.003680817
7	0x3e008c3a	0.12553492

arith.constant8 f4 [8]
0	0x3ecf8fce	0.40539402
1	0x3f2e68b1	0.68128496
2	0xbf97e60e	-1.1867082
3	0x3eef33bc	0.46719158
4	0x3f49610f	0.78663725
5	0xbf46982b	-0.7757594
6	0xbecb5d7e	-0.39719766
7	0xbf824da9	-1.017995

arith.constant9 f4 [8]
0	0xbe968c25	-0.29403797
1	0x3e9f9ae7	0.3117287
2	0x3f564d51	0.83711725
3	0x3f30485e	0.68860424
4	0x3ef147e9	0.47125176
5	0x3e0500f6	0.12988648
6	0xbf098565	-0.5371917
7	0x3ebafe51	0.36522153

arith.constant10 f4 [8]
0	0x3f634770	0.8878088
1	0xbea8994a	-0.3292945
2	0x3f781141	0.9690133
3	0xbe20cd52	-0.15703323
4	0x3f28d804	0.65954614
5	0xbefd0098	-0.49414515
6	0x3ed26ca1	0.41098502
7	0x3f3243dd	0.696348

arith.constant11 f4 [8]
0	0x3f0b9630	0.5452604
1	0x3edd8435	0.43264928
2	0xbebaac38	-0.36459517
3	0x3e1bc173	0.15210514
4	0x3e226a4e	0.15860865
5	0x3d3c0da5	0.04591145
6	0xbf143ac1	-0.5790215
7	0xbebb4e10	-0.36582994

arith.constant12 f4 [8]
0	0x3e6fb6fc	0.23409647
1	0x3e9eb715	0.30999056
2	0x3f2270d3	0.63453406
3	0xbf867d32	-1.0506957
4	0x3ecf6447	0.40506193
5	0x3f6ba8ab	0.9205424
6	0xbe36ed86	-0.17864046
7	0x3eb1dcf5	0.3473889

arith.constant13 f4 [16, 1, 1, 8]
0	0xbd9dfc92	-0.077141896
1	0xbd1d3863	-0.038383853
2	0x3d519a03	0.051172268
3	0x3e55eb0b	0.20890443
4	0x3d300370	0.04297203
5	0xbdd8ae3a	-0.10580106
6	0xbe589c06	-0.21153268
7	0x3df587e4	0.1198881
8	0x3d26cbe4	0.04072179
9	0x3d9fdd72	0.07805909
10	0xbe4e7c47	-0.20164596
11	0x3dbb5743	0.09147503
12	0xbd443199	-0.047898863
13	0xbe6d2452	-0.23158386
14	0x3c545f9f	0.012962251
15	0x3e26bc72	0.16282824
16	0x3e32f5af	0.17476533
17	0xbccd8653	-0.025088465
18	0x3e0caec4	0.13738543
19	0x3d4dec8a	0.05027441
20	0xbe53b9a3	-0.20676284
21	0x3d5f101a	0.054458715
22	0x3be81445	0.0070824944
23	0x3cc2f9b7	0.023800714
24	0xbdc8538a	-0.09781559
25	0x3e01d991	0.12680651
26	0x3d06b254	0.03288491
27	0x3e702210	0.23450494
28	0x3b3a0371	0.00283834
29	0x3df42bb2	0.11922397
30	0x3df87d81	0.12133313
31	0x3e0ec2b5	0.13941462
32	0xbc831539	-0.01600133
33	0xbdda3441	-0.10654498
34	0xbd99d6ba	-0.07511659
35	0x3e2cd7ba	0.16879168
36	0xbdfd2cb7	-0.12362044
37	0x3ccccb5f	0.024999319
38	0x3dcac1ee	0.099002704
39	0xbcf1c8e5	-0.02951474
40	0x3c40e9cf	0.011774494
41	0x3e022a97	0.12711559
42	0xbdd15332	-0.10220946
43	0x3de80446	0.1132894
44	0xbdc31a11	-0.09526456
45	0x3e3fc810	0.18728662
46	0xbe7c3aeb	-0.2463185
47	0x3d802f6a	0.062590435
48	0x3df96706	0.12177853
49	0x3d165c14	0.036708906
50	0x3d0a3d8e	0.03375011
51	0x3e2e45d8	0.17018831
52	0x3dae7bf8	0.08519739
53	0x3d97eeab	0.07418569
54	0xba4c3418	-0.0007789745
55	0xbe07a046	-0.13244733
56	0x3e0d06ed	0.13772173
57	0xbcbf01b9	-0.023316251
58	0x3c15ca94	0.009142537
59	0xbe520e6a	-0.20513311
60	0x3e6c4c34	0.23075944
61	0xbe2eff81	-0.17089655
62	0xbcff552a	-0.03116854
63	0xbe58fa3f	-0.21189211
64	0xbd0b8419	-0.034061525
65	0xbcee7021	-0.029106202
66	0xbdaf5379	-0.08560843
67	0xbd3da433	-0.04629917
68	0x3d91bcb4	0.071160704
69	0x3e42a3e7	0.19007836
70	0xbcf6002f	-0.030029384
71	0x3e1b935b	0.1519293
72	0xbe176d0f	-0.14787696
73	0x3e15acc8	0.14616692
74	0xbe2ace42	-0.16680244
75	0x3d929694	0.07157627
76	0xbd2c5c9a	-0.0420805
77	0xbcdd7bc2	-0.027036551
78	0xbd0c528d	-0.034258414
79	0xbda06c1a	-0.07833119
80	0x3e5b1fe0	0.21398878
81	0x3d30f311	0.043200556
82	0x3d2ebede	0.042662494
83	0xbcb6acfd	-0.022299284
84	0x3d60a17b	0.0548415
85	0x3ccd80e2	0.02508587
86	0xbd2b89e3	-0.041879546
87	0x3de4bb0e	0.1116849
88	0x3d708b1a	0.058726408
89	0xbd947be6	-0.07250194
90	0xb99f0044	-0.0003032704
91	0xbe8dfc42	-0.2773152
92	0xbe8a6264	-0.2702819
93	0xbd87ac9f	-0.06624722
94	0x3c7cdcc2	0.015433492
95	0xbdb949ef	-0.09047305
96	0xbd92f749	-0.07176072
97	0xbd3dab24	-0.04630579
98	0xbc1fdeb9	-0.009757691
99	0xbdbc43d6	-0.09192626
100	0x3d4b17d4	0.04958327
101	0x3da30f82	0.07961942
102	0x3dce8d68	0.10085565
103	0xbda45bf4	-0.08025351
104	0x3d5e5112	0.054276533
105	0x3dab6583	0.08368971
106	0x3e632d8a	0.2218534
107	0xbdf773ec	-0.12082657
108	0xbd9938df	-0.074815504
109	0x3c7f4d8b	0.0155824525
110	0x3cb85330	0.022500604
111	0xbd5cafd7	-0.05387863
112	0x3cb8fbb6	0.022580963
113	0xbdd8c9be	-0.10585354
114	0x3db0a303	0.08624842
115	0xbe087c49	-0.13328661
116	0x3e2c08cf	0.16800235
117	0xbcfbc1fc	-0.030732147
118	0x3db2efa6	0.087371156
119	0x3dcd44fd	0.10022924
120	0xbe54ef61	-0.20794441
121	0x3b6d9060	0.0036249384
122	0x3d42d1e8	0.047563463
123	0x3da95120	0.082674265
124	0xbdd5b767	-0.10435372
125	0xbe1593f1	-0.14607216
126	0x3d25f2e6	0.04051485
127	0xbe2b9954	-0.16757709

arith.constant14 f4 [8]
0	0xbe42f6a1	-0.19039394
1	0xbf81b4a7	-1.0133256
2	0xbe2a798e	-0.16647932
3	0x3d52cdc5	0.05146577
4	0xbf0b9e6d	-0.54538614
5	0xbd8e7019	-0.06954975
6	0xbe84718b	-0.25867876
7	0xbf201099	-0.62525326

arith.constant15 f4 [8]
0	0xbde77f3a	-0.113035634
1	0xbce70d39	-0.028204547
2	0xbe8bc09f	-0.27295396
3	0xbef0c8c0	-0.4702816
4	0x3f3bf4a8	0.7342019
5	0x3d73e085	0.05954029
6	0xbf2c7d88	-0.67379045
7	0xbe4ae6f0	-0.19814658

arith.constant16 f4 [8]
0	0x3d2d6fc7	0.042342927
1	0xbd2decdb	-0.04246221
2	0xbecf86ef	-0.40532634
3	0x3e52d4e5	0.20589025
4	0x3e2c5592	0.16829517
5	0x3df0d0ce	0.11758576
6	0xbe091505	-0.13386925
7	0x3da58fc2	0.0808406

arith.constant17 f4 [8]
0	0x3ec913b8	0.39272857
1	0x3dfe6d22	0.12423159
2	0x3eb1186f	0.34588954
3	0xbf1dc038	-0.6162143
4	0x3da22889	0.07917888
5	0x3ecb6b92	0.39730507
6	0xbe86dda9	-0.26340988
7	0xbe57eefe	-0.21087262

arith.constant18 f4 [8]
0	0x3d67ae4e	0.056562714
1	0x3ea51e4b	0.32249674
2	0x3e789133	0.24274139
3	0xbcd223c0	-0.025651813
4	0xbe5f24a9	-0.21791328
5	0xbe705156	-0.23468527
6	0x3ed7189d	0.42010966
7	0x3df1a534	0.11799088

arith.constant19 f4 [8]
0	0x3eaaa202	0.33326727
1	0xbccce335	-0.025010685
2	0xbee575ec	-0.4481653
3	0xbecf758e	-0.40519375
4	0xbe7a7335	-0.2445801
5	0xbe11e691	-0.1424811
6	0xbe6339ff	-0.22190093
7	0x3ed18908	0.4092486

arith.constant20 f4 [2]
0	0x400515e4	2.079461
1	0x3e2a8cd8	0.1665529

arith.constant21 f4 [16]
0	0x3d193fb8	0.037414283
1	0xbda117d9	-0.07865877
2	0x3d086f2f	0.033309158
3	0x3cf49b6c	0.029859267
4	0xbd7cabdf	-0.061687347
5	0x3d4d75ec	0.050161287
6	0xbcdd6038	-0.02702342
7	0xbe030eba	-0.12798586
8	0xbdab72ae	-0.08371483
9	0xbc112488	-0.008858807
10	0xbd7f6869	-0.062355433
11	0xbda6a7ea	-0.08137496
12	0xbd48e4ba	-0.049046256
13	0x3dcf1450	0.10111296
14	0x3d27e82e	0.04099291
15	0x3d24ae25	0.04020514

arith.constant22 f4 [16]
0	0x3eb506cf	0.35356757
1	0xbe85e450	-0.2615075
2	0xbb2ab200	-0.0026046038
3	0xbda26137	-0.079286985
4	0x3f687d39	0.90816075
5	0x3ec4ea52	0.38460022
6	0xbfaa9740	-1.3327408
7	0x3f76ce81	0.9640885
8	0x3efa9644	0.4894277
9	0x3eee02a8	0.46486402
10	0x40368fac	2.852519
11	0x3fac2097	1.3447446
12	0x3ef6cc2a	0.4820264
13	0x3fd2684e	1.6438081
14	0x3fe988b8	1.8244848
15	0x3f18c466	0.5967468

arith.constant23 f4 [16]
0	0xbed7242e	-0.4201979
1	0x3f6406ea	0.8907305
2	0x3f3cd7d4	0.7376683
3	0x3fb04d44	1.377358
4	0x3fd5e942	1.671181
5	0x3f99b496	1.2008235
6	0x3f40de0a	0.75338805
7	0x3f26cb7f	0.6515426
8	0xbfbeef96	-1.4916866
9	0xc0094d6e	-2.145351
10	0xbe870db7	-0.2637765
11	0xbc7d0660	-0.015443414
12	0xbf841e56	-1.0321758
13	0x3fb842fc	1.4395442
14	0xbe6ebbe0	-0.23313856
15	0x3fd20e0d	1.6410538

arith.constant25 f4 [16]
0	0x3ff770c4	1.9331288
1	0x4028e008	2.6386738
2	0x40155c73	2.3337677
3	0x407b129d	3.923011
4	0x3f9445b4	1.1583772
5	0x40180bbe	2.3757167
6	0x3fa40eb2	1.2816985
7	0xbf20f9ab	-0.62880963
8	0x3fd67c74	1.675673
9	0x4084a0bd	4.1446214
10	0x401eb99e	2.4800792
11	0xbe486011	-0.19567896
12	0x3fee4382	1.8614352
13	0xbdebe2c4	-0.115178615
14	0x3f35cd10	0.71016026
15	0x3f963491	1.1734792

arith.constant26 f4 [16]
0	0x40065752	2.0990796
1	0x40380554	2.8753252
2	0x404a67d0	3.1625862
3	0xbf5a5077	-0.8527903
4	0xbf01897e	-0.5060042
5	0x3e191590	0.14949632
6	0x3fadf72f	1.359106
7	0x404fcc96	3.246862
8	0x3f038f2c	0.5139034
9	0x3f8b6cc0	1.0892563
10	0x402e1972	2.720303
11	0xbebe918e	-0.37220424
12	0xbf3e15b4	-0.74251866
13	0xbf1040e8	-0.5634904
14	0x3e3691c0	0.17829037
15	0xbf97ee64	-1.1869626

arith.constant27 f4 [16]
0	0x3f918b47	1.1370629
1	0xbf8a6a7c	-1.0813746
2	0x3ddd4b74	0.10805407
3	0xc016b19e	-2.354591
4	0xbe1ba325	-0.15198953
5	0xbcf92998	-0.030415341
6	0xbe4f0b6c	-0.20219201
7	0xbf18d904	-0.5970614
8	0x3d84593c	0.064623326
9	0xbf102c8c	-0.56317973
10	0x404f07d4	3.2348528
11	0xbf9ec0e1	-1.2402612
12	0xbd9f5bf0	-0.077812076
13	0x3fd6991e	1.6765478
14	0xbdd5761e	-0.1042292
15	0x3e51cd8f	0.2048857

arith.constant28 f4 [16]
0	0x3fc02138	1.5010138
1	0x3fc2f6e2	1.5231593
2	0xc04ebc16	-3.2302299
3	0xbed7ad20	-0.4212427
4	0x3f9f84aa	1.2462361
5	0xc04f6b0e	-3.240909
6	0xc05d9e67	-3.462793
7	0x3eed2109	0.46314266
8	0x3efec6de	0.497611
9	0xbe112ceb	-0.14177291
10	0xbf561058	-0.8361869
11	0xbe9a4a69	-0.30134895
12	0x3ec4b688	0.3842051
13	0x3be8c580	0.007103622
14	0x3f5486c4	0.83018136
15	0x3f278220	0.6543293

arith.constant29 f4 [16]
0	0xbf36945e	-0.7132014
1	0x3f5260f3	0.8217918
2	0x3fd09594	1.6295648
3	0x3e22bcee	0.15892383
4	0x3d4ea7a4	0.050452843
5	0xbaca5a00	-0.0015438199
6	0x3d4e8c40	0.05042672
7	0xbe738e60	-0.2378478
8	0xbff053b0	-1.8775539
9	0xbb697b00	-0.0035626292
10	0x3fb15c08	1.3856211
11	0xbe69b33e	-0.22822282
12	0x3f720a1c	0.94546676
13	0xbf367db3	-0.7128555
14	0xbf5fb761	-0.8738919
15	0xbf803fd7	-1.0019482

arith.constant30 f4 [16]
0	0xbf1f03ce	-0.6211518
1	0x3e1b093a	0.15140238
2	0x3dc12950	0.09431708
3	0x3c615be0	0.013754815
4	0x3ef52aa6	0.478841
5	0xbea8c25c	-0.32960784
6	0x3e4ead5a	0.20183316
7	0x3fedfe33	1.85932
8	0x3f682ae9	0.90690476
9	0x4013618e	2.3028293
10	0x3f3d3f38	0.7392459
11	0x3f07a564	0.5298674
12	0xc06d397b	-3.7066333
13	0xbe255fb6	-0.16149792
14	0x3f835817	1.0261258
15	0x3deb28fd	0.11482427

arith.constant31 f4 [16]
0	0x3e9e4e23	0.3091899
1	0x3fcc60f2	1.5967085
2	0xbfdc0666	-1.7189453
3	0xbef20041	-0.4726582
4	0xbf3c3a38	-0.73526335
5	0xbfc5e59f	-1.54607
6	0x3da5a508	0.08088118
7	0xbed25f74	-0.4108845
8	0xbead0d4a	-0.337992
9	0x3fada6ac	1.3566489
10	0xbfc42287	-1.5323037
11	0x3f67c666	0.90537107
12	0x3f2c457e	0.67293537
13	0xbf92c2fe	-1.1465757
14	0x3f92b85f	1.1462516
15	0x3e45e77a	0.19326583

arith.constant32 f4 [16]
0	0xbdc829e6	-0.097736165
1	0x3f2de740	0.67930984
2	0x3f74edbf	0.9567527
3	0x4000b231	2.010876
4	0x3e109578	0.14119518
5	0x3f8459d2	1.0339911
6	0x3fc9f132	1.5776732
7	0x3fa71884	1.3054357
8	0x3e7d496b	0.24735038
9	0xbf28aac6	-0.6588558
10	0x3fb4d109	1.4126292
11	0xbe8fd16b	-0.2808946
12	0x3f9a7c10	1.2069111
13	0xbf4daae2	-0.8033887
14	0xbe907450	-0.2821374
15	0x3f3af1ce	0.73025215

arith.constant33 f4 [16]
0	0xbee36783	-0.4441491
1	0x3dba9298	0.09109992
2	0x3fc28f12	1.5199912
3	0x3eef4b93	0.46737346
4	0x3ee6fb14	0.45113432
5	0x3f1dfcce	0.61713874
6	0x3e331a7c	0.17490572
7	0xbdd59eac	-0.10430655
8	0xbe0a3778	-0.13497722
9	0x3e9ccaea	0.3062356
10	0x3e2ad364	0.16682202
11	0xbf5e9a15	-0.8695386
12	0xbfb07d61	-1.3788263
13	0x3fa8216d	1.3135201
14	0xbdb4790c	-0.0881215
15	0x3ef50548	0.47855592

arith.constant34 f4 [16]
0	0x3ffb131e	1.9615209
1	0xbfd8b9c2	-1.6931689
2	0xbf75c2db	-0.9600045
3	0xbe02bc80	-0.1276722
4	0xbeb4c6ca	-0.35307914
5	0xbf379ef6	-0.7172693
6	0x3f986ea9	1.1908771
7	0xbfb48aa7	-1.4104813
8	0xbf7609c0	-0.9610863
9	0x401afa3d	2.4215233
10	0x3f93b8e6	1.1540802
11	0x3eace576	0.33768815
12	0xbf647c1f	-0.89251894
13	0x3f15e290	0.5854883
14	0xbe4a90d0	-0.19781804
15	0x3f53a29d	0.82670003

arith.constant35 f4 [16]
0	0x3e7c2932	0.2462509
1	0x3f09239d	0.53569967
2	0x3f14306e	0.578864
3	0x3f17ba9b	0.5926911
4	0xbe253de0	-0.16136885
5	0xbebfa091	-0.3742719
6	0x3f9e2a0c	1.2356582
7	0xbe824300	-0.25441742
8	0x3fd7bb46	1.6854026
9	0x3f146443	0.5796549
10	0x3db9af38	0.090666234
11	0xbf30f644	-0.6912577
12	0x3ef5f8af	0.48041293
13	0xbe0a3be4	-0.13499409
14	0xbdc14fc6	-0.09439044
15	0x3dcb5f68	0.09930307

arith.constant36 f4 [16]
0	0x3d368ae1	0.04456604
1	0x3f893ddd	1.0722004
2	0x3da0c841	0.078506954
3	0xbf722c80	-0.9459915
4	0xbee01056	-0.43762463
5	0xbf1082fa	-0.56449854
6	0x3e22e5b9	0.15907945
7	0x3f99a382	1.2003024
8	0x3f1d10e5	0.61353904
9	0xbeeba1d3	-0.460219
10	0xbfa3c6e2	-1.2795069
11	0x3ec3aa22	0.3821574
12	0xbf403574	-0.75081563
13	0x3f9be2d8	1.2178602
14	0xbf19974b	-0.5999648
15	0xbee2a60f	-0.44267318

arith.constant37 f4 [16]
0	0x3f9afc8c	1.2108321
1	0x3f126cad	0.57197076
2	0xbe54329f	-0.20722435
3	0xbfb1655c	-1.3859057
4	0xbfc01685	-1.5006872
5	0xbf7cd8c5	-0.98768264
6	0x3f31ab25	0.6940177
7	0xbfb945cd	-1.4474427
8	0xbffc276d	-1.9699532
9	0x3f9b36fe	1.2126157
10	0x3fae0863	1.359631
11	0x3f56b9d7	0.8387732
12	0xbf814be9	-1.0101291
13	0x3fd30ab4	1.6487641
14	0x3fe987ad	1.824453
15	0xbfe15c41	-1.7606279

arith.constant38 f4 [16]
0	0x3dfbf8bd	0.123033024
1	0xbdfc903c	-0.12332198
2	0x3fa48b16	1.2854946
3	0x3f9790d0	1.1841068
4	0x3e1693a6	0.14704761
5	0x3f8ca8c4	1.0989003
6	0x3e4b8904	0.19876486
7	0xbd5f16d2	-0.054465123
8	0x3e78b048	0.24285996
9	0xbec83338	-0.39101577
10	0xbc812340	-0.015763879
11	0x3f3c5bd8	0.7357764
12	0x3f1d554f	0.61458296
13	0xbf299123	-0.66237086
14	0x3e7ef344	0.24897486
15	0x3e99b207	0.30018637

arith.constant39 f4 [16]
0	0xbf2bdd76	-0.671348
1	0x3fa80a0c	1.3128066
2	0x3d0a5ce0	0.03377998
3	0xbe8d8c9f	-0.27646348
4	0x3e17be12	0.148186
5	0x3daa751e	0.083231196
6	0xbd46e7be	-0.04856085
7	0x3f90915e	1.1294363
8	0x3f0e2531	0.555255
9	0xbe31f4f0	-0.17378592
10	0xbe8caba2	-0.27474695
11	0x3e5d8118	0.21631277
12	0xbeda20bf	-0.42603108
13	0x3f9d36d4	1.2282357
14	0xbe598656	-0.21242651
15	0x3f3dc196	0.74123514

arith.constant40 f4 [16]
0	0x3f0f9b25	0.56096107
1	0xbe2b2567	-0.16713487
2	0xbe98ba5f	-0.2982969
3	0xbf87f673	-1.0622085
4	0x3dafa3f2	0.08576192
5	0x3f199a0d	0.6000069
6	0x3f804228	1.0020189
7	0x3efe6530	0.49686575
8	0xbf18dd2b	-0.59712476
9	0xbec7fc64	-0.39059746
10	0x3e4b0b83	0.1982861
11	0xbf8f21f9	-1.1182243
12	0xbf02a587	-0.51033825
13	0xbf414d0d	-0.75508195
14	0x3f10c72a	0.565539
15	0x3fca3945	1.5798727

arith.constant41 f4 [16]
0	0xbf4fe3bd	-0.81206876
1	0xbec33866	-0.38128966
2	0x3da34afc	0.079732865
3	0x3f8d53ef	1.104124
4	0x3da76013	0.081726216
5	0x3fe3c25e	1.7793691
6	0xbfdfcb35	-1.7483889
7	0xbf12ef1a	-0.5739609
8	0xbf097c46	-0.5370525
9	0x3f586fd3	0.8454563
10	0xbe99195c	-0.2990216
11	0x3ef087f4	0.46978724
12	0xbee66a72	-0.45003086
13	0x3ef8dfe9	0.4860833
14	0x3ed7aca0	0.4212389
15	0xbbc0ee00	-0.005887747

arith.constant42 f4 [16]
0	0x3e784e24	0.24248558
1	0x3f2290b6	0.6350206
2	0x3ec8af9a	0.39196473
3	0x3f7c2951	0.98500544
4	0x3e1c3d0e	0.15257666
5	0xc0040102	-2.0625615
6	0xc123b786	-10.232306
7	0xc01d4dae	-2.4578662
8	0x3ecf5f25	0.40502277
9	0xbcdd0968	-0.026982024
10	0x3d13ec50	0.036114037
11	0x3e57d41d	0.21077009
12	0x3d98dbcf	0.074638
13	0xbe901539	-0.28141192
14	0x3d314e26	0.04328742
15	0xbf15e33c	-0.5854986

arith.constant43 f4 [16]
0	0xbd942190	-0.07232964
1	0xbf80a80a	-1.0051281
2	0x3f02f450	0.5115404
3	0x3f26c7dd	0.6514872
4	0x3f770538	0.9649234
5	0x3f86771e	1.0505102
6	0x3f89c717	1.0763882
7	0xbf434952	-0.7628375
8	0xbc0d3fe8	-0.0086211935
9	0xbc8bc8c0	-0.017063498
10	0xbe4b627e	-0.1986179
11	0xbf02e320	-0.51127815
12	0x3d71c7d0	0.059028447
13	0x3f943404	1.1578374
14	0xc0110cd6	-2.2664084
15	0xbf72e654	-0.948827

arith.constant44 f4 [16]
0	0xbf11f51b	-0.57014626
1	0x3efc85f2	0.49320942
2	0x3f8d16fa	1.1022637
3	0x3fdb0c77	1.7113179
4	0x3effe4cf	0.49979255
5	0x3ebbdc4b	0.36691508
6	0x3f728a72	0.947425
7	0xbfc4f9d8	-1.5388746
8	0xbf0929f6	-0.5357965
9	0xbf01059d	-0.5039919
10	0x3e14e70d	0.14541264
11	0xbf95ab3c	-1.1692882
12	0xbe081163	-0.13287883
13	0x3f86ff93	1.0546745
14	0xbe5c189c	-0.21493763
15	0xbf96e91f	-1.1789893

arith.constant45 f4 [16]
0	0x3f172e9a	0.59055483
1	0x3cf14fd1	0.029457005
2	0xbd37802b	-0.044799965
3	0x3f940bb6	1.1566074
4	0x3cb2bbc0	0.021818042
5	0x4060a9e0	3.5103683
6	0x3f002da3	0.50069636
7	0x3f915f70	1.135725
8	0xbd2b78a8	-0.041863114
9	0x3f1254f2	0.57160866
10	0xbdf5af8e	-0.11996375
11	0xbd8b3d50	-0.06798804
12	0x3f4166d2	0.75547516
13	0x3e25b727	0.16183148
14	0xbec281fa	-0.3798979
15	0xbfea062a	-1.8283131

arith.constant46 f4 [16]
0	0x3f7d2b74	0.9889443
1	0xbdfaefbc	-0.12252757
2	0xbf8c185a	-1.0944932
3	0x3ecd55e0	0.4010458
4	0xbd0d8e38	-0.03455946
5	0x3f4ce578	0.8003764
6	0xbf12af1c	-0.57298446
7	0xbea17ef8	-0.31542182
8	0xbf9a4980	-1.205368
9	0x3f3c3d34	0.7353089
10	0x3fc1ce42	1.514107
11	0xbf5b3cb0	-0.85639477
12	0xbe91c63e	-0.2847156
13	0x400150de	2.0205607
14	0xbf8cea9e	-1.10091
15	0x3f31ff0e	0.6952981

arith.constant47 f4 [16]
0	0xbe2be314	-0.16785842
1	0xbf5d50d9	-0.8645149
2	0x3fc25101	1.518097
3	0x4036c8b5	2.8560002
4	0x3fa747e4	1.3068814
5	0x3fa899c6	1.3171928
6	0x3f82d728	1.022191
7	0xbf29e75a	-0.6636864
8	0x3fce16a7	1.6100663
9	0x3faf7536	1.3707645
10	0xbd8eddf0	-0.06975925
11	0x40246c8d	2.5691254
12	0x3f418f1d	0.75609
13	0xbe887b41	-0.26656535
14	0xbe8853a5	-0.26626316
15	0x3d4cdb3e	0.050013773

arith.constant48 f4 [16]
0	0xc0a06cd3	-5.013284
1	0xbf6d11cd	-0.92605287
2	0x3e923889	0.28558758
3	0xbf1561c0	-0.5835228
4	0xbda7bd58	-0.08190411
5	0xbe742811	-0.23843409
6	0xc021a75c	-2.5258398
7	0x3e76dffc	0.24108881
8	0xbf9136f9	-1.1344901
9	0x3e1e8018	0.15478551
10	0xc00795b8	-2.118513
11	0xbf1b7f42	-0.60741055
12	0xbe0caba5	-0.13737352
13	0xbf9b0970	-1.2112255
14	0xbfaaf153	-1.3354896
15	0x3fc4f916	1.5388515

arith.constant49 f4 [16]
0	0x3f51fa60	0.82022667
1	0xbf830ae6	-1.0237701
2	0xc0a224a4	-5.0669727
3	0xbde06c2c	-0.10958132
4	0xbdf6fd56	-0.12060039
5	0x3f22ad42	0.6354562
6	0x3ec0aa57	0.3762996
7	0x3f63f9c8	0.8905301
8	0xbfc60ffe	-1.547363
9	0xbf5a5bd2	-0.85296357
10	0x3e812006	0.25219744
11	0x3f053183	0.52028674
12	0x3fc8b394	1.5679803
13	0xbf84fb3e	-1.0389173
14	0xbf640852	-0.89075196
15	0x3f884ada	1.0647843

arith.constant50 f4 [8]
0	0xbed77392	-0.4208036
1	0x3ebcd910	0.36884356
2	0x3e72a148	0.23694336
3	0xbe9afc0a	-0.30270416
4	0x3f8aa038	1.0830145
5	0x3e9be228	0.3044598
6	0x3fdfcf60	1.7485161
7	0x3f5aa888	0.8541341

arith.constant51 f4 [16]
0	0x3fd30a9c	1.6487613
1	0x3efd11f0	0.49427748
2	0xbd0966fc	-0.03354548
3	0x3c5c82c0	0.013458908
4	0xc075bb28	-3.839548
5	0x3dd09fd2	0.10186733
6	0xbf1f6947	-0.62270015
7	0xbd3fa800	-0.046791077
8	0x3fe084e9	1.7540561
9	0x3fb7ab83	1.4349216
10	0x408c02ba	4.375333
11	0xbe1c25ab	-0.15248744
12	0xc02e8faa	-2.7275186
13	0x3d359378	0.04433009
14	0xbf276db8	-0.6540179
15	0xbee4137a	-0.4454611

arith.constant52 f4 [16]
0	0xbf2045cb	-0.62606496
1	0xbeca3002	-0.39489752
2	0xbf7ee8f8	-0.9957423
3	0xbfc5cc72	-1.5453017
4	0x3f3abbbd	0.72942716
5	0x3e20a8cc	0.15689391
6	0xbf458dba	-0.7716938
7	0x3f8d2423	1.1026653
8	0x3ff434f4	1.907866
9	0x3ef2efe4	0.47448647
10	0x3ecb4030	0.3969741
11	0xbf0ef3b3	-0.55840605
12	0x3f22cba3	0.63591975
13	0x3ed63360	0.4183607
14	0x401edfe4	2.4824152
15	0x3dd774f6	0.105203554

arith.constant53 f4 [8]
0	0x3f7c3734	0.98521733
1	0xbf3a1ca6	-0.72699964
2	0x3f896f1c	1.0737033
3	0x3ef6f44e	0.48233265
4	0xbdbbcc90	-0.091698766
5	0xbfa44901	-1.2834779
6	0x3f543802	0.8289796
7	0x3fab589e	1.3386419

arith.constant54 f4 [16]
0	0xc046bf32	-3.1054196
1	0x3fd3b81f	1.6540564
2	0x3ed7b3ec	0.42129457
3	0xbe0c6d5e	-0.13713595
4	0x40117150	2.272541
5	0x3ee0b526	0.43888205
6	0x3f2b0703	0.66807574
7	0x3f761dc6	0.9613918
8	0xbe0fba5c	-0.14035934
9	0xbf010548	-0.50398684
10	0x3f908ddd	1.1293293
11	0x3ffc64de	1.9718282
12	0xbe9f6532	-0.31131893
13	0xbe43b5c4	-0.19112307
14	0xbf4391eb	-0.7639453
15	0x3fe79b89	1.809434

arith.constant55 f4 [16]
0	0x3f0c1db0	0.547328
1	0x3f9644bb	1.1739725
2	0x3f42949b	0.76008004
3	0xbe1461ca	-0.14490429
4	0x3ee9d948	0.45673585
5	0x3fa8383a	1.3142159
6	0x3f497bc2	0.78704464
7	0xbcb9f140	-0.022698045
8	0xbfb0ecae	-1.3822229
9	0x3fab6dce	1.3392885
10	0x3f29724d	0.66190034
11	0x3f808b7f	1.0042571
12	0x3fe10a15	1.7581202
13	0xbeff45e7	-0.4985802
14	0x3fbbf0be	1.4682844
15	0x3f4512fc	0.7698209

arith.constant59 f4 [8]
0	0x3ff3be6d	1.9042488
1	0x3d7dd460	0.061970115
2	0xbfa59499	-1.2935973
3	0x3f8191f1	1.0122663
4	0xbea02e3b	-0.3128527
5	0x3d6d8c68	0.05799523
6	0xbd219908	-0.039452583
7	0xbf80751d	-1.003574

arith.constant61 f4 [16]
0	0xc0535cd2	-3.3025403
1	0x3f4629b1	0.77407366
2	0xbf8ff77f	-1.1247405
3	0x3dd1f014	0.102508694
4	0x4060e179	3.5137618
5	0x3fda7212	1.7066061
6	0x404aff7f	3.1718442
7	0x3d89c118	0.06726283
8	0xbd68ce10	-0.05683714
9	0x3f910fc4	1.1332936
10	0x3fad4773	1.353743
11	0x4021f96b	2.5308483
12	0xbc8cccb0	-0.017187446
13	0xbff14396	-1.884875
14	0x405ee2a1	3.4825823
15	0x3fa72a1e	1.3059728

arith.constant62 f4 [16]
0	0x3f83b066	1.0288208
1	0xbf9a1392	-1.2037222
2	0xbe6e3124	-0.23260933
3	0xbf8987b9	-1.0744544
4	0x3f70e1d3	0.9409458
5	0xbd400930	-0.046883762
6	0x3f3dccc3	0.74140567
7	0x3faa4977	1.330367
8	0xc06d3f37	-3.7069833
9	0x3f33a830	0.7017851
10	0x3d818290	0.06323731
11	0x3f6fa836	0.93616045
12	0x3f1dc4e8	0.6162858
13	0x3f8f8b56	1.1214397
14	0x3f4833af	0.7820386
15	0x3f1c8fc9	0.611569

arith.constant63 f4 [16]
0	0xbcc13fa0	-0.02358991
1	0x3f934538	1.1505499
2	0x3f14ebee	0.581725
3	0xbfa880da	-1.3164322
4	0x3fd71c8b	1.6805586
5	0x3faa6e18	1.3314848
6	0x3fde34f5	1.7359911
7	0x40267988	2.6011677
8	0x3eec8c9e	0.46201032
9	0x3ff69e20	1.9267006
10	0x3fb12048	1.3837976
11	0xbdc36c30	-0.095421195
12	0x3ea5ae2a	0.3235944
13	0x3f90e072	1.1318495
14	0x3fcc3f72	1.5956862
15	0x3e38fffb	0.18066399

arith.constant64 f4 [16]
0	0x3f02089a	0.50794375
1	0xbcff6db8	-0.031180248
2	0xbf3dbab6	-0.74113023
3	0x3a0e9468	0.00054389844
4	0xbc8b0630	-0.016970724
5	0xbe189da4	-0.14903885
6	0xbe31e58a	-0.17372718
7	0x3e0b7595	0.13619073
8	0x3eb05e3c	0.34446895
9	0x3b31a3dc	0.0027105724
10	0x3f6022fa	0.8755337
11	0x3eff1735	0.49822393
12	0x3e9512ac	0.29115808
13	0x3dad1838	0.08451885
14	0xbf26b32b	-0.6511714
15	0x3b47851e	0.0030444334

arith.constant65 f4 [192, 64]
0	0x3f800000	1.0
1	0x2b8cbccc	1e-12
2	0x00000000	0.0
3	0x00000000	0.0
4	0x00000000	0.0
5	0x00000000	0.0
6	0x00000000	0.0
7	0x00000000	0.0
8	0x00000000	0.0
9	0x00000000	0.0
10	0x00000000	0.0
11	0x00000000	0.0
12	0x00000000	0.0
13	0x00000000	0.0
14	0x00000000	0.0
15	0x00000000	0.0
16	0x00000000	0.0
17	0x00000000	0.0
18	0x00000000	0.0
19	0x00000000	0.0
20	0x00000000	0.0
21	0x00000000	0.0
22	0x00000000	0.0
23	0x00000000	0.0
24	0x00000000	0.0
25	0x00000000	0.0
26	0x00000000	0.0
27	0x00000000	0.0
28	0x00000000	0.0
29	0x00000000	0.0
30	0x00000000	0.0
31	0x00000000	0.0
32	0x00000000	0.0
33	0x00000000	0.0
34	0x00000000	0.0
35	0x00000000	0.0
36	0x00000000	0.0
37	0x00000000	0.0
38	0x00000000	0.0
39	0x00000000	0.0
40	0x00000000	0.0
41	0x00000000	0.0
42	0x00000000	0.0
43	0x00000000	0.0
44	0x00000000	0.0
45	0x00000000	0.0
46	0x00000000	0.0
47	0x00000000	0.0
48	0x00000000	0.0
49	0x00000000	0.0
50	0x00000000	0.0
51	0x00000000	0.0
52	0x00000000	0.0
53	0x00000000	0.0
54	0x00000000	0.0
55	0x00000000	0.0
56	0x00000000	0.0
57	0x00000000	0.0
58	0x00000000	0.0
59	0x00000000	0.0
60	0x00000000	0.0
61	0x00000000	0.0
62	0x00000000	0.0
63	0x00000000	0.0
64	0x00000000	0.0
65	0x3f800000	1.0
66	0x2b0cbccc	5e-13
67	0x00000000	0.0
68	0x00000000	0.0
69	0x00000000	0.0
70	0x00000000	0.0
71	0x00000000	0.0
72	0x00000000	0.0
73	0x00000000	0.0
74	0x00000000	0.0
75	0x00000000	0.0
76	0x00000000	0.0
77	0x00000000	0.0
78	0x00000000	0.0
79	0x00000000	0.0
80	0x00000000	0.0
81	0x00000000	0.0
82	0x00000000	0.0
83	0x00000000	0.0
84	0x00000000	0.0
85	0x00000000	0.0
86	0x00000000	0.0
87	0x00000000	0.0
88	0x00000000	0.0
89	0x00000000	0.0
90	0x00000000	0.0
91	0x00000000	0.0
92	0x00000000	0.0
93	0x00000000	0.0
94	0x00000000	0.0
95	0x00000000	0.0
96	0x00000000	0.0
97	0x00000000	0.0
98	0x00000000	0.0
99	0x00000000	0.0
100	0x00000000	0.0
101	0x00000000	0.0
102	0x00000000	0.0
103	0x00000000	0.0
104	0x00000000	0.0
105	0x00000000	0.0
106	0x00000000	0.0
107	0x00000000	0.0
108	0x00000000	0.0
109	0x00000000	0.0
110	0x00000000	0.0
111	0x00000000	0.0
112	0x00000000	0.0
113	0x00000000	0.0
114	0x00000000	0.0
115	0x00000000	0.0
116	0x00000000	0.0
117	0x00000000	0.0
118	0x00000000	0.0
119	0x00000000	0.0
120	0x00000000	0.0
121	0x00000000	0.0
122	0x00000000	0.0
123	0x00000000	0.0
124	0x00000000	0.0
125	0x00000000	0.0
126	0x00000000	0.0
127	0x00000000	0.0
128	0x00000000	0.0
129	0x3f000000	0.5
130	0x3f000000	0.5
131	0x00000000	0.0
132	0x00000000	0.0
133	0x00000000	0.0
134	0x00000000	0.0
135	0x00000000	0.0
136	0x00000000	0.0
137	0x00000000	0.0
138	0x00000000	0.0
139	0x00000000	0.0
140	0x00000000	0.0
141	0x00000000	0.0
142	0x00000000	0.0
143	0x00000000	0.0
144	0x00000000	0.0
145	0x00000000	0.0
146	0x00000000	0.0
147	0x00000000	0.0
148	0x00000000	0.0
149	0x00000000	0.0
150	0x00000000	0.0
151	0x00000000	0.0
152	0x00000000	0.0
153	0x00000000	0.0
154	0x00000000	0.0
155	0x00000000	0.0
156	0x00000000	0.0
157	0x00000000	0.0
158	0x00000000	0.0
159	0x00000000	0.0
160	0x00000000	0.0
161	0x00000000	0.0
162	0x00000000	0.0
163	0x00000000	0.0
164	0x00000000	0.0
165	0x00000000	0.0
166	0x00000000	0.0
167	0x00000000	0.0
168	0x00000000	0.0
169	0x00000000	0.0
170	0x00000000	0.0
171	0x00000000	0.0
172	0x00000000	0.0
173	0x00000000	0.0
174	0x00000000	0.0
175	0x00000000	0.0
176	0x00000000	0.0
177	0x00000000	0.0
178	0x00000000	0.0
179	0x00000000	0.0
180	0x00000000	0.0
181	0x00000000	0.0
182	0x00000000	0.0
183	0x00000000	0.0
184	0x00000000	0.0
185	0x00000000	0.0
186	0x00000000	0.0
187	0x00000000	0.0
188	0x00000000	0.0
189	0x00000000	0.0
190	0x00000000	0.0
191	0x00000000	0.0
192	0x00000000	0.0
193	0x00000000	0.0
194	0x3f800000	1.0
195	0x2b0cbccc	5e-13
196	0x00000000	0.0
197	0x00000000	0.0
198	0x00000000	0.0
199	0x00000000	0.0
200	0x00000000	0.0
201	0x00000000	0.0
202	0x00000000	0.0
203	0x00000000	0.0
204	0x00000000	0.0
205	0x00000000	0.0
206	0x00000000	0.0
207	0x00000000	0.0
208	0x00000000	0.0
209	0x00000000	0.0
210	0x00000000	0.0
211	0x00000000	0.0
212	0x00000000	0.0
213	0x00000000	0.0
214	0x00000000	0.0
215	0x00000000	0.0
216	0x00000000	0.0
217	0x00000000	0.0
218	0x00000000	0.0
219	0x00000000	0.0
220	0x00000000	0.0
221	0x00000000	0.0
222	0x00000000	0.0
223	0x00000000	0.0
224	0x00000000	0.0
225	0x00000000	0.0
226	0x00000000	0.0
227	0x00000000	0.0
228	0x00000000	0.0
229	0x00000000	0.0
230	0x00000000	0.0
231	0x00000000	0.0
232	0x00000000	0.0
233	0x00000000	0.0
234	0x00000000	0.0
235	0x00000000	0.0
236	0x00000000	0.0
237	0x00000000	0.0
238	0x00000000	0.0
239	0x00000000	0.0
240	0x00000000	0.0
241	0x00000000	0.0
242	0x00000000	0.0
243	0x00000000	0.0
244	0x00000000	0.0
245	0x00000000	0.0
246	0x00000000	0.0
247	0x00000000	0.0
248	0x00000000	0.0
249	0x00000000	0.0
250	0x00000000	0.0
251	0x00000000	0.0
252	0x00000000	0.0
253	0x00000000	0.0
254	0x00000000	0.0
255	0x00000000	0.0

arith.constant66 f4 [2, 1, 5, 16]
0	0x3dee303b	0.11630293
1	0x3e8c6358	0.27419543
2	0x3e09c605	0.13454445
3	0x3bb7582e	0.0055952286
4	0x3e42cb48	0.19022858
5	0xbea6dde6	-0.3259117
6	0xbdca2bd4	-0.09871641
7	0x3e62e69d	0.22158284
8	0x3d007894	0.031364992
9	0xbd62d9df	-0.05538356
10	0xbe034fde	-0.12823436
11	0x3ecd8c70	0.40146208
12	0x3d410319	0.047122095
13	0xbee51c49	-0.44748142
14	0x3de28fdb	0.110625945
15	0xbb0b43b2	-0.0021250066
16	0xbd10334b	-0.035205167
17	0x3ec7e87a	0.39044553
18	0x3ee3c7d8	0.44488406
19	0x3cce335e	0.025170978
20	0x3edc3460	0.4300871
21	0xbf06ca62	-0.5265256
22	0xbea9e441	-0.33181956
23	0x3f977ce3	1.1834987
24	0x3e2d3566	0.16914901
25	0x3adca26e	0.0016833076
26	0xbecc0d54	-0.3985392
27	0x3e510378	0.2041148
28	0x3e8f8f7a	0.2803915
29	0xbf3acb14	-0.7296612
30	0x3eec12ec	0.46108186
31	0x3d0fa3df	0.03506839
32	0x3d41045d	0.0471233
33	0xbea93009	-0.3304446
34	0x3ee94cf0	0.4556651
35	0x3cc59b17	0.024121804
36	0x3edddff4	0.43334925
37	0xbeb19b84	-0.34688962
38	0xbea4bd59	-0.3217571
39	0x3ee94e3f	0.4556751
40	0xbdb2c66e	-0.08729254
41	0x3ea8e935	0.32990423
42	0xbee6503a	-0.44983083
43	0xbdcf2642	-0.10114719
44	0x3f1c79f7	0.61123604
45	0xbef5c781	-0.48003772
46	0x3ebb9d1a	0.36643296
47	0xbbb7826e	-0.005600265
48	0xbc31047f	-0.010804295
49	0xbef8f14d	-0.48621598
50	0x3d892d43	0.06698086
51	0x3cc287dc	0.023746423
52	0x3edbf825	0.42962757
53	0xbe360f4a	-0.1777927
54	0xbea8cb1b	-0.32967457
55	0x3d3bda98	0.045862764
56	0xbc890525	-0.016726086
57	0x3d0b6ba4	0.0340382
58	0xbec67547	-0.3876135
59	0x3e37c9a8	0.1794802
60	0x3e9b4b2f	0.30330798
61	0xbef1264f	-0.4709954
62	0x3ca265cf	0.019823937
63	0xbbda514d	-0.006662524
64	0xbc7579d5	-0.01498266
65	0xbeb764ac	-0.35818994
66	0xbc8231ad	-0.015892828
67	0x3c967e26	0.0183707
68	0x3e1234d6	0.14277968
69	0x3d05289f	0.032509442
70	0xbe673aaf	-0.2258098
71	0x3db526c4	0.088452846
72	0xbd0ce58c	-0.0343986
73	0xbcc16063	-0.023605531
74	0xbe9020b7	-0.2814996
75	0x3e3ae1ee	0.18250248
76	0x3d0fd56a	0.035115637
77	0xbf3a3395	-0.7273496
78	0x3c51ca41	0.012804569
79	0xbb4e227b	-0.0031453657
80	0xbf3301a8	-0.699244
81	0xbe265133	-0.16241913
82	0xbe4fb1c0	-0.2028265
83	0xbdb9905f	-0.0906074
84	0xbdec2847	-0.1153112
85	0x3db62c98	0.08895224
86	0x3ea99ccb	0.33127436
87	0xbe4bb6eb	-0.19893996
88	0x3e22ec87	0.1591054
89	0x3e9e0f59	0.30871084
90	0xbd5764cf	-0.052586373
91	0x3ec88356	0.391627
92	0xbc836f75	-0.016044358
93	0x40772432	3.8615842
94	0xbe8ad74c	-0.27117383
95	0x3d34d240	0.044145823
96	0x3e1720af	0.14758562
97	0xbef88528	-0.4853909
98	0xbd7091a1	-0.058732633
99	0xbe3b5073	-0.18292408
100	0xbe053475	-0.13008292
101	0xbdf43b25	-0.119253434
102	0x3ea3bbe0	0.31979275
103	0x3d51c119	0.051209543
104	0x3ca760af	0.020431845
105	0x3e21c40c	0.15797442
106	0x3dffefe8	0.1249693
107	0xbe72576a	-0.23666158
108	0xbe1b8c6a	-0.15190282
109	0xbf6e6fc7	-0.9313931
110	0xbd76190a	-0.060082473
111	0xbe6ac02e	-0.22924873
112	0xbee99b72	-0.45626408
113	0x3efc000d	0.4921879
114	0xbe9967ba	-0.2996195
115	0xbe737f1f	-0.23778962
116	0xbee00a66	-0.43757933
117	0x3e762d34	0.24040681
118	0x3ec6617f	0.3874626
119	0x3d888f31	0.066679366
120	0x3e285da5	0.16441973
121	0x3dec660d	0.11542902
122	0x3f40692a	0.7516047
123	0x3dfeb3ae	0.12436615
124	0xbe0f78c1	-0.14010908
125	0x404891a6	3.1338897
126	0xbe8e0232	-0.2773605
127	0x3d914a64	0.07094267
128	0x3d03b251	0.032152478
129	0x3eabcf97	0.33556816
130	0xbdb56e48	-0.08858925
131	0xbe2736f3	-0.16329555
132	0xbd498892	-0.04920251
133	0xbd4deff8	-0.05027768
134	0x3e57cc76	0.2107409
135	0xbde34479	-0.110970445
136	0x3e78cae3	0.24296145
137	0x3d994fff	0.07485961
138	0x3eb66579	0.35624292
139	0x3d1b6601	0.037939075
140	0xbea240a9	-0.31689957
141	0xbfb95427	-1.4478806
142	0xbd55f302	-0.052233703
143	0x3e01d851	0.12680174
144	0x3e0b4f8a	0.1360456
145	0x3fb16243	1.3858112
146	0x3f2efc58	0.68353796
147	0xbe231073	-0.15924244
148	0xbd8da347	-0.06915908
149	0xbed604ec	-0.4180063
150	0x3c00e7c2	0.007867755
151	0x3e424741	0.18972494
152	0x3ec9b346	0.39394587
153	0xbe2c9458	-0.16853464
154	0xbe4baa34	-0.19889146
155	0xbeb560dd	-0.35425463
156	0xbe4a5707	-0.19759761
157	0x40506e51	3.2567332
158	0x3e235f88	0.15954411
159	0x3d5816e3	0.0527562

arith.constant67 f4 [16, 1, 5, 16]
0	0x3e05e211	0.13074519
1	0xbd028c1b	-0.031871896
2	0xbd934751	-0.07191337
3	0xbf82d362	-1.0220759
4	0x3f448756	0.76769006
5	0x3dc874d2	0.09787907
6	0xbf69ca56	-0.91324365
7	0xbf25a45f	-0.64703935
8	0xbe53251e	-0.20619628
9	0xbf705459	-0.93878704
10	0xbf518f17	-0.8185896
11	0xbeed55fa	-0.46354657
12	0x3f1bac33	0.6080963
13	0x3f07ec87	0.5309529
14	0x3efe25fb	0.49638352
15	0x3e4f614b	0.20251958
16	0x3daebe39	0.08532376
17	0x3c9d3d0d	0.01919415
18	0x3dff929c	0.124791354
19	0x3e07e01c	0.13269085
20	0xbe7bd1da	-0.24591771
21	0xbd007107	-0.03135779
22	0xbd98af30	-0.07455289
23	0x3dd7adfa	0.1053123
24	0xbbcdaf61	-0.0062770103
25	0x3d562c68	0.052288443
26	0x3ab3fde9	0.0013732287
27	0xbcfcfb65	-0.030881593
28	0x3e64e25e	0.22351977
29	0x3fa685d4	1.3009591
30	0x3e142861	0.14468528
31	0xbe658a2b	-0.22415988
32	0xbe830e07	-0.2559664
33	0xbc6ff1f8	-0.014645092
34	0xbf432a5f	-0.7623653
35	0x3f156473	0.583564
36	0xbe534ecf	-0.20635532
37	0xbd3cab69	-0.046061907
38	0x3e616c77	0.22014032
39	0x3ef538c7	0.4789488
40	0xbf3ee54e	-0.7456864
41	0x3e576a5d	0.21036668
42	0x3f73fe2f	0.9530973
43	0xbdbe6a10	-0.092975736
44	0x3e5774c8	0.21040642
45	0x3dc7ca0c	0.09755334
46	0xbeb0cc1d	-0.34530726
47	0xbe717f08	-0.23583615
48	0xbd9f024b	-0.07764109
49	0x3d255736	0.040366374
50	0xbe5953be	-0.21223351
51	0xbe2ec1ef	-0.17066167
52	0x3d95b90b	0.07310685
53	0xbe347aca	-0.17624965
54	0xbe8d03e9	-0.27542046
55	0x3e0c1087	0.1367818
56	0x3e233506	0.15938196
57	0xbea1810b	-0.31543764
58	0x3f0ed1b1	0.55788714
59	0xbc89e0e8	-0.016830876
60	0xbe8ab7ff	-0.27093503
61	0xbe5a7e49	-0.21337236
62	0xbeca1219	-0.39466932
63	0xbea267ea	-0.31719905
64	0xbe53f555	-0.20699055
65	0xbecdad05	-0.40171066
66	0x3ecb67e2	0.39727694
67	0xbea87abf	-0.32906148
68	0x3eabdb1b	0.33565602
69	0x3e1f7dd5	0.15575345
70	0x3e7ab61c	0.24483532
71	0x3e1c11ab	0.15241115
72	0xbedebee4	-0.43505013
73	0x3e9d67ad	0.3074316
74	0xbcce3681	-0.025172474
75	0x3eafa2a9	0.34303787
76	0x3ea5e8f9	0.32404307
77	0x3ddba2a4	0.107243806
78	0xbed57b13	-0.4169546
79	0xbdf2db65	-0.118582524
80	0xbfa38f7d	-1.2778164
81	0xbed04175	-0.4067494
82	0xbe8eb024	-0.2786876
83	0x3ceeb763	0.02914018
84	0xbd8c7d3d	-0.06859825
85	0x3cfcd815	0.030864755
86	0x3dff05f5	0.12452308
87	0xbe07e98d	-0.13272686
88	0xbece6a8b	-0.4031566
89	0x3dc229f8	0.09480661
90	0xbf1c9e07	-0.6117863
91	0xbe31e935	-0.17374118
92	0x3e2c3da4	0.16820389
93	0xbdd50d79	-0.1040296
94	0x3cecc687	0.028903259
95	0x3dd36491	0.10321916
96	0xbf5d48b7	-0.8643908
97	0xbf124364	-0.5713408
98	0x3ee14423	0.43997297
99	0xbde68655	-0.112560906
100	0xbe966ebf	-0.29381368
101	0xbe4c7a9b	-0.19968645
102	0x3da05521	0.07828737
103	0x3d2ac35d	0.04169022
104	0xbeeee730	-0.46660757
105	0xbe0d1d0e	-0.13780615
106	0xbd98598c	-0.07438955
107	0xbdafc9c2	-0.08583404
108	0x3e8c8a23	0.2744914
109	0xbd8a81b6	-0.06763022
110	0xbdc1aa2b	-0.09456285
111	0x3e3ba992	0.18326405
112	0xbef44b35	-0.47713628
113	0x3d009125	0.03138842
114	0xba8ac5dd	-0.0010587532
115	0x3bfbdb92	0.007686087
116	0x3e426fba	0.18987933
117	0xbe6b074b	-0.22952001
118	0x3eb4faec	0.35347688
119	0x3e773faf	0.24145387
120	0xbefc3af3	-0.49263725
121	0xbecbc809	-0.39801052
122	0xbdefd494	-0.11710468
123	0xbd38bdd4	-0.04510291
124	0x3d004999	0.03132019
125	0x3e8d1fee	0.27563423
126	0xbead45ed	-0.33842412
127	0xbd2ec62b	-0.042669456
128	0xbe981002	-0.29699713
129	0xbe78665d	-0.24257798
130	0x3ea78a87	0.32722875
131	0xbd9b089f	-0.07570004
132	0x3e5f6bbb	0.2181844
133	0x3e5cc058	0.21557748
134	0xbe449b4e	-0.19199869
135	0xbda6f0b0	-0.08151376
136	0xbe6b1d7d	-0.22960468
137	0xbdcb5090	-0.099274755
138	0x3f1409ef	0.5782766
139	0x3e09a676	0.13442406
140	0x3dcc4f8b	0.09976109
141	0xbef04037	-0.46923992
142	0x3df420a7	0.119202904
143	0xbd826fe7	-0.06369
144	0xbe917648	-0.28410554
145	0xbee586dd	-0.44829455
146	0xbd3e926b	-0.046526354
147	0xbcf9548d	-0.030435825
148	0x3ec07257	0.37587234
149	0x3e02ef2a	0.12786546
150	0x3e5f1af8	0.21787632
151	0xbd7cefc2	-0.06175209
152	0x3d0683c4	0.032840505
153	0x3e3274bb	0.17427342
154	0xbe8060fb	-0.2507399
155	0x3d845872	0.06462182
156	0x3ea5a30a	0.3235095
157	0xbeb37417	-0.35049507
158	0xbe3a5d75	-0.18199714
159	0xbdc111a1	-0.094271906
160	0x3e46f71d	0.19430204
161	0x3dc63f97	0.096800976
162	0xbee1fa12	-0.441361
163	0x3d95cb58	0.07314175
164	0x3e0f846c	0.14015359
165	0x3d77f479	0.06053588
166	0xb904172c	-0.00012597133
167	0x3bb96d84	0.0056588072
168	0x3dcbc228	0.09949142
169	0xbc351dbe	-0.011054454
170	0xbd38a0a2	-0.045075066
171	0x3d4f0808	0.05054477
172	0x3d38584a	0.045006074
173	0x3ec61db8	0.3869455
174	0xbd2c941e	-0.042133443
175	0xbdd49928	-0.10380775
176	0xbdc634be	-0.096780285
177	0xbebd2542	-0.36942488
178	0xbf9144c9	-1.1349117
179	0x3d6a7298	0.05723819
180	0xbf6858b0	-0.90760326
181	0x3b5e50cf	0.0033922677
182	0x3da92a0b	0.08259972
183	0x3d4f034c	0.050540254
184	0xbe603758	-0.21896112
185	0x3e959707	0.29216787
186	0x3f122f54	0.57103467
187	0x3e36cdde	0.1785197
188	0x3e6ed96b	0.23325126
189	0x3f5b4443	0.85651034
190	0x3cc0b41f	0.023523388
191	0x3e195123	0.14972357
192	0x3edbe6a5	0.42949405
193	0xbe9a0cad	-0.30087796
194	0xbf017982	-0.5057603
195	0x3cc85e90	0.024459153
196	0x3d16ee8c	0.03684859
197	0xbd21a178	-0.03946063
198	0xbc1384d7	-0.009003839
199	0x3e0540d8	0.13013017
200	0xbe2a333c	-0.16621107
201	0xbe31fa38	-0.17380607
202	0x3f71ed99	0.9450317
203	0x3d9bf223	0.07614543
204	0xbeeb2bdf	-0.45931908
205	0x3e6a02bf	0.2285261
206	0xbe6d2a3c	-0.23160642
207	0x3f07bfa3	0.5302679
208	0x3e193528	0.14961684
209	0x3e232947	0.15933715
210	0xbe66882e	-0.22512886
211	0xbeb851b6	-0.3599984
212	0x3de8f9f6	0.11375801
213	0x3e0592e9	0.13044323
214	0xbe8ed0e4	-0.27893746
215	0xbb87ebf9	-0.004148003
216	0xbf2a1a74	-0.66446614
217	0xbe9fc31e	-0.3120355
218	0x3f58667c	0.8453138
219	0xbdb5fbd0	-0.0888592
220	0xbed77b98	-0.42086482
221	0x3f4671b4	0.7751725
222	0x3dcf6a91	0.10127748
223	0x3e5fcb3e	0.21854874
224	0x3c79c01a	0.0152435545
225	0x3d8f83cc	0.0700756
226	0xbb8e3f85	-0.004341068
227	0xbe915b47	-0.28389952
228	0xbe13022c	-0.14356297
229	0xbde0c1b2	-0.109744444
230	0xbd802dfc	-0.06258771
231	0xbc7328b5	-0.014841248
232	0xbe25458d	-0.16139813
233	0x3dce815b	0.10083266
234	0x3f027b45	0.50969344
235	0xbd37224d	-0.044710446
236	0xbe0ae9aa	-0.13565698
237	0x3df3e722	0.119093195
238	0x3b9e8dc9	0.0048386795
239	0x3d743763	0.059623133
240	0xbed3ea0a	-0.41389495
241	0xbf51f777	-0.82018226
242	0x3dcfd5e5	0.10148219
243	0xbe4ffb30	-0.20310664
244	0xbe168253	-0.14698152
245	0x3f4cadad	0.7995251
246	0xbea22d0d	-0.31674996
247	0xbea1a4d0	-0.31571054
248	0x3e90eec6	0.2830717
249	0x3e86cd43	0.26328477
250	0xbc8b4149	-0.016998904
251	0x3e94ca34	0.2906052
252	0x3eb62f38	0.355829
253	0xbed16d2c	-0.40903604
254	0x3c915033	0.017738437
255	0xbe56572e	-0.20931694

arith.constant68 f4 [8, 1, 16, 1]
0	0xbd83cd01	-0.06435586
1	0x3efdbbb2	0.49557263
2	0xbb41830f	-0.002952758
3	0xbe47b956	-0.19504294
4	0x3d67d204	0.05659677
5	0x3d2d1968	0.042260557
6	0x3f708371	0.93950564
7	0x3e28ba0d	0.16477223
8	0xbf105daf	-0.5639295
9	0xbe50bf08	-0.20385373
10	0x3ec4c5df	0.38432214
11	0xbf13b1eb	-0.57693356
12	0x3fa6efa4	1.3041883
13	0xbedfba0c	-0.4369663
14	0x3ee8bc42	0.4545613
15	0xbf0adcb7	-0.54243034
16	0x3e021fc1	0.12707426
17	0xbe05a45e	-0.13050982
18	0x3edc693e	0.43049043
19	0xbeb681b1	-0.35645822
20	0xbd821311	-0.06351293
21	0x3e8a8595	0.2705504
22	0x3c1a020d	0.009399903
23	0xbe3af58d	-0.18257733
24	0xbd6c7ad5	-0.05773433
25	0x3d6c35e2	0.057668574
26	0xbc9c3aa1	-0.019070925
27	0x3e0b5c16	0.13609347
28	0xbc9fa8a1	-0.019489588
29	0xbe54405b	-0.20727675
30	0xbf39bb1e	-0.72551143
31	0x3e4e8a32	0.20169905
32	0x3ec9ed09	0.39438656
33	0xbed97ae4	-0.4247657
34	0x3eddf690	0.43352175
35	0x3e6991c9	0.22809519
36	0x3f1b7910	0.607316
37	0xbf3d43b3	-0.73931426
38	0xbf102150	-0.5630083
39	0x3faafcd7	1.3358411
40	0x3e302262	0.17200616
41	0xbe2c6be8	-0.16838038
42	0xbd6ce3f8	-0.057834595
43	0xbd3895ec	-0.04506485
44	0x3eb50379	0.35354212
45	0x3f117784	0.5682299
46	0xbea24fbb	-0.31701455
47	0x3f0fe392	0.5620662
48	0xbe9bef76	-0.30456132
49	0x3e6dfe6f	0.2324159
50	0xbe00e589	-0.1258756
51	0xbd36f6cb	-0.044668954
52	0x3df5f3a3	0.12009361
53	0x3da05a44	0.07829717
54	0xbd95016a	-0.0727566
55	0x3d496cc1	0.04917598
56	0x3dea69c0	0.114459515
57	0x3e1104a0	0.1416192
58	0x3e62b687	0.22139941
59	0x3e40c5a5	0.18825395
60	0xbe85740c	-0.260651
61	0x3d045c50	0.0323146
62	0xbd87ddb2	-0.06634082
63	0xbd7cd806	-0.061729454
64	0x3de51614	0.11185852
65	0xbed41afd	-0.4142684
66	0xbea54f62	-0.32287127
67	0x3e8d4d65	0.2759811
68	0xbe19fd23	-0.1503797
69	0x3ec4ff5f	0.38476083
70	0x3eb1a09d	0.3469285
71	0xbec01e0b	-0.3752292
72	0xbd4c8ab8	-0.04993698
73	0xbf355d26	-0.7084526
74	0x3f1f80ef	0.6230611
75	0xbf1d5845	-0.61462814
76	0xbea6a555	-0.32548013
77	0x3eab66b7	0.33476803
78	0x3ebb1a3d	0.36543456
79	0xbf19222a	-0.59817755
80	0xbe243a14	-0.1603778
81	0xbea511ef	-0.32240245
82	0x3eb488fa	0.35260755
83	0xbf628dca	-0.884976
84	0xbf57be69	-0.8427492
85	0x3ce1114c	0.027474068
86	0xbe01b617	-0.12667118
87	0xbd80e557	-0.06293743
88	0x3e27b672	0.16378191
89	0x3e023e32	0.12719038
90	0x3dced899	0.100999065
91	0x3e891e73	0.26781043
92	0xbd712f5c	-0.058883056
93	0x3ef8e420	0.48611546
94	0xbea854c0	-0.3287716
95	0x3d4133c1	0.047168497
96	0xbddaf780	-0.10691738
97	0x3e3f2601	0.18666841
98	0xbeb9fbda	-0.3632496
99	0xbe3ee0c7	-0.18640433
100	0x3e54579c	0.20736545
101	0xbe7b8497	-0.24562298
102	0x3d166ba8	0.036723763
103	0x3da5b6e5	0.08091525
104	0x3ed18b96	0.40926808
105	0xbef018c4	-0.46893895
106	0xbd1b084b	-0.037849706
107	0xbc12ae12	-0.008952634
108	0xbe561b91	-0.20908953
109	0xbedf4052	-0.4360376
110	0x3e089792	0.1333907
111	0xbe1a6ddb	-0.15080969
112	0xbf1680b3	-0.5879013
113	0x3e8e99bc	0.27851665
114	0x3e95fa43	0.29292497
115	0x3e2d44b3	0.16920738
116	0xbeab9ca5	-0.33517948
117	0xbae228c3	-0.001725458
118	0x3d618207	0.055055644
119	0xbd302d7b	-0.043012124
120	0xbe9a8f02	-0.3018723
121	0xbed625c5	-0.4182569
122	0xbf1bbecc	-0.6083801
123	0x3e8a4ae2	0.27010256
124	0xbd9810fb	-0.07425114
125	0xbd6fd78d	-0.058555175
126	0x3d9199c7	0.07109409
127	0x3e19fa41	0.1503687
