gtcrn_micro/streaming/tflite/gtcrn_micro_stream_simple_dynamic_range_quant.tflite (tflite, 180416 bytes, 128 tensors)

arith.constant1 f4 [2]
00000000: 78d8 91be e90d f7b9
-0.28485465 -0.00047121875

arith.constant2 f4 [16]
00000000: 93db a13e 008c 37bc c445 613e fae3 6bc0
00000010: a087 5d3e b039 02be 8eb2 9c3e 350d cfbf
00000020: 7ae3 a8bf a8bc 74c0 e9c3 97bf f056 913e
00000030: 722e b33e 6018 43bd 0145 cfbe f093 61bf
0.31612834 -0.011202812 0.2199927 -3.6857896 0.21633768 -0.12717319 0.30604976 -1.6175905
-1.319442 -3.8240147 -1.1856662 0.2838664 0.34996372 -0.047630668 -0.40482333 -0.8811636

arith.constant3 f4 [16]
00000000: 492e 2140 085e af3e 618c 0e3f 5a3b 7d3e
00000010: 6028 173c 820a 05bf 9652 793f 7505 90bf
00000020: 1e38 3ebf 40ce 443e 3cb9 27be f693 9abf
00000030: 6b79 203f 9414 63bf 6f37 c5bd 6298 393f
2.51845 0.34251428 0.5568295 0.24729672 0.009225935 -0.5196916 0.9739164 -1.1251665
-0.7430438 0.19219303 -0.16379255 -1.2076404 0.6268527 -0.88703275 -0.09629714 0.7249814

arith.constant4 f4 [16]
00000000: 5cdf 75be e64f 3b40 84a9 dcbd 7c53 a23d
00000010: 541d be3f ef00 a7bf d074 94bd 969a eabe
00000020: a004 2140 eb8e 2440 5c3d ccbf 6a42 ccbf
00000030: 2c0a e8be 0420 193f 70ab f5be abd0 ae3f
-0.24010986 2.9267516 -0.1077452 0.0792608 1.48527 -1.304716 -0.07248843 -0.45821065
2.5159073 2.571223 -1.5956225 -1.5957768 -0.4532026 0.59814477 -0.4798236 1.365743

arith.constant13 f4 [16]
00000000: c5d3 5cbe 17a2 833e 23d2 ffbd 620d b43d
00000010: a896 bfbb 7913 0e3e 3439 5a3d f8c3 53bd
00000020: f6c1 01be 1d73 563e a7e7 75be 60c9 ebbd
00000030: ee9d 523e f8f6 133d b5f8 d23d 0c72 633e
-0.21565159 0.25709602 -0.12491252 0.08791615 -0.005846817 0.13874616 0.05327721 -0.051700562
-0.12671646 0.2094235 -0.2401415 -0.115130186 0.20568058 0.0361242 0.10301343 0.22211474

arith.constant14 f4 [16]
00000000: b926 373e 759f 683d ea80 44be abcc 293e
00000010: 1bc9 953e bf78 553e 596c 34be 01a5 1cbe
00000020: 2894 253e 4a0a 15be 15a5 983d 770b 49bd
00000030: 0bc6 a2bd 7337 b7bd b331 c0bc c69a 2b3e
0.17885865 0.056792695 -0.19189802 0.16581981 0.29254994 0.20846842 -0.17619456 -0.15297319
0.16169798 -0.14554706 0.07453362 -0.0490832 -0.0794793 -0.08946123 -0.023461198 0.1675826

arith.constant18 f4 [16]
00000000: c807 233f f6dd 733f bcff 333f 7274 743f
00000010: dff3 5f3f 116b 573f 0889 3d3f 2738 183f
00000020: 138c 1e3f b6ad 4b3f f8bb 3f3f 9335 6a3f
00000030: cd1f 4c3f 50af 513f 6aa8 233f 6332 da3e
0.6368375 0.9526056 0.70312095 0.9549018 0.8748149 0.84147745 0.7403722 0.5946068
0.61932486 0.79561937 0.7489619 0.91488 0.79736024 0.8190813 0.63928854 0.42616567

arith.constant22 f4 [16]
00000000: 5c36 643f 8462 2b3f f4fb 173f 5764 543f
00000010: 75cb 423f 04fd 853f 6fa5 9b3f a8fe a43f
00000020: bd99 913f db05 5a3f 8ff7 203f 8412 6d3f
00000030: ebb1 333f e0a8 623f 15f7 883f 8465 5d3f
0.89145446 0.669472 0.59368825 0.82965606 0.760917 1.0467839 1.2159861 1.2890215
1.1375042 0.85165185 0.62877744 0.9260638 0.70193356 0.8853893 1.0700403 0.86483026

arith.constant27 f4 [16]
00000000: dde6 d63e d4af 183f 336e 133f c4a6 473f
00000010: 6d81 ce3e 5fd8 023f 1ef5 2e3e d5ee 0d3f
00000020: e2ce 6c3f 3359 9e3f 83a8 0b3f fe9a be3e
00000030: 43b4 ce3e 7d12 c93e 1e58 163f 94df ca3f
0.4197301 0.5964329 0.57590026 0.7798884 0.4033312 0.51111406 0.17085692 0.55442554
0.9250318 1.2370971 0.54554003 0.37227625 0.40371904 0.39271918 0.58728206 1.5849481

arith.constant29 f4 [2]
00000000: 5677 413e fdc8 4bba
0.1889318 -0.0007773785

arith.constant84 f4 [3]
00000000: 0000 0000 0000 0000 0000 0000
0.0 0.0 0.0

arith.constant85 f4 [3, 1, 3, 1]
00000000: 157c babf c724 edbd b23d 553d bbd0 8d3d
00000010: 7694 34be 2aa6 85be c1c9 553d 9182 af3e
00000020: cd82 823e
-1.4569117 -0.1157928 0.05206079 0.06924578 -0.17634758 -0.26103336 0.05219436 0.34279302
0.25490418

arith.constant86 f4 [16, 1, 5, 3]
00000000: 59e7 903d 97f1 103c 27e2 6fbc d74c 733e
00000010: 6cdd bd3b e683 1ebc 7055 5f3b 7396 48bc
00000020: e79c 35bc 7e7c 0239 1ba6 4c3c 5b20 d83b
00000030: 8c3e 033c 8ea4 a4bb 7634 1abc 0542 433b
00000040: 3ed1 23bb e9da ddbb 58ef 1e3b 5f03 0cbc
00000050: 4fbc 84bc e781 7bbd c6a9 5bbb 48ca b73a
00000060: 3aaa 813a a1a9 85bb b8c4 b9bc b07c 963a
00000070: 441f dbbb 7d9c 803b e594 94ba c750 863c
00000080: 570f bbb9 9af4 973b 2d30 87bb 2550 42bc
00000090: 779e cebc c072 e23b 95ec 063c 0176 a0bd
000000a0: 642f b2bb 9f1f 30bc 2e7e 62bd cb32 b63b
000000b0: 2445 433c c53b 58ba 87ba b83e a4dd 873e
000000c0: 80fb 41ba c460 1c3e d2f3 7dbe 6586 353a
000000d0: ece6 2fbe 9aab 263d 52ce 573b fb78 f73e
000000e0: 0e67 c93e 640e 9f3b 36ae e23d 0461 a3be
000000f0: 95c7 c13c 3884 733c 4503 e33b 6e5d d2bc
00000100: a6b5 bebc 5590 1fbd 27b2 e3bd 23c9 943c
00000110: b1b3 dc3c 278f 19be 9751 493c dea6 96bc
00000120: d5a9 29bc cfbc 843b e970 8abb 226c 083d
00000130: 9af2 e63b 8fb0 b3ba aa58 20bd 0d59 083a
00000140: 7431 61bc 50e6 38be 51ea d4bb a8d7 43bc
00000150: 24b3 64bd b141 253c 78df 6fbc 1be1 48bd
00000160: 96b2 93bc 27c1 8cbc abb5 bbbb 0e72 fc3c
00000170: 90cd 873c 9c95 fdb8 e810 70bc 3d96 d0bc
00000180: 076a 31bd c559 843c 51d2 883c c249 4ebe
00000190: a891 a03b 21fa 1bbc 41d6 16bd 202b e03c
000001a0: 28f6 783c cefa c0bc 9c8b c7bc f03f 28bb
000001b0: 4e64 b43c 26fe 8ebc a7a5 dd3b 4ea2 cd3e
000001c0: e839 bc3a 3f1d 103c 0aeb 94bc 65a6 de3a
000001d0: 23e8 b13b 35dc f7ba 20ae 453c 99d8 11ba
000001e0: abf3 f4bb 848c 1ebd c8c8 893b 8699 273d
000001f0: 12d2 e2bb a0b0 6339 f3ba 133e a50f 32bd
00000200: 7a5f 4eba 3e06 b2bd 9980 8cbb 21b1 44bc
00000210: 1730 063e 832b 1ebd c5b3 95bc 0ad8 f7b9
00000220: 35f8 93b9 90ad 453c cc9e a5bc 0eb0 a3bc
00000230: 3c04 893c e3cc 1fbd 9901 f1ba 36bb 393d
00000240: 39e4 e03d 87f9 d5bc fd6e ea3c b0e5 12bd
00000250: 0048 a33c 23a3 433d 17a1 9eb8 e078 6bbc
00000260: f264 833b 55a0 c6bb 3cb3 6639 ab03 4e3c
00000270: 773d e03c 38e9 09bc 90bf d63a ed01 ba3d
00000280: 4a3a beba e444 3c3c 63ed 973d 9df6 96bb
00000290: cad2 c2ba e007 e2bc c8b1 21bc fd70 15bc
000002a0: 24e5 e43c f75d 853b 60df a53b f8ed 19bd
000002b0: c6a6 91bc 913a adbc 4e40 4e3c d627 8b3b
000002c0: 2991 8b3c baac c8bc 7915 2c3a b8f8 24bc
000002d0: ca6b 95bb 866f 33bc 4d47 d8ba 2871 dfbb
000002e0: cbb1 b63c 6f7a 5c3c 978f fd3d bbbe b43b
000002f0: 947c 373b 1267 9e3e d514 0e3c 7d16 cc3a
00000300: 3a53 c33d 5c61 20bc 49ad 853a a47f 7538
00000310: f086 123c a205 683b 0c15 f1ba d743 fd3c
00000320: 7953 b6bc 0d25 7b3d 4aa1 2cbc 3b31 973b
00000330: 85f6 b83d 372e 413d 4c18 073d 6fd4 b23e
00000340: 5595 ca3c b47d 8ebb 4dcf 43bc 7f8b c3ba
00000350: c079 973b 9f37 7dbd 35aa af3b ec1e cfb9
00000360: 9309 84bd 1a80 22ba f58b 0cbb 4471 b73a
00000370: 1d8b b63b 0b3e ce3b 7ff9 9dba c4d6 f4bb
00000380: fa9d b2bb a3b4 80bd 2fe7 85ba a10b 03bd
00000390: b0db f9bd 27b6 e43c f0e6 f7bc d684 a43e
000003a0: 0b78 c13c 79b4 79bd ce8d c6bd 4bc5 543c
000003b0: 1d50 1ebd 30b7 10bd 2819 583c 72e7 8dbc
0.07075376 0.008846662 -0.014641321 0.23759781 0.005794218 -0.009675002 0.0034078024 -0.012242901
-0.011084772 0.00012444143 0.0124907745 0.006595654 0.008010518 -0.0050244993 -0.009411922 0.002979399
-0.0024996544 -0.006770481 0.0024251547 -0.008545726 -0.016203074 -0.06140318 -0.003351794 0.0014022077
0.000989265 -0.004079059 -0.02267681 0.0011481252 -0.0066870768 0.003924905 -0.0011335878 0.01639594
-0.00035678849 0.004637313 -0.004125616 -0.011859928 -0.025222046 0.006910652 0.0082351165 -0.078350075
-0.0054377783 -0.010749727 -0.055296116 0.005560254 0.01191834 -0.00082486524 0.3607981 0.26536286
-0.0007399842 0.15271288 -0.24800041 0.00069246284 -0.17177933 0.040690996 0.0032929373 0.48334488
0.39336437 0.0048540104 0.11068384 -0.31909955 0.023654738 0.014863066 0.00692788 -0.025679316
-0.023279976 -0.038956005 -0.11117964 0.018162316 0.026941152 -0.14996015 0.012287519 -0.018390115
-0.0103554325 0.004050828 -0.0042248857 0.03330625 0.0070479633 -0.0013709235 -0.039147057 0.0005201258
-0.013744701 -0.18056607 -0.0064976593 -0.011953272 -0.055834904 0.010086463 -0.014640681 -0.049042802
-0.018029492 -0.017181946 -0.0057284436 0.030816104 0.016577512 -0.00012091847 -0.014652468 -0.025462264
-0.043314006 0.016156087 0.01670185 -0.20145324 0.004900176 -0.009520085 -0.036825422 0.027364314
0.015195407 -0.023557093 -0.024358563 -0.0025672875 0.022020485 -0.017455172 0.006764132 0.4016289
0.0014360519 0.008796035 -0.018178482 0.0016986845 0.005429284 -0.0018910231 0.01206544 -0.00055635866
-0.0074753365 -0.038708225 0.004204843 0.040917896 -0.006922015 0.00021714205 0.14426784 -0.04347195
-0.00078725035 -0.08692597 -0.004287791 -0.012005121 0.13104282 -0.038615715 -0.018274197 -0.00047272473
-0.00028222954 0.012065306 -0.020217322 -0.01998141 0.016725652 -0.039013755 -0.0018387317 0.045344554
0.1098103 -0.02611996 0.028617376 -0.03586358 0.019931793 0.047763 -7.5640324e-05 -0.014372081
0.0040098364 -0.0060615935 0.0002200128 0.012574117 0.027373059 -0.00841742 0.0016383994 0.090823986
-0.0014513221 0.011491034 0.07418325 -0.0046070353 -0.0014863845 -0.027591646 -0.0098690465 -0.009121177
0.027941294 0.0040700394 0.0050620288 -0.03758046 -0.01777972 -0.02114609 0.012588574 0.004246692
0.017036991 -0.024496425 0.0006564479 -0.010069065 -0.0045599686 -0.010951882 -0.0016500741 -0.006818909
0.022301575 0.013456925 0.12380903 0.005515901 0.0027997838 0.3093801 0.008671959 0.0015570667
0.095373586 -0.009788837 0.0010198738 5.8531426e-05 0.008943304 0.0035403748 -0.0018393113 0.030916138
-0.0222566 0.06131463 -0.010536501 0.004614023 0.09031395 0.047163215 0.032982156 0.349277
0.02472941 -0.004348481 -0.01195128 -0.0014918892 0.004622668 -0.061820623 0.0053608664 -0.00039505155
-0.06447139 -0.0006198898 -0.0021445726 0.0013995548 0.005570783 0.006294017 -0.0012052505 -0.007471891
-0.005450961 -0.06284454 -0.0010215993 -0.031993512 -0.12200105 0.027918888 -0.030261487 0.32132596
0.023616811 -0.060963128 -0.09695016 0.012986491 -0.03865062 -0.03533095 0.0131895915 -0.017322276

arith.constant87 f4 [16, 1, 1, 8]
00000000: a537 b6be b1fb d23c 1428 6f3e 7353 2fbd
00000010: 322c 1e3d 5411 dbbe 67a3 59be edc2 ca3d
00000020: 08a6 fcbe 8750 373f dc15 07bf 017b f23e
00000030: ecad c33e b057 483f 58f1 b13e bd11 8b3f
00000040: e7e1 f7be 6430 0fbf 7770 d03d d4e6 bc3f
00000050: a59f 313d 5338 45be 937a 203e b092 f5bc
00000060: 4220 983d 4380 ba3d e061 dfbd c5d8 a63f
00000070: f3b1 55bd 6656 643e 12e7 243e f949 abbc
00000080: 8a1c 223d 48ca c73c e511 bf3d 0e2f dbbd
00000090: e8dd ae3c bd01 4abd b957 9a3d a289 6ebd
000000a0: 9831 87bf 94fe 823d 9927 713f 48dd be3f
000000b0: 0e81 343f 0f6d 403f 564c 8dbf e198 bcbf
000000c0: c61c a53c 8584 e93d daff b43d 655c e2bd
000000d0: 98b1 ffbb 3959 153e 4823 e33d 3197 6abd
000000e0: 51aa 1f3e d528 d6be 42c3 2ebe 2dfb 2b3f
000000f0: 9bb3 20be 4c6b 83bf 73aa cdbf c643 763e
00000100: 4470 4640 00f6 e83e 9c7e 51c0 b8a6 063f
00000110: 67dc 4a40 4ebf 8d3b 6a56 afbf af36 5740
00000120: 661f 853f 8ebd 53bf d785 363f a64a 873c
00000130: 548e 37bd 53a4 9d3f fa7f 97be d79d 30bf
00000140: 81a9 513f 63d1 e63d f821 053e c413 a4be
00000150: cc7c 2fbc c106 383f 7b3f 35be a8ef f53d
00000160: e0c0 46bd 4ab5 e53c 8bb8 51be bf18 963d
00000170: 907c 4cbd b220 553c 988b 11be f6c5 b83d
00000180: 4652 6ebd bace 823e 1dd3 ea3d 2c39 90bf
00000190: aa40 3dbf 7ca8 15bf 4950 523f e7f0 5c3f
000001a0: ae50 b93d 0d46 f8be ca43 ed3d a34a a33e
000001b0: 4706 453a eca3 0ebe 5e1e cfbe 5fc4 163e
000001c0: 78ac 95bc dbff da3d 5b74 ff3d d13a c43e
000001d0: 0e30 24bc 4cff 8dbe 858c edbd bec9 1ebe
000001e0: 4a79 d9bf a811 9b3e 40dc dd3e 4915 afbe
000001f0: f0f2 ad3d 4b5d 37bf 6d8c b73e f988 4c3f
-0.35589328 0.025754781 0.23355132 -0.042804193 0.038616367 -0.42786658 -0.2125374 0.099004604
-0.49345422 0.7160725 -0.5276773 0.4735947 0.3821863 0.782588 0.34754443 1.0864788
-0.48414537 -0.55933213 0.10177701 1.4757943 0.04336514 -0.19259767 0.15671758 -0.029977173
0.07428028 0.09106495 -0.1090734 1.3034903 -0.05217166 0.22298583 0.16103771 -0.020909296
0.039578 0.024388447 0.09329585 -0.10702334 0.021346048 -0.049318064 0.07536263 -0.058236726
-1.056201 0.06396213 0.94201046 1.491128 0.7050942 0.7516641 -1.1038921 -1.4734155
0.020155322 0.11402229 0.08837862 -0.11052779 -0.0078031532 0.14584817 0.11090714 -0.057273094
0.15592314 -0.41828027 -0.17066672 0.6718014 -0.15693514 -1.026712 -1.6067642 0.24049291
3.1006021 0.45500183 -3.2733526 0.5259814 3.1697023 0.004325784 -1.3698246 3.3627126
1.0400207 -0.8271111 0.71297973 0.016515087 -0.04481347 1.2315773 -0.29589826 -0.68990844
0.8189927 0.11270406 0.1300124 -0.3204633 -0.010710906 0.71885306 -0.17699997 0.120086014
-0.048523784 0.028040547 -0.20480554 0.07328939 -0.04992348 0.013008283 -0.14213407 0.09022133
-0.05818393 0.25548345 0.11466048 -1.1267447 -0.73926795 -0.5846021 0.82153755 0.8630509
0.090485916 -0.48490945 0.11585195 0.3189288 0.0007515889 -0.13929719 -0.40452856 0.14723347
-0.018270716 0.10693332 0.12473365 0.38326123 -0.010021223 -0.2773384 -0.115990676 -0.15506646
-1.699014 0.30286908 0.433321 -0.34195927 0.08493602 -0.7162673 0.35849324 0.79896504

arith.constant88 f4 [1, 3, 3, 16]
00000000: 8149 a43f 767a 2d3d f5c1 92be 3926 7abf
00000010: 2704 943e 17b8 2ebe dec5 80be 7d19 c73e
00000020: f12f 0f3c 8560 87bd 7a82 1e3f a9c2 82bf
00000030: 681b cdbc 13e4 29be 4189 6f3e fc16 62be
00000040: 0a08 4dbe 351a 99be 1934 dcbe 2d53 b23e
00000050: 1829 15bf c493 72be 0157 17c0 44cd b83e
00000060: 713d 7cbe b2ad 013e 8f3e 3dbf 8ef3 603f
00000070: 4fd6 d1bd 435b 87ba 9b7f b73e 566b acbe
00000080: 4c39 a63e 6991 963e f0fd 3e3d 65ac 0bbe
00000090: c6ca 4e3f d010 d63d a3bd 883f e204 4e3c
000000a0: a4d8 dd3d ce5d 23be 1362 eebc dbd6 553e
000000b0: 3b62 8bbd ab0c 143d 8d6f 833e 6c5a 8d3c
000000c0: 7443 76bf f97c 20bd 0907 e83e 9c75 ae3d
000000d0: 16a2 a0bf c454 7bbd 6ae9 013f 116a 55bf
000000e0: 28e7 c9bc 0b83 17be b833 82be 485e a0be
000000f0: 7220 bdbd 5324 7b3e 83e1 083f 530a b1be
00000100: 8a66 2e40 117b 2fbf 07a5 81bf 9979 543e
00000110: 3454 e83f 3b57 a8be f640 49bf 05f0 55bf
00000120: 591f d83c 8624 b4bd 9421 3d3f 7938 e63f
00000130: 4c3c 703d 9ef8 7ebe 7dfe b03e e34e 313d
00000140: 7ae0 533e b03b ab3e a62d 15bd 300c 55bf
00000150: d2bb dfbe 4243 dcbd 6910 8f3e adef 39bf
00000160: 87e7 d2bc ad58 4abe 3ef4 39be 171b c43f
00000170: a718 133e e163 3b3f cffb 26bf e2be 263e
00000180: 1a28 3bc0 3ed7 81be a781 ac3f 8c09 a7c0
00000190: 625c ffc0 5448 a5be 23e6 563d 1d64 80be
000001a0: b2e9 a0bd f171 923d 91f7 f8bf 1118 833f
000001b0: 34b9 24bd 6743 18be 4668 47c0 3ffe 16bf
000001c0: f1c9 1a40 f9b7 763d 1992 7b40 99fa 0b41
000001d0: 94ca bf3f ba6b abbe 0449 8940 2e31 993f
000001e0: d6e2 0f3f 0a93 fb3d bae2 5cbf 010c fabf
000001f0: ca91 c73e c41d 083f 06c9 fbbf b08c 04be
00000200: 5ee6 7b3f 045d 8cbf 211b 373e 3c30 d83f
00000210: 1d8d f33f d147 55bf 0d6b cdc0 0041 9f3f
00000220: baaf 75bd 83f2 bb3d fd69 9a3f 80f0 9fc0
00000230: e87c e83e f940 0c40 a13c 253f ed03 db3e
1.2834932 0.042353116 -0.28663602 -0.97714573 0.28909418 -0.17062412 -0.2515096 0.38886634
0.0087394575 -0.066102065 0.6191784 -1.0215656 -0.025037482 -0.1659091 0.23392202 -0.2207908
-0.20022598 -0.29902807 -0.43008497 0.34829083 -0.5826583 -0.2368918 -2.3646853 0.36094105
-0.24632813 0.12663916 -0.7392358 0.87871635 -0.10245954 -0.0010326881 0.35839543 -0.3367564
0.3246559 0.29407814 0.046628892 -0.13639982 0.8077816 0.104524255 1.0682873 0.012574406
0.108323365 -0.15953752 -0.0290995 0.20882742 -0.06805845 0.036144894 0.25671044 0.01725503
-0.96196675 -0.039181683 0.45317867 0.08518526 -1.2549465 -0.061360136 0.50746787 -0.8336497
-0.024646357 -0.14796083 -0.25430083 -0.3132193 -0.09234704 0.24525575 0.53469104 -0.3457819
2.7250085 -0.6854716 -1.0128487 0.20749511 1.8150697 -0.32879052 -0.7861475 -0.83569366
0.026382135 -0.08796029 0.7387936 1.7985984 0.058651254 -0.24899527 0.3456916 0.043288123
0.206911 0.33443975 -0.036420487 -0.8322172 -0.43697983 -0.10755016 0.27942207 -0.7263134
-0.025745166 -0.1976039 -0.18159577 1.5320767 0.14364873 0.7319928 -0.6522798 0.16283754
-2.9243226 -0.2535953 1.3477067 -5.2199154 -7.980027 -0.32281744 0.05246557 -0.2507638
-0.07857074 0.07150639 -1.9450551 1.024172 -0.040215686 -0.14869462 -3.1157393 -0.589817
2.4185755 0.060234044 3.930792 8.748681 1.4983697 -0.33480626 4.290163 1.1968133
0.562055 0.12283905 -0.8628346 -1.9534913 0.38978416 0.5317042 -1.9670722 -0.12944293
0.9839839 -1.0965886 0.17881443 1.688972 1.9027439 -0.8331271 -6.4193177 1.2441711
-0.05998204 0.09177115 1.2063595 -4.998108 0.45407796 2.1914656 0.6454564 0.42776433

arith.constant89 f4 [8, 1, 1, 16]
00000000: 8e31 a6be c7ac be3d c651 13bd f026 57be
00000010: 1cc6 293e 6135 10bd 2308 a3bd 767c b8bc
00000020: 9589 e7bd 1feb f1bd a19b 9e3d 8b8d 9d3e
00000030: 85c9 66bc cf82 d8be 8241 953c a6d7 93be
00000040: e9e5 033e 9297 83bd 1560 43be 6a1b ea3d
00000050: c664 993e c32a 993e 32c3 253e 14a7 063d
00000060: eca4 01bd aa6a d83d f0e0 de3d b301 193d
00000070: a72f 053e f279 02be cc68 883e df85 adbd
00000080: e370 ce3d 0d98 62bd 698d 8abe cc9e 8b3e
00000090: ec84 b13d c5e1 3e3e 2d65 003e 40e9 0dbd
000000a0: cce7 1b3e 0f3f 403e 1022 e4be 53c2 23be
000000b0: d1bb d2bc ad4f 803d 28e0 df3e 40a8 cbbd
000000c0: 772f 7abd ea1a c53d e0dc acbd fb6c 62bd
000000d0: fbd5 e2be 07be f7bd 6513 42be 33e6 c63d
000000e0: e28e 21be 3011 d43d 6650 22bd 4c6e adbd
000000f0: cf3f 88bd f5e0 8bbd 38ac 8a3c 524d 9c3d
00000100: efb4 23bd 84a6 47be eb97 b93e 173d 353e
00000110: 1fcb 903e d282 393d 403b 003d d22b 6f3e
00000120: b58e 593d f228 8cbd 460b c23d 5cc7 3dbe
00000130: 77a1 3b3b 95e7 843e 00fa 7b3d ab2a 483d
00000140: 5219 4d3e 7850 ce3e 33ef e8be 0f9a e53d
00000150: 52aa ad3d c8f3 d4be ac26 8e3e d69c 90be
00000160: fc0b b93e 7fb2 a13e 253c 92be 655f 213e
00000170: ea18 933e ab34 133e 0840 3a3e da5a 10be
00000180: 3ce9 6dbe b019 053e 5c4a dfbd ebc8 84be
00000190: 524e cb3e debf c6bc a5d3 f63e c3be 2cbe
000001a0: 1dc4 333e fac7 99bd 6529 acbd 3966 063e
000001b0: bdf0 243d d64f cc3d b5a6 903e 2c92 de3c
000001c0: 786a 303e 6338 f1bd 28e0 a83e 13b3 9d3e
000001d0: 1516 373d a7f4 b1bd 2dd5 ef3c c254 423d
000001e0: 5c47 0c3e 9fb8 2cbe cdab 52be f01d 2ebe
000001f0: 299c a53d a87e 4a3d f37d 85be 56b4 363e
-0.32459682 0.093102984 -0.035966657 -0.21010947 0.16579479 -0.035207156 -0.07960536 -0.022520285
-0.113055386 -0.11812424 0.077445276 0.3077205 -0.014086132 -0.422873 0.018219713 -0.28875464
0.12880673 -0.06425394 -0.19079621 0.1143101 0.29959697 0.29915437 0.16187742 0.032874182
-0.031651422 0.105672196 0.10882747 0.037355136 0.13006459 -0.12741831 0.26642454 -0.084727995
0.10080125 -0.05532079 -0.27061012 0.2726959 0.08667931 0.18640812 0.12538595 -0.034646273
0.15225142 0.18774055 -0.44557238 -0.15992098 -0.025724323 0.06265197 0.43725705 -0.099442005
-0.061080422 0.09624274 -0.08440566 -0.055279713 -0.4430388 -0.12096792 -0.18952711 0.09711876
-0.15777162 0.10354841 -0.039627455 -0.08468303 -0.066527955 -0.068300165 0.016927823 0.07631935
-0.039967474 -0.19497114 0.36248717 0.17699085 0.2827997 0.045290776 0.031306505 0.2335656
0.05311461 -0.06843747 0.094748065 -0.18533081 0.0028630176 0.25957933 0.061517715 0.048868816
0.2002919 0.40295768 -0.45494995 0.11211025 0.08479752 -0.4159224 0.2776388 -0.28244656
0.36141956 0.31581494 -0.28561512 0.15759046 0.28729945 0.1437556 0.18188488 -0.14097157
-0.23233503 0.1299808 -0.10902855 -0.25934538 0.3970819 -0.024261411 0.48208347 -0.16869645
0.1755528 -0.075088456 -0.08406333 0.13124932 0.04026865 0.09976165 0.28252187 0.02716931
0.17228115 -0.11778333 0.32983518 0.30800685 0.044698793 -0.08689242 0.029276455 0.047444113
0.13699096 -0.16867302 -0.2057335 -0.17003608 0.08086426 0.049437195 -0.26072654 0.1784223

arith.constant90 f4 [8, 1, 3, 1]
00000000: 9eb4 d83e 1348 0abd 9d67 2abf cae7 523e
00000010: 91e7 4dbc 8101 a43e d68d 793e d10f 753e
00000020: f6a5 ef3e 2ab5 023f 557e 263e efbc c7be
00000030: aa02 033f 5f24 2ebe 3dd2 1b3d 3a46 94bd
00000040: e321 253e bb3c df3e 26b1 043f be1d db3e
00000050: 7fe4 093f 8e1a 233e d6ef 853e d4a3 b9be
0.423253 -0.03376014 -0.6656435 0.20596233 -0.012567417 0.32032397 0.24370512 0.23931815
0.46806306 0.51057684 0.1625913 -0.39011332 0.5117594 -0.17006062 0.038042296 -0.07239957
0.16126208 0.4360102 0.5183281 0.4279613 0.5386428 0.15928099 0.26159543 -0.36257803

arith.constant91 f4 [8, 1, 1, 8]
00000000: 99cd d5ba fd52 1f3d e42b f73e 4910 66be
00000010: 2694 17be f0e1 14be 8987 0dbe a67a 6b3d
00000020: 8246 97bc dfd1 c6be 389d 0cbb a269 613e
00000030: 691b 263e ff1e bf3c 46a1 e8bd 1983 293e
00000040: 985b a3be afd3 553d e6f6 16bd 299c 8d3e
00000050: 140a 7b3d 6d17 2cbe 1092 07be 748c 303e
00000060: 114a 31bf 05b7 973e c52e 6abe 34ac 01bf
00000070: 61d0 653e 03af 7dbc 811f 13bd 58c7 5b3d
00000080: 4c18 b23e 6c24 fb3e 3dc4 bebe 9ebe fb3d
00000090: 82fa 1fbe 697b 373e 7dba 573f 39fc c6be
000000a0: 4b5d 953e c7be b0be d515 45be b3f2 353e
000000b0: 6ee2 5fbe 03c4 4fbf d6f1 9abd d39b 78bd
000000c0: f785 523e 5e9d b93d b442 c8bd da51 97be
000000d0: 0996 09bf 4106 553d 3227 653d 2951 be3e
000000e0: c024 d7bd c9e7 4bbc b683 fe3e 1324 39bf
000000f0: 0c39 23bd 0ef2 9abd 2e3c 13bf fdc2 1a3e
-0.0016311883 0.038897503 0.48275673 -0.2246715 -0.14802608 -0.14539313 -0.13821234 0.057490014
-0.018466238 -0.38831994 -0.0021456014 0.22012952 0.16221394 0.02333021 -0.113588855 0.16553916
-0.31905818 0.05220383 -0.036856554 0.27658203 0.061288908 -0.16805811 -0.13239312 0.17241079
-0.6925364 0.2963182 -0.22869404 -0.50653386 0.22442771 -0.015483621 -0.035918716 0.053656906
0.34784162 0.49051225 -0.37259093 0.12292217 -0.15622905 0.17918171 0.84268934 -0.38864306
0.2917274 -0.34520552 -0.1924661 0.17768364 -0.2186372 -0.81158465 -0.07565658 -0.06069548
0.20558916 0.090632185 -0.097783476 -0.29554635 -0.5374456 0.052007917 0.055945583 0.37171295
-0.105050564 -0.012445399 0.49709862 -0.7232067 -0.039849326 -0.075656995 -0.575137 0.15113445

arith.constant92 f4 [16, 1, 1, 8]
00000000: 6b3a 8ebc 0c2a b4be 8c61 18bf a12e c93c
00000010: f7e0 2d3e a69b 3c3f 9122 073f 6dcb df3c
00000020: 43d5 22bf fe42 a33c 1c66 2b3f 39ac 073e
00000030: 4e86 853e df56 ca3e 1d5d 2fbf 6960 c1be
00000040: 9feb b8bf 0365 71c0 964e a33f 4b28 18be
00000050: 7e0d 38bf 0922 ff3f 1662 123f 8f47 acbe
00000060: 52c8 613f 1d82 21be 3777 8c3f a96c 81be
00000070: 72fb c63f 5552 da3e 78e0 04be 9d62 98bd
00000080: e773 9cbc d8dc f23d 53d8 cfbf e6d2 25bd
00000090: 0434 0fbe 1514 253f 9463 213f 7c79 11be
000000a0: 6cff 393d 4fe8 34be 8bb0 bdbd b08c b9bd
000000b0: 85fb f93d 2e35 9d3e b10e fcbd 8ebf 6abf
000000c0: 52db bebe 5f80 efbe c7ec 36be 3563 94bd
000000d0: ea4f 413f 9268 1a3f a424 883f b1e6 03bf
000000e0: 7c4f 893d 1c5d 0e40 bf09 42bd b4da 953d
000000f0: fb28 623e 8906 cabe 89eb e03e d827 983e
00000100: ee8f 553e c50f 263f db74 d23f 1550 3fbf
00000110: dda7 68bf 15f6 3240 0bb8 b63e abc9 7bbd
00000120: 91bd 07bf ce8b 353f 572a 993e 7708 913e
00000130: e149 e73e 2069 b43e 8213 2abf a23a dfbd
00000140: 00f8 84be 1d51 9e3f df9f 473e b820 dbbd
00000150: 567d da3e f860 9a3e 0f06 863e 9f4e 1fbe
00000160: 16d7 fabd 6a63 d93e 9fa2 b8bb 5a4b 853c
00000170: 2554 d33e 12ac 14be 4f27 4a3e 63a8 04be
00000180: 43de 0bc0 b7d8 1abf 8fc7 023d b020 fc3d
00000190: c4d4 80be 0cde 8abf 1917 4e3f 7aab c83c
000001a0: d76a 46bf f8d7 273f 8085 1940 b639 123f
000001b0: 1d6d 27bf 7ce7 fc3e 0949 8fbf 1256 4b3f
000001c0: c189 6c3d af75 89bf b9db bebd dd9d ef3e
000001d0: cdca 1d3f 0280 ebbf 3a63 d3be cd51 e4be
000001e0: 5415 39bf 8a8a 77bf bb98 933f f0c6 093f
000001f0: a561 333f 507c afbf 0010 32bf 9ab6 813f
-0.01736184 -0.3518833 -0.59523845 0.024558367 0.16980349 0.73675 0.5278712 0.02731868
-0.6360666 0.019929405 0.6695268 0.13249291 0.2607903 0.39519402 -0.68501455 -0.37768868
-1.4446906 -3.7717903 1.2758358 -0.1485912 -0.7189559 1.9932262 0.5718092 -0.33648345
0.8819629 -0.1577229 1.0973881 -0.25278214 1.5545485 0.4264094 -0.12976253 -0.07440684
-0.019098235 0.11858529 -1.6237892 -0.04048433 -0.13984686 0.6448377 0.6304257 -0.14206499
0.045409605 -0.17666744 -0.092621885 -0.09060037 0.12206177 0.30704635 -0.1230749 -0.9169854
-0.37276703 -0.46777627 -0.17863761 -0.07245485 0.75512564 0.6031581 1.0636182 -0.5152388
0.067046136 2.224433 -0.047372576 0.07317105 0.22085945 -0.3945811 0.439297 0.29717898
0.20855686 0.6486781 1.6441911 -0.7473157 -0.9088114 2.7962697 0.3568729 -0.061471622
-0.5302363 0.7091645 0.29915115 0.2832677 0.45173553 0.35236454 -0.66436017 -0.10899855
-0.2597046 1.2368504 0.1949458 -0.106996 0.4267375 0.30152106 0.26176497 -0.15557335
-0.12248056 0.4245866 -0.0056346203 0.016271282 0.41275135 -0.14518765 0.19741558 -0.1295486
-2.1854408 -0.6048693 0.031928595 0.12310922 -0.25162327 -1.0849013 0.80503994 0.024495829
-0.77506775 0.6556392 2.3987732 0.5711931 -0.6540087 0.4939536 -1.1194164 0.7942821
0.05774856 -1.0739039 -0.093192525 0.46800128 0.61637574 -1.839844 -0.4128664 -0.4459366
-0.7229817 -0.9669577 1.1530985 0.5381918 0.7007087 -1.3709812 -0.69555664 1.013385

arith.constant93 f4 [1, 3, 3, 16]
00000000: 2c5b 86bf 7c6e 85be 4afb 313f 9ead 2dbe
00000010: c29a 3ebf 312c 703f 3cf5 f13c 139c 4ebe
00000020: 0c0b 193e c6c2 18be 007d fabe cc59 e73f
00000030: fc3e a0be 7478 01be d312 86bd d118 80bd
00000040: b83d f23d 24d8 e1be 6529 033f 649b 26bd
00000050: fbcd babe af1d 01bf 62b0 733e 299a c4be
00000060: f354 9c3e 0f05 c03e 4227 29bf 055e 02bf
00000070: 1778 12be a07e f23d 1195 0fbf b9f0 0c3f
00000080: 71af 3c3e 3a10 4dbd d7e9 5e3f 02ce 4e3e
00000090: f7f4 3dbe 7277 413e cb3b 8bbe 35cc ce3e
000000a0: 82a9 26bd d93c 9ebd e5e3 a93f b4bc 8fbf
000000b0: 8a66 c3be 0040 d13d 2282 4e3e f83c e93d
000000c0: e089 ec3d 2b5c 3b3e 4cf2 393d 9d20 b8be
000000d0: 6033 5fbd 9049 953c d3b4 3abe 8e77 5f3e
000000e0: 80e1 003e ae27 cf3c d31c 0b3d 5fc3 3c3e
000000f0: 9b88 bf3c 7b45 8fbe 574d 11bd 8ddb 89b8
00000100: d244 443e 3969 1bbf f012 e03e 57db fc3d
00000110: 9bd5 f83e 3f1a 1abe 6610 023f 940e 59bf
00000120: 9f12 78bd 5810 c53e b78c 16bf 2972 c8bf
00000130: 78e8 f0bc 033e 86be 314c d23e 2679 4cbd
00000140: 7770 e53f 9448 84bd f960 273f 36f2 023e
00000150: 9824 943d 73ca 183f ef1d b2bf 62b9 123f
00000160: 8623 4ebe 76dc 8ebe c3e2 523f 047a 66c0
00000170: 034c 1fbe 3341 2c3e fa8b e93a b6f7 813c
00000180: 40f8 053f 7ff0 1d3e 91e6 31bf 0bf5 92bf
00000190: 9634 bbbf 3b49 d0bf 8a5a c53f 1392 da3e
000001a0: 3206 193f fe71 77bc 5b6a 7b3f 5d20 0bc0
000001b0: 3504 b83f 3d12 1bbf b471 ad3e 8bb8 803d
000001c0: a0bb c63f 3695 2bbf 426b 17bf 101f 603e
000001d0: 0074 4e3e 557a 0f40 404c b23f 3f65 90be
000001e0: a9bb 943f 9a21 f53e 847b aa3f b77e a33f
000001f0: ea57 2d3f e855 a93e 641d 843f e6ab 81bf
00000200: a181 ff3f 6f09 a6be c10c a0bf e558 8a3e
00000210: 19f5 aebf 0269 e3bf 97c5 05bf bc0f c3be
00000220: eeb3 3e3e 7c6e 2abf fdd8 01c0 0188 4240
00000230: 0a8b 143f 3c0d 653e bd7e 693d c1af 5fbf
-1.0496573 -0.26060855 0.6952406 -0.16960761 -0.7445489 0.9381743 0.029535882 -0.20176725
0.1494562 -0.1491805 -0.48923492 1.8074279 -0.31298053 -0.12643605 -0.06546559 -0.06254733
0.11828178 -0.44110215 0.5123504 -0.040675536 -0.36485276 -0.5043592 0.23797753 -0.38398865
0.3053356 0.3750386 -0.6607553 -0.5092471 -0.14303623 0.11840558 -0.5608683 0.55054814
0.184263 -0.050064303 0.8707556 0.20195773 -0.18550478 0.18893221 -0.27194056 0.40390173
-0.040689 -0.077264495 1.3272673 -1.1229463 -0.3816417 0.10217285 0.20166829 0.11388582
0.11549735 0.18296878 0.045397088 -0.35962382 -0.054492354 0.018223554 -0.18233041 0.2182295
0.12586021 0.025287475 0.033963036 0.18433903 0.023380568 -0.27982697 -0.035474148 -6.5735636e-05
0.19166878 -0.6070743 0.43764448 0.12346523 0.48600468 -0.15049075 0.5080627 -0.8478787
-0.060564633 0.38489032 -0.58808464 -1.5659839 -0.029407725 -0.26219186 0.41073754 -0.049920224
1.7924947 -0.06459156 0.65382344 0.12787709 0.07233542 0.59683913 -1.3915385 0.5731412
-0.20130739 -0.27902573 0.8237726 -3.6011972 -0.1555634 0.16821747 0.0017818206 0.015865188
0.52331924 0.15423773 -0.6949244 -1.1481031 -1.4625423 -1.6272348 1.5418255 0.4268957
0.5977508 -0.015102861 0.9820916 -2.1738503 1.4376284 -0.60574704 0.3387581 0.06285199
1.5526009 -0.6702455 -0.5914804 0.2188685 0.20161438 2.2418416 1.392952 -0.28202245
1.1619769 0.47877198 1.3318944 1.2773045 0.6771227 0.33073354 1.0321469 -1.0130584
1.9961435 -0.32429072 -1.2503892 0.27020946 -1.3668548 -1.7766421 -0.52254623 -0.38097942
0.18623325 -0.66574836 -2.028869 3.039551 0.58024657 0.2236833 0.057005633 -0.87377554

arith.constant94 f4 [8, 1, 1, 16]
00000000: cf16 f9bd bae0 cd3d e09e 7ebd fb7d d8be
00000010: 4304 7e3e c480 983e 9606 72be bef7 c53d
00000020: 1af1 03be cedb 8abe 0412 433d b17a 823d
00000030: a2c6 b1bd 01d3 e9be 9173 30bd 93c0 a1bd
00000040: 2734 983c ff87 3e3e d7ff f1bd c3fd 3f3f
00000050: 907a 86be 9f6b 0e3e 40c4 8a3e e8fc ebbc
00000060: 3163 be3e e574 053d dab7 513e c379 773e
00000070: 4d1d 703e 42b6 8a3e 8f86 53bd 5b4d afbe
00000080: 2562 41bf 5b4a ddbe ff17 a43e 74a1 3abe
00000090: 4064 3cbe 0726 dc3d 0d37 ffbe fd9d a63d
000000a0: 4378 393e 4d32 7abe a53d 34be a95e 9c3e
000000b0: e574 d8be 049e ca3e c81e 4dbe 7002 713e
000000c0: 592a 4b3f 2183 913d 2db1 0c3d f3f6 bd3e
000000d0: c11b 26bf 3eae bb3d c900 e5be 9f19 903c
000000e0: 3ef9 39be 4a0f c63e 272f 54bc 1356 f53e
000000f0: 538b 75be ea0c 91bd 93de 753e 10cf 233f
00000100: 5438 503d 1608 503e 052d 953e f278 12be
00000110: cbcd 87be 8250 8a3d 828e 033f 3bae 6bbe
00000120: c5c9 613d 3023 9bbe 4dc3 6ebe d885 ed3d
00000130: 587f b3be d47c 013e 1d9e a93e abef df3e
00000140: d539 3ebe 1d21 e2bc d00c 05be e651 dbbe
00000150: b907 c03e bf9e f13d 2565 acbd fe6c 103e
00000160: 28d7 5d3e 9f8a 03bd ffd9 a73e 7d43 4cbe
00000170: 7121 f33d 2497 ebbe 8b32 a0bd d395 3c3e
00000180: bbeb 53bc ac6f b63e 5e96 8a3d 6d34 26bc
00000190: 457d ce3c 1c33 31be a213 363e 9a66 b1be
000001a0: 0b3e 203e 5d1c 01be c9e2 333e c7b0 243e
000001b0: b0d5 803c ac16 0ebe 094c 60be 56eb 053e
000001c0: 9e4f de3c 46ff b03e 2011 cb3e 044c 3abd
000001d0: da27 0a3e cbe2 6dbe 18f0 393d 999f a2bd
000001e0: b654 20be f2d4 48bb 1bb5 a7be cb38 b03d
000001f0: 3d66 abbe a945 a3be 768e 0a3e 5588 3abe
-0.121625535 0.10052629 -0.062163234 -0.42283615 0.24806313 0.2978574 -0.23635325 0.09666394
-0.12884942 -0.27120823 0.047624603 0.06371058 -0.08680464 -0.45668796 -0.043078963 -0.07898059
0.018579556 0.18606566 -0.11816376 0.74996585 -0.26265383 0.13908242 0.27102852 -0.028807119
0.37185052 0.032582182 0.2048029 0.24167542 0.23448677 0.27092177 -0.051641997 -0.34238705
-0.7554038 -0.4322079 0.32049558 -0.18225652 -0.18397617 0.10749441 -0.49846688 0.081356026
0.18112282 -0.2443325 -0.1760164 0.3054097 -0.42276683 0.3957368 -0.20031273 0.23536086
0.7936149 0.07105089 0.034348655 0.3710247 -0.648861 0.091640934 -0.44727162 0.017590342
-0.18161485 0.3868354 -0.012950695 0.47917232 -0.23978929 -0.07082541 0.24010687 0.6398783
0.05083497 0.20315585 0.2913591 -0.1430395 -0.26524195 0.06753637 0.51389325 -0.23015682
0.055124063 -0.30300283 -0.23316689 0.11597794 -0.35058093 0.12645274 0.33128443 0.4373754
-0.18576749 -0.02760368 -0.12993169 -0.4283592 0.37505892 0.117978565 -0.08417729 0.14104077
0.21664107 -0.03211462 0.32783505 -0.1994762 0.11871613 -0.4601375 -0.0782214 0.18416528
-0.0129346205 0.35632074 0.067669615 -0.010144335 0.025206218 -0.17304653 0.17780927 -0.3464859
0.15648668 -0.12608476 0.1756698 0.1608306 0.015726894 -0.13875836 -0.21904005 0.13078055
0.027137574 0.34569758 0.39661503 -0.04548265 0.13491765 -0.23231046 0.045394987 -0.07940597
-0.15657315 -0.0030644503 -0.3275536 0.086045824 -0.3347644 -0.31889084 0.13530907 -0.18216069

arith.constant95 f4 [8, 1, 3, 1]
00000000: 36b0 bbbd ecc1 363b 676e ccbe d117 b53e
00000010: 3c41 de3e fd23 4c3f f6c3 b4bc f66c 7dbd
00000020: ac60 63bf 5ff9 f3bc c79e 76bd ca79 273f
00000030: 8c22 a7be 1ce4 f0bd 11b1 debe f387 123f
00000040: be1d e3be d4c1 1bbf f3f3 f93e 758e 18bc
00000050: e6b9 20bf 94d4 ad3e 67ae 04be 9e70 1a3f
-0.09164469 0.0027886583 -0.3992798 0.35369733 0.43409145 0.79742414 -0.022066098 -0.06187149
-0.88819385 -0.029781995 -0.060210016 0.6542021 -0.32643545 -0.117622584 -0.43494466 0.5723869
-0.4435863 -0.60842633 0.4881893 -0.009311308 -0.6278366 0.33951247 -0.12957154 0.6032809

arith.constant96 f4 [8, 1, 1, 8]
00000000: 9ffc 733e 88b2 e9be 74da 0bbe 7e5d 89be
00000010: 1b3f 2bbe 2175 8ebd cc38 87be 31ba a03e
00000020: 1f7a 9b3e c0fd 1a3f ebb9 49bf a025 34bf
00000030: 7115 e73e b10c ab3d fcff 01bc 62d9 a63e
00000040: 3622 c6be cd3e c83d a77c 313e 747e fcbd
00000050: ee4f c8bd 5c0b d6bc ee93 96bd 58aa 59be
00000060: c88f 5cbe 2e45 a6be f453 083e 8686 efbe
00000070: f8b0 df3d 5f06 f9bc 237b 523e 9c0a 8e3e
00000080: 6694 393f 0038 a43c 8849 e53e 89bd 0a3f
00000090: e16a 833e d879 c73e c920 e4be 10a1 223f
000000a0: df77 30bf ac5f 55be f712 20bf 57c7 b1be
000000b0: 9dbb a83e e2b6 333f 4045 523d 29bf 27be
000000c0: 3302 dc3d 2886 71be 6495 dc3e 310e 523e
000000d0: d26a cbbe 4ceb 773c 8cf8 94be 6439 22be
000000e0: 67dd a93e 1afc a73d 554e 5ebe 3a0c bcbe
000000f0: 746f d43d 95e0 093e fa31 0d3f abf9 01bf
0.23826836 -0.4564402 -0.13657552 -0.2682914 -0.16723292 -0.06955934 -0.2641052 0.31392053
0.30366609 0.6054344 -0.78799313 -0.7036991 0.45133546 0.0835203 -0.007934567 0.32587725
-0.38697976 0.09777603 0.17332707 -0.123288065 -0.097808704 -0.026128463 -0.07352434 -0.21256387
-0.21539223 -0.32474655 0.13313276 -0.4678232 0.10922426 -0.030398546 0.20554785 0.2774247
0.72492063 0.020046234 0.44782662 0.5419546 0.2566748 0.38960147 -0.44556263 0.6352701
-0.6893291 -0.20837277 -0.6252894 -0.34722397 0.32955638 0.7020093 0.051335573 -0.16381516
0.10742607 -0.23586333 0.43082726 0.20513226 -0.39729935 0.015131783 -0.29095876 -0.15842205
0.3317673 0.082023814 -0.21709569 -0.36728078 0.103728205 0.13464577 0.55154383 -0.5077159

arith.constant97 f4 [16, 1, 1, 8]
00000000: fc46 3a3e b534 423f 3b7f 9d3e 7635 05bd
00000010: b57f fbbe ec0d 11be 8d65 c13d 6393 de3b
00000020: 5374 053f c77f 9dbe ddf6 64bd 5ff9 83bf
00000030: 7e8e 023e 26c9 e53f 1eca 703d 3e28 be3e
00000040: 2589 cc3e 530d c9bf 6b7b 43bf fefc 653f
00000050: bfc4 55bf bb3a 733e 7fd8 eabd f342 03bf
00000060: 48e3 9abe 9a72 903e 642c 60be fd81 a83f
00000070: eda5 27bf 7657 1a3f 50e1 583e 0700 cfbd
00000080: 5939 d4bd 50d4 b3be 9182 95be 3dcc aa3e
00000090: f25e 303d a276 3bbd 24ed b4be 25b9 16be
000000a0: ce14 68bf c1c6 23bf 8d1e 223f eafb 87bd
000000b0: cfba 433f 0593 3b3e 72a2 193f 1302 9b3f
000000c0: f110 fe3f 3c29 003f a149 74bf 9501 d8bc
000000d0: c696 62bf 0785 e03f 8b3b 3abf 9708 803e
000000e0: 3451 4e3d e780 66bf 344f 0a3f 3bdd 35bf
000000f0: f68e 003e 6a3e 1fbf 717d a6be f375 2d3e
00000100: c9c2 d9bf 8ff6 debd 05db 7d3f d325 38bf
00000110: 72d0 d73e 893a 57bf 6092 7e3f b09a 55bf
00000120: e637 db3f 3784 fa3c 8502 653f fccb 2fbf
00000130: 32c5 b33d c7b9 6f3d 3bc3 cdbe 0b76 433e
00000140: 9365 4c3f 8939 ed3d 21b7 0c3f 6122 463d
00000150: 618c 0abf df65 51bf f8e2 613d 458b 4d3e
00000160: 2de8 3d3f b326 853e ec1c 9fbf bb6b 943f
00000170: 5dce 503e 6e6a aebf 5add dbbf e39f 4fbe
00000180: 8fdf c4be f06b 70be 0d8e aebe a211 2a3e
00000190: 10ba 723d 6953 523f d0a1 bdbe 3f95 9b3e
000001a0: a2b6 923f 2f27 173f 2a99 a93e 3979 3dbd
000001b0: 5ff9 7c3f f316 a5bf 3063 62bf e167 a4bf
000001c0: ff64 e73f 6897 823f 7148 1d3f 0612 2dc0
000001d0: 964e 523f 695c b73f cab4 cbbf 1b5e 09bf
000001e0: fd57 e8bf 56d0 86bf 3537 60bf 1cb1 2a3e
000001f0: 0665 823f 4666 06c0 5b26 d13f 8650 8a3e
0.18191141 0.75861675 0.30761132 -0.032521687 -0.4912087 -0.14165467 0.094431974 0.006792472
0.5213062 -0.3076155 -0.05589949 -1.0310477 0.12749669 1.7952011 0.058786504 0.37140077
0.39948383 -1.5707191 -0.76360196 0.8983916 -0.83503336 0.23752873 -0.114670746 -0.5127403
-0.30251527 0.28212434 -0.21891934 1.3164669 -0.6548756 0.60289705 0.211797 -0.10107427
-0.10362501 -0.3512292 -0.29201177 0.33358946 0.043059297 -0.045767434 -0.35337174 -0.14719065
-0.90656745 -0.6397515 0.63327867 -0.06639846 0.7645692 0.18317802 0.60013497 1.2110008
1.984892 0.5006292 -0.9542485 -0.026367942 -0.8851131 1.7540597 -0.72747105 0.25006554
0.05037041 -0.9004044 0.54027104 -0.71040696 0.12554535 -0.6220461 -0.3251758 0.16939525
-1.7012569 -0.10886871 0.9916232 -0.71932715 0.4215122 -0.8407369 0.994421 -0.8343916
1.7126434 0.030580623 0.8945697 -0.6867063 0.087778464 0.05852678 -0.40188012 0.19087999
0.7984249 0.115832396 0.5496693 0.04837263 -0.5412045 -0.8179607 0.055148095 0.20072658
0.741824 0.26006088 -1.2430701 1.1595377 0.20391221 -1.362623 -1.7176926 -0.20275836
-0.38451812 -0.23478675 -0.3409275 0.16608289 0.059259474 0.82158524 -0.37037516 0.30387303
1.1461985 0.59044164 0.33124667 -0.046258185 0.9881801 -1.2897629 -0.884326 -1.2844201
1.8077697 1.0202456 0.6143866 -2.704225 0.8215116 1.4325076 -1.5914547 -0.5365922
-1.8151852 -1.0532329 -0.8758424 0.16669124 1.018708 -2.0999923 1.633983 0.2701456

arith.constant98 f4 [1, 3, 3, 16]
00000000: 0cb6 843f 8545 1d3e b7c0 c33e c22a 073f
00000010: 5767 be3d 57ec c5bd 34af 243e dba4 2cbf
00000020: b74e ba3e 9915 59be 7a57 dfbe 7aa6 0cbd
00000030: 49b6 fe3e 12ed 25bc c295 b83e 12bf 773e
00000040: d98d e0bf 4ac4 f5be d460 2a3f 6555 1dbf
00000050: d2bb 1abf 4d01 743e ab15 5dbd af52 81be
00000060: cc0e f93e 11f3 5dbf 703a 49bf 248d 41be
00000070: d111 813e a093 52bd 87b5 39be d61d d43e
00000080: c377 d63f 4d11 07bf 5947 d8bd de7f f83f
00000090: 2846 4f3c 771c 91be 9819 d73d dcce 213f
000000a0: f29b 483e 2ed0 26bf 6c27 47bd c1b7 d0bd
000000b0: c9db e6bd cffe ec3e 6117 58bd d81d 94be
000000c0: 70d4 473e 7230 acbe 68ef 473e 7d7d ff3f
000000d0: e001 383e dae5 c43d 979f 0f3e 1fc5 343f
000000e0: 5268 d8be 0694 6b3e cc76 d7be 77d6 863e
000000f0: 5ce9 50bd 7daa 69bb 0a89 303d c57a e43e
00000100: b09e 1640 930c 41c0 6df7 f83e 5abb 74be
00000110: 21aa 003f 8d51 a53f 0f89 24bd 2668 01be
00000120: 5d99 36be ab22 923e 5f52 34be 3ced 52be
00000130: 9a27 573f 59f5 0c3e dd05 303e 7ceb a43e
00000140: 8be5 873e 5d50 bebf ba46 debd 584c d83e
00000150: ab49 f8be 07c0 c3bf 808d 983e e86f 2bbf
00000160: fdf0 233e d7d6 243c c165 1cbf d8d4 c9bc
00000170: e92d 873f fbd7 96bd 0f4a 97be d40f 08bf
00000180: f7ab 1040 3c3d 333e d21e c9bf c3c0 fd3f
00000190: 1f48 e63f a36c a43d e162 973e 9f80 4440
000001a0: b46d 02be 1473 a63f 730e 9cbf 2298 3e3f
000001b0: 8978 5d3e fe6f 843e 9144 d8bd 1ba7 603e
000001c0: 9941 293f d704 3940 2514 c2bf 23a9 c3c0
000001d0: 6307 d43f 5eb9 89bf f3cc 693e 9fbe f9bf
000001e0: 2b3b 88bf ab9d e3bf 2509 45bf 1ab8 0b3d
000001f0: 1f5f d7bf 69d7 bf3f 3240 703e 288d 543f
00000200: 9a39 adbe e164 d03f daa3 1bbf ce09 27c0
00000210: d246 1d40 1e79 943f f258 883e a4f0 b6bf
00000220: ea67 8fbf 36e3 e7be b410 16bf 6e11 933e
00000230: 5ee0 3e40 3add 973d 6156 873f 69cc 2fbf
1.0368056 0.15358551 0.38232967 0.5279962 0.09297054 -0.09664219 0.1608246 -0.6743905
0.3638818 -0.21199645 -0.43621427 -0.034338452 0.49748448 -0.010127323 0.36051756 0.24193981
-1.7543288 -0.4800132 0.66554 -0.61458427 -0.6044284 0.23828621 -0.053975742 -0.25258395
0.48644102 -0.86699015 -0.78604794 -0.18901497 0.25208905 -0.051410317 -0.18135653 0.41429013
1.6755298 -0.52760774 -0.105604835 1.9414022 0.012651004 -0.2834203 0.105029285 0.6320627
0.19590738 -0.65161407 -0.04862158 -0.10191298 -0.112723894 0.46288154 -0.05275667 -0.2892902
0.19514632 -0.3363071 0.1952492 1.9960171 0.17969465 0.09614153 0.14025722 0.7061328
-0.4226709 0.23005685 -0.42082822 0.263355 -0.0510038 -0.0035654597 0.04309944 0.44624916
2.3534355 -3.0163925 0.4862627 -0.23899594 0.50259596 1.2915512 -0.04016977 -0.12637386
-0.17831941 0.28542075 -0.17609547 -0.2059831 0.840448 0.13765468 0.17189737 0.3221091
0.26542315 -1.4868275 -0.10853334 0.42245746 -0.48493704 -1.5292977 0.29795456 -0.6696763
0.16009898 0.010060987 -0.61092764 -0.024637625 1.0560886 -0.07365414 -0.2954869 -0.5314915
2.260496 0.17503828 -1.5712531 1.9824451 1.799076 0.08028533 0.29567626 3.0703504
-0.12737161 1.3003869 -1.219191 0.74450886 0.21628012 0.25866693 -0.10559953 0.21938746
0.6611572 2.8909204 -1.5162398 -6.1143966 1.6564754 -1.0759695 0.22832088 -1.9511298
-1.0643057 -1.7782491 -0.7696708 0.03411112 -1.6825904 1.4987613 0.23461989 0.8302789
-0.3383301 1.6280786 -0.6079689 -2.6099734 2.4574475 1.1599462 0.2663036 -1.4292188
-1.1203587 -0.45290536 -0.58619237 0.28724235 2.9824443 0.074152425 1.0573236 -0.6867128

arith.constant99 f4 [8, 1, 1, 16]
00000000: baaf 573e 9014 99be 051e 1fbe f35c 0dbf
00000010: 02f2 213e 7536 05be fdc4 d63e 3971 d13e
00000020: ba88 043e c775 b9be 04a9 0fbd 89af 063f
00000030: 1eb3 513b 2293 0dbe f30f 773e 8ef1 8dbe
00000040: 5919 92bc e224 00bf 13f6 d63d a6f9 e8bd
00000050: e76e 70be 4bee 8ebd 65db 99be 2f07 063f
00000060: 935d 0f3e 6aa3 cfbe a34c e7be 533e 48bd
00000070: f0cb 373f d843 71bd 77af 88be 095d f63c
00000080: 8bc9 32bf 8a8a bebe 62e3 ec3e f341 8ebe
00000090: 337a e1bd a0f6 eb3e 4b5a ccbe a53b a6bd
000000a0: 88b3 273f 7e8e 623f 26d0 8dbe 1a96 4e3e
000000b0: e333 1f3e 7c20 953e 2780 d43e 9f71 7ebe
000000c0: 1522 813e 1987 45bf 81fd 4abe 9de4 72bd
000000d0: a41b 83be 48ef 20be 6a24 edbe caf4 a4be
000000e0: 5890 1b3f 6977 f13e bfc0 5c3f f3d2 f93b
000000f0: 63b9 ae3e a4ad b3be c7fa a63e 3c9e 973e
00000100: d8aa a13d 31cc 4dbe 9904 8a3c 29f7 6fbd
00000110: 9375 b4be 1203 c8bd 2350 50be 531e 32be
00000120: 3c42 89be c988 8bbe 1924 203d b897 64be
00000130: 97e5 f03a bd62 83be 882d 30be 89b4 5f3e
00000140: 4797 c4be 02d0 e23e 383b 603e c86d d93e
00000150: 5e33 59bf 96f2 d73e cd83 08be 9bbc e8bd
00000160: 2817 873c 98d2 53bd 3be4 2a3e 2130 1e3e
00000170: 3acc 6d3d 75e7 7abe 51e8 0fbe bcea f03d
00000180: cc69 3abe 6c85 493c 0c0b ad3d f432 9f3e
00000190: 36bb 3cbe 0537 8cbe f90d 093f 07d9 613e
000001a0: 21e6 4fbe 07e9 73be c439 6f3d 1937 1dbf
000001b0: 6e5a a2be 2b39 cebe 63d3 2fbf b1ba da3e
000001c0: 8492 b2bd 5fc7 87bd 5df4 a8be 378c 62be
000001d0: 4b82 713e 7e9b cebc 5a5c e23c 66eb 1abc
000001e0: 94f9 773e 4134 8e3c c9d3 13be c0a9 993c
000001f0: 04ba 793e 6c7b 0ebd 2359 0bbe 3331 30be
0.21063128 -0.298985 -0.15538795 -0.55219954 0.15814975 -0.13009055 0.41947165 0.40906695
0.12942782 -0.3622267 -0.035073295 0.52611595 0.0031997631 -0.13825658 0.24127178 -0.27723354
-0.017834352 -0.5005628 0.10496154 -0.11375742 -0.23479806 -0.069790445 -0.30050197 0.5235471
0.1400054 -0.40554363 -0.45175657 -0.048887562 0.7179556 -0.05890259 -0.2669637 0.03007366
-0.6983878 -0.37215072 0.4626723 -0.2778469 -0.11009636 0.46086597 -0.39912638 -0.08116845
0.6550832 0.88498676 -0.27697867 0.20174447 0.15547137 0.29126346 0.41504022 -0.2484803
0.25221315 -0.7715927 -0.19823267 -0.059300054 -0.25607026 -0.15716279 -0.46316844 -0.3221801
0.60767126 0.47161415 0.8623161 0.007624024 0.34125814 -0.35093415 0.32613203 0.2961291
0.07893914 -0.20097424 0.016847895 -0.05858532 -0.35245952 -0.097662106 -0.2034307 -0.1739438
-0.26808345 -0.27252796 0.039096925 -0.22323501 0.001837897 -0.2566127 -0.17204869 0.21846212
-0.38396665 0.44299322 0.2189759 0.4246657 -0.84844005 0.42177266 -0.13331528 -0.11364099
0.016490534 -0.05171451 0.16688626 0.15448047 0.058056094 -0.24502356 -0.14053465 0.11763522
-0.18204421 0.012299877 0.08449373 0.31093562 -0.1843079 -0.27385727 0.53536946 0.22055446
-0.20302631 -0.23819362 0.0584047 -0.614122 -0.31709617 -0.4027799 -0.68681926 0.4272056
-0.08719352 -0.06629824 -0.32998934 -0.221238 0.23584859 -0.025220629 0.027631927 -0.009455537
0.242163 0.017358901 -0.14436258 0.0187577 0.24387366 -0.034785673 -0.13608222 -0.17206268

arith.constant100 f4 [8, 1, 3, 1]
00000000: 8f3b 46be b16f e03d b462 2a3f a0cc bfbd
00000010: 448a ccbe 902d 88bf 8ad4 d2bc 4f4c c6be
00000020: 5e1b 27bf b2e4 cb3c 1d5c 8b3e 4b84 033f
00000030: cdc0 93be 5cd6 e7be 8d46 3fbf d78e 5b3e
00000040: 30df a23d e92d 433f 8433 4cbd 8b14 f83d
00000050: 3dbc 853f 860d 0bbf b79f bf3e 3c36 023f
-0.19358657 0.109588034 0.6655686 -0.09365201 -0.39949238 -1.0638905 -0.025736112 -0.38730094
-0.65276134 0.024889324 0.27218714 0.5137374 -0.28858033 -0.4528073 -0.74717027 0.21441208
0.07952726 0.7624193 -0.049853817 0.12113293 1.0448071 -0.5431751 0.3742654 0.50864005

arith.constant101 f4 [8, 1, 1, 8]
00000000: c58d cabd 507f 3dbf e106 173e 33c1 c1be
00000010: 9367 103f dee9 44be 9f1a 423d 14c3 a6bc
00000020: a498 babe 5b4c b0be 38c4 dc3d 60e4 cbbe
00000030: d3a3 5cbe c3dd 1abf 1c94 ee3e 2f78 703e
00000040: d5a7 53be 4738 babe a050 ecbd f1f0 823d
00000050: 437c 5d3e f02f 88be 71a3 81bf 4405 a8be
00000060: 34bd 473f e3fd b13e 5063 583f c131 473f
00000070: 0973 153f 0a6d 3dbe d8b1 68bd 3be2 1b3f
00000080: bc3b 153d 995a 543e d882 a63e 2163 be3e
00000090: 550e 21bf 923c 19be 4e5b 11be 210a f33d
000000a0: 90d6 163d 0f41 933e 0e49 033e 5e48 853e
000000b0: 5993 06bf 8cbe 4cbe a0b2 56bd a4ca e0be
000000c0: 4bd8 bcbd 9112 9dbd eb3a 013f b31a 4e3f
000000d0: 5e07 98bf 84b8 71bf de86 d23e d268 ff3d
000000e0: 7145 4c3e 873d 213e 6d0f c33d 9b3b 1b3e
000000f0: 9d93 0bbe 16b7 f4bd f2d6 623f 48b6 033e
-0.09890322 -0.7402239 0.14748718 -0.37842712 0.5640804 -0.19229838 0.04738867 -0.020356692
-0.3644458 -0.34433255 0.10779613 -0.39822674 -0.21546869 -0.6049463 0.46597373 0.23483346
-0.20669492 -0.3637106 -0.115388155 0.06393612 0.21629433 -0.26599073 -1.0128003 -0.32816517
0.78023076 0.34764013 0.8452654 0.77810293 0.58378655 -0.18498626 -0.05681023 0.60892075
0.03643392 0.20737685 0.325217 0.37185004 -0.62912494 -0.14964512 -0.14194986 0.11867166
0.036825716 0.28760573 0.12820837 0.26031774 -0.52568585 -0.19994563 -0.052416444 -0.43904603
-0.09220942 -0.07669557 0.50480527 0.8050949 -1.1877248 -0.94422174 0.4111852 0.12471165
0.19948365 0.15746127 0.095244266 0.15159456 -0.13630529 -0.11948983 0.8860923 0.12862504
